Saved_Models/TSP_1000/scatgnn_layer_2_hid_128_model_240_temp_3.500.pth (torch, 992099 bytes, 24 tensors)

bn0.weight f4 [2]
0	0x3f800000	1.0
1	0x3f800000	1.0

bn0.bias f4 [2]
0	0x00000000	0.0
1	0x00000000	0.0

bn0.running_mean f4 [2]
0	0x00000000	0.0
1	0x00000000	0.0

bn0.running_var f4 [2]
0	0x3f800000	1.0
1	0x3f800000	1.0

in_proj.weight f4 [128, 2]
0	0xbecc049c	-0.39847267
1	0xbf4287fc	-0.75988746
2	0x3f13a2ff	0.5767059
3	0x3f0101c7	0.50393337
4	0x3d05063c	0.03247665
5	0xbf44cecc	-0.76878047
6	0xbebc4b81	-0.36776355
7	0x3d9be59f	0.07612156
8	0x3f7b13f3	0.98077315
9	0xbf330c7a	-0.6994091
10	0x3ee96f8b	0.45592913
11	0x3ea26777	0.31719562
12	0x3bf86e0b	0.0075814775
13	0xbe93e926	-0.28888816
14	0xbf648136	-0.8925966
15	0xbe8a8dbf	-0.2706127
16	0x3f57d449	0.84308296
17	0x3f545bc1	0.82952505
18	0xbeb81a68	-0.35957646
19	0x3e52bfea	0.20581022
20	0xbf0ce5a7	-0.5503792
21	0xbec5446f	-0.38528773
22	0xbebd8ae2	-0.37020022
23	0xbefcd403	-0.49380502
24	0x3ee9400d	0.4555668
25	0x3f7a29a7	0.97719806
26	0xbf5eeefa	-0.870834
27	0x3cc3e726	0.023913931
28	0x3f643183	0.8913805
29	0xbde9d384	-0.114172965
30	0x3efec464	0.4975921
31	0xbf73148c	-0.9495323
32	0xbf3b9823	-0.7327902
33	0xbf0e1968	-0.55507517
34	0x3ea1c584	0.31596005
35	0xbf8090d1	-1.0044194
36	0x3ed7cf37	0.4215028
37	0x3f397d2b	0.72456616
38	0xbef3a226	-0.47584647
39	0x3f286e73	0.6579353
40	0xbe4ecd8a	-0.20195594
41	0xbf58dde2	-0.84713566
42	0x3ef13487	0.47110388
43	0x3b7a0cb0	0.0038154535
44	0x3f588193	0.84572715
45	0xbf3a63d6	-0.7280859
46	0xbe86426d	-0.26222554
47	0x3ea79431	0.3273025
48	0x3f72f4e9	0.94904953
49	0x3e9b0948	0.3028052
50	0xbda2bce1	-0.07946182
51	0x3f2d8c2b	0.67792004
52	0xbf0cb45f	-0.54962724
53	0xbf62a80a	-0.8853766
54	0xbeddcdd2	-0.4332109
55	0x3d8ce59b	0.06879731
56	0xbf6160f9	-0.88038594
57	0xbe49ec68	-0.19719088
58	0xbe470446	-0.19435224
59	0xbeb0f9da	-0.34565622
60	0x3f1f5d5f	0.6225185
61	0xbf63772c	-0.88853717
62	0xbf281c5f	-0.6566829
63	0xbf4b146e	-0.7932805
64	0xbf5b2c9d	-0.8561495
65	0x3f1b0f45	0.60570174
66	0x3f402388	0.75054216
67	0xbe5fb813	-0.21847562
68	0x3ebb826f	0.3662295
69	0x3f410a56	0.75406396
70	0xbe048558	-0.12941492
71	0xbdfc7a63	-0.12328031
72	0xbdde1535	-0.10843889
73	0xbf159a3a	-0.58438456
74	0xbf1d5a29	-0.614657
75	0xbf2cd2ae	-0.6750897
76	0xbdb83219	-0.0899393
77	0x3f4404c1	0.76569754
78	0x3f37ff42	0.7187387
79	0x3e60baf7	0.21946321
80	0xbe842c4f	-0.25815055
81	0x3dd1a08d	0.10235701
82	0xbf15e4a0	-0.5855198
83	0x3d9936a4	0.07481125
84	0x3f0883a5	0.53325874
85	0x3e6a4f00	0.22881699
86	0x3e346ecd	0.17620392
87	0xbf6233d4	-0.88360333
88	0x3e75ba61	0.23996879
89	0x3f79d205	0.9758609
90	0x3f1c958f	0.6116571
91	0xbec84a1b	-0.39119038
92	0x3ee158b3	0.44012985
93	0x3e15d817	0.14633213
94	0x3f409b85	0.75237304
95	0x3f44cd24	0.7687552
96	0x3f461806	0.77380407
97	0x3f325faa	0.6967722
98	0xbe55d641	-0.20882513
99	0xbe76083d	-0.2402658
100	0xbe6e4800	-0.23269653
101	0x3d20ae4c	0.039228722
102	0x3f23e902	0.64027417
103	0x3f7b60b3	0.98194426
104	0x3f1a67eb	0.60314816
105	0xbf0219a0	-0.5082035
106	0x3dd99552	0.10624184
107	0x3ee4a77d	0.44659033
108	0x3ef2e4ba	0.4744013
109	0x3e12c7c4	0.14334017
110	0xbec42ca8	-0.3831532
111	0x3f3ddc93	0.74164695
112	0xbf62ffe6	-0.8867172
113	0x3f424a89	0.7589498
114	0xbf0baaaa	-0.5455729
115	0x3e4edf69	0.20202412
116	0xbefc9264	-0.49330437
117	0x3f522e66	0.8210205
118	0x3f446ab6	0.7672533
119	0xbd196101	-0.037446026
120	0x3f196435	0.5991853
121	0xbdba7d92	-0.09105982
122	0xbeec6fcd	-0.46179047
123	0x3f5e8611	0.8692332
124	0x3f6c1e67	0.9223389
125	0xbe11e902	-0.14249042
126	0x3f34d249	0.7063337
127	0xbe9ac925	-0.30231586
128	0xbf03912d	-0.51393396
129	0x3f68351b	0.9070603
130	0x3f474ccc	0.7785156
131	0x3f5541ca	0.8330351
132	0xbf5b41c4	-0.85647225
133	0x3f27c7d2	0.65539277
134	0xbf840c4a	-1.031625
135	0x3ed9f9bf	0.42573354
136	0x3f222914	0.6334393
137	0xbe9ac299	-0.3022659
138	0x3f6bc969	0.921042
139	0xbe54657a	-0.20741835
140	0xbf268637	-0.65048546
141	0xbf7681f9	-0.9629207
142	0x3ed3d5df	0.41374108
143	0x3f5df5fe	0.8670348
144	0xbf2c7be5	-0.6737655
145	0xbeeead04	-0.46616375
146	0xbf836920	-1.0266457
147	0x3e068ae5	0.13138922
148	0x3f3730f5	0.7155908
149	0xbf4fc9f7	-0.8116755
150	0xbef2ba6d	-0.47407857
151	0xbf2c2657	-0.67246
152	0xbeb03786	-0.3441736
153	0x3f9cdc86	1.2254798
154	0xbf16ac74	-0.5885689
155	0xbd7092a9	-0.058733616
156	0xbeb9dac8	-0.3629973
157	0xbf3e8c74	-0.74433064
158	0x3f3d010c	0.7382972
159	0xbf07b243	-0.5300638
160	0xbf820b48	-1.0159693
161	0x3ee15431	0.44009545
162	0x3f181677	0.5940928
163	0xbdd451cd	-0.10367165
164	0x3e207295	0.1566871
165	0xbf11accf	-0.5690431
166	0xbf433d79	-0.76265675
167	0x3e1de395	0.15418847
168	0xbf2edb24	-0.6830313
169	0xbe0b6997	-0.13614498
170	0xbec40b7f	-0.3829002
171	0x3f66fa8c	0.90226054
172	0x3eabf838	0.33587813
173	0x3f64d6e2	0.89390385
174	0x3f7c6a96	0.9860014
175	0x3f30c955	0.6905721
176	0xbee6cf07	-0.45079824
177	0xbee59f7d	-0.44848242
178	0x3dafbdb8	0.08581108
179	0xbf3b7ad6	-0.7323431
180	0x3f3eb12a	0.7448908
181	0x3f53ae8c	0.8268821
182	0xbf62c87e	-0.88587177
183	0x3f2721d4	0.6528599
184	0x3d3719a7	0.0447022
185	0x3f41e136	0.7573427
186	0xbf2e3726	-0.680529
187	0xbebfd5c2	-0.37467772
188	0xbdff791a	-0.1247427
189	0xbddec144	-0.10876706
190	0xbdf0b35a	-0.117529586
191	0xbeb4d5a8	-0.35319257
192	0xbd9d37d7	-0.07676666
193	0xbf736906	-0.9508213
194	0xbf5e9982	-0.86952984
195	0xbcbdad14	-0.02315382
196	0xbd84ce4b	-0.0648466
197	0xbeb2e680	-0.34941483
198	0xbf2c9599	-0.6741577
199	0x3f42cd60	0.7609463
200	0x3ec26664	0.37968743
201	0xbf8b58cf	-1.0886477
202	0x3f7fd91f	0.99940675
203	0xbe555f95	-0.20837243
204	0x3f3cbde0	0.73727226
205	0xbcecc13c	-0.028900735
206	0x3e75628c	0.23963374
207	0xbf00e62c	-0.50351214
208	0x3e5f0b14	0.2178157
209	0xbf715ecb	-0.9428527
210	0x3f37589d	0.7161959
211	0x3eff3e35	0.49852148
212	0x3e51498d	0.20438214
213	0xbf6f2320	-0.9341297
214	0x3f36154f	0.71126264
215	0xbf1fcadb	-0.6241891
216	0x3d99ea7a	0.07515426
217	0xbf73e725	-0.95274574
218	0xbd313bf5	-0.04327007
219	0xbf711125	-0.94166785
220	0xbedd5069	-0.4322541
221	0xbd452fb6	-0.048141204
222	0x3eb8f40b	0.3612369
223	0x3f81b13e	1.0132215
224	0xbf5696da	-0.8382393
225	0xbf1aeb85	-0.60515624
226	0xbe38128f	-0.1797583
227	0x3f6ee2e3	0.9331495
228	0xbdda77dd	-0.10667393
229	0x3f1e932c	0.61943316
230	0xbed292ca	-0.41127616
231	0x3e2eeb16	0.17081866
232	0xbf26caf1	-0.65153414
233	0x3f0caf7c	0.5495527
234	0x3f4af748	0.7928357
235	0x3e750a1c	0.23929638
236	0x3f55091d	0.8321703
237	0x3e5dd675	0.2166384
238	0x3f8411c2	1.0317919
239	0xbe8c23bc	-0.27371013
240	0x3e8ce841	0.27520946
241	0xbeeb3869	-0.45941475
242	0xbe06b2e2	-0.13154176
243	0x3f69a18b	0.9126212
244	0x3f190c09	0.5978399
245	0xbf744bef	-0.95428365
246	0x3f821ac7	1.0164422
247	0x3deeed44	0.116663486
248	0xbf758c32	-0.95917046
249	0xbe9cd695	-0.30632463
250	0xbf4d3786	-0.8016285
251	0xbf087aee	-0.53312576
252	0xbcfd2c52	-0.030904923
253	0x3f65ebb6	0.8981279
254	0xbe3e599e	-0.18588874
255	0x3f6362f2	0.88822854

in_proj.bias f4 [128]
0	0xbf11e26f	-0.56986135
1	0xbec07268	-0.37587285
2	0xbeb0bd11	-0.34519246
3	0x3f5151af	0.81765264
4	0xbf040fef	-0.5158681
5	0x3e59313e	0.2121019
6	0x3f63f6ec	0.8904865
7	0x3e100e45	0.14067943
8	0xbf5ac696	-0.8545927
9	0x3f0ff6b7	0.5623583
10	0x3f1ce85d	0.6129206
11	0x3f497bce	0.78704536
12	0x3f09caa0	0.53824806
13	0x3e4130cc	0.18866271
14	0xbefebcd4	-0.4975344
15	0xbedd6d71	-0.4324756
16	0xbf502590	-0.81307316
17	0xbf42a513	-0.76033133
18	0x3f373fb6	0.7158159
19	0xbdd28bfa	-0.10280605
20	0xbdeeff01	-0.11669732
21	0xbe39cf48	-0.18145478
22	0x3e1166b7	0.14199339
23	0xbf211b9d	-0.6293276
24	0xbec1596a	-0.3776353
25	0x3f3b5905	0.7318271
26	0xbf6ed97f	-0.9330062
27	0x3f55fb73	0.83586806
28	0x3db7862a	0.08961137
29	0x3f67989c	0.9046724
30	0xbeec7c77	-0.4618871
31	0xbf30a3fb	-0.69000214
32	0x3dcca484	0.09992316
33	0x3f0d411b	0.5517747
34	0xbeb54ff3	-0.3541256
35	0xbf447454	-0.7674
36	0x3e70cb04	0.23514944
37	0xbe17ddb5	-0.14830668
38	0x3e930193	0.2871214
39	0x3e9309dd	0.28718463
40	0xbf510443	-0.8164713
41	0xbf9ab7fb	-1.2087396
42	0xbf4cc54b	-0.79988545
43	0x3f40acc7	0.7526364
44	0x3eb682af	0.3564658
45	0x3e0f0835	0.13967974
46	0xbf89aec9	-1.0756465
47	0x3ee9b108	0.45642877
48	0x3d671608	0.056417495
49	0xbf4c4008	-0.79785204
50	0x3f2c301a	0.672609
51	0xbf0ac181	-0.54201514
52	0xbf1b283f	-0.60608286
53	0x3f298e9b	0.66233224
54	0x3e68fe7f	0.22753333
55	0x3cb3c9c1	0.02194679
56	0xbf2aaa46	-0.66666067
57	0xbf5b114e	-0.8557328
58	0x3f3cb373	0.7371132
59	0x3e880b02	0.26570898
60	0x3e7f1bca	0.24912944
61	0xbefa3985	-0.4887201
62	0x3f1e5677	0.61850685
63	0x3f2e41a6	0.6806892
64	0xbe13ef8d	-0.1444685
65	0x3ef0efa2	0.47057825
66	0x3ac151bf	0.0014749094
67	0x3e79971e	0.24374053
68	0x3f243db8	0.64156675
69	0x3f132fca	0.57494795
70	0x3e7ac5d1	0.24489523
71	0x3ea4cce3	0.32187566
72	0x3f651483	0.89484423
73	0x3bc5fa08	0.006041769
74	0xbee288cf	-0.44245002
75	0x3f694598	0.91121817
76	0x3bc7de90	0.0060995296
77	0xbfa87180	-1.3159637
78	0xbd1a63d0	-0.037692845
79	0x3ea7f3bf	0.3280315
80	0x3e4fc9bf	0.20291804
81	0x3f44f2c9	0.7693296
82	0xbe939d09	-0.28830746
83	0x3d7e2b61	0.062053088
84	0xbf5b6094	-0.8569424
85	0xbf42ca16	-0.7608961
86	0xbec73a04	-0.3891145
87	0xbf53db19	-0.8275619
88	0x3f48c4e0	0.7842541
89	0xbee336e4	-0.44377816
90	0xbea9172d	-0.33025494
91	0x3d85748f	0.065163724
92	0x3e7d2670	0.24721694
93	0xbdf32c6e	-0.11873709
94	0x3f074e28	0.5285363
95	0x3f341103	0.7033846
96	0x3e019937	0.12656103
97	0x3e682d05	0.22673424
98	0xbf24d524	-0.64387727
99	0x3e40acf2	0.18815973
100	0x3da5e635	0.08100549
101	0xbef95dea	-0.48704463
102	0x3e83e226	0.25758475
103	0xbf3d51ae	-0.7395276
104	0x3f305531	0.6887999
105	0x3eae4f81	0.34045032
106	0x3f19d793	0.60094565
107	0x3ebb8f2f	0.36632678
108	0xbf015a3e	-0.50528324
109	0xbbefc7f9	-0.00731754
110	0xbdd9351d	-0.10605834
111	0x3e703f11	0.23461558
112	0x3b66b61c	0.003520376
113	0xbf40b399	-0.75274044
114	0xbef78929	-0.48346832
115	0xbf5358f8	-0.8255763
116	0x3f39bff4	0.7255852
117	0x3ea13674	0.31486857
118	0x3ed5d8f4	0.41767085
119	0x3db5838e	0.08862983
120	0xbec30aab	-0.38094077
121	0x3ec9ec14	0.39437926
122	0x3e773dc3	0.24144654
123	0x3eb9ab5b	0.36263546
124	0x3e46ba9b	0.19407122
125	0xbe09d858	-0.13461435
126	0x3f386824	0.72033906
127	0x3eb453a0	0.3522005

convs.0.a f4 [256, 1]
0	0x3c3ec8d4	0.011644561
1	0x3d5c79be	0.05382704
2	0xbd55aa1d	-0.052164186
3	0xbc115452	-0.008870201
4	0x3b88cae6	0.004174578
5	0xbb102377	-0.0021993795
6	0x3d68f13b	0.05687068
7	0xbdad7b37	-0.08470767
8	0x3d09b8f6	0.033623658
9	0xbc8a25d0	-0.016863734
10	0xbe04167d	-0.12899204
11	0x3d96d694	0.07365146
12	0x3dd2da9d	0.102956034
13	0x3d9baa96	0.07600896
14	0xbd7655a8	-0.060140282
15	0xbcbfc97f	-0.02341151
16	0x3d07ce8d	0.033155967
17	0xbd8511c8	-0.06497532
18	0x3e39829a	0.18116227
19	0x3cefa3e2	0.02925295
20	0x3d8ad119	0.067781635
21	0x3c777e1d	0.015105751
22	0xbd936933	-0.071977995
23	0x3cd30260	0.025757968
24	0x38bd7952	9.03482e-05
25	0x3d97cd37	0.074121885
26	0x3d6299c1	0.055322412
27	0xbd054527	-0.032536652
28	0xbcb11a75	-0.021619061
29	0xbda623ff	-0.081123345
30	0x3bf45968	0.007456947
31	0xbc5b54fa	-0.013386959
32	0xbd233a78	-0.039850682
33	0xbd058953	-0.032601666
34	0x3d6b4aec	0.057444498
35	0x00000000	0.0
36	0x3daa243d	0.08307693
37	0x3cbc7af0	0.02300784
38	0xbaabbd27	-0.0013102636
39	0x3dfee834	0.12446633
40	0x00000000	0.0
41	0xbbe25b94	-0.0069078896
42	0x3c721ba0	0.014777094
43	0xbe23c9fd	-0.15995021
44	0x3e03cc7b	0.12870972
45	0xbc4127e4	-0.011789296
46	0x3b989443	0.004656346
47	0x3c823ffb	0.015899649
48	0x3d8da3aa	0.06915982
49	0xb59c0686	-1.1624804e-06
50	0xbc43f430	-0.011960074
51	0x3d30aeef	0.04313558
52	0xbc6441f3	-0.013931739
53	0x3cac003d	0.020996207
54	0xbd9d074d	-0.07667408
55	0x3d8c4d9e	0.06850742
56	0x3d4a1692	0.04933793
57	0x3cf54261	0.029938878
58	0x3dea442e	0.114387855
59	0x3dab6e96	0.08370702
60	0x3ccabf7b	0.024749508
61	0x3d000082	0.031250484
62	0xbd91f8cf	-0.071275346
63	0xbcd05de1	-0.02543539
64	0x3d102446	0.035190843
65	0x3e0aa229	0.13538422
66	0xbe00492e	-0.12527916
67	0xbe7f0418	-0.24903905
68	0x3e0190e4	0.12652928
69	0xbd2ba940	-0.041909456
70	0xbd664a91	-0.056223456
71	0x3dbc9c78	0.092095315
72	0xbd8dca37	-0.06923335
73	0x3cc4175b	0.023936918
74	0xbd706a07	-0.058694866
75	0xbc3a94d7	-0.011388025
76	0xbb447313	-0.0029975816
77	0x3cd93c9a	0.026518155
78	0xbd98e41b	-0.07465383
79	0x3c180747	0.009279079
80	0x3e1855a3	0.14876418
81	0xbc20d40a	-0.009816179
82	0xbd26b829	-0.040702973
83	0xbcc8f6d2	-0.024531756
84	0x3bb60457	0.0055547166
85	0x3be2071e	0.006897821
86	0x3d82ff30	0.063963294
87	0x3cecccf5	0.028906325
88	0xbe602548	-0.21889222
89	0x3c3eb211	0.011639134
90	0x3dc8993f	0.097948544
91	0xbdde7558	-0.10862225
92	0x3d388669	0.04505006
93	0x3d88c550	0.066782594
94	0xbdd5e54c	-0.104441255
95	0xbda1eade	-0.079061255
96	0xbd426774	-0.04746194
97	0x3ddc2f38	0.10751194
98	0x3ad32919	0.001611027
99	0x3d7731f0	0.06035036
100	0xbe255b61	-0.1614814
101	0xbd369787	-0.0445781
102	0xbdae51f8	-0.08511728
103	0x3c7e7b46	0.01553232
104	0x3c54f253	0.012997228
105	0x3dec10de	0.11526655
106	0x3d96e3b6	0.07367651
107	0x3d767574	0.060170606
108	0x3d6c5eb5	0.057707507
109	0xbdacefe5	-0.08444194
110	0xbcd2078b	-0.025638362
111	0x3e2f1e30	0.1710136
112	0xbe242ae3	-0.16031985
113	0x3dc9781b	0.098373614
114	0x3d09e963	0.03366984
115	0xbb889f42	-0.0041693756
116	0x3de45897	0.1114971
117	0x3dd68aec	0.10475716
118	0x3cb93bfb	0.022611609
119	0xbd103429	-0.035205994
120	0xbc389211	-0.011265294
121	0x3e4304e6	0.19044837
122	0xbcced349	-0.025247233
123	0x3a396ba0	0.00070732273
124	0x3d61f7b5	0.055167872
125	0x3ca8ce2a	0.02060612
126	0x3cc17007	0.02361299
127	0x3dad81ac	0.084719986
128	0xbe17f006	-0.14837655
129	0xbe124cee	-0.14287159
130	0xbe40d354	-0.18830615
131	0x3e33f643	0.1757441
132	0xbe72e9fc	-0.2372207
133	0x3c480f1b	0.012210633
134	0x3e21833e	0.15772721
135	0x3e8a6cb6	0.27036065
136	0xbdfd3974	-0.12364474
137	0x3e05c617	0.13063847
138	0x3e2f2215	0.17102845
139	0x3e32095b	0.17386381
140	0x3d9ce572	0.07660951
141	0x3e2b44aa	0.16725412
142	0xbe5ab805	-0.2135926
143	0xbe16b238	-0.14716423
144	0xbda10dd0	-0.07863963
145	0xbe7ebe7c	-0.24877352
146	0x3e2b7889	0.167452
147	0x3e2aaf2c	0.16668385
148	0x3e6ecaea	0.23319593
149	0xbe365ea7	-0.17809545
150	0x3e64d85f	0.22348164
151	0xbe29ffbc	-0.16601461
152	0xbe72abcf	-0.23698352
153	0x3dfb79c5	0.12279085
154	0xbe1d7f54	-0.15380603
155	0x3e1cac4d	0.15300103
156	0x3e8c2d92	0.27378517
157	0x3e35d9d1	0.17758872
158	0xbe22e574	-0.15907842
159	0xbda616bc	-0.08109805
160	0x3e9f5959	0.31122854
161	0x3da36bb5	0.07979528
162	0xbdfac727	-0.122450165
163	0xbe759d78	-0.23985851
164	0xbd507f75	-0.050902802
165	0x3e0bfd78	0.1367091
166	0x3ce77aed	0.028256858
167	0x3acf8182	0.0015831443
168	0xbd3330e7	-0.04374781
169	0xbd9d0f42	-0.07668926
170	0xbe536c8e	-0.20646879
171	0x3e0457dd	0.12924142
172	0xbba5e6d5	-0.0050629177
173	0x3e4140fe	0.18872449
174	0xbe7bf534	-0.24605256
175	0x3db2d77e	0.08732508
176	0x3e58210a	0.21106353
177	0xbdc6f681	-0.09714986
178	0x3e33ac27	0.1754614
179	0xbdef86ac	-0.116956085
180	0xbe477e2c	-0.19481725
181	0x3e3c0861	0.18362571
182	0x3d049e8d	0.03237777
183	0x3ec15b56	0.37764996
184	0xbe2505c6	-0.16115484
185	0xbdf66d77	-0.120325975
186	0x3de3faa4	0.1113179
187	0x3cacb5d6	0.0210828
188	0x3bb68fd4	0.005571345
189	0xbe2000e4	-0.1562534
190	0x3e058ee5	0.13042791
191	0x3e0eb451	0.13935973
192	0x3e449a3c	0.1919946
193	0x3d85e278	0.06537336
194	0x3ea055de	0.3131551
195	0x3de1634b	0.11005267
196	0x3e1b1391	0.15144183
197	0x3da01a91	0.07817567
198	0x3def0ab7	0.116719656
199	0xbd68be92	-0.056822367
200	0x3e2dcd1e	0.16972777
201	0x3f000e31	0.50021654
202	0xbe5b055d	-0.21388765
203	0x3e3880e7	0.18017922
204	0x3f006ed3	0.50169104
205	0xbd2db258	-0.04240641
206	0x3e76a923	0.24087958
207	0xbc864f86	-0.016395342
208	0x3ddded0f	0.10836231
209	0x3e5b65d6	0.21425566
210	0xbe84d2b6	-0.2594201
211	0x3ea1e456	0.3161952
212	0xbde3e0d2	-0.111268654
213	0xbe1ecfdb	-0.15508978
214	0xbe020280	-0.12696266
215	0xbe246042	-0.16052344
216	0x3e27d9a2	0.16391614
217	0xbe3e55dc	-0.1858744
218	0xbd0c9d93	-0.034329962
219	0x3e8fbacc	0.28072202
220	0xbe02211f	-0.12707947
221	0x3e185679	0.14876737
222	0x3e55e8e6	0.20889625
223	0x3e1d9598	0.15389097
224	0x3ea1d32f	0.31606433
225	0x3e57cbaf	0.21073793
226	0xbe01329e	-0.12616965
227	0x3e9b85ed	0.30375615
228	0x3ecac074	0.39599955
229	0xbe56c7de	-0.20974681
230	0xbb24c31b	-0.0025140706
231	0xbe0d36b5	-0.137904
232	0x3ddee222	0.10882975
233	0x3cb1e6ea	0.021716554
234	0x3d987e3f	0.074459545
235	0xbc8430fa	-0.016136635
236	0xbe4b76c9	-0.19869532
237	0x3f0345e1	0.512785
238	0x3ec0e262	0.37672716
239	0x3e4d6f18	0.2006191
240	0x3ec6d3c8	0.3883345
241	0xbe20a6ff	-0.15688704
242	0xbe38a55f	-0.18031834
243	0xbe0a530e	-0.13508245
244	0x3dfbcab9	0.12294526
245	0x3d255ec6	0.040373586
246	0x3db4ef5e	0.08834718
247	0x3e7b268e	0.24526426
248	0xbe65d0fa	-0.22443
249	0x3cf4d95b	0.0298888
250	0x3e58978e	0.21151564
251	0x3cb2d36e	0.021829333
252	0x3e4ee12f	0.20203088
253	0x3e830ded	0.25596562
254	0x3de8bccd	0.11364136
255	0x3cc9dfc5	0.024642834

convs.0.linear1.weight f4 [128, 128]
0	0xbe43e43f	-0.19130038
1	0x3d35a1f2	0.044343896
2	0xbd9c018d	-0.07617483
3	0x3cfa061f	0.030520497
4	0x3d608b23	0.05482019
5	0x3dabaf90	0.08383095
6	0x3e08b7f3	0.13351421
7	0xbc21ea01	-0.009882451
8	0x3c55d15a	0.013050402
9	0x3d89e5fd	0.0673332
10	0x3c242692	0.0100189615
11	0x3d852f1b	0.06503125
12	0x3bd025cc	0.006352162
13	0xbdb25bcc	-0.08708915
14	0x3d0a658d	0.033788253
15	0xbd2e418a	-0.04254297
16	0xbe127393	-0.143019
17	0x3cd31142	0.025765065
18	0xbc2c1d4b	-0.010505031
19	0x3da62a10	0.081134915
20	0x3de45f82	0.11151029
21	0xbe219b2e	-0.15781853
22	0x3b237f06	0.0024947538
23	0xbe58b362	-0.21162179
24	0x3ba810f5	0.0051289746
25	0x3b00759c	0.001960135
26	0xbe19da2a	-0.15024629
27	0x3da310e8	0.07962209
28	0xbce7500a	-0.028236408
29	0x3d9dc672	0.07703866
30	0xbcb930e5	-0.022606323
31	0xbe047abc	-0.12937444
32	0x3cb45421	0.022012772
33	0xbd5e45f6	-0.05426594
34	0xbe0c5be4	-0.13706928
35	0xbf005d24	-0.5014212
36	0x3cc5a9f6	0.024128895
37	0x3dc8abe8	0.097984135
38	0xbdabe28e	-0.08392821
39	0xbd717907	-0.05895331
40	0xbf13c007	-0.57714885
41	0xbeaf3d6b	-0.34226546
42	0x3e283ec7	0.16430198
43	0x3daf74ed	0.08567224
44	0xbd131d9b	-0.035916906
45	0xbd00cfb0	-0.031448066
46	0x3ec25ea9	0.37962845
47	0x3d48606d	0.048920084
48	0xbcc849ee	-0.024449315
49	0xbeaf5a03	-0.3424836
50	0x3d0ed8d1	0.03487474
51	0x3ce1970e	0.027537849
52	0x3df7573d	0.12077186
53	0x3d80dbe0	0.06291938
54	0xbe21dde1	-0.15807296
55	0x3e704274	0.2346285
56	0xbd075f48	-0.03304985
57	0xbe2da201	-0.16956331
58	0x3de76087	0.11297708
59	0x3d90b950	0.070665956
60	0xbe361395	-0.17780907
61	0xbe11a360	-0.14222479
62	0xbcb48841	-0.022037627
63	0xbd892609	-0.06696708
64	0x3d12fdb8	0.035886496
65	0x3e226b48	0.15861237
66	0x3de9aebd	0.11410282
67	0x3d0c4630	0.034246624
68	0x3ccebf69	0.025237756
69	0xbc458788	-0.012056239
70	0x3e030496	0.12794718
71	0x3e107065	0.14105375
72	0x3daaa8cf	0.08332979
73	0x3da6fa4a	0.081532076
74	0x3d9811f1	0.07425297
75	0x3cd0f43b	0.025507083
76	0x3d922b16	0.07137124
77	0xbea262f6	-0.31716126
78	0x3e046e94	0.12932807
79	0x3daa379a	0.083113864
80	0x3e0226fb	0.12710182
81	0x3d49029c	0.049074754
82	0xbd57415e	-0.052552573
83	0xbda082c7	-0.07837444
84	0xbea0fcaf	-0.31442782
85	0xbd3f6fd8	-0.046737522
86	0x3bab5296	0.005228351
87	0x3df579fa	0.11986156
88	0x3e248cfc	0.16069406
89	0xbd8d92f7	-0.06912797
90	0x3d5115ee	0.051046304
91	0xbcf358e1	-0.029705467
92	0x3d01df90	0.031707346
93	0xbbc3eeb2	-0.0059793824
94	0x3e0c777b	0.13717453
95	0x3d434024	0.04766859
96	0x3d649473	0.055805635
97	0xbd3e3b92	-0.04644353
98	0xbe64c35c	-0.22340149
99	0x3dddb79d	0.10826037
100	0x3e5c6c72	0.21525744
101	0xbcd94adb	-0.026524952
102	0x3cc06982	0.02348781
103	0xbd4d7ca3	-0.05016769
104	0x3d9c0ee3	0.07620027
105	0xbd9839ac	-0.07432875
106	0x3ce27dc7	0.027647866
107	0xbc8a3eb1	-0.016875597
108	0xbd2433c1	-0.04008842
109	0x3d6083a8	0.054813057
110	0xbe49b791	-0.19698931
111	0x3d1d0831	0.03833789
112	0x3d13110a	0.03590492
113	0xbe1dfc79	-0.15428342
114	0xbd157157	-0.036485042
115	0xbe95db45	-0.29268852
116	0x3ca43c85	0.02004839
117	0x3de2cf18	0.11074656
118	0xbc5bc9ab	-0.013414781
119	0x3de6d438	0.11270946
120	0x3dae56cb	0.08512648
121	0xbcc65f72	-0.024215434
122	0x3c282148	0.010261841
123	0xbd448b26	-0.047984265
124	0x3daf8c76	0.08571713
125	0xbc3aa5d3	-0.011392075
126	0xbd443992	-0.047906466
127	0xbd2c3510	-0.04204279
128	0xbe34860d	-0.17629261
129	0xbdc00dcf	-0.09377634
130	0xbdcbd2c9	-0.099523135
131	0xbcabc6bd	-0.02096879
132	0x3cc866cb	0.024463078
133	0xbdaad0c8	-0.08340603
134	0x3e0aa388	0.13538945
135	0x3d2e8c59	0.042614315
136	0x3d9aded4	0.07562032
137	0x3ceed09d	0.029152209
138	0x3ccab52b	0.02474459
139	0x3d87efa7	0.06637507
140	0xbc526167	-0.012840605
141	0xbd2b444c	-0.04181318
142	0xbc600110	-0.013672128
143	0x3d87b1b2	0.066256896
144	0xbe8c43b0	-0.2739539
145	0x3d026cf3	0.031842183
146	0x3dae1fe0	0.085021734
147	0x3de203e4	0.11035898
148	0xbb104d69	-0.0022018796
149	0xbe365364	-0.17805248
150	0xbccbfdd8	-0.024901316
151	0xbd743bbc	-0.05962728
152	0xbd841c28	-0.06450683
153	0xbc854944	-0.016270287
154	0xbd516421	-0.05112088
155	0xbcb756e3	-0.022380298
156	0xbd7d021e	-0.061769597
157	0x3d9982a1	0.074956186
158	0xbbb8c1cc	-0.0056383368
159	0xbe3f238e	-0.18665907
160	0xbd0f98a7	-0.03505769
161	0xbdb0c057	-0.08630436
162	0x3c7ceaf9	0.015436881
163	0xbee3224b	-0.443621
164	0x3cb467ab	0.022022089
165	0xbd51dd32	-0.05123634
166	0xbcfcd8b1	-0.030865045
167	0xbe4cbb11	-0.19993235
168	0xbef4e2cb	-0.4782928
169	0xbec1539a	-0.37759095
170	0x3e106304	0.14100271
171	0xbdb1447b	-0.0865564
172	0xbb30cae6	-0.0026976406
173	0xbdf4c016	-0.119507
174	0x3e67a800	0.2262268
175	0xbd6f4be9	-0.058422003
176	0xbd6b9c2d	-0.057521988
177	0xbecdfad8	-0.4023044
178	0xbd919e72	-0.07110299
179	0x3d632f53	0.055465054
180	0x3d5a0424	0.053226605
181	0x3dc2a031	0.0950321
182	0xbe11bfdf	-0.1423335
183	0x3da70ca6	0.081567094
184	0xbdc28758	-0.09498471
185	0xbdfaab26	-0.12239675
186	0xbb6174c1	-0.0034401866
187	0xbe311af6	-0.17295441
188	0xbe18cbe0	-0.14921522
189	0xbda0843e	-0.07837723
190	0xbd743c33	-0.059627723
191	0x3d0616f9	0.032736752
192	0x3de132ae	0.109959945
193	0x3d80ab29	0.06282646
194	0x3db12d22	0.086511865
195	0x3da60f94	0.0810844
196	0xbd36f586	-0.044667743
197	0x3ce9252d	0.02846011
198	0xbd1c7458	-0.03819689
199	0x3cede048	0.02903761
200	0x3e02bd79	0.1276759
201	0xbdede9f2	-0.11616887
202	0x3d41ba91	0.047297064
203	0x3d2ffaf8	0.04296395
204	0xbb6bb3fb	-0.003596543
205	0xbebe27ea	-0.37139827
206	0x3c2e1fb7	0.010627679
207	0xbe01da03	-0.12680821
208	0xbd3edf0c	-0.046599433
209	0xbd741463	-0.059589755
210	0xbdadc28c	-0.084843725
211	0x3d910cf0	0.07082546
212	0xbe6fe9f0	-0.23429084
213	0xbdf29ad2	-0.11845936
214	0xbdd4d846	-0.103928134
215	0x3d16d90a	0.03682808
216	0x3dc3dd77	0.095637254
217	0xbe1ec5e8	-0.15505183
218	0x3db9a010	0.090637326
219	0x3b7dbd3e	0.0038717533
220	0xbe01cf20	-0.12676668
221	0xbde85a5e	-0.11345361
222	0x3d0bdece	0.03414803
223	0x3cb690ae	0.022285786
224	0x3b6573a2	0.003501155
225	0x3d073147	0.03300598
226	0xbe88055b	-0.26566586
227	0x3d00ec0d	0.031475116
228	0xbc8dc7eb	-0.017307242
229	0xbce3e4ba	-0.027819026
230	0xbd84e559	-0.06489057
231	0xbdc5de49	-0.09661538
232	0xbcec5aae	-0.028851833
233	0xbdf10946	-0.11769347
234	0x3bea4e7b	0.007150469
235	0xbb4acb99	-0.0030944108
236	0xbd8947ef	-0.06703173
237	0x3d2a05b8	0.04150936
238	0xbe4ea0dd	-0.20178552
239	0xbd4ab60a	-0.049490012
240	0x3d30e47c	0.04318665
241	0xbdb00726	-0.085951135
242	0xbe3cbbff	-0.1843109
243	0xbe34f484	-0.176714
244	0x3d4d3317	0.05009755
245	0xbd9f3f1d	-0.0777571
246	0xbe153a56	-0.14573035
247	0xbb8ec927	-0.0043574753
248	0x3cd09b68	0.025464728
249	0xbdcafd9a	-0.09911652
250	0xbb30dd5e	-0.0026987414
251	0xbdac9ea0	-0.08428693
252	0xbc6f530e	-0.014607204
253	0xbda2573d	-0.07926796
254	0x3c8e77d4	0.017391123
255	0xbda97d22	-0.0827582

convs.0.linear1.bias f4 [128]
0	0xbeaeadf4	-0.3411709
1	0xbe82cabc	-0.255453
2	0xbe2a4e0a	-0.16631332
3	0x3d809aeb	0.06279548
4	0x3c7430d9	0.014904224
5	0xbe86dd93	-0.26340923
6	0xbe7a374c	-0.24435157
7	0x3eadf63d	0.33976927
8	0x3eab29b9	0.3343027
9	0x3e95b72a	0.29241306
10	0xbe74d97c	-0.23911089
11	0x3ec48fa1	0.3839083
12	0x3eb5d31a	0.3551262
13	0x3ebad113	0.36487636
14	0x3ec2d3a2	0.38052088
15	0xbe9df27d	-0.30849066
16	0x3e9af946	0.30268306
17	0xbe900685	-0.28129974
18	0xbe30f24d	-0.1727993
19	0xbe90a4d6	-0.2825076
20	0xbec87931	-0.39154962
21	0x3eaec788	0.34136605
22	0x3e9bbc61	0.3041716
23	0x3eba369d	0.36369792
24	0x3e910c81	0.28329852
25	0xbeb12d61	-0.34604934
26	0xbe11e80a	-0.14248672
27	0xbe91a34f	-0.28444907
28	0x3de239cf	0.11046182
29	0xbe35d57d	-0.1775722
30	0x3ed88574	0.42289317
31	0xbe4d9c50	-0.2007916
32	0xbe958b07	-0.29207632
33	0xbe962e7e	-0.29332346
34	0xbe95e6bd	-0.29277602
35	0xbe87402c	-0.26416147
36	0x3ec63ef3	0.387199
37	0x3ebb3a36	0.3656785
38	0xbe99105a	-0.29895288
39	0x3eaa7068	0.33288884
40	0xbe86fe3b	-0.26365837
41	0x3e93e2cb	0.28883967
42	0x3e420939	0.1894883
43	0x3e9a82b9	0.30177858
44	0x3e33f0ed	0.17572375
45	0xbeae8591	-0.34086278
46	0x3ea59c1a	0.3234566
47	0xbe7b2a5d	-0.24527879
48	0xbe39d47f	-0.18147467
49	0xbeb2a81a	-0.34893876
50	0x3eb58a70	0.35457182
51	0x3eada23f	0.33912846
52	0xbe960021	-0.29296973
53	0xbea82902	-0.32843786
54	0x3ea05728	0.31316495
55	0x3ec1b8ab	0.37836203
56	0xbe9ec5a8	-0.31010175
57	0xbe93629a	-0.28786165
58	0xbe99afb5	-0.30016866
59	0x3e922e4e	0.28550953
60	0x3ebd91b2	0.3702522
61	0x3eb6d94e	0.35712665
62	0x3e9feaf6	0.31233948
63	0x3e442eca	0.19158474
64	0x3e929df0	0.28636122
65	0x3e8be57d	0.27323523
66	0x3ea38795	0.31939378
67	0xbe945422	-0.28970438
68	0x3e96e8c7	0.2947447
69	0x3eb2da77	0.349323
70	0xbe996d67	-0.2996628
71	0x3e278a02	0.1636124
72	0xbeb24112	-0.3481527
73	0xbeae712f	-0.34070727
74	0x3e9badd6	0.30406064
75	0xbe8b83c2	-0.2724896
76	0x3ec24524	0.37943375
77	0xbe82d291	-0.25551274
78	0xbec0df13	-0.37670192
79	0x3eb85d66	0.36008757
80	0x3eacadf2	0.3372646
81	0x3eb417d4	0.3517443
82	0x3ec59f47	0.3859808
83	0x3e8ceba2	0.27523524
84	0xbe7598a6	-0.23984012
85	0x3e98460a	0.29740936
86	0x3e9c43d2	0.30520493
87	0x3ec13f92	0.37743813
88	0xbea570f1	-0.3231273
89	0x3eaa4d6b	0.3326219
90	0x3eb2b4fd	0.34903708
91	0xbe9a4ef9	-0.30138376
92	0x3e45e657	0.19326149
93	0xbe9eba15	-0.31001344
94	0x3e1eeec0	0.15520763
95	0x3ebf27bc	0.37335002
96	0xbe97ebd9	-0.29672125
97	0xbeac9907	-0.337105
98	0xbeae9e92	-0.34105355
99	0xbe9574fc	-0.29190814
100	0xbea68c0c	-0.32528722
101	0x3eb4edb1	0.35337594
102	0x3eaa20b2	0.3322807
103	0xbe920c8f	-0.28525206
104	0x3e41de46	0.18932447
105	0xbe9c8b18	-0.3057487
106	0xbe6096d5	-0.21932538
107	0x3eabf238	0.33583236
108	0xbe64960e	-0.22322866
109	0xbe94dbc8	-0.2907393
110	0xbec5456b	-0.38529524
111	0x3eb4c546	0.35306758
112	0x3e3878a7	0.18014775
113	0x3e89b3df	0.26895043
114	0xbe3fe05c	-0.1873793
115	0xbea5139c	-0.32241523
116	0x3e9578f4	0.29193842
117	0x3ebed7f7	0.37274143
118	0xbe8e3c1f	-0.27780244
119	0x3eb1f78c	0.34759176
120	0xbe89e7ee	-0.2693476
121	0x3ea97f73	0.3310505
122	0xbe2f9123	-0.17145209
123	0x3ebcef16	0.36901158
124	0x3eae58db	0.34052166
125	0xbea03829	-0.31292847
126	0xbeaddba2	-0.3395663
127	0xbe9e41a2	-0.3090945

convs.0.linear2.weight f4 [128, 128]
0	0xbe8eed38	-0.2791536
1	0x3c1fc223	0.009750876
2	0x3d93e103	0.07220652
3	0x3d46dd3d	0.048550833
4	0x3de405bb	0.111339055
5	0xbe034071	-0.12817551
6	0xbe0a7dc5	-0.1352454
7	0x3e711bfe	0.23545834
8	0x3e835aa0	0.2565508
9	0x3e09d68b	0.13460748
10	0xbdf93812	-0.12168898
11	0x3e6ffb9d	0.23435827
12	0x3e8e518f	0.277966
13	0x3e9ec098	0.31006312
14	0x3ec169b1	0.3777595
15	0xbda8ab56	-0.08235805
16	0x3e867ad2	0.2626558
17	0xbd8a8609	-0.067638464
18	0x3d17ca09	0.03705791
19	0xbe2259a4	-0.15854508
20	0xbe7e7767	-0.24850236
21	0x3e8be74c	0.27324903
22	0x3e0a7398	0.13520658
23	0x3ebefa05	0.37300125
24	0x3e579984	0.21054655
25	0xbe878fc6	-0.26476878
26	0xbe167320	-0.14692354
27	0xbe4ba080	-0.19885445
28	0xb989c36c	-0.00026276277
29	0xbebe103c	-0.3712176
30	0x3ed91b4a	0.42403632
31	0xbecc74e6	-0.39932936
32	0xbdabaf98	-0.08383101
33	0xbe50e764	-0.20400769
34	0xbe339f22	-0.17541173
35	0xbe3e9f66	-0.18615493
36	0x3eed5123	0.46350965
37	0x3e919385	0.2843286
38	0xbdb33501	-0.08750344
39	0x3e2b0c83	0.16703992
40	0xbdce27d1	-0.10066188
41	0x3e853916	0.26020116
42	0x3e9d9abe	0.3078212
43	0x3e387229	0.18012299
44	0x3eb5d1a6	0.35511512
45	0xbdf86568	-0.12128717
46	0x3e5dab8e	0.21647474
47	0xbe2239fb	-0.1584243
48	0xbe448f39	-0.1919526
49	0xbe892019	-0.267823
50	0x3ea8d33b	0.32973656
51	0x3ea1ecbb	0.31625924
52	0xbe0ded39	-0.13860025
53	0xbe7dac05	-0.24772651
54	0x3e6ac305	0.22925957
55	0x3eada837	0.339174
56	0xbe82b3d8	-0.25527835
57	0xbe16f030	-0.14740062
58	0xbd87a5e7	-0.0662344
59	0x3e687757	0.22701775
60	0x3e61d9a4	0.2205568
61	0x3ebeab31	0.37239984
62	0x3edc5f43	0.4304143
63	0x3ea6eb1c	0.3260125
64	0x3e302eda	0.17205372
65	0x3df7ebcd	0.12105522
66	0x3e6ab592	0.22920826
67	0xbe845061	-0.25842574
68	0x3e742681	0.23842813
69	0x3eba073c	0.36333644
70	0xbe6e77c0	-0.23287868
71	0x3e9c6159	0.3054302
72	0xbe4a67fe	-0.19766232
73	0xbe55ddec	-0.20885438
74	0x3e235075	0.1594866
75	0xbe942ba9	-0.2893956
76	0x3ec0d79e	0.37664503
77	0xbc431f29	-0.011909285
78	0xbe2ba9db	-0.16764013
79	0x3ea3c4b3	0.31986007
80	0x3e253b04	0.16135794
81	0x3e8ba928	0.27277493
82	0x3ea3a22a	0.3195966
83	0x3db7972f	0.08964383
84	0xbdf470fc	-0.119356126
85	0x3e5ec369	0.2175423
86	0x3e800067	0.25000307
87	0x3e91047f	0.28323743
88	0xbea853fe	-0.3287658
89	0x3e1d46ae	0.15358993
90	0x3ef6e557	0.48221847
91	0xbe165793	-0.14681844
92	0x3e2de5c2	0.16982177
93	0xbe81d44f	-0.2535729
94	0x3e4f7e68	0.20263064
95	0x3e90e2b7	0.2829797
96	0xbe2f007c	-0.17090029
97	0xbe396bbc	-0.18107504
98	0xbe1a99d7	-0.15097748
99	0xbe18754a	-0.14888492
100	0xbe25c90e	-0.16189978
101	0x3e83a4a4	0.25711548
102	0x3e4eb6bf	0.201869
103	0xbe25c7db	-0.1618952
104	0x3ea37c8d	0.31930962
105	0xbe92a083	-0.28638086
106	0xbd9616d5	-0.073285736
107	0x3ea27d3e	0.31736177
108	0xbd487211	-0.048936907
109	0xbe1f1d53	-0.1553853
110	0xbe828062	-0.25488573
111	0x3ebbf11f	0.36707398
112	0x3ea7c847	0.32769987
113	0x3e1eb517	0.15498768
114	0xbdba5ddf	-0.09099936
115	0xbe5c9b86	-0.21543702
116	0x3e049d70	0.12950683
117	0x3e00f4b9	0.12593354
118	0xbe40e5f6	-0.18837723
119	0x3e362552	0.17787674
120	0xbdcaeeeb	-0.09908851
121	0x3e9ca659	0.30595663
122	0xbec40ec9	-0.3829253
123	0x3eb6a327	0.3567135
124	0x3e501318	0.20319784
125	0xbe76bc62	-0.240953
126	0xbe2fc57b	-0.17165177
127	0xbe106a4a	-0.14103046
128	0xbe447370	-0.19184661
129	0xbdfa35c7	-0.122172885
130	0x3dc41d8e	0.095759496
131	0xbce29573	-0.027659154
132	0x3e2abf06	0.16674432
133	0xbe6dcf31	-0.23223568
134	0xbc4b5949	-0.012411424
135	0x3e63edfe	0.22258756
136	0x3e7296b7	0.23690306
137	0x3e136341	0.14393331
138	0xbe260577	-0.16213022
139	0x3e6ae7e2	0.22940019
140	0x3df8ef90	0.12155068
141	0x3ec80535	0.39066473
142	0x3e90e000	0.28295898
143	0xbd83d548	-0.064371645
144	0x3e162760	0.14663458
145	0xbdd4e727	-0.10395651
146	0x3d5aa27f	0.053377625
147	0xbe0ef4bf	-0.1396055
148	0xbe90d3a8	-0.2828648
149	0x3e0ed78c	0.13949412
150	0x3e4ad6e0	0.19808531
151	0x3eba2f27	0.363641
152	0x3e6740dd	0.22583337
153	0xbe7f66cc	-0.24941558
154	0xbe7a2111	-0.24426676
155	0xbe0757af	-0.13217042
156	0xbce3d262	-0.02781028
157	0xbeadbd0d	-0.33933297
158	0x3ef66316	0.48122472
159	0xbe921b19	-0.285363
160	0xbdcb9aa5	-0.099416055
161	0xbe512dcb	-0.20427625
162	0xbe50c455	-0.20387395
163	0xbdcaab79	-0.09895987
164	0x3ece0db3	0.40244827
165	0x3e08c03c	0.13354582
166	0xbe4c7a0e	-0.19968435
167	0x3e927562	0.2860518
168	0xbe146651	-0.14492156
169	0x3e6dc45f	0.23219441
170	0x3e473213	0.19452696
171	0x3ead6e3f	0.33873174
172	0x3e4b7ab0	0.1987102
173	0xbe30dd91	-0.17272021
174	0x3e563e5e	0.20922229
175	0xbe115375	-0.14191993
176	0xbd46193f	-0.04836392
177	0xbe6dcbaa	-0.23222223
178	0x3e9da530	0.3079009
179	0x3e998b6f	0.29989192
180	0xbe10a234	-0.14124376
181	0xbe11086c	-0.14163369
182	0x3e132aaa	0.14371744
183	0x3e9a23f7	0.30105564
184	0xbe31a6f4	-0.17348844
185	0xbe2c22bb	-0.16810124
186	0xbe65a912	-0.22427776
187	0x3e099c56	0.13438544
188	0x3e5b65b5	0.21425517
189	0x3e99f230	0.30067587
190	0x3ea083f8	0.31350684
191	0x3e897bb7	0.268522
192	0x3e43b2ec	0.19111222
193	0x3e2877a6	0.16451892
194	0x3e978d31	0.29599908
195	0xbe87c1b7	-0.2651498
196	0x3e65a1c0	0.22424984
197	0x3e8dcc30	0.27694845
198	0xbe3db51b	-0.18526118
199	0x3e976756	0.29571027
200	0xbea88fa2	-0.32922083
201	0xbe789b1d	-0.24277921
202	0x3e3269cd	0.17423172
203	0xbe324f69	-0.17413105
204	0x3e5e7455	0.21724065
205	0xbd8eb623	-0.069683336
206	0xbe89ab45	-0.2688848
207	0x3e570c55	0.21000798
208	0x3db3210e	0.08746539
209	0x3e9405a8	0.28910565
210	0x3ebfb1ee	0.37440437
211	0x3dfa169f	0.12211346
212	0xbdd3be95	-0.10339085
213	0x3e963b75	0.29342237
214	0x3e66150a	0.22468963
215	0x3e8da157	0.27662155
216	0xbe931866	-0.28729552
217	0x3e7448bf	0.23855875
218	0x3eb36d86	0.35044497
219	0xbe5618ba	-0.2090787
220	0x3dccae65	0.099942006
221	0xbe0007ea	-0.12503019
222	0x3e17cf7f	0.14825247
223	0x3eb4b08e	0.3529095
224	0xbd949d82	-0.07256605
225	0xbe1a462a	-0.15065828
226	0xbe99902e	-0.29992813
227	0xbe522d5a	-0.20525113
228	0xbe08b997	-0.13352047
229	0x3e30f6f2	0.17281702
230	0x3e468b48	0.19389069
231	0xbe23049b	-0.15919726
232	0x3e4a4dcf	0.19756244
233	0xbe402d65	-0.18767317
234	0xbd61b685	-0.055105705
235	0x3e42b17e	0.1901302
236	0xbdea3c2d	-0.11437259
237	0xbe517b4b	-0.20457189
238	0xbe5a9699	-0.21346511
239	0x3ec1deb4	0.37865222
240	0x3e1df3c9	0.15425028
241	0x3e8f3470	0.27969694
242	0x3d140f4f	0.036147412
243	0xbe6f4d79	-0.23369397
244	0x3e363be5	0.17796285
245	0x3e201989	0.15634741
246	0xbe3a2e60	-0.18181753
247	0x3e440537	0.19142614
248	0xbdab96fb	-0.083784066
249	0x3eaae72c	0.33379495
250	0xbe5b01bf	-0.21387385
251	0x3e640b61	0.22269966
252	0x3e85758f	0.26066253
253	0xbe482690	-0.1954596
254	0xbe8262fc	-0.25466144
255	0xbe0cbf8e	-0.13744947

convs.0.linear2.bias f4 [128]
0	0x3e910ab9	0.28328493
1	0x3e8b6d70	0.27231932
2	0x3e72a79f	0.23696755
3	0xbf7ed9c7	-0.9955105
4	0xbe54601c	-0.20739788
5	0x3d733861	0.05937994
6	0xbe0a5a57	-0.13511024
7	0xbf11358f	-0.5672235
8	0xbdd2e0e0	-0.10296798
9	0xbe18223d	-0.14856811
10	0x3e8e33f8	0.27774024
11	0x3e80e4a7	0.25174448
12	0x3e8faeee	0.28063148
13	0xbe96d3c4	-0.2945844
14	0x3e95ce55	0.2925898
15	0xbe519ae1	-0.20469238
16	0x3e634f58	0.22198236
17	0xbdd7f6cb	-0.10545119
18	0xbe8d0e02	-0.2754975
19	0x3e941c9c	0.28928077
20	0x3e37cea2	0.17949918
21	0xbe43d6a9	-0.19124855
22	0xbed63d08	-0.41843438
23	0xbd84442a	-0.06458314
24	0xbe4a4d6a	-0.19756094
25	0xbf075d79	-0.52877
26	0x3e3bb1bc	0.18329519
27	0xbe4ed011	-0.20196559
28	0xbe65b484	-0.22432142
29	0x3e97ca8f	0.29646727
30	0xbdd3e0bd	-0.103456
31	0xbed5039e	-0.41604322
32	0xbd8d70a7	-0.06906252
33	0xbdd4388f	-0.1036235
34	0x3f1f9da5	0.6234992
35	0x3e876f88	0.2645228
36	0x3e85bccd	0.26120606
37	0xbe806660	-0.25078106
38	0xbf60b62d	-0.8777798
39	0xbe23b32e	-0.1598632
40	0x3e8ad9e4	0.27119362
41	0x3e93904c	0.28821027
42	0xbe1fcb2d	-0.15604849
43	0xbf20d721	-0.6282826
44	0x3e4b0acd	0.19828339
45	0xbf412696	-0.754495
46	0x3dc435eb	0.095805965
47	0xbe3e50d3	-0.1858552
48	0xbdf02f4a	-0.1172777
49	0xbd3e0345	-0.046389837
50	0x3d36a5ae	0.0445916
51	0xbe39edaa	-0.18157068
52	0xbf93a8c2	-1.1535876
53	0x3e8c5372	0.27407414
54	0x3ea7f0f8	0.32801032
55	0xbeed5e01	-0.46360782
56	0x3e4875de	0.19576213
57	0xbf41d881	-0.75720984
58	0x3e6caa18	0.2311176
59	0x3e522d72	0.20525149
60	0xbe1a7a5e	-0.15085742
61	0x3e5b5e54	0.21422702
62	0x3e99f5b3	0.30070266
63	0xbe1f7e34	-0.15575486
64	0x3e9614f6	0.29312867
65	0xbf8e949a	-1.11391
66	0xbed342fd	-0.41262046
67	0xbd4f96bf	-0.050680872
68	0x3e74574a	0.23861423
69	0xbef7664e	-0.4832024
70	0xbf897d21	-1.0741311
71	0xbe0f06ed	-0.13967486
72	0x3e376cee	0.17912647
73	0x3e4ca366	0.19984207
74	0x3e5f579e	0.21810767
75	0xbd9e4865	-0.07728652
76	0x3e416946	0.18887815
77	0x3e7b0020	0.24511766
78	0xbea7dcc7	-0.32785627
79	0xbe525e51	-0.20543791
80	0xbecbff6c	-0.3984331
81	0xbe3d3393	-0.18476705
82	0xbdf137db	-0.11778232
83	0x3c516045	0.0127793
84	0x3e3330de	0.1749911
85	0xbe534e5b	-0.20635359
86	0xbe04ff1c	-0.12987942
87	0x3e637317	0.22211872
88	0xbf1d3397	-0.61406845
89	0x3e8b9819	0.2726448
90	0xbd4f990e	-0.050683074
91	0xbe280eca	-0.16411892
92	0xbf15897e	-0.5841292
93	0xbe2d2e8d	-0.16912289
94	0x3e7d9b99	0.24766387
95	0xbf4d5455	-0.80206805
96	0xbe457bae	-0.19285461
97	0xbe2c3c97	-0.16819988
98	0xbd395dcc	-0.045255467
99	0xbe3bb377	-0.18330179
100	0xbf3a4f7e	-0.72777545
101	0xbe51441d	-0.2043614
102	0x3e64b9a3	0.2233644
103	0xbe63a04a	-0.22229114
104	0x3e88f6d7	0.26750824
105	0x3e836e4d	0.2567009
106	0xbe5019bf	-0.20322321
107	0xbcbabc06	-0.022794735
108	0xbe61973b	-0.22030346
109	0x3e2731d5	0.16327603
110	0x3e78b6f5	0.24288543
111	0xbdbce703	-0.092237495
112	0xbf85e2bf	-1.0459822
113	0x3ea60a69	0.32429817
114	0x3d34bcf6	0.04412552
115	0xbd96c09d	-0.07360957
116	0x3e8b3f3c	0.27196681
117	0xbd773758	-0.060355514
118	0xbf160ef3	-0.5861656
119	0x3e842233	0.25807342
120	0xbd8bc508	-0.0682469
121	0xbeb273a7	-0.3485386
122	0xbdf466a6	-0.11933641
123	0xbf2231ef	-0.6335744
124	0xbf27be10	-0.6552439
125	0xbe25f856	-0.16208014
126	0x3e4ad185	0.19806488
127	0x3e5d5b8e	0.21616957

convs.1.a f4 [256, 1]
0	0xbc6e82ec	-0.014557581
1	0xbb869017	-0.0041065323
2	0xbc90dd4d	-0.01768365
3	0x00000000	0.0
4	0x3247f83f	1.1639769e-08
5	0x38742f56	5.821822e-05
6	0xb5edcc71	-1.7717376e-06
7	0x00000000	0.0
8	0x385f8d21	5.329878e-05
9	0x360605ca	1.9970926e-06
10	0x3c898708	0.01678802
11	0x3ba9d65e	0.0051830253
12	0xbc2cc905	-0.010545974
13	0x00000000	0.0
14	0x3c9ab996	0.018887322
15	0xb01f5eb8	-5.7978466e-10
16	0xbc3d857a	-0.011567468
17	0xba7791b7	-0.00094440154
18	0x33330b96	4.1687223e-08
19	0x3c37cdec	0.011218529
20	0xbccd734d	-0.025079394
21	0xb485f235	-2.494941e-07
22	0x00000000	0.0
23	0x36a0f10a	4.796432e-06
24	0xb5057f34	-4.9731466e-07
25	0x30e01928	1.6305295e-09
26	0x3bb982ae	0.00566133
27	0xb7175f81	-9.022538e-06
28	0x3108f2e8	1.992868e-09
29	0xbc6eff28	-0.014587201
30	0x357c89dd	9.4077933e-07
31	0x32d23f85	2.4476103e-08
32	0x37ef15cb	2.8501168e-05
33	0xb65c6d09	-3.2846021e-06
34	0xbcba2fe6	-0.022727918
35	0x3cd0386b	0.025417527
36	0x3c82772e	0.01592597
37	0x00000000	0.0
38	0x00000000	0.0
39	0x35d4f2bd	1.5865877e-06
40	0xbca767fb	-0.020435324
41	0xbc8a33f4	-0.016870476
42	0x38427a00	4.6366826e-05
43	0xb220d22e	-9.361015e-09
44	0xbc9fdbd5	-0.019514004
45	0x39c447e6	0.00037437602
46	0xb9a7d4e3	-0.00032011335
47	0x35a360d5	1.2172628e-06
48	0xb9a8e029	-0.0003221047
49	0x3bf7dea1	0.007564381
50	0xbaa2e907	-0.0012429067
51	0x38b95c17	8.8386405e-05
52	0x00000000	0.0
53	0x3c493f84	0.01228321
54	0xbc5b498a	-0.013384232
55	0x00000000	0.0
56	0xbb83c57e	-0.0040213456
57	0x31b7ec65	5.352876e-09
58	0x3ae0c693	0.0017149023
59	0xbc1a3163	-0.009411189
60	0xb2f894ea	-2.8938718e-08
61	0xbc30fa2f	-0.010801836
62	0xbc1df797	-0.00964155
63	0xb2ffa6e4	-2.97618e-08
64	0x3c0a745c	0.008450594
65	0x319403f3	4.307816e-09
66	0x2f30132a	1.6013915e-10
67	0xb641c3fe	-2.8873324e-06
68	0x3ca25866	0.019817542
69	0x00000000	0.0
70	0xae42c2d5	-4.428354e-11
71	0xb7f86e4f	-2.961527e-05
72	0xbd4e841a	-0.05041895
73	0xbc83c768	-0.016086295
74	0x3b1ff8c9	0.0024409762
75	0x3523a919	6.09683e-07
76	0xbc1cce20	-0.009570628
77	0xbce0e497	-0.02745275
78	0xb42dcab0	-1.6185618e-07
79	0xb6b0339d	-5.2512173e-06
80	0x00000000	0.0
81	0x377900bf	1.484173e-05
82	0x374f5754	1.2358494e-05
83	0xb483e014	-2.456369e-07
84	0x3c97f04c	0.0185472
85	0x00000000	0.0
86	0xb77842aa	-1.4797473e-05
87	0xbc94fc8e	-0.018186834
88	0x00000000	0.0
89	0x3c8403d1	0.016115101
90	0x379949a7	1.8273318e-05
91	0x35f60f08	1.8332803e-06
92	0x32e1ea68	2.6300043e-08
93	0xb5811fa4	-9.620458e-07
94	0xbc15ae3b	-0.009135778
95	0x30d62d2e	1.558339e-09
96	0xb53ba951	-6.9909316e-07
97	0xb3b8ca5b	-8.604976e-08
98	0xb45948c9	-2.0236179e-07
99	0x35485297	7.462599e-07
100	0x00000000	0.0
101	0xb533e41d	-6.7014645e-07
102	0xbcaf4984	-0.02139736
103	0x34aa10b2	3.1677115e-07
104	0x3c9d7a6a	0.01922341
105	0x3c96a575	0.018389443
106	0xb5054892	-4.9651965e-07
107	0xb42deae5	-1.6197335e-07
108	0xb59f7912	-1.1881659e-06
109	0xbd623040	-0.055221796
110	0xbc840f08	-0.016120449
111	0xb858d3c7	-5.1695646e-05
112	0x32312580	1.03112825e-08
113	0x3d329e98	0.043608278
114	0x339b29ec	7.2253755e-08
115	0xb8e8414c	-0.000110747846
116	0xbcf76ac4	-0.030202277
117	0x360b4094	2.0750203e-06
118	0xb2f563bb	-2.8567106e-08
119	0xbc80ed79	-0.015738236
120	0x36821a80	3.877387e-06
121	0x00000000	0.0
122	0x375e4184	1.3247485e-05
123	0xb5220d12	-6.036872e-07
124	0x00000000	0.0
125	0x33c3a600	9.11059e-08
126	0xbd088bd3	-0.03333647
127	0xbcce857c	-0.025210135
128	0xbe0dd739	-0.13851632
129	0xbe09c0fc	-0.13452524
130	0xbe0c24a9	-0.1368586
131	0x3f62c908	0.88588
132	0x3f33c33b	0.70219773
133	0x3ecccb8c	0.39999044
134	0x3f259486	0.64679754
135	0x3f4c7f41	0.79881674
136	0x3f375c0b	0.7162482
137	0x3f38f60e	0.7225045
138	0xbe0b9cf0	-0.13634086
139	0xbe1844a3	-0.14869933
140	0xbe12f1cd	-0.14350052
141	0x3f0755b6	0.5286516
142	0xbe07e19d	-0.13269658
143	0x3f1f5c9c	0.62250686
144	0xbe01d45f	-0.1267867
145	0x3f02ec14	0.51141477
146	0x3f601eb4	0.8754685
147	0xbe199e6a	-0.15001836
148	0xbe3278b2	-0.17428854
149	0x3f1437dd	0.5789774
150	0x3f463683	0.7742693
151	0x3f11149a	0.5667206
152	0x3f2013a6	0.6252998
153	0x3f4e5387	0.805962
154	0xbe149200	-0.1450882
155	0x3f1bcab1	0.6085616
156	0x3f2c226e	0.67240036
157	0xbe0e0ecf	-0.13872837
158	0x3f46d2aa	0.776652
159	0x3f591c71	0.84809023
160	0x3f361cf0	0.71137905
161	0x3f30d033	0.69067687
162	0xbf3d8516	-0.740312
163	0xbe087528	-0.13325942
164	0xbe0ba02c	-0.1363532
165	0x3f1d5356	0.61455286
166	0x3f6369a2	0.8883306
167	0x3f18186e	0.59412277
168	0xbe0d69c6	-0.1380988
169	0xbe0ea9d2	-0.13931969
170	0x3f32caf9	0.6984096
171	0x3f8f73e1	1.1207238
172	0xbe0a7fd5	-0.13525327
173	0x3e216301	0.15760423
174	0x3e985e93	0.29759654
175	0x3f1c06f5	0.60948116
176	0x3f05935d	0.52177984
177	0xbe1e83b2	-0.15479925
178	0x3e087c51	0.13328673
179	0x3f2fd97f	0.6869125
180	0x3f6d85eb	0.9278247
181	0xbe14f8d1	-0.14548041
182	0xbe153115	-0.14569505
183	0x3f454333	0.7705566
184	0xbe203114	-0.15643722
185	0x3f62d905	0.88612396
186	0xbe15f309	-0.14643492
187	0xbe14d1cd	-0.14533158
188	0x3f167329	0.5876947
189	0xbe19cfb3	-0.15020637
190	0xbe1906c2	-0.14943984
191	0x3f440f9b	0.7658631
192	0xbe0cc426	-0.137467
193	0x3f91098e	1.1331041
194	0x3f4d0f99	0.80101925
195	0x3e146008	0.14489758
196	0xbe1d2d42	-0.15349296
197	0x3f41b4c4	0.7566645
198	0x3f6e903e	0.93188846
199	0x3f3717d4	0.71520734
200	0xbe28c814	-0.16482574
201	0xbe1949aa	-0.14969507
202	0xbe18513f	-0.14874743
203	0x3f29c7bd	0.663204
204	0xbe2084bb	-0.15675633
205	0xbe1268bc	-0.14297765
206	0x3f18e2df	0.5972118
207	0x3f18d6fe	0.5970305
208	0x3f3e82ed	0.74418527
209	0x3f2b74f9	0.6697536
210	0x3f32f489	0.6990438
211	0x3f2d6431	0.67731005
212	0xbe2fa995	-0.17154534
213	0x3f01cfac	0.5070751
214	0x3f24f0e7	0.6443009
215	0xbe192edf	-0.14959286
216	0x3f50235b	0.8130395
217	0xbe0b9265	-0.13630064
218	0x3e8e732b	0.2782224
219	0x3f237e9d	0.6386507
220	0x3f576246	0.8413433
221	0x3f248b2f	0.6427488
222	0xbe0e394a	-0.13889042
223	0x3f418a1f	0.7560138
224	0x3f16368f	0.58677
225	0x3f11e26c	0.5698612
226	0x3f34319a	0.70388186
227	0x3f394e22	0.72384846
228	0x3f5b5b77	0.8568644
229	0x3f1b2e6c	0.6061771
230	0xbe040bca	-0.12895122
231	0x3f17ea15	0.59341556
232	0xbe12f213	-0.14350156
233	0xbe09e6f2	-0.13467005
234	0x3f23a3ce	0.6392182
235	0x3f0884a5	0.533274
236	0x3f18eb1a	0.59733737
237	0xbe01100b	-0.12603776
238	0xbe0fb66d	-0.14034434
239	0x3f380c42	0.71893704
240	0x3f5cb7a0	0.8621769
241	0xbe15974b	-0.14608495
242	0x3f51321d	0.8171709
243	0xbd9e5562	-0.07731129
244	0xbe1ed61f	-0.15511368
245	0x3f12ca05	0.5733951
246	0x3f540763	0.8282377
247	0xbe0f35ad	-0.1398532
248	0x3f363dd1	0.71188074
249	0x3f2e46be	0.68076694
250	0x3f2fd0de	0.6867808
251	0x3f988c70	1.1917858
252	0x3f573f64	0.840811
253	0x3f5a3069	0.8523012
254	0xbe1600dd	-0.14648767
255	0xbe02e513	-0.12782697
