Saved_Models/TSP_1000/scatgnn_layer_2_hid_128_model_280_temp_3.500.pth (torch, 992099 bytes, 24 tensors)

bn0.weight f4 [2]
00000000: 0000 803f 0000 803f
1.0 1.0

bn0.bias f4 [2]
00000000: 0000 0000 0000 0000
0.0 0.0

bn0.running_mean f4 [2]
00000000: 0000 0000 0000 0000
0.0 0.0

bn0.running_var f4 [2]
00000000: 0000 803f 0000 803f
1.0 1.0

in_proj.weight f4 [128, 2]
00000000: efe2 d5be 671f 47bf 49d5 173f 2fd2 023f
00000010: bc35 573d a4ac 48bf d1bb b8be c795 8b3d
00000020: 7f0c 7f3f 03dd 32bf 64ed ed3e d452 a43e
00000030: fa15 073d 0a4f 8cbe 3084 62bf 44b8 85be
00000040: 1e82 5a3f a57a 543f 3b53 b5be 34ab 653e
00000050: f8bc 0bbf d84f c2be 4ad0 b9be e1ea f5be
00000060: dd9e f33e bcd9 7c3f 543c 62bf 5976 783c
00000070: f3bb 683f f6d9 e4bd b9ba 013f f40a 76bf
00000080: d3cd 3dbf 9f8b 0fbf 9ec6 a13e b658 82bf
00000090: 9d7c dc3e 650f 3a3f 9650 f4be 8abc 263f
000000a0: b751 51be d2d0 56bf 485c fd3e ced7 17bb
000000b0: d117 563f 4b73 39bf 4187 8abe e87f af3e
000000c0: 1245 783f 5a82 983e 6240 a4bd 547d 2f3f
000000d0: 77cf 14bf 28b3 64bf 11ca dbbe 9c65 a03d
000000e0: 3963 5dbf 6db9 46be 1b25 3ebe 9644 a8be
000000f0: 378a 223f 0fd4 64bf ab08 2cbf 96ad 4ebf
00000100: 1025 59bf e7c0 183f d158 403f dac0 5bbe
00000110: 85ce c13e 92f6 473f f4aa 08be ceb9 05be
00000120: e953 00be bd84 1bbf 679c 1cbf c70b 2ebf
00000130: 6a59 a5bd 7fcd 453f 8b96 3b3f bf06 623e
00000140: 59e5 81be bf08 cb3d 5099 14bf d13e a03d
00000150: acaf 0c3f 039e 6e3e 5759 333e 6c15 60bf
00000160: 6490 7f3e ad91 7d3f d772 1a3f eb9e c9be
00000170: e2c7 e43e 25d2 1a3e 11f6 3d3f 59cf 483f
00000180: 3f30 453f c5fd 2f3f 9d6c 5cbe 1b47 76be
00000190: d5df 4fbe c564 023d 9377 283f 0397 7c3f
000001a0: b582 1b3f f261 04bf fa0b e53d 0629 e73e
000001b0: 74b2 fd3e 2055 123e de34 bebe 13af 373f
000001c0: a847 65bf b181 433f 2212 0dbf 7792 413e
000001d0: f8e3 febe 26f1 533f 2de1 463f c817 1abd
000001e0: 0664 1e3f 30f2 b2bd 5f20 f0be 17be 613f
000001f0: 6c71 6d3f f92a 09be 7c59 333f 3497 95be
00000200: 310b 02bf 22f3 683f 6bbf 463f 74be 543f
00000210: a8d8 52bf a02a 203f cc9e 82bf af58 d53e
00000220: 533c 203f f852 98be 052f 713f 152f 32be
00000230: d87e 27bf 6291 76bf f125 d13e 05b8 5d3f
00000240: 3beb 2abf ca33 eabe 295b 7ebf 05c3 dc3d
00000250: 9155 393f 72e1 51bf cfdb ecbe 0d9c 28bf
00000260: d1b8 a9be 1832 983f dbb3 16bf 9e9c 9ebd
00000270: b6d3 b5be 2aab 3bbf 1a99 3d3f d5c1 06bf
00000280: d967 81bf cff5 d43e d25f 163f b85c d4bd
00000290: a49c 243e 19cf 16bf fe4c 3dbf 5cd7 1b3e
000002a0: a271 30bf 64a3 0ebe 4857 c3be a7a8 6a3f
000002b0: eb6d b33e ac3b 6c3f e569 7e3f ce4c 313f
000002c0: 96db e4be 46e6 dcbe 6186 823d 6e0f 42bf
000002d0: 34c7 413f 5bcb 563f 663f 60bf 57f0 223f
000002e0: f9ec 413d 774d 443f 7702 2abf 9ef3 c4be
000002f0: b0a0 f4bd c9d8 cbbd 1326 edbd e245 abbe
00000300: 5cf9 96bd 681b 6ebf ece7 60bf afde 4dbc
00000310: a272 97bd 19ed b4be fccc 2abf f70b 413f
00000320: 1df1 ba3e 92b2 87bf 2ff5 813f 58a9 57be
00000330: e4d7 3f3f a0a5 a1bc 7d45 763e 23fe 04bf
00000340: 51ab 5d3e 55bc 70bf e563 373f 2eba ff3e
00000350: c6b5 533e 4178 6fbf 76f0 333f 416b 23bf
00000360: b5d2 8b3d cf18 7abf 86a6 39bd 7c82 61bf
00000370: 93f4 d5be 59f5 38bd e341 bd3e ad34 803f
00000380: 798b 4cbf d51b 13bf 67b3 3abe 3a0c 723f
00000390: 40d0 d4bd 8a4a 223f 9da5 d6be 34d3 173e
000003a0: f980 28bf fada 0e3f 29f1 4c3f db0c 6d3e
000003b0: 842d 593f 0e94 553e 7c17 823f dfdc 8dbe
000003c0: 6569 8f3e dd0e efbe 244a 07be 52dc 6a3f
000003d0: b2e5 163f e2dc 72bf 3c3d 833f 537b e83d
000003e0: b6a0 74bf 104f 97be f1c8 4bbf 06fe 08bf
000003f0: 576d 49bd bbbb 673f 988e 49be f0d1 683f
-0.417747 -0.7778229 0.5930982 0.51101965 0.05254148 -0.7838843 -0.36080793 0.06815677
0.9962844 -0.6986849 0.46470177 0.32094443 0.032979943 -0.27404052 -0.8848295 -0.26117146
0.85354793 0.8299964 -0.35415062 0.2242859 -0.5458522 -0.3795154 -0.36291724 -0.4803076
0.4758214 0.98769736 -0.88373303 0.015164935 0.9091179 -0.11174385 0.5067554 -0.96110463
-0.7414219 -0.5607242 0.31596845 -1.0183322 0.43063822 0.7267974 -0.47717732 0.6513144
-0.20441328 -0.83912385 0.49484468 -0.00231694 0.8363009 -0.7244155 -0.27056316 0.34277272
0.9698039 0.2978695 -0.080200925 0.6855061 -0.58129066 -0.8933587 -0.42927602 0.078318805
-0.86479527 -0.19406672 -0.18568842 -0.32864827 0.6349215 -0.89386076 -0.67200726 -0.8073362
-0.8482218 0.59669346 0.75135523 -0.21460286 0.37852874 0.7811061 -0.13346463 -0.1305916
-0.12532009 -0.6074942 -0.6117615 -0.6798672 -0.08073695 0.7726669 0.73276585 0.22072886
-0.2537029 0.099137776 -0.58046436 0.07824481 0.54955554 0.23302464 0.17514549 -0.8753269
0.24957424 0.9905041 0.6033148 -0.39379057 0.44683748 0.15119226 0.7420359 0.7844139
0.7702674 0.68746597 -0.21525808 -0.24050562 -0.20300229 0.031834383 0.65807456 0.98667926
0.6074632 -0.5171195 0.11183925 0.45148486 0.4955021 0.14290285 -0.3714971 0.7175152
-0.89562464 0.7636977 -0.55105793 0.18903528 -0.497833 0.8278984 0.7768734 -0.037620336
0.61871374 -0.087376 -0.46899697 0.8818068 0.92751193 -0.13395299 0.7005842 -0.2921692
-0.50798327 0.9099599 0.7763583 0.8310311 -0.8236184 0.6256504 -1.0204711 0.41669223
0.6259205 -0.297508 0.9421237 -0.17400773 -0.65427923 -0.96315587 0.4084926 0.86608917
-0.66765183 -0.45742637 -0.9935785 0.107793845 0.7239619 -0.8198463 -0.4626145 -0.65863115
-0.33148816 1.1890287 -0.5886819 -0.07744716 -0.35513085 -0.7330805 0.7406174 -0.52639514
-1.0109817 0.41593787 0.5873996 -0.10369247 0.16075379 -0.58909756 -0.73945606 0.15218872
-0.6892339 -0.13929516 -0.38152528 0.91663593 0.35044798 0.9227855 0.9938033 0.6925782
-0.4469878 -0.43144435 0.06373287 -0.75804794 0.75694585 0.83904046 -0.8759674 0.6364798
0.047345135 0.766807 -0.6641001 -0.38467115 -0.11944711 -0.09953458 -0.11579528 -0.33451754
-0.0737178 -0.9301057 -0.87853885 -0.012565299 -0.07394911 -0.3533714 -0.6671903 0.7540888
0.3651208 -1.060137 1.0152949 -0.21060693 0.749388 -0.019732296 0.24049945 -0.5195028
0.21647383 -0.9403737 0.716368 0.4994673 0.2067481 -0.9354287 0.7028879 -0.6383553
0.068272986 -0.97694105 -0.045324825 -0.8808973 -0.41788158 -0.045155857 0.3696433 1.0016075
-0.7990032 -0.57464343 -0.18232499 0.94549906 -0.10391283 0.6339499 -0.41923228 0.14826661
-0.65821797 0.5580288 0.8005548 0.23149435 0.84835076 0.2085726 1.0163417 -0.27707574
0.28010097 -0.46691027 -0.13211876 0.9174243 0.5894424 -0.9486829 1.0253062 0.11351647
-0.95557725 -0.29552507 -0.7960349 -0.5351261 -0.04917654 0.9052083 -0.19683301 0.9094534

in_proj.bias f4 [128]
00000000: 2af3 10bf 6e16 c0be 3e52 b6be 5385 533f
00000010: f2b0 fbbe 6dff 5e3e 90d7 653f 31af 0e3e
00000020: 7e4d 60bf fcd4 113f 6c9f 1e3f dc9e 4b3f
00000030: 94c1 0b3f d067 413e a2c1 f6be 3bb0 debe
00000040: 2aa5 4abf f3f7 40bf 917e 3a3f a42e d4bd
00000050: 6761 eebd 636c 4bbe cc5b 0f3e a258 1cbf
00000060: e1ea c2be c25d 3e3f 110d 71bf 20ee 573f
00000070: 3d39 b83d f6fd 693f 67c2 f0be a677 2fbf
00000080: e442 c93d 483d 123f 1c22 bcbe 6341 3fbf
00000090: a498 6a3e 5ed6 15be 718b 923e 1a50 963e
000000a0: 7bf0 4abf f5fb 98bf 9c18 4bbf b5d2 443f
000000b0: 925f ba3e 77ce 0b3e 1eef 8abf 0e58 ee3e
000000c0: 5885 623d ec4d 48bf a6af 2f3f f02b 0cbf
000000d0: a861 1fbf b6b7 2c3f 91f5 6d3e a537 b23c
000000e0: 750d 28bf 6c7d 57bf e7c0 403f bf28 8c3e
000000f0: 9588 7d3e cb34 f0be e0f4 223f 1932 333f
00000100: f9bd 10be a5bb f63e 5b2a 243a 6c03 803e
00000110: ebfd 283f e0b0 153f 45f4 7b3e 7671 a63e
00000120: a98e 663f 300b db3b f34d e4be 886c 6b3f
00000130: e930 e43b ff24 a6bf 02c7 19bd b2b2 ac3e
00000140: a4ed 503e 5b21 4b3f 1817 6dbe 56e7 803d
00000150: bab7 58bf 15e3 45bf fe23 cdbe a0a0 57bf
00000160: f567 4a3f 669b e5be f64a abbe 2daf 823d
00000170: db29 7b3e f60f e5bd b605 093f 790c 363f
00000180: f95a 003e fcd7 683e aa84 24bf 03f6 403e
00000190: eaef a23d 7a88 efbe 0483 863e ee31 3dbf
000001a0: 59aa 343f 9dae b43e de51 1e3f 6200 c33e
000001b0: 5a13 04bf d311 f2bb eee6 d0bd 96c5 703e
000001c0: a6c2 6b3b 5568 42bf 60c9 fabe a9ed 4ebf
000001d0: 1ad6 3b3f 2a04 a53e 0c3e db3e 9652 b03d
000001e0: f79c ccbe c4fe c93e a4e4 773e 33b0 bc3e
000001f0: 0d44 433e 026a 01be 5c42 3d3f 87b9 b73e
-0.5662104 -0.37517112 -0.3560962 0.8262531 -0.49158436 0.21777125 0.8978205 0.13934018
-0.87618244 0.56965613 0.6196201 0.79539275 0.5459225 0.18887258 -0.48194605 -0.43493828
-0.7915827 -0.7537834 0.72849375 -0.103604585 -0.11639672 -0.19865565 0.13999861 -0.6107274
-0.38069823 0.74361813 -0.9416056 0.84347725 0.08995292 0.9140314 -0.47023317 -0.68541944
0.098272115 0.5712476 -0.36744773 -0.7470915 0.2290979 -0.14632556 0.2862201 0.29357988
-0.79273194 -1.1951891 -0.79334426 0.76884013 0.3640104 0.13652979 -1.0854223 0.46551555
0.055302948 -0.782439 0.68627393 -0.54754543 -0.62258387 0.6746782 0.23238207 0.021755049
-0.65645534 -0.84175754 0.75294346 0.27374837 0.24759133 -0.46915278 0.636549 0.6999832
-0.14134969 0.48190036 0.0006262415 0.2500261 0.6601245 0.58473015 0.246049 0.3250844
0.9006143 0.0066846833 -0.4459072 0.9196248 0.0069638384 -1.298004 -0.037543304 0.33730084
0.20403153 0.7934777 -0.23153341 0.06294124 -0.84655344 -0.77299625 -0.40066522 -0.8422947
0.79064876 -0.44845122 -0.33455628 0.063810684 0.24527685 -0.11184685 0.5352434 0.7111278
0.12534703 0.22738642 -0.6426493 0.18843846 0.07955916 -0.4678381 0.26271832 -0.7390431
0.7057243 0.3528947 0.6184367 0.3808623 -0.5159203 -0.0073873787 -0.10200296 0.23512873
0.0035974174 -0.7594045 -0.48981762 -0.8083139 0.7337357 0.3222974 0.42820776 0.08609502
-0.39963505 0.39452183 0.24208313 0.3685318 0.19068928 -0.12638095 0.7392938 0.35883734

convs.0.a f4 [256, 1]
00000000: 8d69 183d a56c 6c3d 7f79 f0bc dc4e 753c
00000010: 7ab6 893c cca4 ca3b abf2 a93d 1f27 7fbd
00000020: f077 173d 65eb f73a 6b1e cebd 7c4f d03d
00000030: 9d19 f13d d792 c23d 32ff 53bd 5224 40bb
00000040: 42a5 513d 109f 48bd a84d 483e 3fe9 0d3d
00000050: 5c01 bf3d fc26 bf3c 2061 61bd d391 0a3d
00000060: a0b4 db3b 829f b33d 88bf 9f3d c0f4 05bc
00000070: 8adc 37bb 7f69 5bbd b47a d83c 6036 2d3c
00000080: 737c e1bc 1d1d 35bc ef6f 7a3d 0000 0000
00000090: 552e e13d d8a1 393d ed36 363b b5b8 093e
000000a0: 0000 0000 c864 e9bb 72d1 813c cc04 08be
000000b0: a357 0c3e 104a d03b 182c b33b 4823 de3c
000000c0: 5e3e 9c3d 7fe4 0a3b 20ba 553c 4963 453d
000000d0: f2dc c5bb 315d 0c3d 3d9d 8ebd c76b 9f3d
000000e0: 12b0 6f3d cefc e43c 05be 033e d00e c73d
000000f0: 8d26 133d 5e12 183d 4088 6dbd aa71 fdbb
00000100: 61c4 2f3d e683 123e 403b e6bd 5192 6dbe
00000110: cc78 103e 1266 cbbc cb5c 0fbd 3cb7 d43d
00000120: 91e5 37bd f48e 2e3d 9ce7 21bd bd62 973c
00000130: 0b0f 663b 5ef5 d93c bb4e 48bd 593a e23c
00000140: 3884 283e 784e f93b a1af b1bc 8cdf 14bc
00000150: fbc3 3a3c 8a6b 8c3c 2203 983d 88a8 0b3d
00000160: b536 45be 2729 0b3d 8511 d63d 5ab1 c4bd
00000170: 7704 603d 7045 af3d c207 a0bd dac3 56bd
00000180: 1cca bdbc c17d 053e 5877 063c 4a08 8b3d
00000190: 3ec0 0cbe b4f9 08bd eff3 8ebd 9272 9e3c
000001a0: 7425 1d3d bea1 fe3d 9127 cf3d a26c a43d
000001b0: 364c a73d 241e 71bd 9370 0fbc d618 363e
000001c0: e501 0dbe d9ac d83d 5952 383d 5326 d4bb
000001d0: c082 043e 6ab1 ec3d 5b43 0f3d 7a3d a3bc
000001e0: 9963 243b 033a 4e3e 3185 94bb 2450 013c
000001f0: d949 9e3d 4c94 293d ef3a df3c daf2 bf3d
00000200: 825b 29be 6481 27be 8355 52be 04e8 453e
00000210: 6623 7fbe f519 993c b868 333e 5b4d 7d3e
00000220: 9471 0dbe 26a1 143e 9b14 333e f826 3b3e
00000230: b328 b13d 06ee 253e 5074 68be 43a1 22be
00000240: 8409 bcbd e8c0 83be 3e73 3f3e ba4f 133e
00000250: a151 583e 3f9a 48be cd3c 493e 72d5 3ebe
00000260: 203a 83be 1ca2 143e 8761 30be 85d2 2d3e
00000270: 5167 7c3e 059c 443e 327d 2fbe c083 b9bd
00000280: c487 933e 28b0 b23d 0729 19be 6f15 83be
00000290: b1d2 93bd f5bd e53d 69d1 0d3d 7982 7e3b
000002a0: 56c3 75bd ce19 c2bd f73e 6dbe 45d1 0f3e
000002b0: cb99 3abb a0b7 2b3e e8f3 88be 6ed3 b43d
000002c0: 8817 383e 4370 e2bd cd1c 493e abde 06be
000002d0: 96fe 54be 9470 513e 22c2 183d b22e b83e
000002e0: a808 35be 0aed 11be 51d3 083e 2a25 e23c
000002f0: d959 243c 12a3 29be 07b8 113e 8d30 193e
00000300: 634c 353e 3ac8 8a3d d2e9 903e 4f96 aa3d
00000310: 26ef 243e 56e6 b13d 8188 d83d 80e5 87bd
00000320: 67d6 333e 7de0 f43e 3ff8 6abe 990c 3e3e
00000330: 4132 f73e 574f 57bd d792 573e 17c4 ecbc
00000340: 1d72 a23d 35ac 6f3e 1587 8bbe f25b 9a3e
00000350: 8ab9 00be 0379 30be 7bce 1cbe b58a 31be
00000360: 8af5 2d3e bdee 4ebe c98e 39bd 6d7b 803e
00000370: 9255 06be bd9e ee3d 34da 663e 7683 273e
00000380: ba47 923e 2cfc 4c3e 602b 17be b5f0 903e
00000390: 28b2 bb3e 3086 61be 53fb 613b fd8b 17be
000003a0: e02b ee3d e843 ec3c 07b6 a23d dd0a b1bc
000003b0: 4eb7 5dbe fa36 f83e cf7c bb3e 461e 373e
000003c0: 1802 b63e deba 2bbe 5cd0 43be 205c 1ebe
000003d0: cb03 0e3e 6049 2f3d 6444 c03d c2cf 623e
000003e0: 8d98 70be 571a 193d eb9b 433e 95da db3c
000003f0: 75e4 383e 8a11 753e 2798 043e 2d48 0a3d
0.037210036 0.0577208 -0.029354809 0.014972415 0.016810644 0.006184196 0.08298238 -0.06229317
0.036979616 0.0018914758 -0.100643955 0.101714104 0.117724635 0.09500664 -0.051757045 -0.0029318524
0.051182993 -0.04897982 0.19560874 0.03464627 0.09326431 0.023334019 -0.055024266 0.033830475
0.006704882 0.08770658 0.078002036 -0.008176029 -0.0028055036 -0.053567406 0.026425697 0.010572046
-0.027525162 -0.011054304 0.061141904 0.0 0.10995165 0.04532036 0.0027803734 0.13449366
0.0 -0.0071226098 0.015846942 -0.1328308 0.13705306 0.006356485 0.005467903 0.027116433
0.07629083 0.0021193323 0.013044864 0.04819039 -0.0060383016 0.03426856 -0.069635846 0.07784229
0.058517523 0.027952578 0.12865455 0.09719622 0.035925437 0.03712689 -0.057991266 -0.007734497
0.04291189 0.14308128 -0.1124177 -0.23200347 0.1410858 -0.024828944 -0.035000604 0.10386512
-0.044896666 0.0426168 -0.03952752 0.0184797 0.003510418 0.026606258 -0.04890321 0.027615713
0.16456687 0.007608231 -0.021690192 -0.009086501 0.011399264 0.017141122 0.074224725 0.03409627
-0.1925915 0.033974793 0.1045256 -0.096041396 0.054691758 0.08558166 -0.0781398 -0.052432872
-0.023167662 0.13036253 0.008207165 0.067886904 -0.1374521 -0.03344126 -0.069801204 0.01934174
0.038365796 0.124331936 0.101149686 0.080285326 0.08168833 -0.058866635 -0.008754867 0.17782912
-0.13770254 0.10579843 0.045000408 -0.006474295 0.12940502 0.115572765 0.034976345 -0.019926775
0.002508378 0.20139317 -0.004532479 0.007892642 0.07728929 0.041401193 0.027249781 0.09372492
-0.16538814 -0.16357952 -0.20540433 0.19326788 -0.24915847 0.018689135 0.17520416 0.2473654
-0.13812858 0.14514598 0.17488329 0.18276584 0.08650341 0.1620408 -0.2270062 -0.15881829
-0.091815025 -0.25733113 0.18696305 0.14385882 0.21124889 -0.1959009 0.196521 -0.1863611
-0.25630283 0.14514965 -0.17224704 0.16974838 0.24648787 0.19200142 -0.17137602 -0.090583324
0.28814518 0.087250054 -0.14957057 -0.2560229 -0.072179206 0.11217872 0.034623537 0.0038835092
-0.06000074 -0.09477578 -0.2316855 0.14044674 -0.0028473015 0.16769266 -0.26748586 0.088293895
0.17977726 -0.110565685 0.19639893 -0.13170879 -0.20800242 0.20453101 0.037294514 0.35973126
-0.17679083 -0.1425058 0.13361861 0.027605612 0.010031187 -0.16566113 0.14230357 0.14959927
0.1770492 0.067764714 0.2830339 0.0832945 0.16106853 0.08686511 0.10572911 -0.066355705
0.17562257 0.4782752 -0.22946261 0.18559493 0.48280528 -0.0525659 0.21052109 -0.028902097
0.07931922 0.23405536 -0.27251497 0.30148274 -0.12570778 -0.17233662 -0.15313141 -0.17338069
0.16988197 -0.20208259 -0.045302186 0.25094166 -0.1311858 0.11651371 0.22544175 0.16358742
0.28570348 0.20018071 -0.1476264 0.28308645 0.3665936 -0.22023845 0.0034482076 -0.14799495
0.11629462 0.028840974 0.07944875 -0.021611625 -0.21651956 0.48479444 0.3661866 0.17882642
0.35548472 -0.16770503 -0.19122452 -0.1546483 0.13868634 0.042794585 0.093880445 0.22149566
-0.23495694 0.037378635 0.19102447 0.026837626 0.180559 0.23932472 0.12948667 0.03376024

convs.0.linear1.weight f4 [128, 128]
00000000: f8f0 3dbe ce52 3c3d 9ce2 83bd 5fd6 123d
00000010: f0ff 873d a491 b93d a578 0e3e 88ff c9bc
00000020: 9876 3d3c bb5e 973d b9b1 733c 1868 903d
00000030: b196 713c 9f95 93bd aa54 193d d5b9 f6bc
00000040: f326 11be 9d1b 103d 9381 6ebb 2870 b43d
00000050: 278a f43d 4b93 1dbe 10a9 793b 81bd 48be
00000060: 5b6d fa3b 9689 0f3c 6f5b 14be 051f ae3d
00000070: c2a2 2dbd ebfb a83d d3f3 06bc 8e1c 05be
00000080: 27c3 123a 7629 3bbd 28dc 01be 9abc fdbe
00000090: 6d1c 093d 0b79 d93d 6a7e 97bd 871c 50bd
000000a0: b0ec 10bf f833 abbe 3618 2b3e b59d bd3d
000000b0: 3e13 cbbc 3559 07bd 7848 c23e 318b 6a3d
000000c0: e794 0fbd 3580 adbe 5fc3 233d 61bc f43c
000000d0: b367 073e 0983 8e3d 55f5 19be 679e 593e
000000e0: 2d7e 88bc 2c85 21be 3942 f73d cefa a13d
000000f0: e00e 2dbe 84f1 06be a7b8 68bc 6030 70bd
00000100: aae0 203d 84ab 2a3e 6da0 b03d 3cfc b23c
00000110: aef0 093d e198 73bb 716c 043e 619a 083e
00000120: 8bea b43d 4b96 893d 6db5 ba3d 4e1d ff3c
00000130: ef3a 4e3d d8f4 a0be 6f05 063e 9bdf b83d
00000140: 2029 d83d 1551 643d ef37 27bd ba22 c6bd
00000150: 2895 9fbe 002d 03bd dc48 8a3c a186 f23d
00000160: b0d8 293e 87d8 6cbd 5ab6 723d a2d2 41bd
00000170: 389e 383d 9b0f ae3b 49b2 113e 7fc1 5c3d
00000180: 9637 503d 70a5 03bd 935c 58be 25ae c93d
00000190: 7130 4e3e 5652 bbbc f656 023d eb94 22bd
000001a0: ad4a ab3d 1f64 8abd cfd3 103d 0276 68bb
000001b0: 13ed e3bc 9f54 2b3d 1162 2bbe 38b4 003d
000001c0: 815d eb3b fc7c 14be e6fa debc 9dea 8fbe
000001d0: 71cc e03c c4cf f33d ba6d b5bb 9ff8 d73d
000001e0: 8a3c c73d ac51 6ebc 2d46 be3b 57e4 23bd
000001f0: 2b38 8d3d 9655 be3b 2f25 23bd 3ec4 03bd
00000200: 0d63 30be 4a92 c5bd af54 afbd 3f2e 3bbc
00000210: 2a7c 1c3d ab65 a3bd f332 143e 7da7 d93c
00000220: 2d58 903d cbfd 253d 1f14 0d3d f40f 9c3d
00000230: 2453 84bb c4c4 dfbc 497c 54bc c5dd aa3d
00000240: d7d1 8dbe 46e4 383d 2171 bf3d 6d9c 033e
00000250: 1939 a23b 1148 36be 9ed8 71bc b436 26bd
00000260: 93fc 89bd 4426 b9bb 8d46 45bd aa4e 4fbc
00000270: 6c85 a2bd 1fc8 ac3d e658 523c cb8b 42be
00000280: 7de5 3cbd 8f83 9dbd ee6d c23c de24 e2be
00000290: f501 143d cc89 54bd 31c5 8ebc 5285 48be
000002a0: b2bf efbe 4e99 bebe 5fc2 0d3e 175d 9abd
000002b0: b322 0b3c 9411 f4bd 53b5 613e 6bd5 53bd
000002c0: f4ff 9ebd 9be6 cdbe fc73 7dbd 0326 623d
000002d0: 090b 8c3d 013a d63d 95b9 0cbe a3cd 9e3d
000002e0: be10 9bbd 58de e3bd e688 1c3c a359 2cbe
000002f0: 0e30 12be be75 81bd 478b 53bd 1e71 2f3d
00000300: 2990 013e 14b6 8d3d 3f21 923d 7719 993d
00000310: a7b7 0cbd 705f 163d 2204 12bd 1241 c53c
00000320: 718c 0c3e a85e 09be a26d 893d c245 593d
00000330: 28c1 23bc 6ed0 bebe d976 243c 021d f3bd
00000340: aec5 7abd 65b8 50bd b20b 8dbd f219 5c3d
00000350: 27da 71be a202 ccbd 3767 bfbd 727f 003d
00000360: 3f7a d73d eafe 0fbe 624d be3d f6d4 b1ba
00000370: c442 e6bd 78fb e6bd 54d7 303d 36f9 043d
00000380: af72 e13b add2 483d 692d 82be 616c 003d
00000390: 92c6 8cbc 9f33 d9bc 4028 77bd ff2b a8bd
000003a0: 746b 8cbc e833 e9bd 2491 9d3c a9b7 303c
000003b0: 9b72 55bd f56f 063d 6380 36be 6598 67bd
000003c0: 0c1b 033c ed45 96bd 9f26 30be b6b9 29be
000003d0: 4028 813d 86a7 96bd 6baf 0fbe 7b98 62bc
000003e0: b2c1 2c3d 639c afbd d61d b2b9 7aca a4bd
000003f0: c314 fbbc 761d 92bd 8e44 ed3c aded 8cbd
-0.18548954 0.045977406 -0.06439707 0.03584897 0.06640613 0.09060982 0.1391321 -0.02465798
0.0115639195 0.07391115 0.014873915 0.07051104 0.0147454 -0.07206272 0.037434258 -0.030117908
-0.14175014 0.035182584 -0.003639315 0.088104546 0.11940413 -0.15388219 0.0038095154 -0.1960354
0.0076424307 0.00876083 -0.14488004 0.0850201 -0.042391546 0.082511745 -0.008236843 -0.12999174
0.0005598538 -0.045693837 -0.12681639 -0.49557954 0.033474375 0.1061879 -0.073971584 -0.050808456
-0.56611156 -0.33438087 0.16708454 0.09258596 -0.024789449 -0.03304406 0.37945914 0.05726165
-0.035054114 -0.33886877 0.039981242 0.029874982 0.13223152 0.06958587 -0.15034993 0.21251832
-0.016661728 -0.15773457 0.12073178 0.07909165 -0.16900206 -0.13178068 -0.014204181 -0.058639884
0.039276756 0.1666699 0.08624349 0.02184879 0.033676796 -0.003716998 0.12931992 0.13340141
0.08833798 0.06718119 0.091166355 0.031141903 0.050349172 -0.314368 0.1308801 0.09027024
0.10554719 0.05574139 -0.040824827 -0.09674592 -0.31168485 -0.032025337 0.016880445 0.11842085
0.16586566 -0.057823684 0.059255935 -0.047320016 0.045072764 0.005311919 0.14228167 0.05389547
0.05083426 -0.032140195 -0.21129064 0.098476686 0.20135666 -0.02286641 0.031821214 -0.0396928
0.08363853 -0.06757378 0.035358246 -0.0035470729 -0.027823007 0.041828748 -0.16736628 0.03142187
0.0071827774 -0.14500803 -0.027219247 -0.28108683 0.027441235 0.119048625 -0.005536762 0.105454676
0.09728344 -0.014545839 0.0058067054 -0.040012684 0.06895479 0.0058085425 -0.039830383 -0.032169573
-0.17225285 -0.09647043 -0.08561074 -0.0114246 0.03820435 -0.07978376 0.1447256 0.026569122
0.07048068 0.04052524 0.034443017 0.0762023 -0.0040382314 -0.027315505 -0.012969085 0.083430804
-0.27699158 0.045139574 0.093477495 0.1285264 0.004950654 -0.17800929 -0.014761118 -0.040579513
-0.06737628 -0.0056503136 -0.048162986 -0.012653032 -0.079356045 0.084366076 0.012838578 -0.1899864
-0.046117295 -0.076911084 0.02373406 -0.44168752 0.03613468 -0.051889226 -0.017428013 -0.19582108
-0.4682594 -0.37226337 0.13843678 -0.07537287 0.00849216 -0.11917415 0.22041826 -0.051717203
-0.07763663 -0.40215 -0.06187819 0.055212032 0.06838042 0.10460282 -0.13742669 0.07754066
-0.07571553 -0.11126393 0.0095541235 -0.16831069 -0.14276144 -0.06321286 -0.051646497 0.042832486
0.12652649 0.06919494 0.071352474 0.0747556 -0.034354832 0.03671211 -0.035648473 0.02407888
0.13725449 -0.13415015 0.06710364 0.05304504 -0.0099947825 -0.37268394 0.010038101 -0.11870767
-0.06122368 -0.050957102 -0.06886996 0.05373568 -0.23618375 -0.0996144 -0.093458585 0.03137154
0.105213635 -0.14062086 0.09292103 -0.0013567496 -0.11243203 -0.112784326 0.043174103 0.03246423
0.0068801264 0.04902904 -0.2542527 0.03135336 -0.01718453 -0.026513873 -0.06034112 -0.082115166
-0.017141081 -0.113868535 0.019234248 0.0107859755 -0.05211125 0.032821614 -0.17822413 -0.05654182
0.008002054 -0.07337556 -0.17202233 -0.1657475 0.06306505 -0.07356171 -0.1403176 -0.0138302995
0.04217691 -0.0857475 -0.00033973035 -0.08046432 -0.030649548 -0.071345255 0.028963353 -0.068812706

convs.0.linear1.bias f4 [128]
00000000: cde0 b6be 00ed 86be 15d9 22be 1e63 a73d
00000010: 512a 063d db29 89be 3644 72be e7e1 b83e
00000020: 61c4 b33e 672c 9f3e b32f 81be 1b6c cf3e
00000030: e283 be3e d7dc c53e 5740 ce3e 93d5 a4be
00000040: 7599 a53e 5367 99be 6289 35be 24eb 98be
00000050: 8e2f d0be e51b b83e f83c a33e 687f c53e
00000060: 8d4c 9a3e 4922 babe abc9 2cbe 081f 99be
00000070: 4aaf 143e 91b6 4dbe 1f18 e33e af25 65be
00000080: d624 9cbe d51e 9cbe 67e1 9dbe 6163 8cbe
00000090: dffb d03e ef72 c33e de63 a1be ac0b b53e
000000a0: d544 8cbe edc1 9f3e f7ee 583e 6c3b a53e
000000b0: b6fe 4a3e 341a b5be 50af ae3e 9116 85be
000000c0: 027c 3cbe 05db bbbe b92b c03e dd63 b83e
000000d0: 6fb4 9abe 77ab aebe 1fb1 ab3e 17ee cc3e
000000e0: f738 a8be 0c8a 9bbe bfa9 a1be c2d4 9d3e
000000f0: 9d2c c73e 347b c13e 4248 a73e 2899 5a3e
00000100: fbc6 9d3e eabf 963e a05b ae3e c93c 96be
00000110: 9852 a13e bee5 bd3e 3e73 a2be 55f6 3f3e
00000120: 61ba bcbe bf4b b8be 5882 a53e 4eb1 93be
00000130: b9ae cc3e 5c03 89be 29ab c9be 035a c33e
00000140: 3548 b33e 662b be3e 28e4 d03e df59 953e
00000150: 5012 80be 0102 a33e 687c a73e 7513 cc3e
00000160: c057 aebe b50d b43e 3c21 b63e 5b65 a0be
00000170: 14c6 5d3e 0c2c a7be 9ef6 3b3e 6c89 ca3e
00000180: a0a4 9fbe 787b b5be eb8b b7be c202 9fbe
00000190: c993 aebe ccbe bd3e 0380 b13e 3bf0 99be
000001a0: 669d 583e c8a4 a6be 359f 67be ecab b63e
000001b0: 9255 6cbe 8363 9dbe a5bf ccbe 4b01 bf3e
000001c0: cccf 4f3e a927 953e 1f87 42be 59cf aebe
000001d0: ea56 a03e 26b3 c73e db22 99be cdd2 bc3e
000001e0: 8f1c 91be e3a8 b43e 5b84 31be 61df c63e
000001f0: d46b b93e e43a a9be adc5 b7be b235 a4be
-0.35718384 -0.26352692 -0.15903123 0.08173202 0.0327552 -0.26789746 -0.23658833 0.3610985
0.35110763 0.31088564 -0.25231704 0.40512165 0.37209994 0.3864505 0.40283462 -0.32194194
0.3234364 -0.29961643 -0.17728189 -0.29866898 -0.4066128 0.35958782 0.31882453 0.38573766
0.3013653 -0.36354282 -0.16873805 -0.29906487 0.14519992 -0.20089175 0.4435434 -0.22377656
-0.30496854 -0.30492273 -0.3083603 -0.2741957 0.40817162 0.38173625 -0.31521505 0.35360467
-0.27396265 0.3120264 0.21184908 0.32271898 0.19823727 -0.35371554 0.34118128 -0.2599378
-0.1840668 -0.36690536 0.37533358 0.3601369 -0.30215785 -0.34115192 0.3353357 0.40025398
-0.3285596 -0.3037876 -0.31574818 0.30826384 0.38901225 0.3778931 0.32672316 0.21347487
0.30815873 0.29443294 0.3405428 -0.2934325 0.31508327 0.37089342 -0.31728548 0.18746312
-0.36860946 -0.3599529 0.32326007 -0.2884621 0.39977053 -0.26760375 -0.39388397 0.3815461
0.35016027 0.37142485 0.4079907 0.2917013 -0.2501397 0.31837466 0.32712102 0.39858595
-0.34051323 0.35166708 0.3557223 -0.31327328 0.21657592 -0.32650793 0.18355796 0.3955797
-0.31180286 -0.35445762 -0.35848936 -0.31056792 -0.34097126 0.3705963 0.34667978 -0.30066094
0.21153793 -0.32547593 -0.22619326 0.3567804 -0.23079517 -0.30739984 -0.39989963 0.37305674
0.20294112 0.2913182 -0.18996857 -0.3414257 0.3131631 0.39003867 -0.29909405 0.36879578
-0.283421 0.352851 -0.17335646 0.388423 0.3621508 -0.33052742 -0.35893002 -0.32072216

convs.0.linear2.weight f4 [128, 128]
00000000: 1295 99be 6407 e23b cd42 a93d 5dad 903d
00000010: 8733 083e 1220 01be 445e 04be 91b0 843e
00000020: 6a5f 8d3e 82cd 293e 973a 12be 0a03 8c3e
00000030: 1290 983e 77ff b23e a1d8 d73e 3aaf b8bd
00000040: 654a 923e 88cb 92bd 872c 183d d737 36be
00000050: 2e55 83be 5793 973e 1123 133e caa3 cf3e
00000060: c03c 743e 4bb0 92be edf2 22be 632b 52be
00000070: 25f8 873c 675e c5be 86f0 f43e 8598 d3be
00000080: 1473 bdbd d10a 5bbe 8b1c 4cbe b2ab 41be
00000090: 91d3 023f 56c8 9a3e f322 dabd 1993 4b3e
000000a0: c76d d6bd e5f4 9b3e 7872 a63e ae73 593e
000000b0: cb3c bf3e c03e 06be 86a1 6f3e 0245 30be
000000c0: 1ef2 3cbe b2dc 99be b3b7 b63e 943d b63e
000000d0: 4d70 0fbe ed6a 81be 99f5 833e 571f c13e
000000e0: f874 90be dc01 32be 732f 9fbd cff4 793e
000000f0: 6edf 7c3e 7d7c d43e f079 fc3e b30a b23e
00000100: 0be0 503e 25b0 153e 8737 843e 8017 8bbe
00000110: 2a77 873e 3fce ce3e db43 88be a647 a53e
00000120: e37c 73be 2a60 78be e894 3b3e 3994 9bbe
00000130: 983c d23e fe17 9ebc 0317 46be 1caf b43e
00000140: 1fd7 2a3e 179c 983e 76f5 b73e 1920 dc3d
00000150: 04ca f9bd 78d0 733e 89ae 8c3e 6299 a53e
00000160: 1cac b7be 826b 3c3e d44b 043f a6e1 1bbe
00000170: c7a6 3e3e 7f05 8dbe 568e 613e 3a5d a53e
00000180: 391c 46be 7a7c 53be 1e84 31be 8b1a 28be
00000190: 1d73 3abe 2ae0 933e 70e3 5d3e 042f 2bbe
000001a0: f46e ad3e ce8b 9fbe b024 8fbd 501e b33e
000001b0: 1339 40bd ae20 3abe 48ea 88be e969 cf3e
000001c0: 6a91 b13e 2fa4 3e3e 5556 b6bd 7780 78be
000001d0: e4cb 193e b42f 173e 9f34 5abe e419 5c3e
000001e0: 8518 cebd bca5 b33e ec0a bbbe ba79 d03e
000001f0: 9ee7 723e 865f 85be bec5 44be 72db 17be
00000200: 270d 57be 4fba 04be 77d5 c43d fa85 c0bc
00000210: b5d4 333e 928b 6fbe 5662 49bc 0119 7e3e
00000220: 2782 823e 68d2 2f3e 67a4 33be 41d7 893e
00000230: 4445 0e3e 607e dc3e 0ca6 a63e a94e 98bd
00000240: ac44 2e3e b7d9 e6bd adf5 443d 4267 1fbe
00000250: 7b54 95be ac60 283e 795e 553e fb8a ca3e
00000260: 4f36 813e 74f5 8abe 2bf1 7bbe 91eb 10be
00000270: 1779 afbc 93f4 aebe 5e55 083f c50d 93be
00000280: e196 dfbd 74bf 59be 7b4d 61be b5cc dabd
00000290: 2543 e53e fd99 173e 6e84 5dbe 210d a33e
000002a0: ebc8 1cbe c9dd 8c3e 1b92 4a3e c496 bd3e
000002b0: 16e3 4f3e b45d 3bbe 6128 673e 1e7b 20be
000002c0: 28e0 2cbd 993f 86be b7b6 ab3e 5e48 ad3e
000002d0: f80b 17be d56f 19be 39d1 323e 76d1 ae3e
000002e0: db2e 48be 24be 48be 4acb 73be b7aa 1d3e
000002f0: c999 723e e5e9 ac3e 7891 bf3e c6a7 8c3e
00000300: bf3f 633e a26e 443e f17b a73e aaf3 8dbe
00000310: 1759 7e3e e57d a23e d4f7 5ebe 5eb6 993e
00000320: 5f10 bcbe 09e7 8cbe 85db 4a3e 2250 3ebe
00000330: 2033 7e3e 0061 a6bd d88f 94be ebc1 783e
00000340: e711 c43d eee4 a03e 644f d43e 7083 0d3e
00000350: 39bc e2bd 1ecb a03e 5e41 813e 535d a13e
00000360: e122 9dbe 8096 883e 7e86 bf3e 2c68 5dbe
00000370: def0 d33d 806d 12be b7de 1d3e 49d3 c93e
00000380: f63e b7bd 0156 30be abca a3be 9e32 64be
00000390: 0c82 19be 4861 4f3e 73d9 533e 7581 2ebe
000003a0: a289 4e3e 2c1d 5abe 28d1 71bd 69b8 633e
000003b0: 31e0 f7bd 50e5 6abe 23e2 65be 27b2 d53e
000003c0: 380e 223e bbc0 9e3e dc3b 063d ca29 82be
000003d0: 3286 4b3e 6d45 313e ad16 56be 802b 6d3e
000003e0: f627 b9bd 86c4 bf3e 61a2 48be fec8 863e
000003f0: ea42 973e a59e 5bbe c16a 8cbe 790c 17be
-0.29996544 0.0068978537 0.08264694 0.070643164 0.13300906 -0.1260989 -0.12926584 0.2591596
0.27611858 0.16582301 -0.14280163 0.2734607 0.29797417 0.3496053 0.42157462 -0.09017797
0.28572384 -0.07167727 0.03715184 -0.17794739 -0.25650924 0.296046 0.14368846 0.4055465
0.238513 -0.28650126 -0.15912981 -0.20524363 0.016597817 -0.38548586 0.47839755 -0.413273
-0.09250465 -0.21390845 -0.19932763 -0.18913153 0.51104075 0.3023097 -0.10651197 0.19880332
-0.10470157 0.30460277 0.32509208 0.21235535 0.3735107 -0.13109875 0.2340146 -0.17213824
-0.18451735 -0.3005119 0.35687026 0.35593855 -0.14007683 -0.2527689 0.25773314 0.37719223
-0.2821424 -0.17383522 -0.07772722 0.24409793 0.24694607 0.41501227 0.4931178 0.34773788
0.20397966 0.14617975 0.25823614 -0.27166367 0.26458102 0.40391728 -0.2661427 0.32281226
-0.23778109 -0.24255434 0.18318522 -0.30386522 0.41061854 -0.01929855 -0.19344716 0.35289848
0.16683625 0.29806587 0.3592946 0.1074831 -0.121967345 0.23809993 0.2747691 0.32343584
-0.35873497 0.18400386 0.51678205 -0.15222797 0.18618308 -0.27543256 0.22026953 0.3229769
-0.19346704 -0.20652953 -0.17335555 -0.16416375 -0.18207975 0.2888196 0.21668792 -0.16717154
0.33873713 -0.3116135 -0.069894195 0.34984064 -0.04692943 -0.18176529 -0.26741242 0.4051049
0.34681255 0.18617319 -0.08903185 -0.24267755 0.15019184 0.14764291 -0.21309136 0.21494251
-0.100632705 0.35087383 -0.3653177 0.4071787 0.23721167 -0.2604944 -0.19216058 -0.14829805
-0.21001111 -0.12961696 0.09611028 -0.023501385 0.1756161 -0.23393086 -0.0122915115 0.24814226
0.25489923 0.17170107 -0.17543183 0.26922038 0.1389361 0.43065166 0.3254856 -0.07436878
0.17018384 -0.112719946 0.048085857 -0.15566733 -0.29166016 0.16443127 0.2083682 0.3955916
0.25236747 -0.2714039 -0.24603717 -0.14152361 -0.021420045 -0.3417097 0.5325526 -0.28721443
-0.1091745 -0.2126444 -0.22002213 -0.10683576 0.4477779 0.14804836 -0.21632549 0.31845954
-0.15311019 0.2751296 0.19782297 0.37029088 0.2030147 -0.18297464 0.22573997 -0.15671965
-0.04220596 -0.26220396 0.33537838 0.33844274 -0.1475066 -0.14984067 0.17462625 0.3414418
-0.19549124 -0.19603783 -0.23808017 0.15397154 0.23691477 0.33772197 0.3741567 0.2747175
0.22192286 0.19182828 0.32711747 -0.27724963 0.24838673 0.31736675 -0.21774226 0.30021948
-0.3673124 -0.27520016 0.19810303 -0.18585256 0.2482419 -0.0812397 -0.29015994 0.24292724
0.09573727 0.3142466 0.4146682 0.1381967 -0.11071057 0.31404966 0.25245184 0.31516513
-0.30690673 0.26677322 0.37407297 -0.2162177 0.10348676 -0.14299583 0.1541699 0.3941901
-0.08947556 -0.17220308 -0.3199056 -0.22284934 -0.14991015 0.20251954 0.20688419 -0.17041571
0.2016969 -0.2130019 -0.059037358 0.22238316 -0.12103308 -0.22939038 -0.22449546 0.41737482
0.15825737 0.31006417 0.03277193 -0.25422508 0.1987541 0.1731164 -0.20907088 0.23161125
-0.09040825 0.37454623 -0.19593193 0.2632522 0.2954324 -0.21447237 -0.27425197 -0.14750852

convs.0.linear2.bias f4 [128]
00000000: 2717 963e 8b76 903e fe61 7d3e 9107 6dbf
00000010: 4be8 09be 7b5a 693d a594 0abe 715d 03bf
00000020: c8d1 dcbd 2366 1abe 89e3 933e cda4 873e
00000030: 3c87 953e 4e94 87be 9ceb 9b3e 583a 60be
00000040: e348 683e b837 e8bd 9ffe 60be 428f 993e
00000050: 1311 453e 6876 52be 6f56 babe 6cd1 73bd
00000060: ae4f 4cbe 52a6 efbe ed23 3f3e dadd 5abe
00000070: 1bef 32be 02ef 9d3e 89f7 f7bc 5704 bbbe
00000080: fb10 94bd 8271 d3bd 0558 173f ad3d 883e
00000090: c6cc 8b3e 9fa3 4dbe 7de3 4dbf fd39 2abe
000000a0: fb10 8d3e e25e 993e 3b53 23be e7d3 15bf
000000b0: cfbc 563e fe8c 3abf 03aa be3d d6bf 51be
000000c0: 57b3 f8bd 4e06 1cbd 8ff0 1a3d 4c93 3dbe
000000d0: 8478 8abf 6a45 923e cbb4 ad3e 1eeb d4be
000000e0: aebc 543e 5224 34bf 697c 783e 9d43 5e3e
000000f0: 00ec 30be 9b43 673e 45b1 9f3e e3aa a7bd
00000100: bbbe 9a3e 91d2 89bf 51b0 b5be 7fbc 60bd
00000110: c23a 803e 30e4 e0be b812 82bf 8f93 15be
00000120: 75fc 433e 42ce 513e 74a3 6b3e 03d3 97bd
00000130: e21d 4e3e f026 833e 51a6 8fbe 55c9 57be
00000140: 3809 b3be 2e35 3ebe 8494 f3bd 4b83 8e3d
00000150: 4ea5 403e 0afc 2fbe a61f 07be 984e 6a3e
00000160: fca1 0cbf a48e 903e aaa2 39bd 297d 21be
00000170: a0a2 07bf 5041 2ebe 30a4 843e bc16 3bbf
00000180: 2fb3 5abe a2c8 42be b5ce 29bd 17da f5bd
00000190: 96ff 26bf 7cfe 59be 9cdb 673e 8ec8 66be
000001a0: 07d1 8e3e 7127 893e ebd2 6bbe 99e9 9cbc
000001b0: 2fa6 6bbe dbfa 2c3e 4a30 823e ed29 bdbd
000001c0: 3125 7dbf e6ec ab3e 7d31 dc3d d83b a6bd
000001d0: 9871 923e 50e6 6abd 921d 05bf 4fdd 893e
000001e0: b3b2 6fbd f30b 9dbe f5f5 fabd d4e0 15bf
000001f0: 6d18 15bf bac7 bcbd 1f89 563e 60bd 633e
0.2931454 0.2821544 0.24744412 -0.9258967 -0.13467519 0.056971055 -0.13533266 -0.51314455
-0.107822 -0.15078025 0.28884533 0.2649292 0.29204738 -0.26480335 0.30453193 -0.21897256
0.22684054 -0.113387525 -0.2197213 0.2999211 0.19244795 -0.20552981 -0.3639407 -0.059525892
-0.1995227 -0.4680658 0.18666048 -0.21373692 -0.17474024 0.3084641 -0.030269401 -0.3652675
-0.07229801 -0.10324384 0.5911868 0.26609555 0.27304667 -0.20081948 -0.80425245 -0.16623683
0.27552018 0.29955202 -0.15949719 -0.5852646 0.20970462 -0.72871387 0.09309771 -0.20483336
-0.12143581 -0.03809195 0.03782707 -0.1851322 -1.0818028 0.28568584 0.33926997 -0.4158563
0.207751 -0.7036792 0.24266209 0.2170548 -0.17277527 0.22584383 0.31189933 -0.08186891
0.3022364 -1.0767385 -0.3548608 -0.054867264 0.2504483 -0.43924093 -1.0161963 -0.1460707
0.19139273 0.20488837 0.23011571 -0.07413294 0.20128587 0.25615644 -0.28056577 -0.21072896
-0.3496797 -0.18574974 -0.118935615 0.06958636 0.18813059 -0.17185989 -0.13195667 0.22881544
-0.5493467 0.28233826 -0.045321144 -0.15770401 -0.5298252 -0.17017102 0.25906515 -0.73081565
-0.21357416 -0.19021848 -0.041456897 -0.12004488 -0.65233743 -0.21288484 0.22642368 -0.22537443
0.2789385 0.26787904 -0.23029678 -0.019154357 -0.23012613 0.16892569 0.25427467 -0.09236512
-0.98884875 0.33579177 0.10751627 -0.08116883 0.2860229 -0.05734855 -0.51998246 0.26926658
-0.05852003 -0.3067318 -0.12253944 -0.58546185 -0.58240396 -0.09217782 0.20950745 0.2224021

convs.1.a f4 [256, 1]
00000000: d115 5ebc 9609 80bb 3942 88bc 0000 0000
00000010: 3ff8 4732 54b9 6a38 6f6e e9b5 0000 0000
00000020: ac8b 6238 37c9 6636 b954 853c f6fe 7d3b
00000030: bb3e 39bc 0000 0000 eec7 913c b85e 1fb0
00000040: 4c18 29bc 146d 27ba 960b 3333 9ad3 573c
00000050: d0a1 ccbc 35f2 85b4 0000 0000 0af1 a036
00000060: 347f 05b5 2819 e030 e57d ca3b 815f 17b7
00000070: e8f2 0831 cccd 55bc dd89 7c35 853f d232
00000080: 6019 f037 2926 4db6 2579 dabc 4225 c63c
00000090: bcd5 7a3c 0000 0000 0000 0000 bdf2 d435
000000a0: 9ffe b2bc 45b1 88bc 5b83 9538 2ed2 20b2
000000b0: 2b61 a8bc e647 c439 d67a a7b9 d560 a335
000000c0: b7e1 c3b9 b241 f13b 36f8 a1ba f998 3138
000000d0: 0000 0000 34f9 4c3c d46a 4fbc 0000 0000
000000e0: 091e a0bb 65ec b731 d93e 583a 5de1 2abc
000000f0: ea94 f8b2 2849 28bc a18e 13bc e4a6 ffb2
00000100: 43dc ed3b f303 9431 2a13 302f fec3 41b6
00000110: 5baf 963c 0000 0000 d5c2 42ae 9fa4 d5b7
00000120: e9eb 56bd 438d 82bc 6e3f 533b 19a9 2335
00000130: 2a88 2ebc b624 e7bc b0ca 2db4 398c a7b8
00000140: 0000 0000 3702 7937 5457 4f37 14e0 83b4
00000150: 868e a23c 0000 0000 4e36 78b7 db79 90bc
00000160: 0000 0000 d7a8 853c 3c4b ac37 080f f635
00000170: 68ea e132 a41f 81b5 bc11 40bc 2e2d d630
00000180: 51a9 3bb5 5bca b8b3 c948 59b4 9752 4835
00000190: 0000 0000 1de4 33b5 3de7 acbc b210 aa34
000001a0: da70 983c ad81 9b3c 9248 05b5 e5ea 2db4
000001b0: 1279 9fb5 3057 66bd ba69 7abc 07a1 2eb8
000001c0: 8025 3132 63d4 373d ec29 9b33 a37b 51b9
000001d0: 7db4 eabc 9440 0b36 bb63 f5b2 ae54 86bc
000001e0: 171e 8236 0000 0000 3757 6237 120d 22b5
000001f0: 0000 0000 00a6 c333 e2b8 0cbd 2b2d d9bc
00000200: eafa 14be c1c2 0fbe 6445 12be 4e9d 6c3f
00000210: fd65 3b3f 8d30 c33e 4ad9 2a3f fb31 543f
00000220: 7946 3c3f e1d4 3d3f 4aaa 11be a462 1ebe
00000230: 9898 1bbe e138 0d3f 2490 0dbe 66f2 253f
00000240: a834 02be 5170 fb3e c46a 6a3f f148 20be
00000250: ee0f 3cbe 2f8b 1a3f b587 4d3f 3d2d 173f
00000260: 125f 263f 7c8d 563f f13b 15be 6622 223f
00000270: c189 323f 4a88 16be f2f6 4f3f d7b3 633f
00000280: 1924 3b3f 126f 363f 4534 4cbf 078e 0cbe
00000290: 2472 10be 5228 233f 6632 6d3f 3e57 1e3f
000002a0: 7409 11be 435c 15be 7d72 383f b524 993f
000002b0: bf42 10be b5c7 523e 9002 973e 8e75 223f
000002c0: dafc 023f ada3 1fbe 1da3 043e aa0b 323f
000002d0: 3bef 773f 577f 1dbe 47ef 1cbe d25b 4c3f
000002e0: ae9b 27be 6803 6e3f 7423 1fbe f154 1bbe
000002f0: 5335 1d3f 4bb3 1fbe 186f 21be 2cca 4b3f
00000300: 46d9 12be 1d60 9b3f 97c3 543f 04e3 323e
00000310: 02c7 23be 6a54 483f af57 793f af52 3c3f
00000320: e4ec 2fbe 7aa1 1bbe 2a13 1fbe 042e 303f
00000330: 8bb2 27be a0f1 18be 96dd 233f 2341 193f
00000340: 5f72 453f fb0b 313f e9b6 383f f19e 353f
00000350: dd4d 38be 1b8d 073f 17f2 2a3f d59b 1ebe
00000360: 3ea6 583f c174 12be 1561 be3e 146f 293f
00000370: e974 623f f0c6 2a3f 2c70 14be e6a7 4a3f
00000380: 9fc3 1c3f 5c5e 183f fe68 3a3f e6a2 423f
00000390: 9150 643f b684 213f ff99 05be c238 1e3f
000003a0: f292 1abe c74b 10be cc4a 2a3f 8c15 0f3f
000003b0: 295a 1f3f 49b5 02be 95d8 15be 125b 413f
000003c0: 87c2 673f 4208 1cbe 49ee 583f c10c dfbd
000003d0: ee6c 2abe 45d8 183f 0357 5d3f 55e4 15be
000003e0: 9d0d 3c3f f8c6 343f 2136 353f 750b a23f
000003f0: 3028 603f 0fae 623f 6639 1ebe b108 04be
-0.013555006 -0.0039073927 -0.01663314 0.0 1.1639769e-08 5.5962548e-05 -1.7391993e-06 0.0
5.401268e-05 3.4389793e-06 0.01627575 0.0038756705 -0.01130646 0.0 0.01779553 -5.7978466e-10
-0.010320734 -0.00063867983 4.1687223e-08 0.013173008 -0.024979502 -2.494941e-07 0.0 4.796432e-06
-4.9731466e-07 1.6305295e-09 0.0061795586 -9.022538e-06 1.992868e-09 -0.013049554 9.4077933e-07 2.4476103e-08
2.8622046e-05 -3.0569593e-06 -0.026669094 0.024187688 0.015309747 0.0 0.0 1.5865877e-06
-0.021849928 -0.016686091 7.1293405e-05 -9.361015e-09 -0.020554146 0.00037437602 -0.00031944242 1.2172628e-06
-0.0003736147 0.007362568 -0.0012357298 4.2342555e-05 0.0 0.0125105865 -0.012659747 0.0
-0.004886393 5.352876e-09 0.0008249111 -0.010429707 -2.8938718e-08 -0.010271348 -0.009006173 -2.97618e-08
0.0072589233 4.307816e-09 1.6013915e-10 -2.8873324e-06 0.018394163 0.0 -4.428354e-11 -2.5468236e-05
-0.052471075 -0.0159365 0.0032233852 6.09683e-07 -0.010652581 -0.028215747 -1.6185618e-07 -7.989299e-05
0.0 1.4842072e-05 1.2358494e-05 -2.456369e-07 0.019843351 0.0 -1.4794596e-05 -0.01763623
0.0 0.01631586 2.0539032e-05 1.8332803e-06 2.6300043e-08 -9.620458e-07 -0.011722978 1.558339e-09
-6.9909316e-07 -8.604976e-08 -2.0236179e-07 7.462599e-07 0.0 -6.7014645e-07 -0.021106357 3.1677115e-07
0.0186085 0.018982733 -4.9651965e-07 -1.6197335e-07 -1.1881659e-06 -0.056235492 -0.015283996 -4.16348e-05
1.03112825e-08 0.044880282 7.2253755e-08 -0.00019977851 -0.028650517 2.0750203e-06 -2.8567106e-08 -0.0163978
3.877805e-06 0.0 1.3490956e-05 -6.036872e-07 0.0 9.11059e-08 -0.034356005 -0.026510796
-0.14548841 -0.14039136 -0.14284283 0.9242753 0.73202497 0.3812298 0.66737807 0.82888764
0.7354503 0.7415295 -0.14225116 -0.15467316 -0.15194929 0.55164915 -0.13824517 0.64822996
-0.127154 0.49109128 0.9156916 -0.15652825 -0.18365452 0.6036863 0.802852 0.59053403
0.64988816 0.8380964 -0.14573647 0.6333374 0.69741446 -0.14700428 0.81236184 0.8894629
0.73101956 0.7126323 -0.79767257 -0.13726054 -0.14106041 0.637334 0.92655027 0.6185187
-0.14163762 -0.14585976 0.72049695 1.1964327 -0.14087962 0.20583995 0.29494143 0.63460624
0.5116707 -0.15589781 0.12952848 0.6954905 0.9684941 -0.15380608 -0.15325652 0.79827607
-0.16367981 0.9297395 -0.15540868 -0.15169121 0.6140949 -0.15595739 -0.15765035 0.79605365
-0.14340696 1.2138706 0.83110946 0.17469412 -0.15993884 0.78253806 0.9739942 0.73563665
-0.1718021 -0.15198317 -0.15534654 0.68820214 -0.16376702 -0.14935923 0.6400999 0.59865016
0.7712764 0.69158906 0.721541 0.7094565 -0.17998452 0.52949685 0.6677565 -0.15489133
0.84628665 -0.1430235 0.37183443 0.66185117 0.8845964 0.66709805 -0.14495915 0.7916244
0.61235994 0.5951898 0.72816455 0.76029813 0.89185435 0.63093126 -0.13047026 0.61805356
-0.15095118 -0.14091407 0.6652038 0.5589225 0.6224695 -0.12764467 -0.146334 0.7552959
0.905312 -0.15237525 0.84738594 -0.108911045 -0.16643116 0.59705 0.86460894 -0.14637883
0.7345827 0.706161 0.7078572 1.2659746 0.8756132 0.8854684 -0.15451583 -0.1289394

convs.1.linear1.weight f4 [128, 128]
00000000: f064 e1bc 7cfa 11bd 4119 4dbc c359 45bf
00000010: c980 51bf 8b80 5ebd 5254 b3bd 0d4e 06bf
00000020: 89f2 1abe 47c9 17be ef38 d13d b46d 193d
00000030: f039 42bc 6b96 a2bd 3f92 ef3c ad10 39be
00000040: 8542 99bd 3a87 f1bd 6e18 8fbf 9800 cd3c
00000050: 1ec0 52bd 54bf 47be f2bb cdbe d42a 08be
00000060: 7534 f0bd 99a5 fabe d2ce 933d 39b0 52be
00000070: 9958 88be c4b3 663d 7694 6cbf cd26 86bf
00000080: 7f05 27be d527 10be da31 bfbe 05c2 80bd
00000090: 338a 5a3d c491 6dbe 15e5 2cbf 9e31 e2bd
000000a0: 7ed0 c7bc 3ba4 d73c d38a 67be cf04 a6bf
000000b0: 7d02 7cbd bd0c 80bf aa92 debc f809 bebd
000000c0: 8559 2ebe 4c09 3dbb a72e 0abd 42a2 86be
000000d0: 616f 6abf 11dc 863d a1cf 5c3d eaef bbbe
000000e0: bf9a 54bc a239 88bf 33ab 2f3c a75a 95bc
000000f0: 81f4 61be 6370 753c a4a1 37bd c00d 3fbf
00000100: 172f aebc e5fb b8bf d782 0cbf 4516 bdbd
00000110: 2233 5dbd d04f dbbe 0c51 55bf 9360 99bd
00000120: 024e 75bd 6f5d 4dbd ce83 663c 3779 08be
00000130: b01e bcbc 6120 45bd e21d a2bf 664e d1bd
00000140: 4fc6 d1be 319b 5fbe e3f0 14be 7c10 72bf
00000150: 3513 83bd fed8 2fbe 0a4f 57be bf7a db3d
00000160: b35a eebe 426a 963d 6e23 56be 7f36 46be
00000170: 98de 7fbf bfa6 8cbe 504a 4d3d 20d1 77bf
00000180: 47f3 70be f96c 7cbd 6f37 88be 2004 77bf
00000190: 3381 0fbf a0eb b8bd 0a36 a93d eec3 50be
000001a0: 9fa5 f53b ba51 4e3d 0d73 f0bd 9394 83bd
000001b0: efde 16be cab7 2dbd bd57 a13c 6f0c 74be
000001c0: 0039 dcbf b4b1 cd3d be8a 3ebf a5de bc3b
000001d0: 7b0b b63d c401 4bbe e26f 81bf ae51 193b
000001e0: 666b 10be 323f 89be 99dc febd 63b3 a1bf
000001f0: c913 f2be 4d04 74bf 9dfa 983d c8c2 1bbd
00000200: 302d f2bb 1b34 71bc 8928 7c3d a83e e9bd
00000210: 5d0e a9bd 13c8 ef3d aa19 9abd 2806 2fbe
00000220: dcfc 00be 2eef efbd 0f70 d1bd 371e 633d
00000230: d6cd 5ebd 7c28 a2bd 147f 243d 1572 06be
00000240: aaea d6bc a439 95bc 182b c7bd 0965 a9bb
00000250: b2a0 2cbd 950d 4bbd 6800 60bd 6c3a 09bc
00000260: 3c9a eabd a146 26be 0b7f 7abd 22ad afbd
00000270: be1f c4bd 98c2 783d 28e5 2dbe da00 fbbd
00000280: 8303 6ebd 8cca 6cbd d032 23bd c8ab 62bd
00000290: 9e75 443d c2e5 44be a45d 6cbd 7a94 b7bd
000002a0: 8db8 ddbd e082 5ebd f3a6 b7bd 1238 7dbd
000002b0: 5086 a2bd afd1 46bc f33e 6d3a 4edc b7bd
000002c0: 02e4 17be 9eda b63c d65d d63d b375 e1bd
000002d0: 5690 93bd 389b 8e3d 58f3 b6bd 2a44 40be
000002e0: 8ea2 243d 08e3 8fbd 6db9 c2bd e550 513c
000002f0: 34e2 42bd 648e 493d 0461 d5bd b6cf 7fbd
00000300: 15bf abbd aa6c acbd 5859 16bd 72e0 ae3d
00000310: 2622 263d 4bf5 8fbd fb88 46be a5e8 7cbd
00000320: fa94 f8bc ce00 0b3d 25fa 5c3d 9237 52bd
00000330: 97a3 493d 62c9 c6bc 25f3 d3bc 8c09 95bd
00000340: 6239 05be 3218 89bd 69e3 63bd 21c5 a3bc
00000350: 5e94 983d 51d7 23be e4e5 1bbd 783f 5dbc
00000360: 6e49 eabd c21b 86bd e8b2 87bc d944 3abe
00000370: 82bc b7bd f4f1 4ebd 6168 09bc 6f41 1fbe
00000380: 3ac9 2ebe 624b 25be 792a b6bd 95d2 34be
00000390: ac56 9fbd 6cac f4bd 74c2 91bc 4c60 07be
000003a0: fede 683c 3c89 543d cfe8 f1bd b9d2 113c
000003b0: e305 03bd 1ab3 843d d615 923d 1264 bcbb
000003c0: 1ebe 94be 9e20 12bd b657 55bb 3911 5f3d
000003d0: fa09 e2bb d747 adbd 0185 10be 78a8 45bd
000003e0: 5aa6 f6ba 31de 17be 74cc 32be 7ec9 bcbd
000003f0: 910f 26bd d841 64bd 1879 183c 659f b2bd
-0.027513951 -0.03563927 -0.012518228 -0.7709009 -0.81837136 -0.054321807 -0.08756317 -0.52462846
-0.15131582 -0.14822875 0.10215937 0.037458137 -0.011854634 -0.07938846 0.02924454 -0.18072768
-0.07483391 -0.117933705 -1.117933 0.025024697 -0.05145275 -0.1950658 -0.40182453 -0.13297588
-0.117287554 -0.48954466 0.07217182 -0.20575036 -0.26630095 0.05632378 -0.92414033 -1.0480591
-0.1631069 -0.14077695 -0.3734272 -0.06287006 0.053354453 -0.23200136 -0.6753705 -0.1104462
-0.024391409 0.026323428 -0.22611551 -1.2970217 -0.06152581 -1.0003887 -0.027169544 -0.09279245
-0.17026336 -0.0028844653 -0.033735897 -0.26295668 -0.915762 0.06584943 0.053908948 -0.36706477
-0.0129763475 -1.0642588 0.010721969 -0.018231703 -0.22065927 0.014980408 -0.044831887 -0.74630356
-0.021262689 -1.4451872 -0.54887146 -0.09232763 -0.054003842 -0.4283433 -0.8332679 -0.07489123
-0.059888847 -0.050137933 0.014069511 -0.1332749 -0.022963852 -0.048126582 -1.266537 -0.102200314
-0.4097161 -0.21836545 -0.14545016 -0.94556403 -0.06400148 -0.1717262 -0.21026245 0.10716771
-0.46553573 0.07344486 -0.20911953 -0.19356726 -0.99949026 -0.27470967 0.050119698 -0.96803474
-0.23530303 -0.061627362 -0.26604792 -0.9649067 -0.5605652 -0.09029317 0.0826226 -0.20387241
0.00749655 0.05037091 -0.11740694 -0.06424823 -0.1473348 -0.042411603 0.019695157 -0.23832868
-1.7204895 0.1004366 -0.74430454 0.005763846 0.088889085 -0.19824892 -1.0112269 0.0023394632
-0.14103469 -0.26806027 -0.124444194 -1.263287 -0.4728072 -0.9531906 0.07469676 -0.038027555
-0.0073906407 -0.014721896 0.061562095 -0.11388904 -0.08254693 0.11708083 -0.07524426 -0.17092192
-0.12596458 -0.11715542 -0.102264516 0.055448737 -0.05439552 -0.07917878 0.040160254 -0.13129456
-0.026234943 -0.018215962 -0.09725016 -0.005169515 -0.04214544 -0.0495735 -0.054687887 -0.008375745
-0.11455199 -0.1623788 -0.061156314 -0.08577944 -0.09576367 0.060732454 -0.16981947 -0.12256022
-0.058108818 -0.05781035 -0.03984338 -0.055339605 0.04796373 -0.1922827 -0.05770649 -0.089638665
-0.10826216 -0.05432403 -0.0896739 -0.06182105 -0.07935774 -0.012134953 0.00090502127 -0.08977567
-0.14833072 0.022321042 0.104671165 -0.110087775 -0.07205264 0.069631994 -0.08933133 -0.18776003
0.040194087 -0.07025725 -0.095080234 0.012775634 -0.047579005 0.04920806 -0.10418895 -0.062453948
-0.083860554 -0.084191635 -0.0367063 0.08538903 0.04055991 -0.07029208 -0.19388191 -0.061745305
-0.030344475 0.033936314 0.053949494 -0.051322527 0.049228277 -0.024265949 -0.025872776 -0.072772115
-0.13010171 -0.06694068 -0.055636797 -0.01999146 0.07450174 -0.16000105 -0.038061038 -0.013503902
-0.11439787 -0.06548263 -0.016564801 -0.18190326 -0.08971502 -0.050523713 -0.008386702 -0.15552305
-0.1706895 -0.16142038 -0.0889482 -0.17658456 -0.07780203 -0.11946949 -0.017792918 -0.13220328
0.014213322 0.05188869 -0.11811983 0.008900338 -0.031988036 0.064794734 0.07133071 -0.005749234
-0.29051298 -0.035675637 -0.00325535 0.054459784 -0.006898162 -0.08460968 -0.14113237 -0.048256367
-0.0018817887 -0.14830853 -0.17460805 -0.09218119 -0.04054219 -0.055726856 0.009306215 -0.08721808

convs.1.linear1.bias f4 [128]
00000000: 321d 2e3e b158 31bb 7aab 5bbe 5786 98bd
00000010: 568b 39be e2af 1ebe c7a8 493e d3d9 dabd
00000020: 4d40 ff3d 975b 59be 5a27 4b3e cc3d 28be
00000030: 12a2 3bbe ca1f 973a b3d6 513e 59a8 2b3e
00000040: d845 32bd 4d3d 27be 027b 593e 3f50 4bbe
00000050: d6fd 5c3e 6041 5c3e 4a59 143e 5603 0a3e
00000060: 832a 553e f019 533e 262b 123e 562a 473e
00000070: 3659 1ebe b6b5 683e 0ef0 443e aee7 ddbd
00000080: 5d7a 1a3e aed6 16bd e0fc 37be ec1f 9b3a
00000090: 125a 523e 3716 293e 2ed1 6b3e ded1 4e3e
000000a0: 6461 353e 782f 50be 114a 3e3e 9873 5a3e
000000b0: 9f3c 1bbe c554 88bd 8795 6f3e dcb2 543e
000000c0: e4da 353e 16e3 36bd f528 193e 60c1 5bbe
000000d0: ee77 3a3e b5b9 593e a91f a6bd 674e febd
000000e0: 76d2 ddbd a388 583e 72bf 1a3e 8c6d 4abe
000000f0: d1d6 5e3e f01c 363e 1de2 0dbd b4e8 74be
00000100: 8a6c 34be e1fc 04be 9af7 2b3e c455 16be
00000110: d700 283e 5134 36be 8668 33be b951 2bbe
00000120: fcc6 43be a298 353e 4cb9 473e e463 213e
00000130: 253d 4dbe db90 13be 13d6 133e 46bf 4fbe
00000140: ccd4 473e 32a2 60bd 4f00 203e a066 5dbe
00000150: 5435 4ebe 4ea7 183e 9f5e 47be 7803 1fbe
00000160: 5129 2a3e 720a 35be 41dc 2cbe b7f7 263e
00000170: 3e52 353e 28a6 fdbd 5da8 423e 4275 69be
00000180: 02a0 33be 05d3 12be 358d 87bd fc40 023e
00000190: 2e30 46be bd17 37be c0fe 683e b606 7a3e
000001a0: 7fed 063e a45a d13a b6b9 57be 9910 34bb
000001b0: 0d68 0c3e 658e 493e edc4 5dbe 7b31 573d
000001c0: 30db 60be cdfe 283e 9ec9 213e 1efb 4b3e
000001d0: 6489 ef3d 40d7 31be 334d 42be 9d30 10be
000001e0: d78c 433e bb97 193e f3d5 32be d2b5 1d3e
000001f0: 8680 323e d1b0 4e3e 0385 353e 1187 1cbe
0.17003325 -0.002706092 -0.21452132 -0.07447498 -0.18119559 -0.15496781 0.1969329 -0.10686078
0.12463436 -0.21226345 0.1983923 -0.16429824 -0.18323544 0.001152986 0.20492058 0.16763438
-0.04352364 -0.16331978 0.2123833 -0.1985483 0.21581206 0.21509314 0.14487186 0.13477835
0.20816998 0.20615363 0.14274272 0.19449744 -0.15463719 0.22725567 0.19232199 -0.10835205
0.1508574 -0.03682583 -0.17967558 0.0011835075 0.20542172 0.1651238 0.23029014 0.20197245
0.17712933 -0.20330608 0.18582942 0.21333158 -0.15159844 -0.066567935 0.23396884 0.20771354
0.17759281 -0.04465016 0.1495703 -0.21460485 0.18209812 0.21262248 -0.081115074 -0.12417298
-0.10831158 0.21145873 0.15112093 -0.19768351 0.21761633 0.17784476 -0.034639467 -0.23916894
-0.1761953 -0.1298709 0.16793671 -0.14681154 0.1640657 -0.17793395 -0.17520341 -0.16730393
-0.19118875 0.17734006 0.19504279 0.15760761 -0.20042856 -0.14410727 0.14437132 -0.20287809
0.1951477 -0.05484218 0.15625118 -0.2162118 -0.2013753 0.14907572 -0.19469689 -0.15528667
0.16617323 -0.17679766 -0.16880895 0.16305433 0.17707154 -0.123852074 0.19009538 -0.22798637
-0.17541507 -0.1433831 -0.0661873 0.12720102 -0.19354317 -0.17880149 0.2275343 0.24416623
0.13176535 0.0015972448 -0.21066937 -0.0027475713 0.13711567 0.19683225 -0.21657152 0.052537423
-0.21958613 0.16503449 0.15799567 0.19920012 0.11696127 -0.17367268 -0.18974762 -0.14081044
0.19096695 0.14999287 -0.17464428 0.1540139 0.1743184 0.20184638 0.17726521 -0.15285899
