Saved_Models/TSP_1000/scatgnn_layer_2_hid_128_model_200_temp_3.500.pth (torch, 992099 bytes, 24 tensors)

bn0.weight f4 [2]
0	0x3f800000	1.0
1	0x3f800000	1.0

bn0.bias f4 [2]
0	0x00000000	0.0
1	0x00000000	0.0

bn0.running_mean f4 [2]
0	0x00000000	0.0
1	0x00000000	0.0

bn0.running_var f4 [2]
0	0x3f800000	1.0
1	0x3f800000	1.0

in_proj.weight f4 [128, 2]
0	0xbeb82614	-0.3596655
1	0xbf447ceb	-0.7675311
2	0x3f0f7c82	0.5604936
3	0x3efac94c	0.48981702
4	0x3cf35bcb	0.029706856
5	0xbf45d11c	-0.772722
6	0xbece5bfc	-0.40304554
7	0x3dc31d15	0.09527031
8	0x3f74a930	0.9557066
9	0xbf31bdc8	-0.6943021
10	0x3ee4781e	0.44622892
11	0x3ea1cb59	0.31600454
12	0xbd875df2	-0.066097155
13	0xbe9c66c0	-0.30547142
14	0xbf68e253	-0.90970343
15	0xbe8e9bf6	-0.27853364
16	0x3f5607f8	0.8360591
17	0x3f540de4	0.82833695
18	0xbecff3e6	-0.40615767
19	0x3e209bef	0.15684484
20	0xbf1803cd	-0.593808
21	0xbed71b2c	-0.42012918
22	0xbed0244b	-0.4065269
23	0xbf0ae626	-0.5425743
24	0x3ee24332	0.4419189
25	0x3f705af6	0.93888795
26	0xbf60e168	-0.8784394
27	0x3cd05bcf	0.025434403
28	0x3f5d55d5	0.86459094
29	0xbde3951f	-0.11112427
30	0x3ef9434b	0.48684153
31	0xbf6f4190	-0.93459415
32	0xbf37cd4e	-0.71797645
33	0xbf0c3774	-0.54772115
34	0x3e9a57ce	0.30145115
35	0xbf7eb393	-0.9949276
36	0x3ecbf81f	0.3983774
37	0x3f3424ae	0.7036847
38	0xbef2e2b2	-0.4743858
39	0x3f28f739	0.6600223
40	0xbe516317	-0.20447956
41	0xbf5c6008	-0.8608403
42	0x3ee29c89	0.44260052
43	0xbc3c8d72	-0.011508333
44	0x3f5976cc	0.84946895
45	0xbf3afadf	-0.7303905
46	0xbe93a180	-0.28834152
47	0x3e983588	0.2972834
48	0x3f6bd885	0.9212726
49	0x3e9a3371	0.30117372
50	0xbdd6e7d4	-0.104934365
51	0x3f249b85	0.64299804
52	0xbefe4cad	-0.49667874
53	0xbf65edbc	-0.8981588
54	0xbefa9ce2	-0.48947817
55	0x3aa7f889	0.0012815158
56	0xbf684ec5	-0.9074519
57	0xbe4b919a	-0.19879761
58	0xbe724a52	-0.23661163
59	0xbeceb042	-0.4036885
60	0x3f1d67eb	0.6148669
61	0xbf6164e1	-0.88044554
62	0xbf26b4c2	-0.65119565
63	0xbf44f04f	-0.7692918
64	0xbf5f5225	-0.8723472
65	0x3f1fbd6a	0.623984
66	0x3f3c20ac	0.73487353
67	0xbe5c81a1	-0.21533825
68	0x3ea4ea21	0.32209876
69	0x3f414b5b	0.7550561
70	0xbe01542b	-0.12629764
71	0xbdd86ce5	-0.10567645
72	0xbda9efc0	-0.08297682
73	0xbf111fe6	-0.566893
74	0xbf2092e3	-0.6272413
75	0xbf2c082f	-0.6719999
76	0xbdb7b1c6	-0.089694545
77	0x3f44a306	0.76811254
78	0x3f32cec0	0.69846725
79	0x3e6ba5f0	0.23012519
80	0xbe85b632	-0.26115566
81	0x3dced09e	0.10098384
82	0xbf17915f	-0.59206194
83	0x3d8f2441	0.06989337
84	0x3f0499a1	0.5179692
85	0x3e6cff96	0.23144373
86	0x3e3ca5ad	0.18422575
87	0xbf624e3c	-0.88400626
88	0x3e6eeb0d	0.23331852
89	0x3f715a52	0.9427844
90	0x3f1cf921	0.6131764
91	0xbec8e747	-0.3923895
92	0x3edcefea	0.4315179
93	0x3e1a382c	0.1506049
94	0x3f42d32c	0.7610347
95	0x3f3cfe9c	0.73826003
96	0x3f475ffa	0.77880824
97	0x3f34cd6b	0.7062594
98	0xbe4abd39	-0.19798745
99	0xbe66bcc8	-0.22532952
100	0xbeb34612	-0.35014397
101	0x3d340384	0.043948665
102	0x3f24016a	0.6406466
103	0x3f76a588	0.9634633
104	0x3f192189	0.59816796
105	0xbf0272ad	-0.5095623
106	0x3dd2c18e	0.10290824
107	0x3ed61ecb	0.41820368
108	0x3ee5bcb5	0.44870535
109	0x3e2380a2	0.15967038
110	0xbecba6a4	-0.39775574
111	0x3f484de1	0.78243834
112	0xbf632049	-0.8872114
113	0x3f42792c	0.75966144
114	0xbf0b2298	-0.5434966
115	0x3e629bab	0.22129695
116	0xbf003282	-0.5007707
117	0x3f4e325a	0.8054558
118	0x3f3cf6bd	0.7381399
119	0xbcd7926c	-0.026314937
120	0x3f16014f	0.58595747
121	0xbdb8a810	-0.090164304
122	0xbee1426e	-0.43995994
123	0x3f6186d3	0.8809635
124	0x3f67d764	0.90563035
125	0xbe10c171	-0.14136292
126	0x3f30d2a0	0.6907139
127	0xbe9c05e2	-0.30473238
128	0xbf0305f7	-0.51180977
129	0x3f6871d3	0.9079868
130	0x3f48920c	0.7834785
131	0x3f535197	0.8254637
132	0xbf692e48	-0.91086245
133	0x3f33fc5b	0.7030694
134	0xbf86070d	-1.0470902
135	0x3eda1fba	0.4260233
136	0x3f1f02cc	0.6211364
137	0xbe995c7c	-0.29953372
138	0x3f603593	0.8758175
139	0xbe787704	-0.24264151
140	0xbf276585	-0.6538928
141	0xbf739604	-0.9515078
142	0x3ed88ec0	0.4229641
143	0x3f5cd6ea	0.8626543
144	0xbf380a66	-0.71890867
145	0xbf006982	-0.5016099
146	0xbf8a1b12	-1.0789511
147	0x3e0c0a6b	0.13675849
148	0x3f377c35	0.716739
149	0xbf4a40d4	-0.7900517
150	0xbf0353a6	-0.5129951
151	0xbf38a82c	-0.7213161
152	0xbebd6083	-0.36987695
153	0x3fa42e63	1.2826656
154	0xbf15fad1	-0.5858584
155	0xbd39924c	-0.045305535
156	0xbec0162f	-0.37516925
157	0xbf44b4b7	-0.7683825
158	0x3f3880c0	0.72071457
159	0xbf06c01a	-0.52636874
160	0xbf84e473	-1.0382217
161	0x3ee9a8b4	0.45636523
162	0x3f157456	0.5838064
163	0xbddaf1d6	-0.10690658
164	0x3e18d018	0.14923131
165	0xbf0b53a4	-0.544245
166	0xbf4bd4f5	-0.7962182
167	0x3e2d43a2	0.16920331
168	0xbf2d7521	-0.6775685
169	0xbe081899	-0.13290633
170	0xbeceeb63	-0.4041396
171	0x3f65d03d	0.8977087
172	0x3eaa19c4	0.33222783
173	0x3f5df602	0.86703503
174	0x3f7a4012	0.97754014
175	0x3f3174ef	0.6931905
176	0xbefc1cbb	-0.4924067
177	0xbf021d9b	-0.50826424
178	0x3df428d7	0.11921852
179	0xbf375366	-0.7161163
180	0x3f38ce58	0.72189856
181	0x3f4b6096	0.79444253
182	0xbf683167	-0.9070038
183	0x3f2e16de	0.6800364
184	0x3d63f072	0.05564923
185	0x3f40a69b	0.7525422
186	0xbf336c4c	-0.7008712
187	0xbec415e2	-0.38297945
188	0xbe3ddbfe	-0.18540952
189	0xbe1b00fb	-0.15137093
190	0xbe054040	-0.1301279
191	0xbed13141	-0.4085789
192	0xbdb4b2ac	-0.088231415
193	0xbf7ddbe1	-0.99163634
194	0xbf64254e	-0.8911942
195	0xbd26f584	-0.040761486
196	0xbd8ec331	-0.069708236
197	0xbeb63dd8	-0.35594058
198	0xbf3159ae	-0.69277465
199	0x3f41e756	0.75743616
200	0x3ec6ed5c	0.38852966
201	0xbf8fbd24	-1.1229596
202	0x3f78375f	0.9695949
203	0xbe642356	-0.22279105
204	0x3f367343	0.71269625
205	0xbcaf2591	-0.021380218
206	0x3e6b4cb2	0.22978476
207	0xbf036040	-0.5131874
208	0x3e719c73	0.23594837
209	0xbf6ef1dd	-0.93337804
210	0x3f341288	0.70340776
211	0x3efd9bfb	0.49533066
212	0x3e58ce8c	0.21172541
213	0xbf6c1e7f	-0.92234033
214	0x3f35c483	0.7100298
215	0xbf1a3998	-0.6024413
216	0x3ddb04a9	0.10694248
217	0xbf6feff4	-0.93725514
218	0xbd582129	-0.052766
219	0xbf82f108	-1.0229807
220	0xbee95712	-0.45574242
221	0xbd696578	-0.056981534
222	0x3eb28f9a	0.34875184
223	0x3f834375	1.0254961
224	0xbf68db1f	-0.9095935
225	0xbf2abe24	-0.6669638
226	0xbe443829	-0.19162048
227	0x3f6f593b	0.9349553
228	0xbde5fd97	-0.11230009
229	0x3f1f1550	0.62141895
230	0xbecfc65b	-0.4058102
231	0x3e4ff43c	0.20308012
232	0xbf242ef8	-0.6413417
233	0x3f0dcb3f	0.55388254
234	0x3f468124	0.775408
235	0x3e875888	0.2643473
236	0x3f47e01f	0.78076357
237	0x3e848706	0.25884265
238	0x3f83cc8a	1.0296795
239	0xbe8a59fe	-0.27021784
240	0x3e8d517a	0.27601224
241	0xbee2d758	-0.4430492
242	0xbe063e2f	-0.13109659
243	0x3f69ee92	0.91379654
244	0x3f192ed0	0.59837055
245	0xbf76b23b	-0.9636571
246	0x3f7efbff	0.99603266
247	0x3df8b4f5	0.1214389
248	0xbf797f5d	-0.97459966
249	0xbea6e34c	-0.3259529
250	0xbf4ea3cd	-0.8071869
251	0xbf09f4af	-0.5388898
252	0xbbee04cd	-0.007263756
253	0x3f5e0a80	0.8673477
254	0xbe2d9771	-0.16952302
255	0x3f5da046	0.8657268

in_proj.bias f4 [128]
0	0xbf157d70	-0.5839453
1	0xbebebe05	-0.37254348
2	0xbeaea1ce	-0.34107822
3	0x3f4e7a6b	0.80655545
4	0xbf15e576	-0.58553255
5	0x3e4ff051	0.20306517
6	0x3f615589	0.8802114
7	0x3e135ec3	0.14391617
8	0xbf55a719	-0.83458096
9	0x3f0d2410	0.5513315
10	0x3f1a0ce3	0.60175914
11	0x3f464403	0.7744753
12	0x3f071b97	0.52776474
13	0x3e2abd3f	0.16673754
14	0xbf0364b8	-0.5132556
15	0xbed8dbeb	-0.42355284
16	0xbf5a49f9	-0.85269123
17	0xbf470256	-0.7773794
18	0x3f32bb21	0.69816786
19	0xbdcf120d	-0.10110865
20	0xbde50898	-0.1118328
21	0xbe28f404	-0.16499335
22	0x3e161614	0.1465686
23	0xbf2366c7	-0.638287
24	0xbebae8f0	-0.36505842
25	0x3f375f08	0.7162938
26	0xbf700fb8	-0.93773985
27	0x3f53122a	0.8244959
28	0x3db912b1	0.09036768
29	0x3f640152	0.89064515
30	0xbee85e23	-0.4538432
31	0xbf34230c	-0.7036598
32	0x3dd6aeff	0.104825966
33	0x3f06fd5f	0.52730364
34	0xbeac2c29	-0.33627442
35	0xbf4c21ff	-0.79739374
36	0x3e75a54e	0.2398884
37	0xbe1a0e28	-0.15044463
38	0x3e9464f2	0.28983265
39	0x3e8e0acf	0.2774262
40	0xbf5ba729	-0.8580194
41	0xbf9c0837	-1.2190007
42	0xbf486abd	-0.7828787
43	0x3f3a5668	0.72788095
44	0x3eb74e1b	0.35801777
45	0x3e126272	0.14295366
46	0xbf88239d	-1.0635868
47	0x3ee2e383	0.44314203
48	0x3d66c71c	0.05634223
49	0xbf593c09	-0.8485723
50	0x3f277eb4	0.6542771
51	0xbf08308f	-0.53199095
52	0xbf0e3358	-0.55547094
53	0x3f251d41	0.6449776
54	0x3e680377	0.22657572
55	0x3cb1c478	0.021700129
56	0xbf2e617b	-0.68117493
57	0xbf5f0985	-0.871239
58	0x3f36431f	0.7119617
59	0x3e852939	0.26008013
60	0x3e8208e9	0.25397423
61	0xbf014a7b	-0.50504273
62	0x3f17f9df	0.5936565
63	0x3f27b985	0.65517455
64	0xbe15047b	-0.1455249
65	0x3ee894da	0.45426065
66	0x3b1c4af1	0.002384838
67	0x3e748c47	0.23881637
68	0x3f1d965e	0.6155757
69	0x3f0f0abf	0.5587577
70	0x3e751ecb	0.23937528
71	0x3ea2addf	0.31773278
72	0x3f62ba23	0.8856527
73	0x3bb15231	0.0054114093
74	0xbee174aa	-0.4403432
75	0x3f660000	0.8984375
76	0x3ba0eb33	0.0049108504
77	0xbfab8aa7	-1.3401688
78	0xbd18a1fe	-0.037263863
79	0x3ea1a52e	0.31571335
80	0x3e4bfb2b	0.19920032
81	0x3f3cfb5c	0.73821044
82	0xbeb82e78	-0.35972953
83	0x3d84f521	0.06492067
84	0xbf5e6e80	-0.8688736
85	0xbf3faf88	-0.74877214
86	0xbec01829	-0.37518433
87	0xbf526cbf	-0.82197183
88	0x3f461d63	0.7738859
89	0xbee13889	-0.43988445
90	0xbecb3bdb	-0.39694104
91	0x3d8c8dc7	0.068629794
92	0x3e820595	0.25394884
93	0xbdfe5e8d	-0.12420378
94	0x3f047553	0.5174152
95	0x3f310351	0.69145685
96	0x3e0287a0	0.1274705
97	0x3e618820	0.22024584
98	0xbf272d50	-0.65303516
99	0x3e3fcab7	0.18729673
100	0x3da960b2	0.08270396
101	0xbf04027d	-0.51566297
102	0x3e847663	0.25871572
103	0xbf3bc8f1	-0.7335349
104	0x3f299bff	0.66253656
105	0x3ea9e7b1	0.3318458
106	0x3f12ba36	0.57315385
107	0x3eb0f3c9	0.34560993
108	0xbf00bd9d	-0.50289327
109	0xbbccf7a9	-0.0062551093
110	0xbdd52525	-0.104074754
111	0x3e6dc056	0.23217902
112	0x3b7843fe	0.0037882323
113	0xbf3d7b5d	-0.7401636
114	0xbeef111f	-0.4669275
115	0xbf56156d	-0.83626443
116	0x3f36eef8	0.7145839
117	0x3e99e1fd	0.30055228
118	0x3ece69dd	0.40315142
119	0x3dba3469	0.09092028
120	0xbebd553e	-0.36979097
121	0x3ecae02f	0.39624164
122	0x3e7936ee	0.2433736
123	0x3eb3c9ad	0.35114804
124	0x3e4b330c	0.19843692
125	0xbe0f3b29	-0.13987412
126	0x3f329332	0.6975585
127	0x3eb37bdb	0.35055432

convs.0.a f4 [256, 1]
0	0x3ae9f523	0.0017849546
1	0x3d229c48	0.039699823
2	0xbd60503e	-0.054764025
3	0xbc274f5b	-0.010211791
4	0x3c5cdfda	0.013481105
5	0xbc4db7c4	-0.01255602
6	0x3d503c8b	0.05083899
7	0xbdab17e7	-0.083541684
8	0x3cc8bb0e	0.024503257
9	0xbcc4aef7	-0.024009211
10	0xbe1174a3	-0.1420465
11	0x3d8e8320	0.06958604
12	0x3dafd3f0	0.08585346
13	0x3d8b130c	0.06790742
14	0xbd2d18ad	-0.04225986
15	0xbce442d0	-0.02786389
16	0x3cf91b35	0.030408481
17	0xbd84a290	-0.06476319
18	0x3e296c33	0.16545181
19	0x3c9c7240	0.019097447
20	0x3d89dc0c	0.06731424
21	0x3cb6b3be	0.022302505
22	0xbda1537b	-0.07877251
23	0x3cbeee54	0.023307003
24	0x3b38f5eb	0.002822275
25	0x3d58cdb2	0.05293054
26	0x3d472cee	0.048626833
27	0xbd4086ef	-0.047003683
28	0xbcf23ede	-0.029570993
29	0xbdb6ed78	-0.08932012
30	0x3bd40ee9	0.006471504
31	0xbc132959	-0.008982026
32	0xbd2aadd2	-0.041669674
33	0xbd1050d7	-0.035233345
34	0x3cfa28f7	0.030537112
35	0x00000000	0.0
36	0x3da83d2d	0.08214793
37	0x3c9f4e63	0.019446557
38	0xbcaff746	-0.021480214
39	0x3de1e3b3	0.11029758
40	0x00000000	0.0
41	0xbb91b852	-0.0044470215
42	0x3ca1aabf	0.019734738
43	0xbe28eb26	-0.16495952
44	0x3dd739e4	0.10509089
45	0x3ba9e82d	0.005185148
46	0x3b8c0143	0.0042726113
47	0xb8a7abda	-7.9951904e-05
48	0x3d7f2bdc	0.062297687
49	0x3a0c3100	0.0005347878
50	0xbd012499	-0.031529043
51	0x3cb80c22	0.022466723
52	0xbb3794a2	-0.0028012176
53	0xbb5ad086	-0.003338845
54	0xbdb0f871	-0.086411364
55	0x3d5efa2c	0.0544378
56	0x3d43d39d	0.047809232
57	0x3ce4fa95	0.027951518
58	0x3dc31f45	0.095274486
59	0x3d97c9c1	0.074115284
60	0x3cb64604	0.022250183
61	0x3cf1d200	0.029519081
62	0xbd9318a9	-0.07182438
63	0xbca9ce0c	-0.020728134
64	0x3cbca93e	0.02302992
65	0x3dead0c8	0.11465603
66	0xbe059a04	-0.13047034
67	0xbe85a250	-0.26100397
68	0x3df23d6b	0.11828121
69	0xbd2054b1	-0.039143268
70	0xbd8df349	-0.069311686
71	0x3d921243	0.071323894
72	0xbdae450d	-0.08509264
73	0x3c838411	0.016054185
74	0xbd4b89d8	-0.049692005
75	0xbca3c233	-0.019990062
76	0xbcc093c3	-0.023507958
77	0x3cd90d83	0.0264957
78	0xbdaaf6e7	-0.08347874
79	0x3c72582a	0.014791528
80	0x3e080007	0.1328126
81	0xbbbbc679	-0.005730447
82	0xbd177139	-0.036973212
83	0xbcd5cfee	-0.026100125
84	0x3b9783c8	0.004623864
85	0xbbcfb29c	-0.0063384306
86	0x3d20bfa8	0.039245278
87	0x3cc42734	0.023944475
88	0xbe5cc03a	-0.21557704
89	0x3bcf6d30	0.006330155
90	0x3db72d1b	0.0894415
91	0xbdf999fc	-0.12187573
92	0x3d02d47f	0.031940933
93	0x3d86a07a	0.06573577
94	0xbde81630	-0.11332357
95	0xbdaf57e1	-0.085616834
96	0xbd62a586	-0.055333637
97	0x3dd0b150	0.1019007
98	0x3b1ec375	0.0024225388
99	0x3d36acbe	0.044598334
100	0xbe2174b8	-0.15767181
101	0xbcf274b1	-0.029596658
102	0xbdabc965	-0.08388022
103	0x3c06d630	0.008229777
104	0x3bc76ef4	0.0060862247
105	0x3de52819	0.11189289
106	0x3da5df67	0.08099251
107	0x3d7669e5	0.060159583
108	0x3d5483cd	0.051883508
109	0xbda3e379	-0.08002371
110	0xbccd0daf	-0.025030939
111	0x3e25b4c9	0.16182245
112	0xbe2caca0	-0.16862726
113	0x3db1d906	0.08683972
114	0x3ccaf514	0.024775065
115	0xba3555f4	-0.000691741
116	0x3dbaa3e3	0.0911329
117	0x3dc79722	0.09745623
118	0x3c78aa8d	0.015177381
119	0xbd1a5752	-0.03768093
120	0xbc5d7767	-0.013517237
121	0x3e370264	0.17872006
122	0xbcda32e1	-0.02663559
123	0xbb8448b2	-0.0040369863
124	0x3d677b0b	0.056513827
125	0x3c90f12d	0.017693127
126	0x3c2fde1c	0.010734107
127	0x3d9094c7	0.07059627
128	0xbdfda947	-0.12385803
129	0xbde19e15	-0.1101648
130	0xbe3295e2	-0.17439988
131	0x3e264f2c	0.16241139
132	0xbe616b2c	-0.22013539
133	0xbc7fe8ef	-0.015619501
134	0x3e112a05	0.14176185
135	0x3ea0789f	0.31342027
136	0xbdd2a5c2	-0.10285522
137	0x3dfb11ae	0.122592315
138	0x3e3920ad	0.18078871
139	0x3e2e00d5	0.16992505
140	0x3d4a1f12	0.049346037
141	0x3e35badc	0.17747062
142	0xbe41750b	-0.18892305
143	0xbe0c6d54	-0.1371358
144	0xbd685bb5	-0.056728084
145	0xbe73f5fc	-0.23824304
146	0x3e081d9c	0.13292545
147	0x3e3e2ab5	0.18570979
148	0x3e866490	0.26248598
149	0xbe19e84a	-0.15030017
150	0x3e770125	0.2412153
151	0xbe280b9a	-0.16410676
152	0xbe4c4b76	-0.19950661
153	0x3db6d56a	0.08927424
154	0xbe042ba2	-0.1290727
155	0x3e13d2bd	0.14435859
156	0x3ea33491	0.31876042
157	0x3e2ac996	0.16678461
158	0xbe17a4b3	-0.14808922
159	0xbd8e9ac9	-0.06963117
160	0x3eafcc14	0.34335387
161	0x3d81d61f	0.063396685
162	0xbda28ef0	-0.079374194
163	0xbe49939e	-0.19685218
164	0xbc1ff703	-0.009763482
165	0x3e2e1858	0.17001474
166	0x3bf7eefe	0.007566332
167	0xbc5732cc	-0.0131346695
168	0xbc6ebe9a	-0.01457181
169	0xbd3f883a	-0.046760775
170	0xbe29b1a6	-0.16571674
171	0x3de98055	0.114014305
172	0xbc775b7c	-0.015097495
173	0x3e4e0905	0.20120628
174	0xbe593bf5	-0.21214278
175	0x3d91dc08	0.07122046
176	0x3e75ac44	0.23991495
177	0xbd95a3dd	-0.07306645
178	0x3e23a34b	0.1598026
179	0xbdca7a99	-0.09886665
180	0xbe419cc1	-0.18907453
181	0x3e1e901c	0.15484661
182	0x3c758082	0.014984252
183	0x3ec85fb1	0.39135507
184	0xbe13c02c	-0.14428777
185	0xbdb178d2	-0.08665623
186	0x3db72e68	0.08944398
187	0x3b4a6622	0.003088363
188	0xbc500265	-0.012695883
189	0xbe187944	-0.14890009
190	0x3dd9c399	0.106330104
191	0x3dee6cc3	0.116418384
192	0x3e528406	0.20558175
193	0x3d37023a	0.044679858
194	0x3eb55344	0.3541509
195	0x3e123c87	0.14280902
196	0x3e03aeaf	0.12859605
197	0x3d8333e4	0.06406382
198	0x3e00f908	0.12594998
199	0xbd73fa18	-0.05956468
200	0x3e325f04	0.17419058
201	0x3f094106	0.5361484
202	0xbe4c11a9	-0.19928612
203	0x3e3a893f	0.18216418
204	0x3f060e4e	0.5236558
205	0xbca5f922	-0.020260397
206	0x3e92b5c9	0.28654316
207	0xbcefa368	-0.029252723
208	0x3e17eaf1	0.14835717
209	0x3e3e4559	0.18581142
210	0xbe7b9b7d	-0.24571033
211	0x3eaf2d39	0.3421419
212	0xbda9e8cd	-0.08296356
213	0xbe11ad42	-0.14226249
214	0xbdbc4e6f	-0.091946475
215	0xbe131e3b	-0.14367001
216	0x3e2d5669	0.16927494
217	0xbe312e2e	-0.17302772
218	0xbd015599	-0.031575773
219	0x3ea3f960	0.32026196
220	0xbe022c69	-0.12712254
221	0x3e4c4319	0.1994747
222	0x3e475ec1	0.1946974
223	0x3e19e699	0.15029372
224	0x3eb9eafb	0.36312088
225	0x3e79fdf6	0.24413285
226	0xbdcc65a7	-0.09980326
227	0x3ea38394	0.31936324
228	0x3ed8f2a8	0.42372632
229	0xbe44c31b	-0.19215052
230	0xbca6d80e	-0.020366695
231	0xbe059932	-0.1304672
232	0x3dca952a	0.09891732
233	0xbbdab704	-0.006674649
234	0x3d872651	0.06599105
235	0xbd017a82	-0.031610973
236	0xbe3c6a94	-0.18400031
237	0x3f0cc5ec	0.54989505
238	0x3ed33e97	0.4125869
239	0x3e610e59	0.2197813
240	0x3ee18dbc	0.44053447
241	0xbe168ed7	-0.14702927
242	0xbe2fef99	-0.17181243
243	0xbdea9e76	-0.11456005
244	0x3dddf557	0.108378105
245	0x3cd2354d	0.025660181
246	0x3d8e4ae4	0.06947878
247	0x3e848453	0.25882205
248	0xbe5b1488	-0.21394551
249	0x3c054928	0.008135118
250	0x3e6a1ab9	0.22861756
251	0x3b412500	0.0029471517
252	0x3e7e8ec7	0.24859153
253	0x3e8d4735	0.2759339
254	0x3dae8c74	0.08522883
255	0x3b131489	0.002244266

convs.0.linear1.weight f4 [128, 128]
0	0xbe4e2af5	-0.20133574
1	0x3d40ab91	0.04703862
2	0xbdc15918	-0.094408214
3	0x3ccf2d4a	0.02529015
4	0x3d143cdd	0.036190856
5	0x3d925df0	0.071468234
6	0x3e016b2d	0.1263854
7	0xbc136685	-0.0089966105
8	0x3ca4847b	0.020082703
9	0x3d781a68	0.060572058
10	0x3c2a13a9	0.010380664
11	0x3d7adb63	0.06124438
12	0xbc21c4e6	-0.009873604
13	0xbddb0d2e	-0.10695873
14	0x3cfaa1a1	0.030594649
15	0xbd8470a0	-0.06466794
16	0xbe0ed281	-0.13947488
17	0x3b80244a	0.003910576
18	0xbcb1e917	-0.021717591
19	0x3d8313fe	0.064002976
20	0x3dabf1df	0.083957426
21	0xbe238db4	-0.15972024
22	0xba7d880f	-0.00096714584
23	0xbe63a738	-0.22231758
24	0x3ba28d06	0.004960659
25	0xbc03faa7	-0.008055366
26	0xbe22317d	-0.15839191
27	0x3d991ca1	0.07476164
28	0xbcd17f49	-0.02557339
29	0x3d91d859	0.07121343
30	0xbd38993b	-0.045068007
31	0xbdff765c	-0.12473747
32	0x3d5d06b1	0.05396146
33	0xbd8d88a6	-0.06910829
34	0xbe1f8717	-0.15578876
35	0xbf02fa3d	-0.51163083
36	0x3c195d42	0.009360613
37	0x3daa1db6	0.08306448
38	0xbdd21457	-0.10257786
39	0xbd9a2d5e	-0.07528184
40	0xbf174c57	-0.5910086
41	0xbeb2cce4	-0.34921944
42	0x3e28c135	0.16479953
43	0x3d9b355b	0.07578536
44	0xbd7b8c6a	-0.061413206
45	0xbcef30c8	-0.029198065
46	0x3ec47326	0.383691
47	0x3d09963b	0.033590537
48	0xbc79b6e4	-0.015241358
49	0xbeb13d88	-0.34617257
50	0x3cf37eaf	0.029723493
51	0x3ccee53d	0.025255794
52	0x3ddd87ec	0.10816941
53	0x3d57add6	0.052656017
54	0xbe30b0d6	-0.17254958
55	0x3e873575	0.26407972
56	0xbd625eee	-0.055266313
57	0xbe3cccfa	-0.18437567
58	0x3dce2e20	0.100673914
59	0x3d560b8c	0.052257106
60	0xbe473e81	-0.19457437
61	0xbe251ba9	-0.16123833
62	0xbd11652e	-0.035496883
63	0xbda417ae	-0.08012329
64	0x3cbc605e	0.02299517
65	0x3e14148e	0.14460966
66	0x3e139abe	0.14414498
67	0x3d3985af	0.045293506
68	0x3c485042	0.012226166
69	0xbce5f9f9	-0.028073298
70	0x3de00d46	0.10940032
71	0x3e0cdc5a	0.13755932
72	0x3da86c44	0.08223775
73	0x3db4e20e	0.08832179
74	0x3d556870	0.052101552
75	0x3cb073a7	0.021539522
76	0x3dd0f71e	0.10203384
77	0xbea314c5	-0.31851783
78	0x3df17c0a	0.11791237
79	0x3d7a0d6b	0.061047953
80	0x3e1b1579	0.1514491
81	0x3d20d12f	0.039261993
82	0xbd9a5441	-0.075356014
83	0xbd7a88f0	-0.06116575
84	0xbea12053	-0.31469974
85	0xbd8c6b94	-0.068564564
86	0xbc5c3e12	-0.013442533
87	0x3e037a03	0.12839513
88	0x3e217bcc	0.15769881
89	0xbdb35e59	-0.0875823
90	0x3cc01e49	0.023451941
91	0xbb9802e5	-0.004639017
92	0x3b6eb30a	0.0036422634
93	0xbcc17a01	-0.023617746
94	0x3e07cd2d	0.13261862
95	0x3d227106	0.03965857
96	0x3d6b74f7	0.057484593
97	0xbd82ed99	-0.063929744
98	0xbe79752b	-0.24361102
99	0x3df37519	0.11887569
100	0x3e61dcaa	0.22056833
101	0xbcf0e469	-0.02940579
102	0x3bb9d20c	0.0056707915
103	0xbd8f3824	-0.0699313
104	0x3d839c17	0.06426256
105	0xbdb1e971	-0.086871035
106	0x3c80163e	0.015635606
107	0xbd31b908	-0.04338935
108	0xbd727387	-0.059192207
109	0x3d89460f	0.06702816
110	0xbe514930	-0.20438075
111	0x3cfc3791	0.030788215
112	0x3d90848b	0.070565306
113	0xbe2fdb1c	-0.17173427
114	0xbd58cc2b	-0.052929085
115	0xbe9c3e26	-0.30516165
116	0x3c414ec2	0.0117985625
117	0x3dbfd94b	0.09367617
118	0xbce5734b	-0.028009078
119	0x3ddb3027	0.10702544
120	0x3d7dfe13	0.062009882
121	0xbd29b618	-0.041433424
122	0x3c97e7a3	0.01854307
123	0xbd85bd88	-0.06530291
124	0x3dc55bd7	0.09636658
125	0xbcf8d349	-0.030374186
126	0xbd7a2961	-0.06107462
127	0xbd743fe0	-0.05963123
128	0xbe3a230e	-0.18177435
129	0xbda89134	-0.0823082
130	0xbdf4008b	-0.11914166
131	0xbcea1989	-0.02857663
132	0xba62bcf9	-0.0008649375
133	0xbda988e7	-0.08278065
134	0x3e00d2bd	0.1258039
135	0x3d547d8c	0.051877543
136	0x3db90b15	0.09035317
137	0x3c9e3e44	0.0193168
138	0x3caa55fc	0.020792954
139	0x3d7181e3	0.05896176
140	0xbcaf7e6d	-0.02142259
141	0xbd5e28a6	-0.054237984
142	0xbc5be5e8	-0.013421513
143	0x3d12b691	0.03581864
144	0xbe861033	-0.26184234
145	0x3b9a74df	0.004713639
146	0x3d9f337b	0.07773491
147	0x3da02a81	0.07820607
148	0xbcc93bd6	-0.024564665
149	0xbe3293b8	-0.17439163
150	0xbd4541d5	-0.048158485
151	0xbd9f8492	-0.07788958
152	0xbd6017db	-0.05471025
153	0xbcd61051	-0.026130827
154	0xbd5e3e3e	-0.054258578
155	0xbcf2a24b	-0.029618403
156	0xbd4cebd3	-0.050029587
157	0x3d87fec6	0.06640391
158	0xbd152b7a	-0.036418416
159	0xbe343664	-0.17598873
160	0xbca24c72	-0.019811843
161	0xbdccba4e	-0.09996472
162	0x3ac255ed	0.0014826633
163	0xbee43cc8	-0.44577622
164	0xb8be0664	-9.061096e-05
165	0xbd5cf383	-0.05394317
166	0xbd3acde6	-0.045606516
167	0xbe4feace	-0.20304415
168	0xbefc160f	-0.4923558
169	0xbec31644	-0.38102925
170	0x3e1ac2ae	0.15113327
171	0xbdcff5bf	-0.10154294
172	0xbc936e5d	-0.017996961
173	0xbe00a8d4	-0.12564403
174	0x3e759890	0.23983979
175	0xbd7f8daa	-0.06239096
176	0xbca3aa9f	-0.01997882
177	0xbecc4816	-0.39898747
178	0xbda0f384	-0.07858947
179	0x3d72e60b	0.059301417
180	0x3d009850	0.031395257
181	0x3dafcfb0	0.08584535
182	0xbe16066b	-0.14650886
183	0x3db8fd7b	0.090327226
184	0xbdfdc971	-0.123919375
185	0xbe0df72d	-0.13863821
186	0xbc9205c7	-0.01782502
187	0xbe3a0e57	-0.18169533
188	0xbe23dcc9	-0.16002192
189	0xbdd6ff0d	-0.10497866
190	0xbd8f47f9	-0.069961496
191	0x3c9c57ae	0.019084778
192	0x3da7dba2	0.081961885
193	0x3d760079	0.060059045
194	0x3dc44fa3	0.09585502
195	0x3db506a7	0.088391595
196	0xbd6efc32	-0.05834598
197	0x3c6f26be	0.014596639
198	0xbd583811	-0.052787844
199	0x3d086593	0.033299994
200	0x3dfbc8e4	0.12294176
201	0xbddb59f4	-0.107105166
202	0x3c8e6d41	0.01738608
203	0x3d0fa4b8	0.035069197
204	0x3c72cdc0	0.014819562
205	0xbebb74f7	-0.36612675
206	0x3ba4bff8	0.0050277673
207	0xbe1a4e12	-0.15068844
208	0xbcf65caf	-0.030073492
209	0xbd8d0370	-0.06885421
210	0xbde80622	-0.11329295
211	0x3db12c9e	0.08651088
212	0xbe679129	-0.22613968
213	0xbe164c54	-0.14677554
214	0xbdf2d048	-0.11856133
215	0x3d5a36b0	0.05327481
216	0x3db6bf99	0.08923263
217	0xbe352870	-0.17691207
218	0x3d9865e8	0.07441312
219	0x3c311ef4	0.010810602
220	0xbe1591a5	-0.1460634
221	0xbdf515f6	-0.11967079
222	0x3cdf0318	0.027223155
223	0x3c398b21	0.011324675
224	0xbbca6265	-0.0061762803
225	0x3ca10247	0.019654406
226	0xbe911eec	-0.28343904
227	0x3d0730ca	0.033005513
228	0xbd0553fc	-0.032550797
229	0xbcee37cc	-0.02907934
230	0xbd962c8e	-0.07332717
231	0xbdfcbdb3	-0.1234087
232	0xbd3d4b1c	-0.046214208
233	0xbdf06c98	-0.117394626
234	0xbc33bfc4	-0.010971013
235	0xbd000e63	-0.03126372
236	0xbdb619d0	-0.08891642
237	0x3d476461	0.048679713
238	0xbe503d09	-0.20335783
239	0xbd2aec67	-0.041729357
240	0x3db227db	0.08699008
241	0xbddb9523	-0.10721805
242	0xbe513edb	-0.20434134
243	0xbe42f2b6	-0.190379
244	0x3d1b9950	0.037988007
245	0xbda55ece	-0.08074723
246	0xbe19e084	-0.15027052
247	0xbc13c5ce	-0.009019328
248	0xbbbf8089	-0.00584418
249	0xbde8050d	-0.11329088
250	0xbc233b4c	-0.009962868
251	0xbdb5dc6e	-0.08879934
252	0x3aa40c02	0.0012515786
253	0xbdb15772	-0.08659257
254	0x3bc09231	0.0058768024
255	0xbdc769e0	-0.09736991

convs.0.linear1.bias f4 [128]
0	0xbea0ace7	-0.31381914
1	0xbe7461ee	-0.23865482
2	0xbe3189b1	-0.17337681
3	0x3d1cff8a	0.03832964
4	0xbc1f5b35	-0.009726335
5	0xbe80af6b	-0.25133833
6	0xbe7d4c49	-0.24736132
7	0x3e9a7313	0.3016592
8	0x3e9c5c12	0.30538994
9	0x3e85b7bc	0.2611674
10	0xbe5b1dd8	-0.21398103
11	0x3eb26a48	0.3484671
12	0x3ea706aa	0.32622272
13	0x3ea8837d	0.32912818
14	0x3eb05bb8	0.34444976
15	0xbe922db0	-0.28550482
16	0x3e892142	0.26783186
17	0xbe823d88	-0.2543757
18	0xbe2dc3b3	-0.16969185
19	0xbe826d65	-0.25474086
20	0xbebc0b49	-0.3672736
21	0x3e9ee17c	0.31031406
22	0x3e8ed61f	0.27897736
23	0x3ea7b7a9	0.3275731
24	0x3e801fa9	0.25024155
25	0xbea1f121	-0.3162928
26	0xbdd00cd9	-0.101587005
27	0xbe84f00a	-0.25964385
28	0x3d5646d2	0.052313633
29	0xbe105d47	-0.14098082
30	0x3ec6a651	0.38798764
31	0xbe293146	-0.16522703
32	0xbe89a4fd	-0.2688369
33	0xbe8b19fe	-0.27168268
34	0xbe88569d	-0.2662858
35	0xbe7c2ac2	-0.24625686
36	0x3eb4677a	0.35235196
37	0x3ead16d9	0.33806494
38	0xbe89f626	-0.2694561
39	0x3e973106	0.2952959
40	0xbe7bee21	-0.24602558
41	0x3e811639	0.25212267
42	0x3e1eb580	0.15498924
43	0x3e88c433	0.26712188
44	0x3e0e0c89	0.1387197
45	0xbea2b7bc	-0.31780803
46	0x3e95d74f	0.2926583
47	0xbe621fe9	-0.22082485
48	0xbe364196	-0.17798457
49	0xbea2bfb2	-0.31786877
50	0x3ea3c162	0.31983477
51	0x3e9ac6c9	0.30229786
52	0xbe8d1d04	-0.275612
53	0xbe9ce515	-0.30643526
54	0x3e8e4f29	0.2779477
55	0x3eaed465	0.3414642
56	0xbe8eba14	-0.2787634
57	0xbe82f46c	-0.25577104
58	0xbe8ccb4a	-0.27498847
59	0x3e7fb349	0.24970736
60	0x3ead9a6a	0.3390687
61	0x3ea55868	0.3229401
62	0x3e8b6124	0.2722255
63	0x3e1f8003	0.15576176
64	0x3e7ecf44	0.24883753
65	0x3e72a5eb	0.23696105
66	0x3e901481	0.28140643
67	0xbe8c06f0	-0.27349043
68	0x3e8535e4	0.26017678
69	0x3ea0ec73	0.31430396
70	0xbe8c5ece	-0.2741608
71	0x3dff5f9f	0.1246941
72	0xbea0554a	-0.3131507
73	0xbe9dddfa	-0.30833417
74	0x3e8b1891	0.2716718
75	0xbe7c5d70	-0.24645019
76	0x3eb0652f	0.34452197
77	0xbe6f9ed6	-0.23400435
78	0xbeb18343	-0.34670457
79	0x3ea62510	0.3245015
80	0x3ea138d0	0.31488657
81	0x3ea4062f	0.32035968
82	0x3eb2518e	0.34827846
83	0x3e7e45f8	0.24831378
84	0xbe64b2b2	-0.22333792
85	0x3e873d5a	0.26413995
86	0x3e8926cb	0.2678741
87	0x3eae6703	0.34062967
88	0xbe965507	-0.29361746
89	0x3e9a4704	0.30132306
90	0x3ea94579	0.33060816
91	0xbe8f3d4d	-0.27976456
92	0x3e1eddf7	0.1551436
93	0xbe9071da	-0.28211862
94	0x3ddfe507	0.109323554
95	0x3eab9c69	0.3351777
96	0xbe8a470d	-0.27007332
97	0xbe9feea9	-0.3123677
98	0xbe9f84f7	-0.31156132
99	0xbe85bc19	-0.2612007
100	0xbe97e519	-0.29666975
101	0x3ea53c50	0.32272577
102	0x3e9c6003	0.30542
103	0xbe87c997	-0.26520988
104	0x3e1c92ba	0.15290347
105	0xbe8be521	-0.2732325
106	0xbe5439e9	-0.20725216
107	0x3e996b68	0.29964757
108	0xbe59926f	-0.21247266
109	0xbe84c783	-0.25933465
110	0xbeb83527	-0.35978052
111	0x3ea2e156	0.31812543
112	0x3e13c9a4	0.14432389
113	0x3e6df110	0.2323649
114	0xbe3784ed	-0.17921801
115	0xbe94be16	-0.29051274
116	0x3e8454e5	0.2584602
117	0x3eb021cb	0.34400782
118	0xbe7aa2ba	-0.24476138
119	0x3e9fd4fc	0.31217182
120	0xbe801352	-0.2501474
121	0x3e964b2e	0.29354233
122	0xbe2be75e	-0.16787478
123	0x3eac3938	0.33637404
124	0x3e9b383c	0.3031634
125	0xbe9109fa	-0.28327924
126	0xbe9e2c55	-0.30893198
127	0xbe9395d9	-0.28825262

convs.0.linear2.weight f4 [128, 128]
0	0xbe7e096b	-0.2480828
1	0x3c55d50e	0.0130512845
2	0x3d76a977	0.060220208
3	0x3c941b81	0.018079521
4	0x3dace649	0.08442361
5	0xbe01bb49	-0.126691
6	0xbe0ea138	-0.13928688
7	0x3e52a941	0.20572378
8	0x3e69e4ca	0.22841182
9	0x3dc036b6	0.09385435
10	0xbdbff0cb	-0.093720995
11	0x3e33469b	0.17507403
12	0x3e7d03bc	0.24708456
13	0x3e7fa515	0.24965318
14	0x3ea05654	0.31315863
15	0xbd8db100	-0.06918526
16	0x3e6d5ac8	0.23179162
17	0xbd808fb2	-0.06277408
18	0x3d17a275	0.037020165
19	0xbe08717c	-0.13324541
20	0xbe705035	-0.23468097
21	0x3e7653c3	0.2405539
22	0x3dfbae61	0.122891195
23	0x3ea71f03	0.32640848
24	0x3e331ca0	0.17491388
25	0xbe6e6e56	-0.23284277
26	0xbe06b595	-0.13155206
27	0xbe432672	-0.19057634
28	0xbca35ea7	-0.019942595
29	0xbeb37d26	-0.35056418
30	0x3eb10940	0.3457737
31	0xbec2249a	-0.3791855
32	0xbd9312e9	-0.07181341
33	0xbe3ffb74	-0.18748266
34	0xbe138bc1	-0.1440878
35	0xbe396036	-0.18103108
36	0x3ec86457	0.39139053
37	0x3e839f46	0.25707453
38	0xbd7929d2	-0.0608309
39	0x3dfc5000	0.12319946
40	0xbdc07d2e	-0.09398876
41	0x3e47d272	0.19513872
42	0x3e908ab1	0.28230813
43	0x3e0b221f	0.13587235
44	0x3ea81455	0.32828012
45	0xbdd7b74f	-0.1053301
46	0x3e431d54	0.19054157
47	0xbe13427c	-0.1438083
48	0xbe3b5fa0	-0.18298197
49	0xbe624694	-0.22097236
50	0x3e959040	0.29211617
51	0x3e839d7c	0.2570609
52	0xbe0951e7	-0.1341015
53	0xbe73cf9f	-0.2380967
54	0x3e432117	0.19055592
55	0x3e91009f	0.28320786
56	0xbe5f111d	-0.21783872
57	0xbde2037a	-0.11035819
58	0xbd4fcde2	-0.050733455
59	0x3e535a91	0.20640017
60	0x3e3bba96	0.18332896
61	0x3e9d642d	0.3074049
62	0x3ea71777	0.3263509
63	0x3e9644fb	0.29349503
64	0x3e0451e0	0.12921858
65	0x3db951e0	0.090488195
66	0x3e43ead9	0.19132556
67	0xbe61021f	-0.21973465
68	0x3e505035	0.20343097
69	0x3e9b0480	0.3027687
70	0xbe3e5992	-0.18588856
71	0x3e8fa83f	0.2805805
72	0xbe0e92a4	-0.13923126
73	0xbe1f6d3f	-0.15569018
74	0x3e0185c9	0.12648691
75	0xbe89cc25	-0.26913562
76	0x3ea6a60c	0.3254856
77	0xba948347	-0.0011330628
78	0xbe05158e	-0.12996504
79	0x3e8b36ba	0.2719019
80	0x3e1a759e	0.1508393
81	0x3e74d31c	0.23908657
82	0x3e854221	0.26027015
83	0x3d884449	0.06653649
84	0xbdecc97f	-0.1156187
85	0x3e449ff4	0.19201642
86	0x3e5ec283	0.21753888
87	0x3e65569d	0.22396322
88	0xbe91fc89	-0.28512982
89	0x3de5d418	0.11222094
90	0x3ee3eda3	0.4451724
91	0xbe0b6d78	-0.13615978
92	0x3e16459c	0.14674991
93	0xbe66c745	-0.22536953
94	0x3e3740c0	0.17895794
95	0x3e63054e	0.22169992
96	0xbe0fa2ce	-0.14026949
97	0xbe149742	-0.14510825
98	0xbdf7afbd	-0.12094066
99	0xbe04a0fb	-0.12952034
100	0xbe083479	-0.13301267
101	0x3e5b46dd	0.21413751
102	0x3e3968a6	0.18106326
103	0xbe1da275	-0.15394004
104	0x3e946132	0.28980404
105	0xbe812d9c	-0.2523011
106	0xbd9e6218	-0.07733554
107	0x3e8ad0b8	0.27112365
108	0xbd4fea16	-0.05076035
109	0xbdf38cb4	-0.11892071
110	0xbe6fa9fd	-0.23404689
111	0x3e9e8e3c	0.3096789
112	0x3e98d4b5	0.29849783
113	0x3dea4766	0.114393994
114	0xbdbc9348	-0.09207779
115	0xbe36c062	-0.17846826
116	0x3dd2d7a3	0.10295036
117	0x3dbd09b4	0.09230366
118	0xbe214f90	-0.15753007
119	0x3e01a9e3	0.12662463
120	0xbdc51160	-0.09622455
121	0x3e7469eb	0.2386853
122	0xbec008f5	-0.37506834
123	0x3e90d83a	0.28289968
124	0x3e1edfdb	0.15515082
125	0xbe5b5cc5	-0.21422108
126	0xbe119ad0	-0.14219213
127	0xbe02de3b	-0.12780087
128	0xbe2bfdbb	-0.16796009
129	0xbdde7c74	-0.10863581
130	0x3dd89391	0.10575021
131	0xbcd8457e	-0.026400324
132	0x3e2d7f86	0.16943178
133	0xbe6953d0	-0.22785878
134	0xbc176b35	-0.009241869
135	0x3e4017f9	0.18759145
136	0x3e594ffe	0.21221921
137	0x3ddfb184	0.1092253
138	0xbe16bac1	-0.14719678
139	0x3e310844	0.1728831
140	0x3dc8bc22	0.098015085
141	0x3eaab6cc	0.33342588
142	0x3e6283b0	0.22120547
143	0xbd4a2b51	-0.049357716
144	0x3de419c7	0.11137729
145	0xbdb32ff0	-0.08749378
146	0x3d85b2fc	0.06528279
147	0xbdeda23f	-0.116032116
148	0xbe88b153	-0.26697788
149	0x3de21fa6	0.11041193
150	0x3e39e57a	0.18153945
151	0x3ea16e7c	0.31529605
152	0x3e446252	0.19178131
153	0xbe61fd52	-0.2206929
154	0xbe7e4d96	-0.24834284
155	0xbdf03ab8	-0.1172995
156	0xbd05bc3a	-0.03265021
157	0xbeafd2b6	-0.34340447
158	0x3ed4e628	0.41581845
159	0xbe9449d3	-0.28962573
160	0xbdac1965	-0.08403281
161	0xbe45ae60	-0.193048
162	0xbe3966ef	-0.18105672
163	0xbdb26eab	-0.087125145
164	0x3eac91d8	0.3370502
165	0x3de70169	0.11279566
166	0xbe36ad52	-0.17839554
167	0x3e75d2d7	0.2400621
168	0xbe067fd9	-0.13134708
169	0x3e314c91	0.17314364
170	0x3e49fce9	0.19725384
171	0x3e973c7d	0.29538336
172	0x3e4cdad4	0.20005351
173	0xbe201237	-0.15631948
174	0x3e3c6832	0.18399122
175	0xbdfccf76	-0.123442575
176	0xbd423469	-0.047413263
177	0xbe48092a	-0.19534746
178	0x3e8898d1	0.2667909
179	0x3e789363	0.24274974
180	0xbe04737e	-0.12934682
181	0xbe025a88	-0.12729847
182	0x3dd6e206	0.10492329
183	0x3e7c9542	0.24666312
184	0xbe0dbdd5	-0.13841946
185	0xbe024ac2	-0.1272383
186	0xbe51e721	-0.20498325
187	0x3ddaf53a	0.106913045
188	0x3e3be300	0.18348312
189	0x3e7a9db9	0.24474229
190	0x3e630d5b	0.22173063
191	0x3e8954e3	0.26822576
192	0x3e1448fc	0.14480966
193	0x3e04b429	0.1295935
194	0x3e81f8b6	0.25385064
195	0xbe6aad2e	-0.22917625
196	0x3e407b5d	0.1879706
197	0x3e635b54	0.22202808
198	0xbe0f4792	-0.13992146
199	0x3e986754	0.29766333
200	0xbe8ec5e0	-0.27885342
201	0xbe48379c	-0.19552463
202	0x3e129eea	0.14318433
203	0xbe1fcbba	-0.1560506
204	0x3e2ab49f	0.16670464
205	0xbd63e0c7	-0.055634286
206	0xbe7589d2	-0.23978356
207	0x3e258390	0.16163468
208	0x3d95aa53	0.073078774
209	0x3e81936a	0.2530778
210	0x3ea18ac1	0.31551173
211	0x3dceb8f2	0.10093869
212	0xbdb9fdbd	-0.090816
213	0x3e867917	0.2626426
214	0x3e401be3	0.18760638
215	0x3e5ecd52	0.21758011
216	0xbe84fdba	-0.25974828
217	0x3e4aca46	0.19803724
218	0x3ea5bdb6	0.323713
219	0xbe486f8d	-0.19573803
220	0x3dd06c66	0.10176925
221	0xbdcec562	-0.100962415
222	0x3e16b7d7	0.14718567
223	0x3e974269	0.29542854
224	0xbd4f1f41	-0.050566915
225	0xbdf12c6a	-0.117760494
226	0xbe8aa229	-0.27076843
227	0xbe383bab	-0.17991512
228	0xbde56d0f	-0.11202442
229	0x3e0bfe38	0.13671196
230	0x3e338b63	0.1753364
231	0xbe115ad0	-0.14194798
232	0x3e4c40a3	0.19946532
233	0xbe1be68a	-0.15224662
234	0xbd3ce443	-0.046116125
235	0x3e1405e6	0.14455375
236	0xbdd3b24b	-0.10336741
237	0xbe2bf49e	-0.16792533
238	0xbe483ebe	-0.19555184
239	0x3ea6f53f	0.32608983
240	0x3e1f6616	0.15566286
241	0x3e723a9a	0.23655167
242	0x3d338f1e	0.04383766
243	0xbe4b0803	-0.19827275
244	0x3e160b35	0.14652713
245	0x3e0537e8	0.13009608
246	0xbe17c1b0	-0.1481998
247	0x3e11ba55	0.14231236
248	0xbd8db7da	-0.069198325
249	0x3e8b265f	0.27177712
250	0xbe5ae1ab	-0.21375148
251	0x3e2ba49a	0.1676201
252	0x3e5755f6	0.21028885
253	0xbe2da0af	-0.16955827
254	0xbe6603fb	-0.22462456
255	0xbdfcbd7e	-0.1234083

convs.0.linear2.bias f4 [128]
0	0x3e86604c	0.26245344
1	0x3e819d5e	0.25315374
2	0x3e58e40b	0.21180741
3	0xbf8a3a4d	-1.0799042
4	0xbea24e93	-0.31700572
5	0x3d8e4ddf	0.069484465
6	0xbe03b349	-0.1286136
7	0xbf235328	-0.6379876
8	0xbdbb41a9	-0.09143383
9	0xbe1147da	-0.14187565
10	0x3e83a1dd	0.2570943
11	0x3e669fb7	0.22521864
12	0x3e82d6c9	0.25554493
13	0xbea64bc7	-0.3247969
14	0x3e8af31d	0.27138606
15	0xbe4e739d	-0.2016129
16	0x3e5fa912	0.21841839
17	0xbdc84671	-0.09779061
18	0xbec31807	-0.3810427
19	0x3e873259	0.264056
20	0x3e198f89	0.1499616
21	0xbe422fbc	-0.18963522
22	0xbf0145f6	-0.50497377
23	0xbd837a96	-0.06419866
24	0xbe48b21d	-0.19599195
25	0xbf150f2b	-0.5822627
26	0x3e33c326	0.17554912
27	0xbe482ccb	-0.19548337
28	0xbe9df21f	-0.30848786
29	0x3e8b686a	0.272281
30	0xbe7e58fc	-0.24838632
31	0xbf054a0e	-0.52066123
32	0xbd7cb972	-0.061700292
33	0xbdce41bb	-0.10071131
34	0x3f2a5706	0.6653904
35	0x3e8323a2	0.25613123
36	0x3e7e0b93	0.24809103
37	0xbea3adff	-0.31968686
38	0xbf7a5c08	-0.9779668
39	0xbe2486df	-0.16067074
40	0x3e85ecaf	0.26157138
41	0x3e8848f5	0.26618162
42	0xbe1eaffd	-0.15496822
43	0xbf27f5f5	-0.65609676
44	0x3e34b50c	0.17647189
45	0xbf4061ea	-0.75149405
46	0x3dd4e160	0.10394549
47	0xbe363a4e	-0.17795679
48	0xbdefddcf	-0.117122285
49	0xbd76c42e	-0.060245685
50	0x3d6c904d	0.057754803
51	0xbe3a4348	-0.18189728
52	0xbf9f4c6f	-1.2445201
53	0x3e7f49c7	0.24930488
54	0x3e9c7111	0.30555013
55	0xbf0bd255	-0.54617816
56	0x3e2cf9a5	0.16892107
57	0xbf5afded	-0.8554371
58	0x3e54361f	0.2072377
59	0x3e3ca20c	0.18421191
60	0xbe153c0d	-0.14573689
61	0x3e420742	0.18948081
62	0x3e8dd218	0.2769935
63	0xbe85cfc4	-0.26135075
64	0x3e8c1de2	0.2736655
65	0xbf9201a3	-1.140675
66	0xbef6eaff	-0.48226163
67	0xbd522058	-0.051300377
68	0x3e585cec	0.21129197
69	0xbf1090de	-0.5647105
70	0xbf9356db	-1.1510881
71	0xbe06f6f3	-0.13180141
72	0x3e1b400c	0.1516115
73	0x3e43ceb7	0.19121824
74	0x3e483439	0.19551171
75	0xbd9886db	-0.07447597
76	0x3e24e78e	0.16103956
77	0x3e66bb95	0.22532494
78	0xbed6b615	-0.41935793
79	0xbe53e9e2	-0.20694688
80	0xbef56868	-0.47931218
81	0xbe376c82	-0.17912486
82	0xbde85c57	-0.113457374
83	0xbe03b4c3	-0.12861924
84	0x3e1648dd	0.14676233
85	0xbe74d3b0	-0.23908877
86	0xbe0229e5	-0.12711294
87	0x3e57f8f7	0.21091066
88	0xbf2e901c	-0.68188643
89	0x3e80523a	0.25062734
90	0xbd49abc5	-0.049236078
91	0xbe2772b7	-0.16352354
92	0xbf2dae20	-0.6784382
93	0xbe296020	-0.16540575
94	0x3e694c2d	0.22782965
95	0xbf647097	-0.892343
96	0xbe386d00	-0.1801033
97	0xbe221bda	-0.15830937
98	0xbd80ec76	-0.06295101
99	0xbea1d58c	-0.31608236
100	0xbf4f5cbf	-0.81000894
101	0xbe4cdf62	-0.20007089
102	0x3e648e48	0.22319901
103	0xbe5eb009	-0.2174684
104	0x3e79087e	0.24319646
105	0x3e6fc8ae	0.23416397
106	0xbe4e4b72	-0.20145968
107	0xbc80a12e	-0.015701856
108	0xbe5da16a	-0.21643606
109	0x3e1e68af	0.15469621
110	0x3e6026bd	0.21889777
111	0xbdb68547	-0.089121394
112	0xbf91d2b7	-1.139243
113	0x3e9b1f63	0.30297384
114	0xbdca171f	-0.09867691
115	0xbd6a78f3	-0.057244252
116	0x3e7aa923	0.24478583
117	0xbd7c96bf	-0.0616672
118	0xbf391cb7	-0.7230944
119	0x3e724625	0.2365957
120	0xbd94caa2	-0.07265212
121	0xbed8ede6	-0.42369002
122	0xbdedd590	-0.116129994
123	0xbf2c1ed2	-0.6723453
124	0xbf3b28ba	-0.7310902
125	0xbea249b8	-0.31696868
126	0x3e319499	0.17341842
127	0x3e58bc67	0.2116562

convs.1.a f4 [256, 1]
0	0xbc3a8a59	-0.011385524
1	0xbb9139fe	-0.004431962
2	0xbc544e95	-0.012958189
3	0x00000000	0.0
4	0x3247f83f	1.1639769e-08
5	0x370c590a	8.365381e-06
6	0xb66a7f69	-3.494288e-06
7	0x00000000	0.0
8	0x384e4140	4.9174996e-05
9	0x362d2a73	2.5803718e-06
10	0x3c820549	0.01587166
11	0x3ba78316	0.005112062
12	0xbc744cd4	-0.014910895
13	0x00000000	0.0
14	0x3cba944b	0.02277579
15	0xb01f5ed6	-5.7978633e-10
16	0xbc5e1e4f	-0.013557031
17	0xba69af91	-0.0008914406
18	0x33330b96	4.1687223e-08
19	0x3c0a50c5	0.0084421085
20	0xbcf2f955	-0.029659906
21	0xb485f235	-2.494941e-07
22	0x00000000	0.0
23	0x36a0f10a	4.796432e-06
24	0xb5057f34	-4.9731466e-07
25	0x30e01928	1.6305295e-09
26	0x3ba50e25	0.0050370866
27	0xb7175f81	-9.022538e-06
28	0x3108f2e8	1.992868e-09
29	0xbc838179	-0.016052948
30	0x357c89dd	9.4077933e-07
31	0x32d23f85	2.4476103e-08
32	0x37e564d1	2.7345874e-05
33	0xb6a9ea6c	-5.063883e-06
34	0xbc65843e	-0.01400858
35	0x3cba182f	0.02271661
36	0x3c4907f2	0.012269961
37	0x00000000	0.0
38	0x00000000	0.0
39	0x35d4f2bd	1.5865877e-06
40	0xbca11016	-0.01966099
41	0xbc616f12	-0.013759391
42	0x38223573	3.867359e-05
43	0xb220d22e	-9.361015e-09
44	0xbcab825a	-0.02093618
45	0x39c447e6	0.00037437602
46	0xb98c03b5	-0.00026705643
47	0x35a360d5	1.2172628e-06
48	0xb9a18f65	-0.0003081515
49	0x3c0b159e	0.008489041
50	0xbaaa6e36	-0.0013002816
51	0xb6c1a431	-5.7709626e-06
52	0x00000000	0.0
53	0x3c6c2023	0.014411959
54	0xbc7d2693	-0.015451091
55	0x00000000	0.0
56	0x388c9367	6.703176e-05
57	0x31b7ec65	5.352876e-09
58	0xbb58b16b	-0.0033064734
59	0xbc4cef1b	-0.012508179
60	0xb2f894ea	-2.8938718e-08
61	0xbbfb9d87	-0.007678691
62	0xbc399b3a	-0.011328513
63	0xb2ffa6e4	-2.97618e-08
64	0x3c05bbc9	0.008162447
65	0x319403f3	4.307816e-09
66	0x2f30132a	1.6013915e-10
67	0xb641c3fe	-2.8873324e-06
68	0x3cb3f410	0.021966964
69	0x00000000	0.0
70	0xae42c2d5	-4.428354e-11
71	0xb849d9ce	-4.812498e-05
72	0xbd68f9b2	-0.056878753
73	0xbc90550d	-0.01761868
74	0x3ac8c4db	0.0015317457
75	0x3523a919	6.09683e-07
76	0xbc26d67f	-0.010182976
77	0xbcf132a1	-0.029443087
78	0xb42dcab0	-1.6185618e-07
79	0x33ce7a66	9.614887e-08
80	0x00000000	0.0
81	0x37748fbe	1.4577001e-05
82	0x3744d2fc	1.1731634e-05
83	0xb483e014	-2.456369e-07
84	0x3ca314b0	0.019907326
85	0x00000000	0.0
86	0xb774d9a0	-1.4594203e-05
87	0xbc91eb62	-0.017812435
88	0x00000000	0.0
89	0x3c8a6dfd	0.01689815
90	0x3799869f	1.830171e-05
91	0x35f60f08	1.8332803e-06
92	0x32e1ea68	2.6300043e-08
93	0xb5811fa4	-9.620458e-07
94	0xbc58abaa	-0.013224522
95	0x30d62d2e	1.558339e-09
96	0xb53ba951	-6.9909316e-07
97	0xb3b8ca5b	-8.604976e-08
98	0xb45948c9	-2.0236179e-07
99	0x35485297	7.462599e-07
100	0x00000000	0.0
101	0xb533e41d	-6.7014645e-07
102	0xbca96a71	-0.020680638
103	0x34aa10b2	3.1677115e-07
104	0x3c9e0435	0.019289115
105	0x3ca6f434	0.020380117
106	0xb5054892	-4.9651965e-07
107	0xb42deae5	-1.6197335e-07
108	0xb59f7912	-1.1881659e-06
109	0xbd5e302f	-0.05424517
110	0xbc723756	-0.014783701
111	0xb7f2f9a8	-2.8964903e-05
112	0x32312580	1.03112825e-08
113	0x3d341637	0.0439665
114	0x339b29ec	7.2253755e-08
115	0xb950158c	-0.00019844453
116	0xbd03e3b6	-0.032199584
117	0x360b4094	2.0750203e-06
118	0xb2f563bb	-2.8567106e-08
119	0xbc65297f	-0.013986944
120	0x36821a80	3.877387e-06
121	0x00000000	0.0
122	0x376b9ed6	1.4044073e-05
123	0xb5220d12	-6.036872e-07
124	0x00000000	0.0
125	0x33c3a600	9.11059e-08
126	0xbcfc0bb1	-0.030767294
127	0xbcccd555	-0.025004068
128	0xbe007ef3	-0.12548427
129	0xbe01da8d	-0.12681027
130	0xbe026b94	-0.1273635
131	0x3f58f8c3	0.8475458
132	0x3f2bf450	0.67169666
133	0x3ec9696f	0.39338252
134	0x3f202cef	0.62568563
135	0x3f44ec8d	0.7692345
136	0x3f32ee06	0.69894445
137	0x3f342179	0.70363575
138	0xbdfeb3b9	-0.12436623
139	0xbe0dceea	-0.13848463
140	0xbe05d307	-0.13068782
141	0x3f01c33c	0.5068853
142	0xbdf98908	-0.1218434
143	0x3f18825a	0.595739
144	0xbdfbfbba	-0.123038724
145	0x3f052416	0.5200819
146	0x3f55cdda	0.8351723
147	0xbe0d6f09	-0.13811888
148	0xbe25b8ed	-0.16183825
149	0x3f0d8a47	0.5528912
150	0x3f3f0dc0	0.74630356
151	0x3f0a3b35	0.5399659
152	0x3f19268c	0.5982444
153	0x3f45fa59	0.77335125
154	0xbe0d8820	-0.13821459
155	0x3f14ed34	0.58174443
156	0x3f2586af	0.64658636
157	0xbe01b1df	-0.12665509
158	0x3f3d1bb8	0.7387042
159	0x3f4eef8c	0.8083427
160	0x3f312dea	0.69210684
161	0x3f2ac07c	0.6669996
162	0xbf229860	-0.63513756
163	0xbdfb7a56	-0.12279193
164	0xbe03c818	-0.12869298
165	0x3f16f167	0.589621
166	0x3f599da2	0.85006154
167	0x3f117987	0.5682606
168	0xbe048cb5	-0.129443
169	0xbe04177e	-0.12899587
170	0x3f2e566d	0.68100625
171	0x3f86be10	1.0526752
172	0xbe00692e	-0.12540123
173	0x3e037f4c	0.12841529
174	0x3e98fdb0	0.29881048
175	0x3f154375	0.58306056
176	0x3f0426f5	0.51621944
177	0xbe1a11b2	-0.15045813
178	0x3e03c4ab	0.12867992
179	0x3f2bc352	0.6709491
180	0x3f63050f	0.88679594
181	0xbe07ff40	-0.13280964
182	0xbe07bc04	-0.13255316
183	0x3f3e4bd6	0.74334466
184	0xbe14ac23	-0.1451879
185	0x3f580139	0.84376866
186	0xbe0851f6	-0.13312516
187	0xbe09d028	-0.13458312
188	0x3f0f7b3f	0.56047434
189	0xbe0fb103	-0.14032368
190	0xbe0b1fb9	-0.1358632
191	0x3f3bc87f	0.7335281
192	0xbdfd893e	-0.123796925
193	0x3f88e0eb	1.069364
194	0x3f456786	0.7711109
195	0x3df03f70	0.1173085
196	0xbe12298c	-0.14273661
197	0x3f3b05ca	0.7305571
198	0x3f63b7a1	0.8895207
199	0x3f333de4	0.7001631
200	0xbe1dc747	-0.1540805
201	0xbe13477d	-0.1438274
202	0xbe0cc02d	-0.13745184
203	0x3f22c763	0.6358549
204	0xbe1654a2	-0.14680722
205	0xbe099e43	-0.13439278
206	0x3f0ebacb	0.55753773
207	0x3f166295	0.58744174
208	0x3f37a76e	0.7173985
209	0x3f2586bc	0.64658713
210	0x3f2cc6f8	0.674911
211	0x3f24f0ed	0.64430124
212	0xbe23d853	-0.1600049
213	0x3ef84b63	0.48495016
214	0x3f1e7fea	0.6191393
215	0xbe0e5bb7	-0.13902174
216	0x3f47b5f3	0.7801201
217	0xbe00db6a	-0.125837
218	0x3e809e60	0.2512083
219	0x3f1cec9d	0.61298543
220	0x3f4d096e	0.80092514
221	0x3f1dac0a	0.61590636
222	0xbe0314ef	-0.12800954
223	0x3f381ed0	0.71922016
224	0x3f0f3f39	0.55955845
225	0x3f0b1510	0.54329014
226	0x3f2d5217	0.67703384
227	0x3f2f783b	0.6854283
228	0x3f526895	0.8219083
229	0x3f145822	0.5794698
230	0xbdf90efa	-0.1216106
231	0x3f110d8d	0.566613
232	0xbe06e4ad	-0.1317317
233	0xbdff250f	-0.1245824
234	0x3f1c99df	0.6117229
235	0x3f01095c	0.50404906
236	0x3f123932	0.57118523
237	0xbdf8b52e	-0.12143932
238	0xbe04f777	-0.12985025
239	0x3f336f6e	0.70091903
240	0x3f51e445	0.81988937
241	0xbe0b89b3	-0.13626747
242	0x3f48ed38	0.7848697
243	0xbd7863e9	-0.060642157
244	0xbe0e532d	-0.13898917
245	0x3f0c38ab	0.5477397
246	0x3f4a9f24	0.7914908
247	0xbe05084c	-0.12991446
248	0x3f2fe80e	0.6871346
249	0x3f27a8b7	0.65491813
250	0x3f2a0166	0.66408384
251	0x3f8f6e0f	1.1205462
252	0x3f4e56ae	0.8060101
253	0x3f517200	0.81814575
254	0xbe09fd3f	-0.13475512
255	0xbdfb2758	-0.122633636
