Saved_Models/TSP_1000/scatgnn_layer_2_hid_128_model_290_temp_3.500.pth (torch, 992099 bytes, 24 tensors)

bn0.weight f4 [2]
000000 00 00 80 3f 00 00 80 3f
       1.0 1.0

bn0.bias f4 [2]
000000 00 00 00 00 00 00 00 00
       0.0 0.0

bn0.running_mean f4 [2]
000000 00 00 00 00 00 00 00 00
       0.0 0.0

bn0.running_var f4 [2]
000000 00 00 80 3f 00 00 80 3f
       1.0 1.0

in_proj.weight f4 [128, 2]
000000 3b ca d7 be cc 68 48 bf ff b1 18 3f 86 3a 03 3f
       -0.42146477 -0.7828491 0.596466 0.51261175
000010 a4 5d 5e 3d 68 17 4a bf 7c 71 b8 be ac 2e 88 3d
       0.05428852 -0.78941965 -0.36024082 0.06649527
000020 e3 b5 7f 3f 29 03 33 bf cd 2e ed 3e 1c f3 a3 3e
       0.9988691 -0.69926697 0.4632477 0.32021415
000030 6b ad 0b 3d e4 1f 8b be 65 21 62 bf 97 a3 84 be
       0.03410093 -0.27172768 -0.88332206 -0.2590606
000040 61 2a 5b 3f 0f 98 54 3f e5 7c b2 be c5 2e 75 3e
       0.8561154 0.83044523 -0.34860912 0.23943622
000050 fa ea 0b bf d4 07 c2 be 46 72 b9 be e2 f9 f4 be
       -0.5465542 -0.37896597 -0.36219996 -0.47846895
000060 f2 af f5 3e 4b 07 7d 3f 63 f7 62 bf e2 e1 2d 3c
       0.47985798 0.98839253 -0.8865873 0.010612937
000070 8c 8c 69 3f ff 6c e2 bd ec 0d 02 3f 9a cf 76 bf
       0.9123008 -0.110559456 0.50802493 -0.96410525
000080 d5 4d 3e bf 33 f7 0f bf 0e f9 a1 3e 79 c0 82 bf
       -0.7433751 -0.5623657 0.31635326 -1.0214988
000090 aa e4 dc 3e 67 05 3a 3f a5 30 f5 be e0 0b 26 3f
       0.43143207 0.72664493 -0.47888675 0.6486187
0000a0 48 9a 51 be 47 77 56 bf 38 91 ff 3e ff 7f df ba
       -0.2046901 -0.8377575 0.4991548 -0.0017051696
0000b0 19 9e 55 3f 13 60 39 bf d0 ac 8c be 2d 44 b1 3e
       0.8344436 -0.7241222 -0.27475595 0.34622326
0000c0 b1 43 79 3f 99 3b 98 3e 3e a9 a4 bd b8 67 2f 3f
       0.97368914 0.2973297 -0.08040093 0.6851764
0000d0 41 37 16 bf 35 2c 65 bf 81 f8 db be 22 85 a9 3d
       -0.5867806 -0.8952058 -0.4296303 0.08277346
0000e0 88 d0 5c bf ec bc 44 be 82 19 3d be b0 74 a7 be
       -0.86255693 -0.19212693 -0.18466762 -0.32706213
0000f0 9e 5d 23 3f 9a 11 65 bf fc 13 2d bf ac a7 4f bf
       0.63814723 -0.8947998 -0.6760862 -0.8111522
000100 5d e6 58 bf 7d 40 18 3f ab 41 40 3f ff bb 5a be
       -0.84726506 0.594734 0.751002 -0.21360777
000110 1a dc c2 3e 37 4e 49 3f 19 9a 09 be 19 13 07 be
       0.3805855 0.7863497 -0.1343769 -0.13190879
000120 88 1c 04 be 8c 58 1c bf 5d b3 1c bf 3e 1b 2e bf
       -0.12901509 -0.6107261 -0.61211187 -0.6801032
000130 fc c8 a1 bd cd 61 46 3f 9d 1b 3c 3f 4a 6e 63 3e
       -0.07899663 0.7749298 0.73479635 0.2221004
000140 60 66 81 be de b0 c9 3d 36 6e 14 bf 05 22 a1 3d
       -0.25273418 0.09848188 -0.5798067 0.07867817
000150 c1 7c 0d 3f 30 3e 70 3e 73 cb 32 3e ca 9c 5f bf
       0.55268484 0.23461223 0.17460422 -0.87348616
000160 43 b6 80 3e c3 10 7e 3f 0a 34 1a 3f 82 99 c9 be
       0.25139055 0.99244326 0.60235655 -0.3937493
000170 81 60 e5 3e 3b 7e 1c 3e 34 24 3d 3f c1 b8 49 3f
       0.4480019 0.15282528 0.73883367 0.7879754
000180 df dc 44 3f 48 b2 2f 3f 11 42 5d be 0b cd 76 be
       0.7689952 0.6863141 -0.21607234 -0.24101655
000190 c2 68 4d be 5d 4b fc 3c 25 63 29 3f 5b cb 7c 3f
       -0.20059493 0.030797655 0.6616691 0.98747796
0001a0 cd 72 1b 3f 13 47 05 bf 92 dd e6 3d 15 06 e7 3e
       0.6072205 -0.52061576 0.1127273 0.45121828
0001b0 8d d2 ff 3e 2e 5d 12 3e ff 28 bd be b0 b0 36 3f
       0.49965325 0.14293358 -0.3694534 0.71363354
0001c0 88 92 65 bf 3c 67 44 3f d9 89 0d bf 0c 1e 42 3e
       -0.89676714 0.76720023 -0.55288464 0.18956774
0001d0 02 c8 ff be bc 18 54 3f 45 40 47 3f 8e c6 1b bd
       -0.4995728 0.8285024 0.7783244 -0.038031153
0001e0 36 81 1f 3f 10 e2 b0 bd f3 f1 f0 be d6 ac 62 3f
       0.62306535 -0.08636868 -0.47059593 0.88544977
0001f0 af c0 6d 3f 51 52 06 be 63 c4 32 3f f0 7b 94 be
       0.92872137 -0.13117339 0.6983091 -0.29000807
000200 f7 a7 01 bf b4 4d 69 3f 8e bd 46 3f b8 dc 54 3f
       -0.5064692 0.9113419 0.7763299 0.8314929
000210 d8 ca 51 bf 21 7f 1e 3f 23 76 82 bf 16 b3 d3 3e
       -0.8195014 0.61912733 -1.0192302 0.4134757
000220 e0 b4 1f 3f 1a 74 97 be 8a 9a 71 3f 08 14 30 be
       0.6238537 -0.29580766 0.9437643 -0.17195141
000230 f5 a6 27 bf a9 7e 76 bf f1 8f d0 3e fd 92 5d 3f
       -0.6548913 -0.9628702 0.4073482 0.8655241
000240 68 19 2b bf 58 61 e9 be 55 a6 7c bf b0 78 d4 3d
       -0.6683564 -0.4558208 -0.986913 0.10374582
000250 84 c8 39 3f ba 5a 52 bf 01 77 ec be c8 1e 28 bf
       0.7257159 -0.8216969 -0.46184543 -0.6567197
000260 14 b2 a8 be b7 63 97 3f b7 bf 16 bf 47 4f a4 bd
       -0.32948363 1.1827306 -0.58886284 -0.080229335
000270 7c 1b b5 be 04 3a 3b bf 68 b2 3d 3f 6a 6b 06 bf
       -0.3537253 -0.731354 0.7410035 -0.5250765
000280 9d 46 81 bf 4b b2 d2 3e 26 d0 15 3f f5 3b d6 bd
       -1.0099674 0.41151652 0.58520734 -0.10460655
000290 91 39 25 3e b2 c9 17 bf 05 65 3c bf e0 be 1b 3e
       0.16135241 -0.5929214 -0.73591644 0.15209532
0002a0 53 f7 30 bf 12 30 11 be ea 7a c3 be 9a c9 6b 3f
       -0.69127387 -0.14178494 -0.38179713 0.92104495
0002b0 af 69 b4 3e 55 b9 6d 3f 69 f2 7e 3f a5 64 31 3f
       0.3523688 0.9286092 0.9958864 0.69294196
0002c0 62 fc e4 be 01 2d dc be 92 c8 70 3d 63 8e 43 bf
       -0.44723803 -0.43003085 0.05878503 -0.7638914
0002d0 0e 5a 42 3f 69 19 57 3f 21 05 60 bf a7 01 22 3f
       0.7591866 0.8402315 -0.87507826 0.6328377
0002e0 8a 50 44 3d 53 bf 44 3f bc 76 27 bf bc 0d c9 be
       0.04792837 0.7685444 -0.6541555 -0.3926829
0002f0 23 e2 f4 bd 68 60 c9 bd 1f be ed bd a3 cc a9 be
       -0.11957195 -0.09832841 -0.11608528 -0.33163938
000300 93 6a 96 bd 63 60 6d bf 85 87 61 bf 35 0c 69 bc
       -0.07344546 -0.927252 -0.8809741 -0.014224102
000310 c2 ce 9f bd d0 2a b6 be d8 4b 2a bf b5 a0 40 3f
       -0.07803108 -0.35579538 -0.6652198 0.7524522
000320 3e e4 b9 3e 4b 0c 87 bf af 4d 82 3f ec 61 59 be
       0.36306947 -1.0550627 1.0179957 -0.2122876
000330 41 48 40 3f ac c4 89 bc 97 92 77 3e 9d 10 06 bf
       0.7511025 -0.016817413 0.24177013 -0.523691
000340 4b 9f 5d 3e 55 72 70 bf fd 22 37 3f 23 15 ff 3e
       0.21642797 -0.93924457 0.7153776 0.49820814
000350 66 2c 54 3e 90 6c 6f bf 95 a6 33 3f f5 f7 23 bf
       0.20720062 -0.9352503 0.7017606 -0.6405023
000360 23 7d 8a 3d 83 7d 7b bf bd 70 3c bd 16 8a 5e bf
       0.06762149 -0.9823839 -0.046005953 -0.8692945
000370 3f 92 d4 be 90 0e 39 bd e5 c0 bd 3e 3d ef 7f 3f
       -0.41517827 -0.045179904 0.3706123 0.99974424
000380 b5 f9 4a bf b2 7d 11 bf c1 6e 3a be 72 19 73 3f
       -0.7928727 -0.5683242 -0.18206312 0.949607
000390 ce 02 d5 bd 10 5b 23 3f 55 b8 d7 be 19 c8 16 3e
       -0.104009256 0.63810825 -0.42132822 0.14724769
0003a0 19 73 28 bf 39 d3 0f 3f 9b 0b 4d 3f 26 68 6c 3e
       -0.65800625 0.56181675 0.80095834 0.23086604
0003b0 9f a4 59 3f e6 56 54 3e 37 c4 81 3f 81 fb 8d be
       0.85016817 0.20736274 1.0138005 -0.27730945
0003c0 7d d8 8f 3e 7a 01 f0 be 1e 05 09 be 83 35 6b 3f
       0.28094855 -0.46876127 -0.13380858 0.9187853
0003d0 12 83 16 3f 92 a6 72 bf 61 57 83 3f 9f 2d e9 3d
       0.5879375 -0.94785416 1.0261041 0.11385655
0003e0 c0 84 74 bf a6 e4 95 be b1 d7 4b bf af dd 08 bf
       -0.9551506 -0.29276007 -0.79625994 -0.5346326
0003f0 fb 01 54 bd 77 aa 67 3f 33 9a 4b be cf ec 69 3f
       -0.0517597 0.90494484 -0.19883041 0.91376966

in_proj.bias f4 [128]
000000 7d 1d 11 bf fb d9 c1 be ff 56 b7 be c0 ff 53 3f
       -0.5668562 -0.37861618 -0.3580856 0.8281212
000010 c3 70 fb be e4 db 62 3e 57 39 66 3f ad 9d 0e 3e
       -0.49109468 0.22154194 0.89931244 0.13927336
000020 73 be 61 bf b5 34 12 3f 0e f9 1e 3f e0 11 4c 3f
       -0.8818123 0.57111675 0.6209878 0.79714775
000030 8f 22 0c 3f 77 2b 41 3e 0e 4a f6 be 75 e4 de be
       0.5474023 0.18864237 -0.48103374 -0.43533674
000040 8c d2 49 bf 24 f2 40 bf 95 1d 3b 3f 25 81 d4 bd
       -0.78836894 -0.7536948 0.73092014 -0.10376195
000050 40 34 ee bd 8a f6 4f be b8 ee 0e 3e 39 4f 1b bf
       -0.1163106 -0.20308891 0.13958251 -0.6066776
000060 ed 40 c2 be 19 f7 3e 3f af 3c 72 bf d0 57 58 3f
       -0.3794016 0.7459579 -0.94623846 0.8450899
000070 94 4c b8 3d 7c 7a 6a 3f 60 f8 f1 be c6 4d 2f bf
       0.08998981 0.91593146 -0.47259808 -0.6847805
000080 07 2d c9 3d 90 2c 13 3f 75 a6 bd be 99 cd 3e bf
       0.098230414 0.5748987 -0.3704106 -0.7453247
000090 7b 0a 6a 3e c4 3e 15 be e0 7a 92 3e 1d f8 96 3e
       0.2285556 -0.14574724 0.2860937 0.2948617
0000a0 ab 56 4a bf c3 bc 98 bf 39 c2 4a bf 37 99 45 3f
       -0.79038495 -1.1932606 -0.7920261 0.7718691
0000b0 e0 1e bb 3e 41 3d 0b 3e c3 7c 8b bf be 27 ef 3e
       0.36546993 0.13597585 -1.0897449 0.46710008
0000c0 f4 a6 62 3d 8d 0a 48 bf 47 61 30 3f 20 c0 0c bf
       0.055335 -0.781411 0.68898433 -0.5498066
0000d0 a0 11 20 bf f4 58 2d 3f 4f 9e 6f 3e 22 2c b0 3c
       -0.62526894 0.67713857 0.23400234 0.02150542
0000e0 8e 0b 28 bf a3 e4 56 bf cc 7f 41 3f 90 d9 8c 3e
       -0.6564263 -0.8394262 0.7558563 0.27509737
0000f0 1c 7c 7d 3e 47 d5 ed be b8 df 23 3f bd 23 34 3f
       0.24754375 -0.4645178 0.6401324 0.7036703
000100 58 ca 0e be 3d 8a f7 3e 4f 26 cd 39 aa 5e 80 3e
       -0.13944376 0.48347655 0.0003912919 0.25072223
000110 55 de 29 3f 24 2b 16 3f ad 7d 7c 3e 18 11 a7 3e
       0.66354877 0.5865958 0.24657317 0.3263023
000120 97 dd 66 3f 72 f5 d5 3b af 2e e4 be 61 d8 6b 3f
       0.9018187 0.0065295035 -0.44566867 0.92127043
000130 a9 9b e5 3b 6d e3 a5 bf 12 09 1a bd 6c 6f ad 3e
       0.0070070815 -1.296003 -0.037606306 0.3387407
000140 f8 8f 51 3e 77 51 4c 3f 1f 20 6b be 7e ff 81 3d
       0.20465076 0.79811805 -0.22961472 0.063475594
000150 4a 4f 58 bf 76 6d 46 bf f8 e9 ce be 07 ea 58 bf
       -0.84495986 -0.77510774 -0.4041288 -0.847321
000160 01 ba 4a 3f 15 51 e6 be a6 7c ab be 92 51 82 3d
       0.7919007 -0.44983736 -0.33493537 0.063632146
000170 ca e1 7b 3e 5d 35 f1 bd cb 61 09 3f fd 74 36 3f
       0.2459785 -0.11777756 0.53664845 0.7127226
000180 4f 00 00 3e 23 66 68 3e 26 cd 24 bf 52 e9 41 3e
       0.12500118 0.22695212 -0.6437553 0.18936661
000190 8d 49 a2 3d a2 3f ee be 98 22 87 3e 42 33 3d bf
       0.07924185 -0.46532923 0.2639358 -0.7390634
0001a0 44 73 35 3f 9b 60 b6 3e 88 1f 1f 3f 2b 38 c4 3e
       0.70879006 0.3562058 0.6215749 0.38324103
0001b0 7e be 04 bf b3 64 ef bb 88 ec cf bd 95 b7 70 3e
       -0.5185317 -0.0073057055 -0.10152537 0.23507531
0001c0 e9 ec 61 3b aa cd 42 bf 46 4a fb be 3f 41 4e bf
       0.0034473485 -0.7609507 -0.49080104 -0.8056831
0001d0 a9 45 3c 3f b5 bc a5 3e 75 4a dc 3e cf 82 af 3d
       0.7354379 0.32370535 0.43025556 0.08569872
0001e0 7f 7d cf be db 0b ca 3e 9a 0d 78 3e 3a 3d bd 3e
       -0.40525433 0.3946217 0.24223939 0.36960775
0001f0 b2 55 43 3e 16 55 fa bd 8e 56 3e 3f 14 ce b8 3e
       0.19075659 -0.1222326 0.7435082 0.36094725

convs.0.a f4 [256, 1]
000000 29 3c 27 3d 90 1b 71 3d 4a f3 d2 bc a1 16 ae 3c
       0.040828858 0.058864176 -0.025750775 0.021251025
000010 ca 0c 96 3c 95 c7 f4 3b 69 1f b7 3d d5 4b 6a bd
       0.018316645 0.007470081 0.08941538 -0.057201225
000020 6f b7 19 3d 51 53 f1 3b c1 f9 c1 bd d3 4c dc 3d
       0.03752845 0.0073646684 -0.09471465 0.107568406
000030 04 77 f6 3d e1 fa cb 3d 05 9f 4f bd 86 09 b0 ba
       0.12034419 0.09959961 -0.050688762 -0.0013430573
000040 5b 77 5f 3d 78 43 40 bd e5 0d 4c 3e 3d e9 1a 3d
       0.054557186 -0.046939343 0.19927175 0.03782009
000050 9d 7e c7 3d dc 56 c7 3c 32 ab 54 bd 57 66 10 3d
       0.097409464 0.02433341 -0.051921077 0.03525385
000060 e7 0e 03 3c 25 39 bc 3d a7 8b a6 3d 05 81 e3 ba
       0.007999158 0.09190587 0.08132105 -0.0017357176
000070 1f ee d7 3a 18 de 43 bd a2 6e ea 3c 0c c1 68 3c
       0.0016474164 -0.047819227 0.028617207 0.014206182
000080 d4 26 ca bc 9e 58 09 bc 06 0a 7f 3d 00 00 00 00
       -0.024676718 -0.008382944 0.06226542 0.0
000090 38 13 e9 3d c0 99 4b 3d e9 2b a8 3b 61 c9 0b 3e
       0.11380619 0.049707174 0.0051321876 0.13651039
0000a0 00 00 00 00 49 e4 c9 bb 73 ab 93 3c cc e0 02 be
       0.0 -0.006161247 0.01802609 -0.12781066
0000b0 a1 e5 0e 3e 0e 4b 23 3c 4c 35 ae 3b 34 e2 f2 3c
       0.13954784 0.009966625 0.005316412 0.029648878
0000c0 cf a7 9f 3d 68 8c f5 3a 8e 1a 98 3c a9 e8 4e 3d
       0.07795679 0.0018733861 0.01856735 0.05051485
0000d0 0a 05 c2 bb 4c 5a 1a 3d ac 11 8a bd f1 7a a2 3d
       -0.005921011 0.03768377 -0.06741652 0.079336055
0000e0 b0 c1 7a 3d 85 e5 fe 3c 24 0d 08 3e 49 ef cc 3d
       0.06121987 0.031115303 0.13286263 0.100065775
0000f0 80 17 20 3d 70 6b 1d 3d 08 08 5c bd d0 25 2b bb
       0.03908491 0.03843254 -0.053718597 -0.0026115067
000100 89 bd 3b 3d 40 ad 14 3e e3 8d e0 bd b0 50 69 be
       0.04583505 0.14519215 -0.10964563 -0.22784686
000110 a6 c7 14 3e de 87 b6 bc 9c 28 f3 bc 18 88 d9 3d
       0.14529285 -0.022281583 -0.02968245 0.10621661
000120 87 19 1e bd df 80 3f 3d 3f d1 18 bd 33 1d c3 3c
       -0.038598564 0.04675376 -0.037308928 0.023817634
000130 23 2f d5 3b 3a f1 d8 3c 9e 6c 36 bd cd e3 03 3d
       0.0065058633 0.026482213 -0.04453718 0.03219967
000140 8f e6 2c 3e 62 88 44 3c 93 9d 8f bc bb ed 95 bb
       0.16884826 0.011995407 -0.017531192 -0.004575459
000150 dc a0 78 3c f1 8e 99 3c 90 e5 9a 3d b8 e3 0f 3d
       0.015175071 0.018744918 0.07563317 0.03512928
000160 38 45 40 be 5d 5b 18 3d 89 d1 d8 3d 06 d9 be bd
       -0.18776405 0.037196506 0.10586841 -0.09318738
000170 fa 44 6b 3d 6f 48 ba 3d ba 0f 92 bd 92 9d 3b bd
       0.057438828 0.09095847 -0.07131906 -0.045804568
000180 d3 68 95 bc 89 f1 09 3e 6a 0d 0e 3c 9a 6b 90 3d
       -0.01823846 0.13471045 0.00867019 0.07051773
000190 c8 6b 09 be bc aa 06 bd dd 2c 89 bd d1 43 a5 3c
       -0.13420022 -0.03287767 -0.0669801 0.020173939
0001a0 15 f4 30 3d 7c ba 01 3e 6b 1e d8 3d 3b 0f ae 3d
       0.043201525 0.12668794 0.10552677 0.08498999
0001b0 06 e0 ad 3d 29 d4 60 bd 4e f3 97 bb 6d 70 37 3e
       0.08489995 -0.05488983 -0.0046371585 0.17913981
0001c0 35 f4 07 be 88 b7 d9 3d 9d 82 38 3d e6 b4 9a bb
       -0.13276751 0.10630709 0.045046438 -0.004721272
0001d0 08 4e 08 3e 8c b7 f1 3d 2d 5d 1a 3d 80 15 93 bc
       0.13311017 0.11802587 0.037686516 -0.017954588
0001e0 87 40 49 3b 41 8e 51 3e d8 b8 3b ba d5 ce 42 3c
       0.0030708627 0.20464422 -0.0007161028 0.011890133
0001f0 7e f6 a9 3d 9c 77 3d 3d e7 95 f6 3c af 1d c4 3d
       0.08298968 0.046256647 0.030100776 0.09575974
000200 41 e8 2c be d9 56 2c be ef 62 56 be 34 16 4a 3e
       -0.16885473 -0.16830005 -0.20936178 0.19735032
000210 13 0d 81 be e0 fc 97 3c 28 44 37 3e db ed 78 3e
       -0.25205287 0.018553197 0.17897093 0.24309485
000220 ab 62 11 be c3 b3 18 3e 02 61 34 3e e7 92 3d 3e
       -0.14197795 0.14912324 0.1761513 0.1851307
000230 8f db b3 3d ad 8d 24 3e de 03 6b be 57 9d 25 be
       0.08782112 0.1606967 -0.22950694 -0.16173302
000240 32 1d c2 bd 1c ed 84 be 7e fa 42 3e d1 fe 0d 3e
       -0.09478225 -0.2596215 0.19040868 0.13866736
000250 09 f2 53 3e eb f7 4b be 90 4a 43 3e 8b 96 43 be
       0.20697798 -0.19918792 0.19071412 -0.19100396
000260 e1 17 85 be 06 d0 18 3e c1 48 34 be 3d dc 31 3e
       -0.2599478 0.14923105 -0.17605878 0.1736917
000270 d5 42 77 3e 3e 18 48 3e b4 6c 32 be 11 fc be bd
       0.24146588 0.19540498 -0.1742428 -0.093254216
000280 b0 1e 91 3e e0 4f b6 3d 3e 24 1e be 3f 55 84 be
       0.28343725 0.08901954 -0.15443513 -0.25846288
000290 5c 92 9b bd 09 6b da 3d 91 26 0f 3d 4f d5 80 3b
       -0.07596275 0.106649466 0.03494889 0.0039316784
0002a0 52 34 81 bd 48 72 c9 bd 26 58 72 be 1e 1d 12 3e
       -0.063088074 -0.098362505 -0.23666438 0.1426892
0002b0 95 6a 2c bb 3b d5 26 3e e8 5f 8b be 42 42 b2 3d
       -0.0026308645 0.16292278 -0.27221608 0.08704044
0002c0 96 da 30 3e b0 97 e7 bd 82 c1 4d 3e 06 0b 0a be
       0.17270884 -0.11308229 0.20093349 -0.13480768
0002d0 7c 11 58 be 1e d8 55 3e 1b a1 1b 3d 2c 1b b6 3e
       -0.2110042 0.20883223 0.03799544 0.35567605
0002e0 8f bf 38 be dc f6 15 be b4 a8 0d 3e 8e 48 ea 3c
       -0.18041824 -0.1464495 0.13833886 0.02859905
0002f0 fc 50 2c 3c d6 35 2c be db 23 14 3e 5d 39 1b 3e
       0.010517355 -0.16817412 0.14466803 0.15158601
000300 09 ed 31 3e aa 55 88 3d 57 ef 8d 3e e0 be 9f 3d
       0.17375578 0.06656964 0.27721664 0.078000784
000310 fa bf 26 3e 33 6f b5 3d 49 b6 d3 3d 20 ac 8c bd
       0.16284171 0.088591 0.103375025 -0.06868768
000320 2a 88 35 3e 7a df f2 3e 19 53 6e be 1a c8 3f 3e
       0.17727724 0.47436124 -0.23273887 0.18728676
000330 1c 46 f5 3e 91 6c 5e bd 98 a5 51 3e 98 38 05 bd
       0.47905052 -0.054302756 0.20473325 -0.032524675
000340 d2 ce 96 3d 02 f2 73 3e 6f 23 8d be 84 02 99 3e
       0.073636666 0.23822787 -0.27566096 0.29884732
000350 55 83 03 be 72 5c 34 be 33 20 22 be 10 f1 34 be
       -0.12843068 -0.1761339 -0.15832596 -0.17670083
000360 0f 65 2f 3e 9e fc 52 be af ff 4b bd 65 e5 7a 3e
       0.17128395 -0.20604178 -0.049804386 0.2450157
000370 9c 8e 07 be f9 f5 e1 3d a4 61 6a 3e 7d 0b 2a 3e
       -0.13237995 0.11033244 0.2288881 0.16605945
000380 42 64 8f 3e 76 46 4b 3e f7 df 1b be 07 ce 8e 3e
       0.28006178 0.19851097 -0.15222155 0.2789156
000390 a9 9f b8 3e e8 ad 63 be ff bb 8a 3b a4 5f 1a be
       0.3605931 -0.22234309 0.0042338367 -0.15075547
0003a0 bd 2c f1 3d c5 95 ed 3c 3e 8a a4 3d 90 9b c5 bc
       0.11776111 0.02900208 0.0803418 -0.02412203
0003b0 3c d1 61 be b0 77 f5 3e d0 d1 ba 3e 5e 3a 32 3e
       -0.22052473 0.47942877 0.364882 0.17405078
0003c0 44 a1 b2 3e 38 72 2e be a9 98 46 be d2 35 22 be
       0.3488866 -0.17035758 -0.19394173 -0.15840843
0003d0 23 24 12 3e 63 db 2f 3d aa 45 c2 3d 59 cd 5d 3e
       0.14271598 0.042933833 0.094859436 0.21660365
0003e0 f5 62 73 be 95 a3 1b 3d 89 2c 3f 3e b3 cd e0 3c
       -0.23768218 0.0379978 0.18669333 0.027441835
0003f0 8b 25 35 3e b5 c1 70 3e 6b c8 07 3e 80 25 0f 3d
       0.17690103 0.23511393 0.13260047 0.034947872

convs.0.linear1.weight f4 [128, 128]
000000 88 39 3d be e8 25 3f 3d cd 0e 80 bd 57 a2 17 3d
       -0.18478978 0.04666701 -0.06252823 0.037020054
000010 06 3b 8d 3d 45 57 bb 3d cb a8 0f 3e 2c be eb bc
       0.068960235 0.09147505 0.14029233 -0.028777204
000020 fa fd 3f 3c 15 22 9a 3d a6 84 84 3c 66 fc 92 3d
       0.011718268 0.07526032 0.016176533 0.071770474
000030 73 e8 81 3c 6a 4d 90 bd d5 f3 1b 3d 11 02 e4 bc
       0.01585791 -0.070460156 0.038074333 -0.027833017
000040 bf e0 10 be de d7 15 3d 91 4f 27 bb ee be b6 3d
       -0.14148234 0.03658282 -0.0025529603 0.08923136
000050 b4 e1 f4 3d db d4 1c be 47 4e 91 3b a2 88 45 be
       0.11957112 -0.15315573 0.00443438 -0.19290403
000060 9e 6e 05 3c c1 5a 23 3c 4d 9a 13 be 1e 95 b0 3d
       0.008144049 0.009970368 -0.1441433 0.08622192
000070 8e 71 3d bd d8 61 ab 3d 73 6f b3 bb db 18 05 be
       -0.046250872 0.083682716 -0.0054759323 -0.12997763
000080 3b ed 17 bb af 98 35 bd 3e 7e 00 be e0 8b fd be
       -0.0023182172 -0.044335064 -0.12548158 -0.4952078
000090 a7 9a 10 3d a2 20 da 3d 61 91 94 bd 2c 2e 4c bd
       0.035303738 0.106507555 -0.07254291 -0.04984872
0000a0 f9 7a 10 bf 1c 81 aa be a7 d7 2b 3e eb 6f c0 3d
       -0.5643764 -0.33301628 0.16781484 0.09396347
0000b0 97 f7 c0 bc 38 52 07 bd 48 7e c2 3e 11 6f 6f 3d
       -0.02355556 -0.033037394 0.3798697 0.05845553
0000c0 cf 6b 1b bd 81 62 ad be 03 54 28 3d 67 0d f6 3c
       -0.03794461 -0.33864215 0.041095745 0.030035688
0000d0 77 be 09 3e fb d4 90 3d 21 f2 18 be 0c d1 55 3e
       0.13451563 0.07071873 -0.14936115 0.20880526
0000e0 ef 3d 5a bc 26 88 1f be b8 30 fa 3d ec 0c a4 3d
       -0.01332043 -0.1557928 0.122163236 0.08010277
0000f0 2a d5 2b be 91 f1 04 be 0b c8 54 bc 87 59 6a bd
       -0.16780534 -0.12982775 -0.012987147 -0.057214286
000100 5d 02 27 3d ea de 2b 3e 95 4f a6 3d 73 51 9a 3c
       0.04077374 0.16784254 0.08120648 0.018837666
000110 ad f2 0f 3d 78 33 21 bb 8b 03 04 3e b9 84 06 3e
       0.035143543 -0.0024597328 0.12891977 0.13136567
000120 50 8c b7 3d 48 53 81 3d cb 9c c1 3d 4e dd 04 3d
       0.08962309 0.06314713 0.09453734 0.032437615
000130 67 d8 40 3d 8f e0 a0 be 80 74 05 3e c0 3f ba 3d
       0.047081377 -0.31421325 0.13032722 0.090941906
000140 f9 57 cf 3d ca 21 69 3d d1 6d 1f bd 15 35 cc bd
       0.10124201 0.05691699 -0.03892309 -0.09971062
000150 8f 66 9f be b6 5a f1 bc 91 72 98 3c ad a6 f2 3d
       -0.31132933 -0.0294622 0.018609317 0.11848197
000160 75 2a 2b 3e 27 28 65 bd b2 27 69 3d 87 85 4c bd
       0.16715415 -0.055946495 0.056922622 -0.04993203
000170 b9 81 3f 3d fc 1e e7 3b 20 df 12 3e dd 00 62 3d
       0.046754573 0.007053254 0.14342928 0.055176605
000180 cb d0 4c 3d 4b e6 f2 bc e6 87 56 be f0 32 c6 3d
       0.050003808 -0.029650828 -0.20950279 0.09677684
000190 6c cd 4b 3e bd a7 b5 bc da 72 06 3d 6c 1f 1b bd
       0.19902581 -0.02217471 0.032824375 -0.037871763
0001a0 54 41 ae 3d de 6c 88 bd 53 f2 16 3d 70 03 aa ba
       0.08508554 -0.0666139 0.036852192 -0.0012970995
0001b0 d3 4a d4 bc ec 90 1f 3d a1 f2 22 be 79 db ea 3c
       -0.025914585 0.038956568 -0.15912868 0.028669106
0001c0 8b 2e 90 3a 8d 05 13 be 00 1f d3 bc 55 f0 8e be
       0.0011000199 -0.14357586 -0.025771618 -0.27917734
0001d0 2d ec ec 3c 2b cd f5 3d 92 d1 93 bb 66 b3 d4 3d
       0.028921211 0.12002023 -0.0045110667 0.1038578
0001e0 2e df cb 3d 62 48 56 bc d9 96 bd 3b 3c 2b 20 bd
       0.099546775 -0.013078781 0.0057858047 -0.03910373
0001f0 86 00 86 3d bb 85 13 3c dc d9 1d bd 40 90 fb bc
       0.065430686 0.009004052 -0.038537845 -0.030708432
000200 03 d7 2f be 53 9d c5 bd 66 5a aa bd 0a 5e 18 bc
       -0.17171864 -0.09649148 -0.083180234 -0.009299764
000210 1c 16 27 3d d8 69 a3 bd bd 1a 16 3e 62 12 bf 3c
       0.04079257 -0.079791725 0.14658637 0.023324195
000220 68 62 8f 3d b9 06 30 3d 8b 56 17 3d c8 a5 a0 3d
       0.070011914 0.04297516 0.03694777 0.0784412
000230 c9 ee 3d bb f4 a4 ca bc 19 d5 54 bc dc c5 b0 3d
       -0.0028981438 -0.024736859 -0.01299026 0.08631489
000240 ae 03 8e be 72 47 41 3d b4 32 c2 3d b7 9a 06 3e
       -0.27737182 0.047187276 0.09482327 0.13144957
000250 08 a5 a6 3b 21 4a 36 be a1 9f 65 bc c4 09 18 bd
       0.005085591 -0.17801715 -0.014015109 -0.03711869
000260 b1 d3 8a bd 7e 1d 6d bb 7c 7a 43 bd ae 46 2b bc
       -0.06778658 -0.0036180909 -0.047724232 -0.010453863
000270 5c ff a9 bd 62 df b0 3d 23 1e 83 3c 98 ed 42 be
       -0.08300659 0.08636357 0.016005581 -0.19035947
000280 dd 7a 41 bd 45 2d 9b bd 5f 57 cb 3c c1 39 e2 be
       -0.047236312 -0.07576994 0.024821935 -0.44184688
000290 42 4f 1f 3d 8f ee 58 bd eb 7b 78 bc 23 b7 48 be
       0.038893946 -0.052961882 -0.015166263 -0.19601111
0002a0 cb 01 ef be fe 24 be be 92 92 0d 3e ce 31 96 bd
       -0.46681055 -0.37137598 0.13825443 -0.07333718
0002b0 f8 27 21 3c 68 f8 f5 bd eb 19 61 3e 23 02 51 bd
       0.009836189 -0.1201027 0.21982543 -0.05102743
0002c0 1a 0e a8 bd 34 05 ce be c3 42 75 bd 3a 58 61 3d
       -0.08205815 -0.40238345 -0.059878122 0.05501578
0002d0 e3 6f 91 3d be c0 d9 3d a4 a6 0c be 24 72 9d 3d
       0.07101419 0.10632466 -0.13735443 0.07687786
0002e0 ad b6 93 bd 8c 63 e0 bd 8b f4 46 3c bf a2 2c be
       -0.07212577 -0.10956487 0.0121432645 -0.16858958
0002f0 98 0a 12 be b7 7d 78 bd e8 04 50 bd 85 66 35 3d
       -0.14261854 -0.060666766 -0.05078593 0.044287223
000300 47 66 05 3e a1 0d 8f 3d 8a f1 8b 3d ec 03 97 3d
       0.13027297 0.069850214 0.06833179 0.07373795
000310 83 73 06 bd 2d a5 19 3d c8 b5 0f bd 93 ed b7 3c
       -0.032825004 0.03751104 -0.03508547 0.022452151
000320 f7 01 0f 3e 5a 29 0e be 9a a2 90 3d d5 b5 62 3d
       0.13965593 -0.13882962 0.07062264 0.05534919
000330 c9 af 30 bc 46 15 bf be 56 c9 1b 3c d2 b5 f2 bd
       -0.010784098 -0.37320918 0.009508451 -0.11851086
000340 d6 14 82 bd 64 22 4b bd 0d af 87 bd f6 68 53 3d
       -0.063516304 -0.049593344 -0.06625185 0.05161377
000350 ad 3e 72 be cc 90 c5 bd 30 09 bc bd 5e 30 fc 3c
       -0.23656721 -0.096467584 -0.0918144 0.030784782
000360 4b 36 dc 3d 80 70 0d be e7 ef b7 3d d4 eb f1 ba
       0.10752543 -0.13812447 0.089813046 -0.0018457123
000370 22 0e e2 bd 41 c5 e6 bd 7d f6 38 3d fb 8b 0d 3d
       -0.11037852 -0.11268092 0.045156945 0.034557324
000380 aa 08 fe 3b 47 19 58 3d 73 40 81 be 77 a3 01 3d
       0.0077524977 0.05275848 -0.25244483 0.031650033
000390 f8 78 8f bc 98 59 d8 bc 08 59 78 bd f9 3f a3 bd
       -0.017513737 -0.02640991 -0.06063178 -0.07971186
0003a0 27 1b 77 bc 2d ef e8 bd eb ba ae 3c 63 54 4c 3c
       -0.015082157 -0.11373744 0.021329364 0.012471291
0003b0 13 43 4b bd 69 8c fa 3c aa 34 2f be c9 3b 72 bd
       -0.049624514 0.03058453 -0.17109933 -0.059139047
0003c0 50 d7 7d 3a e6 3f 92 bd b3 2a 2e be c0 04 28 be
       0.0009683268 -0.07141094 -0.17008476 -0.16408062
0003d0 33 d2 86 3d a1 04 97 bd 46 78 0f be 4c 2f 8b bc
       0.06583061 -0.0737393 -0.14010724 -0.016990326
0003e0 e8 30 38 3d 57 cb aa bd 94 de 1b b9 d5 7e a5 bd
       0.044968516 -0.08339565 -0.00014864869 -0.08080832
0003f0 a7 24 07 bd d0 02 8e bd f9 4f fe 3c 84 e1 87 bd
       -0.03299394 -0.0693413 0.031043993 -0.066348106

convs.0.linear1.bias f4 [128]
000000 0b 4d b8 be e1 c1 87 be f9 3f 21 be 58 4e ae 3d
       -0.3599628 -0.26515105 -0.1574706 0.08511037
000010 04 f1 12 3d 27 ab 89 be a8 69 71 be c7 a1 ba 3e
       0.03587438 -0.2688839 -0.23575461 0.3645155
000020 cb 49 b5 3e 1f d9 a0 3e a4 72 82 be cd 39 d1 3e
       0.35407862 0.3141565 -0.2547809 0.4086441
000030 4d 16 c0 3e de c4 c7 3e ec 02 d0 3e 10 22 a6 be
       0.37517014 0.39017385 0.4062723 -0.32447863
000040 ca 70 a7 3e 38 06 9b be 80 97 36 be 69 64 9a be
       0.3270324 -0.30278182 -0.1783123 -0.30154732
000050 82 8f d1 be 03 bc b9 3e 48 a2 a4 3e 20 6a c7 3e
       -0.409298 0.36276254 0.3215506 0.38948154
000060 e7 e5 9b 3e e5 ad bb be 83 4e 31 be 28 80 9a be
       0.3044884 -0.36656108 -0.17315106 -0.301759
000070 60 22 1a 3e ea b2 51 be 57 db e4 3e bb 22 69 be
       0.15052176 -0.20478407 0.44698593 -0.22767155
000080 15 4e 9d be e4 44 9d be a4 51 9f be d1 5a 8d be
       -0.30723634 -0.30716622 -0.31116974 -0.2760835
000090 26 c8 d2 3e 3e e0 c4 3e db da a2 be 77 f3 b6 3e
       0.41168326 0.38452333 -0.31807598 0.35732624
0000a0 fc 40 8d be 00 c3 a1 3e d4 dc 5c 3e 00 0e a7 3e
       -0.27588642 0.31594086 0.21568614 0.3262787
0000b0 c6 d8 4e 3e 41 57 b6 be 8c 3e b0 3e 09 76 86 be
       0.2019988 -0.35613444 0.3442272 -0.2626193
0000c0 21 f1 3c be 4f 75 bd be 17 f8 c1 3e fc 29 ba 3e
       -0.18451358 -0.37003562 0.3788459 0.36360157
0000d0 12 a4 9b be 69 d7 af be 20 b2 ad 3e d4 ca ce 3e
       -0.30398613 -0.34344032 0.3392496 0.4038912
0000e0 a3 e5 a9 be fd c3 9c be 63 12 a3 be 7e be 9f 3e
       -0.3318301 -0.30618277 -0.31849965 0.31200022
0000f0 da dc c8 3e d0 5a c3 3e 42 65 a8 3e 72 63 5e 3e
       0.39230996 0.38155222 0.32889754 0.21717623
000100 af 9b 9f 3e de 98 98 3e 58 37 b0 3e 43 4c 96 be
       0.31173465 0.29804128 0.34417224 -0.29355058
000110 0f 12 a3 3e cb cc bf 3e b0 14 a4 be db 11 44 3e
       0.31849715 0.37460932 -0.32047033 0.19147436
000120 5d 7b be be 9c 5a b8 be fe 3a a7 3e 35 30 95 be
       -0.37203494 -0.3600663 0.32662195 -0.29138342
000130 34 79 ce 3e 74 2a 8a be 67 3b cb be 61 40 c5 3e
       0.40326846 -0.26985514 -0.39693758 0.3852568
000140 ce 8b b4 3e 23 e7 bf 3e a2 ce d2 3e 6e d9 96 3e
       0.35262913 0.3748103 0.41173273 0.2946276
000150 37 1b 81 be 5d cb a4 3e fc 69 a9 3e 7a ee cd 3e
       -0.25216076 0.32186404 0.33088672 0.40221006
000160 f8 ed af be 4b cf b5 3e 18 a7 b6 3e e8 88 a1 be
       -0.34361243 0.35509714 0.35674357 -0.31549764
000170 62 ba 61 3e 7b b2 a8 be 12 a5 40 3e 49 7b cc 3e
       0.22043756 -0.3294867 0.1881297 0.3993781
000180 7a 09 a1 be 8f 1c b7 be cf 24 b9 be e6 a9 a0 be
       -0.31452543 -0.35763976 -0.36160895 -0.31379622
000190 e0 00 b0 be bc 50 bf 3e d2 df b2 3e 87 5d 9b be
       -0.34375668 0.37366283 0.34936386 -0.30344793
0001a0 59 74 5c 3e a5 5f a8 be 80 f3 68 be b0 7f b8 3e
       0.21528758 -0.3288547 -0.22749138 0.36034918
0001b0 1b b3 6d be e3 06 9e be b2 1e ce be 1b b8 c0 3e
       -0.23212855 -0.3086463 -0.40257794 0.3764046
0001c0 03 be 53 3e d8 20 97 3e 70 58 43 be 79 8a b0 be
       0.20677952 0.29517245 -0.19076705 -0.34480646
0001d0 0f 30 a2 3e bd 44 c9 3e a5 69 9a be 20 b2 be 3e
       0.3167729 0.39310256 -0.30158725 0.37245274
0001e0 9c 76 92 be 3d 92 b6 3e 79 bb 31 be 7a 92 c8 3e
       -0.28606117 0.35658446 -0.17356671 0.39174253
0001f0 8d 57 bb 3e f4 d2 aa be 70 77 b9 be 13 60 a5 be
       0.36590233 -0.3336407 -0.36223936 -0.3229986

convs.0.linear2.weight f4 [128, 128]
000000 5b e6 9b be bb 23 b0 3b 21 ef ab 3d bd c0 97 3d
       -0.30449185 0.005375353 0.083952196 0.07409809
000010 22 e6 0b 3e e3 30 01 be 25 a9 03 be ff 2a 87 3e
       0.13662007 -0.12616305 -0.12857492 0.2639999
000020 34 94 8f 3e 6f 29 30 3e da 86 17 be 29 77 8f 3e
       0.28042758 0.17203306 -0.14797536 0.280206
000030 cd c5 9a 3e 3f 7c b6 3e 9f c9 db 3e 06 62 bd bd
       0.30229035 0.35641667 0.42927262 -0.09247212
000040 f2 a5 94 3e 98 e4 95 bd f6 2d 16 3d 27 b4 3a be
       0.29032856 -0.073189914 0.036664926 -0.18232785
000050 66 7c 84 be c8 e6 99 3e 36 8b 15 3e 53 bf d2 3e
       -0.25876158 0.30058885 0.14603886 0.41161594
000060 f1 00 7a 3e 67 eb 94 be ea b7 24 be 12 4b 54 be
       0.24414422 -0.29085848 -0.16085783 -0.20731762
000070 24 be 9e 3c 76 5f c6 be a6 dd f9 3e 89 93 d4 be
       0.019377775 -0.38744706 0.48801917 -0.4151881
000080 6e c2 c2 bd 0f 9e 5d be 1d c7 51 be e1 21 43 be
       -0.09509741 -0.21642326 -0.20486112 -0.19055893
000090 bb f0 04 3f cf e6 9c 3e 45 d1 e2 bd 56 c7 51 3e
       0.51929826 0.30644843 -0.11075071 0.20486197
0000a0 18 bb d9 bd 7a cc 9f 3e b9 b8 a7 3e 2b ca 5f 3e
       -0.106313884 0.3121069 0.3275812 0.21854465
0000b0 11 98 c0 3e 68 ef 08 be 62 82 73 3e e2 db 33 be
       0.37616017 -0.13372576 0.23780206 -0.17564347
0000c0 59 82 3b be f9 07 9d be 74 76 b9 3e 98 e5 b9 3e
       -0.18311442 -0.30670145 0.36223185 0.3630798
0000d0 eb b3 10 be 66 48 82 be cf c4 86 3e 68 a3 c4 3e
       -0.14131133 -0.2544586 0.26322028 0.3840592
0000e0 30 35 93 be d3 02 37 be a6 23 a5 bd 2f bd 7d 3e
       -0.28751516 -0.17872171 -0.0806344 0.24779199
0000f0 2d 20 81 3e 33 65 d8 3e 53 88 00 3f e6 b1 b3 3e
       0.2521986 0.4226471 0.50208014 0.35096663
000100 8c 2a 57 3e 0a 16 1b 3e 3d 19 87 3e c3 be 8c be
       0.21012324 0.15145126 0.26386443 -0.2748929
000110 77 36 8a 3e b0 76 d2 3e 55 7b 8b be 7f 8a a6 3e
       0.26994678 0.41106176 -0.27242532 0.3252754
000120 da fc 7a be 86 99 7e be 90 88 40 3e 95 7e 9d be
       -0.24510518 -0.24863252 0.18802094 -0.30760637
000130 94 6e d5 3e 61 b6 b0 bc 90 8c 4b be 4c cd b7 3e
       0.41685927 -0.02157134 -0.19877839 0.35898817
000140 36 b2 2c 3e bc 36 9b 3e 47 8e bb 3e 68 34 e4 3d
       0.16864857 0.30315197 0.36631986 0.11142808
000150 66 aa fc bd 83 29 78 3e c6 33 8f 3e 2a 4e a9 3e
       -0.123371884 0.24234585 0.27969187 0.33067447
000160 3e d0 ba be 0f 87 42 3e 52 54 06 3f 6f cc 1d be
       -0.36487 0.18996833 0.5247241 -0.15410016
000170 47 21 41 3e 1d 6f 8f be e6 44 64 3e 12 fc a8 3e
       0.1886035 -0.2801446 0.22291908 0.33004814
000180 25 2e 4b be ba ee 58 be 05 68 36 be c5 aa 2b be
       -0.19841821 -0.21184817 -0.17813118 -0.16764362
000190 28 19 3f be 4e f0 96 3e 0e 8b 61 3e 12 f7 2c be
       -0.1866194 0.29480213 0.22025701 -0.16891125
0001a0 89 d9 ae 3e ae 1f a2 be d3 e5 8f bd d1 40 b6 3e
       0.3415034 -0.31664795 -0.07026257 0.35596326
0001b0 00 59 42 bd 51 48 3f be 2e 87 8a be 0b fb d2 3e
       -0.04744816 -0.1867993 -0.2705626 0.41207156
0001c0 50 f6 b2 3e 98 c1 44 3e fb 26 b7 bd d9 12 7e be
       0.34953547 0.19214475 -0.08942982 -0.24811877
0001d0 0b 48 1e 3e 28 c7 1b 3e 7b 2a 5f be 69 07 63 3e
       0.1545717 0.15212691 -0.21793549 0.22170796
0001e0 f2 5c d0 bd 7f b2 b7 3e 3d 16 b8 be fa eb d4 3e
       -0.10173978 0.3587837 -0.35954466 0.41586286
0001f0 2a 5e 79 3e bb 7c 87 be bf 2a 49 be e8 06 1a be
       0.24352327 -0.2646235 -0.19645213 -0.15041697
000200 b1 55 5b be a7 7b 06 be 8e 8d c5 3d 9b ce b7 bc
       -0.21419407 -0.13133107 0.0964614 -0.022437384
000210 28 18 36 3e 12 bd 6f be 2e d3 44 bc ab b2 81 3e
       0.17782652 -0.23411968 -0.01201324 0.25331625
000220 84 9e 84 3e 0c 93 35 3e ba f1 36 be fb 9c 8d 3e
       0.25902188 0.17731875 -0.17865649 0.2765883
000230 bd 77 12 3e dd 4e e0 3e c8 9a aa 3e d0 18 9d bd
       0.14303489 0.43810168 0.33321214 -0.07670748
000240 fa fd 32 3e f1 da ea bd e3 e1 3f 3d 0e 27 23 be
       0.17479697 -0.11467541 0.04684628 -0.15932867
000250 d5 23 96 be b0 65 2e 3e 35 c7 57 3e 94 a7 cd 3e
       -0.29324213 0.17030978 0.21072085 0.40166914
000260 bc 09 84 3e 01 80 8d be 3c bf 7c be 0b 35 13 be
       0.25788677 -0.27636722 -0.24682325 -0.14375703
000270 df 51 a2 bc 12 70 af be df db 0a 3f 47 76 93 be
       -0.01981443 -0.3426519 0.54241747 -0.28801176
000280 c4 fd e3 bd 06 a6 5b be 46 04 65 be c2 b1 de bd
       -0.11132386 -0.21450052 -0.22364911 -0.10873748
000290 c0 5f e9 3e 83 09 1b 3e a1 a9 61 be 02 38 a6 3e
       0.45580864 0.15140347 -0.22037365 0.32464606
0002a0 cc b7 1e be fd fb 90 3e 35 b3 4b 3e 40 ac c0 3e
       -0.154998 0.28317252 0.19892581 0.37631416
0002b0 db 3c 51 3e 41 ae 3d be 7d cc 6a 3e 7d 3a 24 be
       0.20433371 -0.18523504 0.22929569 -0.16037937
0002c0 40 d0 27 bd e5 93 89 be 72 5c ae 3e 99 c6 b0 3e
       -0.040970087 -0.26870647 0.34054905 0.34526518
0002d0 c6 6e 18 be 71 43 1b be e7 5f 39 3e 6c ce b2 3e
       -0.14886007 -0.15162446 0.1810299 0.34923112
0002e0 d1 83 4c be 04 80 4e be c2 1e 77 be b3 d8 21 3e
       -0.19972159 -0.20166022 -0.24132827 0.1580532
0002f0 e6 ad 77 3e 39 32 b0 3e d3 a6 c4 3e da 90 8d 3e
       0.2418743 0.34413317 0.38408527 0.27649575
000300 28 24 69 3e 7e 2f 4a 3e 8a a9 aa 3e 84 8e 8f be
       0.22767699 0.1974468 0.33332473 -0.28038418
000310 54 75 81 3e 73 50 a6 3e 1f 86 65 be 8a 78 9a 3e
       0.25284827 0.32483253 -0.22414444 0.3017009
000320 c4 d3 bf be 45 18 90 be e8 37 50 3e 84 eb 40 be
       -0.37466252 -0.28143516 0.20333827 -0.18839842
000330 a9 d9 81 3e 50 72 ac bd 83 f4 96 be d3 23 7f 3e
       0.25361374 -0.08420241 -0.29483423 0.2491601
000340 ad cc c7 3d 77 6a a3 3e c1 22 d8 3e 2d 54 11 3e
       0.09755836 0.31917164 0.42214015 0.14192267
000350 4d 1d e6 bd 9f f5 a2 3e 0e 2b 84 3e 18 e2 a4 3e
       -0.112360574 0.3182802 0.25814098 0.32203746
000360 c1 57 9f be 38 5b 8b 3e 4e 44 c2 3e 76 e7 5e be
       -0.31121638 0.27218032 0.37942737 -0.21767983
000370 aa 4d d6 3d 51 a7 16 be 99 9a 1f 3e 3c c0 cd 3e
       0.10464032 -0.14712264 0.15586318 0.40185726
000380 02 4a bf bd 5c cf 34 be 13 ed a5 be b8 16 68 be
       -0.09340288 -0.17657226 -0.32407436 -0.22664917
000390 98 71 1d be 9f f1 55 3e 39 f4 56 3e 9a 27 31 be
       -0.15375364 0.20892952 0.20991601 -0.17300263
0003a0 42 d8 4f 3e e4 4b 5f be 83 44 75 bd 55 db 69 3e
       0.2029734 -0.21806294 -0.05987979 0.22837575
0003b0 52 33 fb bd f8 b3 6f be b3 34 68 be 74 79 d9 3e
       -0.12265648 -0.23408496 -0.22676353 0.42475474
0003c0 18 50 23 3e 63 ca a1 3e d3 79 03 3d 5f 1e 84 be
       0.15948522 0.3159972 0.032098603 -0.2580442
0003d0 59 c4 4f 3e 04 f8 34 3e 5b 01 5c be a6 68 75 3e
       0.20289744 0.17672735 -0.21484892 0.23965701
0003e0 7c f3 bb bd c0 70 c3 3e 02 21 43 be c4 a9 8a 3e
       -0.091773 0.3817196 -0.1905556 0.27082646
0003f0 f5 98 9a 3e f3 10 60 be cc 78 8e be e0 82 19 be
       0.30194822 -0.21881466 -0.27826536 -0.14991331

convs.0.linear2.bias f4 [128]
000000 0d 36 97 3e ae 62 91 3e f0 eb 7f 3e 76 1a 6a bf
       0.29533425 0.283956 0.24992347 -0.91446626
000010 30 43 f9 bd a5 15 68 3d ca 44 0b be c8 58 01 bf
       -0.12171018 0.056661267 -0.1360046 -0.50526094
000020 a7 f4 df bd 7e f7 1a be 9d 69 95 3e c5 19 89 3e
       -0.109353356 -0.15133473 0.2918214 0.26777473
000030 5a b2 96 3e 0e b0 85 be 5e 0a 9d 3e 08 4d 63 be
       0.29432946 -0.26110882 0.30671972 -0.22197354
000040 46 0d 69 3e 82 77 e9 bd 67 6e 56 be a5 e2 9a 3e
       0.2275897 -0.113997474 -0.20940553 0.3025104
000050 e0 86 47 3e d3 56 55 be b2 ed b5 be 6f 77 71 bd
       0.19485044 -0.20833902 -0.3553291 -0.05895179
000060 03 75 4c be 73 2b eb be 71 f1 3f 3e b1 54 5d be
       -0.19966511 -0.45931587 0.18744446 -0.21614338
000070 ef 97 2b be 9d 0e 9f 3e d6 63 96 bc 9f 61 b7 be
       -0.16757177 0.31065837 -0.018358152 -0.35816666
000080 c8 80 95 bd 05 5e d4 bd 8e 09 16 3f c5 14 88 3e
       -0.07299954 -0.10369495 0.5860833 0.26578346
000090 ef ed 8c 3e 47 4b 46 be 1e 4f 4b bf 88 4b 2b be
       0.2752528 -0.19364654 -0.794176 -0.16728032
0000a0 39 3f 8d 3e d2 60 9a 3e eb e6 23 be c4 ff 13 bf
       0.27587298 0.30151993 -0.16006057 -0.5781214
0000b0 c9 5a 59 3e f4 6b 37 bf 5a c5 bc 3d f4 71 55 be
       0.21226038 -0.716491 0.09217329 -0.20844251
0000c0 e0 04 f9 bd 7e d1 15 bd cd ed 14 3d 0a 02 3e be
       -0.12159133 -0.03657674 0.036359597 -0.18555465
0000d0 f6 1e 89 bf 5f 6f 93 3e f5 dc ae 3e 58 8f d1 be
       -1.0712574 0.28795907 0.34152952 -0.40929675
0000e0 d8 f7 56 3e 03 c1 31 bf 75 b8 7a 3e 5d 8a 60 3e
       0.20992982 -0.6943514 0.24484427 0.21927781
0000f0 06 ce 34 be 2d b0 69 3e 52 c5 a0 3e d0 a0 91 bd
       -0.17656717 0.22821112 0.31400543 -0.07110751
000100 38 e2 9b 3e 7a b6 88 bf 80 8b b1 be 81 a5 67 bd
       0.3044603 -1.0680687 -0.34676743 -0.05655432
000110 6a 61 81 3e 09 9e dd be a0 f4 80 bf cf 37 16 be
       0.25269634 -0.43284634 -1.0074654 -0.14669727
000120 03 52 46 3e 08 48 52 3e c7 f3 6d 3e 2a 88 96 bd
       0.19367222 0.2053529 0.23237525 -0.0735019
000130 7e 4e 50 3e 31 1d 84 3e ea c6 8b be 86 34 58 be
       0.20342442 0.2580352 -0.27300197 -0.21113786
000140 fc 67 af be fa 77 3e be 13 3c f4 bd 2b ea 9a 3d
       -0.3425902 -0.18600455 -0.11925521 0.07564195
000150 0d 0d 43 3e af f1 2b be a9 8e 07 be 5a ff 6b 3e
       0.19047947 -0.16791414 -0.13238014 0.23046628
000160 e3 da 09 bf d1 93 91 3e 08 2f 35 bd b6 9c 24 be
       -0.5384962 0.28433087 -0.044234306 -0.16075405
000170 6f 1a 05 bf 40 3d 2e be 31 9c 85 3e 97 49 38 bf
       -0.5199346 -0.17015553 0.26095727 -0.7198729
000180 50 a3 5e be b2 ef 46 be 76 f3 24 bd 72 48 e2 bd
       -0.21741986 -0.19427374 -0.040271245 -0.11048974
000190 39 bf 23 bf 95 ad 5b be 2b 8b 68 3e 41 d3 66 be
       -0.6396366 -0.21452935 0.22709338 -0.22541524
0001a0 a4 e9 8f 3e 5c 41 8a 3e b0 ce 70 be a2 86 9d bc
       0.2810794 0.2700299 -0.23516345 -0.019229237
0001b0 dd be 6d be c2 c8 2d 3e ee b4 83 3e f1 4f bd bd
       -0.2321734 0.16971114 0.25723976 -0.09243763
0001c0 f5 13 7b bf a6 e9 ac 3e cd 82 ea 3d 1c c5 a8 bd
       -0.98077327 0.3377201 0.114507295 -0.08240721
0001d0 e0 13 94 3e 25 63 69 bd 5f fd 02 bf cb eb 8a 3e
       0.28921413 -0.056979317 -0.51167864 0.2713302
0001e0 ae c0 77 bd 04 1f 9a be 90 e6 fb bd 70 c7 13 bf
       -0.060486488 -0.30101788 -0.12299836 -0.5772619
0001f0 20 13 12 bf 9a 46 a6 bd aa a9 58 3e d9 93 64 3e
       -0.5706043 -0.08118935 0.21158472 0.22322024

convs.1.a f4 [256, 1]
000000 70 28 5d bc c0 38 83 bb 93 f9 8b bc 00 00 00 00
       -0.013498411 -0.004004568 -0.01708678 0.0
000010 3f f8 47 32 a4 55 73 38 32 ca e8 b5 00 00 00 00
       1.1639769e-08 5.8015474e-05 -1.7344194e-06 0.0
000020 5c a6 62 38 b9 71 65 36 c4 f4 86 3c 1d 91 9e 3b
       5.4037533e-05 3.4189854e-06 0.016474135 0.004839076
000030 a7 9b 3b bc 00 00 00 00 0c 0c 8f 3c b8 5e 1f b0
       -0.011450685 0.0 0.0174618 -5.7978466e-10
000040 b1 8e 24 bc 8d 36 2c ba 96 0b 33 33 ed d9 5c 3c
       -0.010043786 -0.0006569408 4.1687223e-08 0.013479692
000050 77 97 c8 bc 35 f2 85 b4 00 00 00 00 0a f1 a0 36
       -0.024486287 -2.494941e-07 0.0 4.796432e-06
000060 34 7f 05 b5 28 19 e0 30 60 48 c9 3b 81 5f 17 b7
       -4.9731466e-07 1.6305295e-09 0.006142661 -9.022538e-06
000070 e8 f2 08 31 bf 9f 61 bc dd 89 7c 35 85 3f d2 32
       1.992868e-09 -0.013770997 9.4077933e-07 2.4476103e-08
000080 7c 1f f0 37 66 16 58 b6 1c d3 db bc c9 8f c1 3c
       2.862489e-05 -3.2199546e-06 -0.026834063 0.023628132
000090 0b ae 72 3c 00 00 00 00 00 00 00 00 bd f2 d4 35
       0.014812003 0.0 0.0 1.5865877e-06
0000a0 7b a4 b4 bc 69 3d 8e bc 73 82 94 38 2e d2 20 b2
       -0.022051087 -0.017363267 7.081488e-05 -9.361015e-09
0000b0 4a b8 a9 bc e6 47 c4 39 d2 65 b4 b9 d5 60 a3 35
       -0.020717759 0.00037437602 -0.00034408137 1.2172628e-06
0000c0 ad 55 cf b9 d6 19 f5 3b 3c f6 a8 ba 9d f3 de 37
       -0.0003954595 0.0074798865 -0.0012890766 2.6577904e-05
0000d0 00 00 00 00 a5 8d 47 3c dc 9d 54 bc 00 00 00 00
       0.0 0.012179767 -0.01297709 0.0
0000e0 7d be a3 bb 65 ec b7 31 74 ba ad 3a ab 14 35 bc
       -0.004997073 5.352876e-09 0.001325442 -0.011052291
0000f0 ea 94 f8 b2 19 b4 1b bc be 6e 14 bc e4 a6 ff b2
       -2.8938718e-08 -0.009503388 -0.009059606 -2.97618e-08
000100 8e 08 ef 3b f3 03 94 31 2a 13 30 2f fe c3 41 b6
       0.007294721 4.307816e-09 1.6013915e-10 -2.8873324e-06
000110 54 b1 94 3c 00 00 00 00 d5 c2 42 ae da 27 d4 b7
       0.018150963 0.0 -4.428354e-11 -2.5290927e-05
000120 9a 79 55 bd 4b 7e 7e bc 5b c7 73 3b 19 a9 23 35
       -0.05211792 -0.01553304 0.0037197683 6.09683e-07
000130 6d a3 26 bc ea ba e3 bc b0 ca 2d b4 9a 6a cf b8
       -0.0101708 -0.027799089 -1.6185618e-07 -9.890385e-05
000140 00 00 00 00 37 02 79 37 54 57 4f 37 14 e0 83 b4
       0.0 1.4842072e-05 1.2358494e-05 -2.456369e-07
000150 3d 3d 9e 3c 00 00 00 00 4e 36 78 b7 e8 6c 92 bc
       0.01931631 0.0 -1.4794596e-05 -0.017874196
000160 00 00 00 00 be c1 80 3c 00 a9 60 37 e3 d2 f5 35
       0.0 0.015717383 1.3390789e-05 1.8315299e-06
000170 68 ea e1 32 a4 1f 81 b5 f1 90 43 bc 2e 2d d6 30
       2.6300043e-08 -9.620458e-07 -0.011936412 1.558339e-09
000180 51 a9 3b b5 5b ca b8 b3 c9 48 59 b4 97 52 48 35
       -6.9909316e-07 -8.604976e-08 -2.0236179e-07 7.462599e-07
000190 00 00 00 00 1d e4 33 b5 6b 5a aa bc b2 10 aa 34
       0.0 -6.7014645e-07 -0.020795068 3.1677115e-07
0001a0 5c 08 93 3c 59 69 9c 3c 92 48 05 b5 e5 ea 2d b4
       0.017948322 0.019093202 -4.9651965e-07 -1.6197335e-07
0001b0 12 79 9f b5 c7 52 67 bd 49 92 76 bc a8 c7 29 b8
       -1.1881659e-06 -0.056475427 -0.015049526 -4.0478684e-05
0001c0 80 25 31 32 77 1e 3a 3d ec 29 9b 33 a2 7f 72 b9
       1.03112825e-08 0.04543921 7.2253755e-08 -0.00023126465
0001d0 71 2d f0 bc 94 40 0b 36 bb 63 f5 b2 b1 62 86 bc
       -0.029318543 2.0750203e-06 -2.8567106e-08 -0.016404482
0001e0 f2 06 82 36 00 00 00 00 f9 58 62 37 12 0d 22 b5
       3.8751105e-06 0.0 1.3491365e-05 -6.036872e-07
0001f0 00 00 00 00 00 a6 c3 33 6a c3 08 bd 83 a1 d6 bc
       0.0 9.11059e-08 -0.033389486 -0.026200062
000200 18 3a 17 be 56 f6 11 be c7 5e 14 be fd cf 6e 3f
       -0.14768255 -0.14254126 -0.1448928 0.93286115
000210 b4 0d 3d 3f 67 b0 bc 3e 2e ef 2b 3f eb e6 55 3f
       0.73849034 0.36853334 0.67161834 0.8355548
000220 dd 4a 3d 3f d2 db 3e 3f ca ab 13 be 59 71 20 be
       0.7394236 0.7455417 -0.14421001 -0.15668239
000230 bc 38 1e be 4d 5c 0e 3f 76 97 0f be 92 57 27 3f
       -0.1545133 0.5560959 -0.14022622 0.65367997
000240 8d 2a 03 be 1d e1 f8 3e 15 c5 6c 3f 08 6d 22 be
       -0.128092 0.48609248 0.92488223 -0.15861905
000250 e9 fe 3e be 9e e3 1b 3f 96 23 4f 3f d4 4e 18 3f
       -0.18651928 0.6089419 0.80913675 0.5949528
000260 64 a0 27 3f c5 54 58 3f 87 cd 15 be e9 67 23 3f
       0.6547911 0.8450435 -0.14629184 0.6383043
000270 76 e4 33 3f 27 3f 19 be 9d fb 51 3f 64 38 66 3f
       0.7027048 -0.14965497 0.82024556 0.89929795
000280 9e 32 3c 3f 08 9e 37 3f 7a e6 4e bf c1 2b 0e be
       0.73514736 0.7172551 -0.8082043 -0.13883878
000290 08 8a 12 be b8 55 24 3f d2 64 6f 3f bf a1 1f 3f
       -0.14310467 0.64193296 0.93513215 0.6235618
0002a0 ae 93 12 be 7f 93 17 be 13 1c 3a 3f be 4b 9b 3f
       -0.14314148 -0.14802359 0.7269909 1.213249
0002b0 f9 5a 12 be 5e a8 5c 3e dd db 95 3e 4b ce 23 3f
       -0.14292516 0.21548602 0.29269305 0.63986653
0002c0 6d 82 02 3f cc 69 20 be b2 b9 03 3e 5f b4 32 3f
       0.50980264 -0.15665358 0.12863806 0.69806474
0002d0 da 45 7a 3f 8e 10 20 be fd 42 1f be 9f ea 4d 3f
       0.97762835 -0.15631315 -0.15552898 0.8043613
0002e0 3d f4 29 be c5 96 70 3f 9e da 21 be 3b 82 1d be
       -0.16597076 0.93980056 -0.15806052 -0.1538171
0002f0 0f a5 1e 3f 5f cb 21 be c6 fa 23 be 6d 78 4d 3f
       0.6197061 -0.15800236 -0.16013631 0.8026188
000300 2e d3 14 be 7d 94 9d 3f 60 77 56 3f c0 e6 38 3e
       -0.14533684 1.231094 0.837759 0.18056774
000310 b8 e2 25 be d0 be 49 3f 27 cd 7b 3f 5d 45 3d 3f
       -0.16199768 0.7880678 0.9835991 0.73933965
000320 dc 34 32 be 81 13 1d be 41 42 21 be d9 5f 31 3f
       -0.17402977 -0.15339471 -0.1574793 0.69286877
000330 b8 12 2a be a4 34 1b be 87 75 26 3f 7f 54 19 3f
       -0.16608703 -0.151568 0.6502308 0.59894556
000340 5b f4 46 3f 97 2f 32 3f 24 e5 39 3f 4d 80 37 3f
       0.77716607 0.69603866 0.72615266 0.71680146
000350 da 0a 3b be d6 ae 08 3f 1c 30 2c 3f 21 a5 20 be
       -0.18265858 0.5339178 0.6726091 -0.15687992
000360 67 85 5a 3f 56 c0 14 be 0d be c7 3e 33 8f 2a 3f
       0.85359806 -0.14526495 0.39012185 0.66624755
000370 6d 04 65 3f 9b f5 2b 3f 81 8a 16 be 96 a9 4c 3f
       0.8945988 0.6717164 -0.14701273 0.7994627
000380 3b 20 1e 3f e5 ba 19 3f 4d b2 3b 3f 64 b3 44 3f
       0.6176793 0.60050803 0.7331894 0.7683623
000390 e7 49 66 3f de d0 22 3f cf b9 06 be e3 6a 1f 3f
       0.89956516 0.63599956 -0.13156818 0.6227247
0003a0 0f f4 1c be 86 7a 12 be 8e ae 2b 3f 31 4f 10 3f
       -0.15327476 -0.14304551 0.67063224 0.56370836
0003b0 68 aa 20 3f 5f f9 03 be 31 e6 17 be 53 7f 44 3f
       0.6276002 -0.12888096 -0.14833905 0.7675678
0003c0 c3 53 6a 3f 50 4a 1e be f9 ad 5a 3f 3a 80 f2 bd
       0.9153406 -0.15458035 0.8542171 -0.118408635
0003d0 56 9f 2d be 6b 0a 1a 3f a7 6f 5f 3f 70 24 18 be
       -0.16955313 0.60172147 0.8727974 -0.1485765
0003e0 05 28 3d 3f e1 2d 36 3f dc 5b 36 3f 86 29 a4 3f
       0.7388919 0.71163756 0.71233916 1.2825172
0003f0 42 1b 62 3f 34 93 64 3f 04 c0 20 be 4a 25 05 be
       0.8832284 0.89287114 -0.15698248 -0.13002506
