Saved_Models/TSP_1000/scatgnn_layer_2_hid_128_model_260_temp_3.500.pth (torch, 992099 bytes, 24 tensors)

bn0.weight f4 [2]
000000 00 00 80 3f 00 00 80 3f
       1.0 1.0

bn0.bias f4 [2]
000000 00 00 00 00 00 00 00 00
       0.0 0.0

bn0.running_mean f4 [2]
000000 00 00 00 00 00 00 00 00
       0.0 0.0

bn0.running_var f4 [2]
000000 00 00 80 3f 00 00 80 3f
       1.0 1.0

in_proj.weight f4 [128, 2]
000000 87 24 d2 be fe 5e 44 bf c3 e9 15 3f 15 fb 01 3f
       -0.41043493 -0.76707447 0.5855982 0.50773746
000010 14 a4 2a 3d fe 43 46 bf 12 a1 b9 be f0 ae 92 3d
       0.041660383 -0.774475 -0.362557 0.07162273
000020 46 64 7d 3f 71 f3 32 bf 5f ab ec 3e a9 b2 a3 3e
       0.9898113 -0.6990271 0.46224496 0.31972244
000030 cd ce e0 3c 92 53 8f be 5e 6b 63 bf 7c fc 87 be
       0.02744236 -0.27993447 -0.88835704 -0.26559818
000040 46 0a 59 3f f8 79 54 3f 96 41 b7 be f6 7b 58 3e
       0.847813 0.8299861 -0.35792226 0.21141037
000050 43 d7 0b bf b9 ef c2 be 6b 98 bb be b2 ef f7 be
       -0.5462534 -0.3807352 -0.36639723 -0.4842506
000060 05 16 ef 3e d1 f9 7b 3f 2b 99 60 bf df 96 b7 3c
       0.46696487 0.98428065 -0.87733716 0.022410808
000070 33 bf 66 3f f4 47 ea bd dc 9c 00 3f d5 a5 74 bf
       0.90135497 -0.11439505 0.5023935 -0.9556554
000080 e7 df 3c bf e5 af 0e bf 5f 38 a1 3e 5a 88 81 bf
       -0.7377915 -0.55737144 0.3148832 -1.0119736
000090 6b f6 da 3e c5 f1 39 3f 8a c1 f3 be fe b8 27 3f
       0.42766127 0.72634536 -0.47608596 0.6551665
0000a0 6d 8f 50 be 7b a8 57 bf 24 f5 f7 3e 61 ef a7 39
       -0.20367213 -0.84241456 0.48429215 0.00032031073
0000b0 24 1a 57 3f 9b e1 39 bf 56 e7 86 be 06 c2 ab 3e
       0.8402426 -0.7260987 -0.2634837 0.33546466
0000c0 61 e0 75 3f 37 c7 99 3e 29 f5 a7 bd de 15 2f 3f
       0.960455 0.300348 -0.082010575 0.6839274
0000d0 78 84 11 bf 79 79 63 bf 22 98 db be 5e 5b 9a 3d
       -0.56842756 -0.8885723 -0.42889506 0.07536958
0000e0 7a 17 5f bf 16 95 48 be 7c 4a 41 be d9 10 ab be
       -0.871452 -0.19588122 -0.1887607 -0.3341129
0000f0 11 e0 20 3f 5d 36 64 bf dd 03 2a bf 29 e0 4c bf
       0.628419 -0.8914545 -0.66412145 -0.8002954
000100 15 d4 59 bf 59 e0 19 3f bc 95 40 3f d6 82 5c be
       -0.85089236 0.6010795 0.75228477 -0.21534285
000110 d5 19 bf 3e e5 d4 44 3f d6 ce 06 be 99 fb 02 be
       0.37324396 0.7688735 -0.13164839 -0.1279129
000120 a0 24 f1 bd d3 19 19 bf d1 dc 1c bf e9 8c 2d bf
       -0.11774564 -0.5980503 -0.6127444 -0.67793137
000130 aa 95 ae bd dc c7 44 3f b6 33 3a 3f 8f 6b 60 3e
       -0.0852464 0.7686746 0.72735155 0.2191603
000140 9c 06 83 be 7c 2c cf 3d 48 20 15 bf 45 1b 9d 3d
       -0.2559098 0.101159066 -0.5825238 0.07671217
000150 7b c4 0a 3f 86 b9 6b 3e 1c 73 33 3e 2d 50 61 bf
       0.54206055 0.2301999 0.1752438 -0.88012964
000160 34 9c 7b 3e cc 36 7c 3f 8e 39 1b 3f 92 47 c9 be
       0.24571306 0.98521113 0.60634696 -0.39312416
000170 85 61 e3 3e 5c 92 17 3e 0c 3d 3f 3f 1f 11 47 3f
       0.4441034 0.14801925 0.74702525 0.777605
000180 0a 94 45 3f 11 0a 31 3f 4e 70 5a be bb 7a 75 be
       0.77179015 0.69155985 -0.21331903 -0.23972599
000190 d0 66 59 be 8c 26 0c 3d 11 7b 26 3f fb fd 7b 3f
       -0.21230626 0.03421645 0.65031534 0.9843442
0001a0 c5 51 1b 3f 4b da 02 bf f4 a9 df 3d 48 cb e6 3e
       0.60671645 -0.5111434 0.10921088 0.45076966
0001b0 d8 e5 f8 3e e3 5e 12 3e f0 aa c0 be aa 52 3a 3f
       0.48612857 0.14294009 -0.37630415 0.72782385
0001c0 d2 f4 63 bf 5f c5 42 3f 29 4e 0c bf 85 d9 44 3e
       -0.8904544 0.76082414 -0.5480676 0.19223602
0001d0 4b 92 fd be 68 64 53 3f e2 ec 45 3f ce 97 17 bd
       -0.49525675 0.8257508 0.7731458 -0.037010007
0001e0 05 01 1c 3f 9b ac b7 bd cf bc ed be c6 21 60 3f
       0.60939056 -0.08968469 -0.46433112 0.87551534
0001f0 d6 d0 6c 3f 99 3c 0e be 7d 48 34 3f c2 6a 98 be
       0.9250616 -0.13890304 0.7042311 -0.2976895
000200 9c ce 02 bf 73 88 68 3f bd c7 46 3f cb d2 54 3f
       -0.5109651 0.90833205 0.77648526 0.83134145
000210 2f 33 56 bf d9 90 23 3f f1 32 83 bf 95 47 d8 3e
       -0.8367185 0.63892895 -1.0249921 0.42242113
000220 46 44 21 3f 2b f1 99 be e6 9f 6f 3f 4f ca 39 be
       0.629948 -0.3006681 0.9360336 -0.18143581
000230 b5 f2 26 bf b9 7e 76 bf bc 18 d2 3e 4d f9 5d 3f
       -0.6521409 -0.96287113 0.41034496 0.8670853
000240 e1 15 2b bf 7e bb eb be 47 26 81 bf 9d 5c ee 3d
       -0.6683026 -0.46041483 -1.0089806 0.11638758
000250 a4 64 38 3f 8d d9 50 bf 90 32 ef be 08 b2 29 bf
       0.72028565 -0.81581956 -0.46718264 -0.6628728
000260 8e 6b ac be 0e 25 9a 3f 43 b7 16 bf d3 7d 8e bd
       -0.33675808 1.2042558 -0.58873385 -0.06957593
000270 ff bc b7 be 82 b3 3c bf 21 88 3d 3f 26 55 07 bf
       -0.3588638 -0.7371141 0.7403584 -0.528643
000280 d4 be 81 bf 83 56 d9 3e e7 42 17 3f 31 0a d4 bd
       -1.0136361 0.42448816 0.5908646 -0.10353506
000290 2c 2b 22 3e bd 81 14 bf 54 93 3f bf 7a b3 1b 3e
       0.15836781 -0.58010465 -0.7483418 0.15205184
0002a0 c0 97 2f bf 5e 37 0b be 79 ff c2 be 77 a1 68 3f
       -0.6859093 -0.1359534 -0.38085535 0.90871376
0002b0 3d 27 b0 3e 65 ef 68 3f b3 6d 7d 3f e9 fd 30 3f
       0.34404936 0.9099029 0.9899551 0.69137436
0002c0 09 bb e4 be 25 03 e0 be c6 87 99 3d 9f ca 3e bf
       -0.44673946 -0.437524 0.074966 -0.74527925
0002d0 83 5f 40 3f 62 c0 55 3f 24 4e 61 bf c6 b4 24 3f
       0.7514574 0.8349668 -0.8800986 0.6433834
0002e0 56 78 3c 3d 8f 4d 43 3f 73 4a 2c bf c1 2d c1 be
       0.0460132 0.7629022 -0.673011 -0.3773022
0002f0 03 8b f5 bd b1 d9 d1 bd a7 88 ee bd 13 e7 ae be
       -0.11989405 -0.102465995 -0.11647158 -0.3416067
000300 12 7c 98 bd ba 26 70 bf 4b a0 5f bf ac 7d 48 bc
       -0.074455395 -0.9380909 -0.8735396 -0.012236994
000310 a0 ad 8a bd ae 52 b3 be ce de 2b bf 45 e0 41 3f
       -0.067713976 -0.35024017 -0.6713685 0.75732833
000320 f9 c2 bd 3e 97 44 89 bf 91 20 81 3f 66 bb 54 be
       0.37062815 -1.0724057 1.0088063 -0.20774612
000330 00 aa 3e 3f 41 d1 cb bc b6 ff 73 3e f4 df 02 bf
       0.7447815 -0.024880053 0.23828015 -0.51122975
000340 ea 96 5d 3e 36 55 71 bf 75 1a 38 3f 3f 3e 00 3f
       0.216396 -0.94270647 0.7191537 0.5009498
000350 9d 11 52 3e d0 a3 6f bf 05 fd 34 3f 9a 0f 22 bf
       0.20514531 -0.93609333 0.7069858 -0.63305056
000360 0a 34 90 3d e2 12 77 bf f9 a3 34 bd a3 5b 68 bf
       0.07041176 -0.9651319 -0.04410169 -0.90764827
000370 0d 61 d9 be cd a8 3a bd 48 d6 bb 3e ca c9 80 3f
       -0.42456856 -0.045571137 0.3668692 1.0061581
000380 ab c6 50 bf a3 64 16 bf 0c 50 3a be 91 1d 70 3f
       -0.81553143 -0.5874731 -0.18194598 0.93795115
000390 f1 c9 d6 bd f0 30 20 3f 9b 9a d4 be 95 68 1f 3e
       -0.10487736 0.6257467 -0.41524205 0.15567239
0003a0 88 24 28 bf 4d 57 0d 3f 23 3a 4c 3f e6 27 6f 3e
       -0.6568074 0.55211335 0.7977621 0.23355064
0003b0 13 be 57 3f be 61 58 3e 99 f3 82 3f 8c 26 8d be
       0.84274405 0.21131036 1.023059 -0.2756847
0003c0 f8 ef 8d 3e 27 59 ed be 4d 04 06 be 48 3a 6a 3f
       0.27722144 -0.4635708 -0.13087578 0.9149518
0003d0 d5 00 18 3f ac 63 73 bf d2 e8 82 3f 75 20 ea 3d
       0.5937627 -0.9507396 1.0227301 0.11431972
0003e0 89 c9 74 bf 1a 65 9a be 90 9c 4c bf 82 96 08 bf
       -0.9562002 -0.3015526 -0.79926395 -0.53354657
0003f0 3f 90 26 bd ca 6e 67 3f 57 dc 44 be 99 5f 66 3f
       -0.040664908 0.90403426 -0.19224678 0.8998962

in_proj.bias f4 [128]
000000 4f 04 11 bf af da be be 92 ec b3 be 6f 80 52 3f
       -0.566472 -0.37276217 -0.35141426 0.82227224
000010 ad ff fb be 8f 3f 5b 3e 98 ff 64 3f ed 29 0f 3e
       -0.49218503 0.21410964 0.89452505 0.13980837
000020 bb 7e 5d bf 9d fc 10 3f a6 da 1d 3f b0 a7 4a 3f
       -0.865215 0.5663546 0.61661756 0.7916212
000030 21 e9 0a 3f 68 a9 41 3e 30 40 f9 be e6 46 de be
       0.54261976 0.1891228 -0.48681784 -0.43413466
000040 f3 ce 4c bf 08 3f 41 bf 68 0f 39 3f c9 1f d3 bd
       -0.8000328 -0.75486803 0.72289133 -0.10308797
000050 99 b2 ee bd cb 7e 41 be 5d 35 10 3e b2 b8 1e bf
       -0.116551585 -0.18896024 0.14082856 -0.6200057
000060 24 b1 c2 be 9e 05 3d 3f ac 77 6f bf ff 09 57 3f
       -0.38025773 0.73836696 -0.9354198 0.8399963
000070 51 d4 b7 3d a1 ea 68 3f 1c c1 ee be 7d e6 2f bf
       0.08976043 0.90983015 -0.46631706 -0.6871107
000080 bd 19 ca 3d aa 0c 10 3f 49 17 b9 be 92 e1 40 bf
       0.098681904 0.56269324 -0.36150578 -0.75344193
000090 84 66 6d 3e ce 82 16 be 27 b2 92 3e 34 ce 94 3e
       0.23183638 -0.14698336 0.28651544 0.2906357
0000a0 ee ed 4c bf 09 ab 99 bf 75 18 4c bf f7 06 43 3f
       -0.8005055 -1.2005321 -0.7972482 0.761825
0000b0 18 93 b8 3e 77 4d 0d 3e c1 05 8a bf 25 68 ec 3e
       0.36049724 0.13799082 -1.0783006 0.46173206
0000c0 ec 24 65 3d 9c 71 49 bf 78 1e 2e 3f bc 5c 0b bf
       0.055943415 -0.7868898 0.6801524 -0.54438376
0000d0 74 b5 1d bf 09 52 2b 3f 42 13 6b 3e 19 87 b3 3c
       -0.61605 0.6692205 0.22956565 0.021915006
0000e0 b9 b3 28 bf 7c 00 59 bf f1 f9 3e 3f d1 89 8a 3e
       -0.65899235 -0.84766364 0.7460013 0.2705827
0000f0 10 ef 7d 3e 0f 2e f5 be 35 e4 20 3f 52 09 31 3f
       0.24798226 -0.47886702 0.62848216 0.69154847
000100 09 18 13 be c2 8b f4 3e 14 41 91 3a 63 58 7d 3e
       -0.14364637 0.47762877 0.0011082017 0.24740748
000110 ff f8 26 3f 30 a0 14 3f c6 cf 7b 3e 5c 80 a5 3e
       0.6522369 0.58056927 0.24590978 0.32324493
000120 0c e3 65 3f 79 ef d2 3b 27 d1 e3 be a2 77 6a 3f
       0.8979957 0.006437239 -0.44495508 0.91588795
000130 8e 3c d4 3b 6a f8 a6 bf 14 e3 1a bd f4 96 aa 3e
       0.0064769452 -1.304456 -0.037814215 0.33318293
000140 a2 95 4f 3e 48 6c 48 3f 52 45 82 be 53 44 80 3d
       0.20271924 0.78290224 -0.25443512 0.06263032
000150 9d cb 59 bf 9a 7a 44 bf c8 d5 c9 be 99 4f 55 bf
       -0.85076314 -0.76749575 -0.39420915 -0.8332458
000160 1d af 49 3f fa 60 e4 be 7f ea aa be 9a a9 83 3d
       0.78782827 -0.44605237 -0.3338203 0.06428833
000170 16 f8 7a 3e 10 ae eb bd 09 3f 08 3f a0 29 35 3f
       0.245087 -0.11507809 0.53221184 0.7076664
000180 ba eb 00 3e 26 51 69 3e 2a 43 24 bf 09 dc 3f 3e
       0.12589923 0.22784862 -0.64164984 0.1873628
000190 a3 65 a4 3d b2 20 f3 be d2 49 85 3e dc 4b 3d bf
       0.08027198 -0.47485882 0.26032883 -0.7394388
0001a0 e2 cc 32 3f d8 d5 b0 3e fa 71 1c 3f df b7 bf 3e
       0.69843876 0.3453815 0.61111414 0.3744497
0001b0 c5 b6 02 bf e3 e1 ef bb 2f b2 d3 bd 3b cd 70 3e
       -0.51060134 -0.007320629 -0.1033672 0.23515789
0001c0 a6 ea 61 3b 0f ac 41 bf d1 a7 f9 be 40 c5 50 bf
       0.0034472137 -0.75653166 -0.48760846 -0.8155098
0001d0 9b e1 3a 3f 36 8d a3 3e 62 eb d8 3e 94 cd b1 3d
       0.73000497 0.31943673 0.42367083 0.08681789
0001e0 cd ce c7 be 22 ec c9 3e 9f 7b 77 3e c8 4c bb 3e
       -0.39024964 0.39437968 0.24168251 0.36582017
0001f0 ec 4b 44 3e e1 04 05 be 8d e9 3a 3f e3 bd b5 3e
       0.19169587 -0.12990142 0.7301262 0.35496435

convs.0.a f4 [256, 1]
000000 35 21 d0 3c 9c 88 60 3d 32 ed 18 bd 83 e8 44 3b
       0.02540646 0.05481778 -0.037335582 0.0030045814
000010 b7 76 0f 3c e9 66 3f 39 6c ea 8b 3d 7f c9 92 bd
       0.008756331 0.00018253516 0.06831822 -0.071673386
000020 cd dd 10 3d 5d ee e8 bb ce c2 e7 bd fe 07 b4 3d
       0.035367776 -0.0071084932 -0.11316453 0.08790587
000030 51 c5 e3 3d 47 22 b0 3d 64 3d 70 bd c2 48 16 bc
       0.111216195 0.08600288 -0.058652297 -0.00917262
000040 aa d4 23 3d e4 0d 56 bd 83 ea 3d 3e 49 0e 06 3d
       0.039997734 -0.05225934 0.1854649 0.032728467
000050 1e a8 a8 3d 7f 1b 87 3c b2 1d 82 bd dd 78 f0 3c
       0.08235191 0.016492603 -0.0635332 0.029354507
000060 49 2d 81 39 d5 94 a1 3d b5 fc 88 3d a5 9e a6 bc
       0.00024638537 0.078897156 0.06688825 -0.02033932
000070 79 cd 4b bc 7b e3 8a bd a4 e4 a6 3c 59 9e d5 ba
       -0.012439125 -0.0678167 0.020372696 -0.0016297802
000080 55 0a 0c bd 9e b3 c0 bc e7 cc 77 3d 00 00 00 00
       -0.03418954 -0.023523148 0.060498144 0.0
000090 32 c1 c8 3d c8 88 0e 3d 02 93 94 3a bb 2c 02 3e
       0.09802474 0.034798414 0.0011335316 0.12712376
0000a0 00 00 00 00 e5 6b d9 bb d4 37 65 3c 36 81 16 be
       0.0 -0.0066351765 0.013990361 -0.14697728
0000b0 35 e8 07 3e 9e 5d 78 bb 6b d2 a4 3b 99 d1 ae 3c
       0.13272174 -0.0037897597 0.0050299666 0.021340178
0000c0 32 ac 90 3d e2 64 1a 3a c0 3b 32 3a d5 1c 42 3d
       0.07064094 0.00058896665 0.00067990646 0.047390778
0000d0 86 92 32 bc 8b c1 d5 3c 36 ec 9e bd 0a c7 99 3d
       -0.010899192 0.026093265 -0.077598974 0.07508667
0000e0 0f 24 62 3d 70 c1 e7 3c 8c 74 f9 3d 2d b2 b1 3d
       0.05521017 0.02829048 0.12180433 0.086765625
0000f0 18 37 dd 3c e9 f6 0f 3d 9f 11 8f bd 1e 4f 8c bc
       0.02700381 0.03514758 -0.06985783 -0.01712757
000100 21 74 26 3d 35 40 0b 3e 34 8b f2 bd 40 a8 76 be
       0.040638093 0.13598712 -0.11842957 -0.2408762
000110 19 12 09 3e 24 4e 11 bd 43 df 3a bd b4 1b c8 3d
       0.1338581 -0.03547491 -0.045623075 0.09770909
000120 18 45 6d bd fe 72 05 3d fe 32 43 bd 60 75 87 3b
       -0.05792722 0.03258037 -0.04765605 0.0041338652
000130 56 87 c1 3a 8d 81 d8 3c fe df 75 bd e3 05 8e 3c
       0.0014765065 0.026428962 -0.06002807 0.017336791
000140 79 f2 20 3e df 59 7a bb b3 57 f4 bc 0b a0 99 bc
       0.15717496 -0.003820054 -0.029826974 -0.018753072
000150 c1 05 8c 3b e1 4f 71 3c a9 76 8f 3d ba ef f5 3c
       0.004273147 0.014728517 0.070050545 0.030021537
000160 da 59 52 be 59 5e da 3c de ae d2 3d c3 55 d1 bd
       -0.20542088 0.026656317 0.102872595 -0.10221436
000170 1f 27 51 3d 27 fb 9d 3d 2c c5 be bd 3b 2b 84 bd
       0.0510627 0.07713919 -0.09314951 -0.06453558
000180 59 80 0b bd bd 24 f4 3d 92 9a b0 3b 70 d3 84 3d
       -0.03405795 0.1192107 0.00538952 0.06485641
000190 10 49 16 be ae a5 24 bd 6c bc a2 bd 72 de a5 3c
       -0.14676309 -0.040197067 -0.07946095 0.020247672
0001a0 13 d3 e0 3c 76 88 eb 3d 1c 7f b4 3d 00 79 8e 3d
       0.027444398 0.11500637 0.08813307 0.06956673
0001b0 98 e3 95 3d 3a 50 8e bd 10 86 94 bc 9e ee 31 3e
       0.07318801 -0.06948896 -0.018130332 0.17376181
0001c0 41 75 17 be ae ce d1 3d 1c 30 26 3d 3c 26 c4 bb
       -0.14790823 0.10244499 0.040573224 -0.005986003
0001d0 b1 6d f7 3d 23 9b da 3d 8c c4 cb 3c 54 f1 fb bc
       0.12081469 0.10674121 0.024873994 -0.030754723
0001e0 8e 84 e6 b9 66 5b 4a 3e c0 92 65 bc 46 d8 64 b9
       -0.0004396778 0.19761428 -0.014012039 -0.00021824343
0001f0 ec b4 88 3d d1 7f 00 3d 9b f1 b6 3c 50 e2 ba 3d
       0.06675133 0.031371895 0.022332003 0.09125197
000200 73 a4 21 be 55 9e 1d be c4 d3 49 be d0 fb 3c 3e
       -0.15785389 -0.1539243 -0.19709688 0.18455434
000210 1d 49 79 be e7 dc 8d 3c 21 cd 2a 3e 56 d2 83 3e
       -0.24344297 0.017317249 0.16679813 0.2574641
000220 7c de 05 be 89 82 0d 3e 91 89 30 3e 4d 22 36 3e
       -0.13073152 0.13819326 0.17239977 0.17786522
000230 cb 58 a9 3d e8 1c 29 3e 22 87 62 be 6b 84 1c be
       0.08268889 0.16514933 -0.22121862 -0.15284888
000240 e7 ef ae bd 66 70 81 be 93 8e 36 3e e3 f0 1e 3e
       -0.085418515 -0.25281066 0.17827825 0.15521578
000250 f2 3c 62 3e ec 60 40 be 34 4e 56 3e 04 8a 34 be
       0.22093561 -0.18786973 0.2092827 -0.17630774
000260 fb d7 7d be 2d 9d 0a 3e 6b 05 28 be 35 40 25 3e
       -0.24789421 0.1353652 -0.16408317 0.16137774
000270 03 61 84 3e 2c 1e 3d 3e c6 0a 29 be a4 c7 af bd
       0.25855264 0.18468541 -0.16508016 -0.08583
000280 ff e5 98 3e 63 3c ab 3d 54 76 0d be 63 be 7f be
       0.29862973 0.08361127 -0.1381467 -0.2497497
000290 87 20 82 bd a7 04 fd 3d 46 d8 05 3d 4d b9 5a 3b
       -0.0635386 0.12354403 0.032676958 0.0033374608
0002a0 d2 f0 57 bd 60 74 b1 bd 50 c2 61 be aa 7e 0a 3e
       -0.0527199 -0.08664775 -0.2204678 0.13524881
0002b0 bd 57 79 bb 41 18 36 3e 22 e0 83 be b6 f0 b5 3d
       -0.003804668 0.1778269 -0.25756937 0.088838026
0002c0 ef 2d 47 3e 48 c4 d6 bd 64 ca 3e 3e 9c 11 00 be
       0.19451116 -0.104866564 0.18631893 -0.12506717
0002d0 34 64 4e be a1 7a 47 3e 58 4b 11 3d fe b1 bc 3e
       -0.20155412 0.19480373 0.035472244 0.36854547
0002e0 e8 2a 2d be c4 2f 08 be 1d a2 fc 3d 16 64 cb 3c
       -0.16910899 -0.13299471 0.12335608 0.024827998
0002f0 be 48 07 3c 68 75 24 be d8 14 0c 3e 95 a9 14 3e
       0.008257089 -0.16060412 0.13679826 0.14517815
000300 13 d7 3c 3e 1f f5 8a 3d 60 d6 97 3e cd 10 c4 3d
       0.1844142 0.067850344 0.29655743 0.09573517
000310 2a d1 20 3e 26 18 a9 3d 5c d7 e2 3d af 2f 7c bd
       0.1570479 0.08256559 0.11076233 -0.061568912
000320 ac 68 30 3e 7d b2 f9 3e 9b 84 63 be a2 82 3a 3e
       0.17227429 0.48768988 -0.22218554 0.18213895
000330 83 8e fb 3e 90 fd 44 bd 3c 46 65 3e 96 05 b4 bc
       0.49132165 -0.04809338 0.22390074 -0.02197532
000340 8a e1 bc 3d 22 2a 66 3e e5 35 88 be ee 7c 9d 3e
       0.09222706 0.2247701 -0.26603618 0.30759376
000350 95 0b f4 bd fb ff 27 be 99 0c 11 be 10 f2 2a be
       -0.119162716 -0.16406243 -0.14164962 -0.16693902
000360 d2 ab 2a 3e 97 b5 46 be fd 02 1b bd 04 67 87 3e
       0.16667107 -0.19405209 -0.037844647 0.26445782
000370 26 45 04 be 34 57 06 3e 30 dc 5e 3e 9c 36 22 3e
       -0.12917003 0.13119203 0.21763682 0.15841144
000380 e5 fa 98 3e d0 b5 51 3e dc 20 0d be 08 df 95 3e
       0.29878917 0.20479512 -0.13782066 0.29271722
000390 e3 84 c2 3e 1e cb 5c be b6 d8 84 3a 63 33 12 be
       0.3799201 -0.21561858 0.0010135386 -0.14277415
0003a0 8e fc e6 3d 3d ad dd 3c 9f 06 9e 3d 26 d3 90 bc
       0.1127864 0.027060146 0.077161066 -0.017678808
0003b0 15 ff 54 be 86 7f fe 3e 1d 8a bd 3e 6e 4e 41 3e
       -0.20800431 0.49706668 0.37019435 0.18877575
0003c0 70 91 bd 3e a2 2e 26 be 16 26 3e be 88 2b 15 be
       0.37025023 -0.16228727 -0.18569216 -0.14567387
0003d0 a1 dc 05 3e 74 a8 2c 3d b4 c4 bb 3d 2e 0c 6e 3e
       0.13072444 0.042152837 0.091683775 0.23246834
0003e0 31 e1 6a be fe 11 0f 3d cd c3 4d 3e 62 44 cf 3c
       -0.22937466 0.034929268 0.20094223 0.025301162
0003f0 da 16 42 3e aa a9 7d 3e c5 a1 fa 3d 59 ef f7 3c
       0.1895403 0.24771753 0.12237886 0.030265497

convs.0.linear1.weight f4 [128, 128]
000000 66 2e 40 be 31 70 37 3d ae bf 8d bd c0 83 08 3d
       -0.187677 0.04478473 -0.069213256 0.03332877
000010 12 1b 7a 3d 50 27 b4 3d e4 dc 0b 3e 9b bf 8a bc
       0.061060973 0.08796561 0.13658482 -0.016937068
000020 cb 84 3e 3c 31 0e 91 3d 9e 50 49 3c e3 ff 8a 3d
       0.01162834 0.07082785 0.012287287 0.06787088
000030 c9 ab 3c 3c 67 7a 9e bd 72 a0 12 3d a8 47 11 bd
       0.011515566 -0.0773819 0.035797544 -0.035468727
000040 05 05 12 be 00 e1 00 3d a5 d7 d2 bb 40 32 ae 3d
       -0.14259727 0.031464577 -0.0064343982 0.08505678
000050 e6 37 f0 3d c0 9d 1f be f5 fe 4b 3b 6e 0b 50 be
       0.11729412 -0.1558752 0.0031127308 -0.2031686
000060 75 75 cf 3b 82 89 bf 3b a8 7c 16 be 98 d9 a8 3d
       0.0063311406 0.0058452496 -0.1469599 0.08244628
000070 e4 c9 0f bd 0f cd a3 3d ba c3 70 bc e5 fe 04 be
       -0.035104647 0.07998096 -0.014695102 -0.1298786
000080 be 54 0e 3c b6 3a 49 bd 2d e3 05 be 51 b8 fe be
       0.008687196 -0.049128257 -0.13074942 -0.49749997
000090 23 7a f1 3c 95 12 d4 3d 62 92 9f bd d9 59 5c bd
       0.029477185 0.10355107 -0.07791592 -0.053796623
0000a0 6e 1d 12 bf 4f fa ac be da 75 29 3e 51 62 b7 3d
       -0.57076156 -0.3378472 0.16548863 0.08954299
0000b0 15 a0 eb bc 5f 8a 04 bd eb 0a c2 3e 95 30 5d 3d
       -0.028762856 -0.032358523 0.37898955 0.05400141
0000c0 b6 47 f5 bc 6a 21 ae be 1f ec 19 3d 41 f5 ed 3c
       -0.029941421 -0.34009868 0.0375787 0.02904761
0000d0 9f 15 02 3e c9 cb 88 3d d0 f4 1c be 91 f3 62 3e
       0.1270356 0.06679494 -0.15327764 0.22163226
0000e0 32 cb c5 bc 27 a2 26 be 64 50 f0 3d 8d cf 9b 3d
       -0.024144743 -0.16272794 0.11734083 0.076079465
0000f0 b1 72 30 be 3e a8 0b be d0 d0 8d bc fa 5f 7e bd
       -0.17231251 -0.13638398 -0.017311484 -0.06210325
000100 98 c6 17 3d a8 69 27 3e ca 9d c9 3d 06 35 e4 3c
       0.037054628 0.16348898 0.09844549 0.027857315
000110 1e e9 f6 3c 5a b7 e3 bb 91 71 04 3e 1d a6 0c 3e
       0.030140456 -0.0069493474 0.12933947 0.13735242
000120 31 9a af 3d 03 de 99 3d 09 46 ab 3d b7 f9 e8 3c
       0.085743316 0.075130485 0.083629675 0.028439386
000130 87 f3 70 3d f9 82 a1 be 31 fa 05 3e c7 d5 b3 3d
       0.058825996 -0.31545237 0.13083722 0.08781009
000140 e8 cb e9 3d e4 ce 58 3d 04 ba 3a bd 47 f5 b6 bd
       0.11415845 0.05293168 -0.045587555 -0.08933502
000150 36 3e a0 be 5a d7 1c bd 7b 07 49 3c 27 ca f2 3d
       -0.31297463 -0.038291313 0.01226985 0.11854964
000160 46 2c 27 3e f4 f7 7f bd a2 6f 74 3d 5b 52 26 bd
       0.16325483 -0.062492326 0.059676774 -0.040605884
000170 36 0e 24 3d 55 5f a4 3a e5 33 0f 3e 7e 3a 51 3d
       0.040052615 0.0012540618 0.1398464 0.051081173
000180 b4 fc 58 3d ad e3 1c bd 1e 3c 5d be b9 65 d2 3d
       0.05297537 -0.038303066 -0.21604964 0.10273308
000190 86 4f 54 3e 0e f1 c8 bc 6e 32 ec 3c 0f 0f 34 bd
       0.20733461 -0.024529006 0.02883264 -0.043959673
0001a0 8c b2 a4 3d ba c6 8f bd e9 31 03 3d f2 40 12 bc
       0.080418676 -0.07020326 0.03203002 -0.008926617
0001b0 a2 4f 06 bd c5 4b 45 3d 48 e8 3b be 71 0f 13 3d
       -0.032790788 0.048167963 -0.18350327 0.035903398
0001c0 74 01 a5 3c f1 56 18 be e6 0e fe bc 4e 79 92 be
       0.020142294 -0.14876916 -0.031012964 -0.28608173
0001d0 6b 46 c5 3c 7d 9c ed 3d d4 b1 0b bc 4e 86 de 3d
       0.02408143 0.116021134 -0.008526284 0.1086546
0001e0 fe 54 bc 3d e0 38 97 bc 43 d4 e4 3b 44 ca 2f bd
       0.091958985 -0.018459737 0.0069833114 -0.042917505
0001f0 ab 1c 9c 3d e2 a8 ed ba 06 ad 30 bd 02 ec 13 bd
       0.076226555 -0.0018131996 -0.043133758 -0.036113746
000200 4c 29 32 be c4 ba c4 bd 45 85 bb bd 15 1d 82 bc
       -0.17398566 -0.09605935 -0.091562785 -0.015883008
000210 0c 9e 04 3d 63 2c a5 bd c4 01 10 3e 21 c3 08 3d
       0.032377288 -0.08065107 0.14063174 0.033389214
000220 96 3d 93 3d 5c 4d 10 3d c1 42 f1 3c a2 7f 92 3d
       0.07189481 0.035230026 0.029450776 0.0715325
000230 43 e3 ef bb b9 b1 0a bd 69 97 58 bc e9 5e 9c 3d
       -0.007320793 -0.033860896 -0.013219693 0.0763529
000240 9c 76 8d be b4 2b 23 3d 20 89 b8 3d 15 e0 f7 3d
       -0.27629554 0.0398366 0.090105295 0.12103287
000250 df bc 29 3b 30 a0 36 be 62 bc 8f bc c6 43 48 bd
       0.002589993 -0.17834544 -0.017545883 -0.04889276
000260 58 4a 88 bd 40 05 28 bc 5a d2 4a bd 8f 39 8d bc
       -0.06654805 -0.010255158 -0.049517013 -0.01723936
000270 a6 31 93 bd 3f 05 a4 3d fc 61 a4 3b ba 8b 41 be
       -0.07187204 0.08008813 0.0050165635 -0.18900958
000280 18 22 2e bd 7c 35 a4 bd fc 04 a7 3c c9 6e e2 be
       -0.042512983 -0.08018014 0.020388119 -0.44225147
000290 a7 ad f5 3c 2b 6d 51 bd a0 65 bc bc 33 42 49 be
       0.02999003 -0.0511295 -0.022997677 -0.19654159
0002a0 37 de f1 be 97 d3 bf be c7 4f 0e 3e bf ec a3 bd
       -0.4723985 -0.37466118 0.1389762 -0.0800414
0002b0 1b 23 92 3b 2e 28 f1 bd 9b 9c 63 3e 4d 2a 5d bd
       0.0044597513 -0.11775242 0.22227709 -0.05399542
0002c0 dc 3b 8d bd 3c f0 cd be 46 69 87 bd 15 1b 62 3d
       -0.06896183 -0.40222347 -0.06611876 0.05520161
0002d0 53 f7 7d 3d 8b fc cd 3d 25 f4 0d be 94 da a1 3d
       0.062003445 0.100579344 -0.13862665 0.079030186
0002e0 2d 48 ac bd cc 30 ed bd 4f f4 77 3b 88 fc 2c be
       -0.08412204 -0.11581573 0.0037834828 -0.16893208
0002f0 75 be 13 be a1 69 8e bd e6 64 5e bd db ed 1f 3d
       -0.14428122 -0.06953741 -0.054295443 0.039045196
000300 23 69 f3 3d 12 3f 89 3d ba 71 a0 3d 06 1a 9e 3d
       0.118852876 0.06701483 0.078341916 0.07719807
000310 76 c8 1c bd 9b b5 0b 3d f7 6c 18 bd 66 2c dd 3c
       -0.038277112 0.03410874 -0.037213292 0.02699871
000320 f8 99 07 3e 59 af ff bd f8 b2 70 3d 79 a1 45 3d
       0.13242328 -0.12484617 0.058764428 0.048249695
000330 6c 5f 00 bc 4d 8c be be 70 a3 22 3c 67 34 f7 bd
       -0.00783525 -0.37216416 0.009926662 -0.12070542
000340 07 63 66 bd 5c 87 5e bd c6 62 9a bd c5 cf 74 3d
       -0.056246784 -0.054328308 -0.07538371 0.059768457
000350 4b 59 71 be 09 14 dc bd 76 58 c8 bd 2e 2a 07 3d
       -0.23569219 -0.10746009 -0.097824976 0.03299921
000360 5b d8 cd 3d 32 39 16 be e9 33 c3 3d 49 2b 4d 38
       0.10051032 -0.14670256 0.095313855 4.891612e-05
000370 b6 a3 f1 bd 69 4e e6 bd 5e b8 1f 3d a0 b4 e4 3c
       -0.117988035 -0.11245424 0.038994186 0.02791816
000380 8d bd a8 3b f2 1f 27 3d bf 93 84 be 3c b7 fe 3c
       0.0051495493 0.04080195 -0.2589397 0.031093232
000390 39 a0 87 bc 31 20 dd bc a3 94 79 bd 36 0e b4 bd
       -0.016555892 -0.02699289 -0.060932767 -0.08791773
0003a0 a9 b6 b3 bc 95 3a eb bd 77 86 6a 3c fe 03 c4 3b
       -0.021937685 -0.11485783 0.0143142855 0.005981921
0003b0 36 ef 6e bd 04 01 18 3d b7 36 44 be 8a c7 55 bd
       -0.058333598 0.037110344 -0.19161497 -0.05219225
0003c0 c2 9b ba 3c 29 c7 a0 bd 84 51 35 be 31 6b 2e be
       0.02277935 -0.07850487 -0.17706877 -0.17033078
0003d0 a5 df 69 3d 02 2e 98 bd 2d 2b 11 be 86 f1 02 bc
       0.05709805 -0.0743065 -0.14176627 -0.007992154
0003e0 b1 6a 10 3d 8d 29 bb bd 10 a5 56 ba 9a c6 a5 bd
       0.035258 -0.091387846 -0.00081880484 -0.08094521
0003f0 c7 b3 cc bc d9 97 9a bd 46 4e c5 3c 58 ff 98 bd
       -0.024988068 -0.07548494 0.024085175 -0.07470578

convs.0.linear1.bias f4 [128]
000000 eb 91 b3 be a7 2f 85 be 9e 10 26 be 82 04 97 3d
       -0.35072264 -0.26012918 -0.16217276 0.07373907
000010 86 8e cf 3c 93 4b 88 be 59 b4 75 be 7a 50 b4 3e
       0.025336515 -0.2662016 -0.23994578 0.3521765
000020 c3 3b b0 3e 63 55 9b 3e d0 bf 7c be c4 24 cb 3e
       0.34420595 0.30338582 -0.24682546 0.39676487
000030 01 e6 ba 3e 84 84 c1 3e 13 97 c9 3e c6 f4 a1 be
       0.36503604 0.37796414 0.39373073 -0.3163206
000040 f5 57 a1 3e f6 71 95 be ee 47 33 be 53 73 95 be
       0.31512418 -0.29188508 -0.17507908 -0.29189548
000050 7b 01 cd be 28 4c b4 3e c6 17 a0 3e ec e5 c0 3e
       -0.40040192 0.35214353 0.31268138 0.37675416
000060 61 8c 96 3e 82 83 b6 be 89 e0 21 be 10 0e 96 be
       0.29403976 -0.35647207 -0.1580831 -0.29307604
000070 8d af 06 3e 79 17 44 be 6b ee de 3e af 93 5b be
       0.13152905 -0.19149579 0.43541273 -0.21443056
000080 c9 78 99 be 0a b5 99 be 10 a0 9a be a4 41 8a be
       -0.29974964 -0.30020934 -0.30200243 -0.27003205
000090 dd b4 cc 3e 6e 1c c0 3e e7 00 9e be 3c 93 b0 3e
       0.39981738 0.3752169 -0.30860063 0.3448733
0000a0 a2 f0 89 be df 03 9b 3e a7 af 4f 3e f4 f8 a0 3e
       -0.269414 0.3027639 0.2028185 0.31439936
0000b0 a7 bc 41 3e 36 58 b2 be b1 07 ab 3e 54 e9 81 be
       0.18919621 -0.34832925 0.33404306 -0.25373328
0000c0 b8 39 3b be 7b 1e b8 be c1 ec bb 3e 5e 2b b4 3e
       -0.18283737 -0.35960755 0.36704066 0.35189337
0000d0 63 b0 98 be 5b fe ab be 8c 11 a7 3e ce 74 c8 3e
       -0.29822072 -0.33592495 0.32630575 0.39151615
0000e0 ff 65 a4 be c5 3f 97 be d0 54 9e be 50 39 99 3e
       -0.32109067 -0.2954084 -0.30924082 0.29926538
0000f0 59 44 c3 3e f9 3b bd 3e 84 7c a4 3e 8a 93 51 3e
       0.38138083 0.36959818 0.32126248 0.20466438
000100 b4 68 99 3e a3 74 92 3e 9f ee a9 3e 48 20 96 be
       0.29962695 0.28604612 0.33189866 -0.29321504
000110 40 22 9d 3e e3 62 b9 3e 30 b9 9e be f6 1b 36 3e
       0.30690193 0.36208257 -0.31000662 0.17784104
000120 2a 93 b8 be 3c 53 b4 be ee 7e a1 3e 7f 47 90 be
       -0.36049777 -0.35219753 0.31542152 -0.28179547
000130 22 8e c8 3e 6d 56 86 be ea 1a c6 be 7b ed be 3e
       0.3917094 -0.26237813 -0.3869241 0.37290558
000140 84 7d b0 3e a0 23 ba 3e 8d 58 cc 3e 8c da 91 3e
       0.3447076 0.36355305 0.3991131 0.2848705
000150 a7 9c 7b be 02 c3 9e 3e 5e ea a2 3e a2 ad c7 3e
       -0.24571477 0.31008154 0.31819433 0.3899966
000160 bf a6 aa be ed 0c b0 3e f7 fb b4 3e c4 d8 9d be
       -0.33330342 0.34384862 0.35348484 -0.30829442
000170 a9 3b 54 3e a9 b1 a3 be 3e 49 30 3e b2 f1 c5 3e
       0.20725884 -0.3197148 0.1721544 0.3866096
000180 c1 5f 9c be 49 b7 b1 be 65 dd b3 be 7d 1b 9b be
       -0.30541804 -0.34710148 -0.35129848 -0.3029441
000190 20 41 ab be d9 22 ba 3e 98 61 ae 3e 45 a1 96 be
       -0.33448124 0.36354712 0.34058833 -0.29419914
0001a0 95 76 4f 3e a1 94 a2 be a3 e3 64 be a7 51 b2 3e
       0.20260079 -0.3175402 -0.22352462 0.3482792
0001b0 db f8 68 be c0 32 9c be 1a a6 c9 be 42 00 bb 3e
       -0.22751181 -0.3050747 -0.39384538 0.36523634
0001c0 90 6b 46 3e 56 84 90 3e b7 3e 41 be 46 d0 aa be
       0.1937697 0.28225964 -0.1887158 -0.33362025
0001d0 ac fd 9b 3e c2 18 c4 3e 77 14 94 be 46 6a b8 3e
       0.30466974 0.3830014 -0.28921863 0.3601858
0001e0 a3 13 8e be d9 19 b0 3e 5e bf 30 be b0 e3 c2 3e
       -0.27749357 0.3439472 -0.17260501 0.38064337
0001f0 a4 ee b4 3e 69 86 a5 be 63 c6 b3 be 02 ac a1 be
       0.35338318 -0.3232911 -0.35112295 -0.31576544

convs.0.linear2.weight f4 [128, 128]
000000 6d da 94 be 3a 40 0e 3c 25 bf a0 3d 6a 93 7b 3d
       -0.29072896 0.008682305 0.07848958 0.061419882
000010 65 9e fd 3d 86 03 02 be 3c fb 06 be 33 68 7e 3e
       0.12383727 -0.12696657 -0.13181776 0.24844436
000020 10 dd 88 3e c8 65 1b 3e b6 23 08 be 02 9c 83 3e
       0.26731157 0.15175545 -0.13294873 0.25704962
000030 50 0f 94 3e 21 7b aa 3e 46 49 ce 3e d4 15 b1 bd
       0.28917933 0.33297065 0.40290278 -0.086467415
000040 1e ff 8c 3e 5f 66 8e bd e3 57 19 3d c4 0d 2d be
       0.2753839 -0.069531195 0.03743733 -0.16899782
000050 7e 60 81 be c1 84 92 3e 48 0b 0f 3e 74 66 c8 3e
       -0.2526893 0.28616908 0.13969147 0.39140666
000060 0a 4e 67 3e 7a db 8d be 5e b1 1d be de de 4e be
       0.22588363 -0.2770651 -0.15399691 -0.20202205
000070 c7 9a 19 3c ed 62 c2 be 89 16 e9 3e 1e a9 d0 be
       0.009375281 -0.379661 0.45525005 -0.40754026
000080 a6 b8 b4 bd 96 84 56 be 39 d8 40 be 00 fe 3f be
       -0.088242814 -0.20949015 -0.18832482 -0.18749237
000090 be 4f fb 3e 4a a6 96 3e 3d a6 c8 bd 0a 3a 3d 3e
       0.49084276 0.29423743 -0.097973324 0.18479171
0000a0 a8 20 d2 bd fc 7a 92 3e 29 d5 a2 3e 71 da 4a 3e
       -0.10260135 0.28609455 0.31803253 0.19809891
0000b0 e0 6a bb 3e 81 98 01 be 3d b5 67 3e 37 75 29 be
       0.36604977 -0.12655832 0.2262773 -0.1654862
0000c0 1a 5f 41 be de 9d 92 be 0c 8b b0 3e 0a 91 ad 3e
       -0.18883935 -0.28636068 0.34481084 0.3389972
0000d0 6a 48 0e be ac 2e 80 be 04 20 7b 3e b5 bb b8 3e
       -0.13894811 -0.25035608 0.24523932 0.3608071
0000e0 ab 54 8a be 56 57 26 be 3b 3a 94 bd dd e3 71 3e
       -0.27017722 -0.16244254 -0.07237669 0.23622079
0000f0 7a f3 70 3e 00 26 cb 3e 01 ea ef 3e ea 8b ad 3e
       0.23530379 0.3967743 0.46858218 0.33895808
000100 8c 77 42 3e 04 ec 09 3e 80 3c 7b 3e 6d c2 87 be
       0.18990916 0.13468939 0.24534798 -0.26515523
000110 7c 64 81 3e ad f9 c5 3e 44 d4 80 be e6 ab a1 3e
       0.25271976 0.3866705 -0.25161946 0.3157646
000120 fe fb 61 be 93 53 6b be af e0 30 3e ce 10 98 be
       -0.22068784 -0.229811 0.1727321 -0.2970032
000130 9b b3 ca 3e 3c 87 80 bc e6 6e 3a be 44 5d ad 3e
       0.39590153 -0.015689485 -0.18206367 0.3386022
000140 10 29 28 3e ac ca 92 3e 8e 4a af 3e 43 af cb 3d
       0.16421914 0.2867025 0.34236568 0.09945538
000150 50 95 f6 bd e1 3c 6a 3e eb 09 87 3e 85 bf 9c 3e
       -0.12040198 0.22874786 0.26374754 0.30614868
000160 65 e2 b0 be 46 8e 2e 3e ab 1a 00 3f 2e 20 19 be
       -0.34547725 0.1704646 0.5004069 -0.14953682
000170 5e ba 37 3e 50 f2 87 be cd 1b 5a 3e e8 a7 9c 3e
       0.17942187 -0.26552057 0.21299668 0.30596852
000180 5d a5 3b be 8b b1 47 be f8 1d 27 be 95 de 20 be
       -0.183248 -0.19501321 -0.16320026 -0.15709908
000190 4e 27 31 be 9b c9 8c 3e 64 e8 56 3e 56 7a 28 be
       -0.1730015 0.27497563 0.20987087 -0.16452917
0001a0 cb 6e a9 3e c5 c9 99 be 1f f6 90 bd 66 d7 ab 3e
       0.3309234 -0.3003675 -0.07078194 0.33562773
0001b0 62 20 42 bd 98 80 2e be 1f 00 86 be 41 0b c7 3e
       -0.047394164 -0.17041242 -0.26171967 0.38875774
0001c0 22 a0 ad 3e 2f 96 30 3e 80 7b b7 bd 40 09 6c be
       0.33911234 0.1724479 -0.08959103 -0.23050404
0001d0 75 0a 10 3e 54 6e 0d 3e 01 01 4f be 70 c7 4b 3e
       0.14066489 0.13811618 -0.20215227 0.19900298
0001e0 cb c3 cb bd 85 d2 a9 3e 50 35 c0 be a8 95 c5 3e
       -0.09949454 0.33168426 -0.37540674 0.3859074
0001f0 34 b7 63 3e f5 e9 80 be 7e 7c 3b be 39 74 14 be
       0.22237855 -0.25178495 -0.18309209 -0.1449746
000200 22 7f 4e be 98 75 01 be ce 48 c3 3d 18 50 d3 bc
       -0.20165685 -0.12642515 0.09535371 -0.025795028
000210 21 0a 2f 3e a7 4b 6f be a6 0b 54 bc e6 42 72 3e
       0.17093708 -0.23368703 -0.01294223 0.23658332
000220 ab 99 7c 3e af 17 23 3e 1e 84 2d be 19 ea 80 3e
       0.24667995 0.15927003 -0.1694493 0.25178602
000230 eb f7 05 3e 5a 77 d3 3e b3 39 9d 3e 7d 26 8f bd
       0.13082854 0.41301996 0.30708084 -0.06989763
000240 f8 96 23 3e 41 0f df bd 7e 12 4f 3d 9c f8 17 be
       0.15975559 -0.10891581 0.050554745 -0.1484093
000250 65 a8 93 be 56 f8 1b 3e d6 bb 50 3e 3e 6b c3 3e
       -0.28839412 0.15231451 0.20384154 0.38167757
000260 88 14 76 3e e2 aa 85 be c5 5a 7a be a5 a5 0c be
       0.2403127 -0.26106936 -0.24448688 -0.13735063
000270 8e 91 cb bc 9d fe ad be 69 80 02 3f a6 3e 92 be
       -0.02484968 -0.33983317 0.5097719 -0.28563422
000280 31 29 d7 bd 82 24 56 be 08 11 5a be 03 9e d3 bd
       -0.105059035 -0.20912364 -0.2129556 -0.10332873
000290 94 59 db 3e aa f9 10 3e 96 84 55 be 6a c3 9b 3e
       0.4284178 0.1415774 -0.20851359 0.30422527
0002a0 c6 21 19 be 36 32 83 3e 65 49 48 3e b2 80 b6 3e
       -0.1495429 0.25624245 0.19559248 0.35645062
0002b0 37 1f 4d 3e 94 dd 36 be 7d ad 5f 3e b0 39 19 be
       0.20031439 -0.17857963 0.21843524 -0.14963412
0002c0 7a 5a 3c bd 88 38 7e be b6 a5 a5 3e eb ef a4 3e
       -0.045984723 -0.24826252 0.3235299 0.32214293
0002d0 02 7f 14 be 44 ef 15 be 64 44 24 3e e9 88 a5 3e
       -0.14501575 -0.14642054 0.16041714 0.32331017
0002e0 24 9d 3e be ba de 3b be 39 41 6d be 44 8b 14 3e
       -0.18614632 -0.18346682 -0.23169412 0.1450625
0002f0 f5 f9 67 3e 42 1d a5 3e d5 bd b2 3e b1 cf 8a 3e
       0.22653945 0.32248884 0.34910455 0.2711158
000300 c5 a3 55 3e fe c1 37 3e bf 49 a0 3e 98 c6 8a be
       0.20863254 0.17945096 0.31306264 -0.2710464
000310 61 e9 73 3e 1c 7f 99 3e 52 2b 50 be 65 31 98 3e
       0.23819496 0.2997979 -0.20329025 0.29725185
000320 dd 79 b3 be 03 79 86 be 95 91 3f 3e c4 48 39 be
       -0.35053912 -0.262642 0.18707879 -0.18094164
000330 34 0a 71 3e 5c f8 9a bd 8c a2 8f be 3c 00 6a 3e
       0.23539048 -0.07566902 -0.280537 0.22851652
000340 70 f2 bc 3d 6a 3b 9b 3e f8 4d cb 3e 01 ee 05 3e
       0.09225929 0.30318767 0.39707923 0.13079073
000350 0f 65 dc bd fb 0b 9c 3e 0c 8b 75 3e 3d 05 99 3e
       -0.10761463 0.3047789 0.23978823 0.2988681
000360 28 b7 98 be bd 51 82 3e 82 08 ba 3e 4e 95 5a be
       -0.29827237 0.25452986 0.36334616 -0.21346018
000370 86 2a cf 3d 7a fa 09 be d8 48 1a 3e cd 8e c0 3e
       0.101155326 -0.13474455 0.1506685 0.37608948
000380 27 80 a7 bd 4a c9 26 be ae 43 9f be b9 07 5c be
       -0.0817874 -0.16287723 -0.31106323 -0.21487321
000390 8e dc 11 be 73 28 41 3e 8b df 4d 3e 9f 48 29 be
       -0.14244291 0.18863086 0.20104806 -0.16531609
0003a0 eb df 4b 3e 6f 8c 4e be 85 e7 6b bd c9 69 55 3e
       0.19909637 -0.20170759 -0.05759384 0.20841135
0003b0 00 c7 f1 bd f0 fa 5f be 82 46 61 be 6d f5 cc 3e
       -0.11805534 -0.21873069 -0.21999553 0.40030995
0003c0 87 7a 1f 3e de e2 97 3e 3b ca 0a 3d 0b b4 7b be
       0.15574084 0.29665273 0.03388427 -0.245804
0003d0 a7 17 42 3e 27 b9 29 3e 6c 07 49 be b6 50 5a 3e
       0.18954335 0.16574536 -0.19631737 0.21319851
0003e0 30 c0 b3 bd 47 f5 b6 3e 53 bc 52 be 16 7f 7b 3e
       -0.08776891 0.35734007 -0.20579652 0.24560198
0003f0 d2 7c 8f 3e ee 89 52 be a0 0b 88 be 7c 62 12 be
       0.28024918 -0.20560429 -0.2657137 -0.14295381

convs.0.linear2.bias f4 [128]
000000 26 09 94 3e fb 7f 8e 3e 7f 2c 78 3e b6 44 74 bf
       0.2891323 0.27832016 0.24235724 -0.95417345
000010 68 37 29 be 54 ce 6a 3d d3 2f 0b be 2b 27 09 bf
       -0.16525042 0.057325676 -0.13592462 -0.5357539
000020 0f dc d5 bd c0 2a 18 be fd 2b 91 3e cf ba 84 3e
       -0.104423635 -0.14860058 0.28353873 0.25923774
000030 87 fa 92 3e 96 2e 8e be cf bd 98 3e 9b 2a 59 be
       0.28706762 -0.27769917 0.29832312 -0.21207659
000040 e2 51 66 3e 41 9b e2 bd 06 76 78 be 9a ec 96 3e
       0.22492173 -0.110647686 -0.24263772 0.29477388
000050 bc 8d 3f 3e b3 cd 4b be 69 bd c5 be 55 b3 7f bd
       0.18706411 -0.19902687 -0.3862107 -0.062426884
000060 93 86 4c be e6 83 fc be 4a 35 3d 3e 46 8d 55 be
       -0.19973211 -0.4931938 0.1847736 -0.20854673
000070 90 29 46 be 8e 51 9b 3e 41 67 74 bd 61 28 c5 be
       -0.19351792 0.3033566 -0.059668783 -0.3850737
000080 8c ca 90 bd de 68 d4 bd 47 ec 1a 3f 2d 6d 88 3e
       -0.07069883 -0.10371564 0.6051678 0.26645795
000090 59 b9 88 3e 20 bc 64 be ec 24 55 bf e1 af 27 be
       0.2670391 -0.22337389 -0.83259463 -0.16375686
0000a0 f9 3b 8d 3e cd d9 96 3e d6 ef 21 be 01 85 1a bf
       0.27584818 0.29463044 -0.15814146 -0.603592
0000b0 9f 02 51 3e 03 b8 3e bf 07 88 c1 3d e4 c2 48 be
       0.20411156 -0.7449953 0.09449773 -0.19605595
0000c0 a7 4c f6 bd 0d b7 27 bd 76 4d 26 3d 8c 20 3c be
       -0.12026339 -0.040946055 0.040601216 -0.1837179
0000d0 d9 21 8e bf e0 b7 8f 3e ab 2c ab 3e c4 9e dd be
       -1.110408 0.28069973 0.33432516 -0.4328519
0000e0 b1 a2 4f 3e 2e e3 39 bf b1 6d 73 3e 30 fb 58 3e
       0.20276906 -0.72612274 0.23772313 0.2118957
0000f0 9d 15 27 be 09 d3 61 3e 36 45 9d 3e f6 eb e2 bd
       -0.16316839 0.2205316 0.30716866 -0.11080162
000100 88 d8 97 3e 2a 5c 8c bf a3 f6 c1 be a1 9d 55 bd
       0.29657388 -1.0965626 -0.3788348 -0.05215228
000110 c9 74 7b 3e 06 bc e8 be c1 0c 85 bf a4 b9 12 be
       0.24556269 -0.4545595 -1.0394517 -0.14328629
000120 f4 bd 3e 3e 9a e8 4f 3e 43 f6 65 3e b1 ac 9d bd
       0.18627149 0.20303574 0.22457223 -0.07698954
000130 bb ee 48 3e 04 d1 80 3e e3 86 99 be 4d cd 55 be
       0.19622318 0.25159466 -0.29985723 -0.20879097
000140 54 6f bc be 1a ac 3d be 38 5a f2 bd 11 a5 4c 3d
       -0.36803687 -0.18522683 -0.11833614 0.049962107
000150 f9 14 3b 3e 4e 37 3e be 1c 31 06 be 58 79 67 3e
       0.18269719 -0.18575785 -0.13104671 0.22604883
000160 c3 9d 13 bf e5 4b 8e 3e e6 17 3c bd 6d 66 25 be
       -0.576626 0.27792278 -0.04592123 -0.16152354
000170 5f 99 0d bf e7 7f 2f be fd 31 82 3e 6e 69 42 bf
       -0.5531215 -0.17138635 0.25428763 -0.7594212
000180 99 2d 51 be b0 5b 38 be 34 d7 34 bd 9a 20 14 be
       -0.2042755 -0.18003726 -0.044150546 -0.14465562
000190 eb 2b 2f bf ef 49 56 be f4 e7 66 3e 13 37 67 be
       -0.6842639 -0.20926641 0.2254942 -0.22579603
0001a0 b0 56 8c 3e e0 96 86 3e 35 9b 5f be be af ac bc
       0.27409887 0.26286983 -0.2183655 -0.021079894
0001b0 6c 78 67 be 2d 1a 2b 3e ca 26 7f 3e da a3 be bd
       -0.22604531 0.16709204 0.2491714 -0.09308596
0001c0 64 5a 81 bf 2d 91 a9 3e 67 9c ad 3d 56 38 a0 bd
       -1.010571 0.33118573 0.08477097 -0.07823245
0001d0 37 10 8f 3e 96 f0 73 bd 65 51 0b bf 8a 44 87 3e
       0.27942058 -0.059555613 -0.54421073 0.2641948
0001e0 49 f2 80 bd 22 38 a4 be 1f 36 f7 bd b0 47 1b bf
       -0.06296212 -0.32074076 -0.1207087 -0.6065626
0001f0 09 da 1c bf 87 55 f3 bd 8a b0 51 3e 24 17 61 3e
       -0.61270195 -0.118815474 0.204775 0.21981484

convs.1.a f4 [256, 1]
000000 03 0d 62 bc 27 0d 69 bb fd f4 90 bc 00 00 00 00
       -0.013797048 -0.0035560818 -0.017694945 0.0
000010 3f f8 47 32 4d fe 85 38 fa 34 ea b5 00 00 00 00
       1.1639769e-08 6.3893014e-05 -1.7449777e-06 0.0
000020 c4 30 62 38 fa 7a 52 36 e3 af 83 3c 5a eb 84 3b
       5.3928015e-05 3.136402e-06 0.01607508 0.0040563764
000030 e3 b8 28 bc 00 00 00 00 bf d3 94 3c b8 5e 1f b0
       -0.010297987 0.0 0.018167375 -5.7978466e-10
000040 03 a7 2d bc df b9 53 ba 96 0b 33 33 fb 8f 55 3c
       -0.010598901 -0.0008076708 4.1687223e-08 0.013034816
000050 eb 1e c7 bc 35 f2 85 b4 00 00 00 00 0a f1 a0 36
       -0.024306735 -2.494941e-07 0.0 4.796432e-06
000060 34 7f 05 b5 28 19 e0 30 61 51 ca 3b 81 5f 17 b7
       -4.9731466e-07 1.6305295e-09 0.006174252 -9.022538e-06
000070 e8 f2 08 31 a0 bf 4a bc dd 89 7c 35 85 3f d2 32
       1.992868e-09 -0.0123747885 9.4077933e-07 2.4476103e-08
000080 50 cb ef 37 35 72 50 b6 b0 26 cc bc 2f 2f cc 3c
       2.8585695e-05 -3.1060893e-06 -0.024920791 0.024924843
000090 06 42 86 3c 00 00 00 00 00 00 00 00 bd f2 d4 35
       0.016388904 0.0 0.0 1.5865877e-06
0000a0 d8 64 af bc dd e4 86 bc 70 51 55 38 2e d2 20 b2
       -0.02141039 -0.016466552 5.0859002e-05 -9.361015e-09
0000b0 07 ac a0 bc e6 47 c4 39 05 5e 9e b9 d5 60 a3 35
       -0.019613279 0.00037437602 -0.00030206158 1.2172628e-06
0000c0 75 e6 c8 b9 4e bd f2 3b 13 c5 9e ba 90 2d 47 38
       -0.00038318677 0.007407821 -0.0012113176 4.748773e-05
0000d0 00 00 00 00 32 f8 50 3c 15 c9 45 bc 00 00 00 00
       0.0 0.012754487 -0.0120718675 0.0
0000e0 1e 21 8d bb 65 ec b7 31 85 9f 02 3b 0e bf 1f bc
       -0.0043069264 5.352876e-09 0.0019931507 -0.009750141
0000f0 ea 94 f8 b2 60 cd 37 bc 59 bb 0d bc e4 a6 ff b2
       -2.8938718e-08 -0.011218399 -0.008650624 -2.97618e-08
000100 34 fc f6 3b f3 03 94 31 2a 13 30 2f fe c3 41 b6
       0.007537389 4.307816e-09 1.6013915e-10 -2.8873324e-06
000110 ce 7a a0 3c 00 00 00 00 d5 c2 42 ae ff df df b7
       0.019589808 0.0 -4.428354e-11 -2.6687978e-05
000120 ca 85 52 bd 7a 06 7b bc d7 4b 49 3b 19 a9 23 35
       -0.051397122 -0.015321368 0.003071537 6.09683e-07
000130 56 5b 2e bc f7 10 dc bc b0 ca 2d b4 25 8f 40 b8
       -0.010641893 -0.026863558 -1.6185618e-07 -4.590968e-05
000140 00 00 00 00 37 02 79 37 54 57 4f 37 14 e0 83 b4
       0.0 1.4842072e-05 1.2358494e-05 -2.456369e-07
000150 e3 07 9a 3c 00 00 00 00 4e 36 78 b7 7d 60 92 bc
       0.018802589 0.0 -1.4794596e-05 -0.017868275
000160 00 00 00 00 7f 60 82 3c df d3 a6 37 08 0f f6 35
       0.0 0.015915154 1.9887402e-05 1.8332803e-06
000170 68 ea e1 32 a4 1f 81 b5 54 11 31 bc 2e 2d d6 30
       2.6300043e-08 -9.620458e-07 -0.010807354 1.558339e-09
000180 51 a9 3b b5 5b ca b8 b3 c9 48 59 b4 97 52 48 35
       -6.9909316e-07 -8.604976e-08 -2.0236179e-07 7.462599e-07
000190 00 00 00 00 1d e4 33 b5 82 01 b2 bc b2 10 aa 34
       0.0 -6.7014645e-07 -0.021729235 3.1677115e-07
0001a0 20 5d 96 3c f6 6e 9a 3c 92 48 05 b5 e5 ea 2d b4
       0.018354952 0.018851738 -4.9651965e-07 -1.6197335e-07
0001b0 12 79 9f b5 3d 83 60 bd 34 14 7e bc 9d 38 43 b8
       -1.1881659e-06 -0.05481266 -0.0155077465 -4.6544348e-05
0001c0 80 25 31 32 95 57 33 3d ec 29 9b 33 e9 71 16 b9
       1.03112825e-08 0.043784697 7.2253755e-08 -0.0001434755
0001d0 6e 0f eb bc 94 40 0b 36 bb 63 f5 b2 db f5 88 bc
       -0.02869388 2.0750203e-06 -2.8567106e-08 -0.016718796
0001e0 80 1a 82 36 00 00 00 00 d5 6a 61 37 12 0d 22 b5
       3.877387e-06 0.0 1.3435919e-05 -6.036872e-07
0001f0 00 00 00 00 00 a6 c3 33 cc a5 0d bd 5a 0a d6 bc
       0.0 9.11059e-08 -0.034581944 -0.026127983
000200 9f f0 10 be f2 f6 0b be 81 a3 0e be 90 03 68 3f
       -0.1415429 -0.13668421 -0.1392956 0.90630436
000210 d8 d9 37 3f 4d 65 ca 3e ea 7a 28 3f 0e 95 50 3f
       0.7181678 0.3953041 0.6581255 0.8147744
000220 65 03 3a 3f 2d a0 3b 3f 1a 2f 0e be 52 c7 1a be
       0.7266143 0.73291284 -0.13885155 -0.15115097
000230 8a c8 16 be ed 96 0a 3f 8c 1e 0a be 59 f5 22 3f
       -0.14724937 0.54136544 -0.13488215 0.6365562
000240 45 28 01 be e2 2f 00 3f d0 89 65 3f 3f 85 1c be
       -0.12613018 0.50073063 0.8966341 -0.15285204
000250 11 a6 36 be 50 ad 17 3f 3f 19 4a 3f 1e 8c 14 3f
       -0.17836787 0.5924883 0.7894477 0.580263
000260 0b 99 23 3f c6 b9 52 3f 90 a8 14 be a3 53 1f 3f
       0.639054 0.8231472 -0.14517426 0.62236995
000270 be 93 2f 3f b0 a8 11 be 7a b7 4b 3f dd 9c 5e 3f
       0.6858481 -0.14224505 0.7957684 0.86958104
000280 3f d9 38 3f 21 e0 33 3f 92 da 45 bf 37 ea 09 be
       0.7220649 0.7026387 -0.77286637 -0.13468252
000290 5e 21 0d be 7d 86 20 3f a6 9e 68 3f 7f 8c 1b 3f
       -0.1378226 0.6270521 0.9086708 0.60761255
0002a0 be 8d 0e be 8c 6a 11 be e1 9a 35 3f c6 9a 94 3f
       -0.13921258 -0.142008 0.7093945 1.1609733
0002b0 ce b2 0c be 7f 5c 3a 3e f9 33 98 3e 78 90 1f 3f
       -0.13740084 0.18199347 0.29727152 0.62329817
0002c0 3b 27 04 3f 14 98 1e be a7 49 06 3e c4 d1 30 3f
       0.5162236 -0.154877 0.13114034 0.69070077
0002d0 e4 0c 73 3f 5b bc 18 be 24 a4 18 be b5 06 49 3f
       0.94941545 -0.14915602 -0.14906365 0.7852586
0002e0 88 61 23 be 6d b2 68 3f cc 15 1a be fe 7f 17 be
       -0.15955174 0.90897256 -0.15047377 -0.14794919
0002f0 ac 1e 1a 3f af 25 1c be 81 c6 1c be 19 38 48 3f
       0.6020305 -0.1524875 -0.15310098 0.782106
000300 ec 66 0f be c3 78 96 3f 4a 28 51 3f 3a 36 25 3e
       -0.14004105 1.1755604 0.817021 0.16133967
000310 d0 fb 1f be 1e 3f 45 3f b5 41 74 3f 93 4a 3a 3f
       -0.15623403 0.77049434 0.9541276 0.7277004
000320 1e d3 2b be 1a 9f 19 be 95 2a 1b be 7c 68 2d 3f
       -0.16779754 -0.15002099 -0.15152963 0.67737556
000330 e6 79 23 be 3e f8 14 be 18 96 1e 3f f4 2d 19 3f
       -0.1596447 -0.14547822 0.61947775 0.59835744
000340 37 33 42 3f 11 8e 2e 3f 93 25 36 3f 4d bc 31 3f
       0.758594 0.68185526 0.71151084 0.6942795
000350 15 5c 33 be 2b f7 04 3f 6a 3f 28 3f 50 39 1b be
       -0.17515595 0.5193965 0.6572176 -0.15158582
000360 3e ac 54 3f 54 6c 0e be 05 7d a8 3e 81 dd 26 3f
       0.8307532 -0.13908511 0.32907882 0.6518174
000370 dc 2b 5d 3f b7 11 28 3f 30 bf 10 be e2 69 46 3f
       0.8639505 0.6565203 -0.14135432 0.77505314
000380 3f d3 19 3f 04 72 15 3f 94 a1 37 3f 34 48 3e 3f
       0.6008796 0.583771 0.71730924 0.74328923
000390 cb 22 60 3f 84 b2 1e 3f 48 15 04 be f4 79 1b 3f
       0.8755309 0.61991143 -0.12898743 0.6073296
0003a0 c3 40 16 be f4 7e 0c be a4 42 27 3f 97 41 0c 3f
       -0.14673142 -0.13720304 0.6533606 0.5478758
0003b0 8c 7c 1c 3f f0 04 01 be e6 47 12 be 31 5e 3b 3f
       0.61127543 -0.1259954 -0.1428524 0.731906
0003c0 84 82 62 3f 99 24 18 be bd 4d 55 3f aa 79 bd bd
       0.884804 -0.14857711 0.83321744 -0.09251721
0003d0 25 51 24 be 17 30 16 3f e5 f9 58 3f 13 e9 11 be
       -0.16046579 0.5866713 0.8475631 -0.14249067
0003e0 13 86 39 3f 8d c0 31 3f 74 c0 32 3f ef 94 9d 3f
       0.72470206 0.69434434 0.6982491 1.2311076
0003f0 08 03 5c 3f c9 b5 5e 3f c6 92 19 be ca a8 02 be
       0.85942125 0.8699613 -0.14997396 -0.127597
