Saved_Models/TSP_1000/scatgnn_layer_2_hid_128_model_210_temp_3.500.pth (torch, 992099 bytes, 24 tensors)

bn0.weight f4 [2]
00000000: 0000 803f 0000 803f
1.0 1.0

bn0.bias f4 [2]
00000000: 0000 0000 0000 0000
0.0 0.0

bn0.running_mean f4 [2]
00000000: 0000 0000 0000 0000
0.0 0.0

bn0.running_var f4 [2]
00000000: 0000 803f 0000 803f
1.0 1.0

in_proj.weight f4 [128, 2]
00000000: ffc0 bdbe 7224 43bf 9d46 103f 8db6 fc3e
00000010: b85e e93c 3730 45bf 1e24 c7be 8e6d bd3d
00000020: 6563 763f bf3e 32bf d296 e43e 5706 a13e
00000030: 4f14 23bd fe08 9bbe cb05 67bf 95c8 8dbe
00000040: 305f 563f 2ada 533f 322b c8be 24b0 273e
00000050: fcaa 13bf febd d0be 154d c8be e7d8 06bf
00000060: da8c e23e 3c47 733f 6fba 5fbf 3249 ca3c
00000070: 3c00 5f3f 93c1 ebbd 05a2 fa3e 143e 70bf
00000080: a6e3 38bf 118d 0cbf c07b 9c3e 254f 7fbf
00000090: 1592 cd3e 40d3 363f bfdb f2be 8b6c 293f
000000a0: 3f40 4fbe 7f89 5bbf 98a9 e53e 4f1a 23bc
000000b0: 026b 593f b48d 3bbf 92a0 91be 584a 9a3e
000000c0: 0372 6d3f b6dc 9b3e e315 b0bd 44b4 273f
000000d0: bd80 01bf ce46 65bf f074 efbe 8b8e a83c
000000e0: b000 66bf 58fe 48be ddf9 60be eea8 c4be
000000f0: d122 1d3f 9239 62bf 80e9 26bf af35 46bf
00000100: 8120 5ebf 0b92 1e3f fb67 3d3f 8358 5ebe
00000110: 4b2d ac3e e584 3f3f ae9f 02be b4a4 e0bd
00000120: dae9 b0bd 1961 11bf fb9e 1fbf c1dd 2bbf
00000130: 8d84 bcbd 062c 443f 80d2 333f 561a 693e
00000140: f4b9 85be db63 d13d 012d 17bf b055 933d
00000150: 726b 053f 002f 6b3e 707d 3a3e 6749 62bf
00000160: 0426 6f3e 7278 733f e9fc 1c3f 04ae c8be
00000170: 93ad dd3e 7b6b 183e 9e13 433f 9bf7 3e3f
00000180: 900f 473f 73d3 333f 931a 4cbe 0dcb 6dbe
00000190: 37d8 9cbe 5ac4 713d bf92 233f ccc6 773f
000001a0: 972c 193f e407 02bf f159 d13d 9f76 db3e
000001b0: bdce e73e 7b1e 1d3e 8ae6 c9be ebb6 453f
000001c0: 6d4a 62bf 945c 433f be26 0bbf 86b6 5f3e
000001d0: fe6a fdbe b2da 4f3f 06fc 3e3f 6bf5 f6bc
000001e0: 613d 163f 5cd0 b9bd 6c9e e5be 9dab 5f3f
000001f0: eb63 693f 9531 11be c089 323f fe83 9cbe
00000200: 8e5b 03bf 0994 683f 6254 483f 54f8 533f
00000210: 1892 65bf 89eb 303f 3179 85bf 289e db3e
00000220: 04a2 203f 8002 9bbe f812 633f 0bd9 76be
00000230: db47 27bf 1f94 74bf ce25 d73e e447 5d3f
00000240: f4ba 33bf f6ff fabe 873a 88bf f612 0c3e
00000250: 65de 363f 5740 4cbf 8421 febe eee1 34bf
00000260: f58e bbbe e94c a23f 6441 16bf c633 3dbd
00000270: 64e1 bcbe 0020 43bf f54b 393f 663b 08bf
00000280: a4ce 83bf 4141 ea3e 6c9a 163f 337f dfbd
00000290: dd16 1c3e 9fbe 0cbf d3c3 49bf 4db6 263e
000002a0: c0b2 2dbf 2aec 0abe 78ed cbbe 2fbc 653f
000002b0: 7ed2 ac3e ce06 5e3f 01bd 7a3f bf13 313f
000002c0: da32 f4be 2d35 f9be 506b db3d fadc 37bf
000002d0: 807e 393f 284f 4c3f ee4b 66bf 9c91 2c3f
000002e0: 4553 4b3d c78e 403f a7a5 31bf 23a4 c2be
000002f0: 6b38 26be 19fa 0bbe e124 ffbd 4ff2 c7be
00000300: a6d4 acbd 4f09 7bbf 1e21 61bf f9e5 17bd
00000310: c7b4 87bd e814 b5be 699e 2fbf b89d 423f
00000320: 7872 c73e dee1 8ebf bc3e 7a3f 380d 61be
00000330: 51c1 373f 3a8b c4bc a89c 713e e5a9 01bf
00000340: 64a5 6e3e 5b79 6fbf 0d6b 343f 6134 fd3e
00000350: 862a 583e 77cf 6cbf ba12 363f 3eb2 1bbf
00000360: 58aa c53d 4069 70bf 5551 40bd 724a 80bf
00000370: 6a74 e5be c8c7 5ebd 040c b43e d0e9 823f
00000380: 4677 63bf 0528 26bf 7eb8 3ebe 8ae9 6e3f
00000390: b010 e2bd d469 1e3f 8203 d1be ff0d 453e
000003a0: 4882 24bf 8046 0d3f 618b 473f f672 833e
000003b0: c2d5 4b3f 4463 783e e55e 843f f00e 8bbe
000003c0: 75fb 8c3e ab72 e5be c162 0abe 2e89 693f
000003d0: 6098 193f 494f 76bf f102 803f b689 f43d
000003e0: 09c0 77bf f7d3 a4be 7bf9 4dbf da79 09bf
000003f0: 4a42 8ebc 8d48 603f 2fae 2fbe 360c 5f3f
-0.37061307 -0.76227486 0.5635775 0.49358025 0.028487548 -0.77026695 -0.38894743 0.092494115
0.96245414 -0.6962699 0.44646317 0.3145015 -0.03981429 -0.30280298 -0.90243214 -0.27692094
0.83738995 0.82754767 -0.39095455 0.16375786 -0.57682776 -0.40769953 -0.3912131 -0.52674717
0.44248086 0.9503057 -0.8739385 0.024693105 0.8710973 -0.11511531 0.48951736 -0.93844724
-0.72222364 -0.5490275 0.30563164 -0.9973014 0.40150514 0.7141609 -0.47433278 0.6618125
-0.20239352 -0.8575668 0.44855952 -0.009955003 0.84928906 -0.73263097 -0.28442818 0.30134845
0.92752093 0.30441827 -0.085979246 0.6550944 -0.50587064 -0.89561164 -0.46768904 0.020575782
-0.898448 -0.19628274 -0.21970315 -0.38410133 0.6138125 -0.88369095 -0.6520004 -0.77425665
-0.8676835 0.61941594 0.73986787 -0.21713452 0.33628306 0.74812156 -0.12756225 -0.10968915
-0.08638354 -0.56788784 -0.6235196 -0.67135245 -0.092049696 0.76629674 0.7024307 0.22763953
-0.26118433 0.10224124 -0.59053046 0.07194078 0.52117074 0.22967148 0.18211913 -0.88393253
0.23354346 0.9510566 0.6132341 -0.39195263 0.4329649 0.1488475 0.7620181 0.74596566
0.7775812 0.7024452 -0.19932012 -0.23221989 -0.3063371 0.059025146 0.6389579 0.96787715
0.59833664 -0.5079329 0.10222233 0.42863938 0.45274916 0.15343659 -0.394337 0.77232236
-0.88394815 0.7631314 -0.5435599 0.21846971 -0.4949569 0.8119308 0.7460331 -0.030146321
0.58687407 -0.090729445 -0.4484743 0.87371236 0.9116809 -0.1417907 0.6974144 -0.30569452
-0.51311576 0.90850884 0.7825376 0.82800794 -0.89676046 0.691094 -1.042761 0.428941
0.62747216 -0.30275345 0.8870082 -0.24106233 -0.6534402 -0.95538515 0.4202103 0.8643782
-0.7020714 -0.49023408 -1.0642861 0.13679108 0.714331 -0.79785675 -0.49634945 -0.7065724
-0.36632505 1.2679721 -0.5869353 -0.046191953 -0.3689071 -0.76220703 0.72381526 -0.53215635
-1.0297437 0.4575291 0.5882938 -0.10912933 0.15243097 -0.54978365 -0.7881443 0.1628048
-0.67850876 -0.13566652 -0.39829612 0.8974027 0.33754343 0.86729133 0.9794465 0.69170755
-0.47695047 -0.48673382 0.107138276 -0.7182156 0.7245865 0.7980828 -0.8995961 0.6740968
0.04963996 0.7521786 -0.6939339 -0.3801585 -0.16232459 -0.13669623 -0.12458206 -0.39052054
-0.08438997 -0.9806108 -0.8794116 -0.037084553 -0.066262774 -0.35367513 -0.6860109 0.7602191
0.3895452 -1.1162679 0.97751975 -0.21977699 0.7177935 -0.02399217 0.23594916 -0.50649863
0.23305279 -0.9354455 0.70475847 0.49454024 0.21109971 -0.92504066 0.71122324 -0.6081885
0.09651631 -0.939106 -0.046952564 -1.0022719 -0.4481538 -0.054389745 0.35165417 1.0227604
-0.8885387 -0.64904815 -0.18625066 0.933251 -0.11038339 0.6188023 -0.4082299 0.1924362
-0.64261293 0.551857 0.7794705 0.25673646 0.79623044 0.24256617 1.034146 -0.27159834
0.27535596 -0.44814047 -0.13514234 0.91224945 0.5999813 -0.9621473 1.0000898 0.11940329
-0.967774 -0.32192966 -0.804588 -0.53701556 -0.017365593 0.87610704 -0.1715629 0.8712801

in_proj.bias f4 [128]
00000000: 90b5 14bf 99fd bfbe 7d35 aebe 3a44 4f3f
00000010: 1fd1 12bf 2d35 533e 290a 623f 2995 133e
00000020: 7456 57bf 40f2 0d3f acea 1a3f 5c2d 473f
00000030: 47bb 073f 8ce3 303e 472f 03bf b61a dabe
00000040: a883 57bf 69f9 45bf 8dd4 333f 635f d0bd
00000050: d419 e9bd 1940 2ebe 44a5 143e 8448 23bf
00000060: d437 bdbe 545f 383f 7e6e 6fbf 79ef 533f
00000070: 043a b93d 6a07 653f bdee e9be e83c 33bf
00000080: 6c8d d43d 0272 083f 0b80 aebe 67f8 4abf
00000090: d7cf 743e c896 19be 1cf6 933e 7f4d 8e3e
000000a0: c13b 59bf 6b1a 9cbf be52 4abf 1719 3c3f
000000b0: a7fe b53e 3e3e 123e 6914 89bf 0e24 e43e
000000c0: 03d6 6a3d a55f 55bf 95b3 283f 87fc 08bf
000000d0: 10a3 11bf 6041 263f 6388 673e 2865 b43c
000000e0: 58a4 2dbf f272 5ebf ac0a 383f b731 853e
000000f0: 6526 813e f7ad 00bf 8d8b 193f 595e 293f
00000100: f4ef 14be c37a ea3e d5b6 0a3b dac9 763e
00000110: b229 1f3f cd1a 103f 5531 753e ba6a a33e
00000120: df6b 633f 807b ba3b 1549 e1be 00ed 663f
00000130: 534c ac3b 9a09 abbf 1c1e 14bd e5d7 a23e
00000140: 7c87 4e3e 75fd 3e3f de9d b1be 1605 813d
00000150: 07e9 5dbf 8a50 40bf d356 c2be 11f8 52bf
00000160: 5be4 463f 59f2 e2be 81aa c9be a86a 8b3d
00000170: d0eb 803e 9687 fabd fc4c 053f b9e1 313f
00000180: 4187 013e 21d6 643e a1bc 26bf 6f16 413e
00000190: 6843 a73d 53ae 02bf 3bb1 833e 9e49 3cbf
000001a0: db76 2b3f 1a56 ab3e 18bd 143f 7237 b33e
000001b0: c3da 00bf 42f6 ddbb 665f debd e9ef 6e3e
000001c0: 1cc5 6d3b 7174 3ebf 3dce f1be b22a 56bf
000001d0: 1ec2 373f 96e5 9b3e ff40 d03e f678 ba3d
000001e0: fcde bebe 2678 ca3e 3185 783e 85c9 b53e
000001f0: 19c0 4a3e cfe0 0dbe 2143 343f 8857 b33e
-0.5808954 -0.37498167 -0.34025183 0.8096348 -0.57350343 0.20625754 0.88296753 0.14412369
-0.8411629 0.5544777 0.6051433 0.7780359 0.5302014 0.17274302 -0.51244015 -0.42598504
-0.84185266 -0.77333695 0.702462 -0.101744436 -0.113818794 -0.17016639 0.14516169 -0.63782525
-0.36956656 0.7202046 -0.9352797 0.8278728 0.09044269 0.8946444 -0.45689955 -0.7001481
0.103785366 0.5329896 -0.34082064 -0.7928528 0.2390741 -0.14998925 0.28898704 0.277935
-0.848568 -1.2195562 -0.79032505 0.73475784 0.35545847 0.14281556 -1.0709354 0.44558758
0.057333004 -0.83349067 0.6589902 -0.53510326 -0.5688944 0.64943504 0.22610621 0.022020891
-0.67828894 -0.8689414 0.71891284 0.26014492 0.25224605 -0.5026545 0.5997856 0.6615959
-0.1454466 0.45796785 0.0021166105 0.24100438 0.62172997 0.56290895 0.239446 0.31917363
0.88836473 0.005690992 -0.4400107 0.90205383 0.005258122 -1.3362305 -0.036161527 0.3180534
0.2016887 0.74605495 -0.34690756 0.06299798 -0.86683697 -0.7512289 -0.37956867 -0.8240977
0.7769219 -0.44325522 -0.39387897 0.068074524 0.2517991 -0.12232892 0.52070594 0.6948505
0.12649252 0.22347309 -0.65131575 0.18856214 0.081671536 -0.5104725 0.25721154 -0.7354983
0.66978234 0.33464128 0.58101034 0.3500324 -0.50333804 -0.006773741 -0.108580396 0.23333706
0.0036280816 -0.74396425 -0.4722766 -0.836589 0.71780574 0.30448598 0.40674588 0.09105103
-0.372795 0.3954479 0.24269558 0.3550531 0.19799842 -0.13855289 0.7041493 0.3502772

convs.0.a f4 [256, 1]
00000000: 7ed7 efb9 900c 233d 842e 7cbd 9c53 5cbc
00000010: 9856 313b c120 2abc 9226 433d 2112 b3bd
00000020: d956 a93c 512a ccbc fc8d 14be ed5b 873d
00000030: 4888 cc3d 7f55 8d3d 3db9 6cbd 044f 09bd
00000040: 2667 883c 331a 8fbd ba29 333e 1a01 f63c
00000050: 4c41 613d 92ef 243c 2c1d afbd 5db3 d23c
00000060: b6ce 7abb 0d43 863d 07ff 303d 2b69 31bd
00000070: 1565 13bd 1a70 bdbd 4d3d 80bb adf0 9ebc
00000080: 6eda 14bd 663a 24bd fc68 2f3d 0000 0000
00000090: a3f9 943d 698c 563c a6f1 b2bb c1c3 e23d
000000a0: 0000 0000 0373 9ebb 50dd 853c 6e9b 32be
000000b0: 5d54 fe3d c19c 1dbc 36ba 913b 82d6 e53b
000000c0: 57bd 8a3d 05bc 1c3a 6b75 c9bc f26e db3c
000000d0: 6b91 83bc 0ac5 493c 478a b7bd 4b1a 833d
000000e0: 1555 503d c937 f73c 842d d63d 1b5b 8c3d
000000f0: de12 783c 08db 103d 7a8b 9cbd 5b97 0bbd
00000100: 1e85 013d 61df 003e ee10 01be 893a 81be
00000110: e49c e93d e9ba 54bd ecbd 9cbd e737 b83d
00000120: ecc9 b2bd 3f5f a23c f95c 7dbd 0e55 e5bc
00000130: 56ad b5bb 830d d93c 3104 b8bd 3c7d f03a
00000140: d634 0e3e aec0 58bc 0999 3bbd 85ba dfbc
00000150: 44ed 81bb 1059 f23b 6673 563d 0e91 cf3c
00000160: 71a2 61be ac18 0e3b 048f c03d 2c6a e7bd
00000170: 9fe6 3a3d 0c0c 743d bea7 e5bd 552e bebd
00000180: 4214 81bd 9e3b c63d e43f c43a 5225 633d
00000190: a5c0 2abe 4b66 3abd 0b8e bfbd c177 fd3b
000001a0: e8c7 d3ba c76c e43d 067b 833d 3eca 403d
000001b0: 2f9f 423d 60bb b9bd cf66 f6bc bd80 2d3e
000001c0: 939d 33be 9e54 c53d 292c 053d 3177 18bb
000001d0: 15bc da3d 0840 c03d c6be 963c d738 3fbd
000001e0: 8850 b6bc 7f76 433e 9753 0cbd c3d0 fabb
000001f0: fea8 473d 44d7 2c3c f084 dc3c 01b1 a63d
00000200: 1762 06be 3361 f6bd 9a75 35be f4fe 283e
00000210: cf27 66be cdcc e7bb 9585 143e c87c 993e
00000220: 891e e1bd b3b2 fb3d 09bb 343e 555c 2e3e
00000230: 5764 693d 439b 303e a210 49be 393f 0ebe
00000240: 0eca 83bd 06fb 76be 7ddb 113e d07a 3b3e
00000250: 04bf 823e bf85 22be 2825 763e 2259 25be
00000260: 326c 58be 2067 c83d c206 0bbe aba3 143e
00000270: 8603 9c3e d1e6 2c3e 197e 19be 677e 95bd
00000280: 7ab9 ab3e 97ca 8d3d d4e7 b7bd 49f5 57be
00000290: 2a41 abbc 9205 253e 6d07 6b3c 90ba ffbb
000002a0: dee3 b9bc 7452 63bd 1710 36be 8876 f23d
000002b0: 4454 38bc 43ec 4c3e 958b 63be 0def 9c3d
000002c0: 9273 6e3e 2cf3 a6bd 15e2 253e c593 d4bd
000002d0: ed38 40be c45a 263e c2e4 aa3c 4f52 c73e
000002e0: 4bdb 17be b1f1 c2bd e1dc c03d 05f9 203c
000002f0: 9f1f c0bb 92e5 19be 59cd e93d a768 fd3d
00000300: 4911 503e 2df5 553d 97e4 af3e cfcf 093e
00000310: dc31 0b3e 5a66 8e3d aa93 fd3d 8558 6dbd
00000320: 72d2 2f3e 00ad 063f 8c0f 4fbe 2766 393e
00000330: 3ae6 043f 3b39 ddbc 2987 8b3e 6b98 b6bc
00000340: 356a 0d3e 729e 463e f20b 7fbe f320 ab3e
00000350: cc6e bcbd c187 13be 6125 cebd fa94 18be
00000360: 02f1 293e 6cab 33be 6f9a 11bd 7bd5 9e3e
00000370: e966 01be 8e3d 3c3e 0baf 493e e473 1a3e
00000380: 2e13 b33e 12d6 6d3e b47b dabd 9d42 a23e
00000390: 6131 d63e 721a 4abe 8736 60bc 6e32 06be
000003a0: 6210 d13d 25a9 0b3b c30c 8d3d f9bf c7bc
000003b0: ac1b 3fbe 5d50 0a3f 55f6 cc3e e3d9 5d3e
000003c0: d281 d93e 5fde 18be 0494 31be 080f f4bd
000003d0: d50c e73d 68e5 fd3c b74c 9b3d 7462 843e
000003e0: 93d7 5dbe cf64 783c 999a 673e 0991 1c3c
000003f0: f319 6f3e e6f1 893e 8ca6 bf3d 415d 173c
-0.00045746187 0.039806902 -0.0615678 -0.013447668 0.002705967 -0.010383786 0.047644205 -0.08743692
0.020671295 -0.024922522 -0.14507288 0.0660933 0.09986931 0.06901073 -0.057793844 -0.03352262
0.016650748 -0.06987419 0.17496386 0.030029822 0.054993913 0.010066884 -0.08550486 0.025720293
-0.0038270182 0.06555758 0.043211963 -0.043313187 -0.03598507 -0.09249897 -0.0039135576 -0.019401873
-0.036341123 -0.040094756 0.04282473 0.0 0.07274177 0.013095 -0.0054609356 0.11072493
0.0 -0.004835488 0.016340882 -0.17442104 0.12418435 -0.009619893 0.004447247 0.0070140967
0.06774395 0.0005978945 -0.024592122 0.026786301 -0.016060552 0.012315044 -0.08961921 0.06401499
0.05086239 0.030177968 0.104579 0.068533145 0.015141217 0.035365134 -0.076437905 -0.03407989
0.03162109 0.12585212 -0.12604114 -0.2523997 0.11406878 -0.051936064 -0.07653412 0.089950375
-0.0872992 0.019820808 -0.061856244 -0.027994659 -0.005544345 0.0264957 -0.089851744 0.001834787
0.13887343 -0.013229532 -0.045800243 -0.02731062 -0.003965052 0.007395871 0.052356146 0.025337722
-0.22034623 0.0021682186 0.09402278 -0.112995476 0.045630094 0.0595818 -0.11213635 -0.09286181
-0.06302692 0.0967934 0.0014972654 0.055455513 -0.1667505 -0.04550771 -0.093532644 0.007735223
-0.0016157599 0.1115356 0.06419949 0.047067873 0.04751509 -0.09068942 -0.03007832 0.16943641
-0.17540579 0.0963528 0.032512818 -0.0023264403 0.10680405 0.09387213 0.018401515 -0.046685066
-0.022255197 0.19088171 -0.034259405 -0.007654281 0.048745148 0.01054937 0.026918858 0.081392296
-0.13123356 -0.12030258 -0.17720643 0.16503507 -0.22476123 -0.0070739747 0.14504083 0.29978013
-0.10992152 0.122899435 0.17649473 0.1702741 0.056980457 0.17246728 -0.19635251 -0.13891305
-0.06435023 -0.24119195 0.14243884 0.18308568 0.25536358 -0.15871333 0.24037611 -0.16147283
-0.21135023 0.097852945 -0.13576797 0.1451556 0.30471438 0.16884924 -0.14989509 -0.072995
0.33539945 0.069234066 -0.089797646 -0.21089663 -0.020905096 0.16115406 0.014345032 -0.0078042224
-0.022691663 -0.055498555 -0.17779575 0.11839014 -0.011250559 0.20012002 -0.22221215 0.07662783
0.23286274 -0.0815185 0.16199525 -0.10379747 -0.18771715 0.16245562 0.020861033 0.38929984
-0.14829747 -0.09518755 0.09417129 0.009824996 -0.0058631445 -0.1502898 0.1141612 0.123734765
0.20319094 0.05223577 0.34354088 0.13458179 0.13593239 0.06953116 0.1238168 -0.057945747
0.17170122 0.5260773 -0.20220774 0.18105374 0.519138 -0.027004829 0.27251557 -0.022289475
0.13810046 0.1939638 -0.249069 0.33423576 -0.0920082 -0.14407255 -0.10065723 -0.1490058
0.16595843 -0.17545861 -0.03554767 0.31022248 -0.12636913 0.18382856 0.1969568 0.15083271
0.3497557 0.23226193 -0.10668126 0.31691447 0.41834548 -0.1973665 -0.013684875 -0.13105175
0.10208203 0.0021310535 0.068872 -0.024383532 -0.186629 0.54028875 0.40031686 0.21665148
0.42481858 -0.14928578 -0.1734162 -0.119169295 0.112817444 0.030993178 0.075829916 0.25856364
-0.21664266 0.015160753 0.22617568 0.009556063 0.23349743 0.26942366 0.09357938 0.009238542

convs.0.linear1.weight f4 [128, 128]
00000000: 9a61 4bbe b7a7 3c3d 5dbd b7bd 2c07 d73c
00000010: 4ad6 2b3d edc0 973d 9a3e 033e 283b e5bb
00000020: 41b3 943c 798a 7d3d 8a06 1c3c 973f 7d3d
00000030: 3c37 c7bb 84b3 d5bd 719b 003d 39b5 6dbd
00000040: 7066 10be 0e1e 2f3c bcce 9dbc 120a 8d3d
00000050: 2ab7 bd3d 5b18 23be 4686 aa3a 2be7 61be
00000060: 825d 9c3b 1807 c3bb ba4a 20be bdc1 9a3d
00000070: 4264 cbbc df78 943d bb99 1dbd b695 01be
00000080: 4e52 423d 743f 85bd 74f5 1abe bf82 02bf
00000090: 56bc 633c 5b86 b13d 52f6 c9bd 7ab1 91bd
000000a0: 6d97 16bf 9a4a b2be d08a 283e bd17 a13d
000000b0: 77d7 62bd 9424 efbc 3604 c43e 6732 183d
000000c0: d703 95bc 3df7 b0be c260 fb3c 2c79 d03c
000000d0: 83fa e23d fceb 603d 50ff 2cbe 1565 833e
000000e0: e296 49bd 5e79 39be be38 d43d 27f1 6a3d
000000f0: b77d 42be 1307 1fbe bab9 02bd 73d3 9cbd
00000100: 0cc3 e83c bbf6 163e ec06 0d3e 7c58 3b3d
00000110: d692 803c 78f6 c1bc 0394 f03d a7a1 0e3e
00000120: f9ba a73d 617b b33d bdca 6e3d e89f b53c
00000130: 8587 c13d f859 a3be 3fb4 f93d 2f25 8d3d
00000140: 9b9e 173e 8bb3 2a3d 3291 8cbd 00f1 83bd
00000150: 5c6a a1be 144f 80bd c53e 13bc 77af 003e
00000160: 79fc 213e a515 a9bd ab73 db3c 0eed 20bc
00000170: 22bb 2a3c d648 a0bc c4a8 083e c3a5 2a3d
00000180: d071 713d a3b4 75bd e93f 74be 539a ee3d
00000190: 32fd 633e ebeb eabc ba34 2d3c 60da 83bd
000001a0: 4e0b 8b3d d93e acbd 7437 9e3c 2f6e 0fbd
000001b0: 7984 5ebd 40c8 843d 0c49 51be 63a7 053d
000001c0: 0ed5 803d 7cae 2abe 0308 46bd 20e5 9abe
000001d0: 3571 573c 7ed2 c83d 9faa c7bc fe70 e33d
000001e0: 0d99 8e3d 20d3 1abd 47a3 963c 2421 78bd
000001f0: a4ae c43d 0224 d8bc 7baf 6ebd 1024 65bd
00000200: e292 37be 519c adbd 5677 e9bd 05db e3bc
00000210: 896d b83b 6fc9 aabd 896e 023e e09e 513d
00000220: 9cac b23d 9276 a83c 7e88 a53c 334f 743d
00000230: 9a76 9fbc 6b82 5dbd a42c 63bc 359e 313d
00000240: 0b9c 87be 0048 473c a2ba a13d eb2a ad3d
00000250: dd61 8dbc a3ca 33be 891a 36bd de29 9abd
00000260: fed2 6abd db54 c9bc 188e 57bd 6a1d eebc
00000270: 9dd7 54bd 7368 8a3d d1f2 edbc f0a9 36be
00000280: c30b c2bc 603f c7bd d36f bc3b 71fd e3be
00000290: 0510 a13b 906b 57bd c6dc 2ebd 8c94 4fbe
000002a0: bec9 fabe 2720 c3be cb4b 183e 601a cabd
000002b0: 4a39 68bc 261e 01be 7b58 723e ad87 7cbd
000002c0: 3175 ebbc fd7a ccbe 1c77 9fbd f865 713d
000002d0: 7576 113d bbe9 b23d 6381 15be ed85 b03d
000002e0: 4c19 f0bd ef9b 0abe baeb 78bc b856 38be
000002f0: 85b8 21be 639b c9bd b7a6 8bbd 779d b13c
00000300: f0ae b53d 2cd4 763d b3f0 be3d 2d78 b43d
00000310: 5089 64bd bdaa 8e3c 361c 40bd 507d 083d
00000320: 8c4e fb3d 06f2 debd b0a5 c73c 78ec 123d
00000330: 7b8f 113c d295 bcbe e0fe 013c 28c4 13be
00000340: e8b7 06bd 5731 8abd b795 d8bd df14 aa3d
00000350: b050 6abe d2a8 0fbe f512 eabd 5b77 493d
00000360: a0c3 b73d a162 2fbe dc13 9c3d ee03 0d3c
00000370: 1d9e 10be ee5e f1bd 3f49 e43c e5aa 583c
00000380: 10ad 67bb 2ed1 b03c c182 8ebe 937c 013d
00000390: 6052 edbc 68a1 eebc bee5 92bd 2e94 efbd
000003a0: 67c0 2ebd c06a f1bd 8e4b eebb f441 c8bc
000003b0: 05ce aabd 6ec5 3f3d 67da 51be 337d 30bd
000003c0: f54d 9f3d a950 d0bd d407 4cbe 6e61 40be
000003d0: 52f4 213d 68d2 a4bd f65d 19be e6dd f9bb
000003e0: 6846 1f3b 288f e2bd 3303 1abc 199e b4bd
000003f0: 015f 8dba bdce adbd 5a0f 013c 18e2 c1bd
-0.19861451 0.046058383 -0.08971665 0.026248537 0.04195241 0.074098445 0.1281685 -0.0069955774
0.018151881 0.061899636 0.009523043 0.061828222 -0.0060795825 -0.104346305 0.03139824 -0.058034156
-0.14101577 0.010688318 -0.019263618 0.068866864 0.092634514 -0.1592726 0.0013009987 -0.2206084
0.004771889 -0.0059517734 -0.15653506 0.07556484 -0.02482808 0.07249617 -0.038476687 -0.12654766
0.047441773 -0.06506243 -0.15132695 -0.5098075 0.013899883 0.086682044 -0.09861435 -0.07113929
-0.5882481 -0.3482254 0.16459203 0.07865856 -0.055381265 -0.029192246 0.38284463 0.037157442
-0.018190308 -0.34563628 0.030685786 0.025448404 0.110829376 0.054912552 -0.16894269 0.25663057
-0.04921616 -0.18112704 0.10362385 0.057358887 -0.18993269 -0.15530042 -0.031915404 -0.07657518
0.028413318 0.14742558 0.13772172 0.045738682 0.015695017 -0.023677096 0.11746981 0.13928853
0.08189959 0.08763767 0.058298815 0.022170976 0.094496764 -0.31904578 0.12192582 0.06891858
0.14806597 0.04167513 -0.06863631 -0.064424515 -0.31526458 -0.06265083 -0.008987133 0.12566935
0.15818967 -0.082560815 0.026788553 -0.009822143 0.0104205925 -0.01956598 0.13345629 0.04166199
0.05894643 -0.05998672 -0.23852505 0.11650529 0.22264555 -0.028676948 0.010571653 -0.06438136
0.067892656 -0.08410425 0.019313551 -0.03501719 -0.054325555 0.06483507 -0.20438021 0.032630336
0.06290637 -0.16668123 -0.048347484 -0.30252934 0.013149549 0.09805773 -0.02437335 0.11105536
0.06962786 -0.037799 0.018388404 -0.06057848 0.096036226 -0.026384357 -0.05827282 -0.055942595
-0.17927125 -0.084770806 -0.11399715 -0.027814398 0.005628292 -0.08339202 0.12737478 0.051176906
0.08724329 0.020564351 0.020206686 0.059645843 -0.019465733 -0.054079454 -0.013865624 0.04336377
-0.2648624 0.012163162 0.078969255 0.084554516 -0.017258579 -0.17557769 -0.0444589 -0.07527517
-0.057330124 -0.024576595 -0.052625746 -0.02906676 -0.051963437 0.06758203 -0.029046448 -0.17838264
-0.023687249 -0.09728885 0.005750635 -0.44529298 0.0049152398 -0.052592814 -0.042691015 -0.2027151
-0.48982042 -0.38110468 0.14872663 -0.09868312 -0.014173815 -0.12609157 0.23666565 -0.061652828
-0.028742405 -0.39937583 -0.0778639 0.058935136 0.03551336 0.08735987 -0.14600138 0.08619294
-0.11723575 -0.13536046 -0.01519292 -0.1800183 -0.15793045 -0.09844091 -0.06818908 0.02168153
0.08871257 0.060260937 0.093232535 0.08811984 -0.055795014 0.017415399 -0.046901904 0.033322632
0.12270841 -0.10886006 0.024370998 0.035870045 0.008884306 -0.36833054 0.007934302 -0.14430296
-0.03289023 -0.06747692 -0.10575431 0.08304762 -0.22882342 -0.14029244 -0.11429397 0.049186092
0.089728594 -0.17127468 0.076209754 0.008606894 -0.14122815 -0.117856845 0.027866958 0.013224338
-0.0035350956 0.02158412 -0.27834132 0.031612944 -0.028969944 -0.029129699 -0.07172726 -0.11698185
-0.042663958 -0.11787939 -0.0072721904 -0.024445511 -0.08340076 0.046819143 -0.2049347 -0.04308815
0.07778541 -0.10171635 -0.19924861 -0.18787166 0.039539643 -0.08047944 -0.1497725 -0.0076253293
0.002430344 -0.11062461 -0.009400177 -0.08819217 -0.001078576 -0.08486698 0.007877195 -0.09466952

convs.0.linear1.bias f4 [128]
00000000: ea72 a4be 3110 7abe 1324 30be 39a8 303d
00000010: 9b82 86bb 28b4 82be 1f63 7ebe faad 9f3e
00000020: 5966 a03e 91f3 893e 355d 62be 5424 b73e
00000030: fa06 ab3e 0148 ad3e ce27 b53e a472 95be
00000040: 65c4 8d3e a1d8 85be df62 2ebe cb71 86be
00000050: 2b5c bfbe f70f a33e 0074 923e dd56 ac3e
00000060: 05d5 843e 9815 a6be 29ed e4bd b392 88be
00000070: 50a3 873d 3aca 19be 295d cb3e 0f6c 32be
00000080: 5517 8dbe b93f 8ebe ff18 8cbe 78bc 80be
00000090: fe1b b93e 9ff0 b03e 6228 8ebe 033c 9c3e
000000a0: c385 80be e7d9 853e 2ba4 273e 7449 8d3e
000000b0: 9aa0 173e be12 a6be a020 9a3e 6e16 69be
000000c0: 703e 37be f013 a7be 266f a83e 9bda 9f3e
000000d0: 9bd4 8fbe dc1b a0be 309e 923e 7bc4 b33e
000000e0: 55fb 92be 5d34 87be 7e4f 90be 4da7 843e
000000f0: 29e6 b13e 65d0 a93e b146 913e 04bb 283e
00000100: b690 843e 74ae 7c3e 6638 953e 6f18 91be
00000110: 31c9 893e 1085 a53e 2ea1 8fbe 53f3 093e
00000120: 1709 a5be 4855 a2be 8887 8f3e f2b8 81be
00000130: 0411 b53e 21f5 75be a5c0 b5be 43db aa3e
00000140: a583 a43e 0041 a83e 543d b73e 1acd 823e
00000150: c77f 69be 07b5 8b3e 962f 8e3e f66d b33e
00000160: a860 9abe 5288 9e3e 680f ac3e 696b 92be
00000170: 17c7 283e 1462 94be 124f f73d 65c1 b03e
00000180: 1a26 8ebe 5910 a3be ba9b a3be b3f7 89be
00000190: 4409 9cbe 398d a93e d633 a03e 273b 8abe
000001a0: 9d30 263e d65c 90be 7dcd 57be 6d73 9e3e
000001b0: 12a7 5cbe 7326 89be 75d4 bbbe 92b4 a73e
000001c0: e01f 1d3e d018 773e 23ee 3abe f021 99be
000001d0: 83d4 883e f21b b43e 64dd 81be 7f94 a43e
000001e0: 838b 82be f552 9b3e 20bb 2cbe 4598 b03e
000001f0: 2c4c a03e 0030 95be d23c a2be 4ca4 96be
-0.32118922 -0.24420239 -0.17201261 0.04312918 -0.004104925 -0.25528073 -0.24842499 0.3118742
0.31328085 0.2694364 -0.22105868 0.35769904 0.3340376 0.33843997 0.3538193 -0.29189026
0.276889 -0.26141837 -0.17029904 -0.26258692 -0.37375006 0.31848118 0.28604126 0.3366002
0.2594377 -0.3243835 -0.11178047 -0.26674423 0.06622946 -0.1501855 0.39719513 -0.17424034
-0.27556863 -0.27782992 -0.2736282 -0.2514379 0.3615417 0.3455858 -0.27765185 0.30514535
-0.25102052 0.2614281 0.16371219 0.27595103 0.14807358 -0.32436174 0.30103016 -0.22762462
-0.17894912 -0.326324 0.328973 0.3122147 -0.28091893 -0.31271255 0.28636312 0.3511084
-0.28707376 -0.26407138 -0.28185648 0.2590889 0.3474591 0.33166805 0.28374246 0.16477591
0.25891656 0.24675924 0.2914459 -0.28338954 0.2691131 0.3232808 -0.28052658 0.13471727
-0.32233498 -0.3170569 0.2803309 -0.25336415 0.35364544 -0.2401929 -0.3549854 0.33370408
0.32131687 0.3286209 0.35788977 0.25547105 -0.2280265 0.2728655 0.2777068 0.3504483
-0.30151868 0.3096338 0.33605504 -0.28597572 0.16482197 -0.28981078 0.12075628 0.34522548
-0.27763444 -0.3184841 -0.31954747 -0.26946792 -0.3047582 0.33115557 0.31289548 -0.26998255
0.16229482 -0.28195828 -0.21074481 0.30947438 -0.21548107 -0.26787147 -0.3668553 0.32754952
0.1534419 0.24130559 -0.18254904 -0.29908705 0.26724634 0.3517757 -0.2536422 0.32144544
-0.25497064 0.3033673 -0.16868258 0.34491172 0.31308115 -0.29138184 -0.31687027 -0.29422224

convs.0.linear2.weight f4 [128, 128]
00000000: ad60 83be 9f31 423c 73f0 7f3d 180c cf3c
00000010: 41d9 b93d 7dc2 02be c327 0ebe 95e5 5a3e
00000020: 5aef 713e 3123 d73d 345f cfbd 198b 433e
00000030: 8dd4 823e fa3d 883e dd47 a93e 18ca 95bd
00000040: 5015 763e c0e5 83bd 14e3 153d 0184 0fbe
00000050: 3758 74be 0969 7f3e d696 013e 8eb8 ad3e
00000060: 4bc6 3c3e c841 77be 6f73 0abe 37b6 45be
00000070: 0c03 7dbc 1f22 b6be c817 bb3e bfbb c4be
00000080: 6377 9abd 5bd6 44be f7ca 1bbe ad0d 3bbe
00000090: 907a d23e b27d 873e 122f 8bbd 2968 0a3e
000000a0: 33be c4bd 643c 593e 6ad6 933e b189 173e
000000b0: 8b7c ab3e eb3c e1bd 3d68 4a3e fc47 17be
000000c0: 579a 40be 721f 6fbe e3dc 9a3e 75ba 8b3e
000000d0: 2b62 0bbe 10e5 76be 0ed5 4d3e 39de 983e
000000e0: 1481 69be 0475 f6bd 4357 61bd 0204 593e
000000f0: 30eb 453e 227c a63e bc37 b53e 8777 9a3e
00000100: 00e7 0f3e ccf1 c93d 8e7b 4e3e 1df6 6dbe
00000110: fa21 5a3e fd7d a33e 8994 4bbe 9fc4 923e
00000120: 41d7 1dbe 8b40 2ebe 9d9a 0a3e 6aa4 8cbe
00000130: 09f3 ad3e 1ffb 90bb 3663 0fbe d30c 923e
00000140: 0dea 1d3e 2158 7e3e d4a6 8d3e 1af7 943d
00000150: b84c efbd c2bd 4b3e d1ab 673e 1ef5 753e
00000160: c5ee 97be ddf6 fc3d 525d e83e fff6 0ebe
00000170: dd2f 1c3e ba74 6ebe 0d1f 3d3e 596c 743e
00000180: 1d1d 18be 4dfd 1ebe c631 04be d41a 0abe
00000190: ae3a 10be b50e 673e 494e 3f3e 054e 20be
000001a0: f32a 983e 20f7 85be 0a82 9dbd 815e 913e
000001b0: de86 50bd e80a 04be 6cb6 75be afa0 a63e
000001c0: a3a0 9c3e ef14 003e 14d6 bcbd 1cca 40be
000001d0: d204 e23d 4b5c d03d bb91 29be 89ae 0f3e
000001e0: 2c70 c7bd 4eb1 833e 87f1 c1be 698f 9a3e
000001f0: a35b 2c3e 75df 62be 15c8 19be 9efa 06be
00000200: c0bd 32be b253 e7bd d941 cf3d da07 e3bc
00000210: 78fc 293e 5d0e 6abe e748 24bc 7eb3 4a3e
00000220: 7f83 603e 99f2 f33d b880 1abe fc8c 3f3e
00000230: 4f96 d53d cf82 b23e 556f 733e 3ec7 5abd
00000240: 8554 fa3d 444e bebd 1960 7a3d 8a2d fcbd
00000250: 67ed 8abe 8133 f13d b35f 3f3e 8567 a83e
00000260: 11fc 4d3e 02c5 69be 8e68 7cbe 7088 f9bd
00000270: 0f1f ffbc bbc0 aebe 799c dc3e f337 93be
00000280: 74d7 b5bd b943 48be 390f 40be 72b3 b8bd
00000290: cd37 b53e a337 f33d 2a61 3cbe b9b8 813e
000002a0: 1e5d 0abe 9340 403e 164b 483e dd63 9d3e
000002b0: 608d 4b3e 4707 25be 76ff 433e 8e0f 04be
000002c0: f3a7 57bd 3203 52be f27b 8e3e b531 843e
000002d0: 2c7c 08be 9c99 06be 4f41 ec3d 7788 853e
000002e0: 7f92 18be 46b4 0ebe 74b7 57be 275f eb3d
000002f0: d78b 443e c02f 853e cfea 7a3e 25de 883e
00000300: 11e7 203e 81b6 0e3e 372f 883e 7518 76be
00000310: 300f 4b3e 46f4 713e 04c2 1cbe 5c9f 973e
00000320: b612 95be b6be 54be 30fb 1a3e b325 25be
00000330: bad8 393e 43bc 74bd 7fcc 7dbe a4a8 333e
00000340: 78e0 9e3d c8f8 863e 6ac6 a93e 1a41 db3d
00000350: b765 c1bd 7b25 8b3e 74df 4a3e daa6 703e
00000360: a005 89be 99da 563e 0e50 a83e 18a5 4cbe
00000370: 65d0 cd3d f327 ddbd d666 163e 190c 9f3e
00000380: 30e5 69bd 1096 02be 120d 8fbe 2a17 40be
00000390: 50aa f1bd ddfd 153e 3123 393e 379d 16be
000003a0: 2cad 4a3e 3aa7 26be 9ba0 48bd 6c22 213e
000003b0: 7abc dabd cf74 37be 4e76 4dbe faab ad3e
000003c0: 301b 1e3e 5cb6 7e3e 25f3 293d 7aa7 56be
000003d0: 14eb 1f3e 454e 0d3e a49e 20be 39a3 1d3e
000003e0: cc23 97bd 4e00 943e 378a 5bbe 2838 3a3e
000003f0: 3168 663e dc70 35be 529c 6ebe e184 02be
-0.25659695 0.011852651 0.06248517 0.025274321 0.09074641 -0.12769504 -0.13882355 0.21376641
0.23626462 0.10504759 -0.101255804 0.1909603 0.25552788 0.26609784 0.3306264 -0.07313937
0.24031568 -0.06440306 0.03659351 -0.14015199 -0.23861776 0.24942411 0.12655196 0.33929867
0.18435018 -0.24146187 -0.13520597 -0.1930779 -0.015442621 -0.35572907 0.3654158 -0.3842449
-0.075423025 -0.19222395 -0.15214144 -0.18266936 0.41109133 0.26463085 -0.06796087 0.13516296
-0.0960659 0.21214443 0.28874522 0.14798619 0.33493456 -0.10997947 0.19766326 -0.14773554
-0.18808876 -0.23351839 0.30246648 0.27290693 -0.13611667 -0.24110818 0.20100805 0.29857042
-0.22803146 -0.12034038 -0.05501486 0.21192935 0.19327998 0.3251658 0.35394084 0.30169317
0.14052963 0.09860572 0.2016432 -0.23238416 0.21302024 0.3193206 -0.1988088 0.28665635
-0.15414144 -0.17016809 0.13535543 -0.27469188 0.33974484 -0.004424467 -0.1400269 0.2852541
0.15421315 0.24838306 0.27666342 0.072736934 -0.11684555 0.19896606 0.22624137 0.24019286
-0.29674354 0.12351773 0.45383698 -0.13961409 0.15252633 -0.23286715 0.18468876 0.23869456
-0.14854856 -0.15526314 -0.12909612 -0.13486797 -0.14084885 0.22564204 0.18682207 -0.15654762
0.29720268 -0.26165104 -0.076908186 0.28392413 -0.05090987 -0.12894785 -0.2399537 0.32544467
0.30591306 0.12507986 -0.0922052 -0.18827099 0.11036076 0.101738535 -0.16559498 0.14031424
-0.09738192 0.2572121 -0.37879583 0.30187538 0.16831832 -0.22155555 -0.15017731 -0.1318154
-0.17455196 -0.112952605 0.10119981 -0.027713705 0.16600215 -0.22857042 -0.010027147 0.19795033
0.21925162 0.11911506 -0.15088165 0.18706125 0.1042906 0.34865424 0.23772939 -0.05341267
0.12223152 -0.09292272 0.061126802 -0.123133734 -0.2713425 0.11777402 0.1868885 0.3289148
0.20115687 -0.22829059 -0.2464926 -0.121842265 -0.03114274 -0.34131417 0.4308813 -0.28753623
-0.08878985 -0.19557084 -0.18755807 -0.090186015 0.35394135 0.11875846 -0.1839644 0.25336245
-0.13512084 0.18774633 0.19559893 0.30740252 0.19878149 -0.16116057 0.1914042 -0.12896559
-0.052650403 -0.20509031 0.27828938 0.25819173 -0.13328618 -0.13144535 0.11535894 0.26080677
-0.14899634 -0.13935956 -0.21066076 0.11492758 0.1919397 0.26012993 0.24503635 0.26731983
0.15713145 0.13936807 0.26598522 -0.24032767 0.19830012 0.23628339 -0.15308386 0.2961377
-0.29115838 -0.20775875 0.15134883 -0.16127662 0.18149081 -0.059749853 -0.2478504 0.175448
0.07757658 0.2636168 0.3315919 0.107057765 -0.09443229 0.27177033 0.19811803 0.23501149
-0.26762104 0.20981826 0.32873577 -0.19984853 0.10049514 -0.10798635 0.14687666 0.31063917
-0.057103336 -0.12752557 -0.2793966 -0.18758836 -0.11800063 0.14647622 0.1807983 -0.1470841
0.19792622 -0.1627473 -0.04898129 0.15735787 -0.1068048 -0.17915653 -0.20064661 0.3392027
0.15440059 0.24874252 0.041491646 -0.20962325 0.15617019 0.13799389 -0.15685517 0.15394296
-0.073798746 0.28906482 -0.21439444 0.18185484 0.22500683 -0.17718834 -0.23301819 -0.12746002

convs.0.linear2.bias f4 [128]
00000000: 2772 893e b9a7 843e d157 603e 1262 88bf
00000010: 4b7e 94be 5828 883d 0383 06be 14b2 1fbf
00000020: 4cec c2bd 1e14 14be f2d6 863e 0097 6e3e
00000030: 3caa 863e 5267 a4be 17e0 8d3e b1b7 4cbe
00000040: 53d8 5f3e 54c3 c8bd 5e8e b5be 3584 8a3e
00000050: edb9 223e d4c2 40be e095 f9be 8a7e 81bd
00000060: 6114 46be 7bfd 12bf 4fbf 353e 860c 47be
00000070: 024e 98be f6d1 8e3e 5ded 5bbe 1768 fcbe
00000080: 1922 82bd c9fd cebd f8c4 273f 17f8 853e
00000090: e222 803e 3d11 9fbe ace3 75bf 7596 21be
000000a0: ee54 873e 9869 8b3e 8f4b 1ebe 7935 26bf
000000b0: 9f70 3a3e 1517 41bf 2b63 d13d 3395 33be
000000c0: bf66 ecbd 9333 65bd 9d0f 583d 2b86 38be
000000d0: 6873 9dbf a782 833e 5d86 9f3e 6c69 08bf
000000e0: 2501 353e 2b71 54bf d757 5b3e 8ecf 423e
000000f0: d624 13be 522d 493e ae50 913e ffed 73be
00000100: 18bf 8e3e a614 91bf 739c efbe b810 4ebd
00000110: f5ec 603e bc10 0ebf c7bb 91bf 461a 09be
00000120: fc76 233e 216d 473e f98b 4e3e 1f2b 95bd
00000130: 480f 2d3e 24e1 6a3e 5a8d c9be 87b3 52be
00000140: a63f efbe 8f1b 39be 690d ebbd 668d babd
00000150: 818c 1e3e 5d11 72be 0a9b 03be 9cbb 5b3e
00000160: 8b95 2bbf 3074 833e 4335 58bd 2763 25be
00000170: 69e4 26bf 3458 26be 0224 6f3e f519 60bf
00000180: 06d5 36be fc0b 20be 2ab4 63bd 2362 92be
00000190: 13ca 4bbf eb8a 4abe a400 653e 6cff 5bbe
000001a0: 4d2f 803e 4b8e 763e 410a 4cbe a871 81bc
000001b0: b25d 5bbe 7508 203e b467 673e c1f9 bbbd
000001c0: 3d46 8fbf e513 9e3e 3548 78bd 0d4f 81bd
000001d0: 285f 813e f16a 74bd 209e 30bf 7fe9 773e
000001e0: 8b4a 92bd e593 d4be 1d59 efbd 1531 2abf
000001f0: 634d 38bf 5183 8ebe 3723 393e 4883 593e
0.26844904 0.25909212 0.219085 -1.0654929 -0.29002604 0.0664832 -0.13135915 -0.623811
-0.09517726 -0.14460799 0.26335865 0.2329979 0.26301754 -0.32110077 0.2771003 -0.19991948
0.21859865 -0.09802881 -0.3546018 0.2705399 0.15891238 -0.18824321 -0.48747158 -0.063229635
-0.19343711 -0.5741803 0.1774876 -0.19438371 -0.29747015 0.27894562 -0.21477266 -0.49298164
-0.0635416 -0.101069994 0.65534925 0.2616584 0.25026613 -0.3106784 -0.96050525 -0.15780051
0.26431984 0.27229 -0.15458511 -0.6492534 0.18207024 -0.75425845 0.10223993 -0.17537384
-0.11543035 -0.055957388 0.052749265 -0.18019931 -1.2300844 0.25685617 0.311572 -0.5328586
0.17676218 -0.8298518 0.21420227 0.19024488 -0.1436952 0.19646195 0.28381866 -0.23821257
0.27880168 -1.1334426 -0.4679905 -0.050308913 0.21965392 -0.55494285 -1.138543 -0.13388929
0.15963358 0.19475223 0.20170583 -0.07283615 0.1690036 0.22937447 -0.39365655 -0.20576297
-0.46728247 -0.18076919 -0.11477167 -0.09109001 0.15483285 -0.23639436 -0.12852111 0.21458286
-0.6702506 0.25674582 -0.05278517 -0.16151105 -0.65192276 -0.16244584 0.2335358 -0.8753961
-0.178547 -0.15629572 -0.05559174 -0.28590497 -0.79605216 -0.19779555 0.22363526 -0.21484154
0.25036088 0.24077718 -0.19925787 -0.015801266 -0.2142246 0.15628226 0.22598153 -0.09178496
-1.119331 0.30874553 -0.060615737 -0.06313906 0.2526791 -0.0596723 -0.6899128 0.24210165
-0.07143124 -0.41519085 -0.11686919 -0.66481143 -0.7199308 -0.2783456 0.1807984 0.21241486

convs.1.a f4 [256, 1]
00000000: d3d1 56bc 77ed a5bb 3bf9 73bc 0000 0000
00000010: 3ff8 4732 205b 2f38 f362 25b6 0000 0000
00000020: b048 4c38 6807 2836 4967 863c 408d 583b
00000030: 190c 55bc 0000 0000 b73a ab3c b85e 1fb0
00000040: 8e5f 4dbc 4d3a 73ba 960b 3333 60de ff3b
00000050: 506d e9bc 35f2 85b4 0000 0000 0af1 a036
00000060: 347f 05b5 2819 e030 9899 a53b 815f 17b7
00000070: e8f2 0831 8112 78bc dd89 7c35 853f d232
00000080: 7590 e337 1f5f 92b6 8a44 a1bc 9138 b93c
00000090: 0fb2 593c 0000 0000 0000 0000 bdf2 d435
000000a0: 66a8 a2bc e64b 85bc c78d 3438 2ed2 20b2
000000b0: 3d66 acbc e647 c439 0334 85b9 d560 a335
000000c0: fa5c b9b9 3452 063c 60e2 a5ba c314 0438
000000d0: 0000 0000 7a2a 333c e8d2 6bbc 0000 0000
000000e0: 0020 29bb 65ec b731 4079 79bb e3ae 3dbc
000000f0: ea94 f8b2 c701 10bc 633f 34bc e4a6 ffb2
00000100: 85d4 f23b f303 9431 2a13 302f fec3 41b6
00000110: dbde a23c 0000 0000 d5c2 42ae 8d4b 05b8
00000120: 8d92 68bd 76d2 91bc e737 ce3a 19a9 2335
00000130: 8b7e 2ebc 5c76 f9bc b0ca 2db4 2551 8db7
00000140: 0000 0000 f786 7537 5214 4b37 14e0 83b4
00000150: c4d4 9d3c 0000 0000 6c1c 79b7 de5f 98bc
00000160: 0000 0000 6cda 8d3c 8c49 9937 080f f635
00000170: 68ea e132 a41f 81b5 3719 41bc 2e2d d630
00000180: 51a9 3bb5 5bca b8b3 c948 59b4 9752 4835
00000190: 0000 0000 1de4 33b5 3a1c adbc b210 aa34
000001a0: 2767 a53c 0dc5 a13c 9248 05b5 e5ea 2db4
000001b0: 1279 9fb5 b738 5ebd c44e 7cbc b596 48b7
000001c0: 8025 3132 9b4b 343d ec29 9b33 491a bdb9
000001d0: fcc5 06bd 9440 0b36 bb63 f5b2 3959 86bc
000001e0: 801a 8236 0000 0000 b4df 4c37 120d 22b5
000001f0: 0000 0000 00a6 c333 6904 febc d411 cfbc
00000200: 7f1e 05be accd 04be 01db 05be 5bff 5a3f
00000210: 5cb2 2d3f d9c6 ca3e 9761 213f 9293 463f
00000220: deec 333f e635 353f f9ce 03be 2b86 11be
00000230: fd33 0abe 9cb7 023f 9edd 00be b10d 1a3f
00000240: bf5f 00be 600c 063f c60a 583f 53c1 11be
00000250: b7de 29be 940b 0f3f 009e 403f b0ca 0b3f
00000260: 7ab9 1a3f a2cd 473f 4eea 10be 6b79 163f
00000270: b102 273f 2fd5 05be 4b42 3f3f 0519 513f
00000280: f052 323f 7229 2c3f 18d2 2abf 76fd 01be
00000290: e3ec 06be 065f 183f 839e 5b3f aff3 123f
000002a0: 9656 08be 87db 07be 3f01 2f3f df69 883f
000002b0: d213 04be b4d2 073e 4f4c 983e c1c7 163f
000002c0: 07da 043f 3030 1cbe b87f 053e 231e 2c3f
000002d0: 4e36 653f 6059 0cbe 018d 0cbe d8d2 3f3f
000002e0: 059e 18be fa48 5a3f ebe9 0cbe 2dca 0dbe
000002f0: 930c 113f ff4e 13be 6ef7 0fbe b2a0 3d3f
00000300: 61d3 03be 216c 8a3f 9d15 473f a63c fb3d
00000310: bf01 16be 4a81 3c3f 1eff 653f ae29 343f
00000320: a398 21be 87f8 15be fadc 10be 7a58 243f
00000330: 63d3 19be d4de 0cbe 4fd9 103f b496 163f
00000340: 2a2a 393f 6de2 263f f22e 2e3f 6ec7 263f
00000350: cac3 27be d14f fa3e a5fd 1f3f 6b57 12be
00000360: f183 493f 60ab 04be 0710 843e 4167 1e3f
00000370: f536 4f3f 5c39 1f3f 6f16 07be d524 3a3f
00000380: 4ad2 103f c19a 0c3f 41ea 2e3f d5a4 313f
00000390: fe4b 543f 92e5 153f 9f5b 00be 8694 123f
000003a0: ba0c 0bbe a449 03be e139 1e3f cec5 023f
000003b0: 10b0 133f 8b6e fdbd 02c0 08be 3d1f 343f
000003c0: 0622 543f 233b 0fbe f5c7 4a3f 1bbf 77bd
000003d0: e99e 13be 51b0 0d3f 2796 4c3f 35ae 08be
000003e0: f652 313f 7b21 293f e85d 2b3f c931 913f
000003f0: 6036 503f cd4e 533f 640d 0ebe b64c 00be
-0.013111549 -0.0050637084 -0.014890964 0.0 1.1639769e-08 4.1808118e-05 -2.4644512e-06 0.0
4.8705086e-05 2.5038262e-06 0.016406672 0.0033043176 -0.013003373 0.0 0.02090202 -5.7978466e-10
-0.012534989 -0.0009278402 4.1687223e-08 0.0078084916 -0.028494507 -2.494941e-07 0.0 4.796432e-06
-4.9731466e-07 1.6305295e-09 0.00505371 -9.022538e-06 1.992868e-09 -0.01514113 9.4077933e-07 2.4476103e-08
2.7127777e-05 -4.3622126e-06 -0.019686002 0.02260998 0.013287081 0.0 0.0 1.5865877e-06
-0.01985569 -0.016271543 4.3047385e-05 -9.361015e-09 -0.021044845 0.00037437602 -0.0002540649 1.2172628e-06
-0.00035355223 0.00819831 -0.0012655966 3.149059e-05 0.0 0.01093542 -0.014393546 0.0
-0.0025806427 5.352876e-09 -0.0038066655 -0.011577341 -2.8938718e-08 -0.008789486 -0.011001441 -2.97618e-08
0.007410588 4.307816e-09 1.6013915e-10 -2.8873324e-06 0.019881656 0.0 -4.428354e-11 -3.1780033e-05
-0.056780387 -0.01780055 0.0015733213 6.09683e-07 -0.010650287 -0.030451946 -1.6185618e-07 -1.6846296e-05
0.0 1.4634562e-05 1.2104474e-05 -2.456369e-07 0.019266494 0.0 -1.4848174e-05 -0.0186004
0.0 0.017316066 1.827327e-05 1.8332803e-06 2.6300043e-08 -9.620458e-07 -0.011785797 1.558339e-09
-6.9909316e-07 -8.604976e-08 -2.0236179e-07 7.462599e-07 0.0 -6.7014645e-07 -0.021131624 3.1677115e-07
0.020190788 0.019747281 -4.9651965e-07 -1.6197335e-07 -1.1881659e-06 -0.054253306 -0.015399639 -1.1956018e-05
1.03112825e-08 0.044017415 7.2253755e-08 -0.00036068473 -0.032903656 2.0750203e-06 -2.8567106e-08 -0.016399967
3.877387e-06 0.0 1.22114325e-05 -6.036872e-07 0.0 9.11059e-08 -0.031007962 -0.025277056
-0.12999915 -0.12969083 -0.13071825 0.8554589 0.6785028 0.39604834 0.63039535 0.77568924
0.70283306 0.7078537 -0.12871923 -0.14211337 -0.13496394 0.51061416 -0.1258454 0.6017714
-0.12536524 0.5236263 0.8439144 -0.14233904 -0.16588865 0.5587704 0.7524109 0.5460615
0.60439265 0.78048146 -0.1415188 0.5877902 0.6523848 -0.13069604 0.7471053 0.816788
0.696578 0.6725074 -0.6672683 -0.12694344 -0.13176303 0.59519994 0.85788745 0.5740308
-0.1331428 -0.13267337 0.68361276 1.0657309 -0.12898186 0.1326397 0.2974572 0.5889855
0.51895183 -0.15252757 0.13037002 0.67233485 0.8953599 -0.13705969 -0.13725664 0.749311
-0.1490403 0.85267603 -0.13761108 -0.13846655 0.5665981 -0.14385603 -0.1405923 0.74073327
-0.12873603 1.0814248 0.77767354 0.12267427 -0.14649104 0.7363478 0.898424 0.703761
-0.15780883 -0.14645587 -0.14146796 0.64197505 -0.15022044 -0.13756877 0.56581587 0.58823705
0.7232996 0.6518925 0.6804038 0.65148056 -0.16383281 0.4888902 0.62496406 -0.1429116
0.7871695 -0.12956 0.25793478 0.618763 0.8094323 0.621969 -0.13192151 0.7271245
0.56570876 0.54923636 0.68326193 0.6939214 0.82928455 0.5855342 -0.1253495 0.5725788
-0.13579074 -0.1282106 0.61807066 0.51083076 0.57690525 -0.123746 -0.13354495 0.70360166
0.82864416 -0.13987403 0.7921136 -0.060484987 -0.14416088 0.5534716 0.79916614 -0.13347705
0.69267213 0.6606671 0.66940165 1.1343318 0.8133297 0.82542115 -0.13872296 -0.12529263

convs.1.linear1.weight f4 [128, 128]
00000000: ff12 08bd 0064 14bd 279d 2fbc 046f 4dbf
00000010: 92d6 57bf b9cb e93c 3a5e acbd e991 11bf
00000020: 82f6 1ebe cf2a 19be 4b78 c43d e46f 173d
00000030: a974 44bc 4aeb 70bd 7f22 bf3c f65c 2ebe
00000040: 05c4 97bd 7660 08be 7960 88bf ec80 aa3c
00000050: 874c 4dbd f5d4 3dbe 73fc e1be ea31 e9bd
00000060: ad41 d8bd 11bc 07bf 7589 7d3d 0a73 47be
00000070: 3352 8fbe c3fc 663d 70dc 61bf d7fb 7dbf
00000080: 79f0 26be e6bf 09be 73c5 e1be b0e1 96bd
00000090: f3c4 563d 9bfa 68be a660 31bf f998 cabd
000000a0: e8e7 08bd 318d c73c d676 2bbe 166f 9abf
000000b0: 9952 86bd ba6d 71bf d2c8 e83a 77d4 a7bd
000000c0: 1e98 1fbe 81a2 b7bb c205 073c 569c 5cbe
000000d0: 3294 6cbf d304 833d 2df7 463d 23f6 cbbe
000000e0: 8527 32bc e91a 83bf aed2 043c 5778 97bc
000000f0: bbef 54be 04fc 4f3c e0ce 43bd edc1 43bf
00000100: a2bf efbc 6d43 b1bf 274d 17bf 79a5 26bd
00000110: ad04 5ebd adab e4be 1637 56bf 50c0 c6bd
00000120: 09ba 75bd aa74 51bd e2df 4d3c 1994 efbd
00000130: 7f17 b0bc a942 48bd 2d39 9abf fc93 a2bd
00000140: 5e71 e1be 227a 5abe 62b6 0ebe 407b 6dbf
00000150: b5f7 7cbd 998a 18be 2c6e 4ebe c348 ce3d
00000160: 137e 02bf 1599 8f3d eb82 06be dec2 35be
00000170: efde 72bf 4453 85be b835 413d 015d 7fbf
00000180: fc79 65be 542b 4fbd 4670 7cbe 797a 6dbf
00000190: 27da 18bf 4e28 a2bd 7e02 9c3d 6cf8 42be
000001a0: 1ce5 013c 420f 4d3d bb02 cfbd f367 35bd
000001b0: 2a7b 0cbe 5647 30bd 1d06 a03c 1aaf 45be
000001c0: 0514 dabf ae24 cb3d dc11 3abf caae 153d
000001d0: 4985 ac3d c720 3cbe e523 81bf a3d6 96b9
000001e0: 8db4 f7bd 99f8 8ebe 50aa f6bd 7637 95bf
000001f0: 6f19 03bf 119d 6cbf c48b 973d 8928 21bd
00000200: efa4 b2bb 848d 59bc dc89 7e3d 976a dfbd
00000210: 5086 a0bd 1ebe b03d 310c 9abd c2f3 28be
00000220: 615b 00be 44ff eebd 9370 cdbd 79f7 663d
00000230: 598a 5bbd 460b a6bd 2e66 2c3d 2464 07be
00000240: c77e ccbc 7fdf f6bb a25d d4bd 6212 5abb
00000250: 7877 28bd 55bc 4dbd dd64 4abd a63b 25bc
00000260: 032c ecbd 8f08 21be bb11 69bd 5b09 b1bd
00000270: 177a c0bd 20a5 7c3d 9d80 33be a5c8 04be
00000280: e9f9 6cbd 4dd8 6ebd 5c09 febc 7478 54bd
00000290: a5a1 483d b137 45be 8ca1 65bd b451 b9bd
000002a0: e220 d7bd fad4 58bd 1e2c f2bd 185e 8fbd
000002b0: 038c 9ebd f9da 68bc 11b4 9bbc 3995 b9bd
000002c0: fbbd 1ebe 8bf4 c83c ff1f 8f3d 700c 0bbe
000002d0: 8c6a 92bd 92a7 913d 687e b2bd b33b 3cbe
000002e0: 56b7 253d 39ff 9abd 3bae bfbd 02d0 5f3c
000002f0: 5a30 48bd 65cb 4f3d df1f d2bd 6abf 73bd
00000300: 4b5e a6bd 1e7b b8bd 72ca fcbc 784f a93d
00000310: 8de1 293d 1aff 8abd df5c 46be c4d5 6cbd
00000320: f246 f1bc ac7b 113d 618f 613d 27db 57bd
00000330: c686 4c3d f615 bbbc f143 08bd 3a14 b2bd
00000340: 6714 01be 3c39 89bd aeaf 64bd 6cd4 b6bc
00000350: 09e2 993d ee10 26be dfad 1ebd 9c38 2dbc
00000360: 0898 debd 61bf 82bd 8149 fcbc 54af 3bbe
00000370: e5c4 c3bd a087 53bd 4400 d8bb 916d 19be
00000380: 8d94 2fbe 1d23 26be 07a1 babd 0376 39be
00000390: 0dae 94bd 2d43 f6bd eb82 6ebc aa4b 08be
000003a0: 5b3d 743c 1014 583d 8f56 f6bd 2abe ec3b
000003b0: 105b 05bd 0c41 873d 54d0 933d 07a2 e6bc
000003c0: 5c16 96be c9fe 0cbd cb06 b6bb 867f e13c
000003d0: 10f4 a3bb 4199 afbd bbb8 10be 74cd 3dbd
000003e0: 3f81 82bb d079 16be 8103 33be 3424 d0bd
000003f0: 37ec 12bd 4f95 75bd c439 2d3c d6bc afbd
-0.03322124 -0.03622818 -0.01071862 -0.8024752 -0.84311783 0.028539525 -0.0841641 -0.56863266
-0.15523723 -0.14957736 0.095932566 0.03697194 -0.011990705 -0.05881814 0.023331879 -0.1702765
-0.07410435 -0.13318047 -1.0654441 0.020813428 -0.05012181 -0.18538268 -0.44137916 -0.113864735
-0.10559402 -0.5302134 0.061898667 -0.19477478 -0.279924 0.056393396 -0.88226986 -0.992124
-0.1630267 -0.1345211 -0.44095954 -0.07367265 0.05243392 -0.22751848 -0.692881 -0.098924585
-0.033424288 0.024359317 -0.16744551 -1.2065151 -0.06558723 -0.94308054 0.0017760044 -0.08194821
-0.15585372 -0.005604089 0.008241119 -0.21544012 -0.9241363 0.063974045 0.04857557 -0.39836225
-0.01087368 -1.0242587 0.008106871 -0.01849 -0.20794575 0.012694363 -0.047804713 -0.7646778
-0.029266182 -1.3848702 -0.591021 -0.04068515 -0.054203678 -0.44662228 -0.83677804 -0.097046494
-0.05999187 -0.05113665 0.012565585 -0.11698169 -0.021495579 -0.048891697 -1.2048699 -0.07938382
-0.44031805 -0.21335652 -0.13936761 -0.9276619 -0.06175967 -0.14896621 -0.20159215 0.10072472
-0.50973624 0.0701162 -0.13135879 -0.17750117 -0.9487142 -0.2604009 0.04717037 -0.9975129
-0.22409815 -0.05057843 -0.24652204 -0.92765003 -0.59707874 -0.07917844 0.07617663 -0.19040078
0.007928159 0.05006338 -0.10107943 -0.044288587 -0.13718858 -0.04303678 0.019534165 -0.19305077
-1.703736 0.099191055 -0.726835 0.036543645 0.084238596 -0.18371879 -1.0089079 -0.00028770146
-0.12094984 -0.2792404 -0.12044203 -1.165755 -0.51210684 -0.92427164 0.07399705 -0.039345298
-0.0054517905 -0.013278369 0.06214319 -0.10909002 -0.07838118 0.08630012 -0.075218566 -0.16499236
-0.12534858 -0.11669782 -0.100312375 0.056388352 -0.053598735 -0.08107619 0.042089634 -0.13221794
-0.024962796 -0.007533967 -0.103694215 -0.0033275117 -0.04112956 -0.050228436 -0.049412597 -0.010085022
-0.11531832 -0.15725921 -0.056901675 -0.086443625 -0.09398287 0.061680913 -0.17529531 -0.12967165
-0.05785552 -0.05831175 -0.031010322 -0.051872686 0.04898228 -0.19259526 -0.056062266 -0.09048787
-0.10504319 -0.052937485 -0.11824821 -0.07000369 -0.07741549 -0.014212363 -0.01900676 -0.09061665
-0.1550216 0.02453067 0.06988525 -0.13578963 -0.071492285 0.071120396 -0.08715516 -0.18382148
0.040458046 -0.07568211 -0.09359404 0.013660433 -0.048874237 0.05073108 -0.10259985 -0.05950872
-0.08123454 -0.09007858 -0.030858252 0.082671106 0.041474868 -0.06786938 -0.19371365 -0.05782105
-0.029452775 0.035518333 0.055068377 -0.052699234 0.049933217 -0.02283762 -0.03326792 -0.08695264
-0.12605439 -0.0670037 -0.055831604 -0.022318088 0.07513816 -0.16217396 -0.038740035 -0.010572579
-0.108688414 -0.06384159 -0.030796768 -0.18328601 -0.09559039 -0.051643014 -0.0065918285 -0.14983203
-0.17146511 -0.16224332 -0.09112745 -0.18111424 -0.0725976 -0.120245315 -0.01455758 -0.13310114
0.014907206 0.052753508 -0.120282285 0.0072248178 -0.032557547 0.066042036 0.0721747 -0.028153433
-0.29313934 -0.03442267 -0.005555009 0.027526628 -0.0050034598 -0.08574153 -0.14132969 -0.046338513
-0.0039826925 -0.14694905 -0.17481805 -0.10163155 -0.035869803 -0.059956845 0.010572854 -0.085809395

convs.1.linear1.bias f4 [128]
00000000: 8438 213e 16de b4ba f475 4fbe 6402 7dbd
00000010: 809b 2dbe 00c9 12be b99f 3d3e 5111 c2bd
00000020: 0aa9 e43d cb37 4dbe 1bc2 3e3e 7ada 1bbe
00000030: b87a 2fbe 6f79 6d3a 0619 463e d618 1f3e
00000040: ed4b 2ebc f654 1abe 2b81 4d3e 3c0f 3fbe
00000050: 54ac 503e 75e4 4f3e f999 073e 45d4 fa3d
00000060: c5b2 483e 363a 473e 4f3d 063e 4426 3b3e
00000070: 0b79 12be a148 5c3e 4eb7 383e ae62 c4bd
00000080: 732e 0e3e 13c0 88bc 91bd 2bbe 337c 8f3a
00000090: ce25 463e 75dc 1c3e d04d 5f3e 6c4d 423e
000000a0: 60de 283e 610c 44be e801 323e 6143 4e3e
000000b0: 8490 0ebe 5842 96bd 803c 633e 079d 483e
000000c0: e762 293e 950c e6bc 4dc7 0c3e 5c43 4fbe
000000d0: 7956 2e3e 8d7d 4d3e 83e2 8cbd 8610 e4bd
000000e0: fbae e1bd fef6 4b3e 7b25 0e3e 3e3b 3ebe
000000f0: f861 523e 6acb 293e 3aef eabc d8e5 68be
00000100: a532 28be f45d f1bd 3173 1f3e 7b89 09be
00000110: 31d3 1b3e 9df0 29be 9463 27be 5655 1fbe
00000120: 5d2b 37be ef90 293e c6b2 3b3e 3bcf 143e
00000130: 57d2 40be 3997 07be c784 073e 2781 43be
00000140: fb91 3b3e 1b16 2bbd 7932 143e 5e5a 51be
00000150: 6811 42be 609d 0b3e d9b7 3abe 4e92 12be
00000160: 669a 1d3e 55ae 28be 63c4 20be 12a2 1a3e
00000170: 21e6 283e f2ae e4bd 9272 363e 443a 5dbe
00000180: e4ad 27be d537 06be ccf5 5abd f881 ea3d
00000190: e323 3abe 9cdc 2abe cef8 5c3e 6e77 6d3e
000001a0: 0086 f43d a11f 8c3a 7e5f 4bbe a627 84bb
000001b0: 0797 ff3d 3ab9 3d3e ca97 51be 54a0 a23c
000001c0: 7ed5 54be f5ba 1c3e 421a 153e 9d77 3f3e
000001d0: 4dd3 d43d 631d 26be ec27 36be b1b8 03be
000001e0: 0bf5 363e e349 0d3e 6799 26be 09a3 113e
000001f0: aa69 263e 7352 423e 4cca 283e 490e 10be
0.15744215 -0.0013799097 -0.2025984 -0.061769858 -0.1695385 -0.14334488 0.1851796 -0.09475959
0.11165054 -0.20040815 0.18628733 -0.15220061 -0.17136657 0.00090589275 0.19345483 0.15536818
-0.010638219 -0.15071473 0.20068805 -0.18658155 0.20378238 0.20301993 0.1324233 0.122475185
0.19599445 0.194558 0.13109325 0.18276316 -0.14303987 0.2151208 0.18038675 -0.09589134
0.13884906 -0.01669315 -0.16771533 0.0010947048 0.19350359 0.15318473 0.21807027 0.18974847
0.1649108 -0.19145347 0.1738354 0.2014289 -0.13922316 -0.07336873 0.22191048 0.19591151
0.16541635 -0.028082171 0.13747902 -0.2024054 0.17025174 0.20067425 -0.06879141 -0.11135964
-0.11019703 0.19918439 0.13881485 -0.18577287 0.20545185 0.16581503 -0.028678525 -0.22743928
-0.1642557 -0.11785498 0.15571286 -0.13431351 0.15217282 -0.16595693 -0.1634658 -0.15559897
-0.17887636 0.16559194 0.18329915 0.14532177 -0.18830238 -0.1324128 0.13234244 -0.19092236
0.18317406 -0.04176913 0.14472379 -0.20444629 -0.18951952 0.13634253 -0.18234195 -0.14313623
0.1539093 -0.16472752 -0.15699916 0.15100887 0.16494037 -0.11166181 0.17817143 -0.21604258
-0.16374928 -0.13107236 -0.053457066 0.11450571 -0.18177752 -0.16685718 0.21579286 0.2319009
0.11939621 0.0010690578 -0.19860646 -0.004033047 0.12479978 0.1852769 -0.20468059 0.019851841
-0.20784566 0.15305693 0.14560798 0.18697973 0.10391865 -0.16222148 -0.17788666 -0.12863423
0.17866914 0.13797717 -0.16269456 0.14222349 0.16251245 0.18976764 0.1648342 -0.1406795
