Saved_Models/TSP_200/scatgnn_layer_2_hid_64_model_270_temp_3.500.pth (torch, 179911 bytes, 24 tensors)

bn0.weight f4 [2]
0	0x3f800000	1.0
1	0x3f800000	1.0

bn0.bias f4 [2]
0	0x00000000	0.0
1	0x00000000	0.0

bn0.running_mean f4 [2]
0	0x00000000	0.0
1	0x00000000	0.0

bn0.running_var f4 [2]
0	0x3f800000	1.0
1	0x3f800000	1.0

in_proj.weight f4 [64, 2]
0	0xbf2127b3	-0.629512
1	0x3e8b6143	0.27222642
2	0xbf385f24	-0.72020173
3	0xbf330dd5	-0.6994298
4	0xbe3977d7	-0.18112122
5	0xbf8ec91d	-1.1155125
6	0x3e9f76f3	0.3114544
7	0xbe9c68ec	-0.305488
8	0xbeada16e	-0.33912224
9	0xbf09eee7	-0.5388016
10	0x3ef3a0b9	0.4758356
11	0xbe96e8ca	-0.2947448
12	0x3f05c430	0.52252483
13	0x3d483379	0.048877213
14	0xbe33637f	-0.17518423
15	0xbf1b6ebd	-0.6071585
16	0x3e9a7e09	0.30174282
17	0xbf866f95	-1.0502802
18	0x3f013998	0.50478506
19	0xbf5b862e	-0.85751617
20	0x3f15e64f	0.5855455
21	0x3e9d979f	0.3077974
22	0xbd2d7d9f	-0.04235613
23	0xbf3ac28d	-0.7295311
24	0x3e3adcc7	0.18248282
25	0x3f2cd0e7	0.6750626
26	0x3f4c9646	0.799168
27	0x3f131190	0.57448673
28	0x3f7f0f43	0.9963266
29	0x3f0e69b8	0.55630064
30	0x3f90df58	1.1318159
31	0xbe145bc7	-0.14488135
32	0x3eaac0a6	0.33350104
33	0xbf029399	-0.51006466
34	0xbf39547f	-0.72394556
35	0xbe8d2263	-0.27565297
36	0xbf6a95ad	-0.9163464
37	0xbe875bac	-0.26437128
38	0x3ee33718	0.4437797
39	0xbf8d8c2b	-1.1058401
40	0x3f873f69	1.0566226
41	0x3f27069e	0.6524447
42	0x3f766512	0.9624797
43	0xbcb6b648	-0.022303715
44	0x3f7fa373	0.9985878
45	0xbeec8a0b	-0.46199068
46	0xbe416568	-0.1888634
47	0x3f83a5c4	1.0284963
48	0x3f60d451	0.8782397
49	0xbe3ee0b2	-0.18640402
50	0xbefc3352	-0.49257904
51	0xbf75de4a	-0.9604231
52	0xbf56cb3b	-0.83903855
53	0x3f32d65e	0.6985835
54	0x3f4101e0	0.75393486
55	0xbe544a19	-0.20731391
56	0xbde3afb5	-0.11117498
57	0xbf362c76	-0.7116159
58	0x3e175747	0.14779387
59	0x3f36384e	0.71179664
60	0xbf473978	-0.77822065
61	0x3f066b94	0.525079
62	0xbc5ecab2	-0.013598131
63	0x3f4c890a	0.79896605
64	0xbf33c709	-0.7022558
65	0x3efc705f	0.49304482
66	0xbe0061e0	-0.12537336
67	0xbf7480e5	-0.9550918
68	0x3f110476	0.5664743
69	0xbf85b16f	-1.0444773
70	0x3f33bd93	0.7021114
71	0x3eb15c5d	0.3464078
72	0x3f0c95d0	0.54916096
73	0xbeb56ccf	-0.35434577
74	0x3f690908	0.91029406
75	0xbef90832	-0.48639065
76	0x3d822c7d	0.06356142
77	0xbf40cb8a	-0.75310576
78	0x3e946cff	0.28989407
79	0xbf5fd0d9	-0.8742805
80	0xbf3e018e	-0.7422112
81	0x3f03fc5f	0.5155696
82	0x3f72640c	0.9468391
83	0x3f678652	0.9043933
84	0xbd09606f	-0.033539232
85	0x3f54d87f	0.83142847
86	0xbf6cd758	-0.9251609
87	0xbf39935d	-0.72490484
88	0xbda08f56	-0.07839839
89	0x3f252776	0.6451334
90	0x3f523b06	0.8212131
91	0xbebb1ae0	-0.36543941
92	0xbf864d28	-1.0492296
93	0x3eb37dc2	0.35056883
94	0xbefb5e49	-0.4909537
95	0xbd2fc65b	-0.042913776
96	0xbef2b49c	-0.4740342
97	0xbf775adb	-0.9662301
98	0xbf17567c	-0.5911634
99	0xbf238fac	-0.638911
100	0xbf541be3	-0.8285505
101	0x3e9b8663	0.30375966
102	0xbf6d6d4f	-0.92744917
103	0xbe53f278	-0.20697963
104	0xbf5ad65c	-0.85483336
105	0xbea9c99e	-0.33161634
106	0xbe874643	-0.26420793
107	0xbf5c2d47	-0.8600659
108	0x3e1a2a8b	0.15055291
109	0xbf51f1c5	-0.82009536
110	0xbf58d8d2	-0.8470584
111	0x3ea3cb06	0.31990832
112	0x3f2cb212	0.67459214
113	0x3f834a89	1.0257121
114	0x3edbd4eb	0.4293588
115	0xbe071311	-0.13190867
116	0xbdd30b70	-0.10304916
117	0x3f46a3df	0.775938
118	0x3d12c8d3	0.035836052
119	0xbe7b9aa6	-0.24570712
120	0xbf2458cd	-0.64198
121	0xbf40a1a5	-0.7524665
122	0xbd436b3c	-0.04770969
123	0xbec032e1	-0.37538818
124	0xbefc276c	-0.49248827
125	0x3f890ca8	1.0706987
126	0xbe510aca	-0.20414272
127	0xbf739432	-0.95148003

in_proj.bias f4 [64]
0	0xbe831f1e	-0.25609678
1	0x3ea10c1a	0.31454545
2	0xbcc4b728	-0.024013117
3	0x3eff3d88	0.49851632
4	0x3efe1fde	0.49633688
5	0x3eb7ff11	0.35936788
6	0xbf117118	-0.5681319
7	0xbe8eedb8	-0.2791574
8	0xbed30210	-0.4121251
9	0xbbb27c75	-0.0054469653
10	0xbe438c5c	-0.19096512
11	0xbcb89f91	-0.022537025
12	0x3e72d7bc	0.23715109
13	0xbdeb8acb	-0.11501082
14	0xbecfc5f7	-0.40580723
15	0x3b5e6859	0.0033936708
16	0x3e8da758	0.27666736
17	0xbf1d2ba2	-0.61394703
18	0x3ed2d080	0.41174698
19	0xbbab11f6	-0.005220647
20	0x3b67c079	0.0035362525
21	0x3eb8d5db	0.3610066
22	0xbf133227	-0.574984
23	0x3ecae2c8	0.39626145
24	0xbe752243	-0.23938851
25	0xbec87e6f	-0.3915896
26	0x3b6e9b67	0.0036408545
27	0xbe1f4762	-0.15554574
28	0xbe74ff8f	-0.23925613
29	0xbe5f7b69	-0.21824421
30	0xbea50203	-0.32228097
31	0xbefa8f3e	-0.4893741
32	0x3e6b872b	0.23000781
33	0xbf0fa00e	-0.561036
34	0xbdbc1566	-0.09183769
35	0xbb465957	-0.0030265653
36	0xbf007248	-0.5017438
37	0x3c9c1b51	0.019055994
38	0x3edcd613	0.43132076
39	0xbd9b3846	-0.07579093
40	0xbedad2a1	-0.42738822
41	0x3e8b6c47	0.27231047
42	0xbdbd32b3	-0.09238186
43	0x3f1d3609	0.61410576
44	0x3f0bde03	0.5463564
45	0xbcc4a19d	-0.024002844
46	0xbea2d8ca	-0.31806022
47	0xbe96bda4	-0.2944156
48	0x3eff7407	0.4989321
49	0x3c87ddec	0.016585313
50	0xbe1a963d	-0.15096374
51	0xbf228e47	-0.6349835
52	0x3eda0419	0.4258125
53	0x3ecf8c2d	0.40536633
54	0xbd98e666	-0.0746582
55	0xbdeae2e7	-0.114690594
56	0xbef0518e	-0.4693722
57	0xbe57170f	-0.2100489
58	0xbe3666d0	-0.17812657
59	0x3ec13627	0.37736627
60	0x3c8fde14	0.01756195
61	0x3e60df1a	0.21960106
62	0xbd6b6e5a	-0.057478286
63	0xbf1a06ce	-0.60166633

convs.0.a f4 [128, 1]
0	0xbc1fafe7	-0.009746528
1	0xbcbaea9a	-0.022816945
2	0xbba42f6f	-0.0050105373
3	0xba57dfa2	-0.0008234923
4	0xbc9abb72	-0.018888209
5	0xbbaa72c5	-0.00520167
6	0xba1885cb	-0.00058182765
7	0x3a3e4593	0.0007258292
8	0xbbb80b84	-0.005616607
9	0x3a4adc9b	0.0007738561
10	0x3ab3768e	0.0013691948
11	0xbba5a9f2	-0.0050556595
12	0x3a045c89	0.0005049189
13	0xbb1ea230	-0.0024205558
14	0x3b54b910	0.0032458939
15	0x3b036c1f	0.002005346
16	0xbbb0b6cb	-0.0053928844
17	0xbb9e6522	-0.0048338333
18	0xbc926d05	-0.01787425
19	0xbc15494c	-0.009111714
20	0x3ab7809b	0.0014000119
21	0x3be9453f	0.0071188505
22	0x3a88be25	0.0010432644
23	0xbc445285	-0.011982565
24	0x3c2d6cfe	0.010585068
25	0x39cc05e5	0.00038914304
26	0xbc5c7691	-0.013456003
27	0x3c25e7e2	0.010126086
28	0x3b10c747	0.0022091435
29	0xbb8b6ff7	-0.0042552906
30	0xbc2fe492	-0.010735648
31	0xba9b055a	-0.0011827156
32	0xbc71f847	-0.014768667
33	0x3a0b2181	0.00053074217
34	0xbbaf7a90	-0.0053551868
35	0xbb7c11b3	-0.0038462698
36	0xbb0e23d1	-0.0021688829
37	0x3a563bfb	0.000817239
38	0xbbd3a4cb	-0.006458854
39	0xbbaddd92	-0.0053059543
40	0xbc01cd55	-0.00792249
41	0x3c8ec93b	0.017429939
42	0xbbce87c6	-0.0063028065
43	0xbce2a3dd	-0.027666027
44	0xbbfd5774	-0.0077313725
45	0x3ac09701	0.001469344
46	0xbc61d106	-0.013782745
47	0xbbf0a2f6	-0.007343645
48	0xbcb0816c	-0.021546088
49	0xbc4a1a6a	-0.012335399
50	0xbc433c59	-0.0119162435
51	0xbc090c16	-0.008364698
52	0xbcd258bd	-0.02567708
53	0xbca0f644	-0.019648679
54	0xbae7f07a	-0.0017695569
55	0xbc2e5bed	-0.010642034
56	0x3aa36e43	0.0012468774
57	0x3b746bdd	0.0037295737
58	0xbc1571da	-0.009121383
59	0xba06bff0	-0.0005140295
60	0xbba8568f	-0.0051372717
61	0xbc11e0f2	-0.008903729
62	0xbc816af2	-0.015798066
63	0x3a8c58ce	0.0010707618
64	0x3f29f828	0.6639428
65	0x3f934e71	1.1508313
66	0x3f6bbb38	0.9208255
67	0x3e116165	0.1419731
68	0x3e64c53e	0.22340867
69	0x3e58cc6c	0.21171731
70	0x3f2e0574	0.6797707
71	0x3f33df89	0.7026296
72	0x3f4f6f7e	0.810295
73	0x3f85d6b2	1.0456145
74	0x3f24364f	0.6414537
75	0x3f678a8e	0.9044579
76	0x3f9a08f7	1.2033986
77	0x3f281371	0.65654665
78	0x3f2337a1	0.6375676
79	0x3f8444a0	1.0333443
80	0x3fade478	1.3585348
81	0x3f1edf8f	0.62059873
82	0x3f254f5d	0.64574224
83	0x3f8a0c81	1.0785066
84	0x3f832e2e	1.0248468
85	0x3f817534	1.0113893
86	0x3f35b3f0	0.7097769
87	0x3f2a21e3	0.6645796
88	0x3f226337	0.6343264
89	0x3f3f9596	0.74837625
90	0x3f7ec1dc	0.99514556
91	0x3f261b84	0.64885736
92	0x3f2fcb0a	0.6866919
93	0x3f2aa957	0.6666464
94	0x3f37e1a2	0.71828663
95	0x3f37be7c	0.7177503
96	0x3f877043	1.0581135
97	0x3f373081	0.71558386
98	0x3f873070	1.0561657
99	0x3f85e2c6	1.0459831
100	0x3f2f2530	0.6841612
101	0x3f9ff0b0	1.2495327
102	0x3f056abb	0.5211598
103	0x3f60944d	0.8772629
104	0x3f43bd00	0.76460266
105	0x3f90691f	1.128208
106	0x3f3c3033	0.73511046
107	0x3eeb25b3	0.459272
108	0x3e4c0829	0.19924988
109	0x3f713860	0.94226646
110	0x3f253deb	0.64547604
111	0x3f1f1eb6	0.62156236
112	0x3f222056	0.6333059
113	0x3f63c3a5	0.88970405
114	0x3f25a95e	0.6471156
115	0x3f29f574	0.66390157
116	0x3f1e8e15	0.6193555
117	0x3f4cf6ba	0.80063975
118	0x3f64dd4e	0.89400184
119	0x3f247997	0.6424803
120	0x3f2b643c	0.6694982
121	0x3f23e8a3	0.6402685
122	0x3f65a179	0.8969951
123	0x3db52602	0.0884514
124	0x3f70978b	0.93981236
125	0x3e5fd60b	0.21858995
126	0x3f7b2ab0	0.9811201
127	0x3f37601d	0.7163103

convs.0.linear1.weight f4 [64, 64]
0	0xbe89edea	-0.26939327
1	0xbd9856c7	-0.074384265
2	0xbe62a5dc	-0.22133583
3	0xbe0aeba5	-0.13566454
4	0x3d1a7418	0.037708372
5	0xbe17df9d	-0.14831395
6	0xbe7acf4e	-0.24493143
7	0xbe6bae05	-0.23015602
8	0xbd61efea	-0.05516044
9	0xbb4475aa	-0.002997736
10	0xbdd6dd14	-0.10491386
11	0xbe070298	-0.13184583
12	0xbe8fcf7d	-0.28087988
13	0xbe29398d	-0.1652586
14	0xbe892497	-0.26785728
15	0xbece46ce	-0.40288395
16	0x3cf25fc6	0.029586684
17	0xbe7211ea	-0.23639646
18	0xbe176af6	-0.14786896
19	0xbd920aea	-0.07130988
20	0xbe4cda40	-0.20005131
21	0xbeb03fef	-0.34423777
22	0xbebfe485	-0.37479034
23	0x3e3bfa64	0.18357235
24	0xbe76ef59	-0.24114741
25	0xbe7d37a0	-0.2472825
26	0xbe668f0d	-0.22515507
27	0xbea064af	-0.31326815
28	0xbdace1f2	-0.08441533
29	0xbea8cdf4	-0.3296963
30	0xbe9e8c29	-0.3096631
31	0xbe52d0c8	-0.20587456
32	0xbdd4d937	-0.10392993
33	0xbb9cabd6	-0.0047812266
34	0x3e31d5c7	0.17366706
35	0xbe28f836	-0.16500935
36	0xbe60dfe4	-0.21960407
37	0xbe83d1fe	-0.2574615
38	0x3d780b22	0.060557492
39	0x3d2c642f	0.04208773
40	0xbea698e7	-0.3253853
41	0xbe7f4558	-0.24928796
42	0x3db99870	0.09062278
43	0x3cd918cb	0.02650108
44	0x3d24799a	0.04015503
45	0xbe8ff071	-0.2811313
46	0xbeaef57d	-0.34171668
47	0xbec6d16d	-0.38831654
48	0xbd8a627f	-0.06757068
49	0x3d8ab0c1	0.067719944
50	0xbec716c0	-0.38884544
51	0xbe13bf85	-0.14428528
52	0x3cb40eb3	0.021979665
53	0xbdfa25fb	-0.122142754
54	0xbd8bbc5e	-0.068230376
55	0xbedbf0db	-0.42957196
56	0xbe7a42d3	-0.24439554
57	0xbe4ee042	-0.20202735
58	0x3d3bfd0e	0.04589563
59	0x3d3b536a	0.045733847
60	0xbe288f55	-0.16460927
61	0xbda18b5a	-0.07887907
62	0x3de6d52f	0.1127113
63	0xbe18c699	-0.14919509
64	0xbdf4e9a4	-0.11958626
65	0xbd8c6832	-0.06855811
66	0x3e8839c3	0.2660657
67	0xbe6468ea	-0.22305647
68	0xbd5f6872	-0.054542966
69	0xbe2fdf06	-0.1717492
70	0xbe13116a	-0.14362112
71	0x3e505f48	0.20348847
72	0x3e0080a5	0.12549074
73	0xbd7f5d66	-0.06234493
74	0x3ccad989	0.024761932
75	0x3dc2cd80	0.09511852
76	0x3e2325c3	0.15932374
77	0x3dbda0c4	0.09259179
78	0x3deea732	0.11652984
79	0xbe424a4c	-0.18973655
80	0xbe7938b2	-0.24338034
81	0xbe28cc06	-0.16484079
82	0xbe959ffa	-0.29223615
83	0xbddf06d9	-0.10889978
84	0x3d8ef637	0.069805555
85	0xbdaec6ed	-0.08534036
86	0x3c924528	0.017855242
87	0x3d1799f8	0.03701207
88	0xbdd5fc74	-0.10448542
89	0x3e88b2c9	0.26698902
90	0xbdbee7c2	-0.09321548
91	0xbd751a7d	-0.059839714
92	0x3df8f154	0.12155405
93	0x3eb0c1b3	0.3452278
94	0xbe1c4a71	-0.15262772
95	0x3e90e7af	0.2830176
96	0xbdcb3a8c	-0.09923276
97	0x3e35e643	0.17763619
98	0xbdf81a10	-0.12114346
99	0xbd9fd32a	-0.07803948
100	0x3dbccb5b	0.092184745
101	0xbe7a268d	-0.24428768
102	0x3e5fdb0e	0.21860906
103	0x3da7960f	0.08182918
104	0xbca4d84d	-0.020122671
105	0x3d583caf	0.052792247
106	0x3e5ae9b2	0.2137821
107	0xbe9653e7	-0.29360887
108	0xbc13061f	-0.008973627
109	0xbe88832a	-0.2666257
110	0xbcf7e151	-0.030258806
111	0xbe244505	-0.16041954
112	0x3e0eff5f	0.13964604
113	0x3cefad03	0.029257303
114	0xbdeba9d1	-0.11506999
115	0xbe304756	-0.17214713
116	0xbea175d5	-0.3153521
117	0x3d966521	0.073435076
118	0x3e93f6f1	0.2889934
119	0xbe244bfd	-0.16044612
120	0x3ddc7e2e	0.10766254
121	0xbe7209e3	-0.23636584
122	0x3eb59e4a	0.35472327
123	0xbe409ab8	-0.1880902
124	0x3cb0c7f7	0.021579726
125	0x3c3876f5	0.01125883
126	0x3d83459c	0.06409761
127	0x3e597d5a	0.21239224
128	0x3dbc7afc	0.09203145
129	0x3ed59b86	0.41720217
130	0x3e4301f0	0.19043708
131	0x3c92d3d0	0.017923266
132	0x3e0546c9	0.13015284
133	0xbe83e8bd	-0.25763503
134	0x3e802eb7	0.2503564
135	0x3ee2576a	0.44207317
136	0xbefe7ddb	-0.49705395
137	0xbebed099	-0.37268522
138	0x3efe2e02	0.49644476
139	0xbd74ec08	-0.05979541
140	0x3e476a4d	0.19474144
141	0x3f02b627	0.5105919
142	0x3ece888c	0.40338552
143	0x3e297be5	0.16551168
144	0xbf038a0e	-0.5138253
145	0x3e9a2721	0.30107978
146	0x3e55fc64	0.2089706
147	0xbf15cb2a	-0.5851313
148	0x3f084d86	0.5324329
149	0x3e2ade77	0.16686426
150	0xbdc9ead2	-0.098592415
151	0xbee727ac	-0.45147455
152	0x3e9b6357	0.30349228
153	0x3f00fcfc	0.50386024
154	0xbe1a7d51	-0.15086867
155	0x3e971988	0.29511666
156	0x3e77b8a5	0.2419153
157	0x3eb13f05	0.34618393
158	0xbe3bd954	-0.18344623
159	0xbdf49fa1	-0.11944509
160	0xbeae32a2	-0.34023005
161	0x3e438878	0.19095027
162	0xbf214391	-0.62993723
163	0x3eecd101	0.46253207
164	0xbe4ba2a2	-0.19886258
165	0xbea252de	-0.31703848
166	0xbef211b0	-0.4727912
167	0xbf23febc	-0.6406057
168	0xbea767fa	-0.32696515
169	0x3e9c52a0	0.30531788
170	0xbc4867c2	-0.012231769
171	0x3e8e2a7e	0.27766794
172	0xbee8f213	-0.45497188
173	0xbb2c7fa9	-0.0026321209
174	0x3dbc4d57	0.09194439
175	0x3e9d1e5b	0.30687222
176	0x3e87567c	0.2643317
177	0x3eaacd8e	0.3335995
178	0x3dfafe57	0.12255543
179	0x3efc5e4c	0.49290693
180	0x3e7855e2	0.24251512
181	0x3e5eb9ee	0.21750614
182	0xbef932d7	-0.486716
183	0x3e16b274	0.14716512
184	0x3ee5fc6a	0.4491914
185	0x3e845441	0.2584553
186	0xbeada5c5	-0.33915535
187	0xbe7d7c37	-0.24754415
188	0x3edb2f46	0.42809504
189	0xbd8c3ee1	-0.06847931
190	0xbeffb0ef	-0.49939677
191	0x3e7c8d81	0.24663354
192	0xbdcfbdf7	-0.10143655
193	0x3eb80a3e	0.35945314
194	0xbb173d97	-0.0023077482
195	0xbe0a92ff	-0.13532637
196	0xbdba1902	-0.09086801
197	0xbea9cfb3	-0.33166274
198	0xbc91f273	-0.017815804
199	0x3e1a5485	0.15071304
200	0xbe856490	-0.26053286
201	0xbe890eb2	-0.26769024
202	0x3ef7b269	0.48378304
203	0xbe7513ac	-0.23933285
204	0x3d71cf0b	0.059035342
205	0x3f14992c	0.5804622
206	0x3ed744d4	0.420447
207	0x3c441328	0.011967458
208	0xbe883485	-0.2660257
209	0x3ea49f57	0.32152817
210	0x3d0cef9e	0.034408204
211	0xbeaa97ed	-0.33319035
212	0x3e7946d4	0.24343425
213	0xbdf2dcf7	-0.11858552
214	0xbe1baecd	-0.152034
215	0xbf2167e5	-0.63049155
216	0xbdc6a801	-0.09700013
217	0x3e582f5c	0.21111816
218	0xbd496962	-0.049172767
219	0xbdcabea1	-0.09899641
220	0x3de2e648	0.11079079
221	0x3d619f4c	0.055083558
222	0xbe100e98	-0.14068067
223	0xbe9516be	-0.29118913
224	0xbe4e9c9b	-0.20176928
225	0x3d36ed3f	0.04465985
226	0xbe5b9bc1	-0.21446134
227	0x3e5b9e1a	0.2144703
228	0xbcefdeab	-0.029280981
229	0xbece32db	-0.40273175
230	0xbef2c128	-0.47412992
231	0xbea688f5	-0.32526365
232	0xbd91cd2c	-0.071192116
233	0x3ebd1445	0.36929527
234	0xbe88f09a	-0.26746064
235	0x3c9bbbf8	0.019010529
236	0xbe9fc10b	-0.31201968
237	0xbe2b1d5b	-0.16710417
238	0xbd009b9a	-0.031398393
239	0x3c1f77ce	0.0097331535
240	0x3d9aae61	0.075527914
241	0x3f037ae7	0.5135941
242	0xbe3a3b10	-0.18186593
243	0x3e3d56da	0.18490162
244	0x3ca7b308	0.020471111
245	0xbd3866db	-0.045019966
246	0xbe3cca20	-0.1843648
247	0xbd1a85e6	-0.03772535
248	0x3ece6029	0.4030774
249	0xbe64109c	-0.22271961
250	0xbe86802c	-0.26269662
251	0xbec4c55a	-0.38431817
252	0x3ec4d8f3	0.3844677
253	0xbebec947	-0.37262937
254	0xbe59e33d	-0.21278091
255	0x3e55dd47	0.20885192

convs.0.linear1.bias f4 [64]
0	0xbde419a6	-0.111377046
1	0x3f3d3727	0.7391228
2	0x3d7f57a1	0.06233943
3	0x3eb569e3	0.35432348
4	0x3f217c93	0.6308071
5	0x3c6154e8	0.013753153
6	0xbda6a559	-0.08137006
7	0xbe21616b	-0.15759818
8	0x3e7bca9e	0.24589011
9	0xbf061fc3	-0.52392215
10	0x3ea42176	0.3205678
11	0xbe01d5c8	-0.12679207
12	0xbd2dd4ca	-0.04243926
13	0xba86db42	-0.0010288733
14	0x3e4e7499	0.20161666
15	0xbc8184e1	-0.015810432
16	0xbeb12b3d	-0.346033
17	0xbc2ee5d2	-0.010674911
18	0xbd01a83f	-0.031654593
19	0x3db2b909	0.08726699
20	0xbe8ca12c	-0.27466714
21	0xbe228ae0	-0.15873289
22	0xbf024d4a	-0.50899184
23	0xbed80b5f	-0.42196175
24	0x3d0e6ff8	0.03477475
25	0x3dd97f6f	0.10620009
26	0xbf369839	-0.71326023
27	0xbf240ce9	-0.640822
28	0xbc6972f9	-0.014248603
29	0xbe915306	-0.28383654
30	0xbcce1147	-0.025154723
31	0xbd5ed05a	-0.05439792
32	0xbd19aecf	-0.037520226
33	0x3e2a4487	0.16627704
34	0x3be0ed0c	0.0068641957
35	0xbe933615	-0.287522
36	0x3d96f3b2	0.073707
37	0x3e991dbc	0.29905498
38	0xbe4bffe7	-0.19921838
39	0xbce02560	-0.027361572
40	0xbc940b99	-0.018071936
41	0x3e6453a4	0.22297531
42	0xbb8ea373	-0.0043529808
43	0x3b98bc8a	0.0046611475
44	0xbb6f4ed1	-0.0036515484
45	0xbcff50d6	-0.031166475
46	0xbc8aae23	-0.016928738
47	0x3f068e95	0.5256131
48	0x3dc75beb	0.09734329
49	0xbc2fb9b3	-0.0107254265
50	0xbe4d8f71	-0.2007425
51	0xbe587cb5	-0.21141322
52	0x3e85cbfd	0.26132193
53	0xbf2c41d4	-0.67287946
54	0x3ec76a86	0.38948458
55	0x3f3be3fa	0.7339474
56	0xbe9d4872	-0.30719334
57	0xbdadf376	-0.08493702
58	0xbeaf3b17	-0.3422477
59	0x3daaf618	0.0834772
60	0xbe90b85b	-0.28265652
61	0xbbc42618	-0.0059859864
62	0x3bea5845	0.007151636
63	0x3eff3d00	0.49851227

convs.0.linear2.weight f4 [64, 64]
0	0x3e014381	0.12623407
1	0xbf05227e	-0.52005756
2	0xbe847b76	-0.25875443
3	0xbe229638	-0.15877616
4	0xbd33e5a0	-0.04392016
5	0x3d1591ce	0.036516003
6	0xbb9dfd1d	-0.004821433
7	0xbc7b95b5	-0.015355517
8	0xbd797c38	-0.06090948
9	0x3f063402	0.5242311
10	0xbe1308c1	-0.14358808
11	0xbd178b0d	-0.036997844
12	0xbdaf08fd	-0.08546636
13	0xbd2ca361	-0.042147998
14	0xbe4edcd0	-0.20201421
15	0x3e75694d	0.2396595
16	0x3d492e81	0.049116615
17	0xbe1b5e0b	-0.15172593
18	0x3ea3d4d5	0.31998315
19	0xbe7a9e1b	-0.24474375
20	0xbf0f7280	-0.5603409
21	0x3e063375	0.13105567
22	0x3f27d106	0.6555332
23	0x3e85bc1a	0.26120073
24	0x3e24aeac	0.16082257
25	0x3f93713c	1.1518931
26	0x3ece9c46	0.40353602
27	0x3f428396	0.75982034
28	0x3f44d193	0.76882285
29	0xbd8ff04c	-0.07028255
30	0x3d85b485	0.06528572
31	0x3e6a7175	0.22894843
32	0xbeb6f423	-0.35733137
33	0xbda336fc	-0.07969472
34	0x3e132486	0.14369401
35	0x3d4512d7	0.04811367
36	0xbe65f136	-0.22455296
37	0xbe886547	-0.26639768
38	0x3e07b388	0.1325208
39	0xbc8f4242	-0.017487649
40	0x3e87e4f3	0.26541862
41	0xbe51e31b	-0.2049679
42	0x3de1bcb4	0.110223204
43	0xbe25a4c7	-0.16176139
44	0xbe965281	-0.2935982
45	0x3e0315f0	0.12801337
46	0xbe055c9f	-0.13023613
47	0xbee6d238	-0.4508226
48	0x3dc899a4	0.097949296
49	0x3ee5d4a5	0.44888797
50	0x3ead36e2	0.33830935
51	0x3dfc0727	0.12306052
52	0xbec49df9	-0.38401774
53	0x3f24d5cb	0.6438872
54	0xbf80388b	-1.0017256
55	0xbe9808de	-0.29694265
56	0x3ebeb818	0.37249827
57	0x3e1b6f1d	0.15179105
58	0x3e71bab9	0.23606385
59	0x3c91f246	0.01781572
60	0x3e02219b	0.12708132
61	0x3e49b4eb	0.19697921
62	0x3f57a513	0.8423626
63	0xbe162574	-0.14662725
64	0x3e106eef	0.14104818
65	0x3e865c70	0.262424
66	0xbe8b840a	-0.27249175
67	0x3d167830	0.036735713
68	0x3c1138fd	0.008863685
69	0xbe8ad3c4	-0.2711469
70	0x3e426abb	0.18986027
71	0xbe07e525	-0.13271005
72	0x3e8552b2	0.26039654
73	0x3e884535	0.266153
74	0x3d928577	0.07154363
75	0x3d7dd5be	0.06197142
76	0xbc86bf51	-0.016448649
77	0x3dd44c48	0.10366112
78	0x3e645dc7	0.22301398
79	0x3e3aa621	0.18227436
80	0x3d03b99c	0.032159433
81	0x3e1de99d	0.15421148
82	0x3d6b1588	0.05739358
83	0x3e1c0631	0.15236737
84	0xbead4f00	-0.33849335
85	0x3d243d12	0.040097304
86	0xbcf525b4	-0.029925205
87	0xbdcda16a	-0.10040553
88	0x3edb9ac8	0.42891526
89	0x3eef7a64	0.46773064
90	0xbe2b3a1c	-0.16721386
91	0xbe556025	-0.20837457
92	0xbd23ccb0	-0.039990127
93	0xbe533d01	-0.2062874
94	0x3e2ebf97	0.17065273
95	0xbd7f5808	-0.062339813
96	0xbe60ce94	-0.21953803
97	0x3db288e4	0.08717516
98	0x3d454a86	0.048166774
99	0x3df03f17	0.117307834
100	0x3dbacf75	0.091216005
101	0x3e02387b	0.12716858
102	0x3ea133bc	0.31484783
103	0xbd885dad	-0.06658492
104	0xbe881bb6	-0.26583642
105	0xbe133f55	-0.14379628
106	0xbe1a6a0e	-0.15079519
107	0x3e9392b9	0.28822878
108	0x3e72d450	0.23713803
109	0xbf0a631b	-0.5405747
110	0x3cb55e83	0.022139793
111	0x3d486dd0	0.04893285
112	0xbdd3cf1a	-0.10342236
113	0x3df0261c	0.11726019
114	0x3a8ada79	0.0010593674
115	0x3cc0b99e	0.02352601
116	0x3ec10952	0.37702423
117	0xbe8fcb95	-0.28085008
118	0x3e7272d3	0.23676614
119	0x3d5f6989	0.054544006
120	0x3e347c30	0.17625499
121	0xbbaa52c6	-0.0051978556
122	0x3e466c9d	0.1937737
123	0xbd8a9b10	-0.06767857
124	0x3dcb584f	0.09928953
125	0x3cb8c976	0.022557002
126	0x3c2b8104	0.010467771
127	0xbdac3f07	-0.08410459
128	0x3ec00f53	0.3751169
129	0xbef31d48	-0.47483277
130	0xbfbe0521	-1.4845315
131	0xbf6ac857	-0.91711944
132	0xbe9f2ed3	-0.31090412
133	0x3da49ce1	0.08037735
134	0x3dfd2bed	0.12361894
135	0x3df104d1	0.11768497
136	0xbe73597f	-0.23764609
137	0x3f2bf835	0.6717561
138	0x3f3f59f6	0.74746644
139	0x3f0343df	0.5127544
140	0x3efc7382	0.49306875
141	0x3f346a10	0.7047434
142	0xbf7846eb	-0.9698321
143	0x3fc2dfb9	1.5224525
144	0x3ee463af	0.44607303
145	0x3f1a25c0	0.6021385
146	0xbe778b60	-0.24174261
147	0x3e59e72f	0.21279596
148	0xbe85bbff	-0.26119992
149	0x3f9af890	1.2107105
150	0x3fdd0b3a	1.7269051
151	0x3e988aaf	0.29793307
152	0x3f88a0c3	1.067406
153	0xbe2045dc	-0.15651649
154	0x3f2b5957	0.66933197
155	0x3f872ff6	1.0561512
156	0x3fc7a6d8	1.5597792
157	0x3e736125	0.23767526
158	0xbd9e433c	-0.07727668
159	0x3f83c0e4	1.029324
160	0xbfab839b	-1.3399538
161	0xbf098c64	-0.53729844
162	0x3f91a1d9	1.1377517
163	0x3f241d1f	0.64106935
164	0x3ea95850	0.3307519
165	0xbe9cd9ab	-0.30634817
166	0x3ed0be8a	0.4077037
167	0xbf2e5788	-0.6810231
168	0xbe490270	-0.19629836
169	0xbe8240c3	-0.25440034
170	0xbe0b62bc	-0.13611883
171	0x3ee45d98	0.44602656
172	0x3e981cf6	0.29709595
173	0xbedf86a4	-0.4365741
174	0x3da1ff06	0.0790997
175	0x3decc12d	0.11560283
176	0xbe2448ca	-0.16043392
177	0x3f68f22f	0.9099454
178	0x3fbac4c3	1.4591297
179	0xbef166e9	-0.47148827
180	0xbec12a15	-0.3772742
181	0x3f82ab76	1.0208576
182	0xbfb8096f	-1.4377879
183	0xbeb8f887	-0.3612711
184	0x3f306eba	0.68918955
185	0xbe843172	-0.25818974
186	0x3f5e34bb	0.8679921
187	0xbee46909	-0.44611385
188	0xbf365ae6	-0.7123245
189	0xbe50ce9f	-0.2039132
190	0x3fb9f3dc	1.4527545
191	0xbed8bbc3	-0.4233075
192	0x3dbbe16a	0.09173854
193	0x3effbfb5	0.49950948
194	0xbe2f0c74	-0.17094594
195	0x3e3f93b6	0.18708691
196	0x3d9a5e70	0.07537544
197	0xbd0e6a81	-0.03476954
198	0xbdbeb4fe	-0.09311865
199	0xbded56df	-0.11588835
200	0xbb8e69de	-0.0043461164
201	0xbede52c7	-0.4342253
202	0x3f0ddf98	0.554193
203	0x3bfa0d56	0.0076309843
204	0x3e05177f	0.12997244
205	0x3dac25be	0.08405636
206	0xbdd0ca24	-0.10194805
207	0x3e4e041a	0.20118752
208	0xbde2bb91	-0.11070932
209	0x3e620306	0.22071466
210	0x3cb8804d	0.022522116
211	0x3e1018d1	0.14071967
212	0xbf57889e	-0.84192836
213	0x3b5bf038	0.003355993
214	0xbe311ff6	-0.17297348
215	0xbe3174f8	-0.17329776
216	0x3e8637d1	0.2621446
217	0xbd0187ff	-0.031623837
218	0xbee51841	-0.44745067
219	0xbeeb43ea	-0.45950252
220	0x3c1e206d	0.009651286
221	0xbf40fa54	-0.7538197
222	0x3c95aea8	0.01827176
223	0x3dff753d	0.12473533
224	0xbdbd2315	-0.09235207
225	0x3dd437d0	0.10362208
226	0x3daa5e90	0.083188176
227	0xbda44728	-0.080213845
228	0x3db5e151	0.08880866
229	0x3db38201	0.08765031
230	0xbe189f63	-0.14904551
231	0x3c0b4397	0.008500001
232	0x3d094aee	0.033518724
233	0x3d68ceb3	0.05683775
234	0xbe3ad96c	-0.18247002
235	0x3d1b61bb	0.037935
236	0x3e38fe63	0.18065791
237	0xbce19d60	-0.027540863
238	0x3df2083e	0.11817978
239	0x3ec99104	0.3936845
240	0xbcb66917	-0.022266908
241	0xbde45d57	-0.11150616
242	0x3df66cff	0.12032508
243	0xbe1a9e7d	-0.15099521
244	0x3e5e88a5	0.21731813
245	0xbf01679c	-0.5054872
246	0x3f042f64	0.5163481
247	0x3e991890	0.29901552
248	0xbc4356a8	-0.011922516
249	0xbe7200f0	-0.2363317
250	0xbd0bfa58	-0.034174293
251	0x3cde0e0d	0.02710631
252	0xbedc69b4	-0.43049395
253	0xbe4205c6	-0.18947515
254	0x3da1c0ba	0.07898088
255	0x3e0aa656	0.13540015

convs.0.linear2.bias f4 [64]
0	0xbf3dc43f	-0.7412757
1	0x3e790e8a	0.24321952
2	0xbeaf2c51	-0.34213498
3	0x3f4da50c	0.80329967
4	0xbec0ce6b	-0.37657484
5	0x3f5fc1cf	0.87405103
6	0x3e0fe579	0.1405238
7	0xbe8e8fce	-0.2784409
8	0x3cf70142	0.030151967
9	0x3f290ec7	0.66038173
10	0x3e3e92da	0.18610707
11	0xbea2969b	-0.31755528
12	0x3ee553c2	0.44790465
13	0xbd1a2a64	-0.037638083
14	0xbf043eeb	-0.51658505
15	0x3e546b68	0.20744097
16	0x3fabc6a5	1.3419997
17	0x3e07b683	0.13253216
18	0xbe6b33be	-0.22968957
19	0xbf452b59	-0.7701927
20	0xbed087ca	-0.407286
21	0x3e9ceecb	0.30650935
22	0xbe14640a	-0.14491287
23	0x3eaef8a3	0.3417407
24	0xbf4e2c07	-0.8053593
25	0xbce2c79b	-0.02768307
26	0xbeb336cf	-0.35002753
27	0x3e22720d	0.1586382
28	0x3e8e44ca	0.27786857
29	0x3e2aec2d	0.16691656
30	0xbe508049	-0.20361437
31	0xbe8d1392	-0.27553993
32	0x3e1b139b	0.15144198
33	0xbeaf2b59	-0.3421276
34	0xbe2f09bb	-0.17093556
35	0x3dde63e0	0.108588934
36	0x3e36e59a	0.17861024
37	0x3d153bd3	0.036434006
38	0xbe2f5fff	-0.17126463
39	0xbed1a2cf	-0.40944526
40	0x3e4cde23	0.20006613
41	0xbea54ace	-0.32283634
42	0x3d9e2949	0.07722718
43	0xbefdd968	-0.4957993
44	0xbe26c989	-0.16287817
45	0xbe8be36f	-0.27321956
46	0x3e06c5b3	0.13161354
47	0xbee97749	-0.4559882
48	0xbe6deea1	-0.23235561
49	0x3e29d1b6	0.16583905
50	0xbd64acd5	-0.055828888
51	0xbd0e1a38	-0.034692973
52	0x3e72f2da	0.23725453
53	0xbeffc683	-0.4995614
54	0xbf0bd9bb	-0.54629105
55	0x3d166e86	0.036726497
56	0x3e6c8c98	0.23100507
57	0xbd6a43b6	-0.05719348
58	0x3e83ca3a	0.25740224
59	0xbe551650	-0.20809293
60	0x3e8362d2	0.2566133
61	0x3ccca413	0.02498058
62	0xbde6e2d3	-0.11273732
63	0xbe083876	-0.13302788

convs.1.a f4 [128, 1]
0	0x393c2ae1	0.00017945051
1	0x3ce01dcd	0.02735796
2	0xb6f084b8	-7.168008e-06
3	0xbd002393	-0.031283926
4	0x3634ce38	2.6942125e-06
5	0xbd0b7f77	-0.034057107
6	0x388c4f6d	6.6905144e-05
7	0x3681b6fc	3.865802e-06
8	0x3b5b3589	0.0033448657
9	0xbd4fe768	-0.050757796
10	0x3d2616b4	0.040548995
11	0xb72199d0	-9.63216e-06
12	0x3cec9c4c	0.028883122
13	0x3c97a60d	0.018511796
14	0xb992bc66	-0.00027987658
15	0x3d021d8d	0.031766463
16	0xbda630ce	-0.081147775
17	0x38ccc760	9.7646145e-05
18	0x39a0794d	0.00030607954
19	0xb6cdebd8	-6.136932e-06
20	0x34fdcdda	4.72747e-07
21	0xbacdebf4	-0.0015710578
22	0xbbbd6cf5	-0.005780811
23	0x3c82261c	0.015887313
24	0xb7f9a52e	-2.976003e-05
25	0x35d20f66	1.5650701e-06
26	0x3750febe	1.2457078e-05
27	0xbb81b5d3	-0.0039584427
28	0x3d3ed209	0.046587024
29	0x3d73adba	0.05949185
30	0x3bb8ea88	0.0056431927
31	0xb811ec94	-3.4791025e-05
32	0x3c41f339	0.011837774
33	0xb6b3388b	-5.341198e-06
34	0xb636f5c5	-2.726317e-06
35	0x3c46c3f8	0.0121316835
36	0xbceed08a	-0.029152174
37	0x3d8d163c	0.068890065
38	0x3d105244	0.035234705
39	0x36d03fc6	6.2063073e-06
40	0x3d21d456	0.03950914
41	0x3813a3d2	3.52001e-05
42	0x3c9645fd	0.01834392
43	0x3654c3a9	3.170435e-06
44	0x35cae081	1.5115512e-06
45	0x378948f8	1.6365651e-05
46	0xbc6eabe0	-0.014567345
47	0x35a583d0	1.233182e-06
48	0xb84b0aa8	-4.8408896e-05
49	0x3d5b58ff	0.05355167
50	0x3d8e4952	0.069475785
51	0x3c8a7bfd	0.016904825
52	0x3cf982ba	0.030457843
53	0xb683f9ac	-3.93317e-06
54	0xb7605ec7	-1.33735075e-05
55	0x37965291	1.7919841e-05
56	0xba503bca	-0.00079434796
57	0x3c0eb7fd	0.008710858
58	0x3d762014	0.060089186
59	0x356e3260	8.8735214e-07
60	0x3d436ea9	0.047712956
61	0x3d645467	0.055744555
62	0x37c3aece	2.3327211e-05
63	0xb93fbc9b	-0.0001828544
64	0x3fe441b9	1.7832557
65	0x3edefc2b	0.43551764
66	0x40b24f6d	5.5721955
67	0xbeabbf7c	-0.33544528
68	0x406e13a9	3.71995
69	0xbe9d410f	-0.30713698
70	0x3fe78c5b	1.8089708
71	0x40894289	4.289372
72	0x3f120712	0.5704204
73	0xbe8fb957	-0.2807109
74	0xbc20fde9	-0.009826162
75	0x40841438	4.127468
76	0xbd06c028	-0.0328981
77	0xbf546098	-0.8295989
78	0x3f094a87	0.53629345
79	0xbbc2455a	-0.0059286775
80	0xbeb98471	-0.36233857
81	0x4007bbb1	2.1208308
82	0x3fadd25e	1.3579824
83	0x40bc018f	5.8751903
84	0x40ba7b9d	5.8275895
85	0x3e6b49e6	0.22977409
86	0x3c7f5e45	0.01558644
87	0xbd469269	-0.04847947
88	0x4047dfbd	3.123031
89	0x40adc984	5.430849
90	0x40b06978	5.5128746
91	0xbc2a6e6e	-0.010402305
92	0xbf1f0d65	-0.62129813
93	0x3e9aa6b7	0.30205318
94	0x3f95442c	1.166143
95	0x40b72865	5.723681
96	0x3debc098	0.11511344
97	0x40a7008f	5.218818
98	0x40a854e8	5.2603645
99	0x3f32fc62	0.69916356
100	0xbefe45ec	-0.4966272
101	0x3d8c5c0e	0.068534955
102	0x3f19f837	0.6014437
103	0x40b404e0	5.625595
104	0x3dd7a7f4	0.105300814
105	0x3fc24e8b	1.518022
106	0x3e4fab37	0.20280157
107	0x40a451a6	5.134967
108	0x40ae9296	5.455394
109	0x4097d05e	4.7441854
110	0xbf98a545	-1.1925436
111	0x409e4f5f	4.947189
112	0x4019ce1e	2.4032054
113	0x3dba7c5c	0.09105751
114	0x3f0d76bd	0.55259305
115	0x3f892827	1.0715379
116	0x3e8b3a77	0.27193043
117	0x40ad55af	5.4167094
118	0x40a922c0	5.285492
119	0x3f6375a9	0.8885141
120	0xbf98d9a1	-1.1941415
121	0x3f60f9af	0.87880987
122	0x3e92905f	0.2862577
123	0x40ace28c	5.4026546
124	0x3e85ac92	0.26108223
125	0x3de601f9	0.11230845
126	0x40a52a41	5.161408
127	0x3fba86a2	1.4572337

convs.1.linear1.weight f4 [64, 64]
0	0x3fe48b83	1.7855076
1	0x3b381fed	0.00280952
2	0x3fe62aa8	1.7981768
3	0x3fbdac1a	1.4818146
4	0x3fa5bb20	1.2947731
5	0x3f6f4ab7	0.9347338
6	0x3fa0d006	1.2563484
7	0x3f909423	1.1295208
8	0x3f897c96	1.0741146
9	0x3f32bf1e	0.6982287
10	0x3dee5f74	0.116393
11	0x4005d7ea	2.0913033
12	0x3f441684	0.76596856
13	0xbda0ab3a	-0.07845159
14	0xbf829526	-1.0201766
15	0x3ecfcfb7	0.4058816
16	0x3f98497d	1.1897427
17	0x3f987752	1.1911414
18	0x3f727f03	0.94725055
19	0x400e66cb	2.225024
20	0x3feb5f75	1.8388506
21	0x3eed54f7	0.46353886
22	0x3ef8f6bb	0.4862574
23	0x3f012dba	0.504604
24	0x3fe1746a	1.7613652
25	0x4005c5dd	2.0902016
26	0x3ff3e038	1.9052801
27	0x3eaca766	0.33721465
28	0xbed6a5f3	-0.41923484
29	0x3ea0b655	0.31389108
30	0x3f231b15	0.637132
31	0x3ff47c6f	1.9100474
32	0x3ef1d68b	0.47233996
33	0x40272436	2.6115851
34	0x3fbc2eeb	1.4701818
35	0x3e536d70	0.20647216
36	0xbe9f14e5	-0.3107063
37	0x3eb49566	0.35270232
38	0x3f0e3e03	0.5556337
39	0x3ff23433	1.892218
40	0x3ef879d9	0.48530462
41	0x3fddb5e9	1.732114
42	0x3d3f4ed9	0.046706054
43	0x4012b57a	2.2923265
44	0x40001c9d	2.0017464
45	0x3fa998a2	1.3249705
46	0xbe2babd8	-0.16764772
47	0x3fa18bd4	1.2620797
48	0x3f6c56b0	0.92319775
49	0x3e7bc6c0	0.24587536
50	0x3e05995e	0.13046786
51	0x3f223227	0.63357776
52	0x3d1ad7b9	0.037803385
53	0x4029224c	2.6427183
54	0x3fb67b0b	1.42563
55	0x3f87dc72	1.061415
56	0xbeedbfbd	-0.46435347
57	0x3f2c8a3c	0.6739843
58	0x3ec0069c	0.37505043
59	0x3fe242df	1.7676657
60	0x3c35541d	0.011067417
61	0x3e0c3298	0.13691175
62	0x3ff65c55	1.9246927
63	0x3f902582	1.1261446
64	0x4003935e	2.0558696
65	0xbea1a514	-0.31571257
66	0x3ff69a84	1.9265904
67	0x3f3e1690	0.7425318
68	0x3fb1942e	1.3873346
69	0x3f85f632	1.0465758
70	0x3f65ef86	0.8981861
71	0x3f2313c5	0.6370204
72	0x3fae499a	1.3616211
73	0x3f5b3af7	0.8563685
74	0xbdba64bb	-0.09101244
75	0x402644ee	2.5979571
76	0xbdc508ea	-0.09620841
77	0xbf287c12	-0.65814316
78	0xbf7d0afd	-0.9884489
79	0x3e1236d1	0.14278723
80	0x3fba486a	1.4553349
81	0x3f9f45c0	1.2443161
82	0x3f8e2c16	1.1107204
83	0x40324723	2.7855918
84	0x3fcb7d9d	1.5897709
85	0x3e90c7fe	0.28277582
86	0x3e6e389f	0.23263787
87	0xbdd0523d	-0.10171936
88	0x3fe3ece0	1.7806664
89	0x3ff59c06	1.918824
90	0x400aaee4	2.1669245
91	0xbd8ff8d5	-0.07029883
92	0xbf2cb342	-0.67461026
93	0x3e25d9a0	0.16196299
94	0x3f7ffea8	0.9999795
95	0x40113b47	2.269243
96	0x3e873dd9	0.26414374
97	0x40446253	3.0685012
98	0x3fde21be	1.7354047
99	0xbc2376ea	-0.009977082
100	0xbf174650	-0.59091663
101	0x3e18b22b	0.14911716
102	0x3eefb11d	0.46814814
103	0x4017fdbb	2.3748615
104	0x3f301cfc	0.68794227
105	0x3fd8c852	1.6936133
106	0xbe7dc3cc	-0.24781722
107	0x40159995	2.337499
108	0x400a93fc	2.1652822
109	0x3f68cb4f	0.90935224
110	0xbf25502a	-0.64575446
111	0x3fac1086	1.3442543
112	0x3f76e204	0.9643862
113	0x3e929d8f	0.28635833
114	0xbe8aad15	-0.27085176
115	0x3f30f2f2	0.69120705
116	0xbea8542d	-0.3287672
117	0x403a1366	2.907434
118	0x3f99895f	1.1995047
119	0x3f297f82	0.66210186
120	0xbf780335	-0.96879894
121	0x3f6bb871	0.9207831
122	0x3e49498f	0.19656967
123	0x3fed4464	1.8536496
124	0xbea1483b	-0.3150042
125	0xbe7d8d69	-0.24760975
126	0x40044f37	2.067335
127	0x3f7bc79b	0.9835145
128	0x3fea353a	1.8297493
129	0xbe3cb9cc	-0.18430251
130	0x3fce74fe	1.6129453
131	0x3fa7d82e	1.3112848
132	0x3f9945ea	1.1974461
133	0x3f53ae66	0.82687986
134	0x3f974aab	1.1819662
135	0x3f693840	0.91101456
136	0x3f8219dc	1.0164142
137	0x3f07ce9b	0.5304963
138	0x3e4ce4cd	0.20009156
139	0x4006050a	2.0940576
140	0x3f2c72c6	0.6736263
141	0xbe6db492	-0.23213413
142	0xbf98bf24	-1.1933331
143	0x3e173db2	0.14769629
144	0x3fa4cd0f	1.2875079
145	0x3fa44fa5	1.2836806
146	0x3f7390b3	0.9514267
147	0x400d068f	2.2035253
148	0x3fdecd11	1.7406331
149	0x3ec758f9	0.38935068
150	0x3eb5f7da	0.35540658
151	0x3ea936bb	0.3304957
152	0x3fc24723	1.5177959
153	0x3feb3e9e	1.8378484
154	0x3fe644b9	1.7989722
155	0x3d6da0d2	0.0580147
156	0xbf1380ec	-0.57618594
157	0x3e4e5bd3	0.20152216
158	0x3f4d58f5	0.8021386
159	0x3ff18d3a	1.8871224
160	0x3e5ee68f	0.21767639
161	0x401d162a	2.4544778
162	0x3fbc1c3f	1.469612
163	0x3e810335	0.2519776
164	0xbe3221e2	-0.17395738
165	0x3eaa4990	0.3325925
166	0x3eee0c37	0.46493694
167	0x3ffb5781	1.9636079
168	0x3eb39738	0.35076308
169	0x3fcf5d47	1.6200341
170	0x3d5c69a8	0.0538117
171	0x400d3127	2.206125
172	0x3fe87b71	1.8162671
173	0x3fb95e63	1.448193
174	0xbdf3a80a	-0.11897285
175	0x3fae66fe	1.3625181
176	0x3f56e349	0.8394056
177	0x3e960489	0.29300335
178	0x3d8ad5f8	0.067790926
179	0x3f42e36c	0.7612827
180	0xbe132a0d	-0.1437151
181	0x401ef84f	2.4839056
182	0x3fa6e845	1.3039633
183	0x3f7a17ef	0.9769277
184	0xbef748e4	-0.482978
185	0x3f558ba0	0.83416176
186	0x3ea619b4	0.32441485
187	0x3fd6177c	1.6725917
188	0xbd8eebcc	-0.069785684
189	0x3e04b251	0.12958647
190	0x3fe04b48	1.7522974
191	0x3f8b7672	1.0895522
192	0xbf733bae	-0.9501294
193	0x3de12fb1	0.109954245
194	0xbe8a00cf	-0.26953742
195	0xbf6d4c33	-0.92694396
196	0xbeaf061b	-0.34184346
197	0xbf32d8d9	-0.69862133
198	0xbe1dba6c	-0.15403146
199	0x3d9513d1	0.0727917
200	0xbd83d86b	-0.06437763
201	0xbf12e516	-0.5738081
202	0x3dbc9d25	0.092096604
203	0xbf2bb944	-0.6707957
204	0xbebedb04	-0.3727647
205	0x3f1568d3	0.58363074
206	0x3f2aa472	0.66657174
207	0xbd941606	-0.07230763
208	0xbf7f4b68	-0.99724436
209	0xbe43601c	-0.19079632
210	0xbefcf9db	-0.49409375
211	0xbf04940c	-0.517884
212	0xbe517744	-0.20455652
213	0xbd156114	-0.036469534
214	0xbc1081e3	-0.00882003
215	0x3c2b9bfc	0.010474201
216	0xbf1fe5f9	-0.62460285
217	0xbdb6de3c	-0.089291066
218	0xbf06f667	-0.5271973
219	0x3d21d2c5	0.039507646
220	0x3e229948	0.15878785
221	0xbd64f4d3	-0.055897545
222	0x3d01e3c0	0.03171134
223	0xbf0aeafa	-0.54264796
224	0x3e07078c	0.13186473
225	0xbec34d04	-0.38144696
226	0xbeb83797	-0.35979912
227	0xbdd14cf7	-0.10219758
228	0x3d10b1d5	0.035325844
229	0x3dd068c3	0.10176232
230	0x3dc12a8f	0.094319455
231	0xbf31acd1	-0.6940432
232	0xbd10ebe3	-0.03538121
233	0xbf80f27d	-1.0074002
234	0x3ea7f3fb	0.3280333
235	0xbe8ef010	-0.27917528
236	0xbed7199e	-0.42011732
237	0xbe5b8af0	-0.21439719
238	0x3f3976bd	0.72446805
239	0xbeb1f95f	-0.34760568
240	0xbe7f759d	-0.2494721
241	0xbceaadde	-0.02864736
242	0x3eb7b63c	0.3588122
243	0xbc80eae6	-0.015737008
244	0x3da7f0aa	0.082002
245	0xbf1edc57	-0.6205496
246	0xbdeb758c	-0.1149703
247	0xbc8d0b4a	-0.017217297
248	0x3cd200e2	0.025635187
249	0xbc93a3ff	-0.018022535
250	0x3dec854c	0.11548862
251	0xbef54ea4	-0.4791156
252	0x3b201353	0.002442558
253	0xb95562eb	-0.00020350113
254	0xbe583c65	-0.21116789
255	0xbf1e88a3	-0.6192724

convs.1.linear1.bias f4 [64]
0	0x3b8f98bb	0.0043822206
1	0xbd15d271	-0.036577646
2	0x3bd520a2	0.0065041343
3	0x3c0b50af	0.008503123
4	0xbd97f858	-0.07420415
5	0xbd81363b	-0.06309172
6	0xbc216931	-0.00985174
7	0x3d4263fc	0.047458634
8	0xbb8e2df0	-0.0043389723
9	0xbc983ef1	-0.0185847
10	0xbd3351c5	-0.043779153
11	0xbc996049	-0.01872267
12	0xbcad1f4f	-0.021133093
13	0x3cf3c7df	0.029758392
14	0xbd7ca603	-0.06168176
15	0xba9aebcd	-0.0011819542
16	0x3e1190d5	0.14215405
17	0xbdb065a4	-0.086131364
18	0x3ad0c62d	0.0015928202
19	0x3e0e0cd9	0.13872088
20	0x3cab0c12	0.020879779
21	0x3d583293	0.052782606
22	0x3df48eab	0.11941274
23	0x3c821379	0.015878426
24	0xbd43e140	-0.047822237
25	0x3e4723b5	0.19447215
26	0xbbad568e	-0.005289859
27	0xbc9441e2	-0.018097822
28	0x3d7bb8a3	0.06145538
29	0x3dd5fb6c	0.104483455
30	0xbd8f4971	-0.0699643
31	0xbd0c3985	-0.034234542
32	0x3cfcba43	0.030850535
33	0xbc4fa48a	-0.0126735065
34	0x3d1fe132	0.039033122
35	0x3c8dd253	0.017312204
36	0x3d15108c	0.036392733
37	0xbda70334	-0.08154908
38	0x3c9eb64d	0.019374037
39	0x3cb8de1a	0.022566844
40	0x3c4efc62	0.012633415
41	0x3ca3fd7a	0.020018328
42	0x3d858b6f	0.065207355
43	0x3cf9659a	0.030443955
44	0xbcb051a3	-0.021523302
45	0xbd96ea41	-0.07368899
46	0xba825016	-0.000994208
47	0x3c97c83e	0.0185281
48	0x3cd34a21	0.025792183
49	0x3d258447	0.040409353
50	0x3cb2b532	0.021814916
51	0x3d9ee391	0.077582486
52	0xbd1100fd	-0.035401333
53	0xbcf94cc4	-0.030432113
54	0x3c8e317c	0.01735758
55	0x3bd9b33e	0.006643682
56	0x3e0cfb05	0.13767631
57	0x3c53a01e	0.012916593
58	0x3d4520ab	0.048126858
59	0xbd9152ca	-0.07095869
60	0xbc8cd77d	-0.017192597
61	0x3ce7ae63	0.028281396
62	0x3c14e49f	0.009087711
63	0x3ca68503	0.020327097

convs.1.linear2.weight f4 [64, 64]
0	0x3d86040b	0.0654374
1	0xbf636ddd	-0.88839513
2	0xbd7b2493	-0.061314177
3	0x3f1bde70	0.6088629
4	0xbec0b6d7	-0.37639496
5	0xbe7b0daa	-0.24516931
6	0xbe751c08	-0.23936474
7	0x3e94e794	0.2908293
8	0x3d5d0be8	0.053966433
9	0xbdadaa70	-0.08479774
10	0xbde333c2	-0.110938564
11	0x3977f612	0.00023647424
12	0x3e035480	0.12825203
13	0x3e3d8a11	0.185097
14	0x3c301967	0.010748244
15	0xbdd6aa1c	-0.104816645
16	0x3f0a6ee2	0.54075444
17	0xbe9f7f91	-0.31152013
18	0x3cb9019d	0.022583777
19	0x3f1b162d	0.6058071
20	0x3e6f67a4	0.2337938
21	0x3e4d3e64	0.20043331
22	0x3e9e40b2	0.30908734
23	0x3de0bd4f	0.10973608
24	0xbe8f7c15	-0.28024355
25	0x3f3d1178	0.7385478
26	0xbda5bd05	-0.08092693
27	0xbd31c2c8	-0.04339865
28	0xbd9c7ca7	-0.07640963
29	0x3f06070f	0.5235452
30	0xbf2dd20c	-0.6789863
31	0xbe6ca1f8	-0.23108661
32	0xbc8a4fd0	-0.01688376
33	0xbd47fcb9	-0.048825
34	0x3cebc938	0.028782472
35	0xbd743035	-0.059616286
36	0x3e476cf4	0.19475156
37	0xbe9058a4	-0.28192627
38	0x3e0cc4f2	0.13747004
39	0xbc982b64	-0.018575378
40	0x3de47cae	0.11156593
41	0x3cfb5e1f	0.030684529
42	0x3e2624d5	0.16224988
43	0x3e485bf3	0.19566326
44	0x3c441e81	0.011970163
45	0xbdccc81a	-0.09999104
46	0x3dbcc108	0.09216505
47	0x3eb3d714	0.3512503
48	0x3f4b3913	0.79383963
49	0xbe2fe0a2	-0.17175534
50	0xbd9ec00b	-0.07751473
51	0x3eed51d6	0.46351498
52	0xbce89f5e	-0.028396305
53	0xbeae8383	-0.3408471
54	0x3d54b336	0.05192872
55	0x3dd6bc53	0.10485139
56	0x3ef45361	0.47719863
57	0x3dbd5fdc	0.09246799
58	0xbe12d632	-0.14339522
59	0xbf52b3c9	-0.8230558
60	0xbda2a494	-0.07941547
61	0xbdd490cb	-0.103791796
62	0x3d1e33f2	0.038623758
63	0x3e1fc69c	0.15603107
64	0xbeac2b91	-0.3362699
65	0xbf576720	-0.8414173
66	0xbddd915b	-0.1081874
67	0xbe1be617	-0.15224491
68	0xbf3c71a8	-0.73610926
69	0xbee9a56d	-0.45634022
70	0xbd95015b	-0.07275649
71	0xbe350e1c	-0.17681164
72	0x3e0d97f9	0.13827504
73	0xbe56e4f9	-0.20985784
74	0xbe518263	-0.20459895
75	0x3e145bef	0.14488195
76	0x3d2eb362	0.04265154
77	0xbb4f14dd	-0.003159813
78	0xbda5561f	-0.08073067
79	0x3dde4f1e	0.10854934
80	0x3eabab0e	0.33528942
81	0xbd33d8e5	-0.04390802
82	0x3e0f1a06	0.13974771
83	0x3eae6a36	0.34065408
84	0x3dbfbad5	0.09361807
85	0x3e152ffa	0.14569083
86	0x3ebddfca	0.370848
87	0x3e61734a	0.22016636
88	0xbe8fb542	-0.28067976
89	0x3f5c0514	0.8594525
90	0x3e2877b9	0.1645192
91	0xbe95ecdc	-0.29282272
92	0xbe66e2bb	-0.22547428
93	0x3ef0a9c4	0.4700452
94	0xbf3233b0	-0.6961012
95	0xbe6f5229	-0.23371185
96	0x3db60e10	0.08889401
97	0x3e52efb3	0.2059925
98	0xbe624be7	-0.22099267
99	0xbec14e64	-0.3775512
100	0x3e66fc85	0.22557266
101	0xbca3d867	-0.02000065
102	0x3e389e51	0.18029143
103	0x3e325f8a	0.17419258
104	0x3e367d85	0.1782132
105	0xbd829b2b	-0.06377252
106	0x3f19a2f0	0.6001425
107	0x3db2b048	0.08725029
108	0x3cf40983	0.029789692
109	0xbf4524c3	-0.7700922
110	0x3e2a3f7a	0.16625777
111	0x3daaf15e	0.083468184
112	0x3e2d6aa2	0.16935208
113	0x3ea196c2	0.31560332
114	0x3e8ebce0	0.27878475
115	0x3e6a6f3f	0.22894
116	0xbd2fa4b5	-0.042881686
117	0xbdf99619	-0.12186832
118	0x3df91cfd	0.12163732
119	0x3c7ecb0f	0.015551343
120	0x3ebf645d	0.3738126
121	0x3e0cd5f6	0.13753495
122	0x3e3e55dd	0.18587442
123	0xbf3134eb	-0.6922137
124	0xbe932fbb	-0.28747353
125	0x3e83ef33	0.25768432
126	0xbe2ee982	-0.17081264
127	0xbe0d4085	-0.13794143
128	0xbdaca5ea	-0.08430083
129	0xbd6a7cad	-0.057247806
130	0xbdf0a5b9	-0.11750359
131	0x3e08f9e8	0.13376582
132	0xbe7c9b6e	-0.24668667
133	0xbd942128	-0.072328866
134	0xbe018037	-0.12646566
135	0x3e9ff753	0.3124338
136	0x3e8ce6a1	0.27519706
137	0xbc8b2474	-0.016985156
138	0xbe8b8c52	-0.27255493
139	0x3e50ebbf	0.2040243
140	0x3e3a0e62	0.18169549
141	0x3ebb0862	0.36529833
142	0x3ea1975d	0.31560794
143	0x3e8a47d8	0.27007937
144	0x3e8e5b48	0.27804017
145	0xbd9ad305	-0.0755978
146	0x3dac3e7b	0.08410355
147	0x3e6a5c6f	0.22886823
148	0x3e17e63d	0.14833923
149	0x3eb97222	0.3621989
150	0x3e10b2d9	0.14130725
151	0x3e862c83	0.26205835
152	0xbe38c25c	-0.18042892
153	0x3e2d822c	0.16944188
154	0x3e8fde8c	0.28099477
155	0xbe6132e9	-0.21992077
156	0x3b6b3906	0.0035892143
157	0x3f20a39e	0.6274966
158	0xbe010d51	-0.12602736
159	0xbe144816	-0.14480624
160	0x3eac7d52	0.33689362
161	0x3dfa0acb	0.1220909
162	0xbe12d2ab	-0.14338176
163	0x3e4acccb	0.19804685
164	0x3ebc38c7	0.36762068
165	0xbe1fbf75	-0.15600379
166	0x3e044e8f	0.12920593
167	0x3d979272	0.07400979
168	0x3e29ceac	0.16582745
169	0x3e35e8f9	0.17764653
170	0x3e9d1c13	0.3068548
171	0x3dcc4933	0.09974899
172	0x3e35a75c	0.17739624
173	0xbe628e62	-0.22124627
174	0x3d93bfe5	0.07214335
175	0x3ebc747f	0.3680763
176	0x3ed5d8ff	0.41767117
177	0x3ea23e0d	0.31687966
178	0x3e8d6391	0.27615026
179	0x3f1265b9	0.57186466
180	0x3e5768ae	0.21036026
181	0xbea0d498	-0.31412196
182	0x3e77404e	0.24145624
183	0x3e0985e4	0.13429981
184	0x3e567c94	0.2094596
185	0x3e49767f	0.19674109
186	0x3e9ff222	0.3123942
187	0xbe01befd	-0.12670512
188	0xbe21e812	-0.15811184
189	0x3df56b9c	0.119834155
190	0xbe14d165	-0.14533003
191	0x3ebe0e97	0.37120506
192	0xbd9da04f	-0.07696592
193	0xbf19166e	-0.5979985
194	0xbe06a883	-0.1315022
195	0x3f14ac1b	0.5807511
196	0xbeba50f6	-0.36389893
197	0xbe2614ae	-0.16218826
198	0xbdd4227f	-0.10358142
199	0x3e689a18	0.22715032
200	0xbd0e0dd9	-0.034681175
201	0xbe1abbce	-0.15110704
202	0xbe310bdd	-0.17289682
203	0x3d20577b	0.039145928
204	0xbd826409	-0.063667364
205	0x3e09d03d	0.13458343
206	0xbcbf710c	-0.023369335
207	0x3e02c213	0.12769346
208	0x3ee05f8b	0.43822894
209	0xbeb91f23	-0.36156568
210	0xbdf41a05	-0.11919025
211	0x3f07ca01	0.5304261
212	0x3e06e1fe	0.13172147
213	0x3d17b49d	0.03703748
214	0x3ed7b19b	0.4212769
215	0x3bf5f109	0.0075055403
216	0xbea8be05	-0.32957473
217	0x3f6ab3ff	0.916809
218	0x3d5a505e	0.0532993
219	0xbd4f9aec	-0.050684854
220	0xbd45cfba	-0.048293807
221	0x3eeece24	0.46641648
222	0xbf32af07	-0.6979832
223	0xbe8696ad	-0.26286831
224	0x3e45da38	0.19321525
225	0xbdd59d81	-0.10430432
226	0x3c86f429	0.016473847
227	0x3e4b7894	0.19870216
228	0x3c967b64	0.018369384
229	0xbeb09696	-0.34489888
230	0xbc156d1a	-0.00912025
231	0x3c88485c	0.016636066
232	0x3e6da777	0.23208414
233	0x3e1b71ca	0.15180126
234	0x3cfbb17e	0.030724283
235	0x3dcde7aa	0.10053952
236	0xbd1071ae	-0.035264663
237	0xbe58e4f8	-0.21181095
238	0x3dfa9644	0.12235692
239	0x3ea34c11	0.31893972
240	0x3f1cead7	0.6129584
241	0x3d5ad5a9	0.05342642
242	0x3d95f286	0.07321648
243	0x3e884a47	0.2661917
244	0x3bee4b86	0.0072721867
245	0xbe4e982f	-0.20175241
246	0xbdb1bbe4	-0.086784154
247	0xbd539d1f	-0.051663514
248	0x3f127bf9	0.5722042
249	0xbafdfa0f	-0.0019376891
250	0x3daa620e	0.08319484
251	0xbf3277ea	-0.69714224
252	0xbd5136d5	-0.051077683
253	0xbbe7e744	-0.0070771296
254	0x3d4abbbd	0.049495447
255	0x3c1b8515	0.009492178

convs.1.linear2.bias f4 [64]
0	0xbca758dd	-0.020428116
1	0x3b0eba44	0.0021778503
2	0xbd89b406	-0.0672379
3	0x388cabec	6.707743e-05
4	0x3dc65e03	0.096859
5	0x3dc49c40	0.09600115
6	0x3dc92f49	0.09823472
7	0xbc12b092	-0.00895323
8	0xbc32d61e	-0.010915307
9	0xbcc7e72e	-0.024402227
10	0x3df6cf99	0.12051315
11	0xbdb8d18e	-0.090243444
12	0x3c369c54	0.01114567
13	0x3d36864a	0.04456166
14	0x3e0924c7	0.13392936
15	0x3ddcd669	0.10783083
16	0xbd1f7803	-0.03893281
17	0x3e24d04c	0.16095084
18	0xbd572c1c	-0.0525323
19	0xbd258a0b	-0.04041485
20	0xbb6d9fa1	-0.0036258476
21	0x3dc59e9e	0.096493945
22	0x3dd58a63	0.10426786
23	0x3c6ff2bb	0.014645274
24	0xbd1d78e5	-0.038445372
25	0x3df4a69d	0.119458415
26	0xbc8c0dea	-0.017096478
27	0x3cddc15e	0.027069744
28	0xbc1fef9a	-0.009761715
29	0xbc4729a2	-0.012155922
30	0x3cf90c9f	0.030401526
31	0xbc04ee67	-0.00811348
32	0xbe03edf5	-0.12883742
33	0x3d9f19bb	0.077685796
34	0x3ae3d6b7	0.0017382716
35	0x3c69aac0	0.014261901
36	0xbddc2eca	-0.10751112
37	0x3dc9b1f9	0.09848399
38	0x3cd2943a	0.025705446
39	0x3db839bf	0.08995389
40	0x3ddda075	0.108216204
41	0x3d8cee28	0.06881362
42	0xbcbe8b02	-0.023259643
43	0x3dc67dfb	0.096919976
44	0x3d3cebdc	0.04612337
45	0x3d8d0c50	0.06887114
46	0x3e335980	0.1751461
47	0x3db17e72	0.08666696
48	0x3cec72d2	0.028863344
49	0x3bd479e7	0.0064842585
50	0xbc8f4a66	-0.01749153
51	0xbb84664b	-0.0040405146
52	0xbcde8508	-0.027163044
53	0x3ddf295d	0.10896561
54	0xbd8308dd	-0.06398175
55	0x3dae75e5	0.0851858
56	0x3e10c41d	0.14137311
57	0x3e2b025a	0.16700116
58	0x3ba12d32	0.004918718
59	0xbd87a700	-0.066236496
60	0xbd965ec1	-0.073422916
61	0xbd0bbafb	-0.034113865
62	0x3e00718b	0.12543313
63	0x3c19b850	0.009382322
