Saved_Models/TSP_200/scatgnn_layer_2_hid_64_model_250_temp_3.500.pth (torch, 179911 bytes, 24 tensors)

bn0.weight f4 [2]
1.0 1.0
00000000: 0000 803f 0000 803f

bn0.bias f4 [2]
0.0 0.0
00000000: 0000 0000 0000 0000

bn0.running_mean f4 [2]
0.0 0.0
00000000: 0000 0000 0000 0000

bn0.running_var f4 [2]
1.0 1.0
00000000: 0000 803f 0000 803f

in_proj.weight f4 [64, 2]
-0.6279469 0.27863452 -0.730314 -0.70058286 -0.19564007 -1.1060424 0.30483213 -0.30068314
-0.33809984 -0.5322123 0.46776736 -0.2938492 0.5261921 0.04593408 -0.18123654 -0.60443294
0.30359766 -1.0464047 0.5038181 -0.8536585 0.58894295 0.30903912 -0.045972686 -0.72185695
0.18732528 0.6674189 0.8039175 0.5731371 0.9974013 0.5600566 1.1300592 -0.1494509
0.3334454 -0.51035905 -0.72463554 -0.2795256 -0.917253 -0.26730222 0.44530755 -1.1009125
1.0564692 0.649965 0.9660544 -0.027724475 0.9972533 -0.47034332 -0.1912196 1.0216504
0.87782174 -0.18994136 -0.49465021 -0.9598648 -0.8404316 0.7010525 0.75228596 -0.2140736
-0.121314846 -0.70574826 0.14926457 0.7114331 -0.7769869 0.5310854 -0.011399334 0.7967764
-0.69752705 0.5011906 -0.13640757 -0.9494853 0.5690837 -1.0383475 0.70067525 0.34573415
0.55140203 -0.36077735 0.9106051 -0.49009383 0.06548401 -0.75048286 0.29103568 -0.8708861
-0.73958516 0.5259831 0.9495859 0.90292543 -0.033985805 0.82680315 -0.9245184 -0.7252986
-0.07751846 0.6397831 0.8197985 -0.3686565 -1.047318 0.35619116 -0.4927396 -0.040997576
-0.48137224 -0.9626183 -0.5964387 -0.63446784 -0.82581425 0.30896315 -0.92861116 -0.20644897
-0.8557298 -0.3378415 -0.26161078 -0.86561733 0.15550609 -0.815709 -0.84601456 0.32430938
0.67326516 1.0270667 0.4282271 -0.13557178 -0.10622031 0.7722496 0.035535153 -0.24147744
-0.64275354 -0.74927044 -0.050476838 -0.37227225 -0.49730363 1.0628418 -0.21342832 -0.9482794
00000000: 21c1 20bf 2fa9 8e3e dcf5 3abf 6659 33bf
00000010: df55 48be cc92 8dbf f512 9c3e 24f3 99be
00000020: 6c1b adbe 113f 08bf 347f ef3e 6773 96be
00000030: 87b4 063f 6025 3c3d 1296 39be 1ebc 1abf
00000040: 2771 9b3e 97f0 85bf 39fa 003f 5d89 5abf
00000050: f7c4 163f 603a 9e3e db4d 3cbd 9ecb 38bf
00000060: 33d2 3f3e f7db 2a3f 8acd 4d3f 1db9 123f
00000070: b155 7f3f df5f 0f3f c8a5 903f a809 19be
00000080: 5bb9 aa3e e4a6 02bf b781 39bf fb1d 8fbe
00000090: 18d1 6abf d6db 88be 5aff e33e b3ea 8cbf
000000a0: 623a 873f 1b64 263f 574f 773f 701e e3bc
000000b0: fe4b 7f3f d7d0 f0be 12cf 43be 71c5 823f
000000c0: edb8 603f fd7f 42be cb42 fdbe b3b9 75bf
000000d0: 8626 57bf 2d78 333f d095 403f 1c36 5bbe
000000e0: eb73 f8bd ebab 34bf d0d8 183e 7b20 363f
000000f0: 9de8 46bf 36f5 073f 46c4 3abc 8af9 4b3f
00000100: 2291 32bf 074e 003f 6dae 0bbe 7811 73bf
00000110: 78af 113f 92e8 84bf 745f 333f 1104 b13e
00000120: af28 0d3f cfb7 b8be 6a1d 693f 94ed fabe
00000130: 7b1c 863d a51f 40bf a102 953e 64f2 5ebf
00000140: 7455 3dbf d4a6 063f 1018 733f 1f26 673f
00000150: b334 0bbd 5fa9 533f 3dad 6cbf 2bad 39bf
00000160: 00c2 9ebd d3c8 233f 51de 513f 8bc0 bcbe
00000170: 840e 86bf b05e b63e 5d48 fcbe 13ed 27bd
00000180: 6c76 f6be 276e 76bf 35b0 18bf 7c6c 22bf
00000190: 9068 53bf 6b30 9e3e 76b9 6dbf 5c67 53be
000001a0: 1c11 5bbf 90f9 acbe d9f1 85be 1999 5dbf
000001b0: fd3c 1f3e 4ed2 50bf 6994 58bf e10b a63e
000001c0: 1b5b 2c3f ec76 833f 9540 db3e 54d3 0abe
000001d0: 098a d9bd 26b2 453f 4f8d 113d dd45 77be
000001e0: 7f8b 24bf 30d0 3fbf cdc0 4ebd 789a bebe
000001f0: 959e febe 330b 883f f48c 5abe 70c2 72bf

in_proj.bias f4 [64]
-0.25351363 0.31358466 -0.024609525 0.49871534 0.49806657 0.36159143 -0.5706172 -0.28540534
-0.4134236 -0.005501365 -0.19033337 -0.021535818 0.23586486 -0.11731287 -0.4050695 0.0043825214
0.2763013 -0.61370873 0.41268077 -0.006189072 0.0035451115 0.36016083 -0.57922965 0.39374852
-0.24158275 -0.39501497 0.0042655696 -0.1574265 -0.24310693 -0.21476348 -0.3199685 -0.48882833
0.22950517 -0.56411695 -0.09163648 -0.0021943913 -0.5040604 0.021162508 0.42719713 -0.07487033
-0.4267981 0.27158576 -0.09130706 0.6151431 0.54568905 -0.023079686 -0.31664488 -0.29410195
0.49823183 0.018505102 -0.14829376 -0.6333403 0.42553687 0.40267438 -0.07424059 -0.11265985
-0.46873274 -0.2175314 -0.17865728 0.37891945 0.018857354 0.21754383 -0.06933973 -0.6048799
00000000: 8acc 81be 2b8e a03e ea99 c9bc 9e57 ff3e
00000010: 9502 ff3e 8322 b93e f813 12bf a620 92be
00000020: 42ac d3be cb44 b4bb c0e6 42be e26b b0bc
00000030: 8f86 713e bb41 f0bd 4565 cfbe 419b 8f3b
00000040: 5d77 8d3e 041c 1dbf e54a d33e b3cd cabb
00000050: 1a55 683b 0067 b83e 6548 14bf 6899 c93e
00000060: 7861 77be 673f cabe 31c6 8b3b 6a34 21be
00000070: 06f1 78be f5ea 5bbe e9d2 a3be b547 fabe
00000080: 6703 6b3e f869 10bf e8ab bbbd c7cf 0fbb
00000090: 1a0a 01bf ff5c ad3c 95b9 da3e 9e55 99bd
000000a0: 4885 dabe 4a0d 8b3e 32ff babd 057a 1d3f
000000b0: 47b2 0b3f 9c11 bdbc 471f a2be 8894 96be
000000c0: 3e18 ff3e 0398 973c 52da 17be 9722 22bf
000000d0: f8df d93e 562b ce3e 730b 98bd 35ba e6bd
000000e0: bdfd efbe 8dc0 5ebe eff1 36be bb01 c23e
000000f0: bd7a 9a3c cfc3 5e3e fd01 8ebd 69d9 1abf

convs.0.a f4 [128, 1]
-0.010054349 -0.025618063 -0.007238206 -0.002342268 -0.022190861 -0.0070047653 -0.0005838336 0.0004092572
-0.0070702396 -0.0012808735 0.0012016711 -0.0067519518 0.0007428812 -0.002912666 0.0026288298 4.9010192e-05
-0.007857278 -0.0049935873 -0.020903882 -0.011311457 0.00078024075 0.005914713 -7.153909e-05 -0.012201296
0.009406667 -0.0002511859 -0.013978294 0.009047391 0.0013029547 -0.0045487396 -0.011127195 -0.001262268
-0.015962197 2.5930054e-05 -0.0076282425 -0.0041810824 -0.0025947331 -0.0016116257 -0.009742158 -0.007171059
-0.008047059 0.01752285 -0.0063927723 -0.031200526 -0.0084587 -0.00025211592 -0.013964328 -0.0074894866
-0.025252873 -0.013903629 -0.0124236345 -0.008520563 -0.028129293 -0.02330922 -0.0033373844 -0.011262933
0.0010172054 0.0032139972 -0.009309894 -0.0026960154 -0.006754128 -0.010173392 -0.01637036 0.0007992325
0.6775773 1.1591128 0.9254276 0.14294012 0.2257567 0.21507058 0.6905553 0.7137047
0.8248666 1.0498465 0.6519536 0.9094895 1.205405 0.66695625 0.6481558 1.0347096
1.3622634 0.62804556 0.64898914 1.0870135 1.0220922 1.016105 0.7268652 0.6666474
0.64736575 0.75773257 0.99997646 0.66263384 0.6970862 0.67555296 0.73366153 0.72585684
1.0667988 0.72586644 1.0630196 1.0422734 0.7041058 1.2622056 0.5244152 0.8905353
0.77921546 1.1362635 0.7440287 0.462844 0.1996154 0.9503189 0.6586893 0.6298888
0.6372634 0.89788 0.66068006 0.6689833 0.6229227 0.80481964 0.90598446 0.6561375
0.6814275 0.65502244 0.9072647 0.08913328 0.9484236 0.22138345 0.9878374 0.7275793
00000000: ffba 24bc f9dc d1bc 792e edbb bc80 19bb
00000010: 9cc9 b5bc 3b88 e5bb 690c 19ba 9291 d639
00000020: 78ad e7bb fce2 a7ba 6481 9d3a 7a3f ddbb
00000030: eabd 423a 6de2 3ebb 7248 2c3b 4b90 4d38
00000040: d0bb 00bc 3fa1 a3bb 9e3e abbc b053 39bc
00000050: 1289 4c3a 35d0 c13b 4207 96b8 f2e7 47bc
00000060: 6c1e 1a3c 9ab1 83b9 3705 65bc 823b 143c
00000070: e8c7 aa3a 980d 95bb d74e 36bc b072 a5ba
00000080: 27c3 82bc 5e84 d937 56f6 f9bb 7601 89bb
00000090: 660c 2abb 2f3d d3ba 939d 1fbc 34fb eabb
000000a0: d0d7 03bc 148c 8f3c 767a d1bb 3f98 ffbc
000000b0: 5c96 0abc 6d2e 84b9 a3ca 64bc 5e6a f5bb
000000c0: 1ddf cebc 0ccc 63bc 808c 4bbc d599 0bbc
000000d0: 676f e6bc faf2 bebc 05b8 5abb 2a88 38bc
000000e0: c053 853a eda1 523b 8788 18bc a2af 30bb
000000f0: bb51 ddbb 4cae 26bc 221b 86bc 9683 513a
00000100: b575 2d3f cf5d 943f d3e8 6c3f e55e 123e
00000110: c42c 673e 763b 5c3e 3bc8 303f 5ab5 363f
00000120: 752a 533f 5f61 863f 6ee6 263f 4ed4 683f
00000130: b64a 9a3f a5bd 2a3f 8aed 253f 5d71 843f
00000140: a65e ae3f 98c7 203f 2724 263f 4223 8b3f
00000150: ebd3 823f bb0f 823f d613 3a3f 67a9 2a3f
00000160: c3b9 253f c3fa 413f 75fe 7f3f 5fa2 293f
00000170: 3e74 323f 0af1 2c3f 3ed1 3b3f c1d1 393f
00000180: dd8c 883f 62d2 393f 0711 883f 3769 853f
00000190: 4740 343f f48f a13f 1340 063f 1ffa 633f
000001a0: aa7a 473f 1571 913f aa78 3e3f e4f9 ec3e
000001b0: fb67 4c3e 1948 733f dd9f 283f 6440 213f
000001c0: b223 233f 77db 653f 5422 293f 7d42 2b3f
000001d0: dd77 1f3f a908 4e3f 99ee 673f a1f8 273f
000001e0: 0872 2e3f 8daf 273f 8042 683f 828b b63d
000001f0: e4cb 723f 58b2 623e e9e2 7c3f a342 3a3f

convs.0.linear1.weight f4 [64, 64]
-0.26045644 -0.07060728 -0.22534585 -0.12743995 0.04351947 -0.13846855 -0.24969426 -0.23292339
-0.064930506 -0.010917021 -0.113154024 -0.13748 -0.270428 -0.16959986 -0.27560273 -0.39452362
0.031742025 -0.24954028 -0.14916813 -0.08301899 -0.2027033 -0.33551946 -0.3670373 0.18752106
-0.23391382 -0.24978699 -0.21417283 -0.3051643 -0.08690001 -0.3309585 -0.3011006 -0.20932108
-0.084658176 -0.007956314 0.16675 -0.17132364 -0.21235391 -0.24995127 0.0622242 0.03290747
-0.31673998 -0.23950213 0.08544579 0.030098116 0.04539178 -0.2732725 -0.33261338 -0.39143983
-0.063298665 0.06915029 -0.37979716 -0.15647615 0.02192661 -0.11849073 -0.07703994 -0.4205957
-0.24109763 -0.19415568 0.03850456 0.05002901 -0.16245785 -0.07481332 0.10498165 -0.1522969
-0.11977764 -0.06618852 0.27083546 -0.22425404 -0.055307664 -0.17310628 -0.14640184 0.20466311
0.1272799 -0.054468162 0.024676898 0.099624954 0.15954922 0.09519383 0.11671121 -0.19211997
-0.24007206 -0.16497895 -0.2949672 -0.10262935 0.07381915 -0.08841575 0.015669564 0.036624067
-0.10686826 0.2698687 -0.09274378 -0.062180918 0.12295324 0.34808528 -0.15236342 0.2860414
-0.10286729 0.17857862 -0.11549726 -0.07572537 0.090598986 -0.24461722 0.21750878 0.0847123
-0.019575607 0.057975404 0.21592566 -0.29417214 -0.010672085 -0.26606292 -0.031063378 -0.16218372
0.13964842 0.03710926 -0.11601684 -0.17107287 -0.31839517 0.072846495 0.29078373 -0.16139038
0.11150316 -0.23963127 0.357031 -0.18920238 0.029224563 0.0105034355 0.06977785 0.21312043
0.087770835 0.42141595 0.18796596 0.018669724 0.13275911 -0.25611708 0.25111055 0.4410554
-0.4923151 -0.37337494 0.49861038 -0.061383817 0.19342136 0.5115477 0.40523842 0.16076933
-0.51125175 0.30355147 0.2133954 -0.583005 0.5328693 0.16660841 -0.09990322 -0.44820175
0.29881173 0.5038239 -0.15535857 0.28994444 0.23998286 0.34387186 -0.1820451 -0.119558066
-0.3364677 0.18918762 -0.62802976 0.46417567 -0.19468279 -0.31862953 -0.46946797 -0.63596666
-0.32602328 0.3054307 -0.011369019 0.28114724 -0.45277804 -0.008190253 0.085925385 0.30761683
0.26691076 0.33601367 0.11698301 0.49381799 0.24735554 0.21904643 -0.48300523 0.14180672
0.44927314 0.25389978 -0.33644506 -0.24538845 0.43010676 -0.067455 -0.49742457 0.2452118
-0.09115406 0.36254108 0.0008454772 -0.1330935 -0.088980496 -0.32708701 -0.013352984 0.14846312
-0.26325613 -0.2724198 0.48407093 -0.23458338 0.06537756 0.5818268 0.42060447 0.025817014
-0.2676739 0.3228198 0.03924583 -0.3361182 0.24952379 -0.10723314 -0.14477445 -0.62203497
-0.0865388 0.20737334 -0.045020092 -0.088142805 0.11157588 0.056934495 -0.13675068 -0.284932
-0.19078077 0.045288138 -0.22105429 0.2200361 -0.026539175 -0.3943533 -0.46982452 -0.32783055
-0.06766952 0.37711322 -0.26259717 0.022203146 -0.3071269 -0.15513106 -0.019399198 0.015489274
0.07549326 0.51736367 -0.17044787 0.18859902 0.023982583 -0.04400503 -0.18341021 -0.0265458
0.40246314 -0.2129872 -0.25918105 -0.38115063 0.38787135 -0.36884812 -0.2175142 0.2074383
00000000: 8c5a 85be 8d9a 90bd 10c1 66be 9e7f 02be
00000010: 7941 323d b3ca 0dbe daaf 7fbe 7883 6ebe
00000020: 49fa 84bd 4edd 32bc 4cbd e7bd 8fc7 0cbe
00000030: 8a75 8abe 96ab 2dbe cd1b 8dbe 00ff c9be
00000040: ed03 023d 7d87 7fbe 88bf 18be dc05 aabd
00000050: 7491 4fbe 35c9 abbe 50ec bbbe 8505 403e
00000060: 1b87 6fbe 29c8 7fbe 1f50 5bbe 7f3e 9cbe
00000070: a2f8 b1bd 6473 a9be dc29 9abe 4458 56be
00000080: 4461 adbd 335b 02bc 83c0 2a3e 776f 2fbe
00000090: 4e73 59be 3af3 7fbe cede 7e3d fcc9 063d
000000a0: be2b a2be 0c40 75be 34fe ae3d 5390 f63c
000000b0: bbec 393d 60ea 8bbe 4d4c aabe cd6a c8be
000000c0: bba2 81bd ab9e 8d3d c674 c2be 493b 20be
000000d0: 6f9f b33c 45ab f2bd 1ec7 9dbd 5258 d7be
000000e0: 4ce2 76be bfd0 46be f5b6 1d3d 38eb 4c3d
000000f0: 5a5b 26be ba37 99bd 9f00 d73d b8f3 1bbe
00000100: fb4d f5bd d98d 87bd f2aa 8a3e daa2 65be
00000110: 4a8a 62bd c642 31be 5dea 15be 3593 513e
00000120: a955 023e 021a 5fbd 3527 ca3c 2b08 cc3d
00000130: df60 233e fcf4 c23d 4906 ef3d 19bb 44be
00000140: 73d5 75be 3ef0 28be f105 97be 562f d2bd
00000150: 7f2e 973d 5113 b5bd 755d 803c 1e03 163d
00000160: bfdd dabd 3b2c 8a3e 73f0 bdbd 6bb1 7ebd
00000170: e9ce fb3d 3c38 b23e 2805 1cbe 0574 923e
00000180: 16ac d2bd 50dd 363e d489 ecbd e715 9bbd
00000190: f68b b93d f07c 7abe 9fba 5e3e a47d ad3d
000001a0: 065d a0bc 9e77 6d3d 9e1b 5d3e bb9d 96be
000001b0: f8d9 2ebc 6639 88be a078 febc 7d13 26be
000001c0: ffff 0e3e e1ff 173d 3d9a edbd ba2d 2fbe
000001d0: b104 a3be 8b30 953d 9be1 943e 8543 25be
000001e0: c55b e43d e661 75be c4cc b63e 45be 41be
000001f0: 5a68 ef3c 9a16 2c3c b0e7 8e3d 3e3c 5a3e
00000200: 32c1 b33d d5c3 d73e 267a 403e 40f1 983c
00000210: 01f2 073e c721 83be 9091 803e 03d2 e13e
00000220: ba10 fcbe 002b bfbe dc49 ff3e 996d 7bbd
00000230: 4010 463e caf4 023f 697b cf3e b7a0 243e
00000240: 65e1 02bf 196b 9b3e 5384 5a3e d13f 15bf
00000250: 1f6a 083f 659b 2a3e 0f9a ccbd b37a e5be
00000260: dafd 983e 9afa 003f 5116 1fbe 9973 943e
00000270: 11be 753e f90f b03e 086a 3abe dcda f4bd
00000280: 7f45 acbe 66ba 413e 8fc6 20bf 6fa8 ed3e
00000290: ed5a 47be 6923 a3be 1b5e f0be b6ce 22bf
000002a0: 86ec a6be 6a61 9c3e 1f45 3abc 88f2 8f3e
000002b0: 86d2 e7be 6930 06bc a6f9 af3d f47f 9d3e
000002c0: 87a8 883e fc09 ac3e ca94 ef3d b6d5 fc3e
000002d0: c54a 7d3e b54d 603e 764c f7be c835 113e
000002e0: 2107 e63e 27ff 813e 8742 acbe 1c47 7bbe
000002f0: f436 dc3e d925 8abd 6fae febe cd18 7b3e
00000300: fbae babd fc9e b93e 04a3 5d3a aa49 08be
00000310: 683b b6bd f377 a7be 79c6 5abc b706 183e
00000320: 82c9 86be 9c7a 8bbe 25d8 f73e a036 70be
00000330: ace4 853d 9af2 143f 7859 d73e 347e d33c
00000340: 8e0c 89be a348 a53e 3cc0 203d af17 acbe
00000350: 2a83 7f3e 0c9d dbbd c13f 14be af3d 1fbf
00000360: 413b b1bd ad59 543e fd66 38bd 3784 b4bd
00000370: e581 e43d 2534 693d 5f08 0cbe 9be2 91be
00000380: 095c 43be 0e80 393d 0e5c 62be 2551 613e
00000390: af68 d9bc ade8 c9be d78c f0be 68d9 a7be
000003a0: 5196 8abd fc14 c13e 2373 86be 5fe3 b53c
000003b0: bd3f 9dbe adda 1ebe 11eb 9ebc b9c6 7d3c
000003c0: 369c 9a3d f271 043f e389 2ebe 1a20 413e
000003d0: 1f77 c43c 9e3e 34bd e3cf 3bbe 9476 d9bc
000003e0: a60f ce3e 5119 5abe 61b3 84be 2d26 c3be
000003f0: 1397 c63e a9d9 bcbe 0bbc 5ebe b56a 543e

convs.0.linear1.bias f4 [64]
-0.11018085 0.7320737 0.0616171 0.34722474 0.6087964 0.012971178 -0.07843584 -0.15962902
0.24612755 -0.5105022 0.31735623 -0.122601345 -0.042993423 -0.0030348436 0.19932047 -0.017556116
-0.34253064 -0.0134169385 -0.030537857 0.07621984 -0.27619958 -0.15539835 -0.5031924 -0.41174427
0.032532353 0.10992515 -0.7038441 -0.629102 -0.014050008 -0.2826553 -0.025752122 -0.054266226
-0.032856353 0.16366448 0.0048160446 -0.2785158 0.06886497 0.2949907 -0.19260773 -0.029972237
-0.016890217 0.21648839 -0.003975623 0.004895665 -0.0070113866 -0.028827932 -0.018140156 0.50862855
0.09827385 -0.01103915 -0.20177706 -0.2053072 0.25910935 -0.66701335 0.3863957 0.72537404
-0.30360845 -0.08004127 -0.33245844 0.082454436 -0.28248134 -0.003970383 0.007241462 0.486298
00000000: 7fa6 e1bd 2f69 3b3f 3662 7c3d 71c7 b13e
00000010: 15da 1b3f 1085 543c f8a2 a0bd ca75 23be
00000020: dc08 7c3e 46b0 02bf 847c a23e 6a16 fbbd
00000030: df19 30bd 3ae4 46bb aa1a 4c3e d8d1 8fbc
00000040: 2d60 afbe b8d2 5bbc 872a fabc 2619 9c3d
00000050: 086a 8dbe bf20 1fbe 38d1 00bf 25d0 d2be
00000060: a540 053d 7020 e13d 202f 34bf d40c 21bf
00000070: 0132 66bc 32b8 90be 1df6 d2bc 4346 5ebd
00000080: 6294 06bd a997 273e e9cf 9d3b 9f99 8ebe
00000090: 1409 8d3d 0509 973e f63a 45be 5688 f5bc
000000a0: 5a5d 8abc 22af 5d3e f145 82bb d16b a03b
000000b0: c6bf e5bb 8e28 ecbc aa9a 94bc 7b35 023f
000000c0: cd43 c93d 8ddd 34bc a59e 4ebe 0d3c 52be
000000d0: fba9 843e 63c1 2abf a8d5 c53e 1db2 393f
000000e0: 9172 9bbe adec a3bd fe37 aabe dfdd a83d
000000f0: 65a1 90be fd19 82bb c949 ed3b 0dfc f83e

convs.0.linear2.weight f4 [64, 64]
0.12526993 -0.5111549 -0.27792913 -0.1608157 -0.03923142 0.040870264 -0.011686154 -0.00061476894
-0.076186806 0.49056786 -0.12606755 -0.038140345 -0.06336405 -0.014830451 -0.22169223 0.26839218
0.05601297 -0.12627703 0.2995907 -0.20456435 -0.554835 0.14800875 0.6662941 0.25711045
0.17890605 1.13566 0.39425924 0.7498509 0.7877977 -0.06691088 0.064859815 0.2510256
-0.38319302 -0.083687074 0.18031165 0.04765809 -0.1898082 -0.2582146 0.12197392 -0.030759988
0.25361463 -0.20319398 0.10145671 -0.15626596 -0.27173868 0.12094506 -0.1157875 -0.4282014
0.09638921 0.44665924 0.35690236 0.1093051 -0.38321564 0.63128436 -1.003603 -0.2897468
0.3661056 0.13068454 0.2306568 0.010502739 0.111559905 0.1879281 0.84459496 -0.14172213
0.13818054 0.26131833 -0.2740631 0.03326086 0.007854074 -0.27349073 0.19191241 -0.12808068
0.2581671 0.26588917 0.072005086 0.063877404 -0.012444657 0.1030858 0.21755435 0.18408254
0.03358575 0.1525336 0.04911281 0.15279515 -0.33300322 0.04415528 -0.027817497 -0.1000293
0.42754233 0.4694925 -0.16623256 -0.20737892 -0.037485562 -0.20116842 0.17014587 -0.0572952
-0.22204967 0.083480515 0.04775802 0.119853914 0.096077554 0.12587786 0.31558722 -0.06714704
-0.27658972 -0.1428295 -0.15380032 0.29032588 0.23772326 -0.5412281 0.023894599 0.050427187
-0.102011874 0.11365646 0.003985035 0.020744264 0.37915272 -0.2804026 0.2382091 0.05290658
0.17845379 -0.011984415 0.1961167 -0.069641694 0.100041226 0.018530695 0.007840321 -0.08528873
0.38587865 -0.46581867 -1.4733213 -0.9081091 -0.3136828 0.060408603 0.14353468 0.11790021
-0.23114821 0.6799441 0.7600698 0.5209511 0.48907718 0.70170814 -0.96033907 1.5135161
0.44395393 0.59657913 -0.24016154 0.2152088 -0.29160368 1.202316 1.7138994 0.30208474
1.0642059 -0.14255096 0.663977 1.0445728 1.5418285 0.20226881 -0.06186107 1.0221667
-1.3330175 -0.53715986 1.128025 0.6394931 0.32657516 -0.31271335 0.4218114 -0.68437916
-0.20390618 -0.26527372 -0.15015037 0.4544724 0.30000883 -0.43990186 0.08761499 0.104526505
-0.170781 0.89011186 1.4489267 -0.4579787 -0.35949543 0.99919796 -1.4165889 -0.35901195
0.6875058 -0.2569884 0.86909395 -0.4507776 -0.7286027 -0.21906087 1.4357182 -0.428041
0.08838849 0.49358705 -0.16763788 0.18629816 0.07401968 -0.032589294 -0.09791164 -0.11138247
-0.008927126 -0.4378752 0.5513722 0.0035126563 0.124162234 0.07839301 -0.102615654 0.19842845
-0.11037658 0.21237063 0.01700301 0.14125867 -0.8389052 0.0037051747 -0.1710325 -0.17091034
0.25572222 -0.023668941 -0.4435079 -0.45632935 0.0119195 -0.7593284 0.017781882 0.12361116
-0.09082873 0.10440387 0.07912683 -0.080905035 0.08748393 0.08428046 -0.15275082 0.010090581
0.023702594 0.057369985 -0.17964326 0.034101784 0.1754917 -0.03267782 0.11401273 0.39148158
-0.0194213 -0.11035286 0.12055463 -0.1505342 0.2166375 -0.49936256 0.51465183 0.29555377
-0.01588956 -0.23886861 -0.036335208 0.031195499 -0.42577636 -0.1852538 0.08393213 0.13646674
00000000: c346 003e 0cdb 02bf ba4c 8ebe dfac 24be
00000010: 20b1 20bd 9467 273d 4877 3fbc 7228 21ba
00000020: d407 9cbd b62b fb3e da17 01be 0d39 1cbd
00000030: 03c5 81bd 6cfb 72bc 4a03 63be b36a 893e
00000040: db6d 653d c44e 01be f463 993e 5179 51be
00000050: ab09 0ebf 9b8f 173e 4092 2a3f fba3 833e
00000060: 2633 373e 4f5d 913f 59dc c93e 3bf6 3f3f
00000070: 1cad 493f 9208 89bd 39d5 843d 6d86 803e
00000080: e031 c4be 2164 abbd 9ea3 383e 2135 433d
00000090: 155d 42be b434 84be 76cd f93d 5ffc fbbc
000000a0: c7d9 813e 1512 50be 89c8 cf3d 2f04 20be
000000b0: 5521 8bbe 0bb2 f73d ff21 edbd 373d dbbe
000000c0: b567 c53d 85b0 e43e e8bb b63e 5adb df3d
000000d0: d734 c4be da9b 213f 1076 80bf b159 94be
000000e0: 3172 bb3e 2bd2 053e 4c31 6c3e ae13 2c3c
000000f0: 8579 e43d 3970 403e 6037 583f 9b1f 11be
00000100: 337f 0d3e 84cb 853e 0052 8cbe 8a3c 083d
00000110: 60ae 003c fa06 8cbe b084 443e 9527 03be
00000120: 7a2e 843e a022 883e 6777 933d 28d2 823d
00000130: ade4 4bbc a61e d33d 91c6 5e3e 2280 3c3e
00000140: 3691 093d c531 1c3e 842a 493d 5576 1c3e
00000150: 667f aabe 2bdc 343d 85e1 e3bc 29dc ccbd
00000160: d4e6 da3e 5261 f03e de38 2abe 245b 54be
00000170: 768a 19bd 18ff 4dbe b83a 2e3e 5fae 6abd
00000180: fd60 63be d5f7 aa3d ea9d 433d f875 f53d
00000190: 4fc4 c43d 20e6 003e a694 a13e 6384 89bd
000001a0: 2b9d 8dbe e541 12be d57d 1dbe 98a5 943e
000001b0: ba6d 733e ed8d 0abf 9bbe c33c bd8c 4e3d
000001c0: 9aeb d0bd b8c4 e83d e594 823b e0ef a93c
000001d0: 4e20 c23e ee90 8fbe 16ed 733e 92b4 583d
000001e0: 97bc 363e 485a 44bc d1d2 483e 4ea0 8ebd
000001f0: 6ae2 cc3d afcd 973c b174 003c dcab aebd
00000200: e391 c53e c97f eebe cb95 bcbf d779 68bf
00000210: 089b a0be 036f 773d c1fa 123e aa75 f13d
00000220: 1eb2 6cbe d110 2e3f ef93 423f 0d5d 053f
00000230: 5368 fa3e 25a3 333f c8d8 75bf e5ba c13f
00000240: ee4d e33e 69b9 183f e8ec 75be b25f 5c3e
00000250: 144d 95be 7ee5 993f 0e61 db3f daaa 9a3e
00000260: e637 883f e1f8 11be 66fa 293f 90b4 853f
00000270: a35a c53f 8e1f 4f3e 0962 7dbd 5cd6 823f
00000280: 51a0 aabf 4f83 09bf 2063 903f d2b5 233f
00000290: dc34 a73e f71b a0be aaf7 d73e 7933 2fbf
000002a0: c8cc 50be f5d1 87be 05c1 19be 9bb0 e83e
000002b0: c29a 993e d13a e1be 7d6f b33d fe11 d63d
000002c0: 37e1 2ebe 5fde 633f 6e76 b93f 2f7c eabe
000002d0: c90f b8be 70cb 7f3f c952 b5bf 6ad0 b7be
000002e0: 6100 303f fc93 83be f17c 5e3f 52cc e6be
000002f0: b585 3abf 7e51 60be 9dc5 b73f 3128 dbbe
00000300: 0605 b53d 71b7 fc3e 44a9 2bbe f2c4 3e3e
00000310: a197 973d 5a7c 05bd e685 c8bd 7e1c e4bd
00000320: 1543 12bc 2e31 e0be ba26 0d3f 9834 663b
00000330: c548 fe3d 848c a03d 2828 d2bd d430 4b3e
00000340: 1e0d e2bd b077 593e e549 8b3c 1da6 103e
00000350: 7ec2 56bf 84d2 723b 2523 2fbe 1f03 2fbe
00000360: 06ee 823e 5ee5 c1bc 7813 e3be 00a4 e9be
00000370: 024a 433c 5963 42bf 4fab 913c d927 fd3d
00000380: 6a04 babd b2d1 d53d 3f0d a23d 8ab1 a5bd
00000390: c62a b33d 3c9b ac3d b66a 1cbe f752 253c
000003a0: f12b c23c cafc 6a3d 67f4 37be 50ae 0b3d
000003b0: 19b4 333e 2ed9 05bd 827f e93d 4670 c83e
000003c0: 6b19 9fbc ae00 e2bd 59e5 f63d a325 1abe
000003d0: 39d6 5d3e 73ac ffbe 39c0 033f d352 973e
000003e0: d32a 82bc f999 74be 3ad4 14bd b48d ff3c
000003f0: 5cff d9be 2cb3 3dbe 9ce4 ab3d f0bd 0b3e

convs.0.linear2.bias f4 [64]
-0.70473254 0.24296355 -0.3286694 0.7959711 -0.3715329 0.87657416 0.14641608 -0.25530943
0.029563291 0.66374093 0.17838496 -0.30848235 0.40687412 -0.037175085 -0.47178173 0.1992105
1.3439642 0.13592467 -0.22903651 -0.7594004 -0.3761412 0.3095387 -0.13112034 0.31800964
-0.77929986 -0.017643698 -0.33696017 0.16090444 0.2751387 0.16535771 -0.20277038 -0.27996168
0.1519251 -0.33737296 -0.15682976 0.10755948 0.17958407 0.038564447 -0.1715479 -0.40024233
0.19935994 -0.301156 0.07609434 -0.4891633 -0.1438392 -0.24837781 0.13254164 -0.43305343
-0.22570157 0.16683061 -0.05737466 -0.0345129 0.23638138 -0.49136978 -0.5178126 0.03939699
0.22988127 -0.057350125 0.25982696 -0.1870928 0.2526203 0.02492937 -0.10519059 -0.13438474
00000000: 5a69 34bf 70cb 783e 5b47 a8be c3c4 4b3f
00000010: 8f39 bebe 2a67 603f 19ee 153e ebb7 82be
00000020: b72e f23c edea 293f 8caa 363e 66f1 9dbe
00000030: ce51 d03e e744 18bd 608d f1be d6fd 4b3e
00000040: 0507 ac3f d62f 0b3e 8c88 6abe 1168 42bf
00000050: 9495 c0be db7b 9e3e 6944 06be 29d2 a23e
00000060: 3280 47bf 8489 90bc 0b86 acbe 22c4 243e
00000070: fbde 8c3e 8853 293e 0aa3 4fbe 2357 8fbe
00000080: 4192 1b3e 26bc acbe fb97 20be 2548 dc3d
00000090: e3e4 373e c1f5 1d3d 41aa 2fbe 90ec ccbe
000000a0: 0325 4c3e 1f31 9abe 59d7 9b3d 9d73 fabe
000000b0: 954a 13be c156 7ebe ffb8 073e 2eb9 ddbe
000000c0: 501e 67be a5d5 2a3e b101 6bbd 665d 0dbd
000000d0: f60d 723e d294 fbbe 5e8f 04bf bd5e 213d
000000e0: ff65 6b3e f7e7 6abd 0a08 853e 4195 3fbe
000000f0: 7357 813e ae38 cc3c 2a6e d7bd 279c 09be

convs.1.a f4 [128, 1]
0.00017945051 0.020043885 -7.168008e-06 -0.023013916 2.6810808e-06 -0.024427313 6.722085e-05 3.865802e-06
0.0028624465 -0.04523168 0.046344403 -9.63216e-06 0.020739216 0.02171584 -0.00027987658 0.031022243
-0.07585012 9.7646145e-05 0.00030607954 -6.1722276e-06 4.72747e-07 0.005282936 0.0020942714 0.007415592
-2.976003e-05 1.5650701e-06 1.2457078e-05 -0.010255206 0.04804571 0.055471648 0.005974681 -3.4791025e-05
0.016622426 -5.277038e-06 -3.8248527e-07 0.007338604 -0.022875303 0.06392533 0.0345307 6.599919e-06
0.045595124 3.52001e-05 0.019880297 3.2383928e-06 1.5115512e-06 1.6365651e-05 -0.012836755 1.233182e-06
-4.835024e-05 0.05938943 0.07255404 0.016755015 0.025953077 -3.9569395e-06 -1.33735075e-05 1.9605177e-05
0.00730062 0.008734599 0.059406858 8.8735214e-07 0.052307837 0.05903675 2.3327211e-05 -0.00018309639
1.8164665 0.4342767 5.5603743 -0.3354474 3.6967287 -0.30765295 1.7970895 4.281618
0.5549404 -0.28117228 -0.009942243 4.1175146 -0.0302726 -0.8502586 0.45684493 -0.008018302
-0.36251456 2.1075003 1.3480743 5.8676295 5.81387 0.21965499 0.015867488 -0.046471383
3.120108 5.416211 5.5060983 -0.008946435 -0.6230515 0.2966831 1.141948 5.714133
0.106379986 5.2141066 5.250522 0.7011133 -0.49844435 0.06518623 0.5875323 5.6190248
0.10099362 1.5284933 0.20340548 5.124561 5.4449267 4.7246175 -1.2118222 4.940706
2.3974626 0.08742355 0.55172616 1.060928 0.26813856 5.4103823 5.274593 0.87705916
-1.2109514 0.87438226 0.27333075 5.3839765 0.25728226 0.11556629 5.152715 1.4307649
00000000: e12a 3c39 1333 a43c b884 f0b6 ae87 bcbc
00000010: 9eec 3336 ca1b c8bc ebf8 8c38 fcb6 8136
00000020: e297 3b3b db44 39bd a1d3 3d3d d099 21b7
00000030: 4ae5 a93c 6be5 b13c 66bc 92b9 5c22 fe3c
00000040: 4f57 9bbd 60c7 cc38 4d79 a039 081b cfb6
00000050: dacd fd34 7b1c ad3b 0b40 093b 7ffe f23b
00000060: 2ea5 f9b7 660f d235 befe 5037 7405 28bc
00000070: 94cb 443d 3d36 633d 42c7 c33b 94ec 11b8
00000080: c12b 883c 6911 b1b6 6058 cdb4 ac78 f03b
00000090: fd64 bbbc 49eb 823d 1070 0d3d df74 dd36
000000a0: f4c1 3a3d d2a3 1338 01dc a23c 2a53 5936
000000b0: 81e0 ca35 f848 8937 4151 52bc d083 a535
000000c0: adcb 4ab8 5542 733d 3697 943d d041 893c
000000d0: 8c9b d43c dac5 84b6 c75e 60b7 cc75 a437
000000e0: 0a3a ef3b 901b 0f3c 9b54 733d 6032 6e35
000000f0: be40 563d 85d0 713d ceae c337 90fd 3fb9
00000100: f981 e83f 8459 de3e 96ee b140 c3bf abbe
00000110: 3497 6c40 b084 9dbe 0707 e63f 0403 8940
00000120: 9310 0e3f d0f5 8fbe cae4 22bc aec2 8340
00000130: 3efe f7bc 8caa 59bf 94e7 e93e 325f 03bc
00000140: 829b b9be 49e1 0640 b38d ac3f 9fc3 bb40
00000150: 390b ba40 3ded 603e 89fc 813c c758 3ebd
00000160: d9af 4740 9a51 ad40 f531 b040 1194 12bc
00000170: 4e80 1fbf d9e6 973e 5a2b 923f 2dda b640
00000180: c0dd d93d f6d9 a640 4704 a840 297c 333f
00000190: 1934 ffbe 5c80 853d 8468 163f 0dcf b340
000001a0: bed5 ce3d aba5 c33f 8749 503e 67fc a340
000001b0: d73c ae40 1130 9740 fd1c 9bbf 431a 9e40
000001c0: 0770 1940 1e0b b33d ed3d 0d3f 7dcc 873f
000001d0: 7549 893e da21 ad40 77c9 a840 f386 603f
000001e0: 7500 9bbf 84d7 5f3f 02f2 8b3e 8949 ac40
000001f0: 80ba 833e 05ae ec3d 0be3 a440 4e23 b73f

convs.1.linear1.weight f4 [64, 64]
1.7641138 -0.0006124168 1.796113 1.4391229 1.2936327 0.94893235 1.2558702 1.1281996
1.0880402 0.7203656 0.11214761 2.087708 0.69013387 -0.061154693 -0.90307355 0.40465885
1.2004923 1.1892705 0.9458284 2.219883 1.8399874 0.47496837 0.48717478 0.48039585
1.7530428 2.0893269 1.9010658 0.3352809 -0.39306676 0.31280673 0.64793026 1.9080081
0.48100895 2.6062024 1.4678249 0.20370132 -0.3125671 0.36473477 0.55887437 1.8871754
0.48656422 1.716633 0.049082704 2.2890344 1.9990178 1.3263535 -0.14982739 1.2593467
0.92086643 0.24425526 0.1342374 0.6436327 0.037541892 2.6380117 1.425533 1.0619546
-0.45327374 0.6839634 0.37864828 1.7682312 0.01587062 0.13424827 1.9232041 1.129247
2.0193536 -0.3190764 1.9189152 0.7529654 1.3699613 1.0435996 0.89312094 0.6342003
1.3858889 0.85378903 -0.08802133 2.5835698 -0.09482491 -0.63054836 -0.9752583 0.1427889
1.4503525 1.2322438 1.0816168 2.7658277 1.5910122 0.2844884 0.23966773 -0.09903913
1.7587087 1.9125603 2.1548505 -0.0646724 -0.67402184 0.15295736 1.0206404 2.2621796
0.2637247 3.052719 1.7265698 0.0018545564 -0.5927462 0.15980092 0.46077567 2.356808
0.68716127 1.6677632 -0.23886105 2.3254073 2.1561158 0.90856624 -0.6349251 1.3385317
0.956546 0.27898332 -0.2556677 0.71533614 -0.33009532 2.8930333 1.1990567 0.65545577
-0.95751905 0.9462295 0.19110627 1.8512199 -0.31449267 -0.24481261 2.063086 0.96809477
1.8075038 -0.18678209 1.6107832 1.2703133 1.1957483 0.84349024 1.1814929 0.9104837
1.0282245 0.5547738 0.19738963 2.0900643 0.60041636 -0.2122354 -1.074112 0.14764117
1.2982005 1.281519 0.9498998 2.1978362 1.742278 0.40089217 0.35673112 0.30779037
1.5082171 1.8367991 1.7945373 0.05519793 -0.54791826 0.20081235 0.8131737 1.8849583
0.2267674 2.448795 1.467189 0.24919187 -0.17388317 0.34557498 0.46895158 1.9581043
0.35076144 1.6046878 0.055352103 2.2026324 1.8133649 1.4493434 -0.10018003 1.3601487
0.8375695 0.29146898 0.07086298 0.7695007 -0.1436318 2.4789495 1.3045391 0.9781034
-0.46952698 0.8433398 0.3288192 1.672929 -0.06429087 0.12715495 1.7511655 1.092084
-0.9240295 0.11251155 -0.2746652 -0.91991043 -0.3499374 -0.689638 -0.15926315 0.067558676
-0.08498082 -0.5716419 0.089753896 -0.6723915 -0.33057177 0.56343913 0.59895945 -0.07651119
-0.9805964 -0.19292483 -0.49312884 -0.51871246 -0.21257171 -0.05622194 -0.020612732 0.02217807
-0.6180941 -0.09520249 -0.52830297 0.036594287 0.14501072 -0.060155988 0.021534946 -0.54700303
0.115741566 -0.38089097 -0.36412945 -0.1030309 0.031224133 0.08362002 0.08746746 -0.69426423
-0.035276458 -0.9897551 0.32115692 -0.28189647 -0.4238262 -0.22386794 0.70605177 -0.3512675
-0.25303566 -0.03219957 0.3513354 -0.029410161 0.07838812 -0.62124664 -0.12177119 -0.022506362
0.009372379 -0.028042713 0.1067206 -0.48776746 -0.004291398 -0.0029363933 -0.21584648 -0.62757736
00000000: 7bce e13f 998a 20ba 08e7 e53f 2e35 b83f
00000010: c295 a53f 3bed 723f 5bc0 a03f d868 903f
00000020: e744 8b3f e169 383f a5ad e53d 029d 0540
00000030: 9dac 303f 587d 7abd d42f 67bf 722f cf3e
00000040: bba9 993f 043a 983f cf21 723f 9012 0e40
00000050: b584 eb3f 0e2f f33e f96e f93e 72f6 f53e
00000060: b563 e03f 88b7 0540 2056 f33f f0a9 ab3e
00000070: 0c40 c9be 3428 a03e c2de 253f 9c39 f43f
00000080: ce46 f63e 05cc 2640 b0e1 bb3f 1497 503e
00000090: cc08 a0be 84be ba3e 6412 0f3f f78e f13f
000000a0: f21e f93e a1ba db3f f20a 493d 8a7f 1240
000000b0: d1df ff3f f4c5 a93f 5a6c 19be 4632 a13f
000000c0: e7bd 6b3f 0d1e 7a3e 8775 093e 1dc5 243f
000000d0: 87c5 193d 2fd5 2840 de77 b63f 21ee 873f
000000e0: 7f13 e8be 3a18 2f3f 30de c13e 6655 e23f
000000f0: 1a03 823c 6178 093e 8d2b f63f 2a8b 903f
00000100: 173d 0140 fb5d a3be 039f f53f 57c2 403f
00000110: e45a af3f ac94 853f 93a3 643f f35a 223f
00000120: cf64 b13f eb91 5a3f 8744 b4bd 3559 2540
00000130: 9033 c2bd 9e6b 21bf 87aa 79bf 4137 123e
00000140: 27a5 b93f 2aba 9d3f 6b72 8a3f 5203 3140
00000150: 4aa6 cb3f 77a8 913e 756b 753e 07d5 cabd
00000160: 5e1d e13f c7ce f43f 12e9 0940 f772 84bd
00000170: b28c 2cbf dba0 1c3e 58a4 823f 8dc7 1040
00000180: ed06 873e c05f 4340 3d00 dd3f 9614 f33a
00000190: 37be 17bf daa2 233e caea eb3e f1d5 1640
000001a0: cde9 2f3f 4479 d53f fe97 74be 79d3 1440
000001b0: cdfd 0940 cc97 683f 748a 22bf 0255 ab3f
000001c0: 33e0 743f e7d6 8e3e e0e6 82be 4520 373f
000001d0: 4102 a9be 7527 3940 b17a 993f f3cb 273f
000001e0: f81f 75bf 193c 723f 5db1 433e c6f4 ec3f
000001f0: 2f05 a1be 28b0 7abe 9a09 0440 0fd5 773f
00000200: 495c e73f ce43 3fbe 252e ce3f a099 a23f
00000210: 480e 993f faee 573f 293b 973f 7615 693f
00000220: dc9c 833f a805 0e3f 8220 4a3e 9dc3 0540
00000230: e3b4 193f 3d54 59be 817c 89bf 3f2f 173e
00000240: 6f2b a63f d108 a43f a22c 733f 59a9 0c40
00000250: f702 df3f bd41 cd3e 76a5 b63e b396 9d3e
00000260: 420d c13f 3c1c eb3f 66b3 e53f 3a17 623d
00000270: 5f44 0cbf c1a1 4d3e 272c 503f 5046 f13f
00000280: b735 683e 0fb9 1c40 d9cc bb3f 272c 7f3e
00000290: 6e0e 32be 34ef b03e 6c1a f03e 29a3 fa3f
000002a0: 0197 b33e 6966 cd3f e3b8 623d eef7 0c40
000002b0: 571c e83f 1684 b93f 302b cdbd 5a19 ae3f
000002c0: f46a 563f 6c3b 953e 9c20 913d fffd 443f
000002d0: 3714 13be 1ca7 1e40 23fb a63f fc64 7a3f
000002e0: d765 f0be 1ee5 573f fd5a a83e 8a22 d63f
000002f0: efaa 83bd e834 023e 3126 e03f 69c9 8b3f
00000300: 338d 6cbf 756c e63d eba0 8cbe 407f 6bbf
00000310: ff2a b3be 1e8c 30bf e115 23be 345c 8a3d
00000320: 6d0a aebd 2057 12bf e4d0 b73d d921 2cbf
00000330: b440 a9be 8c3d 103f 6855 193f e6b1 9cbd
00000340: 5e08 7bbf 168e 45be 627b fcbe 57ca 04bf
00000350: 66ac 59be fa48 66bd 08dc a8bc c9ae b53c
00000360: 6a3b 1ebf 86f9 c2bd dd3e 07bf e4e3 153d
00000370: b17d 143e 2066 76bd 0e6a b03c 6408 0cbf
00000380: ea09 ed3d 2404 c3be 2d6f babe dd01 d3bd
00000390: c1c9 ff3c f940 ab3d 2422 b33d 4dbb 31bf
000003a0: 0c7e 10bd 9760 7dbf ae6e a43e bc54 90be
000003b0: bfff d8be a33d 65be cfbf 343f 55d9 b3be
000003c0: e48d 81be b2e3 03bd 3ce2 b33e 94ed f0bc
000003d0: f389 a03d 050a 1fbf 2c63 f9bd 435f b8bc
000003e0: 9b8e 193c d5b9 e5bc 5490 da3d a8bc f9be
000003f0: db9e 8cbb 8170 40bb dc06 5dbe e9a8 20bf

convs.1.linear1.bias f4 [64]
0.0059445035 -0.037044983 0.0075002126 0.0074224034 -0.07230131 -0.06148364 -0.00839932 0.046618987
-0.0057891393 -0.016480902 -0.04181573 -0.019965857 -0.022591807 0.029003782 -0.062032968 -0.0022778432
0.14173427 -0.08540819 0.0004394546 0.13786261 0.019469319 0.05174556 0.11883117 0.014387936
-0.046014164 0.19326042 -0.006650697 -0.01689503 0.06269626 0.10252737 -0.06780941 -0.033346817
0.029833458 -0.014184405 0.03991412 0.017339777 0.03543811 -0.08099988 0.017724374 0.020762078
0.011553428 0.01925085 0.06480925 0.028709842 -0.022795865 -0.071544975 -0.0026421219 0.017459793
0.022102088 0.038709164 0.020420292 0.07664073 -0.036360774 -0.029616445 0.015618048 0.0054911156
0.13701642 0.011334332 0.047219485 -0.069013685 -0.015089774 0.02698779 0.010182411 0.019426152
00000000: 1cca c23b 7bbc 17bd 58c4 f53b a237 f33b
00000010: b612 94bd 45d6 7bbd 4d9d 09bc 8df3 3e3d
00000020: d2b2 bdbb f502 87bc f946 2bbd 708f a3bc
00000030: 7412 b9bc 5799 ed3c 4816 7ebd de47 15bb
00000040: ca22 113e 7dea aebd 9966 e639 db2b 0d3e
00000050: 1f7e 9f3c 27f3 533d c25d f33d 61bb 6b3c
00000060: 5979 3cbd 0fe6 453e 17ee d9bb 7267 8abc
00000070: e666 803d dff9 d13d a9df 8abd ac96 08bd
00000080: 4c65 f43c b565 68bc fd7c 233d 260c 8e3c
00000090: 8d27 113d 44e3 a5bd b532 913c 3c15 aa3c
000000a0: 974a 3d3c f5b3 9d3c b6ba 843d e730 eb3c
000000b0: 65be babc 2c86 92bd 7327 2dbb d707 8f3c
000000c0: 700f b53c 808d 1e3d 7548 a73c d1f5 9c3d
000000d0: 09ef 14bd 309e f2bc d7e2 7f3c d1ee b33b
000000e0: 084e 0c3e a2b3 393c 3869 413d 0c57 8dbd
000000f0: 193b 77bc 7f15 dd3c 21d4 263c 9823 9f3c

convs.1.linear2.weight f4 [64, 64]
0.06316182 -0.8446173 -0.061149966 0.5827569 -0.3621222 -0.24146464 -0.23612133 0.2796215
0.054383177 -0.08451296 -0.10811183 0.0005506457 0.1283455 0.18664885 0.017512491 -0.099793606
0.53683096 -0.30825952 0.027137443 0.6056261 0.23327377 0.210439 0.30780816 0.116639905
-0.2759672 0.7428856 -0.07507583 -0.046717282 -0.07812236 0.51966727 -0.6412249 -0.22763939
-0.008184057 -0.046853412 0.025830228 -0.043649994 0.20197274 -0.2800445 0.13924165 -0.013535335
0.10646856 0.034361586 0.16703561 0.19586903 0.015475117 -0.098673545 0.09553404 0.33886522
0.7652132 -0.15292203 -0.072122835 0.45155433 -0.026887357 -0.32980952 0.058363903 0.10702584
0.47897 0.09252459 -0.12877637 -0.79421264 -0.08133159 -0.090837665 0.036281746 0.15791893
-0.3379405 -0.82040656 -0.11229276 -0.13893257 -0.71074706 -0.4520848 -0.081367634 -0.13706833
0.14699729 -0.2131416 -0.20825307 0.15664978 0.052126843 0.018060464 -0.06017916 0.11525331
0.33514538 -0.051333185 0.1476208 0.33793312 0.11000054 0.17018923 0.37231192 0.22775237
-0.28062975 0.8522185 0.17184679 -0.29814842 -0.22889934 0.46281162 -0.67443204 -0.2431153
0.097812034 0.21408047 -0.22612625 -0.33495668 0.23759696 -0.029817482 0.18969245 0.17674477
0.19961125 -0.040396884 0.5905521 0.097927615 0.034609366 -0.7357627 0.16991086 0.104253404
0.19941324 0.31506938 0.28711882 0.24518941 -0.031665117 -0.13656875 0.12283068 0.02867423
0.3707107 0.14346458 0.19877183 -0.66613775 -0.28535312 0.26457676 -0.17172441 -0.10316355
-0.0845345 -0.05732362 -0.117014855 0.122263245 -0.24033426 -0.07010815 -0.12319468 0.27623296
0.2719993 -0.015907561 -0.269009 0.20064072 0.17849779 0.35366204 0.31145173 0.26867747
0.27551505 -0.07082417 0.08163932 0.2274634 0.14060345 0.34755528 0.13805605 0.2596741
-0.17842253 0.17050333 0.2789146 -0.21949266 0.003569874 0.6235054 -0.09847808 -0.14073025
0.3309508 0.11957677 -0.14343274 0.1796613 0.36183387 -0.1501782 0.1253254 0.07215331
0.15415348 0.16852754 0.30388036 0.0944204 0.1763848 -0.22547576 0.07131211 0.35553902
0.3924626 0.31813303 0.27223393 0.56284225 0.20743828 -0.3049272 0.24132901 0.1285417
0.20855908 0.19340862 0.30555522 -0.11478902 -0.158772 0.116874576 -0.14576867 0.3569353
-0.080162615 -0.56365216 -0.13221316 0.5556605 -0.35099295 -0.15967092 -0.10222389 0.21925662
-0.033230312 -0.15285273 -0.17070405 0.040882356 -0.062444497 0.13980418 -0.015702654 0.13376847
0.4340546 -0.35565883 -0.11383158 0.5287806 0.1315685 0.046307065 0.41961575 0.015087148
-0.32697728 0.918468 0.05907198 -0.054616954 -0.0513838 0.4569277 -0.66723603 -0.260861
0.2019213 -0.10076608 0.01244682 0.20270884 0.02690242 -0.34163854 -0.006680205 0.021900443
0.23076895 0.15601659 0.03670564 0.1013283 -0.031058071 -0.21068844 0.12664963 0.31076193
0.59189516 0.07217996 0.07917016 0.25411078 0.010049257 -0.19503345 -0.079491615 -0.046744827
0.572295 -0.00063683226 0.096322045 -0.6735279 -0.053670816 0.0051118983 0.04619042 0.011520095
00000000: fc5a 813d d738 58bf 6378 7abd 8e2f 153f
00000010: 1568 b9be 8242 77be cac9 71be 8d2a 8f3e
00000020: e5c0 5e3d 2115 adbd bc69 ddbd 3559 103a
00000030: 016d 033e e020 3f3e 5b76 8f3c 9760 ccbd
00000040: c16d 093f 31d4 9dbe 584f de3c 500a 1b3f
00000050: 52df 6e3e 527d 573e 0899 9d3e e7e0 ee3d
00000060: 934b 8dbe c02d 3e3f 5bc1 99bd 9f5a 3fbd
00000070: 9efe 9fbd ea08 053f 5127 24bf 4d1a 69be
00000080: 6c16 06bc 5de9 3fbd ea99 d33c 56ca 32bd
00000090: f1d1 4e3e fe61 8fbe 5d95 0e3e 4fc3 5dbc
000000a0: 300c da3d bcbe 0c3d 620b 2b3e e491 483e
000000b0: 588b 7d3c 5b15 cabd 5aa7 c33d be7f ad3e
000000c0: 03e5 433f 9897 1cbe 23b5 93bd 2132 e73e
000000d0: e042 dcbc cbdc a8be fd0e 6f3d 5d30 db3d
000000e0: 8e3b f53e 887d bd3d f4dd 03be 8551 4bbf
000000f0: 2d91 a6bd 1909 babd 2b9c 143d 80b5 213e
00000100: 8a06 adbe 2a06 52bf bff9 e5bd 5744 0ebe
00000110: 85f3 35bf a977 e7be 13a4 a6bd a45b 0cbe
00000120: 7586 163e cb41 5abe 4b40 55be cd68 203e
00000130: f582 553d 8af3 933c 6c7e 76bd ed09 ec3d
00000140: 2d98 ab3e bf42 52bd e829 173e 9205 ad3e
00000150: f747 e13d 1646 2e3e ab9f be3e eb37 693e
00000160: b4ae 8fbe fe2a 5a3f 9bf8 2f3e e9a6 98be
00000170: 9764 6abe a5f5 ec3e 94a7 2cbf 38f3 78be
00000180: ad51 c83d e937 5b3e a48d 67be 717f abbe
00000190: 9e4c 733e cb43 f4bc bd3e 423e 95fc 343e
000001a0: e466 4c3e 3477 25bd 6c2e 173f 468e c83d
000001b0: 8dc2 0d3d f25a 3cbf 1dfd 2d3e cf82 d53d
000001c0: fc32 4c3e c650 a13e 3d01 933e ef12 7b3e
000001d0: 48b3 01bd aed8 0bbe a78e fb3d 38e6 ea3c
000001e0: cbcd bd3e 61e8 123e d88a 4b3e 0188 2abf
000001f0: ce19 92be 9b76 873e 86d8 2fbe 6947 d3bd
00000200: 6d20 adbd 2ccc 6abd 7ca5 efbd 2765 fa3d
00000210: 2f1a 76be dd94 8fbd 7e4d fcbd 686e 8d3e
00000220: 7e43 8b3e 9350 82bc 8cbb 89be c374 4d3e
00000230: 20c8 363e 3113 b53e 9a76 9f3e 1890 893e
00000240: 4f10 8d3e 430c 91bd 8432 a73d 2aec 683e
00000250: 5afa 0f3e c4f2 b13e 915e 0d3e 01f4 843e
00000260: 65b4 36be 6d98 2e3e e5cd 8e3e afc2 60be
00000270: 8cf4 693b 0d9e 1f3f e0ae c9bd 971b 10be
00000280: 6272 a93e aae4 f43d 08e0 12be 22f9 373e
00000290: 4a42 b93e 50c8 19be 4d55 003e 1dc5 933d
000002a0: 69da 1d3e 7c92 2c3e 3596 9b3e 7c5f c13d
000002b0: 389e 343e 1ee3 66be 150c 923d 3609 b63e
000002c0: dcf0 c83e 55e2 a23e 3f62 8b3e 6e16 103f
000002d0: b36a 543e 6b1f 9cbe f41e 773e 6fa0 033e
000002e0: 8390 553e e90c 463e bc71 9c3e 8116 ebbd
000002f0: 2195 22be f05b ef3d 6244 15be 39c0 b63e
00000300: 4c2c a4bd 824b 10bf e362 07be c43f 0e3f
00000310: 59b5 b3be c680 23be c25a d1bd cf84 603e
00000320: 821c 08bd 6d85 1cbe 0bcd 2ebe 4274 273d
00000330: cdc5 7fbd d428 0f3e daa2 80bc 9afa 083e
00000340: 683c de3e ea18 b6be 8820 e9bd 2a5e 073f
00000350: e5b9 063e 7aac 3d3d e0d7 d63e 1630 773c
00000360: 9169 a7be b820 6b3f 76f5 713d 07b6 5fbd
00000370: d277 52bd 6df2 e93e fbcf 2abf 938f 85be
00000380: 75c4 4e3e 725e cebd bfed 4b3c e892 4f3e
00000390: 7762 dc3c 3feb aebe 9fe5 dabb 8f68 b33c
000003a0: b24e 6c3e d0c2 1f3e a758 163d 3685 cf3d
000003b0: 7f6d febc b6be 57be 71b0 013e 301c 9f3e
000003c0: 7186 173f 16d3 933d f723 a23d cf1a 823e
000003d0: a4a5 243c d9b6 47be 80cc a2bd 8177 3fbd
000003e0: ed81 123f 17f1 26ba 7e44 c53d 536c 2cbf
000003f0: eed5 5bbd b681 a73b 2a32 3d3d c8be 3c3c

convs.1.linear2.bias f4 [64]
-0.019376587 -0.002173083 -0.067127615 -0.0009234845 0.09684287 0.09554294 0.09848161 -0.010244692
-0.010662121 -0.024570901 0.12035138 -0.09310534 0.014853304 0.043269716 0.13217491 0.10750922
-0.04252216 0.16083403 -0.055861298 -0.04130748 -0.004315358 0.09653657 0.108648 0.013645543
-0.03961386 0.119274475 -0.018246504 0.027119005 -0.008940909 -0.012172816 0.02975684 -0.00795844
-0.12992048 0.07663792 0.00010029302 0.013472434 -0.10496212 0.10322156 0.024935456 0.09518471
0.107659705 0.07084365 -0.024867948 0.0972364 0.04613274 0.06894463 0.17464036 0.08672694
0.02764507 0.005133483 -0.017282084 -0.008289909 -0.02584667 0.10869194 -0.06580363 0.08483036
0.14345944 0.1675103 0.004651379 -0.064557806 -0.07395316 -0.039656796 0.12503336 0.0049308045
00000000: a6bb 9ebc 486a 0ebb 347a 89bd ff15 72ba
00000010: 8e55 c63d 04ac c33d bab0 c93d 5ad9 27bc
00000020: 2db0 2ebc ea48 c9bc c97a f63d 03ae bebd
00000030: 465b 733c 963b 313d dc58 073e cb2d dc3d
00000040: b72b 2ebd adb1 243e d1ce 64bd 0832 29bd
00000050: d967 8dbb f7b4 c53d d882 de3d 8e91 5f3c
00000060: 2542 22bd 2d46 f43d b179 95bc ad28 de3c
00000070: e47c 12bc 7e70 47bc 9ec4 f33c 1e64 02bc
00000080: e009 05be 58f4 9c3d 6854 d238 7cbb 5c3c
00000090: 61f6 d6bd d365 d33d 7145 cc3c 34f0 c23d
000000a0: b17c dc3d 7a16 913d deb7 cbbc e123 c73d
000000b0: aff5 3c3d d832 8d3d ecd4 323e e59d b13d
000000c0: ea77 e23c c736 a83b 2893 8dbc 66d2 07bc
000000d0: 65bc d3bc e199 de3d 0ec4 86bd 8abb ad3d
000000e0: 08e7 123e d287 2b3e 986a 983b e236 84bd
000000f0: c174 97bd 2a6f 22bd bf08 003e 9692 a13b

mlp1.weight f4 [64, 192]
-0.18627514 0.03662992 0.061199494 0.16507123 -0.01320674 0.19472665 0.07541147 0.07964335
0.18942359 0.22541368 0.033525586 0.06752602 -0.016081583 0.04110067 -0.0065148454 0.12040813
0.17533523 -0.065719835 -0.10106053 0.26759914 0.06440662 0.2141794 0.18522455 -0.0998911
0.15992257 -0.015380446 -0.24141975 0.17577703 -0.030627426 -0.07068659 -0.23798777 -0.18855803
-0.20188212 0.08029924 0.2116411 0.073047884 0.039161935 0.2666568 0.2017774 0.26781496
-0.15437494 0.082324944 -0.18363135 0.027733637 -0.05928056 0.13657004 -0.24128056 -0.14776075
0.0005789893 0.02780709 -0.2564379 -0.15233347 0.018338546 0.12350235 0.12100223 -0.14819291
-0.07828191 0.025334507 -0.1605976 0.16195638 0.018540991 0.079634845 -0.15388568 0.016726919
-0.034835618 0.048469312 -0.08646496 -8.143999e-06 -0.1477056 0.018332485 -0.08725885 -0.062535584
-0.0041789305 0.08413393 0.105177246 -0.07836401 0.10641339 -0.3312432 -0.06142087 0.10675657
-0.010615493 0.028548585 -0.059653163 -0.10240913 -0.030365048 0.06473321 0.0754992 0.12286275
-0.021643156 0.0028732698 -0.08565672 0.006752431 0.07670832 0.056379244 0.015917229 -0.08949023
0.05182408 -0.050434854 -0.021849472 0.03995378 0.018675307 0.08388733 -0.25904647 -0.08712635
0.08090407 0.031508874 0.06933826 -0.023015553 -0.06197827 -0.0044075036 -0.25083205 0.00033882956
-0.048114598 0.10447326 0.08629881 -0.015983654 0.11107859 0.02996265 -0.014796649 0.037601806
-0.0063920706 0.012340086 -0.040279966 -0.09292535 0.1259491 0.09793869 -0.00012868363 -0.12522824
-0.1623354 -0.05950567 -0.159955 -0.33425266 0.3353931 0.25338748 0.2680556 -0.0373553
-0.059502676 0.09644072 0.22145073 0.31895494 0.34074342 0.16219081 0.23521398 0.30018547
0.13906717 0.26302055 0.32712448 -0.040773194 -0.0021385683 0.28280932 0.2585078 -0.056441057
0.5240488 0.21041308 0.03455799 -0.03165976 0.17328715 -0.06909027 0.38106307 0.16702649
-0.26742557 0.27627382 0.23608169 0.31959757 -0.17673382 0.22906974 -0.12853889 0.24050993
0.21023242 -0.4454738 -0.0062214197 0.23045015 0.16515471 0.020315899 0.24261601 0.28731695
-0.10355715 -0.22216195 -0.21935844 0.35707822 -0.16202807 0.2194819 0.4875958 0.2824743
0.27427813 0.19244847 0.3547319 -0.2783512 -0.30314922 0.2813909 0.26114509 0.06975474
-0.054393265 0.29476187 0.20775071 0.10263298 0.1640938 0.040603124 -0.14101276 0.11640055
0.14945644 0.08647187 -0.2234241 0.2803891 -0.22788168 -0.16263372 -0.21445082 -0.14294916
0.18552767 0.0048189443 0.1659408 0.14837502 -0.24978642 -0.109751105 -0.010328565 -0.10953327
-0.13824764 0.21475255 -0.019237325 -0.09354058 0.110945396 -0.23807205 -0.06515094 -0.20379598
-0.12334693 0.14396107 0.11265531 -0.22079465 -0.083740756 0.09939549 0.26623112 0.14323904
-0.17173213 -0.31273627 -0.2620021 0.23263693 -0.011920747 0.014763432 -0.083655015 -0.042405624
0.21084411 0.22864896 -0.012224169 0.05651997 0.1929655 0.29096255 0.10943069 -0.06239368
-0.2800024 -0.0825844 -0.19083928 0.17218792 0.26891464 0.18844591 -0.13583992 0.17837588
00000000: e9be 3ebe 4109 163d 52ac 7a3d 6f08 293e
00000010: 1561 58bc 6c66 473e 5471 9a3d 0d1c a33d
00000020: 42f8 413e d8d2 663e 2052 093d 154b 8a3d
00000030: 86bd 83bc 2d59 283d 7c7a d5bb 8a98 f63d
00000040: 148b 333e 1f98 86bd d3f8 cebd c102 893e
00000050: 9ee7 833d d851 5b3e 81ab 3d3e b493 ccbd
00000060: bec2 233e 44fe 7bbc bd36 77be e5fe 333e
00000070: 5ee6 fabc 22c4 90bd 11b3 73be 5b15 41be
00000080: 30ba 4ebe ee73 a43d 72b8 583e 219a 953d
00000090: 4468 203d 3d87 883e bc9e 4e3e 0b1f 893e
000000a0: 7714 1ebe fb99 a83d db09 3cbe a731 e33c
000000b0: 2cd0 72bd 04d9 0b3e 4012 77be 984e 17be
000000c0: 50c7 173a b2cb e33c d44b 83be 4efd 1bbe
000000d0: b83a 963c cdee fc3d 04d0 f73d e2bf 17be
000000e0: 4452 a0bd 508a cf3c b273 24be e5d7 253e
000000f0: 47e3 973c 9817 a33d 3594 1dbe e406 893c
00000100: cbaf 0ebd c287 463d 8a14 b1bd 36a2 08b7
00000110: 2340 17be 022e 963c c5b4 b2bd a812 80bd
00000120: 69ef 88bb 694e ac3d 2b67 d73d 4f7d a0bd
00000130: 43ef d93d b598 a9be 7394 7bbd 30a3 da3d
00000140: 9bec 2dbc b9de e93c e056 74bd e1bb d1bd
00000150: 1fc0 f8bc d892 843d 539f 9a3d 779f fb3d
00000160: fd4c b1bc 784d 3c3b ca6c afbd 7f43 dd3b
00000170: 4019 9d3d eced 663d d964 823c a746 b7bd
00000180: 7d45 543d c794 4ebd aafd b2bc 93a6 233d
00000190: f5fc 983c 1fcd ab3d bda1 84be 4d6f b2bd
000001a0: 08b1 a53d 730f 013d 3801 8e3d 1d8b bcbc
000001b0: eddc 7dbd d26c 90bb 0f6d 80be efa4 b139
000001c0: d013 45bd 14f6 d53d 6ebd b03d 27f0 82bc
000001d0: 2c7d e33d 3b74 f53c a56d 72bc 5a04 1a3d
000001e0: 9374 d1bb 122e 4a3c 9bfc 24bd a54f bebd
000001f0: cdf8 003e 1494 c83d 40ef 06b9 d53b 00be
00000200: 403b 26be 38bc 73bd 3ecb 23be 2a23 abbe
00000210: a5b8 ab3e 01bc 813e 953e 893e df01 19bd
00000220: 14b9 73bd b682 c53d fbc3 623e 104e a33e
00000230: ec75 ae3e 5915 263e efdb 703e e9b1 993e
00000240: a067 0e3e a1aa 863e dc7c a73e cb01 27bd
00000250: 3927 0cbb 62cc 903e 225b 843e bd2e 67bd
00000260: 1028 063f 8776 573e ae8c 0d3d aaad 01bd
00000270: 3072 313e 337f 8dbd b31a c33e fe08 2b3e
00000280: 01ec 88be c373 8d3e 66bf 713e 4ba2 a33e
00000290: b6f9 34be 4291 6a3e b39f 03be 3c48 763e
000002a0: 2b47 573e 2415 e4be 0ddd cbbb 20fb 6b3e
000002b0: 511e 293e 876d a63c 5570 783e 351b 933e
000002c0: c515 d4bd 6c7e 63be 809f 60be f5d2 b63e
000002d0: b0ea 25be ddbf 603e 28a6 f93e 79a0 903e
000002e0: 2f6e 8c3e 3611 453e 6b9f b53e 0c84 8ebe
000002f0: 6036 9bbe 7812 903e cfb4 853e 93db 8e3d
00000300: 79cb 5ebd 07eb 963e 9abc 543e 3d31 d23d
00000310: 3508 283e 764f 263d a665 10be 6963 ee3d
00000320: 1c0b 193e 2a18 b13d 4ac9 64be 298f 8f3e
00000330: d159 69be 7489 26be ff98 5bbe 4461 12be
00000340: f7fa 3d3e 3ce8 9d3b 63ec 293e 9fef 173e
00000350: 03c8 7fbe 30c5 e0bd 2439 29bc fb52 e0bd
00000360: ca90 0dbe 18e8 5b3e 9897 9dbc 3492 bfbd
00000370: 5737 e33d 29c9 73be db6d 85bd e5af 50be
00000380: 519d fcbd 886a 133e d4b7 e63d fe17 62be
00000390: 4680 abbd dd8f cb3d 724f 883e 41ad 123e
000003a0: 8cda 2fbe f81e a0be 2425 86be 6038 6e3e
000003b0: 3d4f 43bc 52e2 713c 5253 abbd 85b1 2dbd
000003c0: 85e7 573e f422 6a3e e247 48bc 7c81 673d
000003d0: bf98 453e 0bf9 943e 331d e03d 8490 7fbd
000003e0: 795c 8fbe 0322 a9bd 5f6b 43be 0852 303e
000003f0: 2eaf 893e f7f7 403e 9f19 0bbe 2ba8 363e

mlp1.bias f4 [64]
0.026763035 0.122905105 -0.05605885 0.11273017 0.2484679 0.16620664 0.14136124 0.14743231
-0.09407876 -0.039710224 0.053535387 0.11505394 0.0359319 0.13396522 0.08349796 0.111197956
0.07637428 -0.0027363165 0.039072536 0.13810214 0.061823163 -0.0017082547 0.057920724 0.11581061
0.08841439 0.18593948 0.1692933 -0.07009678 0.08490701 0.080933705 0.17731705 0.0063520004
-0.12232131 0.0012649378 -0.115698874 0.07676086 0.15100668 0.090881675 0.04323125 0.10707758
0.03860781 -0.10847915 0.06290704 -0.22607233 -0.053834505 0.029088069 0.02155108 0.12675051
-0.017956069 0.14403024 0.082056776 -0.09241243 -0.01485311 0.120487496 0.2039413 0.04309092
0.05612681 0.14797111 0.017975377 -0.012142372 0.049575318 -0.013115047 0.12391556 0.05040895
00000000: 273e db3c acb5 fb3d f79d 65bd 13df e63d
00000010: 5f6e 7e3e 1332 2a3e 00c1 103e 7ff8 163e
00000020: 5dac c0bd 30a7 22bd ec47 5b3d 66a1 eb3d
00000030: 542d 133d 2e2e 093e fa00 ab3d c1bb e33d
00000040: 1e6a 9c3d c653 33bb 860a 203d a66a 0d3e
00000050: 493a 7d3d 84e7 dfba 483e 6d3d 1d2e ed3d
00000060: 9b12 b53d eb66 3e3e 395b 2d3e e78e 8fbd
00000070: bae3 ad3d 92c0 a53d 9a92 353e 7124 d03b
00000080: 9883 fabd 45cc a53a 88f3 ecbd cc34 9d3d
00000090: 7fa1 1a3e 2c20 ba3d 4013 313d 7e4b db3d
000000a0: 3923 1e3d 512a debd 68d5 803d 817f 67be
000000b0: 9281 5cbd 1a4a ee3c e48b b03c e3ca 013e
000000c0: 9b18 93bc aa7c 133e 620d a83d ba42 bdbd
000000d0: 755a 73bc 26c2 f63d fdd5 503e 1b80 303d
000000e0: 3ae5 653d bd85 173e 1941 933c cdf0 46bc
000000f0: 7d0f 4b3d 7ee0 56bc 71c7 fd3d 9d79 4e3d
