Saved_Models/TSP_200/scatgnn_layer_2_hid_64_model_230_temp_3.500.pth (torch, 179911 bytes, 24 tensors)

bn0.weight f4 [2]
000000 00 00 80 3f 00 00 80 3f
       1.0 1.0

bn0.bias f4 [2]
000000 00 00 00 00 00 00 00 00
       0.0 0.0

bn0.running_mean f4 [2]
000000 00 00 00 00 00 00 00 00
       0.0 0.0

bn0.running_var f4 [2]
000000 00 00 80 3f 00 00 80 3f
       1.0 1.0

in_proj.weight f4 [64, 2]
000000 6c 4c 20 bf 23 d2 92 3e d5 61 3d bf e2 c0 33 bf
       -0.6261661 0.28675947 -0.73977405 -0.7021619
000010 fd ab 5d be 20 ab 8b bf 73 55 98 3e 16 88 96 be
       -0.2164764 -1.0911598 0.29752693 -0.294007
000020 e5 af ab be bd a5 06 bf fd 5d eb 3e a1 56 96 be
       -0.33532634 -0.52596647 0.45970145 -0.29362968
000030 af d2 07 3f 41 cc 43 3d a7 72 40 be ce e0 19 bf
       0.5305585 0.047802214 -0.18793736 -0.6010865
000040 a8 a7 9e 3e 15 1d 85 bf 84 03 01 3f f5 36 59 bf
       0.30987287 -1.03995 0.5039599 -0.8484948
000050 78 f8 17 3f 30 e5 9d 3e 21 38 1c bd 28 34 36 bf
       0.5936351 0.3083892 -0.038139466 -0.71173334
000060 6d 6e 43 3e 2c 0c 29 3f c3 ab 4e 3f 45 c6 12 3f
       0.19085093 0.660342 0.8073084 0.57333785
000070 2e 31 7f 3f 91 a9 10 3f f1 76 90 3f e2 7a 1d be
       0.9968442 0.5650874 1.1286298 -0.15378907
000080 5b af aa 3e 6b fe 02 bf 45 48 39 bf 88 45 92 be
       0.3333691 -0.5116946 -0.723759 -0.28568673
000090 1f 69 6b bf ff cf 88 be b4 11 e5 3e a3 41 8c bf
       -0.9195728 -0.26721188 0.4474007 -1.0957531
0000a0 bc 2e 87 3f 2d 73 25 3f 4c 9a 78 3f e2 49 07 bd
       1.0561137 0.6462887 0.9711044 -0.033029445
0000b0 10 08 7f 3f b1 1b f6 be a9 cc 45 be c9 7c 81 3f
       0.9962168 -0.48068002 -0.19316353 1.0116206
0000c0 ed 85 60 3f e5 d0 46 be 3f b5 fc be bb 3e 76 bf
       0.87704355 -0.19415624 -0.4935703 -0.9618947
0000d0 d6 68 57 bf f1 8c 34 3f 61 07 40 3f ab ac 63 be
       -0.8414434 0.7052756 0.7501126 -0.22233836
0000e0 3a 26 0c be 50 6e 32 bf be 57 23 3e 06 63 35 3f
       -0.13686457 -0.69699574 0.1595144 0.7085422
0000f0 4e cd 46 bf 3b b5 09 3f cc ba 04 bc f9 66 4b 3f
       -0.7765702 0.5379216 -0.0081011765 0.79454
000100 0e df 30 bf 1d fc 02 3f a8 76 18 be ae 0d 71 bf
       -0.69090354 0.51165944 -0.14889014 -0.941615
000110 d7 53 12 3f 3c 0c 84 bf 18 7c 33 3f bd 47 af 3e
       0.5715918 -1.0316234 0.7011123 0.3423442
000120 e1 01 0e 3f 1b 3d bd be d1 54 69 3f 29 cf fd be
       0.55471617 -0.36960682 0.91145045 -0.49572113
000130 f2 b6 88 3d 6a 69 3f bf f0 30 97 3e 5f 95 5d bf
       0.06675519 -0.74770224 0.29529524 -0.8655605
000140 73 9f 3c bf 21 06 0a 3f ad a1 73 3f fa 9c 66 3f
       -0.736808 0.539156 0.9516857 0.9008328
000150 89 2c 13 bd a4 40 52 3f fa 36 6c bf 84 37 39 bf
       -0.035931144 0.82129884 -0.9227139 -0.72350335
000160 f7 2b 99 bd bd d9 21 3f eb 61 51 3f c2 32 bf be
       -0.07479089 0.6322287 0.81790036 -0.37343413
000170 1d bb 85 bf bb 92 ba 3e 85 39 fd be 01 c4 34 bd
       -1.0447727 0.3644007 -0.49457946 -0.044132236
000180 8e a8 f8 be b1 d8 75 bf ba 4b 19 bf 66 93 21 bf
       -0.48566097 -0.9603377 -0.59881175 -0.6311554
000190 1b 77 52 bf d0 c9 a1 3e 4a d3 6e bf 9e 48 4d be
       -0.8221299 0.31599283 -0.9329115 -0.20047233
0001a0 13 1c 5b bf 66 05 b1 be 3b 27 85 be 1f d4 5e bf
       -0.8558971 -0.3457443 -0.26006493 -0.8704242
0001b0 80 7b 27 3e e7 1d 4f bf 60 58 58 bf 53 b7 a8 3e
       0.16355705 -0.80905 -0.8450985 0.32952365
0001c0 e2 52 2c 3f cd 67 83 3f ee d2 da 3e ca b4 0d be
       0.6731397 1.0266052 0.42739052 -0.13838497
0001d0 ee 04 dd bd e6 8a 44 3f c2 93 05 3d 2e 22 72 be
       -0.10791956 0.7677444 0.032611616 -0.23645851
0001e0 13 41 24 bf 15 00 3f bf 98 69 6a bd cd 2c bb be
       -0.64161795 -0.746095 -0.05722961 -0.36557618
0001f0 65 55 00 bf 56 1c 87 3f ca d2 68 be be 72 71 bf
       -0.501303 1.0555522 -0.2273666 -0.9431571

in_proj.bias f4 [64]
000000 02 c0 80 be 7c fb 9e 3e 6f 38 d8 bc c3 79 ff 3e
       -0.2514649 0.31051242 -0.026394097 0.49897584
000010 55 b0 ff 3e de a8 ba 3e fc b7 12 bf 0d 8a 94 be
       0.49939218 0.3645696 -0.5731199 -0.29011574
000020 42 e0 d3 be a4 d2 b0 bb aa cd 41 be ca c2 a9 bc
       -0.41382033 -0.005396204 -0.18926111 -0.020722765
000030 96 59 6d 3e 9e d2 f5 bd 9e c0 ce be b5 a7 a5 3b
       0.23178706 -0.12003063 -0.4038133 0.0050553926
000040 60 ab 8c 3e d7 f3 1c bf 43 49 d3 3e 6c eb b1 bb
       0.274745 -0.6130957 0.41266832 -0.005429676
000050 bd e8 77 3b 38 47 b7 3e ae 25 15 bf da 30 c7 3e
       0.0037827932 0.35796523 -0.5826062 0.38904458
000060 70 ee 78 be e4 3d cc be 59 15 91 3b ae e1 22 be
       -0.24309707 -0.3989097 0.0044275937 -0.15906402
000070 0c 74 7c be 7c 61 58 be 4b 63 a2 be 0f fb f9 be
       -0.24653643 -0.21130937 -0.3171638 -0.48824355
000080 fd 2e 69 3e 5a 02 11 bf 78 82 b8 bd 11 40 13 bb
       0.22771831 -0.56644213 -0.0900926 -0.0022468606
000090 53 5b 01 bf 06 9a ac 3c a5 3d d7 3e 16 af 96 bd
       -0.50529975 0.021069538 0.4203922 -0.07357614
0000a0 62 0d da be 9d 93 89 3e 2b fb b9 bd d0 7e 1d 3f
       -0.42588335 0.26870432 -0.090811096 0.61521626
0000b0 98 27 0b 3f 12 6d c9 bc a5 6c a1 be 95 14 96 be
       0.5435729 -0.024588142 -0.31528202 -0.29312578
0000c0 5f a1 fd 3e ce 96 a8 3c 73 3b 15 be 8a c0 21 bf
       0.4953718 0.020579722 -0.1457346 -0.63184416
0000d0 25 27 d9 3e 04 98 cb 3e 4f d8 95 bd 7c 5d e2 bd
       0.42412677 0.39764416 -0.07316648 -0.11052987
0000e0 0f 76 ef be 5c 6a 66 be b6 12 38 be ac fc c2 3e
       -0.4676976 -0.2250151 -0.17975888 0.38083398
0000f0 86 7d 9e 3c ed 48 5b 3e a8 c0 9e bd 01 8a 1b bf
       0.019346964 0.21414538 -0.0775159 -0.6075745

convs.0.a f4 [128, 1]
000000 77 91 0b bc d5 db bd bc 79 aa df bb 06 ee 0b bb
       -0.008518568 -0.023176113 -0.006825742 -0.002135159
000010 ed 1b a2 bc 4d 84 f1 bb c4 19 1a ba 82 25 01 3a
       -0.019788707 -0.007370508 -0.0005878473 0.00049265486
000020 cb 4c ff bb ea 4c 18 bb 17 8a 81 3a 91 9d da bb
       -0.007791137 -0.0023239204 0.0009883073 -0.0066716154
000030 94 aa 4d 3b d2 26 65 bb 24 e8 2a 3b d9 7e 07 bb
       0.003138219 -0.0034965766 0.0026078308 -0.0020674972
000040 2d bc 08 bc b3 e5 a3 bb 54 ce 81 bc ee 66 55 bc
       -0.008345646 -0.0050017475 -0.015845455 -0.013025029
000050 1c 7a 65 b8 6c 78 9c 3b 30 6a cc ba d9 df f1 bb
       -5.4711578e-05 0.0047750976 -0.0015595611 -0.007381421
000060 f4 a7 04 3c b9 78 53 b8 f0 91 30 bc ba 31 02 3c
       0.008096684 -5.0418752e-05 -0.010776982 0.007946426
000070 cc 2a a6 3a 25 14 76 bb b6 65 0d bc d6 b2 1b ba
       0.0012677549 -0.0037548628 -0.008630207 -0.00059394294
000080 45 4f 37 bc 9b 3f f5 b8 f4 8e 17 bc c3 04 94 bb
       -0.011188333 -0.00011694358 -0.009250391 -0.004517169
000090 4e eb 56 bb bb 0d 76 bb 9e 76 17 bc ff 84 04 bc
       -0.003279406 -0.0037544805 -0.009244589 -0.008088349
0000a0 1b 02 c5 bb 73 bc 90 3c 6f 2b 8d bb 9e ab e0 bc
       -0.006012214 0.017667985 -0.004308156 -0.027425583
0000b0 f5 4b 39 bb 8d 2d 02 bb e6 29 36 bc ab e1 e2 bb
       -0.0028274034 -0.0019863576 -0.011118388 -0.0069238744
0000c0 6c e1 c4 bc 65 b8 51 bc 2b 48 1e bc 39 6c 05 bc
       -0.02403327 -0.012800311 -0.009660761 -0.008143478
0000d0 a0 3e bd bc e2 5c b2 bc 71 3f 7e bb 25 a3 04 bc
       -0.023101151 -0.021772806 -0.0038795138 -0.008095537
0000e0 56 5c c4 3a e9 b3 28 3b b9 dc fa bb 98 42 bf ba
       0.0014981132 0.0025742 -0.0076557067 -0.001459199
0000f0 5f c0 ba bb 16 df 1c bc 81 31 57 bc 91 18 40 3a
       -0.005699202 -0.009574672 -0.013134361 0.00073278794
000100 75 09 32 3f 76 4e 95 3f 8c c4 6d 3f f7 e5 11 3e
       0.6954568 1.1664569 0.9287803 0.14247881
000110 a0 d5 67 3e 55 8e 5e 3e 50 6e 34 3f 45 9a 39 3f
       0.22640085 0.21733983 0.70480824 0.7250102
000120 87 b6 57 3f 4b 32 87 3f d1 94 2a 3f 5b e5 69 3f
       0.8426289 1.0562223 0.66633326 0.91365594
000130 fc 19 9a 3f c8 2a 2e 3f b2 95 29 3f 52 b0 84 3f
       1.203918 0.6803403 0.6624404 1.0366309
000140 f3 c1 ae 3f 0f 8a 23 3f 8e a8 26 3f 8e 97 8c 3f
       1.3652939 0.63882536 0.65100944 1.0983751
000150 4a 58 82 3f 65 84 82 3f 08 b4 3f 3f dc 6c 2a 3f
       1.0183194 1.0196654 0.7488408 0.66572356
000160 5a 09 2a 3f 3a 96 44 3f ed e7 80 3f 34 38 2e 3f
       0.6642052 0.7679173 1.0070778 0.6805451
000170 d6 12 35 3f 27 23 2f 3f a7 08 41 3f 5b d0 3b 3f
       0.70731866 0.68413013 0.7540383 0.733648
000180 57 a0 89 3f 59 69 3c 3f 8d 48 89 3f c5 e2 84 3f
       1.0752057 0.7359825 1.0725266 1.0381705
000190 cc ca 3a 3f 2e be a3 3f cd a2 06 3f 73 3b 68 3f
       0.72965693 1.2792413 0.52592164 0.9071571
0001a0 25 79 4c 3f d3 17 92 3f 43 b7 40 3f c7 22 ee 3e
       0.7987235 1.141352 0.75279635 0.46510908
0001b0 5c 53 4a 3e 06 06 76 3f 86 04 2d 3f f0 f4 23 3f
       0.19758362 0.9610294 0.6758503 0.6404562
0001c0 b7 c2 23 3f cd 03 68 3f b6 a5 2d 3f fd 48 2d 3f
       0.63968986 0.906308 0.6783098 0.67689496
0001d0 a5 22 20 3f b1 af 4e 3f 77 43 6b 3f d9 82 2c 3f
       0.62552863 0.80736834 0.9189982 0.6738716
0001e0 9a c5 31 3f 7d 92 2c 3f 53 d5 6a 3f 2c 1b b4 3d
       0.6944214 0.67411023 0.91731757 0.08794245
0001f0 02 fa 74 3f 14 b4 63 3e dd 69 7f 3f 30 1d 3d 3f
       0.9569398 0.22236663 0.9977091 0.7387266

convs.0.linear1.weight f4 [64, 64]
000000 7b 68 7f be 94 0f 8a bd ef 90 6c be b6 51 f3 bd
       -0.249422 -0.067412525 -0.23102163 -0.118808195
000010 e3 78 49 3d aa 8b 02 be b3 42 81 be 47 99 73 be
       0.049187552 -0.1274859 -0.252462 -0.2378894
000020 02 00 9c bd 44 2e a2 bc 45 e7 f6 bd a2 0f 14 be
       -0.07617189 -0.019797452 -0.1205583 -0.14459088
000030 60 3b 86 be 30 32 33 be 1b d1 90 be 99 15 c3 be
       -0.26217175 -0.17499614 -0.28284535 -0.38102415
000040 b1 d3 04 3d 6f 96 85 be 44 e7 19 be 6e 2c c3 bd
       0.032428447 -0.26091334 -0.15029627 -0.09529959
000050 6b 51 51 be fd ac a5 be 79 1c b7 be 09 e5 41 3e
       -0.20441215 -0.32358542 -0.3576391 0.18935026
000060 89 e7 64 be 4f dc 81 be ea 4b 4e be c7 8a 96 be
       -0.22353949 -0.25363395 -0.20146146 -0.29402754
000070 22 61 ba bd 7b 0a ab be be 2c 95 be 8e 3e 5b be
       -0.09100558 -0.33406433 -0.29135698 -0.21410581
000080 a0 73 86 bd 12 90 4d bc 4d 0f 21 3e a5 74 34 be
       -0.065650225 -0.012546556 0.15728493 -0.17622621
000090 c3 cd 50 be ce 0a 75 be 77 cf 81 3d fa af b4 3c
       -0.20390992 -0.23929903 0.06338399 0.022056568
0000a0 e3 2c 9d be 8c cc 6a be f8 21 a1 3d f3 98 06 3d
       -0.30698308 -0.22929591 0.07867807 0.032860707
0000b0 ad a2 4c 3d 3b ed 86 be 9f 31 a4 be f8 ff c8 be
       0.049959827 -0.26352867 -0.32069108 -0.3925779
0000c0 d7 7e 74 bd 9d 19 8d 3d 1c 85 bc be 5e 45 2b be
       -0.059691276 0.06889651 -0.36820304 -0.1672568
0000d0 a8 6a b4 3c c2 05 ee bd e9 c9 b2 bd 9a 79 d1 be
       0.022023514 -0.11622192 -0.087299176 -0.40913087
0000e0 a7 ff 73 be a7 ee 3b be 27 41 f2 3c 26 4e 5e 3d
       -0.23827992 -0.18352757 0.029572083 0.054273747
0000f0 75 ce 25 be 41 9e 91 bd d4 4a c2 3d 8a 4b 21 be
       -0.16192038 -0.07110263 0.094869286 -0.15751472
000100 86 6b f4 bd ce 13 80 bd 51 26 8e 3e bb f8 67 be
       -0.11934571 -0.062537774 0.27763608 -0.22653477
000110 d8 52 67 bd af 9d 33 be 6c e6 19 be a0 f1 53 3e
       -0.05647549 -0.1754062 -0.15029305 0.20697641
000120 8e 81 04 3e de 11 38 bd 8a c9 c4 3c f7 82 d8 3d
       0.12940046 -0.044938914 0.024021883 0.105718546
000130 3e e0 22 3e 18 7c c9 3d 67 12 ef 3d 13 8f 47 be
       0.15905854 0.09838122 0.11673432 -0.19488172
000140 19 f8 71 be 64 49 2a be 1e 4d 99 be 44 7a c3 bd
       -0.23629798 -0.16629559 -0.29941648 -0.09544805
000150 dd 4d 9f 3d 16 13 be bd 89 1a 67 3c 03 a6 0c 3d
       0.07778523 -0.09280984 0.014105448 0.03433801
000160 9e 8f de bd 91 57 8c 3e 6c 7f be bd 91 56 83 bd
       -0.108672366 0.27410558 -0.093016475 -0.064129956
000170 01 a3 00 3e 38 6a b4 3e e5 a9 1b be f0 93 94 3e
       0.12562181 0.35237288 -0.15201528 0.29019117
000180 d2 9f df bd 79 fc 38 3e ab d9 dd bd 96 76 98 bd
       -0.10919155 0.1806506 -0.108325325 -0.074444935
000190 bc 96 b5 3d f0 84 7a be 4f 18 5d 3e af 5b b4 3d
       0.08866641 -0.24464774 0.21591304 0.0880655
0001a0 18 0e 9b bc 24 5f 84 3d 93 42 60 3e 4e 36 97 be
       -0.018927619 0.06463459 0.21900396 -0.2953362
0001b0 18 38 62 bc f6 3a 87 be 02 01 00 bd 4b 7b 28 be
       -0.013807319 -0.2641217 -0.03125096 -0.16453283
0001c0 00 e2 0e 3e 0c 47 44 3d 14 3a ee bd 29 fc 2f be
       0.139534 0.047919318 -0.11632171 -0.17186035
0001d0 9b 88 a5 be 65 dd 93 3d df 2d 96 3e c0 97 25 be
       -0.32330784 0.07219962 0.29331872 -0.1617117
0001e0 0f 83 f0 3d 0e 87 78 be 30 81 b8 3e 7e bd 43 be
       0.117437474 -0.2427027 0.36036062 -0.19115254
0001f0 df 41 24 3d 62 6d 1c 3c 76 9e 9c 3d 65 2f 5c 3e
       0.040101882 0.009547563 0.076474115 0.21502455
000200 0e c9 a6 3d 02 46 d9 3e b6 22 3b 3e 39 20 aa 3c
       0.08143817 0.42436224 0.1827496 0.020767318
000210 1c ae 0a 3e 65 a3 81 be f4 14 81 3e f0 33 e0 3e
       0.1354298 -0.25319973 0.25211298 0.43789625
000220 b7 ae f9 be 38 24 bf be 7a 20 00 3f 68 84 85 bd
       -0.4876611 -0.3733232 0.50049555 -0.06519395
000230 82 a7 44 3e a9 e2 02 3f 6d 1a d0 3e 4b 95 1e 3e
       0.19204524 0.51127106 0.4064516 0.15486638
000240 5a be 01 bf 45 05 9d 3e f7 0f 61 3e 59 a9 14 bf
       -0.5068108 0.30668083 0.21978746 -0.58070904
000250 77 84 08 3f 0f 8e 2b 3e 99 12 d2 bd 9a e9 e2 be
       0.53327125 0.1675341 -0.102574535 -0.4431885
000260 57 12 95 3e 16 65 00 3f 0f 2f 22 be 6c 37 90 3e
       0.29115555 0.50154245 -0.15838264 0.28167284
000270 5f 69 71 3e 63 b8 ad 3e f3 39 39 be 8a 69 f8 bd
       0.23575352 0.33929738 -0.18088512 -0.12129505
000280 75 5a a9 be d4 90 3d 3e 90 2d 20 bf 06 cb ee 3e
       -0.33076826 0.18512279 -0.6256952 0.4663927
000290 aa 2c 43 be ac 30 a4 be e5 65 ee be b8 9a 21 bf
       -0.19060007 -0.32068384 -0.46562114 -0.6312671
0002a0 ed 84 a6 be e3 6b 9c 3e 11 15 42 bc 27 d3 91 3e
       -0.3252329 0.3055106 -0.011845843 0.2848141
0002b0 1b d7 e5 be 74 a5 84 bc 20 50 9d 3d 3b 9e 9d 3e
       -0.44890675 -0.016192175 0.07681298 0.30784783
0002c0 c0 7f 89 3e 9c f6 ab 3e de 71 de 3d 94 e4 fd 3e
       0.26855278 0.33586586 0.10861562 0.49588454
0002d0 9e 0a 82 3e 37 d7 60 3e 77 c0 f5 be 5a ed 08 3e
       0.25398725 0.21957098 -0.47998402 0.13371792
0002e0 64 c8 e4 3e ad 61 7c 3e d1 70 ab be 22 e5 77 be
       0.44684136 0.24646635 -0.3348451 -0.24208501
0002f0 05 ca db 3e 7b 5d 89 bd 78 64 fd be 95 6c 77 3e
       0.42927566 -0.06707283 -0.49490714 0.24162515
000300 47 cf 9e bd 1e 3b bb 3e 96 ea ed 3b 38 8d 06 be
       -0.07754379 0.3656854 0.007260631 -0.13139808
000310 88 31 b2 bd b1 e4 a4 be 92 5b 18 bc 15 cf 16 3e
       -0.087008536 -0.32205728 -0.009299176 0.14727433
000320 a8 56 87 be 82 98 8d be d8 18 f7 3e f8 15 67 be
       -0.264333 -0.27655417 0.48261142 -0.22566974
000330 2e 57 94 3d 8a 04 15 3f 89 99 d6 3e 89 77 2f 3d
       0.07243191 0.5821005 0.41914013 0.042838607
000340 33 39 8a be 73 24 a5 3e 62 e3 2c 3d 92 c4 ac be
       -0.26996765 0.3225437 0.042209037 -0.3374372
000350 72 66 82 3e 96 95 c2 bd 83 22 0a be fe 7f 1c bf
       0.25468785 -0.095011875 -0.13489728 -0.611328
000360 02 7c 95 bd 02 1a 51 3e 37 58 23 bd 84 73 97 bd
       -0.07299043 0.20420077 -0.03987905 -0.0739508
000370 e5 23 eb 3d 47 4b 7b 3d 47 93 06 be 88 b6 8c be
       0.11481456 0.061351087 -0.1314212 -0.2748301
000380 ad f8 38 be f4 89 47 3d 74 7b 69 be 3e 88 65 3e
       -0.18063612 0.048715547 -0.22801 0.22415254
000390 ff c2 bc bc 4e c5 c3 be cc 46 ed be c2 7c a8 be
       -0.0230422 -0.3823647 -0.46343076 -0.32907683
0003a0 82 72 81 bd e0 06 c5 3e 85 27 82 be bd b6 c6 3c
       -0.06320669 0.38481808 -0.25420776 0.024257058
0003b0 05 89 9a be 83 7f 0e be cb 55 6c bb a7 b7 ad 3c
       -0.30182663 -0.1391583 -0.0036061879 0.021205736
0003c0 71 ab 9a 3d 53 bf 05 3f 1e 17 1f be 69 8d 43 3e
       0.07552231 0.5224506 -0.15536162 0.19096912
0003d0 97 cc ce 3c 2a c8 2c bd 9a 02 38 be c1 30 40 bc
       0.02524404 -0.04218308 -0.17969742 -0.011730374
0003e0 80 60 ce 3e cf 04 4d be 3a 27 81 be 2a 60 c1 be
       0.40308 -0.20021366 -0.2522524 -0.3776868
0003f0 4d 3d c9 3e 56 e1 b9 be f5 f4 63 be 4c 98 54 3e
       0.3930458 -0.3630473 -0.22261412 0.20761222

convs.0.linear1.bias f4 [64]
000000 3a 2c df bd 08 28 39 3f fb c3 78 3d 31 a5 ac 3e
       -0.108971074 0.7232671 0.060733777 0.3371978
000010 7c 19 15 3f fe 4e 5d 3c 8c 1c 98 bd 50 a3 24 be
       0.5824201 0.013507603 -0.0742732 -0.16077924
000020 5b b1 7b 3e e3 f8 fb be 16 be a0 3e 9d 09 f0 bd
       0.24579374 -0.49213323 0.31395024 -0.117205836
000030 e5 b1 30 bd 14 e3 a8 bb 82 6b 47 3e f4 f6 9d bc
       -0.043138403 -0.005154023 0.19474605 -0.019282795
000040 23 c9 ab be f8 81 85 bc e5 f9 dc bc c6 c8 81 3d
       -0.33551893 -0.016297325 -0.026974628 0.063371226
000050 82 97 8c be 5a 63 1f be 79 44 fe be 84 e6 cb be
       -0.2745934 -0.15565243 -0.49661615 -0.39824307
000060 d7 7e f9 3c 57 85 e8 3d b5 3d 31 bf fd 39 1d bf
       0.03045599 0.113535576 -0.6923478 -0.6141661
000070 db cd 66 bc 00 d8 8f be 97 45 d6 bc 57 92 69 bd
       -0.014087166 -0.28094482 -0.02615623 -0.057024326
000080 6e 0e ef bc 9d 62 23 3e 8a ed 48 3b 0c 46 88 be
       -0.029181685 0.15955587 0.0030659162 -0.26615942
000090 21 03 82 3d 5b 5e 94 3e c3 05 3c be ba fc f8 bc
       0.06348253 0.28978238 -0.18361573 -0.030393947
0000a0 1b aa 90 bc 4b a7 54 3e c2 50 69 bb 12 d2 a1 3b
       -0.017659238 0.20766942 -0.0035601114 0.0049383724
0000b0 df bd 2c bc 8a 9d da bc f7 95 9d bc 3a db f8 3e
       -0.010543316 -0.026686449 -0.019236548 0.48604757
0000c0 0e 10 ca 3d 57 fd 83 bc 25 7c 4f be 57 d5 49 be
       0.098663434 -0.016112013 -0.20262201 -0.19710289
0000d0 30 c0 82 3e 15 0d 29 bf dd 2d c4 3e c5 d9 36 3f
       0.25537252 -0.66035587 0.3831624 0.7142604
0000e0 fe 46 99 be 19 d5 97 bd 4a f6 a3 be e5 f6 a4 3d
       -0.29936975 -0.07413692 -0.3202384 0.08054904
0000f0 08 b3 8f be 75 fa 00 bb b7 8e 09 3c 41 d5 f0 3e
       -0.28066278 -0.0019680534 0.008395842 0.470377

convs.0.linear2.weight f4 [64, 64]
000000 ff 3a 01 3e ce 3a ff be 82 3f 9a be 01 0a 26 be
       0.12620161 -0.49849552 -0.30126578 -0.16214754
000010 11 83 12 bd ac ff 38 3d 1b d9 76 bc 0c df 48 3c
       -0.035769526 0.045165703 -0.01506641 0.01226021
000020 6a f2 ac bd 42 2b ec 3e a9 18 e0 bd 35 fa 19 bd
       -0.08444674 0.46126753 -0.109422036 -0.03759213
000030 4a 28 23 bd 2d 0d 8c 3c a8 d7 74 be 0a 91 98 3e
       -0.039833345 0.017096126 -0.23910391 0.29798156
000040 1b 7f 7d 3d 23 fe bd bd b0 17 8f 3e 0f 99 26 be
       0.061888795 -0.09276988 0.2794776 -0.16269325
000050 bf ed 0c bf cd 50 29 3e da 72 2d 3f 10 4c 80 3e
       -0.5505027 0.1653473 0.67753375 0.2505803
000060 a8 d4 4d 3e 05 52 8e 3f b8 b1 c4 3e 99 4d 3d 3f
       0.20100653 1.111878 0.3841684 0.7394653
000070 31 3c 4e 3f 71 d2 84 bd 36 82 83 3d 52 40 8b 3e
       0.80560595 -0.06485451 0.0642132 0.2719751
000080 a4 12 d1 be 7f 05 b2 bd 3f d5 5f 3e 73 9b 46 3d
       -0.40834534 -0.086924545 0.2185869 0.04848809
000090 b7 ab 1e be 40 59 80 be df ca e9 3d 39 fe 40 bd
       -0.15495192 -0.25068092 0.11415648 -0.047117446
0000a0 1d f7 75 3e a3 af 4e be 37 93 ba 3d 32 68 18 be
       0.24020047 -0.20184188 0.0911011 -0.14883497
0000b0 72 02 7d be 50 4b e0 3d d2 df ce bd 73 0d cf be
       -0.24707964 0.10951865 -0.10101284 -0.40439948
0000c0 9a fe be 3d 04 74 e2 3e 5e d1 bf 3e 2a fc c1 3d
       0.09325905 0.44229138 0.37464422 0.094719246
0000d0 6f b1 c4 be c0 fb 1e 3f 73 31 81 bf e5 da 8f be
       -0.3841662 0.6210289 -1.0093216 -0.2809669
0000e0 37 b4 ba 3e 9b c6 e1 3d 3d 4e 68 3e 8f c5 c2 3a
       0.36465618 0.11024209 0.22686096 0.0014859902
0000f0 b9 d8 c5 3d a0 89 37 3e 34 66 58 3f c7 50 0c be
       0.09660477 0.17923594 0.8453095 -0.13702689
000100 55 15 09 3e ae c7 84 3e 4c f2 8a be 14 f5 ef 3c
       0.13387044 0.25933594 -0.27137983 0.029291667
000110 ff f6 da 3b c3 7f 8d be c0 f7 45 3e 49 d2 fb bd
       0.0066822763 -0.27636537 0.1933279 -0.12295968
000120 0c 2e 82 3e 2d e4 87 3e b1 ac 92 3d 9e 5c 85 3d
       0.25425756 0.26541272 0.071618445 0.06511806
000130 78 be 08 bc 6d d3 cd 3d e1 40 58 3e 32 a5 3c 3e
       -0.008346193 0.10050092 0.211185 0.18422392
000140 d1 c7 10 3d e8 a6 17 3e c1 32 28 3d 2b 82 1a 3e
       0.03534681 0.14809763 0.041064028 0.15088718
000150 c8 ae a6 be 8d 00 43 3d 7a 19 d2 bc a6 08 cb bd
       -0.32555223 0.047607947 -0.025646914 -0.09913759
000160 86 86 d8 3e fd b0 f3 3e a7 d2 28 be 03 eb 52 be
       0.42290133 0.4759597 -0.16486607 -0.20597462
000170 86 18 0f bd 14 55 45 be e7 2c 2d 3e 6c 39 56 bd
       -0.034935497 -0.19270736 0.1691166 -0.052300856
000180 98 c7 64 be 54 af a2 3d c1 63 38 3d ef fa f9 3d
       -0.22341764 0.079435974 0.045017008 0.12206065
000190 b0 47 cd 3d 13 e3 fe 3d 6d 6c a1 3e 53 86 89 bd
       0.10023439 0.12445655 0.31528035 -0.067150734
0001a0 5f dd 92 be ce 8e 10 be 8f 3d 20 be 94 20 95 3e
       -0.28684518 -0.14116976 -0.15648483 0.29126418
0001b0 b9 16 73 3e ba e4 08 bf 06 49 d5 3c dd 58 55 3d
       0.23739137 -0.5347401 0.026035797 0.0520867
0001c0 b0 8a cb bd d9 eb de 3d 54 4a d9 3b 5f 4b 8e 3c
       -0.09938562 0.10884828 0.006631175 0.017369924
0001d0 71 77 c3 3e 57 27 8f be 8d 79 76 3e 6e 57 4f 3d
       0.38177064 -0.279597 0.24069805 0.05062049
0001e0 36 6c 38 3e 5f e8 ab bc 01 2b 4b 3e 32 b5 91 bd
       0.18010029 -0.020984827 0.19840623 -0.071146384
0001f0 38 5c d0 3d 71 e0 7c 3c 4d fa c3 3b 0b ed b1 bd
       0.10173839 0.01543437 0.005980766 -0.086877905
000200 17 06 c6 3e f3 12 e6 be 61 6b ba bf 25 30 64 bf
       0.3867652 -0.44936332 -1.456402 -0.8913596
000210 bd b9 9d be ab c8 46 3d 4d 1b 1b 3e ce 07 e5 3d
       -0.3080577 0.048531216 0.15147133 0.11183129
000220 60 df 61 be cc d5 2c 3f f4 a9 42 3f db 88 04 3f
       -0.22057867 0.6751373 0.7604058 0.51771325
000230 fa 8f f5 3e f4 a8 31 3f cf 04 72 bf f0 06 c0 3f
       0.47961408 0.69398427 -0.9453859 1.5002117
000240 06 0a de 3e 80 5e 16 3f d3 dc 6b be 64 83 5c 3e
       0.43367022 0.58737946 -0.23033457 0.21534497
000250 0b d7 a3 be f6 15 98 3f 92 34 d9 3f 52 a7 98 3e
       -0.32000002 1.1881702 1.6969168 0.29815155
000260 ff 00 87 3f 63 b9 0a be 92 9c 26 3f 03 44 83 3f
       1.0547179 -0.13547282 0.6508266 1.025513
000270 58 06 c3 3f 38 2f 2c 3e 61 3b 54 bd 28 2b 81 3f
       1.5236311 0.16814888 -0.05181444 1.0091295
000280 2a 05 a9 bf c2 e9 06 bf 55 b2 8e 3f 76 e5 20 3f
       -1.3204701 -0.52700436 1.1148173 0.6285013
000290 4d c7 a2 3e dd 56 9e be 57 ae d8 3e 47 a0 2d bf
       0.3179268 -0.30925646 0.4232051 -0.6782269
0002a0 6e f7 4c be 7e 1e 89 be e2 ab 1e be ce 72 e7 3e
       -0.20016262 -0.26781076 -0.15495256 0.45204777
0002b0 1e 62 98 3e 8c 12 dd be d7 65 b4 3d 6a 30 c9 3d
       0.29762357 -0.43178213 0.08808487 0.098236874
0002c0 a8 9f 2f be c1 08 60 3f 92 81 b7 3f b0 b8 e4 be
       -0.17150748 0.8751336 1.4336417 -0.44672155
0002d0 9d 2e b3 be c8 1e 7a 3f 16 e1 b2 bf f7 d2 b1 be
       -0.349965 0.9770322 -1.3974941 -0.34731266
0002e0 8f 94 2d 3f 7a 7b 7e be 83 1e 5c 3f 51 63 e4 be
       0.6780481 -0.2485179 0.8598406 -0.44607022
0002f0 bc 58 3c bf 4f 90 62 be 83 b0 b5 3f 90 0a d8 be
       -0.735729 -0.22125362 1.4194492 -0.4219556
000300 9d 23 ad 3d e3 d6 f7 3e d7 c3 26 be cf 7b 3e 3e
       0.08454058 0.48406133 -0.16285644 0.18601917
000310 a3 8f 93 3d fe 54 f2 bc 3b e0 d8 bd 5e 84 d8 bd
       0.07205131 -0.029581543 -0.105896436 -0.10572122
000320 4c e3 8d bc 48 d0 e3 be 4c ca 0b 3f 15 82 3b bb
       -0.017320298 -0.44494843 0.54605556 -0.002861147
000330 40 4e ee 3d 5a ee 92 3d c6 4a d4 bd 05 c5 47 3e
       0.11636019 0.07174368 -0.103658244 0.1950875
000340 ec 7c df bd 64 22 4e 3e b4 2c 22 3c af 67 12 3e
       -0.10912499 0.20130306 0.009898353 0.14297365
000350 3c 76 55 bf e2 81 6a 3b dd a4 2c be c3 9a 2a be
       -0.83383536 0.0035782983 -0.16859765 -0.166606
000360 f6 ec 7c 3e b3 48 8f bc 65 f5 df be 23 76 e7 be
       0.24699768 -0.01749072 -0.4374191 -0.4520732
000370 21 87 69 3c 8e f3 42 bf a4 68 91 3c 92 51 fa 3d
       0.014253409 -0.76152885 0.017750092 0.122225896
000380 84 54 b6 bd c2 0c d9 3d a6 65 99 3d a7 a9 a9 bd
       -0.08902839 0.105981365 0.07490091 -0.08284312
000390 d2 3f b0 3d 0d c8 a4 3d 1b 30 23 be b8 3c 47 3c
       0.08605923 0.08045969 -0.1593632 0.012160473
0003a0 8f e3 40 3c 7d 99 6b 3d 30 e4 33 be 12 23 e5 3c
       0.011773004 0.057519425 -0.17567515 0.027970824
0003b0 be 27 2d 3e 58 7a 24 bd 3d eb df 3d 95 b5 c6 3e
       0.16909692 -0.04015574 0.1093354 0.3881041
0003c0 e3 b7 83 bc ef 02 e2 bd 35 b8 f7 3d 8a 64 18 be
       -0.016078895 -0.11035716 0.120956816 -0.14882103
0003d0 15 9e 5b 3e 53 e7 f9 be 71 f6 02 3f b5 b8 94 3e
       0.21447022 -0.488093 0.5115729 0.2904717
0003e0 d9 39 c1 bc 1f 97 78 be a9 6a 27 bd c2 6f 16 3d
       -0.023587154 -0.24276398 -0.040873203 0.036727674
0003f0 b6 c8 d6 be 4d 38 37 be 0a 3c b0 3d 36 3c 0d 3e
       -0.41950005 -0.17892571 0.086052015 0.137925

convs.0.linear2.bias f4 [64]
000000 14 03 2b bf 78 3c 78 3e 52 53 9f be 69 8e 48 3f
       -0.6680157 0.24241817 -0.31118256 0.783423
000010 52 29 bb be f4 1a 61 3f 61 1b 1f 3e 9e 74 6d be
       -0.36554962 0.8793175 0.15537788 -0.23189017
000020 7b ff e7 3c 38 3a 2b 3f 9c 50 2d 3e 8a 99 99 be
       0.028320065 0.6688571 0.16925281 -0.29999954
000030 f6 c6 b5 3e 6f 02 12 bd 98 57 d1 be 1d b1 40 3e
       0.35503358 -0.035646852 -0.4088714 0.18817563
000040 2c 71 ac 3f 48 39 0d 3e 3a a2 64 be 85 c1 3e bf
       1.3472037 0.13791382 -0.2232751 -0.7451404
000050 46 ff ad be db 47 a0 3e 8b 39 f1 bd 61 5d 95 3e
       -0.3398382 0.3130482 -0.117785536 0.29172805
000060 f6 9c 40 bf 3c 21 0b bc 44 23 a9 be 76 7e 23 3e
       -0.75239503 -0.00849181 -0.33034718 0.1596621
000070 c3 0e 8b 3e 2d b3 26 3e 05 82 4e be 84 3e 8f be
       0.271597 0.16279288 -0.20166786 -0.27977383
000080 3d 83 1b 3e d3 88 a9 be ad 37 0c be 7a 7b d9 3d
       0.15186782 -0.331122 -0.13693114 0.106192544
000090 df b8 38 3e fe a1 25 3d 5a 6f 30 be 7e 24 c3 be
       0.18039273 0.04043769 -0.17229977 -0.3811378
0000a0 1c 52 4c 3e d4 7d 8f be 72 92 99 3d 9a 70 f3 be
       0.19953197 -0.28025687 0.07498635 -0.47546846
0000b0 0e 4b 07 be ee 5a 80 be 0e cc 09 3e b0 e8 cf be
       -0.13212225 -0.25069374 0.13456747 -0.40607214
0000c0 73 59 5e be 25 6f 29 3e 3f 69 71 bd ab f8 0c bd
       -0.2171381 0.16546305 -0.05893826 -0.034416836
0000d0 df ab 70 3e 20 6a f5 be 0d 19 f6 be 53 69 28 3d
       0.23503064 -0.4793253 -0.48065987 0.04111607
0000e0 71 a3 6b 3e 74 07 6b bd a6 ab 86 3e 18 0e 2e be
       0.23011567 -0.057380155 0.26302832 -0.16997564
0000f0 90 ce 7e 3e 8d 92 cc 3c ed 9d c5 bd 52 8e 10 be
       0.24883485 0.024972225 -0.096492626 -0.14116791

convs.1.a f4 [128, 1]
000000 e1 2a 3c 39 6d 67 90 3c b8 84 f0 b6 b5 cf f7 bc
       0.00017945051 0.017627442 -7.168008e-06 -0.03025041
000010 2f a2 36 36 4f 6f a3 bc 17 46 8e 38 fc b6 81 36
       2.7214517e-06 -0.019950537 6.784143e-05 3.865802e-06
000020 34 06 f2 3a 13 e6 3e bd 25 a3 2f 3d d0 99 21 b7
       0.0018464983 -0.046606135 0.042880196 -9.63216e-06
000030 d7 fb 37 3c 45 15 bb 3c 66 bc 92 b9 bd a0 cd 3c
       0.011229477 0.02283729 -0.00027987658 0.02510106
000040 44 52 a3 bd 60 c7 cc 38 4d 79 a0 39 cc d1 cd b6
       -0.07974675 9.7646145e-05 0.00030607954 -6.1338997e-06
000050 da cd fd 34 e1 38 23 3b c8 f2 7f bb 06 ac 6a 3c
       4.72747e-07 0.0024905729 -0.003905462 0.01432324
000060 2e a5 f9 b7 66 0f d2 35 9b fc 50 37 98 38 1e bc
       -2.976003e-05 1.5650701e-06 1.245658e-05 -0.009657048
000070 4d ff 4a 3d 7a a6 50 3d 24 4c c0 3b 94 ec 11 b8
       0.04955988 0.050940014 0.0058684517 -3.4791025e-05
000080 39 f3 91 3b cf 64 af b6 5a d3 b5 33 e8 7c d3 3b
       0.004454043 -5.227142e-06 8.466914e-08 0.006454099
000090 e1 09 02 bd 2c b8 8b 3d f5 dc 03 3d 37 ad e3 36
       -0.031747703 0.06822237 0.032193143 6.785292e-06
0000a0 92 e8 fc 3c d2 a3 13 38 27 ee 8e 3c 6b 79 2f 36
       0.030872617 3.52001e-05 0.017447544 2.6147707e-06
0000b0 81 e0 ca 35 f8 48 89 37 31 3e 71 bb d0 83 a5 35
       1.5115512e-06 1.6365651e-05 -0.003681075 1.233182e-06
0000c0 79 58 4c b8 0b 03 42 3d 0a 6d 96 3d 0f 61 89 3c
       -4.8719787e-05 0.047366183 0.07345016 0.016769914
0000d0 77 27 41 3c 4f 36 88 b6 c7 5e 60 b7 82 4d a4 37
       0.011789194 -4.059438e-06 -1.33735075e-05 1.9586416e-05
0000e0 b4 f6 9a 3b 18 1a 0e 3c 26 9a 58 3d 60 32 6e 35
       0.0047291163 0.008673213 0.052881382 8.8735214e-07
0000f0 75 79 31 3d 03 6a 4c 3d ce ae c3 37 90 fd 3f b9
       0.04332872 0.04990579 2.3327211e-05 -0.00018309639
000100 aa 3f ec 3f 3c e8 dc 3e 2a 59 b1 40 c1 8e ab be
       1.8456929 0.4314593 5.5421343 -0.3350735
000110 46 26 6a 40 08 d9 9d be ce a2 e3 3f 71 90 88 40
       3.658586 -0.30829644 1.7784059 4.267632
000120 3c 2c 09 3f 29 59 90 be 67 d8 30 bc a9 33 83 40
       0.5358312 -0.28193024 -0.010793782 4.100056
000130 d6 82 d9 bc 50 7e 5f bf 80 41 b3 3e e2 db 44 bc
       -0.026551645 -0.8730211 0.3501091 -0.012015315
000140 5a bc b9 be b2 a6 05 40 4a f9 aa 3f ab 4c bb 40
       -0.36276513 2.0882993 1.3357327 5.853109
000150 f9 70 b9 40 80 cf 53 3e 27 a9 86 3c fa c2 33 bd
       5.7950406 0.20684624 0.01643808 -0.043887116
000160 39 cf 46 40 ef 9d ac 40 97 f4 af 40 47 11 cb bb
       3.1063979 5.394279 5.498607 -0.006197128
000170 2f 2c 20 bf c7 ae 94 3e 73 41 8e 3f ce 5a b6 40
       -0.6256742 0.29039595 1.1113724 5.6985846
000180 6e de c5 3d 94 9f a6 40 1d 7f a7 40 52 ae 33 3f
       0.09661566 5.2069798 5.2342668 0.70187867
000190 b6 73 00 bf cb 75 79 3d 62 3d 11 3f 50 81 b3 40
       -0.5017656 0.06090335 0.5673429 5.609535
0001a0 28 6d c2 3d 74 13 c5 3f 51 fd 51 3e 03 99 a3 40
       0.09493476 1.5396562 0.20506789 5.112428
0001b0 a0 f9 ad 40 c5 76 96 40 c4 2d 9e bf 3e ad 9d 40
       5.436722 4.701998 -1.2357717 4.9273977
0001c0 f6 ce 18 40 4c c5 a9 3d 5a cf 0c 3f 05 e0 85 3f
       2.387632 0.082895845 0.55003893 1.045899
0001d0 72 b2 86 3e 12 e3 ac 40 f2 40 a8 40 ee 2f 5c 3f
       0.26308018 5.4027185 5.257928 0.86010635
0001e0 cf 61 9d bf db 2d 5e 3f e2 04 85 3e 05 73 ab 40
       -1.2295474 0.8678872 0.25980288 5.3577905
0001f0 41 fe 80 3e f8 8a f6 3d c5 63 a4 40 d8 4b b4 3f
       0.2519398 0.12038225 5.137179 1.4085646

convs.1.linear1.weight f4 [64, 64]
000000 f3 2f df 3f 80 a4 58 bb 02 a3 e5 3f 7a 8f b0 3f
       1.7436508 -0.0033057034 1.7940371 1.3793786
000010 74 a7 a5 3f 3c 62 76 3f c3 d0 a0 3f 51 56 90 3f
       1.2941728 0.96243644 1.2563709 1.1276342
000020 16 40 8d 3f d0 b1 3f 3f 8a bd e0 3d d3 60 05 40
       1.1035182 0.74880695 0.10973652 2.0840347
000030 fa 52 19 3f 4c d7 28 bd a0 7e 40 bf 46 07 d0 3e
       0.5989224 -0.041220948 -0.75193214 0.4063055
000040 65 0a 9b 3f 5e ea 97 3f 27 3a 71 3f dc ba 0d 40
       1.2112547 1.1868398 0.9422936 2.21453
000050 e3 a2 eb 3f b0 a3 fa 3e 38 16 f9 3e 13 7f e7 3e
       1.8409084 0.4895301 0.48649764 0.45214137
000060 12 85 df 3f 97 ae 05 40 d7 8a f2 3f 06 a7 a7 3e
       1.7462485 2.088781 1.894862 0.32744616
000070 21 5e b6 be 0c fa 9e 3e 28 d7 28 3f 01 0a f4 3f
       -0.3561869 0.31050146 0.659533 1.9065553
000080 a6 e7 fa 3e 35 5c 26 40 e7 9b bb 3f 2e 3b 4e 3e
       0.4900486 2.5993779 1.4656953 0.20139763
000090 ad cc a0 be 7b 53 c2 3e 03 74 10 3f 5e c6 f0 3f
       -0.31406155 0.37954316 0.5642702 1.8810537
0000a0 27 53 fa 3e b0 5c d9 3f 57 4c 4c 3d 47 30 12 40
       0.48891565 1.6981411 0.04987749 2.2841966
0000b0 1e 22 ff 3f c0 df a9 3f 5c 6f 02 be 5f f7 a0 3f
       1.9932287 1.3271408 -0.12737793 1.2575492
0000c0 28 13 6b 3f 3c 75 78 3e df 25 0e 3e c7 ff 27 3f
       0.91826105 0.24263471 0.13881634 0.6562466
0000d0 7c 3d 0f 3d 87 6c 28 40 ef 80 b6 3f 34 f9 87 3f
       0.034970745 2.631624 1.4258097 1.0622926
0000e0 ac 4c e1 be 71 bb 31 3f 97 17 c3 3e 3d 7d e2 3f
       -0.44003808 0.6942664 0.38103935 1.769447
0000f0 2b 1d a5 3c 52 5b 03 3e 3a 15 f6 3f d0 77 90 3f
       0.02015551 0.12827805 1.9225228 1.1286564
000100 0c b5 fd 3f e7 88 a4 be 55 94 f4 3f 10 7d 43 3f
       1.9820876 -0.32135698 1.9107767 0.76362705
000110 f2 4d ad 3f b5 64 85 3f e6 d1 63 3f 08 db 21 3f
       1.3539412 1.0421358 0.88992155 0.6322484
000120 04 a6 b4 3f 7c a1 5a 3f 13 8d a9 bd 66 6d 24 40
       1.4113164 0.85402656 -0.08278861 2.5691772
000130 81 76 c3 bd 22 2f 17 bf b1 6e 6f bf a5 8c 15 3e
       -0.09544087 -0.59056294 -0.93528277 0.14604433
000140 d8 40 b9 3f 2e 16 9c 3f f6 b3 86 3f 52 c4 2f 40
       1.4472914 1.2194269 1.052367 2.7463574
000150 cd c2 cb 3f 71 a8 95 3e c3 84 7f 3e 0a 45 c6 bd
       1.5918823 0.29230073 0.24952988 -0.09681137
000160 b3 29 de 3f 84 05 f4 3f a9 eb 08 40 ee 9d 74 bd
       1.7356476 1.9064183 2.1393836 -0.059720926
000170 4d db 2a bf ef bb 12 3e c7 84 85 3f 3d 65 10 40
       -0.66740876 0.14329503 1.0431145 2.256179
000180 17 f1 86 3e 77 42 42 40 3b d8 db 3f 8c 07 83 3c
       0.26355812 3.0353067 1.7175363 0.01599481
000190 1e 7d 17 bf 3c 8e 33 3e cd 62 e8 3e 46 b3 15 40
       -0.5917529 0.17534727 0.4538788 2.339067
0001a0 54 b7 2f 3f 39 78 d1 3f 97 f3 6a be 6d e2 13 40
       0.6863911 1.6364814 -0.22944485 2.310695
0001b0 d3 0f 09 40 01 55 68 3f f4 9b 1d bf 3c b1 aa 3f
       2.1415908 0.90754706 -0.6156609 1.3335338
0001c0 64 e3 72 3f 2f 63 8b 3e d0 df 74 be bb ea 3d 3f
       0.9487822 0.2722411 -0.23913503 0.74186295
0001d0 ee a2 a9 be 30 13 38 40 09 71 99 3f 52 2e 26 3f
       -0.33132118 2.876171 1.198762 0.6491443
0001e0 ca 4c 70 bf 75 71 78 3f ab f5 3b 3e 38 be ec 3f
       -0.9386717 0.9704812 0.18355434 1.849555
0001f0 a4 b8 9f be 5a 49 78 be 6b d5 03 40 93 4c 72 3f
       -0.31195557 -0.24246731 2.059901 0.94648093
000200 f0 a4 e4 3f c4 05 41 be af e4 cd 3f 50 44 9b 3f
       1.7862835 -0.18849856 1.6085414 1.2130222
000210 54 10 99 3f 69 2a 5c 3f 4a 4c 97 3f ef 1d 69 3f
       1.1958108 0.8600221 1.1820157 0.910613
000220 51 63 85 3f d9 08 16 3f 0a 3a 49 3e 74 81 05 40
       1.0420934 0.5860725 0.19651046 2.0860262
000230 87 5b 03 3f 25 97 42 be 61 c7 6b bf aa 05 1a 3e
       0.51311535 -0.1900297 -0.92101103 0.15041223
000240 10 83 a7 3f eb af a3 3f 30 3a 72 3f 42 4a 0c 40
       1.3086872 1.2788061 0.9462004 2.1920323
000250 84 2e df 3f e1 b8 d4 3e 61 c9 b6 3e 81 1d 90 3e
       1.743607 0.415473 0.35700515 0.2814751
000260 0b 0b c0 3f 14 03 eb 3f 70 df e4 3f e5 05 41 3d
       1.500337 1.8360314 1.7880688 0.047124762
000270 38 58 02 bf 71 a2 4b 3e 98 32 53 3f 41 13 f1 3f
       -0.5091586 0.19886185 0.82499075 1.8834001
000280 9f dc 71 3e 9e 44 1c 40 e6 82 bb 3f 28 d0 7c 3e
       0.23619317 2.441688 1.4649322 0.2468878
000290 8f 16 31 be 09 04 b9 3e c8 3b f3 3e 49 ce f9 3f
       -0.17293762 0.3613589 0.47506547 1.9516078
0002a0 9d 35 b4 3e f0 0f cb 3f 96 a6 63 3d ad a4 0c 40
       0.35197154 1.5864239 0.05557879 2.197551
0002b0 ba 56 e7 3f 0d 98 b9 3f 05 5a 9d bd 57 e7 ad 3f
       1.8073342 1.4499527 -0.076831855 1.3586224
0002c0 56 dd 55 3f 37 73 94 3e 8a 60 99 3d 02 d5 47 3f
       0.83540857 0.28994152 0.074891165 0.780594
0002d0 6d 14 15 be e4 39 1e 40 15 16 a7 3f fe a1 7a 3f
       -0.14558573 2.4722834 1.3053614 0.9790343
0002e0 f2 8e e8 be 4d 68 5a 3f 62 f5 a9 3e 05 42 d6 3f
       -0.4542156 0.853154 0.33195025 1.6738898
0002f0 c4 e3 71 bd 38 39 f9 3d 32 1a e0 3f 0c a0 8b 3f
       -0.059055105 0.12169117 1.7507994 1.0908217
000300 73 01 66 bf 26 f7 e9 3d db a3 8f be ed c6 66 bf
       -0.8984596 0.11424093 -0.280547 -0.90147287
000310 c0 3e b9 be 72 c6 2d bf 3b e1 29 be 1b e3 79 3d
       -0.36180687 -0.6788093 -0.16589825 0.0610076
000320 1c f3 de bd 59 22 13 bf 24 62 ae 3d de b9 2c bf
       -0.10886213 -0.57474285 0.085148126 -0.6747111
000330 f4 c3 8d be c3 8f 0a 3f 92 0a 03 3f df f0 aa bd
       -0.27688563 0.5412561 0.51188004 -0.08346724
000340 e6 39 76 bf 18 64 47 be 2a f3 fa be 20 29 05 bf
       -0.96182096 -0.19471776 -0.49013644 -0.52015877
000350 b7 25 62 be 15 5d a3 bd f5 1d 03 bd e1 fa 18 3d
       -0.220847 -0.07976738 -0.03201099 0.03734863
000360 9b 3f 1d bf 55 61 d1 bd 24 e5 06 bf 3a bd 19 3d
       -0.6142518 -0.10223643 -0.5269339 0.037533976
000370 e7 bb fe 3d c6 ef 81 bd 09 02 1d 3c 92 6f 0d bf
       0.12438183 -0.06344561 0.009583005 -0.5524837
000380 85 bc cd 3d b0 f6 c1 be 44 0e bd be 21 49 d6 bd
       0.10045723 -0.3788352 -0.36924946 -0.10463167
000390 aa 1b de 3c db 75 80 3d 96 54 9f 3d 6f 85 31 bf
       0.0271128 0.06272479 0.07779805 -0.6934423
0003a0 a4 fa 15 bd 74 b8 77 bf b8 d9 a1 3e 61 9e 90 be
       -0.036615983 -0.9676583 0.3161142 -0.28245834
0003b0 80 b4 d8 be 06 b7 6e be 9d 2d 2f 3f 52 76 b6 be
       -0.4232521 -0.23312005 0.68428975 -0.35637146
0003c0 66 81 83 be 3f b7 14 bd e5 7a af 3e f7 d7 43 bd
       -0.2568466 -0.03630757 0.3427345 -0.047813382
0003d0 a5 bd 9c 3d 19 a8 1e bf 2f 7c 04 be d6 47 e7 bc
       0.07653359 -0.61975247 -0.12937997 -0.028232496
0003e0 54 79 f8 bb dd d2 20 bd 17 04 ca 3d 59 08 ff be
       -0.007582823 -0.039263595 0.09864061 -0.49811056
0003f0 aa e7 2e bc 81 85 55 bb 5b 4c 63 be 83 4e 21 bf
       -0.01067535 -0.0032580795 -0.22197096 -0.63010424

convs.1.linear1.bias f4 [64]
000000 06 a1 ef 3b 9d 77 19 bd d2 69 0c 3c 2e 50 d2 3b
       0.0073128967 -0.037467588 0.008570151 0.0064182496
000010 23 09 90 bd 76 a7 73 bd bd 9a c7 bb 1c 34 39 3d
       -0.07032993 -0.059485875 -0.0060914443 0.04521571
000020 80 e0 03 bc 6d b3 67 bc c9 8a 20 bd db fa b1 bc
       -0.00804913 -0.0141418995 -0.039194856 -0.021726063
000030 ff 42 cd bc 7e a9 e2 3c ca ae 81 bd c2 0b 91 bb
       -0.02505636 0.02766871 -0.063321665 -0.0044264505
000040 a9 b7 10 3e 2d d8 ac bd 1a a5 d7 ba e0 65 0c 3e
       0.14132561 -0.0843967 -0.0016452402 0.13710737
000050 ec 82 8d 3c e0 b7 4d 3d 00 9a f1 3d c3 1f 49 3c
       0.017274342 0.050224185 0.11796951 0.012275639
000060 1a 07 34 bd c2 9d 44 3e c7 16 0b bc 73 6e 79 bc
       -0.043952085 0.19200805 -0.008489317 -0.015224087
000070 91 74 83 3d 5b 56 cd 3d db 3a 87 bd 50 be 02 bd
       0.06418718 0.100262366 -0.06603023 -0.031919777
000080 8c a8 e5 3c 2d 21 84 bc 0f 7b 2b 3d 09 50 84 3c
       0.028034471 -0.0161291 0.041865405 0.016151445
000090 26 b5 0a 3d 28 10 a4 bd 0b 9f 81 3c ed f3 94 3c
       0.033864163 -0.08010894 0.015822908 0.01818272
0000a0 70 e6 23 3c d1 01 91 3c 92 89 87 3d de c7 d4 3c
       0.010003671 0.017701061 0.06618036 0.02597421
0000b0 89 e2 cb bc 06 b0 8d bd bd ea a2 bb 51 22 82 3c
       -0.024888294 -0.069183394 -0.0049718306 0.015885504
0000c0 e6 22 be 3c 48 86 15 3d 7e eb 95 3c 2d 74 9a 3d
       0.02321 0.036505014 0.018300768 0.0754169
0000d0 05 ea 1c bd 38 4d e8 bc a2 41 5f 3c 9c 9e 70 3b
       -0.038309116 -0.028357133 0.013626488 0.0036715632
0000e0 b5 82 0b 3e ec 13 0f 3c cd 13 3a 3d 96 c3 89 bd
       0.1362408 0.008732777 0.04542904 -0.06726758
0000f0 f1 11 54 bc 43 df cd 3c 81 94 4d 3c 2c 73 91 3c
       -0.012943731 0.025130874 0.012547613 0.017755114

convs.1.linear2.weight f4 [64, 64]
000000 70 8c 73 3d a4 84 4d bf 6e dd 7e bd 59 94 0e 3f
       0.059460104 -0.8028052 -0.06222289 0.5569511
000010 49 dd b3 be 5c e3 75 be f8 80 6f be 7e 1b 8a 3e
       -0.35129765 -0.24012512 -0.23389041 0.269741
000020 a8 5f 65 3d ab 85 ae bd ed f2 da bd 9f a5 ee 3a
       0.055999428 -0.08521589 -0.10690866 0.0018207318
000030 bd a5 04 3e 3e dd 41 3e c3 f4 cd 3c a1 57 bf bd
       0.12953849 0.18932053 0.025141126 -0.09342886
000040 0a 4a 08 3f bd 72 9b be 53 31 07 3d 45 d5 1a 3f
       0.53237975 -0.30360976 0.033006024 0.60481673
000050 9f 8f 6f 3e e1 b0 63 3e 97 5f 9c 3e ef f8 ff 3d
       0.23394631 0.22235443 0.3054168 0.12498652
000060 3a e1 8b be 43 3f 3f 3f cd 3e 8b bd 32 19 52 bd
       -0.27320272 0.74705905 -0.06799088 -0.05129356
000070 4f f9 a5 bd c7 bf 03 3f 4c 8c 1b bf d9 1e 67 be
       -0.081041925 0.51464504 -0.6076095 -0.22570361
000080 35 22 e4 3a d2 09 33 bd d1 ba b2 3c 82 75 dc bc
       0.0017405214 -0.043710537 0.021817597 -0.0269115
000090 81 aa 57 3e 42 b0 8d be 46 6b 11 3e 93 64 eb bb
       0.21061136 -0.27673537 0.14201078 -0.0071836202
0000a0 a9 8b d0 3d b9 2c 20 3d 6e 73 34 3e da 41 4a 3e
       0.10182888 0.03910515 0.17622158 0.19751683
0000b0 1e e6 a5 3c 0b c2 cc bd 69 65 cd 3d 7a 63 a7 3e
       0.02025133 -0.09997948 0.10029108 0.32693082
0000c0 8d 24 3c 3f 5b b1 07 be 44 54 86 bd 30 44 e0 3e
       0.7349327 -0.1325125 -0.06559041 0.43802023
0000d0 57 69 c7 bc 39 c6 a3 be a5 3f 87 3d 56 72 e1 3d
       -0.024342222 -0.3198717 0.06603936 0.11008136
0000e0 da ef f5 3e ea b9 bf 3d f4 cc e5 bd 41 f7 44 bf
       0.48034555 0.09361632 -0.11220732 -0.7693978
0000f0 0e 1b ad bd 4b 85 9c bd ec d7 05 3d fc 62 24 3e
       -0.08452426 -0.07642611 0.032676622 0.16053385
000100 3d 1f ad be 26 1b 44 bf ce ec eb bd 5b 9f 00 be
       -0.33812895 -0.76603925 -0.11519776 -0.1256079
000110 3f 12 2e bf 59 f4 e2 be 0e b2 b5 bd 70 b3 c8 bd
       -0.6799659 -0.44327047 -0.08871852 -0.0979985
000120 9e 9a 1e 3e 3f 0f 5c be 2b e0 56 be f8 ca 2b 3e
       0.1548867 -0.21490191 -0.20983951 0.16776645
000130 b6 cd 78 3d 2c c1 19 3d 99 59 24 bd 09 7d f7 3d
       0.060743056 0.03753774 -0.04012451 0.120843954
000140 d3 7f ab 3e 0a b5 73 bd 3d 09 1e 3e b3 8f ab 3e
       0.3349596 -0.059498824 0.15433212 0.3350807
000150 69 47 00 3e 75 d9 42 3e be 7e bf 3e 62 83 6f 3e
       0.12527241 0.19028266 0.37401384 0.23389962
000160 e5 3c 8e be 43 28 58 3f 2f 58 36 3e 6c 82 9a be
       -0.27780834 0.84436435 0.17807077 -0.3017763
000170 44 e8 6c be f5 da e9 3e ca b5 25 bf a7 51 80 be
       -0.23135477 0.45674863 -0.64730513 -0.25062296
000180 45 c8 d5 3d db 87 62 3e cd ac 6b be 36 da 95 be
       0.10438589 0.22122137 -0.23015137 -0.29268044
000190 ee da 7c 3e a5 d6 24 bd 47 84 4a 3e d3 da 35 3e
       0.2469289 -0.040243763 0.19777022 0.17759256
0001a0 4b 16 62 3e 38 31 94 bc 3c e1 13 3f ac 3b db 3d
       0.22078817 -0.018089876 0.57765555 0.10704741
0001b0 e9 38 1d 3d 82 88 31 bf 61 35 30 3e b4 0a 00 3e
       0.038384352 -0.6934892 0.17207862 0.12504083
0001c0 9d 20 6e 3e 7e 08 9f 3e c2 a1 96 3e a6 01 87 3e
       0.23254628 0.31061167 0.29420286 0.26368445
0001d0 0f 33 ae bc b2 e4 19 be ae 48 fa 3d 21 7b 27 3d
       -0.021264581 -0.15028647 0.12220894 0.04088891
0001e0 15 03 bc 3e 6e 11 18 3e 65 d3 54 3e 04 cc 22 bf
       0.367211 0.14850399 0.20783766 -0.63592553
0001f0 85 1a 90 be 79 03 8a 3e 7c 81 2f be 9e ab 8d bd
       -0.28145233 0.26955774 -0.17139238 -0.06917499
000200 3d 12 a9 bd 61 43 79 bd 57 4d e9 bd 1f 39 e3 3d
       -0.08255432 -0.060855273 -0.113917045 0.11094879
000210 c9 d4 6f be f0 af 84 bd 1e eb e8 bd ec 91 7b 3e
       -0.23421015 -0.0647887 -0.1137297 0.24567384
000220 7c 5c 86 3e 57 a3 4e bc ee 1b 86 be 2b a6 42 3e
       0.26242435 -0.012612185 -0.26193184 0.190087
000230 59 5b 2c 3e 18 c3 ac 3e 30 a5 96 3e 0a cb 85 3e
       0.16831721 0.33742595 0.29422903 0.2613147
000240 8d 02 86 3e ec 15 4f bd 6f 8d 91 3d de 52 58 3e
       0.2617382 -0.050558016 0.071070544 0.21125361
000250 0d 22 f7 3d 48 88 a8 3e 64 bc ea 3d 93 30 7f 3e
       0.120670415 0.32916474 0.11461714 0.24920873
000260 8d f8 32 be 9b fe 23 3e a1 ac 88 3e e8 bf 5a be
       -0.17477627 0.16015093 0.26694205 -0.21362269
000270 77 3f 8f 3b 21 cb 17 3f ce ac be bd a5 eb 06 be
       0.0043715793 0.59294325 -0.09310304 -0.13175829
000280 fd ce a0 3e d1 e5 e2 3d 5f e6 0f be 8b 76 1e 3e
       0.3140792 0.1107899 -0.14052723 0.15474908
000290 a5 c1 b2 3e bb 2f 02 be fb d1 ea 3d ce 62 81 3d
       0.34913364 -0.1271352 0.11465832 0.063176736
0002a0 b8 ee 09 3e e1 7c 16 3e 44 43 97 3e 45 e1 a8 3d
       0.1346997 0.14696075 0.29543507 0.08246092
0002b0 51 27 2e 3e a5 eb 63 be a0 a9 88 3d 96 03 ad 3e
       0.17007186 -0.2225786 0.066729784 0.33791798
0002c0 d0 91 c0 3e dd 97 9e 3e d4 06 85 3e eb bb 0a 3f
       0.37611246 0.30975237 0.25981772 0.5419299
0002d0 ff 62 49 3e 03 90 95 be 98 aa 71 3e 75 41 ea 3d
       0.1966667 -0.29211435 0.23600233 0.11438266
0002e0 6c 59 44 3e 45 70 3c 3e 96 a8 94 3e 84 d8 e8 bd
       0.19174737 0.18402202 0.2903487 -0.11369422
0002f0 fa 00 20 be 43 93 d5 3d ed 5f 13 be 78 a3 a8 3e
       -0.15625373 0.104284786 -0.14392062 0.32937217
000300 15 ea a8 bd df 91 07 bf 6d 05 07 be 20 31 07 3f
       -0.082477726 -0.52956957 -0.13185664 0.52809334
000310 14 26 ad be 85 2d 20 be b4 82 cb bd d5 28 56 3e
       -0.33818114 -0.15642364 -0.09937039 0.20914014
000320 29 e6 07 bd 56 ba 1c be 49 38 2b be c6 54 28 3d
       -0.033178482 -0.15305457 -0.1672069 0.04109647
000330 a5 fa 7f bd 45 1c 13 3e 34 5e 21 bc b9 05 0e 3e
       -0.062494893 0.14366253 -0.00984912 0.1386937
000340 89 93 dc 3e ed d7 b2 be f1 c0 e0 bd 48 1e 07 3f
       0.4308131 -0.34930363 -0.10974301 0.5278058
000350 a4 cf 04 3e 7e c1 5a 3d 6d ff d5 3e 9f e1 b0 3c
       0.12969834 0.053407185 0.41796437 0.02159196
000360 55 5d a5 be f1 ca 6b 3f 5a 33 82 3d 40 2b 6a bd
       -0.3229777 0.9210654 0.06357451 -0.057170153
000370 2a 0c 5b bd 1c 93 e4 3e 87 2d 23 bf 8e be 83 be
       -0.053478397 0.44643486 -0.63741344 -0.2573132
000380 75 df 55 3e c8 ce c9 bd 83 c7 1d 3c 02 25 4f 3e
       0.20886023 -0.098538935 0.009630087 0.20228961
000390 b6 25 0b 3d 5a d4 ac be 9d bc c2 bb 47 f2 d5 3c
       0.03397151 -0.3375576 -0.0059428946 0.026116503
0003a0 03 b1 68 3e 5d 74 21 3e 45 73 30 3d 1e 6c ce 3d
       0.22723775 0.15767045 0.04307868 0.100792155
0003b0 f7 d0 e4 bc a2 42 56 be 38 2f 05 3e 44 ac 99 3e
       -0.027931673 -0.20923856 0.13006294 0.3001424
0003c0 a6 1e 11 3f be b5 b8 3d 49 39 ab 3d cd dd 76 3e
       0.5668739 0.090190396 0.08360536 0.24108048
0003d0 ad c5 3c 3c e4 8b 3e be 07 5c 96 bd 0f a1 31 bd
       0.011521739 -0.18608052 -0.073417716 -0.043366488
0003e0 43 b4 12 3f 55 04 4c ba 51 d7 dc 3d de 84 26 bf
       0.5730631 -0.0007782628 0.10783256 -0.6504649
0003f0 ae 2b 62 bd 1d 81 81 3c e8 87 33 3d a8 14 39 3c
       -0.055217437 0.015808636 0.043830782 0.011296429

convs.1.linear2.bias f4 [64]
000000 39 87 9e bc 5c 46 c8 bb 66 cf 97 bd 11 d8 96 ba
       -0.019351589 -0.006111903 -0.07412605 -0.0011508485
000010 00 44 c9 3d 89 1d c6 3d ad 73 cd 3d 6b 0e 2a bc
       0.09827423 0.09673602 0.10031829 -0.010379414
000020 7f e0 27 bc 14 c6 c2 bc 7e e3 f9 3d d0 4f c8 bd
       -0.010246395 -0.023776092 0.12201594 -0.09780848
000030 45 69 98 3c 1d bf 2f 3d f4 38 07 3e 0e 02 e0 3d
       0.018604884 0.04290687 0.1320532 0.10937892
000040 ec ac 3e bd 1f 7a 26 3e db 87 75 bd fa 7e 2c bd
       -0.04655163 0.16257523 -0.059944015 -0.04211328
000050 54 4e af bb 58 b7 c7 3d 07 25 e0 3d 76 86 60 3c
       -0.0053499136 0.09751767 0.109445624 0.013703933
000060 55 91 33 bd b6 cf f6 3d b1 74 a1 bc 32 2e d6 3c
       -0.04383977 0.120513365 -0.019708963 0.026145075
000070 c5 86 08 bc f1 ba 41 bc 53 da f8 3c 7a 3a 03 bc
       -0.008332913 -0.011824355 0.030377543 -0.008009547
000080 85 f8 05 be 69 cb 9d 3d a7 04 4a bb 5e 1d 7d 3c
       -0.13083084 0.07704813 -0.0030825527 0.015448896
000090 ff 0e dc bd 3f d8 d0 3d 91 60 c7 3c 97 24 c3 3d
       -0.10745048 0.10197496 0.024338039 0.09528463
0000a0 4c 52 de 3d 7e 0c 98 3d 56 f5 f0 bc d0 4a c8 3d
       0.10855541 0.07424258 -0.02941386 0.09779894
0000b0 31 2f 35 3d 5a b3 86 3d 5a bb 34 3e cb d2 b3 3d
       0.04423446 0.06577177 0.17649594 0.0878044
0000c0 20 6e d8 3c 37 8d 81 3b 47 d1 8d bc 3d 5f 30 bc
       0.0264197 0.0039536017 -0.017311705 -0.010764894
0000d0 a2 74 c3 bc 05 61 e2 3d f8 df 88 bd 37 48 ad 3d
       -0.023859326 0.11053661 -0.06683344 0.084610395
0000e0 5e 61 13 3e 15 f3 2b 3e 46 36 a8 3b 2f 1a 87 bd
       0.14392611 0.16791947 0.005133423 -0.06596791
0000f0 ba 6f 9c bd 3a 76 2b bd d0 23 01 3e 9c 13 93 3b
       -0.07638498 -0.041860797 0.12611318 0.0044884216
