Saved_Models/TSP_200/scatgnn_layer_2_hid_64_model_200_temp_3.500.pth (torch, 179911 bytes, 24 tensors)

bn0.weight f4 [2]
1.0 1.0
00000000: 0000 803f 0000 803f

bn0.bias f4 [2]
0.0 0.0
00000000: 0000 0000 0000 0000

bn0.running_mean f4 [2]
0.0 0.0
00000000: 0000 0000 0000 0000

bn0.running_var f4 [2]
1.0 1.0
00000000: 0000 803f 0000 803f

in_proj.weight f4 [64, 2]
-0.61720663 0.30487832 -0.7492508 -0.7127142 -0.2576822 -1.0605857 0.30610812 -0.25375026
-0.3284567 -0.5127665 0.4479497 -0.28792083 0.53954995 0.05416143 -0.19075115 -0.6011902
0.32375535 -1.0261259 0.50239176 -0.8358354 0.5999522 0.307997 -0.019445041 -0.69390875
0.19251281 0.6500677 0.817292 0.5693595 0.99420226 0.5743817 1.1255041 -0.15098287
0.33254117 -0.5114139 -0.7215047 -0.29700845 -0.9190513 -0.27066755 0.44874015 -1.085129
1.0556923 0.6391369 0.97815293 -0.035818134 0.99165493 -0.49934068 -0.19342533 0.9883156
0.8739645 -0.19252978 -0.47318065 -0.98118114 -0.8500501 0.7020425 0.74228853 -0.23001273
-0.16707215 -0.6814748 0.18443118 0.7032788 -0.77354 0.55001354 -0.0018799609 0.79069614
-0.67341393 0.53164303 -0.16287683 -0.9311121 0.57511127 -1.0162934 0.69698703 0.34252968
0.5653218 -0.37846324 0.910135 -0.50691575 0.066758014 -0.7392953 0.30937684 -0.8511391
-0.72897166 0.5667926 0.94729495 0.9038679 -0.032134 0.8137467 -0.9205744 -0.7075856
-0.071296304 0.6121743 0.8114789 -0.38269535 -1.0352694 0.38056436 -0.4988417 -0.044850808
-0.47554645 -0.9649006 -0.59497267 -0.6302403 -0.80962425 0.33336645 -0.9384123 -0.19486627
-0.8526018 -0.36180383 -0.26719454 -0.87224776 0.17944625 -0.7954379 -0.8373134 0.34303164
0.6720808 1.0251576 0.42123008 -0.14457011 -0.10919853 0.75857747 0.029119335 -0.22173879
-0.63308185 -0.7470128 -0.06431261 -0.34562513 -0.4998381 1.0473452 -0.25280523 -0.9359969
00000000: 4101 1ebf 0319 9c3e e7ce 3fbf 7074 36bf
00000010: ecee 83be 46c1 87bf 34ba 9c3e 8eeb 81be
00000020: 7a2b a8be aa44 03bf aa59 e53e 5c6a 93be
00000030: f21f 0a3f 60d8 5d3d 4554 43be 9ae7 19bf
00000040: 43c3 a53e 1858 83bf bf9c 003f 4ff9 55bf
00000050: 7896 193f c8b1 9d3e 354b 9fbc 01a4 31bf
00000060: 1422 453e d66a 263f 0c3a 513f 8bc1 113f
00000070: 0a84 7e3f ae0a 133f 8510 903f 419b 1abe
00000080: d642 aa3e 05ec 02bf 88b4 38bf 7e11 98be
00000090: f246 6bbf f094 8abe 45c1 e53e 82e5 8abf
000000a0: ed20 873f 7a9e 233f 3b68 7a3f 09b6 12bd
000000b0: 19dd 7d3f 95a9 ffbe 4a11 46be 4002 7d3f
000000c0: 23bc 5f3f 8726 45be bc44 f2be b02e 7bbf
000000d0: e29c 59bf 0fb9 333f 9f06 3e3f 7588 6bbe
000000e0: f614 2bbe 2275 2ebf 87db 3c3e 140a 343f
000000f0: b806 46bf b0cd 0c3f 0569 f6ba 106b 4a3f
00000100: db64 2cbf c219 083f 2fc9 26be 5d5d 6ebf
00000110: 7e3a 133f e715 82bf be6d 323f 0d60 af3e
00000120: eeb8 103f efc5 c1be 9bfe 683f 3bc5 01bf
00000130: 6db8 883d 7542 3dbf a466 9e3e 41e4 59bf
00000140: e39d 3abf 5219 113f ec81 723f e363 673f
00000150: f19e 03bd b451 503f c4aa 6bbf 5424 35bf
00000160: cc03 92bd 74b7 1c3f 15bd 4f3f a5f0 c3be
00000170: b583 84bf 55d9 c23e 2e68 ffbe 7bb5 37bd
00000180: d37a f3be ba03 77bf 2150 18bf 6e57 21bf
00000190: 8943 4fbf 02af aa3e ca3b 70bf 068b 47be
000001a0: 1d44 5abf 5a3e b9be b9cd 88be a14b 5fbf
000001b0: c2c0 373e d1a1 4bbf 2c5a 56bf d8a1 af3e
000001c0: 7d0d 2c3f 5d38 833f 78ab d73e 300a 14be
000001d0: 7ba3 dfbd 2232 423f ac8b ee3c 7e0f 63be
000001e0: a711 22bf 3b3c 3fbf 54b6 83bd c7f5 b0be
000001f0: c8ea ffbe 680f 863f b06f 81be 7e9d 6fbf

in_proj.bias f4 [64]
-0.24974246 0.29951018 -0.024341304 0.50192136 0.50160146 0.3689881 -0.57909214 -0.2966825
-0.41463146 -0.002374625 -0.18749638 -0.020636948 0.2206473 -0.124630734 -0.402885 0.004770614
0.26626942 -0.6117703 0.40916216 -0.0021307422 0.002810535 0.34939045 -0.58835083 0.3776606
-0.2449851 -0.40711597 0.0040063937 -0.1614049 -0.25137532 -0.20582743 -0.31110552 -0.48853847
0.21868332 -0.56995994 -0.087682344 -0.0023227807 -0.50874126 0.023878349 0.40556994 -0.0707667
-0.42294526 0.25837666 -0.09019365 0.6130928 0.5388392 -0.025710553 -0.31418982 -0.2904638
0.48693112 0.027078325 -0.14235714 -0.6301457 0.41957104 0.38584486 -0.07037696 -0.107755534
-0.4643107 -0.23655717 -0.18211013 0.38653484 0.017716764 0.20989458 -0.07917778 -0.61159533
00000000: 7dbc 7fbe 6659 993e 6a67 c7bc eb7d 003f
00000010: f468 003f 02ec bc3e 623f 14bf c5e6 97be
00000020: 934a d4be 999f 1bbb 0dff 3fbe d10e a9bc
00000030: 5ef1 613e 663e ffbd f146 cebe d052 9c3b
00000040: 7754 883e fa9c 1cbf b47d d13e eca3 0bbb
00000050: f430 383b 4ee3 b23e 299e 16bf bb5c c13e
00000060: 60dd 7abe 8171 d0be 1148 833b 5347 25be
00000070: 44b4 80be 6dc4 52be 3949 9fbe b721 fabe
00000080: 85ee 5f3e e5e8 11bf cd92 b3bd cb39 18bb
00000090: de3c 02bf 879c c33c dda6 cf3e 22ee 90bd
000000a0: 488c d8be f249 843e 73b7 b8bd a6f3 1c3f
000000b0: 5ef1 093f f09e d2bc 7ddd a0be acb7 94be
000000c0: 094f f93e 5dd3 dd3c 12c6 11be 3b51 21bf
000000d0: 04d2 d63e 758d c53e cc21 90bd efae dcbd
000000e0: 22ba edbe 0b3c 72be 147b 3abe e5e7 c53e
000000f0: bf22 913c 9bee 563e f627 a2bd 8391 1cbf

convs.0.a f4 [128, 1]
-0.007514616 -0.025100606 -0.00742955 -0.0042319293 -0.020334959 -0.008918091 -0.0005771993 -6.8386675e-05
-0.009148512 -0.004428909 -0.0005341366 -0.0069964943 0.0037923062 -0.0050592767 0.00043821413 -0.004334712
-0.010797645 -0.005053894 -0.014145792 -0.014238897 -0.0023385808 0.0015945198 -0.0030850477 -0.0052903234
0.0055780876 -0.0007831955 -0.007809562 0.006705476 0.000382627 -0.0032753684 -0.0066938326 -1.4587613e-05
-0.009230704 -0.0012693662 -0.01149765 -0.0061740433 -0.0037705393 -0.0059241178 -0.0112772 -0.010112331
-0.00461743 0.018515846 -0.0027199367 -0.026694728 -0.0013314998 -0.0047496264 -0.009031752 -0.0066867354
-0.026263842 -0.0136104245 -0.007879228 -0.00797643 -0.025503278 -0.024396589 -0.005335106 -0.0065272134
0.0006176178 0.00199343 -0.006363179 -0.0027321964 -0.007295258 -0.01069675 -0.010339131 -0.0002193342
0.7305199 1.179114 0.93878806 0.13600646 0.22278625 0.21501836 0.7362588 0.7494912
0.87612975 1.0664175 0.7015071 0.925292 1.1934359 0.7144908 0.69755125 1.0388856
1.3646581 0.6651576 0.64993644 1.1166391 1.0132809 1.0201157 0.7911713 0.65545106
0.6979948 0.791721 1.0177637 0.7158032 0.7309109 0.7051825 0.79318833 0.7515046
1.0817229 0.75916505 1.0900108 1.0326694 0.77876985 1.3100367 0.5230597 0.9370638
0.8361892 1.1462159 0.7713651 0.46550962 0.18735467 0.9790724 0.7096983 0.66380423
0.640074 0.93253565 0.712984 0.69576937 0.62649226 0.80795354 0.9435692 0.7086286
0.7252304 0.7111654 0.934862 0.08015113 0.9812515 0.2197856 1.015675 0.7627957
00000000: 2b3d f6bb c99f cdbc 9573 f3bb ffab 8abb
00000010: 8095 a6bc 2f1d 12bc 304f 17ba d16a 8fb8
00000020: a4e3 15bc 6220 91bb 4d05 0cba d942 e5bb
00000030: 5788 783b 4ac8 a5bb 1bc0 e539 330a 8ebb
00000040: 9be8 30bc 239b a5bb c1c3 67bc 434a 69bc
00000050: e042 19bb 35ff d03a 832e 4abb 735a adbb
00000060: 64c8 b63b 5c4f 4dba 5be7 ffbb 9cb9 db3b
00000070: 549b c839 90a7 56bb f057 dbbb 52bd 74b7
00000080: 613c 17bc dd60 a6ba a460 3cbc a14f cabb
00000090: 271b 77bb 1a1f c2bb 01c4 38bc 31ae 25bc
000000a0: cf4d 97bb 8bae 973c f740 32bb e7ae dabc
000000b0: b885 aeba c1a2 9bbb eaf9 13bc 671c dbbb
000000c0: 4527 d7bc 42fe 5ebc e117 01bc 92af 02bc
000000d0: 40ec d0bc 5bdb c7bc 1dd2 aebb 3ce2 d5bb
000000e0: a1e7 213a 35a4 023b 3782 d0bb a60e 33bb
000000f0: 0f0d efbb 6c41 2fbc 7565 29bc 13fd 65b9
00000100: 5a03 3b3f 35ed 963f 6a54 703f 4745 0b3e
00000110: 1422 643e c62d 5c3e 757b 3c3f a8de 3f3f
00000120: 0a4a 603f 5e80 883f f895 333f f0df 6c3f
00000130: 82c2 983f dee8 363f b892 323f 34fa 843f
00000140: 1ead ae3f c547 2a3f 3c62 263f 08ee 8e3f
00000150: 30b3 813f 2793 823f 348a 4a3f a4cb 273f
00000160: caaf 323f 3aae 4a3f 1546 823f e13e 373f
00000170: fa1c 3b3f d786 343f 640e 4b3f 9b62 403f
00000180: e575 8a3f a458 423f 7985 8b3f 832e 843f
00000190: 765d 473f 48af a73f 3ee7 053f 6ae3 6f3f
000001a0: 7f10 563f 34b7 923f 2f78 453f 4757 ee3e
000001b0: e7d9 3f3e 7da4 7a3f caae 353f 13ef 293f
000001c0: e4db 233f a8ba 6e3f 1f86 363f f11d 323f
000001d0: cc61 203f 0bd6 4e3f c08d 713f af68 353f
000001e0: b3a8 393f f00e 363f 1e53 6f3f 4726 a43d
000001f0: 4c33 7b3f 7a0f 613e a301 823f 9446 433f

convs.0.linear1.weight f4 [64, 64]
-0.22696511 -0.0602035 -0.24150531 -0.10442552 0.05869653 -0.10764668 -0.2535863 -0.24844897
-0.09577496 -0.03673088 -0.13328652 -0.15745737 -0.25500965 -0.18387155 -0.2955684 -0.35294867
0.030613597 -0.27920365 -0.15343912 -0.11600175 -0.20895505 -0.30018455 -0.33743694 0.18676445
-0.20120932 -0.26246455 -0.17898534 -0.27008826 -0.09943012 -0.34093678 -0.27236786 -0.22236724
-0.03641508 -0.020878106 0.13786893 -0.18611066 -0.18579195 -0.21488489 0.065296784 0.0024821602
-0.28849086 -0.21226214 0.06683302 0.036819335 0.05504725 -0.24178007 -0.29572615 -0.39285594
-0.05452071 0.072237805 -0.34407815 -0.1841088 0.021394467 -0.1137251 -0.104490586 -0.3851019
-0.23269232 -0.16047266 0.01428774 0.0610304 -0.1573859 -0.06476537 0.074591555 -0.16815493
-0.11741258 -0.053709887 0.29011795 -0.23097639 -0.058431108 -0.18004352 -0.1600595 0.21163005
0.13506112 -0.022703437 0.02039099 0.11620763 0.15728176 0.103356235 0.1153742 -0.19935255
-0.2247406 -0.17048745 -0.30828917 -0.078805976 0.08193372 -0.102062866 0.012104679 0.030110713
-0.108500645 0.2823436 -0.09305328 -0.06433812 0.12990588 0.359824 -0.15130556 0.29676247
-0.12219166 0.18308994 -0.09076908 -0.07570353 0.084088996 -0.24478018 0.21289289 0.096930705
-0.017396463 0.07810816 0.22384872 -0.29776406 -0.020627383 -0.25985348 -0.029136688 -0.17004672
0.13968556 0.06803805 -0.114826955 -0.17506398 -0.3338452 0.07134377 0.2989558 -0.16041066
0.12989043 -0.24527763 0.36721018 -0.1949534 0.061817877 0.0064519173 0.09255996 0.2184987
0.05776219 0.4306311 0.17436887 0.030959444 0.14595196 -0.24324906 0.24910049 0.4323557
-0.47898254 -0.3733784 0.50067884 -0.06931498 0.1967492 0.507851 0.40508687 0.1372922
-0.49194092 0.30870026 0.2346652 -0.5772003 0.5323528 0.17307997 -0.11983236 -0.42581436
0.26507577 0.49611455 -0.16852283 0.25234905 0.22966036 0.33222815 -0.189513 -0.122460976
-0.3206596 0.17972101 -0.6226531 0.46813017 -0.19451773 -0.33432811 -0.45074058 -0.62334347
-0.33376563 0.30814302 -0.010547766 0.29574102 -0.4329597 -0.042296704 0.046595257 0.30228084
0.27572632 0.3328667 0.08022743 0.49436167 0.2700188 0.22610028 -0.47364953 0.10564497
0.43992674 0.21848407 -0.33102545 -0.22891222 0.4244091 -0.05864199 -0.49181885 0.23616232
-0.04846962 0.36358914 0.025573378 -0.13410787 -0.08939684 -0.3185239 -0.0043885233 0.1501501
-0.2574408 -0.27629015 0.47568578 -0.20077187 0.08187517 0.5791041 0.41288993 0.07492857
-0.27705854 0.31720945 0.03637682 -0.33162636 0.25875646 -0.080529355 -0.11210687 -0.592571
-0.04339018 0.20092516 -0.030636488 -0.041595187 0.12539995 0.07451004 -0.12062342 -0.24940677
-0.17653157 0.06138925 -0.23363458 0.22563724 -0.014982863 -0.3554255 -0.4525568 -0.32376915
-0.055813286 0.39159566 -0.2314841 0.018540448 -0.29717872 -0.10472471 0.031180235 0.028341668
0.06946848 0.53092134 -0.12225731 0.19174555 0.015442572 -0.04128422 -0.16428646 0.021024348
0.40681955 -0.17030263 -0.23042949 -0.37601787 0.40412384 -0.3556804 -0.22556001 0.21317545
00000000: 8b69 68be f297 76bd 2b4d 77be 0cdd d5bd
00000010: c66b 703d dd75 dcbd 10d6 81be 6869 7ebe
00000020: aa25 c4bd 1f73 16bd 437c 08be 813c 21be
00000030: a090 82be d348 3cbe be54 97be b0b5 b4be
00000040: 5ec9 fa3c c8f3 8ebe 251f 1dbe 5392 edbd
00000050: 50f8 55be cab1 99be 89c4 acbe 2e3f 3f3e
00000060: d109 4ebe c161 86be ef47 37be 0249 8abe
00000070: 05a2 cbbd 448f aebe cd73 8bbe 3db4 63be
00000080: fb27 15bd 9008 abbc 832d 0d3e cb93 3ebe
00000090: 3f40 3ebe c90a 5cbe 52ba 853d bdab 223b
000000a0: 13b5 93be 3f5b 59be c0df 883d dfcf 163d
000000b0: 3a79 613d 3295 77be 6b69 97be 6a24 c9be
000000c0: 1c51 5fbd 6af1 933d 032b b0be 0487 3cbe
000000d0: 7343 af3c b5e8 e8bd 29ff d5bd 142c c5be
000000e0: e546 6ebe f252 24be 2017 6a3c 03fb 793d
000000f0: c529 21be b5a3 84bd 75c3 983d ce30 2cbe
00000100: 0276 f0bd e6fe 5bbd 578a 943e 1385 6cbe
00000110: 7555 6fbd 545d 38be a3e6 23be 8cb5 583e
00000120: 764d 0a3e 8ffc b9bc 010b a73c 44fe ed3d
00000130: 780e 213e 6fac d33d 4f49 ec3d 1323 4cbe
00000140: 6622 66be 4394 2ebe 14d8 9dbe 0765 a1bd
00000150: decc a73d 5606 d1bd b452 463c beaa f63c
00000160: 9635 debd 578f 903e b892 bebd b4c3 83bd
00000170: 0c06 053e da3a b83e d8ef 1abe 40f1 973e
00000180: 9f3f fabd ee7b 3b3e 24e5 b9bd 740a 9bbd
00000190: da36 ac3d a8a7 7abe 9800 5a3e 9b83 c63d
000001a0: 0783 8ebc 2cf7 9f3d 9938 653e 8874 98be
000001b0: c2fa a8bc 840b 85be 10b0 eebc ba20 2ebe
000001c0: bb09 0f3e 8857 8b3d 652a ebbd f943 33be
000001d0: c2ed aabe af1c 923d bc10 993e b142 24be
000001e0: ff01 053e 0f2a 7bbe f902 bc3e dda1 47be
000001f0: be34 7d3d 9b6a d33b 1490 bd3d 20be 5f3e
00000200: 0c98 6c3d ae7b dc3e c18d 323e a99e fd3c
00000210: 6e74 153e 4816 79be 3314 7f3e ba5d dd3e
00000220: 333d f5be 742b bfbe 7d2c 003f 03f5 8dbd
00000230: 9f78 493e 8602 023f 8c67 cf3e 5496 0c3e
00000240: aedf fbbe f60d 9e3e 134c 703e 66c3 13bf
00000250: 4648 083f e03b 313e ab6a f5bd 5704 dabe
00000260: 03b8 873e ba02 fe3e 4091 2cbe e533 813e
00000270: 162c 6b3e cf19 aa3e b20f 42be d2cc fabd
00000280: 7f2d a4be c908 383e 3266 1fbf c2ae ef3e
00000290: a82f 47be 0e2d abbe 78c7 e6be 7093 1fbf
000002a0: 54e3 aabe ecc4 9d3e 8ad0 2cbc 5e6b 973e
000002b0: e5ac ddbe 4f3f 2dbd abda 3e3d 8ec4 9a3e
000002c0: 002c 8d3e 816d aa3e 474e a43d f91c fd3e
000002d0: e73f 8a3e d586 673e 3182 f2be 645c d83d
000002e0: 143e e13e 4aba 5f3e 2b7c a9be f767 6abe
000002f0: 264c d93e 9532 70bd aecf fbbe 89d4 713e
00000300: 1588 46bd 5b28 ba3e 437f d13c 9353 09be
00000310: b115 b7bd 9115 a3be 9acd 8fbb f3c0 193e
00000320: 48cf 83be e775 8dbe 168d f33e 2497 4dbe
00000330: 2bae a73d 2b40 143f 4f66 d33e 2674 993d
00000340: 9eda 8dbe 4769 a23e dcff 143d eeca a9be
00000350: ba7b 843e 93ec a4bd 4998 e5bd bcb2 17bf
00000360: e7b9 31bd 53bf 4d3e 5ff9 fabc b75f 2abd
00000370: d868 003e b898 983d 6909 f7bd 7d64 7fbe
00000380: b1c4 34be 4b73 7b3d e73d 6fbe 730d 673e
00000390: af7a 75bc 55fa b5be 86b5 e7be 12c5 a5be
000003a0: 799c 64bd 3a7f c83e 2b0a 6dbe 23e2 973c
000003b0: cf27 98be e979 d6bd b16d ff3c c92c e83c
000003c0: 7e45 8e3d 76ea 073f 0a62 fabd f258 443e
000003d0: d702 7d3c a419 29bd b63a 28be 413b ac3c
000003e0: a74a d03e d063 2ebe b5f5 6bbe 6a85 c0be
000003f0: 52e9 ce3e be1b b6be 34f9 66be aa4a 5a3e

convs.0.linear1.bias f4 [64]
-0.10762465 0.7060699 0.060779084 0.3083817 0.5353781 0.014151824 -0.060906805 -0.1588186
0.24901186 -0.44057497 0.3077041 -0.10233697 -0.041020542 -0.0058672563 0.19302635 -0.022928631
-0.3173179 -0.018839933 -0.01501272 0.04292843 -0.27566296 -0.15098046 -0.48324212 -0.36896345
0.029783167 0.116391934 -0.66770315 -0.5811936 -0.014409188 -0.27816465 -0.026160005 -0.060828466
-0.023833064 0.14909947 0.0010112507 -0.2350309 0.048780724 0.27947646 -0.15667452 -0.025715008
-0.01697205 0.18970089 -0.0019855038 0.00915325 -0.017211922 -0.020699091 -0.02018746 0.43468353
0.09589317 -0.016165825 -0.2047585 -0.17889643 0.24733199 -0.6474548 0.37488985 0.68568134
-0.28666657 -0.061487533 -0.29211584 0.07286807 -0.27853623 0.0008103319 0.011895187 0.43285507
00000000: 506a dcbd ffc0 343f 7df3 783d 35e4 9d3e
00000010: 8a0e 093f 0ddd 673c 6a79 79bd 58a1 22be
00000020: f7fc 7e3e 0b93 e1be 648b 9d3e 0c96 d1bd
00000030: 2805 28bd 1d42 c0bb b3a8 453e d3d4 bbbc
00000040: 7e77 a2be 3456 9abc e9f7 75bc b9d5 2f3d
00000050: b223 8dbe 9f9a 1abe 836b f7be c7e8 bcbe
00000060: d4fb f33c e55e ee3d 98ee 2abf 1bc9 14bf
00000070: 8414 6cbc 996b 8ebe 824d d6bc 4527 79bd
00000080: 8f3d c3bc 88ad 183e f18b 843a f1ab 70be
00000090: 4cce 473d 8a17 8f3e 496f 20be 48a8 d2bc
000000a0: f808 8bbc f340 423e 3a1f 02bb 83f7 153c
000000b0: 0400 8dbc 2491 a9bc 2c60 a5bc d78e de3e
000000c0: a363 c43d 316e 84bc 36ac 51be a030 37be
000000d0: 9944 7d3e 99bf 25bf 90f1 bf3e d088 2f3f
000000e0: f6c5 92be 5ada 7bbd 3590 95be db3b 953d
000000f0: 4d9c 8ebe 746c 543a 08e4 423c 2e9f dd3e

convs.0.linear2.weight f4 [64, 64]
0.13125181 -0.46909693 -0.34808064 -0.164777 -0.03307003 0.047855675 -0.00795491 0.02730314
-0.079685494 0.43318057 -0.08295321 -0.029329464 0.0013167775 0.07543812 -0.2611219 0.34508297
0.06824628 -0.02448065 0.25116834 -0.100400664 -0.55425376 0.19386967 0.6950979 0.23448437
0.24450716 1.0613024 0.36573225 0.7223588 0.8282918 -0.06677659 0.06222262 0.30262598
-0.44541994 -0.0927506 0.27934054 0.054420866 -0.1025981 -0.2405334 0.11253272 -0.07516835
0.21715684 -0.20035727 0.07030907 -0.1307305 -0.20463762 0.08594929 -0.077500984 -0.36711773
0.08551109 0.43113118 0.3999961 0.070697956 -0.3862499 0.6019963 -1.0216842 -0.26418796
0.37651384 0.08153266 0.22767314 -0.017471308 0.07335529 0.16423862 0.842699 -0.13172558
0.1257905 0.25183874 -0.2535232 0.022432672 0.003046686 -0.27903873 0.19289619 -0.114793554
0.24333721 0.26694047 0.06554933 0.063967444 -0.00575758 0.08962982 0.20134331 0.17684196
0.039551735 0.13319159 0.029169472 0.14033933 -0.31675395 0.048882235 -0.021880548 -0.093907274
0.40434334 0.4943725 -0.15961468 -0.2006935 -0.034049403 -0.17535016 0.16803111 -0.048301887
-0.21855654 0.07338299 0.032485332 0.12413479 0.09934077 0.12004769 0.31262445 -0.06358291
-0.2960142 -0.13893051 -0.15751839 0.28675354 0.23316313 -0.50618935 0.029017627 0.050781686
-0.09354388 0.095204964 0.0084628705 0.014910464 0.38476697 -0.27536228 0.24479944 0.043579232
0.18081805 -0.03515779 0.20141721 -0.07106245 0.109962925 0.01089073 -0.0012535132 -0.09171479
0.37497216 -0.42301458 -1.4157435 -0.84683347 -0.2890359 0.0455697 0.14052363 0.100503966
-0.21802269 0.6275345 0.74355936 0.49078777 0.45305687 0.675406 -0.91271394 1.4705983
0.41103932 0.55977696 -0.2198457 0.22043641 -0.3627367 1.1525036 1.6570199 0.28907895
1.0252446 -0.14829355 0.62306017 0.97881263 1.4871304 0.11746338 -0.036762897 0.9797532
-1.293367 -0.49546614 1.0889038 0.5913036 0.30093718 -0.2886912 0.39716598 -0.6602414
-0.18536913 -0.26404265 -0.15194994 0.4295661 0.2874819 -0.40881035 0.08412903 0.09301356
-0.16094093 0.84861875 1.398252 -0.4239792 -0.34510425 0.94188136 -1.35858 -0.3190343
0.6363149 -0.23733115 0.81822836 -0.425955 -0.7402724 -0.21426849 1.3832148 -0.39624122
0.078119375 0.45761442 -0.1566521 0.18596888 0.06535371 -0.019887755 -0.12418073 -0.09477818
-0.037628423 -0.45801237 0.5246097 -0.01761821 0.10090243 0.060409583 -0.10604416 0.18838288
-0.1048413 0.18299893 -0.007258529 0.14804268 -0.80192786 0.0031453485 -0.15975073 -0.15538053
0.22897115 -0.02531035 -0.4195753 -0.4388939 0.018914284 -0.74412 0.016772984 0.11855738
-0.08390438 0.11064316 0.06816199 -0.08789217 0.082332246 0.07173287 -0.17514895 0.006464543
-0.0100182835 0.05715455 -0.16624275 0.012505684 0.1570384 -0.06209624 0.100459345 0.37970683
-0.009748624 -0.11051636 0.12276763 -0.14423402 0.20384407 -0.4483757 0.49761835 0.27656227
-0.039947752 -0.2505542 -0.052187577 0.04811828 -0.40112743 -0.16318718 0.08022059 0.14016971
00000000: e066 063e 792d f0be a037 b2be 4dbb 28be
00000010: 7174 07bd 5004 443d 5055 02bc d6aa df3c
00000020: 2632 a3bd d8c9 dd3e 5fe3 a9bd 5844 f0bc
00000030: b997 ac3a 4d7f 9a3d c5b1 85be b7ae b03e
00000040: b5c4 8b3d a58b c8bc 2399 803e dd9e cdbd
00000050: 93e3 0dbf c585 463e f0f1 313f ac1c 703e
00000060: 1660 7a3e c2d8 873f 4241 bb3e 82ec 383f
00000070: ee0a 543f 2ac2 88bd 25dd 7e3d cbf1 9a3e
00000080: 150e e4be 07f4 bdbd b905 8f3e 6ae8 5e3d
00000090: f41e d2bd 634e 76be 8e77 e63d ddf1 99bd
000000a0: 5d5e 5e3e 752a 4dbe 34fe 8f3d 37de 05be
000000b0: 868c 51be 2e06 b03d d6b8 9ebd dbf6 bbbe
000000c0: 7020 af3d 3abd dc3e 4acc cc3e 17ca 903d
000000d0: 8cc2 c5be 6e1c 1a3f 8cc6 82bf a543 87be
000000e0: 6cc6 c03e 98fa a63d 2623 693e fd1f 8fbc
000000f0: 4c3b 963d 2b2e 283e 1fbb 573f 12e3 06be
00000100: 3acf 003e 02f1 803e cbcd 81be b9c4 b73c
00000110: e9aa 473b 2ade 8ebe 9486 453e e218 ebbd
00000120: 642d 793e 6cac 883e ba3e 863d 5d01 833d
00000130: 15aa bcbb d78f b73d f12c 4e3e 0f16 353e
00000140: 0001 223d 6063 083e d1f4 ee3c 1db5 0f3e
00000150: 932d a2be bd38 483d d63e b3bc 7552 c0bd
00000160: 1706 cf3e 641e fd3e 0872 23be 9982 4dbe
00000170: 6377 0bbd fe8e 33be 5910 2c3e 33d8 45bd
00000180: 49cd 5fbe d249 963d 570f 053d 613a fe3d
00000190: 2c73 cb3d 90db f53d 5010 a03e c237 82bd
000001a0: 2c8f 97be cd43 0ebe 804c 21be 5cd1 923e
000001b0: 51c2 6e3e a095 01bf 60b6 ed3c 7500 503d
000001c0: ef93 bfbd d2fa c23d daa7 0a3c 054b 743c
000001d0: 2d00 c53e 49fc 8cbe b4ac 7a3e 2380 323d
000001e0: 5e28 393e 9d01 10bd 5040 4e3e 3189 91bd
000001f0: 3e34 e13d 086f 323c ec4c a4ba f7d4 bbbd
00000200: 5afc bf3e 5e95 d8be 1537 b5bf 14ca 58bf
00000210: 83fc 93be 4ba7 3a3d 6de5 0f3e 06d5 cd3d
00000220: 5741 5fbe 1aa6 203f e859 3e3f 8948 fb3e
00000230: 12f7 e73e 68e7 2c3f 9fa7 69bf 913c bc3f
00000240: bf73 d23e 8b4d 0f3f 3b1f 61be 15ba 613e
00000250: a0b8 b9be 3d85 933f 3a19 d43f 2802 943e
00000260: 373b 833f 44da 17be df80 1f3f 7793 7a3f
00000270: 4a5a be3f a490 f03d b194 16bd 1bd1 7a3f
00000280: 0d8d a5bf bdad fdbe 3361 8b3f ac5f 173f
00000290: 7014 9a3e 55cf 93be 5759 cb3e 9505 29bf
000002a0: 68d1 3dbe 9930 87be c498 1bbe 16f0 db3e
000002b0: d430 933e 974f d1be d74b ac3d e57d be3d
000002c0: b3cd 24be 143f 593f ecf9 b23f cd13 d9be
000002d0: 81b1 b0be 231f 713f f3e5 adbf 7758 a3be
000002e0: 89e5 223f f006 73be 6a77 513f c616 dabe
000002f0: 7e82 3dbf 3369 5bbe 2f0d b13f 21e0 cabe
00000300: 0dfd 9f3d 704c ea3e 6869 20be a06e 3e3e
00000310: 2ad8 853d a5eb a2bc 7752 febd 101b c2bd
00000320: 4320 1abd 9980 eabe d24c 063f 1054 90bc
00000330: efa5 ce3d 0a70 773d ae2d d9bd 71e7 403e
00000340: 09b7 d6bd 1264 3b3e f4d8 edbb 8098 173e
00000350: 254b 4dbf 3122 4e3b b295 23be 131c 1fbe
00000360: 6a77 6a3e a757 cfbc 93d2 d6be b4b6 e0be
00000370: 21f2 9a3c a67e 3ebf 7f67 893c 36ce f23d
00000380: 0fd6 abbd e298 e23d 8398 8b3d cf00 b4bd
00000390: cf9d a83d afe8 923d 3f5a 33be 84d4 d33b
000003a0: ba23 24bc e41a 6a3d 8a3b 2abe a4e4 4c3c
000003b0: adce 203e a158 7ebd a1bd cd3d ef68 c23e
000003c0: b1b8 1fbc 6756 e2bd 986d fb3d 15b2 13be
000003d0: 80bc 503e 8091 e5be d5c7 fe3e 9299 8d3e
000003e0: 41a0 23bd a448 80be a4c2 55bd ac17 453d
000003f0: 9360 cdbe 8a1a 27be b14a a43d a688 0f3e

convs.0.linear2.bias f4 [64]
-0.60993534 0.23830405 -0.28517964 0.7411974 -0.32414514 0.8842775 0.18243067 -0.19848572
0.026028464 0.6839032 0.15424888 -0.28374153 0.2486062 -0.030493883 -0.26586577 0.17072506
1.3528464 0.13515446 -0.21852623 -0.71586615 -0.28414872 0.31940374 -0.09842 0.2521828
-0.7092558 0.012879403 -0.30243635 0.15329514 0.26541892 0.15631513 -0.20029789 -0.27369922
0.15421562 -0.30866987 -0.10109107 0.103675194 0.18350334 0.041160315 -0.17964448 -0.35137627
0.20198539 -0.24710989 0.07567766 -0.44450295 -0.10891964 -0.2295182 0.1367974 -0.36710876
-0.19872743 0.16051686 -0.061834425 -0.036484405 0.23160617 -0.45038214 -0.4202758 0.051734827
0.23715079 -0.059260234 0.25999826 -0.16572332 0.23975761 0.025430093 -0.08290836 -0.14846799
00000000: b924 1cbf fa05 743e 1103 92be 1dbf 3d3f
00000010: 5af6 a5be 0360 623f 1bcf 3a3e d73f 4bbe
00000020: a539 d53c 4814 2f3f 6bf3 1d3e 9246 91be
00000030: a092 7e3e 4fce f9bc 8f1f 88be 8dd2 2e3e
00000040: 122a ad3f ee65 0a3e 57c5 5fbe 0143 37bf
00000050: f17b 91be e388 a33e 6d90 c9bd 1b1e 813e
00000060: ca91 35bf 2204 533c f0d8 9abe 67f9 1c3e
00000070: fde4 873e 1311 203e e41a 4dbe 4e22 8cbe
00000080: b3ea 1d3e fa09 9ebe d608 cfbd a953 d43d
00000090: 4de8 3b3e b897 283d b9f4 37be 97e7 b3be
000000a0: 42d5 4e3e 600a 7dbe e4fc 9a3d e495 e3be
000000b0: 4311 dfbd d206 6bbe 9e14 0c3e aef5 bbbe
000000c0: 347f 4bbe 885e 243e 1846 7dbd ac70 15bd
000000d0: 2b2a 6d3e 7d98 e6be 642e d7be e6e7 533d
000000e0: a8d7 723e dcba 72bd 7e1e 853e 60b3 29be
000000f0: 0583 753e c552 d03c dccb a9bd fe07 18be

convs.1.a f4 [128, 1]
0.00017945051 0.017880913 -7.1889303e-06 -0.031779174 1.003499e-07 -0.017660942 6.783491e-05 3.865802e-06
0.0037193312 -0.06394537 0.040221397 -9.63216e-06 0.0020188258 0.02051874 -0.00027987658 0.03693375
-0.06913948 9.7646145e-05 0.00030607954 -6.359242e-06 4.72747e-07 0.005255547 -0.011421573 0.022920595
-2.9603128e-05 1.40299e-06 1.1914635e-05 0.00085755985 0.056923024 0.05180931 0.005920655 -3.4791025e-05
0.0106683355 -5.4748625e-06 -5.3088275e-08 0.0002786694 -0.03015977 0.056502063 0.03232427 6.3154052e-06
0.02976921 3.52001e-05 0.023971003 1.6744357e-06 1.4443547e-06 1.6365651e-05 -0.0013010891 1.233182e-06
-4.8834663e-05 0.05228813 0.06681696 0.02079652 0.0027411864 -4.475792e-06 -1.33735075e-05 1.9999776e-05
-0.0033384692 0.008631143 0.054091733 8.8735214e-07 0.034300175 0.05683708 2.3327211e-05 -0.00018309639
1.854368 0.41845512 5.4967294 -0.33312637 3.567042 -0.31014514 1.7269015 4.2305756
0.4930354 -0.28444207 -0.011808231 4.0273266 -0.018742252 -0.92161566 0.13400963 -0.021873008
-0.3636431 2.023663 1.3194103 5.789722 5.7481203 0.18070579 0.017320512 -0.04191664
3.0458589 5.3415995 5.4580483 -0.00041100723 -0.63243806 0.27651784 1.0518785 5.654794
0.077851884 5.1629114 5.1891856 0.6966955 -0.5153389 0.0524294 0.49986303 5.5638785
0.079548664 1.5528203 0.20621905 5.0647216 5.400482 4.655089 -1.286041 4.8865376
2.356783 0.07422524 0.5433582 1.0101424 0.24676111 5.360846 5.214984 0.8303413
-1.2667685 0.8596735 0.23878093 5.301375 0.23545326 0.12750241 5.092442 1.3551488
00000000: e12a 3c39 fe7a 923c 7138 f1b6 e12a 02bd
00000010: f17f d733 aead 90bc 9742 8e38 fcb6 8136
00000020: 06c0 733b caf5 82bd 31bf 243d d099 21b7
00000030: 474e 043b eb16 a83c 66bc 92b9 d847 173d
00000040: 0099 8dbd 60c7 cc38 4d79 a039 7961 d5b6
00000050: dacd fd34 b936 ac3b 8d21 3bbc f9c3 bb3c
00000060: 3c54 f8b7 5f4e bc35 f8e4 4737 decd 603a
00000070: 1e28 693d 0036 543d 0e02 c23b 94ec 11b8
00000080: 3eca 2e3c b6b4 b7b6 2d03 64b3 601a 9239
00000090: 9f11 f7bc b56e 673d 7466 043d ebe8 d336
000000a0: 8fde f33c d2a3 1338 d65e c43c 2cbd e035
000000b0: a6db c135 f848 8937 4e89 aaba d083 a535
000000c0: d2d3 4cb8 142c 563d 55d7 883d 775d aa3c
000000d0: 7aa5 333b c32e 96b6 c75e 60b7 31c5 a737
000000e0: 38ca 5abb a369 0d3c 4b8f 5d3d 6032 6e35
000000f0: 577e 0c3d ffcd 683d ceae c337 90fd 3fb9
00000100: ee5b ed3f c03f d63e 35e5 af40 8a8f aabe
00000110: 6b4a 6440 58cb 9ebe 1c0b dd3f e060 8740
00000120: 236f fc3e 64a2 91be 4f77 41bc dcdf 8040
00000130: 5a89 99bc 01ef 6bbf d239 093e 062f b3bc
00000140: 6e2f babe b283 0140 70e2 a83f 6745 b940
00000150: 9af0 b740 f00a 393e bfe3 8d3c c8b0 2bbd
00000160: 5aef 4240 62ee aa40 55a8 ae40 757c d7b9
00000170: 76e7 21bf bf93 8d3e f4a3 863f 13f4 b440
00000180: cf70 9f3d 9236 a540 cf0d a640 a35a 323f
00000190: 40ed 03bf 36c0 563d 0cee ff3e 4b0b b240
000001a0: 69ea a23d d1c2 c63f 162b 533e 3312 a240
000001b0: c0d0 ac40 7df6 9440 fe9c a4bf 845e 9c40
000001c0: 88d5 1640 6703 983d 8619 0b3f 594c 813f
000001d0: f2ae 7c3e 0d8c ab40 26e1 a640 3f91 543f
000001e0: 7825 a2bf 9013 5c3f fd82 743e dda4 a940
000001f0: a91a 713e fe8f 023e 49f5 a240 8475 ad3f

convs.1.linear1.weight f4 [64, 64]
1.7137828 0.0014895444 1.7878326 1.2222284 1.2953788 0.977874 1.2598052 1.126208
1.1328558 0.8115386 0.10203051 2.0807521 0.42967537 -0.0018175924 -0.45485625 0.41343164
1.2226348 1.184374 0.92422724 2.2076573 1.8417152 0.51751643 0.48529837 0.41752824
1.7355636 2.0858817 1.8854195 0.30127057 -0.27676016 0.30508527 0.67305183 1.9044493
0.5005372 2.5893977 1.4615856 0.20270312 -0.31638607 0.40832052 0.59299344 1.8720689
0.49305946 1.6575006 0.04687312 2.2770076 1.9829272 1.3253293 -0.08550944 1.2553674
0.91345614 0.2370194 0.14642061 0.6799223 0.029185768 2.621826 1.4257542 1.0565791
-0.41636807 0.7067527 0.37515956 1.768951 0.030379524 0.11540409 1.9224818 1.1235865
1.925792 -0.31330663 1.8909286 0.777839 1.3327401 1.046918 0.8909238 0.63090014
1.4594979 0.8666304 -0.06943545 2.550297 -0.09902037 -0.47879186 -0.7958135 0.16313185
1.4499265 1.2007656 0.9983033 2.720196 1.5925403 0.32483858 0.27844936 -0.08189243
1.697487 1.8921875 2.1146128 -0.046369344 -0.6315457 0.12743194 1.0766219 2.247467
0.27101076 3.009064 1.6997155 0.055608753 -0.57486975 0.21825084 0.46020675 2.3150463
0.6896528 1.5750759 -0.2090154 2.2854502 2.1153004 0.9035365 -0.55559707 1.326465
0.93763393 0.25923282 -0.20340888 0.7911517 -0.32532942 2.8483927 1.1982778 0.6346272
-0.8789138 1.007635 0.16318236 1.8439738 -0.29443228 -0.23061587 2.0568972 0.9131271
1.7553226 -0.18287316 1.6017598 1.0602763 1.1962715 0.8799565 1.1856054 0.9099218
1.0702147 0.6534933 0.19111003 2.0823128 0.35181123 -0.14785993 -0.62288564 0.1590945
1.3178011 1.275973 0.9275396 2.1844318 1.7447069 0.4439963 0.3582572 0.2496794
1.4884121 1.8326731 1.7780615 0.021976734 -0.42833185 0.19355077 0.83872175 1.8811034
0.24628764 2.4311256 1.4602932 0.24764945 -0.17115465 0.3916814 0.5041128 1.9420345
0.35449886 1.5464011 0.05228374 2.189626 1.7964183 1.4481183 -0.03381736 1.3565117
0.8309925 0.28436565 0.08183185 0.80285704 -0.15014374 2.461777 1.3056984 0.97413015
-0.42792916 0.8651224 0.32658553 1.6730956 -0.047248866 0.110025726 1.7510304 1.0845438
-0.8645307 0.107098766 -0.2862703 -0.82434964 -0.38217035 -0.6593985 -0.17934783 0.050185256
-0.15674958 -0.5979484 0.08045727 -0.68668073 -0.17240572 0.49876708 0.34366348 -0.09899666
-0.92678136 -0.20174864 -0.47252306 -0.5283496 -0.23386693 -0.12616313 -0.052507833 0.049196795
-0.61224604 -0.11117953 -0.52764666 0.045749687 0.077185586 -0.066340804 -0.007595689 -0.5619345
0.082629114 -0.37957305 -0.37644872 -0.11435432 0.02070692 0.024473328 0.038574316 -0.696021
-0.041536346 -0.9209997 0.30849567 -0.2852216 -0.42226952 -0.24415913 0.6460094 -0.36588714
-0.26296443 -0.038867496 0.32619807 -0.0865427 0.07403356 -0.6196439 -0.14150341 -0.031638727
-0.035093136 -0.05678018 0.09672518 -0.5120993 -0.024321934 -0.0036717493 -0.23376647 -0.6304366
00000000: 3c5d db3f d13c c33a b3d7 e43f fb71 9c3f
00000010: f9ce a53f f355 7a3f 4c41 a13f 9527 903f
00000020: 6b01 913f fec0 4f3f 5ff5 d03d 0b2b 0540
00000030: 69fe db3e 483c eeba ebe2 e8be 50ad d33e
00000040: 4c7f 9c3f 9199 973f 289a 6c3f 424a 0d40
00000050: 53bd eb3f f57b 043f 0779 f83e 43c6 d53e
00000060: f326 de3f 167f 0540 6d55 f13f 2340 9a3e
00000070: 82b3 8dbe 2334 9c3e 204d 2c3f ffc4 f33f
00000080: 3523 003f b1b8 2540 3d15 bb3f 6891 4f3e
00000090: 5bfd a1be 630f d13e 6bce 173f f49f ef3f
000000a0: 4a72 fc3e fb28 d43f 07fe 3f3d 7eba 1140
000000b0: 8fd0 fd3f 64a4 a93f 931f afbd e1af a03f
000000c0: 43d8 693f 37b5 723e 49ef 153e 630f 2e3f
000000d0: fe16 ef3c ffcb 2740 1d7f b63f fc3d 873f
000000e0: 322e d5be bfed 343f ea14 c03e fd6c e23f
000000f0: 7bde f83c fb58 ec3d e213 f63f afd1 8f3f
00000100: 5a80 f63f ba69 a0be f309 f23f 7520 473f
00000110: 3a97 aa3f 6901 863f 9513 643f ac82 213f
00000120: d4d0 ba3f 7ddb 5d3f 2c34 8ebd 1138 2340
00000130: 31cb cabd 3524 f5be 6fba 4bbf 090c 273e
00000140: 3197 b93f b0b2 993f ce90 7f3f b117 2e40
00000150: 5cd8 cb3f 3e51 a63e ea90 8e3e 38b7 a7bd
00000160: 4147 d93f 3333 f23f d155 0740 c8ed 3dbd
00000170: fbac 21bf 857d 023e bfce 893f 80d6 0f40
00000180: ecc1 8a3e 8194 4040 4790 d93f 01c6 633d
00000190: aa2a 13bf 267d 5f3e 38a0 eb3e b829 1440
000001a0: 168d 303f 169c c93f 2208 56be d144 1240
000001b0: 1561 0740 2b4e 673f 9c3b 0ebf 9bc9 a93f
000001c0: c708 703f 2aba 843e 6b4a 50be eb88 4a3f
000001d0: 9491 a6be 114c 3640 2b61 993f ee76 223f
000001e0: 7f00 61bf 2ffa 803f 4719 273e 5507 ec3f
000001f0: d4bf 96be 9126 6cbe 34a4 0340 b3c2 693f
00000200: 69ae e03f 1a43 3bbe 7706 cd3f 22b7 873f
00000210: 6d1f 993f d444 613f ebc1 973f a3f0 683f
00000220: ccfc 883f 564b 273f 59b2 433e 9d44 0540
00000230: 9a20 b43e 9868 17be 6f75 1fbf abe9 223e
00000240: b5ad a83f 1553 a33f 3c73 6d3f bbcd 0b40
00000250: 8e52 df3f 7c53 e33e 7d6d b73e f5ab 7f3e
00000260: 4a84 be3f 0895 ea3f 8597 e33f 8d08 b43c
00000270: 504e dbbe 2c32 463e 78b6 563f ffc7 f03f
00000280: d432 7c3e 9097 1b40 e3ea ba3f d197 7d3e
00000290: 2a43 2fbe 778a c83e 890d 013f 9694 f83f
000002a0: e080 b53e 79f0 c53f 7a27 563d d522 0c40
000002b0: 09f1 e53f f15b b93f 1284 0abd 2da2 ad3f
000002c0: edbb 543f 6098 913e 7597 a73d 0a88 4d3f
000002d0: 48bf 19be c18d 1d40 2021 a73f 9860 793f
000002e0: 8819 dbbe a978 5d3f 3836 a73e ff27 d63f
000002f0: 0788 41bd 2b55 e13d c421 e03f 55d2 8a3f
00000300: e251 5dbf 9956 db3d 0592 92be 9408 53bf
00000310: d5ab c3be 57ce 28bf f5a6 37be 0e8f 4d3d
00000320: f682 20be 2513 19bf c8c6 a43d 4fca 2fbf
00000330: 208b 30be 665e ff3e a9f4 af3e c3be cabd
00000340: 8b41 6dbf 3297 4ebe 8bee f1be eb41 07bf
00000350: d07a 6fbe e830 01be 7412 57bd 9482 493d
00000360: 28bc 1cbf 18b2 e3bd da13 07bf 0664 3b3d
00000370: 7a13 9e3d b0dd 87bd 42e5 f8bb f0da 0fbf
00000380: 7439 a93d 6657 c2be e3bd c0be 9932 eabd
00000390: 8fa1 a93c 4a7c c83c 1a00 1e3d 6f2e 32bf
000003a0: 0422 2abd a3c6 6bbf 25f3 9d3e 9108 92be
000003b0: b633 d8be da04 7abe df60 253f 8f55 bbbe
000003c0: 46a3 86be 8633 1fbd 6f03 a73e 4d3d b1bd
000003d0: e89e 973d fca0 1ebf 45e6 10be 9c97 01bd
000003e0: d2bd 0fbd 5692 68bd da17 c63d f118 03bf
000003f0: cb3e c7bc bba1 70bb 7a60 6fbe 4b64 21bf

convs.1.linear1.bias f4 [64]
0.01059748 -0.038701754 0.010643729 0.0037803948 -0.064826414 -0.054949235 -0.0013770148 0.041850775
-0.013091048 -0.009219307 -0.033662334 -0.025061848 -0.029832225 0.024807114 -0.06461392 -0.0077459738
0.14061485 -0.08230992 -0.0060171895 0.13524406 0.012668265 0.04662533 0.11641387 0.0075377366
-0.039272886 0.18905729 -0.011960817 -0.012004843 0.066972114 0.094579175 -0.060447097 -0.02893801
0.024176588 -0.020423763 0.045324482 0.014467034 0.030409649 -0.0787637 0.011493702 0.012632083
0.0070172674 0.014795224 0.057359587 0.020210035 -0.029957982 -0.06364506 -0.009494659 0.012582024
0.022056272 0.031611506 0.014296975 0.07253048 -0.04148633 -0.025669385 0.008722342 -4.6718804e-05
0.13446708 0.0035347284 0.042081937 -0.06217551 -0.007844375 0.02178194 0.01687924 0.014902107
00000000: 0ea1 2d3c bb85 1ebd 0963 2e3c 80c0 773b
00000010: b6c3 84bd 7312 61bd f37c b4ba b86b 2b3d
00000020: d67b 56bc 940c 17bc 84e1 09bd 814e cdbc
00000030: b662 f4bc 4a38 cb3c 4e54 84bd f0d1 fdbb
00000040: 57fd 0f3e 1a92 a8bd d82b c5bb 6b7d 0a3e
00000050: 8e8e 4f3c 34fa 3e3d 656a ee3d 1eff f63b
00000060: 9bdc 20bd 3c98 413e 4df7 43bc f6af 44bc
00000070: ad28 893d bab2 c13d 6097 77bd 680f edbc
00000080: fb0d c63c bc4f a7bc 2aa6 393d 2307 6d3c
00000090: a81d f93c dd4e a1bd 1550 3c3c ccf6 4e3c
000000a0: 1bf1 e53b ab67 723c e3f1 6a3d 848f a53c
000000b0: 716a f5bc 5758 82bd 7c8f 1bbc d524 4e3c
000000c0: 5baf b43c 117b 013d dc3d 6a3c dc8a 943d
000000d0: 92ed 29bd 9a48 d2bc 27e8 0e3c eff3 43b8
000000e0: bdb1 093e e7a6 673b 1c5e 2c3d bfab 7ebd
000000f0: b285 00bc 0a70 b23c 5546 8a3c f827 743c

convs.1.linear2.weight f4 [64, 64]
0.054590967 -0.7482203 -0.062039733 0.5111308 -0.3370248 -0.23760681 -0.22654843 0.24681874
0.055899434 -0.083783776 -0.10282352 0.0005651539 0.12877464 0.18931791 0.030736165 -0.085126504
0.5247908 -0.29248348 0.03954399 0.6029835 0.23040023 0.23438844 0.29975498 0.13569824
-0.26661795 0.754471 -0.05977592 -0.055947866 -0.08449839 0.5029542 -0.5616832 -0.21958256
0.013370008 -0.04104272 0.017690297 -0.018510133 0.22043106 -0.2666871 0.14251268 0.0009394628
0.08765024 0.03930032 0.19052508 0.19749834 0.025942402 -0.102343135 0.10664478 0.30183247
0.6760454 -0.102602154 -0.058347948 0.41231927 -0.023239069 -0.29846027 0.07634452 0.11126204
0.48205012 0.09291235 -0.09121851 -0.73573786 -0.088288754 -0.057718154 0.028028166 0.15655628
-0.3333857 -0.58820814 -0.116282225 -0.10667855 -0.5987256 -0.41450846 -0.09826392 -0.026370533
0.1661943 -0.21291393 -0.20516405 0.18629114 0.07389088 0.07230739 -0.0031658758 0.12776251
0.33668178 -0.0788564 0.16377938 0.3315453 0.15037194 0.22071044 0.38060337 0.24214755
-0.26317444 0.83020073 0.1867849 -0.303782 -0.23217882 0.44558296 -0.5731216 -0.25872403
0.112292156 0.23145555 -0.23405172 -0.2119172 0.26032376 -0.06362781 0.20829014 0.17428613
0.2590639 0.022024887 0.5425144 0.11921762 0.04182167 -0.5907572 0.17147565 0.16115168
0.29951218 0.2963561 0.3040681 0.30601618 -0.0039516166 -0.16948403 0.11634807 0.06213084
0.3624588 0.15411477 0.21891403 -0.5585771 -0.26790717 0.27449292 -0.1661026 -0.0064855115
-0.06730103 -0.06965821 -0.09570707 0.08527508 -0.2180797 -0.04844911 -0.08425361 0.1935705
0.23354141 0.004277136 -0.23951966 0.16030312 0.13826224 0.3025002 0.2541115 0.23767273
0.24566226 -0.019866148 0.041995674 0.19164056 0.073527895 0.29368815 0.08347406 0.21957494
-0.15764222 0.14992018 0.23401383 -0.19142061 0.017319666 0.53496593 -0.081222355 -0.10502585
0.27625543 0.084409684 -0.12321682 0.12441524 0.31967592 -0.09182114 0.08512164 0.036225203
0.09038876 0.10084226 0.2764804 0.051531877 0.14660355 -0.21096854 0.046993285 0.2969287
0.34004846 0.28667372 0.22784561 0.5084541 0.1673331 -0.2588023 0.21693972 0.07977069
0.17125767 0.15659386 0.2588725 -0.10849075 -0.13869368 0.07171291 -0.12766151 0.27313304
-0.07953821 -0.4794586 -0.12393268 0.47410533 -0.31298822 -0.1439085 -0.086026594 0.17948844
-0.041659802 -0.14517431 -0.15332256 0.03280457 -0.07063608 0.14039604 -0.011515979 0.1390135
0.42964998 -0.33845636 -0.11160202 0.529784 0.116638094 0.050694183 0.41730636 0.02375757
-0.30811957 0.9293336 0.061964914 -0.052726604 -0.0502744 0.42753816 -0.58936656 -0.24228458
0.2096096 -0.102858186 0.012697412 0.17661615 0.03495949 -0.32866064 -0.014230365 0.025178447
0.2100414 0.14670518 0.04606314 0.091491275 -0.030408591 -0.20044234 0.12888224 0.27215692
0.5120763 0.11103388 0.08171052 0.21745992 0.00578387 -0.1610347 -0.071536794 -0.04694457
0.57748926 -0.009061034 0.11337895 -0.6113303 -0.05068351 0.022167422 0.046585884 -0.0019400049
00000000: c79a 5f3d 5e8b 3fbf 601d 7ebd 78d9 023f
00000010: 848e acbe 334f 73be 50fc 67be 0dbe 7c3e
00000020: cef6 643d d496 abbd 2395 d2bd d626 143a
00000030: 80dd 033e 8edc 413e 69ca fb3c ce56 aebd
00000040: b158 063f 65c0 95be e1f8 213d 205d 1a3f
00000050: 0aee 6b3e 8603 703e 7c79 993e 7bf4 0a3e
00000060: 2682 88be 0325 413f 98d7 74bd 9729 65bd
00000070: 7e0d adbd 9bc1 003f 78ca 0fbf 40da 60be
00000080: e10d 5b3c 691c 28bd 3eeb 903c 90a2 97bc
00000090: aeb8 613e 368b 88be d8ee 113e 4846 763a
000000a0: f881 b33d 5ff9 203d 0219 433e 013d 4a3e
000000b0: 2985 d43c 4799 d1bd 9468 da3d c989 9a3e
000000c0: 5011 2d3f 1421 d2bd 42fe 6ebd 831b d33e
000000d0: dc5f bebc c9cf 98be 845a 9c3d 5add e33d
000000e0: 46cf f63e d548 be3d c5d0 babd 5159 3cbf
000000f0: bcd0 b4bd df69 6cbd 539b e53c 4a50 203e
00000100: 88b1 aabe cf94 16bf 6025 eebd 497a dabd
00000110: 1546 19bf 743a d4be 983e c9bd 0407 d8bc
00000120: d72e 2a3e 1c06 5abe 8616 52be 1bc3 3e3e
00000130: 1a54 973d e615 943d 957a 4fbb 2dd4 023e
00000140: 8e61 ac3e 777f a1bd c8b5 273e 4ec0 a93e
00000150: 1afb 193e eb01 623e 72de c23e 87f5 773e
00000160: cdbe 86be 0988 543f 8a44 3f3e 5089 9bbe
00000170: 49c0 6dbe 7323 e43e 19b8 12bf 7a77 84be
00000180: 6ef9 e53d af02 6d3e 41ab 6fbe d300 59be
00000190: 2849 853e 4c4f 82bd 034a 553e 1078 323e
000001a0: 06a4 843e 896d b43c 39e2 0a3f 5e28 f43d
000001b0: 334d 2b3d dd3b 17bf 5097 2f3e f204 253e
000001c0: a959 993e fdbb 973e d0ae 9b3e 27ae 9c3e
000001d0: 907c 81bb 398d 2dbe e647 ee3d e87c 7e3d
000001e0: 3394 b93e 43d0 1d3e 002b 603e e9fe 0ebf
000001f0: 212b 89be 568a 8c3e cd16 2abe 6a84 d4bb
00000200: 1fd5 89bd f7a8 8ebd 1102 c4bd b3a4 ae3d
00000210: 4950 5fbe 9372 46bd 288d acbd 5837 463e
00000220: 7b25 6f3e 3827 8c3b a444 75be 8026 243e
00000230: 9e94 0d3e 4ee1 9a3e e71a 823e 7b60 733e
00000240: e38e 7b3e 55be a2bc a803 2c3d 6c3d 443e
00000250: cb95 963d 4b5e 963e 73f4 aa3d 41d8 603e
00000260: f66c 21be ad84 193e 52a1 6f3e c403 44be
00000270: f9e1 8d3c 87f3 083f e857 a6bd cb17 d7bd
00000280: 5a71 8d3e fcde ac3d 1a59 fcbd 6bcd fe3d
00000290: 90ac a33e b90c bcbd 4154 ae3d e160 143d
000002a0: be1d b93d 6386 ce3d d78e 8d3e 1713 533d
000002b0: 3e1f 163e 2308 58be 087c 403d 0a07 983e
000002c0: d51a ae3e e6c6 923e 5c50 693e 0c2a 023f
000002d0: 5e59 2b3e bc81 84be 7225 5e3e d15e a33d
000002e0: 2c5e 2f3e 245a 203e f08a 843e 6630 debd
000002f0: b705 0ebe 38de 923d b3b9 02be 18d8 8b3e
00000300: eee4 a2bd 997b f5be 6bd0 fdbd efbd f23e
00000310: fe3f a0be c05c 13be b62e b0bd d1cb 373e
00000320: 78a3 2abd 93a8 14be 9700 1dbe 165e 063d
00000330: a6a9 90bd fbc3 0f3e 84ad 3cbc 8e59 0e3e
00000340: 15fb db3e 274a adbe 9a8f e4bd ed9f 073f
00000350: f4df ee3d b4a4 4f3d 2ea9 d53e 3c9f c23c
00000360: d9c1 9dbe cfe8 6d3f ecce 7d3d daf7 57bd
00000370: 87ec 4dbd 48e6 da3e bae0 16bf 7319 78be
00000380: e6a3 563e 50a7 d2bd ce08 503c ddda 343e
00000390: af31 0f3d 3546 a8be 7a26 69bc 0843 ce3c
000003a0: 1815 573e e239 163e b4ac 3c3d c75f bb3d
000003b0: 701b f9bc c240 4dbe b5f9 033e 2758 8b3e
000003c0: 6f17 033f bb65 e33d d857 a73d d0ad 5e3e
000003d0: 9e86 bd3b 48e6 24be e281 92bd f348 40bd
000003e0: 56d6 133f bb74 14bc 3933 e83d 2480 1cbf
000003f0: 8399 4fbd 7498 b53c d7d0 3e3d c347 feba

convs.1.linear2.bias f4 [64]
-0.01892481 -0.010804818 -0.07447028 0.0036087066 0.10466999 0.09713946 0.099647574 -0.0120526515
-0.0142935775 -0.024270335 0.12323786 -0.10711587 0.031212322 0.046732917 0.13197778 0.109588854
-0.05573594 0.16183513 -0.06943482 -0.045559254 -0.010688938 0.09737013 0.118309036 0.008758573
-0.055463627 0.11711234 -0.022356637 0.026824739 -0.008251514 -0.016371947 0.031751353 -0.011367108
-0.13182658 0.074888416 -0.01000886 0.016495772 -0.11378402 0.106499895 0.023840275 0.0947127
0.10714939 0.07957811 -0.03551502 0.10379454 0.039977558 0.06086825 0.17622414 0.08786285
0.025467193 0.0024361163 -0.021072334 -0.02096109 -0.019858383 0.10932134 -0.07537346 0.08540943
0.14695303 0.17071763 0.0066531007 -0.07146835 -0.07594504 -0.05306204 0.12583679 -0.0031269803
00000000: 3408 9bbc b106 31bc e083 98bd 0d80 6c3b
00000010: 385d d63d 0ef1 c63d 0714 cc3d 7c78 45bc
00000020: 9c2f 6abc 95d2 c6bc 2264 fc3d 915f dbbd
00000030: fcb0 ff3c 046b 3f3d 2f25 073e 1f70 e03d
00000040: 5e4b 64bd 1cb8 253e d833 8ebd 579c 3abd
00000050: a820 2fbc fe69 c73d 024c f23d 1e80 0f3c
00000060: d42d 63bd 98d8 ef3d 4425 b7bc 8ebf db3c
00000070: 5c31 07bc 761e 86bc b50d 023d 1b3d 3abc
00000080: 8cfd 06be 195f 993d 34fc 23bc 2422 873c
00000090: 9907 e9bd 9e1c da3d ae4c c33c bbf8 c13d
000000a0: 2471 db3d d9f9 a23d 3378 11bd 3b92 d43d
000000b0: 82bf 233d fc50 793d 1a74 343e 70f1 b33d
000000c0: 93a0 d03c 40a7 1f3b e39f acbc 98b6 abbc
000000d0: 0cae a2bc dee3 df3d 675d 9abd 24eb ae3d
000000e0: db7a 163e 9ad0 2e3e 4102 da3b 005e 92bd
000000f0: 1389 9bbd 9557 59bd 5cdb 003e 06ee 4cbb

mlp1.weight f4 [64, 192]
-0.17423041 0.038868595 0.057446085 0.1575725 -0.01270712 0.18144515 0.07128358 0.07706796
0.18432193 0.21788812 0.028888725 0.06273461 -0.013204433 0.03755269 -0.01075026 0.11157201
0.16449808 -0.062592104 -0.09571446 0.26065537 0.0602485 0.20416878 0.17925128 -0.09504383
0.15274382 -0.017060898 -0.23299438 0.1682155 -0.033845875 -0.06698995 -0.22645058 -0.1827701
-0.19485587 0.07722006 0.20462292 0.067901865 0.033956274 0.25766706 0.19494198 0.26145494
-0.14187297 0.08098148 -0.17798549 0.030745463 -0.055628277 0.1278871 -0.22991124 -0.14025533
-0.00044416342 0.029071553 -0.24611759 -0.14678004 0.023113865 0.12054656 0.11520548 -0.13826577
-0.07828699 0.019270808 -0.15385732 0.15949263 0.01926615 0.07557415 -0.14633831 0.014024158
-0.033154808 0.051398147 -0.08351692 0.0010574267 -0.14676884 0.019380119 -0.079555474 -0.056780457
0.0040994287 0.08530945 0.10241838 -0.075424656 0.10692456 -0.31010693 -0.06447593 0.098963566
-0.008870171 0.03242287 -0.06061179 -0.10028941 -0.025791768 0.08032902 0.06685862 0.12242973
-0.020356271 0.0068745483 -0.082678676 0.0037805305 0.081321955 0.052646507 0.004828665 -0.08498498
0.0478761 -0.047938947 -0.018613031 0.043666136 0.03331427 0.07632425 -0.24071306 -0.084073715
0.07866404 0.035146873 0.07520249 -0.02179462 -0.058894757 -0.0003188385 -0.25364184 0.005168914
-0.0422651 0.10133413 0.0938274 -0.019125525 0.123443894 0.031594094 -0.009058599 0.045996293
0.0019905216 0.012014569 -0.040165026 -0.08882892 0.13300328 0.092052765 0.0041794726 -0.14131056
-0.15883623 -0.015394881 -0.149666 -0.3312046 0.3277511 0.246091 0.2611517 -0.031179637
0.039245047 0.104251094 0.21417792 0.4000754 0.32723498 0.16779886 0.22647105 0.29353908
0.19788882 0.25698617 0.28739768 -0.06742111 0.001555818 0.25271842 0.2477918 -0.04486155
0.43645772 0.20359492 0.04423907 -0.019201811 0.15333915 -0.057442736 0.36284178 0.1699422
-0.26120925 0.25434798 0.24546881 0.3023337 -0.16534005 0.21619892 -0.1217769 0.23066053
0.20404547 -0.44011158 0.003069099 0.2230426 0.17098895 0.028662609 0.23700939 0.27994198
-0.096182525 -0.21461649 -0.22745854 0.28446367 -0.15830421 0.21257833 0.432132 0.2643598
0.2666243 0.18474202 0.33771905 -0.26860735 -0.29184687 0.27848357 0.2536286 0.07673082
-0.050496127 0.27082852 0.18908682 0.09451323 0.14423455 0.034335155 -0.1302248 0.10643884
0.14167751 0.07751666 -0.20551878 0.2640768 -0.21517022 -0.1439569 -0.19501333 -0.14060603
0.17533661 0.00340363 0.15138906 0.13760296 -0.23519126 -0.10926641 -0.008066465 -0.10062917
-0.13457248 0.20314708 -0.014413788 -0.09152649 0.09896537 -0.21660036 -0.059531353 -0.18723921
-0.12113035 0.13631557 0.10394763 -0.20786089 -0.08167735 0.09674169 0.25022298 0.13248889
-0.1653758 -0.29939458 -0.24563773 0.21086656 -0.008127706 0.013312598 -0.08122338 -0.042644903
0.18740797 0.2084223 -0.010158217 0.055660177 0.17602156 0.26917914 0.09719924 -0.06059134
-0.25527495 -0.07865403 -0.17541492 0.16046245 0.24835658 0.16921455 -0.12531583 0.17101245
00000000: 7569 32be ad34 1f3d 964c 6b3d af5a 213e
00000010: 8631 50bc c2cc 393e 20fd 913d ced5 9d3d
00000020: e3be 3c3e 101e 5f3e 0ca8 ec3c 017b 803d
00000030: 6857 58bc d9d0 193d dc21 30bc de7f e43d
00000040: 2f72 283e 4a30 80bd f105 c4bd 9f74 853e
00000050: 22c7 763d 9f11 513e a68d 373e 57a6 c2bd
00000060: e068 1c3e 4cc3 8bbc 1496 6ebe af40 2c3e
00000070: f9a1 0abd 0732 89bd a9e2 67be 1628 3bbe
00000080: 4c88 47be 8d25 9e3d ac88 513e 2210 8b3d
00000090: bc15 0b3d f0ec 833e df9e 473e 6cdd 853e
000000a0: 2647 11be 9ed9 a53d d441 36be e9dd fb3c
000000b0: 7ada 63bd d6f4 023e da6d 6bbe 189f 0fbe
000000c0: 9bde e8b9 7727 ee3c 4006 7cbe 824d 16be
000000d0: 4a59 bd3c 1de1 f63d daf0 eb3d 8b95 0dbe
000000e0: ee54 a0bd d0dd 9d3c c68c 1dbe 0952 233e
000000f0: 0cd4 9d3c 9fc6 9a3d b6d9 15be 95c5 653c
00000100: 56cd 07bd dd86 523d eb0a abbd 5a99 8a3a
00000110: 924a 16be 0ec3 9e3c fbed a2bd a092 68bd
00000120: 8054 863b b9b6 ae3d bac0 d13d 3e78 9abd
00000130: 44fb da3d 56c6 9ebe f50b 84bd 69ad ca3d
00000140: 3254 11bc d8cd 043d 1144 78bd 8964 cdbd
00000150: 4249 d3bc 8b83 a43d 2ced 883d 70bc fa3d
00000160: 32c2 a6bc e443 e13b 7053 a9bd c7c2 773b
00000170: 208c a63d dda3 573d c739 9e3b 9b0c aebd
00000180: bb19 443d a15b 44bd 5b7a 98bc 43db 323d
00000190: 8b74 083d e34f 9c3d 7c7d 76be d72e acbd
000001a0: 9d1a a13d 2bf6 0f3d c303 9a3d a28a b2bc
000001b0: a13b 71bd c729 a7b9 58dd 81be fe5f a93b
000001c0: 2b1e 2dbd 4588 cf3d 9428 c03d 22ad 9cbc
000001d0: 27d0 fc3d cf68 013d 856a 14bc 9c66 3c3d
000001e0: 6973 023b c1d8 443c 1584 24bd f0eb b5bd
000001f0: 0332 083e 2986 bc3d f5f3 883b b7b3 10be
00000200: f7a5 22be d03a 7cbc 0b42 19be a693 a9be
00000210: fece a73e 47ff 7b3e adb5 853e 706c ffbc
00000220: 6abf 203d 9981 d53d 7551 5b3e afd6 cc3e
00000230: 588b a73e 77d3 2b3e 07e8 673e c14a 963e
00000240: 5ea3 4a3e b193 833e ca25 933e 1414 8abd
00000250: 97ec cb3a 4f64 813e 22bd 7d3e bfc0 37bd
00000260: 6377 df3e 307b 503e 0734 353d 1e4d 9dbc
00000270: f004 1d3e 1349 6bbd 66c6 b93e 5405 2e3e
00000280: 38bd 85be e639 823e 2d5c 7b3e 7ccb 9a3e
00000290: e74e 29be 4063 5d3e 2b66 f9bd 4632 6c3e
000002a0: 4cf1 503e 4e56 e1be f022 493b 4865 643e
000002b0: ba17 2f3e d9cd ea3c 97b2 723e 8e54 8f3e
000002c0: 58fb c4bd 6dc4 5bbe e4ea 68be 39a5 913e
000002d0: 801a 22be 22ae 593e 6840 dd3e 2b5a 873e
000002e0: fb82 883e 032d 3d3e 83e9 ac3e e786 89be
000002f0: f46c 95be 6695 8e3e 9cdb 813e 0c25 9d3d
00000300: 07d5 4ebd 09aa 8a3e fa9f 413e 2790 c13d
00000310: 39b2 133e 05a3 0c3d a659 05be 9bfc d93d
00000320: e913 113e 0ec1 9e3d 8473 52be 1335 873e
00000330: 9555 5cbe 7069 13be 93b1 47be 07fb 0fbe
00000340: 718b 333e 700f 5f3b bc05 1b3e cae7 0c3e
00000350: fad5 70be 11c7 dfbd 3529 04bc ab16 cebd
00000360: 5ecd 09be ca05 503e cf27 6cbc 3e72 bbbd
00000370: 5bae ca3d 7ccc 5dbe 26d7 73bd a3bb 3fbe
00000380: 3013 f8bd 4f96 0b3e 7fe2 d43d 7cd9 54be
00000390: 7446 a7bd 8220 c63d 3a1d 803e 2bab 073e
000003a0: 4658 29be 3f4a 99be 7588 7bbe 67ed 573e
000003b0: 122a 05bc 151d 5a3c 7258 a6bd 6cac 2ebd
000003c0: e0e7 3f3e a86c 553e a66e 26bc edfb 633d
000003d0: ff3e 343e d9d1 893e 6510 c73d a02e 78bd
000003e0: 66b3 82be 5d15 a1bd f89f 33be 4550 243e
000003f0: 3051 7e3e 9446 2d3e cb52 00be e31d 2f3e

mlp1.bias f4 [64]
0.027825298 0.11604463 -0.050928053 0.1127023 0.1546249 0.16263136 0.13922003 0.1490346
-0.09403427 -0.03726216 0.05113279 0.11595227 0.03630002 0.1307956 0.08370118 0.10800148
0.07567577 -0.009218418 0.03850175 0.13460365 0.06633899 0.0022137985 0.057515353 0.117136374
0.08916991 0.17958605 0.16665605 -0.0636805 0.08612527 0.08290457 0.17823806 0.0029421528
-0.121780574 0.0020680453 -0.115723774 0.07279866 0.14948362 0.090171225 0.046051815 0.10488981
0.04072316 -0.11207313 0.063011624 -0.22165497 -0.053836383 0.032012545 0.021468341 0.12434482
-0.017935967 0.14800091 0.082338 -0.0923904 -0.014325275 0.12023456 0.20659588 0.04661739
0.05531657 0.14798437 0.02094233 -0.030484725 0.047104787 -0.013998733 0.12736768 0.051484033
00000000: e1f1 e33c cfa8 ed3d ef99 50bd 77d0 e63d
00000010: fd55 1e3e d688 263e b28f 0e3e 879c 183e
00000020: 0a95 c0bd 35a0 18bd 9e70 513d 6278 ed3d
00000030: 54af 143d 48ef 053e 866b ab3d e12f dd3d
00000040: e6fb 9a3d d908 17bc 03b4 1d3d 8ad5 093e
00000050: bddc 873d 6015 113b 3895 6b3d 32e5 ef3d
00000060: b79e b63d 68e5 373e e2a7 2a3e ec6a 82bd
00000070: 7262 b03d dfc9 a93d 0a84 363e 22d1 403b
00000080: 1868 f9bd 0b88 073b 9600 edbd 7717 953d
00000090: 3c12 193e b1ab b83d d4a0 3c3d 78d0 d63d
000000a0: 54cd 263d 9986 e5bd 3d0c 813d 85f9 62be
000000b0: 8a83 5cbd 961f 033d 60de af3c 7fa8 fe3d
000000c0: 73ee 92bc 8d8d 173e d3a0 a83d 2e37 bdbd
000000d0: 8fb4 6abc 893d f63d df8d 533e e0f1 3e3d
000000e0: a193 623d 3789 173e 408f ab3c 1abb f9bc
000000f0: f3f0 403d f15a 65bc ac6c 023e ece0 523d
