Saved_Models/TSP_200/scatgnn_layer_2_hid_64_model_260_temp_3.500.pth (torch, 179911 bytes, 24 tensors)

bn0.weight f4 [2]
1.0 1.0
00000000: 0000 803f 0000 803f

bn0.bias f4 [2]
0.0 0.0
00000000: 0000 0000 0000 0000

bn0.running_mean f4 [2]
0.0 0.0
00000000: 0000 0000 0000 0000

bn0.running_var f4 [2]
1.0 1.0
00000000: 0000 803f 0000 803f

in_proj.weight f4 [64, 2]
-0.6286048 0.27547413 -0.7247625 -0.70033675 -0.18693782 -1.1117632 0.3084498 -0.3033566
-0.33936515 -0.5349943 0.47181714 -0.2945976 0.5242109 0.04755311 -0.17842026 -0.6057808
0.30261374 -1.0485915 0.50498617 -0.8553981 0.58723736 0.3083209 -0.043723553 -0.7262483
0.18527684 0.6712919 0.8014964 0.5735658 0.9966964 0.5581525 1.131042 -0.14665799
0.33397385 -0.51003206 -0.7244072 -0.27720162 -0.9169928 -0.26573136 0.44460934 -1.1035709
1.0564147 0.6514293 0.96396935 -0.025275998 0.9978271 -0.46615252 -0.19002254 1.0254093
0.8781056 -0.18774825 -0.49374568 -0.95994467 -0.84013295 0.6993806 0.75329417 -0.20967294
-0.11528913 -0.7092075 0.14808954 0.71191305 -0.77753043 0.52812827 -0.012654567 0.7983842
-0.70015335 0.49694136 -0.12956557 -0.9530261 0.5683923 -1.0412439 0.7013049 0.34625435
0.55010206 -0.35748762 0.91029483 -0.4885074 0.06430174 -0.7520559 0.2904574 -0.87277
-0.74107844 0.5203882 0.94783366 0.90378785 -0.03370202 0.8296584 -0.92565596 -0.7244877
-0.078208335 0.6427163 0.8203533 -0.36740768 -1.0482553 0.35306826 -0.49180782 -0.041245986
-0.47765177 -0.9648374 -0.5939815 -0.6365539 -0.82703954 0.3066324 -0.92776024 -0.20712744
-0.8553526 -0.3344587 -0.26324156 -0.86270744 0.15273307 -0.8182258 -0.8462494 0.3225018
0.6735623 1.0267828 0.428766 -0.13370176 -0.10477155 0.77431136 0.035528142 -0.24364991
-0.64260155 -0.7508109 -0.048304018 -0.37426105 -0.49469596 1.067204 -0.20819245 -0.95018613
00000000: 3fec 20bf f20a 8d3e 098a 39bf 4549 33bf
00000010: a16c 3fbe 424e 8ebf 22ed 9d3e 8e51 9bbe
00000020: 45c1 adbe 63f5 08bf 0492 f13e 7fd5 96be
00000030: af32 063f 0dc7 423d cdb3 36be 7314 1bbf
00000040: 30f0 9a3e 3f38 86bf c646 013f 5ffb 5abf
00000050: 3055 163f 3ddc 9d3e 7817 33bd 69eb 39bf
00000060: 36b9 3d3e c9d9 2b3f de2e 4d3f 35d5 123f
00000070: 7f27 7f3f 15e3 0e3f fcc5 903f 832d 16be
00000080: 9ffe aa3e 7691 02bf c072 39bf 5fed 8dbe
00000090: 0ac0 6abf f10d 88be d6a3 e33e d041 8dbf
000000a0: 9938 873f 12c4 263f b2c6 763f 9c0f cfbc
000000b0: 9971 7f3f 8bab eebe 4595 42be 9d40 833f
000000c0: 87cb 603f 1441 40be 3ccc fcbe efbe 75bf
000000d0: f412 57bf 9b0a 333f e3d7 403f 81b4 56be
000000e0: b51c ecbd 9f8e 35bf c9a4 173e ef3f 363f
000000f0: 3c0c 47bf 6a33 073f 1a55 4fbc e862 4c3f
00000100: 403d 33bf 196f fe3e d6ac 04be 85f9 73bf
00000110: 2882 113f 7b47 85bf b888 333f 4048 b13e
00000120: 7dd3 0c3f 9e08 b7be 1509 693f a41d fabe
00000130: a1b0 833d bc86 40bf d5b6 943e db6d 5fbf
00000140: 51b7 3dbf 2938 053f 3aa5 723f a45e 673f
00000150: 210b 0abd 7e64 543f caf7 6cbf 0778 39bf
00000160: b12b a0bd 0e89 243f ad02 523f dc1c bcbe
00000170: 3b2d 86bf 5dc5 b43e 3cce fbbe 8df1 28bd
00000180: c68e f4be 95ff 76bf 2c0f 18bf 32f5 22bf
00000190: ddb8 53bf ecfe 9c3e b281 6dbf 3719 54be
000001a0: 63f8 5abf 2c3e abbe 99c7 86be 65da 5cbf
000001b0: 0f66 1c3e 3f77 51bf cda3 58bf f51e a53e
000001c0: 946e 2c3f 9e6d 833f 3887 db3e 1de9 08be
000001d0: 7792 d6bd 4539 463f f585 113d 5d7f 79be
000001e0: 8981 24bf 2535 40bf 6fda 45bd 259f bfbe
000001f0: ca48 fdbe 249a 883f 6730 55be 663f 73bf

in_proj.bias f4 [64]
-0.2549379 0.31420687 -0.024376843 0.49884507 0.49703336 0.36047727 -0.5692279 -0.28209966
-0.41302654 -0.005159527 -0.19066969 -0.023309343 0.23674278 -0.11601289 -0.40544665 0.0039922586
0.27673683 -0.61400515 0.4122709 -0.0056772935 0.0037136218 0.36082307 -0.5769764 0.3953391
-0.24037467 -0.39310506 0.0035901063 -0.15643579 -0.24113151 -0.2166719 -0.321401 -0.48889777
0.23003806 -0.5624418 -0.09195493 -0.0027393177 -0.50272036 0.020273536 0.42957273 -0.075555846
-0.42722502 0.27197298 -0.09162289 0.61464316 0.54626954 -0.022709265 -0.31748322 -0.29441363
0.49869904 0.017168384 -0.14967419 -0.63432026 0.4257948 0.4042818 -0.07474444 -0.11374224
-0.4692393 -0.21354704 -0.17803398 0.3782564 0.01791678 0.21877843 -0.06200707 -0.60321623
00000000: 3887 82be b9df a03e f2b1 c7bc 9f68 ff3e
00000010: 287b fe3e 7a90 b83e ebb8 11bf 5e6f 90be
00000020: 3778 d3be 4011 a9bb ea3e 43be 3cf3 bebc
00000030: b36c 723e 2b98 edbd b496 cfbe 7ed1 823b
00000040: 73b0 8d3e 712f 1dbf 2c15 d33e 9708 babb
00000050: 3c60 733b cdbd b83e bab4 13bf e369 ca3e
00000060: c724 76be 1145 c9be fd47 6b3b b430 20be
00000070: 2eeb 76be 3ddf 5dbe ac8e a4be cf50 fabe
00000080: 198f 6b3e 30fc 0fbf de52 bcbd 2086 33bb
00000090: 48b2 00bf b014 a63c f5f0 db3e 06bd 9abd
000000a0: 3dbd dabe 0b40 8b3e c8a4 bbbd 4159 1d3f
000000b0: 52d8 0b3f c808 babc 298d a2be 62bd 96be
000000c0: 7b55 ff3e b6a4 8c3c 3144 19be d062 22bf
000000d0: c701 da3e 06fe ce3e 9d13 99bd b1f1 e8bd
000000e0: 2240 f0be 13ac 5abe 8a4e 36be d3aa c13e
000000f0: 36c6 923c 7407 603e 20fb 7dbd 616c 1abf

convs.0.a f4 [128, 1]
-0.009952409 -0.025423888 -0.006594202 -0.0038928378 -0.021905582 -0.0077134203 -0.0005859997 0.00061530137
-0.0065092924 -0.0008599108 0.0009309604 -0.006314942 -0.0007874681 -0.0031140721 0.002426474 0.00026304982
-0.007809887 -0.004694395 -0.02105672 -0.01089398 0.00041670882 0.0053875414 0.0004334027 -0.012866524
0.009706814 0.00039366956 -0.014342801 0.009227985 0.0017700985 -0.0046008537 -0.011174679 -0.001184858
-0.016290497 0.00024412447 -0.0068453182 -0.0044394583 -0.0023950469 -0.0010052172 -0.009542815 -0.0065249843
-0.00806816 0.016285263 -0.0064490032 -0.031717468 -0.009908155 8.391123e-05 -0.013950622 -0.0072805053
-0.02453345 -0.013312645 -0.012274678 -0.008136046 -0.028256059 -0.023049574 -0.0028506538 -0.011208186
0.00070045824 0.0034220512 -0.00938684 -0.0032069848 -0.0062581385 -0.0100842025 -0.016398072 0.000943583
0.6700748 1.1549914 0.92319703 0.14257078 0.22469074 0.21339814 0.6847182 0.7078049
0.81729865 1.0477397 0.6463338 0.90706563 1.20452 0.6613937 0.6424925 1.0339472
1.3604516 0.62401295 0.6475225 1.0826015 1.0236868 1.0136802 0.71750736 0.66588324
0.64024055 0.75261086 0.99730414 0.6550592 0.69168687 0.67091215 0.72521627 0.7218231
1.06231 0.72054917 1.05947 1.0443705 0.6932197 1.2551653 0.52293164 0.88357717
0.77119523 1.1320866 0.73957896 0.4611738 0.19964886 0.9458954 0.65140027 0.6253495
0.6353422 0.89375144 0.65320903 0.66621923 0.62126744 0.80280477 0.89993525 0.64862216
0.67501605 0.64691675 0.9021342 0.088955164 0.9440733 0.22012188 0.9843014 0.7216549
00000000: 6e0f 23bc c245 d0bc 2d14 d8bb fb1e 7fbb
00000010: 5673 b3bc dcc0 fcbb c69d 19ba 2d4c 213a
00000020: e74b d5bb a36b 61ba b20b 743a 93ed cebb
00000030: 176e 4eba 7615 4cbb 7a05 1f3b f3e9 8939
00000040: 15ea ffbb 70d3 99bb 247f acbc aa7c 32bc
00000050: b679 da39 f989 b03b 533a e339 1dce 52bc
00000060: 5409 1f3c 6f65 ce39 11fe 6abc f930 173c
00000070: a602 e83a c2c2 96bb 0016 37bc 3d4d 9bba
00000080: a673 85bc aafb 7f39 b14e e0bb e078 91bb
00000090: 38f6 1cbb 7ec1 83ba 7859 1cbc 89cf d5bb
000000a0: 5130 04bc ac68 853c 2952 d3bb 2dea 01bd
000000b0: d055 22bc 80f9 af38 2691 64bc 4e91 eebb
000000c0: 60fa c8bc 481d 5abc bb1b 49bc 0d4d 05bc
000000d0: 4079 e7bc 76d2 bcbc 09d2 3abb 8aa2 37bc
000000e0: f59e 373a 7e44 603b 43cb 19bc 472c 52bb
000000f0: 1211 cdbb 3638 25bc 4055 86bc c95a 773a
00000100: 068a 2b3f c2d6 933f a456 6c3f 13fe 113e
00000110: 5415 663e 0b85 5a3e b149 2f3f b432 353f
00000120: 7c3a 513f 561c 863f 2276 253f 7435 683f
00000130: b62d 9a3f 1951 293f 637a 243f 6258 843f
00000140: 4723 ae3f 50bf 1f3f 09c4 253f b092 8a3f
00000150: 2b08 833f 46c0 813f 90ae 373f 5377 2a3f
00000160: cee6 233f 1bab 403f 534f 7f3f f6b1 273f
00000170: 6412 313f e6c0 2b3f c6a7 393f 66c9 383f
00000180: c6f9 873f e975 383f b79c 873f efad 853f
00000190: d976 313f 42a9 a03f d9de 053f 1d32 623f
000001a0: 0d6d 453f 37e8 903f 0c55 3d3f f91e ec3e
000001b0: c070 4c3e 3326 723f 2bc2 263f e816 203f
000001c0: c9a5 223f e5cc 643f b538 273f 588d 2a3f
000001d0: 620b 1f3f 9d84 4d3f 2862 663f 1a0c 263f
000001e0: dacd 2c3f 569c 253f 44f2 663f 202e b63d
000001f0: caae 713f a167 613e 2dfb 7b3f 60be 383f

convs.0.linear1.weight f4 [64, 64]
-0.26538682 -0.07240899 -0.22350307 -0.13150027 0.040656645 -0.14338297 -0.24759313 -0.23170887
-0.059726767 -0.006502524 -0.10904851 -0.13468032 -0.27588454 -0.16750057 -0.2717581 -0.39945495
0.031237056 -0.24290423 -0.1483122 -0.07670389 -0.20171979 -0.34006226 -0.3713088 0.18565978
-0.23813386 -0.24883053 -0.22017908 -0.3098172 -0.085802436 -0.3305379 -0.30574036 -0.20772177
-0.09471516 -0.006487396 0.17063755 -0.16831943 -0.21630782 -0.2538961 0.06168826 0.03783358
-0.3214158 -0.24475239 0.088024266 0.028488157 0.042869147 -0.27757698 -0.33774546 -0.3901678
-0.06536411 0.06816246 -0.3848637 -0.15033026 0.022153901 -0.120133944 -0.07242615 -0.42561138
-0.24329366 -0.198661 0.04230758 0.04803126 -0.1638319 -0.07668466 0.109221116 -0.15082963
-0.11987831 -0.06749277 0.2684124 -0.22372113 -0.054878652 -0.17260706 -0.14493129 0.20408627
0.12630495 -0.058852825 0.024558244 0.097294345 0.15941049 0.09361639 0.11644018 -0.19099477
-0.24224317 -0.16508785 -0.29349703 -0.10597898 0.0713531 -0.08703336 0.016631445 0.036855944
-0.105678976 0.26834276 -0.09312625 -0.06098086 0.122251205 0.34662855 -0.15277794 0.28448397
-0.10100232 0.17811377 -0.118723094 -0.07722612 0.09123719 -0.24488777 0.21813323 0.083144985
-0.020154461 0.05475732 0.21482584 -0.29386464 -0.009761666 -0.26662284 -0.03071451 -0.16135184
0.13976981 0.03281806 -0.115617745 -0.17179947 -0.31674513 0.0733064 0.28983554 -0.16100326
0.109363645 -0.23791417 0.35583395 -0.18859972 0.025037171 0.01097738 0.06666569 0.21277711
0.08970516 0.41931003 0.18932076 0.018320573 0.13147901 -0.25691897 0.25073957 0.44164696
-0.4948686 -0.3732624 0.4975936 -0.060462903 0.19420366 0.5111666 0.4044044 0.16322842
-0.5126271 0.30221093 0.21102001 -0.5843066 0.53277034 0.1668557 -0.09945283 -0.4499975
0.30122706 0.5039236 -0.15363844 0.29255953 0.24106085 0.3451535 -0.18315554 -0.119428374
-0.33877584 0.19017996 -0.6291846 0.46341497 -0.1971387 -0.31791088 -0.47116154 -0.638506
-0.32690382 0.30553806 -0.011777982 0.2793893 -0.45394182 -0.0054701157 0.08887885 0.30712724
0.26565132 0.33484235 0.119686544 0.49326113 0.24478127 0.21835467 -0.48496056 0.14439867
0.44938892 0.25618845 -0.3378542 -0.24647184 0.42916605 -0.06786519 -0.49866083 0.24599648
-0.09714471 0.36099017 -0.0008883047 -0.13419273 -0.08983327 -0.3296213 -0.016091343 0.14956228
-0.26190582 -0.26993304 0.48371798 -0.23726223 0.06199235 0.58093405 0.4203295 0.017884418
-0.2666326 0.3218513 0.036657702 -0.33454677 0.24594803 -0.11364349 -0.14912362 -0.62661004
-0.09259572 0.20922439 -0.047683906 -0.094392814 0.11103994 0.055895656 -0.13933699 -0.2883941
-0.19696553 0.044775758 -0.21759044 0.21675812 -0.028425703 -0.39937946 -0.4719711 -0.326533
-0.07001348 0.3727258 -0.26534915 0.020659363 -0.30968937 -0.16205211 -0.026276216 0.012035783
0.07573614 0.51518166 -0.17701751 0.18629886 0.022180708 -0.04429489 -0.18403162 -0.032993466
0.40263495 -0.21860656 -0.26116773 -0.38268 0.385877 -0.37071502 -0.21493897 0.20810172
00000000: c8e0 87be 2a4b 94bd fddd 64be 02a8 06be
00000010: 9587 263d fcd2 12be 0e89 7dbe 1745 6dbe
00000020: 0ea4 74bd 2013 d5bb d354 dfbd a3e9 09be
00000030: bd40 8dbe 4585 2bbe e123 8bbe 5c85 ccbe
00000040: dbe4 ff3c e3bb 78be 27df 17be ee16 9dbd
00000050: a28f 4ebe a41c aebe 301c bebe 991d 3e3e
00000060: 5dd9 73be 6ecd 7ebe a076 61be 5ca0 9ebe
00000070: 30b9 afbd 433c a9be 008a 9cbe 04b5 54be
00000080: 06fa c1bd 3994 d4bb 9cbb 2e3e ee5b 2cbe
00000090: cc7f 5dbe abfe 81be d4ac 7c3d 62f7 1a3d
000000a0: 9d90 a4be 5fa0 7abe 1146 b43d ff5f e93c
000000b0: 8f97 2f3d 921e 8ebe f9ec acbe 13c4 c7be
000000c0: 9edd 85bd c398 8b3d db0c c5be 2df0 19be
000000d0: 197c b53c c908 f6bd 2954 94bd bce9 d9be
000000e0: f921 79be ca6d 4bbe b74a 2d3d 6dbc 443d
000000f0: 8dc3 27be d90c 9dbd 52af df3d 1573 1abe
00000100: c282 f5bd a639 8abd 5a6d 893e 2717 65be
00000110: 70c8 60bd e8bf 30be de68 14be fefb 503e
00000120: 1656 013e a90f 71bd 5f2e c93c 4242 c73d
00000130: 813c 233e f3b9 bf3d 3078 ee3d 2294 43be
00000140: 980e 78be ca0c 29be 3e45 96be 820b d9bd
00000150: 9321 923d 8c3e b2bd ab3e 883c 42f6 163d
00000160: 386e d8bd 3964 893e fab8 bebd 11c7 79bd
00000170: d75e fa3d 4c79 b13e d271 1cbe e2a7 913e
00000180: 4eda cebd 7563 363e 1825 f3bd ba28 9ebd
00000190: 90da ba3d dcc3 7abe 515e 5f3e eb47 aa3d
000001a0: f81a a5bc 3649 603d 4efb 5b3e 6d75 96be
000001b0: 65ef 1fbc ca82 88be ff9c fbbc 6b39 25be
000001c0: d11f 0f3e 3b6c 063d ffc8 ecbd 33ec 2fbe
000001d0: 6b2c a2be aa21 963d 5365 943e 0ade 24be
000001e0: 0cfa df3d c69f 73be de2f b63e 4920 41be
000001f0: c11a cd3c 78da 333c 0588 883d 3ee2 593e
00000200: 57b7 b73d ceaf d63e 4ddd 413e 0715 963c
00000210: 6fa2 063e e28a 83be f060 803e 8d1f e23e
00000220: 6b5f fdbe 401c bfbe 97c4 fe3e f3a7 77bd
00000230: 53dd 463e d0db 023f 180e cf3e 5a25 273e
00000240: 883b 03bf 64bb 9a3e a115 583e 1e95 15bf
00000250: a363 083f 38dc 2a3e edad cbbd 1366 e6be
00000260: 6f3a 9a3e 2301 013f 6553 1dbe 5dca 953e
00000270: a8d8 763e f6b7 b03e 208d 3bbe dd96 f4bd
00000280: 0774 adbe 89be 423e 3e12 21bf ba44 ed3e
00000290: bade 49be 37c5 a2be 163c f1be 2175 23bf
000002a0: f05f a7be 7c6f 9c3e 70f8 40bc 1d0c 8f3e
000002b0: 106b e8be a83e b3bb 1d06 b63d c83f 9d3e
000002c0: 7303 883e 7570 ab3e 381e f53d b98c fc3e
000002d0: f1a7 7a3e 5e98 5f3e c04c f8be 3fdd 133e
000002e0: 4e16 e63e 222b 833e 3afb acbe 1d63 7cbe
000002f0: a7bb db3e e8fc 8abd 7950 ffbe 80e6 7b3e
00000300: cef3 c6bd b4d3 b83e 1fdd 68ba d269 09be
00000310: 81fa b7bd 1fc4 a8be fed1 83bc db26 193e
00000320: 8518 86be aa34 8abe e2a9 f73e dff4 72be
00000330: b1eb 7d3d 18b8 143f 6e35 d73e 5882 923c
00000340: 1184 88be b2c9 a43e 6326 163d b749 abbe
00000350: cdd9 7b3e ebbd e8bd ddb3 18be 8469 20bf
00000360: d3a2 bdbd eb3e 563e 3350 43bd 0551 c1bd
00000370: e868 e33d d8f2 643d 5bae 0ebe 64a8 93be
00000380: 55b1 49be c966 373d 07d0 5ebe d7f5 5d3e
00000390: 05dd e8bc 777b ccbe 32a6 f1be 552f a7be
000003a0: 3a63 8fbd ebd5 be3e d8db 87be d33d a93c
000003b0: 9b8f 9ebe fdf0 25be 3841 d7bc bc31 453c
000003c0: 8d1b 9b3d f2e2 033f 1444 35be 21c5 3e3e
000003d0: 51b4 b53c 8f6e 35bd c972 3cbe 2824 07bd
000003e0: 2b26 ce3e 66da 5fbe c7b7 85be a2ee c3be
000003f0: ac91 c53e 5cce bdbe f618 5cbe 9e18 553e

convs.0.linear1.bias f4 [64]
-0.11080553 0.73583126 0.06201019 0.35117766 0.62095875 0.013441743 -0.08007408 -0.15838692
0.24560405 -0.5180161 0.3190297 -0.12513813 -0.042643562 -0.0018335688 0.20043017 -0.016391803
-0.3443973 -0.012124684 -0.031026885 0.082396396 -0.27520898 -0.15951921 -0.5064469 -0.4172633
0.034023833 0.10767725 -0.7090352 -0.63555276 -0.01398749 -0.28311303 -0.025515245 -0.054705393
-0.03592158 0.16514488 0.006242491 -0.28365493 0.06981229 0.29713678 -0.19665365 -0.02715581
-0.018202705 0.21985465 -0.004128932 0.004433213 -0.0052802255 -0.030164441 -0.017544366 0.5179935
0.09777211 -0.010398873 -0.20089276 -0.2085679 0.26056245 -0.67012143 0.38801113 0.72967434
-0.30588704 -0.0827364 -0.33805308 0.08299274 -0.2821184 -0.0052208994 0.0071886103 0.49288127
00000000: 02ee e2bd 705f 3c3f 66fe 7d3d 8fcd b33e
00000010: 27f7 1e3f c23a 5c3c e1fd a3bd 2e30 22be
00000020: a17f 7b3e b49c 04bf dc57 a33e 3624 00be
00000030: 04ab 2ebd 5c54 f0ba 913d 4d3e 1a48 86bc
00000040: d854 b0be 9ca6 46bc 182c febc 71bf a83d
00000050: 31e8 8cbe 0159 23be 81a6 01bf 89a3 d5be
00000060: 935c 0b3d e485 dc3d 5583 35bf 96b3 22bf
00000070: c92b 65bc 31f4 90be 5905 d1bc c312 60bd
00000080: 8222 13bd bd1b 293e cf8d cc3b 383b 91be
00000090: bff9 8e3d 5022 983e 935f 49be dc75 debc
000000a0: d71d 95bc 9421 613e fe4b 87bb 7c44 913b
000000b0: be05 adbb 6b1b f7bc 34b9 8fbc 399b 043f
000000c0: be3c c83d 0960 2abc d5b6 4dbe d392 55be
000000d0: 7168 853e 148d 2bbf 65a9 c63e f0cb 3a3f
000000e0: 3a9d 9cbe b471 a9bd 4b15 adbe 19f8 a93d
000000f0: d371 90be 1414 abbb 6f8e eb3b ef5a fc3e

convs.0.linear2.weight f4 [64, 64]
0.12519968 -0.5156947 -0.26698273 -0.15937954 -0.0411566 0.038907155 -0.008656695 -0.008722716
-0.068188734 0.5079202 -0.13563675 -0.03804458 -0.07561812 -0.03023559 -0.21104108 0.2526734
0.051942535 -0.14074136 0.31080088 -0.22635207 -0.55719644 0.13855551 0.6601731 0.25903305
0.16858092 1.1446271 0.39878923 0.7547532 0.7780241 -0.06828566 0.06466876 0.23893674
-0.3690841 -0.08120224 0.1603268 0.047403537 -0.20868023 -0.2621091 0.12705588 -0.023221279
0.26032373 -0.20366004 0.10665519 -0.15972891 -0.28398156 0.12541164 -0.1239712 -0.43997264
0.09778519 0.44828725 0.34671703 0.116314925 -0.38381428 0.637047 -1.0025406 -0.29325143
0.36884657 0.14212729 0.23307362 0.014977739 0.12016166 0.19317004 0.8439622 -0.14388546
0.1398132 0.26205266 -0.27325955 0.035360135 0.008472234 -0.27232584 0.19088572 -0.13069227
0.2595788 0.26601544 0.07185688 0.062832184 -0.014886156 0.103356324 0.22084415 0.18289158
0.03268987 0.15335912 0.053436987 0.15262376 -0.3358804 0.041730747 -0.029188054 -0.100302994
0.42824918 0.46824 -0.16685875 -0.20807123 -0.03920812 -0.20421062 0.17060928 -0.06028486
-0.22048731 0.085605726 0.04782671 0.11837007 0.0932555 0.1266296 0.3152798 -0.066831246
-0.27101696 -0.14341292 -0.15220933 0.28919408 0.23732032 -0.541657 0.02284272 0.049527828
-0.10284373 0.11535909 0.002134139 0.022492314 0.3781217 -0.28077886 0.23758881 0.053902447
0.1771442 -0.008191808 0.19471477 -0.0685159 0.099458896 0.020761304 0.008780031 -0.08455464
0.3806156 -0.47190866 -1.4794084 -0.9132643 -0.31277093 0.070856795 0.13301496 0.11870849
-0.23629703 0.67500407 0.75422156 0.5169684 0.4913634 0.7035147 -0.96581596 1.5184536
0.44596753 0.5992432 -0.24203967 0.2143441 -0.27593967 1.2070407 1.7208408 0.30092925
1.065941 -0.14936092 0.6676286 1.0510798 1.5512199 0.2206074 -0.069537185 1.0264064
-1.3371764 -0.5379691 1.133383 0.64069253 0.32926935 -0.3099114 0.4144126 -0.6835146
-0.20062445 -0.26010683 -0.14326572 0.4504546 0.29873675 -0.4387053 0.08384985 0.11002289
-0.16581151 0.90016717 1.4545959 -0.46476293 -0.36846247 1.0106057 -1.42749 -0.3611726
0.6881357 -0.25860277 0.8686782 -0.44881943 -0.7207601 -0.21170689 1.4445996 -0.42619187
0.09054571 0.49692723 -0.1699275 0.18631423 0.07449591 -0.034152932 -0.094615564 -0.11374202
-0.0060284426 -0.43493107 0.553385 0.0063153645 0.127704 0.08172586 -0.102394596 0.20013288
-0.11043522 0.21739933 0.019846132 0.14088307 -0.8412352 0.0038510985 -0.17185673 -0.17217726
0.25973365 -0.027753234 -0.44553602 -0.45777172 0.0106189735 -0.7570758 0.018194439 0.12444081
-0.09182755 0.103596725 0.08140622 -0.080003634 0.08828174 0.085756995 -0.15002087 0.0089369025
0.028794918 0.056858372 -0.18151462 0.03671243 0.17855829 -0.0300532 0.11645129 0.3924607
-0.021288438 -0.11121084 0.12065265 -0.15071674 0.2174087 -0.50303537 0.5157947 0.2972763
-0.0128764 -0.23745424 -0.03448139 0.028563958 -0.42860377 -0.18778297 0.081152156 0.13553111
00000000: 5834 003e 9104 04bf f6b1 88be 6434 23be
00000010: d393 28bd 1c5d 1f3d cfd4 0dbc b9e9 0ebc
00000020: 89a6 8bbd 0f07 023f 5ce4 0abe a2d4 1bbd
00000030: acdd 9abd a1b0 f7bc 271b 58be 685e 813e
00000040: b2c1 543d 811e 10be 4b21 9f3e d6c8 67be
00000050: 6da4 0ebf 7fe1 0d3e 1b01 293f fb9f 843e
00000060: 7aa0 2c3e 2483 923f 1a2e cc3e 8137 413f
00000070: 962c 473f 5ad9 8bbd 0e71 843d d5ab 743e
00000080: 97f8 bcbe 5c4d a6bd b52c 243e 362a 423d
00000090: 45b0 55be 2a33 86be f01a 023e 8d3a bebc
000000a0: 2749 853e 428c 50be 096e da3d fa8f 23be
000000b0: 0866 91be e96b 003e 9de4 fdbd 1844 e1be
000000c0: 9a43 c83d e885 e53e e584 b13e 8536 ee3d
000000d0: 4e83 c4be 8315 233f 4053 80bf 0d25 96be
000000e0: 75d9 bc3e d189 113e daaa 6e3e 3165 753c
000000f0: 5117 f63d 5ece 453e e80d 583f b656 13be
00000100: 312b 0f3e c42b 863e ade8 8bbe cad5 103d
00000110: 20cf 0a3c 4b6e 8bbe 8c77 433e 32d4 05be
00000120: 83e7 843e 2d33 883e b329 933d 29ae 803d
00000130: 10e5 73bc 7bac d33d f824 623e ee47 3b3e
00000140: d0e5 053d 2c0a 1d3e bee0 5a3d 6749 1c3e
00000150: 84f8 abbe dced 2a3d c91b efbc a86b cdbd
00000160: 7a43 db3e 27bd ef3e 05dd 2abe a010 55be
00000170: b298 20bd 971c 51be 33b4 2e3e 42ed 76bd
00000180: 6dc7 61be 0e52 af3d f1e5 433d 026c f23d
00000190: bdfc be3d 31ab 013e 5b6c a13e d2de 88bd
000001a0: bcc2 8abe d6da 12be c3dc 1bbe 3f11 943e
000001b0: 1904 733e 08aa 0abf a820 bb3c b1dd 4a3d
000001c0: bc9f d2bd 6341 ec3d e9dc 0b3b cd41 b83c
000001d0: 2b99 c13e 3fc2 8fbe 7b4a 733e d0c8 5c3d
000001e0: 4a65 353e ef36 06bc 4f63 473e 1052 8cbd
000001f0: 1bb1 cb3d 9c13 aa3c 1fda 0f3c fc2a adbd
00000200: 0ce0 c23e 039e f1be 415d bdbf b0cb 69bf
00000210: 8323 a0be 5e1d 913d 1335 083e 701d f33d
00000220: d9f7 71be 11cd 2c3f aa14 413f 0b58 043f
00000230: fc93 fb3e 8a19 343f b73f 77bf b05c c23f
00000240: db55 e43e 0168 193f 3fd9 77be 057d 5b3e
00000250: f747 8dbe 4f80 9a3f 8344 dc3f 6613 9a3e
00000260: c170 883f 12f2 18be b5e9 2a3f c889 863f
00000270: 608e c63f e8e6 613e 8369 8ebd 4961 833f
00000280: 9928 abbf 58b8 09bf b212 913f 6d04 243f
00000290: fe95 a83e b5ac 9ebe e32d d43e d0fa 2ebf
000002a0: 7f70 4dbe b92c 85be 40b4 12be fca1 e63e
000002b0: 06f4 983e fb9d e0be 78b9 ab3d ae53 e13d
000002c0: 7eca 29be 5b71 663f 3330 ba3f 68f5 edbe
000002d0: 1da7 bcbe 875b 813f feb7 b6bf 9deb b8be
000002e0: a929 303f 9567 84be b261 5e3f a9cb e5be
000002f0: bc83 38bf b1c9 58be a4e8 b83f d235 dabe
00000300: 0770 b93d 3f6d fe3e 7901 2ebe 28c9 3e3e
00000310: 5091 983d f2e3 0bbd cec5 c1bd 94f1 e8bd
00000320: 3e8a c5bb 49af debe a4aa 0d3f 1ef1 ce3b
00000330: d6c4 023e e35f a73d 42b4 d1bd a2ef 4c3e
00000340: dc2b e2bd ee9d 5e3e 5b94 a23c a743 103e
00000350: 315b 57bf b662 7c3b 36fb 2fbe 3c4f 30be
00000360: cffb 843e c05a e3bc 4c1d e4be 0e61 eabe
00000370: 34fb 2d3c b8cf 41bf 810c 953c d3da fe3d
00000380: 1510 bcbd 852a d43d 4eb8 a63d f2d8 a3bd
00000390: 0fcd b43d 5da1 af3d 129f 19be 166c 123c
000003a0: 52e3 eb3c 53e4 683d f8de 39be c65f 163d
000003b0: fcd7 363e 2132 f6bc 047e ee3d 9cf0 c83e
000003c0: 1765 aebc 82c2 e3bd bd18 f73d 7d55 1abe
000003d0: 63a0 5e3e edc6 00bf 1f0b 043f 9934 983e
000003e0: 89f7 52bc 3427 73be 5c3c 0dbd f6fe e93c
000003f0: f471 dbbe 2e4a 40be 1a33 a63d abc8 0a3e

convs.0.linear2.bias f4 [64]
-0.72363317 0.24316892 -0.3363087 0.80003995 -0.3752084 0.8752543 0.14373651 -0.26767588
0.029928569 0.6619271 0.18232316 -0.31350607 0.42889178 -0.037547067 -0.49585393 0.2038313
1.3428872 0.13390617 -0.22894968 -0.76666975 -0.39266962 0.30801958 -0.13837571 0.33048856
-0.79333967 -0.02297422 -0.3424508 0.15992403 0.27658582 0.16641623 -0.2033633 -0.27792704
0.1514673 -0.34039536 -0.1647955 0.10819949 0.17931142 0.03732125 -0.17136936 -0.40558702
0.19974656 -0.3123345 0.07729638 -0.49361593 -0.154062 -0.2598371 0.1320521 -0.44515282
-0.23095211 0.16585103 -0.056557767 -0.03455129 0.2372224 -0.49440938 -0.5334228 0.03619989
0.23053244 -0.056912553 0.2588764 -0.19753286 0.25486434 0.024880696 -0.109220356 -0.13404925
00000000: 0640 39bf 4601 793e a730 acbe 6bcf 4c3f
00000010: 511b c0be aa10 603f aa2f 133e d00c 89be
00000020: c22c f53c 0e74 293f ecb2 3a3e de83 a0be
00000030: b497 db3e f4ca 19bd 91e0 fdbe 27b9 503e
00000040: bae3 ab3f b31e 093e c971 6abe 7844 44bf
00000050: fe0b c9be beb4 9d3e 5db2 0dbe cc35 a93e
00000060: 4f18 4bbf 6e34 bcbc b655 afbe 20c3 233e
00000070: a89c 8d3e 0469 2a3e 783e 50be 744c 8ebe
00000080: 3e1a 1b3e 4d48 aebe 27c0 28be b297 dd3d
00000090: 6a9d 373e 2bde 183d 737b 2fbe 1aa9 cfbe
000000a0: 5d8a 4c3e 4fea 9fbe 914d 9e3d 3abb fcbe
000000b0: 6ec2 1dbe 5e09 85be aa38 073e 12eb e3be
000000c0: b67e 6cbe dad4 293e 1ea9 67bd a785 0dbd
000000d0: 6eea 723e 3a23 fdbe 668e 08bf 5646 143d
000000e0: b210 6c3e 231d 69bd 738b 843e 0e46 4abe
000000f0: 947d 823e 9ad2 cb3c ecae dfbd 3544 09be

convs.1.a f4 [128, 1]
0.00017945051 0.024394704 -7.168008e-06 -0.026859459 2.666506e-06 -0.02871759 6.721934e-05 3.865802e-06
0.0031969678 -0.046546094 0.04213553 -9.63216e-06 0.023782145 0.021530036 -0.00027987658 0.028442902
-0.08071481 9.7646145e-05 0.00030607954 -6.162674e-06 4.72747e-07 0.003749637 -0.002930153 0.00998422
-2.976003e-05 1.5650701e-06 1.2457078e-05 -0.004534166 0.051536538 0.057652764 0.005817052 -3.4791025e-05
0.014380529 -5.3451245e-06 -7.20238e-07 0.007839928 -0.026393155 0.0674824 0.03468527 6.219183e-06
0.039907664 3.52001e-05 0.015518847 3.153541e-06 1.5115512e-06 1.6365651e-05 -0.013984394 1.233182e-06
-4.8420694e-05 0.055245172 0.06952028 0.01652921 0.029822227 -3.9398724e-06 -1.33735075e-05 1.7919841e-05
0.004730616 0.008661957 0.05935941 8.8735214e-07 0.048151683 0.056964938 2.3327211e-05 -0.0001828544
1.8001267 0.43514404 5.566788 -0.3354325 3.7100608 -0.30732775 1.8037741 4.285934
0.5634771 -0.28086698 -0.0097777005 4.1234283 -0.03168967 -0.8387096 0.50069916 -0.006764101
-0.3623778 2.114637 1.3534265 5.872605 5.82123 0.22517236 0.01576115 -0.04753286
3.1231265 5.4243345 5.5090795 -0.009742555 -0.62202525 0.29954988 1.155417 5.7192445
0.111074835 5.2165427 5.2557926 0.7002391 -0.49732003 0.067088924 0.59533703 5.6230345
0.103483394 1.5235223 0.2030983 5.129557 5.4498 4.7351346 -1.2014792 4.9443836
2.4005315 0.08942041 0.55228925 1.0668752 0.27032605 5.413375 5.280507 0.8833174
-1.2016127 0.8764643 0.28006196 5.394288 0.25949624 0.11380729 5.157598 1.4461554
00000000: e12a 3c39 67d7 c73c b884 f0b6 5e08 dcbc
00000010: 39f2 3236 2741 ebbc 1cf8 8c38 fcb6 8136
00000020: 3884 513b 1ea7 3ebd 4e96 2c3d d099 21b7
00000030: c6d2 c23c c25f b03c 66bc 92b9 1701 e93c
00000040: ce4d a5bd 60c7 cc38 4d79 a039 f7c8 ceb6
00000050: dacd fd34 78bc 753b cf07 40bb db94 233c
00000060: 2ea5 f9b7 660f d235 befe 5037 5793 94bb
00000070: fa17 533d 4e25 6c3d f89c be3b 94ec 11b8
00000080: 4f9c 6b3c 455a b3b6 6156 41b5 0b73 003c
00000090: 7536 d8bc 3634 8a3d 2412 0e3d 60ae d036
000000a0: 3876 233d d2a3 1338 c342 7e3c 6ca1 5336
000000b0: 81e0 ca35 f848 8937 cd1e 65bc d083 a535
000000c0: 5317 4bb8 c348 623d a660 8e3d 4468 873c
000000d0: be4d f43c 3f33 84b6 c75e 60b7 9152 9637
000000e0: 4903 9b3b e2ea 0d3c da22 733d 6032 6e35
000000f0: b33a 453d 1154 693d ceae c337 9bbc 3fb9
00000100: 8d6a e63f 33cb de3e 2123 b240 cfbd abbe
00000110: a371 6d40 105a 9dbe 12e2 e63f 5f26 8940
00000120: 0940 103f cccd 8fbe a632 20bc 20f3 8340
00000130: 07cd 01bd acb5 56bf d22d 003f 64a5 ddbb
00000140: 9589 b9be 3656 0740 143d ad3f 61ec bb40
00000150: 8447 ba40 9593 663e 871d 813c d1b1 42bd
00000160: 4ee1 4740 2694 ad40 614a b040 3d9f 1fbc
00000170: 0c3d 1fbf 9a5e 993e b4e4 933f 0d04 b740
00000180: 347b e33d ebed a640 742f a840 df42 333f
00000190: bba0 febe eb65 893d 0268 183f e6ef b340
000001a0: 1aef d33d c702 c33f 00f9 4f3e 5525 a440
000001b0: c364 ae40 3986 9740 12ca 99bf 6438 9e40
000001c0: 4fa2 1940 0c22 b73d d462 0d3f 5e8f 883f
000001d0: 2d68 8a3e 5e3a ad40 eaf9 a840 1721 623f
000001e0: 72ce 99bf f75f 603f 4864 8f3e 029e ac40
000001f0: b1dc 843e cc13 e93d 0b0b a540 9f1b b93f

convs.1.linear1.weight f4 [64, 64]
1.7749996 0.000938681 1.7972739 1.4628378 1.2940898 0.94150275 1.2560933 1.1289145
1.0804069 0.7081478 0.1141977 2.0895913 0.7309157 -0.07085135 -0.9673749 0.40518928
1.1948836 1.1904111 0.94675386 2.2224538 1.839519 0.46910083 0.48658127 0.4932578
1.7571272 2.0898118 1.9036461 0.33644253 -0.40746868 0.31357422 0.642327 1.9091699
0.4766536 2.6092024 1.4691477 0.20506948 -0.31164864 0.35817364 0.556962 1.8898174
0.48577863 1.7248801 0.04779794 2.2910438 2.0008526 1.325707 -0.15928166 1.2607999
0.9221755 0.24516045 0.13220939 0.63806164 0.037761297 2.6407251 1.4256768 1.0616648
-0.4594974 0.67879516 0.37693414 1.767955 0.013294803 0.13575542 1.9239866 1.1272081
2.038141 -0.31702057 1.9232191 0.7478244 1.3790507 1.0454538 0.8959625 0.63611376
1.3732959 0.8553393 -0.089279726 2.5911424 -0.09496654 -0.6464943 -0.98344636 0.14312854
1.4532298 1.2388976 1.0970652 2.7760642 1.5908824 0.28375396 0.23604736 -0.09994894
1.7702646 1.9160373 2.1619134 -0.06725071 -0.6743076 0.15829803 1.0097127 2.2661707
0.26433483 3.061296 1.7315186 -0.0042506666 -0.5915166 0.15421915 0.4649266 2.3661792
0.6878979 1.681588 -0.24322869 2.3322763 2.1617448 0.9092182 -0.6406886 1.3419288
0.96109146 0.28319874 -0.26332685 0.7028078 -0.32900184 2.901031 1.1998183 0.6592291
-0.9640166 0.9334401 0.19474524 1.8526767 -0.3145302 -0.24581383 2.0656185 0.9758191
1.8188434 -0.18572773 1.6119951 1.293101 1.1964972 0.8348306 1.1816956 0.9107798
1.0216907 0.54143125 0.19862872 2.0921438 0.6397379 -0.22330742 -1.1395782 0.1475493
1.2927026 1.2828029 0.9508991 2.2006905 1.7415408 0.3949532 0.3559112 0.31983852
1.5129634 1.8373721 1.7972338 0.056795884 -0.56343126 0.20138519 0.8074519 1.886169
0.2221565 2.4519465 1.468549 0.25056243 -0.17404449 0.3385136 0.46663952 1.9609711
0.3506357 1.6128578 0.05449378 2.2047527 1.8152925 1.4488065 -0.11017929 1.3614069
0.8386156 0.29232597 0.069186464 0.76490384 -0.14361235 2.4817972 1.3043269 0.97747606
-0.47703934 0.83857197 0.32668567 1.6727622 -0.0672441 0.1285221 1.7517521 1.0903709
-0.93716425 0.11154026 -0.27207154 -0.92429036 -0.34543875 -0.6943777 -0.15645395 0.07031565
-0.07359203 -0.5721809 0.09122815 -0.6714645 -0.35330242 0.57487017 0.6361491 -0.07412297
-0.9894251 -0.19206846 -0.49375272 -0.51799035 -0.20847194 -0.045747332 -0.014122036 0.01602231
-0.62096286 -0.09210089 -0.52830535 0.038212113 0.15295966 -0.05813436 0.026913056 -0.54482085
0.12403312 -0.38144267 -0.36199203 -0.10237048 0.03360716 0.09355629 0.09129399 -0.6940747
-0.035130456 -0.9990684 0.32488698 -0.28098172 -0.42250928 -0.21891989 0.7160201 -0.34934694
-0.2512385 -0.030438032 0.3554387 -0.021717416 0.080387354 -0.6213032 -0.11825498 -0.019776093
0.01848432 -0.022831092 0.111166246 -0.4831584 -0.00051533116 -0.0014412988 -0.2133781 -0.62262243
00000000: 3033 e33f d111 763a 120d e63f 453e bb3f
00000010: bca4 a53f 5306 713f aac7 a03f 4580 903f
00000020: c64a 8a3f 2d49 353f 7ce0 e93d ddbb 0540
00000030: 4b1d 3b3f 831a 91bd e2a5 77bf f874 cf3e
00000040: f2f1 983f 645f 983f 765e 723f af3c 0e40
00000050: 5c75 eb3f fc2d f03e 2e21 f93e 498c fc3e
00000060: 8be9 e03f 7abf 0540 adaa f33f 3242 ac3e
00000070: bc9f d0be cd8c a03e 8b6f 243f ae5f f43f
00000080: f10b f43e 2cfd 2640 080d bc3f bcfd 513e
00000090: 6990 9fbe 8962 b73e 1095 0e3f 89e5 f13f
000000a0: fab7 f83e dfc8 dc3f c6c7 433d 76a0 1240
000000b0: f80d 0040 c4b0 a93f bb1a 23be e461 a13f
000000c0: b213 6c3f 570b 7b3e e661 073e 0258 233f
000000d0: 97ab 1a3d a401 2940 947c b63f a2e4 873f
000000e0: 3e43 ebbe 85c5 2d3f 83fd c03e 594c e23f
000000f0: 72d2 593c 7803 0b3e 3145 f63f 5b48 903f
00000100: e770 0240 8550 a2be 0b2c f63f 6b71 3f3f
00000110: bc84 b03f 6ed1 853f cc5d 653f 5ad8 223f
00000120: 29c8 af3f 84f7 5a3f 4ad8 b6bd 47d5 2540
00000130: d17d c2bd a780 25bf 24c3 7bbf 4a90 123e
00000140: 6f03 ba3f 3294 9e3f a26c 8c3f 09ab 3140
00000150: 09a2 cb3f 3348 913e 66b6 713e 08b2 ccbd
00000160: 0898 e23f b640 f53f ca5c 0a40 beba 89bd
00000170: 6c9f 2cbf e118 223e 443e 813f f108 1140
00000180: e556 873e 46ec 4340 67a2 dd3f 2d49 8bbb
00000190: a26d 17bf a0eb 1d3e dc0a ee3e 7b6f 1740
000001a0: 141a 303f 473e d73f f110 79be 0444 1540
000001b0: 075a 0a40 86c2 683f 2b04 24bf 53c4 ab3f
000001c0: 170a 763f 6dff 903e c7d2 86be 36eb 333f
000001d0: ee72 a8be 7eaa 3940 a593 993f 3dc3 283f
000001e0: cbc9 76bf eef5 6e3f 4c6b 473e 8324 ed3f
000001f0: 1a0a a1be 9fb6 7bbe 1833 0440 48cf 793f
00000200: dccf e83f 692f 3ebe db55 ce3f 5584 a53f
00000210: d226 993f 75b7 553f cd41 973f dd28 693f
00000220: c3c6 823f 3d9b 0a3f 5465 4b3e afe5 0540
00000230: ddc5 233f b3aa 64be b3dd 91bf 2a17 173e
00000240: 4777 a53f e332 a43f 206e 733f 1dd8 0c40
00000250: cfea de3f 4e37 ca3e fe39 b63e e0c1 a33e
00000260: c9a8 c13f 022f eb3f c20b e63f cda2 683d
00000270: 083d 10bf eb37 4e3e 2bb5 4e3f fc6d f13f
00000280: fe7c 633e b1ec 1c40 6af9 bb3f b849 803e
00000290: b838 32be a851 ad3e 60eb ee3e 1a01 fb3f
000002a0: 8686 b33e 2072 ce3f df34 5f3d ab1a 0d40
000002b0: 815b e83f 7e72 b93f aea5 e1bd 9542 ae3f
000002c0: 83af 563f c0ab 953e a2b1 8d3d bdd0 433f
000002d0: 1e0f 13be c4d5 1e40 2ff4 a63f df3b 7a3f
000002e0: 803e f4be a7ac 563f 5843 a73e 121d d63f
000002f0: 46b7 89bd 4c9b 033e 6a39 e03f 4691 8b3f
00000300: ffe9 6fbf 386f e43d f64c 8bbe 4b9e 6cbf
00000310: 59dd b0be bdc2 31bf 7735 20be a701 903d
00000320: 6bb7 96bd 737a 12bf d3d5 ba3d 19e5 2bbf
00000330: 0ee4 b4be b12a 133f abda 223f c9cd 97bd
00000340: f74a 7dbf 98ad 44be 28cd fcbe 049b 04bf
00000350: ab79 55be 8e61 3bbd 1d60 67bc 3841 833c
00000360: 6cf7 1ebf 649f bcbd 053f 07bf 4e84 1c3d
00000370: 75a1 1c3e 4b1e 6ebd c578 dc3c 6179 0bbf
00000380: 1405 fe3d 744c c3be 0557 b9be 9da7 d1bd
00000390: a9a7 093d 719a bf3d 58f8 ba3d e1ae 31bf
000003a0: f4e4 0fbd f2c2 7fbf 9657 a63e d6dc 8fbe
000003b0: 2353 d8be 892c 60be 184d 373f 9add b2be
000003c0: 55a2 80be 2e59 f9bc 10fc b53e b9e8 b1bc
000003d0: 20a2 a43d ba0d 1fbf ab2f f2bd 7901 a2bc
000003e0: 6e6c 973c 4508 bbbc 21ab e33d 8a60 f7be
000003f0: 4a17 07ba f6e9 bcba ca7f 5abe 2f64 1fbf

convs.1.linear1.bias f4 [64]
0.0051886337 -0.036609378 0.0070974566 0.007996324 -0.07322347 -0.062220924 -0.009083076 0.047008935
-0.005145258 -0.017474534 -0.04282086 -0.019285735 -0.021928858 0.029354135 -0.061878625 -0.0017119535
0.14180517 -0.085697 0.0011152074 0.13819358 0.020139728 0.05216731 0.11905158 0.015035487
-0.0468897 0.19380954 -0.0058884444 -0.01747475 0.062126894 0.10345193 -0.06844033 -0.0337613
0.030326365 -0.013478694 0.039501913 0.017032327 0.035856 -0.081222065 0.018482666 0.021614546
0.01209513 0.019633764 0.0649627 0.029591955 -0.02224323 -0.072600305 -0.0019018061 0.017995656
0.02294836 0.039501436 0.02119715 0.07710007 -0.03583171 -0.02991181 0.016593358 0.0061236443
0.1372867 0.012151053 0.047590394 -0.06994665 -0.016040387 0.027603393 0.009707533 0.019812206
00000000: 6a05 aa3b b7f3 15bd c891 e83b 0403 033c
00000010: 30f6 95bd 5edb 7ebd 2fd1 14bc 718c 403d
00000020: 8d99 a8bb c126 8fbc ed64 2fbd 1efd 9dbc
00000030: 26a4 b3bc 1578 f03c 7174 7dbd a163 e0ba
00000040: 6035 113e e981 afbd 272c 923a 9e82 0d3e
00000050: 12fc a43c 64ad 553d 51d1 f33d 6757 763c
00000060: 6a0f 40bd 0276 463e daf3 c0bb 3527 8fbc
00000070: c578 7e3d 9bde d33d 722a 8cbd 4a49 0abd
00000080: ff6e f83c bdd5 5cbc c2cc 213d 6187 8b3c
00000090: bedd 123d c157 a6bd f668 973c fd10 b13c
000000a0: a72a 463c fdd6 a03c 2a0b 853d d46a f23c
000000b0: 6f37 b6bc 78af 94bd 0646 f9ba a06b 933c
000000c0: 33fe bb3c 42cc 213d a5a5 ad3c a4e6 9d3d
000000d0: 45c4 12bd 9d09 f5bc cbee 873c daa8 c83b
000000e0: e294 0c3e 3615 473c 25ee 423d 3040 8fbd
000000f0: 2167 83bc 8320 e23c 580c 1f3c 354d a23c

convs.1.linear2.weight f4 [64, 64]
0.064170994 -0.8691158 -0.061489806 0.5967493 -0.3694 -0.24345788 -0.2381825 0.28612772
0.05448421 -0.084914334 -0.10977428 0.0007829471 0.12864275 0.18644679 0.014596306 -0.102141514
0.53874135 -0.3099837 0.025075626 0.6055327 0.23404835 0.20573796 0.30842558 0.113367826
-0.2783594 0.7402596 -0.07779661 -0.045271218 -0.0774474 0.52146226 -0.6607474 -0.22972189
-0.012320052 -0.047564283 0.02709748 -0.05111367 0.19860724 -0.28113642 0.13871111 -0.015932316
0.10976612 0.033054058 0.16443078 0.19610599 0.0138975 -0.099197395 0.094009295 0.3459229
0.78094655 -0.16253795 -0.07454635 0.45801508 -0.027284618 -0.33602667 0.05521436 0.10638178
0.47783747 0.09281253 -0.13598886 -0.8090409 -0.08048003 -0.097246565 0.037307244 0.15770979
-0.3379347 -0.828288 -0.11072815 -0.1471124 -0.7259767 -0.45587006 -0.07689935 -0.16111585
0.14261758 -0.21209756 -0.20706493 0.15051712 0.04728709 0.0061706756 -0.07143974 0.11235385
0.33440024 -0.045986988 0.14394233 0.33882508 0.10100555 0.15705068 0.37063184 0.22428384
-0.28161412 0.856077 0.16841233 -0.29606417 -0.22776301 0.46590942 -0.68602306 -0.23852049
0.093468875 0.2101653 -0.22406803 -0.35933036 0.23168387 -0.023114253 0.18502901 0.17621143
0.18708736 -0.053396966 0.59748083 0.092536904 0.032653864 -0.7572602 0.16873115 0.09194735
0.1804104 0.31723136 0.28303993 0.23403671 -0.037439488 -0.1282111 0.12325047 0.02156198
0.37192646 0.1406681 0.19287726 -0.6807327 -0.28750813 0.26171425 -0.17206016 -0.12277229
-0.08599623 -0.059130594 -0.118956275 0.13057241 -0.24459426 -0.072731785 -0.1269122 0.2979273
0.2755349 -0.018224597 -0.27281973 0.20431812 0.1820429 0.3621008 0.3157576 0.2711007
0.27549443 -0.07227519 0.08468028 0.22673522 0.14684635 0.35668752 0.1385095 0.262646
-0.18126665 0.16821876 0.2817475 -0.22142246 0.0019552503 0.6243187 -0.11473534 -0.14494966
0.33596864 0.12268941 -0.14506558 0.19169438 0.3666827 -0.15233336 0.12919952 0.074758455
0.16281766 0.17561308 0.3064836 0.099101454 0.17855951 -0.22398019 0.07335105 0.36469758
0.409124 0.3186295 0.27609125 0.5669884 0.21084747 -0.31247735 0.24291015 0.13355608
0.20750941 0.19696464 0.31059015 -0.12208202 -0.15994613 0.120098144 -0.14711395 0.3671379
-0.07884241 -0.58333594 -0.13226122 0.56942815 -0.35783944 -0.16127424 -0.10346911 0.224214
-0.033492375 -0.1523774 -0.17224777 0.040530298 -0.06258439 0.1377378 -0.018972011 0.13102952
0.4359452 -0.35867006 -0.11615276 0.52932066 0.13230282 0.0421286 0.42030802 0.011597479
-0.328718 0.9171414 0.056543045 -0.053026397 -0.050154373 0.4616129 -0.6834318 -0.26240817
0.19791648 -0.102131195 0.014111697 0.20171659 0.022975763 -0.34336975 -0.007402349 0.01953113
0.23221739 0.15461522 0.03372411 0.10142257 -0.032841273 -0.2113368 0.124794625 0.31581348
0.6038625 0.06271517 0.07658591 0.26057413 0.009138445 -0.19924279 -0.082929835 -0.04871377
0.5719261 -0.00083444256 0.090051614 -0.6859611 -0.05263872 -0.0007513206 0.047561444 0.011314395
00000000: 156c 833d 607e 5ebf bcdc 7bbd 90c4 183f
00000010: ff21 bdbe 064d 79be 1de6 73be 557f 923e
00000020: d62a 5f3d 91e7 adbd 56d1 e0bd b13e 4d3a
00000030: edba 033e e8eb 3e3e 5825 6f3c 922f d1bd
00000040: f4ea 093f 2fb6 9ebe 666b cd3c 3104 1b3f
00000050: 5faa 6f3e f9ac 523e f5e9 9d3e 642d e83d
00000060: 2085 8ebe a781 3d3f d453 9fbd 506e 39bd
00000070: be9c 9ebd 8d7e 053f be26 29bf 373c 6bbe
00000080: 0bda 49bc c4d2 42bd 89fb dd3c 915c 51bd
00000090: b25f 4b3e 1df1 8fbe 490a 0e3e 7d84 82bc
000000a0: 0fcd e03d b163 073d 8b60 283e 02d0 483e
000000b0: 57b2 633c 0128 cbbd f287 c03d ce1c b13e
000000c0: 1dec 473f 5970 26be c2ab 98bd f480 ea3e
000000d0: fe83 dfbc b00b acbe 7428 623d b1de d93d
000000e0: 1da7 f43e 7f14 be3d aa40 0bbe 4e1d 4fbf
000000f0: b7d2 a4bd 3529 c7bd 7bcf 183d ad7e 213e
00000100: c705 adbe af0a 54bf 71c5 e2bd a2a4 16be
00000110: 9cd9 39bf cd67 e9be 687d 9dbd 8efb 24be
00000120: 580a 123e 1a30 59be d408 54be 2921 1a3e
00000130: 1cb0 413d 6133 ca3b 004f 92bd c619 e63d
00000140: 8236 ab3e da5c 3cbd 9e65 133e 7b7a ad3e
00000150: ffdb ce3d e5d1 203e 75c3 bd3e aaaa 653e
00000160: ba2f 90be dd27 5b3f 4874 2c3e b995 97be
00000170: b53a 69be ae8b ee3e 359f 2fbf b73e 74be
00000180: 9c6c bf3d 9335 573e 1772 65be 26fa b7be
00000190: 893e 6d3e 1a5a bdbc 3f78 3d3e c570 343e
000001a0: d493 3f3e c7b6 5abd 81f4 183f fd83 bd3d
000001b0: 0fc0 053d cedb 41bf dcc7 2c3e e44e bc3d
000001c0: 81bd 383e 266c a23e 9cea 903e 52a7 6f3e
000001d0: 265a 19bd c549 03be be6a fc3d c0a2 b03c
000001e0: 256d be3e 4c0b 103e 9e81 453e 8044 2ebf
000001f0: 4434 93be 69ff 853e 8a30 30be 0a70 fbbd
00000200: cb1e b0bd ec32 72bd 599f f3bd c6b4 053e
00000210: eb76 7abe 67f4 94bd 46f5 01be ed89 983e
00000220: e912 8d3e c04b 95bc 07af 8bbe c538 513e
00000230: 7469 3a3e 4765 b93e fbaa a13e b6cd 8a3e
00000240: 9b0d 8d3e 0405 94bd db6c ad3d 472d 683e
00000250: e45e 163e bf9f b63e 6fd5 0d3e 8979 863e
00000260: f79d 39be 8a41 2c3e 3541 903e 92bc 62be
00000270: a823 003b 5ad3 1f3f 5dfa eabd af6d 14be
00000280: 1504 ac3e 9644 fb3d 128c 14be 884b 443e
00000290: d6bd bb3e 47fd 1bbe e14c 043e f61a 993d
000002a0: acb9 263e ead3 333e 6beb 9c3e b4f5 ca3d
000002b0: 4ed8 363e 105b 65be 1339 963d a4b9 ba3e
000002c0: b378 d13e 6823 a33e d55b 8d3e 2726 113f
000002d0: 66e8 573e 08fd 9fbe 70bd 783e edc2 083e
000002e0: 597d 543e 19b1 493e ac05 9f3e 2306 fabd
000002f0: ebc8 23be 04f6 f53d 0aa5 16be 80f9 bb3e
00000300: 2178 a1bd 8155 15bf 7c6f 07be 0bc6 113f
00000310: bb36 b7be 1325 25be 9de7 d3bd 5b98 653e
00000320: 4d2f 09bd d208 1cbe b861 30be 1903 263d
00000330: 3f2c 80bd 230b 0d3e 316b 9bbc 9a2c 063e
00000340: 3634 df3e 9aa3 b7be 80e1 edbd 8f81 073f
00000350: 647a 073e 0a8f 2c3d 9d32 d73e 5a03 3e3c
00000360: ba4d a8be c7c9 6a3f ae99 673d 3532 59bd
00000370: ac6e 4dbd 8758 ec3e 63f5 2ebf 5d5a 86be
00000380: 9eaa 4a3e 292a d1bd bf34 673c cb8e 4e3e
00000390: ab37 bc3c 29ce afbe 678f f2bb c0ff 9f3c
000003a0: 65ca 6d3e 7453 1e3e 4b22 0a3d a3b6 cf3d
000003b0: 9284 06bd ad68 58be 5394 ff3d 4eb2 a13e
000003c0: bc96 1a3f d070 803d 13d9 9c3d f969 853e
000003d0: 6bb9 153c 4d06 4cbe 1ed7 a9bd 1788 47bd
000003e0: c069 123f 7ebe 5aba fb6c b83d 269b 2fbf
000003f0: b39b 57bd 46f4 44ba cacf 423d 0360 393c

convs.1.linear2.bias f4 [64]
-0.020165265 -0.00028626175 -0.06882856 -0.0007903153 0.09691054 0.09601022 0.09840621 -0.009525553
-0.009757628 -0.023926806 0.12059262 -0.09132177 0.013964796 0.044288818 0.13201423 0.10800765
-0.04063344 0.16083062 -0.054544862 -0.04084193 -0.0037175552 0.096565776 0.105882145 0.013508047
-0.039125856 0.11947625 -0.01788573 0.027205456 -0.009288442 -0.012694611 0.0302792 -0.0078491755
-0.1293357 0.0772002 0.0009888909 0.013930598 -0.10803598 0.101324424 0.02528555 0.09206422
0.108011924 0.069960356 -0.0233689 0.09535234 0.04613035 0.06914257 0.17493768 0.08695325
0.02809939 0.005931005 -0.017843826 -0.0062016807 -0.026786419 0.10888487 -0.06415867 0.08487531
0.14230706 0.1673122 0.004825636 -0.065374985 -0.07146676 -0.036178038 0.12534674 0.0067599528
00000000: a031 a5bc 6715 96b9 fdf5 8cbd 292d 4fba
00000010: 0879 c63d 02a1 c43d 3289 c93d 1111 1cbc
00000020: 75de 1fbc 2602 c4bc 43f9 f63d e806 bbbd
00000030: 9acc 643c 3168 353d bd2e 073e 1d33 dd3d
00000040: 406f 26bd c8b0 243e 6f6a 5fbd de49 27bd
00000050: 3aa2 73bb 47c4 c53d bdd8 d83d db50 5d3c
00000060: 6f42 20bd f7af f43d 1885 92bc fadd de3c
00000070: 8d2e 18bc 0ffd 4fbc 160c f83c d499 00bc
00000080: 9470 04be 231b 9e3d ac9d 813a 2a3d 643c
00000090: f841 ddbd 2e83 cf3d a423 cf3c 2a8c bc3d
000000a0: 5b35 dd3d 6047 8f3d 2370 bfbc 1648 c33d
000000b0: 2ef3 3c3d 9f9a 8d3d dd22 333e 8c14 b23d
000000c0: b130 e63c e058 c23b 372d 92bc 7837 cbbb
000000d0: 316f dbbc 08ff de3d 9f65 83bd 1bd3 ad3d
000000e0: f1b8 113e e453 2b3e 5e20 9e3b 52e3 85bd
000000f0: 2a5d 92bd 6c2f 14bd e55a 003e 9882 dd3b

mlp1.weight f4 [64, 192]
-0.18805331 0.036570154 0.061956618 0.16633798 -0.013037755 0.19677174 0.07588678 0.08014086
0.19022222 0.22658756 0.033956327 0.068368495 -0.016631024 0.04135327 -0.0061254962 0.121574834
0.17712764 -0.066072635 -0.10164499 0.268713 0.06475592 0.21548852 0.18603498 -0.10066132
0.16086604 -0.015001692 -0.242671 0.17679201 -0.030010698 -0.07150614 -0.23976204 -0.18967596
-0.2028794 0.080841854 0.21273255 0.0735441 0.03986775 0.26794755 0.20302653 0.2688312
-0.15633848 0.08230981 -0.18463352 0.0275335 -0.059848856 0.13779731 -0.24290633 -0.14870758
0.0009957355 0.027872901 -0.25790992 -0.1529816 0.01783893 0.124186166 0.12194857 -0.14960529
-0.078545116 0.02614742 -0.16176932 0.16252357 0.018672511 0.08053367 -0.15509239 0.017217848
-0.035067245 0.048244882 -0.08680159 3.7984012e-06 -0.14793845 0.018230274 -0.087877996 -0.06297355
-0.004608689 0.083953835 0.105208576 -0.07868983 0.10634301 -0.33378124 -0.06134689 0.1073214
-0.010742425 0.028271781 -0.05953853 -0.10271456 -0.030712906 0.063941576 0.07544857 0.12278427
-0.021876374 0.0025033348 -0.08600867 0.0064529786 0.0764486 0.057025228 0.019758487 -0.08990003
0.053032644 -0.050743654 -0.02215312 0.038038027 0.017266084 0.08444586 -0.26186663 -0.08745937
0.081312515 0.03112547 0.067881756 -0.023167904 -0.062306374 -0.004774493 -0.24528195 -8.40093e-05
-0.048617 0.10476711 0.084466726 -0.014686494 0.109842226 0.02973616 -0.01524687 0.036846716
-0.0038629877 0.01268423 -0.039609063 -0.0933368 0.12580831 0.09774504 -0.00047394805 -0.12403678
-0.161085 -0.064499125 -0.16334583 -0.33385897 0.33600903 0.25405008 0.26864207 -0.037781227
-0.07570745 0.09751306 0.22216082 0.30674177 0.3430246 0.16324261 0.23588255 0.3007997
0.13150378 0.26347128 0.3357658 -0.038309947 -0.0010552728 0.28702593 0.25941095 -0.055831913
0.53209865 0.21101782 0.033628687 -0.031187996 0.17448086 -0.06942428 0.384834 0.16876677
-0.26792833 0.27947196 0.23427863 0.3236131 -0.1791848 0.23042908 -0.12911035 0.24134931
0.21069974 -0.44465932 -0.005431623 0.2310801 0.16571006 0.019893033 0.24297109 0.28803417
-0.10434843 -0.22284788 -0.21961574 0.36644313 -0.16110489 0.22006533 0.49283707 0.2851548
0.27498785 0.19315489 0.35891268 -0.28030896 -0.3058476 0.2831374 0.26184055 0.06996813
-0.0544633 0.29745907 0.21010627 0.102880284 0.16562444 0.040781915 -0.14136018 0.118287474
0.15099694 0.08763211 -0.22546025 0.28253958 -0.22997254 -0.1650261 -0.21653624 -0.14328432
0.18630315 0.00566165 0.16725203 0.14976591 -0.25179783 -0.11023147 -0.009986463 -0.11120223
-0.13837495 0.2167666 -0.019864466 -0.09356133 0.11296962 -0.24021015 -0.06547926 -0.2051064
-0.123948514 0.14563845 0.11389512 -0.22255841 -0.083198376 0.09969504 0.26751843 0.14475699
-0.1720304 -0.31478307 -0.2638933 0.23471253 -0.013250175 0.014967012 -0.08361919 -0.04182117
0.21304466 0.23131539 -0.012256364 0.05724828 0.19451527 0.29295993 0.11116507 -0.062450897
-0.2825293 -0.0824741 -0.1924474 0.17272264 0.2716329 0.19000775 -0.13710453 0.1800241
00000000: 0c91 40be 96ca 153d 39c6 7d3d 8154 2a3e
00000010: 4f9c 55bc 887e 493e 876a 9b3d e420 a43d
00000020: 9dc9 423e 9206 683e ca15 0b3d c804 8c3d
00000030: c93d 88bc 0c62 293d 63b8 c8bb 3afc f83d
00000040: f360 353e 1751 87bd 402b d0bd c094 893e
00000050: c09e 843d 06a9 5c3e f47f 3e3e 8627 cebd
00000060: 11ba 243e a8c9 75bc bf7e 78be f708 353e
00000070: ffd8 f5bc d071 92bd 2e84 75be 6a3a 42be
00000080: 9ebf 4fbe 6a90 a53d 90d6 593e 4a9e 963d
00000090: 5e4c 233d 6c30 893e 30e6 4f3e 3ea4 893e
000000a0: 3217 20be 0c92 a83d 9210 3dbe ef8d e13c
000000b0: 1324 75bd bd1a 0d3e 70bc 78be cd46 18be
000000c0: 5783 823a b655 e43c c50c 84be 35a7 1cbe
000000d0: f322 923c 5155 fe3d 2cc0 f93d 2132 19be
000000e0: 43dc a0bd 1d33 d63c dba6 25be 946c 263e
000000f0: 18f7 983c d6ee a43d 8ad0 1ebe 720c 8d3c
00000100: aca2 0fbd 6d9c 453d 08c5 b1bd 09e8 7e36
00000110: 2d7d 17be a857 953c 61f9 b3bd 47f8 80bd
00000120: 7c04 97bb fdef ab3d 9877 d73d 2228 a1bd
00000130: 5dca d93d 60e5 aabe e046 7bbd 52cb db3d
00000140: ff00 30bc 399a e73c acde 73bd 035c d2bd
00000150: a299 fbbc cdf3 823d c884 9a3d 5276 fb3d
00000160: 1536 b3bc fd0e 243b 5025 b0bd 8273 d33b
00000170: 1591 9c3d 4993 693d 8ddc a13c 821d b8bd
00000180: c238 593d 94d8 4fbd 767a b5bc c3cd 1b3d
00000190: 9a71 8d3c f3f1 ac3d 6213 86be e61d b3bd
000001a0: 2d87 a63d d7fa fe3c 9705 8b3d 9eca bdbc
000001b0: f834 7fbd 5a73 9cbb 312b 7bbe 262e b0b8
000001c0: 9f22 47bd 2390 d63d e4fc ac3d 9f9f 70bc
000001d0: f6f4 e03d 3f99 f33c 02ce 79bc 95ec 163d
000001e0: 2e2a 7dbb 84d1 4f3c 1d3d 22bd 5d27 bfbd
000001f0: e5d3 003e 8d2e c83d 3b7c f8b9 ff06 febd
00000200: 77f3 24be 1e18 84bd 2144 27be 90ef aabe
00000210: 6009 ac3e da12 823e 748b 893e 7dc0 1abd
00000220: 820c 9bbd edb4 c73d 207e 633e 420d 9d3e
00000230: eca0 af3e 1229 273e 328b 713e 6b02 9a3e
00000240: eda8 063e b5e5 863e 7fe9 ab3e e4ea 1cbd
00000250: 1451 8aba 10f5 923e 83d1 843e 01b0 64bd
00000260: 9e37 083f 0e15 583e 3cbe 093d f87d ffbc
00000270: 1cab 323e 512e 8ebd f608 c53e 32d1 2c3e
00000280: e72d 89be f316 8f3e bde6 6f3e 9eb0 a53e
00000290: 387c 37be 9af5 6b3e 8135 04be 4624 773e
000002a0: acc1 573e 63aa e3be c2fb b1bb 43a0 6c3e
000002b0: e6af 293e b7f6 a23c 6acd 783e 3779 933e
000002c0: a1b4 d5bd 3c32 64be f3e2 60be 6f9e bb3e
000002d0: aef8 24be ce58 613e 2455 fc3e cfff 913e
000002e0: 35cb 8c3e 65ca 453e 67c3 b73e a884 8fbe
000002f0: 0e98 9cbe 63f7 903e f70f 863e 734b 8f3d
00000300: e914 5fbd 8e4c 983e 1926 573e e6b2 d23d
00000310: 7499 293e f00a 273d b9c0 10be b440 f23d
00000320: f19e 1a3e 7778 b33d 0ddf 66be 07a9 903e
00000330: ec7d 6bbe 9afc 28be adbb 5dbe 20b9 12be
00000340: 41c6 3e3e 5d85 b93b 1e44 2b3e 3c5c 193e
00000350: a5eb 80be 09c1 e1bd 439e 23bc ffbd e3bd
00000360: 2ab2 0dbe 10f8 5d3e ceba a2bc 159d bfbd
00000370: 9e5c e73d a6f9 75be fe19 86bd 6a07 52be
00000380: b8d8 fdbd 3f22 153e d841 e93d 5ae6 63be
00000390: e963 aabd ea2c cc3d 2df8 883e 2d3b 143e
000003a0: bd28 30be 3f2b a1be 061d 87be 7b58 703e
000003b0: 4317 59bc 3338 753c 8a40 abbd ad4c 2bbd
000003c0: 6128 5a3e f1dd 6c3e ebce 48bc 2c7d 6a3d
000003d0: 032f 473e d8fe 953e 83aa e33d 83cc 7fbd
000003e0: aea7 90be 2ee8 a8bd ee10 45be 34de 303e
000003f0: 7813 8b3e 6491 423e 2165 0cbe 3d58 383e

mlp1.bias f4 [64]
0.026670733 0.12272448 -0.056394856 0.11273837 0.26239377 0.1663147 0.14206375 0.14683269
-0.09408978 -0.040608883 0.05357246 0.115027264 0.03551832 0.13460462 0.08373337 0.111625716
0.07664526 -0.0028338993 0.03938548 0.13827154 0.06139854 -0.0037744506 0.057373434 0.11505667
0.088463195 0.18767342 0.16974421 -0.070410445 0.08438909 0.081414044 0.1771792 0.006502229
-0.12240944 0.0010763361 -0.11568894 0.07707292 0.15086971 0.09103597 0.043165985 0.10778818
0.038754925 -0.107652366 0.06273521 -0.22662917 -0.053830974 0.028922273 0.021695519 0.12727965
-0.017959636 0.14343582 0.08192931 -0.09241783 -0.015417531 0.1205197 0.2034283 0.0418853
0.055577394 0.14796104 0.017619004 -0.010007141 0.04945322 -0.012843793 0.12351394 0.050151076
00000000: 957c da3c f956 fb3d 4bfe 66bd 60e3 e63d
00000010: 7a58 863e 674e 2a3e 2979 113e 4f5b 163e
00000020: 24b2 c0bd 8055 26bd cc6e 5b3d 6a93 eb3d
00000030: a87b 113d cbd5 093e 677c ab3d 069c e43d
00000040: 31f8 9c3d f1b8 39bb ab52 213d 0e97 0d3e
00000050: 097d 7b3d c65c 77bb 6800 6b3d d5a2 eb3d
00000060: 312c b53d 762d 403e 6dd1 2d3e 5a33 90bd
00000070: 30d4 ac3d 68bc a63d 776e 353e a610 d53b
00000080: cdb1 fabd d913 8d3a 53ee ecbd 68d8 9d3d
00000090: 977d 1a3e 1171 ba3d d1ce 303d 0dc0 dc3d
000000a0: 7cbd 1e3d d878 dcbd 517b 803d 7a11 68be
000000b0: de7d 5cbd 67ee ec3c cdba b13c 9955 023e
000000c0: 1620 93bc d7e0 123e 8eca a73d 8f45 bdbd
000000d0: d099 7cbc 08d3 f63d 824f 503e ec8f 2b3d
000000e0: 1fa5 633d 1983 173e bb55 903c fef4 23bc
000000f0: 768f 4a3d c66e 52bc e0f4 fc3d 376b 4d3d
