Saved_Models/TSP_200/scatgnn_layer_2_hid_64_model_210_temp_3.500.pth (torch, 179911 bytes, 24 tensors)

bn0.weight f4 [2]
1.0 1.0
00000000: 0000 803f 0000 803f

bn0.bias f4 [2]
0.0 0.0
00000000: 0000 0000 0000 0000

bn0.running_mean f4 [2]
0.0 0.0
00000000: 0000 0000 0000 0000

bn0.running_var f4 [2]
1.0 1.0
00000000: 0000 803f 0000 803f

in_proj.weight f4 [64, 2]
-0.6216908 0.29824448 -0.74758124 -0.7080377 -0.24402258 -1.0719147 0.30198228 -0.26911247
-0.3310111 -0.51645 0.4506461 -0.2913668 0.5371348 0.050546173 -0.19111423 -0.60063666
0.3199768 -1.0313596 0.5029675 -0.8417213 0.59878016 0.3080104 -0.027896123 -0.7006815
0.19054827 0.65424234 0.8143389 0.57089096 0.9954265 0.57167405 1.1272964 -0.1549635
0.33213708 -0.5134195 -0.7236235 -0.2922345 -0.92086434 -0.2674786 0.44835532 -1.0900937
1.056442 0.6416587 0.9766217 -0.036061194 0.9952386 -0.49170575 -0.1947929 0.99650687
0.8759284 -0.19517261 -0.48362306 -0.9720249 -0.8471952 0.70396733 0.74692726 -0.22636892
-0.15688422 -0.68725896 0.17563222 0.7053368 -0.7757848 0.54557097 -0.0035895486 0.79223156
-0.6807842 0.52427214 -0.15946594 -0.93478966 0.5741467 -1.0226425 0.7004711 0.34071603
0.5613953 -0.37688893 0.91134083 -0.50339615 0.06737658 -0.74264205 0.30422804 -0.85726583
-0.73252076 0.55699915 0.9501012 0.9017105 -0.035253234 0.81625384 -0.9213272 -0.7136501
-0.07205778 0.6197881 0.81468654 -0.3794977 -1.0398229 0.374856 -0.4977161 -0.04530392
-0.48268262 -0.96122664 -0.59682876 -0.63117665 -0.8151591 0.3272983 -0.9370498 -0.19760428
-0.8547173 -0.35567623 -0.26261568 -0.87314665 0.1756386 -0.80026716 -0.84129083 0.33812568
0.67249274 1.0257523 0.42459357 -0.14250131 -0.11047722 0.76171875 0.030355202 -0.22697857
-0.638297 -0.7452302 -0.0624976 -0.35319662 -0.5018791 1.0501342 -0.24303253 -0.9392086
00000000: 2127 1fbf 80b3 983e 7c61 3fbf f541 35bf
00000010: 0ee1 79be 8034 89bf 6c9d 9a3e 1cc9 89be
00000020: 497a a9be 1136 04bf 16bb e63e 072e 95be
00000030: ab81 093f 8109 4f3d 73b3 43be 53c3 19bf
00000040: 00d4 a33e 9703 84bf 7ac2 003f 0c7b 57bf
00000050: a849 193f 8ab3 9d3e 6986 e4bc dd5f 33bf
00000060: 161f 433e 6d7c 273f 8478 503f e925 123f
00000070: 45d4 7e3f 3b59 123f 404b 903f c0ae 1ebe
00000080: df0d aa3e 766f 03bf 643f 39bf c39f 95be
00000090: c4bd 6bbf f4f2 88be d48e e53e 3188 8bbf
000000a0: 7e39 873f bf43 243f e103 7a3f e7b4 13bd
000000b0: f5c7 7e3f dbc0 fbbe ca77 47be 131b 7f3f
000000c0: d83c 603f 54db 47be 719d f7be a0d6 78bf
000000d0: c9e1 58bf 3437 343f a036 3f3f 41cd 67be
000000e0: 42a6 20be 34f0 2fbf efd8 333e f490 343f
000000f0: d599 46bf 8aaa 0b3f a23e 6bbb b0cf 4a3f
00000100: e047 2ebf b336 063f 0a4b 23be 604e 6fbf
00000110: 47fb 123f f3e5 82bf 1352 333f 5572 ae3e
00000120: 9ab7 0f3f 96f7 c0be a24d 693f 92de 00bf
00000130: bbfc 893d ca1d 3ebf c7c3 9b3e c675 5bbf
00000140: 7b86 3bbf 7f97 0e3f d539 733f 80d6 663f
00000150: b265 10bd 03f6 503f 19dc 6bbf c6b1 36bf
00000160: 0893 93bd 6faa 1e3f 4c8f 503f 864d c2be
00000170: eb18 85bf 20ed bf3e a5d4 febe 9a90 39bd
00000180: 2d22 f7be f312 76bf c5c9 18bf cb94 21bf
00000190: 44ae 50bf a593 a73e 7fe2 6fbf c758 4abe
000001a0: c1ce 5abf 321b b6be 9075 86be 8a86 5fbf
000001b0: 9bda 333e 4fde 4cbf d65e 57bf cf1e ad3e
000001c0: 7c28 2c3f da4b 833f 5464 d93e ddeb 11be
000001d0: e141 e2bd 0000 433f 79ab f83c 126d 68be
000001e0: 6f67 23bf 68c7 3ebf 7cfd 7fbd 30d6 b4be
000001f0: 267b 00bf cc6a 863f 85dd 78be fa6f 70bf

in_proj.bias f4 [64]
-0.24943358 0.30366826 -0.025657736 0.50027007 0.50058585 0.36729437 -0.5769933 -0.2950476
-0.4149789 -0.003315253 -0.18826117 -0.020805666 0.22473462 -0.12307446 -0.40330684 0.004009764
0.26944512 -0.61199486 0.41042268 -0.0032651818 0.0027178193 0.35241833 -0.58716303 0.38185653
-0.24474856 -0.4043809 0.0037256824 -0.16126451 -0.2501975 -0.20732716 -0.31237847 -0.48783115
0.22246604 -0.5692836 -0.08920251 -0.0027163867 -0.5081806 0.021718426 0.410474 -0.072467886
-0.42351454 0.26223728 -0.08988661 0.6136506 0.5405689 -0.02583502 -0.313807 -0.29138118
0.48986417 0.02398904 -0.14272007 -0.6304847 0.4209203 0.3898188 -0.07142786 -0.107898235
-0.46562254 -0.23364301 -0.18084548 0.38408408 0.018337592 0.21085596 -0.07928696 -0.61047804
00000000: 846b 7fbe 687a 9b3e 2c30 d2bc b311 003f
00000010: 6526 003f 020e bc3e d5b5 13bf 7b10 97be
00000020: 1d78 d4be b744 59bb 89c7 40be a570 aabc
00000030: d520 663e 760e fcbd 3c7e cebe 5764 833b
00000040: b6f4 893e b2ab 1cbf ec22 d23e a9fc 55bb
00000050: 711d 323b 2d70 b43e 5150 16bf b382 c33e
00000060: 5e9f 7abe 030b cfbe 942a 743b 8622 25be
00000070: e319 80be 924d 54be 12f0 9fbe 01c5 f9be
00000080: 23ce 633e 92bc 11bf ceaf b6bd 6805 32bb
00000090: 2018 02bf d7ea b13c a629 d23e 0b6a 94bd
000000a0: e6d6 d8be f743 863e 7916 b8bd 3518 1d3f
000000b0: b962 0a3f f7a3 d3bc 50ab a0be ea2f 95be
000000c0: 7acf fa3e aa84 c43c 3625 12be 7267 21bf
000000d0: de82 d73e 5496 c73e c548 92bd c0f9 dcbd
000000e0: 1466 eebe 1d40 6fbe 8f2f 39be aba6 c43e
000000f0: b838 963c a0ea 573e 3461 a2bd 4a48 1cbf

convs.0.a f4 [128, 1]
-0.007870465 -0.025618866 -0.009024393 -0.0061717303 -0.022585237 -0.010230066 -0.000584554 -0.00021491645
-0.010126348 -0.005252744 -0.00065779884 -0.007953474 0.0016802071 -0.005619175 0.000490782 -0.0055979495
-0.011675582 -0.005110886 -0.016012682 -0.015514907 -0.003166629 0.0009171684 -0.0032739544 -0.007937236
0.0054280385 -0.0009971 -0.009659001 0.0061962255 -2.8269877e-05 -0.004124842 -0.0076100803 -0.0005408933
-0.010973802 -0.0012278497 -0.012634812 -0.0064843018 -0.003954314 -0.0068050036 -0.012895605 -0.010673617
-0.0050139436 0.016059773 -0.0044309883 -0.029538726 -0.0041716057 -0.004896919 -0.009870544 -0.006752659
-0.028154856 -0.014090537 -0.00857932 -0.007993791 -0.025604062 -0.02611443 -0.006114814 -0.0072224406
-3.179826e-05 0.0019096411 -0.00749364 -0.0039267004 -0.0076385704 -0.011994328 -0.01195369 -0.00014258281
0.7190486 1.1746833 0.93507344 0.13858825 0.22429743 0.21634583 0.7258686 0.7406744
0.8649312 1.0640031 0.6893396 0.9208485 1.1975036 0.70229506 0.6853066 1.0399457
1.3653545 0.6564113 0.6509184 1.111756 1.0159365 1.0208181 0.7773495 0.65968895
0.68737173 0.78326046 1.0152621 0.7046215 0.7221304 0.6971353 0.78020924 0.74469686
1.080557 0.75051063 1.0846618 1.0356909 0.76241124 1.3005893 0.5243203 0.9274959
0.82379204 1.1449671 0.76450574 0.46565962 0.19127347 0.9742437 0.69883716 0.6564357
0.6401289 0.922399 0.701781 0.69003266 0.6266039 0.80782163 0.93539613 0.6974119
0.7140972 0.69942176 0.92903787 0.08315111 0.9721479 0.22077721 1.0102886 0.7540574
00000000: 1ff3 00bc a8de d1bc 0cdb 13bc 3a3c cabb
00000010: ad04 b9bc 029c 27bc c13c 19ba 325b 61b9
00000020: fbe8 25bc 361f acbb 2270 2cba 4a4f 02bc
00000030: 653a dc3a 0e21 b8bb d3a7 003a 016f b7bb
00000040: f14a 3fbc 3879 a7bb 072d 83bc 3d32 7ebc
00000050: 3887 4fbb 216e 703a d78f 56bb 2e0b 02bc
00000060: b0dd b13b 20b1 82ba c940 1ebc b509 cb3b
00000070: 1925 edb7 af29 87bb fb5d f9bb bcca 0dba
00000080: 76cb 33bc cdef a0ba 3e02 4fbc 447a d4bb
00000090: 3193 81bb 82fc debb 1648 53bc 65e0 2ebc
000000a0: 024c a4bb c98f 833c d331 91bb 33fb f1bc
000000b0: f7b1 88bb 5576 a0bb 10b8 21bc 6945 ddbb
000000c0: 03a5 e6bc ffdb 66bc 4790 0cbc 64f8 02bc
000000d0: 9cbf d1bc eeed d5bc c75e c8bb 39aa ecbb
000000e0: 1f5f 05b8 ec4c fa3a 358d f5bb 8dab 80bb
000000f0: f94c fabb dc83 44bc 69d9 43bc 4882 15b9
00000100: 9213 383f 065c 963f f960 6f3f 14ea 0d3e
00000110: 3aae 653e c389 5d3e 86d2 393f d69c 3d3f
00000120: 226c 5d3f 4131 883f 8f78 303f babc 6b3f
00000130: cc47 993f 9cc9 333f 4170 2f3f f11c 853f
00000140: f0c3 ae3f 920a 283f 97a2 263f 054e 8e3f
00000150: 350a 823f 2baa 823f 6000 473f 60e1 283f
00000160: 98f7 2f3f c283 483f 1cf4 813f 1362 343f
00000170: 8add 383f 7677 323f cbbb 473f 74a4 3e3f
00000180: b14f 8a3f 7721 403f 33d6 8a3f 8591 843f
00000190: 622d 433f b679 a63f db39 063f 5f70 6d3f
000001a0: 09e4 523f 488e 923f a6b6 433f f06a ee3e
000001b0: 31dd 433e 0968 793f fee6 323f 2c0c 283f
000001c0: 7ddf 233f 5722 6c3f eba7 333f fba5 303f
000001d0: 1d69 203f 66cd 4e3f 1f76 6f3f 9689 323f
000001e0: 13cf 363f 4e0d 333f 6dd5 6d3f 214b aa3d
000001f0: afde 783f 6c13 623e 2351 813f e809 413f

convs.0.linear1.weight f4 [64, 64]
-0.23510663 -0.06273014 -0.23727474 -0.10977357 0.055145834 -0.11504688 -0.25290275 -0.24374266
-0.0882339 -0.029977351 -0.12780239 -0.15228756 -0.25672656 -0.18013416 -0.2902027 -0.362542
0.03168352 -0.2718868 -0.15240766 -0.10814526 -0.2061991 -0.30868652 -0.34471264 0.18808542
-0.20915677 -0.2580514 -0.18674761 -0.27877712 -0.09567634 -0.33786854 -0.27904877 -0.21906708
-0.04653782 -0.017300159 0.14546198 -0.18134654 -0.19217506 -0.223521 0.06449681 0.010027711
-0.29494074 -0.21728274 0.071490884 0.03531959 0.053255085 -0.24972673 -0.3048855 -0.39266452
-0.056212585 0.071286656 -0.35287714 -0.17797439 0.021540858 -0.11456443 -0.097961575 -0.39388135
-0.233739 -0.1688095 0.020131867 0.05835782 -0.15875222 -0.06725536 0.082476504 -0.16354793
-0.118415035 -0.056464624 0.28596866 -0.22903411 -0.05730565 -0.17802975 -0.15630774 0.21006736
0.13275787 -0.031210983 0.021859368 0.11281542 0.15890925 0.101751365 0.11590855 -0.19844712
-0.2291787 -0.16913636 -0.30496812 -0.08520163 0.080616124 -0.09856082 0.012359957 0.03236735
-0.10961507 0.27945957 -0.09306593 -0.065123975 0.12863678 0.3574137 -0.15165986 0.2947917
-0.11699789 0.18264802 -0.097613975 -0.075197175 0.085474946 -0.24512406 0.2145583 0.0933045
-0.018027576 0.07371919 0.2224537 -0.29639187 -0.017581534 -0.2617716 -0.030460702 -0.16819009
0.14016192 0.061196897 -0.11588223 -0.17418753 -0.32977575 0.072253965 0.29684368 -0.16139634
0.12540324 -0.2452251 0.36480796 -0.1932328 0.054100733 0.008347891 0.086279005 0.21742333
0.06757153 0.42829022 0.17716907 0.026197461 0.14135362 -0.24758339 0.2505314 0.43435472
-0.48223636 -0.373689 0.5011597 -0.06830849 0.19409104 0.50949293 0.4061352 0.14440629
-0.49840602 0.30864346 0.22888868 -0.57859623 0.5331057 0.17025201 -0.11204171 -0.4332348
0.27588305 0.49832624 -0.16418011 0.2647046 0.23170298 0.33461136 -0.18517995 -0.12241936
-0.32431895 0.18143857 -0.62383735 0.46809906 -0.19154315 -0.32814357 -0.45727673 -0.6262279
-0.32955727 0.30696437 -0.011357743 0.29119128 -0.43991727 -0.03145952 0.059074134 0.30483115
0.27257332 0.33437133 0.09196868 0.49559316 0.26380375 0.22293787 -0.4761086 0.117316656
0.44277805 0.23042992 -0.33263683 -0.23469418 0.42676234 -0.062834024 -0.49288863 0.23806511
-0.058701932 0.3658089 0.017642552 -0.13225521 -0.08758635 -0.31853676 -0.0055345865 0.14797851
-0.26136753 -0.2774758 0.4789057 -0.21136801 0.07869088 0.58101666 0.41576624 0.063641906
-0.27396873 0.31990364 0.040034432 -0.33488068 0.25821316 -0.08398235 -0.12038948 -0.5993003
-0.0543837 0.20150582 -0.033185676 -0.05368701 0.120587595 0.0686553 -0.12380018 -0.259846
-0.1751226 0.055525333 -0.23270088 0.22597326 -0.017672926 -0.36480194 -0.45641696 -0.32684293
-0.05744078 0.39092126 -0.24098945 0.022181649 -0.29808468 -0.11710856 0.018443799 0.026397733
0.07236215 0.52829725 -0.13430114 0.19200265 0.0206511 -0.04162342 -0.17123199 0.009068486
0.40517318 -0.18156882 -0.23977113 -0.37589112 0.40005177 -0.35797343 -0.22547385 0.2100232
00000000: cbbf 70be a978 80bd 26f8 72be f7d0 e0bd
00000010: 99e0 613d b39d ebbd 787c 81be ad97 79be
00000020: fab3 b4bd 1093 f5bc a1de 02be 45f1 1bbe
00000030: aa71 83be 1775 38be 7395 94be 1b9f b9be
00000040: 94c6 013d bf34 8bbe c110 1cbe 437b ddbd
00000050: db25 53be 290c 9ebe 2d7e b0be 7799 403e
00000060: 312d 56be 501f 84be c43a 3fbe e0bb 8ebe
00000070: f5f1 c3bd 1bfd acbe 7bdf 8ebe 1f53 60be
00000080: 719e 3ebd 10b9 8dbc fcf3 143e e8b2 39be
00000090: 8ac9 44be b0e2 64be e716 843d 454b 243c
000000a0: 7902 97be 5e7f 5ebe d069 923d 46ab 103d
000000b0: 0122 5a3d 5db8 7fbe f419 9cbe 530b c9be
000000c0: 2b3f 66bd bdfe 913d 50ac b4be eb3e 36be
000000d0: 7476 b03c c2a0 eabd 14a0 c8bd d1aa c9be
000000e0: 4759 6fbe 66dc 2cbe 96eb a43c 9c08 6f3d
000000f0: f18f 22be 2ebd 89bd 71e9 a83d 1c79 27be
00000100: 9583 f2bd 7347 67bd 7c6a 923e eb87 6abe
00000110: 54b9 6abd 6e4d 36be 230f 20be e61b 573e
00000120: aef1 073e 2dae ffbc 6b12 b33c c50b e73d
00000130: 1bb9 223e 0563 d03d 7661 ed3d b935 4bbe
00000140: d2ad 6abe 1532 2dbe c824 9cbe 317e aebd
00000150: 111a a53d 41da c9bd 6b81 4a3c a093 043d
00000160: de7d e0bd 5315 8f3e 5a99 bebd b85f 85bd
00000170: 5cb9 033e eefe b63e b94c 1bbe f0ee 963e
00000180: 979c efbd 1508 3b3e d6e9 c7bd fa00 9abd
00000190: 7d0d af3d cd01 7bbe 2cb5 5b3e 6e16 bf3d
000001a0: 91ae 93bc 16fa 963d e7ca 633e adc0 97be
000001b0: 2607 90bc ed06 86be b988 f9bc 063a 2cbe
000001c0: 9b86 0f3e 99a9 7a3d aa53 edbd 375e 32be
000001d0: 5ed8 a8be e3f9 933d e5fb 973e 1545 25be
000001e0: b569 003e 4a1c 7bbe 1cc8 ba3e d2de 45be
000001f0: bb98 5d3d 98c5 083c 0cb3 b03d 39a4 5e3e
00000200: f162 8a3d db48 db3e cf6b 353e 0f9c d63c
00000210: 01bf 103e 8086 7dbe a745 803e be63 de3e
00000220: afe7 f6be 2a54 bfbe 014c 003f 52e5 8bbd
00000230: cdbf 463e 216e 023f f4f0 cf3e 3edf 133e
00000240: 132f ffbe 8406 9e3e cb61 6a3e e21e 14bf
00000250: 9d79 083f 8b56 2e3e 2076 e5bd f4d0 ddbe
00000260: 8b40 8d3e 9e24 ff3e d51e 28be 5d87 873e
00000270: 8c43 6d3e 2e52 ab3e d09f 3dbe 00b7 fabd
00000280: 220d a6be 08cb 393e ceb3 1fbf aeaa ef3e
00000290: e323 44be 6f02 a8be 2d20 eabe 7950 20bf
000002a0: bbbb a8be 6f2a 9d3e d415 3abc 0617 953e
000002b0: d63c e1be b3db 00bd b8f7 713d d412 9c3e
000002c0: bb8e 8b3e b832 ab3e 135a bc3d 63be fd3e
000002d0: 4911 873e d349 643e 82c4 f3be b743 f03d
000002e0: ceb3 e23e d2f5 6b3e 604f aabe ac53 70be
000002f0: 9880 da3e 20af 80bd e65b fcbe 57c7 733e
00000300: 7071 70bd 4e4b bb3e 1d87 903c e96d 07be
00000310: 7960 b3bd 4017 a3be 7a5b b5bb ae87 173e
00000320: f7d1 85be 4f11 8ebe 2133 f53e db70 58be
00000330: af28 a13d 82bd 143f 50df d43e b056 823d
00000340: a145 8cbe 69ca a33e 25fb 233d 7b75 abbe
00000350: 8434 843e f0fe abbd c28e f6bd bf6b 19bf
00000360: 71c1 5ebd 8b57 4e3e b4ed 07bd e9e6 5bbd
00000370: a1f6 f63d 269b 8c3d f38a fdbd 890a 85be
00000380: 5753 33be 886e 633d 2449 6ebe 8965 673e
00000390: d0c6 90bc 52c7 babe 7caf e9be f557 a7be
000003a0: 0647 6bbd d526 c83e f0c5 76be 4ab6 b53c
000003b0: 8e9e 98be 9dd6 efbd 7317 973c 0f40 d83c
000003c0: 9b32 943d 7d3e 073f 3d86 09be 589c 443e
000003d0: 7f2c a93c 527d 2abd 7057 2fbe fd93 143c
000003e0: dc72 cf3e 2ded 39be 9086 75be cd74 c0be
000003f0: 96d3 cc3e 4b48 b7be 9ee2 66be 5210 573e

convs.0.linear1.bias f4 [64]
-0.10770529 0.71250296 0.06019366 0.31981134 0.55060863 0.014073941 -0.066122666 -0.15954229
0.24686943 -0.4611735 0.31013933 -0.10822133 -0.041874383 -0.0056395275 0.1909123 -0.02186947
-0.3240746 -0.018047983 -0.017843207 0.050400198 -0.27538556 -0.15672307 -0.48823202 -0.37924784
0.029800303 0.11509888 -0.67722714 -0.593919 -0.014432923 -0.27912286 -0.025944656 -0.059679493
-0.025821123 0.15315801 0.0014934313 -0.24692486 0.054115407 0.28277782 -0.1677978 -0.026951764
-0.017635712 0.19509576 -0.0029766073 0.006948954 -0.014408105 -0.021871034 -0.019581068 0.45388594
0.09698527 -0.0149357 -0.20392898 -0.18506569 0.250325 -0.65221405 0.3782166 0.69643885
-0.29174387 -0.06634371 -0.30189204 0.07584384 -0.27933714 0.0002604121 0.010473702 0.4463572
00000000: 9794 dcbd 9866 363f a18d 763d 50be a33e
00000010: b0f4 0c3f 6396 663c 526b 87bd 0e5f 23be
00000020: 57cb 7c3e ef1e ecbe 95ca 9e3e 25a3 ddbd
00000030: 7984 2bbd c9cb b8bb 847e 433e 9a27 b3bc
00000040: 1bed a5be 5dd9 93bc eb2b 92bc 7070 4e3d
00000050: 56ff 8cbe 037c 20be 8cf9 f9be c62c c2be
00000060: c41f f43c f6b8 eb3d c25e 2dbf 130b 18bf
00000070: 1178 6cbc 31e9 8ebe e389 d4bc 7c72 74bd
00000080: d286 d3bc 74d5 1c3e 3dbf c33a dfd9 7cbe
00000090: 1ea8 5d3d 41c8 903e 30d3 2bbe f2c9 dcbc
000000a0: c578 90bc 2fc7 473e 2f13 43bb 0db4 e33b
000000b0: f90f 6cbc e22a b3bc 7a68 a0bc bd63 e83e
000000c0: 37a0 c63d deb4 74bc c2d2 50be dc81 3dbe
000000d0: 992a 803e 80f7 26bf 9ba5 c13e d149 323f
000000e0: 745f 95be 36df 87bd 9891 9abe 0454 9b3d
000000f0: 4705 8fbe ec87 8839 e499 2b3c ee88 e43e

convs.0.linear2.weight f4 [64, 64]
0.12966947 -0.48030913 -0.33081025 -0.16379274 -0.033890422 0.046914272 -0.01152575 0.023080012
-0.083656594 0.44051328 -0.09137059 -0.032782983 -0.013128864 0.05474031 -0.25433528 0.32910088
0.066665344 -0.049561188 0.26030615 -0.12075061 -0.5509369 0.18404205 0.68888915 0.24100961
0.22887143 1.0807006 0.37241647 0.72816163 0.82058215 -0.0662366 0.06360373 0.29255918
-0.43328682 -0.09084858 0.25876713 0.052056845 -0.11982519 -0.2441345 0.11209596 -0.06582797
0.22475857 -0.20130903 0.077547 -0.13730584 -0.21920185 0.093938224 -0.08521097 -0.38014117
0.0879559 0.43473113 0.39173782 0.079615556 -0.38485515 0.6080982 -1.0163107 -0.27037117
0.37077338 0.09070389 0.22672135 -0.010779423 0.08054115 0.16912562 0.8435114 -0.13350314
0.12828861 0.255185 -0.25926092 0.025825297 0.004805741 -0.2786552 0.19342282 -0.11808325
0.24784508 0.26588988 0.06824353 0.064259514 -0.007324721 0.093167685 0.20601584 0.1783926
0.03742077 0.13775855 0.03369017 0.1438784 -0.3204967 0.04742385 -0.024255134 -0.09634535
0.41037303 0.4873325 -0.16210344 -0.20342691 -0.03552737 -0.18394971 0.1685896 -0.05065119
-0.21942365 0.07610026 0.03601845 0.12273093 0.09918966 0.122132525 0.3135202 -0.06428182
-0.29382887 -0.13944457 -0.15737355 0.28831333 0.23425134 -0.51689017 0.027724862 0.051527545
-0.09533705 0.0995338 0.0066504735 0.016006911 0.3842174 -0.27756622 0.24438515 0.046717674
0.17992474 -0.029952766 0.19965476 -0.070784144 0.106444925 0.012644772 0.00041989022 -0.08942642
0.37826186 -0.4306388 -1.4311401 -0.86320126 -0.29582557 0.04780324 0.14558437 0.10325337
-0.21496691 0.6477348 0.74551314 0.5006938 0.46354893 0.6830483 -0.92409414 1.4815749
0.41798604 0.572078 -0.2193981 0.21819024 -0.35022882 1.1659069 1.6727356 0.289637
1.0368272 -0.14609727 0.63244945 0.9961509 1.5012299 0.13231702 -0.044395003 0.9898634
-1.3025067 -0.50608313 1.0986325 0.60485387 0.30670083 -0.2955387 0.40718517 -0.66459364
-0.18820713 -0.26381284 -0.15272269 0.4375925 0.29171044 -0.41530496 0.08480389 0.09657707
-0.1638796 0.861221 1.4111879 -0.43441838 -0.3511941 0.9559527 -1.3775089 -0.32818797
0.6539793 -0.2381586 0.83424056 -0.4330103 -0.73466706 -0.21381421 1.3985541 -0.4048835
0.08014527 0.46904787 -0.15843168 0.18585981 0.06852841 -0.023864815 -0.117022514 -0.0994431
-0.028594889 -0.45237473 0.5341826 -0.011825336 0.10618512 0.06373858 -0.10465029 0.19044106
-0.10721249 0.1890925 -0.00015061877 0.14482139 -0.8182312 0.0031661561 -0.16364112 -0.16034195
0.2357584 -0.019370036 -0.427345 -0.4444474 0.017595742 -0.75420487 0.016907953 0.119541645
-0.08549617 0.1089213 0.0697198 -0.08575201 0.08297193 0.07519667 -0.16865206 0.00964878
-0.0017927464 0.057644583 -0.1695574 0.018607453 0.16079561 -0.052732013 0.102899015 0.38295543
-0.011847496 -0.11054875 0.12173069 -0.14632705 0.20853332 -0.46614063 0.50361 0.28259233
-0.033148002 -0.24700327 -0.047316045 0.044184268 -0.40840957 -0.16891031 0.08333618 0.13960436
00000000: 13c8 043e 14eb f5be f65f a9be 49b9 27be
00000010: afd0 0abd 2e29 403d 80d6 3cbc 4b12 bd3c
00000020: 2654 abbd f58a e13e 8120 bbbd 7347 06bd
00000030: 721a 57bc 6037 603d 3c38 82be e97f a83e
00000040: d787 883d ac00 4bbd d946 853e 194c f7bd
00000050: 330a 0dbf 8575 3c3e 0a5b 303f 39cb 763e
00000060: 465d 6a3e 6654 8a3f 5fad be3e cd68 3a3f
00000070: ac11 523f 0ea7 87bd ac42 823d 51ca 953e
00000080: c5d7 ddbe d20e babd 207d 843e 8f39 553d
00000090: e966 f5bd 65fe 79be 9192 e53d d1d0 86bd
000000a0: 1c27 663e f423 4ebe f6d0 9e3d e799 0cbe
000000b0: 7376 60be af62 c03d 1783 aebd dda1 c2be
000000c0: 3922 b43d 1495 de3e dc91 c83e 7b0d a33d
000000d0: bc0b c5be 53ac 1b3f 7816 82bf 176e 8abe
000000e0: 02d6 bd3e f6c2 b93d a429 683e 2d9c 30bc
000000f0: c2f2 a43d 442f 2d3e 5df0 573f 0cb5 08be
00000100: 175e 033e 9ca7 823e d9bd 84be 938f d33c
00000110: 7a79 9d3b e5ab 8ebe a210 463e a2d5 f1bd
00000120: 1acb 7d3e b822 883e 44c3 8b3d 7e9a 833d
00000130: 3704 f0bb b3ce be3d d1f5 523e 8dac 363e
00000140: 8546 193d 9410 0d3e b4fe 093d dc54 133e
00000150: 2518 a4be 833f 423d b4b2 c6bc b650 c5bd
00000160: 6a1c d23e a583 f93e 72fe 25be 254f 50be
00000170: 2685 11bd 505d 3cbe c1a2 2c3e 9f77 4fbd
00000180: 98b0 60be 74da 9b3d 1588 133d 5b5a fb3d
00000190: f323 cb3d 9e20 fa3d b885 a03e 30a6 83bd
000001a0: bd70 96be 8fca 0ebe 8826 21be ce9d 933e
000001b0: 95df 6f3e ea52 04bf 401f e33c 8c0e 533d
000001c0: 1240 c3bd 60d8 cb3d 37ec d93b ed20 833c
000001d0: 25b8 c43e 291d 8ebe 1a40 7a3e 085b 3f3d
000001e0: 313e 383e 815f f5bc 4c72 4c3e 47f7 90bd
000001f0: ccff d93d 052c 4f3c b624 dc39 3325 b7bd
00000200: 8aab c13e b07c dcbe 992f b7bf c2fa 5cbf
00000210: 7376 97be 55cd 433d 1214 153e 8176 d33d
00000220: 4920 5cbe f3d1 253f f3d9 3e3f 782d 003f
00000230: 4956 ed3e 41dc 2e3f 6f91 6cbf 3fa4 bd3f
00000240: 4402 d63e b473 123f e5a9 60be 436d 5f3e
00000250: 3151 b3be 703c 953f 331c d63f 4d4b 943e
00000260: c1b6 843f 869a 15be 35e8 213f bf03 7f3f
00000270: 4d28 c03f 1d7e 073e 89d7 35bd b067 7d3f
00000280: 8ab8 a6bf aa8e 01bf fd9f 8c3f b4d7 1a3f
00000290: e407 9d3e d950 97be 937a d03e cf22 2abf
000002a0: 5fb9 40be 7a12 87be 5663 1cbe 200c e03e
000002b0: 125b 953e daa2 d4be a9ad ad3d 33ca c53d
000002c0: 0ed0 27be fb78 5c3f cea1 b43f 166c debe
000002d0: b7cf b3be 51b9 743f 3652 b0bf 4108 a8be
000002e0: 306b 273f d9df 73be ca90 553f 87b3 ddbe
000002f0: 2413 3cbf 1df2 5abe d203 b33f e44c cfbe
00000300: 3423 a43d 0b27 f03e ea3b 22be 0952 3e3e
00000310: 9f58 8c3d 2580 c3bc 80a9 efbd d3a8 cbbd
00000320: d43f eabc a99d e7be 31c0 083f 0ebf 41bc
00000330: 9677 d93d 5f89 823d e452 d6bd fb02 433e
00000340: 3992 dbbd 77a1 413e 6bef 1db9 0f4c 143e
00000350: 9a77 51bf 497f 4f3b 8a91 27be ae30 24be
00000360: a66a 713e e9ad 9ebc f7cc dabe 9c8e e3be
00000370: f224 903c 9213 41bf 8c82 8a3c 40d2 f43d
00000380: 9e18 afbd 2112 df3d 41c9 8e3d c09e afbd
00000390: 30ed a93d b600 9a3d 20b3 2cbe eb15 1e3c
000003a0: 96fa eaba ba1c 6c3d 74a0 2dbe a86e 983c
000003b0: 9ba7 243e 86fd 57bd b8bc d23d bc12 c43e
000003c0: 001c 42bc 6267 e2bd f14d f93d c2d6 15be
000003d0: c289 553e fca9 eebe 96ec 003f f1af 903e
000003e0: 33c6 07bd 6dee 7cbe 78ce 41bd 90fa 343d
000003f0: 0f1b d1be d3f6 2cbe 29ac aa3d 72f4 0e3e

convs.0.linear2.bias f4 [64]
-0.6293833 0.24027799 -0.2949421 0.7596633 -0.33978167 0.88261163 0.1750076 -0.21026686
0.026982728 0.6782723 0.15896757 -0.28945133 0.28711832 -0.032810148 -0.32029313 0.17620322
1.3509487 0.13685362 -0.21856815 -0.7278811 -0.30055824 0.31726667 -0.10449348 0.26540238
-0.7259051 0.0013718011 -0.31467232 0.15572953 0.26759595 0.1582391 -0.20118599 -0.27639493
0.15284258 -0.3173006 -0.11410351 0.103736386 0.18239813 0.04124065 -0.1782272 -0.363525
0.20055953 -0.25778723 0.0752945 -0.45571578 -0.12135429 -0.23986031 0.1366905 -0.37840012
-0.20350005 0.1629299 -0.06080961 -0.03545856 0.23251224 -0.45867038 -0.4381788 0.044661958
0.23433633 -0.05809669 0.26274693 -0.1657175 0.24326715 0.025078643 -0.08718582 -0.14662209
00000000: 441f 21bf 6f0b 763e a702 97be 4b79 423f
00000010: ddf7 adbe d6f2 613f 3135 333e 3250 57be
00000020: e20a dd3c 41a3 2d3f 65c8 223e f732 94be
00000030: 2c01 933e ef63 06bd 76fd a3be 9e6e 343e
00000040: e3eb ac3f 5b23 0c3e 54d0 5fbe 6a56 3abf
00000050: c5e2 99be c770 a23e ad00 d6bd d2e2 873e
00000060: ebd4 39bf 02ce b33a bb1c a1be 9077 1f3e
00000070: 5602 893e 6e09 223e b303 4ebe a383 8dbe
00000080: c482 1c3e 3975 a2be 1aaf e9bd be73 d43d
00000090: 93c6 3a3e f5eb 283d 3181 36be f31f babe
000000a0: 7a5f 4d3e b0fc 83be 0134 9a3d 9453 e9be
000000b0: 9988 f8bd f19d 75be 98f8 0b3e a9bd c1be
000000c0: 5162 50be 19d7 263e 7f13 79bd ff3c 11bd
000000d0: b017 6e3e d8d6 eabe f958 e0be 75ef 363d
000000e0: ddf5 6f3e cbf6 6dbd c486 863e d9b1 29be
000000f0: 061b 793e ba71 cd3c 7b8e b2bd 1a24 16be

convs.1.a f4 [128, 1]
0.00017945051 0.013388134 -7.168008e-06 -0.023625128 2.5142137e-07 -0.022041054 6.77705e-05 3.865802e-06
0.0037614375 -0.057054304 0.03730129 -9.63216e-06 0.005797905 0.018892482 -0.00027987658 0.030195067
-0.080806956 9.7646145e-05 0.00030607954 -6.2991226e-06 4.72747e-07 -0.002171945 -0.011747063 0.011340757
-2.9756487e-05 1.3136387e-06 1.20689565e-05 -0.0020685368 0.04960666 0.04262302 0.005594833 -3.4791025e-05
0.004496482 -5.4481443e-06 -1.2834893e-08 -0.0029711323 -0.031172922 0.060954805 0.033420417 6.323985e-06
0.036619518 3.52001e-05 0.016612563 1.7144871e-06 1.4845883e-06 1.6365651e-05 -0.0051186834 1.233182e-06
-4.8821086e-05 0.052591905 0.064229846 0.018417304 0.0005672931 -4.3396235e-06 -1.33735075e-05 1.9939363e-05
0.0013617006 0.008540092 0.050003245 8.8735214e-07 0.039371837 0.057318144 2.3327211e-05 -0.00018309639
1.8621963 0.42400184 5.515683 -0.33406407 3.598114 -0.3094909 1.7482115 4.2452464
0.5088735 -0.28354046 -0.011721504 4.0617685 -0.02177504 -0.9033482 0.21006176 -0.018430704
-0.36333847 2.0524979 1.3225365 5.820204 5.7668247 0.19063647 0.016837578 -0.042298667
3.0749555 5.3629417 5.4782257 -0.0022180276 -0.6297626 0.28208038 1.0728923 5.6733236
0.08542729 5.1853437 5.208172 0.699698 -0.50847375 0.055329695 0.5258161 5.586754
0.085657984 1.5534592 0.20592225 5.086632 5.418676 4.6743894 -1.2681757 4.9037213
2.3702924 0.077340156 0.5463779 1.0239524 0.25369295 5.381719 5.2320757 0.8403897
-1.2524107 0.86236733 0.24654147 5.3231945 0.24240689 0.12517339 5.110641 1.3782986
00000000: e12a 3c39 e759 5b3c b884 f0b6 7c89 c1bc
00000010: 17fb 8634 718f b4bc 0320 8e38 fcb6 8136
00000020: 7382 763b c6b1 69bd 3dc9 183d d099 21b7
00000030: 5afc bd3b 68c4 9a3c 66bc 92b9 a55b f73c
00000040: 1e7e a5bd 60c7 cc38 4d79 a039 0d5d d3b6
00000050: dacd fd34 3157 0ebb c176 40bc 95ce 393c
00000060: 929d f9b7 4850 b035 c67b 4a37 4a90 07bb
00000070: 5a30 4b3d 7a95 2e3d dc54 b73b 94ec 11b8
00000080: 3a57 933b 34cf b6b6 7580 5cb2 54b7 42bb
00000090: 5b5e ffbc bfab 793d d9e3 083d 9e32 d436
000000a0: 59fe 153d d2a3 1338 1217 883c 541d e635
000000b0: 1142 c735 f848 8937 a1ba a7bb d083 a535
000000c0: 3ec5 4cb8 9c6a 573d f08a 833d e3df 963c
000000d0: 65b6 143a 159d 91b6 c75e 60b7 7543 a737
000000e0: 177b b23a beeb 0b3c 34d0 4c3d 6032 6e35
000000f0: 5d44 213d 6ec6 6a3d ceae c337 90fd 3fb9
00000100: 735c ee3f c516 d93e 7a80 b040 720a abbe
00000110: 8047 6640 9775 9ebe 65c5 df3f 0fd9 8740
00000120: 8945 023f 372c 91be 8d0b 40bc 02fa 8140
00000130: 9261 b2bc d441 67bf 6e1a 573e fdfb 96bc
00000140: 8007 babe 205c 0340 e048 a93f 1c3f ba40
00000150: d489 b840 3536 433e f6ee 893c 5e41 2dbd
00000160: 12cc 4440 389d ab40 a04d af40 545c 11bb
00000170: 1f38 21bf d76c 903e 8954 893f de8b b540
00000180: 81f4 ae3d 56ee a540 58a9 a640 681f 333f
00000190: 562b 02bf 64a1 623d e29b 063f b0c6 b240
000001a0: 746d af3d c0d7 c63f 48dd 523e b0c5 a240
000001b0: cb65 ad40 9994 9540 9553 a2bf 49eb 9c40
000001c0: dfb2 1740 8464 9e3d 6cdf 0b3f df10 833f
000001d0: 0be4 813e 0b37 ac40 2a6d a740 c823 573f
000001e0: fe4e a0bf 1bc4 5c3f 5e75 7c3e 9c57 aa40
000001f0: 8339 783e 742d 003e 5f8a a340 176c b03f

convs.1.linear1.weight f4 [64, 64]
1.7222316 -0.00079791603 1.7902591 1.2845277 1.2962769 0.9743678 1.2581488 1.1270576
1.1225331 0.78906626 0.10564393 2.0808322 0.4889673 -0.016172957 -0.5587202 0.4110398
1.2198586 1.1846579 0.93361765 2.2091873 1.8416845 0.5069173 0.4855733 0.42741024
1.7386595 2.0871038 1.8880965 0.31010777 -0.30664775 0.30686575 0.6700211 1.9050668
0.49593276 2.5921261 1.4631214 0.20056263 -0.31662884 0.3978839 0.5818058 1.8743483
0.49155602 1.6711435 0.048644874 2.2792077 1.9860265 1.3259764 -0.0992675 1.2561246
0.915116 0.23938885 0.14360774 0.67133373 0.03134269 2.6247177 1.4260805 1.0597408
-0.42502645 0.70276076 0.3786518 1.769461 0.026462715 0.120040484 1.9226058 1.125151
1.9427943 -0.31783947 1.8985275 0.77385724 1.340265 1.0437435 0.88946134 0.63139373
1.4422868 0.8600971 -0.074494794 2.5552294 -0.09732299 -0.52279925 -0.85236984 0.15595722
1.447303 1.206338 1.0192904 2.7276447 1.5926781 0.3100508 0.26665866 -0.08896596
1.7094694 1.8975765 2.122407 -0.052685436 -0.64858055 0.13255356 1.0667117 2.2502224
0.2651681 3.0171492 1.7062736 0.038647454 -0.583609 0.2011531 0.45627266 2.3219075
0.6872777 1.5956047 -0.21675941 2.2941358 2.1238885 0.90490335 -0.5797857 1.3288466
0.9411317 0.26376754 -0.21715029 0.77348745 -0.32884362 2.8575442 1.1987513 0.64021
-0.9042313 0.9944623 0.17125297 1.8462627 -0.30265477 -0.23611195 2.0579 0.9228147
1.7640806 -0.18533258 1.6044058 1.1209712 1.1974449 0.8752318 1.1838497 0.91054744
1.0600985 0.6296656 0.19397014 2.0824966 0.40826643 -0.16301024 -0.7266895 0.15619507
1.3161633 1.276346 0.93722034 2.1861978 1.7445897 0.4331575 0.35769802 0.25868645
1.4918321 1.8340393 1.7809249 0.0303658 -0.45841336 0.19537121 0.835652 1.8817621
0.24204673 2.4340456 1.4620333 0.24580282 -0.17272791 0.38076487 0.49294192 1.9444942
0.35351878 1.5597773 0.054059222 2.192117 1.799735 1.4487292 -0.047980234 1.3572568
0.8325453 0.28672436 0.07920853 0.7945875 -0.14842492 2.4649398 1.3059198 0.977021
-0.43741602 0.8612865 0.33002317 1.6736549 -0.05166143 0.114214994 1.7510638 1.086486
-0.8729042 0.11020579 -0.28482202 -0.85721725 -0.37779257 -0.66705996 -0.17427586 0.053569756
-0.13972914 -0.5892219 0.08117612 -0.68049264 -0.20964053 0.5139775 0.40163675 -0.09378183
-0.9391123 -0.19842413 -0.4821859 -0.52391523 -0.22967185 -0.108658984 -0.045342885 0.047238488
-0.6114188 -0.10850091 -0.5264168 0.043598965 0.0952224 -0.0654616 -0.0030260885 -0.5585453
0.08993519 -0.37805337 -0.3742242 -0.108907916 0.023427844 0.037968367 0.05363269 -0.6936645
-0.039533634 -0.93615675 0.31078082 -0.28385884 -0.4218873 -0.24040246 0.6583598 -0.36258796
-0.26083714 -0.038765103 0.33230633 -0.07220212 0.07458566 -0.6188646 -0.13766462 -0.0317441
-0.025374675 -0.050533064 0.09561565 -0.5078447 -0.019459786 -0.0035433697 -0.22979502 -0.62969106
00000000: 1672 dc3f 3d2b 51ba 3627 e53f 676b a43f
00000010: 67ec a53f 2b70 793f 050b a13f 6c43 903f
00000020: 2aaf 8f3f 3f00 4a3f d85b d83d 5b2c 0540
00000030: ec59 fa3e 267d 84bc 4908 0fbf cf73 d23e
00000040: 5424 9c3f dfa2 973f 9101 6f3f 5363 0d40
00000050: 51bc eb3f 55c5 013f 109d f83e 84d5 da3e
00000060: 658c de3f 1c93 0540 25ad f13f 72c6 9e3e
00000070: ef00 9dbe 821d 9d3e 8186 2b3f 3bd9 f33f
00000080: e6ea fd3e 65e5 2540 9047 bb3f 4a60 4d3e
00000090: 2d1d a2be 70b7 cb3e 3af1 143f a5ea ef3f
000000a0: 3bad fb3e 08e8 d53f d93f 473d 8ade 1140
000000b0: 1e36 fe3f 98b9 a93f c24c cbbd b1c8 a03f
000000c0: 0b45 6a3f 5a22 753e e80d 133e 87dc 2b3f
000000d0: 3161 003d 60fb 2740 ce89 b63f 96a5 873f
000000e0: 119d d9be 21e8 333f a6de c13e b37d e23f
000000f0: 56c8 d83c c9d7 f53d f217 f63f f304 903f
00000100: 7cad f83f dbbb a2be f302 f33f 821b 463f
00000110: ce8d ab3f 6399 853f bdb3 633f 05a3 213f
00000120: db9c b83f 532f 5c3f ba90 98bd e188 2340
00000130: 4751 c7bd 2cd6 05bf e934 5abf 40b3 1f3e
00000140: 3a41 b93f 4969 9a3f 1c78 823f bb91 2e40
00000150: e0dc cb3f fabe 9e3e 7c87 883e c933 b6bd
00000160: e5cf da3f c9e3 f23f 84d5 0740 afcc 57bd
00000170: 6009 26bf 1fbc 073e 028a 883f a503 1040
00000180: 1dc4 873e f918 4140 2c67 da3f cb4c 1e3d
00000190: 6667 15bf 14fb 4d3e 929c e93e 229a 1440
000001a0: 6ef1 2f3f c63c cc3f 2ef6 5dbe 1fd3 1240
000001b0: caed 0740 bfa7 673f d66c 14bf a517 aa3f
000001c0: 02ee 703f 8a0c 873e a55c 5ebe 4603 463f
000001d0: 315e a8be 01e2 3640 af70 993f cde4 233f
000001e0: b47b 67bf 1595 7e3f f05c 2f3e 5652 ec3f
000001f0: 91f5 9abe 55c7 71be a2b4 0340 963d 6c3f
00000200: 65cd e13f d3c7 3dbe 2b5d cd3f fc7b 8f3f
00000210: e045 993f 310f 603f 6388 973f a319 693f
00000220: 4fb1 873f c431 213f 1ca0 463e a047 0540
00000230: 4c08 d13e 28ec 26be 5308 3abf 9af1 1f3e
00000240: 0a78 a83f 4e5f a33f aced 6f3f aaea 0b40
00000250: b74e df3f d2c6 dd3e 3224 b73e 8d72 843e
00000260: 5bf4 be3f cdc1 ea3f 59f5 e33f b3c1 f83c
00000270: 28b5 eabe 640f 483e 4aed 553f 95dd f03f
00000280: 19db 773e 67c7 1b40 e823 bb3f bcb3 7b3e
00000290: 96df 30be 9df3 c23e e262 fc3e 30e5 f83f
000002a0: 6a00 b53e c8a6 c73f 346d 5d3d a54b 0c40
000002b0: b75d e63f f56f b93f ec86 44bd 97ba ad3f
000002c0: b021 553f 89cd 923e 1538 a23d 166a 4b3f
000002d0: b4fc 17be 93c1 1d40 6128 a73f 0c1e 7a3f
000002e0: fef4 dfbe 467d 5c3f ccf8 a83e 533a d63f
000002f0: f09a 53bd 8de9 e93d dc22 e03f f911 8b3f
00000300: a676 5fbf 93b3 e13d 31d4 91be 9772 5bbf
00000310: 076e c1be 71c4 2abf 5f75 32be f66b 5b3d
00000320: 2815 0fbe 3fd7 16bf aa3f a63d c434 2ebf
00000330: 02ac 56be 0894 033f 55a3 cd3e b010 c0bd
00000340: aa69 70bf b22f 4bbe 12e1 f6be 4f1f 06bf
00000350: 192f 6bbe 9a88 debd 76b9 39bd 257d 413d
00000360: f185 1cbf ba35 debd 40c3 06bf d494 323d
00000370: f603 c33d bb10 86bd 5751 46bb d3fc 0ebf
00000380: f12f b83d 3690 c1be 509a bfbe 1d0b dfbd
00000390: c0eb bf3c b884 1b3d f4ad 5b3d ff93 31bf
000003a0: 05ee 21bd f8a7 6fbf aa1e 9f3e f255 91be
000003b0: 9d01 d8be 102c 76be 458a 283f 21a5 b9be
000003c0: 728c 85be 28c8 1ebd 0e24 aa3e b5de 93bd
000003d0: 5ec0 983d e96d 1ebf f4f7 0cbe 1a06 02bd
000003e0: 8dde cfbc c2fb 4ebd 23d2 c33d 1c02 02bf
000003f0: 216a 9fbc e137 68bb 634f 6bbe 6f33 21bf

convs.1.linear1.bias f4 [64]
0.0091009475 -0.03804765 0.009754571 0.0047336775 -0.06702467 -0.056759942 -0.0036037378 0.043356583
-0.010933159 -0.011345414 -0.03567147 -0.023510978 -0.027795741 0.026020596 -0.06369818 -0.006228583
0.14098689 -0.08339476 -0.004138618 0.13610527 0.014781782 0.048266996 0.11724077 0.009649338
-0.04115226 0.19042161 -0.010191347 -0.013436343 0.06550203 0.09664891 -0.06238491 -0.030251106
0.025835155 -0.018503195 0.04334433 0.015495215 0.032096032 -0.07952343 0.0132991 0.014883562
0.008416763 0.01620866 0.05995632 0.02248691 -0.027737593 -0.0659396 -0.007478596 0.014046526
0.022535853 0.033860564 0.016090382 0.073817976 -0.03981199 -0.026806628 0.010969758 0.0018634227
0.13541302 0.005663599 0.04340849 -0.06400956 -0.009792324 0.02333599 0.015042448 0.016327405
00000000: 241c 153c dad7 1bbd a3d1 1f3c f71c 9b3b
00000010: 3b44 89bd 1d7d 68bd b02c 6cbb ac96 313d
00000020: fe20 33bc 1ee2 39bc 3f1c 12bd 189a c0bc
00000030: e5b3 e3bc 2529 d53c 3174 82bd 2419 ccbb
00000040: de5e 103e dfca aabd 3e9d 87bb 2e5f 0b3e
00000050: 4a2f 723c 9db3 453d ee1b f03d 4218 1e3c
00000060: 468f 28bd e2fd 423e 9cf9 26bc 1b24 5cbc
00000070: ee25 863d ddef c53d 5287 7fbd 2bd1 f7bc
00000080: 3fa4 d33c 0394 97bc d389 313d a4df 7d3c
00000090: 2177 033d 2edd a2bd 78e4 593c 2fda 733c
000000a0: 76e6 093c 06c8 843c c294 753d 7836 b83c
000000b0: f339 e3bc 570b 87bd 030f f5bb 6623 663c
000000c0: 1c9d b83c 60b1 0a3d facf 833c e12d 973d
000000d0: e611 23bd 9399 dbbc 80ba 333c 173e f43a
000000e0: b6a9 0a3e b695 b93b 1acd 313d 7217 83bd
000000f0: fc6f 20bc 1e2b bf3c 9a74 763c 0dc1 853c

convs.1.linear2.weight f4 [64, 64]
0.05604111 -0.7620726 -0.062444746 0.5269928 -0.34183124 -0.23879863 -0.22963166 0.25612926
0.056433186 -0.08463718 -0.10460412 0.0015527782 0.12953325 0.19036993 0.029965589 -0.08748845
0.52772886 -0.29702845 0.037906192 0.60394186 0.23270379 0.23221762 0.30214605 0.13275455
-0.26920485 0.75216126 -0.061896663 -0.054853216 -0.08347923 0.5078759 -0.5763549 -0.22218478
0.010442678 -0.041507952 0.018732332 -0.017337257 0.21818915 -0.27104044 0.14319369 -0.0013109007
0.09345347 0.040610947 0.1868557 0.19820407 0.024397794 -0.10176707 0.10482352 0.31112128
0.6969699 -0.11184479 -0.06010772 0.42187244 -0.023086863 -0.30646607 0.07323941 0.11157587
0.48185766 0.093614854 -0.09679789 -0.7464665 -0.08725758 -0.063049294 0.029401671 0.15965715
-0.33715463 -0.66793644 -0.11800436 -0.11037388 -0.63146967 -0.42733157 -0.09720989 -0.048576046
0.16430879 -0.21579461 -0.2093855 0.18176228 0.071300246 0.06201944 -0.014051651 0.1272625
0.33440912 -0.07029321 0.16239254 0.3310368 0.14383936 0.21234424 0.37642926 0.2411013
-0.27107763 0.83339536 0.1856565 -0.3052605 -0.23387562 0.4481185 -0.6046176 -0.25840196
0.111548334 0.22981709 -0.23468456 -0.23789626 0.2574643 -0.053768266 0.20677905 0.17745936
0.24794175 0.010141884 0.5589378 0.11710489 0.042569526 -0.63035035 0.17371619 0.1510321
0.27864224 0.3029237 0.30256593 0.28928757 -0.008095845 -0.16579302 0.1203097 0.056504708
0.3623386 0.15419936 0.2168181 -0.59037054 -0.27484688 0.27470705 -0.17004213 -0.026077233
-0.0718777 -0.06479155 -0.10136306 0.093477055 -0.22430661 -0.054410312 -0.093987584 0.21183605
0.24296355 -0.0011613845 -0.24725829 0.16984735 0.14791824 0.31458738 0.26701376 0.24524558
0.25276104 -0.031659827 0.05137561 0.19982998 0.08959244 0.30625972 0.095535874 0.2294998
-0.16375466 0.15477282 0.2447438 -0.19874114 0.01392786 0.55744153 -0.08660205 -0.11424103
0.2889612 0.092720725 -0.12827034 0.13262978 0.32976505 -0.10514965 0.09503443 0.045180414
0.10570441 0.11641278 0.28356037 0.06201699 0.15408216 -0.21539317 0.053330008 0.31129628
0.35399228 0.29454857 0.2385993 0.522129 0.1764768 -0.27044973 0.22308148 0.0911425
0.17959733 0.16558543 0.2697887 -0.11118085 -0.14433648 0.08290455 -0.13260327 0.2923961
-0.08079213 -0.49309394 -0.12699594 0.49298146 -0.3213973 -0.1484161 -0.09104959 0.19071205
-0.038226344 -0.14824441 -0.15843058 0.03618882 -0.0673495 0.14214718 -0.009911505 0.13936149
0.43000793 -0.3428893 -0.11043247 0.5291206 0.121917255 0.05288633 0.4177537 0.023562774
-0.3135394 0.9265448 0.06313834 -0.054720305 -0.0516155 0.43489683 -0.6049297 -0.24796951
0.21007648 -0.10092882 0.011233921 0.18863767 0.035423115 -0.33258086 -0.010720005 0.025943406
0.21670482 0.15163758 0.046110205 0.095214866 -0.029143432 -0.20353906 0.12959969 0.28235653
0.53182995 0.10451683 0.08289336 0.22642899 0.008273346 -0.17008598 -0.07176699 -0.045193054
0.5760933 -0.0058355983 0.11268207 -0.6240253 -0.05248024 0.020872261 0.045430474 0.00388984
00000000: 5d8b 653d 3117 43bf 10c6 7fbd 00e9 063f
00000010: 8104 afbe a187 74be 9024 6bbe 6023 833e
00000020: 7c26 673d 4256 adbd af3a d6bd 9786 cb3a
00000030: 5da4 043e 56f0 423e 657a f53c 252d b3bd
00000040: 3d19 073f 1d14 98be 8643 1b3d ef9b 1a3f
00000050: e749 6e3e 75ca 6d3e e3b2 9a3e cff0 073e
00000060: 38d5 89be a48d 403f 5b87 7dbd c4ad 60bd
00000070: 29f7 aabd 2804 023f ff8b 13bf 6884 63be
00000080: c417 2b3c 3e04 2abd 8c74 993c dd06 8ebc
00000090: fa6c 5f3e d0c5 8abe 5ea1 123e 87d2 abba
000000a0: 8864 bf3d aa57 263d 1a57 3f3e 02f6 4a3e
000000b0: e2dd c73c 416b d0bd b7ad d63d 4a4b 9f3e
000000c0: 9f6c 323f e20e e5bd 8333 76bd aaff d73e
000000d0: a920 bdbc 1fe9 9cbe 8bfe 953d e481 e43d
000000e0: 0cb6 f63e 25b9 bf3d f93d c6bd 6e18 3fbf
000000f0: 1ab4 b2bd fd1f 81bd c6db f03c 2a7d 233e
00000100: 889f acbe e2fd 2abf 45ac f1bd b30b e2bd
00000110: ffa7 21bf 34cb dabe fb15 c7bd adf7 46bd
00000120: 9040 283e 43f9 5cbe 2769 56be e41f 3a3e
00000130: dd05 923d 1908 7e3d e538 66bc 1a51 023e
00000140: ac37 ab3e e3f5 8fbd 3b4a 263e a87d a93e
00000150: a04a 133e c570 593e 56bb c03e 42e3 763e
00000160: b0ca 8abe 6659 553f bd1c 3e3e 1b4b 9cbe
00000170: 177d 6fbe ca6f e53e 38c8 1abf 434d 84be
00000180: 7473 e43d 2c55 6b3e 2651 70be 149b 73be
00000190: 5cd2 833e 1d3c 5cbd e3bd 533e e8b7 353e
000001a0: 71e4 7d3e 252a 263c 8c16 0f3f b0d4 ef3d
000001b0: 625d 2e3d a45e 21bf a8e2 313e 29a8 1a3e
000001c0: 32aa 8e3e d118 9b3e ece9 9a3e 801d 943e
000001d0: 6fa4 04bc a5c5 29be ef64 f63d 7b71 673d
000001e0: 7284 b93e 70e6 1d3e 9005 5e3e 8622 17bf
000001f0: bbb8 8cbe 67a6 8c3e 861f 2ebe ec9f d5bc
00000200: 9e34 93bd 6fb1 84bd 7097 cfbd e670 bf3d
00000210: a2b0 65be 59dd 5ebd 907c c0bd 8deb 583e
00000220: 70cb 783e 9939 98ba 4731 7dbe 77ec 2d3e
00000230: e177 173e 9911 a13e 07b6 883e a821 7b3e
00000240: e569 813e bcad 01bd 3b6f 523d 3ba0 4c3e
00000250: 3e7c b73d 13ce 9c3e 50a8 c33d ff01 6b3e
00000260: 4daf 27be c47c 1e3e 1e9e 7a3e cc82 4bbe
00000270: ae31 643c 7db4 0e3f 6a5c b1bd 33f7 e9bd
00000280: b9f2 933e 5de4 bd3d 4d59 03be 1ad0 073e
00000290: f7d6 a83e b358 d7bd 69a1 c23d 190f 393d
000002a0: 8e7b d83d d369 ee3d d32e 913e 8705 7e3d
000002b0: b7c7 1d3e 0790 5cbe 9170 5a3d 3a62 9f3e
000002c0: 7a3e b53e 12cf 963e 6053 743e 3faa 053f
000002d0: 56b6 343e 6378 8abe 796f 643e eba8 ba3d
000002e0: 5de8 373e 3a8f 293e bf21 8a3e c9b2 e3bd
000002f0: f1cc 13be dcc9 a93d 27c9 07be f1b4 953e
00000300: 5876 a5bd cf76 fcbe 390b 02be 1168 fc3e
00000310: 308e a4be 64fa 17be 3578 babd 054a 433e
00000320: 3a93 1cbd 62cd 17be a03b 22be ba3a 143d
00000330: 89ee 89bd 088f 113e dd63 22bc c7b4 0e3e
00000340: 002a dc3e 308f afbe 6b2a e2bd 7374 073f
00000350: c1af f93d 569f 583d d0e3 d53e b806 c13c
00000360: 3c88 a0be 0a32 6d3f ad4e 813d 6622 60bd
00000370: c66a 53bd ccaa de3e acdc 1abf b8eb 7dbe
00000380: 4a1e 573e c5b3 cebd 7b0e 383c 3c2a 413e
00000390: d417 113d 0a48 aabe f6a2 2fbc 4487 d43c
000003a0: dee7 5d3e e246 1b3e 0ede 3c3d 0300 c33d
000003b0: 35be eebc 8b6c 50be c8b5 043e 0991 903e
000003c0: 0226 083f eb0c d63d fec3 a93d 00dd 673e
000003d0: ee8c 073c 052b 2ebe 92fa 92bd 5a1c 39bd
000003e0: da7a 133f 8c38 bfbb dbc5 e63d 1fc0 1fbf
000003f0: 85f5 56bd 4efc aa3c 4e15 3a3d b0ec 7e3b

convs.1.linear2.bias f4 [64]
-0.019011425 -0.011079749 -0.073048055 0.0019145585 0.098883025 0.09671633 0.099878885 -0.011375191
-0.010034087 -0.021472767 0.122878656 -0.10401428 0.024721192 0.04584525 0.13139744 0.10942004
-0.050078474 0.16221128 -0.06466481 -0.045337815 -0.009086189 0.09723576 0.116450205 0.01052627
-0.050094876 0.119297944 -0.021634022 0.026487987 -0.008138389 -0.014483912 0.03133796 -0.01108313
-0.13153553 0.07542515 -0.007831576 0.016102009 -0.10751941 0.10539653 0.023971416 0.09546495
0.1076444 0.076995924 -0.034130115 0.09896537 0.04200731 0.06073828 0.17635657 0.08812971
0.02574181 0.0029335562 -0.021103285 -0.017390387 -0.020804089 0.110189416 -0.07255036 0.08424389
0.14558831 0.16962229 0.0059569413 -0.06619976 -0.08134733 -0.04830793 0.12588811 0.00020847554
00000000: d9bd 9bbc d687 35bc 389a 95bd ecf1 fa3a
00000010: 2f83 ca3d 3613 c63d 4d8d cc3d 025f 3abc
00000020: 0366 24bc a8e7 afbc cea7 fb3d 7005 d5bd
00000030: 1984 ca3c 3bc8 3b3d 0d8d 063e 9d17 e03d
00000040: 161f 4dbd b71a 263e fc6e 84bd 25b4 39bd
00000050: 3dde 14bc 8b23 c73d 727d ee3d 6076 2c3c
00000060: 4930 4dbd 7b52 f43d d539 b1bc 56fd d83c
00000070: e156 05bc ee4d 6dbc 3c5c 003d 0496 35bc
00000080: 40b1 06be 8078 9a3d 0350 00bc 5ce8 833c
00000090: 2333 dcbd 23da d73d b45f c43c 2183 c33d
000000a0: ab74 dc3d 0ab0 9d3d 05cc 0bbd 5bae ca3d
000000b0: db0f 2c3d b4c8 783d d196 343e 597d b43d
000000c0: 7de0 d23c e840 403b cce0 acbc 4976 8ebc
000000d0: 566d aabc fdaa e13d 4895 94bd 1088 ac3d
000000e0: 1a15 153e 77b1 2d3e 7232 c33b bd93 87bd
000000f0: 6e99 a6bd 89de 45bd d0e8 003e 3a9a 5a39

mlp1.weight f4 [64, 192]
-0.17746684 0.038304675 0.05848535 0.15951541 -0.012830185 0.18490931 0.07245599 0.077827975
0.18579598 0.22002526 0.030143669 0.064132676 -0.014052248 0.038483668 -0.0096209375 0.11400633
0.16744505 -0.06338938 -0.09719997 0.26262927 0.061333507 0.20681548 0.18095222 -0.09644636
0.15476602 -0.016525231 -0.23536226 0.17034027 -0.03294052 -0.06799517 -0.22957186 -0.18435463
-0.1968572 0.07811175 0.20662227 0.069253005 0.035455845 0.26018474 0.19682878 0.26328
-0.14519368 0.081287496 -0.17958099 0.029930247 -0.05668743 0.13031498 -0.23298359 -0.14223485
-0.000106445514 0.028783636 -0.24894702 -0.1482569 0.021811504 0.12139313 0.11687561 -0.14099868
-0.078330465 0.020986509 -0.15575148 0.16011819 0.019134235 0.07665851 -0.14846903 0.014806804
-0.033631377 0.051299904 -0.08399796 0.00076781074 -0.14689691 0.019248493 -0.08133248 -0.05776673
0.0015191984 0.08522366 0.1029222 -0.076137885 0.10691485 -0.31459188 -0.0636543 0.10064886
-0.009236403 0.03142673 -0.06072899 -0.10071947 -0.026707157 0.07606111 0.069244966 0.12245231
-0.020700706 0.0060151396 -0.08329579 0.0043725083 0.08019868 0.05286802 0.006422375 -0.08591777
0.048581146 -0.048443757 -0.019081606 0.04426318 0.031352513 0.07820805 -0.24550511 -0.08479214
0.07936066 0.03409546 0.07310045 -0.021878112 -0.059532605 -0.0012432188 -0.25542784 0.0042538857
-0.043130443 0.10188173 0.09242169 -0.019300226 0.12150482 0.031393185 -0.010168953 0.044922814
-0.0018863557 0.011056246 -0.04171874 -0.08975364 0.13154158 0.09271642 0.00337832 -0.13741696
-0.15913752 -0.018247228 -0.15185122 -0.33131444 0.32908818 0.24738975 0.26238263 -0.02883401
0.04206044 0.10318533 0.21545725 0.38418663 0.3298362 0.1671518 0.22815791 0.29465684
0.19738199 0.2580131 0.30760396 -0.052925557 0.0025058356 0.25997692 0.25035587 -0.046631075
0.47351414 0.20479022 0.042192064 -0.021608515 0.15895031 -0.058867723 0.3667624 0.17021492
-0.2623484 0.2598719 0.24492748 0.3058218 -0.16675009 0.21889007 -0.12306892 0.23256475
0.20511484 -0.44096497 0.0016471887 0.2242889 0.1716124 0.027618138 0.23794866 0.28125617
-0.09747221 -0.21611382 -0.21753113 0.3159783 -0.15861708 0.21382263 0.4602219 0.26881188
0.26798207 0.18611392 0.34086367 -0.269796 -0.2934671 0.29278046 0.2550005 0.07597721
-0.05109921 0.27608773 0.19344425 0.096053764 0.14853148 0.035486974 -0.13258702 0.10889865
0.14332646 0.079301886 -0.2094878 0.26772133 -0.21831317 -0.14826547 -0.19926327 -0.14146085
0.17741406 0.004084782 0.15464735 0.1398359 -0.23875293 -0.10974239 -0.008702643 -0.102602825
-0.13562925 0.20605843 -0.015204493 -0.09221995 0.10184273 -0.22146961 -0.060514778 -0.19087014
-0.12144507 0.1381962 0.10568534 -0.21107876 -0.082214326 0.09704848 0.25372738 0.13471963
-0.16656506 -0.30284226 -0.24925365 0.21549205 -0.009045427 0.0133522 -0.08146528 -0.042226378
0.19258709 0.21326081 -0.010329459 0.056200694 0.17975694 0.27407423 0.09980462 -0.060695294
-0.26070678 -0.07967076 -0.17876291 0.16292022 0.25323662 0.1734699 -0.12747617 0.17287481
00000000: deb9 35be 5de5 1c3d 568e 6f3d 0258 233e
00000010: b235 52bc de58 3d3e ce63 943d 4664 9f3d
00000020: 4d41 3e3e 4d4e 613e dbef f63c fe57 833d
00000030: 663b 66bc 0da1 1d3d 23a1 1dbc 277c e93d
00000040: b776 2b3e 4bd2 81bd c710 c7bd 5877 863e
00000050: d838 7b3d 70c7 533e 8a4b 393e ab85 c5bd
00000060: fc7a 1e3e ec5f 87bc ce02 71be ae6d 2e3e
00000070: a4ec 06bd 0d41 8bbd e314 6bbe 76c7 3cbe
00000080: ef94 49be 0ef9 9f3d ca94 533e 85d4 8d3d
00000090: 263a 113d ef36 853e 7c8d 493e a3cc 863e
000000a0: a7ad 14be 0f7a a63d 14e4 37be 4730 f53c
000000b0: 1431 68bd 4a71 053e 4093 6ebe 03a6 11be
000000c0: 803b dfb8 a9cb eb3c f8eb 7ebe a8d0 17be
000000d0: 0aae b23c f69c f83d 7b5c ef3d f561 10be
000000e0: b96b a0bd e6eb ab3c 517d 1fbe 06f6 233e
000000f0: 66bf 9c3c 23ff 9c3d 4408 18be 3d98 723c
00000100: 0ec1 09bd d91f 523d 1f07 acbd e846 493a
00000110: 256c 16be 04af 9d3c a591 a6bd cf9c 6cbd
00000120: d71f c73a be89 ae3d e0c8 d23d 2eee 9bbd
00000130: 2cf6 da3d 3012 a1be 305d 82bd fd20 ce3d
00000140: 4854 17bc 51b9 003d f6be 78bd 0246 cebd
00000150: f8c8 dabc edc5 9b3d 4ed0 8d3d 47c8 fa3d
00000160: 8794 a9bc a61a c53b fc96 aabd 4247 8f3b
00000170: 353f a43d 238c 583d c972 d23b a8f5 afbd
00000180: 06fd 463d f66c 46bd 0751 9cbc 4f4d 353d
00000190: 7e6b 003d 8b2b a03d b165 7bbe 80a7 adbd
000001a0: d787 a23d aea7 0b3d b0b5 953d ba39 b3bc
000001b0: 76d8 73bd 80f3 a2ba 70c7 82be 2e64 8b3b
000001c0: 8ca9 30bd 5ea7 d03d 9547 bd3d 821b 9ebc
000001d0: 85d7 f83d 2496 003d ae9b 26bc fc00 383d
000001e0: 983f f7ba 4225 353c 45e1 2abd c2d0 b7bd
000001f0: d6b2 063e 1be2 bd3d ce66 5d3b 08b7 0cbe
00000200: f2f4 22be 367b 95bc e37e 1bbe 0ca2 a9be
00000210: 3f7e a83e bd53 7d3e 0457 863e 4d35 ecbc
00000220: 9147 2c3d d552 d33d d3a0 5c3e 1cb4 c43e
00000230: 4ae0 a83e d729 2b3e 3aa2 693e 43dd 963e
00000240: 811e 4a3e 4b1a 843e 447e 9d3e 78c8 58bd
00000250: f238 243b b21b 853e a52e 803e 3a00 3fbd
00000260: 7270 f23e 87b4 513e 96d1 2c3d 5704 b1bc
00000270: dfc3 223e 481f 71bd 48c8 bb3e d24c 2e3e
00000280: 8852 86be ee0d 853e 45ce 7a3e ad94 9c3e
00000290: 89c0 2abe b824 603e 8f0b fcbd 7425 6e3e
000002a0: a009 523e 29c6 e1be 7be6 d73a fdab 653e
000002b0: 29bb 2f3e 6f3f e23c d0a8 733e cf00 903e
000002c0: 839f c7bd f14c 5dbe 7bc0 5ebe e8c7 a13e
000002d0: 846c 22be 52f4 5a3e 34a2 eb3e b6a1 893e
000002e0: f234 893e a694 3e3e af85 ae3e b422 8abe
000002f0: 5241 96be 52e7 953e 6d8f 823e f199 9b3d
00000300: 684d 51bd 5f5b 8d3e 4016 463e d6b7 c43d
00000310: a318 183e ca5a 113d e4c4 07be 4106 df3d
00000320: 2cc4 123e 0769 a23d f883 56be c512 893e
00000330: 7d8d 5fbe e7d2 17be ac0b 4cbe 1ddb 10be
00000340: 08ac 353e a3d9 853b e05b 1e3e 2431 0f3e
00000350: a67b 74be 9ec0 e0bd 8895 0ebc 6e21 d2bd
00000360: 65e2 0abe fb00 533e 441c 79bc d0dd bcbd
00000370: ec92 d03d eec8 62be 58de 77bd 7673 43be
00000380: 31b8 f8bd 4e83 0d3e 8e71 d83d 0825 58be
00000390: fc5f a8bd 5ac1 c63d 8ee8 813e f1f3 093e
000003a0: 0890 2abe 240e 9bbe 593c 7fbe f3a9 5c3e
000003b0: 4533 14bc 30c3 5a3c 45d7 a6bd 91f5 2cbd
000003c0: 8d35 453e 0b61 5a3e e43c 29bc b332 663d
000003d0: 3412 383e 7553 8c3e 5d66 cc3d a19b 78bd
000003e0: 5c7b 85be 6c2a a3bd a00d 37be 8fd4 263e
000003f0: 3ba8 813e 18a2 313e 1d89 02be 1806 313e

mlp1.bias f4 [64]
0.027506722 0.11745615 -0.05276861 0.11270687 0.17071395 0.16348414 0.13974695 0.14804891
-0.094040714 -0.03808809 0.051517535 0.11558165 0.0361493 0.13221003 0.08398469 0.10911866
0.07562859 -0.0070075104 0.038297694 0.13555071 0.06486127 0.0017925831 0.056969095 0.11643027
0.0888802 0.18070102 0.16706163 -0.06485375 0.085917175 0.08260108 0.1776639 0.004086141
-0.121878654 0.0020455944 -0.1157203 0.07437821 0.14981727 0.09041107 0.045268703 0.10518641
0.040126182 -0.111027434 0.063462466 -0.22215103 -0.053836394 0.03109074 0.022007184 0.1248606
-0.017939089 0.14706445 0.081947014 -0.09239407 -0.014966274 0.12008583 0.2060468 0.04582846
0.0558304 0.14798422 0.019950734 -0.02715733 0.047691565 -0.015107771 0.12666865 0.05170373
00000000: c755 e13c da8c f03d e623 58bd dcd2 e63d
00000010: a3cf 2e3e 6368 273e d319 0f3e 229a 173e
00000020: 6b98 c0bd 4202 1cbd 0d04 533d 12b6 ec3d
00000030: 4a11 143d 1162 073e 2a00 ac3d 9b79 df3d
00000040: 2ae3 9a3d 429f e5bb 0bde 1c3d cecd 0a3e
00000050: fcd5 843d 1cf5 ea3a 6d58 693d fe72 ee3d
00000060: d306 b63d b009 393e 3412 2b3e 0bd2 84bd
00000070: 58f5 af3d c12a a93d 87ed 353e 09e5 853b
00000080: 849b f9bd 610f 063b c4fe ecbd 9a53 983d
00000090: b369 193e 7029 b93d ad6b 393d f96b d73d
000000a0: 5a5b 243d 5a62 e3bd 9cf8 813d 8f7b 63be
000000b0: 8d83 5cbd 02b2 fe3c 6948 b43c eab6 ff3d
000000c0: fff4 92bc 1098 163e d6d3 a73d 1a39 bdbd
000000d0: 1a35 75bc 8fef f53d effd 523e a0b6 3b3d
000000e0: 6bae 643d 2d89 173e b96f a33c 0d79 debc
000000f0: 3b58 433d 9686 77bc 6db5 013e 4ac7 533d
