Saved_Models/TSP_200/scatgnn_layer_2_hid_64_model_280_temp_3.500.pth (torch, 179911 bytes, 24 tensors)

bn0.weight f4 [2]
1.0 1.0
00000000: 0000 803f 0000 803f

bn0.bias f4 [2]
0.0 0.0
00000000: 0000 0000 0000 0000

bn0.running_mean f4 [2]
0.0 0.0
00000000: 0000 0000 0000 0000

bn0.running_var f4 [2]
1.0 1.0
00000000: 0000 803f 0000 803f

in_proj.weight f4 [64, 2]
-0.6297767 0.2700081 -0.71450186 -0.69988745 -0.17649564 -1.1181979 0.31403154 -0.30706355
-0.33870792 -0.54202735 0.4794776 -0.29468754 0.5214303 0.049781382 -0.17167795 -0.6085557
0.3008969 -1.0511518 0.5052478 -0.85849565 0.58345515 0.30779964 -0.04062471 -0.7316423
0.17928474 0.67887247 0.796907 0.5750756 0.9950933 0.5553136 1.1323819 -0.14164145
0.3340286 -0.508606 -0.7230397 -0.274597 -0.91586304 -0.26242176 0.4425564 -1.1075246
1.0572034 0.6528628 0.9601795 -0.017565163 0.9986608 -0.4589018 -0.18776813 1.0308897
0.8782391 -0.18423042 -0.49094993 -0.9612493 -0.83845174 0.6974182 0.75359654 -0.20620637
-0.10744904 -0.71360415 0.14776216 0.7117037 -0.77885175 0.5222795 -0.014977966 0.79874086
-0.70411694 0.48972756 -0.12147419 -0.9565933 0.565174 -1.0464228 0.70204735 0.34762782
0.5479714 -0.35184002 0.9098927 -0.48488945 0.06291453 -0.75325245 0.2893774 -0.8749154
-0.74267584 0.5118441 0.94643265 0.90419155 -0.03466258 0.8319549 -0.9239753 -0.72560495
-0.07858672 0.647159 0.8217011 -0.36406383 -1.0492463 0.34927383 -0.49009582 -0.045848295
-0.47119725 -0.967154 -0.5873156 -0.64227164 -0.8291126 0.30234748 -0.927038 -0.20638406
-0.85407627 -0.32896373 -0.26495484 -0.85735476 0.1487895 -0.820886 -0.8469957 0.31866962
0.67622167 1.0242771 0.429337 -0.13130632 -0.101687774 0.7764564 0.035275638 -0.2470368
-0.64089036 -0.75450444 -0.046802644 -0.37572923 -0.49016196 1.0732563 -0.20010082 -0.9527557
00000000: 0c39 21bf 803e 8a3e 98e9 36bf d32b 33bf
00000010: 46bb 34be 1c21 8fbf bec8 a03e 6f37 9dbe
00000020: 206b adbe 4ec2 0abf 177e f53e 49e1 96be
00000030: 757c 053f 90e7 4b3d 58cc 2fbe 4eca 1bbf
00000040: 290f 9a3e 248c 86bf eb57 013f 5fc6 5bbf
00000050: 515d 153f ea97 9d3e 1966 26bd e94c 3bbf
00000060: 6b96 373e 96ca 2d3f 1902 4c3f 2838 133f
00000070: 6fbe 7e3f 0829 0e3f e4f1 903f 750a 11be
00000080: cc05 ab3e 0134 02bf 2119 39bf fa97 8cbe
00000090: 0076 6abf 255c 86be c196 e23e 5ec3 8dbf
000000a0: 7152 873f 0422 273f 53ce 753f d1e4 8fbc
000000b0: 3ca8 7f3f 2df5 eabe 4a46 40be 32f4 833f
000000c0: 47d4 603f e6a6 3cbe ca5d fbbe 6f14 76bf
000000d0: c6a4 56bf 008a 323f b4eb 403f c327 53be
000000e0: 3e0e dcbd c3ae 36bf f74e 173e 3732 363f
000000f0: d462 47bf 1cb4 053f 2566 75bc 487a 4c3f
00000100: 0241 34bf 92bd fa3e 76c7 f8bd 4ce3 74bf
00000110: 3eaf 103f 2ff1 85bf 60b9 333f 46fc b13e
00000120: db47 0c3f 6024 b4be baee 683f 6e43 f8be
00000130: 55d9 803d 27d5 40bf 4629 943e 75fa 5fbf
00000140: 0120 3ebf 3708 033f 6949 723f 1979 673f
00000150: 59fa 0dbd fffa 543f a589 6cbf 3fc1 39bf
00000160: 13f2 a0bd 36ac 253f 015b 523f 9366 babe
00000170: b44d 86bf 05d4 b23e d7ed fabe 6ccb 3bbd
00000180: c440 f1be 6897 77bf 515a 16bf ea6b 24bf
00000190: b940 54bf 4acd 9a3e 5d52 6dbf 5856 53be
000001a0: bea4 5abf ef6d a8be 29a8 87be 9a7b 5bbf
000001b0: 465c 183e 9625 52bf b6d4 58bf aa28 a33e
000001c0: dd1c 2d3f 831b 833f 0fd2 db3e 2a75 06be
000001d0: ae41 d0bd d9c5 463f 307d 103d 37f7 7cbe
000001e0: 6411 24bf 3427 41bf 21b4 3fbd 955f c0be
000001f0: 82f6 fabe 7660 893f 3be7 4cbe cce7 73bf

in_proj.bias f4 [64]
-0.25754187 0.31487352 -0.024320433 0.49841854 0.4956759 0.35860625 -0.56746024 -0.27674383
-0.41167587 -0.0055043553 -0.19140211 -0.023229547 0.23741065 -0.113664284 -0.40635666 0.0037441968
0.27713346 -0.6145398 0.41148794 -0.004953333 0.0038699857 0.36145717 -0.57325053 0.39766738
-0.23821221 -0.39074552 0.003962148 -0.15469015 -0.2381337 -0.2200989 -0.3232905 -0.48999783
0.23065265 -0.56033385 -0.092124335 -0.0028697145 -0.5010201 0.019057903 0.43295777 -0.07637299
-0.42808288 0.2726009 -0.09282407 0.613824 0.54669464 -0.023734443 -0.3190073 -0.2949762
0.49887934 0.015983379 -0.15232976 -0.6362431 0.42594117 0.40612027 -0.07519058 -0.11565846
-0.4695682 -0.20709898 -0.17819786 0.37667367 0.017177748 0.22010659 -0.05513554 -0.60065377
00000000: 87dc 83be 1a37 a13e a53b c7bc b730 ff3e
00000010: 3bc9 fd3e 3d9b b73e 1345 11bf 5eb1 8dbe
00000020: 2ec7 d2be e15d b4bb eafe 43be e44b bebc
00000030: c71b 733e d2c8 e8bd fb0d d0be 3361 753b
00000040: 70e4 8d3e 7b52 1dbf 8cae d23e 924f a2bb
00000050: 969f 7d3b ea10 b93e 8cc0 12bf 0f9b cb3e
00000060: e7ed 73be cc0f c8be e8d4 813b 1867 1ebe
00000070: 52d9 73be 9b61 61be 5586 a5be ffe0 fabe
00000080: 3530 6c3e 0a72 0fbf afab bcbd d211 3cbb
00000090: da42 00bf 521f 9c3c a4ac dd3e 7169 9cbd
000000a0: ae2d dbbe 5892 8b3e 8c1a bebd 9223 1d3f
000000b0: 2ef4 0b3f bc6e c2bc ed54 a3be 1f07 97be
000000c0: 1d6d ff3e 93ef 823c 55fc 1bbe d4e0 22bf
000000d0: f614 da3e ffee cf3e 85fd 99bd 58de ecbd
000000e0: 3e6b f0be c111 54be 8079 36be 5fdb c03e
000000f0: 59b8 8c3c 9f63 613e ced5 61bd 72c4 19bf

convs.0.a f4 [128, 1]
-0.009525293 -0.023698209 -0.006480678 -0.001782563 -0.019173281 -0.0057149655 -0.0005796452 0.00027829342
-0.0063821278 -0.00044423484 0.001188611 -0.0060126223 0.0008420807 -0.0028578304 0.003140607 0.001060836
-0.00647287 -0.004958886 -0.017896047 -0.010713005 0.0012475115 0.0060262308 0.00057674333 -0.011461617
0.010193792 -0.00014242237 -0.013340561 0.009608787 0.001639376 -0.0042965882 -0.010458451 -0.0011780268
-0.014473988 4.4677723e-05 -0.0065392335 -0.00431048 -0.0024013564 0.00026402174 -0.0074824244 -0.0064405524
-0.00767515 0.0165157 -0.006167904 -0.027818741 -0.007073315 0.00068379065 -0.013648844 -0.007397526
-0.023505704 -0.013150898 -0.011846363 -0.0084856255 -0.025516333 -0.02094185 -0.002747161 -0.010567104
0.0009735528 0.0035551982 -0.009025595 -0.0011244364 -0.0056145093 -0.009365332 -0.015744232 0.00067198934
0.658013 1.1474884 0.9182047 0.14159831 0.22252959 0.21022458 0.67565745 0.69754416
0.80317146 1.0430448 0.63730866 0.9014019 1.2025528 0.6523175 0.6333821 1.032377
1.3567915 0.6176787 0.6446908 1.0739919 1.026142 1.0093769 0.7024417 0.6634749
0.6286702 0.7445826 0.9933305 0.6428767 0.6815834 0.66235125 0.7117061 0.7132514
1.0547268 0.7104473 1.0527256 1.0477098 0.6756806 1.2435987 0.5195384 0.8708154
0.75834113 1.1248491 0.73019457 0.45793563 0.19904399 0.9384248 0.63973314 0.6183987
0.63176996 0.88622427 0.64122903 0.66203934 0.61814237 0.79887205 0.88781464 0.6365513
0.66455066 0.63389146 0.8914942 0.08814187 0.9361268 0.21729869 0.97781986 0.71094584
00000000: f90f 1cbc bf22 c2bc de5b d4bb e4a4 e9ba
00000010: 4911 9dbc 9b44 bbbb 55f3 17ba e9e7 9139
00000020: 2b21 d1bb 31e8 e8b9 2bcb 9b3a 8805 c5bb
00000030: 14bf 5c3a 704a 3bbb a4d2 4d3b c00b 8b3a
00000040: 5e1a d4bb 277e a2bb bb9a 92bc 9a85 2fbc
00000050: 8a83 a33a b077 c53b 9730 173a 82c9 3bbc
00000060: dd03 273c 3757 15b9 5e92 5abc 2c6e 1d3c
00000070: 55e0 d63a 65ca 8cbb ec59 2bbc 0568 9aba
00000080: 4e24 6dbc 5764 3b38 1147 d6bb ed3e 8dbb
00000090: 1360 1dbb 666c 8a39 202f f5bb 450b d3bb
000000a0: d37f fbbb ef4b 873c 211c cabb 21e4 e3bc
000000b0: 44c7 e7bb 6a40 333a 679f 5fbc f266 f2bb
000000c0: 098f c0bc dd76 57bc 3f17 42bc 4b07 0bbc
000000d0: a107 d1bc 3e8e abbc b709 34bb a621 2dbc
000000e0: 0636 7f3a 54fe 683b 17e0 13bc d361 93ba
000000f0: ebf9 b7bb 0d71 19bc 0cfa 80bc 7128 303a
00000100: 8a73 283f e6e0 923f 770f 6b3f 26ff 103e
00000110: ccde 633e 1d45 573e e3f7 2c3f 4192 323f
00000120: a59c 4d3f 7e82 853f a926 233f 46c2 663f
00000130: 40ed 993f 48fe 263f 5425 223f ee24 843f
00000140: 58ab ad3f 3120 1e3f 750a 253f 9178 893f
00000150: 9f58 833f 4333 813f 38d3 333f 7ed9 293f
00000160: 88f0 203f f79c 3e3f e84a 7e3f 9193 243f
00000170: 407c 2e3f da8f 293f 5f32 363f a597 363f
00000180: 4a01 873f e0df 353f b6bf 863f 5b1b 863f
00000190: 67f9 2c3f 3e2e 9f3f 7800 053f c2ed 5e3f
000001a0: a522 423f 0efb 8f3f 08ee 3a3f 8a76 ea3e
000001b0: 30d2 4b3e 9c3c 703f 8dc5 233f 614f 1e3f
000001c0: adbb 213f 98df 623f 9627 243f 697b 293f
000001d0: 943e 1e3f e182 4c3f d247 633f 07f5 223f
000001e0: fe1f 2a3f b646 223f f738 643f ba83 b43d
000001f0: 02a6 6f3f 8c83 5e3e 6752 7a3f 8c00 363f

convs.0.linear1.weight f4 [64, 64]
-0.2734326 -0.07597023 -0.21949507 -0.13877791 0.03558649 -0.1520683 -0.24229926 -0.2291054
-0.051249303 -0.00013687256 -0.101532616 -0.1293576 -0.28564185 -0.16372776 -0.26476955 -0.406084
0.028822435 -0.23032154 -0.14681113 -0.066494465 -0.19918545 -0.34707928 -0.37838048 0.18144707
-0.24419439 -0.2463283 -0.23061013 -0.3167639 -0.08347645 -0.32937458 -0.31368667 -0.20455457
-0.11318072 -0.0035089857 0.17591919 -0.1623354 -0.22302823 -0.260708 0.06043826 0.045649316
-0.32944846 -0.25396818 0.09268471 0.025110595 0.03798438 -0.28449884 -0.34569824 -0.38619727
-0.06888333 0.06648233 -0.39285225 -0.13826352 0.022361264 -0.12314034 -0.06460789 -0.4335638
-0.24631521 -0.20546862 0.04889495 0.044296145 -0.16610414 -0.07998215 0.115451366 -0.14803359
-0.11954039 -0.06962235 0.26387483 -0.2229223 -0.054518294 -0.17160065 -0.14298888 0.20292652
0.124840535 -0.065697655 0.024706226 0.09309514 0.15881042 0.09156019 0.11638253 -0.18891212
-0.24506758 -0.16483836 -0.29127866 -0.11167203 0.06805698 -0.08453422 0.018794574 0.037141588
-0.10341271 0.26564425 -0.093397684 -0.058779005 0.120919436 0.34390056 -0.15284395 0.28173915
-0.09787756 0.17722473 -0.12332009 -0.07918499 0.09267708 -0.2444659 0.21866134 0.08069837
-0.02045168 0.0505137 0.21292037 -0.29356262 -0.00842599 -0.26706755 -0.029922249 -0.16015054
0.13914077 0.02599575 -0.11469622 -0.17278542 -0.31427523 0.073109895 0.2883272 -0.1600828
0.10600602 -0.23494135 0.35381135 -0.18790005 0.01838032 0.0111228945 0.061710194 0.2120429
0.09450174 0.41509557 0.19149074 0.017542157 0.12875834 -0.2582563 0.25057006 0.44246262
-0.49884483 -0.37128267 0.4955417 -0.05915084 0.1951558 0.51023126 0.40259838 0.1679642
-0.51460207 0.3001892 0.20693287 -0.58536667 0.53238827 0.16703586 -0.09748244 -0.4529001
0.30569375 0.5037616 -0.1475963 0.29758653 0.24275905 0.34725288 -0.18330404 -0.11932326
-0.34167492 0.19167769 -0.6299009 0.46197757 -0.20013285 -0.31561032 -0.47432995 -0.6422157
-0.32658392 0.30534092 -0.012568641 0.27592722 -0.4560711 0.00053051586 0.094976194 0.30709007
0.26294714 0.33247304 0.12545864 0.49286973 0.24025227 0.21657841 -0.4881832 0.14998712
0.44905135 0.26069 -0.3402092 -0.24861325 0.42711443 -0.06915247 -0.49937287 0.2472328
-0.10628724 0.35838452 -0.0031991499 -0.13598007 -0.091159634 -0.33330122 -0.02025586 0.15205307
-0.25892922 -0.26542425 0.4831617 -0.2407704 0.056953046 0.57942945 0.41987878 0.0056170146
-0.2646067 0.3204902 0.032412596 -0.33163327 0.24029188 -0.12349509 -0.1554773 -0.63330865
-0.10173185 0.21295024 -0.05137347 -0.10390478 0.11091952 0.054673407 -0.14278243 -0.29338357
-0.20680405 0.04493882 -0.21123189 0.2115189 -0.03083352 -0.40677127 -0.47508284 -0.3237725
-0.0731641 0.36568165 -0.2690083 0.01781456 -0.31357756 -0.17261353 -0.03690828 0.0066846684
0.07624457 0.5119049 -0.1871557 0.18282923 0.019038346 -0.044591784 -0.18431138 -0.04291104
0.40338352 -0.22717072 -0.26375926 -0.38520747 0.3829913 -0.3733102 -0.21055226 0.20986287
00000000: 5cff 8bbe 4896 9bbd 51c3 60be cc1b 0ebe
00000010: 24c3 113d cbb7 1bbe 4c1d 78be 9b9a 6abe
00000020: caea 51bd 7385 0fb9 55f0 cfbd 5276 04be
00000030: a63f 92be 40a8 27be e08f 87be 3eea cfbe
00000040: 071d ec3c 69d9 6bbe a855 16be 402e 88bd
00000050: 45f7 4bbe 60b4 b1be 16bb c1be 43cd 393e
00000060: 180e 7abe 7c3d 7cbe 1025 6cbe e12e a2be
00000070: b3f5 aabd c9a3 a8be 8a9b a0be c176 51be
00000080: 4bcb e7bd 03f7 65bb 2924 343e 403b 26be
00000090: 8361 64be 857b 85be 1c8e 773d c7fa 3a3d
000000a0: 78ad a8be 1e08 82be 7bd1 bd3d bcb4 cd3c
000000b0: 8295 1b3d d5a9 91be 5cff b0be a6bb c5be
000000c0: b412 8dbd e327 883d ee23 c9be f494 0dbe
000000d0: f82e b73c 0131 fcbd 2451 84bd 13fc ddbe
000000e0: 0e3a 7cbe 5e66 52be 1246 483d e06f 353d
000000f0: 3417 2abe aecd a3bd c471 ec3d 1e96 17be
00000100: 98d1 f4bd 2a96 8ebd 9a1a 873e be45 64be
00000110: 934e 5fbd 15b8 2fbe ad6b 12be f8cb 4f3e
00000120: 65ac ff3d 7e8c 86bd b664 ca3c aaa8 be3d
00000130: 339f 223e e983 bb3d f759 ee3d 2e72 41be
00000140: fff2 7abe 63cb 28be 7a22 95be 4eb4 e4bd
00000150: 7561 8b3d 4720 adbd 14f7 993c c721 183d
00000160: 0bca d3bd 8602 883e 4947 bfbd 41c2 70bd
00000170: 9ca4 f73d bc13 b03e 2083 1cbe 1d40 903e
00000180: 0874 c8bd 667a 353e 3e8f fcbd bd2b a2bd
00000190: 7bcd bd3d 4555 7abe c2e8 5f3e 3045 a53d
000001a0: 488a a7bc 74e7 4e3d cc07 5a3e d74d 96be
000001b0: 2a0d 0abc 14bd 88be 811f f5bc 81fe 23be
000001c0: eb7a 0e3e 0af5 d43c dae5 eabd a9ee 30be
000001d0: afe8 a0be a4ba 953d 9f9f 933e bfec 23be
000001e0: af19 d93d 7794 70be c326 b53e df68 40be
000001f0: 5392 963c cd3c 363c d4c3 7c3d c621 593e
00000200: 218a c13d 6887 d43e 2616 443e 92b4 8f3c
00000210: 3ad9 033e 2b3a 84be b84a 803e 768a e23e
00000220: 9768 ffbe c318 bebe a4b7 fd3e 2748 72bd
00000230: ecd6 473e 849e 023f 6021 ce3e cffe 2b3e
00000240: f6bc 03bf 66b2 993e 36e6 533e 97da 15bf
00000250: 994a 083f 730b 2b3e e0a4 c7bd 86e2 e7be
00000260: e483 9c3e 85f6 003f 7c23 17be 435d 983e
00000270: d495 783e 21cb b13e 0eb4 3bbe c15f f4bd
00000280: 04f0 aebe 2847 443e 2f41 21bf 5388 ec3e
00000290: a0ef 4cbe ad97 a1be 60db f2be 4068 24bf
000002a0: 0236 a7be a555 9c3e b4ec 4dbc 5546 8d3e
000002b0: 2782 e9be 5112 0b3a e182 c23d e93a 9d3e
000002c0: 02a1 863e e839 aa3e 3b78 003e 6c59 fc3e
000002d0: b104 763e bbc6 5d3e 26f3 f9be 3996 193e
000002e0: 0fea e53e 2979 853e e62f aebe 7994 7ebe
000002f0: beae da3e cf9f 8dbd cdad ffbe 982a 7d3e
00000300: 20ad d9bd 2d7e b73e d4a8 51bb 5c3e 0bbe
00000310: e7b1 babd 75a6 aabe 9eef a5bc cdb3 1b3e
00000320: 5f92 84be b0e5 87be f860 f73e 848c 76be
00000330: 9947 693d 7d55 143f 5afa d63e ef0e b83b
00000340: 887a 87be 4b17 a43e 12c3 043d d6cb a9be
00000350: 130f 763e feea fcbd 7135 1fbe 8420 22bf
00000360: ca58 d0bd a10f 5a3e fd6c 52bd 07cc d4bd
00000370: c629 e33d 39f1 5f3d 8f35 12be 5f36 96be
00000380: 71c4 53be c511 383d 2c4d 58be 6998 583e
00000390: 9496 fcbc 5344 d0be 0f3e f3be 82c5 a5be
000003a0: 0fd7 95bd a03a bb3e 75bb 89be d7ef 913c
000003b0: 3d8d a0be 9ac1 30be 232d 17bd 100b db3b
000003c0: 1d26 9c3d 330c 033f bea5 3fbe 9637 3b3e
000003d0: 4ef6 9b3c e0a5 36bd 1fbc 3cbe 7dc3 2fbd
000003e0: 4988 ce3e 719f 68be 740b 87be ea39 c5be
000003f0: 7017 c43e 8422 bfbe 039b 57be 4be6 563e

convs.0.linear1.bias f4 [64]
-0.112447105 0.74246895 0.06282009 0.35745028 0.64056295 0.013865767 -0.0824863 -0.156579
0.24638604 -0.5297355 0.32212347 -0.12850116 -0.04213024 -0.00013140192 0.2027901 -0.015736423
-0.3479066 -0.009367322 -0.03215462 0.092279844 -0.27516618 -0.15795445 -0.51186526 -0.42692482
0.034854487 0.104576185 -0.7174811 -0.64613676 -0.014633176 -0.2838405 -0.024794929 -0.05404303
-0.04187187 0.1674021 0.007359992 -0.29115537 0.07538097 0.3009783 -0.20176436 -0.027667606
-0.01901953 0.2262208 -0.0046235523 0.0051098694 -0.0019012387 -0.031813182 -0.016145995 0.532301
0.09703447 -0.012426342 -0.2011503 -0.21405637 0.2619546 -0.6758493 0.3909909 0.7379733
-0.30870083 -0.08682441 -0.34683076 0.08394162 -0.28397486 -0.0067744167 0.0072672013 0.5036364
00000000: ab4a e6bd 7212 3e3f d2a7 803d b903 b73e
00000010: effb 233f 3e2d 633c 94ee a8bd 3f56 20be
00000020: 9f4c 7c3e bf9c 07bf 5eed a43e cf95 03be
00000030: c290 2cbd efc8 09b9 35a8 4f3e ace9 80bc
00000040: d020 b2be 6579 19bc 90b4 03bd 37fd bc3d
00000050: 95e2 8cbe d0be 21be 9a09 03bf e495 dabe
00000060: 94c3 0e3d 0a2c d63d d7ac 37bf 3869 25bf
00000070: fdbf 6fbc 8b53 91be bc1e cbbc 395c 5dbd
00000080: d781 2bbd 756b 2b3e 162c f13b 5112 95be
00000090: 5761 9a3d d419 9a3e 519b 4ebe 2da7 e2bc
000000a0: d8ce 9bbc 6da6 673e 2b81 97bb b170 a73b
000000b0: fc32 f9ba 8a4e 02bd 9b44 84bc e144 083f
000000c0: 02ba c63d db97 4bbc 58fa 4dbe 9831 5bbe
000000d0: ea1e 863e 7604 2dbf f62f c83e d1eb 3c3f
000000e0: 090e 9ebe ffd0 b1bd cd93 b1be 96e9 ab3d
000000f0: 2765 91be edfb ddbb b421 ee3b 51ee 003f

convs.0.linear2.weight f4 [64, 64]
0.12707345 -0.523423 -0.25103632 -0.15772417 -0.046491433 0.034665205 -0.0010260553 -0.022507796
-0.05226213 0.54111534 -0.1522778 -0.036207523 -0.09498794 -0.053235065 -0.19269867 0.22699817
0.04579644 -0.16098511 0.32946086 -0.2625503 -0.56355345 0.12355953 0.6511941 0.26244226
0.15355545 1.156999 0.4077368 0.7644964 0.76016486 -0.072227076 0.06527592 0.2188004
-0.34546712 -0.07758872 0.12772474 0.048603572 -0.24018794 -0.2703123 0.13781618 -0.01131939
0.27069825 -0.20580207 0.11396978 -0.16399293 -0.3027659 0.13026023 -0.13672799 -0.4607251
0.09833906 0.4501646 0.32980445 0.12891081 -0.3852707 0.65167665 -1.0024611 -0.29990464
0.37680122 0.16194135 0.23890829 0.020779204 0.13458811 0.20130175 0.8410529 -0.14890693
0.14228693 0.26262307 -0.2707688 0.03803587 0.009150716 -0.2702353 0.18904226 -0.13472775
0.26096767 0.2664423 0.07112844 0.061246492 -0.018057128 0.10357557 0.22516306 0.18118544
0.031729188 0.15452732 0.06131691 0.15148026 -0.34081334 0.038201112 -0.030742107 -0.100327045
0.42905453 0.46817058 -0.16745292 -0.20858373 -0.04121178 -0.20783946 0.17088442 -0.06452123
-0.21823943 0.08855561 0.047945555 0.11628388 0.08884505 0.1275986 0.31458065 -0.06622498
-0.2608691 -0.14425619 -0.14946823 0.2872967 0.2368473 -0.5387891 0.02159406 0.048114933
-0.104019955 0.11869548 -0.0002134387 0.024810934 0.3762085 -0.28089634 0.23633145 0.055016045
0.17535889 -0.0026580659 0.19299778 -0.0669061 0.09911151 0.023979895 0.011873027 -0.08386213
0.3705353 -0.47836006 -1.4889349 -0.92056406 -0.30957973 0.08841377 0.11497389 0.11708776
-0.23996228 0.6685761 0.74168044 0.508751 0.49427485 0.70545846 -0.97354335 1.5259415
0.44646093 0.60432416 -0.24277331 0.21153207 -0.24615456 1.2138953 1.7323663 0.29622462
1.0683966 -0.16220717 0.6715713 1.0611062 1.567082 0.25538978 -0.08347479 1.0318935
-1.3424331 -0.53671044 1.1415821 0.6412988 0.3319984 -0.30369157 0.40173635 -0.6789147
-0.19316232 -0.24992678 -0.12965183 0.441777 0.29546323 -0.43372545 0.07478197 0.11970292
-0.15588306 0.9177064 1.4632481 -0.47674105 -0.384355 1.03061 -1.4463428 -0.36194956
0.6896392 -0.25917292 0.86714774 -0.44340223 -0.7053506 -0.19757836 1.459798 -0.4210378
0.093411736 0.50161964 -0.17202769 0.18756583 0.07579117 -0.0357244 -0.09121142 -0.117821634
-0.0027834876 -0.43274096 0.5551917 0.009314363 0.13229892 0.0863344 -0.1016394 0.20221378
-0.11069941 0.22420272 0.024649264 0.14061482 -0.84193474 0.0030201555 -0.17387377 -0.17399622
0.26473582 -0.035392802 -0.44881713 -0.46069387 0.008347664 -0.7495706 0.018715613 0.12509243
-0.09290156 0.10335649 0.08479569 -0.08002629 0.089277305 0.08898722 -0.14756846 0.007851537
0.037404828 0.056411576 -0.1837078 0.03944876 0.18293948 -0.02612836 0.12008209 0.39432585
-0.023657067 -0.11206373 0.120166816 -0.15084364 0.21758212 -0.5076099 0.51716673 0.3002666
-0.010508105 -0.23559828 -0.033383913 0.025398308 -0.43250674 -0.1913744 0.076284476 0.13481455
00000000: 8b1f 023e 0dff 05bf d587 80be 7282 21be
00000010: cd6d 3ebd 1afd 0d3d b47c 86ba 4562 b8bc
00000020: d110 56bd 8986 0a3f b6ee 1bbe 574e 14bd
00000030: 0989 c2bd 030d 5abd cd52 45be 3572 683e
00000040: 0c95 3b3d 48d9 24be 18af a83e fe6c 86be
00000050: 0a45 10bf c70c fd3d a8b4 263f d55e 863e
00000060: a43d 1d3e 8b18 943f e1c2 d03e 09b6 433f
00000070: 2a9a 423f caeb 93bd 62af 853d 360d 603e
00000080: 11e1 b0be d6e6 9ebd 46ca 023e 8a14 473d
00000090: d4f3 75be 6066 8abe af1f 0d3e f674 39bc
000000a0: f698 8a3e c7bd 52be fd68 e93d c3ed 27be
000000b0: 2204 9bbe f062 053e 6c02 0cbe 29e4 ebbe
000000c0: fd65 c93d f97b e63e 21dc a83e 3201 043e
000000d0: 3442 c5be 48d4 263f a550 80bf 1a8d 99be
000000e0: 17ec c03e f4d3 253e 60a4 743e 2639 aa3c
000000f0: 77d1 093e 0c22 4e3e 3e4f 573f 0f7b 18be
00000100: aab3 113e 8876 863e 35a2 8abe 80cb 1b3d
00000110: e2ec 153c 485c 8abe 4b94 413e 12f6 09be
00000120: 8e9d 853e 206b 883e caab 913d 9add 7a3d
00000130: 8bec 93bc 6e1f d43d 2591 663e ad88 393e
00000140: 77f6 013d 693c 1e3e 7127 7b3d a41d 1b3e
00000150: 167f aebe c578 1c3d dfd6 fbbc 4478 cdbd
00000160: 09ad db3e 0eb4 ef3e c778 2bbe f996 55be
00000170: afcd 28bd ded3 54be 53fc 2e3e b523 84bd
00000180: 287a 5fbe a55c b53d 8f62 443d 3e26 ee3d
00000190: 65f4 b53d 35a9 023e b710 a13e f6a0 87bd
000001a0: a290 85be e5b7 13be 330e 19be 8e18 933e
000001b0: 1988 723e 15ee 09bf 07e6 b03c 2a14 453d
000001c0: 6a08 d5bd 9e16 f33d 84ce 5fb9 4d40 cb3c
000001d0: 679e c03e a5d1 8fbe df00 723e 8158 613d
000001e0: 4891 333e f232 2ebb 36a1 453e 1106 89bd
000001f0: fafa ca3d 7c71 c43c 1687 423c e9bf abbd
00000200: ceb6 bd3e 9ceb f4be 6b95 bebf 16aa 6bbf
00000210: 3c81 9ebe 4712 b53d 6e77 eb3d b5cb ef3d
00000220: acb8 75be ce27 2b3f c5de 3d3f 813d 023f
00000230: 9811 fd3e ed98 343f 233a 79bf 0d52 c33f
00000240: 8796 e43e fdb4 1a3f 9199 78be dd9b 583e
00000250: f10f 7cbe ec60 9b3f 2ebe dd3f c1aa 973e
00000260: 38c1 883f a319 26be 19ec 2b3f 54d2 873f
00000270: 2596 c83f 73c2 823e d5f4 aabd 1615 843f
00000280: d9d4 abbf db65 09bf 5d1f 923f 282c 243f
00000290: b2fb a93e 767d 9bbe 63b0 cd3e 5bcd 2dbf
000002a0: 58cc 45be ceec 7fbe 73c3 04be 9830 e23e
000002b0: f546 973e 4311 debe 4a27 993d ce26 f53d
000002c0: cf9f 1fbe ceee 6a3f b74b bb3f 6717 f4be
000002d0: 2eca c4be 07eb 833f c321 b9bf 7451 b9be
000002e0: 328c 303f 50b2 84be 65fd 5d3f 9e05 e3be
000002f0: db91 34bf fb51 4abe a9da ba3f 4492 d7be
00000300: a74e bf3d 256a 003f 0728 30be 4211 403e
00000310: 6738 9b3d c053 12bd 0ecd babd 784c f1bd
00000320: 2c6b 36bb 3990 ddbe 0b21 0e3f 459b 183c
00000330: 5e79 073e 17d0 b03d 5128 d0bd 2111 4f3e
00000340: 5fb6 e2bd 6695 653e 41ed c93c 55fd 0f3e
00000350: 0989 57bf cded 453b f70b 32be 112c 32be
00000360: 748b 873e 0bf8 10bd 5ccb e5be 11e0 ebbe
00000370: a4c4 083c dce3 3fbf 7c51 993c 3b18 003e
00000380: 2c43 bebd 91ac d33d 5da9 ad3d d3e4 a3bd
00000390: 05d7 b63d ee3e b63d 301c 17be bca3 003c
000003a0: ce35 193d d30f 673d e61d 3cbe 0695 213d
000003b0: 7d54 3b3e 240b d6bc 99ed f53d 14e5 c93e
000003c0: 77cc c1bc ab81 e5bd 051a f63d c176 1abe
000003d0: d9cd 5e3e b9f2 01bf 0a65 043f 8bbc 993e
000003e0: 302a 2cbc ad40 71be 92bd 08bd 1d10 d03c
000003f0: 8671 ddbe a7f7 43be 093b 9c3d d30c 0a3e

convs.0.linear2.bias f4 [64]
-0.7584261 0.24318527 -0.34823215 0.80578125 -0.37668994 0.8733843 0.14063926 -0.28868967
0.030429168 0.65937483 0.1900121 -0.3217641 0.46569586 -0.03784634 -0.5361044 0.21079658
1.3411797 0.13049375 -0.23076035 -0.77373976 -0.42095467 0.3050872 -0.15144594 0.35288012
-0.8184619 -0.032526713 -0.35920423 0.15714014 0.27920425 0.16719557 -0.20433445 -0.276282
0.15153939 -0.34476155 -0.17613886 0.10881574 0.1783944 0.035511054 -0.17156316 -0.41137466
0.20047072 -0.33374223 0.077140324 -0.5001491 -0.16998881 -0.28573602 0.13145888 -0.4665461
-0.2386036 0.16651136 -0.055163193 -0.03476246 0.23748638 -0.50346124 -0.55733764 0.0354013
0.2313079 -0.05736012 0.25684705 -0.21825458 0.25832143 0.025143566 -0.11612771 -0.13203958
00000000: 3628 42bf 8f05 793e 7c4b b2be ae47 4e3f
00000010: 81dd c0be 1d96 5f3f bd03 103e 22cf 93be
00000020: 9746 f93c cacc 283f 8892 423e 44be a4be
00000030: b06f ee3e c404 1bbd 233e 09bf 0fdb 573e
00000040: c7ab ab3f 27a0 053e 714c 6cbe cf13 46bf
00000050: 5f87 d7be 6434 9c3e a514 1bbe b4ac b43e
00000060: b886 51bf bb3a 05bd 9ee9 b7be 58e9 203e
00000070: dcf3 8e3e 5135 2b3e 0d3d 51be d674 8dbe
00000080: 242d 1b3e 9684 b0be bf5d 34be c9da de3d
00000090: 06ad 363e 0a74 113d 41ae 2fbe b39f d2be
000000a0: 3248 4d3e 43e0 aabe bffb 9d3d c509 00bf
000000b0: 8c11 2ebe fe4b 92be 289d 063e 21df eebe
000000c0: 8154 74be f481 2a3e cdf2 61bd 1563 0ebd
000000d0: a12f 733e d6e2 00bf aead 0ebf f400 113d
000000e0: fadb 6c3e 72f2 6abd 7581 833e 217e 5fbe
000000f0: b542 843e e1f9 cd3c 5dd4 edbd 6235 07be

convs.1.a f4 [128, 1]
0.00017945051 0.027368056 -7.168008e-06 -0.032758936 2.701322e-06 -0.029508997 6.715759e-05 3.865802e-06
0.0034578664 -0.054044843 0.03193408 -9.63216e-06 0.029389855 0.017370125 -0.00027987658 0.029973844
-0.081950516 9.7646145e-05 0.00030607954 -6.1312303e-06 4.72747e-07 -0.0015805917 -0.0071930545 0.01582363
-2.976003e-05 1.5650701e-06 1.2457078e-05 -0.0044923173 0.052495297 0.05963226 0.0054251887 -3.4791025e-05
0.010327458 -5.502538e-06 -4.9691466e-06 0.010228003 -0.02873219 0.06614844 0.03409989 6.2906997e-06
0.04522573 3.52001e-05 0.015716653 3.1681666e-06 1.5115512e-06 1.6365651e-05 -0.016044183 1.233182e-06
-4.8418682e-05 0.056390204 0.06693005 0.016743846 0.031391285 -4.056303e-06 -1.33735075e-05 1.8113647e-05
-0.00026830068 0.008696941 0.05982754 8.8735214e-07 0.04872849 0.05186204 2.3327211e-05 -0.0001828544
1.7651469 0.4357461 5.5762115 -0.33545625 3.7258592 -0.30701256 1.8133878 4.2922583
0.57609487 -0.28061512 -0.010075876 4.1307244 -0.03404706 -0.82087594 0.5687052 -0.0053093443
-0.36234316 2.1263773 1.362393 5.875355 5.83369 0.23456095 0.0154751595 -0.04940575
3.120732 5.435787 5.516648 -0.0110425865 -0.6206446 0.304358 1.1740791 5.7275066
0.119279936 5.2201343 5.2636147 0.6979076 -0.4957983 0.06985149 0.60665756 5.626495
0.10689112 1.5119792 0.20230938 5.139298 5.4599986 4.752172 -1.1842955 4.9494615
2.405464 0.09240985 0.552631 1.0753065 0.27345747 5.4189816 5.2900753 0.8930115
-1.1870855 0.8806247 0.29173374 5.409654 0.2625342 0.11072143 5.1646514 1.4675883
00000000: e12a 3c39 f932 e03c b884 f0b6 3c2e 06bd
00000010: 5c48 3536 dabc f1bc f5d6 8c38 fcb6 8136
00000020: 5f9d 623b 205e 5dbd 4fcd 023d d099 21b7
00000030: fec2 f03c cb4b 8e3c 66bc 92b9 b58b f53c
00000040: acd5 a7bd 60c7 cc38 4d79 a039 deba cdb6
00000050: dacd fd34 db2b cfba b7b3 ebbb 8fa0 813c
00000060: 2ea5 f9b7 660f d235 befe 5037 4a34 93bb
00000070: 4f05 573d f540 743d c8c5 b13b 94ec 11b8
00000080: 8034 293c 71a2 b8b6 a5bc a6b6 5b93 273c
00000090: c55f ebbc d578 873d 54ac 0b3d b314 d336
000000a0: 9d3e 393d d2a3 1338 36c0 803c b09c 5436
000000b0: 81e0 ca35 f848 8937 176f 83bc d083 a535
000000c0: 2a15 4bb8 6af9 663d 9f12 893d 642a 893c
000000d0: 2694 003d 611b 88b6 c75e 60b7 c3f2 9737
000000e0: b5aa 8cb9 9d7d 0e3c b90d 753d 6032 6e35
000000f0: 8697 473d 4a6d 543d ceae c337 9bbc 3fb9
00000100: 55f0 e13f 1d1a df3e 5370 b240 ecc0 abbe
00000110: 7a74 6e40 c030 9dbe 171d e83f 2e5a 8940
00000120: f47a 133f c9ac 8fbe 4915 25bc e52e 8440
00000130: ee74 0bbd ed24 52bf aa96 113f 02fa adbb
00000140: 0b85 b9be 9116 0840 e562 ae3f e802 bc40
00000150: 97ad ba40 bf30 703e 868b 7d3c af5d 4abd
00000160: 13ba 4740 f8f1 ad40 6188 b040 f7eb 34bc
00000170: 91e2 1ebf d0d4 9b3e 3948 963f bc47 b740
00000180: 0a49 f43d 570b a740 886f a840 13aa 323f
00000190: 46d9 fdbe 4c0e 8f3d e94d 1b3f 3f0c b440
000001a0: bbe9 da3d 8988 c13f 312a 4f3e 2175 a440
000001b0: 4fb8 ae40 cb11 9840 ff96 97bf fd61 9e40
000001c0: 1ff3 1940 6041 bd3d 3a79 0d3f a5a3 893f
000001d0: 9e02 8c3e 4c68 ad40 4c48 a940 679c 643f
000001e0: 6bf2 97bf 9f70 613f 205e 953e e31b ad40
000001f0: e26a 863e ebc1 e23d d344 a540 efd9 bb3f

convs.1.linear1.weight f4 [64, 64]
1.7967185 0.004755763 1.7993743 1.4991214 1.2964256 0.92829835 1.2567675 1.1301848
1.0686986 0.6886844 0.11895 2.0930336 0.7996774 -0.08572778 -1.068135 0.4067242
1.1843919 1.191798 0.9474911 2.2281225 1.8380067 0.45752475 0.48565125 0.5152544
1.7663414 2.09091 1.9066556 0.3373317 -0.43000808 0.31410503 0.63329726 1.9109876
0.46761963 2.6140628 1.4715813 0.2080647 -0.30978435 0.34753898 0.55426425 1.8949094
0.4850192 1.7396849 0.04547663 2.2937849 2.0026908 1.3244267 -0.17517057 1.2633911
0.92422956 0.24686092 0.12900253 0.62953174 0.03772822 2.6448703 1.4255224 1.0611566
-0.46874756 0.66911036 0.37339637 1.7676337 0.008911775 0.13775975 1.9254231 1.1251781
2.074538 -0.31440976 1.9304144 0.73718935 1.3972058 1.0477129 0.9006838 0.6378849
1.350211 0.857445 -0.09265111 2.6051133 -0.09779937 -0.6661346 -0.9906143 0.14256771
1.4573978 1.2497882 1.1247858 2.796171 1.5883644 0.28184798 0.22932155 -0.10375604
1.7915703 1.9221847 2.171389 -0.07361155 -0.6744169 0.16548435 0.9919895 2.272633
0.26356903 3.0760982 1.7396872 -0.01543754 -0.58991545 0.14446193 0.47098732 2.3844013
0.68785095 1.7060467 -0.25256366 2.342893 2.1688287 0.9099624 -0.6494892 1.3464993
0.9676439 0.2897907 -0.27829236 0.67950606 -0.32850692 2.9140832 1.1990258 0.6649823
-0.9714945 0.9075796 0.19823721 1.8551917 -0.31521335 -0.24958259 2.0690386 0.9920833
1.8413359 -0.18289155 1.6141489 1.3275896 1.1993747 0.8190941 1.1823622 0.9112606
1.0120873 0.51973146 0.20182317 2.0959816 0.7060652 -0.24076751 -1.2423064 0.14791971
1.2817782 1.2844702 0.95158994 2.2068954 1.7395034 0.3831739 0.35455963 0.34037253
1.5234041 1.8386025 1.8004068 0.058583915 -0.58817184 0.20147598 0.7982035 1.8881099
0.21276414 2.4570892 1.4709964 0.25353903 -0.17393175 0.32685167 0.46314204 1.9665453
0.3510848 1.627504 0.053003527 2.2076397 1.8172464 1.4477333 -0.12707147 1.3636119
0.8401618 0.29389632 0.06668205 0.7581473 -0.14397262 2.4861443 1.3034886 0.976361
-0.4885771 0.8297831 0.32228032 1.672637 -0.07233079 0.13031247 1.7528352 1.0887252
-0.9638861 0.10833784 -0.26756567 -0.9279398 -0.33997035 -0.7029901 -0.15186666 0.07516145
-0.056628864 -0.57536846 0.0927208 -0.67030346 -0.39068428 0.5919195 0.6943179 -0.070577554
-1.0045681 -0.18959627 -0.49420592 -0.5188091 -0.20055047 -0.026671596 -0.0034100714 0.0056535653
-0.6293076 -0.087167874 -0.5257815 0.041088495 0.16417268 -0.05345759 0.034882963 -0.54070187
0.14030674 -0.38170072 -0.35814247 -0.10224726 0.03700523 0.10963316 0.09746932 -0.69469434
-0.03602758 -1.0159123 0.33108312 -0.27760205 -0.41797268 -0.21037453 0.7322506 -0.34595746
-0.24773176 -0.027340477 0.36171973 -0.010573598 0.083616346 -0.6200564 -0.111698896 -0.014770302
0.032347612 -0.0134671135 0.11962959 -0.4756885 0.005266445 0.0011968752 -0.20908126 -0.6157913
00000000: dffa e53f 3bd6 9b3b e651 e63f 36e3 bf3f
00000010: 46f1 a53f f6a4 6d3f c2dd a03f e5a9 903f
00000020: 1ecb 883f 9f4d 303f 0f9c f33d 43f4 0540
00000030: a8b7 4c3f 0c92 afbd a6b8 88bf 283e d03e
00000040: 279a 973f d68c 983f c78e 723f 8f99 0e40
00000050: ce43 eb3f af40 ea3e 48a7 f83e b6e7 033f
00000060: 7a17 e23f 78d1 0540 4a0d f43f beb6 ac3e
00000070: 052a dcbe 60d2 a03e c51f 223f 3e9b f43f
00000080: d76b ef3e ce4c 2740 c75c bc3f ea0e 553e
00000090: 0e9c 9ebe a1f0 b13e 43e4 0d3f 648c f23f
000000a0: 7054 f83e ffad de3f b445 3a3d 5fcd 1240
000000b0: 162c 0040 d086 a93f ea5f 33be cdb6 a13f
000000c0: 4f9a 6c3f 1cc9 7c3e 3d19 043e fe28 213f
000000d0: e888 1a3d 8e45 2940 8577 b63f fbd3 873f
000000e0: aeff efbe d14a 2b3f cf2d bf3e d241 e23f
000000f0: b202 123c e410 0d3e 4474 f63f d605 903f
00000100: 3bc5 0440 51fa a0be d217 f73f 71b8 3c3f
00000110: a4d7 b23f 751b 863f 3793 663f 6d4c 233f
00000120: b7d3 ac3f 8481 5b3f ddbf bdbd 2dba 2640
00000130: 094b c8bd cc87 2abf e698 7dbf 45fd 113e
00000140: 038c ba3f 0ff9 9f3f fbf8 8f3f 77f4 3240
00000150: 864f cb3f 614e 903e 45d3 6a3e 0c7e d4bd
00000160: 2d52 e53f 260a f63f 0af8 0a40 a7c1 96bd
00000170: 96a6 2cbf bb74 293e 06f3 7d3f d272 1140
00000180: 85f2 863e cbde 4440 12ae de3f bced 7cbc
00000190: b304 17bf d4ed 133e 4025 f13e 089a 1840
000001a0: 0017 303f bd5f da3f 0650 81be f5f1 1540
000001b0: 17ce 0a40 4cf3 683f ed44 26bf 175a ac3f
000001c0: 83b7 773f 725f 943e 567c 8ebe 1cf4 2d3f
000001d0: 0f32 a8be 5780 3a40 ad79 993f 483c 2a3f
000001e0: ddb3 78bf 2357 683f b2fe 4a3e ec76 ed3f
000001f0: a563 a1be 9492 7fbe 216b 0440 2cf9 7d3f
00000200: e5b0 eb3f ec47 3bbe 6e9c ce3f 75ee a93f
00000210: 1c85 993f 27b0 513f a557 973f 6048 693f
00000220: 148c 813f 1f0d 053f bcaa 4e3e 9024 0640
00000230: b0c0 343f c28b 76be e503 9fbf 4478 173e
00000240: 4f11 a43f 8569 a43f 669b 733f c63d 0d40
00000250: 0ca8 de3f 5f2f c43e d788 b53e 4f45 ae3e
00000260: e8fe c23f 5457 eb3f bb73 e63f b0f5 6f3d
00000270: 6e92 16bf b84f 4e3e 1157 4c3f 96ad f13f
00000280: d8de 593e f340 1d40 9c49 bc3f decf 813e
00000290: 2a1b 32be 1a59 a73e f420 ed3e c2b7 fb3f
000002a0: 63c1 b33e 0d52 d03f 3a1a 593d f849 0d40
000002b0: 889b e83f 534f b93f 061f 02be d68a ae3f
000002c0: d814 573f 9479 963e 9990 883d f115 423f
000002d0: 8f6d 13be fd1c 1f40 b7d8 a63f cbf2 793f
000002e0: c726 fabe aa6c 543f ed01 a53e f818 d63f
000002f0: 2a22 94bd a270 053e e75c e03f 595b 8b3f
00000300: 3dc1 76bf 3be0 dd3d 5efe 88be 768d 6dbf
00000310: 9810 aebe 29f7 33bf ef82 1bbe 3fee 993d
00000320: abf3 67bd 594b 13bf 67e4 bd3d 0299 2bbf
00000330: c507 c8be 0988 173f d1be 313f f78a 90bd
00000340: b095 80bf 8625 42be 8f08 fdbe acd0 04bf
00000350: 1a5d 4dbe 647e dabc 817b 5fbb 8b41 b93b
00000360: 4e1a 21bf 1285 b2bd 9e99 06bf 694c 283d
00000370: e21c 283e 59f6 5abd 70e1 0e3d 706b 0abf
00000380: 92ac 0f3e 476e c3be 735e b7be 0367 d1bd
00000390: cc92 173d 5a87 e03d ff9d c73d 7dd7 31bf
000003a0: a891 13bd 6a09 82bf ba83 a93e db21 8ebe
000003b0: 8400 d6be 6c6c 57be c674 3b3f 5621 b1be
000003c0: 65ad 7dbe 23f9 dfbc 5433 b93e e23c 2dbc
000003d0: 0c3f ab3d 04bc 1ebf 64c2 e4bd 23ff 71bc
000003e0: ee7e 043d 2ba5 5cbc 5c00 f53d 718d f3be
000003f0: 2592 ac3b 78e0 9c3a 6619 56be 80a4 1dbf

convs.1.linear1.bias f4 [64]
0.0039749946 -0.036635626 0.006053658 0.008971194 -0.07458176 -0.06373091 -0.010525995 0.048188776
-0.0037105104 -0.019343602 -0.044552725 -0.018090136 -0.020440096 0.030300766 -0.061158724 -0.0007621917
0.14256552 -0.08670983 0.0021712298 0.13918649 0.021546865 0.0535032 0.119865775 0.016617348
-0.04849949 0.19500704 -0.0049100984 -0.018710569 0.060967363 0.10525163 -0.07045698 -0.03479484
0.031422503 -0.012044071 0.03858404 0.01799624 0.03692778 -0.08214619 0.02015667 0.023200335
0.013261606 0.020803463 0.06541928 0.03123643 -0.021063287 -0.07395509 -0.00020358873 0.01911984
0.02279577 0.04121725 0.022507643 0.07830491 -0.03490139 -0.030989004 0.017957218 0.007335969
0.13806504 0.013401568 0.048954 -0.071779504 -0.01785554 0.029077595 0.008805692 0.02105682
00000000: ac40 823b 3d0f 16bd c45d c63b eafb 123c
00000010: 52be 98bd 5a85 82bd 3975 2cbc 9861 453d
00000020: 092c 73bb 7976 9ebc eb7c 36bd c431 94bc
00000030: fd71 a7bc 5039 f83c 9281 7abd d2cd 47ba
00000040: b2fc 113e ec94 b1bd 314b 0e3b e786 0e3e
00000050: 0d83 b03c 2c26 5b3d 307c f53d 1b21 883c
00000060: 67a7 46bd edaf 473e e4e4 a0bb e846 99bc
00000070: eab8 793d 2b8e d73d c04b 90bd 0985 0ebd
00000080: e2b4 003d 7f54 45bc 4c0a 1e3d da6c 933c
00000090: 9541 173d 433c a8bd 9a1f a53c a10e be3c
000000a0: 3547 593c 066c aa3c 8bfa 853d 8be3 ff3c
000000b0: ea8c acbc c475 97bd 6f7a 55b9 36a1 9c3c
000000c0: 32be ba3c 6bd3 283d f361 b83c 535e a03d
000000d0: c3f4 0ebd a7dc fdbc 041b 933c 9162 f03b
000000e0: ec60 0d3e 4092 5b3c fd83 483d 2201 93bd
000000f0: c845 92bc 2334 ee3c c045 103c 5a7f ac3c

convs.1.linear2.weight f4 [64, 64]
0.06612319 -0.90634626 -0.06170375 0.6213739 -0.3842304 -0.24756299 -0.24101648 0.29540882
0.053884197 -0.085181296 -0.11262446 0.00012200773 0.12832165 0.18394968 0.00711492 -0.107009925
0.54218173 -0.3122559 0.020523757 0.6054627 0.23377694 0.19518276 0.30899236 0.10655072
-0.28263485 0.73625416 -0.083629504 -0.042038236 -0.075944826 0.5246188 -0.69829345 -0.23294504
-0.021160025 -0.049648654 0.029948352 -0.0685885 0.19126366 -0.28185657 0.1365534 -0.020771718
0.11346351 0.028292928 0.16068242 0.19563805 0.010566507 -0.10149839 0.0908258 0.35674202
0.8063167 -0.1805339 -0.08011017 0.46820763 -0.029088901 -0.3460493 0.049131 0.10362916
0.47592118 0.0925429 -0.15071142 -0.83817774 -0.07892478 -0.11005166 0.039355893 0.15435411
-0.33609405 -0.853259 -0.10733046 -0.1547286 -0.74773085 -0.4587544 -0.070669405 -0.18731146
0.13588625 -0.20932306 -0.20415156 0.14134566 0.039972425 -0.009364546 -0.08761616 0.10653673
0.3352277 -0.041221365 0.13744305 0.34132397 0.08887289 0.13851283 0.37017766 0.21796721
-0.28156978 0.86130553 0.16244039 -0.29136345 -0.22471178 0.4729159 -0.7087652 -0.23116349
0.086473376 0.20370287 -0.219545 -0.39120394 0.22191113 -0.016496046 0.17767903 0.1738078
0.17233133 -0.07111103 0.60430247 0.08422838 0.028561132 -0.7832753 0.16539289 0.07807966
0.16248499 0.3153125 0.27657643 0.22404873 -0.0463138 -0.11840666 0.12149844 0.011847152
0.3744838 0.13627861 0.18174452 -0.70569193 -0.28876445 0.2556048 -0.17098911 -0.14935146
-0.08569815 -0.0547425 -0.11910449 0.13864906 -0.25027028 -0.07426654 -0.12880011 0.32530385
0.27747265 -0.018696543 -0.27490592 0.20635371 0.18399702 0.36983773 0.31806174 0.2718276
0.2772059 -0.075410515 0.08614528 0.22768831 0.15176727 0.36785075 0.14061537 0.2640256
-0.1823984 0.16758516 0.28292915 -0.22140768 0.0021187242 0.6269803 -0.138082 -0.14731723
0.33975917 0.12418233 -0.14481027 0.20454179 0.37046233 -0.15608072 0.13158125 0.0758769
0.17041339 0.18135841 0.30881214 0.10255083 0.17909688 -0.22090651 0.07377192 0.37296078
0.4265836 0.31757817 0.27853754 0.5727941 0.2125716 -0.31795812 0.24282601 0.13723502
0.20813476 0.19903348 0.3153657 -0.13286543 -0.15938301 0.12186828 -0.14666644 0.37636596
-0.07580188 -0.6115914 -0.13148683 0.5928743 -0.37105343 -0.16394877 -0.10434571 0.2303431
-0.035278816 -0.1504513 -0.17423388 0.03834685 -0.064104095 0.13188857 -0.027473502 0.12493584
0.43982428 -0.36356547 -0.12169499 0.53075975 0.13158526 0.032154724 0.42130983 0.0039776913
-0.3311007 0.91567796 0.050625168 -0.048958857 -0.04713515 0.47010103 -0.7141117 -0.2639646
0.18892677 -0.10591457 0.01820093 0.19558106 0.014261566 -0.34541094 -0.010346011 0.014351804
0.23228829 0.14908634 0.028363299 0.10025118 -0.037036516 -0.21312304 0.12057066 0.32245225
0.6219893 0.044618387 0.07034447 0.2709329 0.0059861946 -0.2047344 -0.0900523 -0.054131247
0.5716287 -0.0024587512 0.07652721 -0.7097459 -0.05023422 -0.013046355 0.050709933 0.007924202
00000000: 986b 873d 4f06 68bf 12bd 7cbd 5c12 1f3f
00000010: d9b9 c4be 2781 7dbe 06cd 76be d33f 973e
00000020: adb5 5c3d 8873 aebd a7a7 e6bd 67de ff38
00000030: c066 033e 4e5d 3c3e 4624 e93b 0528 dbbd
00000040: 6ccc 0a3f 01e0 9fbe 7021 a83c 9aff 1a3f
00000050: 3963 6f3e fddd 473e 3f34 9e3e 4437 da3d
00000060: 84b5 90be 277b 3c3f f245 abbd 4930 2cbd
00000070: f688 9bbd 6b4d 063f 5cc3 32bf 2589 6ebe
00000080: ca57 adbc 635c 4bbd 3f56 f53c 2178 8cbd
00000090: 9fda 433e 814f 90be a8d4 0b3e 7329 aabc
000000a0: 8f5f e83d 92c6 e73c ef89 243e 5755 483e
000000b0: 241f 2d3c 63de cfbd e102 ba3d e4a6 b63e
000000c0: c56a 4e3f e1dd 38be cd10 a4bd e9b8 ef3e
000000d0: d94b eebc 602d b1be 963d 493d 863b d43d
000000e0: f1ab f33e 2287 bd3d 1854 1abe d192 56bf
000000f0: 51a3 a1bd c462 e1bd a533 213d 010f 1e3e
00000100: 8514 acbe 2f6f 5abf 12d0 dbbd 2d71 1ebe
00000110: 4a6b 3fbf dbe1 eabe 1fbb 90bd 93ce 3fbe
00000120: c425 0b3e c958 56be 1b0d 51be ebbc 103e
00000130: 20ba 233d c16d 19bc 1a70 b3bd ee2f da3d
00000140: f7a2 ab3e bcd7 28bd dfbd 0c3e 04c2 ae3e
00000150: fd02 b63d 4fd6 0d3e ed87 bd3e cc32 5f3e
00000160: ea29 90be 857e 5c3f c656 263e 972d 95be
00000170: d81a 66be 0822 f23e a371 35bf 1fb6 6cbe
00000180: f418 b13d 7c97 503e 68d0 60be e24b c8be
00000190: ac3c 633e b722 87bc 7ef1 353e acfa 313e
000001a0: a077 303e a9a2 91bd 91b3 1a3f ee7f ac3d
000001b0: 09f9 e93c bb84 48bf c15c 293e 3be8 9f3d
000001c0: 7762 263e a470 a13e 6d9b 8d3e 086d 653e
000001d0: 8ab3 3dbd 317f f2bd 2dd4 f83d 8f1a 423c
000001e0: 57bc bf3e 9f8c 0b3e 3c1b 3a3e 3aa8 34bf
000001f0: efd8 93be a2de 823e c517 2fbe 97ef 18be
00000200: 8382 afbd ac39 60bd 0eed f3bd 05fa 0d3e
00000210: 6d23 80be 0e19 98bd 2de4 03be 3a8e a63e
00000220: e510 8e3e 7e29 99bc 78c0 8cbe 634e 533e
00000230: b769 3c3e 5f5b bd3e fdd8 a23e fd2c 8b3e
00000240: efed 8d3e d470 9abd f06c b03d 2027 693e
00000250: e168 1b3e ef56 bc3e 7afd 0f3e 5d2e 873e
00000260: a5c6 3abe 729b 2b3e 17dc 903e b2b8 62be
00000270: 4bda 0a3b c881 203f 5e65 0dbe 54da 16be
00000280: eaf4 ad3e 4e53 fe3d 2549 14be 6773 513e
00000290: 3dad bd3e a0d3 1fbe 3cbd 063e 5965 9b3d
000002a0: d980 2e3e 05b6 393e a01c 9e3e 2b06 d23d
000002b0: 2c65 373e 5135 62be bb15 973d b7f4 be3e
000002c0: 2a69 da3e 9b99 a23e 799c 8e3e a2a2 123f
000002d0: 5fac 593e 68cb a2be 62a7 783e 5687 0c3e
000002e0: 4721 553e 6fcf 4b3e 9d77 a13e e00d 08be
000002f0: 4d35 23be 1496 f93d ba2f 16be 0ab3 c03e
00000300: 043e 9bbd 4191 1cbf 7ca4 06be 9cc6 173f
00000310: b7fa bdbe 30e2 27be 34b3 d5bd 10df 6b3e
00000320: 8580 10bd e80f 1abe 5e6a 32be 9611 1d3d
00000330: 0249 83bd cc0d 073e 1c10 e1bc 5dde ff3d
00000340: a630 e13e 4125 babe 393b f9bd dfdf 073f
00000350: 49be 063e acb4 033d ecb5 d73e 4b57 823b
00000360: 0886 a9be df69 6a3f 565c 4f3d 1589 48bd
00000370: c910 41bd 15b1 f03e 06d0 36bf 5e26 87be
00000380: 0576 413e bde9 d8bd 1e1a 953c 6746 483e
00000390: 58a9 693c b4d9 b0be 5182 29bc d423 6b3c
000003a0: fbdc 6d3e 17aa 183e 265a e83c 7e50 cd3d
000003b0: 9ab3 17bd ed3c 5abe c0ed f63d 7618 a53e
000003c0: b13a 1f3f c5c1 363d c310 903d b8b7 8a3e
000003d0: d727 c43b e5a5 51be 576d b8bd bab8 5dbd
000003e0: 4256 123f 0023 21bb 4cba 9c3d e8b1 35bf
000003f0: 66c2 4dbd 61c0 55bc 38b5 4f3d 83d4 013c

convs.1.linear2.bias f4 [64]
-0.021318153 0.0031554103 -0.06879785 0.00012783449 0.09630121 0.096390314 0.098834924 -0.008645079
-0.010617954 -0.023785455 0.12114784 -0.0898301 0.008423798 0.04459875 0.13465203 0.108480155
-0.039267674 0.16155817 -0.052030478 -0.04040495 -0.0037603248 0.094832264 0.101925544 0.014973245
-0.03645731 0.12045811 -0.017361315 0.027374424 -0.009559363 -0.011413062 0.030629965 -0.0067619965
-0.12900467 0.07689525 0.0021866849 0.014339433 -0.10558373 0.09744789 0.025404051 0.0862327
0.10933336 0.067854285 -0.02218836 0.09750034 0.04650476 0.06781883 0.17551114 0.08750663
0.028456872 0.0020354094 -0.016682629 -0.0037179915 -0.027968507 0.10951291 -0.06320558 0.08507071
0.14053869 0.16717117 0.00534358 -0.06279747 -0.073091775 -0.034538023 0.12649477 0.011529111
00000000: 68a3 aebc 00cb 4e3b e3e5 8cbd 4f0b 0639
00000010: 9239 c53d 4968 c53d f769 ca3d 17a4 0dbc
00000020: edf6 2dbc b7d9 c2bc 5c1c f83d d8f8 b7bd
00000030: f803 0a3c 2ead 363d 39e2 093e d82a de3d
00000040: 24d7 20bd 816f 253e e91d 55bd a97f 25bd
00000050: c86f 76bb 6b37 c23d 57be d03d 5752 753c
00000060: 4354 15bd beb2 f63d 5139 8ebc 5440 e03c
00000070: e09e 1cbc dafd 3abc b1eb fa3c bd93 ddbb
00000080: cd19 04be 427b 9d3d 7c4e 0f3b f1ef 6a3c
00000090: 483c d8bd c292 c73d 281c d03c c59a b03d
000000a0: 2bea df3d 30f7 8a3d 5dc4 b5bc 42ae c73d
000000b0: c67b 3e3d 99e4 8a3d 31b9 333e ad36 b33d
000000c0: 631e e93c 8164 053b 02aa 88bc 8ca9 73bb
000000d0: 361e e5bc 4e48 e03d ed71 81bd 8d39 ae3d
000000e0: 60e9 0f3e eb2e 2b3e 3319 af3b f69b 80bd
000000f0: 24b1 95bd be77 0dbd d887 013e 99e4 3c3c

mlp1.weight f4 [64, 192]
-0.19151634 0.035281263 0.062341336 0.16836455 -0.013749437 0.20052747 0.07710008 0.080311574
0.19119708 0.22824392 0.035721596 0.06897347 -0.016825046 0.042998686 -0.004450796 0.12417748
0.17967385 -0.067475915 -0.103411935 0.2701306 0.066577874 0.21866116 0.18760486 -0.10152107
0.16288409 -0.01519522 -0.24479657 0.17889756 -0.029634362 -0.07172293 -0.24292663 -0.19043216
-0.20464775 0.08123464 0.21424696 0.07558075 0.041159827 0.27035174 0.20402916 0.27007428
-0.15982653 0.08341978 -0.18548158 0.02618868 -0.06048416 0.1401644 -0.2461995 -0.1512655
0.00047254105 0.02674877 -0.26084098 -0.15499271 0.01615822 0.12408918 0.12296365 -0.15240207
-0.077732675 0.027823027 -0.16288686 0.16293025 0.017658386 0.080868185 -0.15666962 0.01749918
-0.035360876 0.047524907 -0.087397195 -1.9651408e-05 -0.14832667 0.017935913 -0.088869445 -0.06378086
-0.0047362065 0.08348291 0.10526439 -0.07916646 0.106150456 -0.33663917 -0.061161496 0.108294494
-0.0110602975 0.027910933 -0.059036843 -0.10318456 -0.03127862 0.0627282 0.07496341 0.12264733
-0.022200461 0.0019252382 -0.086573064 0.0058926446 0.07591797 0.058381487 0.026049346 -0.09057749
0.05517728 -0.051236447 -0.022747213 0.03446326 0.014106832 0.0853059 -0.26606727 -0.087946
0.0818626 0.030621465 0.066202074 -0.023436712 -0.062827736 -0.005319487 -0.2346663 -0.00082291645
-0.049622934 0.105260156 0.08128646 -0.01224005 0.10754886 0.029350303 -0.016018255 0.035101436
0.0018415537 0.012236204 -0.037478548 -0.09397296 0.12542035 0.09778641 -0.0010648661 -0.12103403
-0.15957414 -0.088465855 -0.16887622 -0.33365935 0.33711267 0.25521806 0.26968312 -0.043220416
-0.11439424 0.097882316 0.22344539 0.29010126 0.34558296 0.16394018 0.23703581 0.3019084
0.111978985 0.2642624 0.33600286 -0.045899358 -0.0028223037 0.29071727 0.260391 -0.057835795
0.5280839 0.21212427 0.031945236 -0.03166372 0.17625722 -0.07334976 0.38990462 0.17022829
-0.26883692 0.28218782 0.23054418 0.32928604 -0.18232305 0.23186374 -0.13018252 0.24265203
0.2115321 -0.44380227 -0.005117368 0.23225296 0.16374442 0.019321108 0.24359849 0.28934222
-0.105888106 -0.22414736 -0.22818851 0.36433184 -0.1601115 0.22111183 0.48751333 0.28752887
0.27629337 0.19443314 0.3650458 -0.2829874 -0.3097199 0.27515537 0.26308513 0.07059938
-0.05449437 0.3035867 0.21410072 0.1037855 0.16950174 0.041257612 -0.14364807 0.12099607
0.15285167 0.089175805 -0.23049015 0.2860973 -0.2331036 -0.17016445 -0.22179379 -0.14449225
0.18772212 0.00670132 0.17119567 0.1517776 -0.25588834 -0.11111122 -0.010758262 -0.11331584
-0.139725 0.21988724 -0.02039313 -0.094590165 0.1159409 -0.24436037 -0.06593258 -0.20788099
-0.12399628 0.14777128 0.115499526 -0.22624475 -0.083685346 0.09965497 0.27016962 0.1469133
-0.17256284 -0.31835756 -0.26713565 0.24002169 -0.01452849 0.014668219 -0.083371885 -0.041001596
0.21782883 0.23654114 -0.011968059 0.058221065 0.19894229 0.29713184 0.11376867 -0.06214252
-0.28807664 -0.08367453 -0.19529329 0.17443436 0.27692235 0.19330336 -0.13896619 0.18213056
00000000: dc1c 44be 1683 103d a159 7f3d c267 2c3e
00000010: 5245 61bc 1357 4d3e a6e6 9d3d 657a a43d
00000020: 2bc9 433e c6b8 693e cf50 123d f641 8d3d
00000030: aed4 89bc 641f 303d fcd7 91bb c350 fe3d
00000040: 6cfc 373e d030 8abd a3c9 d3bd 8f4e 8a3e
00000050: fb59 883d b6e8 5f3e 7d1b 403e 47ea cfbd
00000060: 16cb 263e 5ff5 78bc f4ab 7abe ec30 373e
00000070: c3c3 f2bc 79e3 92bd c2c1 78be a600 43be
00000080: 2e8f 51be 595e a63d 8e63 5b3e 15ca 9a3d
00000090: 3597 283d 8b6b 8a3e 05ed 503e 2d47 8a3e
000000a0: 91a9 23be fdd7 aa3d e2ee 3dbe a589 d63c
000000b0: 3dbe 77bd 4287 0f3e b91b 7cbe 58e5 1abe
000000c0: 63bf f739 3d20 db3c f38c 85be 69b6 1ebe
000000d0: 3e5e 843c 7822 fe3d 5ed4 fb3d 4a0f 1cbe
000000e0: 4f32 9fbd 1eed e33c d0cb 26be 30d7 263e
000000f0: 52a8 903c 389e a53d 006e 20be 715a 8f3c
00000100: 91d6 10bd 7aa9 423d 4dfd b2bd 14d9 a4b7
00000110: f2e2 17be 56ee 923c 2f01 b6bd 8a9f 82bd
00000120: 2e32 9bbb 17f9 aa3d db94 d73d 0622 a2bd
00000130: 6965 d93d f85b acbe 7a84 7abd 81c9 dd3d
00000140: 4036 35bc 78a5 e43c 9ed0 71bd 6d52 d3bd
00000150: 031e 00bd a477 803d 6b86 993d 862e fb3d
00000160: bedd b5bc 4658 fc3a 384d b1bd 1617 c13b
00000170: e17a 9b3d 6d21 6f3d 7065 d53c b180 b9bd
00000180: 9201 623d 4fdd 51bd 5d58 babc 5929 0d3d
00000190: 5820 673c dcb4 ae3d f839 88be 081d b4bd
000001a0: 94a7 a73d ded9 fa3c f494 873d 59fe bfbc
000001b0: d4ab 80bd 174f aebb 5d4c 70be fdb8 57ba
000001c0: 6b41 4bbd a392 d73d 8479 a63d 7e8a 48bc
000001d0: 9442 dc3d 0c70 f03c b738 83bc 86c6 0f3d
000001e0: 4a60 f13a 5c7a 483c 1b83 19bd e574 c0bd
000001f0: 316e 003e 3e44 c83d fa92 8bba b1e0 f7bd
00000200: 6767 23be 962d b5bd e3ed 2cbe 66d5 aabe
00000210: 089a ac3e f1ab 823e e813 8a3e e407 31bd
00000220: 8747 eabd 8676 c83d dece 643e 2788 943e
00000230: 40f0 b03e efdf 273e 84b9 723e bd93 9a3e
00000240: 3d55 e53d 674d 873e 9108 ac3e f700 3cbd
00000250: 66f6 38bb e5d8 943e f851 853e 3ae5 6cbd
00000260: 8230 073f 1b37 593e 02d9 023d d1b1 01bd
00000270: c67c 343e 6638 96bd 94a1 c73e 5350 2e3e
00000280: fea4 89be ec7a 903e c613 6c3e 2e98 a83e
00000290: e5b2 3abe b06d 6d3e 914e 05be c679 783e
000002a0: df9b 583e 0d3a e3be 98af a7bb b8d3 6d3e
000002b0: 9eac 273e 4d47 9e3c e271 793e aa24 943e
000002c0: dddb d8bd e386 65be 40aa 69be b489 ba3e
000002d0: 45f4 23be 246b 623e 599b f93e fc36 933e
000002e0: 5376 8d3e 7b19 473e 48e7 ba3e b9e3 90be
000002f0: 9b93 9ebe 2ae1 8c3e 18b3 863e 6896 903d
00000300: 7d35 5fbd b76f 9b3e 383d 5b3e 7e8d d43d
00000310: dd91 2d3e befd 283d 7b18 13be cacc f73d
00000320: 2685 1c3e cea1 b63d 9c05 6cbe 587b 923e
00000330: b6b2 6ebe 973f 2ebe e91d 63be c7f5 13be
00000340: 3a3a 403e bf96 db3b eb4d 2f3e 966b 1b3e
00000350: cc03 83be 488e e3bd 6c43 30bc 2312 e8bd
00000360: 1214 0fbe 1f2a 613e 7e0f a7bc 7db8 c1bd
00000370: 6c72 ed3d 9b39 7abe a907 87bd c1de 54be
00000380: c3f1 fdbd 5b51 173e 048b ec3d b4ac 67be
00000390: 3963 abbd e817 cc3d ac53 8a3e 7170 163e
000003a0: 50b4 30be c3ff a2be 01c6 88be 3fc8 753e
000003b0: e708 6ebc f852 703c e1be aabd 4af1 27bd
000003c0: 850e 5f3e d737 723e ae15 44bc 3679 6e3d
000003d0: 87b7 4b3e aa21 983e 8cff e83d 2889 7ebd
000003e0: c87e 93be 8d5d abbd f7fa 47be ec9e 323e
000003f0: c4c8 8d3e 51f1 453e 274d 0ebe 6f80 3a3e

mlp1.bias f4 [64]
0.026447814 0.123449005 -0.056838658 0.1127612 0.2845085 0.16653593 0.14311334 0.14629066
-0.09411645 -0.04066263 0.054079626 0.11478718 0.03592419 0.13529207 0.08287321 0.11248047
0.07729371 -0.0021643152 0.03985931 0.13831891 0.060663305 -0.009289362 0.05740339 0.114335045
0.08838929 0.18937825 0.17029989 -0.072398454 0.08346897 0.08098205 0.17767453 0.0075278655
-0.12257818 0.0015132759 -0.11566131 0.076919034 0.15141457 0.09112451 0.043504152 0.10906623
0.03803082 -0.106720604 0.061630514 -0.22778776 -0.05382084 0.02910103 0.021585364 0.12835754
-0.017968945 0.14248213 0.082328856 -0.09243266 -0.01563963 0.120522566 0.20304371 0.040508352
0.055650055 0.14793576 0.016937712 -0.008377939 0.04973474 -0.01363534 0.12264049 0.049855527
00000000: 16a9 d83c d5d2 fc3d a7cf 68bd 58ef e63d
00000010: 19ab 913e 6588 2a3e 4e8c 123e 38cd 153e
00000020: 20c0 c0bd dc8d 26bd 9982 5d3d 8b15 eb3d
00000030: 3e25 133d 018a 0a3e 6eb9 a93d 295c e63d
00000040: 2a4c 9e3d 2fd7 0dbb 8443 233d 79a3 0d3e
00000050: 167a 783d 6832 18bc d11f 6b3d 7e28 ea3d
00000060: 7205 b53d 5fec 413e 1863 2e3e a445 94bd
00000070: c8f1 aa3d ebd9 a53d 50f0 353e 50ac f63b
00000080: 450a fbbd 1d59 c63a d6df ecbd ba87 9d3d
00000090: 6c0c 1b3e 7d9f ba3d 6931 323d 1e5e df3d
000000a0: 35c6 1b3d 5590 dabd 4770 7c3d 3241 69be
000000b0: 3e73 5cbd 4965 ee3c cad3 b03c 2970 033e
000000c0: 9c33 93bc d6e6 113e 089c a83d 564d bdbd
000000d0: ae1e 80bc 89d4 f63d b1ea 4f3e 16ec 253d
000000e0: 50f1 633d 797c 173e f5c0 8a3c a043 09bc
000000f0: a8b6 4b3d c366 5fbc f02a fb3d 4f35 4c3d
