Saved_Models/TSP_200/scatgnn_layer_2_hid_64_model_290_temp_3.500.pth (torch, 179911 bytes, 24 tensors)

bn0.weight f4 [2]
1.0 1.0
00000000: 0000 803f 0000 803f

bn0.bias f4 [2]
0.0 0.0
00000000: 0000 0000 0000 0000

bn0.running_mean f4 [2]
0.0 0.0
00000000: 0000 0000 0000 0000

bn0.running_var f4 [2]
1.0 1.0
00000000: 0000 803f 0000 803f

in_proj.weight f4 [64, 2]
-0.6299633 0.26830038 -0.7078826 -0.70179784 -0.17232856 -1.120871 0.31625894 -0.3082162
-0.3395234 -0.5437479 0.48263684 -0.29454446 0.5204137 0.050279204 -0.16810575 -0.6102552
0.30054095 -1.0523535 0.5050397 -0.8598815 0.5818919 0.30776894 -0.038611807 -0.7340236
0.17669195 0.6820493 0.7959019 0.5747683 0.9943497 0.5545398 1.132776 -0.13974614
0.3336126 -0.50805736 -0.72222984 -0.27431944 -0.9152113 -0.26148677 0.4405358 -1.1099428
1.0588226 0.65206283 0.9584741 -0.013383709 0.9982203 -0.45664153 -0.18713944 1.0330893
0.87825274 -0.18291669 -0.48928848 -0.9619974 -0.83730286 0.6971422 0.7537789 -0.20482117
-0.104126476 -0.7156019 0.14766699 0.711812 -0.7798842 0.51931787 -0.017176075 0.7989717
-0.7052358 0.48741338 -0.11789756 -0.9582218 0.56336784 -1.0487072 0.7026582 0.34814015
0.5465896 -0.34999815 0.9092244 -0.48389775 0.06294714 -0.7535456 0.28894022 -0.875964
-0.74299204 0.50884354 0.9450527 0.904972 -0.03683525 0.8331196 -0.92211527 -0.7266811
-0.07851771 0.6489474 0.8219246 -0.36302152 -1.0495752 0.3476063 -0.48970327 -0.04677605
-0.4669084 -0.96888417 -0.5840409 -0.64523566 -0.8295848 0.30148336 -0.9266805 -0.20644346
-0.8533498 -0.32718006 -0.264289 -0.8557644 0.1482494 -0.8219475 -0.8469339 0.31757924
0.67782617 1.02266 0.4292149 -0.13119045 -0.10142944 0.77731395 0.034877945 -0.24793446
-0.63974184 -0.7564776 -0.045774747 -0.3755722 -0.4874497 1.076538 -0.19611672 -0.9542731
00000000: 4645 21bf ab5e 893e cb37 35bf 06a9 33bf
00000010: e676 30be b378 8fbf b1ec a13e 84ce 9dbe
00000020: 03d6 adbe 1033 0bbf 2d1c f73e 88ce 96be
00000030: d539 053f 91f1 4d3d ea23 2cbe af39 1cbf
00000040: 81e0 993e 85b3 86bf 484a 013f 3221 5cbf
00000050: def6 143f e493 9d3e 6a27 1ebd f8e8 3bbf
00000060: bcee 343e c89a 2e3f 3ac0 4b3f 0424 133f
00000070: b48d 7e3f 52f6 0d3f cefe 903f 9d19 0fbe
00000080: 45cf aa3e 0c10 02bf 0ee4 38bf 9973 8cbe
00000090: 4a4b 6abf 98e1 85be e98d e13e 9b12 8ebf
000000a0: 8087 873f 97ed 263f 8f5e 753f 5847 5bbc
000000b0: 5e8b 7f3f ebcc e9be 7ba1 3fbe 453c 843f
000000c0: 2cd5 603f 834e 3bbe 0584 fabe 7645 76bf
000000d0: 7b59 56bf e977 323f a7f7 403f a4bc 51be
000000e0: 4340 d5bd b031 37bf 0436 173e 5039 363f
000000f0: 7ea6 47bf 04f2 043f d7b4 8cbc 6989 4c3f
00000100: 558a 34bf 3f8e f93e 4774 f1bd 064e 75bf
00000110: e038 103f 0a3c 86bf 68e1 333f 6d3f b23e
00000120: 4ced 0b3f f532 b3be eec2 683f 72c1 f7be
00000130: 6eea 803d 5de8 40bf f9ef 933e 2d3f 60bf
00000140: ba34 3ebf 9243 023f f9ee 713f 3fac 673f
00000150: 8fe0 16bd 5347 553f bf0f 6cbf c607 3abf
00000160: e5cd a0bd 6b21 263f a769 523f f5dd b9be
00000170: 7b58 86bf 74f9 b13e 63ba fabe 3e98 3fbd
00000180: 9e0e efbe cb08 78bf b483 15bf 2a2e 25bf
00000190: ab5f 54bf 075c 9a3e ef3a 6dbf ea65 53be
000001a0: 2275 5abf 2584 a7be e350 87be 6013 5bbf
000001b0: b1ce 173e 276b 52bf a9d0 58bf bf99 a23e
000001c0: 0486 2d3f 86e6 823f 0ec2 db3e ca56 06be
000001d0: 3dba cfbd 0cfe 463f 2ddc 0e3d 88e2 7dbe
000001e0: 1fc6 23bf 84a8 41bf 4d7e 3bbd 004b c0be
000001f0: 0293 f9be ffcb 893f d2d2 48be 3e4b 74bf

in_proj.bias f4 [64]
-0.25885805 0.3147066 -0.023490792 0.49851534 0.4952344 0.3581046 -0.5665208 -0.2741437
-0.41079846 -0.0057317168 -0.19173853 -0.023427332 0.23725545 -0.113147005 -0.40676552 0.0036369439
0.27732828 -0.6148588 0.4107465 -0.0045924746 0.0039214836 0.36150163 -0.5716825 0.39874706
-0.23695499 -0.38973156 0.0037144688 -0.15370321 -0.23672673 -0.22190794 -0.32401836 -0.490747
0.23099758 -0.5592262 -0.09201007 -0.0028117038 -0.5003489 0.01873476 0.43411127 -0.07659092
-0.42834622 0.27223006 -0.09355258 0.61316895 0.5468254 -0.024040598 -0.31974384 -0.2952728
0.49826372 0.014603465 -0.15350197 -0.6371195 0.4256569 0.40639237 -0.07540063 -0.116670005
-0.46948308 -0.20445125 -0.1784895 0.37629828 0.016585983 0.22067706 -0.051509134 -0.5993804
00000000: 0b89 84be 3921 a13e c36f c0bc 673d ff3e
00000010: 5d8f fd3e 7c59 b73e 8207 11bf 905c 8cbe
00000020: 2d54 d2be 20d1 bbbb 1b57 44be adea bfbc
00000030: 18f3 723e 9eb9 e7bd 9243 d0be cb59 6e3b
00000040: f9fd 8d3e 6367 1dbf 5e4d d23e 787c 96bb
00000050: ca7f 803b be16 b93e c959 12bf 9328 cc3e
00000060: 54a4 72be e58a c7be 726e 733b 6064 1dbe
00000070: 7e68 72be d63b 63be bce5 a5be 3143 fbbe
00000080: a18a 6c3e 7329 0fbf c76f bcbd 9044 38bb
00000090: de16 00bf a479 993c d543 de3e b3db 9cbd
000000a0: 3250 dbbe bd61 8b3e 7f98 bfbd a4f8 1c3f
000000b0: c0fc 0b3f caf0 c4bc 77b5 a3be ff2d 97be
000000c0: 6c1c ff3e 5f43 6f3c 9f2f 1dbe 431a 23bf
000000d0: b4ef d93e a912 d03e a56b 9abd aff0 eebd
000000e0: 1660 f0be ab5b 51be f4c5 36be 2baa c03e
000000f0: 54df 873c 2bf9 613e 3efb 52bd fe70 19bf

convs.0.a f4 [128, 1]
-0.00949013 -0.02391767 -0.006583582 -0.0010143528 -0.018700156 -0.005467348 -0.0005812155 0.0002509173
-0.006002988 -0.0002778648 0.0012426403 -0.005955132 0.0016021432 -0.0025510825 0.0031413382 0.0011013153
-0.0062954845 -0.0050904974 -0.01737682 -0.0103204455 0.0019082722 0.0061726924 0.0009587692 -0.009998106
0.0104647055 -0.00032175262 -0.012513957 0.009941824 0.0016915075 -0.0040058712 -0.010301609 -0.0009843203
-0.013623135 3.6972273e-05 -0.005871417 -0.0042264056 -0.0022233212 0.00050855306 -0.007325355 -0.006053075
-0.007608754 0.017014896 -0.0055651343 -0.027309326 -0.0061518783 0.0010543307 -0.013837381 -0.0075055375
-0.023598837 -0.013650357 -0.011665975 -0.008698462 -0.025108391 -0.02068988 -0.0025595871 -0.010423682
0.0012058057 0.0036818308 -0.008596268 -0.00033585308 -0.006096344 -0.00908933 -0.014795576 0.00061317807
0.65301365 1.1439434 0.916226 0.14106749 0.22140014 0.20869724 0.67172694 0.6932274
0.79784477 1.0418044 0.633407 0.89908135 1.2013531 0.6482481 0.62944555 1.0313895
1.3553046 0.615015 0.64318734 1.0710472 1.0269231 1.007146 0.6962 0.6622708
0.6236271 0.7412637 0.992179 0.6376326 0.67735445 0.65886337 0.7064391 0.709733
1.0513592 0.7061946 1.0506856 1.0489622 0.6686404 1.2389367 0.51796585 0.8661184
0.75340164 1.1208502 0.72628814 0.456252 0.19854212 0.9351911 0.6347738 0.61539114
0.6300888 0.88291574 0.63617265 0.6600945 0.6165573 0.79709005 0.88317746 0.6314694
0.6601123 0.62831974 0.887338 0.08762879 0.93272436 0.21594177 0.9758812 0.7064427
00000000: 7d7c 1bbc fdee c3bc 17bb d7bb 08f4 84ba
00000010: 1231 99bc 7027 b3bb b65c 18ba 8d8d 8339
00000020: b7b4 c4bb 62ae 91b9 17e0 a23a 4523 c3bb
00000030: 01ff d13a 1030 27bb e9de 4d3b 025a 903a
00000040: 5a4a cebb 30ce a6bb d559 8ebc 1617 29bc
00000050: fd1e fa3a 4c44 ca3b e955 7b3a 19cf 23bc
00000060: 2874 2b3c e8b0 a8b9 5707 4dbc 08e3 223c
00000070: 93b5 dd3a af43 83bb 14c8 28bc 4f04 81ba
00000080: 9233 5fbc ad12 1b38 0465 c0bb a97d 8abb
00000090: 24b5 11bb 6b50 053a 8809 f0bb e058 c6bb
000000a0: db52 f9bb d362 8b3c bb5b b6bb cfb7 dfbc
000000b0: b295 c9bb 7831 8a3a 2fb6 62bc 03f1 f5bb
000000c0: 5952 c1bc bfa5 5fbc a522 3fbc fe83 0ebc
000000d0: 1db0 cdbc d37d a9bc bfbe 27bb 17c8 2abc
000000e0: 200c 9e3a df4a 713b 5cd7 0cbc 7015 b0b9
000000f0: d7c3 c7bb 6aeb 14bc 2569 72bc afbd 203a
00000100: e72b 273f bd6c 923f ca8d 6a3f ff73 103e
00000110: b8b6 623e bbb4 553e 4cf6 2b3f 5a77 313f
00000120: 8e3f 4c3f d959 853f f626 223f 322a 663f
00000130: f0c5 993f 96f3 253f 5823 213f 9204 843f
00000140: 9f7a ad3f 9f71 1d3f eda7 243f 1318 893f
00000150: 3772 833f 29ea 803f 2a3a 323f 948a 293f
00000160: 07a6 1f3f 75c3 3d3f 71ff 7d3f e43b 233f
00000170: 1a67 2d3f 45ab 283f 31d9 343f 10b1 353f
00000180: f092 863f 2bc9 343f de7c 863f 6544 863f
00000190: 042c 2b3f 7a95 9e3f 6999 043f efb9 5d3f
000001a0: eede 403f 0578 8f3f 05ee 393f dd99 e93e
000001b0: a04e 4b3e af68 6f3f 8980 223f 468a 1d3f
000001c0: 804d 213f c406 623f 36dc 223f f4fb 283f
000001d0: b3d6 1d3f 180e 4c3f eb17 623f fba7 213f
000001e0: 1ffd 283f 90d9 203f 9528 633f b976 b33d
000001f0: 06c7 6e3f d71f 5d3e 5ad3 793f 6ed9 343f

convs.0.linear1.weight f4 [64, 64]
-0.27661866 -0.07747741 -0.21739873 -0.14206524 0.03326686 -0.15595502 -0.23933743 -0.227881
-0.04743112 0.002403345 -0.0980856 -0.12668784 -0.2905001 -0.16163298 -0.26156744 -0.40848473
0.0274326 -0.22455059 -0.1461064 -0.062001295 -0.1979465 -0.34999964 -0.38118967 0.17914413
-0.24634352 -0.24512935 -0.23512036 -0.31935078 -0.08225762 -0.32874772 -0.3169412 -0.20300576
-0.121524006 -0.0019804994 0.17804453 -0.15960589 -0.22569221 -0.26335618 0.05985958 0.049130548
-0.33275715 -0.25830886 0.09486323 0.023658713 0.035565678 -0.28704697 -0.3487658 -0.38363326
-0.07040412 0.06584439 -0.3959662 -0.13246274 0.022394385 -0.12445947 -0.06103648 -0.43667164
-0.247852 -0.20803472 0.051897947 0.042538375 -0.16702287 -0.081387974 0.11813773 -0.1466473
-0.11937785 -0.07040264 0.2616956 -0.22267225 -0.05446738 -0.17120892 -0.14227279 0.20216115
0.124080874 -0.068428546 0.024790308 0.091078974 0.15781522 0.090882696 0.11639328 -0.18800992
-0.24607578 -0.16483842 -0.290353 -0.11408723 0.06669089 -0.08355847 0.019725576 0.03668346
-0.102449484 0.2642225 -0.09365265 -0.05781133 0.12010263 0.34248012 -0.1529481 0.28044537
-0.09705199 0.17659716 -0.125121 -0.08007904 0.09308606 -0.24430846 0.21879987 0.07955722
-0.02062302 0.048817847 0.2119781 -0.29336998 -0.008092151 -0.26735032 -0.029510796 -0.15990244
0.13867521 0.023096796 -0.11424151 -0.17315543 -0.31330547 0.07276624 0.28754285 -0.15964226
0.1044124 -0.23364706 0.3528258 -0.1876702 0.015493948 0.011035581 0.05956656 0.21145807
0.096708044 0.41301623 0.19252135 0.016909143 0.12714384 -0.25910163 0.25047737 0.44294292
-0.5002049 -0.36972392 0.49461725 -0.058470596 0.19535922 0.509874 0.40177843 0.1698488
-0.51545316 0.29932836 0.2046619 -0.58537674 0.53230196 0.16673711 -0.096398816 -0.45428255
0.30744797 0.5037003 -0.144135 0.2996221 0.2436229 0.34832305 -0.18289404 -0.11908043
-0.34309033 0.19243753 -0.62955505 0.46137956 -0.20099768 -0.31426194 -0.47598612 -0.64342666
-0.32592717 0.30529034 -0.012731031 0.27400655 -0.45731413 0.003396341 0.09753226 0.30711633
0.26135126 0.33161926 0.1279283 0.49261397 0.23781867 0.2154473 -0.4892754 0.15239945
0.44900042 0.26255772 -0.34095284 -0.24990515 0.42639494 -0.07009319 -0.49907228 0.24788901
-0.109744795 0.3571521 -0.0040777624 -0.13683066 -0.09187908 -0.33484694 -0.021896137 0.15294658
-0.25757277 -0.2631325 0.48281673 -0.2420508 0.054186933 0.578734 0.4195666 0.00088172965
-0.2635589 0.31984103 0.030399108 -0.33017027 0.23777224 -0.12771372 -0.1578063 -0.6365627
-0.10517249 0.21435492 -0.052759252 -0.1074566 0.110884264 0.05417191 -0.14405087 -0.2952839
-0.2115577 0.045059312 -0.20819506 0.20919275 -0.03170666 -0.40941358 -0.47631234 -0.3225149
-0.074308276 0.3623429 -0.27037457 0.016401127 -0.31549692 -0.17659083 -0.040893834 0.0045206742
0.076313786 0.51045793 -0.19095185 0.18146904 0.017411062 -0.044846833 -0.18428634 -0.0466257
0.40352342 -0.2303429 -0.26469174 -0.38636145 0.38168874 -0.37435406 -0.20860201 0.21053997
00000000: f6a0 8dbe 7aac 9ebd c69d 5ebe 8d79 11be
00000010: d542 083d acb2 1fbe df14 75be a359 69be
00000020: 2247 42bd 7081 1d3b 1ae1 c8bd 75ba 01be
00000030: 6ebc 94be 1e83 25be 2bec 85be e924 d1be
00000040: 55ba e03c 97f0 65be eb9c 15be 12f5 7dbd
00000050: 7db2 4abe 2733 b3be 4b2b c3be 8f71 373e
00000060: 7a41 7cbe 3003 7bbe 64c3 70be f281 a3be
00000070: af76 a8bd 9f51 a8be 1e46 a2be bee0 4fbe
00000080: 94e1 f8bd 44cb 01bb 4e51 363e ba6f 23be
00000090: dc1b 67be 9fd6 86be 522f 753d 1d3d 493d
000000a0: 255f aabe 0f41 84be a747 c23d ebcf c13c
000000b0: 51ad 113d d2f7 92be 6e91 b2be 946b c4be
000000c0: 0930 90bd 6cd9 863d 15bc cabe 50a4 07be
000000d0: 6e74 b73c 9be4 febd 6301 7abd 6d93 dfbe
000000e0: eacc 7dbe 0e07 55be f192 543d b83c 2e3d
000000f0: 0b08 2bbe bdae a6bd 32f2 f13d b62a 16be
00000100: 607c f4bd 422f 90bd f7fc 853e 3204 64be
00000110: 3019 5fbd 6451 2fbe f5af 11be 5503 4f3e
00000120: 1d1e fe3d 4424 8cbd 0b15 cb3c 9d87 ba3d
00000130: 509a 213e b520 ba3d 9a5f ee3d ac85 40be
00000140: 4afb 7bbe 67cb 28be 26a9 94be 91a6 e9bd
00000150: 3c95 883d b420 abbd 8897 a13c 6541 163d
00000160: 09d1 d1bd 2c48 873e f6cc bfbd 93cb 6cbd
00000170: 5ef8 f53d 8e59 af3e 6d9e 1cbe 8996 8f3e
00000180: 32c3 c6bd e3d5 343e b81f 00be 7b00 a4bd
00000190: e7a3 be3d ff2b 7abe 130d 603e e5ee a23d
000001a0: 9cf1 a8bc 39f5 473d c910 593e 9734 96be
000001b0: f194 04bc 24e2 88be a0c0 f1bc 77bd 23be
000001c0: e000 0e3e 7e35 bd3c 74f7 e9bd a84f 31be
000001d0: 9369 a0be 7706 953d d138 933e 4379 23be
000001e0: 2bd6 d53d 2d41 6fbe 95a5 b43e 9e2c 40be
000001f0: 54da 7d3c 95ce 343c 11fc 733d 7788 583e
00000200: de0e c63d dd76 d33e 5124 453e 0b85 8a3c
00000210: ff31 023e f8a8 84be 923e 803e 6ac9 e23e
00000220: 6e0d 00bf 744c bdbe 793e fd3e dd7e 6fbd
00000230: 3f0c 483e 1a87 023f e7b5 cd3e d8ec 2d3e
00000240: bdf4 03bf 9141 993e e492 513e 40db 15bf
00000250: f144 083f 22bd 2a3e be6c c5bd b997 e8be
00000260: d269 9d3e 81f2 003f 2098 13be 1168 993e
00000270: 4878 793e 6657 b23e 9348 3bbe 71e0 f3bd
00000280: 89a9 afbe 580e 453e 852a 21bf f139 ec3e
00000290: 56d2 4dbe f1e6 a0be 74b4 f3be 9cb7 24bf
000002a0: eddf a6be 044f 9c3e d095 50bc 964a 8c3e
000002b0: 1425 eabe 2695 5e3b febe c73d 5a3e 9d3e
000002c0: d5cf 853e 00ca a93e a3ff 023e e637 fc3e
000002d0: bd86 733e 389e 5c3e 4e82 fabe 9a0e 1c3e
000002e0: 62e3 e53e f76d 863e 5f91 aebe 23e7 7fbe
000002f0: 7050 da3e 058d 8fbd 6786 ffbe 9ed6 7d3e
00000300: e1c1 e0bd a4dc b63e c09e 85bb 561d 0cbe
00000310: 192b bcbd 0f71 abbe 875f b3bc 079e 1c3e
00000320: 94e0 83be 4eb9 86be c133 f73e 2adc 77be
00000330: 1ef3 5d3d e927 143f 6fd1 d63e e023 673a
00000340: 31f1 86be 34c2 a33e 8d07 f93c 140c a9be
00000350: 917a 733e 63c7 02be fa97 21be c6f5 22bf
00000360: ad64 d7bd db7f 5b3e 161a 58bd 3512 dcbd
00000370: 4a17 e33d 5de3 5d3d 1282 13be 742f 97be
00000380: 95a2 58be 1d90 383d 1631 55be a036 563e
00000390: d8de 01bd a89e d1be 36df f3be ac20 a5be
000003a0: f02e 98bd 0285 b93e 896e 8abe a85b 863c
000003b0: d088 a1be 3ad4 34be 4b80 27bd 2a22 943b
000003c0: 674a 9c3d 5fad 023f e288 43be 05d3 393e
000003d0: a5a1 8e3c 50b1 37bd 8fb5 3cbe 97fa 3ebd
000003e0: 9f9a ce3e 02df 6bbe ad85 87be 2bd1 c5be
000003f0: b56c c33e 56ab bfbe c49b 55be ca97 573e

convs.0.linear1.bias f4 [64]
-0.11328379 0.7451128 0.063011736 0.3600927 0.64844996 0.014107786 -0.08345434 -0.15549852
0.24623415 -0.5347348 0.3234447 -0.13006078 -0.041757666 0.0007095997 0.20339811 -0.015578197
-0.34890148 -0.00814125 -0.03290845 0.09671157 -0.27496597 -0.15714657 -0.5142317 -0.43069884
0.034702916 0.10368856 -0.7209552 -0.6504917 -0.015011972 -0.28423497 -0.024382021 -0.053505868
-0.042655673 0.16835955 0.007884388 -0.29407635 0.07716221 0.3025239 -0.20416951 -0.027905667
-0.019053524 0.22889945 -0.0048729037 0.005491364 -0.00017984516 -0.03226931 -0.015394427 0.5380206
0.09670839 -0.013265183 -0.20143825 -0.2161342 0.26258275 -0.6783371 0.3923108 0.74118835
-0.31019422 -0.08849903 -0.35107663 0.084254876 -0.28457123 -0.007565715 0.0076747243 0.5077446
00000000: 5501 e8bd b6bf 3e3f 4c0c 813d 125e b83e
00000010: d100 263f 5824 673c 1cea aabd 013b 1fbe
00000020: ce24 7c3e 61e4 08bf 8b9a a53e a72e 05be
00000030: 160a 2bbd 6e04 3a3a 9847 503e b23b 7fbc
00000040: 37a3 b2be e162 05bc 03cb 06bd b710 c63d
00000050: 57c8 8cbe 08eb 20be b0a4 03bf 8f84 dcbe
00000060: a524 0e3d ab5a d43d 8590 38bf a086 26bf
00000070: c6f4 75bc 3f87 91be cebc c7bc f828 5bbd
00000080: b7b7 2ebd 7266 2c3e 852d 013c 2d91 96be
00000090: 3907 9e3d 6ae4 9a3e d011 51be 6d9a e4bc
000000a0: 2316 9cbc 9e64 6a3e e1ac 9fbb e6f0 b33b
000000b0: d194 3cb9 d32c 04bd e838 7cbc b8bb 093f
000000c0: 0c0f c63d 3656 59bc d445 4ebe 4952 5dbe
000000d0: 3f71 863e 80a7 2dbf f6dc c83e 85be 3d3f
000000e0: c7d1 9ebe fb3e b5bd 51c0 b3be d28d ac3d
000000f0: 52b3 91be d1e9 f7bb 417c fb3b 8dfb 013f

convs.0.linear2.weight f4 [64, 64]
0.1277665 -0.5263122 -0.244297 -0.15638605 -0.048778567 0.033390965 0.001941064 -0.028776325
-0.044736937 0.5555931 -0.16034095 -0.035907336 -0.10349958 -0.06256423 -0.18428527 0.21594702
0.04283955 -0.1687314 0.33755714 -0.2775724 -0.5666663 0.11675053 0.6473365 0.26342547
0.14712055 1.1604594 0.41141182 0.76838505 0.75261235 -0.07395468 0.06528441 0.20975241
-0.33501825 -0.07539471 0.11408659 0.048729815 -0.2537597 -0.27362996 0.1420353 -0.0058391546
0.27532098 -0.20649913 0.11733732 -0.16627035 -0.31061226 0.1319832 -0.14238912 -0.4690524
0.09871575 0.4514557 0.32214135 0.13396548 -0.38694954 0.6597898 -1.0037602 -0.3023219
0.38017038 0.17079505 0.24092609 0.023536835 0.1413807 0.20517872 0.83978236 -0.1506788
0.14311327 0.2628992 -0.26946083 0.03897454 0.009494515 -0.26904628 0.18821748 -0.13663837
0.26168314 0.26674893 0.070780225 0.060614035 -0.019146519 0.10343032 0.22671789 0.18049107
0.03125198 0.15508582 0.06520998 0.15043259 -0.34274682 0.03683263 -0.031232538 -0.10048815
0.42940187 0.46874174 -0.1677484 -0.20873415 -0.04152682 -0.20866187 0.17053841 -0.0661809
-0.21720804 0.08974957 0.047821295 0.115503274 0.08690223 0.12807466 0.314303 -0.06568124
-0.25615636 -0.14435291 -0.14810795 0.2864769 0.23656306 -0.5361042 0.020946335 0.047734525
-0.104301594 0.120604105 -0.0010316443 0.025322394 0.37532997 -0.28095496 0.235712 0.055514835
0.17493379 -0.00030418398 0.19256572 -0.06618133 0.09912364 0.025557263 0.014211609 -0.08358117
0.3688974 -0.48235425 -1.4926081 -0.9235571 -0.30996338 0.093069255 0.10956719 0.11729226
-0.24256133 0.6676505 0.73848414 0.50672555 0.49515226 0.70640236 -0.9764507 1.5287368
0.44777703 0.6060863 -0.24565445 0.21118791 -0.23403469 1.2164978 1.7365777 0.29656205
1.06964 -0.16567768 0.6747488 1.0658405 1.5718005 0.2707152 -0.086698934 1.0340017
-1.3446636 -0.53699356 1.1447067 0.6422376 0.3330323 -0.3032784 0.398641 -0.67849326
-0.19263843 -0.24827185 -0.1257852 0.4395111 0.29473507 -0.4322651 0.07239867 0.12121745
-0.15408207 0.922141 1.4666103 -0.47938642 -0.38838497 1.0386332 -1.4519827 -0.36377463
0.6902334 -0.26188192 0.8672462 -0.44210535 -0.70139873 -0.19439267 1.464393 -0.42067072
0.09464015 0.50305915 -0.1725984 0.188316 0.076302744 -0.036147557 -0.09031959 -0.11950642
-0.0020933964 -0.4324059 0.55565184 0.010212204 0.13390402 0.08799345 -0.101328805 0.20292984
-0.11069018 0.22667526 0.026397172 0.14068203 -0.8416709 0.0024156733 -0.1747847 -0.17440602
0.2664617 -0.03908363 -0.44988483 -0.46179855 0.007270008 -0.745259 0.019058617 0.12523164
-0.09326891 0.10344165 0.08614632 -0.08035002 0.089630984 0.090391435 -0.14700161 0.0074495585
0.04076798 0.05614443 -0.18446249 0.040216867 0.18466687 -0.024571734 0.121597335 0.39492783
-0.024625758 -0.112484746 0.11990679 -0.15063561 0.21746391 -0.5088492 0.5176485 0.3013284
-0.010186563 -0.23517518 -0.03335832 0.024340868 -0.43402383 -0.19288667 0.07374641 0.1345502
00000000: 39d5 023e 65bc 06bf fe28 7abe aa23 20be
00000010: 09cc 47bd f7c4 083d 4d6b fe3a 54bc ebbc
00000020: 143e 37bd 593b 0e3f 6b30 24be 9213 13bd
00000030: 96f7 d3bd ad21 80bd 47b5 3cbe 3721 5d3e
00000040: 8678 2f3d edc7 2cbe 4ad4 ac3e f81d 8ebe
00000050: 0b11 11bf e71a ef3d d8b7 253f b4df 863e
00000060: c5a6 163e ef89 943f 92a4 d23e e2b4 443f
00000070: 34ab 403f 8d75 97bd d5b3 853d 56c9 563e
00000080: 8387 abbe 8b68 9abd 3ba6 e93d ea98 473d
00000090: cbec 81be 3a19 8cbe b471 113e 6156 bfbb
000000a0: dff6 8c3e 8274 53be 8d4e f03d c642 2abe
000000b0: 9208 9fbe 9b26 073e 74ce 11be a327 f0be
000000c0: 7c2b ca3d 3425 e73e b6ef a43e 3f2e 093e
000000d0: 401e c6be fce7 283f 377b 80bf f0c9 9abe
000000e0: b1a5 c23e e6e4 2e3e 54b5 763e 52d0 c03c
000000f0: 1ac6 103e 5f1a 523e fafb 563f 8b4b 1abe
00000100: 498c 123e b99a 863e c5f6 89be c4a3 1f3d
00000110: e28e 1b3c 6fc0 89be 15bc 403e eeea 0bbe
00000120: 55fb 853e 5193 883e 39f5 903d 6c46 783d
00000130: 29d9 9cbc 47d3 d33d bc28 683e a7d2 383e
00000140: 1402 003d d1ce 1e3e cf8c 853d 000b 1a3e
00000150: 837c afbe d0dd 163d 61db ffbc bbcc cdbd
00000160: 90da db3e ebfe ef3e 3dc6 2bbe 68be 55be
00000170: 0718 2abd 75ab 55be 9fa1 2e3e da89 87bd
00000180: c96b 5ebe 9fce b73d 43e0 433d fb8c ec3d
00000190: ccf9 b13d 0126 033e 53ec a03e e383 86bd
000001a0: ed26 83be 40d1 13be 9ca9 17be 1aad 923e
000001b0: 963d 723e 203e 09bf a697 ab3c 4785 433d
000001c0: 139c d5bd 49ff f63d 3d38 87ba e970 cf3c
000001d0: 402b c03e 54d9 8fbe 7d5e 713e 8663 633d
000001e0: d821 333e e27a 9fb9 f32f 453e 148a 87bd
000001f0: 5601 cb3d 775d d13c cfd7 683c 9b2c abbd
00000200: 1fe0 bc3e 23f7 f6be c80d bfbf 3d6e 6cbf
00000210: 85b3 9ebe 189b be3d c364 e03d ed36 f03d
00000220: ff61 78be 25eb 2a3f 4c0d 3d3f c4b8 013f
00000230: 9984 fd3e c9d6 343f acf8 79bf a6ad c33f
00000240: 0843 e53e 7928 1b3f d78c 7bbe a541 583e
00000250: caa6 6fbe 33b6 9b3f 2e48 de3f fbd6 973e
00000260: f7e9 883f 69a7 29be 56bc 2c3f 766d 883f
00000270: c230 c93f 2f9b 8a3e 368f b1bd 2b5a 843f
00000280: f01d acbf 6978 09bf c085 923f af69 243f
00000290: 3683 aa3e 4e47 9bbe ac1a cc3e bcb1 2dbf
000002a0: 0243 45be fa3a 7ebe d6cd 00be 9907 e13e
000002b0: 84e7 963e da51 ddbe c145 943d db40 f83d
000002c0: b1c7 1dbe 6f11 6c3f e3b9 bb3f 2372 f5be
000002d0: 65da c6be eff1 843f 92da b9bf ab40 babe
000002e0: 23b3 303f 6315 86be d903 5e3f a25b e2be
000002f0: de8e 33bf df0e 47be 3b71 bb3f 2762 d7be
00000300: b2d2 c13d 7cc8 003f a3bd 30be e9d5 403e
00000310: 9d44 9c3d 760f 14bd 7af9 b8bd c8bf f4bd
00000320: 5d31 09bb 4e64 ddbe 333f 0e3f 1751 273c
00000330: 231e 093e e935 b43d 7a85 cfbd d7cc 4f3e
00000340: 88b1 e2bd 8f1d 683e e23e d83c f30e 103e
00000350: be77 57bf 4650 1e3b c3fa 32be 7e97 32be
00000360: ab6d 883e 2816 20bd 4e57 e6be dc70 ecbe
00000370: 3f39 ee3b 4bc9 3ebf d120 9c3c b93c 003e
00000380: c503 bfbd 37d9 d33d 7b6d b03d 8d8e a4bd
00000390: 7390 b73d 251f b93d 9787 16be 6d1b f43b
000003a0: 53fc 263d b4f7 653d bce3 3cbe 71ba 243d
000003b0: 5019 3d3e a94a c9bc 0608 f93d fb33 ca3e
000003c0: f5bb c9bc 675e e6bd b191 f53d 3940 1abe
000003d0: dcae 5e3e f143 02bf 9d84 043f b747 9a3e
000003e0: 8be5 26bc c3d1 70be bca2 08bd 8066 c73c
000003f0: 5f38 debe 1584 45be 5c08 973d 87c7 093e

convs.0.linear2.bias f4 [64]
-0.77354014 0.24324948 -0.3549772 0.8075904 -0.38003877 0.87273157 0.13961332 -0.29771203
0.030634213 0.6582951 0.19356963 -0.3256108 0.4806158 -0.037415035 -0.5524617 0.21335642
1.3405404 0.12891647 -0.2327506 -0.7764047 -0.43257037 0.30416378 -0.15743706 0.36236823
-0.830201 -0.037739445 -0.36658007 0.15546452 0.28024882 0.16741323 -0.20459306 -0.28120717
0.15143208 -0.3489983 -0.1798717 0.109059565 0.17827244 0.034752935 -0.17145824 -0.412565
0.20096718 -0.34268713 0.07715067 -0.5041356 -0.17568623 -0.297849 0.1314329 -0.47634584
-0.24042018 0.1670734 -0.05442123 -0.034782335 0.23729914 -0.50658953 -0.566156 0.035642423
0.23183669 -0.05773756 0.25688946 -0.22773497 0.25985587 0.025330232 -0.11909757 -0.13113035
00000000: ba06 46bf 6416 793e 92bf b5be 3fbe 4e3f
00000010: 7194 c2be 566b 5f3f cbf6 0e3e b66d 98be
00000020: 9af4 fa3c 0786 283f 1e37 463e 75b6 a6be
00000030: 4613 f63e 8240 19bd 216e 0dbf 1b7a 5a3e
00000040: d496 ab3f ae02 043e 2c56 6ebe 75c2 46bf
00000050: dd79 ddbe 5bbb 9b3e 2e37 21be 5488 b93e
00000060: 0e88 54bf ad94 1abd 62b0 bbbe 1732 1f3e
00000070: c67c 8f3e 606e 2b3e d880 51be 63fa 8fbe
00000080: 0311 1b3e e8af b2be 4930 38be 9f5a df3d
00000090: 0d8d 363e 1859 0e3d c092 2fbe b83b d3be
000000a0: 57ca 4d3e b074 afbe 2c01 9e3d 080f 01bf
000000b0: 17e7 33be aa7f 98be 5996 063e 9ae3 f3be
000000c0: b530 76be 4a15 2b3e cce8 5ebd ec77 0ebd
000000d0: 8cfe 723e daaf 01bf 9aef 10bf cafd 113d
000000e0: 9966 6d3e 387e 6cbd 0487 833e 5b33 69be
000000f0: d40b 853e 5981 cf3c 6de9 f3bd 0947 06be

convs.1.a f4 [128, 1]
0.00017945051 0.028141217 -7.168008e-06 -0.032570925 2.7021722e-06 -0.034160823 6.737819e-05 3.865802e-06
0.0032606116 -0.05941572 0.034259908 -9.63216e-06 0.026276903 0.01784512 -0.00027987658 0.02654291
-0.08207686 9.7646145e-05 0.00030607954 -6.1966934e-06 4.72747e-07 0.00024633657 -0.006729185 0.017028322
-2.976003e-05 1.5650701e-06 1.2457078e-05 -0.005593569 0.053320393 0.057928752 0.0053242296 -3.5038694e-05
0.009956376 -5.5260484e-06 -5.7692623e-06 0.0063710636 -0.028446697 0.06683047 0.035485145 6.4736305e-06
0.04179285 3.52001e-05 0.0120608 3.1801865e-06 1.5115512e-06 1.6365651e-05 -0.018507745 1.233182e-06
-4.841865e-05 0.056460943 0.067684405 0.016606504 0.02693606 -4.065502e-06 -1.33735075e-05 1.8112327e-05
-0.00017699314 0.008611857 0.06051844 8.8735214e-07 0.049316373 0.053177807 2.3327211e-05 -0.0001828544
1.747935 0.43590826 5.578767 -0.33532697 3.7298656 -0.30681586 1.8165706 4.2945924
0.58118546 -0.28044668 -0.010254059 4.1325407 -0.034900993 -0.81346595 0.59560144 -0.0047326023
-0.36224857 2.1301181 1.366181 5.874212 5.839109 0.23878711 0.015403047 -0.05008893
3.1177564 5.4388638 5.5194926 -0.0114247585 -0.62002397 0.3065123 1.1801443 5.7301226
0.12271924 5.220401 5.2657723 0.6969074 -0.49535337 0.070950724 0.6107788 5.6260786
0.10822861 1.5063896 0.20202228 5.1423855 5.4630375 4.7579703 -1.1776903 4.9511933
2.4072816 0.09349206 0.5527551 1.0789094 0.27467185 5.4201336 5.2940784 0.8967806
-1.1814893 0.8839041 0.29653558 5.4144163 0.26373228 0.10938269 5.167205 1.4764918
00000000: e12a 3c39 6988 e63c b884 f0b6 1769 05bd
00000010: f756 3536 38ec 0bbd 644d 8d38 fcb6 8136
00000020: fcaf 553b e65d 73bd 1e54 0c3d d099 21b7
00000030: a942 d73c ee2f 923c 66bc 92b9 8470 d93c
00000040: ea17 a8bd 60c7 cc38 4d79 a039 31ed cfb6
00000050: dacd fd34 bc26 8139 7f80 dcbb fb7e 8b3c
00000060: 2ea5 f9b7 660f d235 befe 5037 424a b7bb
00000070: 7c66 5a3d b346 6d3d e076 ae3b 83f6 12b8
00000080: 1120 233c 656c b9b6 9695 c1b6 5bc4 d03b
00000090: 0c09 e9bc 6ade 883d df58 113d 1038 d936
000000a0: fb2e 2b3d d2a3 1338 a99a 453c 306b 5536
000000b0: 81e0 ca35 f848 8937 8e9d 97bc d083 a535
000000c0: 2115 4bb8 9743 673d 1f9e 8a3d 5d0a 883c
000000d0: 03a9 dc3c 656a 88b6 c75e 60b7 edef 9737
000000e0: 3c97 39b9 bf18 0d3c 2fe2 773d 6032 6e35
000000f0: f7ff 493d f9d0 593d ceae c337 9bbc 3fb9
00000100: 56bc df3f 5e2f df3e 4285 b240 faaf abbe
00000110: 1eb6 6e40 f816 9dbe 6385 e83f 4d6d 8940
00000120: 92c8 143f b596 8fbe a400 28bc c63d 8440
00000130: 58f4 0ebd 4e3f 50bf 5679 183f f213 9bbb
00000140: a578 b9be db53 0840 05df ae3f 8bf9 bb40
00000150: fbd9 ba40 9c84 743e 105d 7c3c 0d2a 4dbd
00000160: 5289 4740 2c0b ae40 af9f b040 e92e 3bbc
00000170: e4b9 1ebf 2eef 9c3e f80e 973f 2a5d b740
00000180: 3a54 fb3d 860d a740 3581 a840 8668 323f
00000190: f59e fdbe 9d4e 913d 005c 1c3f d608 b440
000001a0: f6a6 dd3d 60d1 c03f eede 4e3e 6c8e a440
000001b0: 34d1 ae40 4b41 9840 8ebe 96bf 2d70 9e40
000001c0: e710 1a40 c478 bf3d 5c81 0d3f b419 8a3f
000001d0: caa1 8c3e bc71 ad40 1769 a940 6a93 653f
000001e0: 0b3b 97bf 8a47 623f 83d3 973e e642 ad40
000001f0: eb07 873e 0804 e03d be59 a540 affd bc3f

convs.1.linear1.weight f4 [64, 64]
1.8072643 0.0066385632 1.8005995 1.5128007 1.2980269 0.9221376 1.2572533 1.1306173
1.0641484 0.6802057 0.12109249 2.0947075 0.8284183 -0.0920609 -1.1079305 0.40732002
1.1790845 1.1925488 0.94761264 2.2310731 1.8369036 0.45206562 0.48517144 0.52448654
1.7710162 2.0917883 1.9077898 0.33701164 -0.4391928 0.31388423 0.6298033 1.9119515
0.46364197 2.616351 1.4729078 0.20948246 -0.3089051 0.34336364 0.5531658 1.8974768
0.48487 1.7463367 0.04443776 2.2951243 2.0036447 1.3242339 -0.18144079 1.2644517
0.92502296 0.24784783 0.12782083 0.625969 0.037717897 2.6468687 1.4251329 1.0607646
-0.47216955 0.66395515 0.37190223 1.7679404 0.0070305876 0.13852622 1.925975 1.1241703
2.091493 -0.3132656 1.9340451 0.732428 1.406598 1.0487717 0.902915 0.6382757
1.3402897 0.85853755 -0.09425726 2.6118066 -0.099474534 -0.6722566 -0.99051315 0.14218278
1.4592543 1.254904 1.1373984 2.8060484 1.5865593 0.28130323 0.22661382 -0.105710305
1.8011473 1.9255841 2.1750891 -0.07663277 -0.6739589 0.16804543 0.98546875 2.2758684
0.26343766 3.083128 1.7435616 -0.019948151 -0.58890843 0.14071341 0.47323364 2.3932571
0.6877934 1.7167296 -0.25677207 2.3478005 2.1721177 0.9108849 -0.65209657 1.3481021
0.97022855 0.2928766 -0.28467196 0.66909814 -0.32823846 2.9202201 1.1981102 0.6672292
-0.9730359 0.89492166 0.19935782 1.8570429 -0.3152563 -0.251354 2.070264 0.9995162
1.8522218 -0.18141054 1.6153898 1.3406571 1.2012515 0.8121078 1.1828364 0.9113384
1.0085547 0.51045495 0.20329161 2.0978487 0.7338646 -0.24830405 -1.2828622 0.14801398
1.2764807 1.2853547 0.95163095 2.210112 1.7381567 0.37756655 0.35389352 0.34902424
1.528646 1.8395312 1.8015926 0.058715973 -0.5982506 0.2010702 0.7946239 1.8891255
0.20875864 2.4595163 1.472321 0.25497645 -0.17375863 0.32218978 0.4616883 1.9693569
0.35154733 1.6340244 0.052390695 2.2090466 1.8182343 1.4476106 -0.133832 1.3644944
0.84073865 0.2948442 0.065867804 0.7554105 -0.14409924 2.4882355 1.3027837 0.97572243
-0.49305442 0.82506776 0.32039514 1.673013 -0.07450798 0.13100883 1.7532345 1.0877956
-0.97693795 0.10664859 -0.26626468 -0.9276614 -0.33876973 -0.70699257 -0.15012865 0.07735412
-0.050206307 -0.57733643 0.09330078 -0.6702448 -0.40565488 0.5989464 0.7171832 -0.06897136
-1.0111375 -0.18887748 -0.49442655 -0.52021855 -0.1966969 -0.018034829 0.001229372 0.0014986991
-0.63386744 -0.08585108 -0.5245737 0.042691596 0.16838552 -0.0510026 0.037696052 -0.53929883
0.14701356 -0.3822606 -0.3569867 -0.10258753 0.038236536 0.116085656 0.100124076 -0.6957846
-0.036879428 -1.0233465 0.33357683 -0.27647495 -0.4164796 -0.20735379 0.7386174 -0.3444554
-0.24616657 -0.026580395 0.36399743 -0.0060709086 0.08488577 -0.61996007 -0.10857161 -0.0124883065
0.03774181 -0.008544516 0.12320227 -0.47329777 0.0075603426 0.0023029274 -0.20720126 -0.61241174
00000000: 7054 e73f 4e88 d93b 0b7a e63f 74a3 c13f
00000010: bf25 a63f 3611 6c3f aded a03f 11b8 903f
00000020: 0436 883f f621 2e3f 57ff f73d b00f 0640
00000030: 3913 543f 6d8a bcbd abd0 8dbf 408c d03e
00000040: 3eec 963f 70a5 983f be96 723f e7c9 0e40
00000050: a81f eb3f 2575 e73e 6468 f83e c044 063f
00000060: a9b0 e23f dcdf 0540 7532 f43f ca8c ac3e
00000070: e1dd e0be 6fb5 a03e ca3a 213f d4ba f43f
00000080: 7b62 ed3e 4b72 2740 3e88 bc3f 9282 563e
00000090: cf28 9ebe 5ccd af3e 469c 0d3f 85e0 f23f
000000a0: e140 f83e f687 df3f 5e04 363d 51e3 1240
000000b0: b73b 0040 7f80 a93f 9dcb 39be 8ed9 a13f
000000c0: 4ece 6c3f d2cb 7d3e 77e3 023e 813f 203f
000000d0: 157e 1a3d 4c66 2940 c16a b63f 22c7 873f
000000e0: 35c0 f1be f7f8 293f f869 be3e df4b e23f
000000f0: d860 e63b d1d9 0d3e 5986 f63f d0e4 8f3f
00000100: 05db 0540 5964 a0be ca8e f73f 6780 3b3f
00000110: 670b b43f 273e 863f 7025 673f 0966 233f
00000120: 9d8e ab3f 1ec9 5b3f f309 c1bd d727 2740
00000130: 4eb9 cbbd 0219 2cbf 4592 7dbf 5d98 113e
00000140: d8c8 ba3f b2a0 a03f 4596 913f 4c96 3340
00000150: 6014 cb3f fa06 903e 740d 683e a57e d8bd
00000160: ff8b e63f 8a79 f63f a934 0b40 a4f1 9cbd
00000170: 9288 2cbf 1a14 2c3e ae47 7c3f d4a7 1140
00000180: 4de1 863e f851 4540 072d df3f 4e6a a3bc
00000190: b4c2 16bf 2d17 103e ae4b f23e 202b 1940
000001a0: 3a13 303f ccbd db3f a177 83be 5d42 1640
000001b0: fa03 0b40 c12f 693f cdef 26bf 9c8e ac3f
000001c0: e660 783f ecf3 953e 86c0 91be 044a 2b3f
000001d0: df0e a8be e3e4 3a40 ad5b 993f 88cf 2a3f
000001e0: e118 79bf 9619 653f 7524 4c3e 95b3 ed3f
000001f0: 4669 a1be 79b1 80be 357f 0440 4be0 7f3f
00000200: 9b15 ed3f afc3 39be 18c5 ce3f a79a ab3f
00000210: 9cc2 993f 4ce6 4f3f 2f67 973f 794d 693f
00000220: 5218 813f 2dad 023f ad2b 503e 2743 0640
00000230: 8dde 3b3f 6b43 7ebe d434 a4bf fa90 173e
00000240: b863 a33f 8186 a43f 169e 733f 7a72 0d40
00000250: eb7b de3f 6750 c13e 8831 b53e 4eb3 b23e
00000260: acaa c33f c275 eb3f 969a e63f 2980 703d
00000270: f426 19bf 59e5 4d3e 796c 4b3f ddce f13f
00000280: d3c4 553e b768 1d40 0475 bc3f 468c 823e
00000290: c8ed 31be 0ff6 a43e 6962 ec3e e313 fc3f
000002a0: 03fe b33e b627 d13f a097 563d 0561 0d40
000002b0: e7bb e83f 4e4b b93f 410b 09be c1a7 ae3f
000002c0: a63a 573f d2f5 963e b3e5 863d 9562 413f
000002d0: c08e 13be 403f 1f40 9ec1 a63f f2c8 793f
000002e0: a171 fcbe a437 533f d50a a43e 4a25 d63f
000002f0: a497 98bd 2e27 063e fd69 e03f e33c 8b3f
00000300: 9b18 7abf 936a da3d d853 88be 387b 6dbf
00000310: 3a73 adbe 77fd 34bf 53bb 19be d66b 9e3d
00000320: 21a5 4dbd 52cc 13bf 7b14 bf3d 2a95 2bbf
00000330: ffb1 cfbe 8d54 193f 5199 373f db40 8dbd
00000340: f46c 81bf 1969 41be 7a25 fdbe 0b2d 05bf
00000350: ea6a 49be c7bd 93bc e122 a13a ff6f c43a
00000360: 2345 22bf b1d2 afbd 764a 06bf 62dd 2e3d
00000370: 416d 2c3e 1ae8 50bd 2d67 1a3d 7d0f 0abf
00000380: b98a 163e a9b7 c3be f6c6 b6be 6919 d2bd
00000390: ea9d 1c3d 51be ed3d da0d cd3d f11e 32bf
000003a0: e20e 17bd 05fd 82bf 95ca aa3e 208e 8dbe
000003b0: d03c d5be 8d54 54be 0816 3d3f 755c b0be
000003c0: 1713 7cbe 21bf d9bc df5d ba3e 79ee c6bb
000003d0: 97d8 ad3d b4b5 1ebf cb5a debd c19b 4cbc
000003e0: 2897 1a3d 4cfe 0bbc 7951 fc3d 1654 f2be
000003f0: c0bc f73b b6ec 163b 912c 54be 04c7 1cbf

convs.1.linear1.bias f4 [64]
0.0031789371 -0.036598578 0.005558705 0.0094299605 -0.07521658 -0.06429219 -0.011286291 0.048702613
-0.002938547 -0.020048602 -0.045411717 -0.017360562 -0.019575963 0.030726835 -0.06060225 -2.5604202e-05
0.14270805 -0.08706289 0.0029112948 0.13951102 0.022385668 0.05404337 0.120137624 0.017301507
-0.049199726 0.19546705 -0.004115127 -0.019243287 0.060294442 0.10600424 -0.07056109 -0.035225756
0.032044586 -0.011134433 0.0380594 0.018680774 0.03745255 -0.08245777 0.020883093 0.024085164
0.013842598 0.021405121 0.065707624 0.03205283 -0.020193795 -0.07476313 0.00061673316 0.019683834
0.023240978 0.04189723 0.023334611 0.07861378 -0.03413696 -0.03129873 0.01883012 0.007938263
0.13830426 0.014212438 0.049594704 -0.07247704 -0.01872804 0.02992225 0.008193266 0.021649677
00000000: b755 503b 64e8 15bd cc25 b63b 1f80 1a3c
00000010: 260b 9abd a0ab 83bd 23ea 38bc 647c 473d
00000020: a394 40bb f73c a4bc a301 3abd bd37 8ebc
00000030: c55d a0bc d8b6 fb3c 113a 78bd 9bc8 d6b7
00000040: 0f22 123e 074e b2bd 6ccb 3e3b fadb 0e3e
00000050: 2662 b73c 955c 5d3d b70a f63d e4bb 8d3c
00000060: a785 49bd 8428 483e 30d8 86bb 19a4 9dbc
00000070: 4ef7 763d c018 d93d 5582 90bd e248 10bd
00000080: 2f41 033d 326d 36bc 2ce4 1b3d 6c08 993c
00000090: d867 193d 9fdf a8bd 0513 ab3c 404e c53c
000000a0: 10cc 623c cb59 af3c b891 863d d449 033d
000000b0: 756d a5bc 691d 99bd 43ac 213a fe3f a13c
000000c0: dd63 be3c 6e9c 2b3d 3a28 bf3c 4300 a13d
000000d0: 32d3 0bbd 1933 00bd a041 9a3c 7d0f 023c
000000e0: a29f 0d3e 49db 683c d123 4b3d d86e 94bd
000000f0: 8c6b 99bc 821f f53c 0c3d 063c aa5a b13c

convs.1.linear2.weight f4 [64, 64]
0.066395015 -0.9216947 -0.062334713 0.6324158 -0.3920937 -0.25038397 -0.24264883 0.29933384
0.054000054 -0.085839994 -0.11453183 0.00013739127 0.1285162 0.18300381 0.0038370483 -0.10872051
0.54326135 -0.31249255 0.018878376 0.6050094 0.23372115 0.19065894 0.30865726 0.103936136
-0.2852074 0.7342263 -0.085834585 -0.04112949 -0.07582453 0.5252472 -0.7164577 -0.23490791
-0.024786456 -0.050195854 0.030726502 -0.07707906 0.1884264 -0.28136894 0.13585433 -0.022436984
0.11505871 0.02607361 0.16001794 0.19577746 0.009553016 -0.103711255 0.08990663 0.36148962
0.8169938 -0.18803234 -0.08226609 0.47190332 -0.029569829 -0.35090232 0.0469637 0.1026162
0.47465378 0.0928038 -0.15703087 -0.8527974 -0.07885342 -0.11542399 0.039705236 0.15258782
-0.33699134 -0.8636614 -0.10768439 -0.1556665 -0.75876725 -0.46199575 -0.07005931 -0.19462527
0.13496955 -0.2099568 -0.20494476 0.13945563 0.03879301 -0.013377059 -0.09232705 0.1058993
0.33423615 -0.03803035 0.13659157 0.34093648 0.086031444 0.13375743 0.36866805 0.2172039
-0.28344595 0.8618433 0.16176252 -0.29123017 -0.2251108 0.47433275 -0.72076917 -0.23017797
0.08554729 0.2028296 -0.2193784 -0.4015977 0.21998918 -0.012631172 0.1765688 0.17454058
0.16858827 -0.076113425 0.6088076 0.0828041 0.028582457 -0.7953947 0.16569483 0.07477146
0.15817335 0.3160956 0.2758417 0.21916169 -0.04812488 -0.11674035 0.122422725 0.0098506855
0.37407947 0.13633402 0.1793937 -0.71859175 -0.290903 0.25491995 -0.17220505 -0.15771568
-0.085797094 -0.051759206 -0.119304515 0.14076413 -0.25192502 -0.07502355 -0.12947011 0.33279192
0.27812636 -0.019012053 -0.27573657 0.20705089 0.18465447 0.37213665 0.31892207 0.27224648
0.2776116 -0.07628637 0.086791396 0.2279748 0.15331022 0.37181768 0.1412235 0.2646983
-0.18292789 0.16749892 0.2835288 -0.22168827 0.0020316779 0.62776744 -0.1425171 -0.14817964
0.34129143 0.12475107 -0.14491686 0.20916118 0.37191182 -0.15714802 0.13245146 0.07647157
0.17253399 0.18328013 0.30996236 0.103699625 0.17942362 -0.22084239 0.07406108 0.37515494
0.43057513 0.31797212 0.27951792 0.5741447 0.21320264 -0.3195266 0.24311584 0.13841094
0.20837519 0.19976497 0.31754094 -0.13488096 -0.15946192 0.12284371 -0.14671862 0.37923908
-0.07512353 -0.623351 -0.13180488 0.603966 -0.3783539 -0.16616398 -0.10529449 0.23342247
-0.035535716 -0.15021074 -0.17586872 0.037855394 -0.06425026 0.12978141 -0.031104818 0.12276249
0.44104862 -0.36495554 -0.12368029 0.53087497 0.13164449 0.028103802 0.42108598 0.0011207934
-0.3329216 0.9145205 0.048499934 -0.047737144 -0.04641465 0.47307977 -0.72972906 -0.26528943
0.18541072 -0.10708466 0.019465208 0.19256704 0.010955071 -0.34548798 -0.011189121 0.01266367
0.23262599 0.14670917 0.026937999 0.100280665 -0.038324174 -0.21507631 0.11930311 0.32575518
0.6300901 0.03708968 0.068056 0.27477732 0.005053198 -0.2077327 -0.09262193 -0.0560989
0.57091194 -0.0026139538 0.07083565 -0.7222154 -0.049874175 -0.018134262 0.05144818 0.0065267403
00000000: 1cfa 873d 2ff4 6bbf af52 7fbd 00e6 213f
00000010: 81c0 c8be 5432 80be ef78 78be 4942 993e
00000020: 292f 5d3d e1cc afbd aa8f eabd b010 1039
00000030: c099 033e 5a65 3b3e fd76 7b3b dca8 debd
00000040: 2d13 0b3f 06ff 9fbe d3a6 9a3c e5e1 1a3f
00000050: 9954 6f3e 193c 433e 5308 9e3e 78dc d43d
00000060: b406 92be 41f6 3b3f 0bca afbd 6577 28bd
00000070: e449 9bbd 9a76 063f c669 37bf b38b 70be
00000080: f70c cbbc 2b9a 4dbd 25b6 fb3c a0db 9dbd
00000090: daf2 403e 970f 90be 661d 0b3e c4cd b7bc
000000a0: e7a3 eb3d 5398 d53c bedb 233e e379 483e
000000b0: 4184 1c3c 9166 d4bd f820 b83d 2b15 b93e
000000c0: 8126 513f 8d8b 40be 207b a8bd 509d f13e
000000d0: 6d3c f2bc 78a9 b3be 025d 403d 7128 d23d
000000e0: d205 f33e eb0f be3d b3cc 20be ee50 5abf
000000f0: e77d a1bd 6a63 ecbd f5a1 223d fb3f 1c3e
00000100: 218a acbe ea18 5dbf a289 dcbd 0a67 1fbe
00000110: 923e 42bf b58a ecbe 417b 8fbd d94b 47be
00000120: 7535 0a3e eafe 56be 0add 51be 75cd 0e3e
00000130: 6be5 1e3d 742b 5bbc f715 bdbd bbe1 d83d
00000140: 0021 ab3e b6c5 1bbd a9de 0b3e 3a8f ae3e
00000150: 4131 b03d b5f7 083e 0fc2 bc3e b36a 5e3e
00000160: d41f 91be c3a1 5c3f 13a5 253e 1f1c 95be
00000170: 7283 66be bedb f23e 5484 38bf c6b3 6bbe
00000180: 6b33 af3d 90b2 4f3e bba4 60be 379e cdbe
00000190: d844 613e faf2 4ebc 74ce 343e c4ba 323e
000001a0: 67a2 2c3e 5be1 9bbd d1da 1b3f 3295 a93d
000001b0: c225 ea3c fd9e 4bbf e8ab 293e c721 993d
000001c0: 32f8 213e 48d7 a13e 203b 8d3e ec6b 603e
000001d0: 981e 45bd 9115 efbd c4b8 fa3d c564 213c
000001e0: 5887 bf3e 259b 0b3e fbb2 373e a1f5 37bf
000001f0: 3df1 94be de84 823e 8556 30be 3880 21be
00000200: 63b6 afbd 7601 54bd ed55 f4bd 7924 103e
00000210: 51fc 80be f2a5 99bd d093 04be b463 aa3e
00000220: 9466 8e3e 2abf 9bbc 582d 8dbe 2605 543e
00000230: 1016 3d3e b288 be3e c149 a33e e463 8b3e
00000240: 1c23 8e3e 073c 9cbd b0bf b13d 3a72 693e
00000250: 5bfd 1c3e e35e be3e e59c 103e 8986 873e
00000260: 7351 3bbe d684 2b3e b02a 913e 4002 63be
00000270: e625 053b 5eb5 203f 01f0 11be 67bc 17be
00000280: c0bd ae3e 7d7d ff3d 1665 14be 592e 563e
00000290: 3a6b be3e 69eb 20be 5ba1 073e 209d 9c3d
000002a0: c0ac 303e c9ad 3b3e 63b3 9e3e 7860 d43d
000002b0: d3ba 373e 8224 62be 56ad 973d 4f14 c03e
000002c0: 5874 dc3e 3ecd a23e f91c 8f3e 26fb 123f
000002d0: cb51 5a3e fe98 a3be 5cf3 783e 99bb 0d3e
000002e0: 4e60 553e 308f 4c3e ba94 a23e 3c1e 0abe
000002f0: fc49 23be 7c95 fb3d 683d 16be a02b c23e
00000300: 5eda 99bd ee93 1fbf dcf7 06be 849d 1a3f
00000310: 9ab7 c1be e426 2abe a3a4 d7bd 4d06 6f3e
00000320: e68d 11bd d8d0 19be ee16 34be 420e 1b3d
00000330: a495 83bd 6be5 043e 88cf febc e66a fb3d
00000340: 20d1 e13e 74db babe 184c fdbd 6ce7 073f
00000350: d0cd 063e f239 e63c 9598 d73e 96e7 923a
00000360: b374 aabe 041e 6a3f dea7 463d 0688 43bd
00000370: 4a1d 3ebd 8337 f23e 86cf 3abf 04d4 87be
00000380: 4fdc 3d3e 344f dbbd 8075 9f3c 4b30 453e
00000390: e67c 333c cde3 b0be 9352 37bc 487b 4f3c
000003a0: 8235 6e3e ee3a 163e 14ad dc3c f35f cd3d
000003b0: cff9 1cbd f73c 5cbe 3055 f43d 62c9 a63e
000003c0: 964d 213f 59eb 173d f260 8b3d 9daf 8c3e
000003d0: 4c95 a53b e2b7 54be 91b0 bdbd f6c7 65bd
000003e0: 4927 123f de4e 2bbb 4812 913d 1ce3 38bf
000003f0: dd48 4cbd 4e8e 94bc 54bb 523d 44de d53b

convs.1.linear2.bias f4 [64]
-0.022337196 0.0029435582 -0.068811074 -0.00010827096 0.09443557 0.09594445 0.09825793 -0.007873611
-0.011437136 -0.024602251 0.12045497 -0.08897103 0.008524972 0.044233546 0.1330832 0.10789934
-0.038025018 0.16107479 -0.051157963 -0.03986318 -0.0033312321 0.094572954 0.101476245 0.015693711
-0.03579742 0.11984146 -0.017092625 0.027014097 -0.009632247 -0.010990151 0.031297643 -0.0063303215
-0.1288731 0.07699937 0.0024767444 0.014462978 -0.107592076 0.096947595 0.025563015 0.08559779
0.108843125 0.06737938 -0.0220827 0.09639366 0.04614554 0.06729983 0.17492743 0.08709913
0.028643018 0.0021395485 -0.016854106 -0.0030555306 -0.028344667 0.109111704 -0.063119985 0.0855184
0.13709603 0.1664079 0.005540831 -0.06474143 -0.076924905 -0.033316262 0.12602586 0.013008599
00000000: 7ffc b6bc b6e8 403b d2ec 8cbd 870f e3b8
00000010: 7067 c13d 867e c43d 743b c93d 5100 01bc
00000020: d362 3bbc a98a c9bc 18b1 f63d 7236 b6bd
00000030: 53ac 0b3c 3c2e 353d f646 083e 54fa dc3d
00000040: 1fc0 1bbd caf0 243e 038b 51bd 9347 23bd
00000050: cd50 5abb 77af c13d c7d2 cf3d 1990 803c
00000060: 51a0 12bd 706f f53d d505 8cbc ab4c dd3c
00000070: 92d0 1dbc 0910 34bc f531 003d 966e cfbb
00000080: 4ff7 03be d8b1 9d3d e050 223b 20f6 6c3c
00000090: 3c59 dcbd 768c c63d 8769 d13c e54d af3d
000000a0: 25e9 de3d 33fe 893d c7e6 b4bc 0a6a c53d
000000b0: 1b03 3d3d 7ed4 893d 2d20 333e 0761 b23d
000000c0: c3a4 ea3c ab37 0c3b 9f11 8abc 4c3f 48bb
000000d0: 1333 e8bc f575 df3d 0d45 81bd 4524 af3d
000000e0: e762 0c3e d566 2a3e dc8f b53b 2897 84bd
000000f0: ce8a 9dbd a276 08bd ec0c 013e 0522 553c

mlp1.weight f4 [64, 192]
-0.19306423 0.034957256 0.06261847 0.16944341 -0.013811111 0.20231426 0.07747356 0.080430366
0.19161306 0.22897983 0.036279038 0.06932704 -0.016967958 0.043505087 -0.0039350125 0.12520008
0.1809396 -0.06805352 -0.103995 0.27078152 0.06717883 0.21996844 0.18818879 -0.10189471
0.16364665 -0.01520866 -0.24569432 0.17971131 -0.029422998 -0.07201331 -0.24436659 -0.19101016
-0.2053499 0.08141643 0.21491107 0.07627541 0.041628085 0.27134705 0.20469908 0.27064174
-0.16146538 0.08376235 -0.1859598 0.02583266 -0.060728274 0.14112714 -0.24762076 -0.15231913
0.000496744 0.026457164 -0.26208088 -0.15581447 0.015624325 0.12428245 0.12344608 -0.15357372
-0.07761624 0.028448148 -0.16349782 0.16332486 0.017405221 0.08126566 -0.15738878 0.017635338
-0.03555074 0.047424924 -0.08760035 0.00012449824 -0.14849994 0.017939739 -0.08916646 -0.063991316
-0.0045921872 0.08341397 0.10525686 -0.079366095 0.10620447 -0.33751938 -0.061273184 0.10859369
-0.01104602 0.027825065 -0.05903896 -0.10338792 -0.031446945 0.06268952 0.07447142 0.12267666
-0.022408275 0.0017408977 -0.08678203 0.0056339107 0.07591256 0.05885729 0.028825492 -0.090801015
0.056100663 -0.051436976 -0.022934414 0.033128917 0.013525436 0.0856172 -0.26760492 -0.08814418
0.08210046 0.030355215 0.06532526 -0.023523098 -0.06299992 -0.005519077 -0.22937118 -0.0010529844
-0.049892817 0.105410405 0.08010328 -0.011083013 0.10688701 0.029205348 -0.016242765 0.034608047
0.005034351 0.0117404545 -0.036495995 -0.094208054 0.12557021 0.09751934 -0.0012395781 -0.12020401
-0.15873078 -0.09964329 -0.17021544 -0.33342817 0.33764437 0.2557724 0.2701861 -0.045243464
-0.13179784 0.09830666 0.2240603 0.28358057 0.34661925 0.16438317 0.23756984 0.30244687
0.10351475 0.26465377 0.33473238 -0.04950516 -0.003433141 0.29199514 0.26069337 -0.05855088
0.5248918 0.21266095 0.0312039 -0.031562496 0.17661823 -0.07470393 0.39230034 0.17106755
-0.26929316 0.2833721 0.22859953 0.3319526 -0.18322189 0.23227657 -0.13071324 0.24320443
0.21194209 -0.4432581 -0.0048198416 0.23281322 0.1631051 0.019344937 0.24391542 0.28997117
-0.10663785 -0.22475864 -0.23171093 0.36184227 -0.15955076 0.2216133 0.48443553 0.28867033
0.27692577 0.19503798 0.36787516 -0.28377193 -0.31062812 0.27082738 0.26367617 0.071221985
-0.053392917 0.30694908 0.21456173 0.10373429 0.17157978 0.04062566 -0.14638543 0.121083744
0.15184814 0.088163026 -0.23420636 0.28625092 -0.23329885 -0.17328781 -0.22562356 -0.14663774
0.1873019 0.0073465686 0.17490736 0.15102087 -0.2585156 -0.11242529 -0.013305883 -0.11250125
-0.14239343 0.22050944 -0.018902939 -0.09703375 0.115892425 -0.24540716 -0.064933755 -0.20851019
-0.1219479 0.1474153 0.11443896 -0.2289019 -0.085981436 0.09795894 0.27064753 0.14615384
-0.17176867 -0.3199807 -0.2672447 0.24351466 -0.013617988 0.0127905505 -0.08205263 -0.040055286
0.21981385 0.23893869 -0.010437502 0.059062265 0.20274211 0.29855847 0.11328056 -0.060529195
-0.2906254 -0.08641589 -0.19534847 0.17512369 0.2792389 0.1942506 -0.13820142 0.18189642
00000000: a1b2 45be 572f 0f3d 1d3e 803d 9382 2d3e
00000010: 0048 62bc 782b 4f3e 75aa 9e3d adb8 a43d
00000020: 3736 443e b079 6a3e 5499 143d 56fb 8d3d
00000030: 6300 8bbc 6432 323d 47f1 80bb 7334 003e
00000040: 3b48 393e a55f 8bbd 55fb d4bd e0a3 8a3e
00000050: 0e95 893d 683f 613e 90b4 403e 2cae d0bd
00000060: fd92 273e be2d 79bc 4b97 7bbe 3e06 383e
00000070: 8008 f1bc b77b 93bd 3c3b 7abe 2b98 43be
00000080: 3f47 52be a8bd a63d a611 5c3e 4836 9c3d
00000090: 3682 2a3d 00ee 8a3e a39c 513e 8e91 8a3e
000000a0: 2e57 25be 988b ab3d 3f6c 3ebe 049f d33c
000000b0: 36be 78bd a283 103e 4c90 7dbe 8cf9 1bbe
000000c0: ed37 023a b2bc d83c 772f 86be d48d 1fbe
000000d0: 2bfd 7f3c cc87 fe3d 4cd1 fc3d 6e42 1dbe
000000e0: 43f5 9ebd 170c e93c f96b 27be a23e 273e
000000f0: 6595 8e3c 9c6e a63d 862a 21be fc77 903c
00000100: a79d 11bd a340 423d d067 b3bd be8b 0239
00000110: 5e10 18be 5cf6 923c e89c b6bd e10d 83bd
00000120: 0f7a 96bb f2d4 aa3d e990 d73d b18a a2bd
00000130: bb81 d93d 57cf acbe 97f9 7abd 5e66 de3d
00000140: 5efa 34bc 64f1 e33c d6d2 71bd 0cbd d3bd
00000150: 83ce 00bd 5d63 803d 7984 983d e73d fb3d
00000160: 8f91 b7bc d52e e43a c7ba b1bd ab9c b83b
00000170: 0b78 9b3d 5714 713d 7023 ec3c e2f5 b9bd
00000180: cfc9 653d 94af 52bd f4e0 bbbc 30b2 073d
00000190: ca99 5d3c 1258 af3d 8303 89be f084 b4bd
000001a0: 4924 a83d 80ab f83c 40c9 853d 83b3 c0bc
000001b0: 1a06 81bd 60d9 b4bb 47e0 6abe 4b04 8aba
000001c0: 695c 4cbd 69e1 d73d 300d a43d 8795 35bc
000001d0: 94e7 da3d 0e40 ef3c 8c0f 85bc 2bc1 0d3d
000001e0: 32f7 a43b 095b 403c d37c 15bd 27f0 c0bd
000001f0: 7a95 003e 38b8 c73d 5779 a2ba 852d f6bd
00000200: 528a 22be c811 ccbd f54c 2ebe 19b7 aabe
00000210: b9df ac3e 9af4 823e d555 8a3e 3651 39bd
00000220: 03f6 06be 0155 c93d 1070 653e 7931 913e
00000230: 1478 b13e 1054 283e 8245 733e 51da 9a3e
00000240: 8bff d33d b380 873e 0b62 ab3e ecc5 4abd
00000250: 8cfe 60bb 6380 953e 9a79 853e 0cd3 6fbd
00000260: 4f5f 063f cbc3 593e 529f ff3c ad47 01bd
00000270: 69db 343e 60fe 98bd 97db c83e 552c 2f3e
00000280: cbe0 89be 2616 913e ff15 6a3e b1f5 a93e
00000290: 859e 3bbe e9d9 6d3e b1d9 05be 950a 793e
000002a0: 5907 593e baf2 e2be c3ef 9dbb 9766 6e3e
000002b0: 0605 273e 4679 9e3c f7c4 793e 1a77 943e
000002c0: f264 dabd 2127 66be a145 6dbe 6443 b93e
000002d0: 4661 23be 99ee 623e ef07 f83e 99cc 933e
000002e0: 37c9 8d3e 09b8 473e 225a bc3e 8e4a 91be
000002f0: a60a 9fbe e3a9 8a3e 9000 873e d5dc 913d
00000300: 88b2 5abd 6e28 9d3e 12b6 5b3e a572 d43d
00000310: 9cb2 2f3e 1867 263d 10e6 15be c1fa f73d
00000320: 147e 1b3e d18e b43d cbd3 6fbe 7b8f 923e
00000330: e5e5 6ebe 5c72 31be dd09 67be 3428 16be
00000340: 12cc 3f3e 7cbb f03b ea1a 333e 37a5 1a3e
00000350: 285c 84be 3b3f e6bd eb00 5abc 0e67 e6bd
00000360: 95cf 11be 3acd 613e 56da 9abc a1b9 c6bd
00000370: 0259 ed3d 044c 7bbe fdfb 84bd b283 55be
00000380: d2bf f9bd 09f4 163e f95e ea3d 4265 6abe
00000390: 0917 b0bd b29e c83d 5092 8a3e 5aa9 153e
000003a0: 20e4 2fbe 83d4 a3be 4cd4 88be e85b 793e
000003b0: fb1d 5fbc 758f 513c 360b a8bd 0311 24bd
000003c0: e216 613e 58ac 743e 0e02 2bbc 46eb 713d
000003d0: a19b 4f3e a8dc 983e a3ff e73d 76ed 77bd
000003e0: dacc 94be d0fa b0bd 6e09 48be a053 333e
000003f0: 67f8 8e3e a1e9 463e ac84 0dbe 0e43 3a3e

mlp1.bias f4 [64]
0.0264716 0.124357484 -0.056989186 0.11277681 0.29430547 0.16668563 0.14367314 0.14618894
-0.094135374 -0.040504828 0.054298215 0.114777096 0.035658706 0.13527834 0.082734175 0.11271828
0.0771082 -0.0016567316 0.04026021 0.13834248 0.060590785 -0.012622491 0.05722148 0.11398626
0.08782817 0.19063674 0.17064705 -0.07282233 0.08340405 0.08121651 0.17777556 0.0071679023
-0.12267216 0.0016021208 -0.115644135 0.0771632 0.15146762 0.09084591 0.04326201 0.10940524
0.03802371 -0.10634991 0.061291337 -0.22840998 -0.053814873 0.028781213 0.02181885 0.12922925
-0.017976034 0.14199394 0.082905024 -0.09244255 -0.015748715 0.120745204 0.20295605 0.03994988
0.055466074 0.14791848 0.016819749 -0.007723004 0.049564235 -0.013446827 0.12229313 0.049495004
00000000: f8da d83c 23af fe3d 7e6d 69bd 87f7 e63d
00000010: 35af 963e a3af 2a3e 0d1f 133e 8eb2 153e
00000020: 0cca c0bd 64e8 25bd ce67 5e3d 4110 eb3d
00000030: dd0e 123d 6886 0a3e 8970 a93d d7d8 e63d
00000040: e7ea 9d3d b026 d9ba e4e7 243d a7a9 0d3e
00000050: 0b2e 783d 91ce 4ebc 1261 6a3d a171 e93d
00000060: 41df b33d 4736 433e 1abe 2e3e e023 95bd
00000070: becf aa3d d754 a63d cc0a 363e b9e0 ea3b
00000080: 8b3b fbbd 41fe d13a d5d6 ecbd bd07 9e3d
00000090: 541a 1b3e 6c0d ba3d 8133 313d db0f e03d
000000a0: c0be 1b3d fbcd d9bd a00c 7b3d 4ee4 69be
000000b0: fc6c 5cbd 94c6 eb3c 72bd b23c ac54 043e
000000c0: 7a42 93bc dc66 113e 1cca a93d 8552 bdbd
000000d0: 7303 81bc 4349 f73d b6d3 4f3e 7ca2 233d
000000e0: 6530 633d f177 173e 92c9 893c 4111 fdbb
000000f0: de03 4b3d 1550 5cbc d274 fa3d 46bb 4a3d
