Saved_Models/TSP_100/scatgnn_layer_2_hid_64_model_270_temp_3.500.pth (torch, 153863 bytes, 24 tensors)

bn0.weight f4 [2]
000000 00 00 80 3f 00 00 80 3f
       1.0 1.0

bn0.bias f4 [2]
000000 00 00 00 00 00 00 00 00
       0.0 0.0

bn0.running_mean f4 [2]
000000 00 00 00 00 00 00 00 00
       0.0 0.0

bn0.running_var f4 [2]
000000 00 00 80 3f 00 00 80 3f
       1.0 1.0

in_proj.weight f4 [64, 2]
000000 a0 51 56 3f d4 2c ff 3e c1 e4 6e bf 60 a9 35 3e
       0.837183 0.4983889 -0.933178 0.17740393
000010 cc cc 87 3f c1 1d d2 be 46 5f a1 3e ad 1b be 3f
       1.0609374 -0.41038325 0.31518 1.4852196
000020 37 a1 86 3e de 98 35 bf 25 61 07 3f 4d 80 ac 3f
       0.26294872 -0.7093638 0.52882606 1.3476654
000030 04 3d 6f 3f 3d 44 40 3f ac 5d 5f 3e da f3 b6 bf
       0.9345248 0.75104123 0.21813077 -1.4293168
000040 e1 68 9b 3f 09 a7 39 3e 64 72 53 bf 69 e5 66 3f
       1.2141382 0.18130125 -0.8259642 0.901938
000050 76 46 81 3f 13 be ac be ec 9f 85 3f b2 a1 12 3f
       1.0099628 -0.33738765 1.0439429 0.5727798
000060 ec 7e 96 bf 45 04 b6 bf de ca 4b bf d1 7f 67 3e
       -1.1757483 -1.4220053 -0.79606426 0.22607352
000070 85 87 35 bf be 78 bc bf 7b 31 6b 3f 77 53 9a bf
       -0.7090991 -1.4724348 0.91872376 -1.2056721
000080 ca f5 48 3f fb f2 a1 3c fd 4c e0 3d 79 e4 a0 3f
       0.78500044 0.019769182 0.10952184 1.2569724
000090 9e a5 a9 bf 0e e8 e0 3d 12 ca a1 be a8 a4 8e bf
       -1.3253667 0.10981761 -0.3159948 -1.1143999
0000a0 e8 a8 b1 3f 3e 22 a2 3f f1 05 98 3f bd fc 58 3f
       1.3879671 1.26667 1.1876813 0.8476065
0000b0 5b 24 4a bf bc 9c 21 3f 9d 3e 35 bf a1 24 9b 3f
       -0.78961724 0.6312978 -0.70798665 1.2120553
0000c0 83 b2 2d be 5d 10 a4 bf ab 2b 5d 3f 1c ae fa 3e
       -0.16962628 -1.2817494 0.8639476 0.4896096
0000d0 6d e5 5b bf e1 c8 af bf ba 69 9e be b3 b9 84 bf
       -0.8589695 -1.3733178 -0.30940038 -1.0369171
0000e0 ae e5 73 3f 61 2d 10 be a7 23 31 bf 06 bd 83 3f
       0.9527234 -0.1407981 -0.69195026 1.029206
0000f0 65 7d 51 3f 1e 2f 8e 3f 72 98 95 3f 61 20 a4 3e
       0.8183196 1.1108129 1.1687148 0.32055953
000100 9d 12 2b 3f ca da af 3f fd 30 bf 3d 79 b8 85 bf
       0.66825277 1.3738644 0.09335516 -1.0446922
000110 7b c4 c1 be d6 f7 7f 3f ad 02 81 3f 5d 3a ee be
       -0.37845215 0.9998754 1.0078942 -0.46528903
000120 2c 58 45 3f fa a9 86 3e 4d 07 42 3d 60 7c 98 bf
       0.77087665 0.26301557 0.047370244 -1.1912956
000130 96 43 7a 3f bb ae 47 3e 89 e2 9e bf 03 af 9a 3c
       0.9775938 0.19500248 -1.2412883 0.01888228
000140 da 24 5d 3f 10 05 03 bf 0d 08 5c bf 63 b9 9a bf
       0.86384356 -0.511796 -0.85949785 -1.2087826
000150 55 82 ef 3e 14 06 77 bf 1a d9 97 3f 36 4f 23 bf
       0.46779123 -0.9649365 1.1863129 -0.6379274
000160 34 35 9d bf 2f 04 bd bd 6e 69 87 bf e9 56 3e be
       -1.2281861 -0.092293136 -1.057905 -0.18587841
000170 78 ec 1e bf 1b 38 ea 3e 26 e3 ba be a6 45 a4 3f
       -0.6207957 0.4574593 -0.36501426 1.2833755
000180 a1 27 69 3e 8c 55 86 bf 23 5b 0d 3f a2 8f 83 be
       0.22769023 -1.0494857 0.5521719 -0.2569552
000190 87 9e 99 bf 9f d5 9f bf 69 82 41 bf 96 4c 1d 3f
       -1.2001504 -1.2487067 -0.75589615 0.61444986
0001a0 8a 15 80 bf f5 6b 91 3f 14 44 3e 3f a4 e9 3e bf
       -1.0006573 1.1361071 0.7432263 -0.7457526
0001b0 1f 70 6c 3f 1b a1 59 bf fb a8 27 bf b8 21 1a 3f
       0.92358583 -0.8501145 -0.6549222 0.602077
0001c0 16 d7 86 3f 5a cc 34 bf 5f b9 8b bf 68 c5 d4 be
       1.0534389 -0.70624316 -1.0915946 -0.4155686
0001d0 f2 32 8d bf 8d c5 f4 be e2 cd 18 bf 34 17 8d bf
       -1.1031172 -0.4780697 -0.5968915 -1.1022706
0001e0 bd 81 bc 3e f6 12 44 bf 4c 1f 9e 3e 98 2d 8e bf
       0.36817732 -0.7659143 0.30883253 -1.1107664
0001f0 7a 12 01 bd 25 9c 82 bf ab f6 95 3f b9 6e 90 be
       -0.03151176 -1.0203902 1.1715902 -0.28209475

in_proj.bias f4 [64]
000000 16 c5 0c 3f 62 2b 56 be 9b 44 4e 3c e3 eb af 3b
       0.5498823 -0.20914987 0.012589599 0.005368696
000010 91 63 fd be b1 82 60 be 49 e0 01 3d 32 eb 0f be
       -0.49490026 -0.21924855 0.031708036 -0.14054564
000020 b2 3e 60 3d 22 4c 14 3f fe ff fc be c5 05 00 3f
       0.05474729 0.5792867 -0.49414057 0.50008804
000030 b7 49 f1 bd 73 bf 25 be 78 cc 43 3e e8 87 81 bd
       -0.11781638 -0.16186313 0.19120967 -0.0632475
000040 74 ec fc be 7c 99 60 3c e4 50 35 3d 8d a9 08 3f
       -0.4939915 0.0137084685 0.044266596 0.53383714
000050 d5 a4 ca 3b eb aa c0 be d4 e5 8f bd 9d 69 b0 bd
       0.0061842003 -0.376304 -0.07026258 -0.08613894
000060 ae a0 16 be 52 f6 b1 be 4e f6 b9 be 34 50 05 3f
       -0.14709732 -0.3475824 -0.36320728 0.52075505
000070 23 74 15 bf 01 31 00 bf bd 88 21 3f b2 3c 80 bc
       -0.58380336 -0.50074774 0.6309927 -0.015653942
000080 ce 31 20 3f 07 6c dd be e4 63 1b bf 22 51 3d be
       0.62575996 -0.4324648 -0.60699296 -0.18487981
000090 ca 0a fe 3e c7 3a eb 3c 8f 12 30 3f 96 1c 7d be
       0.49617606 0.02871455 0.6877832 -0.24717936
0000a0 28 09 e9 bd 7c ee 79 3e 62 15 fc be c4 0d f2 3d
       -0.113786995 0.24407381 -0.49235064 0.11819032
0000b0 ec 18 fd 3d ff a2 15 3f ae 0b 10 3c 66 41 82 3e
       0.12358269 0.5845184 0.008791847 0.2544052
0000c0 dd 5a b7 bd 01 01 d4 3e f7 80 b3 be 3b 3d 92 3e
       -0.08952878 0.41407016 -0.3505933 0.2856234
0000d0 9b 20 c2 be 3d 94 99 3e e3 04 10 bf 96 bc 86 be
       -0.379155 0.2999591 -0.56257457 -0.26315755
0000e0 9a f4 ae bd c8 d8 06 3f 14 c0 ea be 89 68 01 3f
       -0.08542748 0.5267453 -0.4584967 0.50550133
0000f0 b3 e6 b1 3e a2 62 01 3f ad dd f8 be 7e e2 11 bf
       0.34746322 0.50541127 -0.48606625 -0.56986225

convs.0.a f4 [128, 1]
000000 11 9b 3f bd 02 7e b9 3c 88 da 91 bc 1c 3f 92 3a
       -0.046778742 0.022643093 -0.0178044 0.0011157724
000010 3a c2 33 b8 76 e0 a8 bc 65 2a 60 bd 3c 6c df bc
       -4.2857813e-05 -0.020614844 -0.05472793 -0.02727329
000020 65 a7 3b bd 58 b0 b6 3b 74 89 51 bb 24 4c 8c bd
       -0.045813937 0.005575221 -0.0031972798 -0.0685046
000030 16 7f 05 bd f8 9a cd 3c 37 eb 50 bd 92 d6 33 bc
       -0.0325919 0.025098309 -0.05100557 -0.0109764505
000040 00 00 00 00 c5 8e ff 39 bc 3b cb 3c 9e 7d c1 bc
       0.0 0.00048743762 0.024808757 -0.02361947
000050 14 ca 44 bd 6f 3a 22 bc 59 90 2e 3d 2e 6e 08 3d
       -0.04804428 -0.009901627 0.04261813 0.0333082
000060 4a 9e b2 bc 4c b0 8d 3b 08 ec ea bc 52 38 09 bd
       -0.021803994 0.0043239947 -0.028677002 -0.033500977
000070 13 d4 bb b7 f4 4c 29 3c a5 10 1a bd 31 b5 16 bd
       -2.2390892e-05 0.010333288 -0.03761353 -0.03679389
000080 d8 b4 27 bd 0a 3c 6d bb e4 6e df b9 11 0d d9 bb
       -0.04094395 -0.0036199116 -0.00042616494 -0.006623872
000090 99 e7 43 bd 42 71 06 bd 88 af 14 bd 5f 19 bf 3c
       -0.04782829 -0.032822855 -0.036300212 0.023327528
0000a0 a1 92 90 bb 7d 3f e9 bc 2a 60 05 bb a8 52 0e bd
       -0.004412011 -0.028472656 -0.0020351508 -0.034746796
0000b0 76 bd b6 3c af 5a 17 3a 8e 2e 0a 3d cd be 45 3c
       0.022307139 0.0005773706 0.033735804 0.012069416
0000c0 ce 5f c4 bc 8d 9c 89 bd 6a 05 e1 bc ec 5c 01 3d
       -0.023971464 -0.06719313 -0.027468402 0.031582758
0000d0 14 6a ff 3c 40 19 80 bd eb 5e 92 bb 8b e5 a9 3c
       0.031178512 -0.06254816 -0.0044668815 0.020739337
0000e0 e1 19 04 bc a4 d6 5b bc da 0b 46 3b a3 67 06 bd
       -0.008062811 -0.0134178735 0.0030219466 -0.03281368
0000f0 4a b9 26 bd 30 1d 5b bd 18 98 54 ba d7 e3 56 bb
       -0.04070405 -0.053494632 -0.0008109822 -0.0032789612
000100 20 50 9c be 61 41 1e 3f 96 ce 1e 3f 95 f1 16 3f
       -0.3052988 0.6181851 0.62033975 0.58962375
000110 e6 9a 24 3f 1a 41 41 3f 3f 29 7d 3e 97 63 1f 3f
       0.64298856 0.7548996 0.24722765 0.6226134
000120 65 6e e5 3e 5f f3 97 be 44 ec 2c 3f 36 1e 81 be
       0.44810787 -0.29677865 0.6754801 -0.25218362
000130 95 7f 52 3f 22 d2 28 3f f4 bd ba 3d c0 d0 1f 3f
       0.82225925 0.6594564 0.09118262 0.624279
000140 ae 35 26 3f f7 15 e5 3e db 5a 05 3f f9 80 8f be
       0.6492566 0.4474332 0.5209176 -0.28028086
000150 2c 12 d8 3e 0e 1b 49 3f eb 65 27 3f 9d 64 26 3f
       0.42201364 0.7855691 0.6538989 0.64997274
000160 f6 25 20 3f 72 7a 30 3f 1b e1 41 3f 29 21 88 be
       0.62557924 0.68936837 0.7573411 -0.265878
000170 a6 1f 24 3f b8 31 1f 3f df ce 7f be d6 5c 22 3f
       0.6411079 0.6218524 -0.24981259 0.63422906
000180 45 a5 50 be 03 7f 1c 3f f3 41 1b 3f 39 76 29 3f
       -0.20375545 0.61131305 0.60647506 0.6619602
000190 3a e3 a5 be d2 b5 1b 3f 37 e9 a8 be 5b eb 21 3f
       -0.32399923 0.6082431 -0.3299043 0.6324975
0001a0 29 45 23 3f ae 3a 5a bc f8 93 26 3f f2 95 fa 3e
       0.63777405 -0.013319654 0.6506953 0.48942524
0001b0 66 00 b8 3e 5b e5 96 be 45 bc 15 3f 9e fa e5 bc
       0.35937804 -0.2947186 0.584904 -0.028073605
0001c0 7f 04 20 3f 44 5a b9 be 4b 84 5f 3f d3 07 61 be
       0.6250686 -0.3620168 0.8731124 -0.21975641
0001d0 b4 b3 20 3f 70 49 5b be 13 d5 1a 3f 17 b1 2e 3f
       0.62774205 -0.21414733 0.60481375 0.6823897
0001e0 14 60 26 3f 1d 6e 7c be 79 fc 21 3f e7 3f 69 be
       0.64990354 -0.2465138 0.6327587 -0.22778283
0001f0 16 8e 92 be 25 58 9a be 44 16 1b 3f 8b 62 2e 3f
       -0.28624028 -0.30145374 0.6058085 0.68119115

convs.0.linear1.weight f4 [64, 64]
000000 b5 0c 4d 3e 95 c0 bc 3e 0b a8 a6 3e 27 72 02 3f
       0.20024379 0.36865678 0.32550082 0.5095543
000010 c4 a1 f7 3e e7 fb ed 3e 4b 78 09 3e d0 9f fd 3e
       0.48365605 0.4648125 0.13424794 0.4953599
000020 5e 67 e8 3e c4 ba e0 3e 3c 2d f8 3e 08 1f 73 3e
       0.45391363 0.4389249 0.4847201 0.23742306
000030 e4 a2 59 3e 25 34 8d 3e 9c 29 6f 3e 17 0f 00 3f
       0.21253544 0.27578846 0.23355716 0.50023025
000040 c9 77 9a 3e cf 65 f3 3e 72 93 6d 3e d1 15 2a 3e
       0.30169514 0.4753861 0.23200777 0.16609885
000050 57 92 2a 3e 16 1f a5 3e f9 46 cf 3e 79 7e e1 3e
       0.16657387 0.3225028 0.40483835 0.44041803
000060 48 dd 00 3f 14 61 ed 3e c3 50 20 3e 0f 90 2f 3e
       0.5033765 0.46363127 0.15655808 0.17144798
000070 46 e2 d6 3e 07 f9 ac 3e 1b 9c 00 3d f9 47 0c 3f
       0.41969508 0.33783743 0.031398874 0.5479732
000080 7b b9 e7 3d 2e 87 f1 3e 8e 35 09 3f 0b a6 f7 3e
       0.113146745 0.47173446 0.5359734 0.48368868
000090 3c dc 63 3e 0b 2b ed 3e bf 1f 15 3e fa e3 e7 3e
       0.22251981 0.46321902 0.14562891 0.4529112
0000a0 5a b3 e5 3e b8 ad 17 3e 13 b0 e5 3e 5e 7a 77 3e
       0.44863397 0.14812362 0.44860896 0.24167773
0000b0 87 ae b0 3e 2a c9 03 3e c0 2c ee 3e cb 0c fd 3e
       0.34508154 0.12869707 0.46518517 0.49423823
0000c0 a5 08 c8 3e 97 1f 42 3e 43 7c 85 3e 04 1a cd 3e
       0.39069095 0.18957363 0.26071367 0.4005891
0000d0 8a 0e b8 3e 18 fa c0 3e 09 04 65 3e 15 38 c2 3e
       0.35948592 0.37690806 0.2236482 0.37933412
0000e0 bc 10 a7 3e 6a ef 79 3e 8b 4a cb 3e 41 a8 94 3e
       0.32629955 0.24407735 0.3970531 0.29034618
0000f0 43 94 07 3f f1 7c db 3e 7d 86 d6 3e a7 3c b6 3e
       0.52960604 0.4286876 0.4189948 0.3559315
000100 08 bf 0a 3d de 27 f6 bd 69 1d 01 bf 77 38 85 3d
       0.033873588 -0.12019323 -0.504355 0.065049104
000110 4a d9 95 be 19 2d f4 bd 88 0f 08 3e 16 80 5f be
       -0.2926734 -0.11922664 0.13287175 -0.21826205
000120 fb 05 a8 3b 9e 58 cb be af 9a 0a bf 0b a7 61 3e
       0.005127666 -0.39716047 -0.5414228 0.22036378
000130 b1 98 59 bc 0e 85 c0 be 98 77 a3 bd 73 07 17 bf
       -0.013281033 -0.37601513 -0.07981795 -0.5899574
000140 35 7d 02 bd 6e ec dd bd 92 72 8d 3a 1e 7f 25 bd
       -0.031857688 -0.10836111 0.0010791591 -0.04040443
000150 f8 92 54 bd 37 77 f6 3d e3 65 26 bf e3 8c d9 be
       -0.051897973 0.12034457 -0.64999217 -0.424903
000160 93 13 db 3c 43 2e d4 3c f1 cb 9a 3d 22 e8 c5 3d
       0.026742732 0.025900966 0.0755843 0.096634164
000170 2e 19 4f be 67 76 13 bf 54 2a c1 3d c6 0d 69 bd
       -0.20224449 -0.5760254 0.094319016 -0.0568979
000180 2a 7f 98 bc 1e ba 74 be 41 d5 e5 be b3 a6 01 bf
       -0.018615324 -0.23899123 -0.44889262 -0.5064499
000190 8b 24 e7 3d 18 b0 23 be d1 48 b7 bc 58 b6 77 be
       0.11286267 -0.15985143 -0.022373589 -0.24190652
0001a0 81 6a 23 bf 2f ca c3 ba 85 4e 20 bf 9a 9b 00 bf
       -0.6383439 -0.0014937575 -0.6261981 -0.5023743
0001b0 03 60 9b 3c 36 42 0c bd 55 db fb be 33 46 61 bd
       0.01896668 -0.03424283 -0.49190775 -0.054998588
0001c0 67 9b 83 be de eb a2 bd a4 07 ac 3c fb 8e 51 be
       -0.257045 -0.07955144 0.020999737 -0.20464699
0001d0 8b bc 09 bf 71 b1 6c be c6 6e 08 bf b9 8c 1a bf
       -0.5380332 -0.23114564 -0.53294027 -0.60370976
0001e0 39 7e 13 bf f2 3d a5 3c 41 c5 31 3e 0b 2f 86 3d
       -0.57614475 0.02017114 0.17360403 0.065519415
0001f0 57 f9 47 be 79 24 73 be 19 62 a2 bd ca 6b e7 be
       -0.1952871 -0.23744382 -0.07928867 -0.45199424
000200 fa 31 26 be 8a 3f a8 bd 00 03 6d be a9 b7 5f be
       -0.16230002 -0.08215244 -0.23145676 -0.21847405
000210 3f ed 44 be 5a 70 8b be e0 d5 1d be fb d1 02 be
       -0.19231127 -0.27234155 -0.15413618 -0.12775414
000220 49 9c 50 be e4 58 c9 bd db 33 85 be 23 a7 57 be
       -0.20372118 -0.09831408 -0.26016125 -0.21059851
000230 0f 92 3f bd 5b 97 80 be 5a c8 09 bd 42 24 24 be
       -0.04677015 -0.25115475 -0.033638336 -0.16029456
000240 08 cb 7a be a6 d1 2c be c3 67 96 bd 0a 22 35 be
       -0.24491513 -0.1687685 -0.0734401 -0.17688766
000250 77 e0 7a be ce b0 8d be 85 66 c3 bd 7c 01 a8 bd
       -0.24499689 -0.27673954 -0.095410384 -0.08203408
000260 b9 14 80 be 06 e1 8d be 4d 04 dd bd 68 22 44 bc
       -0.2501581 -0.27710742 -0.10791836 -0.011971094
000270 f7 38 d2 bd 09 df 2d bd cb b3 5a be 80 63 76 be
       -0.102647714 -0.04244903 -0.21357648 -0.24061394
000280 39 97 5a bd c2 52 8d be b3 43 58 be 4f a0 61 be
       -0.053366873 -0.27602202 -0.21119575 -0.22033809
000290 fd 8b 86 bd 62 a8 d9 bd 22 6a de 3c db 11 34 be
       -0.065696694 -0.106278196 0.027150217 -0.17584936
0002a0 0a ad e7 bc 1f de 6f be 67 ba 5c be 5a e9 12 3c
       -0.028280754 -0.23424576 -0.21555482 0.008966768
0002b0 bd 94 0d be 13 03 d3 3c eb c0 19 3d ae b6 d2 3c
       -0.1382627 0.025758302 0.037537497 0.025721874
0002c0 ae 97 19 be 60 30 8a bd a4 eb 2a be 63 5f 4b 3d
       -0.14999267 -0.06747508 -0.16691452 0.049651515
0002d0 49 45 a5 bd ef 9a 94 bd 83 a7 5e 3d 29 aa 99 3c
       -0.08069856 -0.07256114 0.05435897 0.018757896
0002e0 99 9a 7d bd 88 c2 45 be 6b a6 82 be b7 a5 d5 bd
       -0.061915014 -0.19312489 -0.25517592 -0.10431998
0002f0 06 8a 57 bd 3e e3 0c be be 38 60 be b5 a7 e5 bd
       -0.052621864 -0.13758561 -0.21896645 -0.11213628
000300 62 fd 90 3e da 02 8e 3e db e9 86 3e 67 93 81 3e
       0.28318316 0.2773655 0.26350293 0.25307772
000310 0e fa b9 3e 71 5e 8e 3e 22 32 7d 3e 2d 58 a1 3e
       0.3632359 0.27806428 0.24726155 0.31512585
000320 55 a8 f2 3e f6 34 72 3e 3e ef e3 3e 31 94 8d 3e
       0.47394052 0.23653015 0.44518465 0.27652124
000330 45 94 1b 3e f8 b7 7d 3e 65 6d 1a 3e 0c 56 bb 3e
       0.15193279 0.2477721 0.15080793 0.36589086
000340 70 a4 80 3e ef 7d d3 3e a4 1e a3 3e 3c e1 9b 3e
       0.25125456 0.41307017 0.31859314 0.30445278
000350 1b 5d 30 3e 6d 21 ec 3e db f6 b4 3e c1 20 ed 3e
       0.17223017 0.46119252 0.35344586 0.46314052
000360 5c b9 b3 3e 5d 90 1c 3f 68 ac bc 3e 6b 9c 83 3e
       0.35102355 0.6115778 0.36850286 0.25705275
000370 6d c8 ad 3e a8 b5 4d 3e 4d 67 f0 3d e9 2a 11 3f
       0.33941975 0.20088828 0.11738453 0.567061
000380 cd 21 62 3e 03 ea f5 3e d4 aa b0 3e 3a f9 99 3e
       0.22083206 0.480301 0.34505332 0.30072957
000390 93 27 69 3e b6 a6 72 3e 40 c0 84 3e cb 34 9a 3e
       0.22769003 0.23696408 0.25927925 0.30118403
0003a0 fb e9 c0 3e e0 33 09 3e 22 06 c9 3e ce ca 86 3e
       0.37678513 0.13398695 0.3926249 0.26326603
0003b0 7f a9 ab 3e bd 90 91 3e 18 b8 b8 3e ef 4e 99 3e
       0.33527753 0.2843074 0.36077952 0.29943034
0003c0 ad 42 b8 3e 9d f8 62 3e 45 4c a2 3e cc c1 c9 3e
       0.3598837 0.22165151 0.31698814 0.39405668
0003d0 82 3f ba 3e 10 cb 9a 3e 4d 2b 63 3e 32 21 bc 3e
       0.36376578 0.3023305 0.22184487 0.36744076
0003e0 4f 90 6c 3e 8e a2 8e 3e d3 59 cd 3e ee 41 86 3e
       0.23101924 0.27858394 0.40107593 0.26222175
0003f0 de 55 8a 3e ad 9a 41 3e 37 f5 d8 3e 53 8f ed 3e
       0.27018636 0.1890666 0.42374584 0.4639841

convs.0.linear1.bias f4 [64]
000000 9f 32 cf 3d e9 43 be bb 8e b0 7a 3e 5a 0d 3e bd
       0.10117077 -0.0058064354 0.24481413 -0.04639945
000010 c4 ab 32 3e 5b b5 58 be db 0b 72 3d d1 99 69 be
       0.17448336 -0.21162932 0.059093338 -0.22812583
000020 92 9e 13 3e 4a bb 9b bd 59 47 5d 3e d7 cf 03 be
       0.14415959 -0.07604082 0.21609248 -0.12872253
000030 da c6 5c 3e c4 03 84 3e 58 ec c3 3d d4 3a ed bd
       0.21560231 0.25784123 0.09566563 -0.11583486
000040 9d b1 47 3e 4e 43 0d be 66 03 7f 3e bf 6d 4a bd
       0.19501348 -0.13795206 0.2490364 -0.04942107
000050 11 c0 87 bc ca 79 8c bd 4f ce 84 3d a4 26 96 bd
       -0.016571077 -0.06859167 0.06484663 -0.07331589
000060 e1 41 1e 3e 9c 7f be 3d 84 b2 1d be 7a 30 0b bd
       0.15454818 0.09301683 -0.1540013 -0.033981778
000070 4a e8 64 3c 6c 82 7c 3d a6 eb 33 3e cb 5c 35 bd
       0.013971398 0.061647817 0.17570361 -0.044277947
000080 3d dd 52 bd 2b dc 52 3d be 6c 75 3e 49 52 a0 bd
       -0.05148052 0.0514795 0.23967263 -0.07828195
000090 fb 6b a1 bd 4e f8 e2 bd 4e 3d eb 3d 89 0f 8f 3d
       -0.07881924 -0.110825166 0.11486302 0.06985385
0000a0 8b 84 9f 3c 50 36 73 bd 2d 89 c5 3d d1 f1 25 bd
       0.019472381 -0.05937797 0.09645305 -0.040513817
0000b0 5e 3c f7 3d 44 05 93 3c 3b ba 18 bd d4 e4 c1 bd
       0.12072061 0.017946847 -0.03728698 -0.094674736
0000c0 b5 8c b6 bd 0f fd 71 3e b3 6e 60 bc 71 a5 f0 bd
       -0.089135565 0.2363169 -0.013698268 -0.117503054
0000d0 13 1c d8 bd ab 44 61 3e 27 86 3e be 5f 96 8f 3e
       -0.1055223 0.21998851 -0.18605863 0.28044412
0000e0 8f e2 35 bd d8 d1 7c 3d 0c d5 bb 3d 20 c3 50 3e
       -0.044405516 0.06172356 0.09171495 0.20386934
0000f0 ce e8 2b 3d 31 bf 31 3c 34 9d 21 bb 03 76 05 bd
       0.041970067 0.010848806 -0.002466035 -0.032583248

convs.0.linear2.weight f4 [64, 64]
000000 57 22 8a 3d ff 26 91 3e 63 99 80 3d 9e 0a 55 3d
       0.06744831 0.28350064 0.06279256 0.05201208
000010 8d 07 1d bd 4d 56 dc 3d fe fd f0 3d 8e d4 41 be
       -0.03833728 0.10758648 0.11767195 -0.1892874
000020 f2 e7 2d bd 44 92 9a bd 67 d2 3c be 64 8e e4 bb
       -0.04245753 -0.07547429 -0.18439637 -0.006974982
000030 12 51 21 bd 5d 3b 9a 3d ac 64 c4 3c dd 70 09 bb
       -0.039383955 0.07530854 0.023973785 -0.0020971813
000040 a3 ac 75 3b 7c b4 7f 3d 37 12 07 bd 76 b0 78 3e
       0.0037486933 0.062427983 -0.032976355 0.24286065
000050 a9 dd 7e 3d 8e 89 28 bf 3d 01 24 3f 23 99 b0 be
       0.06222311 -0.6583489 0.6406439 -0.34491834
000060 e8 a4 47 be b4 2b 88 3e 38 f2 e7 bd c3 1d a2 bd
       -0.194965 0.26595843 -0.113254964 -0.07915833
000070 01 b3 dc bd 6f d0 a6 bc fa 33 ac bd 3d 55 d5 3e
       -0.1077633 -0.02036306 -0.08408351 0.41666594
000080 f8 a1 97 bd 01 56 9f 3b 8f 87 b9 bd ab fc da bc
       -0.0740394 0.0048625474 -0.09059059 -0.02673181
000090 5c 1b cf bc f5 56 1e bf 36 6e ef 3d b2 45 3c bd
       -0.0252816 -0.61851436 0.11690943 -0.045964904
0000a0 b5 23 1b be 14 02 aa bd 8b 79 1e bf 47 92 f1 3d
       -0.1515034 -0.083011776 -0.6190421 0.11795478
0000b0 e4 29 f3 3d cc 02 15 be 02 bc 5e 3e 63 32 21 be
       0.118732244 -0.14551848 0.21751407 -0.15741877
0000c0 60 c8 ca be de df 97 bd 40 f0 13 be e5 7a 58 3c
       -0.39606 -0.07415746 -0.14447117 0.013212894
0000d0 ea 7d 82 3d 1c 40 c1 bb 72 fe 48 3e e3 ac 8f 3d
       0.063716725 -0.005897535 0.19628313 0.070153974
0000e0 f8 c0 85 3e 84 80 0a 3c 49 c9 f6 3e ca d8 e2 bd
       0.26123786 0.008453492 0.48200443 -0.110765055
0000f0 5d e2 52 3d 6e f1 3c be 7a 04 93 bd 0b 4b 41 3d
       0.051485408 -0.18451473 -0.07178588 0.047190707
000100 8d 54 12 bf 31 cb ca 3f c1 56 c2 3e 70 e9 aa bf
       -0.57160264 1.5843259 0.37956813 -1.335249
000110 73 08 7e 3e 53 e6 9c be fd 86 e4 be 8a 91 b5 be
       0.2480791 -0.30644473 -0.44634238 -0.354626
000120 e4 37 9e be c5 cc d4 3e f6 0e d4 3e 99 ec 5f 3e
       -0.30902016 0.41562477 0.41417664 0.21867599
000130 d2 c3 d0 3d 8e 3f b3 3e fd a2 ce be 28 e1 bf 3e
       0.101936 0.35009426 -0.40358725 0.37476468
000140 ad 5a 65 3e 02 6a c2 3e 58 c5 63 3e e4 41 a4 bf
       0.22397871 0.37971503 0.2224325 -1.2832608
000150 e9 1f 85 bf 89 a2 3c 3e d7 11 c2 be 49 52 e1 3e
       -1.0400363 0.18421377 -0.37904236 0.4400809
000160 05 44 c3 3e b6 3e 70 3e 62 71 13 be 9e eb 2a 3f
       0.38137832 0.23461422 -0.14398721 0.66765773
000170 bb 1f 37 bf e0 b5 0f bf 25 26 55 be 20 e1 0c bf
       -0.7153279 -0.56136894 -0.20815332 -0.55031013
000180 33 d4 fc 3e d9 5d 0d bf ac d4 c0 3e c5 f8 f2 3e
       0.49380645 -0.55221325 0.37662256 0.4745542
000190 92 d3 a9 3e e6 37 09 3e 32 19 e3 be c6 1d c6 be
       0.33169228 0.1340023 -0.4435516 -0.3869459
0001a0 a6 49 91 3f 72 87 19 3f 22 62 7f 3e 37 c4 ba bf
       1.1350601 0.599723 0.24939778 -1.459113
0001b0 b4 3a ec be 23 3e 87 3f 67 c3 9c bf 7e a5 04 3f
       -0.46138537 1.0565838 -1.2247132 0.5181502
0001c0 59 7c 51 bf 54 36 7e 3e bf 76 0c 3f b7 f5 88 3e
       -0.81830364 0.24825412 0.5486869 0.26749966
0001d0 a3 f8 cb 3e 13 a3 b6 3e 0f ac 67 be f8 ca c7 3e
       0.39838132 0.3567129 -0.22624229 0.3902204
0001e0 3d 26 b6 bf e3 28 ec be c2 59 dd be c8 f6 90 3e
       -1.4230419 -0.46124944 -0.43232542 0.2831328
0001f0 3e ba 53 bf 55 7a 02 3f e5 13 2e bf 29 97 c0 bf
       -0.8270606 0.50967914 -0.67999107 -1.504613
000200 97 59 0b bd b4 d6 f1 bd ec f1 1f bf 82 10 3b 3e
       -0.034020986 -0.118085295 -0.6247852 0.18268016
000210 b8 55 27 bf 56 cb 3a 3f fc c9 a9 3b 1b 5d c4 3d
       -0.6536517 0.72966516 0.005181549 0.09588071
000220 4d 70 e9 bd a2 6d bf bc c2 89 84 bf b7 03 17 bc
       -0.11398373 -0.023367707 -1.035454 -0.009217194
000230 a4 ee 0e bf 8c 04 32 bf 2e c5 d1 bd 9d 6b 25 3d
       -0.55832887 -0.6953819 -0.10242687 0.04038583
000240 3e 9c 0b bf 16 3e a2 3c 9a ad 31 bf 4a b9 69 3e
       -0.5453528 0.019804996 -0.6940552 0.22824588
000250 b8 09 a6 3d e2 8e 0e be 8c e4 5b 3f bd 75 29 be
       0.081073225 -0.13921693 0.8589561 -0.1654882
000260 cc 35 36 bf af db 05 bf 46 bc b8 3e f9 b1 d7 3d
       -0.7117584 -0.52288336 0.3608114 0.105319925
000270 de 09 f5 3d 44 54 dc bd 88 dd c3 bd 99 3a 01 3f
       0.11964773 -0.1075826 -0.09563738 0.5048004
000280 0e bb 96 bd 94 ba 43 3d f6 b4 5e bf 94 8a 84 3c
       -0.073598966 0.047785357 -0.86994874 0.01617936
000290 58 4a 0d 3d 6d 70 34 be 3c b6 8f bd f5 81 f0 bd
       0.034494728 -0.17621012 -0.0701718 -0.11743537
0002a0 1e 46 37 be a0 16 b7 3d a7 12 e4 be 5c 00 21 3e
       -0.17897841 0.08939862 -0.4454548 0.15722793
0002b0 1f 86 3a 3d 89 10 e6 bb 78 25 7b 3e d3 65 26 be
       0.045538064 -0.007021014 0.24526012 -0.1624978
0002c0 bf 27 f7 bc 7f de 44 bf 6e 96 50 be 8b b4 e0 bc
       -0.03017032 -0.76902 -0.20369884 -0.02742984
0002d0 3c cf 98 3d 03 45 5f bf 7c df 9f 3e aa 3f 42 bf
       0.07461402 -0.8721468 0.31225193 -0.75878394
0002e0 f0 f5 14 3e 90 0a 53 bc ed 5d 88 3e 26 db f2 be
       0.14546943 -0.012880936 0.2663416 -0.47432822
0002f0 a4 74 b6 bd 49 8b 18 bd 66 69 ac 3d 63 ed 39 3e
       -0.08908966 -0.037242208 0.08418541 0.18156962
000300 66 da 94 3e 4d ff d8 be 18 21 9b bd 76 b5 d8 3e
       0.29072875 -0.4238228 -0.075746715 0.42325944
000310 e6 28 99 bd 0d 75 f3 3d d4 15 8f 3e 72 38 d1 bb
       -0.07478504 0.1188756 0.2794634 -0.0063849026
000320 60 8e 75 3e 95 81 94 be 00 5a 5b be df 43 26 be
       0.23980093 -0.29005113 -0.21421051 -0.16236828
000330 91 a3 37 be 56 d3 47 be 41 cf 93 3e 79 e0 46 be
       -0.1793349 -0.19514212 0.2886906 -0.19421567
000340 4b c6 21 be af c9 92 bd dd 64 97 be fe 37 08 3f
       -0.15798299 -0.07167374 -0.2956914 0.5321044
000350 2c 09 b4 3e f6 c9 65 3f c3 39 43 be 03 7c 5d be
       0.35163248 0.8976129 -0.19065003 -0.21629338
000360 a7 7b 4d be 03 1d ed be 97 01 a0 3e 65 47 ca be
       -0.20066701 -0.46311197 0.31251213 -0.39507595
000370 6b 82 b8 3e 1a 9a 49 3e 7a 66 e3 3d 23 77 4e 3e
       0.36037 0.19687691 0.1110353 0.20162635
000380 e9 d6 9b be 8f 6b b6 3e 21 e6 df bd 95 50 09 be
       -0.304374 0.35628936 -0.109325655 -0.13409646
000390 22 0b a1 be 68 21 37 3f 35 02 90 3e 13 60 83 3e
       -0.31453806 0.7153535 0.28126684 0.25659236
0003a0 c7 ea 8b be bf d8 af be a7 3a 12 3f f8 5e ca 3e
       -0.27327558 -0.34345052 0.57120746 0.3952558
0003b0 02 51 93 3d 28 e0 bf be 6e 41 d6 3e ad a5 01 bd
       0.071931854 -0.37475705 0.41846794 -0.03165214
0003c0 d6 f1 5e 3f cc c3 37 be b6 39 c8 be c5 0a 3a be
       0.8708776 -0.17945784 -0.3910653 -0.18168171
0003d0 30 ba 64 be d6 50 99 bd f7 75 41 be e2 51 89 be
       -0.2233665 -0.07486121 -0.18892656 -0.26820284
0003e0 ec 9a 04 3f fc 9c 0b 3e 82 ca 0e be 42 0b 9c bd
       0.5179889 0.13634104 -0.13944438 -0.07619335
0003f0 61 45 ab 3e e6 60 2a be f3 00 64 3e 70 ce e6 3e
       0.3345137 -0.16638526 0.22265987 0.45079374

convs.0.linear2.bias f4 [64]
000000 af a2 c5 3d eb 38 7d bd 2e b3 ce be 3e 6b f6 bc
       0.0965017 -0.06182186 -0.40371078 -0.030080434
000010 26 36 e8 bd 00 ee 64 3e be d0 7e be bd ca 8f be
       -0.11338453 0.22356415 -0.24884316 -0.28084365
000020 3d e9 94 be 93 e8 3f be 75 39 a6 bd 3d cd c2 bb
       -0.29084197 -0.18741064 -0.08116428 -0.0059448765
000030 44 a4 08 bc 17 74 cb be 55 8d 26 be 63 7b b4 be
       -0.008339945 -0.39737007 -0.16264851 -0.35250387
000040 eb c0 49 bd a6 91 90 be 34 3c 50 be 72 74 16 3d
       -0.049256247 -0.2823612 -0.20335466 0.036732145
000050 35 5b 45 be 9e bc 02 3e 8f 09 a7 3e 99 fa 38 be
       -0.19273074 0.12767264 0.3262448 -0.18064345
000060 d3 4a a3 3c 7b 25 4b 3e ca e0 05 3e bb e7 01 be
       0.01993314 0.19838516 0.13074031 -0.12686054
000070 a7 ca 68 3e 9f 57 99 3e e3 ca 3e bc f4 59 90 be
       0.22733556 0.29949662 -0.011645052 -0.2819363
000080 77 94 ea bd f3 dc 07 be 91 d7 71 be c3 e3 71 3d
       -0.11454099 -0.13267879 -0.23617388 0.0590551
000090 a9 b2 ad 3d 36 5a b1 bc 01 ee d1 3d 90 39 f1 bb
       0.08481342 -0.021649461 0.10250474 -0.0073615983
0000a0 b6 83 17 3e e5 bb a5 3e 99 60 98 3e be 83 1a be
       0.14796337 0.32369915 0.29761198 -0.15089318
0000b0 b9 96 cd bd 45 bd a8 be 77 f6 51 be d2 a5 b7 3b
       -0.10038514 -0.329569 -0.20504175 0.005604484
0000c0 6a bd bc be 36 52 7c 3e d6 9e 8b be 02 b1 46 3e
       -0.3686326 0.24640736 -0.2726962 0.1940346
0000d0 48 4e d6 be 45 1e 57 3b 49 22 cb bd 9c 65 82 3d
       -0.418566 0.0032824439 -0.09918649 0.06367037
0000e0 12 a3 27 be 63 0a 5e bd b6 8f 3a be 46 b0 7e 3e
       -0.163708 -0.054209124 -0.18218884 0.2487193
0000f0 5e 5e 60 3e 9e 3e 0b bd a0 a3 26 bd c3 53 86 be
       0.21910998 -0.033995263 -0.04068339 -0.2623578

convs.1.a f4 [128, 1]
000000 d7 c8 a3 3e 83 cb 2a 3e a5 80 95 39 ce 5a c8 3e
       0.31989166 0.16679196 0.00028515342 0.39131778
000010 7d db e8 b8 41 23 a0 3e be bd ba b6 17 88 97 b8
       -0.00011103505 0.31276897 -5.565321e-06 -7.22559e-05
000020 0c c4 8d b8 62 f8 12 b8 42 61 7f 3d 96 db bc 3e
       -6.7599205e-05 -3.5040437e-05 0.06234861 0.3688628
000030 47 8a 7a 3e 65 1f be b8 c4 fe c2 3b 1b 22 93 b5
       0.24466811 -9.065754e-05 0.0059507806 -1.096228e-06
000040 d4 ea 3c 3e 0f fb ad 35 13 77 3f 38 9d a6 95 3e
       0.18448955 1.2962572e-06 4.5648845e-05 0.29228678
000050 83 79 3d bc 20 7d b0 3e 18 91 8e 3e c6 4c 57 b9
       -0.011564615 0.34470463 0.27845073 -0.00020532598
000060 63 14 9a 3e b5 d6 79 3e ad 09 66 3e 58 46 d5 36
       0.3009368 0.2439831 0.22464629 6.3560838e-06
000070 dc 5d 91 3e dc cb 9c 3e f2 b5 57 3e 0e e0 80 b9
       0.28391922 0.30624282 0.210655 -0.00024580996
000080 02 69 17 b8 f6 65 86 37 78 50 01 b6 1e d8 b2 3e
       -3.6099e-05 1.6021524e-05 -1.9269337e-06 0.3493051
000090 21 0b b2 3e e3 9b bd 3e 82 66 bc 3e 0c 8e 25 3d
       0.34774116 0.37032995 0.36796957 0.04041867
0000a0 3d 9f c0 3e 17 7f 9a 3e 74 e7 a0 3e 8d 19 ad 3d
       0.3762149 0.30175087 0.31426585 0.08452139
0000b0 a0 e3 b3 b9 79 4f e0 b9 e8 39 06 b7 5f 40 c0 3e
       -0.00034311134 -0.0004278382 -8.000505e-06 0.3754911
0000c0 a0 00 1c 36 bc 4b 91 3e 8f 49 33 b6 a9 63 88 3e
       2.3246175e-06 0.28378093 -2.6715895e-06 0.26638535
0000d0 35 59 b7 b5 5a a2 92 3e f8 21 9d 3d 3c a6 85 3e
       -1.3660525e-06 0.2863949 0.07672495 0.2610339
0000e0 91 b3 4a 37 31 8f c6 b8 e4 76 e1 b7 65 87 8b 3e
       1.2081947e-05 -9.468047e-05 -2.6877453e-05 0.27251735
0000f0 79 fe a1 3e ad 01 17 3e cf 6f 91 b6 81 7f d9 37
       0.3163946 0.14746733 -4.334353e-06 2.592779e-05
000100 04 ad ba be ba 2f 01 c0 60 ba c7 bf 3c 6e 4a bc
       -0.36460125 -2.018538 -1.5603752 -0.0123553835
000110 ba 9a 18 c0 3d d5 c1 3e 53 bf 5f c0 00 27 7d c0
       -2.3844438 0.37858 -3.4960525 -3.9555054
000120 02 3a 52 c0 92 2f 45 c0 bd 2a 1e 3f 9d e2 a9 bd
       -3.2847905 -3.0810285 0.61783963 -0.08295176
000130 34 bd 94 bf 1a e3 7b c0 05 67 41 c0 ba 52 7c c0
       -1.162024 -3.9357362 -3.0219128 -3.9425492
000140 44 8b 26 bf 72 97 74 c0 b5 cc 5b c0 de fc 24 3e
       -0.6505625 -3.8217435 -3.4343693 0.16112086
000150 70 da 16 c0 ad 11 db 3f 48 e3 06 3f 54 fb 93 bf
       -2.3570824 1.7114769 0.52690554 -1.1561074
000160 8b ff 1c bd 08 55 5b 3e 5c 64 36 3f c3 9e 66 c0
       -0.038329642 0.21419156 0.71246886 -3.60344
000170 e1 c3 c3 3e 56 73 b7 3e e3 d3 5b 3f 70 93 5f c0
       0.3823538 0.35830182 0.8587019 -3.4933739
000180 ad a9 2f c0 68 1d 05 c0 d4 64 5f c0 c5 ef 26 3e
       -2.7447312 -2.0799198 -3.490529 0.16302402
000190 5c d6 53 3e a3 09 ab 3e 60 1a 1e 3e d0 f6 09 3f
       0.2068724 0.3340579 0.15439749 0.5389223
0001a0 22 da 26 3f 42 9c c4 3e 15 0a b7 3e 39 4e 40 3f
       0.65176594 0.38400465 0.3574988 0.7511936
0001b0 f9 bf 2f c0 f3 37 46 c0 77 e3 6b c0 ff 32 97 3e
       -2.746092 -3.0971649 -3.6857584 0.29531094
0001c0 11 4c 5f c0 7b 6e e1 3e 49 2e 71 c0 79 83 35 be
       -3.4890177 0.44029602 -3.76845 -0.17725934
0001d0 48 70 5c c0 ab a0 89 3e 7b 74 a0 3f ff aa af 3d
       -3.444353 0.26880392 1.2535547 0.08577537
0001e0 c1 07 5e c0 9b 91 0e c0 04 32 79 c0 4c a3 55 3c
       -3.4692233 -2.227637 -3.8936777 0.013039421
0001f0 a4 7f fd 3e b2 5d 2c 3f 32 99 4d c0 1c b2 4c c0
       0.49511445 0.6733047 -3.2124753 -3.198371

convs.1.linear1.weight f4 [64, 64]
000000 95 2c 10 3e 1f 5b df bf a5 57 07 c0 50 36 b4 3d
       0.14079507 -1.7449683 -2.1147244 0.08799422
000010 34 2f b3 bf 50 56 e2 3e f8 f9 fb bf 6e ee f5 bf
       -1.399878 0.44206476 -1.968566 -1.9213388
000020 4e 2c 08 c0 4e 25 e4 bf bf d2 1c 3d 13 4d 53 3d
       -2.1277041 -1.7823884 0.03828692 0.051587176
000030 16 83 98 3e c4 2a c1 bf 2b e6 f1 bf 27 98 0c c0
       0.2978751 -1.5091176 -1.8898367 -2.1967866
000040 e4 48 26 bd 18 69 15 c0 bd 60 fa bf 7b 61 1a 3d
       -0.040596858 -2.3345394 -1.9560772 0.03769062
000050 1d b7 e4 bf 96 18 ce be 67 b5 cb 3e e5 97 c7 bf
       -1.7868382 -0.40253133 0.39786837 -1.559323
000060 c4 50 c7 3d 74 cc 02 3f bc ac bb 3e 11 d0 04 c0
       0.09732202 0.5109322 0.36655223 -2.0751994
000070 70 4b f4 3e 3b 26 d4 3e e5 0c d7 be 1d 14 ff bf
       0.47713804 0.41435418 -0.42002025 -1.9928013
000080 0b 9c dc bf 0c b5 03 bf d5 73 f8 bf c7 43 4e 3c
       -1.723512 -0.5144813 -1.9410349 0.012589402
000090 07 a5 c5 bd 6b 5a 03 3d 44 54 21 3e 22 d6 b0 3e
       -0.09650617 0.03206865 0.15754801 0.3453837
0000a0 51 93 14 3e a9 95 d4 3e 96 7b db 3e 87 ed e3 bd
       0.14509322 0.41520432 0.42867726 -0.11129289
0000b0 e8 ae 93 bf 98 c5 fb bf 30 65 0a c0 59 95 0d 3d
       -1.1537752 -1.9669676 -2.162426 0.034566257
0000c0 0f 11 01 c0 f9 0c f2 3e d2 bd 0e c0 55 df 14 3f
       -2.0166662 0.47275522 -2.2303357 0.5815328
0000d0 c5 42 04 c0 19 c7 57 bd 67 44 bc be ff 08 f4 3e
       -2.0665753 -0.05268011 -0.36770937 0.47663113
0000e0 11 61 01 c0 88 35 29 bf 7c a3 f2 bf aa 94 07 3f
       -2.0215495 -0.6609731 -1.8956141 0.5296122
0000f0 65 ea 72 3e 92 14 0b be c2 fd f1 bf 3a cb f7 bf
       0.23722227 -0.13582066 -1.8905566 -1.9358895
000100 c5 1d 02 3f 43 db cb 3f 2a d8 99 3f 02 64 95 be
       0.50826675 1.5926288 1.2019093 -0.29177862
000110 e0 2a 0c 3f 26 60 e3 be 9e 77 90 3f 9c 0f 0f 40
       0.5475292 -0.44409293 1.1286504 2.2353277
000120 a0 07 fe 3f 1e f6 27 3f 18 43 15 3e 65 cc 70 bd
       1.9846077 0.6560992 0.14576375 -0.058788676
000130 4b 5e 20 3f 7e 12 03 40 ca c0 dc 3f 39 96 e8 3f
       0.6264388 2.0480037 1.7246335 1.8170844
000140 6e 8b f9 bd 99 03 02 40 f4 64 bc 3f 87 48 96 3e
       -0.12184797 2.0314696 1.4718308 0.2935221
000150 95 0b 3a 3f 40 8f d9 3e 9c dd d3 be 95 22 04 3d
       0.7267392 0.42492104 -0.41380012 0.032259542
000160 71 74 18 3e 10 27 85 be 0d f3 12 be 0d ce de 3f
       0.14888169 -0.26006365 -0.14350529 1.7406632
000170 27 52 1a be a7 10 02 bf 78 e4 cf bd 05 90 ad 3f
       -0.15070401 -0.5080666 -0.10150999 1.3559576
000180 c3 87 68 3f 63 45 95 3e 7e 84 a6 3f b0 bc 43 3e
       0.90832156 0.291545 1.3009183 0.19114947
000190 a5 75 aa 3d 34 1e 66 bd 99 53 ef bc c2 a4 00 be
       0.0832322 -0.056181148 -0.029214667 -0.1256285
0001a0 f9 4e 73 be 2d ad 89 be f6 21 d5 be b6 e1 6f 3d
       -0.23760594 -0.26889935 -0.41627473 0.058564864
0001b0 f4 50 ad 3f de 9f ab 3f 0f b0 c2 3f b6 11 22 3e
       1.354033 1.3408163 1.5209979 0.15827069
0001c0 04 d1 99 3f 3d dd a7 be 7c a0 d6 3f 8c 57 9c be
       1.2016912 -0.3278598 1.6767726 -0.30535543
0001d0 eb 9a 9f 3f 08 1d 2b be 1c 10 e6 3e 68 de 27 bd
       1.2469152 -0.16710293 0.44934165 -0.040983588
0001e0 0c 26 d3 3f 39 2d 26 3f 4d 22 26 40 e5 06 d3 bb
       1.6495986 0.64912754 2.5958436 -0.006440031
0001f0 25 83 b9 be 5e dd 4a be 05 57 b8 3f dc 41 fe 3f
       -0.36232868 -0.19811007 1.4401556 1.9863849
000200 4e 48 e0 be 51 b2 41 bf 74 61 aa be 06 6f 6e 3d
       -0.43805164 -0.75662714 -0.33277476 0.05821135
000210 45 9e 97 be 67 0a 4a 3e 9a cf cc be 80 1f c5 be
       -0.29612938 0.1973053 -0.40002137 -0.38500595
000220 9b 06 26 bf 56 70 aa be 2b e4 85 be 97 57 0d be
       -0.6485383 -0.3328883 -0.2615064 -0.13802944
000230 87 7d 17 be bb 16 b2 be f0 26 02 bf 8e 29 1e bf
       -0.14793979 -0.34782967 -0.50840664 -0.6178216
000240 3c af 87 be 90 5d 0e bf af c5 10 bf 54 94 c2 be
       -0.2650088 -0.55611515 -0.5655164 -0.3800379
000250 20 45 84 be 4a ed ed be 7f 5f 30 3e b6 40 00 bb
       -0.25833988 -0.464701 0.17223929 -0.001956982
000260 8d 08 76 be 15 22 4f 3d a1 a0 1f 3c 6d ed 07 bf
       -0.240267 0.050569613 0.009742887 -0.5309666
000270 c5 6a ed 3d 0b d5 20 3e 9f 5b b3 be a6 6f 0c bf
       0.1159263 0.1570627 -0.3503084 -0.5485786
000280 5c 6a fc be b5 e0 b4 be a4 5f f6 be 78 58 70 be
       -0.49299896 -0.35327688 -0.48119843 -0.23471248
000290 29 6b 39 be a6 dc 9a be 29 a3 0d bd ae d2 91 bd
       -0.18107285 -0.30246466 -0.03457943 -0.07120262
0002a0 c3 ed 91 3c b7 c0 a3 3e e8 eb 2a 3e cd cf e6 be
       0.017813569 0.31982967 0.16691554 -0.45080414
0002b0 2a 04 cd be 3e 7d e7 be ab b5 1d bf 51 9f 90 bd
       -0.4004224 -0.4521274 -0.6160533 -0.07061637
0002c0 ee 5f e8 be 22 07 f0 3d 9e 6a f4 be 94 00 8c 3e
       -0.4538569 0.117201105 -0.47737592 0.2734419
0002d0 40 a6 e9 be f6 ac b9 bd ed 59 35 bf 84 d0 b5 bd
       -0.4563465 -0.09066193 -0.7084034 -0.08877662
0002e0 e9 52 cb be 6e 2c cf be 80 93 1c bf 03 e5 49 bc
       -0.39711693 -0.40463585 -0.6116257 -0.012322667
0002f0 75 26 93 3e 46 73 29 be 61 24 0b bf 20 a8 cf be
       0.28740278 -0.1654788 -0.54352385 -0.40557957
000300 3f e2 e8 be c8 d1 79 bf 5f d1 21 bf 28 4d 8f 3b
       -0.45485112 -0.97585726 -0.632101 0.0043732114
000310 9b 99 9f be 15 de 29 3e df 5d 17 bf 2e 49 27 bf
       -0.3117188 0.16588624 -0.5912761 -0.6534604
000320 c8 02 67 bf 8f 3d 0e bf c8 76 ee be b1 71 4b bd
       -0.9023862 -0.5556268 -0.46574998 -0.04966897
000330 f2 4d c6 be 5e 37 3b bf 13 d6 55 bf ff 44 59 bf
       -0.38731343 -0.7313136 -0.83529776 -0.84870905
000340 7d 9e 2e be bc 32 72 bf 83 5c 31 bf ce 7d 9c be
       -0.17052646 -0.94608665 -0.69281787 -0.3056473
000350 b9 7d 03 bf 11 12 c8 be f3 46 b0 3e 0a 1c 01 bd
       -0.5136371 -0.39076284 0.3442913 -0.03152088
000360 f9 34 39 be 3a a9 80 3d 7b c9 86 3d 5f 58 0e bf
       -0.18086614 0.062822774 0.06581398 -0.55603594
000370 ac cc 25 3e c8 18 8a 3e c3 21 71 be e5 3c 3a bf
       0.16191357 0.26972032 -0.23548035 -0.7274917
000380 14 c1 1e bf 04 79 6a be b3 98 19 bf 6e 60 bf be
       -0.62013364 -0.22897726 -0.59998626 -0.37378258
000390 f7 d4 81 be 55 e7 8a be 73 d2 4b 3c ea 0b fc bd
       -0.25357792 -0.27129617 0.012440312 -0.1230696
0003a0 fe 1a c6 bd 1d 10 00 3e db 32 77 3e 79 75 03 bf
       -0.09673117 0.12506147 0.24140494 -0.51351124
0003b0 03 57 0c bf f6 f8 24 bf f6 54 34 bf 7c 42 54 bd
       -0.5482027 -0.64442384 -0.7044214 -0.051821217
0003c0 4a 70 08 bf e5 b0 9e 3e f5 14 5a bf d4 6e 8f 3e
       -0.5329634 0.30994335 -0.8518823 0.28014243
0003d0 bc 02 22 bf a4 19 29 bd c4 90 06 bf 03 73 65 3c
       -0.6328542 -0.04128422 -0.52564645 0.014004472
0003e0 05 3e 27 bf cc 42 b1 be 7a e6 55 bf e7 90 bd 3d
       -0.6532901 -0.34621274 -0.83554804 0.092561536
0003f0 6b 67 98 3e d1 b9 7a bd b1 01 22 bf bd 94 5e bf
       0.29766402 -0.061212365 -0.6328383 -0.86945707

convs.1.linear1.bias f4 [64]
000000 46 95 42 be dc f0 2b 3f ec 2b 8c be 5e 78 ab be
       -0.19002256 0.671644 -0.2737726 -0.3349027
000010 dd 9f 46 3f 20 c1 15 3f 10 37 b6 ba 6f 6f c5 3e
       0.7758768 0.5849781 -0.0013901908 0.3856158
000020 be ff 3c 3f 21 51 2a 3b be 50 04 3f 6d b0 14 3e
       0.7382773 0.0025988298 0.516857 0.14520426
000030 8d ec 0a 3f 71 64 98 3e 75 c5 04 3f 40 ab 30 3f
       0.542672 0.2976413 0.51863796 0.69011307
000040 52 4e 45 be f8 c8 23 3f 25 ec c1 be 66 36 de be
       -0.19268158 0.6397853 -0.37875476 -0.43400878
000050 8f 75 0d bf 61 da 4f 3e 59 bf 00 bf 95 a5 c9 3d
       -0.55257505 0.20298149 -0.50291973 0.098460354
000060 87 7d fe 3d 30 d3 f3 3e a2 68 28 3e df 14 0d 3f
       0.12426286 0.4762206 0.16446164 0.5510997
000070 05 30 cc 3d aa 50 98 3e cd 95 d9 3d b1 b7 b7 be
       0.099700965 0.29749042 0.10624275 -0.35882333
000080 44 64 9b 3e 10 fd c2 3d 7a 6a d7 3e 89 bf 88 be
       0.30349934 0.09520924 0.42073423 -0.2670863
000090 da 15 31 3f 83 45 27 3f 62 45 e2 3d 04 e0 3c bf
       0.6917397 0.6534044 0.1104839 -0.7377932
0000a0 d3 fc 2c 3c 18 cb e9 3e 4e 17 f2 3d 71 99 ca 3b
       0.010558325 0.4566276 0.11820851 0.0061828424
0000b0 cf c1 16 bf 2e 31 48 3f 71 dc 98 3d 1a cb bb be
       -0.5888948 0.7820004 0.07463921 -0.36678392
0000c0 90 84 20 be 0d cc d5 3e 9c ed bf 3e 4d e5 1b 3f
       -0.15675569 0.4175724 0.3748597 0.6089676
0000d0 5f df 42 3f 49 04 8c 3d 9b 63 3d bf 9f 3c b4 3e
       0.7612209 0.06836755 -0.7398011 0.352025
0000e0 71 98 f4 3e ee 17 9e bb 63 a7 58 3d 4e b3 1c 3f
       0.47772554 -0.00482463 0.052894007 0.612111
0000f0 68 40 11 bf cb 16 1d 3f 0d 79 f7 bd ab d7 3b 3d
       -0.567389 0.61362904 -0.120836355 0.045859974

convs.1.linear2.weight f4 [64, 64]
000000 6e 9d 5c be a0 77 f5 3e 4b 88 58 bd 63 8b c8 be
       -0.2154443 0.4794283 -0.052864354 -0.39168844
000010 cc 00 60 3f f1 01 6b 3f 17 7c cf 3d 86 0f 10 3f
       0.87501216 0.9179984 0.1013109 0.56273687
000020 c1 91 46 3f f3 10 28 3e 9d 62 fc 3e 04 d1 91 3e
       0.7756615 0.16412716 0.49293986 0.2847978
000030 26 e4 0e 3f a2 fd 13 3f 3a a9 74 3f 1c 58 0f 3f
       0.55816877 0.5780889 0.9557072 0.5599382
000040 bb 52 8b be c5 7f 3b 3f cf bd 35 be 4b 35 25 bf
       -0.27211556 0.73241836 -0.17748187 -0.64534444
000050 43 70 04 bf 4e 6a 0e 3d f5 ce 0a bf 9e 0e 40 3e
       -0.517338 0.03476935 -0.5422204 0.18755576
000060 eb e6 9d 3d ca ee 43 3f 2e 5b a2 3e 5c 69 65 3f
       0.0771006 0.7653624 0.3171019 0.8961389
000070 60 b9 10 bd 34 4b b2 3e f8 06 95 bb 2c 93 c4 be
       -0.035333037 0.34823 -0.00454795 -0.38393533
000080 bd 19 0d 3f 0d 1b 17 3e 77 9f 3a 3f e3 2d 65 bd
       0.551174 0.14756413 0.72899574 -0.055951964
000090 c9 84 2d 3f 45 a8 12 3f d0 0b 05 3e 74 ab 7d bf
       0.6778074 0.5728801 0.12992787 -0.9908974
0000a0 3a 92 e5 3e 52 8c 2d 3f 6f 98 90 3e fe 98 bd 3e
       0.44838125 0.67792237 0.28241298 0.37030786
0000b0 c1 5c 4b bf 65 8a 93 3f 7a 95 74 3e 70 02 ce be
       -0.79438406 1.152661 0.23885146 -0.40236235
0000c0 ff 39 b3 be e9 bf 59 3f 1d 6c 81 3f f6 6d 4a 3f
       -0.35005185 0.85058457 1.0111119 0.7907404
0000d0 41 44 58 3f 30 ba e0 3d ab 46 43 bf 21 2d b3 3f
       0.8447915 0.109730124 -0.76279706 1.3998147
0000e0 2e 9c ab 3e 34 ef 39 be 77 9e 83 be 7a 70 4b 3f
       0.33517593 -0.18157655 -0.25706837 0.794685
0000f0 21 51 05 bf 59 3b 1b 3f a0 18 0d 3e 89 a4 9f 3d
       -0.5207692 0.6063743 0.13778925 0.077950545
000100 ee e6 6c be 70 65 f0 3e 50 8e bb be ea 15 05 bf
       -0.23134968 0.4695239 -0.36632013 -0.51986563
000110 23 06 2b 3f af 27 6e 3f 29 69 49 bd 4e 12 23 3f
       0.6680624 0.930293 -0.049172554 0.63699806
000120 36 2a 1e 3f d4 f1 03 be cd e2 05 3f 68 6c ce 3e
       0.6178316 -0.12885219 0.52299196 0.40317082
000130 75 d5 19 3f 92 cc 0d 3f e0 75 4b 3f 8e 13 16 3f
       0.60091335 0.55390275 0.7947674 0.5862359
000140 dc dd a0 be 40 7e 4d 3f 06 3d 00 bf 1c de 26 bf
       -0.31419265 0.8027077 -0.50093114 -0.6518266
000150 7d 98 ec be ff fa 4d 3e 98 5e 25 bf e8 08 5b 3e
       -0.4621009 0.20115279 -0.64597464 0.21390116
000160 c4 76 38 3e 4a ad 0f 3f a7 ab 93 3d 9d 93 67 3f
       0.18014055 0.56123793 0.072104745 0.90459615
000170 56 ab 4c bc c7 70 d1 3e 7e c7 69 3d ab fb bb be
       -0.012492022 0.40906355 0.057075016 -0.36715445
000180 ee c3 1b 3f 1b cd 97 3d 07 17 52 3f ec 9e f0 be
       0.6084584 0.07412168 0.82066387 -0.46996248
000190 94 ca 23 3f 83 25 05 3f 5b 82 59 3e e4 d3 8a bf
       0.63980985 0.52010363 0.21241133 -1.0845914
0001a0 55 6d 9f bd 7c 2b 25 3f 1b 07 fd 3d 00 fa 07 3e
       -0.07784525 0.64519477 0.12354871 0.13278961
0001b0 71 b7 3b bf 44 6d 4a 3f 84 83 95 3e 9e 4e 06 bf
       -0.73326784 0.79072976 0.292019 -0.5246371
0001c0 e5 70 71 be c3 6c 52 3f 1f aa 65 3f ed 1d 56 3f
       -0.23578222 0.8219721 0.8971271 0.83639413
0001d0 48 ee 40 3f 4f b7 e6 3b d4 8a 4e bf ae 90 65 3f
       0.7536359 0.007040895 -0.80680585 0.8967389
0001e0 a4 7a 90 3e 50 5b 0b be d8 03 1b 3e dd 97 32 3f
       0.28218567 -0.13609052 0.15138185 0.69762975
0001f0 33 a1 01 bf cd be f2 3e d9 6f 00 be 80 c3 7c 3c
       -0.50636595 0.47411194 -0.12542666 0.01542747
000200 9c 39 23 be 98 0a c0 3e 75 d2 dc bd bc 44 b0 be
       -0.15939945 0.37508082 -0.10782329 -0.3442744
000210 3d fc 63 3f 28 8f 64 3f 6a cb 11 3d 6a 4d 01 3f
       0.8905676 0.8928094 0.03559438 0.5050875
000220 d6 c7 18 3f 7e b0 72 3d e4 d0 0f 3f dd c9 08 3e
       0.59679925 0.059250347 0.56178117 0.13358255
000230 f9 c3 26 3f f2 ed 09 3f fa 43 68 3f 2b 6d 1c 3f
       0.6514278 0.538787 0.90728724 0.6110408
000240 0a 98 88 be 0d e5 56 3f 7c 96 88 be 2d a2 05 bf
       -0.26678497 0.83943254 -0.2667731 -0.52200586
000250 11 18 bf be 1a 3d 8a 3d f8 8d 04 bf 3f 58 3d 3e
       -0.3732305 0.067499354 -0.5177913 0.18490694
000260 e5 d5 4e 3e 7e ef 18 3f a3 0c a6 3e e4 cf 46 3f
       0.20198782 0.59740436 0.32431516 0.77660966
000270 ff 87 4c 3e 0e 4e d0 3e 6f 0f 34 3d d5 9c 5f be
       0.19973753 0.4068455 0.04396003 -0.2183717
000280 4f bd f6 3e 24 5e 8f 3e 2b 33 38 3f ca 4d f2 bd
       0.48191306 0.2800151 0.71953076 -0.11831243
000290 f8 2f 41 3f 66 16 f6 3e f0 b2 6a 3e 78 6e 4b bf
       0.7546382 0.48063964 0.22919822 -0.79465437
0002a0 fd b0 93 3e ac c5 37 3f ba d5 71 3e f5 c6 3c 3e
       0.2884597 0.71786 0.23616686 0.18435271
0002b0 5f cc 14 bf 3b bc 8b 3f cc fe 3b 3e f5 be 29 be
       -0.58124346 1.0916818 0.18358916 -0.1657675
0002c0 2d c5 80 be b2 bd 57 3f 33 d6 8c 3f 22 11 43 3f
       -0.25150433 0.8427383 1.1002868 0.7619802
0002d0 33 c6 1d 3f 73 cd 36 3e 5a 8c 2e bf e1 9e a5 3f
       0.61630553 0.1785181 -0.6818291 1.2939111
0002e0 bf a4 b7 3e bd ef 67 be e6 49 ef bd d1 e8 32 3f
       0.3586788 -0.22650047 -0.11684017 0.698865
0002f0 a1 a4 e5 be d8 9a 2a 3f 9b 41 dd 3d a1 ef 6e 3d
       -0.44852164 0.6664252 0.10803529 0.058333997
000300 0e 93 a2 3e ed 0f 11 bf 86 6b 94 3e 24 4a 1a 3e
       0.3175282 -0.56664926 0.28988284 0.15067345
000310 8a f5 51 bf f3 ce 85 bf 68 ed 36 3e ff 29 1b bf
       -0.8201529 -1.0453781 0.17864001 -0.60610956
000320 d6 be 22 bf 53 0d de bd b9 88 24 bf a0 64 8d be
       -0.6357244 -0.10842385 -0.6427112 -0.27615833
000330 92 b2 21 bf 24 a9 cf be eb d9 3e bf 56 03 d3 be
       -0.631631 -0.40558732 -0.74551266 -0.41213483
000340 13 0c 6d 3e 2f b1 2a bf 6c cd b5 3e b1 e1 9b 3e
       0.23149137 -0.6667661 0.35508287 0.30445626
000350 98 ef da 3e 65 97 e9 3c 5a 55 02 3f 7d 4d e1 bd
       0.4276092 0.028514573 0.50911486 -0.11001108
000360 91 cf 23 be a5 43 0f bf 1c 1d 23 3e cb e9 77 bf
       -0.15997149 -0.5596259 0.15929073 -0.96841115
000370 28 fe b0 bd 9b a6 bd be bd e2 0f be 7c 03 95 3e
       -0.086422265 -0.37041172 -0.14051338 0.2910422
000380 ab 5d a6 be 18 a6 09 be 73 19 26 bf 24 86 28 bd
       -0.32493338 -0.13442266 -0.6488258 -0.04114355
000390 3e 5c 01 bf 35 4c 28 bf 42 5c 47 be 0c b3 e1 3e
       -0.50531375 -0.6574128 -0.19468787 0.44081914
0003a0 f4 ad 7a be 5f 1b 15 bf ba c4 57 be 8c 32 f2 bc
       -0.2448042 -0.5824489 -0.21071139 -0.029565118
0003b0 5d f5 14 3f e8 e6 52 bf bd 6b a0 bc e3 87 94 3e
       0.58186895 -0.82383585 -0.019582624 0.29009923
0003c0 d6 ca 9d 3a 77 52 54 bf d4 04 4a bf 09 bd 49 bf
       0.0012038599 -0.8293833 -0.7891362 -0.7880407
0003d0 27 eb 64 bf 87 c8 c1 bc 6c db 48 3f f6 3b 2f bf
       -0.89421314 -0.02365519 0.7845981 -0.6845087
0003e0 c4 7a bf be f2 1e f5 bb f9 72 26 3e 10 90 41 bf
       -0.3739835 -0.0074804956 0.16254796 -0.75610447
0003f0 43 94 d6 3e 04 1f 07 bf 48 0d aa bc df 09 b8 bb
       0.4190999 -0.527817 -0.020758286 -0.005616411

convs.1.linear2.bias f4 [64]
000000 f2 eb b3 3e 80 63 9a 3e dd c4 8b 3e 71 9a 7a be
       0.3514095 0.30154037 0.27298632 -0.24472977
000010 c9 7d cd 3c 39 8b 8a 3e 9f 28 23 be fe 85 1c be
       0.025084393 0.27059343 -0.15933464 -0.15285489
000020 b8 c7 2b be 7c bb b4 3e 26 6d f7 3d 29 bf 79 3d
       -0.16775405 0.3529929 0.12081365 0.06097332
000030 9a c8 54 bd dd f5 98 be ea 8e 09 3e 2f 60 03 3d
       -0.05194912 -0.2987508 0.13433424 0.03207415
000040 ec 30 8c 3d be eb 0e be 4d 2f 56 3e 48 53 d3 3e
       0.068452686 -0.13957116 0.20916481 0.41274476
000050 99 87 a2 be cb 84 3b 3d c1 bc a4 3e 29 dc c4 3d
       -0.31744078 0.045780938 0.32175258 0.09612305
000060 8c 65 ad bd 8f 3e 43 be 20 5c 9a 3e 08 c3 ef bd
       -0.08466634 -0.19066833 0.3014841 -0.11707121
000070 1e 3c 1e be b0 c2 81 3e 21 bd c8 3e d7 75 3d be
       -0.1545262 0.25343847 0.39206794 -0.18501984
000080 df 1e ac 3e eb 12 0c be be 42 42 bd 1b a0 67 3e
       0.33617303 -0.13679092 -0.04742693 0.22619669
000090 a1 03 42 be d1 8d bc bb 91 75 da bd e5 ec 43 be
       -0.18946697 -0.0057542105 -0.10666955 -0.19133337
0000a0 b8 0f b8 3e 84 6a 98 be ac 9e 7e 3d 94 b6 4a be
       0.35949492 -0.29768765 0.06216304 -0.1979621
0000b0 5c b0 89 bd db e2 49 3e 52 0d ac 3e a6 3d 8c 3e
       -0.06723091 0.19715445 0.33603913 0.27390784
0000c0 c2 d9 bf 3e b9 70 0a be e8 25 a4 3e f0 7a a8 3e
       0.37470824 -0.13519563 0.3206017 0.32906294
0000d0 b5 df a9 3e d8 b1 9b 3e 16 01 ae 3e 07 09 94 be
       0.33178487 0.30409122 0.33985204 -0.28913137
0000e0 21 d4 84 be ec db ec 3e 98 c4 82 be 24 06 16 3e
       -0.25943092 0.46261537 -0.25540614 0.1465078
0000f0 b5 a7 1d be 9d 56 ee bc de 5d 34 be be cc 44 3e
       -0.15396006 -0.029094035 -0.17613932 0.19218728
