Saved_Models/TSP_100/scatgnn_layer_2_hid_64_model_260_temp_3.500.pth (torch, 153863 bytes, 24 tensors)

bn0.weight f4 [2]
000000 00 00 80 3f 00 00 80 3f
       1.0 1.0

bn0.bias f4 [2]
000000 00 00 00 00 00 00 00 00
       0.0 0.0

bn0.running_mean f4 [2]
000000 00 00 00 00 00 00 00 00
       0.0 0.0

bn0.running_var f4 [2]
000000 00 00 80 3f 00 00 80 3f
       1.0 1.0

in_proj.weight f4 [64, 2]
000000 67 e1 55 3f 0a 99 fe 3e 6c b7 6e bf 3c 00 34 3e
       0.8354706 0.49726135 -0.9324863 0.17578214
000010 3c b5 87 3f 38 c9 d1 be e7 8b a0 3e 0d f4 bd 3f
       1.0602183 -0.4097383 0.31356737 1.4840103
000020 1d 3c 86 3e 9d 58 35 bf 2e 2f 07 3f f9 5e ac 3f
       0.26217738 -0.7083834 0.52806365 1.3466483
000030 23 ed 6e 3f fa ca 3f 3f 67 e4 5e 3e 48 cb b6 bf
       0.9333059 0.7491909 0.21766816 -1.4280787
000040 05 45 9b 3f df 52 38 3e 18 28 53 bf f6 e1 66 3f
       1.2130438 0.18000363 -0.82483053 0.9018854
000050 b6 28 81 3f 9f c7 ac be 16 79 85 3f bb 31 12 3f
       1.0090549 -0.3374605 1.0427577 0.5710713
000060 7e 7e 96 bf 1b cc b5 bf c8 95 4b bf ae cb 66 3e
       -1.1757352 -1.4202913 -0.79525423 0.22538635
000070 6a 52 35 bf aa 42 bc bf 11 06 6b 3f 85 42 9a bf
       -0.7082888 -1.4707844 0.9180613 -1.205155
000080 c7 a9 48 3f bb af a0 3c b6 2a de 3d ff ad a0 3f
       0.7838406 0.019615045 0.1084799 1.2553099
000090 1c 70 a9 bf 8f b8 e0 3d 86 38 a1 be e3 65 8e bf
       -1.3237338 0.10972702 -0.31488436 -1.1124843
0000a0 3f 8e b1 3f 60 e7 a1 3f 39 d9 97 3f 8b cc 58 3f
       1.3871535 1.2648735 1.1863166 0.8468711
0000b0 38 12 4a bf 3e 70 21 3f d7 12 35 bf 07 11 9b 3f
       -0.7893405 0.63061893 -0.7073187 1.2114571
0000c0 1b 07 2d be 3c e7 a3 bf 4f fd 5c 3f 50 4e fa 3e
       -0.16897242 -1.2804942 0.8632402 0.48887873
0000d0 80 e5 5b bf 5a 9d af bf aa 0a 9e be 3e 7b 84 bf
       -0.85897064 -1.3719895 -0.3086751 -1.035011
0000e0 a5 ab 73 3f 1f 48 10 be fb 12 31 bf 5a 91 83 3f
       0.95183784 -0.14090012 -0.69169587 1.0278733
0000f0 fa 35 51 3f cc f5 8d 3f 59 76 95 3f a3 4d a4 3e
       0.81722987 1.1090636 1.1676742 0.32090482
000100 3b f3 2a 3f 96 a3 af 3f 00 78 bd 3d 2d 98 85 bf
       0.6677739 1.3721797 0.09251404 -1.0437065
000110 be 5c c1 be 91 c7 7f 3f e5 e4 80 3f 10 09 ee be
       -0.3776607 0.9991389 1.0069853 -0.4649129
000120 08 fd 44 3f 64 0d 86 3e 7e 11 3e 3d de 4e 98 bf
       0.76948595 0.2618209 0.0464034 -1.1899068
000130 de e3 79 3f f5 22 46 3e 5e bc 9e bf 4d f6 9c 3c
       0.9761332 0.19349273 -1.2401235 0.019160414
000140 79 f8 5c 3f ad e7 02 bf 52 a7 5b bf 42 8b 9a bf
       0.8631664 -0.5113476 -0.85802186 -1.2073748
000150 65 31 ef 3e e1 c4 76 bf 13 ba 97 3f b8 3a 23 bf
       0.46717373 -0.96394163 1.185366 -0.6376147
000160 e5 ff 9c bf 4a 04 bd bd fd 26 87 bf 2e 7e 40 be
       -1.2265593 -0.09229334 -1.0558773 -0.18798134
000170 d0 d2 1e bf cf b8 e9 3e 7c 5c ba be b6 0b a4 3f
       -0.62040424 0.4564881 -0.36398685 1.2816074
000180 71 70 68 3e 09 28 86 bf dd fd 0c 3f d5 45 83 be
       0.22699143 -1.0480968 0.55074865 -0.25639215
000190 84 8d 99 bf 83 a1 9f bf 41 6b 41 bf 7a 0d 1d 3f
       -1.1996312 -1.2471164 -0.7555428 0.6134869
0001a0 3e 08 80 bf f0 57 91 3f a0 1b 3e 3f 67 b5 3e bf
       -1.0002515 1.1354961 0.742609 -0.7449555
0001b0 49 50 6c 3f 49 96 59 bf 94 89 27 bf 5c 01 1a 3f
       0.92310005 -0.8499494 -0.654443 0.60158324
0001c0 08 c3 86 3f fe b4 34 bf 5c a2 8b bf 53 3e d3 be
       1.0528269 -0.7058867 -1.0908923 -0.41258487
0001d0 8c 21 8d bf ca 43 f4 be eb 3d 18 bf 8a fa 8c bf
       -1.1025863 -0.4770797 -0.5946948 -1.1013958
0001e0 4a 09 bc 3e 44 ae 43 bf 5c f7 9d 3e 73 e1 8d bf
       0.36725837 -0.76437783 0.30852783 -1.1084427
0001f0 69 65 01 bd 4b 79 82 bf 67 ce 95 3f 3e bf 90 be
       -0.031590853 -1.0193266 1.1703614 -0.28270906

in_proj.bias f4 [64]
000000 41 d2 0c 3f 7a 8c 56 be 14 af 4b 3c ea 00 ac 3b
       0.5500832 -0.20952025 0.012431879 0.0052491324
000010 04 39 fd be 3c 7d 62 be a1 0b 0a 3d 71 9d 10 be
       -0.49457562 -0.22118086 0.033702496 -0.14122559
000020 98 11 61 3d 10 11 14 3f b6 b9 fd be 88 de ff 3e
       0.05494842 0.57838535 -0.4955575 0.49974465
000030 09 57 ec bd 3b 44 26 be 68 db 43 3e 8a 87 84 bd
       -0.11540038 -0.16236965 0.19126666 -0.064711645
000040 94 0a fc be 3f f2 63 3c 79 71 34 3d 57 c3 08 3f
       -0.4922682 0.013912736 0.04405353 0.53423065
000050 66 20 c3 3b d5 8e c2 be cc 32 93 bd ae 38 b0 bd
       0.00595479 -0.37999597 -0.07187423 -0.08604561
000060 e6 de 16 be 74 69 b2 be 7d 16 bc be cf 70 05 3f
       -0.14733467 -0.3484608 -0.36735907 0.5212526
000070 e6 6b 15 bf c7 2c 01 bf 7e be 21 3f 37 39 82 bc
       -0.58367765 -0.5045895 0.63181293 -0.015896423
000080 ee 39 20 3f 58 19 de be 26 bc 1b bf 1d 6e 3e be
       0.62588394 -0.4337871 -0.60833967 -0.18596692
000090 0d 14 fe 3e 46 46 e4 3c 2d 0c 30 3f 81 bf 7f be
       0.49624673 0.02786554 0.6876858 -0.24975397
0000a0 a7 78 ec bd 44 f8 79 3e bf 3c fe be 7c 4a f1 3d
       -0.1154645 0.24411112 -0.4965572 0.11781785
0000b0 13 1c fb 3d dc 9e 15 3f 94 ec 09 3c 46 43 82 3e
       0.12261214 0.58445525 0.008418221 0.2544195
0000c0 92 c6 b8 bd d8 f7 d3 3e 0b f5 b4 be 9e 4c 92 3e
       -0.09022249 0.41400027 -0.35343203 0.2857408
0000d0 60 63 c3 be 54 35 99 3e c8 79 10 bf bd a4 86 be
       -0.38161755 0.299235 -0.56435823 -0.2629756
0000e0 d9 37 b0 bd c5 cc 06 3f 0e 49 ec be 57 77 01 3f
       -0.08604402 0.52656204 -0.46149486 0.50572723
0000f0 ea 65 b1 3e f4 64 01 3f 2a e1 f9 be 8a db 11 bf
       0.34648067 0.5054467 -0.488046 -0.56975615

convs.0.a f4 [128, 1]
000000 07 17 27 bd 03 f6 e1 3c da 10 95 bc 5b 3c 07 3c
       -0.040793445 0.027583128 -0.018196512 0.008254136
000010 d3 61 66 b7 26 89 85 bc 6f 0f 49 bd e2 ad ff bc
       -1.3731845e-05 -0.016300749 -0.049086984 -0.031210843
000020 5d 8a 2c bd 66 79 68 3c 8b ec 64 bb 81 51 7f bd
       -0.04212414 0.0141891 -0.003493103 -0.062333588
000030 fb fb 05 bd 25 f3 f2 3c f7 1d 5e bd a8 b8 72 bc
       -0.03271101 0.029656956 -0.054227795 -0.014814533
000040 00 00 00 00 b7 bf 09 3c 4d 04 f1 3c f6 b3 c3 bc
       0.0 0.008407525 0.029420996 -0.023889523
000050 ff a4 2b bd 2e 41 d6 bb 8f d9 4b 3d e6 c0 28 3d
       -0.0419054 -0.0065385317 0.049768027 0.041199587
000060 aa 4f ce bc 9c 71 e4 3b 6b 3e f0 bc 03 d9 0a bd
       -0.025184471 0.006971551 -0.029326638 -0.033898365
000070 b1 3f e8 b7 62 81 63 3c 04 94 ef bc 50 b0 0c bd
       -2.7686214e-05 0.013885828 -0.029245384 -0.034347832
000080 8c aa 03 bd 18 1f 8d bb 51 9b 0b b8 6c 8b fc bb
       -0.032145068 -0.004306685 -3.3284832e-05 -0.00770705
000090 d8 31 2e bd 3d ed 12 bd 69 76 fd bc 62 ec e5 3c
       -0.042528003 -0.03587078 -0.030940251 0.028066818
0000a0 fe 38 ba bb 7d 29 f3 bc 0d 57 48 bb 48 d0 09 bd
       -0.0056830635 -0.02968287 -0.0030569464 -0.033645898
0000b0 1e bb d5 3c 3f 23 fd 3b 53 ea 21 3d f0 e5 ae 3c
       0.026090201 0.007725149 0.03953011 0.021349877
0000c0 63 5c e1 bc 36 8b 84 bd 0c 79 e9 bc dd d9 1b 3d
       -0.027509874 -0.06471865 -0.028500102 0.038049567
0000d0 c1 c0 17 3d 5b 17 7f bd 2d f6 b3 bb 42 87 cc 3c
       0.03704906 -0.062278133 -0.005491993 0.02496684
0000e0 ec 19 27 bc 3d fc 1e bc 4d 1d 22 3b 43 21 0b bd
       -0.010199051 -0.009703693 0.0024736703 -0.033967268
0000f0 47 04 2d bd fe 1b 61 bd 4a 7f 29 ba 21 73 61 bb
       -0.042240407 -0.054958336 -0.0006465806 -0.0034400898
000100 61 e4 9c be ff 44 1e 3f 6c ee 1e 3f b3 d8 16 3f
       -0.3064299 0.6182403 0.6208255 0.58924407
000110 63 6e 24 3f b0 2d 41 3f 62 0a 7b 3e 11 72 1f 3f
       0.64230937 0.7546034 0.2451568 0.62283427
000120 70 3c e5 3e 5c cf 98 be 99 01 2d 3f 45 e9 81 be
       0.44772673 -0.29845703 0.6758056 -0.25373283
000130 de 6e 52 3f db de 28 3f 92 53 b8 3d 23 e3 1f 3f
       0.8220042 0.6596505 0.09000315 0.6245596
000140 c1 08 26 3f ad ed e4 3e 9b 3d 05 3f 93 fd 8f be
       0.6485711 0.44712582 0.5204713 -0.2812315
000150 6e 59 d7 3e de ea 48 3f 53 7b 27 3f 85 82 26 3f
       0.42060417 0.7848338 0.6542255 0.65042907
000160 65 1b 20 3f 8d 52 30 3f ad f2 41 3f 3e 9c 88 be
       0.625418 0.6887596 0.7576092 -0.26681703
000170 74 23 24 3f a5 5a 1f 3f c7 d0 80 be e3 5a 22 3f
       0.641166 0.6224769 -0.25159284 0.6341993
000180 e5 9c 52 be 17 7f 1c 3f 44 6a 1b 3f 32 82 29 3f
       -0.20567663 0.61131424 0.60709023 0.6621429
000190 29 9c a6 be 39 c6 1b 3f a9 6e a9 be f7 fc 21 3f
       -0.32541016 0.6084934 -0.3309224 0.6327662
0001a0 3f 62 23 3f e2 e1 6d bc c7 96 26 3f 6c af fa 3e
       0.63821787 -0.014519187 0.6507382 0.4896196
0001b0 68 95 b7 3e e2 68 97 be b1 bb 15 3f a2 86 f0 bc
       0.35856175 -0.29572207 0.5848952 -0.029361073
0001c0 2c ff 1f 3f 66 bd b9 be 03 2c 5f 3f e7 f7 61 be
       0.62498736 -0.36277312 0.8717653 -0.22067223
0001d0 90 e3 20 3f 3c e4 5b be e1 fa 1a 3f c7 a6 2e 3f
       0.6284723 -0.21473783 0.6053906 0.6822323
0001e0 61 7f 26 3f 94 76 7e be 3f d5 21 3f df 3e 6a be
       0.65038115 -0.24849921 0.6321601 -0.22875546
0001f0 16 64 93 be 9f ae 9a be d9 1a 1b 3f 89 62 2e 3f
       -0.28787297 -0.3021135 0.6058784 0.681191

convs.0.linear1.weight f4 [64, 64]
000000 89 b5 4c 3e d4 91 bc 3e 46 9c a6 3e 09 41 02 3f
       0.19991125 0.36830008 0.32541102 0.50880486
000010 b9 ef f6 3e b3 d4 ed 3e d1 3b 08 3e 5d 57 fd 3e
       0.4822977 0.4645134 0.13304068 0.49480715
000020 ec 5c e8 3e bb 37 e0 3e ef 18 f8 3e 66 cc 72 3e
       0.45383394 0.4379252 0.48456523 0.23710784
000030 ac 97 59 3e dc 11 8d 3e 7a 79 6e 3e ec 0e 00 3f
       0.21249264 0.27552688 0.23288527 0.5002277
000040 1e 06 9a 3e fd ff f2 3e 84 e7 6c 3e ce 4e 29 3e
       0.30082792 0.4746093 0.23135191 0.16533968
000050 a1 c6 29 3e c4 0d a5 3e 1e 5e cf 3e 5d 6f e1 3e
       0.16579677 0.32237065 0.40501493 0.44030276
000060 28 b5 00 3f 28 71 ed 3e f6 b3 20 3e 24 d1 2e 3e
       0.5027642 0.46375394 0.1569365 0.17071968
000070 f4 a5 d6 3e 10 08 ad 3e d9 1c f7 3c 20 74 0c 3f
       0.41923487 0.33795214 0.030165123 0.5486469
000080 92 a0 e5 3d a7 46 f1 3e 4c 1c 09 3f 29 7f f7 3e
       0.11212267 0.47124216 0.535588 0.48339203
000090 d9 7a 63 3e a2 eb ec 3e 44 9b 14 3e fd d3 e7 3e
       0.22214831 0.46273524 0.14512354 0.45278922
0000a0 fd a7 e5 3e 6f bf 16 3e 97 74 e5 3e ad 3e 77 3e
       0.44854727 0.14721464 0.44815513 0.24145003
0000b0 8a 62 b0 3e a7 5d 03 3e e9 18 ee 3e 19 48 fc 3e
       0.3445018 0.12828694 0.4650338 0.49273756
0000c0 a0 90 c7 3e 30 59 41 3e 63 25 85 3e f5 f8 cc 3e
       0.38977528 0.18881679 0.26005086 0.4003369
0000d0 c2 5f b8 3e 20 ed c0 3e d8 7c 65 3e 05 28 c2 3e
       0.36010557 0.37680912 0.22410905 0.37921157
0000e0 36 15 a7 3e b8 30 79 3e 48 a6 cb 3e 8a 5d 94 3e
       0.3263337 0.24334991 0.397753 0.28977615
0000f0 50 24 07 3f 0f e3 da 3e 0f 62 d6 3e 6f fc b5 3e
       0.52789783 0.42751357 0.41871688 0.35544154
000100 62 b7 08 3d 5f 5d f5 bd 95 03 01 bf 5d 4b 86 3d
       0.033378012 -0.119807 -0.5039609 0.06557343
000110 2d 2c 95 be e5 42 f4 bd 6e 41 08 3e 9f 5f 5e be
       -0.29135266 -0.119268216 0.1330621 -0.21716164
000120 27 63 a1 3b ce 25 cb be af 79 0a bf b5 37 61 3e
       0.00492515 -0.3967728 -0.54091924 0.21993907
000130 5e 5a 62 bc 0b 4d c0 be cc 56 a3 bd 64 f1 16 bf
       -0.0138154905 -0.3755878 -0.079755396 -0.5896208
000140 7a b8 00 bd cd 48 dc bd 39 37 c0 3a fa 59 24 bd
       -0.03142593 -0.10756073 0.0014664895 -0.04012487
000150 09 51 54 bd d5 6a f5 3d f6 65 26 bf 95 43 d9 be
       -0.051835094 0.11983267 -0.6499933 -0.42434373
000160 d0 41 e0 3c ed 92 cf 3c 48 3b 99 3d e2 65 c6 3d
       0.027375132 0.025338614 0.0748201 0.09687401
000170 5f 88 4e be 56 5c 13 bf b3 3c c1 3d e8 e0 6b bd
       -0.20169209 -0.5756277 0.094354056 -0.057587534
000180 23 d7 96 bc 83 bd 73 be 19 58 e5 be b3 86 01 bf
       -0.018413132 -0.23802762 -0.44793776 -0.5059616
000190 af a1 e6 3d 87 c5 22 be 6e 97 b8 bc 9e b2 77 be
       0.112613074 -0.15895663 -0.022533145 -0.24189231
0001a0 1f 52 23 bf 0b f5 c6 ba e9 1a 20 bf 0e 82 00 bf
       -0.6379718 -0.001517923 -0.6254106 -0.5019845
0001b0 cb 40 9c 3c 28 8a 0c bd f5 c6 fb be a7 8d 5b bd
       0.019073864 -0.034311444 -0.4917523 -0.053601887
0001c0 5d f3 82 be ee 56 a2 bd 18 8e ab 3c f7 80 51 be
       -0.25576296 -0.07926737 0.020941779 -0.20459352
0001d0 0d bf 09 bf 55 9b 6c be b1 71 08 bf e4 86 1a bf
       -0.53807145 -0.2310613 -0.5329848 -0.60362077
0001e0 3b 6f 13 bf 4b 9f a5 3c 9f e7 30 3e 6b f4 85 3d
       -0.575916 0.020217558 0.17275856 0.0654076
0001f0 f3 df 46 be b2 ef 71 be 88 f6 a0 bd a4 19 e7 be
       -0.19421367 -0.23626593 -0.07859522 -0.4513675
000200 bf 25 25 be 0a 83 a8 bd ba 51 6d be b7 76 5f be
       -0.1612768 -0.08228119 -0.23175707 -0.2182263
000210 b3 76 44 be c8 38 8b be dd ea 1b be 48 1b 03 be
       -0.19185905 -0.27191758 -0.15226312 -0.12803376
000220 44 70 50 be 95 90 c7 bd e2 76 85 be 0d 91 56 be
       -0.20355326 -0.09744374 -0.26067263 -0.2095377
000230 c2 36 3d bd e9 b3 80 be 16 0e 06 bd a9 dc 23 be
       -0.0461948 -0.2513726 -0.032728277 -0.16002144
000240 0a b0 7a be 63 ac 2c be 2c 46 96 bd 3c 19 35 be
       -0.24481216 -0.16862635 -0.07337603 -0.17685407
000250 03 7a 79 be da 1e 8d be f8 8e c2 bd 69 eb a7 bd
       -0.2436295 -0.275626 -0.094999254 -0.08199198
000260 81 0c 80 be 7d 80 8d be e0 2b dc bd 05 83 43 bc
       -0.2500954 -0.2763709 -0.10750556 -0.011933093
000270 c1 1e d3 bd b2 ae 2d bd 6d 7c 59 be c0 55 76 be
       -0.103086 -0.04240293 -0.21238871 -0.24056149
000280 99 d8 55 bd 61 60 8d be 70 ba 58 be 16 ca 61 be
       -0.052208517 -0.27612594 -0.2116487 -0.22049746
000290 33 db 84 bd 8e 1e da bd 18 b3 e2 3c c3 33 34 be
       -0.064871214 -0.10650359 0.02767329 -0.1759787
0002a0 96 2f e8 bc 75 f4 6e be d5 99 5c be b9 f5 12 3c
       -0.028343003 -0.2333544 -0.21543057 0.008969718
0002b0 74 59 0d be 7b 5e d3 3c 83 12 1c 3d a1 b1 d4 3c
       -0.13803655 0.025801888 0.03810359 0.025963606
0002c0 aa a9 19 be d7 90 89 bd 22 a4 29 be 42 b1 4d 3d
       -0.15006128 -0.06717079 -0.16566518 0.050217874
0002d0 06 39 a5 bd e8 8f 93 bd 8a dc 5e 3d 75 df 9f 3c
       -0.08067517 -0.07205182 0.05440954 0.019515732
0002e0 e0 29 7d bd 55 d9 44 be d8 5c 82 be f2 8a d4 bd
       -0.061807513 -0.1922353 -0.2546146 -0.10378064
0002f0 18 72 55 bd 1b 04 0d be c9 49 60 be 47 6c e6 bd
       -0.05211076 -0.13771097 -0.21903147 -0.11251121
000300 7e 71 90 3e e1 c3 8d 3e 4e d9 86 3e 03 4d 81 3e
       0.28211588 0.27688506 0.26337665 0.25254068
000310 69 39 b9 3e 88 50 8e 3e 70 50 7b 3e 88 2b a1 3e
       0.36176613 0.27795815 0.24542403 0.31478524
000320 57 89 f2 3e 37 a2 70 3e 90 df e3 3e bc 0b 8d 3e
       0.47370407 0.2349938 0.44506502 0.27548015
000330 a5 a6 1b 3e 78 5f 7d 3e 85 b3 19 3e 7f 46 bb 3e
       0.15200289 0.2474345 0.15009888 0.36577222
000340 9f 2b 80 3e 04 31 d3 3e f4 b0 a2 3e 3e aa 9b 3e
       0.2503328 0.41248333 0.3177563 0.30403322
000350 91 31 2f 3e af f0 eb 3e aa e8 b4 3e 42 1d ed 3e
       0.17108752 0.46082065 0.3533376 0.46311384
000360 eb 85 b3 3e 02 8f 1c 3f 05 ec bc 3e be 69 83 3e
       0.3506311 0.6115571 0.3689882 0.25666612
000370 9b 91 ad 3e 30 e7 4d 3e f8 e9 ec 3d 32 50 11 3f
       0.3390015 0.20107722 0.115680635 0.56762993
000380 84 8c 60 3e fe b4 f5 3e f5 aa b0 3e 25 cb 99 3e
       0.21928602 0.4798965 0.3450543 0.300378
000390 4d e9 67 3e 58 6e 72 3e 30 29 84 3e e9 1c 9a 3e
       0.22647591 0.23674905 0.25812674 0.30100182
0003a0 13 d5 c0 3e d4 5b 08 3e 40 ce c8 3e ec 9c 86 3e
       0.37662563 0.1331628 0.39219856 0.26291597
0003b0 b4 42 ab 3e ab 46 91 3e 4d 7a b8 3e b8 83 98 3e
       0.33449328 0.28374228 0.36030808 0.29787993
0003c0 97 db b7 3e e5 cf 61 3e 6d c8 a1 3e 47 6a c9 3e
       0.3590972 0.22051962 0.31598225 0.39338896
0003d0 f3 7f ba 3e d2 8d 9a 3e db 73 63 3e 4d dd bb 3e
       0.36425743 0.30186325 0.22212164 0.36692277
0003e0 1b 73 6c 3e e6 ed 8d 3e 6a 7e cd 3e 7e 13 86 3e
       0.23090784 0.27720565 0.4013551 0.26186746
0003f0 96 6a 89 3e 46 90 40 3e 25 df d8 3e 12 4e ed 3e
       0.2683913 0.18805036 0.42357746 0.46348625

convs.0.linear1.bias f4 [64]
000000 90 3b cf 3d c3 28 c0 bb eb 3b 7a 3e e3 1c 3d bd
       0.101187825 -0.005864234 0.2443692 -0.046170127
000010 88 19 32 3e 2a 2a 58 be 56 4c 72 3d 88 39 69 be
       0.17392552 -0.21109834 0.05915483 -0.22775853
000020 7d 98 13 3e 02 77 9b bd c9 32 5d 3e 5d c6 03 be
       0.14413638 -0.07591058 0.21601404 -0.12868638
000030 2e 67 5c 3e 93 c7 83 3e 5f ba c3 3d 99 d9 ec bd
       0.21523735 0.257382 0.09557032 -0.11564941
000040 ef 4d 47 3e c4 0b 0d be e8 99 7e 3e 81 b5 48 bd
       0.19463323 -0.1377402 0.24863398 -0.04900122
000050 07 33 83 bc 3d a1 8c bd f6 64 84 3d e0 43 95 bd
       -0.016015543 -0.06866691 0.06464569 -0.07288337
000060 94 b8 1d 3e 9f cd bd 3d 59 51 1d be a2 83 0b bd
       0.15402442 0.09267735 -0.15363063 -0.03406108
000070 e7 35 6e 3c 4f a2 7c 3d 5d a6 33 3e 75 83 36 bd
       0.0145392185 0.061678227 0.17543931 -0.04455896
000080 1e 88 53 bd 30 1b 53 3d ac fa 74 3e 27 34 a0 bd
       -0.051643483 0.0515396 0.23923749 -0.07822447
000090 ba 5e a1 bd 05 77 e2 bd a0 fd ea 3d ae ba 8e 3d
       -0.07879396 -0.110578574 0.114741564 0.069692
0000a0 79 03 a1 3c fc ae 73 bd 3e 50 c3 3d ea 9b 24 bd
       0.019654976 -0.05949305 0.09536789 -0.040187754
0000b0 a4 3a f6 3d 5e 2b 96 3c b5 ed 17 bd 15 8a c1 bd
       0.120229036 0.018331226 -0.03709193 -0.09450165
0000c0 4c 95 b5 bd 5c 6f 71 3e 35 33 62 bc 9a 80 f0 bd
       -0.08866367 0.23577636 -0.013806154 -0.11743279
0000d0 e8 1a d8 bd 50 a3 60 3e 5c 16 3e be c5 48 8f 3e
       -0.10552007 0.21937299 -0.18563217 0.27985206
0000e0 36 fb 34 bd 41 fc 7c 3d e6 cf ba 3d 82 6e 50 3e
       -0.044184886 0.061764006 0.09121685 0.20354655
0000f0 ab 45 2c 3d 68 c5 2f 3c 87 47 fe ba 40 08 05 bd
       0.042058628 0.010728218 -0.0019399979 -0.03247857

convs.0.linear2.weight f4 [64, 64]
000000 98 b0 89 3d 0b e5 90 3e de ed 7c 3d a7 06 56 3d
       0.06723136 0.28299746 0.061750285 0.052252438
000010 13 4a 21 bd 0f 2a de 3d 66 b1 f0 3d 24 60 46 be
       -0.039377283 0.10847866 0.11752586 -0.19372612
000020 8b 5c 2f bd a8 20 9a bd ca a3 3f be db 9b da bb
       -0.042812865 -0.0752576 -0.18714824 -0.0066714115
000030 12 7d 25 bd f2 2a 98 3d e8 11 c3 3c 9c 08 e4 ba
       -0.04040248 0.07430066 0.02381225 -0.0017397585
000040 9d 63 30 3b 3b 97 80 3d f3 5f 0b bd 01 b4 78 3e
       0.0026914843 0.06278845 -0.03402705 0.24287416
000050 7e 2f 7f 3d 06 f1 27 bf a0 ba 23 3f a6 53 b0 be
       0.06230115 -0.6560215 0.6395664 -0.3443882
000060 00 e5 49 be e8 7a 86 3e c3 59 e5 bd b8 fb a1 bd
       -0.19716263 0.26265645 -0.11198761 -0.0790934
000070 d9 ac dc bd d5 86 a7 bc 3e dc ac bd 63 26 d5 3e
       -0.107751556 -0.020450035 -0.08440445 0.4163085
000080 69 1f 97 bd 94 a9 99 3b 17 93 bb bd a9 21 d8 bc
       -0.07379038 0.0046894047 -0.091589145 -0.026383238
000090 ba bd cc bc ea 5e 1d bf dc db ee 3d 9a 9b 3d bd
       -0.024992812 -0.6147295 0.116630286 -0.04629097
0000a0 6e 41 1b be af b1 a9 bd 28 49 1e bf 78 0e f2 3d
       -0.15161678 -0.082858436 -0.6183038 0.11819166
0000b0 e0 81 f2 3d 2d 26 15 be bd d3 5e 3e f9 d5 20 be
       0.11841178 -0.14565344 0.21760459 -0.15706624
0000c0 27 53 ca be 11 d7 99 bd 32 c0 13 be c1 a2 5c 3c
       -0.39516565 -0.07511724 -0.14428785 0.013466538
0000d0 4b e7 82 3d b2 8c e2 bb 20 4e 49 3e c1 7f 8d 3d
       0.06391772 -0.006913745 0.19658709 0.06909133
0000e0 08 de 85 3e cd 09 07 3c fe 1e f6 3e d1 ec e4 bd
       0.2614596 0.008242083 0.4807052 -0.11177982
0000f0 08 65 52 3d a5 04 3d be b3 e3 92 bd 9b f5 41 3d
       0.051365882 -0.18458803 -0.071723364 0.04735337
000100 a5 38 12 bf ba 8f ca 3f 3d 69 c2 3e d9 8a aa bf
       -0.5711768 1.5825112 0.37970915 -1.3323623
000110 25 2e 7e 3e 08 fc 9c be 98 26 e4 be bb 4b b5 be
       0.2482229 -0.30661035 -0.44560695 -0.3540934
000120 e2 04 9e be ec 7f d4 3e 54 30 d4 3e 79 70 5f 3e
       -0.308631 0.41503847 0.4144312 0.21820249
000130 61 00 d1 3d 02 54 b3 3e 86 56 ce be 3d a7 bf 3e
       0.102051504 0.3502503 -0.40300387 0.3743228
000140 b9 79 65 3e 57 34 c2 3e 09 e7 63 3e fe 01 a4 bf
       0.22409715 0.37930557 0.22256102 -1.2813108
000150 9e e1 84 bf c8 1c 40 3e 89 00 c2 be cb 1b e1 3e
       -1.0381353 0.18760979 -0.37891033 0.43966517
000160 5e 61 c3 3e e2 47 70 3e f5 83 13 be f9 b1 2a 3f
       0.38160223 0.23464921 -0.14405806 0.66677815
000170 ff ed 36 bf f1 8b 0f bf e3 bd 54 be 03 95 0d bf
       -0.71456903 -0.5607291 -0.20775561 -0.553055
000180 fd 99 fc 3e 25 3d 0d bf 28 e9 c0 3e ac b1 f2 3e
       0.49336234 -0.55171424 0.37677884 0.47401178
000190 d2 8e a9 3e f3 4c 0b 3e ca dd e2 be cf e2 c5 be
       0.33116776 0.13603573 -0.44309837 -0.38649604
0001a0 39 e8 90 3f e7 61 19 3f 7c 0b 80 3e 56 64 ba bf
       1.1320869 0.5991501 0.25008762 -1.456187
0001b0 ba 0a ec be aa fc 86 3f 6b 7c 9c bf 71 8a 04 3f
       -0.46101934 1.0545857 -1.2225469 0.51773745
0001c0 f2 c2 50 bf 6a 5c 7e 3e fd 43 0c 3f 7e b7 88 3e
       -0.8154746 0.2483994 0.5479124 0.26702493
0001d0 80 b5 cb 3e 54 bb b6 3e 7e f5 67 be 4d de c7 3e
       0.3978691 0.35689795 -0.22652242 0.3903679
0001e0 1c ca b5 bf ab e2 eb be 58 4a dd be 73 0d 91 3e
       -1.4202304 -0.4607137 -0.43220782 0.28330573
0001f0 c1 8a 53 bf da 0c 01 3f d1 b5 2d bf 87 5e c0 bf
       -0.82633597 0.50410235 -0.67855555 -1.5028847
000200 e1 c8 16 bd c3 3e e7 bd 7f 27 1f bf 3b 14 38 3e
       -0.036812667 -0.11291268 -0.6216964 0.17976467
000210 74 99 26 bf 6e 51 3a 3f 5b da 1c 3b e5 84 bc 3d
       -0.650779 0.727805 0.002393386 0.09205035
000220 9f 90 ee bd f8 b6 a8 bc e9 5a 84 bf e8 8b de bb
       -0.11648678 -0.020595059 -1.0340244 -0.0067915805
000230 45 5d 0e bf 89 67 31 bf 6f 62 d8 bd 76 24 2f 3d
       -0.5561107 -0.6929861 -0.1056565 0.04275938
000240 b4 ec 0a bf 11 66 b5 3c a0 e8 30 bf ed f6 66 3e
       -0.5426743 0.022143396 -0.6910496 0.22555132
000250 35 c6 9f 3d 27 13 14 be 42 0e 5c 3f 99 27 28 be
       0.07801477 -0.14460431 0.85959256 -0.16421355
000260 13 09 36 bf a1 08 05 bf 65 ff b6 3e 2f f5 dd 3d
       -0.71107596 -0.5196629 0.35741726 0.10837781
000270 27 57 ee 3d 1a de e2 bd 07 f4 c9 bd fc 05 01 3f
       0.11637717 -0.11077519 -0.09860998 0.50399756
000280 6c 62 91 bd f4 e9 37 3d a1 01 5e bf 8c dd 91 3c
       -0.070988506 0.04490085 -0.86721236 0.017805837
000290 83 f8 17 3d 2b 7d 38 be 0b f1 94 bd 00 a3 f5 bd
       0.037102234 -0.18016498 -0.07272538 -0.119939804
0002a0 bc 53 34 be 84 11 bd 3d e8 3e e7 be 3d e4 1d 3e
       -0.17610067 0.092318565 -0.4516518 0.15419097
0002b0 0a 9d 30 3d ed e1 82 bb d1 20 78 3e 06 12 24 be
       0.043118514 -0.0039942176 0.24231268 -0.160225
0002c0 5b b2 0c bd a7 38 44 bf a0 f1 4d be 82 53 ca bc
       -0.03434978 -0.76648945 -0.20111704 -0.024698023
0002d0 71 84 9e 3d 6b 7b 5e bf 19 13 a2 3e 80 5c 41 bf
       0.07740105 -0.8690707 0.31655195 -0.7553177
0002e0 6a 04 12 3e cc a6 81 bc 5e f6 88 3e 44 73 f1 be
       0.14259496 -0.015826605 0.26750463 -0.47158253
0002f0 f3 2a bc bd 3a 02 12 bd d0 36 a6 3d 18 a7 36 3e
       -0.091878794 -0.035646655 0.081159234 0.17837179
000300 a6 93 94 3e fc da d8 be 96 a8 99 bd 6e 46 d8 3e
       0.29018897 -0.42354572 -0.07502858 0.42241234
000310 3c cd 97 bd 84 fe f1 3d 70 ce 8e 3e 6f 7a 16 bc
       -0.07412192 0.11816123 0.27891874 -0.009184464
000320 13 33 75 3e c3 41 94 be 40 fa 5b be b9 d5 25 be
       0.23945265 -0.28956422 -0.21482182 -0.1619481
000330 57 1c 37 be d6 4b 47 be 2c 94 93 3e 89 71 46 be
       -0.17881905 -0.19462523 0.28823984 -0.19379248
000340 59 37 21 be f6 19 92 bd 63 16 97 be 89 f9 07 3f
       -0.1574377 -0.07133858 -0.29509267 0.53115135
000350 25 9a b3 3e 72 9f 65 3f 88 08 44 be f6 da 5c be
       0.3507854 0.8969642 -0.1914388 -0.21567902
000360 d6 5c 4e be 58 8f ec be 07 ab 9f 3e 00 f3 c9 be
       -0.20152602 -0.46203113 0.3118517 -0.39443207
000370 48 2e b8 3e 2a 07 49 3e d2 ce e2 3d 33 65 4d 3e
       0.3597281 0.19631639 0.11074604 0.20058136
000380 ae 87 9b be d3 24 b6 3e 08 c5 de bd 6f ca 08 be
       -0.30376953 0.3557497 -0.108774245 -0.13358472
000390 d8 ca a0 be 2b 54 37 3f a8 c0 8f 3e de 24 83 3e
       -0.31404757 0.71612805 0.28076673 0.25614065
0003a0 65 7c 8b be d4 87 af be 07 1e 12 3f 8a ed c9 3e
       -0.27243343 -0.34283316 0.5707707 0.3943904
0003b0 3f 65 92 3d 7c 72 bf be eb cb d5 3e 0f 25 ff bc
       0.071482174 -0.37392032 0.4175714 -0.0311456
0003c0 ca b6 5e 3f e5 30 37 be e3 db c7 be ec 99 39 be
       0.86997664 -0.17889746 -0.39034948 -0.18125123
0003d0 d5 42 64 be b1 2b 98 bd c4 ea 41 be b7 fe 88 be
       -0.2229112 -0.074302085 -0.18937212 -0.26756832
0003e0 cd 5e 04 3f cd 30 0b 3e 61 59 0f be 1b ec 9a bd
       0.51707155 0.13592835 -0.13998939 -0.07564565
0003f0 4b ed aa 3e 4e 7d 29 be ad 36 63 3e cb 60 e6 3e
       0.33384165 -0.16551706 0.22188826 0.44995722

convs.0.linear2.bias f4 [64]
000000 91 22 c4 3d 40 69 7c bd fb a2 ce be 62 61 f4 bc
       0.095769055 -0.06162381 -0.4035872 -0.029831592
000010 21 6c eb bd 74 b4 64 3e 37 b5 7f be c8 7f 90 be
       -0.11495233 0.22334462 -0.24971472 -0.2822249
000020 e2 d7 94 be 9b 95 3e be de 74 a4 bd db d0 ae bb
       -0.29070956 -0.18611757 -0.08030103 -0.005334956
000030 d6 f9 03 bc ff e9 ca be b9 8e 26 be e2 10 b5 be
       -0.008055171 -0.3963165 -0.16265382 -0.35364443
000040 e1 2d 47 bd 15 0d 91 be 1f a1 51 be 76 f2 16 3d
       -0.048627738 -0.28330293 -0.20471619 0.036852323
000050 cb bf 44 be 15 54 02 3e a1 d9 a6 3e 60 80 39 be
       -0.19213788 0.12727387 0.32587913 -0.18115377
000060 80 ef 9e 3c 04 76 4b 3e ea fa 04 3e d7 ce 02 be
       0.019401312 0.19869238 0.12986341 -0.12774216
000070 e7 77 68 3e f3 3d 99 3e d1 9c 46 bc a8 ef 90 be
       0.22701989 0.29930076 -0.012122349 -0.28307843
000080 3f 89 ed bd 4e 3a 09 be a7 02 73 be 3a da 73 3d
       -0.11598443 -0.13401148 -0.2373148 0.05953429
000090 24 0e af 3d f2 a5 ad bc e0 39 d3 3d 91 2f e4 bb
       0.08547619 -0.021197293 0.10313773 -0.006963678
0000a0 94 ce 16 3e af 9b a5 3e 80 45 98 3e da d2 19 be
       0.14727241 0.3234534 0.29740524 -0.1502184
0000b0 60 ab c1 bd b0 33 a8 be c7 e2 52 be 1d e5 c5 3b
       -0.09456515 -0.32851934 -0.20594321 0.0060392753
0000c0 fb 4d bd be ea fa 7b 3e db 2b 8c be da b6 46 3e
       -0.36973557 0.24607435 -0.2737721 0.1940569
0000d0 a5 d0 d6 be 0d e2 5c 3b 73 18 cb bd 6c 13 82 3d
       -0.41956058 0.0033704073 -0.09916773 0.06351361
0000e0 b2 e2 28 be 86 47 64 bd 88 d7 39 be 5b 81 7e 3e
       -0.16492727 -0.055732273 -0.18148625 0.24854033
0000f0 1a 10 60 3e 7a bc 09 bd 88 99 2c bd 77 3f 86 be
       0.21881142 -0.03362701 -0.042138606 -0.26220295

convs.1.a f4 [128, 1]
000000 bf d8 9e 3e 0f 1c 20 3e a5 80 95 39 1b d6 c0 3e
       0.3102474 0.15635704 0.00028515342 0.3766335
000010 7d db e8 b8 1c ce 9a 3e be bd ba b6 17 88 97 b8
       -0.00011103505 0.30235374 -5.565321e-06 -7.22559e-05
000020 0c c4 8d b8 62 f8 12 b8 77 68 79 3d 12 4f b5 3e
       -6.7599205e-05 -3.5040437e-05 0.06089064 0.35411888
000030 33 50 6f 3e 65 1f be b8 e7 b1 f9 b9 1b 22 93 b5
       0.23370437 -9.065754e-05 -0.00047625529 -1.096228e-06
000040 66 c6 31 3e 0f fb ad 35 13 77 3f 38 74 ee 8f 3e
       0.17360839 1.2962572e-06 4.5648845e-05 0.28111613
000050 83 79 3d bc 89 b9 a9 3e e0 59 88 3e c6 4c 57 b9
       -0.011564615 0.33149365 0.2663107 -0.00020532598
000060 3d 17 94 3e ac 6e 72 3e e1 0a 63 3e 58 46 d5 36
       0.2892398 0.2367503 0.22172119 6.3560838e-06
000070 1c 66 8c 3e 6f 3b 96 3e 20 d2 4c 3e 0e e0 80 b9
       0.27421653 0.2934222 0.20002031 -0.00024580996
000080 02 69 17 b8 f6 65 86 37 78 50 01 b6 04 ea ab 3e
       -3.6099e-05 1.6021524e-05 -1.9269337e-06 0.33576977
000090 b3 ce aa 3e 52 47 b6 3e be 0c b5 3e 3c 99 1d 3d
       0.33360824 0.35601288 0.35361284 0.038476214
0000a0 ea ca b9 3e d4 d4 93 3e 06 27 9a 3e da 1c ac 3d
       0.36287624 0.28873312 0.30107898 0.084039405
0000b0 e6 8a b3 b9 79 4f e0 b9 e8 39 06 b7 c4 24 b9 3e
       -0.00034245028 -0.0004278382 -8.000505e-06 0.36160862
0000c0 a0 00 1c 36 19 81 8b 3e 8f 49 33 b6 b3 f2 82 3e
       2.3246175e-06 0.2724693 -2.6715895e-06 0.2557579
0000d0 35 59 b7 b5 55 f4 8b 3e af 87 9b 3d 34 a6 81 3e
       -1.3660525e-06 0.27334848 0.07594239 0.25322115
0000e0 91 b3 4a 37 31 8f c6 b8 e4 76 e1 b7 f0 2c 87 3e
       1.2081947e-05 -9.468047e-05 -2.6877453e-05 0.26401472
0000f0 9f a9 9b 3e ed f9 11 3e cf 6f 91 b6 81 7f d9 37
       0.30402848 0.14255495 -4.334353e-06 2.592779e-05
000100 63 9b b8 be de 09 01 c0 9a c3 c5 bf 36 b9 ef bb
       -0.3605605 -2.0162272 -1.5450318 -0.00731578
000110 d9 f1 17 c0 5b f6 c0 3e c4 94 5f c0 a0 b5 7c c0
       -2.3741362 0.37687954 -3.493455 -3.9485855
000120 d5 6a 51 c0 7d 70 44 c0 ac 4d 1c 3f 88 b6 a0 bd
       -3.2721455 -3.0693657 0.6105602 -0.07847315
000130 de ca 93 bf 27 2b 7b c0 64 60 41 c0 c3 13 7c c0
       -1.1546285 -3.9245088 -3.0215082 -3.9387062
000140 9e ec 25 bf 5a 45 74 c0 a0 9a 5b c0 59 b9 29 3e
       -0.64814174 -3.816733 -3.4313126 0.16574611
000150 41 19 16 c0 69 f7 da 3f a1 63 06 3f e5 4d 93 bf
       -2.3452914 1.7106754 0.5249577 -1.1508147
000160 18 ff 05 bd 96 4b 59 3e d8 18 34 3f fd 56 66 c0
       -0.03271398 0.2122024 0.7035041 -3.5990593
000170 4e bb c2 3e 9a cb b6 3e 67 a4 5c 3f 24 6b 5f c0
       0.38033527 0.3570221 0.8618836 -3.4909143
000180 92 72 2f c0 25 ea 04 c0 68 3b 5f c0 37 3f 29 3e
       -2.7413678 -2.076791 -3.4880009 0.16528021
000190 9c ae 55 3e 1f 94 ab 3e 2f a0 1f 3e e3 9e 07 3f
       0.2086739 0.33511445 0.15588449 0.52976817
0001a0 0d a4 26 3f 92 0b c4 3e 9a 97 b6 3e c7 3c 3f 3f
       0.6509407 0.38290077 0.35662538 0.74702114
0001b0 f3 50 2f c0 85 7a 45 c0 0b ba 6b c0 d2 e4 97 3e
       -2.7393157 -3.085603 -3.6832302 0.29666764
0001c0 e8 20 5f c0 76 6e e0 3e 5b 03 71 c0 bc 03 34 be
       -3.4863834 0.43834275 -3.7658298 -0.1757955
0001d0 2c 48 5c c0 a4 c2 8c 3e 13 e4 9f 3f ca 92 ac 3d
       -3.441905 0.2749225 1.2491478 0.08426435
0001e0 2c b7 5d c0 0c 45 0e c0 c1 5e 78 c0 1e 67 46 3c
       -3.464305 -2.2229643 -3.8807833 0.012109546
0001f0 f5 95 fc 3e 82 e6 2a 3f 49 b4 4c c0 d6 da 4b c0
       0.49333158 0.66757977 -3.1985037 -3.1852317

convs.1.linear1.weight f4 [64, 64]
000000 91 ac 11 3e 31 af df bf 4f 61 07 c0 4d 7b b4 3d
       0.14225985 -1.7475339 -2.1153142 0.0881258
000010 eb 84 b3 bf ef 4a e2 3e f2 24 fc bf b4 38 f6 bf
       -1.4024938 0.44197795 -1.9698775 -1.9236054
000020 45 5f 08 c0 63 79 e4 bf b7 32 15 3d 7b f6 53 3d
       -2.1308148 -1.7849544 0.03642532 0.051748734
000030 99 01 99 3e 10 75 c1 bf 8b 05 f2 bf a8 b3 0c c0
       0.2988403 -1.511385 -1.8907942 -2.1984653
000040 d5 6d 26 bd b2 89 15 c0 c0 92 fa bf 94 98 20 3d
       -0.040632088 -2.3365293 -1.9576035 0.03920801
000050 d7 19 e5 bf d9 37 ce be 2c 97 cb 3e 90 dc c7 bf
       -1.7898511 -0.40276983 0.39763772 -1.5614185
000060 84 ae c9 3d e8 dd 02 3f 80 2d bb 3e bc ed 04 c0
       0.09847739 0.5111985 0.3655815 -2.0770102
000070 98 3a f4 3e ee 23 d4 3e 86 f6 d7 be 5c 3e ff bf
       0.47700953 0.41433662 -0.4218027 -1.9940906
000080 c2 ce dc bf a7 18 04 bf 6b 9f f8 bf c9 91 5d 3c
       -1.7250597 -0.51600116 -1.942365 0.013523527
000090 90 27 c4 bd 64 54 05 3d 41 f4 21 3e 99 1c b0 3e
       -0.095778584 0.032551184 0.15815832 0.34396818
0000a0 3e 6c 14 3e ba 96 d4 3e cf 7a db 3e 52 07 e2 bd
       0.14494416 0.41521245 0.42867133 -0.110365525
0000b0 67 d8 93 bf 2c 12 fc bf 40 7a 0a c0 59 50 10 3d
       -1.1550416 -1.9693046 -2.1637115 0.035232875
0000c0 03 27 01 c0 84 f6 f1 3e ed d3 0e c0 e2 07 15 3f
       -2.018006 0.4725839 -2.231685 0.58215153
0000d0 17 58 04 c0 dd d3 59 bd 04 cb bc be c1 5c f4 3e
       -2.0678766 -0.053180564 -0.3687364 0.47727016
0000e0 15 82 01 c0 8a b7 29 bf 60 07 f3 bf a9 ab 07 3f
       -2.0235646 -0.66295683 -1.8986626 0.5299631
0000f0 a5 b9 72 3e 0c 46 0c be e7 6f f2 bf 04 2d f8 bf
       0.2370363 -0.13698596 -1.89404 -1.9388738
000100 bc 00 02 3f ad f6 cb 3f 89 46 9a 3f c4 e3 94 be
       0.5078237 1.5934654 1.2052776 -0.2908002
000110 aa 27 0d 3f 07 6e e3 be 1a 93 90 3f c1 3a 0f 40
       0.5513865 -0.44419882 1.1294892 2.237961
000120 18 a5 fe 3f ba 21 29 3f 86 3a 11 3e ee 40 6d bd
       1.9894133 0.6606709 0.14182481 -0.05792325
000130 4a 9d 20 3f 96 56 03 40 2f ab dc 3f ab c1 e8 3f
       0.62740004 2.0521598 1.7239741 1.8184103
000140 97 de fb bd 78 21 02 40 5d 86 bc 3f 84 91 96 3e
       -0.12298315 2.0332928 1.4728504 0.29407895
000150 9b 65 3b 3f f9 d2 d9 3e ef c1 d3 be 6b c2 0c 3d
       0.7320191 0.42543772 -0.41358897 0.0343651
000160 90 17 19 3e 57 cf 85 be 70 3c 16 be 00 02 df 3f
       0.14950395 -0.2613475 -0.14671493 1.7422485
000170 04 98 1a be 10 fd 01 bf 46 2a ce bd 16 a9 ad 3f
       -0.15097052 -0.5077677 -0.10066657 1.3567226
000180 a8 d0 68 3f 50 cc 95 3e 23 9d a6 3f a7 7e 44 3e
       0.90943384 0.2925744 1.3016704 0.19188939
000190 85 1d ac 3d 7f f6 62 bd ef ae e8 bc dd 21 04 be
       0.08404068 -0.05541086 -0.028403727 -0.12903543
0001a0 07 d9 72 be 01 82 89 be 4b f1 d4 be ce b6 60 3d
       -0.23715602 -0.26856998 -0.41590342 0.054861836
0001b0 a6 c9 ad 3f ca 2b ac 3f e7 c7 c2 3f 9e c2 22 3e
       1.3577163 1.3450863 1.5217255 0.15894553
0001c0 81 ed 99 3f 3e da a7 be 3a ba d6 3f a8 55 9c be
       1.2025605 -0.32783693 1.6775582 -0.305341
0001d0 fe b2 9f 3f 58 96 2a be 7b ea e3 3e d2 5b 2d bd
       1.2476499 -0.16658914 0.44514832 -0.042323895
0001e0 31 62 d3 3f 16 a2 26 3f 9e 72 26 40 64 46 eb bb
       1.6514341 0.65091074 2.6007457 -0.007180022
0001f0 d8 60 b9 be 35 29 4d be 43 16 b9 3f f9 dd fe 3f
       -0.36206698 -0.2003525 1.4459919 1.9911491
000200 2c 17 e0 be f1 eb 41 bf 23 a2 aa be b6 ca 6e 3d
       -0.4376768 -0.75750643 -0.33326825 0.05829879
000210 33 f6 97 be ba 67 4a 3e 7b 13 cd be 75 79 c5 be
       -0.29680023 0.19766131 -0.40053925 -0.38569227
000220 f8 3a 26 bf 39 dc aa be 87 5f 85 be be 52 0d be
       -0.6493373 -0.33371142 -0.26049444 -0.13801095
000230 f1 95 17 be df 7d b2 be c0 2a 02 bf fa 4e 1e bf
       -0.14803292 -0.34861657 -0.5084648 -0.6183926
000240 c4 66 87 be e0 87 0e bf ef e6 10 bf 65 6b c2 be
       -0.2644559 -0.5567608 -0.56602377 -0.3797256
000250 05 b0 84 be 06 d2 ed be 61 a4 30 3e 32 15 23 bb
       -0.25915542 -0.46449298 0.17250206 -0.002488446
000260 32 de 75 be 98 31 53 3d 2a d7 2f 3c 8c 11 08 bf
       -0.24010542 0.05156097 0.010732451 -0.53151774
000270 81 24 ee 3d 30 1d 21 3e b1 5a b3 be b3 90 0c bf
       0.11628056 0.1573379 -0.3503013 -0.54908293
000280 da ab fc be c3 1b b5 be 14 9f f6 be 33 0b 70 be
       -0.49349862 -0.35372743 -0.48168242 -0.23441772
000290 bc 17 39 be 5c ba 9a be 10 76 0c bd 3e 4b 91 bd
       -0.1807546 -0.30220306 -0.03429228 -0.070944294
0002a0 b8 f0 93 3c a5 e2 a3 3e 4a 2c 2b 3e f7 fc e3 be
       0.01805912 0.32008854 0.16716114 -0.44528934
0002b0 ba 4d cd be 19 de e7 be 9b d5 1d bf c3 07 90 bd
       -0.40098363 -0.45286635 -0.6165406 -0.070327304
0002c0 a4 a6 e8 be 3f a2 f0 3d db a9 f4 be c7 42 8c 3e
       -0.45439637 0.11749696 -0.4778584 0.27394697
0002d0 24 e7 e9 be 30 05 ba bd 25 85 34 bf 1d eb b3 bd
       -0.4568416 -0.09083021 -0.7051566 -0.08785079
0002e0 82 a2 cb be 43 6d cf be 9a c5 1c bf 16 3d 3e bc
       -0.3977242 -0.40513048 -0.61239016 -0.011611244
0002f0 32 4b 93 3e 19 77 29 be 60 66 0b bf 69 13 d0 be
       0.28768307 -0.16549338 -0.54453087 -0.4063981
000300 82 4b e8 be fb 1c 7a bf 75 01 22 bf ea f3 9d 3b
       -0.45370108 -0.9770047 -0.63283473 0.0048203366
000310 fb 32 a0 be 33 46 2a 3e 08 99 17 bf f4 98 27 bf
       -0.31288895 0.16628341 -0.5921788 -0.6546776
000320 14 60 67 bf 6c 99 0e bf 90 e1 ec be 37 82 49 bd
       -0.9038098 -0.55702853 -0.4626584 -0.04919645
000330 fc f0 c5 be f3 8f 3b bf af e4 55 bf 49 86 59 bf
       -0.3866042 -0.73266524 -0.8355207 -0.8497053
000340 d7 c4 2c be 90 7c 72 bf ba 97 31 bf ea 0b 9c be
       -0.16871963 -0.9472132 -0.6937214 -0.3047784
000350 9a db 03 bf 8c e5 c7 be 45 75 b0 3e 8c 1a 05 bd
       -0.5150696 -0.39042318 0.3446447 -0.03249602
000360 8b 54 38 be 4c 0f 83 3d f8 e9 89 3d 76 98 0e bf
       -0.18001 0.06399402 0.06734079 -0.55701387
000370 70 31 26 3e 12 51 8a 3e b7 13 71 be 15 77 3a bf
       0.16229796 0.27014977 -0.23542677 -0.72837955
000380 48 fa 1e bf 8c 4a 6b be 98 d0 19 bf 93 02 bf be
       -0.6210065 -0.22977656 -0.60083914 -0.3730665
000390 91 7f 81 be e8 9e 8a be 44 f3 55 3c 7c 5d f7 bd
       -0.25292638 -0.2707436 0.013058487 -0.120783776
0003a0 ba 49 c5 bd a4 82 00 3e a2 a3 77 3e 4b 07 02 bf
       -0.09633203 0.12549835 0.24183515 -0.5079238
0003b0 e2 94 0c bf f3 4b 25 bf 0c 8d 34 bf 11 93 51 bd
       -0.5491468 -0.64569014 -0.7052772 -0.051165644
0003c0 a0 ad 08 bf df e1 9e 3e 1f 4d 5a bf c7 bd 8f 3e
       -0.5338993 0.310317 -0.8527393 0.28074476
0003d0 c1 3b 22 bf 92 36 27 bd 09 55 05 bf 0b 1e 7b 3c
       -0.6337243 -0.040823527 -0.5208288 0.015326987
0003e0 21 84 27 bf fa b6 b1 be ec 40 56 bf ec 4d bf 3d
       -0.6543599 -0.34709913 -0.8369281 0.09341034
0003f0 e4 97 98 3e ae 57 74 bd 6a 73 22 bf 89 f2 5e bf
       0.29803383 -0.05965393 -0.6345736 -0.8708883

convs.1.linear1.bias f4 [64]
000000 4c 0d 42 be 87 95 2b 3f 80 d4 8b be b6 02 ab be
       -0.18950385 0.67025036 -0.27310562 -0.33400506
000010 9f 48 46 3f 39 49 15 3f c3 5a b6 ba 82 09 c5 3e
       0.7745456 0.58314854 -0.0013912547 0.38483816
000020 3e 9f 3c 3f e4 db 0b 3b 3d e5 03 3f a2 bb 14 3e
       0.73680484 0.0021340782 0.51521665 0.14524701
000030 9d a1 0a 3f c9 ed 97 3e bb 52 04 3f a2 5e 30 3f
       0.5415285 0.29673603 0.51688737 0.688944
000040 16 ab 44 be f7 69 23 3f c7 a9 c1 be 1f 17 de be
       -0.19205889 0.63833565 -0.37824842 -0.43377015
000050 d8 39 0d bf a8 49 50 3e 07 b5 00 bf 23 09 c8 3d
       -0.5516639 0.20340598 -0.50276226 0.09767368
000060 ad 29 ff 3d 64 42 f3 3e 9b e7 26 3e 0f 91 0c 3f
       0.12459121 0.4751159 0.16299288 0.5490884
000070 5e 86 cc 3d 42 d8 97 3e 74 76 d9 3d f6 63 b7 be
       0.09986566 0.2965718 0.10618296 -0.35818452
000080 53 c7 9a 3e 60 88 c3 3d e0 98 d6 3e 2a 99 88 be
       0.30230197 0.09547496 0.4191351 -0.26679355
000090 87 a9 30 3f 59 f0 26 3f 78 9c e2 3d 9c 7c 3c bf
       0.6900868 0.6521049 0.11065 -0.7362764
0000a0 66 cb 1c 3c 6f 2e e9 3e 2a d2 f1 3d 6a 5a b0 3b
       0.009569978 0.4554324 0.11807664 0.005381872
0000b0 ba 64 16 bf bb b6 47 3f 25 b6 98 3d 12 5a bb be
       -0.58747447 0.780132 0.07456616 -0.36592156
0000c0 7a 98 20 be 50 2e d5 3e 8d 34 bf 3e 79 82 1b 3f
       -0.15683165 0.41636896 0.3734478 0.6074596
0000d0 3f 5f 42 3f a3 a3 8b 3d 28 b3 3c bf 76 fc b2 3e
       0.75926584 0.068183206 -0.7371087 0.34958237
0000e0 11 3e f4 3e 02 bb 94 bb 84 85 5d 3d 21 57 1c 3f
       0.47703603 -0.0045388946 0.05408241 0.6107045
0000f0 1e 11 11 bf 4c c4 1c 3f a2 36 f8 bd 11 3b 39 3d
       -0.56666744 0.61237025 -0.121197954 0.045222346

convs.1.linear2.weight f4 [64, 64]
000000 82 97 5c be 4e b4 f4 3e 04 d4 4d bd 5c 96 c7 be
       -0.2154217 0.47793812 -0.050251022 -0.38981903
000010 6e aa 5f 3f a8 8d 6a 3f 63 c2 cc 3d fc a3 0f 3f
       0.8736943 0.916224 0.09998014 0.56109595
000020 f0 2b 46 3f 03 56 27 3e 63 79 fb 3e b3 cf 91 3e
       0.77410793 0.16341405 0.49116048 0.28478774
000030 08 8c 0e 3f 7f 86 13 3f 7a 23 74 3f 73 01 0f 3f
       0.5568242 0.576271 0.9536663 0.55861586
000040 9a 01 8b be fb 18 3b 3f be 27 36 be 94 8c 24 bf
       -0.2714966 0.7308499 -0.17788598 -0.64277005
000050 4a 25 04 bf e9 07 07 3d 81 7a 0a bf ac 65 41 3e
       -0.516194 0.032966528 -0.54093176 0.18886441
000060 fe 7e 9d 3d 1f 92 43 3f ce 4a a2 3e a7 ec 64 3f
       0.076902375 0.7639484 0.31697696 0.894236
000070 91 c0 0e bd b1 c4 b0 3e 2d 41 72 bb 61 0b c4 be
       -0.034851614 0.34525064 -0.0036965117 -0.3828993
000080 66 6a 0c 3f 69 dd 15 3e 8b 16 3a 3f cf c2 67 bd
       0.5484985 0.14635243 0.7269065 -0.05658227
000090 6b 2a 2d 3f 0c 3c 12 3f 80 58 05 3e 52 71 7d bf
       0.6764285 0.57122874 0.13022041 -0.9900104
0000a0 37 13 e5 3e 48 3e 2d 3f 41 a4 90 3e 70 24 bd 3e
       0.44741222 0.6767316 0.28250316 0.36941862
0000b0 07 1b 4b bf a3 56 93 3f 99 ae 75 3e a3 3a cd be
       -0.79338115 1.1510814 0.23992385 -0.400838
0000c0 1a 3a b3 be b0 37 59 3f f8 9e 80 3f df ef 49 3f
       -0.35005265 0.848506 1.0048513 0.7888164
0000d0 76 de 57 3f a1 64 e0 3d 21 f8 42 bf 7f 37 b2 3f
       0.84323823 0.109566934 -0.76159865 1.3923186
0000e0 0f 4a ab 3e d1 82 3c be 88 bc 81 be c4 1a 4b 3f
       0.3345494 -0.18409277 -0.2533915 0.79337716
0000f0 e6 15 05 bf 79 d6 1a 3f dc 99 0b 3e 0b ac 9d 3d
       -0.5198654 0.6048351 0.13632911 0.0769883
000100 45 30 6d be 31 95 ef 3e 28 e7 ba be 94 c1 04 bf
       -0.23162945 0.46793512 -0.36504483 -0.51857877
000110 0a ab 2a 3f 89 b6 6d 3f ec 31 49 bd e5 96 22 3f
       0.66667235 0.9285665 -0.049119875 0.63511497
000120 fc c7 1d 3f d7 67 03 be 47 6b 05 3f 79 52 ce 3e
       0.61633277 -0.1283258 0.5211682 0.40297297
000130 41 71 19 3f d2 27 0d 3f 14 ee 4a 3f fc b7 15 3f
       0.59938437 0.55138886 0.7926953 0.5848386
000140 23 d3 a0 be 41 1a 4d 3f 86 0c 00 bf 89 28 26 bf
       -0.31411085 0.80118185 -0.5001911 -0.649056
000150 77 d6 eb be 0f 63 4a 3e 1f fb 24 bf 60 82 5b 3e
       -0.4606206 0.1976435 -0.6444568 0.21436453
000160 2a 85 38 3e 72 32 0f 3f 11 fb 93 3d 88 1c 67 3f
       0.18019548 0.5593635 0.072256215 0.9027791
000170 77 f0 46 bc 98 cf cf 3e 86 4d 6b 3d 1e 1e bb be
       -0.012142292 0.4058807 0.05744698 -0.36546415
000180 c1 eb 1a 3f 7d d4 97 3d ce 74 51 3f 35 3b f0 be
       0.6051598 0.07413576 0.81818855 -0.4692017
000190 1c 79 23 3f 17 bb 04 3f 30 7e 59 3e d3 cc 8a bf
       0.63856673 0.51847976 0.21239543 -1.0843757
0001a0 d1 67 9e bd a2 c1 24 3f 09 eb fc 3d 05 8a 08 3e
       -0.07734645 0.6435796 0.12349517 0.133339
0001b0 5c 64 3b bf 13 0d 4a 3f 60 8b 95 3e ad 02 06 bf
       -0.7320001 0.789262 0.29207897 -0.5234783
0001c0 35 d9 70 be d8 c4 51 3f 3d 94 64 3f a3 9c 55 3f
       -0.23520358 0.81940985 0.89288694 0.83442134
0001d0 b3 7f 40 3f bd fc e2 3b 1c 7a 4e bf 45 76 64 3f
       0.75194854 0.0069271014 -0.80655074 0.89242965
0001e0 2a cd 8f 3e ee d6 0a be 42 9e 1a 3e 56 3a 32 3f
       0.28086215 -0.13558552 0.15099433 0.69620264
0001f0 9c 75 01 bf db f5 f1 3e 17 09 00 be 7c aa 7e 3c
       -0.5057008 0.47257885 -0.12503468 0.015543576
000200 8a 7c 23 be f4 3d bf 3e 8f 08 d6 bd c4 e7 ae be
       -0.15965477 0.37351954 -0.10450851 -0.34161198
000210 00 a0 63 3f 7f 1f 64 3f a7 71 0f 3d 6f d0 00 3f
       0.88916016 0.8911056 0.035020497 0.50318044
000220 83 62 18 3f c3 a8 71 3d 8f 5d 0f 3f ee 03 09 3e
       0.59525317 0.058998834 0.56002134 0.13380405
000230 3c 68 26 3f 3b 75 09 3f b7 c4 67 3f 44 0f 1c 3f
       0.650028 0.53694504 0.9053454 0.60960793
000240 a5 7c 88 be 38 80 56 3f 83 95 88 be 02 fa 04 bf
       -0.26657596 0.83789396 -0.26676568 -0.5194398
000250 7a 5e be be 84 9c 86 3d bc 2f 04 bf 03 b7 3e 3e
       -0.37181455 0.06572822 -0.51635337 0.18624501
000260 3f f8 4e 3e c8 92 18 3f 31 19 a6 3e 8b 58 46 3f
       0.20211886 0.5959897 0.32441095 0.77478856
000270 5a 39 4d 3e 7c c2 ce 3e c8 ef 37 3d 51 38 5e be
       0.20041409 0.40382755 0.044906408 -0.2170117
000280 ba 69 f5 3e 66 04 8f 3e 54 b2 37 3f da b3 f1 bd
       0.47932225 0.27933043 0.7175648 -0.11801882
000290 4d ce 40 3f 91 30 f5 3e fd 2c 6b 3e 9c 41 4b bf
       0.7531479 0.47888616 0.2296638 -0.79396987
0002a0 3d 74 93 3e d3 74 37 3f d2 2d 72 3e dc 67 3c 3e
       0.2879962 0.71662635 0.23650292 0.18398994
0002b0 d5 80 14 bf bf 87 8b 3f b4 28 3d 3e 8b 4e 27 be
       -0.5800908 1.0900801 0.18472558 -0.16338556
0002c0 47 dd 80 be 83 38 57 3f 7f 06 8c 3f 7f 97 42 3f
       -0.2516882 0.84070605 1.0939482 0.76012415
0002d0 79 5e 1d 3f aa ff 36 3e bc 4c 2e bf f8 a6 a4 3f
       0.6147228 0.17870966 -0.6808584 1.2863455
0002e0 38 32 b7 3e c7 e7 69 be a3 53 ea bd 8f 8e 32 3f
       0.357805 -0.22842322 -0.11441734 0.6974878
0002f0 a9 2a e5 be 89 35 2a 3f 48 55 dc 3d 64 60 6d 3d
       -0.4475911 0.6648794 0.107584536 0.057953253
000300 f7 9d a2 3e da 8f 10 bf 1c 4e 94 3e bc 14 1a 3e
       0.31761143 -0.564695 0.28965843 0.15046972
000310 93 83 51 bf 3f 92 85 bf 38 21 37 3e 96 1b 1b bf
       -0.8184139 -1.0435256 0.17883766 -0.6058897
000320 6f 44 22 bf e8 15 dd bd 7f 01 24 bf 1d b1 8d be
       -0.6338567 -0.10795194 -0.6406478 -0.2767419
000330 d7 49 21 bf 46 6c cf be ab 58 3e bf e7 1c d2 be
       -0.63003296 -0.40512294 -0.74354047 -0.41037676
000340 98 20 6d 3e ab 3c 2a bf bf 06 b6 3e 35 c8 9a 3e
       0.23156965 -0.6649882 0.35552022 0.3023087
000350 91 44 da 3e e4 d7 e4 3c 51 03 02 3f bb 4d e3 bd
       0.42630437 0.027934976 0.5078631 -0.1109881
000360 0a 11 24 be 14 fc 0e bf b0 07 23 3e 3d 66 77 bf
       -0.16022125 -0.5585339 0.15920901 -0.9664038
000370 98 c4 b1 bd 67 68 bd be b1 8c 10 be ef ba 94 3e
       -0.086800754 -0.36993715 -0.1411617 0.2904887
000380 13 ed a5 be ed 41 09 be 54 c3 25 bf cb b9 26 bd
       -0.32407436 -0.13404055 -0.6475117 -0.04070453
000390 8e e0 00 bf bd b6 27 bf 62 02 48 be 0f 60 e1 3e
       -0.50342643 -0.6551321 -0.19532159 0.440186
0003a0 ca 1a 7a be c4 e3 14 bf 1c 5e 58 be c9 db ed bc
       -0.24424282 -0.5816004 -0.2112965 -0.029035466
0003b0 b2 b4 14 3f 26 68 52 bf 06 41 ac bc 55 69 94 3e
       0.5808822 -0.8219017 -0.0210271 0.28986612
0003c0 c6 db 10 3b 64 e2 53 bf c7 18 49 bf 21 2e 49 bf
       0.0022103651 -0.8276732 -0.7855343 -0.7858601
0003d0 e8 6c 64 bf da 64 c6 bc 3b 9d 48 3f 7e 0a 2e bf
       -0.8922868 -0.024218012 0.78364915 -0.6798476
0003e0 bf ff be be a4 78 c8 bb db 1e 25 3e c5 24 41 bf
       -0.37304494 -0.006117897 0.16125052 -0.7544673
0003f0 ce e5 d5 3e fe ad 06 bf 3f 3f a7 bc a9 88 b1 bb
       0.4177689 -0.5260924 -0.0204159 -0.0054179025

convs.1.linear2.bias f4 [64]
000000 e1 04 b1 3e 9d c8 99 3e 70 49 89 3e 8e e0 79 be
       0.34574035 0.30035868 0.2681384 -0.24402067
000010 9a 46 cb 3c d9 e3 88 3e 87 86 20 be 1f 04 1c be
       0.024813939 0.26736334 -0.15676318 -0.15235947
000020 8e 5e 28 be 9d dd b2 3e e3 ee f5 3d d8 4b 7d 3d
       -0.1644232 0.34934703 0.12008455 0.06183991
000030 93 3d 4f bd 00 c2 96 be 3e fb 08 3e 13 22 05 3d
       -0.05059583 -0.29444885 0.13377091 0.0325032
000040 2b b4 8c 3d e3 9a 0d be 10 98 55 3e 0e b0 d0 3e
       0.06870302 -0.13828616 0.20858788 0.4075932
000050 7c eb a0 be 22 0b 3f 3d df db a2 3e ca 57 c5 3d
       -0.3142966 0.046641476 0.31808373 0.09635885
000060 c6 18 a7 bd f3 a8 40 be 61 0a 99 3e d8 e6 f0 bd
       -0.08159022 -0.18814449 0.2989073 -0.1176278
000070 98 7e 1c be 94 bd 7e 3e be 86 c7 3e bb eb 3c be
       -0.15282667 0.24877006 0.38969988 -0.18449299
000080 f7 b4 a9 3e f3 a2 0a be ef ca 43 bd a1 07 64 3e
       0.33145878 -0.13538723 -0.047800954 0.22268535
000090 9f a2 41 be 57 cd a3 bb 74 27 d8 bd 42 8a 43 be
       -0.18909691 -0.0049988437 -0.105544 -0.1909571
0000a0 1c 83 b5 3e 65 a9 97 be 68 38 81 3d 65 62 47 be
       0.3545159 -0.29621425 0.06309587 -0.19471128
0000b0 d2 c4 86 bd 15 5f 4b 3e d3 b1 a9 3e 26 9e 8a 3e
       -0.06580509 0.1986049 0.33143482 0.27073783
0000c0 e6 42 c2 3e 0f b0 0c be bb 24 a2 3e 67 00 a6 3e
       0.37941664 -0.13739036 0.31668648 0.32422182
0000d0 22 af a7 3e 4d 85 99 3e ff 03 ac 3e 6a b6 93 be
       0.32750803 0.29984513 0.335968 -0.28850108
0000e0 58 67 83 be 09 79 e9 3e 4c ae 80 be 67 7a 16 3e
       -0.25664783 0.45600155 -0.25132978 0.1469513
0000f0 eb 5a 1c be 36 cb ea bc 96 59 32 be ef e0 44 3e
       -0.15269057 -0.028661352 -0.17416987 0.1922643
