Saved_Models/TSP_100/scatgnn_layer_2_hid_64_model_240_temp_3.500.pth (torch, 153863 bytes, 24 tensors)

bn0.weight f4 [2]
000000 00 00 80 3f 00 00 80 3f
       1.0 1.0

bn0.bias f4 [2]
000000 00 00 00 00 00 00 00 00
       0.0 0.0

bn0.running_mean f4 [2]
000000 00 00 00 00 00 00 00 00
       0.0 0.0

bn0.running_var f4 [2]
000000 00 00 80 3f 00 00 80 3f
       1.0 1.0

in_proj.weight f4 [64, 2]
000000 9d f8 54 3f f6 2b fd 3e db 2e 6e bf 33 fb 30 3e
       0.83191854 0.49447602 -0.93040246 0.17283325
000010 2e 6a 87 3f eb 3b d1 be ff 0b 9f 3e ba 8d bd 3f
       1.0579278 -0.40866026 0.3106384 1.4808877
000020 6d 63 85 3e 43 c7 34 bf 73 28 07 3f b0 f5 ab 3f
       0.26052418 -0.7061655 0.52796096 1.3434353
000030 7a 3d 6e 3f 29 cd 3e 3f 80 a3 5d 3e c2 71 b6 bf
       0.93062556 0.745318 0.21644402 -1.4253466
000040 ac e4 9a 3f f3 c4 37 3e 22 90 52 bf 5f ad 66 3f
       1.2101035 0.17946224 -0.8225118 0.90108293
000050 82 c7 80 3f 37 2f ad be eb 24 85 3f 08 38 11 3f
       1.0060885 -0.33825085 1.0401891 0.5672612
000060 e2 6d 96 bf 92 57 b5 bf 8f 22 4b bf cf c9 63 3e
       -1.1752284 -1.4167349 -0.7934961 0.22244953
000070 f5 d6 34 bf 62 c6 bb bf 02 a9 6a 3f c7 12 9a bf
       -0.706405 -1.4669917 0.91664135 -1.203698
000080 69 fa 47 3f 18 25 9b 3c fe ec d8 3d a9 2d a0 3f
       0.7811647 0.018938586 0.10592078 1.2513934
000090 79 fb a8 bf b5 5a de 3d 9b f6 a0 be 60 be 8d bf
       -1.3201743 0.10857145 -0.31438145 -1.1073723
0000a0 1a 6c b1 3f c3 4e a1 3f 34 8f 97 3f 8d 41 58 3f
       1.3861115 1.2602161 1.1840577 0.8447502
0000b0 a1 b7 49 bf c1 3b 21 3f 66 a3 34 bf 01 e5 9a 3f
       -0.7879582 0.629818 -0.70561826 1.2101136
0000c0 c6 72 2c be 11 82 a3 bf 73 a5 5c 3f 0f 96 f9 3e
       -0.16840658 -1.2774068 0.86189955 0.48747298
0000d0 be ac 5b bf 84 49 af bf f4 34 9e be 5e cf 83 bf
       -0.8581046 -1.369431 -0.30899775 -1.0297658
0000e0 0c 37 73 3f 82 4e 0f be 0c ba 30 bf ab 3b 83 3f
       0.9500587 -0.13994792 -0.69033885 1.0252584
0000f0 b7 a7 50 3f e6 69 8d 3f 95 30 95 3f 8c 1b a5 3e
       0.8150591 1.1047943 1.1655451 0.3224758
000100 eb f3 2a 3f 38 0f af 3f 53 9f bd 3d 71 44 85 bf
       0.6677844 1.3676519 0.09258904 -1.0411512
000110 9c 26 c0 be 96 70 7f 3f 5b 8a 80 3f 70 c9 ed be
       -0.37529457 0.9978117 1.0042223 -0.46442747
000120 0c 55 44 3f db 16 84 3e 6b 5b 34 3d d8 e2 97 bf
       0.7669227 0.25798687 0.044032495 -1.1866102
000130 e2 ec 78 3f 9b 85 45 3e e3 63 9e bf 03 1c 9a 3c
       0.97236454 0.19289248 -1.2374233 0.018812185
000140 3c 4e 5c 3f e6 e9 02 bf 12 f0 5a bf d4 11 9a bf
       0.86056876 -0.5113815 -0.8552257 -1.2036691
000150 c8 3c ed 3e 3d 98 76 bf 87 4d 97 3f 42 56 23 bf
       0.46335435 -0.9632605 1.1820534 -0.63803494
000160 88 86 9c bf 9c dc bd bd cf 88 86 bf a4 31 48 be
       -1.2228556 -0.092705935 -1.0510501 -0.19550186
000170 67 4b 1e bf eb 36 e9 3e 95 d2 b8 be f4 89 a3 3f
       -0.61833805 0.45549712 -0.3609816 1.2776475
000180 33 fd 66 3e d8 c1 85 bf d9 09 0c 3f 96 b9 82 be
       0.22557525 -1.0449781 0.54702526 -0.25532216
000190 76 8f 99 bf bf 0c 9f bf cb 17 41 bf 4e a1 1c 3f
       -1.1996906 -1.2425765 -0.7542693 0.6118363
0001a0 c9 bb 7f bf f5 33 91 3f 95 fe 3d 3f 5b de 3d bf
       -0.9989591 1.1343981 0.74216586 -0.7416741
0001b0 3e 44 6c 3f f8 43 59 bf 68 38 27 bf e1 b9 19 3f
       0.9229163 -0.8486934 -0.65320444 0.60049254
0001c0 d3 84 86 3f 7a 9a 34 bf e9 8e 8b bf c9 09 cf be
       1.0509285 -0.7054821 -1.0902988 -0.40437153
0001d0 cf f2 8c bf 0c 7f f3 be 99 e1 16 bf 1d bb 8c bf
       -1.1011599 -0.47557867 -0.58937985 -1.0994602
0001e0 9b bd ba 3e fc bc 42 bf c3 19 9d 3e 95 30 8d bf
       0.36472782 -0.7606962 0.30683717 -1.1030451
0001f0 76 57 03 bd 68 25 82 bf 88 6b 95 3f 08 5c 91 be
       -0.03206583 -1.0167665 1.1673441 -0.28390527

in_proj.bias f4 [64]
000000 1a e3 0c 3f 73 04 56 be f5 91 4e 3c ef 58 aa 3b
       0.5503403 -0.20900135 0.012608041 0.00519859
000010 fc f8 fc be c7 82 68 be d0 29 19 3d e6 e5 11 be
       -0.4940871 -0.22706138 0.03739339 -0.14247856
000020 2d f3 62 3d 1e 8e 13 3f 60 c1 ff be e3 69 ff 3e
       0.05540769 0.5763873 -0.4995222 0.49885473
000030 86 a0 df bd 90 68 26 be 64 0b 45 3e 5b 25 8a bd
       -0.10919289 -0.16250825 0.19242626 -0.06745406
000040 4d e3 fa be 97 8e 60 3c cb 52 34 3d 8a 0f 09 3f
       -0.49001542 0.013705871 0.04402427 0.53539336
000050 d6 ed b5 3b 40 63 c6 be 86 78 99 bd cd a4 b0 bd
       0.005552034 -0.38747597 -0.07493691 -0.08625183
000060 df 34 17 be d3 41 b3 be 7d 49 c0 be 95 d1 05 3f
       -0.14766262 -0.35011157 -0.37556067 0.5227292
000070 53 6a 15 bf 77 60 03 bf 0f fa 21 3f e9 03 83 bc
       -0.5836536 -0.5131907 0.63272184 -0.015993075
000080 6b e9 1f 3f 04 69 df be 76 43 1c bf b0 e2 40 be
       0.6246554 -0.43634808 -0.6104044 -0.18836474
000090 a3 25 fe 3e 75 bd d3 3c 7c ef 2f 3f 3a 73 82 be
       0.4963809 0.025847176 0.687248 -0.25478536
0000a0 e4 e0 f4 bd ca 86 7a 3e d9 c8 01 bf 0b 84 ef 3d
       -0.11956957 0.2446548 -0.50697094 0.11695107
0000b0 c9 10 f8 3d fb 9f 15 3f ed 6c 07 3c cb fe 81 3e
       0.121125765 0.58447236 0.008265716 0.25389704
0000c0 89 04 bb bd da ad d3 3e 08 55 b7 be 17 28 92 3e
       -0.091317244 0.41343576 -0.3580706 0.2854621
0000d0 86 42 c6 be ad 82 98 3e 5c 50 11 bf c1 4a 86 be
       -0.38722628 0.29787198 -0.56763244 -0.26228908
0000e0 05 61 b3 bd 95 c7 06 3f bc c1 ef be 23 d1 01 3f
       -0.087587394 0.5264829 -0.46827495 0.5070974
0000f0 e1 37 b0 3e 02 6d 01 3f e2 d8 fb be 46 ec 11 bf
       0.34417632 0.5055696 -0.49188906 -0.5700115

convs.0.a f4 [128, 1]
000000 79 aa 4d bd 63 67 ff 3c 58 af e6 bc a7 81 a7 3b
       -0.050211404 0.031177228 -0.028159782 0.0051118913
000010 34 fd 02 b8 2d ae 86 bc b7 77 57 bd 6b 28 1e bd
       -3.123023e-05 -0.016440475 -0.052604403 -0.038612764
000020 b4 1a 42 bd ee b8 8a 3c 84 0e 86 bb de b1 8f bd
       -0.047388747 0.016933884 -0.004091086 -0.07016347
000030 c9 c0 d2 bc 5d 93 00 3d 8a ab 4f bd 61 22 df bc
       -0.025726693 0.031390537 -0.0507007 -0.027238073
000040 00 00 00 00 f7 d8 be 3b 05 46 0e 3d 41 e8 d2 bc
       0.0 0.005824204 0.034734745 -0.025745513
000050 c0 8c 33 bd f7 af f4 bb a2 b1 49 3d bb 06 20 3d
       -0.0438354 -0.0074672657 0.04924167 0.03906892
000060 12 22 d8 bc 51 be c3 3b 83 18 c0 bc de 3b 0e bd
       -0.026383433 0.005973615 -0.023449188 -0.034725063
000070 1d b5 74 b7 7c c4 55 3c 9e e2 12 bd 3b 1c 14 bd
       -1.4585702e-05 0.013047334 -0.03586065 -0.036159735
000080 18 0c 0f bd 7c c0 e0 bb f3 e3 07 3a 5b 4f 84 bc
       -0.034923643 -0.0068588834 0.00051838084 -0.01615112
000090 27 b2 52 bd 43 79 19 bd 01 13 24 bd 68 a4 11 3d
       -0.05143943 -0.03746916 -0.040057186 0.03555718
0000a0 24 fe 74 bc 6d 56 d8 bc d8 de a6 bb 6f cc 39 bd
       -0.01495317 -0.026408399 -0.005092483 -0.04536098
0000b0 c3 64 08 3d 6b d4 35 3c 13 65 27 3d f1 76 91 3c
       0.03329922 0.011098008 0.040867876 0.017756911
0000c0 0c d5 0c bd 49 0c 95 bd 60 b4 9a bc c1 9a 23 3d
       -0.034382865 -0.07277734 -0.018884838 0.039942507
0000d0 53 51 11 3d ca 6f 95 bd 67 d9 f7 bb 70 c5 bf 3c
       0.035477947 -0.07296713 -0.007563758 0.023409575
0000e0 f9 00 aa bc b0 bf a0 bb 57 d9 0e 3c f5 a5 01 bd
       -0.020752417 -0.0049056634 0.00871881 -0.03165241
0000f0 4c a0 46 bd 3c 50 69 bd ea 0e 53 ba d9 d7 81 bb
       -0.048492715 -0.056961283 -0.00080512336 -0.0039624986
000100 cd c4 9d be e8 39 1e 3f 84 12 1f 3f 9d a4 16 3f
       -0.3081421 0.6180711 0.6213763 0.5884493
000110 1d 23 24 3f 72 14 41 3f 75 59 77 3e aa a8 1f 3f
       0.6411608 0.7542182 0.24155219 0.62366736
000120 bb e6 e4 3e e8 a0 9a be f6 19 2d 3f 3b 29 83 be
       0.44707283 -0.30200887 0.6761774 -0.25617394
000130 b0 53 52 3f 27 d5 28 3f cb 16 b4 3d e4 f9 1f 3f
       0.82158947 0.65950245 0.0879341 0.6249068
000140 00 b0 25 3f 11 91 e4 3e be f5 04 3f 52 d1 90 be
       0.6472168 0.44641927 0.5193747 -0.282847
000150 bb 14 d6 3e 66 b9 48 3f b1 a4 27 3f 46 d0 26 3f
       0.4181269 0.78407896 0.65485674 0.6516155
000160 5f 08 20 3f e9 2d 30 3f 38 18 42 3f 8a 6a 89 be
       0.62512773 0.68820053 0.75818205 -0.26839095
000170 4a 2e 24 3f e3 ab 1f 3f 5c a9 82 be cf 97 22 3f
       0.6413313 0.62371653 -0.25519836 0.6351289
000180 da b6 56 be f0 8e 1c 3f 88 cd 1b 3f a6 73 29 3f
       -0.2096819 0.61155605 0.6086049 0.6619209
000190 1d d7 a7 be 8e f4 1b 3f 30 60 aa be c6 1e 22 3f
       -0.32781306 0.60920036 -0.3327651 0.63328207
0001a0 13 8e 23 3f 3a a4 8a bc 33 b1 26 3f 04 ad fa 3e
       0.63888663 -0.016924012 0.65114135 0.48960125
0001b0 f9 b1 b6 3e fe 38 98 be cc af 15 3f 5b c0 01 bd
       0.35682657 -0.29730982 0.5847137 -0.031677585
0001c0 db 0a 20 3f f5 b0 ba be 53 8d 5e 3f c2 d2 63 be
       0.62516564 -0.36463133 0.86934394 -0.22248366
0001d0 7b 4a 21 3f d4 15 5d be 28 48 1b 3f 62 8b 2e 3f
       0.63004273 -0.21590358 0.60656977 0.6818143
0001e0 b4 b5 26 3f 55 0f 81 be 17 aa 21 3f f3 ca 6b be
       0.65121007 -0.2520701 0.6315016 -0.23026638
0001f0 7c 1e 95 be e1 1d 9b be d9 2a 1b 3f 5e 55 2e 3f
       -0.2912482 -0.30296233 0.60612255 0.6809901

convs.0.linear1.weight f4 [64, 64]
000000 77 9d 4c 3e 42 0c bc 3e 05 38 a6 3e 84 95 01 3f
       0.19981943 0.36728102 0.32464615 0.5061877
000010 8f f2 f4 3e 3e 34 ed 3e 69 33 06 3e e0 45 fc 3e
       0.47841308 0.4632892 0.13105549 0.4927206
000020 8a 54 e8 3e e2 91 de 3e 4c b6 f7 3e e1 cb 72 3e
       0.45376998 0.43470675 0.4838127 0.23710586
000030 1d 25 59 3e 8a 80 8c 3e 62 8a 6c 3e 51 88 ff 3e
       0.21205564 0.27441818 0.23099664 0.4990869
000040 6b 20 99 3e 7d 8c f1 3e ea 57 6b 3e 99 dd 26 3e
       0.29907545 0.47177497 0.22982755 0.1629547
000050 ca 5c 28 3e 8b 3e a5 3e 49 4e cf 3e 59 da e0 3e
       0.16441646 0.3227428 0.40489414 0.43916586
000060 7d 1c 00 3f 2f dd ed 3e 0d e1 20 3e 42 7f 2c 3e
       0.5004347 0.46457812 0.1571085 0.1684542
000070 9d 1a d6 3e 50 a2 ac 3e d2 1a dd 3c b0 07 0d 3f
       0.4181718 0.33717585 0.026990328 0.55089855
000080 be 80 df 3d 50 39 f0 3e 79 a5 08 3f fe ce f6 3e
       0.109132275 0.46918726 0.5337749 0.48204798
000090 b8 69 63 3e 7a d2 eb 3e 7d cc 13 3e 03 af e7 3e
       0.22208297 0.46059018 0.14433475 0.4525071
0000a0 6b 49 e5 3e 01 2f 14 3e c6 82 e4 3e 07 25 76 3e
       0.44782576 0.14471056 0.44631022 0.24037562
0000b0 00 bf af 3e 1c 05 03 3e 62 a5 ed 3e f7 14 fa 3e
       0.3432541 0.12794918 0.4641524 0.4884412
0000c0 95 19 c6 3e 52 eb 3e 3e 3b 78 84 3e 94 6c cc 3e
       0.38691393 0.18644455 0.2587298 0.3992659
0000d0 3d a7 b8 3e 10 69 c0 3e 81 e2 65 3e 27 b3 c1 3e
       0.36065093 0.37580156 0.22449686 0.37831995
0000e0 24 d8 a6 3e 9d 42 78 3e 43 b6 cc 3e 9d 8d 93 3e
       0.32586777 0.24244161 0.39982805 0.2881898
0000f0 68 da 05 3f 64 12 d9 3e 64 89 d5 3e 90 4d b5 3e
       0.52286386 0.42396843 0.41706383 0.35410738
000100 d4 40 03 3d ee bf f3 bd 8f c6 00 bf 6d a4 8a 3d
       0.032044247 -0.11901842 -0.50302976 0.06769643
000110 13 42 93 be 5c f8 f2 bd 3c 68 08 3e c5 01 5b be
       -0.28761348 -0.11863777 0.13321012 -0.21387394
000120 d4 d9 8f 3b bf 73 ca be 45 2f 0a bf d6 f5 5f 3e
       0.004389981 -0.39541432 -0.5397838 0.21871123
000130 c1 4c 6e bc 18 cb bf be e3 c0 a1 bd da 91 16 bf
       -0.014544667 -0.37459636 -0.07898118 -0.588163
000140 19 ee fa bc e0 90 d6 bd 36 0d 13 3b f1 c4 1e bd
       -0.030631112 -0.104768515 0.0022438294 -0.038762037
000150 d8 f6 53 bd ca 82 f2 3d d0 58 26 bf 59 44 d8 be
       -0.05174908 0.11841352 -0.6497927 -0.42239645
000160 a4 8c f3 3c d4 35 c3 3c 7d 50 97 3d d5 f1 c8 3d
       0.029730149 0.023829378 0.07388399 0.09811751
000170 84 61 4d be ce f2 12 bf b5 75 c2 3d a8 a3 73 bd
       -0.2005673 -0.5740174 0.09495107 -0.059482247
000180 db 85 8c bc f6 a2 70 be d2 d3 e3 be f0 39 01 bf
       -0.017153671 -0.23499665 -0.44497544 -0.5047903
000190 bb df e4 3d 72 c7 1f be bd 82 bc bc 38 c8 77 be
       0.11175486 -0.15603426 -0.02301156 -0.24197471
0001a0 71 16 23 bf 3e 72 81 ba 0c 78 1f bf fb 45 00 bf
       -0.6370612 -0.0009875966 -0.6229255 -0.5010678
0001b0 60 83 9d 3c 8f 13 0e bd 49 82 fb be 53 50 4b bd
       0.019227684 -0.03468662 -0.49122837 -0.04963715
0001c0 ab 10 81 be e1 e0 a0 bd e6 1b ab 3c ce 29 51 be
       -0.2520803 -0.07855392 0.020887326 -0.20426103
0001d0 8c a1 09 bf cc fc 6b be 4a 63 08 bf e7 64 1a bf
       -0.53762126 -0.23045653 -0.53276503 -0.60310215
0001e0 94 44 13 bf c3 90 a4 3c 55 af 2e 3e 26 9c 86 3d
       -0.57526517 0.020088559 0.17059071 0.06572752
0001f0 58 93 43 be 60 6f 6e be e9 d0 9b bd 6f 6a e6 be
       -0.19099176 -0.23284674 -0.07608206 -0.45003077
000200 d0 96 22 be 76 99 a6 bd dd c0 6c be 1e 5e 5f be
       -0.15877843 -0.08134739 -0.23120447 -0.21813247
000210 41 dd 43 be 77 f6 8a be c5 96 17 be 0b 2f 04 be
       -0.1912737 -0.27141163 -0.14803608 -0.1290857
000220 7f 38 4f be c6 1c c3 bd a7 78 85 be 07 f4 53 be
       -0.20236395 -0.095269725 -0.26068613 -0.20698558
000230 b0 63 37 bd 47 41 80 be d7 fd fe bc fc 1d 23 be
       -0.044772804 -0.25049803 -0.0311269 -0.15929407
000240 0b 9e 79 be 87 b3 2c be 61 ce 93 bd 1d 70 35 be
       -0.24376695 -0.16865359 -0.07217098 -0.17718549
000250 22 32 76 be ef d2 8b be a0 eb bf bd ed 17 a8 bd
       -0.24042562 -0.27309367 -0.09371114 -0.082076885
000260 d5 33 80 be 2c 94 8c be de 5e da bd 87 ad 48 bc
       -0.25039545 -0.27456796 -0.10662626 -0.012248403
000270 d6 26 d3 bd ca 38 2d bd 34 aa 56 be 80 0c 76 be
       -0.10310142 -0.042290486 -0.20963365 -0.24028206
000280 1b 05 4c bd 8d ae 8d be a1 0d 5a be 00 eb 60 be
       -0.049809556 -0.27672234 -0.21294262 -0.21964645
000290 52 84 80 bd 4b c3 db bd e1 62 f1 3c a7 70 33 be
       -0.06275238 -0.107306086 0.029466094 -0.17523442
0002a0 c8 7d e2 bc d0 de 6c be 99 a6 5c be b6 b0 23 3c
       -0.027647868 -0.23131871 -0.21547927 0.009990862
0002b0 4a e2 0b be bf 90 d7 3c 4a 54 23 3d 2d 17 d6 3c
       -0.13660541 0.026314138 0.039875306 0.026134098
0002c0 95 4a 1a be e1 fd 85 bd 51 aa 26 be bc 12 54 3d
       -0.15067513 -0.06542564 -0.16275908 0.05177568
0002d0 69 e9 a4 bd 55 cb 90 bd 5b 89 60 3d 27 8f af 3c
       -0.08052332 -0.070700325 0.054818492 0.021430565
0002e0 bd 81 79 bd 4e 9f 42 be a8 90 81 be 19 c1 d2 bd
       -0.060914744 -0.19006082 -0.25305676 -0.10290737
0002f0 fa 1e 51 bd d5 9d 0d be 0a cd 60 be 02 cc e5 bd
       -0.051054932 -0.1382974 -0.21953216 -0.11220552
000300 ea 89 8f 3e 92 e4 8c 3e 63 38 86 3e 2e 73 80 3e
       0.28034908 0.27518135 0.26214895 0.25087875
000310 d8 5f b7 3e 68 1c 8e 3e 6c d3 77 3e e2 a3 a0 3e
       0.3581531 0.27756047 0.24201745 0.31375033
000320 97 25 f2 3e 4e 4b 6c 3e 80 56 e3 3e e5 34 8c 3e
       0.47294304 0.23075601 0.44401932 0.27384105
000330 35 7d 1b 3e 50 9d 7b 3e 17 0e 18 3e 87 b0 ba 3e
       0.15184481 0.24571729 0.14849125 0.36462805
000340 4c 1b 7e 3e 3a 34 d2 3e a1 82 a1 3e 0a 19 9b 3e
       0.248151 0.4105547 0.31544974 0.3029254
000350 d5 e7 2c 3e 1d d7 eb 3e f6 85 b4 3e 89 d7 ec 3e
       0.16885312 0.46062556 0.35258454 0.4625819
000360 f6 d4 b2 3e 4e ab 1c 3f 53 35 bd 3e ff e7 82 3e
       0.349281 0.6119889 0.36954746 0.25567624
000370 dc e5 ac 3e b7 a0 4d 3e 39 56 e4 3d 46 ce 11 3f
       0.3376912 0.20080839 0.11149258 0.56955373
000380 bf 83 5c 3e a1 06 f5 3e 8f 75 b0 3e df db 98 3e
       0.21534632 0.4785662 0.3446469 0.29855248
000390 ef e6 65 3e 61 62 71 3e 5e e3 82 3e 2d b4 99 3e
       0.22451375 0.23572685 0.25564092 0.30020276
0003a0 cc 46 c0 3e 4a 1c 06 3e 45 1e c8 3e a1 c6 85 3e
       0.37554014 0.13096729 0.39085594 0.26128104
0003b0 9b 32 aa 3e ee d6 90 3e dd a0 b7 3e 64 91 96 3e
       0.33241734 0.28288978 0.35864916 0.294078
0003c0 1b d9 b6 3e 67 19 5e 3e 14 b7 a0 3e 94 68 c8 3e
       0.35712513 0.21689378 0.31389678 0.39142287
0003d0 20 bf ba 3e d3 b4 99 3e d9 78 63 3e 37 05 bb 3e
       0.36473942 0.3002077 0.22214068 0.36527416
0003e0 c3 81 6b 3e 1b b9 8c 3e f1 02 ce 3e 24 b1 85 3e
       0.22998719 0.27484974 0.4023662 0.2611171
0003f0 b7 03 87 3e 83 f5 3d 3e e9 63 d8 3e 61 69 ec 3e
       0.26370022 0.18550687 0.42263725 0.46174148

convs.0.linear1.bias f4 [64]
000000 5c 15 cf 3d be 49 be bb 87 5a 79 3e aa 32 3b bd
       0.10111496 -0.0058071306 0.2435094 -0.045702614
000010 6b 20 31 3e 56 21 57 be 84 38 71 3d 33 20 67 be
       0.17297523 -0.2100881 0.058891788 -0.22570877
000020 5e 5e 13 3e 1e e5 9a bd 94 e4 5c 3e 28 aa 03 be
       0.14391467 -0.07563232 0.2157157 -0.12857878
000030 41 b2 5b 3e 58 50 83 3e 69 ec c2 3d 3d 04 ec bd
       0.21454717 0.25647235 0.09517748 -0.11524246
000040 c3 85 46 3e 8a 9e 0c be 72 d3 7d 3e ef 4a 43 bd
       0.19386964 -0.13732353 0.24787691 -0.047678884
000050 66 20 74 bc f6 94 8a bd 63 03 84 3d 9a ef 93 bd
       -0.0149003025 -0.06766693 0.064459585 -0.07223435
000060 e1 73 1c 3e 37 6d bc 3d ea a2 1c be 27 0d 0c bd
       0.1527858 0.092005186 -0.15296522 -0.03419223
000070 18 89 7e 3c 57 75 7c 3d 3d 2c 33 3e 92 8a 32 bd
       0.015535615 0.06163534 0.17497344 -0.043589182
000080 d5 24 53 bd 3c fb 52 3d 87 2b 74 3e c9 c6 9f bd
       -0.051548798 0.051509127 0.2384473 -0.07801587
000090 90 4d a1 bd 08 12 de bd 9a 3b ea 3d 58 37 8e 3d
       -0.07876122 -0.10843283 0.11437149 0.0694415
0000a0 a0 93 9e 3c 6c 21 74 bd f6 2e bf 3d 7a 28 24 bd
       0.019357502 -0.059602186 0.09335129 -0.040077664
0000b0 03 e2 f4 3d cd 1c 92 3c 0b fc 17 bd 3b 9f c0 bd
       0.11957171 0.017835999 -0.0371056 -0.09405371
0000c0 39 9d b3 bd d7 6e 70 3e f1 f7 61 bc 42 6b f0 bd
       -0.08770222 0.23479782 -0.013792024 -0.11739208
0000d0 fc eb d7 bd 1f 7a 5f 3e 76 1f 3d be 1f b5 8e 3e
       -0.10543057 0.21823929 -0.18469033 0.2787256
0000e0 2c d3 33 bd 6e 33 7c 3d 7f 6a b9 3d 90 cb 4f 3e
       -0.04390256 0.061572485 0.09053516 0.20292497
0000f0 24 77 2d 3d 56 87 29 3c 75 aa 61 ba 20 0c 06 bd
       0.04234995 0.010347208 -0.0008608469 -0.032726407

convs.0.linear2.weight f4 [64, 64]
000000 82 ae 87 3d 3a e1 90 3e 22 24 73 3d c0 31 55 3d
       0.066250816 0.28296834 0.05936063 0.0520494
000010 37 0e 2b bd 39 85 e2 3d 5f cb ee 3d d7 fd 50 be
       -0.041761603 0.110605665 0.11659884 -0.20409332
000020 72 83 34 bd c2 fc 97 bd 3b 96 45 be 29 64 b4 bb
       -0.04407067 -0.074212566 -0.1929559 -0.005505104
000030 78 1e 2f bd 7c 63 93 3d 8b 48 bb 3c d4 c4 f4 b9
       -0.042753667 0.071967095 0.02286174 -0.00046685955
000040 a8 80 98 39 ab 29 83 3d 3c 2d 15 bd ab 0c 78 3e
       0.00029087556 0.06404432 -0.036420092 0.24223582
000050 d5 28 7d 3d 10 39 27 bf 1e 22 23 3f 18 89 af be
       0.06180652 -0.65321445 0.63723934 -0.34284282
000060 50 05 4f be cd 75 83 3e 28 ab df bd 57 5e a0 bd
       -0.2021687 0.25675812 -0.10921317 -0.07830494
000070 6d fa dd bd 27 05 ae bc b7 4f af bd d6 a9 d4 3e
       -0.108387806 -0.021242691 -0.08560126 0.41535825
000080 2a f3 94 bd a0 45 76 3b 26 49 c0 bd 4a f8 cd bc
       -0.07272942 0.003757812 -0.09388952 -0.025142808
000090 12 19 c3 bc 0b 8f 1b bf c3 93 ec 3d ef 9c 42 bd
       -0.023815665 -0.6076514 0.11551621 -0.047512945
0000a0 3a d2 1a be 6f d6 a7 bd 9d 24 1e bf d2 9f f1 3d
       -0.15119258 -0.08195197 -0.6177462 0.117980614
0000b0 b6 22 f0 3d 4f d9 14 be 0e 52 5e 3e 74 8f 1f be
       0.117253706 -0.14536022 0.21710989 -0.15582067
0000c0 f7 18 ca be a0 66 9e bd 0a c1 12 be fe 2a 6e 3c
       -0.39472172 -0.07734418 -0.14331451 0.014536617
0000d0 3b ec 84 3d 73 15 18 bc 73 82 4a 3e dd 8f 88 3d
       0.0649037 -0.009282458 0.19776325 0.06668065
0000e0 8d c0 85 3e 00 9a eb 3b da bd f4 3e c8 cd e9 bd
       0.26123467 0.007189989 0.47801095 -0.11416203
0000f0 ca d8 4e 3d bd 87 3c be 70 02 94 bd e5 8a 40 3d
       0.050499715 -0.18411155 -0.072270274 0.04700746
000100 55 f4 11 bf ad 16 ca 3f 50 8d c2 3e 86 a4 a9 bf
       -0.57013446 1.578817 0.37998438 -1.3253334
000110 be 77 7e 3e 9b 24 9d be 18 3a e3 be 5a 00 b5 be
       0.24850366 -0.3069199 -0.4438026 -0.3535183
000120 08 8b 9d be d5 c5 d3 3e 65 6c d4 3e 26 42 5e 3e
       -0.30770135 0.4136187 0.41488948 0.21704921
000130 6e 7c d1 3d 4a 7f b3 3e 84 a4 cd be d9 1a bf 3e
       0.10228811 0.3505805 -0.40164578 0.3732517
000140 18 b8 65 3e ff b4 c1 3e cd 2a 64 3e 9d 56 a3 bf
       0.22433507 0.37833402 0.22281952 -1.2760807
000150 fd 46 84 bf af c9 47 3e f6 8e c1 be 39 86 e0 3e
       -1.0334164 0.1951053 -0.37804383 0.43852404
000160 ef 8d c3 3e fb 68 70 3e ed ab 13 be 62 27 2a 3f
       0.38194224 0.23477547 -0.14421053 0.66466343
000170 d2 77 36 bf 58 29 0f bf 61 cc 53 be 1e c1 0e bf
       -0.7127658 -0.5592246 -0.20683433 -0.55763423
000180 6a 07 fc 3e 02 ee 0c bf dc 11 c1 3e 29 fc f1 3e
       0.49224406 -0.5505067 0.37708938 0.47262695
000190 f1 e9 a8 3e e7 cd 0f 3e ee 4b e2 be 2b 53 c5 be
       0.32990983 0.1404339 -0.44198555 -0.38540015
0001a0 6d e6 8f 3f c8 05 19 3f b1 a3 80 3e 35 7a b9 bf
       1.1242195 0.59774446 0.25124887 -1.449042
0001b0 58 93 eb be aa b8 84 3f 18 cb 9b bf ac 45 04 3f
       -0.46010852 1.0368855 -1.2171354 0.5166881
0001c0 70 21 4f bf 66 aa 7e 3e 56 bd 0b 3f 22 22 88 3e
       -0.80910397 0.2486969 0.5458578 0.2658854
0001d0 ad 12 cb 3e de ed b6 3e df 77 68 be 4a 06 c8 3e
       0.39662686 0.35728353 -0.22701977 0.39067298
0001e0 27 e8 b4 bf c7 3c eb be e9 f3 dc be 6b 3d 91 3e
       -1.4133347 -0.45944807 -0.4315484 0.2836717
0001f0 56 18 53 bf 0a bc fa 3e 5e d0 2c bf 5a d2 bf bf
       -0.8245901 0.48971587 -0.67505443 -1.4986069
000200 77 09 1f bd 77 69 d0 bd 0f c3 1c bf 92 80 35 3e
       -0.038827386 -0.10176366 -0.61235136 0.17724827
000210 ae 7e 24 bf ed 45 39 3f 4b e6 98 39 08 3d b3 3d
       -0.642558 0.72372323 0.0002916328 0.08751875
000220 5a 03 f1 bd a1 76 97 bc e6 ee 83 bf 63 99 bb bb
       -0.117682174 -0.018489184 -1.0307281 -0.005725072
000230 7f d7 0b bf 8b bd 2e bf 54 4a df bd 70 d1 32 3d
       -0.54625696 -0.6825797 -0.10902849 0.043656766
000240 16 2b 08 bf be 29 bc 3c 5c 2c 2e bf f7 2e 65 3e
       -0.53190744 0.022969123 -0.6803644 0.22381197
000250 0b e5 99 3d 7f a3 23 be 40 ef 5d 3f f6 63 2a be
       0.075143896 -0.15980338 0.8669319 -0.16639695
000260 f2 db 35 bf 33 f7 02 bf cf f8 b0 3e 90 f9 e3 3d
       -0.71038735 -0.51158446 0.34564826 0.11131585
000270 3f 2c e7 3d 3e 81 e9 bd a5 2e cf bd 27 f4 01 3f
       0.11287736 -0.11401604 -0.101163186 0.5076317
000280 0d 32 8e bd c6 85 2e 3d 04 79 5b bf 63 a1 88 3c
       -0.0694314 0.042608045 -0.8573153 0.016678518
000290 fd 85 1e 3d 8c 6c 43 be 9e b1 97 bd aa 15 f8 bd
       0.038702 -0.19084376 -0.07406925 -0.12113507
0002a0 02 d4 31 be 5c 29 c2 3d 5f 28 f0 be 20 f6 1a 3e
       -0.17366031 0.09480545 -0.469058 0.15132952
0002b0 03 c1 2c 3d 61 02 a2 ba 4e 86 75 3e ba 77 23 be
       0.042176258 -0.0012360328 0.23977014 -0.15963641
0002c0 23 52 2b bd a7 9d 41 bf f2 68 4c be 42 6f ba bc
       -0.04182638 -0.75631183 -0.19961908 -0.02275813
0002d0 3d df a2 3d 5e 9a 5b bf 85 17 a8 3e fa 51 3e bf
       0.079527356 -0.8578242 0.32830444 -0.74343836
0002e0 14 92 0f 3e 87 68 96 bc 89 42 8d 3e d0 e9 eb be
       0.14020568 -0.01836039 0.27589825 -0.46076822
0002f0 8f 6e c0 bd 8f 2c 16 bd 2a 80 a0 3d aa 46 33 3e
       -0.093960874 -0.036663588 0.07836945 0.17507425
000300 bf c3 93 3e 2e 37 d8 be 35 a5 96 bd 7a 2f d7 3e
       0.2886028 -0.422296 -0.073557295 0.4202841
000310 ea 18 95 bd 36 2d ef 3d a7 06 8e 3e 0e a8 69 bc
       -0.072801426 0.11678545 0.2773945 -0.014261259
000320 54 11 74 3e 57 87 93 be aa 5e 5d be 42 8d 24 be
       0.23834735 -0.28814194 -0.21618143 -0.1606951
000330 d1 1b 36 be d3 3a 46 be ab de 92 3e 13 27 45 be
       -0.17784049 -0.19358377 0.28685507 -0.19253187
000340 2b 19 20 be 29 f4 8f bd 61 77 96 be c3 5d 07 3f
       -0.15634601 -0.07028992 -0.29387954 0.52877444
000350 68 73 b2 3e 2a 0d 65 3f ba 63 45 be e5 58 5b be
       0.34853673 0.8947321 -0.19276324 -0.2142063
000360 9b dd 50 be 2a fe ea be 4b f5 9e 3e fc 08 c9 be
       -0.20397036 -0.45897037 0.3104652 -0.39264667
000370 00 41 b7 3e 21 5f 47 3e b7 aa e0 3d 7b 10 4b 3e
       0.3579178 0.19469883 0.10970061 0.19830506
000380 26 a7 9a be ae 57 b5 3e 58 81 dc bd ad 79 07 be
       -0.3020565 0.35418457 -0.10766858 -0.1323001
000390 f0 13 a0 be 0c d4 37 3f fe ff 8e 3e 18 7a 82 3e
       -0.3126521 0.7180793 0.27929682 0.25483775
0003a0 a0 5f 8a be 86 a1 ae be 14 a7 11 3f cf cb c8 3e
       -0.2702608 -0.34107608 0.56895566 0.39217994
0003b0 62 a0 8f 3d 30 51 be be bd a0 d4 3e 1d 64 f3 bc
       0.070130125 -0.37171316 0.41528884 -0.029710824
0003c0 63 29 5e 3f fd 0a 36 be b7 e0 c6 be c0 3d 38 be
       0.867819 -0.17777629 -0.3884332 -0.17992306
0003d0 1f d7 62 be 7c c0 95 bd 4b 5d 42 be 28 4f 88 be
       -0.22152375 -0.07312104 -0.18980901 -0.2662289
0003e0 6b c7 03 3f e5 e6 09 3e 5c 4e 10 be 1f a0 98 bd
       0.5147616 0.13466986 -0.14092392 -0.07452416
0003f0 3f 01 aa 3e 1e 86 27 be 2b 23 61 3e 9d 3c e5 3e
       0.33204076 -0.16359755 0.21986072 0.44772807

convs.0.linear2.bias f4 [64]
000000 42 67 c0 3d c8 90 7a bd 99 bf cb be 6e 64 f1 bc
       0.09394695 -0.06117323 -0.39794615 -0.029466834
000010 9c c1 ef bd a1 27 64 3e d5 34 80 be f6 8f 91 be
       -0.1170685 0.22280742 -0.25040308 -0.28430146
000020 34 96 94 be 39 83 3b be fd 84 a0 bd 96 3d 99 bb
       -0.29020846 -0.18311776 -0.078378655 -0.004676531
000030 01 3d e9 bb 99 6e c9 be 6f b9 26 be 1b 9e b5 be
       -0.007117868 -0.39342192 -0.16281675 -0.35472187
000040 5a c9 40 bd 62 9a 91 be b7 4f 53 be f8 c2 16 3d
       -0.047067024 -0.28438097 -0.20635878 0.03680703
000050 0c 9e 42 be 6f d9 01 3e a1 64 a6 3e 6a e8 39 be
       -0.19005603 0.126806 0.3249865 -0.18155065
000060 e4 98 a7 3c b8 dc 4b 3e 81 31 04 3e 3f 23 04 be
       0.020458646 0.19908416 0.12909509 -0.1290407
000070 57 8a 67 3e 3c f1 98 3e 56 fb 5a bc d0 a0 91 be
       0.22611366 0.29871547 -0.013365587 -0.28443003
000080 32 ce f1 bd 5d 52 0b be a9 6b 74 be 1f f7 76 3d
       -0.11806907 -0.13605638 -0.23869194 0.060294267
000090 09 9b b0 3d 3f ea a6 bc 2f 91 d5 3d c0 6d e6 bb
       0.086233206 -0.02037537 0.10428082 -0.007032126
0000a0 a3 60 15 3e 97 52 a5 3e d1 06 98 3e f3 a0 19 be
       0.14587645 0.32289574 0.296927 -0.15002804
0000b0 4e ae b7 bd 52 bf a6 be 67 b3 53 be 5e 14 d4 3b
       -0.08968793 -0.3256784 -0.20673905 0.0064721545
0000c0 5c d0 bd be e9 48 7b 3e cf da 8c be 0f b1 46 3e
       -0.37073028 0.24539532 -0.27510688 0.1940348
0000d0 42 51 d7 be cf fd 80 3b d3 55 c9 bd 57 4f 81 3d
       -0.42054182 0.0039365063 -0.09830823 0.06313961
0000e0 91 57 2a be da 2a 6c bd de 03 38 be e9 57 7e 3e
       -0.16634966 -0.057658054 -0.17970225 0.24838223
0000f0 db 56 5f 3e 5c e0 06 bd cb 3f 36 bd dd bb 85 be
       0.21810476 -0.03292881 -0.04449443 -0.2611989

convs.1.a f4 [128, 1]
000000 0d 9c 99 3e e3 a1 17 3e 87 71 9b 39 53 5a b2 3e
       0.3000187 0.14807849 0.00029648488 0.34834537
000010 7d db e8 b8 3e 4e 90 3e be bd ba b6 17 88 97 b8
       -0.00011103505 0.28184694 -5.565321e-06 -7.22559e-05
000020 0c c4 8d b8 62 f8 12 b8 1c 6d 34 3d 76 bd a7 3e
       -6.7599205e-05 -3.5040437e-05 0.044049367 0.32761735
000030 8c 8f 65 3e 65 1f be b8 86 4f 87 3b 1b 22 93 b5
       0.2241804 -9.065754e-05 0.004129353 -1.096228e-06
000040 b0 e2 21 3e 0f fb ad 35 13 77 3f 38 32 88 89 3e
       0.1580913 1.2962572e-06 4.5648845e-05 0.2686172
000050 83 79 3d bc 7c 60 9b 3e 21 ce 76 3e c6 4c 57 b9
       -0.011564615 0.3034705 0.2410207 -0.00020532598
000060 81 a2 8d 3e 9b 8e 63 3e 81 b8 58 3e 58 46 d5 36
       0.27663043 0.22222368 0.21164133 6.3560838e-06
000070 84 8a 82 3e 5e 52 89 3e f2 e1 2e 3e 0e e0 80 b9
       0.25496304 0.26820654 0.17078379 -0.00024580996
000080 02 69 17 b8 f6 65 86 37 78 50 01 b6 5d 3a a1 3e
       -3.6099e-05 1.6021524e-05 -1.9269337e-06 0.3148984
000090 86 c7 9e 3e 82 1f a9 3e 31 43 a8 3e 58 82 ba 3c
       0.310116 0.3303185 0.32863763 0.02276723
0000a0 b2 ab ab 3e 59 bc 86 3e c6 d4 8c 3e 1c 89 88 3d
       0.3352943 0.26315573 0.27506083 0.066667765
0000b0 8c dd b3 b9 79 4f e0 b9 e8 39 06 b7 09 4b ad 3e
       -0.00034306606 -0.0004278382 -8.000505e-06 0.3384631
0000c0 a0 00 1c 36 cd 71 7f 3e 8f 49 33 b6 35 7a 74 3e
       2.3246175e-06 0.24945755 -2.6715895e-06 0.23874743
0000d0 35 59 b7 b5 45 45 7d 3e a6 d9 68 3d 56 6b 75 3e
       -1.3660525e-06 0.24733455 0.05684819 0.23966727
0000e0 91 b3 4a 37 31 8f c6 b8 e4 76 e1 b7 6a a6 7e 3e
       1.2081947e-05 -9.468047e-05 -2.6877453e-05 0.2486817
0000f0 c2 8b 8e 3e 12 d7 fd 3d cf 6f 91 b6 81 7f d9 37
       0.27841002 0.12394537 -4.334353e-06 2.592779e-05
000100 46 cd b2 be 15 99 00 c0 2e 30 c1 bf 54 e6 d8 3b
       -0.34922236 -2.0093434 -1.5092828 0.006619254
000110 25 59 16 c0 f1 c8 bf 3e b8 10 5f c0 06 90 7b c0
       -2.349191 0.37457994 -3.4853954 -3.9306655
000120 28 a0 4f c0 da d4 42 c0 9c a1 17 3f 2b cf 85 bd
       -3.2441502 -3.0442414 0.5923097 -0.06533655
000130 f0 47 91 bf 94 9f 79 c0 16 2a 41 c0 fc 5b 7b c0
       -1.1350079 -3.9003649 -3.0181937 -3.9274893
000140 65 c6 23 bf f1 5f 73 c0 39 02 5b c0 ad 76 36 3e
       -0.639746 -3.8027308 -3.4220107 0.17818709
000150 0a 7b 14 c0 a9 e9 da 3f e9 8e 05 3f 8d 79 91 bf
       -2.3200097 1.7102557 0.5217119 -1.1365219
000160 7c b8 8e bc b1 7d 56 3e db 36 2f 3f 67 8a 65 c0
       -0.017421953 0.20946385 0.6844308 -3.5865724
000170 7c 34 c1 3e b1 0c b6 3e fd 94 5e 3f 65 eb 5e c0
       0.37735355 0.35556558 0.8694609 -3.4831173
000180 51 ce 2e c0 56 4e 04 c0 09 b7 5e c0 76 e2 30 3e
       -2.7313426 -2.0672812 -3.4799216 0.17273888
000190 27 5b 5c 3e 8a 05 ae 3e 30 a9 25 3e 72 62 02 3f
       0.21519147 0.339886 0.16177821 0.50931466
0001a0 e1 88 26 3f fd 8a c3 3e c0 5a b6 3e c4 84 3c 3f
       0.6505261 0.38191977 0.35616112 0.73640084
0001b0 41 72 2e c0 e4 e2 43 c0 ab 35 6b c0 b6 aa 9a 3e
       -2.7257235 -3.0607233 -3.6751506 0.30208367
0001c0 02 9c 5e c0 ea d8 de 3e 0e 7b 70 c0 c6 02 2f be
       -3.478272 0.43524867 -3.7575107 -0.17090902
0001d0 dd c7 5b c0 86 4f 95 3e 68 70 9e 3f f5 7e a8 3d
       -3.4340737 0.29162234 1.2378054 0.0822734
0001e0 33 d6 5c c0 91 6d 0d c0 e8 8b 76 c0 d9 6e 3c 3c
       -3.4505737 -2.2098124 -3.8522892 0.0115010375
0001f0 d8 20 fb 3e c5 91 27 3f f0 85 4a c0 97 ff 49 c0
       0.49048495 0.654568 -3.164425 -3.156225

convs.1.linear1.weight f4 [64, 64]
000000 10 1c 14 3e 40 6e e0 bf 66 72 07 c0 fd b4 b3 3d
       0.1446383 -1.7533646 -2.1163573 0.08774755
000010 e3 37 b4 bf c8 ff e1 3e 4a 82 fc bf ae d6 f6 bf
       -1.4079555 0.44140458 -1.9727261 -1.9284265
000020 3c c4 08 c0 98 1a e5 bf 2a cb f3 3c 85 81 52 3d
       -2.1369772 -1.7898741 0.029759962 0.05139305
000030 42 9a 99 3e d1 01 c2 bf b8 63 f2 bf 85 ef 0c c0
       0.30000502 -1.5156804 -1.8936682 -2.202119
000040 36 59 2b bd a5 d0 15 c0 e9 ff fa bf e5 ff 2a 3d
       -0.041833125 -2.3408597 -1.9609348 0.041747946
000050 bf da e5 bf 78 c0 ce be 79 19 cb 3e 17 70 c8 bf
       -1.7957381 -0.40381217 0.39667872 -1.5659207
000060 86 1c cd 3d d6 e2 02 3f 7f cb b9 3e 6a 2e 05 c0
       0.10015206 0.51127374 0.36288068 -2.080958
000070 d9 e6 f3 3e 3d de d3 3e c1 2e da be 6c 9a ff bf
       0.4763706 0.41380492 -0.42613795 -1.9969001
000080 8f 3c dd bf c6 f1 04 bf bd fe f8 bf fb ca 73 3c
       -1.7284106 -0.51931417 -1.945274 0.014879937
000090 20 34 c2 bd 14 22 07 3d 98 ad 22 3e 47 a1 ad 3e
       -0.09482598 0.032991484 0.15886533 0.33912107
0000a0 74 90 13 3e 77 56 d4 3e aa 35 db 3e ad 11 e3 bd
       0.14410573 0.41472217 0.4281438 -0.11087356
0000b0 cc 15 94 bf ae a3 fc bf ff a7 0a c0 46 ae 13 3d
       -1.1569152 -1.9737451 -2.1665037 0.036054872
0000c0 b7 56 01 c0 e6 8d f1 3e 29 04 0f c0 e4 43 15 3f
       -2.0209177 0.47178572 -2.234629 0.5830672
0000d0 cd 86 04 c0 db 6c 61 bd 94 68 bf be b6 c8 f4 3e
       -2.0707276 -0.055035453 -0.37384474 0.4780938
0000e0 f4 c9 01 c0 52 d3 2a bf d2 cd f3 bf a8 c0 07 3f
       -2.0279512 -0.667287 -1.9047186 0.53028345
0000f0 bb d7 71 3e 5e 16 10 be 86 66 f3 bf 01 ee f8 bf
       0.23617451 -0.14071032 -1.9015663 -1.9447633
000100 28 c4 01 3f cd 4e cc 3f 38 55 9b 3f 1a 83 93 be
       0.50689936 1.5961548 1.2135382 -0.2881096
000110 f1 9e 0f 3f 51 c1 e3 be 28 f3 90 3f 40 af 0f 40
       0.561019 -0.44483426 1.1324205 2.2450714
000120 6e 04 00 40 c3 c3 2b 3f 6d b5 09 3e e7 7a 63 bd
       2.0002704 0.67095584 0.13448115 -0.05553713
000130 a3 36 21 3f 44 f0 03 40 ce b8 dc 3f f2 4a e9 3f
       0.62973994 2.0615396 1.7243898 1.8225996
000140 f0 05 00 be 38 7a 02 40 5c f7 bc 3f 2f 44 97 3e
       -0.12502265 2.0387096 1.4762988 0.29544207
000150 c9 70 3e 3f d2 77 da 3e 84 97 d3 be ac 15 25 3d
       0.74390846 0.4266954 -0.41326535 0.04030387
000160 bc c1 1a 3e 42 6a 87 be cc fa 1d be f1 9f df 3f
       0.15112966 -0.26448256 -0.15427703 1.7470685
000170 42 af 1b be 27 d6 01 bf 87 d0 c9 bd 8e 04 ae 3f
       -0.15203574 -0.50717396 -0.098542266 1.359514
000180 98 bf 69 3f ee 92 97 3e 13 f9 a6 3f 6b 7d 46 3e
       0.91307974 0.29604286 1.3044761 0.1938378
000190 e2 61 b0 3d ee c9 5a bd 3f 58 d7 bc 9e b1 0a be
       0.0861242 -0.05341523 -0.026287196 -0.13544318
0001a0 89 c5 71 be b2 25 89 be 84 84 d4 be b5 8c 4b 3d
       -0.2361051 -0.26786572 -0.4150735 0.049694736
0001b0 26 be ae 3f 57 67 ad 3f a1 21 c3 3f f3 8e 24 3e
       1.3651779 1.3547162 1.5244638 0.16070156
0001c0 b2 4f 9a 3f b9 f6 a7 be e9 18 d7 3f d5 89 9c be
       1.2055571 -0.32805422 1.6804477 -0.30573907
0001d0 17 0d a0 3f 5d e1 28 be cc 92 e0 3e 20 d1 3a bd
       1.2503995 -0.1649222 0.43861997 -0.045609593
0001e0 70 14 d4 3f 4d fd 27 3f f6 28 27 40 dd e9 17 bc
       1.6568737 0.6562088 2.611875 -0.009272066
0001f0 f4 24 b9 be c7 60 51 be a9 f6 ba 3f d8 1f 00 40
       -0.36161005 -0.20447074 1.4606525 2.0019436
000200 8e 0d e0 be c8 60 42 bf ee 15 ab be 2b 4f 6c 3d
       -0.4376034 -0.75928926 -0.3341517 0.057692688
000210 24 a1 98 be 82 b3 4a 3e 6d 8c cd be 13 26 c6 be
       -0.2981044 0.1979504 -0.401462 -0.38700923
000220 67 9b 26 bf c1 a4 ab be f3 2a 85 be 56 1f 0e be
       -0.65080875 -0.33524135 -0.2600933 -0.13879141
000230 31 7d 18 be ea 38 b3 be 70 43 02 bf d8 94 1e bf
       -0.14891507 -0.3500436 -0.5088415 -0.6194587
000240 da 41 87 be 62 d9 0e bf dc 23 11 bf 6d 6b c2 be
       -0.26417428 -0.5580045 -0.5669534 -0.37972584
000250 b9 7a 85 be 01 eb ed be 32 a2 30 3e 8c 72 65 bb
       -0.26070192 -0.46468356 0.17249373 -0.0035010902
000260 b8 3e 76 be b3 2d 5a 3d 50 ab 49 3c de 55 08 bf
       -0.24047363 0.05326624 0.0123089105 -0.5325602
000270 cb c6 ee 3d d2 1c 21 3e ed a9 b3 be 49 cb 0c bf
       0.116590105 0.1573365 -0.3509058 -0.5499769
000280 b7 24 fd be 7c 88 b5 be f6 10 f7 be 8f 1c 70 be
       -0.49442074 -0.35455692 -0.48255128 -0.23448394
000290 37 19 39 be 19 cb 9a be 7a cf 0c bd e0 61 93 bd
       -0.18076025 -0.30233076 -0.034377553 -0.071964025
0002a0 12 13 93 3c 10 dc a3 3e 07 14 2b 3e 5f 9a de be
       0.01795343 0.32003832 0.16706859 -0.4347715
0002b0 ad c2 cd be 58 8f e8 be 22 0e 1e bf 73 28 90 bd
       -0.40187588 -0.45421863 -0.61740315 -0.07038965
0002c0 1f 25 e9 be 64 d8 f0 3d bb 1a f5 be 16 98 8c 3e
       -0.45536134 0.11760023 -0.47871956 0.27459782
0002d0 f0 5a ea be 9c 92 bc bd 9b 22 33 bf b0 ca b0 bd
       -0.45772505 -0.09207651 -0.6997468 -0.086324096
0002e0 c4 3b cc be ee e9 cf be a7 21 1d bf db ed 2b bc
       -0.39889348 -0.40608162 -0.61379474 -0.010493721
0002f0 0c 4f 93 3e 92 c4 2a be ec ee 0b bf 62 da d0 be
       0.28771245 -0.16676548 -0.5466144 -0.40791613
000300 8f 76 e7 be b7 b2 7a bf 40 57 22 bf 22 8d 95 3b
       -0.4520764 -0.9792895 -0.6341438 0.0045639435
000310 16 63 a1 be b5 69 2a 3e 76 07 18 bf d4 36 28 bf
       -0.3152091 0.16641887 -0.59386384 -0.6570866
000320 07 11 68 bf c5 47 0f bf c5 9f ea be fb 61 4a bd
       -0.9065098 -0.55968887 -0.4582502 -0.049409848
000330 c3 a3 c5 be b2 34 3c bf b9 1c 56 bf 00 05 5a bf
       -0.38601503 -0.73517907 -0.8363758 -0.8516388
000340 80 0d 2a be 4a 0f 73 bf 1f 09 32 bf 08 90 9b be
       -0.16606712 -0.94945204 -0.6954517 -0.30383325
000350 22 92 04 bf bd 07 c8 be c1 64 b0 3e 61 ff 0c bd
       -0.5178548 -0.39068404 0.3445187 -0.034423236
000360 a8 79 37 be 5b e3 86 3d e1 3e 8f 3d 44 16 0f bf
       -0.17917502 0.06586333 0.06994415 -0.5589335
000370 de 59 26 3e cd 52 8a 3e 68 00 72 be b2 e3 3a bf
       0.16245219 0.27016297 -0.23632967 -0.73003685
000380 a2 67 1f bf 19 db 6c be 8d 39 1a bf 00 c0 be be
       -0.62267506 -0.23130454 -0.60244066 -0.3725586
000390 a4 4f 81 be cb 8c 8a be 16 4b 5a 3c 44 5f f1 bd
       -0.25256073 -0.27060542 0.013323566 -0.117857486
0003a0 bf 89 c5 bd a6 85 00 3e 3a 9d 77 3e e1 3d ff be
       -0.096454136 0.12550983 0.24181071 -0.49851897
0003b0 58 f8 0c bf 40 e7 25 bf 47 f5 34 bf 68 f9 4f bd
       -0.5506644 -0.64805984 -0.70686764 -0.05077496
0003c0 66 20 09 bf 86 e0 9e 3e 67 b6 5a bf 5c 14 90 3e
       -0.5356506 0.31030673 -0.85434574 0.28140533
0003d0 8b a6 22 bf b3 7a 28 bd c5 58 03 bf 67 ab 8f 3c
       -0.63535374 -0.04113264 -0.51307327 0.017537786
0003e0 bc 0f 28 bf 93 9d b2 be e1 ec 56 bf fb d3 c1 3d
       -0.6564901 -0.34885845 -0.839552 0.0946426
0003f0 75 8b 98 3e d1 04 6d bd c1 62 23 bf 16 a5 5f bf
       0.29793897 -0.05786592 -0.6382256 -0.87361276

convs.1.linear1.bias f4 [64]
000000 ae 02 41 be c2 9f 2a 3f 96 3a 8b be 27 2e aa be
       -0.18848678 0.6665002 -0.27193135 -0.33238336
000010 55 51 45 3f 92 47 14 3f 84 16 05 ba 32 09 c4 3e
       0.7707723 0.5792171 -0.00050769025 0.38288265
000020 b3 b8 3b 3f d7 23 10 3a ba 05 03 3f 9b 6b 14 3e
       0.73328704 0.00054985046 0.51180613 0.14494173
000030 5c d9 09 3f 60 f2 96 3e 22 5b 03 3f 9e 35 2f 3f
       0.5384729 0.29481792 0.5131093 0.6844119
000040 11 91 43 be c1 6f 22 3f a5 9a c0 be 6f ed dd be
       -0.19098307 0.6345177 -0.37617984 -0.4334521
000050 8b 78 0c bf 22 11 4e 3e 4d a1 00 bf 14 ff c3 3d
       -0.54871434 0.20123723 -0.50246125 0.09570137
000060 d2 bb ff 3d 17 08 f2 3e 02 60 24 3e c1 7d 0b 3f
       0.12486996 0.47271797 0.16052249 0.5448876
000070 0c b5 c7 3d 71 3a 97 3e 7c 2e d5 3d da 74 b6 be
       0.09751329 0.29536775 0.10409257 -0.35636026
000080 79 e6 99 3e 8b 5c c2 3d 8b 19 d5 3e 15 1d 88 be
       0.3005865 0.094903074 0.4162105 -0.26584688
000090 f0 8b 2f 3f d3 ca 25 3f 4b c6 e1 3d a9 b7 3b bf
       0.685729 0.6476261 0.110241495 -0.7332712
0000a0 b5 8e f5 3b dc c7 e7 3e 5b 15 f1 3d 03 0d 7a 3b
       0.0074938186 0.45269668 0.11771651 0.0038154728
0000b0 8a 73 15 bf ab 88 46 3f 8e 22 97 3d 1b 4c ba be
       -0.58379424 0.7755229 0.07379638 -0.3638619
0000c0 fc 89 1f be 04 fc d3 3e 38 70 bd 3e c9 ac 1a 3f
       -0.1557998 0.4140321 0.3699968 0.604199
0000d0 9c 52 41 3f fd 0e 8c 3d 48 fe 3a bf 59 38 b0 3e
       0.75516677 0.06838796 -0.7304425 0.3441799
0000e0 a8 05 f3 3e 7a c8 7c bb a8 e3 62 3d b1 71 1b 3f
       0.47465253 -0.0038571642 0.05539289 0.60720354
0000f0 bc 44 10 bf e8 d5 1b 3f d2 85 f8 bd 35 73 39 3d
       -0.5635488 0.6087327 -0.12134899 0.045275886

convs.1.linear2.weight f4 [64, 64]
000000 86 5c 5a be a9 b6 f2 3e ff a1 44 bd f9 9f c6 be
       -0.21324357 0.47404984 -0.048006054 -0.38793924
000010 55 c8 5e 3f bc 62 69 3f a3 55 c1 3d b7 d9 0e 3f
       0.8702443 0.9116628 0.09440162 0.55800956
000020 52 24 45 3f 86 da 22 3e 33 29 f9 3e b4 02 91 3e
       0.77008545 0.15903673 0.48664245 0.28322375
000030 0c a5 0d 3f b0 7d 12 3f a1 d5 72 3f d5 20 0e 3f
       0.55329967 0.57223034 0.9485722 0.5551885
000040 3f 60 89 be 47 0d 3a 3f 93 45 37 be d1 03 23 bf
       -0.26831242 0.7267651 -0.17897634 -0.636777
000050 61 6e 03 bf 51 76 fa 3c 2e aa 09 bf 32 9e 42 3e
       -0.513403 0.030573996 -0.537753 0.19005659
000060 f4 83 98 3d 32 a8 42 3f bf 43 a1 3e d0 b0 63 3f
       0.07447043 0.76037896 0.31497 0.8894167
000070 bf 4d 12 bd c1 91 ad 3e cf c7 70 bb 31 e5 c2 be
       -0.035718676 0.33900264 -0.003674019 -0.38065484
000080 fc dc 0a 3f 9b c1 10 3e c7 c8 38 3f d3 f7 7d bd
       0.54243445 0.14136355 0.7218136 -0.06200392
000090 9d 43 2c 3f da 29 11 3f 13 49 04 3e 8c 91 7c bf
       0.6729067 0.56704485 0.129185 -0.98659587
0000a0 7b 8d e2 3e 2f 78 2c 3f 49 e4 8f 3e bf b4 ba 3e
       0.44248566 0.67370886 0.28103855 0.36466023
0000b0 42 72 4a bf bb d1 92 3f 09 ab 76 3e 3c 98 cc be
       -0.79080594 1.1470255 0.24088682 -0.39959896
0000c0 6e aa b2 be 59 ea 57 3f bb bc 7d 3f 6b ae 48 3f
       -0.34895653 0.8434196 0.99116105 0.7839114
0000d0 c1 d5 56 3f 1d f4 db 3d 9e ec 41 bf cb 14 b0 3f
       0.8391991 0.1073992 -0.75751674 1.3756346
0000e0 b2 66 aa 3e 1c 46 45 be 0a 46 77 be 96 3a 4a 3f
       0.33281475 -0.19265026 -0.24147812 0.78995645
0000f0 42 55 04 bf cd d1 19 3f 13 aa 04 3e 2c 74 94 3d
       -0.51692593 0.60085756 0.12955503 0.072487205
000100 10 22 6b be 95 a1 ed 3e 65 91 ba be 53 88 04 bf
       -0.22962213 0.4641234 -0.36439052 -0.51770514
000110 7e d2 29 3f d2 97 6c 3f eb 1e 53 bd 18 db 21 3f
       0.6633681 0.9241916 -0.051543158 0.63224936
000120 7b d7 1c 3f 9f d7 04 be b6 4c 04 3f 1f d0 cc 3e
       0.612663 -0.12972878 0.5167955 0.40002534
000130 33 7c 18 3f 85 e2 0b 3f 6c aa 49 3f 0a e0 14 3f
       0.5956451 0.54642516 0.7877567 0.58154356
000140 fb 6a 9f be f9 1e 4c 3f 9e c0 ff be 79 aa 24 bf
       -0.31136307 0.7973476 -0.49951643 -0.6432262
000150 ec 5a ea be f5 5d 44 3e 5a 31 24 bf 0c eb 59 3e
       -0.45772493 0.19176467 -0.64137805 0.2128107
000160 61 01 36 3e a2 18 0e 3f 9d 7c 8f 3d 4b f7 65 3f
       0.17773964 0.55506337 0.0700619 0.89830464
000170 46 2c 63 bc 1a c5 cc 3e 59 23 64 3d d7 9a b9 be
       -0.013865536 0.39994127 0.055697773 -0.36250946
000180 36 31 19 3f 2e 9c 92 3d f7 0c 50 3f 0e 8f f0 be
       0.59840715 0.07158695 0.8126978 -0.46984142
000190 27 c7 22 3f d0 c5 03 3f 49 e3 56 3e b9 6e 8a bf
       0.6358513 0.5147371 0.2098514 -1.081504
0001a0 d1 61 a1 bd 84 d6 23 3f 6d 8b f7 3d 93 24 07 3e
       -0.07879985 0.639992 0.1208714 0.13197546
0001b0 da b3 3a bf 12 29 49 3f 31 5f 94 3e 9c dc 05 bf
       -0.7293068 0.78578293 0.28978875 -0.5228975
0001c0 f2 3f 6d be 9a 41 50 3f 43 aa 62 3f 46 58 54 3f
       -0.23168924 0.813501 0.8854105 0.82947195
0001d0 8a 70 3f 3f 93 93 8a 3b 51 be 4d bf ee 7b 62 3f
       0.74781096 0.004229018 -0.80368525 0.8847035
0001e0 e2 40 8e 3e 5b 61 0c be 66 4e 1c 3e f0 55 31 3f
       0.27783877 -0.13709013 0.15264282 0.69271755
0001f0 f3 b6 00 bf 97 16 f0 3e e8 bc 01 be c5 11 59 3c
       -0.5027916 0.46892235 -0.12669718 0.0132488655
000200 cf 66 22 be 4c 2b bd 3e 61 29 cc bd e2 be ac be
       -0.15859531 0.36947095 -0.0996883 -0.33739382
000210 0f b0 62 3f c1 fd 62 3f 7b 6b 02 3d a3 90 ff 3e
       0.88549894 0.8866845 0.031840783 0.49915037
000220 6b 5b 17 3f 98 a7 67 3d 91 36 0e 3f d3 23 08 3e
       0.5912387 0.056556314 0.5555201 0.13294916
000230 31 78 25 3f f3 56 08 3f 28 82 66 3f 29 1e 1b 3f
       0.6463652 0.53257674 0.9004235 0.60592896
000240 92 7d 87 be 82 78 55 3f 1e 99 88 be a1 6a 03 bf
       -0.2646299 0.83387005 -0.2667932 -0.5133458
000250 80 97 bc be c6 28 81 3d 60 45 03 bf 9b 50 40 3e
       -0.36834335 0.06306605 -0.5127773 0.18780749
000260 24 a6 4d 3e 3b a2 17 3f a8 7f a5 3e 99 27 45 3f
       0.20082909 0.5923192 0.32323956 0.77013546
000270 96 3b 4d 3e 2e 40 cb 3e 34 6c 3a 3d f0 fb 5a be
       0.20042261 0.39697403 0.045513347 -0.21385169
000280 2f 3e f2 3e 9b 5a 8d 3e 4c 6d 36 3f 3c 24 f6 bd
       0.47313067 0.2760819 0.71260524 -0.1201863
000290 e2 d6 3f 3f 54 ef f2 3e 1a c9 6a 3e cc 8f 4a bf
       0.7493726 0.47448218 0.22928277 -0.79125667
0002a0 5c fa 91 3e 19 a3 36 3f 73 7b 71 3e a0 ad 39 3e
       0.28511322 0.7134262 0.23582248 0.18132639
0002b0 be be 13 bf 12 01 8b 3f 35 72 3e 3e aa 95 23 be
       -0.57712924 1.0859702 0.18598254 -0.15975061
0002c0 6d 83 80 be 26 e9 55 3f 63 36 8a 3f c7 5d 41 3f
       -0.2510027 0.8355888 1.0797848 0.7553372
0002d0 32 51 1c 3f f6 d8 35 3e 8d 74 2d bf d4 76 a2 3f
       0.61061394 0.17758545 -0.6775597 1.2692513
0002e0 ef ff b5 3e c4 2c 70 be f1 84 da bd 3a a3 31 3f
       0.35546824 -0.23454577 -0.10669888 0.6938969
0002f0 90 b0 e3 be 53 2f 29 3f be 9d d5 3d f8 bd 62 3d
       -0.44470644 0.66087836 0.104304776 0.05535695
000300 61 6c a2 3e ea 5b 0f bf 36 51 94 3e bc 1c 1a 3e
       0.31723312 -0.55999625 0.2896821 0.15050024
000310 8c 74 50 bf f0 f8 84 bf 9c e9 37 3e cc 14 1b bf
       -0.81427836 -1.038847 0.17960209 -0.6057861
000320 ea 16 21 bf 9f bf da bd 9f be 22 bf b4 e2 8d be
       -0.6292559 -0.1068108 -0.63572115 -0.27712023
000330 56 48 20 bf 5c 13 cf be bf 1c 3d bf 86 01 d0 be
       -0.62610376 -0.40444458 -0.7387199 -0.40626162
000340 29 b5 6c 3e 2f 18 29 bf aa 78 b6 3e c1 8c 98 3e
       0.23115982 -0.66052526 0.35638934 0.29794887
000350 e4 fe d8 3e f9 8f d9 3c 35 61 01 3f 03 5e e5 bd
       0.42381966 0.02655791 0.5053895 -0.11199572
000360 72 ee 23 be 3a 58 0e bf 84 66 23 3e 44 1f 76 bf
       -0.16008928 -0.55603373 0.15957075 -0.9614146
000370 e4 f8 b1 bd a8 20 bd be fd 0d 11 be 83 50 94 3e
       -0.0869005 -0.36938977 -0.14165492 0.28967676
000380 26 32 a5 be 74 2d 08 be 7a 06 25 bf ea 8d 22 bd
       -0.32264823 -0.13298589 -0.6446301 -0.03968612
000390 eb 98 ff be 2d 5a 26 bf bf 7b 48 be b4 93 e0 3e
       -0.49921355 -0.6498135 -0.19578455 0.4386269
0003a0 55 cf 78 be 0e 6a 14 bf d2 c2 58 be ab dd e3 bc
       -0.24297841 -0.57974327 -0.21168068 -0.02781566
0003b0 2e 2c 14 3f be 36 51 bf 91 df ba bc b4 67 94 3e
       0.5787991 -0.81724155 -0.022811683 0.2898537
0003c0 dd 75 56 3b 3b e7 52 bf 1c a8 47 bf 01 ca 47 bf
       0.003272406 -0.8238408 -0.7799089 -0.7804261
0003d0 e7 33 63 bf ea 42 c9 bc b6 17 48 3f 00 2b 2c bf
       -0.8875107 -0.02456804 0.7816118 -0.6725311
0003e0 e5 fe bd be f0 c1 72 bb 7f c4 22 3e 23 22 40 bf
       -0.37108532 -0.0037041865 0.1589527 -0.7505209
0003f0 6a 43 d4 3e 2c 95 05 bf 33 a7 9f bc b6 4f 98 bb
       0.41457683 -0.52180743 -0.019488906 -0.004648174

convs.1.linear2.bias f4 [64]
000000 fc e4 ac 3e 96 b7 99 3e 48 3c 85 3e b1 3b 79 be
       0.3376845 0.30022877 0.26022553 -0.24339177
000010 85 e0 cb 3c c8 c4 86 3e af 44 1c be a2 7e 1b be
       0.024887333 0.26322007 -0.15260576 -0.15185025
000020 0f e7 22 be 07 b6 af 3e 37 65 ee 3d ff 88 80 3d
       -0.15908454 0.34318563 0.11640399 0.0627613
000030 cc e4 44 bd 8d b6 92 be 68 79 08 3e 22 50 05 3d
       -0.04806976 -0.286549 0.13327563 0.032547124
000040 ee 9d 8b 3d 86 46 0b be fc c0 54 3e 42 20 cc 3e
       0.06817232 -0.13601121 0.20776743 0.3986836
000050 ca 9e 9e be bd f3 45 3d a2 b9 9f 3e 5f c5 c5 3d
       -0.3098052 0.04832815 0.31196314 0.09656786
000060 9e 87 9f bd 58 b7 3d be e1 f3 96 3e b6 d5 f1 bd
       -0.07789539 -0.18526971 0.2948294 -0.1180834
000070 0b cb 19 be 79 95 77 3e 11 52 c3 3e 92 48 3c be
       -0.15018861 0.24178113 0.3814855 -0.18387058
000080 c3 cb a5 3e fd 12 08 be d3 05 45 bd aa cc 5d 3e
       0.3238202 -0.13288493 -0.048101258 0.21660104
000090 95 e3 3e be 9e 7a b1 bb 53 79 d2 bd da 40 41 be
       -0.18641503 -0.0054162284 -0.10277047 -0.18872395
0000a0 16 d7 b1 3e 10 17 99 be 66 98 84 3d 0e 96 45 be
       0.3473441 -0.29900408 0.0647438 -0.19295523
0000b0 c8 de 7f bd 6d f3 49 3e f5 0e a6 3e 38 48 88 3e
       -0.06246832 0.19721766 0.32433286 0.266176
0000c0 c0 a1 be 3e f0 de 08 be da 47 9f 3e 61 71 a2 3e
       0.3723278 -0.13366294 0.31109506 0.31727126
0000d0 d3 89 a4 3e 8a f8 96 3e 6c ce a8 3e cc 17 92 be
       0.32136402 0.29486495 0.32969987 -0.2853378
0000e0 4b e2 80 be 4a 77 e4 3e e7 97 7a be 75 54 18 3e
       -0.25172648 0.4462226 -0.24472009 0.14875968
0000f0 46 1a 1b be 97 e1 e5 bc be d7 2f be 08 91 45 3e
       -0.15146741 -0.028061671 -0.17172143 0.19293606
