Saved_Models/TSP_100/scatgnn_layer_2_hid_64_model_200_temp_3.500.pth (torch, 153863 bytes, 24 tensors)

bn0.weight f4 [2]
1.0 1.0
00000000: 0000 803f 0000 803f

bn0.bias f4 [2]
0.0 0.0
00000000: 0000 0000 0000 0000

bn0.running_mean f4 [2]
0.0 0.0
00000000: 0000 0000 0000 0000

bn0.running_var f4 [2]
1.0 1.0
00000000: 0000 803f 0000 803f

in_proj.weight f4 [64, 2]
0.81963277 0.4885536 -0.9240596 0.16603236 1.050758 -0.4057654 0.30115658 1.4720724
0.25382194 -0.701871 0.5194553 1.33728 0.92263323 0.73493713 0.21542084 -1.4171214
1.2000699 0.17668882 -0.81385356 0.8983926 0.9983227 -0.3385269 1.0302373 0.55925816
-1.1720042 -1.4066851 -0.7904341 0.21059787 -0.6959901 -1.4578815 0.91157967 -1.1998407
0.7727742 0.014158661 0.101557896 1.2396777 -1.3091415 0.10506335 -0.31006053 -1.0932529
1.3799506 1.2503139 1.1782873 0.838272 -0.7842717 0.6264723 -0.69979846 1.2064937
-0.16487043 -1.2694479 0.8566096 0.4846437 -0.85267556 -1.3630961 -0.30817398 -1.0149417
0.9442189 -0.13968563 -0.6853311 1.0181857 0.80230504 1.0972137 1.160647 0.31690243
0.67205834 1.3516327 0.09057043 -1.0347337 -0.37069565 0.9932168 0.9950135 -0.4642629
0.75782806 0.24818015 0.039096452 -1.1766269 0.95926154 0.19370802 -1.2290559 0.017580923
0.8535625 -0.510043 -0.84752774 -1.1917304 0.45333302 -0.9619427 1.1732156 -0.63705903
-1.2108896 -0.09329139 -1.0354912 -0.21334282 -0.61258745 0.4518369 -0.3537533 1.2656265
0.22258787 -1.0360498 0.53570116 -0.25074288 -1.1979995 -1.231522 -0.7497028 0.60645866
-0.9960954 1.1300877 0.7368439 -0.73461777 0.9196522 -0.84699893 -0.64783156 0.5983269
1.0436721 -0.7055159 -1.0838026 -0.39020708 -1.0986968 -0.46880022 -0.5741385 -1.0932536
0.35869455 -0.74840313 0.3012827 -1.0875114 -0.03495695 -1.0096189 1.1582235 -0.2907664
00000000: 74d3 513f b323 fa3e 2c8f 6cbf 6304 2a3e
00000010: 3d7f 863f 7cc0 cfbe 3231 9a3e de6c bc3f
00000020: f3f4 813e d1ad 33bf 06fb 043f fe2b ab3f
00000030: b131 6c3f d724 3c3f 4897 5c3e 3c64 b5bf
00000040: e49b 993f eaed 343e b558 50bf 0ffd 653f
00000050: 1492 7f3f 6653 adbe d1de 833f 8b2b 0f3f
00000060: 3c04 96bf 420e b4bf e459 4abf f8a6 573e
00000070: 682c 32bf dc9b babf 495d 693f 6194 99bf
00000080: 88d4 453f baf9 673c 96fd cf3d c2ad 9e3f
00000090: f391 a7bf 742b d73d 41c0 9ebe b6ef 8bbf
000000a0: 39a2 b03f 490a a03f 1ed2 963f fe98 563f
000000b0: 08c6 48bf 7d60 203f fe25 33bf 636e 9a3f
000000c0: cbd3 28be 457d a2bf c44a 5b3f 3823 f83e
000000d0: f248 5abf ef79 aebf fbc8 9dbe 9ce9 81bf
000000e0: 54b8 713f c009 0fbe dc71 2fbf e953 823f
000000f0: dd63 4d3f 8071 8c3f 1590 943f 0941 a23e
00000100: 040c 2c3f 4d02 ad3f fd7c b93d 2772 84bf
00000110: d2cb bdbe 7543 7e3f 34b9 7e3f deb3 edbe
00000120: 0501 423f f022 7e3e 9a23 203d b69b 96bf
00000130: 2a92 753f 655b 463e b451 9dbf de05 903c
00000140: 1283 5a3f 2e92 02bf 94f7 58bf 9f8a 98bf
00000150: 441b e83e e041 76bf ee2b 963f 4d16 23bf
00000160: 6efe 9abf 8e0f bfbd fa8a 84bf 8a76 5abe
00000170: 88d2 1cbf 2b57 e73e 271f b5be 0d00 a23f
00000180: 13ee 633e 489d 84bf b623 093f 5f61 80be
00000190: 0c58 99bf 83a2 9dbf 86ec 3fbf e040 1b3f
000001a0: 1c00 7fbf b7a6 903f cda1 3c3f e90f 3cbf
000001b0: 546e 6b3f ecd4 58bf 4ad8 25bf f42b 193f
000001c0: 0c97 853f b19c 34bf 0bba 8abf 39c9 c7be
000001d0: 19a2 8cbf 9506 f0be befa 12bf bcef 8bbf
000001e0: d0a6 b73e 5997 3fbf ba41 9a3e 9333 8bbf
000001f0: 052f 0fbd 313b 81bf ab40 943f 55df 94be

in_proj.bias f4 [64]
0.5527557 -0.20621395 0.012856931 0.005349824 -0.4932195 -0.23866121 0.046678577 -0.14449702
0.057481006 0.57418025 -0.5093899 0.49904984 -0.09325653 -0.161045 0.1950169 -0.07192103
-0.4839364 0.013323371 0.0433293 0.5375112 0.005375477 -0.40206093 -0.083748594 -0.09077216
-0.1481642 -0.35860947 -0.3977955 0.5249081 -0.5848378 -0.5368799 0.6368478 -0.015864132
0.623012 -0.44052395 -0.61389446 -0.19340405 0.4972532 0.024495741 0.6868328 -0.26662248
-0.13013554 0.24223045 -0.5239755 0.114093915 0.11626834 0.58582324 0.008953239 0.25384766
-0.09339575 0.41270906 -0.37284875 0.2847354 -0.40041766 0.29609665 -0.5775828 -0.2607496
-0.09299352 0.5244179 -0.48273247 0.5102805 0.34020504 0.5059264 -0.5014088 -0.5687914
00000000: 6681 0d3f c029 53be e1a5 523c 944d af3b
00000010: 4487 fcbe 9b63 74be 0932 3f3d 07f7 13be
00000020: 3471 6b3d 7afd 123f 6067 02bf 7683 ff3e
00000030: 48fd bebd fbe8 24be 83b2 473e 554b 93bd
00000040: 83c6 f7be 454a 5a3c 107a 313d 569a 093f
00000050: c524 b03b eeda cdbe 6284 abbd c1e6 b9bd
00000060: 5bb8 17be a99b b7be daab cbbe 6160 063f
00000070: eeb7 15bf f670 09bf 7508 233f 7ff5 81bc
00000080: b77d 1f3f 5b8c e1be 3028 1dbf b60b 46be
00000090: f997 fe3e 4bab c83c 46d4 2f3f be82 88be
000000a0: 4042 05be 420b 783e 4223 06bf 12aa e93d
000000b0: 181e ee3d 83f8 153f 9bb0 123c 52f8 813e
000000c0: 4546 bfbd 9a4e d33e 08e6 bebe d7c8 913e
000000d0: 8b03 cdbe fb99 973e 77dc 13bf f980 85be
000000e0: 6373 bebd 4040 063f b628 f7be bea1 023f
000000f0: 5b2f ae3e 6484 013f 545c 00bf 509c 11bf

convs.0.a f4 [128, 1]
-0.046001922 0.018483445 -0.01359113 0.0018183672 -4.31016e-05 -0.01631778 -0.04404544 -0.04147926
-0.038206883 -0.0030632408 -0.0031994483 -0.0597509 -0.04771516 0.019081198 -0.06694682 -0.021515189
0.0 0.0019523298 0.012583078 -0.036384616 -0.037577786 0.0019912063 0.03339557 0.027349833
-0.034935676 0.011630582 -0.037397414 -0.047935676 -1.1685065e-05 0.0075200545 -0.03400471 -0.024639102
-0.036453158 -0.0068152873 1.9882651e-05 -0.0077770296 -0.046846572 -0.043484684 -0.035382044 0.01841355
-0.0060079205 -0.043240875 -0.00499572 -0.030862197 0.008181672 -0.014962346 0.025742862 0.004278917
-0.03536962 -0.068368666 -0.036997177 0.017448513 0.022070415 -0.066143714 -0.0057434845 0.014844289
-0.013077965 -0.032886595 0.00029077128 -0.043863215 -0.05220666 -0.06288538 -0.0010992105 -0.003112542
-0.31180727 0.61941624 0.6239702 0.58745784 0.63998234 0.7526974 0.23391387 0.62746274
0.44445804 -0.31071967 0.6785526 -0.26116377 0.8200081 0.661655 0.082215875 0.626708
0.6445002 0.44575217 0.5176018 -0.28650287 0.41307098 0.7836674 0.6573526 0.6558347
0.6256898 0.689038 0.7585637 -0.2719739 0.6438449 0.62900877 -0.26544017 0.6362317
-0.22139479 0.61346155 0.61393154 0.66219544 -0.33465078 0.6123432 -0.3388967 0.6355535
0.641883 -0.024237553 0.6530547 0.4902166 0.35247263 -0.3017931 0.5852168 -0.036357317
0.6271308 -0.36999854 0.8642155 -0.22715104 0.63547486 -0.21784268 0.6111326 0.68127877
0.6543809 -0.2608231 0.6316414 -0.23516275 -0.29968196 -0.30455503 0.60776806 0.6833123
00000000: 836c 3cbd 986a 973c 55ad 5ebc 4756 ee3a
00000010: fec7 34b8 ddac 85bc fe68 34bd 28e6 29bd
00000020: d27e 1cbd a7c0 48bb d6ad 51bb 5cbd 74bd
00000030: f970 43bd 2c50 9c3c 6a1b 89bd 9f40 b0bc
00000040: 0000 0000 51e5 ff3a 4129 4e3c 0908 15bd
00000050: 2aeb 19bd e67e 023b cbc9 083d c20c e03c
00000060: b618 0fbd 328e 3e3c 082e 19bd 3358 44bd
00000070: f90a 44b7 ca6a f63b 8648 0bbd f1d7 c9bc
00000080: e84f 15bd c652 dfbb abc9 a637 74d6 febb
00000090: 31e2 3fbd ff1c 32bd c3ec 10bd 03d8 963c
000000a0: 17de c4bb 581d 31bd 23b3 a3bb b8d2 fcbc
000000b0: 6b0c 063c a124 75bc b2e2 d23c 2836 8c3b
000000c0: bcdf 10bd df04 8cbd 5a8a 17bd 2ff0 8e3c
000000d0: 04cd b43c 5b76 87bd d733 bcbb 7635 733c
000000e0: f644 56bc 18b4 06bd a972 9839 eaa9 33bd
000000f0: a7d6 55bd 0dca 80bd 6213 90ba cafb 4bbb
00000100: 34a5 9fbe 1092 1e3f 83bc 1f3f a363 163f
00000110: e2d5 233f c7b0 403f 1e87 6f3e 66a1 203f
00000120: 0190 e33e a616 9fbe a0b5 2d3f 42b7 85be
00000130: 0dec 513f 3962 293f cc60 a83d ef6f 203f
00000140: f7fd 243f a139 e43e 8d81 043f 81b0 92be
00000150: 0a7e d33e 6d9e 483f 4348 283f c8e4 273f
00000160: 352d 203f cb64 303f 3b31 423f 2a40 8bbe
00000170: 05d3 243f b806 213f c6e7 87be 15e0 223f
00000180: 51b5 62be d10b 1d3f 9e2a 1d3f a485 293f
00000190: 5957 abbe 86c2 1c3f de83 adbe a2b3 223f
000001a0: 7252 243f d58d c6bc 982e 273f acfd fa3e
000001b0: 4b77 b43e a084 9abe c5d0 153f 69eb 14bd
000001c0: a58b 203f 7370 bdbe 3a3d 5d3f 489a 68be
000001d0: 7bae 223f 2712 5fbe 3073 1c3f 4968 2e3f
000001e0: 8285 273f 9b8a 85be 40b3 213f 81ce 70be
000001f0: ea6f 99be a3ee 9bbe b096 1b3f 8eed 2e3f

convs.0.linear1.weight f4 [64, 64]
0.20069891 0.36490676 0.32157382 0.49963456 0.46794373 0.458646 0.12759466 0.48706666
0.45274714 0.4231874 0.48157763 0.238056 0.20979339 0.2719519 0.22474864 0.4928963
0.29467252 0.46467954 0.225956 0.15705313 0.16222167 0.32496768 0.40152612 0.43398574
0.49506298 0.4678364 0.15552936 0.16284867 0.4162199 0.33327037 0.017754884 0.5557356
0.09983104 0.4635733 0.5275044 0.47684118 0.22219872 0.45460173 0.14142455 0.45202342
0.44412526 0.13632892 0.43967676 0.23535909 0.33976573 0.1275491 0.45922402 0.47640193
0.37890995 0.17757091 0.25610057 0.39309356 0.35891724 0.36953026 0.222784 0.37206638
0.32245514 0.24113193 0.40618682 0.2826363 0.50730604 0.4134011 0.41280144 0.35170016
0.027620327 -0.116798475 -0.49965408 0.074108586 -0.2764375 -0.11514133 0.132577 -0.20429999
0.0036370882 -0.38885415 -0.5361847 0.21460693 -0.015537853 -0.37178218 -0.075237684 -0.5811503
-0.02822149 -0.096525535 0.004514399 -0.0343164 -0.05233262 0.113796264 -0.6467845 -0.41458812
0.03650224 0.018753141 0.07313371 0.102240995 -0.19760075 -0.5671064 0.09750323 -0.06375476
-0.012112208 -0.22608663 -0.43510583 -0.50052845 0.109295465 -0.14717855 -0.023738325 -0.24209599
-0.6332588 0.0019016251 -0.6140974 -0.49726403 0.020004285 -0.035470694 -0.48772445 -0.03786925
-0.2412813 -0.07536676 0.020297432 -0.20100151 -0.5332788 -0.22568654 -0.5295857 -0.5984453
-0.57181376 0.019234236 0.16382262 0.06826854 -0.17998154 -0.2223121 -0.068554185 -0.4464904
-0.15179832 -0.07766258 -0.2285914 -0.21861975 -0.19092959 -0.26960143 -0.13622795 -0.13256481
-0.19678545 -0.09068395 -0.25959006 -0.19975224 -0.0395911 -0.24751411 -0.02653481 -0.15825135
-0.23925856 -0.16954859 -0.06738161 -0.17911053 -0.23126726 -0.26573378 -0.09049468 -0.083429776
-0.2520121 -0.2692401 -0.10289879 -0.014114746 -0.10189826 -0.043872055 -0.20149712 -0.2369909
-0.043039314 -0.2786795 -0.21764463 -0.21621315 -0.05636733 -0.109917685 0.0358532 -0.17153288
-0.02512584 -0.22448052 -0.21629381 0.013722431 -0.13089451 0.02882049 0.04455757 0.025554825
-0.153122 -0.06015694 -0.15418296 0.055845514 -0.0812762 -0.06806933 0.055185333 0.0260472
-0.05809668 -0.183924 -0.24820027 -0.10039173 -0.049510323 -0.14098763 -0.22118111 -0.11083031
0.27642426 0.27015293 0.25764063 0.24730496 0.34966704 0.27491322 0.23402545 0.31188875
0.46827573 0.21892819 0.4404672 0.26999235 0.14934565 0.2412558 0.14271156 0.36032394
0.24118699 0.40649423 0.30826956 0.30098188 0.1634673 0.46039957 0.3489926 0.46064964
0.34698704 0.61336523 0.36826 0.25398397 0.33398685 0.20039062 0.099054985 0.5715704
0.2033509 0.47554034 0.34381834 0.29212698 0.21869422 0.23349915 0.24658932 0.2969795
0.37140095 0.12247909 0.38668483 0.2551771 0.3251958 0.2794968 0.352909 0.28489944
0.35271153 0.20527302 0.30840757 0.3843299 0.36482766 0.29447398 0.22095184 0.3590113
0.22617765 0.26886502 0.4051072 0.25727367 0.25147617 0.17943723 0.42061448 0.4576595
00000000: 0484 4d3e 0fd5 ba3e 53a5 a43e 1ad0 ff3e
00000010: 5296 ef3e a6d3 ea3e 2da8 023e cd60 f93e
00000020: 79ce e73e 05ac d83e 5891 f63e f4c4 733e
00000030: 14d4 563e 483d 8b3e 8224 663e e75c fc3e
00000040: 51df 963e 7aea ed3e 0261 673e 89d2 203e
00000050: 701d 263e 2a62 a63e d594 cd3e 6133 de3e
00000060: e578 fd3e 4188 ef3e 1743 1f3e cdc1 263e
00000070: c61a d53e 6aa2 aa3e b172 913c b044 0e3f
00000080: 3774 cc3d 7b59 ed3e 870a 073f 8724 f43e
00000090: 1088 633e 8fc1 e83e 99d1 103e 9d6f e73e
000000a0: 6364 e33e cf99 0b3e 501d e13e f901 713e
000000b0: c6f5 ad3e 3b9c 023e 691f eb3e f4ea f33e
000000c0: 7c00 c23e 26d5 353e 9d1f 833e 8f43 c93e
000000d0: 00c4 b73e 1233 bd3e 7d21 643e 7c7f be3e
000000e0: d718 a53e 4aeb 763e b8f7 cf3e b5b5 903e
000000f0: cfde 013f 4fa9 d33e b65a d33e 0b12 b43e
00000100: 0644 e23c 0a34 efbd a9d2 ffbe 3ec6 973d
00000110: 3789 8dbe 38cf ebbd 44c2 073e 0434 51be
00000120: 375c 6e3b e417 c7be 6743 09bf ebc1 5b3e
00000130: 7b92 7ebc 3c5a bebe 3716 9abd 44c6 14bf
00000140: c130 e7bc 2eaf c5bd 86ed 933b 5a8f 0cbd
00000150: bb5a 56bd 040e e93d ab93 25bf e544 d4be
00000160: 5f83 153d 30a0 993c 20c7 953d ba63 d13d
00000170: da57 4abe e32d 11bf c6af c73d db91 82bd
00000180: 4872 46bc 4183 67be 31c6 debe a222 00bf
00000190: 4dd6 df3d f9b5 16be e076 c2bc 03e8 77be
000001a0: 401d 22bf f33f f93a 7d35 1dbf 6499 febe
000001b0: 07e0 a33c b849 11bd 05b7 f9be c91c 1bbd
000001c0: 7212 77be e359 9abd cd46 a63c 57d3 4dbe
000001d0: f684 08bf 5f1a 67be ee92 07bf b633 19bf
000001e0: 6362 12bf 1e91 9d3c 1ec1 273e 60d0 8b3d
000001f0: 154d 38be c8a5 63be 2366 8cbd 649a e4be
00000200: 0571 1bbe 8f0d 9fbd dd13 6abe dbdd 5fbe
00000210: 0c83 43be 3309 8abe 577f 0bbe 12bf 07be
00000220: 2082 49be 82b8 b9bd fde8 84be da8b 4cbe
00000230: 472a 22bd 5774 7dbe 885f d9bc a40c 22be
00000240: 3200 75be 259e 2dbe 5fff 89bd c068 37be
00000250: 53d1 6cbe 420e 88be 4655 b9bd 3bdd aabd
00000260: bb07 81be d7d9 89be 9abc d2bd 8941 67bc
00000270: 09b0 d0bd 2fb3 33bd 4355 4ebe bead 72be
00000280: fe49 30bd 14af 8ebe 3cde 5ebe fb66 5dbe
00000290: 6ee1 66bd 861c e1bd ceda 123d 51a6 2fbe
000002a0: b5d4 cdbc 39de 65be 207c 5dbe 0cd4 603c
000002b0: 3609 06be f318 ec3c 0082 363d 5a58 d13c
000002c0: 03cc 1cbe 2067 76bd 23e2 1dbe 44be 643d
000002d0: 2374 a6bd ef67 8bbd 040a 623d f060 d53c
000002e0: c9f6 6dbd 9356 3cbe 3628 7ebe 2e9a cdbd
000002f0: 56cb 4abd 105f 10be 4d7d 62be 00fb e2bd
00000300: 7b87 8d3e 7c51 8a3e 79e9 833e 833d 7d3e
00000310: 8f07 b33e 6dc1 8c3e 5ea4 6f3e e2af 9f3e
00000320: d6c1 ef3e b62e 603e eb84 e13e 703c 8a3e
00000330: 11ee 183e c30b 773e fb22 123e 617c b83e
00000340: b9f9 763e 0320 d03e 82d5 9d3e 4c1a 9a3e
00000350: f963 273e 7eb9 eb3e 28af b23e 45da eb3e
00000360: 49a8 b13e 8105 1d3f 938c bc3e 300a 823e
00000370: 5300 ab3e 3333 4d3e 57dd ca3d 7052 123f
00000380: 383b 503e 067a f33e f508 b03e ab91 953e
00000390: 61f1 5f3e 671a 6f3e e981 7c3e b20d 983e
000003a0: 4428 be3e 51d6 fa3d 8efb c53e 93a6 823e
000003b0: 1080 a63e 341a 8f3e 7db0 b43e 57de 913e
000003c0: 9b96 b43e 1733 523e 99e7 9d3e e3c6 c43e
000003d0: b1ca ba3e 4bc5 963e 3341 623e 54d0 b73e
000003e0: 1d9b 673e ada8 893e 366a cf3e 60b9 833e
000003f0: 7cc1 803e 65be 373e c85a d73e 5952 ea3e

convs.0.linear1.bias f4 [64]
0.101015724 -0.004918825 0.2400953 -0.043351885 0.16909389 -0.20607609 0.05868393 -0.2196487
0.14389522 -0.07456976 0.2137755 -0.12814844 0.21174632 0.2530229 0.0935344 -0.11440891
0.19106376 -0.13604504 0.2450026 -0.04508752 -0.009150936 -0.06583375 0.062824525 -0.07275821
0.14891045 0.0904684 -0.1503658 -0.0358977 0.018543234 0.062486026 0.17316784 -0.03921739
-0.052484684 0.052817933 0.23540284 -0.0777613 -0.078821875 -0.10373621 0.114715785 0.06930459
0.017211983 -0.061264683 0.08891767 -0.03760003 0.119377986 0.01571146 -0.03539172 -0.09344514
-0.084286086 0.2312706 -0.015423638 -0.11700042 -0.105192035 0.21394369 -0.18048528 0.2746656
-0.04202293 0.06136022 0.0883008 0.20032461 0.045930967 0.006818011 0.0030275353 -0.030558873
00000000: 55e1 ce3d 182e a1bb 8bdb 753e bf91 31bd
00000010: f326 2d3e 9c05 53be 905e 703d 97eb 60be
00000020: 4559 133e 08b8 98bd f7e7 5a3e 5839 03be
00000030: 07d4 583e 388c 813e f78e bf3d 384f eabd
00000040: 38a6 433e 644f 0bbe f6e1 7a3e b1ad 38bd
00000050: cfed 15bc d8d3 86bd 25aa 803d 4202 95bd
00000060: fb7b 183e 7f47 b93d 7ef9 19be 7709 13bd
00000070: fbe7 973c 59f1 7f3d e952 313e 6aa2 20bd
00000080: 2efa 56bd 9e57 583d 710d 713e 5141 9fbd
00000090: 5d6d a1bd a673 d4bd 1cf0 ea3d 91ef 8d3d
000000a0: 2500 8d3c adf0 7abd 781a b63d 7d02 1abd
000000b0: 727c f43d 52b5 803c e8f6 10bd 2a60 bfbd
000000c0: 2f9e acbd 33d2 6c3e 6db3 7cbc eb9d efbd
000000d0: ec6e d7bd 0e14 5b3e 22d1 38be f8a0 8c3e
000000e0: 3c20 2cbd db54 7b3d 0dd7 b43d e521 4d3e
000000f0: 1c22 3c3d 9f69 df3b 9d69 463b 9a56 fabc

convs.0.linear2.weight f4 [64, 64]
0.06745157 0.2762385 0.0555288 0.055068646 -0.045666467 0.11353613 0.11757571 -0.22300577
-0.043909106 -0.07503639 -0.20860952 -0.0057844464 -0.04620192 0.06821677 0.024006141 -0.00048966514
-0.0035177637 0.064128004 -0.040256508 0.24442287 0.06453833 -0.6364473 0.63105947 -0.34132206
-0.22087096 0.23740023 -0.104226515 -0.079980694 -0.10589115 -0.019593308 -0.08503548 0.41398457
-0.07383784 0.005164037 -0.09765366 -0.024478799 -0.02408239 -0.57812476 0.11614363 -0.047339015
-0.15389943 -0.08339997 -0.60939777 0.121305786 0.1178018 -0.14860669 0.2197719 -0.15595655
-0.38585523 -0.08075604 -0.14460686 0.013762266 0.06384537 -0.0136284735 0.19617942 0.062441383
0.26433954 0.008087215 0.4702677 -0.11826944 0.0516441 -0.18445922 -0.07001514 0.05055588
-0.5669342 1.5621928 0.38008294 -1.2962278 0.24859206 -0.30718273 -0.4376952 -0.34960815
-0.30502596 0.40904734 0.41533443 0.213581 0.102250814 0.3508348 -0.39722684 0.3701316
0.22425596 0.37558737 0.22284085 -1.2513614 -1.0177896 0.22102104 -0.3763971 0.43530446
0.38212207 0.23406887 -0.14387006 0.65743285 -0.70629096 -0.5542574 -0.20418991 -0.56302685
0.48881263 -0.546598 0.37725732 0.4684974 0.32603556 0.15836889 -0.43863013 -0.38203925
1.096103 0.59312487 0.25503513 -1.4196315 -0.45748904 1.0097061 -1.1945769 0.51350814
-0.78347504 0.24888329 0.5389559 0.26244116 0.39267197 0.35773703 -0.22820434 0.390839
-1.3846323 -0.4553399 -0.4306081 0.28406477 -0.8188766 0.44327635 -0.6631275 -1.4794443
-0.04018508 -0.07186201 -0.5829346 0.1732306 -0.6160716 0.710204 -0.0019890377 0.07259583
-0.11653763 -0.01640504 -1.0233235 -0.006945887 -0.5130564 -0.64869213 -0.1149303 0.042031243
-0.49674198 0.021006763 -0.64604664 0.22243872 0.07074671 -0.20278817 0.89013654 -0.17650582
-0.7136138 -0.49007282 0.30789644 0.116118066 0.1067728 -0.119325444 -0.10389598 0.52150273
-0.06935441 0.040364906 -0.82579994 0.009522011 0.039411463 -0.22213751 -0.0735373 -0.12037715
-0.17031801 0.09782589 -0.5152759 0.14639334 0.044138405 0.0033959185 0.2359266 -0.16223605
-0.062198088 -0.7232219 -0.19944659 -0.02155171 0.08143939 -0.8231813 0.3561186 -0.7062757
0.13664779 -0.02163046 0.3024207 -0.4264693 -0.09606594 -0.042567156 0.07408834 0.16912866
0.28352365 -0.41816562 -0.069281936 0.41314265 -0.06875077 0.112515 0.27225783 -0.022774275
0.23467626 -0.2834068 -0.22060208 -0.1565004 -0.17509769 -0.19071461 0.282368 -0.1883041
-0.15320455 -0.06688933 -0.29035422 0.5207847 0.34115312 0.8883367 -0.19755301 -0.20916772
-0.21307188 -0.44821444 0.30675724 -0.3867235 0.3519452 0.18957348 0.10632018 0.19111569
-0.29638907 0.34906703 -0.10423987 -0.12804818 -0.30800155 0.7236846 0.274461 0.25037068
-0.26306853 -0.33535248 0.5645795 0.38482642 0.0657059 -0.36443728 0.40767482 -0.024835778
0.86130416 -0.17451139 -0.38195544 -0.175583 -0.216924 -0.06972502 -0.1914982 -0.26235607
0.5070925 0.13042381 -0.14377525 -0.07135698 0.32624123 -0.157217 0.21326144 0.4402703
00000000: 0c24 8a3d 226f 8d3e 2b72 633d a98f 613d
00000010: c30c 3bbd a185 e83d 89cb f03d a05b 64be
00000020: 09da 33bd aeac 99bd bc9d 55be 748b bdbb
00000030: 393e 3dbd 3cb5 8b3d 87a8 c43c df5c 00ba
00000040: 488a 66bb 8b55 833d 02e4 24bd fd49 7a3e
00000050: ac2c 843d 36ee 22bf 1d8d 213f c4c1 aebe
00000060: ff2b 62be 0c19 733e b674 d5bd ebcc a3bd
00000070: 76dd d8bd 2582 a0bc 1527 aebd c9f5 d33e
00000080: 4b38 97bd 1537 a93b a4fe c7bd c387 c8bc
00000090: 6f48 c5bc fcff 13bf b6dc ed3d 8ee6 41bd
000000a0: d097 1dbe 9acd aabd 7e01 1cbf 2b6f f83d
000000b0: 1242 f13d 5a2c 18be e30b 613e 13b3 1fbe
000000c0: d18e c5be 6c63 a5bd d213 14be 217b 613c
000000d0: 5dc1 823d f649 5fbc 42e3 483e 89c2 7f3d
000000e0: 8357 873e 3d80 043c eec6 f03e 4037 f2bd
000000f0: c488 533d e1e2 3cbe 1964 8fbd af13 4f3d
00000100: 9a22 11bf eff5 c73f 3b9a c23e cbea a5bf
00000110: eb8e 7e3e 0e47 9dbe 9619 e0be d7ff b2be
00000120: 5d2c 9cbe a76e d13e b7a6 d43e fab4 5a3e
00000130: e068 d13d 9ea0 b33e 5161 cbbe e481 bd3e
00000140: 5ba3 653e fd4c c03e 6430 643e 9c2c a0bf
00000150: ee46 82bf 5753 623e 1fb7 c0be 3ae0 de3e
00000160: 81a5 c33e c0af 6f3e ac52 13be 854d 283f
00000170: 7ccf 34bf d0e3 0dbf 2917 51be 8722 10bf
00000180: a645 fa3e d9ed 0bbf df27 c13e e4de ef3e
00000190: 22ee a63e 742b 223e 2194 e0be a69a c3be
000001a0: 1a4d 8c3f 08d7 173f f793 823e 7cb6 b5bf
000001b0: 013c eabe 0d3e 813f e5e7 98bf 4575 033f
000001c0: d291 48bf 43db 7e3e 04f9 093f b05e 863e
000001d0: 4d0c c93e 4f29 b73e 66ae 69be 0d1c c83e
000001e0: a23b b1bf 5022 e9be aa78 dcbe f070 913e
000001f0: e6a1 51bf 1ef5 e23e b9c2 29bf 6e5e bdbf
00000200: 1c99 24bd 642c 93bd 343b 15bf 5d63 313e
00000210: deb6 1dbf eecf 353f 845a 02bb 1fad 943d
00000220: 48ab eebd dd63 86bc 44fc 82bf 539a e3bb
00000230: aa57 03bf b010 26bf 9460 ebbd f428 2c3d
00000240: f754 febe 6016 ac3c 5063 25bf fac6 633e
00000250: a7e3 903d b4a7 4fbe fddf 633f f1bd 34be
00000260: 65af 36bf d3ea fabe 9aa4 9d3e 4fcf ed3d
00000270: b3ab da3d e660 f4bd 6ac7 d4bd 3481 053f
00000280: af09 8ebd ac55 253d a067 53bf 3502 1c3c
00000290: ea6d 213d 0478 63be b99a 96bd 4c88 f6bd
000002a0: d867 2ebe f158 c83d 1fe9 03bf 23e8 153e
000002b0: 79ca 343d 0f8e 5e3b be96 713e 3521 26be
000002c0: 6cc3 7ebd 1225 39bf ba3b 4cbe 368d b0bc
000002d0: b2c9 a63d 02bc 52bf 2d55 b63e 7cce 34bf
000002e0: 66ed 0b3e 5d32 b1bc e3d6 9a3e 2f5a dabe
000002f0: 38be c4bd e65a 2ebd a1bb 973d 1030 2d3e
00000300: 032a 913e ce19 d6be b0e3 8dbd 6f87 d33e
00000310: 34cd 8cbd 446e e63d 6165 8b3e 1e91 babc
00000320: f94e 703e b21a 91be 83e5 61be a441 20be
00000330: cf4c 33be b14a 43be 8a92 903e cad2 40be
00000340: a7e1 1cbe 46fd 88bd 4fa9 94be 2552 053f
00000350: 9fab ae3e 096a 633f 564b 4abe 1030 56be
00000360: 842f 5abe 5d7c e5be 490f 9d3e 9f00 c6be
00000370: 2932 b43e 8d1f 423e 65be d93d d5b3 433e
00000380: 4fc0 97be eab8 b23e b77b d5bd 101f 03be
00000390: 61b2 9dbe 6543 393f 2786 8c3e 9630 803e
000003a0: ebb0 86be 52b3 abbe 4888 103f f807 c53e
000003b0: d190 863d 8697 babe c1ba d03e 6774 cbbc
000003c0: 6e7e 5c3f 1db3 32be aa8f c3be 08cc 33be
000003d0: 5321 5ebe fecb 8ebd 1b18 44be 8953 86be
000003e0: d0d0 013f d28d 053e d239 13be 9c23 92bd
000003f0: 1709 a73e 7efd 20be 3561 5a3e 1c6b e13e

convs.0.linear2.bias f4 [64]
0.09189713 -0.060418252 -0.37623367 -0.028493285 -0.12322502 0.22044721 -0.25353643 -0.29131156
-0.29117593 -0.17378011 -0.07962436 -0.001729298 -0.0032640435 -0.38496172 -0.16346584 -0.3579998
-0.041353762 -0.28761017 -0.21216859 0.03943959 -0.18607758 0.12594718 0.3218106 -0.18445253
0.025339184 0.19982028 0.12908106 -0.13220048 0.22272274 0.29669142 -0.015796822 -0.28910926
-0.12554173 -0.1435726 -0.24344887 0.06290958 0.091326945 -0.015533255 0.109013185 -0.0057629794
0.14154491 0.32069778 0.29517603 -0.14697897 -0.08293018 -0.31778044 -0.2100855 0.009591316
-0.37488046 0.24229285 -0.27893522 0.19301224 -0.4242534 0.0077026957 -0.09500817 0.061264113
-0.17171833 -0.06632303 -0.1761881 0.24718831 0.21548551 -0.031682372 -0.055622127 -0.26222062
00000000: 9034 bc3d 2179 77bd b3a1 c0be c06a e9bc
00000010: 665d fcbd eabc 613e 87cf 81be ca26 95be
00000020: 0315 95be 6af3 31be 1912 a3bd 9da9 e2ba
00000030: 90e9 55bb b419 c5be 9763 27be c04b b7be
00000040: 9062 29bd a441 93be b942 59be 688b 213d
00000050: 1f8b 3ebe 4cf8 003e 5cc4 a43e 20e1 3cbe
00000060: 1f94 cf3c b09d 4c3e d32d 043e 905f 07be
00000070: 6e11 643e f0e7 973e 5668 81bc 2106 94be
00000080: 038e 00be b204 13be a94a 79be bdd6 803d
00000090: 9f09 bb3d 327f 7ebc 4e42 df3d 60d7 bcbb
000000a0: 26f1 103e 8032 a43e 5021 973e a881 16be
000000b0: 4cd7 a9bd 1eb4 a2be a720 57be e524 1d3c
000000c0: 55f0 bfbe 9e1b 783e 99d0 8ebe 00a5 453e
000000d0: be37 d9be e566 fc3b a593 c2bd 14f0 7a3d
000000e0: eed6 2fbe 5ed4 87bd a76a 34be ef1e 7d3e
000000f0: 3ca8 5c3e 60c5 01bd 07d4 63bd c841 86be

convs.1.a f4 [128, 1]
0.23876123 0.12900423 0.00027905876 0.25653395 -0.00011103505 0.20271955 -5.565321e-06 -7.22559e-05
-6.7599205e-05 -3.5040437e-05 0.009377068 0.23870955 0.1685153 -9.065754e-05 0.0174621 -1.096228e-06
0.099971585 1.2962572e-06 4.5648845e-05 0.20470278 -0.011564615 0.20953184 0.15214895 -0.00020532598
0.21297574 0.15679029 0.16068995 6.3560838e-06 0.17920856 0.17761403 0.08825151 -0.00024580996
-3.6099e-05 1.6021524e-05 -1.9269337e-06 0.2316592 0.2218312 0.23826848 0.23779938 -0.007501371
0.24092755 0.1716648 0.18281682 0.035750188 -1.8054834e-05 -0.0004278382 -8.000505e-06 0.25068825
2.3246175e-06 0.1650511 -2.6715895e-06 0.16392565 -1.3660525e-06 0.16494599 0.021329174 0.17429474
1.2081947e-05 -9.468047e-05 -2.6877453e-05 0.17979388 0.18852189 0.08212757 -4.334353e-06 2.592779e-05
-0.3206361 -1.9775797 -1.426461 0.050219037 -2.2802742 0.36570215 -3.4469433 -3.8752604
-3.1746485 -2.9728494 0.5516607 -0.022146031 -1.0810549 -3.8321815 -2.9964786 -3.883401
-0.5970271 -3.7539783 -3.381577 0.20819327 -2.250442 1.7072617 0.50951225 -1.0882331
0.023165427 0.19898863 0.6327096 -3.540206 0.36636975 0.34954834 0.88488805 -3.4453926
-2.6890106 -2.0259957 -3.4415107 0.1934473 0.23434234 0.35535175 0.18080011 0.45840648
0.64725393 0.37764576 0.35324478 0.7152967 -2.6871126 -2.990399 -3.636848 0.31781894
-3.4397974 0.42375433 -3.7189443 -0.16159977 -3.3962178 0.34787133 1.2148883 0.0731058
-3.4022858 -2.161998 -3.7816372 0.0062725395 0.47954583 0.6301821 -3.0713136 -3.0825326
00000000: d37d 743e af19 043e a24e 9239 6b58 833e
00000010: 7ddb e8b8 b795 4f3e bebd bab6 1788 97b8
00000020: 0cc4 8db8 62f8 12b8 46a2 193c 4770 743e
00000030: 468f 2c3e 651f beb8 ae0c 8f3c 1b22 93b5
00000040: e7bd cc3d 0ffb ad35 1377 3f38 9b9d 513e
00000050: 8379 3dbc 848f 563e efcc 1b3e c64c 57b9
00000060: 5016 5a3e a28d 203e e88b 243e 5846 d536
00000070: 7382 373e 74e0 353e 35bd b43d 0ee0 80b9
00000080: 0269 17b8 f665 8637 7850 01b6 1238 6d3e
00000090: b827 633e a7fc 733e ae81 733e 10ce f5bb
000000a0: b6b5 763e e6c8 2f3e 5534 3b3e ca6e 123d
000000b0: 7674 97b7 794f e0b9 e839 06b7 365a 803e
000000c0: a000 1c36 2803 293e 8f49 33b6 20dc 273e
000000d0: 3559 b7b5 9ae7 283e 85ba ae3c 527a 323e
000000e0: 91b3 4a37 318f c6b8 e476 e1b7 e31b 383e
000000f0: e20b 413e 8032 a83d cf6f 91b6 817f d937
00000100: 6a2a a4be 5521 fdbf 4696 b6bf 7ab2 4d3d
00000110: 03f0 11c0 503d bb3e b89a 5cc0 4404 78c0
00000120: 712d 4bc0 2a43 3ec0 a339 0d3f 986b b5bc
00000130: 0260 8abf 7642 75c0 4ec6 3fc0 a489 78c0
00000140: c5d6 18bf 2e41 70c0 c26b 58c0 9e30 553e
00000150: 3e07 10c0 8d87 da3f 656f 023f 394b 8bbf
00000160: 6cc5 bd3c adc3 4b3e 42f9 213f bc92 62c0
00000170: d194 bb3e 00f8 b23e 0688 623f 5081 5cc0
00000180: c018 2cc0 eaa9 01c0 b641 5cc0 0d17 463e
00000190: 70f7 6f3e aaf0 b53e aa23 393e 41b4 ea3e
000001a0: 6fb2 253f c95a c13e 80dc b43e af1d 373f
000001b0: a7f9 2bc0 b262 3fc0 1ec2 68c0 2ab9 a23e
000001c0: a425 5cc0 54f6 d83e 2f03 6ec0 697a 25be
000001d0: a25b 59c0 311c b23e 7681 9b3f 7eb8 953d
000001e0: 0dbf 59c0 2d5e 0ac0 5806 72c0 e089 cd3b
000001f0: 0887 f53e 9d53 213f 6790 44c0 3748 45c0

convs.1.linear1.weight f4 [64, 64]
0.15239117 -1.775381 -2.1176736 0.08812309 -1.4243839 0.4400376 -1.9861766 -1.9442639
-2.1537683 -1.8037332 0.011429554 0.052135892 0.30531585 -1.5279782 -1.90721 -2.216346
-0.043574695 -2.3561702 -1.975028 0.05048242 -1.812257 -0.406083 0.39443251 -1.5815825
0.10731201 0.51120377 0.35596976 -2.0956397 0.47476688 0.41294274 -0.438659 -2.0102625
-1.7422098 -0.5332484 -1.9586724 0.020291172 -0.090814784 0.035393957 0.1621629 0.32608834
0.1423945 0.414035 0.42738026 -0.12000856 -1.1623878 -1.9863913 -2.1793983 0.03971986
-2.034576 0.469902 -2.247881 0.5860566 -2.0841372 -0.05847977 -0.3915545 0.4804193
-2.0435536 -0.68292713 -1.9213296 0.5310374 0.23422374 -0.14975622 -1.9236842 -1.9607483
0.5044912 1.612984 1.2349267 -0.28132072 0.58910656 -0.4481877 1.1507611 2.2688558
2.0272956 0.7002306 0.10753884 -0.049491726 0.63551855 2.0884776 1.7358063 1.8420246
-0.1321796 2.0598304 1.4949968 0.29911348 0.77715737 0.4289298 -0.41393393 0.062495526
0.15553926 -0.27434263 -0.17627116 1.7675073 -0.15672208 -0.5069183 -0.094920486 1.377503
0.9318928 0.3147317 1.322238 0.19892427 0.091391854 -0.048559133 -0.020988408 -0.15774111
-0.23454417 -0.2672694 -0.41411832 0.028458554 1.3875788 1.382331 1.5418255 0.16496421
1.2240849 -0.33028287 1.6980604 -0.3082572 1.2682353 -0.16153428 0.4160152 -0.056416947
1.6782722 0.67773855 2.639832 -0.016827995 -0.36185843 -0.21914008 1.5024326 2.0293632
-0.43745562 -0.76639026 -0.33544654 0.05595158 -0.30179274 0.19747481 -0.40601277 -0.39122602
-0.65442574 -0.33914 -0.25555456 -0.1407703 -0.14975995 -0.35364935 -0.511875 -0.6237044
-0.2624465 -0.56239533 -0.5711198 -0.3789846 -0.26471654 -0.4660732 0.17138048 -0.0070218565
-0.2401847 0.056395777 0.015147844 -0.5364657 0.116095975 0.1564901 -0.35429808 -0.5545058
-0.49830765 -0.35817754 -0.48681083 -0.23443627 -0.18077438 -0.30287138 -0.03466831 -0.074365735
0.016813854 0.31912702 0.16606745 -0.40646207 -0.40394634 -0.4576326 -0.62161505 -0.07058008
-0.4601103 0.11671275 -0.48286337 0.2756597 -0.46217772 -0.095454425 -0.6843174 -0.08321647
-0.40305886 -0.40952158 -0.61723804 -0.008702145 0.28673613 -0.16994469 -0.5524951 -0.4116493
-0.44785297 -0.98882014 -0.636442 0.0039756023 -0.3217591 0.16558875 -0.6017727 -0.66462374
-0.9131768 -0.5666552 -0.44081712 -0.04963151 -0.38308918 -0.7417535 -0.84167475 -0.8590645
-0.15755628 -0.9571403 -0.70280224 -0.30087423 -0.52522504 -0.39209792 0.34323594 -0.040888146
-0.17586808 0.06947224 0.07550985 -0.5658903 0.1616374 0.26947784 -0.23998411 -0.73794854
-0.6294799 -0.23770979 -0.60987616 -0.37100187 -0.25160956 -0.27041325 0.013987752 -0.10737619
-0.09746346 0.12488935 0.24113134 -0.46873626 -0.55463606 -0.654246 -0.71423006 -0.049744453
-0.5438612 0.30923194 -0.86164176 0.2824299 -0.6431072 -0.04147437 -0.48834875 0.022747401
-0.66384727 -0.35503334 -0.8460413 0.09686308 0.29677138 -0.05127416 -0.64848673 -0.8803752
00000000: 6e0c 1c3e af3f e3bf f787 07c0 e179 b43d
00000010: 3652 b6bf 9c4c e13e 093b febf a4dd f8bf
00000020: 57d7 09c0 bbe0 e6bf 0643 3b3c 728c 553d
00000030: 5c52 9c3e ca94 c3bf 751f f4bf 9dd8 0dc0
00000040: 617b 32bd 7ecb 16c0 b8cd fcbf a7c6 4e3d
00000050: 0af8 e7bf 1cea cfbe 0ff3 c93e 4c71 cabf
00000060: 66c6 db3d 40de 023f ab41 b63e f61e 06c0
00000070: a514 f33e 3b6d d33e ea97 e0be 24a8 00c0
00000080: bb00 dfbf f882 08bf c7b5 fabf ac39 a63c
00000090: 1afd b9bd 41f9 103d 080e 263e 0df5 a63e
000000a0: ddcf 113e 65fc d33e 96d1 da3e 0cc7 f5bd
000000b0: 20c9 94bf 1242 febf 437b 0bc0 4bb1 223d
000000c0: 7e36 02c0 ff96 f03e 48dd 0fc0 ce07 163f
000000d0: 8162 05c0 7c88 6fbd d579 c8be 85f9 f53e
000000e0: 95c9 02c0 50d4 2ebf 21ee f5bf 11f2 073f
000000f0: 59d8 6f3e b259 19be 493b f6bf cdf9 fabf
00000100: 5626 013f 4276 ce3f 1412 9e3f 4509 90be
00000110: b0cf 163f dc78 e5be 244c 933f ef34 1140
00000120: 36bf 0140 5042 333f 533d dc3d d6b7 4abd
00000130: 58b1 223f 9ea9 0540 e72e de3f 76c7 eb3f
00000140: 175a 07be 43d4 0340 0e5c bf3f 6725 993e
00000150: c9f3 463f b09c db3e 26ef d3be 4ffb 7f3d
00000160: af45 1f3e a376 8cbe 6d80 34be ae3d e23f
00000170: c17b 20be 66c5 01bf ac65 c2bd 0552 b03f
00000180: 8790 6e3f 8324 a13e 183f a93f ceb2 4b3e
00000190: a72b bb3d f1e5 46bd e2ef abbc e386 21be
000001a0: 592c 70be 89d7 88be 5107 d4be ea21 e93c
000001b0: 2f9c b13f 39f0 b03f 8a5a c53f 61ec 283e
000001c0: d0ae 9c3f d61a a9be 0b5a d93f e3d3 9dbe
000001d0: 8955 a23f 3e69 25be f2ff d43e 7515 67bd
000001e0: a0d1 d63f 4680 2d3f 02f3 2840 ddda 89bc
000001f0: 8245 b9be 4266 60be b64f c03f 16e1 0140
00000200: 2ffa dfbe 2732 44bf a6bf abbe 7c2d 653d
00000210: 9484 9abe d636 4a3e e8e0 cfbe c74e c8be
00000220: 7288 27bf c2a3 adbe 0cd8 82be 1726 10be
00000230: ac5a 19be 8711 b5be 3d0a 03bf 17ab 1fbf
00000240: 635f 86be 24f9 0fbf e834 12bf 450a c2be
00000250: ed88 87be 25a1 eebe 5d7e 2f3e 9a17 e6bb
00000260: faf2 75be 42ff 663d aa2e 783c d155 09bf
00000270: bac3 ed3d f13e 203e 8f66 b5be 18f4 0dbf
00000280: 2e22 ffbe 0c63 b7be 453f f9be 1010 70be
00000290: eb1c 39be f511 9bbe 5c00 0ebd 104d 98bd
000002a0: 35bd 893c 9e64 a33e 960d 2a3e cc1b d0be
000002b0: 0ed2 cebe d24e eabe 2a22 1fbf 4a8c 90bd
000002c0: 9493 ebbe 1807 ef3d de39 f7be 4523 8d3e
000002d0: 8fa2 ecbe 9c7d c3bd 6d2f 2fbf 666d aabd
000002e0: bb5d cebe d0ac d1be 5003 1ebf 7193 0ebc
000002f0: 14cf 923e fb05 2ebe 5270 0dbf b2c3 d2be
00000300: fc4c e5be 5123 7dbf dded 22bf c545 823b
00000310: 9cbd a4be 1990 293e c70d 1abf c824 2abf
00000320: f4c5 69bf 5110 11bf c8b2 e1be 694a 4bbd
00000330: 4424 c4be 8fe3 3dbf ff77 57bf a7eb 5bbf
00000340: 6f56 21be 2607 75bf d9ea 33bf 300c 9abe
00000350: 2675 06bf 0fc1 c8be 9fbc af3e 547a 27bd
00000360: c316 34be 7647 8e3d e9a4 9a3d 30de 10bf
00000370: 4684 253e 00f9 893e 65be 75be 32ea 3cbf
00000380: 9825 21bf 326a 73be d820 1cbf f5f3 bdbe
00000390: f8d2 80be 9b73 8abe e22c 653c 0ce8 dbbd
000003a0: ec9a c7bd fdc5 ff3d 22eb 763e 33fe efbe
000003b0: a1fc 0dbf aa7c 27bf c8d7 36bf d7c0 4bbd
000003c0: 7d3a 0bbf a653 9e3e 8e94 5cbf a79a 903e
000003d0: aca2 24bf 07e1 29bd d908 fabe c258 ba3c
000003e0: e5f1 29bf eec6 b5be 2a96 58bf 2760 c63d
000003f0: 6bf2 973e db04 52bd 3a03 26bf 4560 61bf

convs.1.linear1.bias f4 [64]
-0.1848233 0.6529172 -0.2689396 -0.32768813 0.7581131 0.5661905 -0.0016722385 0.37706003
0.7207525 -0.0069134324 0.4999844 0.14365274 0.52787226 0.28838903 0.49982283 0.67095923
-0.18754789 0.622723 -0.3712337 -0.42481938 -0.5398575 0.20313318 -0.49126893 0.090877384
0.12443153 0.46478647 0.15187351 0.53002185 0.0897062 0.29098952 0.09925078 -0.35072005
0.2952116 0.09113225 0.40617153 -0.26428792 0.67169404 0.63384145 0.10872286 -0.72405505
-0.000759358 0.44364974 0.11637676 -0.002372352 -0.574858 0.7608906 0.072492376 -0.3584943
-0.15346621 0.40631294 0.36064935 0.593342 0.7408709 0.06736412 -0.7094396 0.32735246
0.46768627 -0.003670793 0.0625107 0.59527296 -0.554371 0.59413093 -0.12453805 0.042837847
00000000: 5242 3dbe 9525 273f 74b2 89be bdc6 a7be
00000010: b313 423f dcf1 103f 032f dbba 030e c13e
00000020: 3c83 383f 138a e2bb f5fd ff3e b419 133e
00000030: a322 073f baa7 933e c7e8 ff3e fcc3 2b3f
00000040: 8e0c 40be c66a 1f3f 5812 bebe ed81 d9be
00000050: 1a34 0abf 2502 503e 9a87 fbbe ec1d ba3d
00000060: f5d5 fe3d 7ef8 ed3e bb84 1b3e 83af 073f
00000070: e2b7 b73d 94fc 943e fe43 cb3d 9491 b3be
00000080: fa25 973e 8ca3 ba3d b7f5 cf3e bf50 87be
00000090: 24f4 2b3f 6f43 223f 17aa de3d ac5b 39bf
000000a0: a70f 47ba 0f26 e33e f056 ee3d 7679 1bbb
000000b0: e529 13bf bac9 423f e276 943d 918c b7be
000000c0: 3f26 1dbe 4008 d03e 08a7 b83e 43e5 173f
000000d0: b7a9 3d3f 33f6 893d d59d 35bf be9a a73e
000000e0: 9374 ef3e b091 70bb 9c05 803d cf63 183f
000000f0: 42eb 0dbf f718 183f ce0d ffbd bd76 2f3d

convs.1.linear2.weight f4 [64, 64]
-0.21228205 0.4607665 -0.028659804 -0.3727729 0.85821897 0.8966926 0.08455582 0.5446239
0.7564446 0.15248726 0.4714221 0.28288302 0.5412876 0.5576356 0.93177086 0.54312193
-0.26341727 0.7130165 -0.1795534 -0.62769365 -0.5025512 0.018663 -0.52788585 0.19871923
0.072431825 0.7481924 0.31359997 0.87364876 -0.032908466 0.31653023 0.0015263935 -0.37101147
0.52155054 0.13176326 0.70490783 -0.06520851 0.660223 0.5525094 0.1308301 -0.9785081
0.43431804 0.6628637 0.2812558 0.35704124 -0.7811829 1.1330225 0.24805081 -0.38639644
-0.34863365 0.82668906 0.9422515 0.7678583 0.82566863 0.10587675 -0.7470467 1.3170033
0.32594353 -0.20911032 -0.21396998 0.7782159 -0.50780565 0.58751583 0.119680285 0.06487496
-0.22406581 0.45225477 -0.35849765 -0.5106191 0.65230596 0.9102324 -0.05632408 0.6169401
0.60113806 -0.12929286 0.50307906 0.38818452 0.5821747 0.52346796 0.77180505 0.5709505
-0.30299276 0.7850257 -0.489201 -0.6346118 -0.44655856 0.15421802 -0.6310557 0.20479658
0.1698504 0.5373638 0.06302605 0.8845044 -0.019991182 0.37468868 0.048366036 -0.34814438
0.5709346 0.066644534 0.79150575 -0.46535984 0.62817484 0.5041017 0.19951603 -1.0738244
-0.07784418 0.62447 0.110467665 0.13314736 -0.71828806 0.7754821 0.2773635 -0.5169991
-0.21400042 0.79160804 0.8698963 0.8136878 0.73433596 -0.0060512503 -0.79766226 0.8723385
0.26358968 -0.13036543 0.14684004 0.68056804 -0.4935905 0.4570788 -0.12705061 0.008511465
-0.1570275 0.35594803 -0.08225368 -0.3217075 0.8731589 0.8721889 0.023875756 0.48572424
0.57780004 0.05012274 0.5405749 0.13229373 0.6342203 0.5185569 0.88429415 0.59342927
-0.26033095 0.82043755 -0.2662595 -0.50452393 -0.35640672 0.05216014 -0.50233585 0.19454108
0.19869928 0.5803577 0.32128647 0.75493324 0.2022986 0.37504312 0.049193565 -0.20316803
0.45312196 0.2674817 0.6966515 -0.124189354 0.7363942 0.45959887 0.23010138 -0.7832951
0.27737424 0.7027131 0.23563375 0.17421222 -0.56705034 1.0720632 0.19172975 -0.14570706
-0.25061947 0.8191793 1.030551 0.73965913 0.59699935 0.17610209 -0.66749847 1.2102903
0.34752116 -0.24942246 -0.083194755 0.68193114 -0.43514755 0.6476964 0.096659556 0.048885006
0.325682 -0.5408291 0.28063896 0.14141478 -0.795121 -1.0225682 0.17208615 -0.5964423
-0.6107082 -0.11332231 -0.6139858 -0.28737602 -0.6084738 -0.39418676 -0.71940535 -0.38629714
0.23955624 -0.64331317 0.34960228 0.2853436 0.4090517 0.03280315 0.49068314 -0.12339548
-0.16912197 -0.5406388 0.15119113 -0.94413 -0.09638699 -0.35941064 -0.15189593 0.27891847
-0.31052253 -0.13976532 -0.6288857 -0.046458676 -0.47867045 -0.62682164 -0.20615068 0.44412848
-0.24919233 -0.5666733 -0.22179028 -0.034132738 0.5652593 -0.7971412 -0.036201645 0.28065935
0.015224068 -0.80593234 -0.75618684 -0.7614992 -0.86880046 -0.0344476 0.78593516 -0.644722
-0.35733104 -0.0073630256 0.16268784 -0.73258114 0.4146473 -0.5048858 -0.026604848 -0.012079803
00000000: 7760 59be 96e9 eb3e f7c7 eabc 17dc bebe
00000010: 3db4 5b3f a58d 653f 9a2b ad3d 796c 0b3f
00000020: 5aa6 413f 9f25 1c3e 3d5e f13e 0bd6 903e
00000030: d391 0a3f 35c1 0e3f 8988 6e3f 0a0a 0b3f
00000040: a1de 86be 4088 363f d9dc 37be 88b0 20bf
00000050: 32a7 00bf 26e3 983c 8723 07bf 0e7d 4b3e
00000060: 2357 943d 8a89 3f3f 2d90 a03e 72a7 5f3f
00000070: 07cb 06bd 4010 a23e 4411 c83a 37f5 bdbe
00000080: 5684 053f f3ec 063e d774 343f 0a8c 85bd
00000090: 6004 293f 4271 0d3f 53f8 053e 827f 7abf
000000a0: ef5e de3e 6fb1 293f c300 903e 1cce b63e
000000b0: 9afb 47bf e206 913f 0801 7e3e c1d5 c5be
000000c0: 1c80 b2be e5a1 533f 6537 713f 5d92 443f
000000d0: 055f 533f e9d5 d83d 743e 3fbf 9093 a83f
000000e0: 12e2 a63e 0421 56be f21a 5bbe 2839 473f
000000f0: 8dff 01bf 7067 163f f01a f53d 2add 843d
00000100: 8271 65be f08d e73e 018d b7be efb7 02bf
00000110: 86fd 263f fe04 693f 14b4 66bd c9ef 1d3f
00000120: 2fe4 193f 5965 04be cac9 003f 1fc0 c63e
00000130: 6709 153f ff01 063f 0495 453f d029 123f
00000140: de21 9bbe 72f7 483f 8e78 fabe eb75 22bf
00000150: 53a3 e4be 54eb 1d3e de8c 21bf 32b6 513e
00000160: 43ed 2d3e ad90 093f cd13 813d e16e 623f
00000170: 8cc4 a3bc 32d7 bf3e 771b 463d fb3f b2be
00000180: c528 123f ee7c 883d 1fa0 4a3f a543 eebe
00000190: 11d0 203f cf0c 013f ee4d 4c3e 1473 89bf
000001a0: c56c 9fbd 44dd 1f3f df3c e23d c857 083e
000001b0: bae1 37bf ff85 463f 9702 8e3e 0e5a 04bf
000001c0: ed22 5bbe d3a6 4a3f 86b1 5e3f d84d 503f
000001d0: 71fd 3b3f 9149 c6bb 9833 4cbf 9351 5f3f
000001e0: 3af5 863e 847e 05be 3c5d 163e b539 2e3f
000001f0: e5b7 fcbe 3c06 ea3e 8e19 02be ac73 0b3c
00000200: d1cb 20be d23e b63e 9e74 a8bd d8b6 a4be
00000210: 5787 5f3f c647 5f3f 1797 c33c d9b0 f83e
00000220: b4ea 133f 814d 4d3d 1e63 0a3f 0278 073e
00000230: 435c 223f 25c0 043f 1a61 623f fbea 173f
00000240: 194a 85be 3208 523f 2a53 88be 7b28 01bf
00000250: f17a b6be dfa5 553d 1599 00bf c735 473e
00000260: d377 4b3e 5292 143f a97f a43e 4e43 413f
00000270: 5d27 4f3e a705 c03e 317f 493d 480b 50be
00000280: 9aff e73e 5df3 883e c157 323f fd56 febd
00000290: 5584 3c3f 8b50 eb3e b29f 6b3e 0786 48bf
000002a0: ff03 8e3e 01e5 333f f949 713e b064 323e
000002b0: 362a 11bf 5e39 893f ce54 443e 3b34 15be
000002c0: 3251 80be bcb5 513f 18e9 833f 4d5a 3d3f
000002d0: f3d4 183f 1b54 343e 2ee1 2abf cbea 9a3f
000002e0: 4bee b13e 9a68 7fbe 0362 aabd 0a93 2e3f
000002f0: a9cb debe 6ecf 253f 72f5 c53d a53b 483d
00000300: cbbf a63e c773 0abf e9af 8f3e 09cf 103e
00000310: 0d8d 4bbf 84e3 82bf 5a37 303e 71b0 18bf
00000320: 5f57 1cbf 8715 e8bd 2c2e 1dbf f322 93be
00000330: f0c4 1bbf d9d2 c9be f32a 38bf bdc8 c5be
00000340: 3b4e 753e 2cb0 24bf 12ff b23e 8e18 923e
00000350: 396f d13e 995c 063d d23a fb3e c5b6 fcbd
00000360: 4f2e 2dbe 4e67 0abf d9d1 1a3e 81b2 71bf
00000370: 8b66 c5bd ac04 b8be 9b8a 1bbe 67ce 8e3e
00000380: cffc 9ebe a41e 0fbe a7fe 20bf 744b 3ebd
00000390: 4b14 f5be 6277 20bf 2a19 53be cf64 e33e
000003a0: 462c 7fbe 8011 11bf fe1c 63be c5ce 0bbd
000003b0: d5b4 103f 7211 4cbf 2d48 14bd 95b2 8f3e
000003c0: 5f6e 793c 9551 4ebf 7695 41bf 9df1 42bf
000003d0: b569 5ebf ed18 0dbd 0c33 493f 800c 25bf
000003e0: 18f4 b6be 8945 f1bb a497 263e 708a 3bbf
000003f0: a74c d43e 3240 01bf 69f2 d9bc 5eea 45bc

convs.1.linear2.bias f4 [64]
0.29870644 0.299629 0.23278068 -0.23263837 0.025244594 0.24699165 -0.14290202 -0.1443468
-0.14334106 0.321224 0.12103525 0.07002943 -0.04133465 -0.26076424 0.13074875 0.030175393
0.06646251 -0.12830764 0.20959623 0.3610418 -0.29301825 0.054097466 0.28928483 0.09895646
-0.07138682 -0.17995039 0.27920777 -0.121199526 -0.1392674 0.21495374 0.35133877 -0.17190176
0.29720318 -0.12415265 -0.047777615 0.19338745 -0.17752352 -0.005008532 -0.09735469 -0.1880398
0.31374052 -0.29041106 0.07182485 -0.18835403 -0.052912533 0.19658904 0.29270452 0.24893627
0.35504588 -0.12274287 0.2900834 0.29101366 0.29798946 0.2678545 0.3023993 -0.27882704
-0.23397514 0.40957808 -0.22060503 0.15100089 -0.14980471 -0.02718342 -0.16278136 0.19207633
00000000: 0df0 983e f968 993e 0f5e 6e3e c138 6ebe
00000010: c0cd ce3c 61eb 7c3e e854 12be a6cf 13be
00000020: 00c8 12be 7977 a43e 54e1 f73d 976b 8f3d
00000030: 864e 29bd e482 85be 00e3 053e 6332 f73c
00000040: 7f1d 883d 1463 03be 65a0 563e 79da b83e
00000050: 7d06 96be 4e95 5d3d 241d 943e afa9 ca3d
00000060: 4133 92bd ea44 38be 52f4 8e3e 7537 f8bd
00000070: 1d9c 0ebe d51c 5c3e ade2 b33e 0407 30be
00000080: 042b 983e bf43 febd 76b2 43bd 5c07 463e
00000090: bac8 35be 9d1e a4bb e561 c7bd 818d 40be
000000a0: 99a2 a03e c2b0 94be e818 933d e1df 40be
000000b0: d0ba 58bd a34e 493e 5edd 953e 26e9 7e3e
000000c0: 93c8 b53e 9d60 fbbd d085 943e beff 943e
000000d0: 1392 983e 3a24 893e 15d4 9a3e 6bc2 8ebe
000000e0: 2e97 6fbe 38b4 d13e 49e6 61be fa9f 1a3e
000000f0: 6866 19be c3af debc 28b0 26be a8af 443e

mlp1.weight f4 [64, 192]
0.19612892 -0.26043746 0.23166975 -0.15563628 -0.018006172 -0.10554542 0.09932415 0.16008857
0.21557385 -0.09967859 -0.010356703 0.08513625 -0.0148824435 -0.27867845 0.11209143 0.19395308
-0.065619215 -0.0246403 -0.107578576 0.15954442 0.009887333 -0.0876697 -0.3006985 -0.27715072
0.03538663 -0.023982655 -0.020209951 0.18608168 0.03331965 -0.3232826 0.10415945 0.100208305
0.07970018 -0.08377824 -0.28408754 0.12413367 0.2446857 0.19499005 0.23578972 -0.15221731
0.08476723 0.030729914 -0.006362094 0.23371655 -0.08405954 0.023564909 -0.23208526 -0.047176577
0.11136805 0.29276684 -0.031052347 -0.06503106 -0.38830075 0.38525978 -0.023283215 -0.28674656
0.1806934 0.060906895 -0.19958639 0.11577794 0.23340574 0.26296672 -0.053308606 -0.025278661
-0.070639685 0.013882896 -0.21340498 -0.09468391 -0.052445367 0.23008807 -0.1086706 -0.16209523
-0.17962047 -0.13308343 0.049694628 -0.057021756 -0.019707438 -0.2868575 -0.18233123 -0.11548855
-0.16255188 -0.12299433 -0.022344306 -0.028322386 -0.14212494 -0.30167428 0.17854328 -0.17834286
-0.012448708 0.29314855 0.4106598 0.034579933 0.19637129 0.18414842 -0.26970413 -0.10984713
-0.0027424358 -0.06405511 -0.0035895463 0.012623846 -0.043374337 -0.07905863 0.029759042 0.049884856
0.045778375 0.19967969 0.17595328 0.1915076 -0.16437669 -0.17381682 -0.04954671 0.03961288
-0.06500722 0.25880063 -0.09304646 0.30162904 -0.04862947 -0.04625378 -0.02972751 0.3898855
-0.08872345 0.00886078 -0.34608766 0.3210505 0.2549023 -0.01897449 -0.017668722 -0.15898485
0.048568457 0.003303902 -0.014284205 -0.01925288 -0.3263338 0.04781704 -0.009408841 0.0028371639
-0.09639099 0.063610256 -0.110394314 0.076530874 0.044927526 -0.06355597 -0.08908056 -0.330927
0.2473899 -0.005352049 -0.16562389 0.068611205 -0.037935708 -0.34794185 0.07954782 -0.033793516
0.004888116 -0.05686596 0.10848237 0.04161259 -0.116657875 0.07051323 -0.022072835 -0.061520778
0.04446673 0.042607002 -0.590861 0.07252033 -0.0233687 -0.27789095 0.08953348 0.011088943
0.032134376 -0.09169041 0.14352262 -0.10544533 -0.0077165803 -0.6985326 0.05008869 0.03524881
-0.084073305 -0.028092753 0.025224552 0.054532308 0.0049253823 -0.034837894 0.12188019 -0.07997358
-0.124250695 -0.007879995 -0.03859909 -0.06267907 0.06528047 -0.093988284 -0.09386586 -0.17726985
0.09323469 0.07347401 -0.36071518 0.19284543 -0.14520231 0.10186428 -0.10398854 -0.3557708
-0.24104528 0.2525555 -0.26411167 0.06405589 0.03829459 0.23039801 -0.02187235 -0.34238118
-0.13954546 0.22912262 0.30297965 -0.118114434 -0.091219045 -0.072330415 0.26678637 0.26488224
-0.21775259 -0.028342908 -0.13276565 -0.05815911 -0.1913701 0.20696926 0.1262949 -0.2536126
0.14817846 -0.22181797 0.13282691 -0.2801895 -0.020074286 -0.26876518 -0.07544425 0.12205236
-0.34579825 0.0063926927 -0.18659326 -0.33825392 0.20783228 0.13357328 0.4136235 0.31125417
-0.3946669 -0.021655455 -0.0064910864 0.21863568 0.22446075 -0.20465973 -0.27991337 0.22026311
-0.44320628 0.1623811 0.036815833 -0.0014890241 -0.109258056 -0.07722712 -0.16383079 -0.22551604
00000000: 05d6 483e 0f58 85be d63a 6d3e 1e5f 1fbe
00000010: ae81 93bc 3228 d8bd 766a cb3d 42ee 233e
00000020: 64bf 5c3e 4a24 ccbd 29af 29bc ea5b ae3d
00000030: 7ed5 73bc f1ae 8ebe 3190 e53d a39b 463e
00000040: 5e63 86bd 74da c9bc 2852 dcbd 9d5f 233e
00000050: 7bfe 213c 2c8c b3bd 27f5 99be b3e6 8dbe
00000060: 92f1 103d 4677 c4bc 578f a5bc 328c 3e3e
00000070: 2f7a 083d 4c85 a5be 8d51 d53d 033a cd3d
00000080: d939 a33d ed93 abbd ec73 91be cb39 fe3d
00000090: e38e 7a3e 79ab 473e dc72 713e dbde 1bbe
000000a0: 719a ad3d 4dbd fb3c 1d79 d0bb 6453 6f3e
000000b0: 6827 acbd 320b c13c c2a7 6dbe 3a3c 41bd
000000c0: ef14 e43d 89e5 953e 7e61 febc 012f 85bd
000000d0: 5bcf c6be c540 c53e 71bc bebc 72d0 92be
000000e0: b107 393e 8279 793d 6060 4cbe fc1c ed3d
000000f0: ea01 6f3e 93a3 863e 205a 5abd 3215 cfbc
00000100: 8aab 90bd 1675 633c d686 5abe a3e9 c1bd
00000110: f4d0 56bd 359c 6b3e b18e debd 4bfc 25be
00000120: 6eee 37be 0647 08be 988c 4b3d a58f 69bd
00000130: 7e71 a1bc fcde 92be 0ab5 3abe 4385 ecbd
00000140: 0074 26be 74e4 fbbd 680b b7bc 5904 e8bc
00000150: 3389 11be 0d75 9abe 0dd4 363e 839f 36be
00000160: aaf5 4bbc 9117 963e 0042 d23e b0a3 0d3d
00000170: 8e15 493e 6791 3c3e a916 8abe 88f7 e0bd
00000180: 70ba 33bb 532f 83bd 983e 6bbb 3fd4 4e3c
00000190: 4aa9 31bd 7ee9 a1bd 3cc9 f33c 1054 4c3d
000001a0: 1b82 3b3d d578 4c3e 192d 343e 911a 443e
000001b0: 5d52 28be 09fd 31be 7ef1 4abd 1e41 223d
000001c0: 8122 85bd 8481 843e 248f bebd 1f6f 9a3e
000001d0: b22f 47bd 9b74 3dbd 1b87 f3bc 129f c73e
000001e0: a4b4 b5bd ce2c 113c 6732 b1be bb60 a43e
000001f0: 8e82 823e 6470 9bbc ffbd 90bc edcc 22be
00000200: b8ef 463d 4786 583b 4c08 6abc 37b8 9dbc
00000210: 3915 a7be cddb 433d 8a27 1abc b6ef 393b
00000220: a468 c5bd 1846 823d 6a16 e2bd 38bc 9c3d
00000230: ed05 383d a229 82bd de6f b6bd 446f a9be
00000240: c753 7d3e 3e60 afbb 4f99 29be 0884 8c3d
00000250: 7962 1bbd 6f25 b2be f8e9 a23d 126b 0abd
00000260: 7d2c a03b 48ec 68bd 012c de3d f771 2a3d
00000270: 53ea eebd 3e69 903d 17d2 b4bc 36fd 7bbd
00000280: bf22 363d ae84 2e3d ab42 17bf 8a85 943d
00000290: b76f bfbc b947 8ebe 545d b73d 66ae 353c
000002a0: 569f 033d 2fc8 bbbd 98f7 123e b9f3 d7bd
000002b0: 5edb fcbb 08d3 32bf cc29 4d3d 0e61 103d
000002c0: a02e acbd c622 e6bc b8a3 ce3c 455d 5f3d
000002d0: 1a65 a13b 2eb2 0ebd 529c f93d 30c9 a3bd
000002e0: 2677 febd 181b 01bc 141a 1ebd e25d 80bd
000002f0: c4b1 853d ee7c c0bd be3c c0bd 3a86 35be
00000300: d4f1 be3d 8b79 963d a9af b8be 4679 453e
00000310: eaaf 14be 389e d03d f2f7 d4bd 9727 b6be
00000320: 93d4 76be f44e 813e a539 87be bc2f 833d
00000330: cada 1c3d 75ed 6b3e a42d b3bc 964c afbe
00000340: 01e5 0ebe 1f9f 6a3e 2620 9b3e fbe5 f1bd
00000350: 0dd1 babd f821 94bd 3998 883e a59e 873e
00000360: 89fa 5ebe 632f e8bc b8f3 07be 3f38 6ebd
00000370: 86f6 43be c0ef 533e 7353 013e 83d9 81be
00000380: 18bc 173e 4024 63be c703 083e 0075 8fbe
00000390: d472 a4bc 979b 89be 8482 9abd 96f6 f93d
000003a0: 780c b1be cb79 d13b 4e12 3fbe 9e2f adbe
000003b0: fcd1 543e 6fc7 083e 76c6 d33e b55c 9f3e
000003c0: c811 cabe c866 b1bc 2eb3 d4bb 08e2 5f3e
000003d0: 0ad9 653e 5292 51be ce50 8fbe a78c 613e
000003e0: efeb e2be 3b47 263e 33cc 163d 5c2b c3ba
000003f0: b0c2 dfbd 4129 9ebd 42c3 27be aded 66be

mlp1.bias f4 [64]
0.10898166 0.021035662 -0.11224726 -0.19321094 -0.053760886 -0.023111826 -0.009122785 -0.037626985
0.19416748 0.09299885 0.17707458 0.013857407 0.120643266 0.09939755 -0.087473676 0.02589341
-0.062192086 0.01906851 0.04416564 0.038623467 -0.1482638 0.12985334 0.10679145 0.083134376
0.01007985 0.2018916 0.097837925 -0.111157194 0.11158001 0.15241456 0.07522148 0.060688104
1.4042519 -0.042428568 -0.23395945 4.864206e-05 -0.0502261 0.0065027466 0.076936364 0.15062375
0.38636947 0.15244202 0.036821563 0.08740347 0.0112983 0.118938096 -0.24951032 -0.009969862
0.045220833 -0.04563165 -0.18539461 0.05634944 -0.25025806 -0.022128167 -0.022531603 -0.09829972
-0.187275 0.016872287 -0.26512748 0.050986893 0.3823485 0.020998018 0.04240714 -0.08549625
00000000: c731 df3d fb52 ac3c e4e1 e5bd 17d9 45be
00000010: 6034 5cbd 0355 bdbc bc77 15bc c11e 1abd
00000020: d7d3 463e 2e76 be3d 0a53 353e 2d0a 633c
00000030: d113 f73d f190 cb3d 6625 b3bd 6b1e d43c
00000040: 21bd 7ebd 9035 9c3c 08e7 343d a433 1e3d
00000050: 77d2 17be 46f8 043e 7ab5 da3d 5b42 aa3d
00000060: f525 253c acbc 4e3e 405f c83d 62a6 e3bd
00000070: 0f84 e43d 9012 1c3e b80d 9a3d 1794 783d
00000080: 87be b33f 94c9 2dbd 1193 6fbe 0405 4c38
00000090: e2b9 4dbd fe14 d53b d090 9d3d 1d3d 1a3e
000000a0: 38d2 c53e c319 1c3e 35d2 163d 9700 b33d
000000b0: 811c 393c d195 f33d a27f 7fbe a258 23bc
000000c0: 7b39 393d 41e8 3abd 16d8 3dbe acce 663d
000000d0: d321 80be 2146 b5bc 3294 b8bc 5d51 c9bd
000000e0: 05c5 3fbe c037 8a3c cabe 87be a2d7 503d
000000f0: 2fc3 c33e 0904 ac3c 1cb3 2d3d a818 afbd
