Saved_Models/TSP_100/scatgnn_layer_2_hid_64_model_290_temp_3.500.pth (torch, 153863 bytes, 24 tensors)

bn0.weight f4 [2]
0	0x3f800000	1.0
1	0x3f800000	1.0

bn0.bias f4 [2]
0	0x00000000	0.0
1	0x00000000	0.0

bn0.running_mean f4 [2]
0	0x00000000	0.0
1	0x00000000	0.0

bn0.running_var f4 [2]
0	0x3f800000	1.0
1	0x3f800000	1.0

in_proj.weight f4 [64, 2]
0	0x3f571af8	0.84025526
1	0x3f000378	0.5000529
2	0xbf6f6247	-0.93509334
3	0x3e37f5de	0.17964885
4	0x3f87fec3	1.0624622
5	0xbed2ec2d	-0.41195813
6	0x3ea25d63	0.31711873
7	0x3fbe6dfc	1.4877315
8	0x3e871a46	0.26387233
9	0xbf36119b	-0.71120614
10	0x3f078ad1	0.5294619
11	0x3faccd4f	1.3500155
12	0x3f6fa21a	0.9360672
13	0x3f4124cb	0.75446767
14	0x3e5fbae8	0.21848643
15	0xbfb7424a	-1.4317105
16	0x3f9bb2c3	1.2163929
17	0x3e3a4076	0.18188652
18	0xbf53dbe8	-0.82757425
19	0x3f670439	0.9024082
20	0x3f817d9e	1.011646
21	0xbeace8ff	-0.33771512
22	0x3f85fff9	1.0468742
23	0x3f1300df	0.57423204
24	0xbf96a0ba	-1.17678
25	0xbfb64bf8	-1.4241934
26	0xbf4c3a05	-0.7977603
27	0x3e692068	0.22766268
28	0xbf35d464	-0.7102721
29	0xbfbce182	-1.475632
30	0x3f6b716d	0.9196995
31	0xbf9a7e38	-1.2069769
32	0x3f497372	0.7869178
33	0x3ca27422	0.019830767
34	0x3de330da	0.11093302
35	0x3fa149f8	1.2600698
36	0xbfaa08b6	-1.3283908
37	0x3de30d69	0.11086542
38	0xbea2b3dd	-0.3177785
39	0xbf8f17eb	-1.1179174
40	0x3fb1bf71	1.3886548
41	0x3fa295de	1.2701986
42	0x3f983e2b	1.1893972
43	0x3f59501a	0.8488785
44	0xbf4a44c0	-0.79011154
45	0x3f21fd5d	0.63277227
46	0xbf3595a9	-0.7093149
47	0x3f9b49c3	1.2131885
48	0xbe2e6529	-0.17030777
49	0xbfa45feb	-1.2841772
50	0x3f5d823f	0.86526865
51	0x3efac002	0.48974615
52	0xbf5c310b	-0.86012334
53	0xbfaffdfb	-1.3749384
54	0xbe9f1164	-0.31067955
55	0xbf8531f6	-1.0405872
56	0x3f744c11	0.9542857
57	0xbe115ace	-0.14194795
58	0xbf31762b	-0.69320935
59	0x3f83ffbf	1.0312423
60	0x3f51e1cf	0.8198518
61	0x3f8ea3c3	1.1143726
62	0x3f95d098	1.1704283
63	0x3ea3bce4	0.3198005
64	0x3f2b3504	0.6687777
65	0x3fb04489	1.3770915
66	0x3dbeece8	0.0932253
67	0xbf85fe8b	-1.0468305
68	0xbec28bf5	-0.37997404
69	0x3f8025a0	1.0011482
70	0x3f8140de	1.0097921
71	0xbeee9faf	-0.46606204
72	0x3f461cc8	0.77387667
73	0x3e874223	0.26417646
74	0x3d49f77c	0.049308285
75	0xbf98d453	-1.1939796
76	0x3f7b1d76	0.9809183
77	0x3e48d8c5	0.19613941
78	0xbf9f26ab	-1.2433676
79	0x3ca2f4cc	0.019892119
80	0x3f5d8b7b	0.86540955
81	0xbf032a61	-0.5123654
82	0xbf5c8892	-0.8614589
83	0xbf9b1ea7	-1.2118729
84	0x3ef08a13	0.46980342
85	0xbf774d5f	-0.96602434
86	0x3f9817d2	1.1882269
87	0xbf238472	-0.6387397
88	0xbf9d9731	-1.2311765
89	0xbdbbdc36	-0.09172861
90	0xbf87d5e5	-1.061215
91	0xbe3b7be8	-0.18308985
92	0xbf1f430f	-0.622117
93	0x3eeade70	0.4587283
94	0xbebb493d	-0.36579314
95	0x3fa4b90d	1.2868973
96	0x3e6908a2	0.227572
97	0xbf86b16b	-1.0522894
98	0x3f0e2cdb	0.55537194
99	0xbe840b03	-0.2578965
100	0xbf999811	-1.1999532
101	0xbfa04c11	-1.2523214
102	0xbf41d3c3	-0.7571375
103	0x3f1da1cf	0.61575025
104	0xbf80272b	-1.0011953
105	0x3f919b30	1.1375484
106	0x3f3e9388	0.74443865
107	0xbf3f605d	-0.74756414
108	0x3f6c83d2	0.9238864
109	0xbf59de0e	-0.85104454
110	0xbf27dc3f	-0.65570444
111	0x3f1a7240	0.6033058
112	0x3f8701ab	1.0547384
113	0xbf34f232	-0.7068206
114	0xbf8bfa87	-1.093583
115	0xbed65393	-0.41860637
116	0xbf8d5c48	-1.1043787
117	0xbef50992	-0.47858864
118	0xbf19cecb	-0.60081166
119	0xbf8d4fde	-1.1039999
120	0x3ebe2d06	0.37143725
121	0xbf44921a	-0.76785433
122	0x3e9ec3c1	0.31008723
123	0xbf8eb6b1	-1.1149503
124	0xbcf74367	-0.030183507
125	0xbf82e240	-1.0225296
126	0x3f963532	1.1734984
127	0xbe908a93	-0.28230724

in_proj.bias f4 [64]
0	0x3f0cab2d	0.54948694
1	0xbe55f091	-0.2089255
2	0x3c4c1746	0.012456721
3	0x3ba840a3	0.0051346584
4	0xbefd8e5e	-0.4952268
5	0xbe5c8439	-0.21534814
6	0x3cebac66	0.02876873
7	0xbe0e41ca	-0.13892284
8	0x3d5f0cc7	0.054455545
9	0x3f14c5f1	0.58114535
10	0xbefbf702	-0.4921189
11	0x3f002886	0.50061834
12	0xbdf83761	-0.12119938
13	0xbe24f245	-0.16108043
14	0x3e441341	0.1914797
15	0xbd77d0a9	-0.06050173
16	0xbefe7552	-0.49698883
17	0x3c632c4a	0.01386554
18	0x3d36c984	0.044625774
19	0x3f086c26	0.5329002
20	0x3bb4cd34	0.005517626
21	0xbebd2976	-0.36945695
22	0xbd8ac6ac	-0.06776175
23	0xbdb17369	-0.08664591
24	0xbe160378	-0.1464976
25	0xbeb19585	-0.34684387
26	0xbeb64c2e	-0.35604995
27	0x3f050f33	0.5197632
28	0xbf157198	-0.58376455
29	0xbefcd1ee	-0.49378914
30	0x3f213685	0.62973815
31	0xbc8032a5	-0.01564915
32	0x3f203fe4	0.6259749
33	0xbedc401b	-0.4301766
34	0xbf1ae439	-0.6050449
35	0xbe3b0a1f	-0.1826558
36	0x3efddac4	0.49580967
37	0x3cf97a87	0.030453933
38	0x3f301539	0.68782383
39	0xbe78d541	-0.243001
40	0xbde280cd	-0.11059723
41	0x3e7a0f13	0.24419813
42	0xbef82341	-0.48464397
43	0x3df38541	0.118906505
44	0x3e0051c7	0.12531196
45	0x3f15b2ef	0.58476156
46	0x3c130224	0.008972678
47	0x3e82468e	0.25444454
48	0xbdb4d28d	-0.08829222
49	0x3ed41d7e	0.4142875
50	0xbeb111ee	-0.34583992
51	0x3e922fcd	0.28552094
52	0xbebfe6cd	-0.37480775
53	0x3e9a29ae	0.30109924
54	0xbf0f6d03	-0.56025714
55	0xbe86ed83	-0.26353082
56	0xbdac31a1	-0.084079035
57	0x3f06f1b4	0.5271256
58	0xbee7c37a	-0.45266324
59	0x3f013d19	0.5048385
60	0x3eb2d018	0.34924388
61	0x3f015fb0	0.5053663
62	0xbef7008c	-0.48242605
63	0xbf120ddb	-0.5705239

convs.0.a f4 [128, 1]
0	0xbd2b5a35	-0.041834075
1	0x3cc8db59	0.024518656
2	0xbca114e8	-0.01966329
3	0x3af557d5	0.0018718193
4	0xb847dbca	-4.764999e-05
5	0xbc9cce2b	-0.019141277
6	0xbd519a7f	-0.05117273
7	0xbce81e52	-0.02833477
8	0xbd36c957	-0.044625606
9	0x3c3a6124	0.011375699
10	0xbbbc6e49	-0.0057504517
11	0xbd8a0c17	-0.06740587
12	0xbcce027f	-0.025147675
13	0x3cdde843	0.02708829
14	0xbd3be0fb	-0.045868855
15	0xbc837264	-0.016045757
16	0x00000000	0.0
17	0x3b30d6d6	0.002698352
18	0x3d0005b8	0.031255454
19	0xbc9ccd69	-0.019140916
20	0xbd34ab90	-0.044108927
21	0xbbbf07dd	-0.005829795
22	0x3d33d073	0.043899965
23	0x3d03f4be	0.032215826
24	0xbcaa47c0	-0.020786166
25	0x3c0a16f8	0.008428328
26	0xbcb726a1	-0.022357287
27	0xbcf27e40	-0.029601216
28	0xb7e2e8a3	-2.704963e-05
29	0x3c0ed87e	0.008718608
30	0xbd078c58	-0.033092827
31	0xbd05a7c5	-0.0326307
32	0xbd1afe9f	-0.03784048
33	0xbbadb37b	-0.0053009368
34	0xba2ff40d	-0.00067120866
35	0xbc3302be	-0.010925947
36	0xbd3bdb34	-0.045863345
37	0xbd07253a	-0.032994486
38	0xbd02aef1	-0.03190512
39	0x3ce9c229	0.028534966
40	0xbc0a5304	-0.008442644
41	0xbcb93c8c	-0.022611879
42	0xbbb57efc	-0.0055388194
43	0xbd17b37a	-0.037036397
44	0x3cfb8e3a	0.030707467
45	0x3c172eda	0.009227479
46	0x3d1571b6	0.036485396
47	0x3c646501	0.013940097
48	0xbcd4bd22	-0.025969092
49	0xbd835cb5	-0.06414167
50	0xbca37074	-0.019951083
51	0x3d1b3927	0.0378963
52	0x3cf1c9f5	0.029515246
53	0xbd80858c	-0.06275472
54	0xbc109afd	-0.008826015
55	0x3c9fb6c9	0.019496338
56	0xbc50dbe2	-0.012747737
57	0xbbc24c51	-0.005929508
58	0x3bc6eb7f	0.006070554
59	0xbcd5d939	-0.026104556
60	0xbd240bac	-0.040050194
61	0xbd4fbb96	-0.050716005
62	0xba30bc42	-0.000674192
63	0xbbb23526	-0.0054384647
64	0xbe9b8e1d	-0.3038186
65	0x3f1e54a9	0.6184793
66	0x3f1eb4a9	0.61994416
67	0x3f171f34	0.5903199
68	0x3f24d773	0.6439125
69	0x3f41694f	0.75551313
70	0x3e800de1	0.2501059
71	0x3f1f44ce	0.6221436
72	0x3ee5813f	0.4482517
73	0xbe964c97	-0.29355308
74	0x3f2ce2f5	0.6753381
75	0xbe800f91	-0.25011876
76	0x3f529d95	0.822717
77	0x3f28d77a	0.6595379
78	0x3dbf4d2b	0.093408905
79	0x3f1fb9da	0.6239296
80	0x3f2677b2	0.6502639
81	0x3ee56d5a	0.4480999
82	0x3f059799	0.52184445
83	0xbe8e7e47	-0.27830717
84	0x3ed90d15	0.42392793
85	0x3f492119	0.7856613
86	0x3f274866	0.65344846
87	0x3f26294c	0.64906764
88	0x3f20437a	0.6260296
89	0x3f307c12	0.68939316
90	0x3f41c837	0.7569613
91	0xbe871f7c	-0.26391208
92	0x3f242b35	0.6412843
93	0x3f1eeec1	0.6208306
94	0xbe7c3d88	-0.24632847
95	0x3f223d3d	0.6337469
96	0xbe4cfbbb	-0.20017903
97	0x3f1c84af	0.6113996
98	0x3f1aea2f	0.60513586
99	0x3f297633	0.6619598
100	0xbea4a0ac	-0.32153833
101	0x3f1ba7ec	0.60803103
102	0xbea80ec8	-0.32823777
103	0x3f21c012	0.631837
104	0x3f231efb	0.6371915
105	0xbc332147	-0.010933227
106	0x3f2681d2	0.6504184
107	0x3efa8c8b	0.4893535
108	0x3eb89b80	0.36056137
109	0xbe96147b	-0.293125
110	0x3f15c250	0.5849962
111	0xbcd5dbfd	-0.026105875
112	0x3f1ffe80	0.6249771
113	0xbeb87706	-0.36028308
114	0x3f6018ac	0.87537646
115	0xbe5f12a1	-0.2178445
116	0x3f205de4	0.62643266
117	0xbe59efd2	-0.2128289
118	0x3f1aa0b6	0.60401475
119	0x3f2eca7c	0.68277717
120	0x3f262b84	0.6491015
121	0xbe79389a	-0.24337998
122	0x3f220f76	0.6330484
123	0xbe675bff	-0.22593687
124	0xbe911237	-0.2833421
125	0xbe99cb7d	-0.30038062
126	0x3f1b18cf	0.6058473
127	0x3f2e77a0	0.68151283

convs.0.linear1.weight f4 [64, 64]
0	0x3e4c9f7f	0.19982718
1	0x3ebd4aa9	0.36971024
2	0x3ea70343	0.32619676
3	0x3f02df09	0.51121575
4	0x3ef8df88	0.4860804
5	0x3eee6c9a	0.4656723
6	0x3e0afde1	0.1357341
7	0x3efe448f	0.4966168
8	0x3ee84df6	0.4537198
9	0x3ee1c479	0.4409521
10	0x3ef89823	0.4855357
11	0x3e72befe	0.2370567
12	0x3e59be60	0.21264029
13	0x3e8db379	0.2767599
14	0x3e70a417	0.23500095
15	0x3f002729	0.50059754
16	0x3e9b3193	0.3031126
17	0x3ef45572	0.4772144
18	0x3e6ef294	0.23334724
19	0x3e2bd656	0.16780981
20	0x3e2b84b4	0.16749841
21	0x3ea4b926	0.32172507
22	0x3ecf3f96	0.404782
23	0x3ee1ae9a	0.44078523
24	0x3f014433	0.5049469
25	0x3eeccd5d	0.4625043
26	0x3e1fd707	0.1560937
27	0x3e3144f2	0.17311457
28	0x3ed77943	0.42084703
29	0x3ead0615	0.33793703
30	0x3d0a503f	0.033767935
31	0x3f0be49f	0.54645723
32	0x3debeaa1	0.11519361
33	0x3ef22dda	0.47300607
34	0x3f0963dc	0.53668
35	0x3ef8278a	0.48467666
36	0x3e643ee2	0.22289613
37	0x3eedde76	0.46458787
38	0x3e159081	0.14605905
39	0x3ee7fc0b	0.4530948
40	0x3ee5f810	0.4491582
41	0x3e19730f	0.14985298
42	0x3ee620f4	0.44947016
43	0x3e783e50	0.2424252
44	0x3eb121c1	0.34596065
45	0x3e042072	0.12903002
46	0x3eee6f72	0.465694
47	0x3efe6bfd	0.49691764
48	0x3ec8eb5f	0.39242074
49	0x3e43ebf8	0.19132984
50	0x3e860824	0.26178086
51	0x3ecd74a6	0.40128058
52	0x3eb79552	0.3585611
53	0x3ec12d73	0.37729988
54	0x3e6479f1	0.22312142
55	0x3ec270da	0.37976724
56	0x3ea72a19	0.32649305
57	0x3e7aa047	0.24475203
58	0x3eca56ed	0.39519444
59	0x3e954222	0.29152018
60	0x3f085cce	0.5326661
61	0x3edc8f12	0.43077904
62	0x3ed706a9	0.4199727
63	0x3eb6e289	0.35719708
64	0x3d10538c	0.035235927
65	0xbdf84c53	-0.12123933
66	0xbf0161c4	-0.50539804
67	0x3d827690	0.0637027
68	0xbe972583	-0.29520807
69	0xbdf4b9c5	-0.11949495
70	0x3e082828	0.13296568
71	0xbe61fa83	-0.22068219
72	0x3bb59d7e	0.005542456
73	0xbecbbcae	-0.3979239
74	0xbf0aebf9	-0.54266316
75	0x3e62dd99	0.22154845
76	0xbc4b9bdc	-0.0124272965
77	0xbec11a69	-0.37715462
78	0xbda434af	-0.08017861
79	0xbf173daa	-0.59078467
80	0xbd05c67b	-0.03265999
81	0xbde1e5d7	-0.110301666
82	0x39202c98	0.00015275402
83	0xbd28f826	-0.041252278
84	0xbd53e1a9	-0.05172888
85	0x3df97939	0.121813245
86	0xbf267236	-0.6501802
87	0xbeda2962	-0.42609698
88	0x3ccd8b73	0.025090909
89	0x3cdfe47b	0.027330628
90	0x3d9d115d	0.076693274
91	0x3dc45084	0.0958567
92	0xbe506216	-0.20349917
93	0xbf13b4ed	-0.57697946
94	0x3dc0cf71	0.09414566
95	0xbd63db0a	-0.055628814
96	0xbc9ce4c3	-0.01915205
97	0xbe76f93b	-0.24118511
98	0xbee6db76	-0.4508931
99	0xbf01f1dc	-0.50759673
100	0x3de8284b	0.1133581
101	0xbe25e362	-0.16200021
102	0xbcb40c0f	-0.021978406
103	0xbe77e4f6	-0.24208435
104	0xbf23a537	-0.6392397
105	0xbacff0e9	-0.0015864644
106	0xbf20b494	-0.6277554
107	0xbf00d734	-0.50328374
108	0x3c998261	0.018738927
109	0xbd0b3a62	-0.033991225
110	0xbefc184d	-0.4923729
111	0xbd6c8ad9	-0.057749603
112	0xbe84f79c	-0.2597016
113	0xbda4642c	-0.08026919
114	0x3cad25d7	0.021136208
115	0xbe51cba5	-0.2048784
116	0xbf09c4f5	-0.5381616
117	0xbe6d0206	-0.23145303
118	0xbf08747e	-0.5330275
119	0xbf1aa30f	-0.6040506
120	0xbf13a5a7	-0.5767464
121	0x3ca698db	0.020336559
122	0x3e3384d7	0.17531143
123	0x3d863a7d	0.065541245
124	0xbe4a1629	-0.19735016
125	0xbe759419	-0.23982276
126	0xbda5f63f	-0.08103608
127	0xbee824e4	-0.45340645
128	0xbe2747de	-0.16336009
129	0xbda77a0a	-0.08177574
130	0xbe6ca14b	-0.23108403
131	0xbe5ff9e5	-0.21872671
132	0xbe45d9c3	-0.19321351
133	0xbe8bbfab	-0.2729467
134	0xbe2075bd	-0.15669914
135	0xbe0251ab	-0.12726466
136	0xbe502d30	-0.20329738
137	0xbdcd4f4e	-0.10024892
138	0xbe84cc29	-0.25937012
139	0xbe58bff1	-0.2116697
140	0xbd42acb9	-0.047528002
141	0xbe8061a1	-0.25074485
142	0xbd0fa8fa	-0.035073258
143	0xbe2520b8	-0.16125762
144	0xbe7a719a	-0.24457398
145	0xbe2d0502	-0.16896442
146	0xbd95dfbc	-0.073180646
147	0xbe352428	-0.17689574
148	0xbe7cb77a	-0.24679366
149	0xbe8e2f37	-0.27770397
150	0xbdc57493	-0.096413754
151	0xbda8df44	-0.082457095
152	0xbe801b95	-0.25021043
153	0xbe8e0479	-0.27737787
154	0xbdde2df2	-0.10848607
155	0xbc448e3b	-0.011996801
156	0xbdd048b5	-0.10170118
157	0xbd301f49	-0.042998586
158	0xbe5cc082	-0.21557811
159	0xbe75bd75	-0.23998053
160	0xbd628c0a	-0.055309333
161	0xbe8d4690	-0.27592897
162	0xbe578213	-0.21045713
163	0xbe618e49	-0.22026934
164	0xbd8894ec	-0.066690296
165	0xbdd90f66	-0.1059864
166	0x3cdba2e1	0.026811065
167	0xbe334285	-0.17505844
168	0xbce8a72c	-0.028400026
169	0xbe714cf1	-0.23564507
170	0xbe5d3837	-0.21603476
171	0x3c0faf0d	0.008769763
172	0xbe0d6a2d	-0.13810034
173	0x3cd6a1e8	0.02620025
174	0x3d14cf9e	0.03633081
175	0x3ccf474a	0.025302548
176	0xbe1967bf	-0.14980982
177	0xbd8baddf	-0.06820273
178	0xbe2cc01e	-0.16870162
179	0x3d4610e2	0.048355944
180	0xbda60293	-0.0810596
181	0xbd970b9c	-0.07375261
182	0x3d5c938d	0.053851653
183	0x3c8c95af	0.017161218
184	0xbd7f1b28	-0.062281758
185	0xbe46ab0b	-0.19401185
186	0xbe82b673	-0.25529823
187	0xbdd746a4	-0.105115205
188	0xbd5c0388	-0.053714305
189	0xbe0ca863	-0.1373611
190	0xbe602902	-0.21890643
191	0xbde427d8	-0.11140412
192	0x3e9145fd	0.2837371
193	0x3e8e9ef7	0.27855656
194	0x3e874cb0	0.26425695
195	0x3e822c92	0.2542463
196	0x3ebb5a2e	0.3659224
197	0x3e8e94ea	0.27847987
198	0x3e7faf9b	0.24969332
199	0x3ea1c500	0.31595612
200	0x3ef28eea	0.4737466
201	0x3e758c57	0.23979317
202	0x3ee44e73	0.44591102
203	0x3e8de17a	0.27711087
204	0x3e1b6ae7	0.15177499
205	0x3e7ecb74	0.24882299
206	0x3e1be7a8	0.15225089
207	0x3ebbb6a9	0.36662796
208	0x3e814ffe	0.25256342
209	0x3ed438d9	0.4144962
210	0x3ea3e490	0.32010317
211	0x3e9c69cb	0.30549464
212	0x3e31d0b4	0.1736477
213	0x3eebc411	0.46048024
214	0x3eb53c98	0.35397792
215	0x3eed47c2	0.4634381
216	0x3eb44b99	0.35213926
217	0x3f1c3d44	0.61030984
218	0x3ebc4f7a	0.36779386
219	0x3e841fd9	0.25805548
220	0x3eae47c5	0.3403913
221	0x3e4dcecb	0.20098417
222	0x3df739ef	0.12071597
223	0x3f10c0f5	0.5654443
224	0x3e6538c4	0.22384936
225	0x3ef67bc9	0.48141316
226	0x3eb0a515	0.34500948
227	0x3e9a8a4e	0.30183643
228	0x3e6aecde	0.2294192
229	0x3e738d65	0.23784406
230	0x3e85675b	0.26055416
231	0x3e9a3de8	0.30125356
232	0x3ec1435f	0.37746713
233	0x3e0ad3ef	0.13557409
234	0x3ec97b27	0.3935177
235	0x3e874cf2	0.26425892
236	0x3eac2fff	0.33630368
237	0x3e91bb25	0.28463092
238	0x3eb94da6	0.36192054
239	0x3e9aba6b	0.3022035
240	0x3eb8ff7d	0.36132422
241	0x3e65976b	0.22421043
242	0x3ea31ec7	0.3185942
243	0x3eca8f4e	0.39562458
244	0x3eb9f05a	0.36316186
245	0x3e9b6827	0.303529
246	0x3e631784	0.22176939
247	0x3ebcc3e4	0.36868203
248	0x3e6d0d25	0.23149545
249	0x3e8f6adc	0.28011215
250	0x3ecc9ed7	0.39964935
251	0x3e869f00	0.26293182
252	0x3e8c0d31	0.27353814
253	0x3e436ce9	0.19084515
254	0x3ed95b0c	0.42452276
255	0x3eee2d87	0.4651911

convs.0.linear1.bias f4 [64]
0	0x3dcef9cb	0.10106238
1	0xbbba6d4c	-0.0056892987
2	0x3e7b5e35	0.24547656
3	0xbd3f4672	-0.04669804
4	0x3e3370a0	0.17523432
5	0xbe595d4e	-0.21226999
6	0x3d71c945	0.059029836
7	0xbe6b3144	-0.22968012
8	0x3e13bf2c	0.14428395
9	0xbd9bd046	-0.076080844
10	0x3e5c5870	0.21518111
11	0xbe03dc82	-0.12877086
12	0x3e5d645b	0.21620314
13	0x3e846316	0.25856847
14	0x3dc432a9	0.09579975
15	0xbdedac6d	-0.11605153
16	0x3e486dab	0.19573085
17	0xbe0d95b8	-0.13826644
18	0x3e7fade5	0.24968679
19	0xbd479386	-0.048724674
20	0xbc911980	-0.017712355
21	0xbd8d5538	-0.0690102
22	0x3d85fe43	0.06542637
23	0xbd979fac	-0.07403502
24	0x3e1e87bd	0.15481468
25	0x3dbfe6bd	0.09370182
26	0xbe1e71ae	-0.15473053
27	0xbd09bec3	-0.03362919
28	0x3c560d6c	0.013064723
29	0x3d7bba9f	0.061457273
30	0x3e3432fb	0.17597573
31	0xbd372615	-0.044714052
32	0xbd52420a	-0.05133251
33	0x3d51b29c	0.051195726
34	0x3e76145c	0.24031204
35	0xbda0a246	-0.07843451
36	0xbda0cb48	-0.07851273
37	0xbde50d35	-0.1118416
38	0x3deb9da3	0.11504676
39	0x3d8f4ec5	0.06997446
40	0x3ca3d8ee	0.020000901
41	0xbd725aad	-0.059168506
42	0x3dc76d3e	0.09737633
43	0xbd278389	-0.040896926
44	0x3df8329f	0.1211903
45	0x3c98edef	0.018668143
46	0xbd17a29d	-0.037020314
47	0xbdc2802f	-0.09497105
48	0xbdb72b2f	-0.089437835
49	0x3e72e152	0.23718765
50	0xbc5ef43f	-0.0136080375
51	0xbdf09384	-0.117468864
52	0xbdd81f3a	-0.10552831
53	0x3e622dfd	0.22087856
54	0xbe3ed5ae	-0.186362
55	0x3e900e99	0.28136137
56	0xbd372fc0	-0.044723272
57	0x3d7c51e4	0.061601534
58	0x3dbeaff4	0.09310904
59	0x3e515650	0.20443082
60	0x3d293489	0.041309867
61	0x3c34d8cc	0.0110380165
62	0xbb6f5811	-0.0036520998
63	0xbd062bfa	-0.032756783

convs.0.linear2.weight f4 [64, 64]
0	0x3d8a202d	0.06744418
1	0x3e91cb12	0.28475243
2	0x3d83b1d6	0.06430404
3	0x3d51b43a	0.051197268
4	0xbd16ff2b	-0.03686444
5	0x3dd9d6f9	0.10636706
6	0x3df0de61	0.117611654
7	0xbe3af7e4	-0.18258625
8	0xbd2cb8d5	-0.042168457
9	0xbd9aaacf	-0.075521104
10	0xbe38cfe9	-0.18048061
11	0xbbeb3ae8	-0.007178653
12	0xbd1b5dd7	-0.03793129
13	0x3d9d3269	0.076756306
14	0x3cc3cd4e	0.023901608
15	0xbb1d4313	-0.0023996278
16	0x3bac060e	0.005249745
17	0x3d7e8135	0.06213494
18	0xbd00daf0	-0.031458795
19	0x3e78387b	0.24240296
20	0x3d7cc567	0.061711695
21	0xbf29b526	-0.66292036
22	0x3f2472f5	0.6423791
23	0xbeb0edd7	-0.34556457
24	0xbe44d86e	-0.19223186
25	0x3e8b1644	0.27165425
26	0xbdebe27d	-0.115178086
27	0xbda1a63f	-0.07893037
28	0xbddd82cc	-0.10815963
29	0xbca89cc5	-0.020582566
30	0xbdabc8c2	-0.08387901
31	0x3ed57718	0.41692424
32	0xbd97c3ae	-0.0741037
33	0x3b9d5f84	0.004802646
34	0xbdb6aa21	-0.08919168
35	0xbcdd9590	-0.027048856
36	0xbcd09643	-0.025462275
37	0xbf2026b5	-0.6255906
38	0x3defb616	0.11704652
39	0xbd3b4a40	-0.045725107
40	0xbe1a925c	-0.15094894
41	0xbda9cef6	-0.08291428
42	0xbf1f0393	-0.6211483
43	0x3defe7dc	0.117141455
44	0x3df39691	0.11893953
45	0xbe146130	-0.14490199
46	0x3e5e36eb	0.21700637
47	0xbe217c6f	-0.15770124
48	0xbecbd55b	-0.39811215
49	0xbd951d47	-0.07280975
50	0xbe13eebf	-0.14446543
51	0x3c56f321	0.01311949
52	0x3d827b96	0.063712284
53	0xbb912356	-0.004429261
54	0x3e48e1a8	0.19617331
55	0x3d92dc27	0.07170897
56	0x3e85584a	0.26043922
57	0x3c0b3a3c	0.008497771
58	0x3ef7dfb8	0.4841287
59	0xbddfd20a	-0.10928734
60	0x3d525be8	0.05135718
61	0xbe3ca5ae	-0.18422577
62	0xbd93fbc3	-0.07225754
63	0x3d3e7f44	0.04650809
64	0xbf124a09	-0.5714422
65	0x3fcb1e43	1.586861
66	0x3ec2c6b4	0.38042223
67	0xbfab9e6e	-1.3407724
68	0x3e7ee975	0.24893744
69	0xbe9d528b	-0.30727038
70	0xbee4b62a	-0.4467023
71	0xbeb67df7	-0.3564298
72	0xbe9e1167	-0.30872652
73	0x3ed4d8c3	0.41571626
74	0x3ed46b9d	0.41488352
75	0x3e5fc8bd	0.2185392
76	0x3dd28e20	0.102810144
77	0x3eb3aab7	0.35091183
78	0xbecea8c3	-0.4036313
79	0x3ebfc750	0.3745675
80	0x3e66402c	0.22485417
81	0x3ec24470	0.3794284
82	0x3e64a7de	0.22329661
83	0xbfa4cf20	-1.287571
84	0xbf8595cf	-1.0436343
85	0x3e3679aa	0.17819849
86	0xbec1c3b0	-0.3784461
87	0x3ee1393b	0.43988976
88	0x3ec3ae74	0.38219035
89	0x3e715960	0.2356925
90	0xbe146d39	-0.1449479
91	0x3f2b1a4c	0.66837
92	0xbf374cbe	-0.71601474
93	0xbf0fc2a7	-0.5615639
94	0xbe54d710	-0.20785165
95	0xbf0c3a16	-0.5477613
96	0x3efcce26	0.4937603
97	0xbf0d5ecc	-0.55222774
98	0x3ec14104	0.37744915
99	0x3ef2f842	0.4745503
100	0x3ea9cea0	0.33165455
101	0x3e056766	0.13027725
102	0xbee30690	-0.44340944
103	0xbec6081d	-0.38678065
104	0x3f922203	1.141663
105	0x3f1990b3	0.5998642
106	0x3e7f6c84	0.24943739
107	0xbfbb7bee	-1.4647195
108	0xbeec13ea	-0.46108943
109	0x3f87d450	1.0611668
110	0xbf9d5490	-1.2291431
111	0x3f04984a	0.51794875
112	0xbf52b7c4	-0.82311654
113	0x3e7f11ec	0.2490918
114	0x3f0ca710	0.5494242
115	0x3e88e4f5	0.2673718
116	0x3ecbf360	0.39834118
117	0x3eb70a12	0.3574987
118	0xbe684cc0	-0.22685528
119	0x3ec8392e	0.39106125
120	0xbfb6d972	-1.4285109
121	0xbeec2807	-0.46124288
122	0xbedcf7ae	-0.43157715
123	0x3e915eda	0.28392678
124	0xbf53d384	-0.8274462
125	0x3f05020f	0.51956266
126	0xbf2e9e36	-0.6821016
127	0xbfc10da4	-1.5082288
128	0xbd0de6d6	-0.03464397
129	0xbdfecb4b	-0.12441119
130	0xbf21f88e	-0.6326989
131	0x3e3af489	0.18257345
132	0xbf29219c	-0.6606691
133	0x3f3bbda5	0.7333625
134	0x3b9728bc	0.00461301
135	0x3dc894f8	0.097940385
136	0xbdec265e	-0.115307555
137	0xbcbac56d	-0.022799218
138	0xbf84ed21	-1.0384866
139	0xbc002a77	-0.007822624
140	0xbf11594d	-0.5677689
141	0xbf3495ce	-0.70541084
142	0xbdd123ac	-0.10211882
143	0x3d2ba1d4	0.04190238
144	0xbf0e23f5	-0.55523616
145	0x3cafbdab	0.021452745
146	0xbf3415fc	-0.70346045
147	0x3e69081c	0.22757
148	0x3da6721b	0.08127233
149	0xbe04b51d	-0.12959714
150	0x3f59eb20	0.851244
151	0xbe258d60	-0.16167212
152	0xbf363fff	-0.711914
153	0xbf0754e9	-0.5286394
154	0x3ebdb7a4	0.3705417
155	0x3dd76d06	0.105188414
156	0x3df645ed	0.12025056
157	0xbddbbd95	-0.10729519
158	0xbdc48f40	-0.09597635
159	0x3f0009c2	0.5001489
160	0xbd94fe4c	-0.07275066
161	0x3d423f16	0.047423445
162	0xbf6105fb	-0.8789975
163	0x3c9da0d7	0.019241733
164	0x3d113d8c	0.035459086
165	0xbe2d5816	-0.16928133
166	0xbd920d50	-0.071314454
167	0xbdf31d8f	-0.11870872
168	0xbe3726c9	-0.17885889
169	0x3db78567	0.08960991
170	0xbede25e5	-0.43388286
171	0x3e212b0b	0.15739076
172	0x3d3485d8	0.044072956
173	0xbbecc196	-0.0072252257
174	0x3e7b1f12	0.24523571
175	0xbe24ac07	-0.16081248
176	0xbcdb2f38	-0.026755914
177	0xbf475d92	-0.7787715
178	0xbe4fba88	-0.20286
179	0xbcdad662	-0.026713554
180	0x3d99f49a	0.07517357
181	0xbf61e34e	-0.88237464
182	0x3e9c101c	0.3048104
183	0xbf44e1a7	-0.7690682
184	0x3e14be1d	0.14525647
185	0xbc577af0	-0.013151869
186	0x3e83dd4c	0.25754774
187	0xbef816b9	-0.48454836
188	0xbdb799ce	-0.08964883
189	0xbd0cc352	-0.03436596
190	0x3dac8e1e	0.08425544
191	0x3e3a7c15	0.18211396
192	0x3e954cbc	0.29160106
193	0xbed97295	-0.42470232
194	0xbd9de1f8	-0.07709116
195	0x3ed96de4	0.42466652
196	0xbd9ba906	-0.07600598
197	0x3df5fc8d	0.12011061
198	0x3e8f8aaa	0.2803548
199	0xbae69091	-0.0017590692
200	0x3e7613e0	0.24031019
201	0xbe94e9ba	-0.2908457
202	0xbe5a0ce8	-0.21293986
203	0xbe26eae0	-0.16300535
204	0xbe38adff	-0.18035124
205	0xbe48eb4f	-0.19621013
206	0x3e943615	0.2894751
207	0xbe478364	-0.19483715
208	0xbe22e847	-0.1590892
209	0xbd93c602	-0.07215501
210	0xbe97fce8	-0.2968514
211	0x3f089dfb	0.5336606
212	0x3eb4c7dc	0.3530873
213	0x3f66311e	0.89918697
214	0xbe4298e9	-0.19003643
215	0xbe5e404a	-0.21704212
216	0xbe4aad37	-0.19792639
217	0xbeedff2c	-0.46483743
218	0x3ea0b2c8	0.313864
219	0xbecad593	-0.3961607
220	0x3eb9144a	0.36148292
221	0x3e4a9749	0.19784273
222	0x3de46407	0.11151891
223	0x3e4ff38c	0.2030775
224	0xbe9c566f	-0.30534694
225	0x3eb6dfba	0.35717565
226	0xbde21b9f	-0.110404246
227	0xbe0a0160	-0.13477087
228	0xbea16e1c	-0.3152932
229	0x3f36d644	0.71420693
230	0x3e906a4f	0.28206107
231	0x3e83b8ac	0.2572683
232	0xbe8ca240	-0.27467537
233	0xbeb06003	-0.3444825
234	0x3f12ab47	0.572926
235	0x3ecb1dec	0.39671266
236	0x3d94b557	0.0726115
237	0xbec09a28	-0.37617612
238	0x3ed705ff	0.41996762
239	0xbd04a5b4	-0.03238459
240	0x3f5f6383	0.8726122
241	0xbe38e98e	-0.18057844
242	0xbec8cd11	-0.39218953
243	0xbe3abfc4	-0.18237215
244	0xbe657eba	-0.22411624
245	0xbd9b9d10	-0.07598317
246	0xbe4100d4	-0.18847972
247	0xbe89f8c3	-0.26947603
248	0x3f04fef3	0.5195152
249	0x3e0c4e74	0.13701802
250	0xbe0eb3ca	-0.13935772
251	0xbd9e494e	-0.077288255
252	0x3eabd812	0.33563286
253	0xbe2bb373	-0.16767673
254	0x3e655624	0.22396141
255	0x3ee78d6e	0.4522509

convs.0.linear2.bias f4 [64]
0	0x3dc797b0	0.09745729
1	0xbd7a4b19	-0.061106775
2	0xbed2565f	-0.4108152
3	0xbcfb4433	-0.030672168
4	0xbde3543f	-0.11100053
5	0x3e655931	0.22397305
6	0xbe7dc77f	-0.24783133
7	0xbe8ecf9b	-0.27892765
8	0xbe94d891	-0.29071477
9	0xbe4297af	-0.19003175
10	0xbda9ce8d	-0.082913496
11	0xbbd7eaa1	-0.0065892492
12	0xbc08c053	-0.008346635
13	0xbeccac37	-0.3997514
14	0xbe258561	-0.16164161
15	0xbeb3df67	-0.3513138
16	0xbd5002d4	-0.050783947
17	0xbe900f1a	-0.28136522
18	0xbe4e8de7	-0.20171319
19	0x3d173d37	0.036923613
20	0xbe46c269	-0.19410099
21	0x3e031cac	0.12803906
22	0x3ea754b2	0.32681805
23	0xbe383572	-0.17989138
24	0x3c9df703	0.019282823
25	0x3e4aed6e	0.19817135
26	0x3e06f7b4	0.13180429
27	0xbe00b8dd	-0.1257052
28	0x3e698c26	0.22807369
29	0x3e99822b	0.29982123
30	0xbc3e32d9	-0.011608803
31	0xbe8fb7e1	-0.28069976
32	0xbde6943d	-0.11258743
33	0xbe05be71	-0.13060929
34	0xbe70737e	-0.23481557
35	0x3d718a69	0.05896989
36	0x3dac4d3d	0.084131695
37	0xbcb480b2	-0.022034023
38	0x3dd01ded	0.10161958
39	0xbbf0e173	-0.0073510944
40	0x3e18b265	0.14911802
41	0x3ea5eafa	0.32405835
42	0x3e988afb	0.29793534
43	0xbe1b0376	-0.15138039
44	0xbdcfb15a	-0.10141249
45	0xbea9dd5b	-0.33176693
46	0xbe50ec82	-0.2040272
47	0x3bafd46c	0.005365899
48	0xbebc250a	-0.3674701
49	0x3e7ce9bc	0.24698538
50	0xbe8af34b	-0.27138743
51	0x3e46f0a8	0.1942774
52	0xbed5c6c1	-0.417532
53	0x3b3e72fe	0.002906024
54	0xbdcc3a97	-0.099721126
55	0x3d8379d5	0.06419722
56	0xbe264f23	-0.16241126
57	0xbd54feaa	-0.05200068
58	0xbe3b8c13	-0.18315153
59	0x3e7f0990	0.24905992
60	0x3e60dc22	0.21958974
61	0xbd0dfab7	-0.03466293
62	0xbd1fd257	-0.039018955
63	0xbe868c17	-0.26278755

convs.1.a f4 [128, 1]
0	0x3ea6175d	0.324397
1	0x3e2a16f4	0.16610318
2	0x39964d49	0.0002866781
3	0x3ed30432	0.41214138
4	0xb8e8db7d	-0.00011103505
5	0x3ea73344	0.326563
6	0xb6babdbe	-5.565321e-06
7	0xb8978817	-7.22559e-05
8	0xb88dc40c	-6.7599205e-05
9	0xb812f862	-3.5040437e-05
10	0x3d9ccb79	0.07655997
11	0x3ec6b9fe	0.38813776
12	0x3e7d3c68	0.24730074
13	0xb8be1f65	-9.065754e-05
14	0x3c3f4242	0.011673512
15	0xb593221b	-1.096228e-06
16	0x3e470360	0.19434881
17	0x35adfb0f	1.2962572e-06
18	0x383f7713	4.5648845e-05
19	0x3e9972bd	0.2997035
20	0xbc3d7983	-0.011564615
21	0x3ebaee7c	0.36510074
22	0x3e97cd6b	0.2964891
23	0xb9574cc6	-0.00020532598
24	0x3e9da760	0.3079176
25	0x3e80f2ac	0.25185144
26	0x3e6c3085	0.23065384
27	0x36d54658	6.3560838e-06
28	0x3e97f5d0	0.29679728
29	0x3ea5f338	0.32412124
30	0x3e6e22bf	0.23255442
31	0xb980e00e	-0.00024580996
32	0xb8176902	-3.6099e-05
33	0x378665f6	1.6021524e-05
34	0xb6015078	-1.9269337e-06
35	0x3eba2921	0.36359504
36	0x3eba6fb2	0.36413342
37	0x3ec6f9cf	0.38862464
38	0x3ec571b1	0.38563302
39	0x3d5fa425	0.0545999
40	0x3ecacf09	0.3961108
41	0x3ea3c968	0.31989598
42	0x3eaa6b2e	0.33284897
43	0x3dc08b86	0.09401612
44	0xb9b3e180	-0.0003430955
45	0xb9e04f79	-0.0004278382
46	0xb70639e8	-8.000505e-06
47	0x3ec889b9	0.39167574
48	0x361c00a0	2.3246175e-06
49	0x3e998190	0.2998166
50	0xb633498f	-2.6715895e-06
51	0x3e8dbfc9	0.27685383
52	0xb5b75935	-1.3660525e-06
53	0x3e9ccc87	0.30624792
54	0x3db7c281	0.089726456
55	0x3e893b3f	0.26803014
56	0x374ab391	1.2081947e-05
57	0xb8c68f31	-9.468047e-05
58	0xb7e176e4	-2.6877453e-05
59	0x3e900095	0.28125444
60	0x3eab55d5	0.33463922
61	0x3e2757a4	0.16342026
62	0xb6916fcf	-4.334353e-06
63	0x37d97f81	2.592779e-05
64	0xbebf5e25	-0.37376514
65	0xc001b24d	-2.0265076
66	0xbfcbe694	-1.5929742
67	0xbcbf6ca0	-0.023367226
68	0xc01a175d	-2.407676
69	0x3ec2d3b1	0.38052133
70	0xc0602a9f	-3.5026014
71	0xc07e3a15	-3.972295
72	0xc053de26	-3.3104339
73	0xc046a80c	-3.1040068
74	0x3f2105e0	0.6289959
75	0xbdbe0e25	-0.092800416
76	0xbf96975e	-1.1764944
77	0xc07d4eca	-3.957934
78	0xc041985d	-3.0249245
79	0xc07cf767	-3.9526002
80	0xbf283580	-0.65706635
81	0xc07568a2	-3.8345113
82	0xc05c536e	-3.4425921
83	0x3e1b116d	0.15143366
84	0xc018583c	-2.3803854
85	0x3fdb1bed	1.7117897
86	0x3f079635	0.5296357
87	0xbf95b3ed	-1.1695534
88	0xbd4be29f	-0.04977667
89	0x3e5da51b	0.21645014
90	0x3f39ee30	0.7262907
91	0xc0675827	-3.6147554
92	0x3ec4fdda	0.38474923
93	0x3eb82b23	0.3597041
94	0x3f5a34f6	0.8523706
95	0xc05ffbea	-3.4997506
96	0xc0303aa8	-2.75358
97	0xc005a5db	-2.088248
98	0xc05fd3d3	-3.4973037
99	0x3e20fd77	0.15721689
100	0x3e4ede73	0.20202045
101	0x3ea94f8c	0.33068502
102	0x3e19ba6f	0.15012525
103	0x3f0d7204	0.552521
104	0x3f26f32b	0.65214795
105	0x3ec522a6	0.38502997
106	0x3eb7523b	0.35804924
107	0x3f41d5ee	0.75717056
108	0xc0307d65	-2.7576535
109	0xc047ad8c	-3.1199675
110	0xc06c5332	-3.6925778
111	0x3e95233c	0.29128444
112	0xc05fb7f6	-3.495603
113	0x3ee2c748	0.44292665
114	0xc071a378	-3.7756023
115	0xbe38e4bd	-0.18056007
116	0xc05cd9f2	-3.4508023
117	0x3e82c473	0.25540504
118	0x3fa14dd2	1.2601874
119	0x3db36aea	0.087606266
120	0xc05ed52a	-3.4817605
121	0xc00f547b	-2.2395313
122	0xc07adc22	-3.9196858
123	0x3c5cd5c0	0.013478696
124	0x3efeb884	0.4975015
125	0x3f2e364e	0.6805161
126	0xc04f7862	-3.2417226
127	0xc04e618a	-3.2247033

convs.1.linear1.weight f4 [64, 64]
0	0x3e0ec350	0.13941693
1	0xbfdead5b	-1.7396654
2	0xc0073fb0	-2.1132622
3	0x3db57507	0.08860212
4	0xbfb29e48	-1.3954554
5	0x3ee28af5	0.4424664
6	0xbffbb986	-1.9665992
7	0xbff5708b	-1.917497
8	0xc007d970	-2.1226463
9	0xbfe397df	-1.7780722
10	0x3d2f57c1	0.042808298
11	0x3d55f7f0	0.052238405
12	0x3e988798	0.2979095
13	0xbfc0af39	-1.5053474
14	0xbff19566	-1.8873718
15	0xc00c6a95	-2.1940053
16	0xbd2025fc	-0.039098725
17	0xc0153218	-2.3311825
18	0xbffa0fb6	-1.9536045
19	0x3d147cd0	0.036251843
20	0xbfe41041	-1.781746
21	0xbecda6c5	-0.40166298
22	0x3ecc1673	0.39860877
23	0xbfc7238b	-1.5557722
24	0x3dc6197c	0.096728295
25	0x3f02c16e	0.510764
26	0x3ebc790d	0.36811104
27	0xc0049e2f	-2.0721548
28	0x3ef48209	0.4775546
29	0x3ed4664f	0.41484305
30	0xbed55eec	-0.41673982
31	0xbffed48e	-1.9908617
32	0xbfdc4a12	-1.7210104
33	0xbf0314e0	-0.5120373
34	0xbff830c6	-1.9389884
35	0x3c43f0a2	0.011959227
36	0xbdc66907	-0.09688001
37	0x3d03236b	0.0320162
38	0x3e211f2b	0.15734546
39	0x3eb2bc1c	0.3490914
40	0x3e1552c5	0.14582355
41	0x3ed4d43c	0.41568172
42	0x3edbbee0	0.42919064
43	0xbde5a6e5	-0.11213473
44	0xbf937256	-1.1519268
45	0xbffb45f4	-1.9630723
46	0xc00a44df	-2.1604536
47	0x3d0c6cdd	0.034283508
48	0xc000f013	-2.014653
49	0x3ef25a92	0.47334725
50	0xc00e9b29	-2.2282202
51	0x3f14b7ef	0.5809316
52	0xc004228d	-2.0646088
53	0xbd5081df	-0.050905105
54	0xbeba97c7	-0.36443922
55	0x3ef3bbcb	0.47604212
56	0xc0012949	-2.0181448
57	0xbf285a3c	-0.65762687
58	0xbff201df	-1.8906821
59	0x3f078189	0.5293203
60	0x3e739d23	0.23790412
61	0xbe07f52c	-0.1327712
62	0xbff13f2e	-1.8847406
63	0xbff72c64	-1.9310422
64	0x3f029bb1	0.51018816
65	0x3fcb4896	1.5881526
66	0x3f98e5d3	1.1945137
67	0xbe962a69	-0.2932923
68	0x3f09c5fa	0.53817713
69	0xbee30fbc	-0.44347942
70	0x3f901856	1.1257427
71	0x400e991f	2.2280958
72	0x3ffca917	1.9739102
73	0x3f257284	0.6462786
74	0x3e1b28c9	0.15152277
75	0xbd758925	-0.059945244
76	0x3f20273c	0.62559867
77	0x40027f36	2.0390143
78	0x3fdc9cb8	1.7235327
79	0x3fe805b5	1.8126742
80	0xbdf53d7b	-0.11974617
81	0x4001a80b	2.0258815
82	0x3fbbeb95	1.4681269
83	0x3e965988	0.29365182
84	0x3f372a33	0.71548766
85	0x3ed92daa	0.4241765
86	0xbed3ebc5	-0.41390815
87	0x3cd54e06	0.026038181
88	0x3e1850a8	0.14874518
89	0xbe83b286	-0.2572214
90	0xbe0cf6ec	-0.13766068
91	0x3fde29ad	1.7356468
92	0xbe1962fa	-0.14979163
93	0xbf021d5c	-0.5082605
94	0xbdd4263d	-0.10358856
95	0x3fad3359	1.3531295
96	0x3f678b59	0.90447
97	0x3e9363c8	0.28787065
98	0x3fa62445	1.2979819
99	0x3e430f49	0.190488
100	0x3da89db8	0.082332075
101	0xbd69f45a	-0.057117797
102	0xbcf74f8f	-0.030189304
103	0xbdf6f055	-0.120575584
104	0xbe73e752	-0.2381871
105	0xbe89cde6	-0.269149
106	0xbed54ecf	-0.4166169
107	0x3d817fa3	0.06323173
108	0x3fac8311	1.3477498
109	0x3faa7288	1.3316202
110	0x3fc25138	1.5181036
111	0x3e21647d	0.1576099
112	0x3f997016	1.1987331
113	0xbea7b4bf	-0.32755086
114	0x3fd63aac	1.6736655
115	0xbe9bfc86	-0.30466098
116	0x3f9f3e5c	1.2440906
117	0xbe2be34a	-0.16785923
118	0x3ee91cc8	0.4552977
119	0xbd1b800e	-0.03796392
120	0x3fd26dd1	1.6439763
121	0x3f24c83b	0.6436803
122	0x4025712d	2.5850327
123	0xbb94f363	-0.0045456155
124	0xbeb99d27	-0.3625271
125	0xbe47741c	-0.19477886
126	0x3fb6b43d	1.4273754
127	0x3ffcea93	1.9759086
128	0xbedfe468	-0.43728948
129	0xbf4151cb	-0.7551543
130	0xbea9ecdc	-0.33188522
131	0x3d7319a2	0.059350617
132	0xbe972aba	-0.29524785
133	0x3e49e1e6	0.1971508
134	0xbecca461	-0.3996916
135	0xbec4b506	-0.3841936
136	0xbf25c238	-0.6474948
137	0xbea9d1a6	-0.33167762
138	0xbe858dd7	-0.26084778
139	0xbe0beb34	-0.13663942
140	0xbe14bb9e	-0.14524695
141	0xbeb18282	-0.34669882
142	0xbf0217cc	-0.5081756
143	0xbf1e0663	-0.61728495
144	0xbe86f282	-0.26356894
145	0xbf0e3006	-0.5554203
146	0xbf10ab17	-0.5651106
147	0xbec21301	-0.37905124
148	0xbe83a4b0	-0.25711584
149	0xbeedb5d3	-0.46427783
150	0x3e308c2b	0.1724097
151	0xbab3f047	-0.0013728224
152	0xbe744ee5	-0.23858221
153	0x3d4a0563	0.049321543
154	0x3c04e31f	0.0081107905
155	0xbf07c8e7	-0.5304093
156	0x3decf206	0.115696
157	0x3e212013	0.15734892
158	0xbeb2f982	-0.34955984
159	0xbf0c5c03	-0.548279
160	0xbefc32a5	-0.4925739
161	0xbeb4b0d5	-0.35291162
162	0xbef63797	-0.48089287
163	0xbe6f7ae1	-0.23386718
164	0xbe38b0fa	-0.18036261
165	0xbe9a8151	-0.30176786
166	0xbd0a9778	-0.033835858
167	0xbd8e6037	-0.06951945
168	0x3c95143a	0.018198121
169	0x3ea3ef12	0.32018334
170	0x3e2b5433	0.16731338
171	0xbeea94e4	-0.4581672
172	0xbecc9c30	-0.39962912
173	0xbee6f13b	-0.4510592
174	0xbf1da1f4	-0.61575246
175	0xbd8f1c72	-0.069878474
176	0xbee831c2	-0.45350462
177	0x3df017e3	0.11723306
178	0xbef440cf	-0.47705695
179	0x3e8be7ba	0.2732523
180	0xbee97f7b	-0.45605072
181	0xbdb610c6	-0.08889918
182	0xbf361827	-0.71130604
183	0xbdb7942a	-0.08963807
184	0xbecafd4a	-0.3964637
185	0xbecee7a4	-0.40411103
186	0xbf1c523c	-0.6106298
187	0xbc55a4fe	-0.0130398255
188	0x3e933bc8	0.28756547
189	0xbe279a40	-0.16367435
190	0xbf0ac8c8	-0.5421262
191	0xbecf1a4e	-0.40449756
192	0xbee94975	-0.45563856
193	0xbf7939e7	-0.97353977
194	0xbf2180b8	-0.63087034
195	0x3ba16b36	0.0049261106
196	0xbe9ea313	-0.3098379
197	0x3e29dd6c	0.16588372
198	0xbf1713cc	-0.5901458
199	0xbf26caab	-0.65152997
200	0xbf666fee	-0.9001454
201	0xbf0da9e1	-0.5533734
202	0xbeefaaef	-0.468101
203	0xbd4908da	-0.049080707
204	0xbec5e983	-0.38654718
205	0xbf3aab89	-0.7291799
206	0xbf55a4d0	-0.8345461
207	0xbf58e52a	-0.84724677
208	0xbe2f9ab0	-0.17148852
209	0xbf71c08a	-0.94434416
210	0xbf31097a	-0.69155085
211	0xbe9c9ebe	-0.3058986
212	0xbf02e3c7	-0.5112881
213	0xbec7df60	-0.3903761
214	0x3eb0657d	0.3445243
215	0xbcf5b159	-0.029991793
216	0xbe390d73	-0.18071537
217	0x3d7c0653	0.06152947
218	0x3d82e173	0.06390657
219	0xbf0df77e	-0.5545577
220	0x3e25c33b	0.16187756
221	0x3e8a30c0	0.26990318
222	0xbe701757	-0.23446403
223	0xbf39f422	-0.7263814
224	0xbf1e70c2	-0.61890805
225	0xbe695553	-0.22786455
226	0xbf1950fa	-0.59889185
227	0xbebf5f5f	-0.3737745
228	0xbe81c9f1	-0.25349382
229	0xbe8acc24	-0.27108872
230	0x3c4e3fa2	0.012588413
231	0xbdfeeca1	-0.12447477
232	0xbdc57ec6	-0.09643321
233	0x3e004458	0.12526071
234	0x3e776f5d	0.24163575
235	0xbf05072c	-0.5196407
236	0xbf0c0309	-0.5469213
237	0xbf24757d	-0.6424177
238	0xbf340d84	-0.70333123
239	0xbd53f9ff	-0.051752087
240	0xbf0822f1	-0.53178316
241	0x3e9ec11c	0.31006706
242	0xbf59cae7	-0.8507523
243	0x3e8f4922	0.27985483
244	0xbf21bae2	-0.63175786
245	0xbd260448	-0.040531427
246	0xbf07d014	-0.5305188
247	0x3c4ecec7	0.012622542
248	0xbf26d15f	-0.65163225
249	0xbeb0900e	-0.34484905
250	0xbf555898	-0.8333831
251	0x3dbc0c5c	0.09182045
252	0x3e988425	0.29788318
253	0xbd7d65c4	-0.06186463
254	0xbf214907	-0.63002056
255	0xbf5e01c7	-0.8672146

convs.1.linear1.bias f4 [64]
0	0xbe433750	-0.19064069
1	0x3f2c9255	0.67410785
2	0xbe8c7f89	-0.27441052
3	0xbeabf49a	-0.33585054
4	0x3f474d48	0.77852297
5	0x3f166e1f	0.5876178
6	0xbaf9352d	-0.001901304
7	0x3ec6087c	0.38678348
8	0x3f3da7e6	0.7408432
9	0x3b943f2e	0.004524133
10	0x3f04fd0a	0.51948607
11	0x3e146e7d	0.14495273
12	0x3f0b7c56	0.54486597
13	0x3e98e214	0.29859984
14	0x3f05629f	0.5210361
15	0x3f3145b0	0.6924696
16	0xbe459913	-0.19296674
17	0x3f247415	0.6423963
18	0xbec2805d	-0.37988558
19	0xbede800d	-0.4345707
20	0xbf0dfd1e	-0.5546435
21	0x3e4f626a	0.20252386
22	0xbf00dc9e	-0.50336635
23	0x3dcbfb3d	0.09960029
24	0x3dfd18d6	0.12358253
25	0x3ef496ad	0.47771206
26	0x3e2a38f2	0.16623285
27	0x3f0dd587	0.5540394
28	0x3dcf1183	0.10110762
29	0x3e98c2d5	0.29836145
30	0x3ddc09f5	0.10744087
31	0xbeb853d2	-0.3600145
32	0x3e9c4540	0.30521584
33	0x3dc3736b	0.095434986
34	0x3ed88aea	0.42293483
35	0xbe8904a3	-0.2676135
36	0x3f31ec8d	0.6950157
37	0x3f2810a8	0.65650415
38	0x3de1dac1	0.11028052
39	0xbf3d5d8d	-0.7397087
40	0x3c4d6a4f	0.012537553
41	0x3eeaac40	0.4583454
42	0x3df20fc9	0.11819417
43	0x3bf30668	0.007416535
44	0xbf177351	-0.59160334
45	0x3f490367	0.78520817
46	0x3d98c3be	0.0745921
47	0xbebc67f2	-0.36798054
48	0xbe212816	-0.15737948
49	0x3ed6947d	0.41910163
50	0x3ec1720f	0.37782332
51	0x3f1c7554	0.6111653
52	0x3f438631	0.76376635
53	0x3d8b5bbe	0.06804608
54	0xbf3e6627	-0.7437462
55	0x3eb5e03b	0.35522637
56	0x3ef56bdb	0.4793385
57	0xbb9ea2ca	-0.0048411833
58	0x3d519a82	0.05117274
59	0x3f1d4a14	0.6144116
60	0xbf11be33	-0.56930846
61	0x3f1dc1cb	0.6162383
62	0xbdf6b177	-0.120455675
63	0x3d3af369	0.04564229

convs.1.linear2.weight f4 [64, 64]
0	0xbe5d6838	-0.21621788
1	0x3ef6d3a6	0.4820835
2	0xbd61603c	-0.055023417
3	0xbec95fc8	-0.39330888
4	0x3f6099c9	0.8773466
5	0x3f6bcb34	0.9210694
6	0x3dd5cf70	0.10439956
7	0x3f1095ba	0.56478465
8	0x3f4743f7	0.7783808
9	0x3e2aa96f	0.16666196
10	0x3efdf536	0.49601144
11	0x3e91f4ba	0.28507024
12	0x3f0f7d97	0.5605101
13	0x3f14a716	0.5806745
14	0x3f758b32	0.9591552
15	0x3f0ff09d	0.5622652
16	0xbe8c19fd	-0.27363577
17	0x3f3c3300	0.7351532
18	0xbe34bd2e	-0.17650291
19	0xbf264ee5	-0.64964134
20	0xbf04efb7	-0.51928276
21	0x3d16b678	0.03679511
22	0xbf0b5ad5	-0.54435474
23	0x3e3e37f0	0.18576026
24	0x3d9fa48d	0.077950574
25	0x3f44857f	0.767662
26	0x3ea2c202	0.3178864
27	0x3f66405c	0.89941955
28	0xbd1173bd	-0.035510767
29	0x3eb4685b	0.35235867
30	0xbbb3c80f	-0.0054864953
31	0xbec557c4	-0.38543522
32	0x3f0e1d93	0.55513877
33	0x3e1a08a4	0.15042359
34	0x3f3b7d8d	0.7323845
35	0xbd57ac1a	-0.052654363
36	0x3f2e2587	0.6802601
37	0x3f13683c	0.57580924
38	0x3e04e349	0.12977327
39	0xbf7e2e5f	-0.99289507
40	0x3ee71cd3	0.4513918
41	0x3f2e09a7	0.6798348
42	0x3e90ace9	0.2825692
43	0x3ebf0ffa	0.37316877
44	0xbf4bcd83	-0.7961046
45	0x3f93e525	1.1554304
46	0x3e72d71a	0.23714867
47	0xbecea5f7	-0.40360996
48	0xbeb34282	-0.3501168
49	0x3f5a9f72	0.85399544
50	0x3f82b57b	1.0211633
51	0x3f4b4870	0.79407406
52	0x3f58f740	0.84752274
53	0x3de1dfb0	0.11028993
54	0xbf43eee3	-0.7653639
55	0x3fb4b87c	1.41188
56	0x3eac2a24	0.336259
57	0xbe338184	-0.17529875
58	0xbe87d28e	-0.26527828
59	0x3f4c06f9	0.7969814
60	0xbf05c93b	-0.5226018
61	0x3f1beab4	0.60905004
62	0x3e11296e	0.1417596
63	0x3da49d41	0.08037806
64	0xbe6f1982	-0.23349574
65	0x3ef1a328	0.4719479
66	0xbebb9216	-0.36634892
67	0xbf0527b5	-0.52013713
68	0x3f2b9534	0.6702454
69	0x3f6ee33a	0.9331547
70	0xbd41baba	-0.047297217
71	0x3f238b02	0.63883984
72	0x3f1ebd0d	0.6200722
73	0xbe02dd4c	-0.1277973
74	0x3f0693e7	0.5256943
75	0x3ed02369	0.40652016
76	0x3f1a845f	0.6035823
77	0x3f0ebd7c	0.5575788
78	0x3f4c4181	0.7978745
79	0x3f169b70	0.5883093
80	0xbea23602	-0.3168183
81	0x3f4e2247	0.80521053
82	0xbf009ada	-0.50236285
83	0xbf27c076	-0.6552805
84	0xbeed983c	-0.46405208
85	0x3e53e356	0.2069219
86	0xbf25df73	-0.6479408
87	0x3e5dd246	0.21662244
88	0x3e3b144e	0.18269464
89	0x3f1085b1	0.56453997
90	0x3d98b4ad	0.07456336
91	0x3f684542	0.9073068
92	0xbc28150b	-0.010258923
93	0x3ed352bc	0.4127406
94	0x3d744510	0.059636176
95	0xbebd22d1	-0.36940625
96	0x3f1cf96a	0.61318076
97	0x3d9bd8ff	0.07609748
98	0x3f53104d	0.8244675
99	0xbef07bc4	-0.46969426
100	0x3f24275a	0.64122546
101	0x3f05aad9	0.5221382
102	0x3e5cab0a	0.21549621
103	0xbf8b247f	-1.0870513
104	0xbd9d69d1	-0.076861985
105	0x3f25e50d	0.6480263
106	0x3e019fdd	0.12658639
107	0x3e08ee18	0.13372076
108	0xbf3c3ad5	-0.7352727
109	0x3f4af263	0.792761
110	0x3e975238	0.29554915
111	0xbf065602	-0.5247499
112	0xbe75d7be	-0.2400808
113	0x3f537a49	0.8260847
114	0x3f6629a8	0.8990731
115	0x3f56ed07	0.83955425
116	0x3f41a413	0.7564098
117	0x3c231530	0.009953782
118	0xbf4f1625	-0.80893165
119	0x3f65e91b	0.89808816
120	0x3e91e0d5	0.28491846
121	0xbe0b533a	-0.13605967
122	0x3e1aee61	0.15129997
123	0x3f33365f	0.7000484
124	0xbf023e30	-0.5087614
125	0x3ef3efea	0.47643977
126	0xbdfe9080	-0.12429905
127	0x3c8ded97	0.017325206
128	0xbe2335a7	-0.15938435
129	0x3ec17300	0.3778305
130	0xbde53bea	-0.11193068
131	0xbeb1f64c	-0.34758222
132	0x3f649d34	0.8930237
133	0x3f654ffc	0.8957517
134	0x3d17e7e8	0.037086397
135	0x3f01fcfa	0.50776637
136	0x3f197752	0.59947693
137	0x3d77ab49	0.060466085
138	0x3f109754	0.5648091
139	0x3e088a83	0.13334088
140	0x3f276243	0.6538431
141	0x3f0aa1c6	0.54153097
142	0x3f691c05	0.9105838
143	0x3f1d1099	0.6135345
144	0xbe88eadb	-0.2674168
145	0x3f579375	0.84209377
146	0xbe8877ed	-0.26653996
147	0xbf06bf3d	-0.52635556
148	0xbec05670	-0.37565947
149	0x3d8ee4e1	0.06977249
150	0xbf052a8e	-0.5201806
151	0x3e3b32f7	0.1828116
152	0x3e4ee6d3	0.2020524
153	0x3f198834	0.59973454
154	0x3ea62567	0.3245041
155	0x3f479dbf	0.77975076
156	0x3e4bb455	0.1989301
157	0x3ed29444	0.41128743
158	0x3d2e809e	0.042603128
159	0xbe61ca17	-0.22049747
160	0x3ef8caad	0.4859213
161	0x3e903a69	0.28169563
162	0x3f390845	0.72278243
163	0xbdf01fe6	-0.11724834
164	0x3f41db27	0.75725025
165	0x3ef7aa99	0.48372343
166	0x3e6a11db	0.22858374
167	0xbf4bcf7f	-0.7961349
168	0x3e9484e0	0.29007626
169	0x3f3848d4	0.71986127
170	0x3e716b06	0.23575982
171	0x3e3e3dfd	0.18578334
172	0xbf154d5f	-0.58321184
173	0x3f8c173e	1.0944593
174	0x3e3a047b	0.18165772
175	0xbe2cd2ac	-0.1687724
176	0xbe809cc1	-0.25119594
177	0x3f589c59	0.8461357
178	0x3f8e2e1a	1.1107819
179	0x3f43e3af	0.7651929
180	0x3f1e7b3d	0.61906797
181	0x3e369f65	0.17834242
182	0xbf2f0f78	-0.6838298
183	0x3fa735d9	1.3063308
184	0x3eb8681b	0.36016926
185	0xbe6336d2	-0.22188881
186	0xbdfa99e6	-0.12236385
187	0x3f338533	0.7012512
188	0xbee68e17	-0.4503028
189	0x3f2b4954	0.66908765
190	0x3de0a3a9	0.10968716
191	0x3d73871d	0.059455026
192	0x3ea3304f	0.31872794
193	0xbf11f05c	-0.57007384
194	0x3e93d266	0.2887146
195	0x3e190566	0.14943466
196	0xbf52bb8b	-0.8231742
197	0xbf8634c1	-1.0484849
198	0x3e351537	0.17683874
199	0xbf1acef7	-0.60472053
200	0xbf239156	-0.6389364
201	0xbde3f88f	-0.11131393
202	0xbf256943	-0.6461374
203	0xbe8d11e4	-0.27552712
204	0xbf226027	-0.63427967
205	0xbecf48f4	-0.40485346
206	0xbf3fa443	-0.7486002
207	0xbed491c7	-0.4151747
208	0x3e6df453	0.23237734
209	0xbf2b78a8	-0.6698098
210	0x3eb4c9ab	0.3531011
211	0x3e9d8a1f	0.3076944
212	0x3edbf91a	0.42963487
213	0x3d04f263	0.03245772
214	0x3f02ce91	0.51096445
215	0xbdde9d98	-0.10869902
216	0xbe245285	-0.16047104
217	0xbf0f9892	-0.5609218
218	0x3e221ef9	0.15832128
219	0xbf78c448	-0.971745
220	0xbdb1a775	-0.08674518
221	0xbebd0f54	-0.36925757
222	0xbe0f6687	-0.14003955
223	0x3e950cd4	0.2911135
224	0xbea64811	-0.32476857
225	0xbe0bfb53	-0.13670091
226	0xbf26767a	-0.6502453
227	0xbd343c26	-0.044002675
228	0xbf023952	-0.50868714
229	0xbf295375	-0.6614297
230	0xbe46b79b	-0.19405977
231	0x3ee3079c	0.44341743
232	0xbe7ddab9	-0.24790467
233	0xbf155556	-0.5833334
234	0xbe5734d1	-0.21016242
235	0xbd057569	-0.032582674
236	0x3f155529	0.5833307
237	0xbf53c339	-0.8271976
238	0xbc89f65e	-0.01684111
239	0x3e93fa16	0.28901738
240	0xba20ae42	-0.0006129482
241	0xbf54e6a5	-0.83164436
242	0xbf4b826b	-0.7949588
243	0xbf4aadbf	-0.79171365
244	0xbf65c353	-0.89751166
245	0xbcbd7463	-0.023126787
246	0x3f49b7a1	0.7879582
247	0xbf315e0f	-0.6928415
248	0xbec0290a	-0.3753131
249	0xbc4fab3d	-0.012675104
250	0x3e2bc3e2	0.16773942
251	0xbf424668	-0.7588868
252	0x3ed8436d	0.42238942
253	0xbf07dd81	-0.53072363
254	0xbcbde5f9	-0.023180949
255	0xbbf39d89	-0.007434551

convs.1.linear2.bias f4 [64]
0	0x3eb77583	0.35831842
1	0x3e99dc72	0.30051
2	0x3e8f703a	0.2801531
3	0xbe7ab0d8	-0.24481523
4	0x3ccc77da	0.024959493
5	0x3e8c9b80	0.27462387
6	0xbe270331	-0.16309811
7	0xbe1d2389	-0.15345587
8	0xbe305e88	-0.17223561
9	0x3eb7c827	0.35894892
10	0x3dfb4655	0.12269274
11	0x3d748167	0.05969372
12	0xbd5e0582	-0.05420447
13	0xbe9c5f9f	-0.30541703
14	0x3e09f684	0.13472944
15	0x3d0160e2	0.031586535
16	0x3d8d1c89	0.06890208
17	0xbe110fb1	-0.14166142
18	0x3e565613	0.20931272
19	0x3ed6ad2f	0.41929004
20	0xbea4ac04	-0.32162488
21	0x3d359656	0.044332825
22	0x3ea7923e	0.3272876
23	0x3dc3e53c	0.09565207
24	0xbdb760c6	-0.08954005
25	0xbe47a89f	-0.19497918
26	0x3e9c702f	0.3055434
27	0xbdeae1d7	-0.11468857
28	0xbe1c7f7b	-0.15283005
29	0x3e84db29	0.25948456
30	0x3eccd853	0.40008792
31	0xbe3ecdbd	-0.1863317
32	0x3eaf955e	0.34293646
33	0xbe0e4936	-0.13895115
34	0xbd41262d	-0.047155548
35	0x3e6d0090	0.23144746
36	0xbe3ebbd8	-0.18626344
37	0xbbc4422b	-0.005989333
38	0xbddfe5d1	-0.10932506
39	0xbe47ed1e	-0.19524047
40	0x3ebbd600	0.36686707
41	0xbe996bb9	-0.29964998
42	0x3d79fc3d	0.06103157
43	0xbe4d7187	-0.20062838
44	0xbd8ee4c4	-0.06977227
45	0x3e4be6ce	0.19912264
46	0x3eaf4880	0.34235
47	0x3e8e8115	0.27832857
48	0x3ec0558f	0.37565276
49	0xbdf9b565	-0.121928014
50	0x3ea6e28b	0.32594714
51	0x3eabcb2e	0.3355345
52	0x3eacf3d9	0.3377979
53	0x3e9dfcae	0.30856842
54	0x3eb08397	0.34475395
55	0xbe9428a6	-0.28937262
56	0xbe872e1d	-0.2640237
57	0x3ef0862a	0.4697736
58	0xbe85f5cd	-0.26164094
59	0x3e14f957	0.1454824
60	0xbe203a08	-0.15647137
61	0xbcf1878d	-0.029483581
62	0xbe369537	-0.17830358
63	0x3e44241e	0.19154403
