Saved_Models/TSP_100/scatgnn_layer_2_hid_64_model_230_temp_3.500.pth (torch, 153863 bytes, 24 tensors)

bn0.weight f4 [2]
1.0 1.0
00000000: 0000 803f 0000 803f

bn0.bias f4 [2]
0.0 0.0
00000000: 0000 0000 0000 0000

bn0.running_mean f4 [2]
0.0 0.0
00000000: 0000 0000 0000 0000

bn0.running_var f4 [2]
1.0 1.0
00000000: 0000 803f 0000 803f

in_proj.weight f4 [64, 2]
0.82930607 0.49340376 -0.9289277 0.17189677 1.0569829 -0.40727812 0.30911395 1.4789721
0.2591787 -0.70512366 0.5261299 1.342398 0.9291742 0.74275374 0.2159256 -1.423583
1.2081656 0.17893787 -0.82043433 0.90090114 1.0045995 -0.3383746 1.0381612 0.5655812
-1.1753361 -1.413995 -0.79268485 0.22022313 -0.70454186 -1.4648864 0.91531587 -1.2031327
0.7795081 0.017780649 0.10539725 1.2489395 -1.3178831 0.108119294 -0.3142516 -1.1043252
1.385344 1.2574387 1.1830212 0.84323764 -0.7867986 0.6294491 -0.7041161 1.2096422
-0.16813242 -1.2757542 0.8606613 0.48724106 -0.85734487 -1.3678534 -0.30907154 -1.0266433
0.94895405 -0.139583 -0.6888797 1.0241395 0.81363803 1.102073 1.1645367 0.3222685
0.6680834 1.3645976 0.0917692 -1.0397695 -0.37403965 0.99698806 1.0023092 -0.4644827
0.765389 0.25498393 0.042457674 -1.1846203 0.9698197 0.19274864 -1.235717 0.018357754
0.85964495 -0.5105122 -0.85389876 -1.2008787 0.46071073 -0.9632475 1.180216 -0.6379727
-1.2204194 -0.09310111 -1.0478042 -0.20030583 -0.61719733 0.4545444 -0.358674 1.2752733
0.22438675 -1.0431236 0.5449756 -0.25390258 -1.1997839 -1.2398094 -0.75288767 0.6111749
-0.99834657 1.1335428 0.74091417 -0.7404089 0.92172825 -0.84878993 -0.6525908 0.5994981
1.0499246 -0.7048769 -1.0898666 -0.39906952 -1.1006392 -0.47407708 -0.58631724 -1.0981485
0.36357385 -0.7581877 0.30569 -1.099678 -0.033567015 -1.0153198 1.1653881 -0.2852276
00000000: 674d 543f 6b9f fc3e 35ce 6dbf b505 303e
00000010: 374b 873f c286 d0be 2f44 9e3e f54e bd3f
00000020: 12b3 843e fc82 34bf 73b0 063f b3d3 ab3f
00000030: 5cde 6d3f 1c25 3e3f 9a1b 5d3e f837 b6bf
00000040: 2ca5 9a3f 7d3b 373e fc07 52bf 75a1 663f
00000050: b796 803f 703f adbe 77e2 843f eec9 103f
00000060: 6a71 96bf cafd b4bf 65ed 4abf 2c82 613e
00000070: db5c 34bf 6681 bbbf 2452 6a3f 4100 9abf
00000080: d88d 473f b9a8 913c 83da d73d 40dd 9f3f
00000090: 65b0 a8bf a66d dd3d 96e5 a0be 875a 8dbf
000000a0: f452 b13f c0f3 a03f 3d6d 973f 6cde 573f
000000b0: a26b 49bf 9423 213f f440 34bf 8ed5 9a3f
000000c0: e82a 2cbe ea4b a3bf 4d54 5c3f a977 f93e
000000d0: f47a 5bbf d215 afbf a03e 9ebe 0c69 83bf
000000e0: a7ee 723f d9ee 0ebe 6c5a 30bf 0117 833f
000000f0: 954a 503f ba10 8d3f 8a0f 953f 6000 a53e
00000100: 8407 2b3f 22ab ae3f 7ef1 bb3d 2b17 85bf
00000110: 2082 bfbe 9c3a 7f3f ab4b 803f add0 edbe
00000120: 89f0 433f 418d 823e 19e8 2d3d a3a1 97bf
00000130: 1b46 783f e65f 453e fa2b 9ebf 0063 963c
00000140: b111 5c3f edb0 02bf 1c99 5abf 65b6 99bf
00000150: 47e2 eb3e 6397 76bf 5111 973f 2e52 23bf
00000160: b436 9cbf cbab bebd 731e 86bf f91c 4dbe
00000170: a500 1ebf 0bba e83e 1ea4 b7be 283c a33f
00000180: a4c5 653e 1385 85bf 8583 0b3f 85ff 81be
00000190: 8592 99bf 13b2 9ebf 3fbd 40bf f575 1c3f
000001a0: a493 7fbf ee17 913f 8dac 3d3f 708b 3dbf
000001b0: 62f6 6b3f 4c4a 59bf 3110 27bf b578 193f
000001c0: ee63 863f d072 34bf c080 8bbf d752 ccbe
000001d0: bfe1 8cbf 3bba f2be e318 16bf 2190 8cbf
000001e0: 5a26 ba3e 9718 42bf 6683 9c3e 40c2 8cbf
000001f0: 917d 09bd 00f6 81bf 702b 953f 5a09 92be

in_proj.bias f4 [64]
0.5509025 -0.2093124 0.013251265 0.0051810164 -0.49374095 -0.22895554 0.040284265 -0.1427717
0.05658611 0.57519615 -0.50054944 0.4989878 -0.106824875 -0.16323972 0.19243413 -0.068225466
-0.48775178 0.0138498 0.04347325 0.5356518 0.0059877425 -0.39053342 -0.07738697 -0.086968146
-0.14767015 -0.35015333 -0.38054115 0.52288187 -0.5829075 -0.51862586 0.6337667 -0.015066313
0.6243882 -0.43716732 -0.6109361 -0.1891209 0.49686113 0.025407996 0.6873531 -0.25815105
-0.12111212 0.24363087 -0.51161355 0.11681451 0.11937428 0.58391535 0.008214088 0.25353804
-0.09155746 0.41334006 -0.36266795 0.28470096 -0.39029196 0.29759717 -0.56918156 -0.26241165
-0.0880379 0.5252687 -0.47305927 0.5074394 0.34301665 0.5056212 -0.4939523 -0.5690794
00000000: f207 0d3f fd55 56be d51b 593c 84c5 a93b
00000010: 9dcb fcbe 5273 6abe 1d01 253d bf32 12be
00000020: d6c6 673d 0e40 133f 0224 00bf 547b ff3e
00000030: 00c7 dabd 5028 27be 740d 453e cbb9 8bbd
00000040: 9aba f9be 46ea 623c 0211 323d 7a20 093f
00000050: d334 c43b fff3 c7be 0f7d 9ebd 5b1c b2bd
00000060: d836 17be 4c47 b3be 4ad6 c2be 96db 053f
00000070: 6d39 15bf aac4 04bf 893e 223f b2d8 76bc
00000080: e8d7 1f3f 65d4 dfbe 4f66 1cbf e9a8 41be
00000090: 9564 fe3e 6e24 d03c 5ff6 2f3f 602c 84be
000000a0: a209 f8bd 5f7a 793e 1bf9 02bf 723c ef3d
000000b0: 817a f43d 7a7b 153f 6294 063c bdcf 813e
000000c0: 7a82 bbbd 4fa1 d33e 9daf b9be 53c4 913e
000000d0: 59d4 c7be a85e 983e e2b5 11bf d25a 86be
000000e0: 374d b4bd 0278 063f d334 f2be 8ce7 013f
000000f0: e19f af3e 6470 013f 51e7 fcbe 30af 11bf

convs.0.a f4 [128, 1]
-0.046372492 0.025351739 -0.01876204 0.0024665059 -5.215373e-05 -0.01822223 -0.04822493 -0.034804683
-0.041019734 0.010112698 -0.0038125366 -0.06461448 -0.030944483 0.026668828 -0.05255132 -0.02023714
0.0 0.0023288159 0.026228728 -0.025577111 -0.040532615 -0.0061774105 0.042513385 0.03366941
-0.024676383 0.007981983 -0.02657876 -0.034448586 -1.2998686e-05 0.010744663 -0.033736758 -0.030503139
-0.034887303 -0.0056170467 -0.00017548077 -0.009751355 -0.044218156 -0.035381943 -0.03403288 0.028891157
-0.008585643 -0.030260121 -0.004818632 -0.03499427 0.02467058 0.006153884 0.035687987 0.013402893
-0.028581157 -0.06683805 -0.024682082 0.03329544 0.030266948 -0.06487041 -0.0068193343 0.019998327
-0.01324647 -0.011962209 0.005608393 -0.03243511 -0.044515528 -0.05182084 -0.00047820472 -0.0037250128
-0.30888698 0.6182827 0.6220263 0.5883107 0.64063835 0.75414133 0.23976654 0.6242029
0.44668108 -0.30415195 0.6767558 -0.25731903 0.8213677 0.65980965 0.08674515 0.62497187
0.6465882 0.4463239 0.51898944 -0.28343877 0.41683885 0.7840628 0.65500027 0.65236515
0.6253715 0.6882075 0.75823164 -0.26895988 0.64179957 0.6245255 -0.25737256 0.63574266
-0.21207133 0.61176956 0.6094786 0.66200185 -0.32915333 0.60987693 -0.33383203 0.6337742
0.639411 -0.018500112 0.6514765 0.4897472 0.35595804 -0.29811382 0.5843583 -0.033063885
0.62527204 -0.3656808 0.8682035 -0.22386108 0.63080996 -0.21680033 0.6070822 0.6813657
0.65156305 -0.25404757 0.63133615 -0.23118132 -0.2931445 -0.30346063 0.6065392 0.6812089
00000000: 15f1 3dbd 73ae cf3c dab2 99bc 1aa5 213b
00000010: a4bf 5ab8 c946 95bc 8187 45bd 5b8f 0ebd
00000020: 4f04 28bd bbaf 253c c0db 79bb 9954 84bd
00000030: 497f fdbc 9678 da3c 0e40 57bd 5cc8 a5bc
00000040: 0000 0000 0c9f 183b a1dd d63c 1787 d1bc
00000050: 8705 26bd e06b cabb 8422 2e3d efe8 093d
00000060: 2026 cabc ddc6 023c b3bb d9bc f619 0dbd
00000070: ee14 5ab7 620a 303c 8e2f 0abd b8e1 f9bc
00000080: fde5 0ebd 340f b8bb 4301 38b9 26c4 1fbc
00000090: 191e 35bd a8ec 10bd 1066 0bbd 26ad ec3c
000000a0: ccaa 0cbc 13e4 f7bc 9de5 9dbb 2756 0fbd
000000b0: f519 ca3c 85a6 c93b 912d 123d cf97 5b3c
000000c0: 0823 eabc 63e2 88bd 1432 cabc cd60 083d
000000d0: 64f2 f73c c7da 84bd b974 dfbb 88d3 a33c
000000e0: b907 59bc 24fd 43bc 9cc6 b73b aeda 04bd
000000f0: ea55 36bd 1742 54bd 8db7 fab9 581f 74bb
00000100: 6f26 9ebe c647 1e3f 1e3d 1f3f 889b 163f
00000110: e000 243f 680f 413f 5c85 753e c3cb 1f3f
00000120: 62b3 e43e ceb9 9bbe de3f 2d3f 52bf 83be
00000130: 2745 523f 49e9 283f 71a7 b13d 28fe 1f3f
00000140: ce86 253f 9184 e43e 7edc 043f e31e 91be
00000150: e76b d53e 57b8 483f 19ae 273f 6701 273f
00000160: 5918 203f 5e2e 303f 781b 423f 1cb5 89be
00000170: fa4c 243f e7e0 1f3f 56c6 83be 08c0 223f
00000180: 3a29 59be ee9c 1c3f ca06 1c3f f478 293f
00000190: c986 a8be e520 1c3f 08ec aabe 073f 223f
000001a0: 70b0 233f 8c8d 97bc 2ac7 263f 25c0 fa3e
000001b0: 2240 b63e 60a2 98be 8198 153f ff6d 07bd
000001c0: d411 203f 843a bbbe 9642 5e3f d73b 65be
000001d0: c37c 213f e800 5ebe bd69 1b3f fc6d 2e3f
000001e0: d6cc 263f 8612 82be 3f9f 213f ccba 6cbe
000001f0: 0917 96be 315f 9bbe 2746 1b3f b563 2e3f

convs.0.linear1.weight f4 [64, 64]
0.2000092 0.36670372 0.3241516 0.504791 0.47601044 0.46250018 0.13017261 0.4912794
0.45365784 0.4321436 0.48342317 0.23730102 0.21168725 0.2738085 0.22966672 0.49776858
0.29809597 0.47025043 0.22895 0.16165423 0.16370857 0.3233275 0.4040522 0.43816808
0.4993175 0.46529528 0.15676397 0.16723019 0.41772172 0.33631113 0.024848565 0.5522787
0.10709546 0.4678196 0.5323199 0.48107493 0.22211908 0.45931903 0.14377834 0.45234835
0.44708928 0.14287758 0.445005 0.23942538 0.34251294 0.12785919 0.46290207 0.4856095
0.3849611 0.18463789 0.25811103 0.3978232 0.36022508 0.37433994 0.22397438 0.37695208
0.3250197 0.24200428 0.40121552 0.2869667 0.5195123 0.4215136 0.4161866 0.3533968
0.031233205 -0.11835542 -0.5022529 0.06910928 -0.28514284 -0.11797582 0.13329227 -0.21161702
0.004301193 -0.3940743 -0.5389178 0.21797274 -0.014696716 -0.37381065 -0.078124754 -0.58678764
-0.029980507 -0.102948956 0.0028999678 -0.037741948 -0.051573463 0.11748313 -0.6491314 -0.42084005
0.031216675 0.022873253 0.073845446 0.09906667 -0.19977298 -0.5726134 0.09568429 -0.06046324
-0.015989456 -0.23293203 -0.44278142 -0.5038286 0.111354865 -0.15407476 -0.023062997 -0.24182655
-0.6361978 -0.0002315149 -0.62113464 -0.5002011 0.019516034 -0.034743823 -0.49041268 -0.04693951
-0.24956553 -0.07778738 0.020948311 -0.20352937 -0.53678656 -0.22947642 -0.5320843 -0.6021659
-0.57445365 0.02011587 0.16927114 0.066363275 -0.18863988 -0.23042361 -0.07443903 -0.44905207
-0.15742424 -0.080816805 -0.23100795 -0.21857905 -0.19133686 -0.27147886 -0.14572518 -0.13003723
-0.2014626 -0.09431756 -0.2608023 -0.20553286 -0.044061948 -0.2501081 -0.030455042 -0.15910959
-0.24300282 -0.16915989 -0.07139414 -0.17792295 -0.23866853 -0.27176267 -0.09302542 -0.08252305
-0.2511012 -0.27349696 -0.10611134 -0.01298439 -0.10311519 -0.042671587 -0.20812435 -0.23997183
-0.04863366 -0.27737674 -0.21408835 -0.21922645 -0.061528403 -0.10818834 0.030555712 -0.17470229
-0.027353704 -0.23017195 -0.21586953 0.0104854265 -0.13561742 0.026637575 0.040911276 0.02587931
-0.1513756 -0.06454731 -0.1612749 0.052610625 -0.08068927 -0.07014678 0.054916855 0.022368724
-0.06039507 -0.18873672 -0.25205067 -0.102650955 -0.05085525 -0.13902405 -0.2202321 -0.11207216
0.27973533 0.27423656 0.26150304 0.2503617 0.3562005 0.27751794 0.24042243 0.3131956
0.47235602 0.22800887 0.44352555 0.27319777 0.15176952 0.24484415 0.1475459 0.3636067
0.24685954 0.40986735 0.31410098 0.3027969 0.16774748 0.46096468 0.35160333 0.46223962
0.34905174 0.6125038 0.36953738 0.25563094 0.33707687 0.20059437 0.10893963 0.570675
0.21297775 0.47786555 0.34433565 0.29742494 0.22353637 0.2354049 0.254141 0.29971462
0.37475565 0.12944114 0.39010623 0.26017728 0.33114907 0.28249255 0.35714602 0.29186153
0.35597825 0.2146193 0.31298408 0.38971156 0.3645878 0.29873618 0.22164106 0.36378264
0.22903323 0.2735766 0.40313855 0.26061094 0.2609912 0.18401082 0.42243713 0.46081966
00000000: 36cf 4c3e 97c0 bb3e 33f7 a53e fc39 013f
00000010: a4b7 f33e d3cc ec3e f84b 053e f988 fb3e
00000020: d745 e83e ed41 dd3e 3e83 f73e 0aff 723e
00000030: 8bc4 583e a130 8c3e c12d 6b3e 86db fe3e
00000040: 09a0 983e aac4 f03e de71 6a3e b088 253e
00000050: 38a3 273e 2f8b a53e eedf ce3e 9157 e03e
00000060: 8ba6 ff3e 2f3b ee3e bc86 203e 643e 2b3e
00000070: 9fdf d53e f930 ac3e 388f cb3c 2362 0d3f
00000080: dd54 db3d 0d86 ef3e 1e46 083f 744f f63e
00000090: 2f73 633e dd2b eb3e a13a 133e 349a e73e
000000a0: e3e8 e43e 804e 123e b2d7 e33e ed2b 753e
000000b0: db5d af3e 85ed 023e 8001 ed3e cfa1 f83e
000000c0: 9f19 c53e b711 3d3e 2127 843e 7caf cb3e
000000d0: 6c6f b83e 7ca9 bf3e 8a59 653e ddff c03e
000000e0: fb68 a63e f8cf 773e 1f6c cd3e 4ded 923e
000000f0: c2fe 043f a1d0 d73e 6916 d53e 6df0 b43e
00000100: c7dc ff3c 5464 f2bd a593 00bf 2b89 8d3d
00000110: 3efe 91be 4f9d f1bd c57d 083e 22b2 58be
00000120: 06f1 8c3b 1bc4 c9be 84f6 09bf 3f34 5f3e
00000130: 7fca 70bc 1c64 bfbe dfff 9fbd b737 16bf
00000140: ae99 f5bc e7d6 d2bd 630d 3e3b 4d97 1abd
00000150: b23e 53bd ff9a f03d 7a2d 26bf 5978 d7be
00000160: 1dba ff3c b060 bb3c 483c 973d 77e3 ca3d
00000170: 4a91 4cbe cb96 12bf 20f6 c33d 4da8 77bd
00000180: 52fc 82bc bc85 6ebe 3fb4 e2be e9fa 00bf
00000190: 050e e43d c6c5 1dbe 9cee bcbc 61a1 77be
000001a0: dcdd 22bf cfc2 72b9 ae02 1fbf 2e0d 00bf
000001b0: 17e0 9f3c 8a4f 0ebd 5f17 fbbe a543 40bd
000001c0: 1b8e 7fbe fd4e 9fbd cb9b ab3c 016a 50be
000001d0: d86a 09bf defb 6abe ad36 08bf 8b27 1abf
000001e0: 650f 13bf 09ca a43c 6a55 2d3e 78e9 873d
000001f0: d02a 41be 2bf4 6bbe 7d73 98bd 27ea e5be
00000200: d233 21be 4883 a5bd 598d 6cbe 30d3 5fbe
00000210: cfed 43be 47ff 8abe fb38 15be 7b28 05be
00000220: 364c 4ebe 9129 c1bd e187 85be 3577 52be
00000230: 4d7a 34bd 2b0e 80be da7c f9bc a0ed 22be
00000240: bbd5 78be 4038 2dbe 1737 92bd 6f31 36be
00000250: 8665 74be 7a24 8bbe 1d84 bebd d801 a9bd
00000260: 5690 80be cb07 8cbe e750 d9bd 7bbc 54bc
00000270: 0f2e d3bd 67c8 2ebd 8d1e 55be 2dbb 75be
00000280: 1734 47bd 5304 8ebe fa39 5bbe e67c 60be
00000290: 3505 7cbd d991 ddbd f94f fa3c 28e5 32be
000002a0: e014 e0bc 32b2 6bbe e70c 5dbe 11cb 2b3c
000002b0: 4bdf 0abe 0b37 da3c 9592 273d d900 d43c
000002c0: 3502 1bbe 6131 84bd 3f25 25be 3d7e 573d
000002d0: 6a40 a5bd 1da9 8fbd 7ff0 603d 9d3e b73c
000002e0: d260 77bd 3344 41be c90c 81be aa3a d2bd
000002f0: 984d 50bd 525c 0ebe 8684 61be 1786 e5bd
00000300: 7839 8f3e bc68 8c3e bae3 853e 692f 803e
00000310: e95f b63e d516 8e3e 4c31 763e 2c5b a03e
00000320: a6d8 f13e 287b 693e c815 e33e 94e0 8b3e
00000330: 7869 1b3e 6db8 7a3e 4616 173e a82a ba3e
00000340: bfc8 7c3e 22da d13e d8d1 a03e 3208 9b3e
00000350: ffc5 2b3e 9003 ec3e 5a05 b43e acaa ec3e
00000360: e9b6 b23e 0dcd 1c3f 0134 bd3e 0fe2 823e
00000370: 5795 ac3e 9c68 4d3e be1b df3d c217 123f
00000380: d716 5a3e cbaa f43e c34c b03e 1548 983e
00000390: b8e6 643e fb0d 713e c51e 823e 3274 993e
000003a0: f9df bf3e 388c 043e 01bc c73e f535 853e
000003b0: 5f8c a93e dda2 903e d8db b63e e06e 953e
000003c0: c842 b63e 29c5 5b3e 733f a03e 4688 c73e
000003d0: 41ab ba3e f3f3 983e e0f5 623e b841 ba3e
000003e0: b087 6a3e 3b12 8c3e 2d68 ce3e cc6e 853e
000003f0: a3a0 853e 556d 3c3e ae49 d83e 8ef0 eb3e

convs.0.linear1.bias f4 [64]
0.10087109 -0.0054403893 0.24257909 -0.044951364 0.17195608 -0.20913328 0.058796883 -0.2253504
0.14386299 -0.07520785 0.21511666 -0.12827335 0.21371898 0.25552002 0.09462026 -0.11496275
0.19302517 -0.13689739 0.24702838 -0.04779233 -0.01353225 -0.06705504 0.06385027 -0.07226965
0.15198804 0.09141646 -0.1521267 -0.034480207 0.016022727 0.061828125 0.17443451 -0.04251523
-0.05172169 0.051894918 0.23760445 -0.07787234 -0.078646064 -0.108176336 0.114366256 0.0693608
0.018059365 -0.0597875 0.09267108 -0.039350998 0.119317025 0.01655018 -0.036566112 -0.09377751
-0.08730202 0.23382424 -0.014084884 -0.11707949 -0.10521385 0.21715382 -0.18382661 0.2776538
-0.0434338 0.061497655 0.08994587 0.20214152 0.04320651 0.009653128 -0.0001520157 -0.03201952
00000000: 8195 ce3d 4b45 b2bb a766 783e ec1e 38bd
00000010: 4115 303e 0927 56be 00d5 703d 41c2 66be
00000020: d250 133e 9306 9abd 8b47 5c3e 175a 03be
00000030: 26d9 5a3e 85d3 823e 44c8 c13d 9771 ebbd
00000040: 64a8 453e d42e 0cbe 02f5 7c3e e4c1 43bd
00000050: 5fb6 5dbc 2754 89bd eec3 823d 1c02 94bd
00000060: c1a2 1b3e 8e38 bb3d 1ac7 1bbe 1e3b 0dbd
00000070: 1842 833c 7d3f 7d3d f69e 323e 7324 2ebd
00000080: 1fda 53bd c48f 543d 954e 733e 897b 9fbd
00000090: 3011 a1bd 8e8b ddbd db38 ea3d 090d 8e3d
000000a0: 3cf1 933c bde3 74bd 56ca bd3d 832e 21bd
000000b0: 7c5c f43d 3e94 873c 59c6 15bd 6c0e c0bd
000000c0: 67cb b2bd 9f6f 6f3e 49c4 66bc 5fc7 efbd
000000d0: 5c7a d7bd 925d 5e3e 0b3d 3cbe a428 8e3e
000000e0: a4e7 31bd f7e4 7b3d 8a35 b83d 30fe 4e3e
000000f0: 4ff9 303d 2728 1e3c 6766 1fb9 e626 03bd

convs.0.linear2.weight f4 [64, 64]
0.06672777 0.28157702 0.05880031 0.0530175 -0.042327337 0.11095254 0.117144905 -0.20830996
-0.043782692 -0.0746705 -0.19621162 -0.005858034 -0.043293253 0.07144179 0.023417827 -0.00074666634
-0.00030148684 0.063750505 -0.03699654 0.24285749 0.06259588 -0.6493482 0.63637185 -0.34285226
-0.20554936 0.2540045 -0.10833274 -0.07894708 -0.10766404 -0.020599307 -0.08524514 0.41538197
-0.07312822 0.0042686136 -0.09439237 -0.025405256 -0.024173137 -0.6008809 0.11590113 -0.04719657
-0.15201972 -0.08249034 -0.61606073 0.118949845 0.117596716 -0.14623761 0.21788031 -0.15609817
-0.3931498 -0.07779425 -0.14376105 0.014107787 0.06440982 -0.009822496 0.19730754 0.06608929
0.2621803 0.007644767 0.47688007 -0.11470303 0.051063236 -0.18486032 -0.07149864 0.047907304
-0.56893593 1.5754129 0.3805297 -1.3201132 0.24904726 -0.30749035 -0.4420042 -0.35330057
-0.30660856 0.41213813 0.41550303 0.21579076 0.1028141 0.35116854 -0.4002214 0.37206194
0.22485346 0.37723112 0.22335476 -1.2718335 -1.0294054 0.2000523 -0.376975 0.4372702
0.382464 0.23517765 -0.14467588 0.6626331 -0.71090984 -0.557676 -0.20576338 -0.5592221
0.49096766 -0.54916024 0.37765333 0.4712002 0.32856655 0.14352313 -0.44074476 -0.3841677
1.1177658 0.5962506 0.2524093 -1.4437761 -0.45902225 1.0308708 -1.2127421 0.5154844
-0.80466086 0.24926381 0.54381806 0.26463956 0.39527997 0.35790756 -0.2277437 0.3912397
-1.4081864 -0.45807487 -0.4306713 0.28428516 -0.82284987 0.47868425 -0.6719376 -1.4949045
-0.037127137 -0.09672857 -0.6055288 0.1783302 -0.63661426 0.7207766 0.0018619259 0.086815424
-0.11539255 -0.020048982 -1.0292809 -0.008026304 -0.5377356 -0.6737526 -0.10822807 0.041254748
-0.5231311 0.020480672 -0.6720708 0.22541766 0.07610741 -0.16818102 0.873986 -0.17063308
-0.7109398 -0.50611675 0.33694175 0.11036986 0.11348632 -0.113144115 -0.09971393 0.5125331
-0.07133361 0.044094812 -0.84950715 0.013048791 0.03681431 -0.19643624 -0.07192073 -0.118914805
-0.17483523 0.09350788 -0.47900945 0.15219186 0.044608496 -0.0021363043 0.24086423 -0.16219245
-0.04454457 -0.7478361 -0.20148185 -0.024493096 0.07793349 -0.84898794 0.33432466 -0.7344536
0.14137375 -0.017020423 0.28355575 -0.45187876 -0.09238681 -0.039988585 0.079403505 0.17569226
0.28767258 -0.42126703 -0.07263745 0.41897 -0.071947746 0.115936495 0.27645412 -0.016272118
0.23769373 -0.28726238 -0.21728107 -0.15994392 -0.17718032 -0.19289887 0.2859844 -0.19177853
-0.15560879 -0.06969785 -0.29308632 0.52732384 0.3471531 0.89330554 -0.19329023 -0.21341592
-0.20593949 -0.4562153 0.3095673 -0.3915187 0.35678566 0.19371358 0.10905987 0.197114
-0.30103475 0.35324168 -0.10691963 -0.1316255 -0.3118085 0.7194637 0.27843145 0.254053
-0.2689341 -0.34000129 0.5675316 0.3907952 0.06935396 -0.37034443 0.41386607 -0.028863484
0.86626977 -0.1770277 -0.38725442 -0.17912766 -0.22067738 -0.07234867 -0.18995903 -0.26534358
0.51333636 0.13387759 -0.14111638 -0.07378701 0.3309552 -0.16250773 0.21862552 0.44632703
00000000: 92a8 883d dd2a 903e 98d8 703d e128 593d
00000010: 6e5f 2dbd 163b e33d abe9 ef3d 354f 55be
00000020: 7b55 33bd d9ec 98bd b3eb 48be c0f4 bfbb
00000030: 4454 31bd 1350 923d bed6 bf3c eebb 43ba
00000040: e110 9eb9 a08f 823d af89 17bd a2af 783e
00000050: 4532 803d af3b 26bf 44e9 223f 558a afbe
00000060: 887b 52be e10c 823e 8edd ddbd 02af a1bd
00000070: f77e dcbd e1bf a8bc 0195 aebd f2ac d43e
00000080: 40c4 95bd badf 8b3b c950 c1bd af1e d0bc
00000090: be06 c6bc 55d3 19bf 925d ed3d 3151 41bd
000000a0: 0fab 1bbe b2f0 a8bd 28b6 1dbf fa9b f33d
000000b0: 8cd6 f03d 50bf 15be 041c 5f3e 33d8 1fbe
000000c0: ee4a c9be 9752 9fbd 1936 13be 5924 673c
000000d0: 4ce9 833d 89ee 20bc fd0a 4a3e d259 873d
000000e0: 7f3c 863e f480 fa3b a029 f43e 6ce9 eabd
000000f0: af27 513d 064c 3dbe e16d 92bd 733a 443d
00000100: c9a5 11bf 21a7 c93f cad4 c23e 78f9 a8bf
00000110: 3f06 7f3e 606f 9dbe 604e e2be d0e3 b4be
00000120: ccfb 9cbe c503 d33e d0bc d43e 41f8 5c3e
00000130: 3390 d23d 5dcc b33e d2e9 ccbe e77e be3e
00000140: fc3f 663e 7024 c13e 1cb7 643e 71cb a2bf
00000150: 8ec3 83bf 83da 4c3e de02 c1be e1e1 df3e
00000160: 52d2 c33e 69d2 703e ea25 14be 53a2 293f
00000170: 30fe 35bf dbc3 0ebf a3b3 52be 2e29 0fbf
00000180: 1d60 fb3e c495 0cbf c75b c13e 2741 f13e
00000190: e039 a83e baf7 123e 4ca9 e1be a1b1 c4be
000001a0: f312 8f3f e1a3 183f cb3b 813e a8cd b8bf
000001b0: f704 ebbe 93f3 833f 223b 9bbf c9f6 033f
000001c0: 41fe 4dbf 033f 7f3e a937 0b3f d67e 873e
000001d0: 2362 ca3e a93f b73e a535 69be 9250 c83e
000001e0: 743f b4bf ca88 eabe f380 dcbe d38d 913e
000001f0: 4aa6 52bf 1a16 f53e 1a04 2cbf 0859 bfbf
00000200: a012 18bd a119 c6bd ef03 1bbf 319c 363e
00000210: 27f9 22bf d184 383f de0b f43a 49cc b13d
00000220: ee52 ecbd c33d a4bc 7abf 83bf c280 03bc
00000230: 0aa9 09bf 0d7b 2cbf aea6 ddbd bdfa 283d
00000240: ebeb 05bf 15c7 a73c d50c 2cbf e3d3 663e
00000250: 34de 9b3d a537 2cbe 8cbd 5f3f 70ba 2ebe
00000260: 2700 36bf de90 01bf a183 ac3e 9809 e23d
00000270: 846b e83d 1ab8 e7bd d136 ccbd 5f35 033f
00000280: 5b17 92bd c39c 343d 4d79 59bf 99ca 553c
00000290: 9aca 163d 9526 49be 2d4b 93bd 9b89 f3bd
000002a0: 0208 33be 0f81 bf3d ba40 f5be 2fd8 1b3e
000002b0: 66b7 363d 3d01 0cbb 1da5 763e c715 26be
000002c0: 5e74 36bd 3072 3fbf 4251 4ebe bfa5 c8bc
000002d0: 989b 9f3d 4657 59bf 9a2c ab3e 2705 3cbf
000002e0: 48c4 103e 6a6e 8bbc 382e 913e a75c e7be
000002f0: 4c35 bdbd 12cb 23bd 4e9e a23d ace8 333e
00000300: d249 933e 50b0 d7be f2c2 94bd 3c83 d63e
00000310: 5759 93bd 1d70 ed3d 658b 8d3e 1b4d 85bc
00000320: fc65 733e 0e14 93be ee7e 5ebe 57c8 23be
00000330: c26e 35be 4887 45be 8c6c 923e 9761 44be
00000340: e957 1fbe bfbd 8ebd 690f 96be b2fe 063f
00000350: 0dbe b13e acaf 643f e0ed 45be b489 5abe
00000360: cde1 52be 0d95 e9be 9b7f 9e3e 2475 c8be
00000370: 9cac b63e da5c 463e c85a df3d 41d8 493e
00000380: 3a21 9abe 18dc b43e aef8 dabd d6c8 06be
00000390: 5da5 9fbe c62e 383f 918e 8e3e 3c13 823e
000003a0: bbb1 89be a614 aebe c049 113f 4f16 c83e
000003b0: 7309 8e3d c99d bdbe 41e6 d33e 1d73 ecbc
000003c0: dbc3 5d3f c046 35be 3646 c6be 3e6d 37be
000003d0: 40f9 61be 8a2b 94bd 9f84 42be 1ddb 87be
000003e0: 036a 033f 3517 093e d080 10be a51d 97bd
000003f0: f672 a93e 6d68 26be 5edf 5f3e fa84 e43e

convs.0.linear2.bias f4 [64]
0.093794264 -0.06048015 -0.3911884 -0.029152894 -0.11794999 0.2221356 -0.2516806 -0.28595778
-0.29038078 -0.18135682 -0.07945672 -0.0038876054 -0.0063911024 -0.39158484 -0.16366936 -0.35591796
-0.045873567 -0.28543308 -0.2081386 0.037559096 -0.18931076 0.12681612 0.32411072 -0.18237433
0.020978553 0.19906692 0.12917309 -0.12995577 0.22512682 0.29810634 -0.013225487 -0.28585422
-0.12041119 -0.13831238 -0.24019627 0.06125689 0.0874819 -0.019236565 0.105259724 -0.0070822216
0.14480293 0.32219592 0.29636997 -0.1486912 -0.08540865 -0.3239744 -0.20783494 0.007329276
-0.3722089 0.24447381 -0.27637348 0.1934962 -0.42195135 0.0047313515 -0.09728922 0.062325332
-0.16801342 -0.06044871 -0.17893298 0.24780212 0.21734755 -0.032865047 -0.046989575 -0.2610465
00000000: 3517 c03d 09ba 77bd d949 c8be 0dd2 eebc
00000010: c48f f1bd 8477 633e 48dc 80be 0f69 92be
00000020: caac 94be 9ab5 39be 34ba a2bd 32c7 7ebb
00000030: 746c d1bb cf7d c8be f198 27be e13a b6be
00000040: ece5 3bbd 4924 92be 4922 55be 91d7 193d
00000050: aeda 41be 16dc 013e d7f1 a53e 56c0 3abe
00000060: 37db ab3c 33d8 4b3e f345 043e 2013 05be
00000070: a587 663e 65a1 983e b7af 58bc 7c5b 92be
00000080: 249a f6bd c3a1 0dbe 03f6 75be 81e8 7a3d
00000090: b629 b33d 0096 9dbc 6992 d73d fb11 e8bb
000000a0: 3847 143e ddf6 a43e cebd 973e 8242 18be
000000b0: bbea aebd f9df a5be afd2 54be 6c2a f03b
000000c0: 2a92 bebe 5857 7a3e d380 8dbe de23 463e
000000d0: 020a d8be 7409 9b3b 923f c7bd d948 7f3d
000000e0: b60b 2cbe 1199 77bd 353a 37be d7bf 7d3e
000000f0: 5b90 5e3e 809d 06bd 2478 40bd e3a7 85be

convs.1.a f4 [128, 1]
0.28343016 0.14226837 0.00026067276 0.32169455 -0.00011103505 0.26486528 -5.565321e-06 -7.22559e-05
-6.7599205e-05 -3.5040437e-05 0.028597591 0.30118838 0.20667134 -9.065754e-05 0.0057550226 -1.096228e-06
0.1376073 1.2962572e-06 4.5648845e-05 0.24936347 -0.011564615 0.28035393 0.22045828 -0.00020532598
0.2561865 0.20897892 0.20394865 6.3560838e-06 0.2391002 0.24639952 0.15196049 -0.00024580996
-3.6099e-05 1.6021524e-05 -1.9269337e-06 0.29116783 0.2855738 0.30517918 0.30336148 0.0076878057
0.31210995 0.24082646 0.25232136 0.05251941 -0.00033721095 -0.0004278382 -8.000505e-06 0.31417072
2.3246175e-06 0.23054652 -2.6715895e-06 0.22185172 -1.3660525e-06 0.22191215 0.040807378 0.22534657
1.2081947e-05 -9.468047e-05 -2.6877453e-05 0.23430155 0.2574651 0.10616544 -4.334353e-06 2.592779e-05
-0.34298566 -2.0037484 -1.4897714 0.015117388 -2.3342159 0.3725313 -3.4788582 -3.9190893
-3.2279856 -3.0284636 0.5824903 -0.057114203 -1.1238713 -3.8852718 -3.016206 -3.9191513
-0.6334412 -3.792973 -3.414742 0.1849681 -2.304361 1.7095577 0.5191288 -1.1268035
-0.008808682 0.20701376 0.67222524 -3.5775764 0.37482035 0.35416538 0.87341005 -3.4767203
-2.7236564 -2.0598733 -3.473335 0.17698993 0.21899505 0.34269252 0.16532028 0.49836895
0.6497656 0.38085285 0.3553924 0.73098785 -2.7173002 -3.0451496 -3.6685638 0.30519092
-3.4717195 0.4327409 -3.7507954 -0.16875872 -3.4276474 0.30226383 1.2320212 0.08021754
-3.44097 -2.2004519 -3.8358548 0.010286904 0.48816273 0.64917994 -3.1445131 -3.139145
00000000: c21d 913e cdae 113e e8aa 8839 26b5 a43e
00000010: 7ddb e8b8 6c9c 873e bebd bab6 1788 97b8
00000020: 0cc4 8db8 62f8 12b8 7f45 ea3c 5d35 9a3e
00000030: a7a1 533e 651f beb8 a194 bc3b 1b22 93b5
00000040: eee8 0c3e 0ffb ad35 1377 3f38 2359 7f3e
00000050: 8379 3dbc 8d8a 8f3e d1bf 613e c64c 57b9
00000060: e02a 833e 92fe 553e ead7 503e 5846 d536
00000070: afd6 743e 2850 7c3e 889b 1b3e 0ee0 80b9
00000080: 0269 17b8 f665 8637 7850 01b6 f313 953e
00000090: bb36 923e 7240 9c3e 3252 9b3e fde9 fb3b
000000a0: e0cc 9f3e 369b 763e 4430 813e 981e 573d
000000b0: b0cb b0b9 794f e0b9 e839 06b7 fcda a03e
000000c0: a000 1c36 6314 6c3e 8f49 33b6 192d 633e
000000d0: 3559 b7b5 f03c 633e a325 273d 40c1 663e
000000e0: 91b3 4a37 318f c6b8 e476 e1b7 bfec 6f3e
000000f0: 77d2 833e 446d d93d cf6f 91b6 817f d937
00000100: d19b afbe 6a3d 00c0 d4b0 bebf ecae 773c
00000110: cb63 15c0 6cbc be3e 9da5 5ec0 5cd2 7ac0
00000120: 5197 4ec0 59d2 41c0 161e 153f 95f0 69bd
00000130: 04db 8fbf 4ba8 78c0 8509 41c0 60d3 7ac0
00000140: 3429 22bf 12c0 72c0 228b 5ac0 4768 3d3e
00000150: a77a 13c0 c9d2 da3f a0e5 043f 193b 90bf
00000160: 4a52 10bc 6afb 533e f416 2c3f 03f7 64c0
00000170: 74e8 bf3e 2a55 b53e cd97 5f3f 9682 5ec0
00000180: 6350 2ec0 f7d4 03c0 1f4b 5ec0 d93c 353e
00000190: 3d40 603e 6575 af3e b849 293e 372a ff3e
000001a0: 0a57 263f 25ff c23e fef5 b53e 0522 3b3f
000001b0: 3fe8 2dc0 bbe3 42c0 c0c9 6ac0 fc41 9c3e
000001c0: a730 5ec0 3790 dd3e 080d 70c0 16cf 2cbe
000001d0: 935e 5bc0 53c2 9a3e dfb2 9d3f 1849 a43d
000001e0: da38 5cc0 34d4 0cc0 a57e 75c0 678a 283c
000001f0: 77f0 f93e a830 263f b43f 49c0 c0e7 48c0

convs.1.linear1.weight f4 [64, 64]
0.14635842 -1.7580464 -2.117094 0.08800579 -1.4117172 0.44130293 -1.9754 -1.931972
-2.1409874 -1.7932366 0.02625946 0.051674254 0.30117124 -1.5186619 -1.8955237 -2.2051668
-0.042164903 -2.3442333 -1.9638531 0.04371919 -1.7996976 -0.40407896 0.39640695 -1.5693649
0.10167827 0.5114839 0.36144873 -2.0841434 0.4762113 0.41381887 -0.4284649 -1.999554
-1.7312965 -0.5222054 -1.9479687 0.01615655 -0.09380621 0.033688363 0.15974142 0.3365485
0.14395724 0.4147723 0.42817852 -0.11031761 -1.1585174 -1.9768138 -2.1691086 0.03698475
-2.023634 0.4715821 -2.237324 0.5838986 -2.0734003 -0.055654235 -0.3763584 0.47879294
-2.0313783 -0.67070204 -1.9086725 0.53066975 0.2359693 -0.14256945 -1.9065033 -1.9486288
0.5060945 1.5991036 1.2187661 -0.2869691 0.5671687 -0.4458806 1.135548 2.2500887
2.006835 0.6778611 0.12824824 -0.054566566 0.63069445 2.0678804 1.7248588 1.826322
-0.12685354 2.042994 1.4796814 0.29600337 0.7517371 0.42685342 -0.41371143 0.04482279
0.15177727 -0.26716107 -0.15974353 1.7510952 -0.15337051 -0.5074259 -0.09806806 1.3625675
0.9165343 0.29942685 1.3075241 0.19461416 0.086935736 -0.052692555 -0.025468633 -0.1403187
-0.2360833 -0.268043 -0.41517067 0.043391384 1.3703895 1.3612144 1.5274578 0.16130722
1.2087216 -0.32884344 1.6835248 -0.30662456 1.253428 -0.16444612 0.4327579 -0.04833764
1.6611874 0.6604962 2.6186445 -0.011337252 -0.3619713 -0.20771912 1.4695209 2.0086303
-0.4382421 -0.7604808 -0.3343752 0.057141285 -0.29872346 0.19743986 -0.4020198 -0.38765833
-0.6514304 -0.33590382 -0.25881562 -0.13945374 -0.14981504 -0.35062397 -0.5087774 -0.6200426
-0.26412463 -0.55865425 -0.56749094 -0.3801835 -0.2614053 -0.46520653 0.17195912 -0.0040223394
-0.24104984 0.053491432 0.012433552 -0.53311694 0.11605512 0.15684351 -0.35160053 -0.55052114
-0.49493307 -0.35502934 -0.48306617 -0.23488182 -0.18111622 -0.3027426 -0.034750294 -0.07217895
0.01746384 0.31953675 0.16656163 -0.42662412 -0.40232348 -0.4547809 -0.61790186 -0.07078977
-0.45594993 0.11706091 -0.47921976 0.2743027 -0.4582598 -0.092929766 -0.69530195 -0.08618357
-0.39951193 -0.4065954 -0.6143844 -0.010595931 0.28721273 -0.16734995 -0.5476541 -0.40856695
-0.45177603 -0.98090404 -0.6345583 0.0041765724 -0.3164156 0.1657697 -0.5949749 -0.65839916
-0.90781254 -0.5610191 -0.4542882 -0.049776167 -0.38602388 -0.73639745 -0.8365392 -0.85280454
-0.16465631 -0.95074064 -0.6965475 -0.30375388 -0.5192945 -0.39129594 0.3438653 -0.035518523
-0.17907602 0.06620208 0.070709035 -0.56006503 0.16178268 0.26963308 -0.23724698 -0.73113847
-0.62369984 -0.23226176 -0.603485 -0.37264937 -0.25273854 -0.27090517 0.0131145995 -0.115619175
-0.09699952 0.12500097 0.24129993 -0.48998696 -0.5514862 -0.64921904 -0.7078913 -0.050949942
-0.5368115 0.30965292 -0.8553798 0.28109476 -0.6364338 -0.041476496 -0.506767 0.01813576
-0.65772444 -0.34989506 -0.8408209 0.09462245 0.29731727 -0.056616146 -0.6401648 -0.8749399
00000000: fbde 153e aa07 e1bf 787e 07c0 613c b43d
00000010: 26b3 b4bf 75f2 e13e e8d9 fcbf dc4a f7bf
00000020: f005 09c0 c788 e5bf 141e d73c 62a8 533d
00000030: 1e33 9a3e 8363 c2bf 85a0 f2bf 7421 0dc0
00000040: 1bb5 2cbd eb07 16c0 8a5f fbbf e512 333d
00000050: 7e5c e6bf 70e3 cebe daf5 ca3e f3e0 c8bf
00000060: b23c d03d 9cf0 023f cf0f b93e 9b62 05c0
00000070: f8d1 f33e 11e0 d33e c05f dbbe 63f1 ffbf
00000080: 209b ddbf 41af 05bf 0a57 f9bf be5a 843c
00000090: 781d c0bd cffc 093d 4193 233e 1650 ac3e
000000a0: 8769 133e 095d d43e 373a db3e 33ee e1bd
000000b0: 4c4a 94bf 3c08 fdbf add2 0ac0 527d 173d
000000c0: 3883 01c0 3673 f13e 5130 0fc0 617a 153f
000000d0: 97b2 04c0 b2f5 63bd 0cb2 c0be 5924 f53e
000000e0: 1a02 02c0 21b3 2bbf 614f f4bf f9d9 073f
000000f0: f0a1 713e bafd 11be 4d08 f4bf ab6c f9bf
00000100: 698f 013f 6daf cc3f 8700 9c3f 9ded 92be
00000110: f831 113f 764a e4be a359 913f 7401 1040
00000120: fc6f 0040 4e88 2d3f 8253 033e 3181 5fbd
00000130: 3175 213f 2758 0440 2cc8 dc3f ebc4 e93f
00000140: e5e5 01be 6ac0 0240 3366 bd3f c18d 973e
00000150: d871 403f 888c da3e fcd1 d3be 1a98 373d
00000160: 806b 1b3e 56c9 88be cf93 23be e323 e03f
00000170: 290d 1dbe aae6 01bf e8d7 c8bd 9d68 ae3f
00000180: fea1 6a3f 7a4e 993e f35c a73f ef48 473e
00000190: 5d0b b23d 26d4 57bd 98a3 d0bc b5af 0fbe
000001a0: d2bf 71be ef3c 89be 4091 d4be 2abb 313d
000001b0: ec68 af3f 463c ae3f bd83 c33f b82d 253e
000001c0: 64b7 9a3f 2b5e a8be be7d d73f e5fd 9cbe
000001d0: 5470 a03f 9064 28be 7292 dd3e b0fd 45bd
000001e0: caa1 d43f 4716 293f df97 2740 e2bf 39bc
000001f0: 4d54 b9be 52b4 54be 4319 bc3f 668d 0040
00000200: 4561 e0be dfae 42bf 3a33 abbe fb0c 6a3d
00000210: 48f2 98be ad2d 4a3e 8ad5 cdbe 277b c6be
00000220: 25c4 26bf 96fb abbe 7b83 84be f6cc 0ebe
00000230: 1d69 19be fc84 b3be 3c3f 02bf 1dbb 1ebf
00000240: 583b 87be f703 0fbf 1647 11bf 69a7 c2be
00000250: ead6 85be 8d2f eebe 0d16 303e d4cd 83bb
00000260: c5d5 76be d519 5b3d 19b6 4b3c 5a7a 08bf
00000270: 4fae ed3d 969b 203e fc04 b4be f4ee 0cbf
00000280: de67 fdbe 68c6 b5be 7354 f7be dc84 70be
00000290: 8876 39be 1401 9bbe 5356 0ebd 8fd2 93bd
000002a0: 5410 8f3c 529a a33e 228f 2a3e 7a6e dabe
000002b0: 58fd cdbe 0bd9 e8be d12e 1ebf 3afa 90bd
000002c0: 4572 e9be a1bd ef3d 4b5c f5be 6771 8c3e
000002d0: 07a1 eabe f651 bebd 4fff 31bf 0381 b0bd
000002e0: d48c ccbe 462d d0be 4c48 1dbf 8e9a 2dbc
000002f0: 8c0d 933e c95d 2bbe 0f33 0cbf b02f d1be
00000300: 304f e7be 871c 7bbf 6a72 22bf a1db 883b
00000310: 3a01 a2be 88bf 293e 4650 18bf d98c 28bf
00000320: 6766 68bf f39e 0fbf 7798 e8be 18e2 4bbd
00000330: eca4 c5be 8b84 3cbf 6f27 56bf 6651 5abf
00000340: aa9b 28be bd63 73bf f050 32bf a185 9bbe
00000350: 7cf0 04bf f157 c8be 1d0f b03e df7b 11bd
00000360: b45f 37be f594 873d e6cf 903d 6c60 0fbf
00000370: 5caa 253e 590d 8a3e dff0 72be e42b 3bbf
00000380: cbaa 1fbf 07d6 6dbe fe7d 1abf e6cb bebe
00000390: f266 81be 15b4 8abe 9ede 563c bfc9 ecbd
000003a0: afa7 c6bd 4100 003e 5417 773e 92df fabe
000003b0: 332e 0dbf 3833 26bf 5d38 35bf e3b0 50bd
000003c0: 7a6c 09bf d48a 9e3e 2cfa 5abf a7eb 8f3e
000003d0: 53ed 22bf 42e3 29bd 7bbb 01bf 7291 943c
000003e0: a160 28bf 7225 b3be 0a40 57bf 6ac9 c13d
000003f0: f839 983e 55e6 67bd d7e1 23bf 10fc 5fbf

convs.1.linear1.bias f4 [64]
-0.18762821 0.66373926 -0.2716004 -0.33175752 0.7687818 0.57690436 -0.0018375174 0.3818569
0.7300392 -0.0014633334 0.5097002 0.1445565 0.5359132 0.29361874 0.5107389 0.6823663
-0.1901033 0.63249755 -0.3755248 -0.43332043 -0.5471039 0.2026061 -0.5023828 0.09517384
0.12458663 0.4713036 0.15850817 0.5423332 0.095627844 0.2943801 0.103298016 -0.35543695
0.29942533 0.09328912 0.41429532 -0.26606277 0.6832319 0.6447656 0.10984609 -0.7317595
0.005636679 0.45116067 0.11731205 0.0022352815 -0.58194166 0.7729326 0.07349251 -0.36322764
-0.15552871 0.41246963 0.36807802 0.6016879 0.7530217 0.06787452 -0.72645503 0.34062117
0.4736728 -0.004158153 0.057295073 0.60475004 -0.5619771 0.60436714 -0.12267771 0.04418905
00000000: 9c21 40be d1ea 293f 350f 8bbe 1fdc a9be
00000010: e2ce 443f 01b0 133f dad8 f0ba bf82 c33e
00000020: d9e3 3a3f 52cd bfba b67b 023f 9e06 143e
00000030: 9c31 093f 3255 963e c9bf 023f 8faf 2e3f
00000040: 71aa 42be 5ceb 213f c944 c0be 2ddc ddbe
00000050: 000f 0cbf f977 4f3e 299c 00bf 81ea c23d
00000060: 4627 ff3d b54e f13e f74f 223e 59d6 0a3f
00000070: 88d8 c33d fdb8 963e e98d d33d d5fb b5be
00000080: 474e 993e 5e0e bf3d 841e d43e 6139 88be
00000090: 49e8 2e3f 5c0f 253f fdf6 e03d 9754 3bbf
000000a0: e4b3 b83b 88fe e63e 4d41 f03d cd7d 123b
000000b0: 21fa 14bf e9de 453f 3e83 963d f9f8 b9be
000000c0: eb42 1fbe 382f d33e b974 bc3e 3808 1a3f
000000d0: 08c6 403f cc01 8b3d f5f8 39bf e665 ae3e
000000e0: 3e85 f23e 1e41 88bb 3dae 6a3d e6d0 1a3f
000000f0: bbdd 0fbf ceb7 1a3f 743e fbbd 94ff 343d

convs.1.linear2.weight f4 [64, 64]
-0.21287341 0.47152135 -0.044962235 -0.38559282 0.8679668 0.90883225 0.092210166 0.5558084
0.7675074 0.15724732 0.48374838 0.2831786 0.55105734 0.5697191 0.9454049 0.55289763
-0.26726076 0.72417444 -0.17940767 -0.6331214 -0.51138794 0.029578185 -0.5355474 0.19182485
0.07399654 0.7581576 0.31454447 0.8864095 -0.035246246 0.33511052 -0.0026526707 -0.37899196
0.53875685 0.13920116 0.7187166 -0.06381395 0.67049617 0.5642666 0.12953053 -0.984918
0.44032577 0.6717897 0.28109968 0.36261228 -0.7890673 1.1443764 0.24253929 -0.3975908
-0.34900823 0.8402927 0.9819033 0.7808523 0.8366178 0.1071415 -0.75534046 1.3644369
0.33158094 -0.19738688 -0.23481983 0.7877556 -0.5151438 0.598349 0.12693803 0.07076421
-0.22767204 0.46198636 -0.36446297 -0.5176055 0.66147125 0.921601 -0.053389672 0.630724
0.61053985 -0.13087626 0.5142886 0.3971875 0.5932283 0.5432335 0.7848668 0.5797255
-0.30901393 0.7950665 -0.49872643 -0.64024854 -0.45615155 0.18720262 -0.6397177 0.21061072
0.17546652 0.55219877 0.067936525 0.89578176 -0.01586281 0.39661935 0.0535715 -0.36075494
0.5943258 0.06967274 0.80927914 -0.47038507 0.63465184 0.512782 0.20724863 -1.0791978
-0.079897515 0.63758487 0.11827693 0.13092479 -0.7277209 0.7839707 0.2869595 -0.5229834
-0.22807342 0.8097669 0.88303137 0.8264446 0.7452857 0.0016806157 -0.80160546 0.88278306
0.27558059 -0.13749671 0.15315907 0.6905894 -0.5005525 0.4667609 -0.1279353 0.011388727
-0.15872812 0.36685708 -0.095257185 -0.33361444 0.88311476 0.8839541 0.030832488 0.4963979
0.5886865 0.055743106 0.5526472 0.13320129 0.6440603 0.5298823 0.897373 0.60350585
-0.26419142 0.83133453 -0.26662317 -0.5096425 -0.36593413 0.061969265 -0.51035357 0.1896332
0.20086864 0.590052 0.32320467 0.767244 0.20125107 0.39270768 0.046717882 -0.21164726
0.46937954 0.27480155 0.70960337 -0.12031399 0.7468351 0.47159132 0.22987196 -0.789961
0.28400564 0.7114225 0.23621505 0.18035662 -0.57517964 1.0833111 0.1876483 -0.15628777
-0.25124234 0.83244514 1.070186 0.75235766 0.6080014 0.17779039 -0.67582726 1.2577215
0.3538861 -0.2380079 -0.102370396 0.69161355 -0.44296896 0.65837246 0.1033839 0.054587573
0.3171838 -0.55717975 0.28963006 0.15045229 -0.81182814 -1.035952 0.17981036 -0.6057205
-0.6264138 -0.10642633 -0.6327871 -0.277418 -0.62373716 -0.40418473 -0.73583317 -0.40384337
0.23111404 -0.6577587 0.35673204 0.29577297 0.422587 0.02591418 0.50414675 -0.11253737
-0.16014893 -0.55475765 0.1596133 -0.9583217 -0.0870498 -0.369182 -0.14196733 0.2892975
-0.32208693 -0.13264872 -0.64324653 -0.039335936 -0.49683672 -0.64660645 -0.19610523 0.43807784
-0.2425432 -0.57884413 -0.2119691 -0.027397426 0.57773983 -0.81440896 -0.023730673 0.28978404
0.00396959 -0.8218512 -0.777403 -0.77704114 -0.8845351 -0.024840282 0.78085536 -0.66939497
-0.37010086 -0.0027554939 0.1580854 -0.74819636 0.41305465 -0.5191645 -0.019202186 -0.0044344547
00000000: 7dfb 59be 3f6b f13e 522a 38bd 6c6c c5be
00000010: 1233 5e3f 3ba9 683f afd8 bc3d 7649 0e3f
00000020: 5d7b 443f 7105 213e dead f73e c9fc 903e
00000030: 1812 0d3f 1cd9 113f 0e06 723f b38a 0d3f
00000040: 67d6 88be 7f63 393f a5b6 37be 3e14 22bf
00000050: 52ea 02bf f34d f23c a219 09bf bc6d 443e
00000060: 7f8b 973d 9e16 423f f90b a13e bceb 623f
00000070: 5e5e 10bd 9b93 ab3e 6ed8 2dbb 3c0b c2be
00000080: f8eb 093f c08a 0e3e d0fd 373f e3b0 82bd
00000090: a3a5 2b3f c773 103f a7a3 043e 9623 7cbf
000000a0: 6172 e13e 69fa 2b3f 4cec 8f3e 51a8 b93e
000000b0: 5100 4abf ed7a 923f 385c 783e 0591 cbbe
000000c0: 35b1 b2be 6c1d 573f 045e 7b3f f0e5 473f
000000d0: 962c 563f 016d db3d fe5d 41bf dea5 ae3f
000000e0: fac4 a93e c91f 4abe 9c74 70be 5aaa 493f
000000f0: 77e0 03bf 662d 193f 0bfc 013e d3ec 903d
00000100: dc22 69be 7a89 ec3e e49a babe cb81 04bf
00000110: 2e56 293f 0bee 6b3f 21af 5abd 2177 213f
00000120: 574c 1c3f 6d04 06be 6ba8 033f 295c cb3e
00000130: cfdd 173f 5a11 0b3f 08ed 483f e468 143f
00000140: 1337 9ebe 7a89 4b3f 1259 ffbe 54e7 23bf
00000150: b28c e9be 0bb2 3f3e 8ac4 23bf 56aa 573e
00000160: 7fad 333e e65c 0d3f 4e22 8b3d f451 653f
00000170: b9f2 81bc b111 cb3e ca6d 5b3d dfb4 b8be
00000180: bc25 183f 95b0 8e3d eb2c 4f3f 50d6 f0be
00000190: 8b78 223f ae45 033f fc38 543e 2723 8abf
000001a0: 4fa1 a3bd c338 233f 2d3b f23d 2611 063e
000001b0: eb4b 3abf 4eb2 483f 5bec 923e 3de2 05bf
000001c0: 148c 69be e24c 4f3f 580e 623f e091 533f
000001d0: 0bcb 3e3f 1b48 dc3a 0436 4dbf 12fe 613f
000001e0: e618 8d3e f0cb 0cbe bbd5 1c3e 78ca 303f
000001f0: 3524 00bf 49fb ee3e 7901 03be c997 3a3c
00000200: a089 22be b1d4 bb3e 3316 c3bd 83cf aabe
00000210: cf13 623f d14a 623f 6a94 fc3c de27 fe3e
00000220: 29b4 163f e252 643d 497a 0d3f eb65 083e
00000230: 23e1 243f 5ea6 073f 3dba 653f 5c7f 1a3f
00000240: 1944 87be 57d2 543f d582 88be ee77 02bf
00000250: b85b bbbe 7cd3 7d3d 88a6 02bf 352f 423e
00000260: 82b0 4d3e a60d 173f 157b a53e 1a6a 443f
00000270: c314 4e3e fb10 c93e 405b 3f3d 0fba 58be
00000280: 8452 f03e cab2 8c3e 91a8 353f 2e67 f6bd
00000290: 9630 3f3f 6b74 f13e 8e63 6b3e e23a 4abf
000002a0: 3069 913e c91f 363f 5ce2 713e 68af 383e
000002b0: f93e 13bf f0a9 8a3f e026 403e e709 20be
000002c0: d6a2 80be 201b 553f dbfb 883f 839a 403f
000002d0: fba5 1b3f af0e 363e 0403 2dbf 05fd a03f
000002e0: 8f30 b53e 58b8 73be 92a7 d1bd 960d 313f
000002f0: d4cc e2be 198b 283f f0ba d33d 3897 5f3d
00000300: ea65 a23e 55a3 0ebf 644a 943e 2a10 1a3e
00000310: f8d3 4fbf 139a 84bf 3520 383e 8010 1bbf
00000320: a85c 20bf 0cf6 d9bd 56fe 21bf bb09 8ebe
00000330: 3dad 1fbf 4df1 cebe 905f 3cbf 8fc4 cebe
00000340: 29a9 6c3e e062 28bf 95a5 b63e 8e6f 973e
00000350: 535d d83e f949 d43c c30f 013f fe79 e6bd
00000360: 15fe 23be 9904 0ebf ab71 233e 9254 75bf
00000370: 2a47 b2bd 6c05 bdbe e25f 11be cd1e 943e
00000380: 94e8 a4be 11d5 07be ceab 24bf b81e 21bd
00000390: 6261 febe 0088 25bf cfcf 48be bd4b e03e
000003a0: 3f5d 78be 212f 14bf 6e0e 59be 9170 e0bc
000003b0: c2e6 133f 1b7d 50bf d466 c2bc 935e 943e
000003c0: 5613 823b d764 52bf e203 47bf 2bec 46bf
000003d0: e470 62bf d97d cbbc 23e6 473f 785d 2bbf
000003e0: dc7d bdbe 8495 34bb 24e1 213e cc89 3fbf
000003f0: e67b d33e f7e7 04bf e74d 9dbc e74e 91bb

convs.1.linear2.bias f4 [64]
0.33039984 0.30112997 0.25371337 -0.24305695 0.025415732 0.25939178 -0.15021664 -0.15153633
-0.15574253 0.3381681 0.11827395 0.06497109 -0.04597518 -0.2806429 0.13256954 0.03316752
0.067661636 -0.13413364 0.20888577 0.3889591 -0.30554932 0.05004977 0.30663028 0.09785271
-0.07569411 -0.18354279 0.29107213 -0.11856172 -0.14553785 0.23518439 0.37650663 -0.18372628
0.317418 -0.13004757 -0.047778167 0.21162644 -0.18428183 -0.0054783067 -0.101273455 -0.18782087
0.34115943 -0.2973398 0.06668866 -0.19606432 -0.060158085 0.19738905 0.31751215 0.26196498
0.3675218 -0.13191222 0.30599862 0.31138077 0.31552482 0.28996414 0.3248992 -0.28344977
-0.24715713 0.43751723 -0.23862793 0.14978416 -0.15097241 -0.028235944 -0.1693388 0.19348525
00000000: 2b2a a93e b52d 9a3e b8e6 813e ece3 78be
00000010: a734 d03c 00cf 843e 64d2 19be 572c 1bbe
00000020: f87a 1fbe 5f24 ad3e 9d39 f23d 900f 853d
00000030: 7850 3cbd 6db0 8fbe 4fc0 073e aada 073d
00000040: 2f92 8a3d 545a 09be 27e6 553e a625 c73e
00000050: f670 9cbe fd00 4d3d a5fe 9c3e 0067 c83d
00000060: 8305 9bbd a4f2 3bbe 6807 953e 7dd0 f2bd
00000070: e007 15be 2dd4 703e 7ac5 c03e be22 3cbe
00000080: 9d84 a23e 312b 05be 0ab3 43bd 9ab4 583e
00000090: 60b4 3cbe 5e83 b3bb 7568 cfbd 1d54 40be
000000a0: 73ac ae3e ec3c 98be 1094 883d 16c5 48be
000000b0: 5368 76bd 5b20 4a3e f490 a23e 4620 863e
000000c0: d12b bc3e ff13 07be daab 9c3e 4d6d 9f3e
000000d0: 788c a13e 2e76 943e 3059 a63e 5420 91be
000000e0: c216 7dbe 4202 e03e e15a 74be 0561 193e
000000f0: 8398 1abe 114f e7bc 2667 2dbe ff20 463e

mlp1.weight f4 [64, 192]
0.19943379 -0.26600936 0.23492774 -0.15703787 -0.017697753 -0.10737616 0.10231228 0.16174439
0.21942997 -0.10061999 -0.009328309 0.089285724 -0.01658214 -0.28386348 0.11316487 0.19647868
-0.065029845 -0.026361516 -0.11061826 0.16225913 0.012256359 -0.08687948 -0.30432546 -0.28036037
0.036373515 -0.02328235 -0.021316394 0.18865062 0.034014247 -0.32991216 0.105729766 0.10342729
0.08058637 -0.08334932 -0.28991258 0.12621935 0.24893166 0.1972125 0.2402275 -0.15794408
0.08704961 0.030869862 -0.0056541744 0.23752344 -0.08662534 0.022967828 -0.2350114 -0.048579358
0.11318671 0.29909965 -0.03356741 -0.06654951 -0.39363918 0.3908654 -0.022269323 -0.29251394
0.18326242 0.060242787 -0.20449491 0.11730552 0.23970373 0.26883605 -0.05322635 -0.024250697
-0.063648604 0.010793604 -0.21460102 -0.09505277 -0.05069627 0.2312903 -0.107368805 -0.16110183
-0.17860706 -0.13202754 0.05533491 -0.058247857 -0.022234248 -0.28705463 -0.16973665 -0.11418713
-0.16328698 -0.12153721 -0.021089116 -0.032732822 -0.14193526 -0.30170846 0.17932078 -0.17728819
-0.018201767 0.29421452 0.413211 0.035837512 0.19754751 0.1843812 -0.26860273 -0.108699
-0.0011271366 -0.06259725 -0.0022882263 0.011220805 -0.04508737 -0.07979568 0.02853086 0.05767549
0.04564177 0.20015404 0.17629221 0.20648585 -0.16510248 -0.17326766 -0.048349384 0.038666442
-0.06383256 0.25985348 -0.09187609 0.30159205 -0.04740932 -0.044644166 -0.018344697 0.39314905
-0.08710441 0.010533692 -0.3455966 0.32432982 0.25512388 -0.011904961 -0.015690839 -0.15733622
0.047694653 0.00082208344 -0.015376618 -0.018381737 -0.35418844 0.046126585 -0.0076575945 0.0045718793
-0.09593733 0.062942736 -0.10493277 0.077865645 0.047290135 -0.06266479 -0.067212634 -0.32672548
0.25126123 -0.003335868 -0.17906646 0.06759773 -0.0364705 -0.3460563 0.078020126 -0.029516863
0.0072858282 -0.05460726 0.10738824 0.052568335 -0.11603956 0.06885307 -0.02292972 -0.06002451
0.043444313 0.0447856 -0.6229508 0.07240777 -0.022744635 -0.29305664 0.08957553 0.029268052
0.030968146 -0.0907845 0.14709121 -0.10671135 -0.0051499284 -0.6824872 0.04854259 0.033937097
-0.085318446 -0.027406331 0.02368243 0.05332596 0.0036970922 -0.03630247 0.12086322 -0.07887214
-0.12273979 -0.009108445 -0.036959935 -0.056371182 0.06473426 -0.10302408 -0.092692174 -0.17027614
0.09182462 0.07638025 -0.36488026 0.19477351 -0.14553504 0.10310291 -0.10520794 -0.35896814
-0.2441055 0.25377533 -0.26513568 0.062455703 0.03874689 0.23342592 -0.022900209 -0.34690014
-0.1398364 0.231522 0.30675974 -0.11935766 -0.09203521 -0.07244017 0.27053532 0.26846987
-0.21961369 -0.028480513 -0.13225245 -0.05937519 -0.19185726 0.20908387 0.12544246 -0.2562287
0.14770755 -0.22247262 0.13458237 -0.28379506 -0.02165021 -0.27146274 -0.07703765 0.124799244
-0.3500493 0.0058351173 -0.18752295 -0.34203205 0.21075858 0.13380995 0.41813812 0.31414863
-0.39810535 -0.023515554 -0.005378953 0.22113459 0.22714362 -0.207322 -0.28121132 0.22287449
-0.44781345 0.1625875 0.038539294 -0.0024487036 -0.11137278 -0.07912534 -0.16405672 -0.22649425
00000000: 5f38 4c3e 6132 88be e690 703e 89ce 20be
00000010: e1fa 90bc 08e8 dbbd 1a89 d13d 52a0 253e
00000020: 40b2 603e da11 cebd c4d5 18bc 6fdb b63d
00000030: 45d7 87bc 8e56 91be fcc2 e73d b531 493e
00000040: 5e2e 85bd 1bf4 d7bc d48b e2bd 4227 263e
00000050: e5ce 483c deed b1bd 8cd0 9bbe 658b 8fbe
00000060: 65fc 143d a0ba bebc b89f aebc a12d 413e
00000070: 8652 0b3d 3fea a8be d988 d83d b0d1 d33d
00000080: 770a a53d 0cb3 aabd 6c6f 94be a53f 013e
00000090: f1e7 7e3e 13f2 493e 33fe 753e 18bc 21be
000000a0: 1147 b23d cbe2 fc3c a746 b9bb 5839 733e
000000b0: a068 b1bd 0727 bc3c d4a6 70be 26fb 46bd
000000c0: 6fce e73d 9723 993e fb7d 09bd 1c4b 88bd
000000d0: 138b c9be 821f c83e 286e b6bc 63c4 95be
000000e0: 25a9 3b3e 24c1 763d 1d67 51be e03d f03d
000000f0: e574 753e e1a4 893e e003 5abd 66a9 c6bc
00000100: 335a 82bd a8d7 303c 5fc0 5bbe 07ab c2bd
00000110: e4a6 4fbd 5dd7 6c3e 2de4 dbbd e1f7 24be
00000120: c5e4 36be 3a32 07be dca6 623d 4e95 6ebd
00000130: 9924 b6bc d3f8 92be 72cf 2dbe f1da e9bd
00000140: b434 27be 80e8 f8bd 15c3 acbc da12 06bd
00000150: 7a57 11be 8879 9abe de9f 373e 098b 35be
00000160: df1b 95bc 49a3 963e 6490 d33e 5bca 123d
00000170: e549 4a3e 6dce 3c3e 4c86 89be 959d debd
00000180: 6ebc 93ba fd32 80bd 11f6 15bb 78d7 373c
00000190: 89ad 38bd eb6b a3bd 8db9 e93c 223d 6c3d
000001a0: ddf2 3a3d 2ef5 4c3e f285 343e 0771 533e
000001b0: a010 29be 146d 31be 010a 46bd b460 1e3d
000001c0: a5ba 82bd 840b 853e 8829 bcbd 466a 9a3e
000001d0: 4630 42bd cddc 36bd 9e47 96bc d54a c93e
000001e0: cc63 b2bd 8295 2c3c 0af2 b0be 8f0e a63e
000001f0: 999f 823e 070d 43bc 138a 80bc bf1c 21be
00000200: 785b 433d 1681 573a 36ee 7bbc 4c95 96bc
00000210: 3058 b5be 3bef 3c3d 8fec fabb b4cf 953b
00000220: ca7a c4bd 1fe8 803d fee6 d6bd 0678 9f3d
00000230: 4db3 413d 6656 80bd c7a6 89bd 9048 a7be
00000240: 50a5 803e 949e 5abb 335d 37be ae70 8a3d
00000250: 1762 15bd 4b2e b1be 04c9 9f3d 59cd f1bc
00000260: f5bd ee3b ddab 5fbd 5eee db3d e551 573d
00000270: 26a6 edbd d702 8d3d 1cd7 bbbc 43dc 75bd
00000280: aaf2 313d 1b71 373d b479 1fbf 864a 943d
00000290: f552 babc 850b 96be 6073 b73d 8ec3 ef3c
000002a0: e9b0 fd3c 39ed b9bd 149f 163e 7b8b dabd
000002b0: bbc0 a8bb 7bb7 2ebf 98d4 463d a001 0b3d
000002c0: 70bb aebd 3e83 e0bc a801 c23c 526c 5a3d
000002d0: ea4a 723b e6b1 14bd 2387 f73d b787 a1bd
000002e0: 005f fbbd 963b 15bc 4d63 17bd 78e5 66bd
000002f0: 6593 843d 4afe d2bd 65d5 bdbd de5c 2ebe
00000300: 8c0e bc3d 406d 9c3d 96d1 babe b572 473e
00000310: 2307 15be 9e27 d33d 4377 d7bd acca b7be
00000320: cbf6 79be d7ee 813e ddbf 87be 8dd1 7f3d
00000330: 0fb5 1e3d 3407 6f3e 3899 bbbc e59c b1be
00000340: 4631 0fbe 1a14 6d3e 9d0f 9d3e ca71 f4bd
00000350: f57c bcbd 835b 94bd 9b83 8a3e e274 893e
00000360: 69e2 60be f74f e9bc 306d 07be 6633 73bd
00000370: 3b76 44be 151a 563e fd73 003e 6830 83be
00000380: a640 173e ddcf 63be f6cf 093e 964d 91be
00000390: c85b b1bc 2afd 8abe eac5 9dbd bf96 ff3d
000003a0: a939 b3be 8334 bf3b 0406 40be d31e afbe
000003b0: 19d1 573e 7a05 093e 3316 d63e 17d8 a03e
000003c0: 77d4 cbbe b1a3 c0bc ee41 b0bb 1b71 623e
000003d0: 5698 683e 384c 54be eefa 8fbe 3639 643e
000003e0: ce47 e5be 567d 263e 61db 1d3d 6e7a 20bb
000003f0: 6917 e4bd 770c a2bd 7cfe 27be 1cee 67be

mlp1.bias f4 [64]
0.11037465 0.020195719 -0.12576245 -0.19379668 -0.055281505 -0.02312295 -0.008308758 -0.039220102
0.19949591 0.0936337 0.18008636 0.01352419 0.124027036 0.09852997 -0.083948776 0.026531508
-0.065842025 0.020697601 0.042906065 0.036645412 -0.14825614 0.1325709 0.10452695 0.08467678
0.010206018 0.20346832 0.09818626 -0.11116794 0.11336044 0.15192682 0.077495284 0.06059759
1.4352353 -0.041068573 -0.24419577 -0.003240629 -0.0639063 0.007004631 0.07834144 0.15580297
0.3896033 0.15375543 0.036504075 0.090490535 0.009094979 0.121610135 -0.25697687 -0.010519718
0.045598548 -0.053781744 -0.20848802 0.057151582 -0.25034988 -0.023345836 -0.02249212 -0.0993832
-0.19810487 0.017176384 -0.26512706 0.047979314 0.4617815 0.021430463 0.041254733 -0.08550452
00000000: 1b0c e23d 7e71 a53c dfc7 00be a372 46be
00000010: dc6e 62bd 576c bdbc 7521 08bc 42a5 20bd
00000020: a848 4c3e 06c3 bf3d 8f68 383e 9094 5d3c
00000030: e301 fe3d 15ca c93d 56ed abbd 9b58 d93c
00000040: 2fd8 86bd 048e a93c 45be 2f3d 8019 163d
00000050: 75d0 17be aac0 073e 3a12 d63d 056b ad3d
00000060: 2437 273c 005a 503e e115 c93d 04ac e3bd
00000070: 8529 e83d b492 1b3e d9b5 9e3d 2e35 783d
00000080: cab5 b73f 8537 28bd 750e 7abe bc60 54bb
00000090: 4ee1 82bd 1b87 e53b 7a71 a03d d08a 1f3e
000000a0: 157a c73e 1072 1d3e 4c85 153d 1a53 b93d
000000b0: 1b03 153c bc0e f93d 7992 83be e55a 2cbc
000000c0: 8bc5 3a3d 3f4a 5cbd e27d 55be c717 6a3d
000000d0: dc2d 80be c43f bfbc 6541 b8bc 6b89 cbbd
000000e0: 01dc 4abe 7db5 8c3c bcbe 87be f585 443d
000000f0: a06e ec3e f08e af3c b9fa 283d fe1c afbd
