Saved_Models/TSP_100/scatgnn_layer_2_hid_64_model_210_temp_3.500.pth (torch, 153863 bytes, 24 tensors)

bn0.weight f4 [2]
000000 00 00 80 3f 00 00 80 3f
       1.0 1.0

bn0.bias f4 [2]
000000 00 00 00 00 00 00 00 00
       0.0 0.0

bn0.running_mean f4 [2]
000000 00 00 00 00 00 00 00 00
       0.0 0.0

bn0.running_var f4 [2]
000000 00 00 80 3f 00 00 80 3f
       1.0 1.0

in_proj.weight f4 [64, 2]
000000 9e eb 52 3f 7a 71 fa 3e ee f7 6c bf 00 c1 2c 3e
       0.82390773 0.489147 -0.9256581 0.16870499
000010 35 cf 86 3f 9a da cf be d9 cd 9b 3e 54 b5 bc 3f
       1.0531985 -0.40596467 0.30430487 1.4742837
000020 a8 f3 82 3e 47 e2 33 bf 4a 8c 05 3f 72 66 ab 3f
       0.2557652 -0.70267147 0.5216719 1.3390639
000030 1f c6 6c 3f ff d0 3c 3f 6a 9b 5c 3e 4f ac b5 bf
       0.9248981 0.737564 0.21543661 -1.419321
000040 95 fb 99 3f da 4d 36 3e 01 f6 50 bf 2c 38 66 3f
       1.2029902 0.17803136 -0.8162537 0.8992946
000050 70 1c 80 3f fc ef ac be e7 4a 84 3f 6e 8f 0f 3f
       1.0008678 -0.33776844 1.0335358 0.5607823
000060 71 24 96 bf eb 5f b4 bf b3 96 4a bf b5 bd 5a 3e
       -1.1729871 -1.4091772 -0.791362 0.2136143
000070 4d fc 32 bf cc e1 ba bf 10 9d 69 3f d2 bf 99 bf
       -0.6991623 -1.4600158 0.91255283 -1.2011664
000080 fe 74 46 3f a8 98 7b 3c be 3e d2 3d cf 16 9f 3f
       0.77522266 0.01535622 0.102658734 1.2428836
000090 4f fc a7 bf eb bd d9 3d bc 81 9f be c9 6c 8c bf
       -1.3123873 0.10631927 -0.31153667 -1.0970699
0000a0 d9 e6 b0 3f 31 50 a0 3f f6 ff 96 3f ca 11 57 3f
       1.3820449 1.2524472 1.1796863 0.8401152
0000b0 e2 db 48 bf 86 c6 20 3f 40 82 33 bf 40 96 9a 3f
       -0.78460515 0.6280292 -0.7012062 1.2077103
0000c0 87 25 2a be 16 c1 a2 bf 7f df 5b 3f 3c 0d f8 3e
       -0.16615878 -1.2715175 0.858879 0.48447597
0000d0 26 a1 5a bf 13 b2 ae bf e2 d8 9d be a0 6f 82 bf
       -0.85402143 -1.3648094 -0.3082953 -1.0190315
0000e0 ef 30 72 3f f2 72 0e be 45 a1 2f bf 06 a4 82 3f
       0.94605917 -0.13911036 -0.6860545 1.0206306
0000f0 da 8a 4e 3f 3e 91 8c 3f c9 bc 94 3f c0 93 a3 3e
       0.8068062 1.0981824 1.1620113 0.31948662
000100 10 b9 2b 3f 13 91 ad 3f 29 4b ba 3d 3a a6 84 bf
       0.6707926 1.3559898 0.09096367 -1.0363228
000110 95 e8 be be 3d 66 7e 3f 82 5d 7f 3f 08 ce ed be
       -0.3728682 0.99374753 0.99752057 -0.46446252
000120 65 d0 42 3f f7 ef 7f 3e 8b 2f 24 3d 4b f4 96 bf
       0.76099235 0.24993883 0.040084403 -1.1793302
000130 00 a8 76 3f 01 41 45 3e 4d a3 9d bf 5e fa 93 3c
       0.963501 0.19263078 -1.231546 0.01806372
000140 50 f5 5a 3f fa bc 02 bf d2 7d 59 bf de ed 98 bf
       0.8553057 -0.51069605 -0.8495761 -1.1947591
000150 20 72 e9 3e 18 57 76 bf 07 8d 96 3f 37 0b 23 bf
       0.45594883 -0.96226645 1.1761788 -0.6368899
000160 a4 71 9b bf e7 a9 be bd 6c 28 85 bf b6 7c 54 be
       -1.2144055 -0.0930975 -1.0402961 -0.20750698
000170 c3 43 1d bf e7 c6 e7 3e 46 a4 b5 be db 76 a2 3f
       -0.6143152 0.45268938 -0.35476893 1.2692522
000180 22 d8 63 3e 9b f0 84 bf 61 15 0a 3f a2 e7 80 be
       0.22250417 -1.0385927 0.5393887 -0.25176722
000190 42 91 99 bf 56 d7 9d bf af 16 40 bf 60 d4 1b 3f
       -1.1997454 -1.233134 -0.7503461 0.60870934
0001a0 26 4c 7f bf 4f bc 90 3f fa 2b 3d 3f 3d 6f 3c bf
       -0.9972557 1.1307467 0.7389523 -0.73607236
0001b0 c9 b5 6b 3f 1a e6 58 bf 32 76 26 bf e3 17 19 3f
       0.9207426 -0.8472611 -0.650241 0.59802073
0001c0 c7 e1 85 3f 0b 8a 34 bf a2 12 8b bf 72 bd c8 be
       1.0459527 -0.70523137 -1.0865061 -0.39207035
0001d0 5b c9 8c bf 0f 88 f0 be 24 eb 13 bf e4 2b 8c bf
       -1.0998949 -0.46978804 -0.5778067 -1.0950894
0001e0 a7 b1 b8 3e fd 77 40 bf c8 f0 9a 3e 65 bf 8b bf
       0.36073038 -0.7518309 0.30261827 -1.0917784
0001f0 e2 4a 0e bd 3c 78 81 bf 0a 9a 94 3f d7 76 93 be
       -0.034739383 -1.0114818 1.1609509 -0.28801605

in_proj.bias f4 [64]
000000 bb 39 0d 3f 8a de 53 be 11 c1 51 3c 55 2a b6 3b
       0.55166215 -0.2069036 0.012802378 0.0055592456
000010 a1 c9 fc be cf 0f 71 be 6a bc 35 3d 64 83 13 be
       -0.4937258 -0.23541187 0.04436914 -0.1440559
000020 90 20 69 3d 48 0f 13 3f 7f a7 01 bf 14 25 ff 3e
       0.05691582 0.5744519 -0.50646204 0.49832976
000030 b9 18 c7 bd cd 4e 25 be 33 0a 47 3e f9 e2 91 bd
       -0.09721512 -0.16143341 0.19437484 -0.0712337
000040 01 8a f8 be c3 f8 5e 3c 13 99 33 3d 75 5a 09 3f
       -0.4854279 0.013609114 0.043847155 0.5365365
000050 f6 1c a3 3b 3d 1b cc be 23 d0 a6 bd 19 73 b5 bd
       0.0049778176 -0.3986453 -0.08145168 -0.08859844
000060 ee 8f 17 be 8f d5 b5 be 13 5d c8 be 27 1c 06 3f
       -0.14800999 -0.35514495 -0.3913351 0.5238671
000070 ea 83 15 bf 4d 93 07 bf 5a 9d 22 3f fd 1f 85 bc
       -0.5840441 -0.5295914 0.6352135 -0.016250605
000080 eb 82 1f 3f 28 37 e1 be 36 cf 1c bf 65 e6 44 be
       0.6230914 -0.43987393 -0.6125368 -0.19228514
000090 34 3c fe 3e 08 f3 ca 3c c5 bb 2f 3f 9b b1 86 be
       0.49655306 0.02477409 0.6864589 -0.26307377
0000a0 40 53 02 be b9 33 79 3e d9 4f 05 bf 74 60 eb 3d
       -0.1272707 0.24336137 -0.5207496 0.11493006
0000b0 a6 f6 f0 3d 8d c9 15 3f b3 1c 0d 3c ad fb 81 3e
       0.117657945 0.5851067 0.008612799 0.25387326
0000c0 ef 3c be bd 7d 2f d3 3e 64 1a bd be 3f cb 91 3e
       -0.09288966 0.41247168 -0.36934197 0.28475377
0000d0 eb 10 cb be ee 91 97 3e c2 0e 13 bf 9a 9e 85 be
       -0.39661345 0.29603523 -0.57444394 -0.26097566
0000e0 a8 18 bb bd d1 5b 06 3f 65 b7 f5 be b3 49 02 3f
       -0.09135562 0.5248385 -0.4799148 0.50893706
0000f0 fd 4e ae 3e b2 66 01 3f 26 76 ff be 95 c6 11 bf
       0.34044638 0.50547326 -0.49894828 -0.5694364

convs.0.a f4 [128, 1]
000000 7a 69 13 bd 05 13 ac 3c 59 18 6f bc d4 8b 3a 3c
       -0.035989262 0.021005163 -0.014593207 0.011385877
000010 46 b2 66 b8 e9 da 25 bc 8b fd 20 bd 7c 86 1e bd
       -5.5002303e-05 -0.010122993 -0.039304297 -0.038702473
000020 f6 5c 0e bd 62 61 63 3c ae 18 8f bb b3 84 5e bd
       -0.034756623 0.013878198 -0.0043669557 -0.05432577
000030 ea 7d 34 bd 62 0e b9 3c 4a 8f 81 bd ae f7 b2 bc
       -0.044065394 0.022589866 -0.06326158 -0.021846619
000040 00 00 00 00 3b 45 51 3c 61 fa 99 3c 24 46 fb bc
       0.0 0.0127728535 0.018796148 -0.030673094
000050 fc 52 08 bd 82 82 46 3b ea bd 25 3d e8 6b 1f 3d
       -0.033282265 0.003029019 0.04046432 0.038921267
000060 f3 08 f6 bc b4 e5 44 3c fc 8f 08 bd b1 c6 1f bd
       -0.030033564 0.012017656 -0.03334044 -0.039007846
000070 16 16 40 b7 b8 1b 1a 3c e1 f3 ba bc 5a b0 bd bc
       -1.1449234e-05 0.009406023 -0.022821369 -0.02315538
000080 6e 95 c1 bc 84 3c c7 bb 7a ed 6e b9 13 88 20 bc
       -0.023630824 -0.006080212 -0.00022785916 -0.009798068
000090 72 e6 1a bd 65 2f 21 bd 7f 8d d5 bc b1 d9 a8 3c
       -0.037817426 -0.03935184 -0.026068447 0.020611616
0000a0 f6 3f 0d bc b5 49 1a bd 02 82 aa bb 34 43 04 bd
       -0.0086212065 -0.03766795 -0.0052034864 -0.032290652
0000b0 0e ae 8c 3c b8 74 e0 ba c0 45 0d 3d 4b 77 92 3c
       0.01717284 -0.0017124629 0.034490347 0.017879149
0000c0 54 1b 03 bd 52 46 7c bd 06 fe 06 bd e6 82 fc 3c
       -0.032008484 -0.0615905 -0.0329571 0.030824136
0000d0 e3 4f f0 3c cb 89 82 bd f2 2c f6 bb bc 48 a2 3c
       0.029334968 -0.06373938 -0.007512682 0.019810073
0000e0 a3 35 60 bc f6 82 ad bc 38 fe de 39 43 ed 1b bd
       -0.013684663 -0.021180611 0.00042532547 -0.038068067
0000f0 95 6f 4c bd 55 04 6c bd 85 80 5c ba 9f 56 8c bb
       -0.0499111 -0.05762132 -0.0008411485 -0.004282787
000100 63 18 9f be a6 63 1e 3f 54 80 1f 3f ee 66 16 3f
       -0.31073293 0.618708 0.6230519 0.5875081
000110 31 c9 23 3f 08 cc 40 3f 5e 68 71 3e 90 3f 20 3f
       0.6397887 0.75311327 0.23574969 0.6259699
000120 6a e0 e3 3e aa 09 9e be 68 78 2d 3f 50 0e 85 be
       0.44507152 -0.30866748 0.6776185 -0.25987482
000130 26 f5 51 3f 05 1f 29 3f f1 37 ab 3d 3f 29 20 3f
       0.8201469 0.6606296 0.08360279 0.62562937
000140 01 1f 25 3f e6 2b e4 3e de 94 04 3f f3 20 92 be
       0.64500433 0.44564742 0.51789653 -0.28540763
000150 48 0f d4 3e cc 9b 48 3f 87 05 28 3f bf 88 27 3f
       0.4141791 0.7836273 0.65633434 0.6544303
000160 86 14 20 3f e2 40 30 3f db 19 42 3f f8 b2 8a be
       0.62531316 0.68849003 0.758207 -0.27089667
000170 e7 8c 24 3f 0e 7b 20 3f 3a 97 86 be 2d d5 22 3f
       0.642775 0.62687767 -0.26287252 0.6360653
000180 2d 5b 5f be 20 cf 1c 3f 47 a7 1c 3f a4 72 29 3f
       -0.21812125 0.6125355 0.61192745 0.6619055
000190 21 4c aa be ef 71 1c 3f 7c 8c ac be d4 7b 22 3f
       -0.33261207 0.6111135 -0.3370093 0.63470197
0001a0 99 0c 24 3f 3b b2 b8 bc 06 02 27 3f 5d d8 fa 3e
       0.6408172 -0.022545924 0.6523746 0.48993197
0001b0 b5 fd b4 3e 4b d2 99 be c2 ac 15 3f 0e 1d 12 bd
       0.35349813 -0.30043253 0.5846673 -0.03567224
0001c0 99 44 20 3f 91 94 bc be 0b 8b 5d 3f 38 a1 67 be
       0.6260467 -0.36832097 0.8654029 -0.22620094
0001d0 83 26 22 3f 5b e5 5e be 43 fc 1b 3f 5e 5f 2e 3f
       0.63340014 -0.2176718 0.60931796 0.6811427
0001e0 bb 36 27 3f a9 69 84 be b6 9a 21 3f 13 62 6f be
       0.6531789 -0.25861862 0.63126695 -0.23377256
0001f0 89 44 98 be aa e0 9b be 4d 68 1b 3f cd a1 2e 3f
       -0.29739788 -0.30444843 0.60706025 0.6821564

convs.0.linear1.weight f4 [64, 64]
000000 c4 48 4d 3e e1 27 bb 3e ef 2c a5 3e 1d 5d 00 3f
       0.20047289 0.36553863 0.32260844 0.5014208
000010 f8 03 f1 3e fb 8e eb 3e b4 6a 03 3e 0b 22 fa 3e
       0.4707334 0.46007523 0.12833673 0.48854098
000020 ef ff e7 3e 7a 51 da 3e 8d e8 f6 3e 8c 84 73 3e
       0.4531245 0.42640287 0.48224297 0.23781031
000030 38 31 57 3e f6 8f 8b 3e 1e d8 67 3e c6 4b fd 3e
       0.21014869 0.2725827 0.22641036 0.49471873
000040 00 82 97 3e a6 e0 ee 3e 28 84 68 3e b4 6b 22 3e
       0.2959137 0.46655768 0.22706664 0.15861398
000050 4e 71 26 3e 45 0b a6 3e a5 2f ce 3e 5f 1c df 3e
       0.1625416 0.32430473 0.40270725 0.43576333
000060 46 32 fe 3e fb 0c ef 3e b3 8b 1f 3e 53 42 28 3e
       0.4964773 0.4668959 0.15580635 0.1643155
000070 47 5a d5 3e 8f 2b ab 3e 9f ef a1 3c 14 02 0e 3f
       0.4167044 0.3343167 0.01976758 0.5547192
000080 17 84 d1 3d 3d 1b ee 3e 11 79 07 3f 3a fe f4 3e
       0.10230272 0.46505156 0.5291911 0.4785021
000090 4e 9b 63 3e 61 95 e9 3e 9f ad 11 3e 71 82 e7 3e
       0.22227213 0.4562178 0.14226387 0.45216706
0000a0 46 0b e4 3e bd a9 0d 3e 49 3b e2 3e ce c1 72 3e
       0.4453985 0.13834281 0.44185856 0.23706743
0000b0 1b 7a ae 3e 60 b1 02 3e af e5 eb 3e 20 88 f5 3e
       0.34077534 0.12762976 0.46073672 0.47955418
0000c0 83 0f c3 3e 2a b1 38 3e f0 61 83 3e 62 34 ca 3e
       0.38097772 0.18036333 0.25660658 0.3949309
0000d0 21 11 b8 3e 2b 31 be 3e 82 b5 64 3e b8 8f bf 3e
       0.35950568 0.37146887 0.22334865 0.37414336
0000e0 8d ab a5 3e 83 11 77 3e b1 1c cf 3e 67 6d 91 3e
       0.32357445 0.24127774 0.40451577 0.2840378
0000f0 8a 06 03 3f 4c 10 d5 3e b8 f0 d3 3e ab 53 b4 3e
       0.5118185 0.41613996 0.4139459 0.35220084
000100 62 e4 ec 3c a0 ea ef bd 5d 21 00 bf d9 de 93 3d
       0.028917495 -0.11714673 -0.5005091 0.07220239
000110 94 28 8f be d4 4e ee bd f3 1d 08 3e 91 ee 53 be
       -0.27960646 -0.11636129 0.13292675 -0.20696475
000120 8b f8 85 3b 9a 1e c8 be 0c 78 09 bf 51 09 5d 3e
       0.0040884665 -0.39085847 -0.536988 0.21585585
000130 eb 3a 77 bc b2 a1 be be 38 6b 9c bd 23 57 15 bf
       -0.015089731 -0.3723274 -0.07637638 -0.58336085
000140 81 32 ea bc 11 87 ca bd 01 4a 88 3b 57 0c 12 bd
       -0.028588535 -0.09889043 0.0041592126 -0.0356563
000150 93 d2 54 bd 2b e8 eb 3d 12 d5 25 bf c0 8b d5 be
       -0.05195863 0.11518892 -0.64778244 -0.41708183
000160 52 74 0d 3d c8 da a6 3c c3 45 96 3d f0 d8 ce 3d
       0.03453476 0.020367995 0.07337525 0.10099971
000170 c3 d8 4a be 31 b9 11 bf 10 b1 c6 3d c0 e8 7f bd
       -0.1980925 -0.56923205 0.09701741 -0.062477827
000180 eb 00 5f bc ff 17 6a be 1a 3a e0 be ce 6c 00 bf
       -0.013611059 -0.22860716 -0.43794328 -0.5016602
000190 78 84 e1 3d cd 50 19 be 4d 41 bf bc 07 94 77 be
       0.110115945 -0.1497223 -0.023346568 -0.24177562
0001a0 d6 63 22 bf 33 14 a4 3a 1d ea 1d bf 68 28 ff be
       -0.6343359 0.0012518227 -0.61685354 -0.49835515
0001b0 2b 4f a4 3c 9c 5a 0f bd f8 42 fa be 8a 76 28 bd
       0.020057281 -0.03499852 -0.48879218 -0.041128673
0001c0 a2 1f 7a be f5 48 9c bd 5b df a8 3c 53 d8 4e be
       -0.2442613 -0.07631103 0.020614317 -0.20199709
0001d0 4c e3 08 bf 0a b0 68 be fa d4 07 bf 14 99 19 bf
       -0.5347183 -0.22723404 -0.5305935 -0.59999204
0001e0 92 a4 12 bf 67 58 a2 3c ad d9 29 3e 5d 46 8a 3d
       -0.57282364 0.019817544 0.16586943 0.06751702
0001f0 4d a7 3b be 7d a2 66 be 05 e5 90 bd 56 f0 e4 be
       -0.18325539 -0.22522922 -0.07074932 -0.44714612
000200 9d 6b 1d be e0 9e a1 bd 20 07 6b be 06 88 5f be
       -0.15373082 -0.07891631 -0.22951937 -0.21829233
000210 36 41 43 be 80 45 8a be 83 d6 0e be 8d 7d 06 be
       -0.19067845 -0.2700615 -0.13949017 -0.13133831
000220 44 73 4b be 93 be bb bd 21 2c 85 be bb 9b 4e be
       -0.19868189 -0.091672085 -0.2601023 -0.20176594
000230 7c f0 27 bd ae 74 7e be 2b bb e2 bc 8e fb 21 be
       -0.04100083 -0.24849197 -0.02767714 -0.15818617
000240 81 99 76 be 2d 1a 2d be a9 59 8d bd 66 b4 36 be
       -0.24081995 -0.16904517 -0.06901867 -0.17842254
000250 af 65 6f be 95 1e 89 be 35 ef ba bd bc bc a9 bd
       -0.23378633 -0.26781145 -0.09127656 -0.08287951
000260 6c b0 80 be 1f 9f 8a be 1b a9 d4 bd 06 51 5c bc
       -0.251346 -0.27074525 -0.10383817 -0.013447052
000270 91 f4 d1 bd 23 06 30 bd e5 67 50 be 46 13 74 be
       -0.102517255 -0.042974602 -0.20352133 -0.23835477
000280 ab 41 37 bd 93 44 8e be 7c 2d 5d be e0 8d 5e be
       -0.04474036 -0.27786693 -0.21599382 -0.21733809
000290 50 ab 6e bd 92 17 df bd 4a c3 0a 3d b1 04 31 be
       -0.058268845 -0.108931676 0.03387765 -0.17286946
0002a0 b9 7d d4 bc 34 c7 67 be 57 21 5d be a5 51 4d 3c
       -0.025938855 -0.22634584 -0.2159475 0.012531673
0002b0 50 f8 07 be 1f 7b e4 3c 7f d1 31 3d 6a 9b d5 3c
       -0.13278317 0.02789074 0.04341268 0.026075084
0002c0 8d c6 1b be aa b8 7c bd 22 5e 20 be c9 c5 60 3d
       -0.1521246 -0.061699547 -0.15660909 0.054876123
0002d0 c5 6f a5 bd 47 8c 8c bd 8f 70 62 3d 3e 89 cb 3c
       -0.08077959 -0.06862693 0.055283125 0.024845716
0002e0 bd 09 71 bd ad 09 3e be c6 9d 7f be 3e d4 ce bd
       -0.058847178 -0.18558379 -0.2496253 -0.10099076
0002f0 ea 9d 4b bd 47 3d 0f be a4 ca 61 be 89 07 e4 bd
       -0.049711145 -0.13988219 -0.22049958 -0.1113425
000300 e1 2b 8e 3e da 19 8b 3e 4b b1 84 3e 08 35 7e 3e
       0.27767852 0.2716816 0.25916514 0.24824917
000310 dc 16 b4 3e af 3e 8d 3e df d4 71 3e e7 d2 9f 3e
       0.3517369 0.27586886 0.2361636 0.31215593
000320 fe 97 f0 3e 70 57 63 3e 24 1d e2 3e 4a db 8a 3e
       0.4699096 0.22201324 0.44162858 0.2712043
000330 67 8a 19 3e 5c 5f 78 3e 1f ca 13 3e 56 02 b9 3e
       0.14994203 0.24255127 0.14432572 0.36134595
000340 2c 31 79 3e f3 9d d0 3e ee fb 9e 3e 14 62 9a 3e
       0.24335164 0.40745506 0.31051582 0.30152953
000350 e8 cb 28 3e d4 d1 eb 3e 0c 3b b3 3e c4 30 ec 3e
       0.16484034 0.46058524 0.35005987 0.46130955
000360 42 ed b1 3e 42 f3 1c 3f b0 b4 bc 3e 32 49 82 3e
       0.34751326 0.6130868 0.36856604 0.2544647
000370 2e 9a ab 3e 8a f9 4c 3e 74 f5 d0 3d ac 55 12 3f
       0.33516067 0.20017067 0.102030665 0.57161975
000380 00 96 53 3e 9a cd f3 3e 15 00 b0 3e 77 9e 96 3e
       0.20662689 0.476178 0.34375063 0.29417774
000390 7c ea 61 3e 5b 8f 6f 3e 7b 61 7f 3e 6c 9f 98 3e
       0.22062105 0.2339453 0.2493953 0.2980913
0003a0 84 dd be 3e 0f 64 ff 3d 9f ad c6 3e b7 b0 83 3e
       0.37278378 0.124702565 0.38804337 0.2572076
0003b0 83 aa a7 3e 99 bb 8f 3e a8 7f b5 3e ff f8 92 3e
       0.32747278 0.28072813 0.35448956 0.28705594
0003c0 45 0a b5 3e e3 e9 55 3e 1c a9 9e 3e bc c6 c5 3e
       0.35359398 0.20890002 0.30988395 0.38628185
0003d0 70 b4 ba 3e 99 93 97 3e f8 81 62 3e 4f c3 b8 3e
       0.36465788 0.29604796 0.22119892 0.3608651
0003e0 aa c6 68 3e ae 76 8a 3e c4 1e cf 3e b8 4a 84 3e
       0.22732034 0.2704367 0.4045316 0.25838256
0003f0 8c 7a 82 3e 87 0c 39 3e b0 98 d7 3e 02 e2 ea 3e
       0.2548412 0.18071185 0.4210868 0.45875555

convs.0.linear1.bias f4 [64]
000000 48 55 ce 3d 0f 03 a9 bb c8 03 77 3e 1b 12 34 bd
       0.1007486 -0.0051578353 0.24122536 -0.04396258
000010 08 73 2e 3e f5 5d 54 be 06 36 70 3d 2a 76 61 be
       0.17036068 -0.20738967 0.05864527 -0.22017732
000020 d5 26 13 3e f0 26 99 bd ea 6c 5b 3e 85 0c 03 be
       0.14370282 -0.0747813 0.21428266 -0.12797745
000030 9a c5 59 3e ef 1a 82 3e e3 76 c0 3d eb 63 ea bd
       0.21266785 0.25411174 0.09397676 -0.11444839
000040 4f 91 44 3e ad 86 0b be 66 cd 7b 3e 8a 5e 3d bd
       0.19196056 -0.13625593 0.24590072 -0.046232738
000050 51 0f 3c bc dd 68 88 bd 33 50 82 3d 01 9d 94 bd
       -0.011478261 -0.06660626 0.06362953 -0.072565086
000060 dc 09 1a 3e 65 8f b9 3d d7 e6 1a be bf fb 0f bd
       0.15042824 0.090605535 -0.15127121 -0.035152193
000070 0e d0 8d 3c 2c 33 7e 3d 84 ad 31 3e 0a 05 25 bd
       0.017311122 0.06206052 0.17351347 -0.04028801
000080 01 f0 54 bd cd 1a 56 3d 40 12 72 3e f8 1b 9f bd
       -0.051986698 0.052271653 0.23639774 -0.077690065
000090 2d a1 a0 bd 50 d9 d7 bd b6 64 ea 3d 7f d7 8d 3d
       -0.07843242 -0.10539496 0.1144499 0.06925868
0000a0 1c ea 89 3c 58 c6 77 bd 0e 53 b8 3d ec 98 1d bd
       0.016835265 -0.06049189 0.090002164 -0.038475916
0000b0 56 66 f3 3d 93 de 89 3c f5 a9 14 bd f2 67 bf bd
       0.118847534 0.016829764 -0.036294896 -0.09345998
0000c0 43 86 ae bd d2 f3 6d 3e b9 a4 6f bc cb 6d ef bd
       -0.08521702 0.23237541 -0.014626675 -0.11690863
0000d0 d5 56 d7 bd 40 75 5c 3e fd 45 3a be e4 45 8d 3e
       -0.10514609 0.21529102 -0.18190761 0.27592385
0000e0 8e 93 2f bd a7 7e 7a 3d 96 f4 b5 3d 41 09 4e 3e
       -0.04286533 0.06115594 0.08884542 0.20120718
0000f0 d1 72 35 3d d9 d5 09 3c 43 6a b7 3a cc d7 03 bd
       0.04429895 0.008412802 0.001399346 -0.03218822

convs.0.linear2.weight f4 [64, 64]
000000 46 ec 88 3d 6d b7 8e 3e 41 71 68 3d f6 a9 5c 3d
       0.066856906 0.27874318 0.056748632 0.053873025
000010 6d d0 35 bd 86 75 e6 3d 9d de ef 3d 16 1c 62 be
       -0.044388223 0.112528846 0.11712382 -0.22081026
000020 16 ca 34 bd 4c c8 98 bd b2 9c 50 be e4 98 b5 bb
       -0.044138037 -0.074600786 -0.20372275 -0.0055419076
000030 31 2a 39 bd 8c 10 8e 3d ac b0 c0 3c be 66 9e b9
       -0.045206252 0.0693675 0.023521744 -0.00030212657
000040 b2 bd 1b bb 0b 83 83 3d cb 0a 20 bd e3 19 79 3e
       -0.002376419 0.06421479 -0.039072793 0.24326281
000050 2f cb 81 3d aa 30 24 bf 5d ff 21 3f 96 e6 ae be
       0.06337582 -0.64136755 0.6328028 -0.34160298
000060 eb 26 5b be b7 13 7b 3e 5b 79 d8 bd c0 4f a2 bd
       -0.21401565 0.2451924 -0.10570022 -0.07925367
000070 50 05 db bd 3f f9 a5 bc d5 db ae bd f0 00 d4 3e
       -0.10694373 -0.020260451 -0.085380234 0.41406965
000080 df e6 95 bd 85 e6 92 3b 4e 7d c5 bd 37 75 c9 bc
       -0.07319426 0.0044830465 -0.096430406 -0.024592025
000090 57 41 c3 bc f6 06 16 bf 5a 0d ed 3d 40 d6 42 bd
       -0.023834867 -0.5860437 0.11574812 -0.047567606
0000a0 03 6d 1c be 97 66 a9 bd 15 ab 1c bf 93 a6 f5 3d
       -0.1527596 -0.082715206 -0.6119855 0.11994662
0000b0 57 79 f0 3d ec c6 16 be ec d0 5f 3e 3a 6f 1f be
       0.11741894 -0.1472432 0.21857041 -0.15569773
0000c0 5f 4e c7 be 5f 32 a3 bd e5 4e 13 be dd 42 68 3c
       -0.3892698 -0.07968592 -0.14385565 0.014176098
0000d0 78 ca 83 3d 15 6a 47 bc 42 74 49 3e a3 ac 82 3d
       0.06435102 -0.012171288 0.19673255 0.06380584
0000e0 3e b0 86 3e 0a bf f9 3b 10 f7 f1 3e e9 84 ef bd
       0.26306337 0.0076216506 0.47258806 -0.116952725
0000f0 c4 67 51 3d aa c4 3c be 09 48 91 bd c5 ea 48 3d
       0.05112435 -0.18434396 -0.07093818 0.04905202
000100 b2 38 11 bf 57 84 c8 3f a8 ec c2 3e 3e 2b a7 bf
       -0.56727135 1.5665387 0.3807118 -1.3060071
000110 a1 35 7f 3e 7e 94 9d be cc ba e0 be 5f 2e b4 be
       0.24922802 -0.30777353 -0.43892515 -0.35191628
000120 14 42 9c be 9e d0 d1 3e 78 f3 d4 3e 12 22 5b 3e
       -0.30519164 0.40979475 0.41592002 0.21399716
000130 73 c5 d2 3d 59 ec b3 3e 80 bc cb be 8e a9 bd 3e
       0.10291567 0.35141256 -0.39792252 0.37043422
000140 b8 54 66 3e 38 66 c0 3e 2c da 64 3e 64 4a a1 bf
       0.22493255 0.37577987 0.22348851 -1.2600827
000150 b7 c6 82 bf 60 eb 59 3e f3 bd c0 be a1 12 df 3e
       -1.0216893 0.21281195 -0.3764492 0.435689
000160 64 fc c3 3e 6f 78 70 3e 48 17 14 be f0 b2 28 3f
       0.38278496 0.23483442 -0.14462006 0.65898037
000170 36 25 35 bf 35 1c 0e bf b1 3d 51 be 9a ff 0f bf
       -0.70759904 -0.5551179 -0.2043369 -0.5624939
000180 ad 79 fa 3e 23 11 0c bf 6c 77 c1 3e 79 33 f0 3e
       0.48920956 -0.5471365 0.37786424 0.4691427
000190 8b 33 a7 3e 09 f3 1b 3e ef c5 e0 be f0 cc c3 be
       0.32656512 0.1522943 -0.4390101 -0.38242292
0001a0 13 59 8d 3f 38 09 18 3f 2f 6b 82 3e ba fa b6 bf
       1.1042808 0.59389067 0.254724 -1.4295266
0001b0 91 51 ea be 93 3b 82 3f d5 d1 99 bf 27 8c 03 3f
       -0.45765355 1.0174431 -1.2017161 0.5138573
0001c0 89 c7 4a bf 4d 77 7f 3e c8 58 0a 3f 7c 93 86 3e
       -0.79210716 0.24947853 0.5404172 0.26284397
0001d0 57 56 c9 3e f2 6c b7 3e 48 07 6a be ed 6a c8 3e
       0.39323685 0.35825306 -0.2285434 0.39144078
0001e0 87 78 b2 bf bc 70 e9 be a8 5c dc be af b6 91 3e
       -1.3943032 -0.45593822 -0.4303944 0.2845969
0001f0 ad e8 51 bf 2f dd e9 3e a6 80 2a bf 60 25 be bf
       -0.8199566 0.45676562 -0.6660255 -1.4855156
000200 16 95 1e bd a5 cb a9 bd 82 86 17 bf f6 dc 33 3e
       -0.0387164 -0.08290795 -0.5918962 0.17564759
000210 64 d0 1f bf da d2 36 3f aa bb b7 b8 32 27 a4 3d
       -0.62427354 0.71415484 -8.761075e-05 0.080152884
000220 b5 56 ed bd 57 18 95 bc b5 4b 83 bf 59 5e f8 bb
       -0.11588804 -0.018200083 -1.0257479 -0.0075796065
000230 1b f3 05 bf 29 b5 28 bf 78 dd e4 bd 80 28 2a 3d
       -0.52324075 -0.6590143 -0.11175054 0.04154253
000240 e8 f3 01 bf 28 d8 a8 3c 36 17 28 bf 13 2b 65 3e
       -0.50762796 0.020610884 -0.6566042 0.22379713
000250 df f5 95 3d 9d 78 40 be 30 13 62 3f 1c 2b 32 be
       0.07322287 -0.1879601 0.8831053 -0.17399257
000260 a3 6e 36 bf 90 d8 fd be 0c ce a3 3e 6c 3e e8 3d
       -0.7126257 -0.49579287 0.3199314 0.11340031
000270 3d 12 e1 3d 73 65 ee bd a5 a1 d0 bd 35 7e 04 3f
       0.10989807 -0.11640444 -0.10187081 0.51755077
000280 92 07 90 bd a2 9e 2c 3d 69 d7 55 bf 89 46 33 3c
       -0.07032694 0.04214347 -0.83531815 0.01094211
000290 e2 06 1c 3d 03 4e 57 be f3 e0 94 bd e9 df f4 bd
       0.0380925 -0.21025853 -0.07269468 -0.1195677
0002a0 5a 8f 30 be df 29 c4 3d ba 0d 00 bf 08 ac 18 3e
       -0.17242184 0.09578299 -0.50020945 0.14909375
0002b0 e2 0d 36 3d dc 74 5c 3a 7f f1 73 3e 72 3a 26 be
       0.044446833 0.00084097474 0.23822592 -0.16233233
0002c0 38 38 5d bd 53 b3 3b bf 5e 3d 4d be dc 6a bc bc
       -0.054008693 -0.733205 -0.20042941 -0.023000173
0002d0 d1 42 a3 3d 27 66 55 bf 0b a1 b1 3e 15 bd 37 bf
       0.079717286 -0.83359 0.3469318 -0.7177289
0002e0 29 32 0e 3e b8 da 9e bc e1 af 96 3e 84 a5 df be
       0.13886322 -0.019391403 0.2943106 -0.43680966
0002f0 ce 13 c1 bd a8 5f 2a bd 71 d3 9c 3d 7a 47 30 3e
       -0.094276056 -0.04159513 0.07657517 0.17214766
000300 cc 0d 92 3e 1e bc d6 be 28 b9 8f bd 8e ae d4 3e
       0.2852615 -0.41940397 -0.070177376 0.41539425
000310 d0 89 8e bd 81 55 e8 3d b7 4a 8c 3e 60 a4 a9 bc
       -0.069598794 0.113444336 0.27400753 -0.020708263
000320 63 b1 71 3e 73 f1 91 be a8 63 60 be 3a cb 21 be
       0.23602824 -0.28504524 -0.21913016 -0.15800181
000330 b4 bf 33 be ef c3 43 be ed 5e 91 3e c1 5e 42 be
       -0.17553598 -0.19117711 0.28392735 -0.18981458
000340 05 71 1d be 90 a4 8b bd f0 01 95 be 6f f3 05 3f
       -0.15375145 -0.06818497 -0.2910304 0.52324575
000350 dd dd af 3e bb e4 63 3f da 90 48 be c6 fc 57 be
       0.34348956 0.8902089 -0.19586506 -0.21092519
000360 c0 02 57 be 37 e1 e6 be f9 6b 9d 3e 27 ff c6 be
       -0.20997143 -0.450937 0.3074644 -0.3886654
000370 ac 31 b5 3e 99 e4 43 3e 64 53 dc 3d 7f f3 45 3e
       0.3538946 0.19130172 0.10758093 0.19331168
000380 0e b9 98 be 7b 9b b3 3e b7 d1 d6 bd f8 b0 04 be
       -0.29828686 0.3507956 -0.10489219 -0.12958133
000390 9a 87 9e be ca ee 38 3f 2d 62 8d 3e 76 00 81 3e
       -0.3096283 0.72239363 0.27613965 0.25195664
0003a0 ac dd 87 be 61 ac ac be 74 dd 10 3f 58 33 c6 3e
       -0.2653631 -0.33725265 0.5658791 0.38711047
0003b0 1d c7 89 3d 4e c5 bb be c6 f2 d1 3e 76 68 d9 bc
       0.06727431 -0.3667397 0.41005534 -0.026539069
0003c0 31 f7 5c 3f f0 4a 33 be bd a2 c4 be cf 5e 35 be
       0.86314684 -0.17509055 -0.3840541 -0.17711948
0003d0 25 c6 5f be 4e 17 90 bd c4 cf 43 be ee b6 86 be
       -0.2185293 -0.07035695 -0.19122225 -0.2631144
0003e0 3a 6d 02 3f c2 14 07 3e 56 0e 12 be a9 49 93 bd
       0.50947917 0.13191512 -0.14263281 -0.07191784
0003f0 bf 03 a8 3e 8a 19 23 be 44 8d 5c 3e cf 9c e2 3e
       0.32815358 -0.15927711 0.21538264 0.4426026

convs.0.linear2.bias f4 [64]
000000 b4 65 bd 3d 53 c1 75 bd c8 e2 c3 be dc b6 e8 bc
       0.09247914 -0.05999882 -0.38258958 -0.028407507
000010 0b 14 f8 bd 5c 70 62 3e fb 41 81 be b8 29 94 be
       -0.12113198 0.22113174 -0.25245652 -0.2893808
000020 2a c7 94 be 3c a6 34 be 9d 16 a4 bd cd 19 0c bb
       -0.290582 -0.17641538 -0.08012126 -0.0021377683
000030 aa f4 9f bb 9d 37 c6 be 18 87 29 be b7 db b6 be
       -0.004881461 -0.38714305 -0.1655544 -0.35714504
000040 b4 1e 30 bd 09 eb 92 be 5c 8e 57 be dd 5e 1a 3d
       -0.04299803 -0.28694943 -0.210504 0.037688125
000050 77 53 3f be b3 3e 01 3e 62 3f a5 3e 5d 06 3c be
       -0.18684183 0.12621574 0.3227492 -0.18361802
000060 80 d3 bb 3c fb 8c 4c 3e 5e 90 04 3e d2 50 06 be
       0.022928 0.19975655 0.12945697 -0.13116768
000070 6f 0e 65 3e e0 37 98 3e 73 4c 7a bc 55 62 93 be
       0.22368787 0.2973013 -0.015277016 -0.2878596
000080 b3 d0 fc bd ee cd 10 be 11 0b 78 be 67 0b 7d 3d
       -0.12344494 -0.14141056 -0.24222971 0.061778452
000090 3c 7d b7 3d 95 1b 8f bc 51 88 db 3d a7 7c db bb
       0.089594334 -0.017469207 0.1071936 -0.0066982093
0000a0 8c 51 12 3e 78 7d a4 3e a2 52 97 3e 60 53 17 be
       0.1428892 0.32126975 0.2955523 -0.14777899
0000b0 e6 bd a8 bd 86 cf a3 be 4c 2f 56 be 9d 27 0d 3c
       -0.08239345 -0.31994265 -0.2091648 0.008615402
0000c0 91 5f bf be 34 ff 78 3e b1 53 8e be 1b fe 45 3e
       -0.373776 0.24316102 -0.27798226 0.19335215
0000d0 0b b0 d8 be 3c 52 cb 3b f6 ca c5 bd 2b cd 7c 3d
       -0.4232181 0.0062048715 -0.09657852 0.0617191
0000e0 fe 35 2e be dc 1c 83 bd 4e 0b 35 be 9a 87 7d 3e
       -0.17012784 -0.06401989 -0.17680094 0.24758759
0000f0 70 5a 5d 3e 41 fb 02 bd 99 dd 55 bd 4d c9 85 be
       0.2161653 -0.031977896 -0.052213285 -0.26130143

convs.1.a f4 [128, 1]
000000 4b 80 86 3e cc f6 07 3e 57 4c 89 39 49 29 93 3e
       0.26269755 0.1327774 0.00026187554 0.28742436
000010 7d db e8 b8 c1 fd 72 3e be bd ba b6 17 88 97 b8
       -0.00011103505 0.23729612 -5.565321e-06 -7.22559e-05
000020 0c c4 8d b8 62 f8 12 b8 8a 19 da 3c 6a 13 89 3e
       -6.7599205e-05 -3.5040437e-05 0.026623506 0.26772624
000030 94 5e 41 3e 65 1f be b8 22 ed 70 3c 1b 22 93 b5
       0.18883735 -9.065754e-05 0.014704974 -1.096228e-06
000040 53 da f9 3d 0f fb ad 35 13 77 3f 38 f4 14 68 3e
       0.12199845 1.2962572e-06 4.5648845e-05 0.22664243
000050 83 79 3d bc a4 65 7c 3e 2b 64 41 3e c6 4c 57 b9
       -0.011564615 0.24648148 0.18885867 -0.00020532598
000060 99 b2 6f 3e 08 26 41 3e 35 03 43 3e 58 46 d5 36
       0.23407973 0.18862164 0.19044192 6.3560838e-06
000070 b2 21 5a 3e a1 3c 5b 3e e1 1f fa 3d 0e e0 80 b9
       0.21301916 0.21409847 0.12213112 -0.00024580996
000080 02 69 17 b8 f6 65 86 37 78 50 01 b6 a4 a3 85 3e
       -3.6099e-05 1.6021524e-05 -1.9269337e-06 0.2610141
000090 af c5 81 3e f1 06 8b 3e d4 4b 8a 3e b8 84 b9 3b
       0.25346133 0.27153733 0.27010977 0.0056615733
0000a0 ea 71 8e 3e 77 26 55 3e 05 91 60 3e bc 8e 5b 3d
       0.27821285 0.20815454 0.2193032 0.05360292
0000b0 76 74 97 b7 79 4f e0 b9 e8 39 06 b7 fc 94 90 3e
       -1.8054834e-05 -0.0004278382 -8.000505e-06 0.28238666
0000c0 a0 00 1c 36 d4 a9 4d 3e 8f 49 33 b6 df d1 48 3e
       2.3246175e-06 0.20084316 -2.6715895e-06 0.1961131
0000d0 35 59 b7 b5 9d 01 44 3e aa d3 24 3d dc e8 51 3e
       -1.3660525e-06 0.1914124 0.04024092 0.20498985
0000e0 91 b3 4a 37 31 8f c6 b8 e4 76 e1 b7 c9 07 59 3e
       1.2081947e-05 -9.468047e-05 -2.6877453e-05 0.21194376
0000f0 bd d6 66 3e 4b a6 c6 3d cf 6f 91 b6 81 7f d9 37
       0.22542854 0.096996866 -4.334353e-06 2.592779e-05
000100 90 34 a8 be 72 8c fe bf 2e 47 b9 bf 3f b7 15 3d
       -0.32852602 -1.988661 -1.4474847 0.03655171
000110 93 33 13 c0 6b 74 bc 3e 95 74 5d c0 84 13 79 c0
       -2.3000228 0.3680757 -3.4602406 -3.8918161
000120 dd 53 4c c0 1b 86 3f c0 64 ca 0f 3f eb e3 13 bd
       -3.1926186 -2.9925601 0.561682 -0.03610603
000130 c1 5d 8c bf cd 75 76 c0 5e 5c 40 c0 ea 73 79 c0
       -1.0966111 -3.85094 -3.0056376 -3.8976998
000140 01 f3 1c bf 5f 3a 71 c0 f1 49 59 c0 92 32 4d 3e
       -0.61308295 -3.7691877 -3.395138 0.20038822
000150 03 3c 11 c0 0b a1 da 3f 00 56 03 3f f6 34 8d bf
       -2.2692878 1.7080396 0.513031 -1.1031787
000160 54 1a 3f 3c ce c4 4e 3e 7d 87 25 3f 96 85 63 c0
       0.011663992 0.20192263 0.64659864 -3.5550284
000170 5e 16 bd 3e cc c5 b3 3e d8 7c 61 3f b2 57 5d c0
       0.36931127 0.35111845 0.8808112 -3.4584775
000180 b6 ff 2c c0 e6 8c 02 c0 a5 1a 5d c0 d8 ba 3f 3e
       -2.7031074 -2.0398498 -3.4547513 0.18723619
000190 06 e5 69 3e b8 4f b3 3e 1c ca 32 3e 0f c4 f1 3e
       0.22841272 0.35021758 0.17459911 0.47219893
0001a0 13 eb 25 3f 3b e0 c1 3e 8b 30 b5 3e 29 3b 38 3f
       0.6481182 0.37866387 0.35388598 0.7196527
0001b0 45 af 2c c0 76 9f 40 c0 0f 9a 69 c0 8c 33 a0 3e
       -2.6981976 -3.0097327 -3.650028 0.31289327
0001c0 3a ff 5c c0 6f 9d da 3e 38 db 6e c0 cb fe 27 be
       -3.4530778 0.42698237 -3.73213 -0.1640579
0001d0 9a 32 5a c0 8c e1 a8 3e c4 29 9c 3f 95 02 9b 3d
       -3.4093385 0.3298458 1.2200246 0.07568852
0001e0 2b b7 5a c0 16 57 0b c0 8a 30 73 c0 62 6a 00 3c
       -3.4174297 -2.1771903 -3.7998376 0.007837864
0001f0 e1 24 f7 3e 3a ea 22 3f 8a 40 46 c0 3a 82 46 c0
       0.48270324 0.6363865 -3.0976892 -3.1016984

convs.1.linear1.weight f4 [64, 64]
000000 61 51 1a 3e 5a 66 e2 bf 94 8f 07 c0 d5 a6 b4 3d
       0.15070106 -1.7687485 -2.1181383 0.08820883
000010 2f c5 b5 bf 23 cd e1 3e d0 b3 fd bf 07 51 f8 bf
       -1.4200801 0.4410182 -1.98205 -1.9399728
000020 99 95 09 c0 52 79 e6 bf 68 5a 8b 3c 45 5a 55 3d
       -2.1497557 -1.8005774 0.017010882 0.05208804
000030 03 b2 9b 3e 15 3a c3 bf 5c 79 f3 bf bc 95 0d c0
       0.3040925 -1.52521 -1.9021411 -2.212264
000040 33 0f 30 bd 86 85 16 c0 e2 44 fc bf 34 4d 46 3d
       -0.042983245 -2.3518996 -1.9708521 0.04841347
000050 db 79 e7 bf 10 60 cf be af 86 ca 3e b9 e2 c9 bf
       -1.8084062 -0.40502977 0.3955588 -1.5772315
000060 b9 16 d8 3d a6 12 03 3f 63 ad b7 3e b5 da 05 c0
       0.10551209 0.5120033 0.3587447 -2.0914738
000070 53 a1 f3 3e 8e c9 d3 3e 1e 95 de be e3 64 00 c0
       0.47584018 0.41364712 -0.43473142 -2.0061576
000080 5f 7c de bf 85 75 07 bf 88 30 fa bf 4d 1f 9c 3c
       -1.7381705 -0.52913696 -1.954606 0.019057894
000090 e2 a4 bb bd 0a 8b 0f 3d 6b 6a 25 3e b6 e0 a8 3e
       -0.09162308 0.035044707 0.16153876 0.3298394
0000a0 aa bd 12 3e 0c 50 d4 3e 25 26 db 3e d4 a6 ec bd
       0.14330164 0.4146732 0.4280254 -0.115552574
0000b0 c9 a3 94 bf 98 e4 fd bf 89 3b 0b c0 77 c4 1f 3d
       -1.1612483 -1.9835386 -2.1755087 0.039005723
0000c0 d4 f1 01 c0 ad 23 f1 3e 00 9c 0f c0 12 f9 15 3f
       -2.030385 0.4709753 -2.2438965 0.58583176
0000d0 40 1f 05 c0 ac 30 6b bd fb 57 c5 be 28 05 f6 3e
       -2.0800323 -0.057419464 -0.38543686 0.4805081
0000e0 f6 81 02 c0 d2 b2 2d bf 79 6c f5 bf 59 13 08 3f
       -2.0391822 -0.67850983 -1.9173728 0.5315452
0000f0 6c e8 70 3e eb dd 16 be de 7a f5 bf 0b 7f fa bf
       0.23526162 -0.14733092 -1.9178121 -1.957002
000100 ab 24 01 3f 0b c1 cd 3f 03 7b 9d 3f 53 92 91 be
       0.50446576 1.6074537 1.2303165 -0.2843195
000110 8a e4 14 3f 4e 72 e5 be a2 89 92 3f d5 c8 10 40
       0.5816122 -0.4481377 1.1448252 2.2622578
000120 27 59 01 40 30 68 31 3f be 99 eb 3d 2b 10 56 bd
       2.0210664 0.692996 0.11503933 -0.052261513
000130 22 2c 22 3f 46 3d 05 40 12 79 dd 3f a6 08 eb 3f
       0.6334859 2.0818648 1.7302573 1.8362014
000140 aa 0e 06 be 60 70 03 40 77 9c be 3f 1d 4a 98 3e
       -0.13091531 2.0537338 1.4891499 0.29744044
000150 97 d2 44 3f 64 c1 da 3e 23 56 d4 be 7a c6 65 3d
       0.76883835 0.4272567 -0.41471967 0.056097485
000160 a3 36 1d 3e b6 6f 8b be 3b ec 2e be 9b 77 e1 3f
       0.15352874 -0.27233666 -0.17082302 1.7614626
000170 0c 02 20 be b4 09 02 bf 38 c5 c6 bd a2 92 af 3f
       -0.15625781 -0.50796056 -0.09705585 1.3716624
000180 1d 14 6d 3f ad 28 9e 3e 93 83 a8 3f e8 3d 49 3e
       0.92608815 0.30890408 1.3165153 0.19652522
000190 b8 13 b6 3d 5e b4 50 bd f3 a7 c0 bc 56 45 1b be
       0.0889048 -0.05095326 -0.023517584 -0.15163168
0001a0 a6 ae 71 be 04 6d 89 be 1c ab d4 be fa eb 10 3d
       -0.2360178 -0.26840985 -0.41536796 0.035381295
0001b0 f1 e3 b0 3f 83 11 b0 3f 69 a4 c4 3f f5 ae 26 3e
       1.3819562 1.3755344 1.5362674 0.16277678
0001c0 77 ea 9b 3f 8d 42 a9 be 52 a2 d8 3f 8e dc 9d be
       1.2180928 -0.33058587 1.6924536 -0.30832332
0001d0 dd 97 a1 3f 37 71 27 be 27 59 d8 3e c5 3f 5d bd
       1.262447 -0.16351782 0.42255518 -0.054015893
0001e0 8f 05 d6 3f ae e0 2b 3f d3 88 28 40 7e 6b 7c bc
       1.6720446 0.6713971 2.633351 -0.0154064875
0001f0 a9 bd b9 be df b5 5c be 9d da be 3f 87 79 01 40
       -0.36277512 -0.21553753 1.4910465 2.0230424
000200 83 34 e0 be b9 8b 43 bf 4a 93 ab be eb 03 66 3d
       -0.43790063 -0.76385075 -0.3351081 0.05615608
000210 6b e4 99 be 47 31 4a 3e 21 f1 ce be f4 8b c7 be
       -0.30057082 0.1974536 -0.40418342 -0.38973963
000220 fc 3f 27 bf 62 08 ad be 2f ac 83 be e0 ea 0f be
       -0.6533201 -0.33795458 -0.25717303 -0.14054441
000230 32 be 19 be 12 7f b4 be ea 99 02 bf 80 41 1f bf
       -0.1501396 -0.35253197 -0.51016104 -0.6220932
000240 a0 e2 86 be f7 8f 0f bf ea c9 11 bf 89 61 c2 be
       -0.26344776 -0.5607905 -0.5694872 -0.37965038
000250 f4 ea 86 be a3 84 ee be 22 a7 2f 3e de 3b bc bb
       -0.2635113 -0.4658557 0.171536 -0.0057444414
000260 df 91 76 be 58 00 63 3d 1a 60 6a 3c 55 f6 08 bf
       -0.24079083 0.05542025 0.014305139 -0.5350087
000270 3b c1 ed 3d 0f 4a 20 3e 4a ee b4 be bf 7b 0d bf
       0.116091214 0.15653251 -0.3533805 -0.55266947
000280 92 5d fe be ce aa b6 be 91 5e f8 be bd 76 70 be
       -0.49680763 -0.3567719 -0.48509648 -0.23482795
000290 95 70 39 be 2d 23 9b be 48 ea 0e bd 6a 5d 97 bd
       -0.18109353 -0.30300274 -0.034891397 -0.07390864
0002a0 c3 e5 8a 3c 33 6b a3 3e 6f 21 2a 3e a5 d5 d3 be
       0.016955262 0.31917724 0.16614316 -0.41373935
0002b0 07 81 ce be 5b c5 e9 be 79 b2 1e bf fd 19 91 bd
       -0.40332815 -0.45658383 -0.6199108 -0.07085035
0002c0 f0 99 ea be 32 38 ef 3d 79 5f f6 be 41 db 8c 3e
       -0.4582057 0.1168064 -0.48119715 0.27511027
0002d0 3f b6 eb be d6 2c c2 bd 5d 3f 30 bf e9 9e ac bd
       -0.4603748 -0.09481208 -0.68846685 -0.08428747
0002e0 45 96 cd be 71 08 d1 be 93 be 1d bf 68 92 19 bc
       -0.4015371 -0.40826753 -0.6161892 -0.009373285
0002f0 fe dd 92 3e 10 76 2d be e2 f5 0c bf aa 2f d2 be
       0.28684992 -0.16939569 -0.5506269 -0.4105199
000300 63 0f e6 be 33 46 7c bf a4 c3 22 bf 21 a4 7b 3b
       -0.44933614 -0.98544616 -0.63579774 0.003839739
000310 4e b0 a3 be 81 93 29 3e 78 4b 19 bf 64 82 29 bf
       -0.31970447 0.16560175 -0.5988078 -0.66214585
000320 28 49 69 bf 66 8b 10 bf 4b 5a e4 be 24 6a 4c bd
       -0.9112725 -0.56462705 -0.44600138 -0.04990591
000330 42 c9 c4 be 4f 64 3d bf 1d c6 56 bf 84 3f 5b bf
       -0.38434798 -0.73981184 -0.83896047 -0.8564379
000340 e5 46 24 be 8e 5b 74 bf 81 3b 33 bf df a3 9a be
       -0.16042669 -0.954522 -0.7001267 -0.3020315
000350 4e ea 05 bf 63 ab c8 be 90 cd af 3e 40 92 1e bd
       -0.52310646 -0.39193258 0.3433652 -0.038713694
000360 37 70 35 be f3 04 8c 3d bb 58 97 3d e2 3f 10 bf
       -0.17718588 0.068368815 0.07389971 -0.5634748
000370 ef 86 25 3e e8 f1 89 3e f9 e0 74 be e0 26 3c bf
       0.16164754 0.26942372 -0.23913945 -0.7349682
000380 c8 84 20 bf e8 09 71 be 75 6a 1b bf a0 58 be be
       -0.6270261 -0.23538935 -0.60709316 -0.3717699
000390 5e 1c 81 be f5 9e 8a be ca 70 5d 3c e7 ba e2 bd
       -0.25216955 -0.270744 0.013515661 -0.11070805
0003a0 6f 82 c7 bd d8 9c ff 3d 95 da 76 3e e7 d5 f3 be
       -0.09741675 0.124810874 0.2410682 -0.47624132
0003b0 03 ae 0d bf 93 05 27 bf a0 22 36 bf 45 2e 4e bd
       -0.55343646 -0.6524288 -0.71146584 -0.050337095
0003c0 16 71 0a bf 6b 5d 9e 3e 7d e2 5b bf 57 54 90 3e
       -0.54078805 0.30930647 -0.8589247 0.28189346
0003d0 5e e3 23 bf 5f 0c 2b bd 29 76 fd be 6a de ac 3c
       -0.6401881 -0.041759845 -0.49504212 0.021102149
0003e0 a9 4d 29 bf 4a b3 b4 be 12 1d 58 bf 3e b6 c4 3d
       -0.66134125 -0.35293037 -0.8441936 0.096050724
0003f0 42 ff 97 3e 64 af 5b bd 58 36 25 bf 23 e2 60 bf
       0.29686934 -0.053634062 -0.64536047 -0.8784506

convs.1.linear1.bias f4 [64]
000000 a3 0f 3e be 8d 1d 28 3f aa 41 8a be 3a a2 a8 be
       -0.18560652 0.6567009 -0.27003223 -0.3293627
000010 78 33 43 3f fb ec 11 3f 16 a3 2a bb d0 df c1 3e
       0.7625041 0.5700223 -0.0026037148 0.37866068
000020 10 70 39 3f af 56 a2 bb ff de 00 3f 88 29 13 3e
       0.7243662 -0.004954181 0.50340265 0.14371312
000030 25 f0 07 3f 49 6b 94 3e 6e bd 00 3f c3 34 2d 3f
       0.53100806 0.28988102 0.50289047 0.67658633
000040 c4 91 40 be bf 4f 20 3f d0 f8 be be 0d c2 dd be
       -0.18805605 0.6262168 -0.37299204 -0.43312111
000050 0d f0 0a bf 82 03 51 3e 1b 91 00 bf 57 c1 bd 3d
       -0.5427254 0.20411494 -0.50221413 0.09265392
000060 88 b1 fd 3d 80 31 ef 3e f6 f1 1d 3e 44 d1 08 3f
       0.12387377 0.46717453 0.15424332 0.53444314
000070 97 e6 ba 3d 6b 83 95 3e 33 4e ce 3d 33 9b b4 be
       0.09126013 0.29201826 0.10073509 -0.35274658
000080 b3 a7 97 3e c8 81 bb 3d 90 84 d1 3e 90 c6 87 be
       0.29620132 0.09155613 0.4092145 -0.2651868
000090 51 2a 2d 3f b2 54 23 3f 1f a4 de 3d 47 15 3a bf
       0.67642695 0.6380111 0.10871147 -0.72688717
0000a0 10 aa c4 3a f7 83 e4 3e 41 af ee 3d fe 76 42 ba
       0.0015004296 0.4463193 0.11654521 -0.0007418244
0000b0 b8 cd 13 bf 9c f1 43 3f e3 c3 94 3d 49 96 b8 be
       -0.57735777 0.7654054 0.07263925 -0.36052158
0000c0 f7 5a 1e be 5d 1c d1 3e a1 fd b9 3e 17 b1 18 3f
       -0.15464388 0.40841952 0.36326316 0.5964522
0000d0 fa db 3e 3f e7 bc 89 3d 0c 21 37 bf d8 70 aa 3e
       0.7455441 0.067254834 -0.715348 0.33289218
0000e0 d1 bd f0 3e ba 4c 74 bb 38 a1 76 3d 3f 4a 19 3f
       0.47019818 -0.0037277178 0.060212344 0.59878916
0000f0 5d ae 0e bf 10 13 19 3f 5c ec fe bd 92 06 2e 3d
       -0.5573481 0.5979471 -0.12447426 0.042486735

convs.1.linear2.weight f4 [64, 64]
000000 f5 77 58 be d0 2f ee 3e f8 e2 1c bd 25 c2 c2 be
       -0.2113951 0.46520853 -0.03830239 -0.38038746
000010 53 c2 5c 3f 5a c8 66 3f 4d 1e af 3d ff d6 0c 3f
       0.86234015 0.9014946 0.08550701 0.5501556
000020 e5 cd 42 3f 92 12 1c 3e e4 e9 f3 3e 05 96 90 3e
       0.7609542 0.15241459 0.47639382 0.28239456
000030 a6 9c 0b 3f 16 21 10 3f 4b e7 6f 3f 62 16 0c 3f
       0.545359 0.56300485 0.937123 0.54721653
000040 1d 1f 87 be 9c af 37 3f 45 19 39 be 99 f7 1f bf
       -0.26390925 0.71752334 -0.18076046 -0.6248718
000050 b9 b4 01 bf 5b 89 c1 3c c2 b8 07 bf d9 52 48 3e
       -0.50666386 0.023625067 -0.53016293 0.19562854
000060 b8 6d 93 3d 3b 9e 40 3f f0 52 a0 3e d1 ef 60 3f
       0.071986616 0.7524144 0.31313276 0.8786593
000070 96 00 0e bd c9 2c a6 3e ce 6b 42 ba 4f 09 c0 be
       -0.034668528 0.32456043 -0.0007416577 -0.37507102
000080 8a 54 07 3f af 4e 08 3e da df 35 3f 51 ab 8c bd
       0.5286337 0.13311265 0.71044695 -0.068686135
000090 f0 22 2a 3f f6 ae 0e 3f aa c6 04 3e 9d fe 7a bf
       0.6645956 0.5573572 0.1296641 -0.9804476
0000a0 bf 8a de 3e bc b2 2a 3f 64 9b 8f 3e b9 e3 b6 3e
       0.4346523 0.66678977 0.2804824 0.35720614
0000b0 63 e8 48 bf 1b 9f 91 3f be 9c 7b 3e a0 6b c9 be
       -0.78479594 1.137668 0.24571511 -0.39339924
0000c0 43 80 b2 be db 09 55 3f 73 15 75 3f fc e3 45 3f
       -0.3486348 0.83218163 0.95735854 0.77301
0000d0 d3 82 54 3f a0 e6 d7 3d 21 e9 3f bf 6f de aa 3f
       0.8301212 0.10542035 -0.749651 1.3349131
0000e0 46 5c a8 3e ee 87 53 be cb 9e 5f be 98 40 48 3f
       0.328829 -0.20657322 -0.21837918 0.7822356
0000f0 ee bb 02 bf b4 86 17 3f 63 8e f4 3d 3a 38 86 3d
       -0.5106801 0.59189916 0.119412206 0.06553693
000100 5b 53 67 be 4e a0 e9 3e c7 04 b8 be b1 0a 03 bf
       -0.22590391 0.45630115 -0.35941145 -0.5118819
000110 82 f4 27 3f e1 31 6a 3f de 8e 5e bd 77 c8 1e 3f
       0.65607464 0.9148236 -0.054335468 0.62024635
000120 27 ec 1a 3f 90 49 03 be 9c f0 01 3f 34 28 c8 3e
       0.6051659 -0.1282103 0.50757766 0.39093173
000130 68 19 16 3f e5 53 07 3f c7 e1 46 3f af 18 13 3f
       0.58632517 0.5286239 0.7768826 0.5745954
000140 1b 64 9c be ea 05 4a 3f fb 5a fb be 8c c1 21 bf
       -0.30545124 0.78915274 -0.4909285 -0.63185954
000150 c4 56 e6 be c6 7f 25 3e ec 20 22 bf f5 58 53 3e
       -0.44988072 0.16162023 -0.63331485 0.20639403
000160 be 2f 30 3e f1 c2 0a 3f e2 67 85 3d 33 9e 63 3f
       0.17205712 0.54203707 0.06513955 0.8891327
000170 d5 31 96 bc 3d c0 c2 3e ff 0b 4d 3d e6 f8 b3 be
       -0.018334309 0.3803729 0.05006027 -0.35150832
000180 10 d8 13 3f ff d8 8c 3d 81 11 4c 3f 76 46 ee be
       0.5775156 0.06877326 0.7971421 -0.46538132
000190 ff 9c 21 3f e0 0e 02 3f fc bc 4e 3e 5e d2 89 bf
       0.6313018 0.5080395 0.2018928 -1.0767324
0001a0 26 3f 9d bd 29 e4 20 3f 17 4b e7 3d b8 59 09 3e
       -0.0767806 0.62848145 0.11293619 0.13413131
0001b0 76 b5 38 bf 71 7f 47 3f e8 26 8f 3e 24 9d 04 bf
       -0.7215189 0.77928835 0.2795937 -0.5180228
0001c0 ed e5 5e be 04 2d 4c 3f 40 5a 60 3f a1 9d 51 3f
       -0.21767397 0.7975619 0.8763771 0.8188115
0001d0 3f 1f 3d 3f e2 e0 67 bb 02 ee 4c bf 3e e5 60 3f
       0.738758 -0.0035381843 -0.8005067 0.87849796
0001e0 05 c8 88 3e cc c8 04 be 20 85 15 3e ed 39 2f 3f
       0.26715103 -0.12967223 0.14601564 0.6844776
0001f0 c1 79 fe be 3d 14 ec 3e 9f fd 00 be 57 73 2b 3c
       -0.49702266 0.4610919 -0.12596749 0.010464511
000200 4a c8 21 be b8 7b b8 3e 51 5f b1 bd 04 e7 a6 be
       -0.1579906 0.3603189 -0.08660758 -0.32598126
000210 5a 8e 60 3f d9 78 60 3f bd 35 db 3c 0b c1 fa 3e
       0.8771721 0.876844 0.026759023 0.48975405
000220 34 08 15 3f e8 c4 57 3d 19 9b 0b 3f 85 02 08 3e
       0.5821564 0.05267802 0.54533535 0.13282211
000230 b7 5f 23 3f 57 dd 05 3f e7 b0 63 3f f4 f2 18 3f
       0.63817924 0.5229086 0.88941807 0.5974572
000240 a7 25 86 be a3 24 53 3f 63 7a 88 be 03 60 00 bf
       -0.262006 0.8247778 -0.26655874 -0.501465
000250 a0 75 b8 be 15 3a 64 3d 70 26 01 bf ec ad 45 3e
       -0.3602724 0.055719454 -0.50449276 0.19304627
000260 69 8c 4c 3e 17 8e 15 3f 5d 05 a5 3e f4 80 42 3f
       0.19975437 0.58419937 0.32230654 0.75978017
000270 76 0e 4f 3e 6f 62 c3 3e 81 06 47 3d 7a 7c 53 be
       0.2022036 0.38161036 0.048590187 -0.20652953
000280 aa 29 eb 3e e2 80 8a 3e ff 9f 33 3f bb 46 fa bd
       0.45930225 0.27051455 0.7016601 -0.12220522
000290 c6 96 3d 3f 5d c4 ed 3e 1c c4 6b 3e 8c 3e 49 bf
       0.74058187 0.46438876 0.23024029 -0.78611064
0002a0 1b 83 8f 3e fa c9 34 3f 92 b9 71 3e e0 36 35 3e
       0.28029713 0.7062069 0.23605946 0.17696714
0002b0 a5 02 12 bf 60 cc 89 3f 4d 0c 43 3e 26 25 19 be
       -0.57035285 1.0765495 0.19047661 -0.14955577
0002c0 c4 88 80 be e1 08 53 3f 3e d2 85 3f 91 a4 3e 3f
       -0.25104344 0.82435423 1.0454786 0.7446986
0002d0 76 f5 19 3f a5 24 35 3e 24 c3 2b bf 8b 33 9d 3f
       0.6014017 0.1768976 -0.67094636 1.2281355
0002e0 59 4f b3 3e 15 34 7b be 55 19 ba bd 76 93 2f 3f
       0.35021475 -0.24531586 -0.09086863 0.6858438
0002f0 f8 77 e0 be 75 e5 26 3f 44 cb cb 3d 80 37 52 3d
       -0.4384153 0.65193874 0.09950879 0.05132246
000300 b5 24 a5 3e 75 c3 0b bf b2 8a 91 3e 33 a5 14 3e
       0.32254568 -0.5459512 0.2842613 0.14516144
000310 17 f8 4c bf 43 89 83 bf b9 4d 33 3e 7f b5 19 bf
       -0.80066055 -1.0276264 0.17510118 -0.60042566
000320 7b af 1d bf 33 4c e2 bd 77 df 1e bf 0f 89 91 be
       -0.61595887 -0.1104969 -0.6205973 -0.2842488
000330 06 1c 1d bf 46 f8 cb be 41 9b 39 bf 7b eb c8 be
       -0.61370885 -0.39837855 -0.72502524 -0.39242157
000340 4f 51 72 3e 13 fa 25 bf 85 76 b4 3e 3b c3 91 3e
       0.2366383 -0.6483471 0.35246673 0.28469262
000350 9c e3 d3 3e 11 f2 f2 3c 9c 5d fd 3e 23 7c f5 bd
       0.4138459 0.029656442 0.4948548 -0.11986568
000360 3c f3 29 be 83 c8 0b bf 9d c6 1d 3e 65 09 73 bf
       -0.16596693 -0.5460283 0.15407796 -0.9493621
000370 d9 b4 be bd bd 15 ba be 01 33 18 be 69 e5 90 3e
       -0.09311838 -0.3634471 -0.14863206 0.28300026
000380 00 76 a1 be 19 65 0c be 7d 63 22 bf 67 01 32 bd
       -0.3153534 -0.1371044 -0.6343306 -0.04345837
000390 42 24 f8 be 38 26 22 bf 01 cc 4f be 7d 53 e2 3e
       -0.48465163 -0.6333957 -0.20292665 0.44204322
0003a0 c9 5e 7c be a0 30 12 bf b7 e4 5f be bb 6b 00 bd
       -0.24645533 -0.57105446 -0.21864592 -0.03135274
0003b0 65 c4 11 3f 7e 7f 4d bf 5b c6 04 bd 67 9c 91 3e
       0.569403 -0.8027266 -0.03241573 0.28439638
0003c0 cc c4 48 3c 70 d0 4f bf 25 9c 43 bf ce 6c 44 bf
       0.012253951 -0.81177425 -0.7641013 -0.7672852
0003d0 7b d8 5f bf 69 b8 00 bd 97 bc 48 3f 39 7f 27 bf
       -0.874397 -0.031425867 0.78412765 -0.654285
0003e0 02 68 b9 be 2c ef ca bb a0 80 24 3e 6d d7 3c bf
       -0.36212164 -0.0061930623 0.16064692 -0.73766214
0003f0 26 7a d4 3e 9d 86 02 bf c9 2b c1 bc 98 6e 16 bc
       0.41499442 -0.50986654 -0.023580449 -0.009181641

convs.1.linear2.bias f4 [64]
000000 ae 51 a0 3e a5 86 99 3e c5 91 75 3e 8b 4a 72 be
       0.31312317 0.29985538 0.23981388 -0.23661248
000010 18 ef ce 3c 54 b8 80 3e b4 1e 14 be 85 bd 14 be
       0.025260493 0.2514063 -0.14464837 -0.14525421
000020 a9 ac 16 be e6 51 a7 3e d0 f3 f5 3d 04 81 8c 3d
       -0.14714302 0.3267967 0.12009394 0.06860545
000030 33 8c 2e bd 36 82 88 be f8 08 07 3e 45 a2 03 3d
       -0.042614173 -0.26661843 0.13187015 0.032137174
000040 3b bf 87 3d cd 5c 05 be 96 f9 56 3e 4a 11 bf 3e
       0.06628271 -0.13023682 0.20993647 0.37317878
000050 36 31 98 be b8 e8 59 3d 64 13 97 3e f6 d5 ca 3d
       -0.29725045 0.053200454 0.2950698 0.09904091
000060 85 2a 94 bd b9 08 39 be df 23 91 3e f3 8c f4 bd
       -0.072346725 -0.18069734 0.2834768 -0.119409464
000070 51 cd 10 be 89 5d 63 3e 98 b3 b9 3e 7c 70 33 be
       -0.14140822 0.2220365 0.36269832 -0.17523378
000080 4f 97 9b 3e 16 f1 00 be e4 31 43 bd 52 59 4c 3e
       0.30388877 -0.12591967 -0.047655 0.19955948
000090 03 98 38 be 4b 4b b2 bb 17 c8 c9 bd 05 b9 3d be
       -0.18026738 -0.0054411045 -0.09852617 -0.1852761
0000a0 15 8b a5 3e 7d a3 97 be 0d ac 90 3d 3a 9c 42 be
       0.32332674 -0.2961692 0.07064066 -0.19004908
0000b0 ae 8b 60 bd de 58 4b 3e d7 92 9a 3e 20 c5 81 3e
       -0.05482071 0.19858119 0.30190155 0.25345707
0000c0 7f d9 b7 3e 52 71 ff bd 53 33 97 3e b1 9e 98 3e
       0.35908124 -0.12472786 0.29531345 0.29808572
0000d0 c6 76 9b 3e 1c 04 8e 3e 0e e9 9f 3e 2d 7e 91 be
       0.30364054 0.2773751 0.31232494 -0.28416577
0000e0 41 b8 73 be 36 d8 d5 3e 89 99 67 be 23 68 1a 3e
       -0.23800756 0.41766518 -0.22617163 0.15078788
0000f0 1f 99 19 be 45 6a e1 bc 05 ad 28 be 8d da 44 3e
       -0.14999817 -0.027516494 -0.16472252 0.19223996
