Saved_Models/TSP_100/scatgnn_layer_2_hid_64_model_220_temp_3.500.pth (torch, 153863 bytes, 24 tensors)

bn0.weight f4 [2]
0	0x3f800000	1.0
1	0x3f800000	1.0

bn0.bias f4 [2]
0	0x00000000	0.0
1	0x00000000	0.0

bn0.running_mean f4 [2]
0	0x00000000	0.0
1	0x00000000	0.0

bn0.running_var f4 [2]
0	0x3f800000	1.0
1	0x3f800000	1.0

in_proj.weight f4 [64, 2]
0	0x3f539cce	0.8266114
1	0x3efbc976	0.4917714
2	0xbf6d79c9	-0.92763954
3	0x3e2d9a37	0.1695336
4	0x3f871aa3	1.0555004
5	0xbecff851	-0.40619138
6	0x3e9d16a7	0.30681345
7	0x3fbd0b65	1.4769102
8	0x3e83b260	0.25722027
9	0xbf343a0a	-0.7040106
10	0x3f05d29e	0.522745
11	0x3fabba7a	1.3416283
12	0x3f6d6c3f	0.92743295
13	0x3f3d73a3	0.7400457
14	0x3e5c5287	0.21515857
15	0xbfb5f8cc	-1.4216552
16	0x3f9a5d29	1.205968
17	0x3e3660a0	0.17810297
18	0xbf516eb9	-0.81809574
19	0x3f668d48	0.9005933
20	0x3f805ef7	1.0028981
21	0xbead11b2	-0.33802563
22	0x3f849e2e	1.0360773
23	0x3f103f01	0.56346136
24	0xbf96474f	-1.1740512
25	0xbfb4b9a0	-1.4119148
26	0xbf4ac909	-0.79213005
27	0x3e5e1ef1	0.2169149
28	0xbf338f92	-0.70140946
29	0xbfbb4340	-1.4629898
30	0x3f6a0c09	0.91424614
31	0xbf99e194	-1.2021966
32	0x3f470ea0	0.7775669
33	0x3c889a93	0.01667527
34	0x3dd55bd3	0.10417905
35	0x3f9f842a	1.2462208
36	0xbfa85ade	-1.315273
37	0x3ddc5d56	0.1075999
38	0xbea0996c	-0.31367052
39	0xbf8ce982	-1.1008761
40	0x3fb13594	1.3844476
41	0x3fa08f71	1.2543775
42	0x3f974516	1.1817958
43	0x3f576522	0.8413869
44	0xbf493c8a	-0.78608
45	0x3f20eb60	0.62859154
46	0xbf33f00f	-0.70288175
47	0x3f9abb0e	1.2088335
48	0xbe2c04b8	-0.16798675
49	0xbfa30948	-1.2737207
50	0x3f5c0679	0.85947376
51	0x3ef90d9b	0.48643193
52	0xbf5b3795	-0.85631686
53	0xbfaed831	-1.3659726
54	0xbe9e1556	-0.30875653
55	0xbf82f9ea	-1.0232518
56	0x3f728cc8	0.94746065
57	0xbe0f2e2d	-0.13982458
58	0xbf3034a1	-0.68830305
59	0x3f82d27d	1.0220486
60	0x3f4faaae	0.8111981
61	0x3f8cc30d	1.0997025
62	0x3f94ef86	1.1635597
63	0x3ea44535	0.3208405
64	0x3f2b40b9	0.66895634
65	0x3fae2fb1	1.3608304
66	0x3dbab7ae	0.09117065
67	0xbf84df12	-1.0380576
68	0xbebfb7c1	-0.3744488
69	0x3f7eb5ab	0.99495953
70	0x3f8002de	1.0000875
71	0xbeedce5b	-0.464465
72	0x3f43802c	0.7636745
73	0x3e8109ea	0.25202876
74	0x3d25d6e7	0.04048815
75	0xbf97545e	-1.1822622
76	0x3f778fa0	0.9670353
77	0x3e454f2c	0.19268483
78	0xbf9dee76	-1.2338398
79	0x3c927183	0.017876392
80	0x3f5b95d9	0.85775524
81	0xbf02ad38	-0.5104556
82	0xbf5a2898	-0.8521819
83	0xbf9950dd	-1.1977803
84	0x3eeb0716	0.45903844
85	0xbf766088	-0.96241045
86	0x3f96d927	1.178502
87	0xbf232950	-0.6373491
88	0xbf9bdda1	-1.2177011
89	0xbdbf0840	-0.093277454
90	0xbf85b2dc	-1.0445209
91	0xbe4fe895	-0.20303567
92	0xbf1d99a1	-0.61562544
93	0x3ee872a0	0.45399952
94	0xbeb6925d	-0.3565854
95	0x3fa2e222	1.272526
96	0x3e64c0f2	0.22339228
97	0xbf853e3d	-1.0409619
98	0x3f0ad8a2	0.54236805
99	0xbe818d88	-0.25303292
100	0xbf99aca7	-1.2005814
101	0xbf9e2cbe	-1.2357404
102	0xbf405ae0	-0.75138664
103	0x3f1c4380	0.61040497
104	0xbf7f4fe5	-0.99731284
105	0x3f91017f	1.1328582
106	0x3f3d57a5	0.7396186
107	0xbf3d2b79	-0.7389446
108	0x3f6c1066	0.9221252
109	0xbf58e67d	-0.847267
110	0xbf269ff0	-0.65087795
111	0x3f1978be	0.5994986
112	0x3f861c20	1.0477333
113	0xbf349dd3	-0.7055332
114	0xbf8b5209	-1.088441
115	0xbeca7d16	-0.39548558
116	0xbf8ce72c	-1.1008048
117	0xbef14298	-0.4712112
118	0xbf1509f4	-0.5821831
119	0xbf8c6364	-1.0967832
120	0x3eb98fb0	0.36242437
121	0xbf415782	-0.7552415
122	0x3e9bf417	0.30459663
123	0xbf8c4653	-1.0958961
124	0xbd0c83ae	-0.034305267
125	0xbf81bb1f	-1.013523
126	0x3f94e227	1.1631516
127	0xbe92c964	-0.28669274

in_proj.bias f4 [64]
0	0x3f0d1b3a	0.5511967
1	0xbe552918	-0.20816457
2	0x3c4db7cb	0.012556027
3	0x3babc1e0	0.0052416176
4	0xbefc98dd	-0.49335375
5	0xbe6e04b3	-0.2324398
6	0x3d2c1ae2	0.042017825
7	0xbe12bb29	-0.14329208
8	0x3d67e98f	0.056619223
9	0x3f1320ad	0.57471734
10	0xbf00d72d	-0.5032833
11	0x3eff58c3	0.49872407
12	0xbdd0b311	-0.10190404
13	0xbe268fb9	-0.16265763
14	0x3e466367	0.19373856
15	0xbd8e7ca1	-0.06957365
16	0xbef9065d	-0.48637667
17	0x3c571cc0	0.013129413
18	0x3d32ae8a	0.043623485
19	0x3f094f72	0.5363685
20	0x3bbdd144	0.0057927687
21	0xbeca1ea1	-0.39476493
22	0xbda2121d	-0.07913611
23	0xbdb3cc63	-0.08779218
24	0xbe16f6e9	-0.14742626
25	0xbeb47aef	-0.3525004
26	0xbec54e1c	-0.38536155
27	0x3f060ed1	0.5236636
28	0xbf1550dc	-0.58326507
29	0xbf0637d4	-0.52428937
30	0x3f227047	0.6345257
31	0xbc7892cb	-0.015171717
32	0x3f1faa95	0.6236966
33	0xbee060b0	-0.43823767
34	0xbf1cbe29	-0.6122766
35	0xbe4376c0	-0.19088268
36	0x3efe4ae9	0.49666527
37	0x3ccede03	0.025252348
38	0x3f2fdae2	0.68693364
39	0xbe857f5b	-0.26073727
40	0xbdfe5818	-0.12419146
41	0x3e79c3f8	0.24391162
42	0xbf041b61	-0.51604277
43	0x3ded1934	0.11577073
44	0x3df2fb36	0.11864321
45	0x3f15aac2	0.5846368
46	0x3c034c64	0.008013818
47	0x3e81cfb6	0.25353783
48	0xbdbc6e50	-0.09200728
49	0x3ed37a4d	0.41304246
50	0xbebb53cf	-0.36587378
51	0x3e91ddc4	0.28489506
52	0xbec97bc0	-0.39352226
53	0x3e97fa3f	0.2968311
54	0xbf126dcc	-0.57198787
55	0xbe860511	-0.2617574
56	0xbdb7de8e	-0.08977996
57	0x3f06744b	0.525212
58	0xbef3e1d0	-0.4763322
59	0x3f0229bc	0.5084493
60	0x3eaf1356	0.3419444
61	0x3f017b2c	0.5057857
62	0xbefdf3bb	-0.49600014
63	0xbf11c6dc	-0.5694406

convs.0.a f4 [128, 1]
0	0xbd205b39	-0.039149497
1	0x3cc24d80	0.023718596
2	0xbc9b262c	-0.0189391
3	0x3c2c4154	0.010513622
4	0xb8a38a22	-7.798175e-05
5	0xbc50ad06	-0.0127365645
6	0xbd32bf55	-0.0436395
7	0xbd208598	-0.039189905
8	0xbd267e2f	-0.04064768
9	0x3c9193fb	0.017770758
10	0xbbadf418	-0.0053086393
11	0xbd71fa4f	-0.059076604
12	0xbd2100bc	-0.03930734
13	0x3cd0b149	0.025475161
14	0xbd76aea2	-0.060225137
15	0xbcba77b6	-0.02276216
16	0x00000000	0.0
17	0x3c426611	0.011865155
18	0x3cc8a69e	0.024493512
19	0xbcf8558a	-0.030314226
20	0xbd154ef7	-0.03645226
21	0xbaa9ee97	-0.0012964782
22	0x3d3d9fc1	0.04629493
23	0x3d2ad540	0.041707277
24	0xbcf7306c	-0.030174457
25	0x3c2aaada	0.010416711
26	0xbd025cfd	-0.03182696
27	0xbd1ed049	-0.038772855
28	0xb722273b	-9.6650865e-06
29	0x3c3275b4	0.01089232
30	0xbcc8a5dc	-0.02449315
31	0xbcea28cb	-0.028583905
32	0xbcd1fce8	-0.02563329
33	0xbbcc9f5c	-0.006244583
34	0x378a2822	1.646957e-05
35	0xbc434c5a	-0.011920059
36	0xbd237e74	-0.039915517
37	0xbd1f0b8d	-0.038829375
38	0xbcdbda1a	-0.026837397
39	0x3cc6b578	0.024256453
40	0xbc36a6fb	-0.01114821
41	0xbd0d1436	-0.034443103
42	0xbbbc6990	-0.0057498887
43	0xbd1692ad	-0.036760975
44	0x3cb6feeb	0.022338351
45	0x3ba07ca3	0.0048976704
46	0x3d1cddd9	0.038297508
47	0x3cb9b1b9	0.022667753
48	0xbd02d3df	-0.031940337
49	0xbd849659	-0.06473989
50	0xbd001b0f	-0.031275805
51	0x3d19f5e8	0.03758803
52	0x3d059781	0.03261519
53	0xbd88e4d3	-0.0668427
54	0xbc1524a7	-0.009102977
55	0x3caff6fa	0.021480072
56	0xbc82c1cc	-0.01596155
57	0xbc7d1a92	-0.015448229
58	0x3ad8d5c8	0.0016543204
59	0xbd13cb4e	-0.03608256
60	0xbd4f2835	-0.050575454
61	0xbd693d96	-0.0569435
62	0xba1da68c	-0.0006013892
63	0xbba74df9	-0.0051057306
64	0xbe9eaf73	-0.30993232
65	0x3f1e4df8	0.6183772
66	0x3f1f5a02	0.62246716
67	0x3f1686ce	0.58799446
68	0x3f23e110	0.64015293
69	0x3f40f23e	0.7536963
70	0x3e73674f	0.23769878
71	0x3f1ffc67	0.6249451
72	0x3ee451cf	0.44593665
73	0xbe9cd7b0	-0.30633307
74	0x3f2d5994	0.6771481
75	0xbe847e45	-0.25877586
76	0x3f52168d	0.8206566
77	0x3f28faaf	0.6600751
78	0x3dae2a9e	0.08504222
79	0x3f202602	0.62557995
80	0x3f25537f	0.6458053
81	0x3ee46495	0.44607988
82	0x3f04b6ae	0.5184125
83	0xbe919aae	-0.28438324
84	0x3ed4aaf5	0.4153668
85	0x3f48a951	0.78383356
86	0x3f27dea9	0.6557413
87	0x3f275659	0.6536613
88	0x3f201bc4	0.62542367
89	0x3f30322e	0.6882657
90	0x3f420ff1	0.75805575
91	0xbe8a2de7	-0.26988146
92	0x3f246315	0.6421369
93	0x3f203d0e	0.6259316
94	0xbe853e22	-0.26023966
95	0x3f22cd1f	0.6359424
96	0xbe5c63dc	-0.21522468
97	0x3f1caeff	0.6120452
98	0x3f1c5c96	0.61078775
99	0x3f29732c	0.66191363
100	0xbea96e76	-0.33092088
101	0x3f1c483e	0.6104773
102	0xbeabbcf2	-0.3354259
103	0x3f225a02	0.6341859
104	0x3f23dbf5	0.640075
105	0xbca988e3	-0.020695155
106	0x3f26f1d1	0.6521273
107	0x3efac7e3	0.48980626
108	0x3eb5aa6f	0.35481593
109	0xbe993fc2	-0.29931456
110	0x3f15a91f	0.58461183
111	0xbd0d36d4	-0.034476116
112	0x3f2023a0	0.6255436
113	0xbebbf4d2	-0.3671022
114	0x3f5dd920	0.8665943
115	0xbe6633f3	-0.22480755
116	0x3f21da3d	0.6322363
117	0xbe5e5bd9	-0.21714725
118	0x3f1bbc07	0.6083378
119	0x3f2e684f	0.6812791
120	0x3f270318	0.65239096
121	0xbe834c33	-0.25644073
122	0x3f2191ac	0.631129
123	0xbe6e3d8f	-0.2326567
124	0xbe97011c	-0.29493034
125	0xbe9babe4	-0.3040458
126	0x3f1b572e	0.606799
127	0x3f2e7541	0.68147665

convs.0.linear1.weight f4 [64, 64]
0	0x3e4d0a85	0.20023544
1	0x3ebb5979	0.365917
2	0x3ea58546	0.32328242
3	0x3f00dc5e	0.50336254
4	0x3ef26947	0.47345945
5	0x3eec4bdc	0.46151626
6	0x3e045fcf	0.12927173
7	0x3efad93a	0.48993856
8	0x3ee82690	0.4534192
9	0x3edbeba8	0.4295323
10	0x3ef72759	0.48272207
11	0x3e73374b	0.23751561
12	0x3e5802e1	0.21094848
13	0x3e8bc440	0.27298164
14	0x3e6999d2	0.22812584
15	0x3efe4a24	0.4966594
16	0x3e980cc2	0.29697233
17	0x3eeff2bc	0.4686488
18	0x3e6962d4	0.22791606
19	0x3e244755	0.16042836
20	0x3e26f90b	0.1630594
21	0x3ea5d1d7	0.32386658
22	0x3ece9919	0.4035118
23	0x3edff187	0.43738958
24	0x3eff0a9e	0.49812788
25	0x3eeea211	0.46608022
26	0x3e200003	0.15625004
27	0x3e2a105f	0.16607808
28	0x3ed58145	0.41700187
29	0x3eabe0d7	0.33569977
30	0x3cb6c06a	0.022308547
31	0x3f0db309	0.5535131
32	0x3dd677ae	0.10472046
33	0x3eeed3d0	0.46645975
34	0x3f07f3e5	0.5310653
35	0x3ef5a066	0.47973937
36	0x3e638367	0.22218095
37	0x3eea79f2	0.45796162
38	0x3e127e43	0.14305978
39	0x3ee782ff	0.4521713
40	0x3ee47812	0.44622856
41	0x3e100c17	0.14067112
42	0x3ee3337f	0.44375226
43	0x3e73f479	0.23823728
44	0x3eaef216	0.34169072
45	0x3e02be38	0.12767875
46	0x3eec835c	0.4619397
47	0x3ef725e7	0.48271105
48	0x3ec41d17	0.38303444
49	0x3e3acc12	0.18241909
50	0x3e83b5d3	0.25724658
51	0x3ecb12f8	0.3966291
52	0x3eb86170	0.3601184
53	0x3ebf0a9f	0.3731279
54	0x3e653d39	0.22386636
55	0x3ec05809	0.37567165
56	0x3ea61008	0.32434106
57	0x3e775abb	0.24155705
58	0x3ece36c9	0.40276173
59	0x3e9230e6	0.28552932
60	0x3f04291c	0.5162523
61	0x3ed68e85	0.4190561
62	0x3ed493bd	0.41518965
63	0x3eb48094	0.35254347
64	0x3cf698f8	0.030102238
65	0xbdf0e78f	-0.11762916
66	0xbf00575b	-0.50133294
67	0x3d900e51	0.07033981
68	0xbe90b3f9	-0.28262308
69	0xbdf08276	-0.117436334
70	0x3e084096	0.13305888
71	0xbe568732	-0.2095001
72	0x3b893ca3	0.0041881367
73	0xbec90d35	-0.3926789
74	0xbf09b3d8	-0.53790045
75	0x3e5e2b6a	0.21696249
76	0xbc75681e	-0.014978437
77	0xbebef372	-0.3729511
78	0xbd9e8af2	-0.077413455
79	0xbf15dc87	-0.58539623
80	0xbcefaea3	-0.029258078
81	0xbdcf591f	-0.101244204
82	0x3b6b6318	0.0035917219
83	0xbd1779c2	-0.03698135
84	0xbd5412a6	-0.051775597
85	0x3dee25bb	0.1162829
86	0xbf2607fa	-0.6485592
87	0xbed6b040	-0.41931343
88	0x3d0563cf	0.032565888
89	0x3cb13d1d	0.021635586
90	0x3d96a262	0.07355191
91	0x3dcc49f3	0.09975042
92	0xbe4b96b5	-0.19881709
93	0xbf123c46	-0.5712322
94	0x3dc52981	0.09627057
95	0xbd7bcb96	-0.06147345
96	0xbc747a2c	-0.014921706
97	0xbe6c85dc	-0.23097938
98	0xbee1a24b	-0.44069132
99	0xbf00b280	-0.5027237
100	0x3de2de02	0.11077501
101	0xbe1bd9ae	-0.15219757
102	0xbcbe1930	-0.02320537
103	0xbe778b89	-0.24174322
104	0xbf22a16f	-0.6352758
105	0x39d4e6d7	0.0004060778
106	0xbf1e8c27	-0.61932606
107	0xbeffa0bd	-0.4992732
108	0x3ca206c1	0.019778611
109	0xbd0eac30	-0.03483218
110	0xbefab72c	-0.48967874
111	0xbd35558a	-0.04427103
112	0xbe7d11ee	-0.24713871
113	0xbd9dafb8	-0.07699531
114	0x3caa5813	0.02079395
115	0xbe4fc161	-0.20288612
116	0xbf0935ed	-0.5359791
117	0xbe6a016c	-0.22852105
118	0xbf081041	-0.531498
119	0xbf19e952	-0.60121644
120	0xbf12dc7e	-0.57367694
121	0x3ca4101e	0.020027217
122	0x3e2bb1b6	0.1676701
123	0x3d88e356	0.06683986
124	0xbe3ec7d1	-0.18630911
125	0xbe698cee	-0.22807667
126	0xbd953a12	-0.07286467
127	0xbee55cab	-0.44797263
128	0xbe1f5189	-0.15558447
129	0xbda3f9bf	-0.0800662
130	0xbe6bf540	-0.23042774
131	0xbe5f6ee4	-0.21819645
132	0xbe43338f	-0.19062637
133	0xbe8a8d23	-0.27060804
134	0xbe11fcbd	-0.14256568
135	0xbe0565f3	-0.13027172
136	0xbe4d1d52	-0.20030716
137	0xbdbe624e	-0.09296094
138	0xbe856fce	-0.26061863
139	0xbe508b55	-0.20365651
140	0xbd2d7d8d	-0.042356063
141	0xbe7f727e	-0.24946019
142	0xbcec75e3	-0.028864807
143	0xbe2282c6	-0.15870199
144	0xbe77f264	-0.24213558
145	0xbe2ce1bf	-0.1688299
146	0xbd90439f	-0.07044148
147	0xbe364557	-0.17799889
148	0xbe71bda0	-0.23607492
149	0xbe8a1ff6	-0.2697751
150	0xbdbcef90	-0.092253804
151	0xbda94d91	-0.08266748
152	0xbe807d4a	-0.25095588
153	0xbe8b52c0	-0.2721157
154	0xbdd678a8	-0.10472232
155	0xbc55ebb9	-0.013056689
156	0xbdd2e275	-0.102970995
157	0xbd2f814a	-0.04284791
158	0xbe5293e6	-0.20564231
159	0xbe7517ac	-0.23934811
160	0xbd3e5180	-0.046464443
161	0xbe8deef6	-0.27721375
162	0xbe5bfc69	-0.21483006
163	0xbe5fad66	-0.2184349
164	0xbd75d11b	-0.06001387
165	0xbdddaec8	-0.108243525
166	0x3d033f24	0.032042637
167	0xbe3233c4	-0.1740256
168	0xbcdb4e4b	-0.026770731
169	0xbe699360	-0.22810125
170	0xbe5cec52	-0.21574524
171	0x3c3a0e6a	0.011355976
172	0xbe09b2ca	-0.13447109
173	0x3cde6dde	0.027151998
174	0x3d2c115e	0.04200875
175	0x3cd7bd1e	0.026335295
176	0xbe1afac7	-0.15134726
177	0xbd817f44	-0.06323102
178	0xbe228b4f	-0.15873455
179	0x3d5b77d7	0.053581085
180	0xbda56736	-0.080763265
181	0xbd8e2eee	-0.06942545
182	0x3d615db6	0.05502101
183	0x3cc1654d	0.023607874
184	0xbd74c71b	-0.059760194
185	0xbe3fb463	-0.18721156
186	0xbe80722c	-0.25087106
187	0xbdd016bf	-0.101605885
188	0xbd4dd6df	-0.050253745
189	0xbe0e8371	-0.13917328
190	0xbe614f9f	-0.2200303
191	0xbde500c4	-0.11181787
192	0x3e8ebf61	0.27880386
193	0x3e8bc092	0.27295357
194	0x3e854cc9	0.26035145
195	0x3e7f5ca9	0.24937691
196	0x3eb5217e	0.35377115
197	0x3e8dbbeb	0.27682433
198	0x3e7416a0	0.23836756
199	0x3e9fef96	0.31237477
200	0x3ef15cd0	0.47141123
201	0x3e6682d7	0.22510849
202	0x3ee29e83	0.4426156
203	0x3e8b672f	0.2722716
204	0x3e1a7d5f	0.15086888
205	0x3e797c76	0.24363884
206	0x3e156ecb	0.14593045
207	0x3eb9b5cc	0.36271513
208	0x3e7b3301	0.24531175
209	0x3ed13df8	0.4086759
210	0x3e9ffa67	0.3124573
211	0x3e9ac824	0.3023082
212	0x3e2a3d14	0.16624862
213	0x3eebfd7a	0.46091825
214	0x3eb3aab7	0.35091183
215	0x3eec8713	0.46196803
216	0x3eb254d3	0.3483034
217	0x3f1ce6b4	0.61289525
218	0x3ebce632	0.36894375
219	0x3e82abe0	0.25521755
220	0x3eac1660	0.3361082
221	0x3e4d5e6b	0.20055549
222	0x3dd7dac7	0.10539775
223	0x3f12464c	0.57138515
224	0x3e56b8c8	0.20968926
225	0x3ef4186b	0.4767488
226	0x3eb025b7	0.34403774
227	0x3e9777da	0.29583627
228	0x3e639b7c	0.22227281
229	0x3e70377c	0.23458666
230	0x3e810e27	0.2520611
231	0x3e991da3	0.29905424
232	0x3ebf60a1	0.3737841
233	0x3e0222ba	0.1270856
234	0x3ec7409a	0.38916475
235	0x3e847865	0.25873104
236	0x3ea8c4f8	0.32962775
237	0x3e9043cf	0.28176734
238	0x3eb63c19	0.35592726
239	0x3e9418b0	0.28925085
240	0x3eb58341	0.354517
241	0x3e58ca49	0.21170916
242	0x3e9f642e	0.3113112
243	0x3ec6c590	0.38822603
244	0x3ebabbfb	0.36471543
245	0x3e984e98	0.29747462
246	0x3e62ded0	0.22155309
247	0x3eb9819e	0.36231703
248	0x3e69b525	0.22823007
249	0x3e8b503c	0.2720965
250	0x3ecec91c	0.4038781
251	0x3e84d378	0.25942588
252	0x3e84363a	0.25822622
253	0x3e3a9ad9	0.18223132
254	0x3ed7e177	0.42164204
255	0x3eeb5ced	0.45969334

convs.0.linear1.bias f4 [64]
0	0x3dceba86	0.1009417
1	0xbbaf145a	-0.0053430023
2	0x3e77bb7c	0.24192613
3	0xbd357d70	-0.04430908
4	0x3e2f4876	0.17117485
5	0xbe55470f	-0.20827888
6	0x3d707682	0.058706768
7	0xbe630143	-0.2216845
8	0x3e1349f0	0.14383674
9	0xbd99a41d	-0.07502005
10	0x3e5bcf78	0.21465862
11	0xbe0330a2	-0.1281152
12	0x3e5a54d3	0.2132142
13	0x3e827c1c	0.25485313
14	0x3dc134e4	0.09433916
15	0xbdeae779	-0.11469931
16	0x3e451a40	0.19248295
17	0xbe0c020b	-0.13672654
18	0x3e7c65bc	0.24648184
19	0xbd3e5c97	-0.04647502
20	0xbc4c5545	-0.012471502
21	0xbd88ff4e	-0.066893205
22	0x3d830b5f	0.06398653
23	0xbd94774b	-0.07249316
24	0x3e1a96c0	0.15096569
25	0x3dbaac8f	0.09114944
26	0xbe1b5c8f	-0.15172027
27	0xbd0ee11d	-0.034882654
28	0x3c89734f	0.016778616
29	0x3d7e11c0	0.062028646
30	0x3e323815	0.17404206
31	0xbd2b0caa	-0.041760124
32	0xbd54a0ba	-0.051911093
33	0x3d5568d9	0.052101944
34	0x3e72bbfa	0.2370452
35	0xbd9f44e3	-0.07776811
36	0xbda0e637	-0.0785641
37	0xbdda5c5a	-0.10662146
38	0x3dea87c5	0.11451677
39	0x3d8e1005	0.06936649
40	0x3c94707e	0.018120047
41	0xbd76d00d	-0.060257006
42	0x3dbac47f	0.0911951
43	0xbd1ef889	-0.03881124
44	0x3df45bff	0.11931609
45	0x3c7c175a	0.015386427
46	0xbd152b7d	-0.036418427
47	0xbdbfe2c1	-0.09369422
48	0xbdb00f3e	-0.08596657
49	0x3e6ec5e0	0.23317671
50	0xbc6bc036	-0.014389088
51	0xbdefa114	-0.11700645
52	0xbdd76a2c	-0.105182976
53	0x3e5d768e	0.21627256
54	0xbe3b41ff	-0.18286894
55	0x3e8dbb07	0.27681753
56	0xbd2e3b43	-0.042536985
57	0x3d7b4b87	0.061351325
58	0x3db78077	0.089600496
59	0x3e4e87bf	0.2016897
60	0x3d33906f	0.043838914
61	0x3c12781c	0.008939769
62	0x3a162526	0.00057275814
63	0xbd031157	-0.03199896

convs.0.linear2.weight f4 [64, 64]
0	0x3d88f886	0.06688027
1	0x3e8f64f4	0.2800671
2	0x3d6d94f5	0.058003385
3	0x3d5b1059	0.053482387
4	0xbd309fc9	-0.043121133
5	0x3de44ff8	0.11148065
6	0x3df02dcc	0.11727485
7	0xbe5a1dd3	-0.2130044
8	0xbd338f44	-0.0438378
9	0xbd991be2	-0.07476021
10	0xbe4c2557	-0.19936119
11	0xbbbf0845	-0.005829843
12	0xbd348814	-0.044075087
13	0x3d909c95	0.07061116
14	0x3cc182ef	0.023622004
15	0xba2a3e1d	-0.0006494241
16	0xba976c06	-0.0011552579
17	0x3d82bbe6	0.06383495
18	0xbd1af42a	-0.03783051
19	0x3e78ce42	0.24297431
20	0x3d810ff6	0.063018724
21	0xbf253d7c	-0.6454694
22	0x3f2276c3	0.63462466
23	0xbeaf45f7	-0.34233066
24	0xbe557cb6	-0.20848355
25	0x3e801808	0.25018334
26	0xbddb8a36	-0.10719721
27	0xbda23bc1	-0.079215534
28	0xbddb9ed5	-0.10723654
29	0xbca64f70	-0.02030155
30	0xbdae7482	-0.08518316
31	0x3ed44942	0.4146214
32	0xbd95f13b	-0.07321402
33	0x3b921dad	0.004459104
34	0xbdc2eeb6	-0.09518187
35	0xbccdfd67	-0.025145246
36	0xbcc5bf32	-0.02413902
37	0xbf180062	-0.59375584
38	0x3ded6a94	0.11592594
39	0xbd418f44	-0.04725577
40	0xbe1c17f8	-0.15243518
41	0xbda95aef	-0.08269297
42	0xbf1d1410	-0.6135874
43	0x3df4ace6	0.1194704
44	0x3df0d841	0.11759997
45	0xbe164649	-0.14675249
46	0x3e5f7b5a	0.21824399
47	0xbe1fbdeb	-0.15599792
48	0xbec87525	-0.39151874
49	0xbda0d44f	-0.07852995
50	0xbe134d67	-0.14384995
51	0x3c65bbb0	0.014021799
52	0x3d839c17	0.06426256
53	0xbc2fe5d2	-0.010735946
54	0x3e498a7e	0.19681737
55	0x3d857b4f	0.0651766
56	0x3e86769b	0.26262364
57	0x3bfe5311	0.007761367
58	0x3ef31acc	0.47481382
59	0xbdecba0d	-0.11558924
60	0x3d51c1a3	0.051210057
61	0xbe3d2f41	-0.18475057
62	0xbd91af5d	-0.07113526
63	0x3d469237	0.048479285
64	0xbf11cb9e	-0.5695132
65	0x3fc94dda	1.5726883
66	0x3ec23f69	0.37939003
67	0xbfa82ef2	-1.3139327
68	0x3e7dd9d1	0.24790122
69	0xbe9ce010	-0.30639696
70	0xbee248b2	-0.44196087
71	0xbeb3e6e8	-0.35137105
72	0xbe9d5087	-0.307255
73	0x3ed326c1	0.41240504
74	0x3ed43ca4	0.41452515
75	0x3e5d779a	0.21627656
76	0x3dd0227c	0.101628274
77	0x3eb339e4	0.35005105
78	0xbecd0d11	-0.4004903
79	0x3ebec774	0.37261546
80	0x3e650724	0.22366005
81	0x3ec17608	0.37785363
82	0x3e6385d3	0.22219019
83	0xbfa21ff7	-1.2666005
84	0xbf837f91	-1.0273305
85	0x3e524b31	0.20536496
86	0xbec19e81	-0.3781624
87	0x3ee0320e	0.4378819
88	0x3ec34d88	0.3814509
89	0x3e6f6b6d	0.23380823
90	0xbe12db93	-0.14341573
91	0x3f298ea1	0.6623326
92	0xbf35f603	-0.7107851
93	0xbf0ece9c	-0.5578401
94	0xbe535a79	-0.20639981
95	0xbf0f5421	-0.55987746
96	0x3efba868	0.4915192
97	0xbf0cb191	-0.54958445
98	0x3ec0c84e	0.3765282
99	0x3ef17332	0.471582
100	0x3ea86dcb	0.32896265
101	0x3e16bded	0.14720888
102	0xbee1ee93	-0.4412733
103	0xbec4f5fe	-0.38468927
104	0x3f8e7e63	1.113232
105	0x3f18b5d3	0.5965244
106	0x3e813024	0.2523204
107	0xbfb801d6	-1.437556
108	0xbeeb5f6b	-0.45971236
109	0x3f8369af	1.0266627
110	0xbf9aa887	-1.208268
111	0x3f041d3e	0.5160712
112	0xbf4ca321	-0.79936415
113	0x3e7e15d8	0.2481302
114	0x3f0b30ae	0.54371154
115	0x3e87becb	0.2651275
116	0x3eca957c	0.39567173
117	0x3eb6b3f5	0.3568417
118	0xbe68547c	-0.22688478
119	0x3ec7bc07	0.3901064
120	0xbfb376e2	-1.4020655
121	0xbeeab63a	-0.45842153
122	0xbedd21dd	-0.43189898
123	0x3e90ffe3	0.28320226
124	0xbf52a6d5	-0.82285815
125	0x3ef0dd8f	0.47044036
126	0xbf2baf65	-0.67064506
127	0xbfbee63b	-1.4914011
128	0xbd2b9eab	-0.041899364
129	0xbdb2f827	-0.087387376
130	0xbf19b218	-0.60037374
131	0x3e316ba4	0.17326218
132	0xbf21bed5	-0.6318181
133	0x3f37c669	0.71787125
134	0xbb469b5d	-0.0030305006
135	0x3da31af0	0.07964122
136	0xbdf5199b	-0.119677745
137	0xbc793ca5	-0.015212213
138	0xbf8374cb	-1.0270017
139	0xbb7b07b0	-0.0038304143
140	0xbf08ab4f	-0.53386396
141	0xbf2b769d	-0.66977865
142	0xbde95ef4	-0.11395064
143	0x3d39c923	0.045357835
144	0xbf04be01	-0.5185242
145	0x3cc93dcb	0.024565598
146	0xbf2abe52	-0.66696656
147	0x3e622ff8	0.22088611
148	0x3d912975	0.070879854
149	0xbe36d230	-0.17853618
150	0x3f6002ea	0.87504447
151	0xbe2c849f	-0.16847466
152	0xbf360387	-0.7109913
153	0xbf004750	-0.50108814
154	0x3ea969ef	0.33088633
155	0x3decefe6	0.115691945
156	0x3ddce4de	0.107858405
157	0xbdf31bc8	-0.11870533
158	0xbdd6c1a7	-0.10486155
159	0x3f02f1a8	0.5114999
160	0xbd891c9a	-0.066949084
161	0x3d208217	0.039186563
162	0xbf585556	-0.8450521
163	0x3c823fb8	0.015899524
164	0x3d29734e	0.04136973
165	0xbe50cea5	-0.20391329
166	0xbd9c4243	-0.07629826
167	0xbdfc62a8	-0.12323505
168	0xbe2dfce6	-0.16991004
169	0x3dc9c562	0.09852101
170	0xbefad2ba	-0.48988897
171	0x3e167591	0.14693286
172	0x3d25eba9	0.040507946
173	0x3b480e83	0.0030526228
174	0x3e717904	0.2358132
175	0xbe2222de	-0.15833613
176	0xbd56cab5	-0.05243941
177	0xbf3e65d7	-0.74374145
178	0xbe49e5f9	-0.19716634
179	0xbca20876	-0.019779425
180	0x3da9808b	0.08276471
181	0xbf581c52	-0.84418213
182	0x3eaee764	0.34160912
183	0xbf3a8b31	-0.7286864
184	0x3e0ba73c	0.13638014
185	0xbcb58f89	-0.02216317
186	0x3e9217d7	0.28533813
187	0xbee52412	-0.44754082
188	0xbdc72afe	-0.09724997
189	0xbd17c675	-0.037054498
190	0x3d97e3cb	0.07416495
191	0x3e2e4883	0.17019849
192	0x3e92bffe	0.28662103
193	0xbed746bf	-0.42046162
194	0xbd926bcc	-0.07149467
195	0x3ed5b7d5	0.41741815
196	0xbd912517	-0.070871525
197	0x3deb0fcc	0.114776224
198	0x3e8d0148	0.2754004
199	0xbc9f4eb6	-0.019446712
200	0x3e72ab6f	0.23698209
201	0xbe9295a6	-0.28629798
202	0xbe5f55d7	-0.21810089
203	0xbe22eb40	-0.15910053
204	0xbe34a532	-0.17641142
205	0xbe44b2c2	-0.19208816
206	0x3e91f8ca	0.28510123
207	0xbe437f1d	-0.19091459
208	0xbe1e76ee	-0.15475056
209	0xbd8d685e	-0.06904672
210	0xbe9592ae	-0.2921347
211	0x3f068866	0.5255188
212	0x3eb0eb8c	0.34554708
213	0x3f6444aa	0.89167273
214	0xbe47311d	-0.19452329
215	0xbe59678e	-0.21230909
216	0xbe54a338	-0.20765388
217	0xbee86e62	-0.45396715
218	0x3e9dffc9	0.3085921
219	0xbec7d260	-0.3902769
220	0x3eb6080f	0.35553023
221	0x3e454ae0	0.19266844
222	0x3dde115c	0.10843155
223	0x3e482446	0.19545087
224	0xbe998170	-0.29981565
225	0x3eb4509f	0.3521776
226	0xbdd90f6b	-0.10598644
227	0xbe05dfee	-0.13073704
228	0xbe9f2999	-0.31086424
229	0x3f387ecb	0.7206847
230	0x3e8e0af5	0.27742735
231	0x3e819c87	0.25314733
232	0xbe88e556	-0.2673747
233	0xbead7785	-0.3388025
234	0x3f112632	0.56698906
235	0x3ec7431a	0.38918382
236	0x3d8c2bd9	0.06844301
237	0xbebccdae	-0.3687567
238	0x3ed309b1	0.4121833
239	0xbce4255b	-0.027849844
240	0x3f5d5887	0.86463207
241	0xbe345879	-0.17611875
242	0xbec58c5a	-0.38583642
243	0xbe3689b9	-0.17825975
244	0xbe6105be	-0.21974847
245	0xbd924460	-0.07141948
246	0xbe4324f1	-0.19057061
247	0xbe8752b7	-0.26430294
248	0x3f02fa74	0.5116341
249	0x3e083a38	0.13303459
250	0xbe115374	-0.14191991
251	0xbd955280	-0.07291126
252	0x3ea8d10a	0.32971984
253	0xbe24efd2	-0.16107109
254	0x3e5e6a54	0.21720248
255	0x3ee3af91	0.44469884

convs.0.linear2.bias f4 [64]
0	0x3dbf14d4	0.093301445
1	0xbd7be9a3	-0.06150211
2	0xbec834f7	-0.3910291
3	0xbcebbff5	-0.028778056
4	0xbdf60d33	-0.12014236
5	0x3e62f4b9	0.22163667
6	0xbe8168d6	-0.25275296
7	0xbe938e30	-0.28819418
8	0xbe94e800	-0.29083252
9	0xbe372d62	-0.17888406
10	0xbda2edde	-0.07955526
11	0xbb6d861b	-0.0036243263
12	0xbbbf460f	-0.005837209
13	0xbec783d9	-0.3896778
14	0xbe26681b	-0.1625065
15	0xbeb6e76d	-0.3572344
16	0xbd361e1a	-0.0444623
17	0xbe92e537	-0.28690502
18	0xbe572652	-0.21010712
19	0x3d19784b	0.037468236
20	0xbe408edc	-0.18804497
21	0x3e01b332	0.12666014
22	0x3ea5a07e	0.32349008
23	0xbe3b9604	-0.18318945
24	0x3cb40fe7	0.02198024
25	0x3e4c1394	0.19929343
26	0x3e04df1d	0.12975736
27	0xbe0672ab	-0.1312968
28	0x3e65ead0	0.22452855
29	0x3e987085	0.29773346
30	0xbc6fe3c8	-0.01464171
31	0xbe93380f	-0.28753707
32	0xbdfb02ad	-0.1225637
33	0xbe0fe69f	-0.14052819
34	0xbe77b6fd	-0.24190898
35	0x3d7c924e	0.061662965
36	0x3db53a05	0.08848957
37	0xbc958a59	-0.018254446
38	0x3dd96993	0.1061584
39	0xbbd8f877	-0.006621416
40	0x3e135a65	0.14389952
41	0x3ea4c633	0.32182464
42	0x3e978d25	0.29599872
43	0xbe178c74	-0.14799672
44	0xbdafc8b7	-0.08583205
45	0xbea50c17	-0.32235786
46	0xbe563ee1	-0.20922424
47	0x3c04931f	0.008091717
48	0xbebf49af	-0.37360904
49	0x3e79b598	0.24385679
50	0xbe8e3cf5	-0.27780882
51	0x3e4617d0	0.19345021
52	0xbed8c4ac	-0.4233755
53	0x3bc0bdf7	0.0058820206
54	0xbdc6a64c	-0.09699687
55	0x3d7eb639	0.0621855
56	0xbe2db432	-0.1696327
57	0xbd80f180	-0.062960625
58	0xbe3692ee	-0.17829487
59	0x3e7dbad9	0.24778308
60	0x3e5e0320	0.2168088
61	0xbd056cd9	-0.03257451
62	0xbd4bbb27	-0.04973903
63	0xbe85e78d	-0.26153222

convs.1.a f4 [128, 1]
0	0x3e8d4327	0.27590296
1	0x3e043079	0.12909116
2	0x3988aae8	0.00026067276
3	0x3e9be478	0.30447745
4	0xb8e8db7d	-0.00011103505
5	0x3e81edbe	0.25376695
6	0xb6babdbe	-5.565321e-06
7	0xb8978817	-7.22559e-05
8	0xb88dc40c	-6.7599205e-05
9	0xb812f862	-3.5040437e-05
10	0x3cb9a93f	0.02266371
11	0x3e919c69	0.28439644
12	0x3e4c2b80	0.19938469
13	0xb8be1f65	-9.065754e-05
14	0x3c226960	0.009912819
15	0xb593221b	-1.096228e-06
16	0x3e03201b	0.12805216
17	0x35adfb0f	1.2962572e-06
18	0x383f7713	4.5648845e-05
19	0x3e75e573	0.24013309
20	0xbc3d7983	-0.011564615
21	0x3e879fca	0.26489097
22	0x3e53aed9	0.20672168
23	0xb9574cc6	-0.00020532598
24	0x3e7c48ae	0.246371
25	0x3e4e5aeb	0.2015187
26	0x3e4c5b9a	0.19956818
27	0x36d54658	6.3560838e-06
28	0x3e6a4bae	0.22880432
29	0x3e6dd9bb	0.23227589
30	0x3e0c1b92	0.13682392
31	0xb980e00e	-0.00024580996
32	0xb8176902	-3.6099e-05
33	0x378665f6	1.6021524e-05
34	0xb6015078	-1.9269337e-06
35	0x3e8e3b7a	0.27779752
36	0x3e8ad3a5	0.27114597
37	0x3e94600f	0.28979537
38	0x3e9384dd	0.28812304
39	0x3b1c9740	0.0023893863
40	0x3e97f151	0.29676297
41	0x3e67df5d	0.226438
42	0x3e735c8f	0.23765777
43	0x3d463549	0.04839066
44	0xb9b0cbb0	-0.00033721095
45	0xb9e04f79	-0.0004278382
46	0xb70639e8	-8.000505e-06
47	0x3e999191	0.2999387
48	0x361c00a0	2.3246175e-06
49	0x3e5f4cbd	0.21806617
50	0xb633498f	-2.6715895e-06
51	0x3e5920ad	0.21203871
52	0xb5b75935	-1.3660525e-06
53	0x3e527a46	0.20554456
54	0x3d0f2f14	0.034957007
55	0x3e5f1dc9	0.21788706
56	0x374ab391	1.2081947e-05
57	0xb8c68f31	-9.468047e-05
58	0xb7e176e4	-2.6877453e-05
59	0x3e6776cd	0.22603913
60	0x3e795650	0.24349332
61	0x3dc881d1	0.097903855
62	0xb6916fcf	-4.334353e-06
63	0x37d97f81	2.592779e-05
64	0xbeab9360	-0.33510876
65	0xbfffbc59	-1.9979354
66	0xbfbbfb6d	-1.4686104
67	0x3ccc03f8	0.024904236
68	0xc0145326	-2.317575
69	0x3ebde1ae	0.37086242
70	0xc05e26cc	-3.471118
71	0xc079fc95	-3.9060414
72	0xc04d7b82	-3.2106633
73	0xc040c1ee	-3.0118365
74	0x3f1253f1	0.57159334
75	0xbd42ca42	-0.04755617
76	0xbf8e1b0a	-1.1102002
77	0xc077a2db	-3.869315
78	0xc040f5fa	-3.0150132
79	0xc07a367b	-3.9095752
80	0xbf20107e	-0.62525165
81	0xc0720b7f	-3.7819517
82	0xc059ffe0	-3.4062424
83	0x3e45d59d	0.19319768
84	0xc0126e51	-2.2879832
85	0x3fdac40a	1.7091076
86	0x3f043ea4	0.5165808
87	0xbf8ed1ea	-1.1157811
88	0x3ae74ed1	0.001764739
89	0x3e52215e	0.20520541
90	0x3f28fbe2	0.6600934
91	0xc0644f34	-3.5673342
92	0x3ebecfcd	0.37267914
93	0x3eb4bd8a	0.35300857
94	0x3f607b37	0.8768801
95	0xc05e0644	-3.4691324
96	0xc02dbd7c	-2.7146902
97	0xc00346bb	-2.051192
98	0xc05dcaf0	-3.4655113
99	0x3e3ac141	0.18237783
100	0x3e652e66	0.22380981
101	0x3eb15809	0.34637478
102	0x3e2deffc	0.16986078
103	0x3ef85344	0.48501027
104	0x3f26358e	0.6492547
105	0x3ec299c9	0.38007954
106	0x3eb5b8cb	0.35492548
107	0x3f39a045	0.72510177
108	0xc02d5770	-2.7084618
109	0xc041d667	-3.028711
110	0xc06a49ab	-3.6607463
111	0x3e9e4ffd	0.309204
112	0xc05db1aa	-3.4639688
113	0x3edc5b95	0.43038622
114	0xc06f8af4	-3.742856
115	0xbe29ce04	-0.16582495
116	0xc05ae166	-3.4200072
117	0x3ea0d43a	0.31411916
118	0x3f9cde48	1.2255335
119	0x3da130ae	0.07870613
120	0xc05b86ce	-3.4301028
121	0xc00c2606	-2.1898208
122	0xc0745dcb	-3.8182247
123	0x3c2002d5	0.0097663
124	0x3ef8cac0	0.48592186
125	0x3f244afa	0.64176905
126	0xc047cacf	-3.1217535
127	0xc047bd50	-3.1209297

convs.1.linear1.weight f4 [64, 64]
0	0x3e18149a	0.14851609
1	0xbfe19755	-1.7624308
2	0xc007877e	-2.1176448
3	0x3db3dc79	0.08782286
4	0xbfb535d1	-1.4157048
5	0x3ee1e562	0.44120318
6	0xbffd3330	-1.9781246
7	0xbff7c5cd	-1.9357239
8	0xc0094c1e	-2.1452708
9	0xbfe5fcbc	-1.7967753
10	0x3caa88cf	0.020817189
11	0x3d534db3	0.05158777
12	0x3e9ae546	0.30253047
13	0xbfc2cad3	-1.5218147
14	0xbff2cba8	-1.8968401
15	0xc00d54be	-2.2082973
16	0xbd303962	-0.043023475
17	0xc0164141	-2.3477328
18	0xbffbc1f8	-1.966857
19	0x3d3c7bb3	0.046016406
20	0xbfe6e69c	-1.8039126
21	0xbecf30ee	-0.40467018
22	0x3ecab78e	0.39593166
23	0xbfc95718	-1.5729704
24	0x3dd3d497	0.10343283
25	0x3f03089d	0.5118502
26	0x3eb870b2	0.3602348
27	0xc005986a	-2.0874276
28	0x3ef3c20b	0.4760898
29	0x3ed3ca7e	0.41365427
30	0xbedd1236	-0.43177956
31	0xc0002512	-2.0022626
32	0xbfddfc7f	-1.7342681
33	0xbf06727b	-0.52518433
34	0xbff9b1b5	-1.9507357
35	0x3c8ebf10	0.01742509
36	0xbdbe3f2f	-0.09289395
37	0x3d0c0580	0.034184933
38	0x3e24493b	0.1604356
39	0x3eaa3f91	0.33251622
40	0x3e12f2af	0.14350389
41	0x3ed44a6f	0.41463038
42	0x3edb2254	0.42799628
43	0xbde92a75	-0.11385051
44	0xbf946c74	-1.1595597
45	0xbffd7232	-1.9800475
46	0xc00afe67	-2.1717775
47	0x3d1ae6e5	0.037817854
48	0xc001b086	-2.0263991
49	0x3ef14a73	0.47127113
50	0xc00f5da0	-2.2400894
51	0x3f15bcfe	0.58491504
52	0xc004df72	-2.076138
53	0xbd6921e7	-0.056917097
54	0xbec36fb3	-0.38171157
55	0x3ef59d1f	0.47971436
56	0xc0023c55	-2.0349324
57	0xbf2c9a52	-0.67422974
58	0xbff4da9e	-1.9129217
59	0x3f07fcee	0.53120315
60	0x3e7134c8	0.2355529
61	0xbe151131	-0.14557339
62	0xbff4ba33	-1.9119323
63	0xbff9f2eb	-1.9527258
64	0x3f017dde	0.50582683
65	0x3fcd024e	1.6016328
66	0x3f9c9b0a	1.2234814
67	0xbe91e6c6	-0.2849638
68	0x3f12d409	0.5735479
69	0xbee45a27	-0.4460003
70	0x3f91c2d5	1.1387583
71	0x401056b4	2.255292
72	0x4000d87e	2.0132136
73	0x3f2f2de3	0.6842939
74	0x3dfb108d	0.12259016
75	0xbd583488	-0.052784473
76	0x3f21e37d	0.63237745
77	0x4004b882	2.0737615
78	0x3fdca75d	1.7238575
79	0x3fea40b1	1.8300992
80	0xbe032846	-0.12808332
81	0x400307cf	2.0473516
82	0x3fbdd819	1.4831573
83	0x3e9820ef	0.29712626
84	0x3f42591b	0.75917214
85	0x3edb1b48	0.4279425
86	0xbed39393	-0.41323528
87	0x3d4aac93	0.049480986
88	0x3e1ca87a	0.15298644
89	0xbe899fd7	-0.2687976
90	0xbe28116a	-0.16412893
91	0x3fe0a9ca	1.7551816
92	0xbe1d77eb	-0.15377776
93	0xbf01bbc5	-0.5067714
94	0xbdc5bc9d	-0.09655116
95	0x3faecf70	1.3657055
96	0x3f6b891c	0.9200609
97	0x3e9b1600	0.30290222
98	0x3fa7c3c7	1.3106622
99	0x3e48de3d	0.19616027
100	0x3db5696a	0.08857997
101	0xbd515b6e	-0.051112585
102	0xbcc30c4e	-0.023809578
103	0xbe1455de	-0.1448588
104	0xbe70c6da	-0.23513356
105	0xbe88de11	-0.26731923
106	0xbed42801	-0.4143677
107	0x3d22fb74	0.039790586
108	0x3fb0037a	1.3751061
109	0x3faf01e0	1.3672447
110	0x3fc3e7f0	1.5305157
111	0x3e269f9a	0.1627182
112	0x3f9b21ee	1.211973
113	0xbea84ce7	-0.32871172
114	0x3fd7e4fd	1.6866757
115	0xbe9cf918	-0.30658793
116	0x3fa0d684	1.2565465
117	0xbe272b4f	-0.16325115
118	0x3edb4905	0.42829147
119	0xbd4db82b	-0.050224464
120	0x3fd5321c	1.6655917
121	0x3f2a3597	0.6648802
122	0x402803f1	2.6252406
123	0xbc4b4b90	-0.012408152
124	0xbeb909b8	-0.36140227
125	0xbe57b154	-0.21063739
126	0x3fbd5a1d	1.4793125
127	0x4000f68b	2.0150478
128	0xbedfbdb5	-0.43699422
129	0xbf431d37	-0.76216453
130	0xbeab8795	-0.33501878
131	0x3d69f527	0.05711856
132	0xbe998f67	-0.2999222
133	0x3e4afe71	0.19823624
134	0xbece7f6a	-0.40331584
135	0xbec73015	-0.3890387
136	0xbf271930	-0.6527281
137	0xbeacad63	-0.33726034
138	0xbe842f31	-0.25817254
139	0xbe0ed4b8	-0.13948333
140	0xbe189b08	-0.1490289
141	0xbeb43133	-0.35193786
142	0xbf025255	-0.5090688
143	0xbf1f1163	-0.62135905
144	0xbe86dd54	-0.26340735
145	0xbf0f5f7d	-0.5600508
146	0xbf11990f	-0.56874174
147	0xbec20d18	-0.37900615
148	0xbe8687e8	-0.26275563
149	0xbeee0e96	-0.46495503
150	0x3e308aa8	0.17240393
151	0xbba8c800	-0.005150795
152	0xbe75ce15	-0.24004395
153	0x3d62f370	0.05540794
154	0x3c6ac69f	0.0143295815
155	0xbf08caee	-0.53434646
156	0x3def655b	0.11689254
157	0x3e211fd0	0.15734792
158	0xbeb4560e	-0.35221905
159	0xbf0d43e8	-0.5518174
160	0xbefe0318	-0.49611735
161	0xbeb655cd	-0.35612336
162	0xbef7f86f	-0.48431727
163	0xbe6fc32b	-0.23414294
164	0xbe38c7d0	-0.18044972
165	0xbe9ac29c	-0.302266
166	0xbd0c20e7	-0.034211066
167	0xbd958e74	-0.073025614
168	0x3c91cc3d	0.017797584
169	0x3ea3d7f8	0.3200071
170	0x3e2afe7d	0.16698642
171	0xbed72bab	-0.42025504
172	0xbece4baa	-0.40292102
173	0xbee97952	-0.45600373
174	0xbf1e813e	-0.6191596
175	0xbd8faeaa	-0.070157364
176	0xbeea2202	-0.4572907
177	0x3df0f584	0.117655784
178	0xbef5ff0e	-0.48046154
179	0x3e8d1ab3	0.27559432
180	0xbeeb4979	-0.45954493
181	0xbdbf72d2	-0.09348072
182	0xbf31265f	-0.69199175
183	0xbdac8b9b	-0.08425065
184	0xbecd3923	-0.40082654
185	0xbed0ba0c	-0.40766943
186	0xbf1d99ef	-0.6156301
187	0xbc1420fb	-0.009041066
188	0x3e934a8f	0.2876782
189	0xbe2c5776	-0.16830239
190	0xbf0ca81d	-0.5494402
191	0xbed1de2c	-0.40989816
192	0xbee64104	-0.44971478
193	0xbf7ba58b	-0.98299474
194	0xbf22b375	-0.6355508
195	0x3b946d6b	0.004529645
196	0xbea2fbe8	-0.31832814
197	0x3e2a8f58	0.16656244
198	0xbf18d548	-0.5970044
199	0xbf291c37	-0.6605868
200	0xbf68ee1e	-0.9098834
201	0xbf1029b4	-0.56313634
202	0xbee681f7	-0.4502103
203	0xbd49fc96	-0.04931315
204	0xbec4e00e	-0.3845219
205	0xbf3d0b2b	-0.73845166
206	0xbf5641aa	-0.83693945
207	0xbf5ad7c4	-0.8548548
208	0xbe2631c8	-0.16229928
209	0xbf73f269	-0.95291764
210	0xbf32d1df	-0.6985149
211	0xbe9ab13a	-0.30213338
212	0xbf057eeb	-0.52146786
213	0xbec82730	-0.39092398
214	0x3eb052d2	0.34438187
215	0xbd18fbf2	-0.03734965
216	0xbe35b58f	-0.1774504
217	0x3d8bcfaa	0.06826718
218	0x3d964ce9	0.07338888
219	0xbf0fdfca	-0.5620085
220	0x3e268664	0.16262203
221	0x3e8a6094	0.27026808
222	0xbe735ef8	-0.23766696
223	0xbf3bb13d	-0.7331732
224	0xbf2023eb	-0.62554806
225	0xbe6f9a22	-0.23398641
226	0xbf1afdd0	-0.6054354
227	0xbebe3beb	-0.3715509
228	0xbe80ed42	-0.25181013
229	0xbe8a5677	-0.27019092
230	0x3c644300	0.01393199
231	0xbde7c23d	-0.11316345
232	0xbdc5abeb	-0.096519314
233	0x3e00a594	0.12563163
234	0x3e77b366	0.24189529
235	0xbef7615b	-0.48316464
236	0xbf0d7716	-0.55259836
237	0xbf26b0c3	-0.65113467
238	0xbf35b85f	-0.7098445
239	0xbd4cc681	-0.049993996
240	0xbf09f5c3	-0.5389063
241	0x3e9edfb5	0.3103005
242	0xbf5b7978	-0.8573222
243	0x3e9093d4	0.28237784
244	0xbf2370cc	-0.6384399
245	0xbd28b8d6	-0.0411919
246	0xbf003e92	-0.50095475
247	0x3ca8450a	0.020540733
248	0xbf28e834	-0.65979314
249	0xbeb406d6	-0.35161465
250	0xbf57c443	-0.84283847
251	0x3dc5347f	0.096291535
252	0x3e987f89	0.29784802
253	0xbd616ccd	-0.0550354
254	0xbf249df0	-0.64303493
255	0xbf6085c1	-0.8770409

convs.1.linear1.bias f4 [64]
0	0xbe3f3256	-0.18671545
1	0x3f293b32	0.6610595
2	0xbe8a6e47	-0.2703726
3	0xbea9079b	-0.33013615
4	0x3f440293	0.7656643
5	0x3f12dfe8	0.57372904
6	0xbb027c0c	-0.0019910363
7	0x3ec2a4c6	0.38016337
8	0x3f3a4a11	0.72769266
9	0xbb1a3728	-0.002353141
10	0x3f01c92f	0.50697607
11	0x3e137322	0.14399388
12	0x3f08a5b9	0.5337787
13	0x3e955c4c	0.2917198
14	0x3f01f799	0.5076843
15	0x3f2e002c	0.6796901
16	0xbe418925	-0.18899973
17	0x3f213677	0.6297373
18	0xbebf811d	-0.37403193
19	0xbeddcbb0	-0.43319464
20	0xbf0b701c	-0.5446794
21	0x3e50695c	0.20352691
22	0xbf0095c1	-0.50228506
23	0x3dc00fb6	0.093779966
24	0x3dfe9403	0.12430575
25	0x3ef04c9f	0.46933457
26	0x3e2006ed	0.15627642
27	0x3f09d468	0.5383973
28	0x3dc217eb	0.09477218
29	0x3e960efb	0.29308304
30	0x3dd1cabd	0.102437474
31	0xbeb53936	-0.3539521
32	0x3e987c09	0.2978213
33	0x3dbd70c2	0.092500225
34	0x3ed2e940	0.4119358
35	0xbe87d9bc	-0.26533306
36	0x3f2e1c2d	0.6801174
37	0x3f244297	0.6416411
38	0x3ddfacd3	0.109216355
39	0xbf3ab989	-0.72939354
40	0x3b83e792	0.004025408
41	0x3ee5dc42	0.44894606
42	0x3def496b	0.11683925
43	0x3a8d64e9	0.001078752
44	0xbf1460cb	-0.57960194
45	0x3f4504bf	0.76960367
46	0x3d95691f	0.07295441
47	0xbeb91638	-0.36149764
48	0xbe1e3df0	-0.15453315
49	0x3ed2198c	0.41035116
50	0x3ebb67d1	0.36602643
51	0x3f196e39	0.5993381
52	0x3f3fd101	0.7492829
53	0x3d8a9b4d	0.067679025
54	0xbf38b4b7	-0.7215075
55	0x3eac6e84	0.33678067
56	0x3ef1a5f1	0.47196916
57	0xbb81eca7	-0.0039649787
58	0x3d70210a	0.05862526
59	0x3f1a2f64	0.6022856
60	0xbf0f59f6	-0.55996644
61	0x3f1a17ba	0.60192454
62	0xbdfc98dd	-0.12333844
63	0x3d32e2fd	0.043673504

convs.1.linear2.weight f4 [64, 64]
0	0xbe5960bf	-0.21228312
1	0x3eeff4fb	0.46866593
2	0xbd2611b3	-0.040544223
3	0xbec3afe1	-0.38220122
4	0x3f5d8c7a	0.86542475
5	0x3f67cb00	0.9054413
6	0x3db6f946	0.08934264
7	0x3f0d7250	0.5525255
8	0x3f43b935	0.7645448
9	0x3e1f9248	0.15583146
10	0x3ef5f23f	0.48036382
11	0x3e909cf7	0.28244755
12	0x3f0c6586	0.5484241
13	0x3f10e8c8	0.56605196
14	0x3f710869	0.9415346
15	0x3f0ce34d	0.55034333
16	0xbe87febe	-0.2656154
17	0x3f389c6d	0.72113687
18	0xbe37f42f	-0.17964242
19	0xbf210494	-0.6289761
20	0xbf025a1c	-0.50918746
21	0x3cd1f255	0.025628248
22	0xbf087365	-0.5330108
23	0x3e45f008	0.19329846
24	0x3d9565d4	0.07294813
25	0x3f415c76	0.7553171
26	0x3ea0b61b	0.31388935
27	0x3f6201cf	0.8828401
28	0xbd0f7de6	-0.035032175
29	0x3ea89d85	0.32932678
30	0xbafe817e	-0.0019417254
31	0xbec0f3fb	-0.37686142
32	0x3f089301	0.5334931
33	0x3e0bf69d	0.13668294
34	0x3f36f14a	0.7146193
35	0xbd83c24a	-0.06433542
36	0x3f2afb8f	0.667901
37	0x3f0faada	0.56120074
38	0x3e045fbc	0.12927145
39	0xbf7ba61c	-0.9830034
40	0x3ee08ccd	0.43857422
41	0x3f2b5762	0.6693021
42	0x3e8f9e49	0.2805045
43	0x3eb8d3f1	0.36099198
44	0xbf497b8a	-0.7870413
45	0x3f921854	1.1413674
46	0x3e794c68	0.24345553
47	0xbeca27e6	-0.39483565
48	0xbeb258bb	-0.3483332
49	0x3f5619d9	0.8363319
50	0x3f787843	0.97058505
51	0x3f46f934	0.77724004
52	0x3f5569f1	0.8336478
53	0x3dd91eca	0.10601576
54	0xbf40c2eb	-0.7529742
55	0x3facf363	1.3511776
56	0x3ea90f03	0.33019266
57	0xbe4d4776	-0.20046791
58	0xbe6ac005	-0.22924812
59	0x3f490454	0.7852223
60	0xbf03648c	-0.513253
61	0x3f186c84	0.5954058
62	0x3dfe73e8	0.12424451
63	0x3d8c73d2	0.068580285
64	0xbe6b1593	-0.22957449
65	0x3eeae352	0.45876557
66	0xbeb82590	-0.35966158
67	0xbf033a6f	-0.5126104
68	0x3f288bcf	0.6583833
69	0x3f6b1815	0.9183362
70	0xbd51a5cb	-0.051183503
71	0x3f1fc9ec	0.62417483
72	0x3f1b8bc6	0.6076015
73	0xbe024395	-0.12721093
74	0x3f02b525	0.51057655
75	0x3ecb570b	0.39714846
76	0x3f16f80a	0.5897223
77	0x3f09187d	0.5355299
78	0x3f47e41f	0.7808246
79	0x3f139e86	0.5766376
80	0xbe9ec035	-0.31006017
81	0x3f4ac19c	0.79201674
82	0xbefce0b7	-0.49390194
83	0xbf229794	-0.6351254
84	0xbee76f8d	-0.45202294
85	0x3e337a8a	0.17527214
86	0xbf22b311	-0.63554484
87	0x3e58a24c	0.21155661
88	0x3e34eaaa	0.17667642
89	0x3f0c12ad	0.54715997
90	0x3d8e1054	0.06936708
91	0x3f647563	0.8924162
92	0xbc690172	-0.014221536
93	0x3ec66b47	0.3875372
94	0x3d607203	0.05479623
95	0xbeb5c601	-0.35502627
96	0x3f15ec04	0.58563256
97	0x3d931c57	0.0718314
98	0x3f4da397	0.80327743
99	0xbeee7987	-0.46577093
100	0x3f21ca22	0.63199055
101	0x3f0278fa	0.50965846
102	0x3e54a521	0.20766117
103	0xbf8a4800	-1.0803223
104	0xbd9bd8f4	-0.0760974
105	0x3f22010a	0.63282835
106	0x3df2fee9	0.118650265
107	0x3e0a078b	0.1347944
108	0xbf395595	-0.7239621
109	0x3f47f756	0.7811178
110	0x3e92bdf9	0.28660563
111	0xbf04b0ce	-0.5183228
112	0xbe67827e	-0.22608373
113	0x3f4dc88c	0.80384135
114	0x3f607e2b	0.8769252
115	0x3f52a030	0.82275677
116	0x3f3df42a	0.7420069
117	0x3b0a1a92	0.0021072966
118	0xbf4d9d5a	-0.80318224
119	0x3f60a361	0.87749296
120	0x3e8ac96c	0.27106798
121	0xbe0732f5	-0.13203032
122	0x3e178686	0.1479741
123	0x3f2ff265	0.6872924
124	0xbefffdb5	-0.4999825
125	0x3eed7767	0.4638016
126	0xbdff123c	-0.1245465
127	0x3c5e643d	0.013573703
128	0xbe22655b	-0.15858977
129	0x3eba4f9c	0.36388862
130	0xbdb7c558	-0.08973187
131	0xbea85b18	-0.32882
132	0x3f61638b	0.88042516
133	0x3f617350	0.8806658
134	0x3cefc27f	0.029267548
135	0x3efc2e4b	0.4925407
136	0x3f15f292	0.5857326
137	0x3d61d1c3	0.055131685
138	0x3f0c9d26	0.5492729
139	0x3e07fcd6	0.13280043
140	0x3f242f1d	0.6413439
141	0x3f06aaa9	0.52604157
142	0x3f64c5c8	0.8936429
143	0x3f19cc60	0.60077477
144	0xbe86c245	-0.2632009
145	0x3f540de1	0.8283368
146	0xbe88479e	-0.2661714
147	0xbf0168ad	-0.5055035
148	0xbeba00dd	-0.36328784
149	0x3d6cda32	0.057825275
150	0xbf01f001	-0.5075684
151	0x3e43ac77	0.19108759
152	0x3e4d2c7a	0.20036498
153	0x3f16502f	0.587161
154	0x3ea5528d	0.32289544
155	0x3f43882a	0.76379645
156	0x3e4e9b24	0.20176369
157	0x3ec5e98d	0.38654748
158	0x3d42ca4e	0.047556214
159	0xbe55f133	-0.20892791
160	0x3eed9cad	0.46408597
161	0x3e8bdf13	0.2731863
162	0x3f34a4cd	0.70563966
163	0xbdf49426	-0.119423196
164	0x3f3e7adb	0.7440621
165	0x3eefcf16	0.46837682
166	0x3e6b6346	0.22987089
167	0xbf49d3f1	-0.7883902
168	0x3e90f76b	0.28313765
169	0x3f35757b	0.70882386
170	0x3e71a490	0.23597932
171	0x3e37f365	0.17963941
172	0xbf12a8eb	-0.57289
173	0x3f8a462f	1.0802668
174	0x3e411d09	0.18858732
175	0xbe1bc106	-0.15210351
176	0xbe80650e	-0.250771
177	0x3f54181e	0.828493
178	0x3f878235	1.0586611
179	0x3f3fb3b1	0.7488356
180	0x3f1ae038	0.6049838
181	0x3e35756b	0.17720573
182	0xbf2c82cc	-0.6738708
183	0x3f9f4463	1.2442745
184	0x3eb443cd	0.35207978
185	0xbe7607a5	-0.24026354
186	0xbdca7214	-0.0988504
187	0x3f305ff7	0.6889643
188	0xbee1d286	-0.4410593
189	0x3f27ca5c	0.6554315
190	0x3dd1a65b	0.10236808
191	0x3d5ab4bc	0.053395018
192	0x3ea25fb1	0.31713632
193	0xbf0de1da	-0.5542275
194	0x3e943fd5	0.2895495
195	0x3e19fad9	0.15037097
196	0xbf4f2f94	-0.80931973
197	0xbf84293c	-1.0325084
198	0x3e38542c	0.18000859
199	0xbf1b0650	-0.6055651
200	0xbf1f8ca0	-0.6232395
201	0xbdd9623c	-0.1061444
202	0xbf212e7e	-0.62961566
203	0xbe8e2045	-0.27758995
204	0xbf1f021b	-0.6211259
205	0xbecebd7e	-0.40378946
206	0xbf3b827d	-0.73245984
207	0xbecd85b6	-0.40141076
208	0x3e6c933a	0.23103037
209	0xbf27932a	-0.6545893
210	0x3eb6c827	0.3569958
211	0x3e9657d4	0.29363883
212	0x3ed7d029	0.42151
213	0x3cd30919	0.025761174
214	0x3f00c420	0.50299263
215	0xbde7579e	-0.112960085
216	0xbe240081	-0.16015817
217	0xbf0da9a2	-0.55336964
218	0x3e237e00	0.15966034
219	0xbf746557	-0.9546713
220	0xbdb28068	-0.08715898
221	0xbebcd795	-0.36883226
222	0xbe119d96	-0.1422027
223	0x3e93ee74	0.28892863
224	0xbea487d7	-0.32134888
225	0xbe0789e9	-0.13236202
226	0xbf244436	-0.6416658
227	0xbd20200c	-0.039093062
228	0xbefd392a	-0.49457675
229	0xbf24b024	-0.6433127
230	0xbe4906ad	-0.19631453
231	0x3ee00f32	0.43761593
232	0xbe78092b	-0.24222247
233	0xbf13efb8	-0.57787657
234	0xbe593c43	-0.21214394
235	0xbcddeca2	-0.027090374
236	0x3f13a52e	0.5767392
237	0xbf4fb5f4	-0.81137013
238	0xbcc7ef65	-0.024406144
239	0x3e94531e	0.28969663
240	0x3b905723	0.0044049188
241	0xbf51d874	-0.81970906
242	0xbf466ae6	-0.77506864
243	0xbf45e8d8	-0.77308416
244	0xbf619677	-0.88120216
245	0xbcccb179	-0.02498697
246	0x3f47bd5b	0.7802331
247	0xbf2aa588	-0.6665883
248	0xbebd0c15	-0.3692328
249	0xbb071243	-0.002061025
250	0x3e213745	0.1574374
251	0xbf3ee8cc	-0.7457397
252	0x3ed2cf0a	0.41173583
253	0xbf0420a4	-0.51612306
254	0xbc9b721f	-0.018975316
255	0xbb8af733	-0.004240894

convs.1.linear2.bias f4 [64]
0	0x3ea4baf8	0.32173896
1	0x3e986d67	0.29770967
2	0x3e7c7329	0.24653305
3	0xbe789334	-0.24274904
4	0x3ccfac47	0.025350703
5	0x3e82a443	0.25515947
6	0xbe169b99	-0.14707793
7	0xbe1ae750	-0.15127301
8	0xbe1aa493	-0.15101843
9	0x3eaa1195	0.3321654
10	0x3df26d6c	0.11837277
11	0x3d87cd21	0.06630922
12	0xbd34ff7b	-0.044188958
13	0xbe8c1121	-0.27356818
14	0x3e06cdbe	0.13164422
15	0x3d055a8a	0.032557048
16	0x3d881680	0.066449165
17	0xbe07680a	-0.13223282
18	0x3e561cf1	0.20909478
19	0x3ec3ba34	0.38228
20	0xbe9a4fd1	-0.3013902
21	0x3d533aef	0.051569875
22	0x3e99fa66	0.3007385
23	0x3dc8ae03	0.09798815
24	0xbd973097	-0.07382315
25	0xbe3a3f71	-0.18188263
26	0x3e930c99	0.2872055
27	0xbdf52bfe	-0.119712815
28	0xbe12b604	-0.14327246
29	0x3e69fc39	0.22850122
30	0x3ebe3172	0.371471
31	0xbe37f896	-0.17965922
32	0x3e9ee588	0.31034493
33	0xbe0330af	-0.1281154
34	0xbd435794	-0.047690943
35	0x3e522725	0.20522745
36	0xbe3c93b7	-0.18415724
37	0xbbb627a7	-0.005558926
38	0xbdcd5a2a	-0.10026963
39	0xbe3f4481	-0.18678476
40	0x3eaa7907	0.33295462
41	0xbe978407	-0.29592916
42	0x3d8bfb0f	0.06834995
43	0xbe47367a	-0.19454375
44	0xbd6c6548	-0.057713777
45	0x3e4c4581	0.19948389
46	0x3e9eab2c	0.3098997
47	0x3e83e2b3	0.25758895
48	0x3eba9cc9	0.36447743
49	0xbe02fec6	-0.12792501
50	0x3e99e09c	0.30054176
51	0x3e9bd3aa	0.30434924
52	0x3e9e9120	0.30970097
53	0x3e9142db	0.2837132
54	0x3ea318f5	0.31854978
55	0xbe90f6cf	-0.283133
56	0xbe78924f	-0.24274562
57	0x3edbd1f2	0.42933613
58	0xbe6de380	-0.23231316
59	0x3e19b504	0.15010458
60	0xbe19fcfe	-0.15037915
61	0xbce53f95	-0.02798442
62	0xbe2b13ce	-0.16706774
63	0x3e4514bf	0.19246195
