Saved_Models/TSP_100/scatgnn_layer_2_hid_64_model_280_temp_3.500.pth (torch, 153863 bytes, 24 tensors)

bn0.weight f4 [2]
00000000: 0000 803f 0000 803f
1.0 1.0

bn0.bias f4 [2]
00000000: 0000 0000 0000 0000
0.0 0.0

bn0.running_mean f4 [2]
00000000: 0000 0000 0000 0000
0.0 0.0

bn0.running_var f4 [2]
00000000: 0000 803f 0000 803f
1.0 1.0

in_proj.weight f4 [64, 2]
00000000: 47bf 563f 6d79 ff3e 7820 6fbf 2b36 373e
00000010: 10e3 873f 909b d2be fec6 a13e 7d47 be3f
00000020: 86c3 863e 9ddf 35bf 4079 073f 2ea3 ac3f
00000030: e957 6f3f c0c5 403f a013 5f3e 9920 b7bf
00000040: 7190 9b3f 66da 393e 35a8 53bf c9f6 663f
00000050: 0263 813f 53c9 acbe a4d3 853f f2c3 123f
00000060: a483 96bf dd2f b6bf ec05 4cbf 2436 683e
00000070: 77b1 35bf d7aa bcbf a45d 6b3f b864 9abf
00000080: c538 493f 33c2 a23c e693 e23d d916 a13f
00000090: 1bd9 a9bf bef6 e13d 9529 a2be 8cdf 8ebf
000000a0: 17b0 b13f e55c a23f 9b24 983f 5213 593f
000000b0: ad30 4abf 6dd2 213f e96c 35bf 6336 9b3f
000000c0: 74d2 2dbe e739 a4bf 795a 5d3f 848a fa3e
000000d0: 9212 5cbf 2fdd afbf 08af 9ebe 2df7 84bf
000000e0: dc1c 743f f6a1 10be f05c 31bf c8d9 833f
000000f0: efaf 513f 4269 8e3f 63ba 953f 609f a33e
00000100: 2324 2b3f c50e b03f b2dc be3d a9df 85bf
00000110: f72a c2be 2812 803f 4c21 813f 6b79 eebe
00000120: 1cc1 453f 74d9 863e a0b5 483d aea8 98bf
00000130: eeb9 7a3f 651d 483e 0c06 9fbf 1896 9f3c
00000140: 214d 5d3f 0e2b 03bf 9d50 5cbf a8e8 9abf
00000150: 0ceb ef3e 5239 77bf 51f7 973f 3e70 23bf
00000160: f767 9dbf 89e9 bcbd bfa7 87bf b61f 3cbe
00000170: 9f17 1fbf 6c8d ea3e 4407 bbbe 0482 a43f
00000180: dbbb 683e d987 86bf 38c4 0d3f 54e8 83be
00000190: a48d 99bf 5519 a0bf 9fa8 41bf 1a7c 1d3f
000001a0: ff10 80bf 6493 913f 4e77 3e3f 961d 3fbf
000001b0: 2974 6c3f 7bc8 59bf c4c8 27bf 4c47 1a3f
000001c0: 57f3 863f a7cf 34bf ffde 8bbf 195a d5be
000001d0: 3049 8dbf b6bd f4be 055b 19bf 452f 8dbf
000001e0: 7766 bd3e 7754 44bf 6e80 9e3e f273 8ebf
000001f0: b97d fdbc 50bf 82bf fa1a 963f 4e52 90be
0.83885616 0.49897328 -0.9340892 0.17891757 1.0616169 -0.4113431 0.31597131 1.4865566
0.26321048 -0.7104433 0.5291939 1.3487298 0.93493515 0.7530174 0.2178483 -1.4306823
1.2153455 0.18149719 -0.8267854 0.90220314 1.010834 -0.33747348 1.0455213 0.5733024
-1.1758924 -1.4233357 -0.79696536 0.22676903 -0.70973915 -1.4739636 0.9193976 -1.2061987
0.7860225 0.019867992 0.11063366 1.2585098 -1.326938 0.110333905 -0.3167235 -1.1161971
1.3881863 1.2684599 1.1886171 0.84795105 -0.78980523 0.6321171 -0.7086931 1.2125973
-0.16974813 -1.283017 0.86466175 0.48933804 -0.85965836 -1.3739375 -0.30992913 -1.0387932
0.95356536 -0.14124283 -0.69282436 1.0300837 0.8190908 1.1125872 1.1697506 0.3195753
0.66852015 1.3754507 0.09319438 -1.0458881 -0.37923405 1.0005541 1.0088286 -0.4657701
0.77247787 0.2633778 0.049001336 -1.1926477 0.97939956 0.19542463 -1.242372 0.01948075
0.86445814 -0.5123757 -0.86060506 -1.2102251 0.46859014 -0.9657184 1.187235 -0.63843143
-1.2297353 -0.09224231 -1.0598067 -0.18371472 -0.6214542 0.4581102 -0.3652898 1.2852178
0.22727911 -1.0510207 0.5537753 -0.2576319 -1.199635 -1.2507731 -0.7564792 0.6151749
-1.0005187 1.1373105 0.74400795 -0.7465452 0.92364746 -0.85071534 -0.6554072 0.6026504
1.0543011 -0.7062935 -1.0927428 -0.41670302 -1.103796 -0.47800988 -0.5990451 -1.103005
0.36992237 -0.76691383 0.3095736 -1.1129134 -0.030943738 -1.0214634 1.1726983 -0.28187793

in_proj.bias f4 [64]
00000000: a4ab 0c3f 4150 56be cd0d 4f3c a326 a83b
00000010: 7a85 fdbe 2b77 5ebe 6230 f93c 50f2 0ebe
00000020: a9c8 603d 497e 143f cc53 fcbe 7a09 003f
00000030: 1718 f5bd 7276 25be 6f37 443e 7770 7cbd
00000040: 65bc fdbe 9bb7 683c 6210 373d 5686 083f
00000050: 35b7 c43b f0c2 bebe 11d0 8dbd 784c b1bd
00000060: d25f 16be adb6 b1be e204 b8be d825 053f
00000070: b86c 15bf 608a febe 0a5b 213f 8471 81bc
00000080: 4e35 203f f4cc dcbe 5b2d 1bbf bafe 3bbe
00000090: 6ad9 fd3e 128d f53c 9f08 303f b6d4 7abe
000000a0: 4dfc e4bd 0e55 7a3e 4a02 fabe a0af f33d
000000b0: 149e ff3d 389c 153f f01f 173c 0840 823e
000000c0: eed1 b5bd 4d0d d43e cc6e b2be de25 923e
000000d0: 8d0d c1be d0f7 993e 02ad 0fbf 53db 86be
000000e0: a019 adbd 86d9 063f 8f4b e9be 2949 013f
000000f0: 1662 b23e 5462 013f e4fa f7be aef0 11bf
0.549494 -0.20929052 0.012637568 0.005131559 -0.49515897 -0.21725146 0.030418579 -0.13959622
0.054878864 0.58005196 -0.49282682 0.5001446 -0.119674854 -0.16158465 0.19161771 -0.061630692
-0.49557796 0.014203931 0.04469336 0.5332998 0.0060032853 -0.372581 -0.06924451 -0.086571634
-0.1468499 -0.34709683 -0.35941225 0.5201087 -0.58369017 -0.49714947 0.6302954 -0.015801199
0.62581336 -0.43125117 -0.6061608 -0.18358889 0.49579936 0.029974494 0.68763155 -0.24495205
-0.11180935 0.24446508 -0.4882987 0.11898732 0.12481323 0.58441496 0.009223923 0.25439477
-0.088779315 0.41416398 -0.34850156 0.28544515 -0.3770565 0.30071878 -0.56123364 -0.26339206
-0.08452153 0.52675664 -0.4556546 0.5050226 0.3484046 0.5054066 -0.48433602 -0.57007873

convs.0.a f4 [128, 1]
00000000: 7492 45bd 5c18 b43c 5893 c1bc 327d 35ba
00000010: 2b15 5ab8 9339 b2bc 7b93 63bd 8dc9 01bd
00000020: 71d6 48bd 8385 ba3b d5bb afbb ec54 94bd
00000030: b21b fabc af16 cd3c 8919 56bd fc41 a3bc
00000040: 0000 0000 fdcd b4b9 fb3b dc3c 5f30 d7bc
00000050: 7e28 4bbd e3a6 19bc 487f 2b3d fa89 fe3c
00000060: fbbe c6bc 6312 c03b 281d dabc 7d3d 15bd
00000070: 7490 b8b7 a4ca 193c 6e2e 21bd 90e7 1cbd
00000080: b4b7 30bd 6dfb b7bb 179b c2b9 dc59 45bc
00000090: 453b 56bd 6b19 16bd c170 20bd c716 cc3c
000000a0: f7e9 28bc 2f75 eabc 877f aebb 7dc8 28bd
000000b0: 3591 cd3c cf7e f33a 627e 0b3d 231f 373c
000000c0: 47e4 e8bc 49a0 92bd 0c09 ccbc b80a 053d
000000d0: 4854 f13c 575d 8cbd ee5b 09bc ce9c a03c
000000e0: 3a78 7cbc bd95 47bc 3678 8f3b 7cba 06bd
000000f0: b68a 3cbd 08c3 6bbd 9baf 53ba 0ec1 a0bb
00000100: 9bd5 9bbe 7b4b 1e3f fabb 1e3f ea03 173f
00000110: 9cb4 243f 2847 413f fe4a 7e3e 3b52 1f3f
00000120: 377d e53e 02ec 96be 3be0 2c3f 9d84 80be
00000130: 2b7f 523f b6d0 283f 3ad4 bc3d 93c1 1f3f
00000140: cd58 263f 803c e53e e07b 053f 89d9 8ebe
00000150: ef6a d83e a604 493f 3f51 273f ea3b 263f
00000160: 6d32 203f ea62 303f 02c5 413f 697a 87be
00000170: ec22 243f a305 1f3f aac0 7dbe 4244 223f
00000180: 368c 4ebe 7283 1c3f 4d0f 1b3f b971 293f
00000190: 0716 a5be ffad 1b3f 434a a8be acd3 213f
000001a0: a02f 233f 5f2b 47bc 6d87 263f 7698 fa3e
000001b0: d061 b83e be49 96be 7eba 153f 7781 dcbc
000001c0: 06fc 1f3f eeb2 b8be 3cbd 5f3f a5d0 5fbe
000001d0: cb83 203f b14c 5abe ecb4 1a3f d2ba 2e3f
000001e0: 2d41 263f 5688 7abe 6ff8 213f 131b 68be
000001f0: 70a0 91be 32e4 99be 7014 1b3f 2b6a 2e3f
-0.04823537 0.021984272 -0.02362983 -0.00069232576 -5.1994964e-05 -0.02175597 -0.05556057 -0.031686354
-0.049032632 0.0056921854 -0.0053629675 -0.0724276 -0.030530784 0.02503523 -0.052270446 -0.019928925
0.0 -0.0003448575 0.02688407 -0.026268182 -0.049599163 -0.009378168 0.04186943 0.031071652
-0.024260988 0.005861567 -0.02662523 -0.036435593 -2.2001776e-05 0.009386692 -0.03935092 -0.038306773
-0.043143943 -0.005614689 -0.00037118114 -0.01204535 -0.052302618 -0.036645334 -0.03917003 0.024913205
-0.010309688 -0.02862033 -0.005325261 -0.041206826 0.025093654 0.0018577221 0.034056075 0.011176857
-0.028429164 -0.07159478 -0.024906658 0.032480925 0.029459134 -0.06853741 -0.008383734 0.01960602
-0.015409524 -0.0121816965 0.004378344 -0.03289269 -0.046030723 -0.057559043 -0.00080751785 -0.0049058264
-0.30436406 0.61833924 0.6200558 0.5899035 0.6433809 0.754992 0.24833295 0.6223485
0.44822094 -0.29476935 0.6752965 -0.25101176 0.8222529 0.6594347 0.092201665 0.62404746
0.6497925 0.4477272 0.52142143 -0.2790034 0.42269084 0.7852272 0.65358347 0.6493517
0.62576944 0.6890093 0.75691235 -0.2646058 0.64115787 0.62117976 -0.24780527 0.63385403
-0.20170674 0.6113807 0.6057022 0.6618915 -0.32243368 0.6081237 -0.32869157 0.6321361
0.63744545 -0.012156337 0.65050393 0.48944443 0.36012125 -0.29353136 0.5848769 -0.026917202
0.6249393 -0.36074013 0.87398124 -0.21856935 0.627011 -0.21318318 0.60432315 0.68253815
0.649432 -0.2446607 0.63269705 -0.22666578 -0.28442717 -0.30056912 0.6057806 0.6813075

convs.0.linear1.weight f4 [64, 64]
00000000: e2bc 4c3e 961c bd3e 06df a63e 28ab 023f
00000010: 1f46 f83e fd25 ee3e 1b0b 0a3e 4bfe fd3e
00000020: df71 e83e 7f4c e13e e46b f83e 4cd6 723e
00000030: ca98 593e 2483 8d3e bbce 6f3e 9e1c 003f
00000040: 23f3 9a3e 51e7 f33e 9874 6e3e 54f6 2a3e
00000050: 5ce7 2a3e 55cf a43e 0647 cf3e 7e8e e13e
00000060: 9015 013f abfe ec3e 00f6 1f3e 1669 303e
00000070: 2d42 d73e 12f7 ac3e 0b8e 053d 2f18 0c3f
00000080: 2dc4 e93d 91eb f13e 534d 093f e0f0 f73e
00000090: 8e22 643e b78f ed3e e089 153e ae05 e83e
000000a0: b9e0 e53e 6687 183e d7ec e53e 9cf3 773e
000000b0: 7e04 b13e 902f 043e cd53 ee3e ecc6 fd3e
000000c0: ae80 c83e f035 433e 14b2 853e d44b cd3e
000000d0: d8d2 b73e 671d c13e 5bc2 643e 9e5b c23e
000000e0: 6825 a73e 9f56 7a3e 43c5 ca3e 27ec 943e
000000f0: cffc 073f d711 dc3e 4cce d63e 51a1 b63e
00000100: 2077 0d3d 0ebe f7bd 174c 01bf 6ece 833d
00000110: c889 96be ad4e f4bd 8b21 083e 36d3 60be
00000120: e787 a63b 5d98 cbbe 8dd1 0abf aa3a 623e
00000130: c8fc 51bc e4ec c0be dfb9 a3bd 2426 17bf
00000140: c86f 05bd 8802 e0bd c03e b539 5236 27bd
00000150: 6b31 54bd 200d f83d 3572 26bf 47df d9be
00000160: b4ef d33c 3511 da3c cf18 9c3d 9d20 c53d
00000170: 9205 50be 3b97 13bf 18f2 c03d 8517 67bd
00000180: 0b9a 9abc 91f3 75be 5f5d e6be 3dd8 01bf
00000190: 705e e73d 9adb 24be 5754 b7bc 4710 78be
000001a0: 3992 23bf 3c5c c8ba 2286 20bf f4c3 00bf
000001b0: e71e 983c e8d2 0cbd 7f08 fcbe 3648 67bd
000001c0: 5a53 84be 0404 a4bd b3ce ac3c 0bc8 51be
000001d0: c9c3 09bf f6ef 6cbe 4b77 08bf 7a9d 1abf
000001e0: ba9a 13bf 70a2 a43c de98 323e 9149 863d
000001f0: f91b 49be 9f72 74be 744a a4bd 25ea e7be
00000200: 9f80 26be 3289 a7bd 98ab 6cbe d6df 5fbe
00000210: 1b7c 45be f28c 8bbe eadc 1ebe 35ae 02be
00000220: 962f 50be be83 cbbd cee4 84be e7f1 57be
00000230: f466 40bd ba66 80be f76f 0cbd 55be 24be
00000240: 1965 7abe e2fd 2cbe d4be 95bd 5d1b 35be
00000250: 008c 7bbe f0bf 8dbe 5d73 c4bd c87d a8bd
00000260: df1f 80be 9bbe 8dbe f558 ddbd 94c6 43bc
00000270: 42c7 d0bd 3224 2fbd 33ab 5bbe 41c7 75be
00000280: 2f78 5ebd 855e 8dbe fbf4 57be d17a 61be
00000290: 3641 87bd 8a8b d9bd 950a de3c 8f71 33be
000002a0: 0dd7 e7bc 3f7b 70be e20f 5dbe 1209 123c
000002b0: 914c 0dbe 5a5c d63c 5444 173d a240 d03c
000002c0: 2f94 19be 79ed 8abd 37a0 2bbe c2b3 483d
000002d0: 40c6 a5bd fdfa 95bd fb90 5d3d f185 923c
000002e0: 773e 7ebd 5cfc 45be 7f88 82be 344d d6bd
000002f0: 2c1f 5abd 8cd8 0cbe d743 60be b77b e4bd
00000300: aa07 913e 3a5d 8e3e 681a 873e bde5 813e
00000310: deb1 ba3e 5267 8e3e fa1c 7e3e 959d a13e
00000320: c7a8 f23e 9502 743e ce1b e43e 9b9f 8d3e
00000330: 7f53 1b3e 6149 7e3e 780b 1b3e 7c89 bb3e
00000340: c80d 813e 33e7 d33e 598f a33e 7026 9c3e
00000350: 28d5 303e 7dc1 eb3e 7e19 b53e 4c28 ed3e
00000360: 570e b43e 984f 1c3f 7069 bc3e 0ade 833e
00000370: 5310 ae3e eea8 4d3e 39d1 f33d adf0 103f
00000380: 7fa9 633e db49 f63e 3ea7 b03e 2143 9a3e
00000390: 9a17 6a3e 7935 733e bf2d 853e d342 9a3e
000003a0: f71b c13e b9ec 093e 3e46 c93e 8912 873e
000003b0: d4ff ab3e c5bf 913e 4804 b93e e511 9a3e
000003c0: 50a8 b83e fe7e 643e c698 a23e 532b ca3e
000003d0: 6617 ba3e 9d24 9b3e a81e 633e bc77 bc3e
000003e0: 0bd4 6c3e 8a04 8f3e ffe1 cc3e 9c64 863e
000003f0: 353a 8b3e bca1 423e 8333 d93e 87e4 ed3e
0.19993928 0.36935872 0.32592028 0.51042414 0.48490998 0.46513358 0.13480799 0.49608073
0.45399377 0.44003674 0.48519814 0.2371456 0.2124969 0.27639115 0.23418705 0.50043666
0.30263624 0.47637418 0.23286664 0.16695529 0.16689819 0.32189432 0.40483874 0.44054025
0.50423527 0.46288046 0.15621185 0.17227587 0.42042676 0.3378225 0.032606166 0.547244
0.11414371 0.47250035 0.5363361 0.4842596 0.22278807 0.46398708 0.14603376 0.45316833
0.44898012 0.148954 0.44907257 0.24214023 0.3457374 0.12908769 0.4654831 0.49565828
0.39160675 0.19063544 0.26112425 0.40096915 0.3590305 0.37717745 0.22339766 0.37960523
0.32645726 0.24447106 0.39603624 0.2908642 0.5312013 0.4298236 0.41954267 0.3566995
0.034537435 -0.12096797 -0.5050673 0.06435858 -0.29401994 -0.11929069 0.13294046 -0.2195557
0.005082119 -0.3976468 -0.54226 0.22092691 -0.012816615 -0.37680733 -0.079944365 -0.5904257
-0.032577306 -0.10937983 0.00034569763 -0.04082329 -0.05180494 0.121118784 -0.65018016 -0.4255316
0.025871135 0.026619533 0.07621919 0.09625361 -0.20314625 -0.57652634 0.09421176 -0.056418914
-0.018872282 -0.24018694 -0.44993111 -0.5072058 0.112973094 -0.16099396 -0.022379084 -0.2422496
-0.63894993 -0.0015286277 -0.6270467 -0.50299 0.018569423 -0.034380823 -0.49225232 -0.05646535
-0.25844842 -0.080085784 0.021094656 -0.20486467 -0.5381437 -0.23138413 -0.53307027 -0.6039654
-0.5765797 0.020096987 0.17441127 0.065570004 -0.19639577 -0.2387185 -0.08022013 -0.45295826
-0.16260003 -0.08180465 -0.23112333 -0.2186273 -0.19285624 -0.2725597 -0.1551396 -0.12761767
-0.20330653 -0.09937237 -0.25955814 -0.21088372 -0.046973184 -0.25078374 -0.034286465 -0.16088231
-0.24452628 -0.16893724 -0.07311788 -0.1768622 -0.24565125 -0.276855 -0.09592316 -0.08227116
-0.25024316 -0.27684483 -0.10807983 -0.0119492 -0.101942554 -0.042759128 -0.21452026 -0.2400179
-0.054313835 -0.27611175 -0.21089546 -0.22019507 -0.06604235 -0.10622318 0.027104655 -0.17523788
-0.028300786 -0.23484515 -0.2158809 0.008913295 -0.13798739 0.026167084 0.036930397 0.025421444
-0.14997934 -0.067835756 -0.16760336 0.048999555 -0.08094454 -0.07323263 0.054093342 0.017886134
-0.06207129 -0.19334549 -0.25494763 -0.10463944 -0.053252384 -0.13754481 -0.21900879 -0.11156409
0.2832616 0.278055 0.26387334 0.2537059 0.36463827 0.27813202 0.24815741 0.31565538
0.47394392 0.2382911 0.44552463 0.27660832 0.1516857 0.2483268 0.15141094 0.3662833
0.25205827 0.41387329 0.31945303 0.30498075 0.17268813 0.46046057 0.35371011 0.46319807
0.3516719 0.6105895 0.36799192 0.2575534 0.3399683 0.20083973 0.119051404 0.5661724
0.22232626 0.48103222 0.34502596 0.3012934 0.22860566 0.23750867 0.26011464 0.30129108
0.37716648 0.13469209 0.39311403 0.2638133 0.3359362 0.2846662 0.3613608 0.30091777
0.36065912 0.22314069 0.31757182 0.3948618 0.36345977 0.3030137 0.22179663 0.368101
0.23127763 0.2793315 0.4001617 0.26248634 0.27192846 0.1900701 0.42422113 0.46463415

convs.0.linear1.bias f4 [64]
00000000: 8b83 cf3d 462e c0bb 1014 7b3e e8b4 3cbd
00000010: d619 333e ae10 59be 7990 723d 71a0 6abe
00000020: a9e0 133e 430e 9cbd 45a4 5c3e 0901 04be
00000030: 7e24 5d3e 443a 843e 7c5e c43d b2c1 edbd
00000040: c11e 483e 4898 0dbe 2166 7f3e 678b 46bd
00000050: 0c61 8abc c1c0 8cbd d289 853d e061 97bd
00000060: ac67 1e3e dc9e be3d 691d 1ebe 574c 0bbd
00000070: c323 623c cdf3 7c3d 603a 343e 2d8e 35bd
00000080: a690 53bd a330 533d 9ace 753e 4fd7 a0bd
00000090: 0987 a1bd c0e3 e3bd 17e4 eb3d e77e 8f3d
000000a0: d2be a23c b4c1 73bd f851 c63d 6cc0 25bd
000000b0: aa25 f83d 6cb6 943c 4d1e 16bd b293 c2bd
000000c0: 65cc b6bd 247c 723e be3b 63bc f1ec f0bd
000000d0: 7465 d8bd 37c2 613e d4b3 3ebe aad7 8f3e
000000e0: 9ad1 35bd b670 7d3d 0e3c bd3d b719 513e
000000f0: 7ada 2b3d 03eb 313c 3f79 36bb 76be 03bd
0.10132512 -0.005864891 0.24519372 -0.046070963 0.17490324 -0.21197769 0.05921981 -0.22912766
0.1444117 -0.07619908 0.21547039 -0.1289102 0.21595952 0.25825703 0.09588334 -0.1160921
0.19542982 -0.13827622 0.24941303 -0.04847279 -0.016891979 -0.068727024 0.06520428 -0.07391715
0.15469235 0.09307644 -0.15440907 -0.03400835 0.013802472 0.061755944 0.17600393 -0.044325043
-0.05165162 0.051560055 0.24004593 -0.07853567 -0.07887084 -0.11127424 0.11518114 0.070066266
0.01986638 -0.0595109 0.09683603 -0.04046671 0.12116559 0.018153392 -0.03664999 -0.09500827
-0.08925704 0.23680168 -0.013869224 -0.11763943 -0.10566226 0.22046743 -0.18623286 0.28094226
-0.044389345 0.061875068 0.0923997 0.20419966 0.041956402 0.010859254 -0.0027843264 -0.03216406

convs.0.linear2.weight f4 [64, 64]
00000000: 1dbc 893d a19a 913e 572c 823d a602 523d
00000010: e1e7 19bd be11 db3d 0277 f03d 7425 3ebe
00000020: c105 2ebd 3133 9abd ba90 3abe 65c9 e1bb
00000030: cd60 1ebd a0ac 9b3d 4c6b c23c a075 07bb
00000040: 0489 933b 25cd 7f3d 66f1 03bd 5d1e 783e
00000050: 13b4 7c3d 3539 29bf ca2f 243f bdaa b0be
00000060: 34c5 45be d8be 893e effb e9bd d964 a1bd
00000070: a597 ddbd 867d a9bc e754 acbd 473f d53e
00000080: f549 97bd b98e 973b 5a19 b8bd 8e9f dabc
00000090: db37 cebc 8a6a 1fbf 9a2d ef3d 978f 3cbd
000000a0: 1391 1abe f677 a9bd e5cc 1ebf cf11 f03d
000000b0: 4702 f33d 2c69 14be b72c 5e3e 6d26 21be
000000c0: 808d cbbe e385 96bd 21b3 13be 7fc8 5a3c
000000d0: 94e5 823d 6abd a9bb 7b03 493e f344 913d
000000e0: 5661 853e f68e 073c 5a45 f73e ed60 e1bd
000000f0: 07ac 513d 9872 3cbe 920b 94bd eeb5 3e3d
00000100: d962 12bf acf3 ca3f 2c64 c23e 634e abbf
00000110: 7722 7e3e 62f2 9cbe 4bc6 e4be 61f4 b5be
00000120: 034d 9ebe 6dfa d43e d012 d43e fc2c 603e
00000130: 01fe d03d 2a4a b33e 76cc cebe 11fd bf3e
00000140: b277 653e 6b80 c23e d4e0 633e 9391 a4bf
00000150: bc5e 85bf 8e58 393e f924 c2be 2a72 e13e
00000160: 404f c33e f363 703e 5497 13be e514 2b3f
00000170: 8b45 37bf 60cf 0fbf a74e 55be eb92 0cbf
00000180: e4f7 fc3e 1171 0dbf 21e0 c03e b123 f33e
00000190: 01f9 a93e 9c31 073e 8238 e3be 3d3b c6be
000001a0: 88ad 913f 3b9f 193f f829 7f3e 2c2a bbbf
000001b0: 3a50 ecbe 5985 873f b00a 9dbf 65b3 043f
000001c0: ce28 52bf 7e4e 7e3e 58a1 0c3f b515 893e
000001d0: d01d cc3e 99ab b63e 79b0 67be 04d7 c73e
000001e0: 4c8a b6bf e54e ecbe 7660 ddbe dcff 903e
000001f0: b1da 53bf 86df 033f 9667 2ebf 9acb c0bf
00000200: 4879 0cbd e63c f9bd 67ed 20bf 9615 3b3e
00000210: d931 28bf cf3d 3b3f 0b66 a23b c00f c73d
00000220: 80c9 eabd 5396 bdbc d9b6 84bf 1ce0 0bbc
00000230: 751d 10bf 0a48 33bf e63c d1bd 7086 283d
00000240: 0bd9 0cbf c9fc a83c d1d8 32bf 4a6a 693e
00000250: 306b a63d 9d2a 09be 82dc 5a3f b369 27be
00000260: 4725 36bf cb99 06bf 3733 bb3e 885b d73d
00000270: c8e1 f53d 80d3 dbbd 9215 c4bd 5c99 003f
00000280: 99ec 95bd 5432 433d f2d1 5fbf 5381 913c
00000290: dd23 0f3d ea96 30be 24d9 90bd 46cc f1bd
000002a0: cb4b 37be 7028 b73d 2dda e0be a92b 213e
000002b0: d87b 373d cd8c ecbb ca35 7b3e b186 25be
000002c0: 0d90 e6bc 9d15 46bf 2c30 50be 8524 debc
000002d0: 4743 993d 8b8a 60bf 58bd 9d3e 208a 43bf
000002e0: b7eb 143e 6533 54bc 2409 863e 0f6a f5be
000002f0: 06e9 b6bd 1b8c 12bd 69a7 ac3d 3c51 3a3e
00000300: 6218 953e 7138 d9be 7542 9cbd cd0e d93e
00000310: fc1b 9abd 266f f43d 4c54 8f3e b45b 80bb
00000320: 13dc 753e 45ba 94be a079 5abe faa3 26be
00000330: 470c 38be e441 48be ac09 943e 283b 47be
00000340: fb38 22be fa68 93bd 1ba1 97be 9366 083f
00000350: 6a67 b43e 2a0b 663f e2ec 42be a4e1 5dbe
00000360: 21b9 4bbe 0975 edbe bb4c a03e 1691 cabe
00000370: 9dcb b83e af24 4a3e fb04 e43d b711 4f3e
00000380: 4418 9cbe e1a7 b63e 65bb e0bd 35b3 09be
00000390: 0341 a1be 8bfd 363f a43b 903e bc90 833e
000003a0: ab44 8cbe ff1f b0be 687b 123f 50ba ca3e
000003b0: 8217 943d 113b c0be 18a0 d63e 7a42 03bd
000003c0: 1d29 5f3f 1137 38be 4680 c8be ac71 3abe
000003d0: 6e27 65be e32e 9abd 7e5a 41be 7a95 89be
000003e0: 70cb 043f d3fb 0b3e b5b7 0ebe 36ea 9cbd
000003f0: 7a93 ab3e 570b 2bbe 36ac 643e b12b e73e
0.06725333 0.28438285 0.063561134 0.051272057 -0.037574653 0.106967434 0.11741449 -0.18568975
-0.042485956 -0.07529295 -0.18219271 -0.006890463 -0.038666535 0.07601285 0.023732804 -0.0020669475
0.0045024175 0.0624515 -0.032212637 0.24230333 0.06169517 -0.66102916 0.6413542 -0.34505263
-0.19313508 0.26903415 -0.11425006 -0.07880563 -0.108199395 -0.020689737 -0.08414631 0.4164984
-0.07387153 0.004625168 -0.089892104 -0.02668741 -0.025173118 -0.6227194 0.1167862 -0.046035375
-0.15094404 -0.08274834 -0.62031394 0.11722147 0.11865669 -0.14493245 0.21696745 -0.15737315
-0.39756393 -0.073497556 -0.14423801 0.013353466 0.06391445 -0.0051800506 0.19630234 0.07093229
0.26050824 0.008273831 0.482951 -0.11004815 0.05118945 -0.18403089 -0.07228769 0.04656022
-0.5718208 1.5855613 0.3796705 -1.3383297 0.24817835 -0.30653673 -0.44682536 -0.3553801
-0.3091813 0.4159731 0.41420603 0.2189216 0.102046974 0.3501752 -0.40390366 0.37497762
0.22408941 0.379886 0.22253734 -1.2856926 -1.0419536 0.18100187 -0.37918833 0.44032413
0.381464 0.23475628 -0.14413196 0.6682876 -0.7159049 -0.56175804 -0.20830785 -0.5491168
0.49407876 -0.5525065 0.37670997 0.47488168 0.33197787 0.13202518 -0.4437905 -0.3871707
1.1381083 0.6000859 0.24918354 -1.4622245 -0.46154958 1.058757 -1.2268887 0.51836234
-0.82093513 0.2483463 0.5493369 0.26774374 0.39866495 0.35677794 -0.22625913 0.3903123
-1.4260955 -0.46153942 -0.43237656 0.28320205 -0.8275557 0.51512945 -0.6812681 -1.5062134
-0.03429535 -0.121698186 -0.6286225 0.18269953 -0.6570106 0.7314119 0.004956012 0.09719801
-0.11464214 -0.02314297 -1.0368301 -0.008537319 -0.5629495 -0.700318 -0.102166936 0.041143835
-0.5501868 0.02062835 -0.69862086 0.22794452 0.08125913 -0.13395162 0.8549272 -0.16348915
-0.7115063 -0.5257842 0.3656251 0.10515505 0.12005955 -0.107337 -0.09574427 0.5023401
-0.07320518 0.04765542 -0.87429726 0.017761862 0.03494631 -0.17245069 -0.07072666 -0.1180654
-0.17900006 0.0894326 -0.43916455 0.15739311 0.04479584 -0.007218933 0.24532238 -0.16164662
-0.02814486 -0.7737673 -0.20330876 -0.027117023 0.07483535 -0.877114 0.3080852 -0.7638264
0.14543043 -0.012951707 0.2617885 -0.4793248 -0.089311644 -0.035778146 0.084303685 0.18195051
0.29120165 -0.42425874 -0.07629863 0.42394105 -0.07524869 0.119352624 0.27994 -0.003917182
0.24009733 -0.29048362 -0.21335459 -0.1627349 -0.17973433 -0.19556385 0.2891363 -0.1945616
-0.15842049 -0.07197757 -0.296151 0.53281516 0.3523515 0.89860785 -0.19035676 -0.21668106
-0.1989484 -0.46378353 0.3130854 -0.39563817 0.36092845 0.19740556 0.111337624 0.20221601
-0.30487263 0.35674956 -0.10973243 -0.13447268 -0.31494913 0.71480626 0.28170502 0.2569636
-0.2739614 -0.3439941 0.57219553 0.3959527 0.07231046 -0.37545064 0.41919017 -0.03204582
0.8717211 -0.17989756 -0.39160365 -0.18207425 -0.22378322 -0.07528474 -0.18882176 -0.26871854
0.5187292 0.13670282 -0.13937266 -0.0766186 0.33510953 -0.16703545 0.22331318 0.4515052

convs.0.linear2.bias f4 [64]
00000000: c873 c63d 1c18 7dbd 3f8f d0be 4400 f8bc
00000010: 9302 e6bd 583e 653e 5695 7ebe 9c67 8fbe
00000020: 5af2 94be b179 41be 1c02 a8bd 0edb c9bb
00000030: 7940 07bc ff38 ccbe 013b 25be a957 b4be
00000040: be31 4cbd 1a75 90be acb7 4fbe e43f 173d
00000050: c72e 46be 92df 023e 033d a73e ea98 38be
00000060: b790 9f3c d32c 4b3e ac76 063e 1b6d 01be
00000070: 7647 693e c97a 993e 6741 41bc 802b 90be
00000080: 6b30 e9bd 22fa 06be 825c 71be 4149 723d
00000090: 9f4f ad3d c5f5 b1bc 1067 d13d fd02 f2bb
000000a0: 1f5d 183e abdf a53e da81 983e da82 1abe
000000b0: f5c4 ccbd b372 a9be 48c3 51be a73d b83b
000000c0: 2292 bcbe 3db8 7c3e 406a 8bbe e7e2 463e
000000d0: e536 d6be 5e45 513b 09e6 cbbd 020f 833d
000000e0: e836 27be 0b98 5abd 3548 3bbe 200d 7f3e
000000f0: 94b4 603e 3ec1 0bbd 3293 23bd f583 86be
0.09690052 -0.06179057 -0.40734288 -0.030273564 -0.1123096 0.22387064 -0.24861655 -0.28008735
-0.2909115 -0.18894078 -0.08203527 -0.0061601466 -0.008255118 -0.39887235 -0.1613579 -0.3522313
-0.049852125 -0.2821434 -0.20284909 0.036926165 -0.19353782 0.12780598 0.32663736 -0.18027082
0.019478185 0.19841318 0.13131207 -0.12639277 0.22781166 0.2997649 -0.011795378 -0.28158188
-0.11386188 -0.13181356 -0.23570445 0.05915189 0.08462452 -0.021723637 0.10224736 -0.00738561
0.14879273 0.32397208 0.2978657 -0.15088978 -0.09998504 -0.3309532 -0.2048465 0.005622584
-0.3683024 0.24679656 -0.272295 0.19422494 -0.41838756 0.0031932215 -0.09955985 0.06399347
-0.16329539 -0.053367656 -0.18289264 0.2490735 0.21943885 -0.034119837 -0.0399353 -0.2627255

convs.1.a f4 [128, 1]
00000000: 8bc6 a33e 1694 2c3e 0f9e 9539 2462 cd3e
00000010: 7ddb e8b8 82b0 a43e bebd bab6 1788 97b8
00000020: 0cc4 8db8 62f8 12b8 5c0b 903d 6f44 c13e
00000030: b894 783e 651f beb8 9c83 b03b 1b22 93b5
00000040: 6376 403e 0ffb ad35 1377 3f38 ae2d 963e
00000050: 8379 3dbc 167d b63e 9e28 943e c64c 57b9
00000060: 3855 9a3e febc 7f3e 3799 6c3e 5846 d536
00000070: 07bf 953e ef06 a23e a940 663e 0ee0 80b9
00000080: 0269 17b8 f665 8637 7850 01b6 499b b53e
00000090: f2a5 b53e d4ff c13e d26c c03e ca8f 433d
000000a0: 986c c63e 8bb8 9f3e 7436 a63e f53e b63d
000000b0: a0e3 b3b9 794f e0b9 e839 06b7 7dda c33e
000000c0: a000 1c36 4967 963e 8f49 33b6 ec5c 8b3e
000000d0: 3559 b7b5 de8b 973e aff2 ab3d 76e3 873e
000000e0: 91b3 4a37 318f c6b8 e476 e1b7 bf7a 8e3e
000000f0: d998 a73e b461 1f3e cf6f 91b6 817f d937
00000100: 142a bdbe 366e 01c0 16f3 c9bf 2ab7 95bc
00000110: 5465 19c0 9a5b c23e 1dfc 5fc0 bcbb 7dc0
00000120: 6e1c 53c0 f3f7 45c0 a59c 1f3f cad7 b4bd
00000130: dcbb 95bf dca4 7cc0 2086 41c0 82ae 7cc0
00000140: 4b7f 27bf e80a 75c0 8b18 5cc0 5baf 1f3e
00000150: c4a5 17c0 0017 db3f a142 073f b6ec 94bf
00000160: 6231 36bd b59d 5c3e 3452 383f ae05 67c0
00000170: ba68 c43e e2d4 b73e 87f1 5a3f e8ce 5fc0
00000180: f6fa 2fc0 2d6a 05c0 18a4 5fc0 abb8 233e
00000190: 511f 513e 0b16 aa3e 71b2 1b3e eab6 0b3f
000001a0: c7e7 263f 18e3 c43e 6630 b73e 1b0a 413f
000001b0: 4325 30c0 d6fe 46c0 2023 6cc0 7911 963e
000001c0: 1189 5fc0 2f26 e23e e670 71c0 6953 37be
000001d0: 85ac 5cc0 dbe9 853e c4dd a03f 51b5 b13d
000001e0: 3679 5ec0 a4fd 0ec0 a017 7ac0 be9a 593c
000001f0: 8326 fe3e 6944 2d3f 509b 4ec0 359b 4dc0
0.31987414 0.16853365 0.00028537257 0.40113938 -0.00011103505 0.32165915 -5.565321e-06 -7.22559e-05
-6.7599205e-05 -3.5040437e-05 0.07033417 0.37747523 0.24275482 -9.065754e-05 0.005386783 -1.096228e-06
0.18795161 1.2962572e-06 4.5648845e-05 0.29331726 -0.011564615 0.35642308 0.28937238 -0.00020532598
0.30143142 0.24974439 0.23105322 6.3560838e-06 0.29247305 0.31645915 0.22485603 -0.00024580996
-3.6099e-05 1.6021524e-05 -1.9269337e-06 0.35470036 0.3547817 0.37890494 0.37583023 0.04774455
0.38754725 0.31195483 0.3246342 0.08898727 -0.00034311134 -0.0004278382 -8.000505e-06 0.3825263
2.3246175e-06 0.29375675 -2.6715895e-06 0.2721933 -1.3660525e-06 0.29598898 0.083958976 0.26540726
1.2081947e-05 -9.468047e-05 -2.6877453e-05 0.27828023 0.327338 0.15564615 -4.334353e-06 2.592779e-05
-0.36946166 -2.0223517 -1.5777309 -0.018275816 -2.3968096 0.3796051 -3.4997628 -3.9645834
-3.2986102 -3.0932586 0.62348396 -0.08830221 -1.1697955 -3.9475622 -3.0238113 -3.948151
-0.6542861 -3.8287907 -3.438998 0.15594237 -2.3694925 1.7116394 0.5283604 -1.1634738
-0.04448069 0.21544535 0.7200043 -3.6097217 0.3836115 0.35904604 0.8552479 -3.4970036
-2.7496924 -2.0846055 -3.4943905 0.15988414 0.20422103 0.33219942 0.15204789 0.5457598
0.65197414 0.3845451 0.35779113 0.75406045 -2.7522743 -3.109304 -3.6896439 0.29310206
-3.4927409 0.44169757 -3.7725158 -0.17902912 -3.4480298 0.2615498 1.2567677 0.086771615
-3.4761481 -2.234231 -3.907692 0.013281522 0.49638757 0.6768251 -3.2282295 -3.212598

convs.1.linear1.weight f4 [64, 64]
00000000: 7960 0f3e 3207 dfbf 064b 07c0 3c13 b53d
00000010: f3e2 b2bf 366c e23e 09d7 fbbf 92ab f5bf
00000020: 90ff 07c0 13d8 e3bf 0149 283d 140e 553d
00000030: e37e 983e 21e7 c0bf dcb3 f1bf 867f 0cc0
00000040: 19ab 22bd 7d4b 15c0 d834 fabf c226 173d
00000050: 0a5c e4bf 96d5 cdbe d7e9 cb3e b059 c7bf
00000060: af9d c63d 61c1 023f bf0a bc3e 1eb5 04c0
00000070: cd60 f43e e449 d43e 6415 d6be 8af1 febf
00000080: aa6f dcbf 325e 03bf 3a4f f8bf 6f4d 493c
00000090: 3cf8 c5bd 7171 033d 7a45 213e bc03 b23e
000000a0: 6a03 153e 66b9 d43e a0a2 db3e 468a e2bd
000000b0: b58f 93bf ce7f fbbf 8b53 0ac0 441d 0d3d
000000c0: 39ff 00c0 d733 f23e efaa 0ec0 10c6 143f
000000d0: 3631 04c0 4a64 53bd e30d bbbe f8d5 f33e
000000e0: 0843 01c0 59bf 28bf 2b4c f2bf 4c86 073f
000000f0: 144c 733e de1e 09be 4c98 f1bf 1875 f7bf
00000100: 274d 023f 1299 cb3f d35f 993f aaea 95be
00000110: 73f4 0a3f 7856 e3be 4d46 903f 21d3 0e40
00000120: 6a53 fd3f 2caf 263f 7448 183e cc3f 74bd
00000130: 6d30 203f d4c7 0240 c1a9 dc3f 364b e83f
00000140: 42aa f7bd 2cd4 0140 c825 bc3f 1c2c 963e
00000150: 4e92 383f aa3c d93e 2604 d4be a4fc ed3c
00000160: d61e 183e 3b86 84be b503 10be a878 de3f
00000170: 5c15 1abe 2927 02bf 418e d2bd da5f ad3f
00000180: 0b05 683f 324b 943e 5d52 a63f e51c 433e
00000190: 66f6 a83d 0626 69bd 228d f5bc 800d fcbd
000001a0: 26dd 73be 29de 89be fa58 d5be 1b7b 783d
000001b0: fde6 ac3f 1f07 ab3f db7e c23f 6074 213e
000001c0: d19e 993f ace7 a7be 866b d63f bd4b 9cbe
000001d0: ba6a 9f3f f1b6 2bbe 1d98 e73e cc6e 22bd
000001e0: 62c6 d23f 3673 253f 33c7 2540 074d bbbb
000001f0: 1cb0 b9be f633 49be 7f7d b73f 5191 fd3f
00000200: ed1e e0be be82 41bf 8129 aabe 331f 713d
00000210: a660 97be 1800 4a3e 36b6 ccbe 32e5 c4be
00000220: 12e1 25bf 251b aabe 2cb2 85be ec8e 0cbe
00000230: 9337 16be 70c7 b1be c11a 02bf 6d15 1ebf
00000240: f754 87be df43 0ebf 03b6 10bf a95a c2be
00000250: 30ee 83be 21c6 edbe e787 303e c36a d5ba
00000260: 5e3d 75be cf63 4c3d 7063 113c a7d8 07bf
00000270: 5440 ed3d f009 213e 1013 b3be ce63 0cbf
00000280: 1b4a fcbe a1c4 b4be 4147 f6be b7e6 6fbe
00000290: 8306 39be 95a8 9abe e2f2 0bbd bfe2 8fbd
000002a0: 2b22 943c cfdf a33e c030 2b3e aea3 e8be
000002b0: a6d1 ccbe 4e32 e7be bda9 1dbf 39cf 8fbd
000002c0: 0c45 e8be 6f2c f03d 5451 f4be 83f2 8b3e
000002d0: b68e e9be 50a6 b7bd 0bb9 35bf efd3 b6bd
000002e0: 6722 cbbe 2c05 cfbe b56f 1cbf ba12 50bc
000002f0: 133a 933e 465f 28be b9f2 0abf 635a cfbe
00000300: 921f e9be 4c87 79bf 61a5 21bf 0caa 983b
00000310: 8f14 9fbe 24cd 293e fe31 17bf 9e03 27bf
00000320: 65b2 66bf 70ec 0dbf 8f1c efbe 0a3e 4abd
00000330: 7126 c6be 49ea 3abf a9b4 55bf f30d 59bf
00000340: ba39 2fbe 51f2 71bf 1f2c 31bf d695 9cbe
00000350: 4729 03bf 4cfa c7be 7551 b03e a738 fbbc
00000360: 5933 39be 9d2a 7e3d 5365 843d 2d21 0ebf
00000370: 4cb5 253e 3420 8a3e f892 70be 7b11 3abf
00000380: 8092 1ebf f2ce 69be e26d 19bf a963 bfbe
00000390: 43d2 81be b2db 8abe ffc3 4c3c 12a5 fdbd
000003a0: d5d7 c5bd 0b22 003e bd49 773e 762a 04bf
000003b0: d228 0cbf 93b0 24bf 4d2a 34bf 8c39 54bd
000003c0: ae42 08bf 90b2 9e3e f9e8 59bf 1552 8f3e
000003d0: d0d7 21bf 988b 27bd 3b32 07bf 2e07 583c
000003e0: ab00 27bf 71dd b0be cc98 55bf 689e bc3d
000003f0: 4c71 983e ff28 7cbd 869d 21bf 0544 5ebf
0.14001645 -1.7424071 -2.113954 0.08841559 -1.397551 0.44223183 -1.9674999 -1.9192984
-2.1249733 -1.7800316 0.041085247 0.05201538 0.29784307 -1.5070535 -1.8883014 -2.1952834
-0.039713953 -2.3327324 -1.9547377 0.036902197 -1.7840588 -0.40202016 0.39826843 -1.5574245
0.096980445 0.5107632 0.3672695 -2.0735545 0.47730103 0.41462624 -0.41813195 -1.9917462
-1.7221577 -0.51315606 -1.9399178 0.012286528 -0.096664876 0.032090608 0.1574916 0.34768474
0.14552084 0.41547698 0.4289751 -0.1106153 -1.1528231 -1.9648378 -2.161349 0.034451738
-2.0155776 0.47305176 -2.229183 0.5811472 -2.0655036 -0.051609315 -0.36534032 0.47624183
-2.0197163 -0.65916973 -1.8929495 0.52939296 0.2375949 -0.13390681 -1.8874602 -1.9332609
0.50898975 1.5906088 1.1982368 -0.29280597 0.5427925 -0.44401908 1.1271454 2.2316363
1.9791081 0.6511104 0.14871389 -0.059631154 0.6257389 2.0434465 1.7239305 1.8147953
-0.12093021 2.028575 1.469903 0.29330528 0.72098243 0.42429096 -0.41409415 0.029051133
0.14855513 -0.2588366 -0.14063914 1.7380571 -0.1504721 -0.50841004 -0.10281039 1.3544877
0.90632695 0.2896362 1.2993885 0.19053991 0.08250122 -0.056921028 -0.029974524 -0.123072624
-0.2381483 -0.26927307 -0.41669446 0.060664278 1.3507992 1.3361548 1.5194963 0.1576705
1.2001592 -0.3279394 1.6751564 -0.30526534 1.2454445 -0.16769005 0.4523324 -0.039656445
1.6466792 0.6462892 2.5902832 -0.0057159695 -0.36267173 -0.19648728 1.4335173 1.9809972
-0.43773594 -0.7559012 -0.3323479 0.058867645 -0.29565924 0.19726598 -0.39982766 -0.38456112
-0.64796555 -0.33223835 -0.26112497 -0.13726395 -0.14669637 -0.3472247 -0.50822073 -0.61751443
-0.2643201 -0.55572313 -0.5652773 -0.37959793 -0.2576766 -0.46440223 0.17239343 -0.0016282428
-0.23949191 0.049899872 0.008873805 -0.5306496 0.11584535 0.15726447 -0.3497548 -0.5483979
-0.49275288 -0.35306266 -0.48101237 -0.23427854 -0.1806889 -0.30206743 -0.034167178 -0.0702567
0.018082699 0.3200669 0.16717815 -0.45437378 -0.400037 -0.45155567 -0.61587125 -0.070219465
-0.4536518 0.11727225 -0.47718298 0.2733346 -0.45616692 -0.089672685 -0.7098548 -0.08927142
-0.39674684 -0.40433633 -0.6110795 -0.012699777 0.28755245 -0.16442594 -0.54276615 -0.40498647
-0.455319 -0.9747207 -0.63142973 0.004658943 -0.31070372 0.16582161 -0.5906066 -0.65239894
-0.9011596 -0.554389 -0.46701476 -0.04937557 -0.38701203 -0.7301374 -0.8347879 -0.8478691
-0.17111865 -0.9451037 -0.6920795 -0.30583066 -0.5123486 -0.3905815 0.34437147 -0.030666662
-0.18085994 0.062052358 0.064646386 -0.5551937 0.1618244 0.26977694 -0.23493564 -0.72682923
-0.6194229 -0.2283285 -0.5993329 -0.37380722 -0.2535573 -0.2712074 0.012497901 -0.12385
-0.09660307 0.12512986 0.24149223 -0.5162729 -0.54749787 -0.6433193 -0.70377046 -0.051812693
-0.53226745 0.30995607 -0.85121113 0.2799231 -0.6321993 -0.04090461 -0.5281102 0.0131853055
-0.65235394 -0.34543946 -0.83436275 0.09209901 0.2977394 -0.061562534 -0.63130987 -0.8682254

convs.1.linear1.bias f4 [64]
00000000: 49fc 42be 0446 2c3f 2f59 8cbe a0c6 abbe
00000010: 300a 473f 4e1e 163f a362 07bb 78cd c53e
00000020: 3c62 3d3f 9df4 633b 89ad 043f 6177 143e
00000030: ec40 0b3f f897 983e 8215 053f 8301 313f
00000040: 696b 45be 732b 243f 7147 c2be f453 debe
00000050: b8c7 0dbf 98e9 4f3e abcd 00bf 520c cb3d
00000060: 2398 fd3d 454e f43e b28e 293e 9b7d 0d3f
00000070: 07aa cd3d 5b8c 983e afc1 db3d af10 b8be
00000080: 90f7 9b3e f210 c33d 4310 d83e 6ff5 88be
00000090: 8797 313f 91ba 273f bee9 e13d c323 3dbf
000000a0: fa83 3a3c 6d45 ea3e 0a50 f23d 2959 d73b
000000b0: 6727 17bf 1fae 483f e473 983d 3f2f bcbe
000000c0: 96c9 20be 2b3c d63e c28a c03e 7237 1c3f
000000d0: 8737 433f c7b2 8b3d 1dda 3dbf 5861 b53e
000000e0: 3a26 f53e 739b 9fbb bb44 543d 970b 1d3f
000000f0: 6b8b 11bf 6c71 1d3f cbdf f7bd d69c 393d
-0.19041552 0.67294335 -0.27411792 -0.33549976 0.7774992 0.5863999 -0.0020658157 0.38633323
0.7397802 0.0034783252 0.51827294 0.14498664 0.5439594 0.29803443 0.51985943 0.6914293
-0.19279255 0.641288 -0.3794513 -0.43423426 -0.5538287 0.20303953 -0.50313824 0.09914459
0.123825334 0.47715965 0.1655834 0.55269784 0.10042196 0.29794583 0.107303016 -0.3595023
0.30462313 0.095247164 0.42199907 -0.2674975 0.6937184 0.6551905 0.11030911 -0.73882693
0.011384005 0.45756093 0.118316725 0.006571908 -0.590445 0.7839069 0.074439794 -0.36754796
-0.15701899 0.4184278 0.37605864 0.610221 0.76256603 0.068212084 -0.7416094 0.3542583
0.47880727 -0.004870826 0.05182336 0.6134581 -0.5685336 0.61501193 -0.12103232 0.045315586

convs.1.linear2.weight f4 [64, 64]
00000000: 6b89 5dbe 0e3e f63e b776 59bd e3a7 c8be
00000010: 7d58 603f 5374 6b3f b31a d43d 5f47 103f
00000020: 04f8 463f b12d 2a3e cf45 fd3e 8b0b 923e
00000030: 1d3c 0f3f fd51 143f 8d27 753f 5eaf 0f3f
00000040: 1ef0 8bbe a0e6 3b3f d01a 35be c7cc 25bf
00000050: 02b5 04bf 4cdb 113d 421c 0bbf ef74 3f3e
00000060: 55b7 9f3d 0c42 443f a0c4 a23e a6e2 653f
00000070: 8843 0fbd 5d4c b33e dc27 98bb 3ef0 c4be
00000080: 839d 0d3f 1b34 193e 5917 3b3f dd80 59bd
00000090: 62e0 2d3f b314 133f 9e4f 053e 6c06 7ebf
000000a0: 23c2 e63e 33d2 2d3f 87cf 903e 2dbf be3e
000000b0: ef9b 4bbf 41be 933f 5aee 733e ca09 cebe
000000c0: 9257 b3be 1339 5a3f 7e18 823f 45e9 4a3f
000000d0: 4caa 583f 201a e23d e7b5 43bf 20fd b33f
000000e0: 24ec ab3e cf94 35be 1666 86be c2c6 4b3f
000000f0: 649e 05bf 05a0 1b3f da2b 103e c172 a33d
00000100: 3817 70be 40df f03e 29b6 babe 6db6 04bf
00000110: fd32 2b3f 608f 6e3f 6154 3dbd a908 233f
00000120: 5365 1e3f 839f 01be ae32 063f 3873 d03e
00000130: b924 1a3f 4231 0e3f d8e2 4b3f 2639 163f
00000140: 2d9f a2be 91ce 4d3f dd2a 00bf a537 27bf
00000150: 45a2 ecbe 914e 513e 106f 25bf bfb7 5e3e
00000160: c5fa 3b3e f616 103f 1657 9a3d 32ef 673f
00000170: f34a 18bc de1c d23e 69e2 773d 2519 bcbe
00000180: 0164 1c3f 77cd 9d3d 099c 523f 1fb8 efbe
00000190: 1dc7 233f e743 053f 6467 5d3e 2335 8bbf
000001a0: 4eef 9abd 2b7d 253f 7f5c 023e 7633 0a3e
000001b0: 87d1 3bbf 5397 4a3f 31aa 973e 8de6 05bf
000001c0: 9c01 76be 18fd 523f a88e 653f d98d 563f
000001d0: 7044 413f a436 303c 5d37 4fbf b152 653f
000001e0: 55f0 903e 5c17 0abe 6497 193e c7d5 323f
000001f0: 091f 02bf 5e45 f33e a0f3 fbbd d07f 963c
00000200: c1b8 23be c1d6 c03e 712e dfbd 36c5 b0be
00000210: 8957 643f 05fd 643f e47c 173d f598 013f
00000220: 432c 193f 200d 783d cc40 103f 8b01 093e
00000230: 1c1e 273f 0d48 0a3f 22bd 683f 9ec9 1c3f
00000240: 51fa 88be 1349 573f 8075 88be 5a3b 06bf
00000250: f4c0 bfbe 8545 8c3d 49e3 04bf 109c 3c3e
00000260: 9955 4f3e 1444 193f b14e a63e 4044 473f
00000270: 0390 4c3e 6164 d13e 20d8 323d fca8 60be
00000280: 21c9 f73e ba17 903e 83a6 383f d5e3 eebd
00000290: f88f 413f 2ff8 f63e 73bf 6a3e 02b8 4bbf
000002a0: 4278 943e 890e 383f 78fe 713e 0f3d 3e3e
000002b0: 6c13 15bf efef 8b3f 6944 3b3e bc9e 2abe
000002c0: 27ce 80be 0737 583f 3289 8d3f 4788 433f
000002d0: 1f2d 1e3f ed1f 373e 02e8 2ebf 4473 a63f
000002e0: 0410 b83e ce99 64be 932b f7bd c141 333f
000002f0: 9f3b e6be a1fe 2a3f edae e03d f9a7 733d
00000300: 4758 a33e 3c88 11bf 79a5 933e 65b4 183e
00000310: 665c 52bf 2308 86bf 250c 353e 85c0 1abf
00000320: 9032 23bf f813 e3bd bd00 25bf 6a8e 8dbe
00000330: 980c 22bf b017 cfbe 7245 3fbf 8ed0 d3be
00000340: 445c 6e3e 7e20 2bbf 68e7 b43e 1fa2 9c3e
00000350: 864a db3e dc3e 013d da81 023f c458 e1bd
00000360: 42e8 24be d45e 0fbf 52d1 213e f162 78bf
00000370: a9fb b2bd fce6 bcbe 2e65 10be 1cb5 943e
00000380: 15f9 a5be 9fc3 0bbe 3935 26bf b475 32bd
00000390: 21ce 01bf 13d8 28bf 2dbc 47be 5dce e23e
000003a0: f24b 7dbe 1126 15bf b22f 58be 7564 03bd
000003b0: 6017 153f ba5e 53bf a52a 99bc 29c8 933e
000003c0: 956d 2a3a 5d8f 54bf eba6 4abf 6042 4abf
000003d0: 4960 65bf 5b84 c5bc 2085 493f 3f33 30bf
000003e0: 59a5 bfbe 9a9d 36bc a346 2a3e c3ed 41bf
000003f0: 3cbc d73e 0288 07bf 94fc bbbc bd14 f4bb
-0.21634452 0.4809422 -0.05309173 -0.39190587 0.8763502 0.9197437 0.10356655 0.56358904
0.7772219 0.16618992 0.49467322 0.28524432 0.559511 0.57937604 0.95763475 0.56126964
-0.27331632 0.7339878 -0.1768601 -0.6476559 -0.51838696 0.03560953 -0.54339993 0.1869695
0.0779864 0.7666328 0.31790638 0.89798963 -0.034976512 0.35019198 -0.0046434235 -0.3846454
0.5531847 0.14961283 0.730825 -0.05310141 0.67920506 0.5745346 0.13018653 -0.9922855
0.4506999 0.67898864 0.2828333 0.3725523 -0.7953481 1.1542436 0.23821393 -0.40241843
-0.35027748 0.8524334 1.0163724 0.7926219 0.8463485 0.11040139 -0.76449436 1.4061623
0.33578598 -0.17732547 -0.2624976 0.79600155 -0.5219481 0.60791045 0.14079228 0.07980872
-0.23446357 0.47045326 -0.36467102 -0.5184086 0.66874677 0.9318752 -0.046223048 0.6368509
0.6187336 -0.12658505 0.5242108 0.40712905 0.60212284 0.5554391 0.7964301 0.5868095
-0.31762066 0.8039332 -0.50065404 -0.6531928 -0.46217552 0.20440127 -0.6462259 0.21749781
0.1835738 0.56285036 0.075361416 0.9059936 -0.009295213 0.4103765 0.060518656 -0.36737934
0.61090094 0.07705205 0.8226934 -0.4682016 0.639757 0.52056736 0.21621472 -1.0875591
-0.07565175 0.64644116 0.12730597 0.13496193 -0.7336659 0.7913715 0.29622033 -0.5230492
-0.24024051 0.8241744 0.896708 0.8381019 0.7549505 0.010755215 -0.8094385 0.895793
0.2830836 -0.13485473 0.14999157 0.6985745 -0.50828606 0.4751386 -0.12302327 0.018371493
-0.15988447 0.37663844 -0.1089753 -0.3452546 0.8919607 0.8944858 0.03698434 0.5062402
0.59833163 0.060559392 0.5634887 0.13379495 0.6528032 0.5401619 0.90913594 0.61245143
-0.26753476 0.8409588 -0.26652145 -0.52434313 -0.374519 0.06849197 -0.5190931 0.18418908
0.20247497 0.59869504 0.32481912 0.77838516 0.19976811 0.40896896 0.043663144 -0.21939462
0.48395637 0.28143102 0.72129077 -0.11664549 0.75610304 0.48236224 0.22924595 -0.7957765
0.28998 0.7189718 0.23632228 0.1857798 -0.5823276 1.0932597 0.18287815 -0.16662115
-0.25157282 0.84458965 1.1057494 0.7637982 0.617876 0.17883272 -0.68322766 1.3003926
0.3594972 -0.22324297 -0.12068858 0.7002221 -0.44967362 0.6679478 0.109708644 0.059486363
0.31903288 -0.568485 0.28837183 0.14912565 -0.8217224 -1.0471233 0.17680414 -0.6045001
-0.6374903 -0.11087793 -0.6445425 -0.27647716 -0.63300467 -0.4044776 -0.7471534 -0.41370052
0.23277384 -0.66846454 0.353328 0.3059244 0.42830294 0.031554088 0.5097939 -0.11003259
-0.16104224 -0.5600407 0.15802506 -0.9702597 -0.087394066 -0.36894977 -0.14101097 0.29044425
-0.32416597 -0.13648842 -0.6492496 -0.04356928 -0.5070515 -0.65954703 -0.19505377 0.44298068
-0.24736002 -0.5826121 -0.21111944 -0.032078225 0.5823879 -0.82566416 -0.018697092 0.28863648
0.00065013143 -0.83031255 -0.79160947 -0.7900753 -0.89600044 -0.024110964 0.7871876 -0.68828195
-0.37430838 -0.011145974 0.16628508 -0.7575342 0.421358 -0.52941906 -0.022947587 -0.0074487613

convs.1.linear2.bias f4 [64]
00000000: ad52 b53e c61c 993e 1138 8d3e 79b8 79be
00000010: 2fa5 cc3c 583c 8b3e dc89 24be 4252 1cbe
00000020: 699f 2dbe ca01 b63e 8835 fa3d 4cce 773d
00000030: 8e51 59bd e586 9abe 33e3 093e 3127 053d
00000040: 3929 8d3d ffb9 0fbe 9fde 563e 25fc d43e
00000050: 8c51 a3be 07f8 373d 4ff2 a53e ec96 c43d
00000060: 63e7 b0bd 63bf 44be f52e 9b3e 3198 ecbd
00000070: 82fe 1cbe 0a0d 833e 17f1 ca3e 99f6 3dbe
00000080: ed7d ad3e 18e6 0cbe 80bf 40bd fbb2 693e
00000090: 16c3 40be b28f c6bb d97c ddbd 2d5a 47be
000000a0: a6d0 b93e ff20 9abe 5d81 7c3d 475b 4dbe
000000b0: f920 8cbd ebb3 4b3e e147 ad3e 693a 8d3e
000000c0: 47f3 bf3e 314e fabd 0d27 a53e 6bbb a93e
000000d0: 6f2c ab3e 4574 9c3e 8104 af3e 1ae0 94be
000000e0: 35ce 85be 119e ee3e f410 84be 6fe9 153e
000000f0: 4158 1ebe 1c87 eebc 8d29 35be 756f 443e
0.3541464 0.29904765 0.27581838 -0.24386777 0.02498111 0.27194476 -0.16068214 -0.15265754
-0.16955341 0.3554824 0.122172415 0.060499474 -0.053056292 -0.3018104 0.13465576 0.03250808
0.06892628 -0.14035796 0.2098336 0.4159862 -0.31898153 0.04491427 0.3241143 0.095990986
-0.086378835 -0.19213633 0.30309263 -0.11552466 -0.15331462 0.25595886 0.39637062 -0.18551101
0.33885136 -0.13759649 -0.04705763 0.22822182 -0.1882442 -0.0060596103 -0.108148284 -0.19467993
0.36292 -0.301033 0.061646808 -0.20054351 -0.068422265 0.19892852 0.33843902 0.27583626
0.37490293 -0.12221945 0.32256356 0.331508 0.33432338 0.30557457 0.34183124 -0.29077226
-0.26133886 0.4660497 -0.25794184 0.14639829 -0.15463354 -0.02911716 -0.17691632 0.19183142

mlp1.weight f4 [64, 192]
00000000: 45bd 4d3e 8f8d 8abe 0bca 733e 3526 24be
00000010: 6722 87bc 6900 e4bd 3bc1 d23d 9f85 283e
00000020: 4e93 633e be4f d1bd 1520 02bc 11e6 ba3d
00000030: 1d3e 80bc 2a9f 93be b8a0 ee3d 3f60 4c3e
00000040: bd85 83bd 712c f3bc 8ef8 e7bd 8ad7 293e
00000050: 7748 493c 4eb9 b1bd f0b9 9dbe ee81 91be
00000060: eb75 1f3d 3a05 bcbc f37c a6bc 4fa4 443e
00000070: 356f 0f3d 1b62 acbe a330 d83d ef51 d83d
00000080: ca73 a33d 6184 a7bd 42a5 97be b39d 033e
00000090: e7b5 803e 55ae 4d3e cbe8 783e e523 26be
000000a0: 4590 b73d d880 063d 8699 85bb 230b 773e
000000b0: 06b8 b5bd d550 b63c a7e5 73be a3d5 50bd
000000c0: 70c9 ed3d d1ef 9b3e 7985 09bd 2767 8cbd
000000d0: 514d ccbe 5dfc ca3e 6338 a9bc 7faa 98be
000000e0: 8792 3e3e 948e 743d 152a 54be 8b0f f53d
000000f0: 266c 7c3e d610 8d3e a0bf 54bd bbe3 bbbc
00000100: 1b57 52bd 5793 af3b 5a78 5abe 762a c1bd
00000110: a288 4dbd 5220 6c3e 09d9 dbbd c8c3 25be
00000120: 5085 37be 976d 05be ae96 633d 6cb4 6dbd
00000130: a53e 9cbc a2fc 92be a645 1fbe 1f65 eabd
00000140: 8b32 28be b045 f9bd 74aa aebc 2728 11bd
00000150: b2da 10be 3fbb 9abe 7742 373e f1f6 35be
00000160: fa2d c8bc 1ce2 973e 816b d23e 0085 113d
00000170: 8aa8 493e 2b58 3c3e b39c 89be d0fd debd
00000180: 7b98 5fba 7205 80bd 2ea8 1abb f782 3e3c
00000190: 84ef 39bd 50b7 a2bd 07ed e83c 8c16 803d
000001a0: 73b4 373d ca10 4d3e 6593 343e 08e4 653e
000001b0: 2173 28be a040 30be 5ca8 46bd 1dd1 1f3d
000001c0: b3fc 82bd 32c8 843e 5db0 bcbd e92c 9a3e
000001d0: 33d3 42bd ef23 2ebd a243 6b3a 2f44 ca3e
000001e0: 935a b2bd c1fa 2f3c 6d69 b1be ae38 a73e
000001f0: 2221 823e 5f87 48bb e94e 77bc 6f60 20be
00000200: aa3b 493d e3dd 4f3a d2b2 6fbc bf7d a7bc
00000210: 9cd0 c2be 7ecd 3d3d affd 0dbc 571f 5b3b
00000220: 3299 cabd d36e 833d 8ae3 c1bd 75e6 9f3d
00000230: d2a2 463d 4e68 81bd 6324 61bd 5d35 a3be
00000240: efb5 803e b9fd 43bb 7ea7 42be e715 8d3d
00000250: 693d 16bd fdb3 afbe a18f a03d 0b5a cebc
00000260: 17a2 df3b 9b46 61bd b248 dd3d a4f9 703d
00000270: 2901 f1bd 62de 8d3d c879 afbc da6c 77bd
00000280: d4d1 343d d2e8 3b3d dc94 26bf dc88 993d
00000290: fabe cdbc 0293 9bbe baaf b13d b97c 223d
000002a0: 2b2e 043d fbef bcbd 7c68 193e 3b77 e4bd
000002b0: 064d 50bb 19f6 28bf 2edf 493d 21dd 0c3d
000002c0: aa21 abbd a78f 38bc 872f c33c b6a7 5c3d
000002d0: 8028 8e3b 00ea 11bd a172 f93d 0306 a5bd
000002e0: 353a fbbd 3032 01bc dd26 16bd 81a9 43bd
000002f0: ea00 7b3d 8d4c eabd 6cb3 bbbd fec1 25be
00000300: 77f2 b93d 88d8 a03d 4c76 bcbe 224f 483e
00000310: a668 15be 2ef5 d33d 9d75 dabd d0c3 b8be
00000320: ffa8 7cbe 777c 823e 1051 88be ebc7 7a3d
00000330: 2f96 223d 8b4e 713e 3219 bdbc 1037 b3be
00000340: 45c5 0fbe fd52 6e3e 79b0 9e3e 108e f5bd
00000350: 18ff bebd 299e 95bd c8e5 8b3e 7bae 8a3e
00000360: 1fc2 61be 911b eebc 36c2 06be c35a 75bd
00000370: c02d 45be e57c 573e a27d ff3d 1973 84be
00000380: 2bce 163e dd4a 64be 09dd 0a3e 92d3 92be
00000390: 0c7f babc 97c0 8bbe a706 a0bd 6afa 013e
000003a0: 7af1 b4be 686f c43b b8e0 40be eb88 b0be
000003b0: 5a90 5a3e 109e 093e 3ac9 d73e becd a13e
000003c0: e4e5 ccbe c8a7 cabc e1a7 8bbb fd88 643e
000003d0: 1a70 6a3e 321d 56be 9696 90be 0403 663e
000003e0: 7a0e e7be 8a13 273e 214f 233d adfc 32bb
000003f0: 67bc e6bd 794f a4bd f42c 28be 7906 69be
0.20091732 -0.27061126 0.23807542 -0.160302 -0.016495897 -0.11132891 0.10290762 0.16457222
0.22224161 -0.10220288 -0.007942219 0.09125913 -0.015654618 -0.2883237 0.116517484 0.1995859
-0.06421993 -0.029684277 -0.11326705 0.16586128 0.012285343 -0.08677922 -0.30805922 -0.2841944
0.038930815 -0.022951711 -0.020323252 0.19203304 0.035018165 -0.336686 0.10556152 0.105625026
0.079810694 -0.08179546 -0.2961827 0.12853126 0.2513878 0.20086034 0.24307553 -0.1622463
0.08963064 0.03283772 -0.0040771393 0.24125342 -0.0887299 0.02225534 -0.23818074 -0.05098499
0.11610687 0.30456403 -0.033574555 -0.06855612 -0.39902738 0.39645663 -0.02065677 -0.29817578
0.18610583 0.059706286 -0.20719178 0.11965855 0.2465063 0.27551907 -0.05194056 -0.022935739
-0.0513526 0.0053581404 -0.21334973 -0.09431927 -0.05017913 0.23059204 -0.107347555 -0.16187966
-0.17921948 -0.13030086 0.05556362 -0.05803339 -0.01907284 -0.2870837 -0.15553913 -0.114450686
-0.1642553 -0.12171495 -0.021321513 -0.035438683 -0.14145926 -0.30220982 0.17896448 -0.17769982
-0.024435986 0.29664695 0.41097644 0.03552723 0.19693199 0.18393008 -0.26877365 -0.10888255
-0.0008529496 -0.062510386 -0.0023598778 0.011627904 -0.045394436 -0.0794512 0.028433336 0.062543005
0.044849824 0.20025936 0.17634352 0.22450268 -0.16450168 -0.17212152 -0.048500404 0.039017785
-0.06395855 0.25933987 -0.09213326 0.3011239 -0.047564697 -0.042514738 0.00089746166 0.39505145
-0.08708682 0.010740937 -0.34650746 0.3266043 0.25415903 -0.0030598266 -0.015094497 -0.15661786
0.049129166 0.0007929487 -0.014630036 -0.020445703 -0.3804978 0.04633855 -0.00866644 0.0033435428
-0.09892501 0.064176224 -0.09467228 0.07807628 0.04849512 -0.06318723 -0.05496634 -0.3187665
0.25138804 -0.002990587 -0.19009206 0.06888943 -0.03667966 -0.34317008 0.07839895 -0.02518942
0.0068247425 -0.054998975 0.10804881 0.058831826 -0.117677994 0.06927182 -0.021420375 -0.060406543
0.04414542 0.04587633 -0.6507089 0.07496807 -0.025115479 -0.30385596 0.08676095 0.039669726
0.03227059 -0.0922546 0.14981264 -0.11155554 -0.003178419 -0.66000515 0.049285106 0.034390572
-0.0835603 -0.011264718 0.023826374 0.05387088 0.004338324 -0.03562355 0.12180067 -0.08057787
-0.122669615 -0.007885501 -0.036658157 -0.047769073 0.06128017 -0.11440382 -0.091650814 -0.16187283
0.090794496 0.078538 -0.36809003 0.19561437 -0.14590701 0.10349499 -0.10666964 -0.36086893
-0.24673842 0.25485584 -0.26624346 0.061225813 0.039694007 0.23565118 -0.023083303 -0.35002947
-0.14040096 0.23273845 0.30994013 -0.11989987 -0.09325999 -0.07305557 0.27323747 0.27086243
-0.22046708 -0.029065879 -0.13160023 -0.05990101 -0.19255733 0.21043737 0.124751344 -0.25869063
0.14727084 -0.22294183 0.1356088 -0.2867704 -0.022765659 -0.27295372 -0.07813769 0.12693182
-0.35340482 0.005994726 -0.18835723 -0.3447946 0.21344128 0.13439202 0.4214571 0.3160228
-0.40019143 -0.024738207 -0.004261956 0.22317882 0.22894326 -0.20909575 -0.28239888 0.22462088
-0.45128232 0.16316047 0.039870385 -0.002731125 -0.11266404 -0.08022971 -0.16423398 -0.22756375

mlp1.bias f4 [64]
00000000: ef60 e33d fc2a a23c 7a88 08be 4058 4cbe
00000010: 06c3 74bd 86bf bdbc 1799 fdbb bc72 23bd
00000020: 6529 533e f8d5 c03d b919 3b3e 3cfe 433c
00000030: 9c53 003e b511 ca3d b316 a5bd c48d e33c
00000040: 4bd0 a3bd 98c2 af3c cb2f 2b3d 56f5 083d
00000050: f0c2 17be ce15 0a3e 5110 d53d 6b5f b33d
00000060: 2913 db3b 8d3e 523e b497 cb3d d4c0 e3bd
00000070: fefc eb3d 7a8f 1a3e bdb5 a33d c3c0 803d
00000080: f16f ba3f 660d 20bd 774a 82be cec5 bdbb
00000090: 139c 7abd 2cec f43b 1ebf a33d 90ba 223e
000000a0: 9172 c93e 4e23 1f3e a947 0e3d b40b c43d
000000b0: 7fad e13b c665 fc3d 5aee 89be c785 32bc
000000c0: 9913 3b3d cb80 75bd 72a5 67be d8f3 6e3d
000000d0: 3c50 80be b715 c7bc ac48 ccbc 36af d0bd
000000e0: fb8a 54be a838 af3c 4fbd 87be afea 3d3d
000000f0: 2c55 093f 8098 c43c da8d 243d 86d4 bcbd
0.11102473 0.019795887 -0.13333312 -0.1995554 -0.0597563 -0.023162615 -0.007739197 -0.03990434
0.2062126 0.09415811 0.18271531 0.01196247 0.12531894 0.098666586 -0.0806097 0.02777756
-0.07998713 0.021455094 0.041793626 0.033437096 -0.14820457 0.1348488 0.10403503 0.08758434
0.0066856337 0.20531674 0.099410444 -0.111207634 0.11522864 0.15093794 0.07993648 0.062867664
1.4565412 -0.039075278 -0.25447437 -0.0057914024 -0.061184 0.007474443 0.07995437 0.1589148
0.3934522 0.15540811 0.03473631 0.09572545 0.0068871374 0.12324099 -0.2693966 -0.010896153
0.045672987 -0.05993728 -0.22621706 0.058338016 -0.25061214 -0.024302347 -0.024936996 -0.10189669
-0.20756142 0.02138932 -0.26511618 0.04636639 0.53645587 0.023998499 0.040174343 -0.09220223
