Saved_Models/TSP_100/scatgnn_layer_2_hid_64_model_250_temp_3.500.pth (torch, 153863 bytes, 24 tensors)

bn0.weight f4 [2]
1.0 1.0
00000000: 0000 803f 0000 803f

bn0.bias f4 [2]
0.0 0.0
00000000: 0000 0000 0000 0000

bn0.running_mean f4 [2]
0.0 0.0
00000000: 0000 0000 0000 0000

bn0.running_var f4 [2]
1.0 1.0
00000000: 0000 803f 0000 803f

in_proj.weight f4 [64, 2]
0.8336457 0.4964057 -0.93153137 0.17423646 1.0591565 -0.40910682 0.31245694 1.4823753
0.2617291 -0.70712256 0.52840126 1.3449793 0.9322196 0.7472978 0.21714047 -1.4266827
1.2117575 0.17992347 -0.8240033 0.90104026 1.0076076 -0.33793905 1.0416747 0.5693036
-1.1760212 -1.4182347 -0.7945704 0.22361988 -0.7078231 -1.4688258 0.91713625 -1.2045497
0.782733 0.019634254 0.107778676 1.2532966 -1.3221177 0.1088815 -0.3151257 -1.1098728
1.3868911 1.2625939 1.1855322 0.84566444 -0.78854924 0.63022023 -0.7061202 1.2110093
-0.16862266 -1.2789497 0.86273414 0.48826167 -0.858591 -1.3708526 -0.30964816 -1.0321603
0.95111454 -0.14014177 -0.6908479 1.0266296 0.8164999 1.1069632 1.1667727 0.3217902
0.6675828 1.3702847 0.09257484 -1.0424426 -0.37652346 0.9984134 1.0056455 -0.46470645
0.7682791 0.26018074 0.04528189 -1.1882526 0.9742888 0.19372697 -1.2389421 0.01909222
0.8623673 -0.510733 -0.8566902 -1.2057006 0.46529 -0.96363527 1.1838454 -0.63764226
-1.2248902 -0.09272637 -1.0538172 -0.1912829 -0.61922735 0.45604765 -0.36212546 1.2797341
0.22653396 -1.0464827 0.5489592 -0.25545233 -1.2001343 -1.2446175 -0.7548008 0.61266464
-0.9995348 1.134922 0.74200445 -0.74348396 0.9232327 -0.8489666 -0.65403616 0.6006682
1.0522069 -0.7052119 -1.0907905 -0.40862912 -1.1019481 -0.47656363 -0.5920518 -1.1005923
0.3661589 -0.76236296 0.30723158 -1.1057754 -0.031562984 -1.0180284 1.1689267 -0.28347954
00000000: ce69 553f e328 fe3e d778 6ebf 0b6b 323e
00000010: 7192 873f 7376 d1be 5bfa 9f3e 79be bd3f
00000020: 5b01 863e fc05 35bf 4e45 073f 4828 ac3f
00000030: f2a5 6e3f e94e 3f3f 125a 5e3e 8a9d b6bf
00000040: df1a 9b3f dc3d 383e e1f1 52bf 93aa 663f
00000050: 49f9 803f 5906 adbe 9955 853f e1bd 113f
00000060: dd87 96bf b788 b5bf f768 4bbf 9cfc 643e
00000070: e533 35bf 7c02 bcbf 71c9 6a3f af2e 9abf
00000080: 3161 483f 04d8 a03c 11bb dc3d 066c a03f
00000090: 273b a9bf 44fd de3d 2858 a1be 5010 8ebf
000000a0: a685 b13f ad9c a13f 85bf 973f 777d 583f
000000b0: 5dde 49bf 1d56 213f 4bc4 34bf 5a02 9b3f
000000c0: 6bab 2cbe a0b4 a3bf 25dc 5c3f 6ffd f93e
000000d0: 9fcc 5bbf 1978 afbf 348a 9ebe d41d 84bf
000000e0: 3e7c 733f 5381 0fbe 68db 30bf 9968 833f
000000f0: 2306 513f f8b0 8d3f cf58 953f afc1 a43e
00000100: b5e6 2a3f 7d65 af3f e197 bd3d c26e 85bf
00000110: afc7 c0be 0598 7f3f feb8 803f 01ee edbe
00000120: f0ad 443f 6936 853e 8179 393d a918 98bf
00000130: fe6a 793f 5d60 463e a895 9ebf 4a67 9c3c
00000140: 1ac4 5c3f 66bf 02bf 0d50 5bbf 6654 9abf
00000150: 7e3a ee3e cdb0 76bf 3f88 973f 863c 23bf
00000160: 34c9 9cbf 53e7 bdbd 7be3 86bf aadf 43be
00000170: af85 1ebf 147f e93e 8268 b9be 54ce a33f
00000180: 85f8 673e 25f3 85bf 9788 0c3f a6ca 82be
00000190: 009e 99bf a04f 9fbf a03a 41bf 97d7 1c3f
000001a0: 83e1 7fbf 2045 913f 01f4 3d3f f754 3ebf
000001b0: fa58 6c3f e055 59bf ea6e 27bf 64c5 193f
000001c0: b7ae 863f c488 34bf 069f 8bbf d637 d1be
000001d0: a30c 8dbf 2600 f4be b590 17bf 35e0 8cbf
000001e0: 2e79 bb3e 382a 43bf 754d 9d3e 0c8a 8dbf
000001f0: 3048 01bd c14e 82bf 649f 953f 3b24 91be

in_proj.bias f4 [64]
0.55022556 -0.2093288 0.012632095 0.0051610842 -0.49420264 -0.22455935 0.035618547 -0.14148156
0.055225905 0.5771053 -0.49748346 0.49925438 -0.112128645 -0.16276515 0.19222975 -0.06592459
-0.49114636 0.013562225 0.044008944 0.53521603 0.005969557 -0.3838968 -0.07362848 -0.08633519
-0.14723384 -0.34930333 -0.3708079 0.52228326 -0.58347774 -0.5093239 0.6320938 -0.015517881
0.62506855 -0.43454596 -0.60959655 -0.18699725 0.4963461 0.027087228 0.68759996 -0.25239456
-0.117336415 0.24495998 -0.5015838 0.11759616 0.121939875 0.58440495 0.008335747 0.25382537
-0.09038379 0.4138765 -0.35550812 0.285419 -0.3846372 0.29880315 -0.5660078 -0.26288003
-0.086562715 0.52661693 -0.46482277 0.506833 0.3455991 0.5058742 -0.48963025 -0.56974477
00000000: 95db 0c3f 4a5a 56be d9f6 4e3c 501e a93b
00000010: 2108 fdbe e3f2 65be c1e4 113d 8be0 10be
00000020: 8f34 623d 2cbd 133f 27b6 febe 459e ff3e
00000030: b4a3 e5bd e8ab 26be e0d7 443e 7903 87bd
00000040: 8977 fbbe 1834 5e3c b942 343d eb03 093f
00000050: 469c c33b 1f8e c4be 87ca 96bd 81d0 b0bd
00000060: 78c4 16be e3d7 b2be 88da bdbe 5bb4 053f
00000070: cc5e 15bf 0d63 02bf e6d0 213f b63e 7ebc
00000080: 7e04 203f cf7c debe 850e 1cbf 357c 3fbe
00000090: 1321 fe3e 09e6 dd3c 8d06 303f dc39 81be
000000a0: 134e f0bd cad6 7a3e cc67 00bf 41d6 f03d
000000b0: 9dbb f93d 909b 153f a892 083c 66f5 813e
000000c0: 231b b9bd 9fe7 d33e 2905 b6be 7022 923e
000000d0: 2bef c4be bafc 983e e3e5 10bf 3698 86be
000000e0: cb47 b1bd 5ed0 063f 40fd edbe cfbf 013f
000000f0: 5ef2 b03e f980 013f d1b0 fabe cbda 11bf

convs.0.a f4 [128, 1]
-0.048073445 0.028585367 -0.026705889 0.0034271094 -3.2579697e-05 -0.019726101 -0.054504752 -0.034363113
-0.04976295 0.01577985 -0.0033024338 -0.07121303 -0.029681759 0.0299412 -0.052766755 -0.02233574
0.0 0.0064149797 0.031574875 -0.025825242 -0.046703175 -0.011372708 0.05003741 0.040232245
-0.025905095 0.0037488465 -0.025584681 -0.034197725 -2.5151861e-05 0.013208201 -0.036382098 -0.039711002
-0.03712831 -0.0050576357 0.00032577277 -0.013916051 -0.050657485 -0.03739708 -0.039669532 0.030468548
-0.011870499 -0.027893923 -0.0034854705 -0.04348923 0.029511925 0.00955772 0.039891973 0.018877298
-0.030260623 -0.07154118 -0.024183191 0.03812955 0.036394354 -0.06966389 -0.0060929377 0.02431649
-0.018209884 -0.0067143487 0.0049468502 -0.033480637 -0.046800055 -0.05709893 -0.00063398445 -0.0034435608
-0.30709696 0.61825436 0.62121737 0.5887336 0.6417923 0.7543923 0.2434818 0.6232032
0.44764388 -0.30008847 0.67612684 -0.25471616 0.82174593 0.65970963 0.08901077 0.6247321
0.64808613 0.44666678 0.5201015 -0.28205836 0.41947076 0.78454965 0.65450716 0.6510476
0.6251541 0.6886232 0.757845 -0.26760432 0.6413367 0.623092 -0.25335196 0.63481456
-0.20753314 0.6113801 0.60785323 0.6621763 -0.3263982 0.6087845 -0.3316116 0.6332132
0.63863146 -0.015707169 0.65100276 0.48980623 0.3579488 -0.29624987 0.58478194 -0.030457571
0.62509054 -0.36349332 0.8705995 -0.22150947 0.6292212 -0.21532713 0.6059327 0.6819176
0.6507916 -0.2499353 0.6319913 -0.22941571 -0.28936586 -0.30243272 0.6059065 0.68124396
00000000: a9e8 44bd dc2b ea3c 4fc6 dabc 5b99 603b
00000010: 2fa6 08b8 a298 a1bc 6040 5fbd 56c0 0cbd
00000020: 3cd4 4bbd be44 813c a56d 58bb 23d8 91bd
00000030: 2927 f3bc 3f47 f53c f421 58bd 71f9 b6bc
00000040: 0000 0000 c034 d23b a854 013d 758f d3bc
00000050: d44b 3fbd 9854 3abc 07f4 4c3d 91ca 243d
00000060: ec36 d4bc 35af 753b f796 d1bc ea12 0cbd
00000070: 36fd d2b7 3667 583c 6505 15bd 01a8 22bd
00000080: db13 18bd 86ba a5bb 7bcc aa39 2600 64bc
00000090: 397e 4fbd ae2d 19bd 857c 22bd 2d99 f93c
000000a0: 7b7c 42bc cc81 e4bc 7e6c 64bb c321 32bd
000000b0: fec2 f13c fc97 1c3c c465 233d 90a4 9a3c
000000c0: 20e5 f7bc 2f84 92bd d41b c6bc bb2d 1c3d
000000d0: 3f12 153d f1ab 8ebd 44a7 c7bb 6033 c73c
000000e0: e52c 95bc 0a04 dcbb 3019 a23b fe22 09bd
000000f0: 6ab1 3fbd 91e0 69bd fa31 26ba 5dad 61bb
00000100: d03b 9dbe eb45 1e3f 1a08 1f3f 3fb7 163f
00000110: 804c 243f db1f 413f 4b53 793e 3f8a 1f3f
00000120: 9431 e53e 32a5 99be a616 2d3f 286a 82be
00000130: f15d 523f bbe2 283f 474b b63d 71ee 1f3f
00000140: f9e8 253f 82b1 e43e 5f25 053f f469 90be
00000150: dfc4 d63e 3fd8 483f c88d 273f 0eab 263f
00000160: 190a 203f 9c49 303f 2102 423f 6f03 89be
00000170: a42e 243f f582 1f3f 59b7 81be 3583 223f
00000180: 9183 54be 6883 1c3f 459c 1b3f 6384 293f
00000190: aa1d a7be 4dd9 1b3f ffc8 a9be 431a 223f
000001a0: 5a7d 233f 52ac 80bc 1ea8 263f e2c7 fa3e
000001b0: 1145 b73e 10ae 97be 45b4 153f 2882 f9bc
000001c0: ef05 203f cc1b babe 9cdf 5e3f 61d3 62be
000001d0: a414 213f b77e 5cbe 681e 1b3f 2792 2e3f
000001e0: 479a 263f 0aef 7fbe 2fca 213f f4eb 6abe
000001f0: c327 94be 76d8 9abe b01c 1b3f 0166 2e3f

convs.0.linear1.weight f4 [64, 64]
0.20020974 0.3678893 0.32505983 0.5074243 0.480289 0.46397504 0.13237222 0.49364114
0.45413262 0.43625244 0.48426566 0.23745495 0.21244608 0.27505776 0.23207065 0.49954453
0.30023572 0.47307163 0.23078746 0.16412318 0.16543217 0.32286802 0.40482795 0.43963975
0.5014852 0.46450222 0.15713549 0.16957916 0.41881862 0.33744293 0.028709143 0.5500639
0.11079204 0.47008118 0.5345802 0.48276898 0.22241929 0.4615595 0.14508438 0.4528885
0.44817105 0.14615151 0.4471706 0.24094579 0.34418347 0.12849414 0.4644816 0.49049503
0.38826287 0.18772124 0.25965798 0.39970827 0.36022577 0.37615258 0.22415523 0.37857547
0.3260082 0.24332765 0.39908552 0.28915343 0.5253671 0.4256723 0.41775104 0.35490593
0.032465234 -0.11957778 -0.5035537 0.066720404 -0.28934485 -0.11896214 0.13288034 -0.21536884
0.0042987633 -0.39596426 -0.5404564 0.21905188 -0.014316801 -0.37521514 -0.07942644 -0.5887287
-0.031342823 -0.10603803 0.0016128678 -0.039371826 -0.052043956 0.11885967 -0.6497808 -0.42319363
0.028672678 0.024276828 0.074271865 0.09755897 -0.20132156 -0.5746475 0.09458173 -0.05889518
-0.017855654 -0.23636532 -0.44629613 -0.50541633 0.11189598 -0.1573639 -0.023080807 -0.24221218
-0.63749677 -0.0013725219 -0.6240186 -0.50153077 0.018828757 -0.034832295 -0.4913941 -0.051473282
-0.25378406 -0.07893275 0.020706497 -0.20432484 -0.5376824 -0.23061538 -0.53274596 -0.6032086
-0.57552004 0.019789845 0.17135458 0.06549293 -0.19246568 -0.23441514 -0.07720441 -0.45086268
-0.16008943 -0.08180734 -0.23152135 -0.2181267 -0.1917042 -0.27168187 -0.1502203 -0.12863019
-0.20295955 -0.096450746 -0.26072848 -0.20831536 -0.045460813 -0.25096482 -0.03195207 -0.15974331
-0.24431013 -0.168609 -0.07278165 -0.17698805 -0.24210113 -0.27440348 -0.094374366 -0.082177036
-0.25020087 -0.27550763 -0.10704191 -0.012068088 -0.10308359 -0.04243 -0.21100134 -0.24038388
-0.051054712 -0.27647835 -0.21240489 -0.22014864 -0.06379611 -0.106945 0.028553797 -0.17561144
-0.02806464 -0.23233643 -0.21560755 0.009391242 -0.13732806 0.02602578 0.038957622 0.025941327
-0.15047698 -0.06638349 -0.16425572 0.05095336 -0.080633596 -0.07138646 0.054598767 0.020491075
-0.06139896 -0.19121292 -0.2538432 -0.10336692 -0.051744703 -0.13811009 -0.21928276 -0.11240552
0.28156418 0.27616975 0.26284063 0.2515595 0.3599324 0.27777156 0.24398981 0.3141443
0.4736776 0.2328229 0.44466665 0.27499965 0.15200324 0.24671069 0.1493598 0.36512178
0.2495466 0.41133946 0.31683365 0.30333072 0.17023426 0.46096987 0.35286933 0.46279743
0.34977642 0.6120651 0.36930576 0.25604162 0.33848715 0.20084232 0.11361883 0.5688853
0.21742946 0.47910044 0.34475794 0.2995685 0.22579663 0.23611106 0.25727394 0.3008755
0.37611747 0.13215739 0.3915177 0.26218656 0.3337818 0.28371763 0.35940567 0.29588547
0.3580407 0.21882407 0.31514046 0.39233378 0.36437067 0.3008825 0.22201346 0.36592543
0.2303971 0.27647582 0.40215364 0.26157117 0.26602903 0.18667895 0.42294386 0.4627924
00000000: c803 4d3e fd5b bc3e 3e6e a63e 8fe6 013f
00000010: 71e8 f53e 238e ed3e 958c 073e 88be fc3e
00000020: 1284 e83e 7b5c df3e abf1 f73e 6427 733e
00000030: 778b 593e 5fd4 8c3e eea3 6d3e 4dc4 ff3e
00000040: 7fb8 993e 7236 f23e 8c53 6c3e e80f 283e
00000050: 0d67 293e f54e a53e 9c45 cf3e 7618 e13e
00000060: 5661 003f 3cd3 ed3e 20e8 203e 29a6 2d3e
00000070: 656f d63e 52c5 ac3e 702f eb3c fdd0 0c3f
00000080: f0e6 e23d 7bae f03e 3fda 083f 7f2d f73e
00000090: e2c1 633e 8751 ec3e 0091 143e 00e1 e73e
000000a0: ad76 e53e bea8 153e 8bf3 e43e 7eba 763e
000000b0: d138 b03e f893 033e 88d0 ed3e 2a22 fb3e
000000c0: 64ca c63e ff39 403e e4f1 843e 90a6 cc3e
000000d0: 836f b83e 1297 c03e f388 653e a5d4 c13e
000000e0: 8cea a63e e22a 793e f054 cc3e eb0b 943e
000000f0: 757e 063f b8f1 d93e 77e3 d53e 3bb6 b53e
00000100: 44fa 043d 32e5 f4bd e5e8 00bf b5a4 883d
00000110: 0225 94be 6ca2 f3bd c911 083e a689 5cbe
00000120: a4dc 8c3b d4bb cabe 5a5b 0abf 234f 603e
00000130: 0491 6abc 331c c0be 54aa a2bd edb6 16bf
00000140: 5561 00bd 772a d9bd dd66 d33a 5a44 21bd
00000150: 0b2c 55bd b36c f33d 0958 26bf d6ac d8be
00000160: f7e2 ea3c 33e0 c63c d91b 983d ffcc c73d
00000170: 3d27 4ebe 191c 13bf 11b4 c13d 123c 71bd
00000180: 0546 92bc c009 72be ed80 e4be f762 01bf
00000190: b829 e53d 0124 21be f613 bdbc 7806 78be
000001a0: fd32 23bf 31e6 b3ba afbf 1fbf 5264 00bf
000001b0: c43e 9a3c 4fac 0ebd 0298 fbbe a6d5 52bd
000001c0: fcef 81be 7ea7 a1bd aca0 a93c 883a 51be
000001d0: 8ea5 09bf 7026 6cbe 0a62 08bf e16b 1abf
000001e0: 4855 13bf 501e a23c 9377 2f3e 2821 863d
000001f0: b915 45be 860a 70be 591d 9ebd 79d7 e6be
00000200: 7cee 23be 9b8a a7bd ef13 6dbe 9b5c 5fbe
00000210: 1b4e 44be e319 8bbe 5ad3 19be a2b7 03be
00000220: a1d4 4fbe f887 c5bd 347e 85be 9f50 55be
00000230: 1e35 3abd 767e 80be 2ce0 02bd c093 23be
00000240: 6f2c 7abe d6a7 2cbe 8c0e 95bd 5b3c 35be
00000250: 5ce9 77be 9d7e 8cbe 5947 c1bd 6f4c a8bd
00000260: 541a 80be 560f 8dbe ca38 dbbd 3bb9 45bc
00000270: 7d1d d3bd 14cb 2dbd bc10 58be 3127 76be
00000280: bf1e 51bd 928e 8dbe ab80 59be a56e 61be
00000290: 89a7 82bd fb05 dbbd a7e9 e93c 7cd3 33be
000002a0: d1e7 e5bc 9ae9 6dbe 3ac8 5cbe b9dd 193c
000002b0: ba9f 0cbe 0434 d53c 0792 1f3d e882 d43c
000002c0: a316 1abe 11f4 87bd a732 28be 78b4 503d
000002d0: 3a23 a5bd 1033 92bd f5a2 5f3d e6dc a73c
000002e0: 7a7d 7bbd 52cd 43be bcf7 81be 09b2 d3bd
000002f0: 41f2 53bd bb6c 0dbe a98b 60be de34 e6bd
00000300: 2e29 903e 1f66 8d3e 0c93 863e 68cc 803e
00000310: 0f49 b83e 1338 8e3e 77d8 793e 86d7 a03e
00000320: df85 f23e 2069 6e3e 59ab e33e c1cc 8c3e
00000330: bda6 1b3e baa1 7c3e c7f1 183e 3ef1 ba3e
00000340: 2589 7f3e 169b d23e 0538 a23e 2a4e 9b3e
00000350: e451 2e3e 3e04 ec3e 4aab b43e c9f3 ec3e
00000360: e515 b33e 4cb0 1c3f a515 bd3e e317 833e
00000370: 304e ad3e 9ca9 4d3e fdb0 e83d 78a2 113f
00000380: d4a5 5e3e a74c f53e 1d84 b03e 0b61 993e
00000390: 3b37 673e 19c7 713e 69b9 833e 5b0c 9a3e
000003a0: 7892 c03e 4454 073e 0275 c83e 513d 863e
000003b0: 73e5 aa3e 7043 913e 0504 b83e 4d7e 973e
000003c0: 1c51 b73e 6b13 603e 175a a13e f9df c83e
000003d0: cb8e ba3e 450d 9a3e 7f57 633e 945a bb3e
000003e0: 38ed 6b3e 3d8e 8d3e 15e7 cd3e a8ec 853e
000003f0: f534 883e c428 3f3e 198c d83e 20f3 ec3e

convs.0.linear1.bias f4 [64]
0.101370275 -0.005868109 0.2438802 -0.045720678 0.1733624 -0.2105345 0.059156477 -0.22693303
0.14419094 -0.075841516 0.215821 -0.12879345 0.21484731 0.25688353 0.095478386 -0.11559765
0.19419447 -0.13760577 0.24821945 -0.04822525 -0.014967811 -0.06804864 0.06452018 -0.072791845
0.15324858 0.09215197 -0.15321524 -0.034301803 0.015387957 0.06182817 0.17534135 -0.04404754
-0.051821288 0.051692154 0.23882033 -0.078210436 -0.079098925 -0.10937636 0.11480324 0.06964716
0.018668674 -0.05980396 0.09423113 -0.03998677 0.12020335 0.01795822 -0.036641277 -0.09442567
-0.08814999 0.2352356 -0.014019787 -0.11756384 -0.10557843 0.21872592 -0.18513224 0.27922234
-0.043858267 0.061849326 0.090917416 0.20316546 0.042640198 0.010407052 -0.0010380651 -0.03218199
00000000: 389b cf3d 4449 c0bb bbbb 793e 9b45 3bbd
00000010: ea85 313e 5b96 57be 104e 723d 2261 68be
00000020: caa6 133e cc52 9bbd 2e00 5d3e 6ee2 03be
00000030: ef00 5c3e 3d86 833e 2c8a c33d 76be ecbd
00000040: eada 463e 87e8 0cbe 3d2d 7e3e d787 45bd
00000050: 8d3b 75bc 165d 8bbd 2823 843d e413 95bd
00000060: 32ed 1c3e 2cba bc3d 75e4 1cbe 0c80 0cbd
00000070: c51d 7c3c 893f 7d3d af8c 333e 316b 34bd
00000080: 8f42 54bd 27bb 533d 518d 743e cb2c a0bd
00000090: 9efe a1bd b700 e0bd f61d eb3d 2ca3 8e3d
000000a0: 0cef 983c fff4 74bd 40fc c03d 2bc9 23bd
000000b0: 2d2d f63d 1e1d 933c 2a15 16bd 3f62 c1bd
000000c0: fb87 b4bd 9ae1 703e 40b3 65bc 4fc5 f0bd
000000d0: 8139 d8bd b0f9 5f3e 4e93 3dbe 3bf6 8e3e
000000e0: baa4 33bd b855 7d3d e932 ba3d 9b0a 503e
000000f0: 7da7 2e3d 5782 2a3c af0f 88ba 43d1 03bd

convs.0.linear2.weight f4 [64, 64]
0.066742964 0.28283772 0.060646918 0.052081037 -0.04047319 0.10942351 0.1170473 -0.19809708
-0.043432016 -0.07473418 -0.18976012 -0.0060878647 -0.041507028 0.07319446 0.023352016 -0.0011075973
0.0015587228 0.06340667 -0.035147186 0.24248292 0.06201958 -0.65429264 0.63818955 -0.3435552
-0.19905111 0.25952616 -0.110666834 -0.07868904 -0.10807267 -0.020841716 -0.08497465 0.4156042
-0.07325073 0.0042205877 -0.092661545 -0.025717784 -0.024400428 -0.6108602 0.11607046 -0.046904378
-0.15134905 -0.082399584 -0.6175882 0.118032806 0.117833115 -0.14549984 0.21729942 -0.15643147
-0.39492002 -0.07616264 -0.14377096 0.013993439 0.06440515 -0.008040905 0.1970084 0.06795206
0.2612801 0.0077236495 0.47914565 -0.112911314 0.05091011 -0.18419789 -0.07202792 0.047139317
-0.57078815 1.5809598 0.37976116 -1.3290706 0.24827601 -0.30667797 -0.44484374 -0.35356933
-0.30828136 0.41446307 0.4145808 0.2177472 0.10208306 0.35032785 -0.40245676 0.37390625
0.22412881 0.37893426 0.22260427 -1.2788118 -1.0360647 0.19115417 -0.37855634 0.43920788
0.3816909 0.23464337 -0.14405222 0.6658828 -0.7138433 -0.5601167 -0.20741372 -0.55508876
0.49294367 -0.5512481 0.37684652 0.47343907 0.33066463 0.13807018 -0.44266766 -0.38606817
1.1286095 0.5985904 0.25053725 -1.452836 -0.46068472 1.0408586 -1.2199888 0.51733524
-0.8124362 0.24846014 0.54706365 0.2665822 0.39737806 0.35700613 -0.22666632 0.3904353
-1.4169977 -0.46020865 -0.43195197 0.2834032 -0.8256037 0.49717268 -0.6770175 -1.5009652
-0.034886606 -0.10919371 -0.6161482 0.18127117 -0.6460473 0.725731 0.004224638 0.09240298
-0.114132985 -0.022412796 -1.0324982 -0.009154124 -0.5491119 -0.6856863 -0.10440928 0.040308848
-0.5354062 0.019631945 -0.68417263 0.22744529 0.07939152 -0.15182804 0.8656943 -0.1680695
-0.71061295 -0.515874 0.35017323 0.107022874 0.11747203 -0.1094906 -0.096896164 0.50839067
-0.07306095 0.04665535 -0.8606962 0.014434777 0.035020564 -0.18522775 -0.07047343 -0.11761271
-0.17763674 0.09070118 -0.45998394 0.15553004 0.045583297 -0.0054261503 0.24383321 -0.16279984
-0.035885133 -0.7594566 -0.20316458 -0.026635835 0.07557269 -0.8617208 0.32200897 -0.747878
0.14417864 -0.014176098 0.274081 -0.46422666 -0.09003986 -0.038826585 0.08259483 0.17951567
0.28936714 -0.42276672 -0.074470475 0.4214445 -0.073649175 0.117683515 0.27816132 -0.012005953
0.23884521 -0.2888265 -0.2156752 -0.16129078 -0.17849493 -0.19424824 0.28749835 -0.19313015
-0.15704824 -0.07076117 -0.29464844 0.5300848 0.3497112 0.8956384 -0.19185908 -0.21502379
-0.20290841 -0.46082777 0.31130758 -0.39354703 0.35881853 0.19547941 0.110128716 0.19968206
-0.30290586 0.35494676 -0.10838358 -0.1329898 -0.31333357 0.71696365 0.28000936 0.25547206
-0.2714173 -0.34194282 0.56968004 0.39336994 0.0707732 -0.3728686 0.41650662 -0.030423347
0.86882895 -0.17849338 -0.38942778 -0.18054049 -0.2221843 -0.07384815 -0.18928881 -0.26704076
0.51601857 0.13525711 -0.14021374 -0.07522575 0.3329587 -0.16473584 0.22091796 0.44889718
00000000: 89b0 883d 1bd0 903e e768 783d ed52 553d
00000010: 37c7 25bd 6f19 e03d 7fb6 ef3d f6d9 4abe
00000020: c5e5 31bd 3c0e 99bd 7a50 42be b67c c7bb
00000030: 4603 2abd fae6 953d ba4c bf3c cc2c 91ba
00000040: 0f4e cc3a 5bdb 813d 7ff6 0fbd 714d 783e
00000050: 3e08 7e3d b97f 27bf 6460 233f 78e6 afbe
00000060: 0ed4 4bbe 9de0 843e 4ba5 e2bd b827 a1bd
00000070: 3455 ddbd 3fbc aabc 3007 aebd 13ca d43e
00000080: 7b04 96bd db4c 8a3b 56c5 bdbd 1aae d2bc
00000090: 68e3 c7bc 5661 1cbf 59b6 ed3d ce1e 40bd
000000a0: 3ffb 1abe 1dc1 a8bd 431a 1ebf 2fbb f13d
000000b0: 7d52 f13d e9fd 14be bd83 5e3e 922f 20be
000000c0: f532 cabe 28fb 9bbd b238 13be bd44 653c
000000d0: d9e6 833d 00be 03bc 92bc 493e 732a 8b3d
000000e0: 81c6 853e ab16 fd3b 9452 f53e 0c3e e7bd
000000f0: 1f87 503d 5f9e 3cbe 6083 93bd 2815 413d
00000100: 2c1f 12bf e45c ca3f 0e70 c23e fc1e aabf
00000110: 113c 7e3e e504 9dbe 8fc2 e3be 0a07 b5be
00000120: 0ed7 9dbe 8134 d43e ef43 d43e 1ff9 5e3e
00000130: ec10 d13d 2c5e b33e d00e cebe a470 bf3e
00000140: 0682 653e ac03 c23e 60f2 633e 1bb0 a3bf
00000150: c59d 84bf ebbd 433e 23d2 c1be dbdf e03e
00000160: fd6c c33e 5a46 703e 6d82 13be 4c77 2a3f
00000170: 6fbe 36bf cf63 0fbf 4364 54be 4c1a 0ebf
00000180: 1d63 fc3e 981e 0dbf 07f2 c03e 9b66 f23e
00000190: e04c a93e 4562 0d3e 56a5 e2be baaa c5be
000001a0: 4776 903f 383d 193f 6b46 803e 88f6 b9bf
000001b0: dede ebbe db3a 853f 9828 9cbf 1570 043f
000001c0: d2fb 4fbf 566c 7e3e 5d0c 0c3f 767d 883e
000001d0: 2375 cb3e 82c9 b63e 371b 68be 23e7 c73e
000001e0: 2e60 b5bf 78a0 ebbe cf28 ddbe 391a 913e
000001f0: c45a 53bf 6b8d fe3e 0551 2dbf a11f c0bf
00000200: 42e5 0ebd f4a0 dfbd e3bb 1dbf 269f 393e
00000210: 5b63 25bf 82c9 393f d56e 8a3b c63d bd3d
00000220: 8ebe e9bd 0a9b b7bc e728 84bf 2efb 15bc
00000230: 9992 0cbf 2389 2fbf 88d4 d5bd e41a 253d
00000240: 6110 09bf 2cd3 a03c f025 2fbf 6be7 683e
00000250: 0598 a23d cf78 1bbe 249e 5d3f 691a 2cbe
00000260: bbea 35bf 5210 04bf e849 b33e cf2e db3d
00000270: 2d95 f03d 9c3c e0bd 7f71 c6bd e425 023f
00000280: fba0 95bd ae19 3f3d 9656 5cbf d87f 6c3c
00000290: b971 0f3d 58ac 3dbe 6054 90bd efde f0bd
000002a0: 68e6 35be 8ac1 b93d 0483 ebbe 4443 1f3e
000002b0: 8db5 3a3d d9cd b1bb 6aaf 793e 00b5 26be
000002c0: 4afc 12bd bf6b 42bf 600a 50be 6533 dabc
000002d0: dbc5 9a3d bc99 5cbf 5cde a43e ef74 3fbf
000002e0: 91a3 133e dd42 68bc 5854 8c3e 1eaf edbe
000002f0: d166 b8bd a008 1fbd 7a27 a93d f5d2 373e
00000300: ee27 943e e174 d8be fa83 98bd 93c7 d73e
00000310: 61d5 96bd 0e04 f13d 296b 8e3e 9eb4 44bc
00000320: d793 743e 11e1 93be f6d9 5cbe 6929 25be
00000330: 60c7 36be 03e9 46be fc32 933e e9c3 45be
00000340: 41d1 20be 3beb 90bd 29dc 96be a3b3 073f
00000350: 590d b33e 8f48 653f b576 44be 322f 5cbe
00000360: 39c7 4fbe 9ef1 ebbe b563 9f3e ff7e c9be
00000370: 10b7 b73e c12b 483e 2a8b e13d 7479 4c3e
00000380: 7a16 9bbe 95bb b53e 36f8 ddbd 7a2e 08be
00000390: 426d a0be ee8a 373f 635d 8f3e 3ccd 823e
000003a0: 35f7 8abe 2113 afbe 8dd6 113f c967 c93e
000003b0: 8af1 903d a2e8 bebe 5b40 d53e 623a f9bc
000003c0: 936b 5e3f f8c6 36be 1463 c7be 9bdf 38be
000003d0: 4884 63be b33d 97bd edd4 41be 91b9 88be
000003e0: cb19 043f d780 0a3e 3194 0fbe f50f 9abd
000003f0: 9079 aa3e 83b0 28be 5138 623e dad5 e53e

convs.0.linear2.bias f4 [64]
0.094894014 -0.061491545 -0.39801884 -0.029770046 -0.11604351 0.22308634 -0.25052774 -0.28346407
-0.2906924 -0.18495564 -0.07920926 -0.0048842463 -0.007555109 -0.39514375 -0.16313204 -0.35456747
-0.047690716 -0.28419647 -0.20607562 0.036934536 -0.19123232 0.12709583 0.32544905 -0.1813919
0.020408425 0.19893447 0.12914872 -0.12883005 0.22656031 0.2990348 -0.012951629 -0.28427574
-0.11765221 -0.13567923 -0.23855393 0.059865892 0.086136706 -0.020381985 0.10410285 -0.0068498533
0.14677477 0.32318696 0.29719543 -0.15014857 -0.09097455 -0.32741463 -0.20676209 0.006597206
-0.3707042 0.2457774 -0.2749187 0.19402772 -0.42059857 0.004129491 -0.09872402 0.063317046
-0.16606066 -0.057218295 -0.1807558 0.24841167 0.21848466 -0.03304532 -0.04333593 -0.26196474
00000000: cb57 c23d 8fde 7bbd 20c9 cbbe 50e0 f3bc
00000010: 38a8 edbd bf70 643e 2c45 80be 3422 91be
00000020: a2d5 94be 0365 3dbe 7738 a2bd 070c a0bb
00000030: d990 f7bb 4850 cabe 160c 27be de89 b5be
00000040: 5757 43bd 3382 91be 7d05 53be ab48 173d
00000050: 68d2 43be 6925 023e 42a1 a63e ccbe 39be
00000060: 922f a73c 7ab5 4b3e 903f 043e 06ec 03be
00000070: 6dff 673e 171b 993e 1233 54bc 978c 91be
00000080: a4f3 f0bd 7fef 0abe 7b47 74be f035 753d
00000090: 7168 b03d 1ff8 a6bc e033 d53d bc74 e0bb
000000a0: 204c 163e c378 a53e 002a 983e 8cc0 19be
000000b0: dd50 babd e4a2 a7be 71b9 53be 602d d83b
000000c0: f1cc bdbe 12ad 7b3e 25c2 8cbe 34af 463e
000000d0: b258 d7be ae50 873b d22f cabd 5eac 813d
000000e0: ce0b 2abe bb5d 6abd 0c18 39be a15f 7e3e
000000f0: 71ba 5f3e 885a 07bd 0481 31bd 3e20 86be

convs.1.a f4 [128, 1]
0.3071806 0.15357572 0.00029648488 0.36577472 -0.00011103505 0.29342204 -5.565321e-06 -7.22559e-05
-6.7599205e-05 -3.5040437e-05 0.05728952 0.34442267 0.23205446 -9.065754e-05 0.003937248 -1.096228e-06
0.17025347 1.2962572e-06 4.5648845e-05 0.27714998 -0.011564615 0.31980813 0.25551933 -0.00020532598
0.28588775 0.2309957 0.21759896 6.3560838e-06 0.2657592 0.282929 0.18794803 -0.00024580996
-3.6099e-05 1.6021524e-05 -1.9269337e-06 0.32812884 0.3247009 0.34595397 0.34404218 0.034966346
0.3514503 0.27815837 0.29035378 0.081367664 -0.0003431371 -0.0004278382 -8.000505e-06 0.3528324
2.3246175e-06 0.2625648 -2.6715895e-06 0.24874145 -1.3660525e-06 0.26400995 0.07246343 0.24814965
1.2081947e-05 -9.468047e-05 -2.6877453e-05 0.25775674 0.29313883 0.13690558 -4.334353e-06 2.592779e-05
-0.35455704 -2.0132403 -1.5274763 -0.00049495674 -2.3619351 0.37591916 -3.4899936 -3.9399214
-3.2581434 -3.0567982 0.6018234 -0.07210139 -1.144894 -3.912386 -3.0199187 -3.933505
-0.6440658 -3.810082 -3.4271047 0.17209035 -2.3325675 1.7105999 0.52353066 -1.1439446
-0.02505805 0.21095851 0.69408756 -3.593184 0.3790442 0.3564456 0.86595356 -3.48757
-2.7367976 -2.0724916 -3.4844809 0.16908173 0.21196412 0.33748156 0.15880196 0.519776
0.6508862 0.38254732 0.35652643 0.7419772 -2.7325087 -3.073131 -3.679704 0.29943824
-3.4828951 0.43698537 -3.7621534 -0.17312995 -3.4385352 0.28304332 1.2438194 0.08351642
-3.4577825 -2.216746 -3.866449 0.012019425 0.4920969 0.6612102 -3.1819303 -3.170719
00000000: c746 9d3e f442 1d3e 8771 9b39 d346 bb3e
00000010: 7ddb e8b8 6a3b 963e bebd bab6 1788 97b8
00000020: 0cc4 8db8 62f8 12b8 6aa8 6a3d 2b58 b03e
00000030: af9f 6d3e 651f beb8 0804 813b 1b22 93b5
00000040: ed56 2e3e 0ffb ad35 1377 3f38 9ae6 8d3e
00000050: 8379 3dbc e4bd a33e 6ed3 823e c64c 57b9
00000060: e15f 923e 238a 6c3e 43d2 5e3e 5846 d536
00000070: 9711 883e 12dc 903e 7375 403e 0ee0 80b9
00000080: 0269 17b8 f665 8637 7850 01b6 8100 a83e
00000090: 323f a63e e120 b13e 4c26 b03e df38 0f3d
000000a0: 4bf1 b33e c66a 8e3e 40a9 943e 17a4 a63d
000000b0: 15e7 b3b9 794f e0b9 e839 06b7 73a6 b43e
000000c0: a000 1c36 e56e 863e 8f49 33b6 14b6 7e3e
000000d0: 3559 b7b5 502c 873e b567 943d f11a 7e3e
000000e0: 91b3 4a37 318f c6b8 e476 e1b7 b1f8 833e
000000f0: 4b16 963e fa30 0c3e cf6f 91b6 817f d937
00000100: 8088 b5be eed8 00c0 5884 c3bf fcbf 01ba
00000110: f229 17c0 7a78 c03e 0e5c 5fc0 ac27 7cc0
00000120: 6c85 50c0 95a2 43c0 1911 1a3f e5a9 93bd
00000130: e38b 92bf 8864 7ac0 5946 41c0 8cbe 7bc0
00000140: 7fe1 24bf 62d8 73c0 af55 5bc0 7438 303e
00000150: c948 15c0 f0f4 da3f 1b06 063f c76c 92bf
00000160: 8a46 cdbc 8205 583e b9af 313f baf6 65c0
00000170: 1512 c23e 0a80 b63e 22af 5d3f 5934 5fc0
00000180: b127 2fc0 b4a3 04c0 bc01 5fc0 c323 2d3e
00000190: 1f0d 593e 62ca ac3e fb9c 223e 0a10 053f
000001a0: 7aa0 263f 3edd c33e a28a b63e 38f2 3d3f
000001b0: 6ce1 2ec0 2eae 44c0 4580 6bc0 f84f 993e
000001c0: c1e7 5ec0 8cbc df3e 1fc7 70c0 fa48 31be
000001d0: f610 5cc0 0eeb 903e 7935 9f3f a80a ab3d
000001e0: 4f4c 5dc0 2bdf 0dc0 e773 77c0 1fed 443c
000001f0: 20f4 fb3e 1245 293f bfa4 4bc0 0fed 4ac0

convs.1.linear1.weight f4 [64, 64]
0.14334272 -1.7499876 -2.1156466 0.08767427 -1.4049288 0.441561 -1.9708763 -1.9256996
-2.1336782 -1.7872647 0.033021234 0.051301174 0.29920596 -1.5133858 -1.8921161 -2.1999319
-0.041492727 -2.3383505 -1.9588883 0.0402805 -1.7926576 -0.40348607 0.39698893 -1.563351
0.09908786 0.51118284 0.3642597 -2.0786407 0.47657228 0.41389152 -0.42416784 -1.9950746
-1.7263668 -0.51727945 -1.9434149 0.013978667 -0.095529325 0.032549385 0.15828037 0.34135485
0.14432923 0.41478416 0.4282193 -0.110545754 -1.1557703 -1.9713782 -2.1647124 0.03542445
-2.0190332 0.47203428 -2.2327702 0.5824814 -2.068886 -0.05437414 -0.37132463 0.47761798
-2.0254142 -0.66477466 -1.9014914 0.53005093 0.23643175 -0.13907574 -1.8974614 -1.941616
0.506838 1.59482 1.2096442 -0.28980458 0.55651075 -0.44484332 1.130953 2.2417884
1.9952676 0.6661696 0.13798724 -0.05708306 0.62812835 2.0572176 1.7243648 1.8206587
-0.12432807 2.0362167 1.4746792 0.2943014 0.73833287 0.4257444 -0.41374642 0.037592564
0.14989172 -0.26329648 -0.15080865 1.7448502 -0.15182379 -0.5078073 -0.09984061 1.358126
0.9113797 0.2944144 1.303116 0.19244327 0.08468389 -0.054791465 -0.02773498 -0.13243629
-0.23695979 -0.26855955 -0.41582835 0.051961888 1.3616375 1.3502643 1.5231516 0.15942806
1.2040491 -0.32826844 1.6790779 -0.3059151 1.249041 -0.16606982 0.44153365 -0.044391386
1.6543683 0.65375817 2.6067603 -0.008596082 -0.36215994 -0.20265646 1.453562 1.9969724
-0.4378728 -0.75808483 -0.3335587 0.057474323 -0.29725575 0.19750117 -0.40061197 -0.3860852
-0.6498938 -0.33432305 -0.26098168 -0.13892257 -0.14887448 -0.3491667 -0.5085464 -0.61860186
-0.26490095 -0.5570781 -0.5661577 -0.3800918 -0.25979927 -0.46500367 0.17212468 -0.0027647382
-0.24070808 0.052196883 0.011424963 -0.5317557 0.11614975 0.15695013 -0.35107753 -0.5491372
-0.49365678 -0.35385743 -0.48175365 -0.23488681 -0.18120605 -0.30271524 -0.034797374 -0.072071604
0.017586745 0.31967008 0.16671254 -0.44085664 -0.40127438 -0.45339462 -0.61660254 -0.070796035
-0.4544775 0.11720748 -0.47793385 0.27397954 -0.45689943 -0.091993146 -0.70324486 -0.087318234
-0.39802486 -0.40537357 -0.61292636 -0.0112903565 0.2873173 -0.16669694 -0.54533815 -0.40698004
-0.45297885 -0.9779074 -0.6333888 0.0044102557 -0.31391883 0.16619639 -0.5927349 -0.65570855
-0.90505785 -0.5582769 -0.4609283 -0.049582288 -0.3864944 -0.73383707 -0.83590055 -0.8504515
-0.16771793 -0.94813067 -0.69435555 -0.30447105 -0.5163964 -0.39077634 0.3443829 -0.033309992
-0.17978859 0.064838514 0.0686059 -0.55778325 0.16223015 0.2699521 -0.23614432 -0.72892094
-0.6216299 -0.23033944 -0.6013779 -0.37303165 -0.25297323 -0.2709075 0.012950793 -0.11970575
-0.096618325 0.12529644 0.24160954 -0.50363904 -0.5498096 -0.6467975 -0.70580906 -0.05119476
-0.5344786 0.31013352 -0.8532915 0.28093475 -0.6342587 -0.04126208 -0.51742417 0.016332613
-0.655236 -0.34782183 -0.8381501 0.093922704 0.29778317 -0.059099723 -0.6362298 -0.8721516
00000000: 6fc8 123e 98ff dfbf c166 07c0 918e b33d
00000010: b5d4 b3bf 4914 e23e ad45 fcbf 537d f6bf
00000020: 2f8e 08c0 17c5 e4bf 4641 073d 2e21 523d
00000030: 8631 993e a0b6 c1bf dc30 f2bf afcb 0cc0
00000040: 47f4 29bd 89a7 15c0 dabc fabf 2afd 243d
00000050: ce75 e5bf ba95 cebe 2242 cb3e e31b c8bf
00000060: 93ee ca3d e1dc 023f 3f80 ba3e 7308 05c0
00000070: 4801 f43e 97e9 d33e 872c d9be 9b5e ffbf
00000080: 96f9 dcbf 6d6c 04bf d2c1 f8bf c706 653c
00000090: e1a4 c3bd 8152 053d 4014 223e 10c6 ae3e
000000a0: 0bcb 133e 975e d43e 8f3f db3e d065 e2bd
000000b0: 48f0 93bf 1f56 fcbf a68a 0ac0 3a19 113d
000000c0: d737 01c0 7aae f13e b5e5 0ec0 801d 153f
000000d0: a168 04c0 6bb7 5ebd 431e bebe 588a f43e
000000e0: 63a0 01c0 ac2e 2abf 1264 f3bf 6bb1 073f
000000f0: 2a1b 723e df69 0ebe 04e0 f2bf e086 f8bf
00000100: 23c0 013f 1023 cc3f 9fd5 9a3f 4461 94be
00000110: 7d77 0e3f 81c2 e3be 11c3 903f 7679 0f40
00000120: ee64 ff3f 178a 2a3f 874c 0d3e edcf 69bd
00000130: 05cd 203f 74a9 0340 fcb7 dc3f 580b e93f
00000140: b79f febd 6051 0240 4ac2 bc3f acae 963e
00000150: 6203 3d3f 2cfb d93e 92d6 d3be a9fa 193d
00000160: 377d 193e ccce 86be 956d 1abe 4057 df3f
00000170: b277 1bbe a9ff 01bf 3c79 ccbd 13d7 ad3f
00000180: 2e50 693f 7cbd 963e 81cc a63f d90f 453e
00000190: bf6e ad3d 046d 60bd 7834 e3bc 619d 07be
000001a0: 96a5 72be a380 89be 74e7 d4be fdd5 543d
000001b0: 234a ae3f 76d5 ac3f a2f6 c23f 1c41 233e
000001c0: 481e 9a3f cd12 a8be 06ec d63f e7a0 9cbe
000001d0: 93e0 9f3f 350e 2abe b310 e23e bed3 35bd
000001e0: 57c2 d33f b25c 273f 29d5 2640 95d6 0cbc
000001f0: 076d b9be 2d85 4fbe 520e ba3f cb9c ff3f
00000200: dd30 e0be d911 42bf 35c8 aabe 326a 6b3d
00000210: e831 98be bf3d 4a3e 031d cdbe f6ac c5be
00000220: 715f 26bf 642c abbe 649f 85be b841 0ebe
00000230: 8d72 18be fac5 b2be 1930 02bf b15c 1ebf
00000240: 19a1 87be ac9c 0ebf b6ef 10bf 649b c2be
00000250: 6904 85be f614 eebe 7441 303e 9c30 35bb
00000260: 2e7c 76be 66cc 553d c52f 3b3c 2421 08bf
00000270: ecdf ed3d 89b7 203e 6fc0 b3be 4194 0cbf
00000280: 95c0 fcbe cd2c b5be 6aa8 f6be 2b86 70be
00000290: 148e 39be 7efd 9abe b187 0ebd 479a 93bd
000002a0: 1412 903c ccab a33e b1b6 2a3e f6b7 e1be
000002b0: d673 cdbe 5723 e8be aad9 1dbf 83fd 90bd
000002c0: 46b1 e8be 7a0a f03d bfb3 f4be 0c47 8c3e
000002d0: b9ee e9be e766 bcbd db07 34bf e7d3 b2bd
000002e0: eac9 cbbe 208d cfbe bee8 1cbf 30fb 38bc
000002f0: 411b 933e 9ab2 2abe 489b 0bbf b05f d0be
00000300: d8ec e7be 2458 7abf c525 22bf e883 903b
00000310: f8b9 a0be 632f 2a3e 79bd 17bf 84dc 27bf
00000320: dfb1 67bf 3ceb 0ebf cbfe ebbe cc16 4bbd
00000330: 98e2 c5be bfdc 3bbf 94fd 55bf 31b7 59bf
00000340: 40be 2bbe b1b8 72bf 49c1 31bf a1e3 9bbe
00000350: 8e32 04bf d613 c8be f552 b03e 0f70 08bd
00000360: 801a 38be 0eca 843d 4081 8c3d e2ca 0ebf
00000370: a91f 263e 2937 8a3e d1cf 71be 909a 3abf
00000380: 2323 1fbf 1ade 6bbe e7f3 19bf 01fe bebe
00000390: b585 81be 63b4 8abe 902f 543c 4a28 f5bd
000003a0: d4df c5bd b64d 003e 7e68 773e 7dee 00bf
000003b0: 52c0 0cbf 8594 25bf e7af 34bf 99b1 51bd
000003c0: 97d3 08bf d2c9 9e3e 5071 5abf aed6 8f3e
000003d0: c75e 22bf 6d02 29bd e975 04bf f9cb 853c
000003e0: 8cbd 27bf b415 b2be 0191 56bf 8c5a c03d
000003f0: 0977 983e 8d12 72bd f5df 22bf 5445 5fbf

convs.1.linear1.bias f4 [64]
-0.18914808 0.6682985 -0.2728191 -0.33337396 0.7727543 0.5813513 -0.0016160181 0.38388667
0.73523736 0.000854683 0.51362526 0.14506167 0.5402529 0.29585442 0.51504886 0.6863668
-0.19158764 0.63662696 -0.37738165 -0.4335627 -0.5501047 0.2022006 -0.5025978 0.09681031
0.12470329 0.4740751 0.16158755 0.5469938 0.09853057 0.29601416 0.1052449 -0.35736412
0.30153918 0.09487078 0.41781422 -0.26663864 0.6881046 0.6496911 0.11031363 -0.7349338
0.0080379555 0.45420158 0.11792551 0.0041722236 -0.5857711 0.778037 0.07406857 -0.36514655
-0.15623313 0.41521186 0.37162644 0.6060922 0.7572425 0.06845395 -0.7334979 0.34699216
0.47586858 -0.0045290138 0.05496345 0.609203 -0.5652923 0.6107487 -0.12190085 0.045024544
00000000: 09b0 41be 9c15 2b3f f2ae 8bbe feaf aabe
00000010: 3ad3 453f 70d3 143f 92d0 d3ba cb8c c43e
00000020: 8438 3c3f ce0c 603a f27c 033f 0c8b 143e
00000030: 044e 0a3f 3b7a 973e 3eda 033f bcb5 2f3f
00000040: 8d2f 44be fcf9 223f 2b38 c1be eefb ddbe
00000050: a9d3 0cbf ad0d 4f3e 40aa 00bf 7c44 c63d
00000060: 7064 ff3d f9b9 f23e 3577 253e c907 0c3f
00000070: 65ca c93d 2b8f 973e a38a d73d 6ef8 b6be
00000080: 5863 9a3e 9d4b c23d bfeb d53e dc84 88be
00000090: a027 303f 2852 263f 1dec e13d 9f24 3cbf
000000a0: a1b1 033c 1c8d e83e ee82 f13d 26b7 883b
000000b0: 18f5 15bf 6f2d 473f 43b1 973d 7df4 babe
000000c0: 94fb 1fbe a696 d43e d245 be3e dc28 1b3f
000000d0: a5da 413f 9631 8c3d 85c6 3bbf f5a8 b13e
000000e0: 0ca5 f33e 1f68 94bb 5b21 613d baf4 1b3f
000000f0: ffb6 10bf 075a 1c3f 27a7 f9bd a86b 383d

convs.1.linear2.weight f4 [64, 64]
-0.21462457 0.47609288 -0.048491657 -0.38843396 0.8720474 0.9140715 0.09767084 0.5594088
0.7721996 0.16172321 0.48902273 0.28415927 0.5551445 0.5742304 0.95125663 0.55698985
-0.27015975 0.72892016 -0.17824115 -0.63986844 -0.5148115 0.031493884 -0.5393777 0.18956831
0.07595547 0.7622173 0.3161995 0.8919587 -0.035053886 0.342085 -0.0035106444 -0.38170534
0.54554164 0.14425439 0.7244573 -0.058449928 0.6747425 0.5692481 0.12986912 -0.9885278
0.4454641 0.6752589 0.28194258 0.36755392 -0.79211366 1.1491599 0.24046056 -0.39978468
-0.3495613 0.8460656 0.9983941 0.7865009 0.8413286 0.10870048 -0.75980693 1.3843853
0.33367452 -0.18775764 -0.24829641 0.79174614 -0.51852953 0.60294765 0.13361233 0.0751534
-0.22873637 0.46657076 -0.3666144 -0.52002054 0.665672 0.92654455 -0.05238798 0.6350857
0.6149539 -0.1308563 0.5193941 0.39962435 0.5979615 0.54968435 0.79043216 0.58383363
-0.31084102 0.79958045 -0.50128675 -0.64669234 -0.46032864 0.19449003 -0.6439064 0.21173216
0.17701346 0.55764955 0.06940373 0.90074986 -0.014869745 0.40378532 0.054716107 -0.3652613
0.60217947 0.070955545 0.8156872 -0.4714462 0.6380894 0.5172814 0.20922133 -1.0815351
-0.07988645 0.6423429 0.120282 0.13083775 -0.7315075 0.78808993 0.2889922 -0.5251205
-0.23187129 0.81672114 0.8901246 0.8321459 0.7502536 0.0035917999 -0.8038155 0.8897006
0.2802159 -0.1378331 0.1535514 0.6950158 -0.5039743 0.4711629 -0.12788759 0.01242885
-0.15940736 0.37159726 -0.10141237 -0.33897114 0.887408 0.8890167 0.033854138 0.5009982
0.5933436 0.058223058 0.5578907 0.13354625 0.6482802 0.5347389 0.90301454 0.60785687
-0.26584852 0.8359915 -0.2665954 -0.51647604 -0.37009728 0.06407791 -0.51460004 0.18716311
0.20173751 0.5942065 0.32405397 0.7725875 0.2006563 0.40033334 0.04540082 -0.21536218
0.4762918 0.27806872 0.7151747 -0.11825517 0.75133085 0.4767947 0.22965688 -0.7928361
0.28701404 0.7150669 0.23634414 0.18311696 -0.5786318 1.0881246 0.18545145 -0.16105695
-0.25142333 0.83824724 1.087215 0.75786185 0.6127809 0.17836036 -0.6794518 1.278139
0.35664523 -0.23090756 -0.11130724 0.6957738 -0.4462883 0.6629754 0.1065098 0.057030797
0.31739616 -0.5624719 0.28967145 0.15048894 -0.8164558 -1.0413287 0.179272 -0.6058278
-0.6316985 -0.10732159 -0.6383054 -0.2769306 -0.6281855 -0.4047404 -0.74124813 -0.40842915
0.23133105 -0.6628988 0.3560049 0.30008885 0.42504644 0.027262723 0.50661856 -0.111532
-0.16013777 -0.5572958 0.15941305 -0.96405596 -0.086850375 -0.36960852 -0.14142688 0.2900594
-0.3232815 -0.133451 -0.64604664 -0.040138114 -0.50140154 -0.6526157 -0.19556083 0.43933964
-0.24354464 -0.5806759 -0.21149157 -0.028362317 0.5798549 -0.8197065 -0.021975785 0.2898652
0.0027462358 -0.8257606 -0.7824975 -0.78330135 -0.8900485 -0.024392582 0.7825457 -0.67585665
-0.3720759 -0.004794492 0.15997706 -0.7526038 0.4161773 -0.52408606 -0.01989495 -0.004985238
00000000: 8bc6 5bbe 72c2 f33e 309f 46bd d1e0 c6be
00000010: 803e 5f3f 9700 6a3f a607 c83d 6a35 0f3f
00000020: dfae 453f c59a 253e 3061 fa3e 537d 913e
00000030: f31d 0e3f c300 133f 8e85 733f e396 0e3f
00000040: 6152 8abe 839a 3a3f d984 36be 6bce 23bf
00000050: b0ca 03bf bbff 003d a814 0abf 321e 423e
00000060: 8b8e 9b3d ac20 433f e7e4 a13e 6857 643f
00000070: aa94 0fbd c425 af3e d712 66bb e26e c3be
00000080: 9ea8 0b3f 6cb7 133e 0976 393f 3169 6fbd
00000090: edbb 2c3f 3eba 113f 69fc 043e 2810 7dbf
000000a0: df13 e43e c4dd 2c3f c75a 903e 0730 bc3e
000000b0: f6c7 4abf ac17 933f 4b3b 763e 94b0 ccbe
000000c0: b3f9 b2be c197 583f c196 7f3f 1f58 493f
000000d0: 5061 573f 5b9e de3d b582 42bf 8a33 b13f
000000e0: 63d7 aa3e 8a43 40be 6a41 7ebe e0af 4a3f
000000f0: 5abe 04bf c75a 1a3f acd1 083e 07ea 993d
00000100: de39 6abe 5de2 ee3e e2b4 bbbe 1120 05bf
00000110: 7b69 2a3f 0632 6d3f c794 56bd fa94 223f
00000120: 9e6d 1d3f 32ff 05be 03f7 043f 909b cc3e
00000130: 0114 193f 1db8 0c3f c359 4a3f 1f76 153f
00000140: 8e26 9fbe 4eb1 4c3f 5454 00bf a18d 25bf
00000150: 32b0 ebbe 6528 473e 0dd7 24bf 51d0 583e
00000160: 0443 353e 1fc2 0e3f 8b23 8e3d 8b97 663f
00000170: 3ba0 73bc f3bc ce3e ff1d 603d 8703 bbbe
00000180: 6f28 1a3f 2451 913d e0d0 503f 6561 f1be
00000190: d459 233f 8e6c 043f 1e3e 563e be6f 8abf
000001a0: 829b a3bd 9670 243f 6956 f63d 55fa 053e
000001b0: 1344 3bbf 43c0 493f c9f6 933e 4c6e 06bf
000001c0: ab6f 6dbe a314 513f 35df 633f 8407 553f
000001d0: 9f10 403f 6764 6b3b dac6 4dbf 6bc3 633f
000001e0: 7578 8f3e 1f24 0dbe 943c 1d3e 8eec 313f
000001f0: 7604 01bf 433c f13e f7f4 02be 60a2 4b3c
00000200: af3b 23be ff41 be3e 4ab1 cfbd a08d adbe
00000210: 2c2d 633f 9996 633f a3aa 0a3d 6b41 003f
00000220: 5ee5 173f 4d7b 6e3d edd1 0e3f 59c0 083e
00000230: b1f5 253f a6e4 083f f62b 673f 829c 1b3f
00000240: 4c1d 88be 8a03 563f 317f 88be c637 04bf
00000250: 647d bdbe 473b 833d d4bc 03bf b0a7 3f3e
00000260: 4794 4e3e eb1d 183f 67ea a53e 4bc8 453f
00000270: d878 4d3e 7ef8 cc3e 36f6 393d e787 5cbe
00000280: 85dc f33e 065f 8e3e b015 373f c42f f2bd
00000290: 3857 403f 6f1e f43e 2c2b 6b3e 4ff7 4abf
000002a0: 81f3 923e a00e 373f 3304 723e 0383 3b3e
000002b0: 3721 14bf ab47 8b3f fce6 3d3e 1dec 24be
000002c0: 8fba 80be 5f97 563f dc29 8b3f 3c03 423f
000002d0: 36df 1c3f 19a4 363e 8ef0 2dbf 0f9a a33f
000002e0: 349a b63e 0873 6cbe 0df5 e3bd 3b1e 323f
000002f0: e67f e4be c1b8 293f cf21 da3d 2099 693d
00000300: c081 a23e 29fe 0fbf d14f 943e c619 1a3e
00000310: 3f03 51bf 424a 85bf 1493 373e 8817 1bbf
00000320: feb6 21bf 6ccb dbbd fc67 23bf d9c9 8dbe
00000330: c4d0 20bf 223a cfbe 70c2 3dbf a01d d1be
00000340: 0ce2 6c3e bcb3 29bf 4646 b63e 3fa5 993e
00000350: b09f d93e 1356 df3c c1b1 013f e46a e4bd
00000360: 28fb 23be f0aa 0ebf 2d3d 233e 5fcc 76bf
00000370: 9cde b1bd 543d bdbe 35d2 10be aa82 943e
00000380: 2785 a5be 61a7 08be 5063 25bf dd67 24bd
00000390: da5b 00bf d311 27bf 1941 48be 20f1 e03e
000003a0: c463 79be 2da7 14bf 3f91 58be 1758 e8bc
000003b0: 5f71 143f 49d8 51bf 9006 b4bc 3669 943e
000003c0: 31fa 333b 0c65 53bf c251 48bf 7086 48bf
000003d0: 38da 63bf f4d2 c7bc ea54 483f f104 2dbf
000003e0: bb80 bebe 1d1b 9dbb 07d1 233e a5aa 40bf
000003f0: 3115 d53e 812a 06bf bcfa a2bc 355b a3bb

convs.1.linear2.bias f4 [64]
0.34116676 0.3022677 0.26368406 -0.24367534 0.025149155 0.264869 -0.15466875 -0.15203309
-0.16180377 0.3461392 0.117264405 0.06274188 -0.04932588 -0.29055735 0.13344088 0.033307087
0.06900094 -0.13676631 0.20871861 0.40436774 -0.31179407 0.047608882 0.3150536 0.09674178
-0.0794296 -0.18647733 0.29649615 -0.118226506 -0.15144232 0.24498153 0.37783238 -0.18408528
0.32740644 -0.13379367 -0.047458295 0.21943687 -0.18599276 -0.0056021833 -0.10452188 -0.18792924
0.35040203 -0.29854634 0.064070165 -0.1946618 -0.063925885 0.19894359 0.32747278 0.26839
0.37489057 -0.135341 0.31385365 0.32036045 0.32452428 0.2967029 0.33306825 -0.28642064
-0.2540187 0.45196968 -0.24762736 0.14829011 -0.15191819 -0.028363362 -0.17316294 0.19307621
00000000: 69ad ae3e d5c2 9a3e 9901 873e 0786 79be
00000010: 9a05 ce3c e99c 873e 7c61 1ebe 90ae 1bbe
00000020: e3af 25be 2839 b13e 5228 f03d d17e 803d
00000030: ef09 4abd efc3 94be baa4 083e 036d 083d
00000040: 5d50 8d3d 780c 0cbe 55ba 553e 4a09 cf3e
00000050: 79a3 9fbe 8801 433d b54e a13e 8e20 c63d
00000060: fcab a2bd eaf3 3ebe 58ce 973e bd20 f2bd
00000070: b213 1bbe 70dc 7a3e 3f73 c13e da80 3cbe
00000080: d1a1 a73e 3501 09be a163 42bd 0fb4 603e
00000090: e374 3ebe 8592 b7bb 910f d6bd 8670 40be
000000a0: e567 b33e 11db 98be 3837 833d 6c55 47be
000000b0: 93eb 82bd deb7 4b3e 83aa a73e 6a6a 893e
000000c0: a8f1 bf3e d596 0abe 6db1 a03e 4906 a43e
000000d0: 0c28 a63e 71e9 973e ec87 aa3e baa5 92be
000000e0: bd0e 82be 9268 e73e 0792 7dbe 5dd9 173e
000000f0: 7190 1bbe 485a e8bc a051 31be c5b5 453e

mlp1.weight f4 [64, 192]
0.20064871 -0.26850468 0.23652112 -0.1579107 -0.01728245 -0.10829659 0.10359631 0.16272812
0.22122437 -0.10129258 -0.008622649 0.090904884 -0.017166445 -0.28620756 0.11376168 0.1978033
-0.0645223 -0.02737029 -0.11211199 0.16337915 0.013282424 -0.08633281 -0.30606046 -0.28195196
0.037079837 -0.02275279 -0.021515545 0.18969274 0.034571886 -0.33289766 0.106132746 0.10497382
0.0806677 -0.08287559 -0.29255795 0.12735783 0.2505994 0.19843513 0.24201104 -0.16045623
0.088278145 0.030891024 -0.0050647105 0.23934166 -0.087920554 0.022457639 -0.23648827 -0.049456608
0.1142376 0.30189583 -0.03442908 -0.06745781 -0.3960534 0.39340657 -0.021563822 -0.29512194
0.18459977 0.05972561 -0.20651264 0.11783149 0.24257877 0.27154192 -0.05289795 -0.023553727
-0.05868507 0.008405055 -0.21421841 -0.094928384 -0.05029468 0.23112331 -0.10718474 -0.16124503
-0.17873095 -0.1312525 0.05403587 -0.05835382 -0.021110449 -0.28706148 -0.16370624 -0.11411313
-0.16373304 -0.12142291 -0.021000583 -0.034075428 -0.14168736 -0.3019743 0.17921786 -0.17726123
-0.02104484 0.29532692 0.4115138 0.035890788 0.19743384 0.18418561 -0.26884308 -0.10860438
-0.00082412 -0.062369436 -0.0021366733 0.011211399 -0.045407522 -0.07979755 0.02830796 0.059339613
0.045257863 0.2001683 0.17628115 0.21440749 -0.16487175 -0.1727511 -0.04823663 0.038645282
-0.063713886 0.25973153 -0.09180892 0.30136418 -0.0472993 -0.04380901 -0.009348055 0.39400107
-0.08690101 0.010825146 -0.34586656 0.32528925 0.25473917 -0.008271517 -0.015237558 -0.15689632
0.048724644 0.0011870129 -0.014716235 -0.019667646 -0.36598092 0.046563387 -0.008454121 0.0036689204
-0.09759322 0.06382922 -0.10001819 0.07785663 0.047657426 -0.06316981 -0.061683364 -0.32301188
0.25048307 -0.0034401729 -0.18376608 0.06856364 -0.03687482 -0.344773 0.07852813 -0.027607104
0.0067911646 -0.055095214 0.108021416 0.056676693 -0.11717316 0.06941376 -0.021866947 -0.060582716
0.044065624 0.045067932 -0.63843143 0.07394531 -0.02420921 -0.29803964 0.088168286 0.033131137
0.031923775 -0.091890074 0.14821857 -0.109218486 -0.0044026063 -0.67162704 0.04924829 0.034458224
-0.0841363 -0.028936692 0.024051135 0.05390176 0.0043280567 -0.035613295 0.121653624 -0.0800234
-0.12298397 -0.008180432 -0.03710748 -0.05254099 0.06284481 -0.10762469 -0.092453495 -0.16643491
0.09095613 0.07795349 -0.36709747 0.19510043 -0.14560112 0.10327134 -0.10642335 -0.35997355
-0.24603948 0.2543364 -0.26577675 0.061441 0.039635852 0.23503771 -0.022902258 -0.34889096
-0.14013506 0.23210244 0.30897254 -0.11973912 -0.093076326 -0.07288166 0.27236435 0.2700135
-0.21988389 -0.028865974 -0.13154769 -0.059748255 -0.19223201 0.21004511 0.12476339 -0.2580339
0.14717878 -0.22255644 0.13533096 -0.28573847 -0.022561552 -0.27229372 -0.07792788 0.12637562
-0.35224783 0.006031136 -0.18788078 -0.3439478 0.21262547 0.1341397 0.42033726 0.31513947
-0.3992601 -0.024443189 -0.0043784743 0.22236666 0.22839181 -0.20856836 -0.28185117 0.22411273
-0.45011005 0.16294089 0.039616823 -0.0026408504 -0.11228257 -0.079901986 -0.16395001 -0.22711855
00000000: db76 4d3e 7279 89be 9832 723e 58b3 21be
00000010: ed93 8dbc 9aca ddbd 4d2a d43d 33a2 263e
00000020: a488 623e 7c72 cfbd 0346 0dbc 572c ba3d
00000030: a5a0 8cbc cc89 92be e2fb e83d f38c 4a3e
00000040: 4524 84bd a937 e0bc f99a e5bd dd4c 273e
00000050: 869e 593c 42cf b0bd f5b3 9cbe 025c 90be
00000060: 07e1 173d 0f64 babc 5e41 b0bc d03e 423e
00000070: 409b 0d3d 9071 aabe 205c d93d 84fc d63d
00000080: 1b35 a53d adba a9bd 28ca 95be 176a 023e
00000090: 914e 803e 9432 4b3e bed1 773e a34e 24be
000000a0: 2ccb b43d 2c0f fd3c dff5 a5bb fb15 753e
000000b0: b10f b4bd 15f9 b73c fb29 72be 0393 4abd
000000c0: 67f5 e93d 1792 9a3e 8205 0dbd 5227 8abd
000000d0: 83c7 cabe 966c c93e 9da6 b0bc 391a 97be
000000e0: b907 3d3e d7a2 743d 0d78 53be a351 f13d
000000f0: 9266 783e 8b07 8b3e 85ab 58bd bff3 c0bc
00000100: c25f 70bd 5bb5 093c 125c 5bbe d069 c2bd
00000110: cb01 4ebd 97ab 6c3e ac83 dbbd 6b1d 25be
00000120: 3f05 37be 0e67 06be b754 5d3d 6a04 6fbd
00000130: d2ef acbc b9f9 92be 9ca2 27be 25b4 e9bd
00000140: a2a9 27be 93ac f8bd 6a09 acbc ad92 0bbd
00000150: 7e16 11be 609c 9abe e384 373e f883 35be
00000160: 3a66 acbc 1735 973e f0b1 d23e 3802 133d
00000170: 192c 4a3e 279b 3c3e cda5 89be f96b debd
00000180: c209 58ba 1877 7fbd 6e07 0cbb 04b0 373c
00000190: 3dfd 39bd e66c a3bd 18e6 e73c 180e 733d
000001a0: 4f60 393d ebf8 4c3e 0c83 343e a38d 5b3e
000001b0: 24d4 28be aae5 30be c693 45bd 844a 1e3d
000001c0: 6d7c 82bd 88fb 843e 5106 bcbd 684c 9a3e
000001d0: e9bc 41bd 1471 33bd 9628 19bc 82ba c93e
000001e0: 28f9 b1bd f45b 313c 6c15 b1be 508c a63e
000001f0: 2c6d 823e 4285 07bc f3a6 79bc 6ea9 20be
00000200: 7e93 473d 8b95 9b3a 5d1c 71bc 0b1e a1bc
00000210: da61 bbbe 40b9 3e3d 2783 0abc 4572 703b
00000220: f4de c7bd e5b8 823d 56d6 ccbd 4c73 9f3d
00000230: 6f34 433d 2c5f 81bd b2a7 7cbd d061 a5be
00000240: 513f 803e 8674 61bb 2d2d 3cbe 186b 8c3d
00000250: 0d0a 17bd 1686 b0be 5bd3 a03d 4b28 e2bc
00000260: 6b88 de3b 85ab 61bd 553a dd3d d225 683d
00000270: 7bf8 efbd cd28 8e3d 5022 b3bc 9525 78bd
00000280: 287e 343d 2799 383d 3e70 23bf a470 973d
00000290: 6552 c6bc a798 98be 9391 b43d 84b4 073d
000002a0: 81c2 023d dd30 bcbd 9cc6 173e f1ad dfbd
000002b0: bd43 90bb c0ef 2bbf 93b8 493d 1124 0d3d
000002c0: a74f acbd a40c edbc e306 c53c 18c8 5c3d
000002d0: 5fd2 8d3b 3fdf 11bd 8925 f93d 4fe3 a3bd
000002e0: 05df fbbd 3807 06bc 03fe 17bd 3935 57bd
000002f0: c8b4 803d 556a dcbd 4258 bdbd ea6d 2abe
00000300: 3547 ba3d 14a6 9f3d 33f4 bbbe 68c8 473e
00000310: 7618 15be ed7f d33d 7cf4 d9bd 744e b8be
00000320: c6f1 7bbe 6138 823e e413 88be 8fa9 7b3d
00000330: 3459 223d baad 703e 849d bbbc d6a1 b2be
00000340: 917f 0fbe 43ac 6d3e a631 9e3e c939 f5bd
00000350: cd9e bebd fb42 95bd 5773 8b3e 363f 8a3e
00000360: 3e29 61be 5678 ecbc 70b4 06be 96ba 74bd
00000370: 78d8 44be 1116 573e f383 ff3d 051d 84be
00000380: 09b6 163e d6e5 63be 3394 0a3e 504c 92be
00000390: 01d3 b8bc 156a 8bbe a798 9fbd 9c68 013e
000003a0: d459 b4be d6a0 c53b d263 40be ed19 b0be
000003b0: 7eba 593e eb5b 093e 7236 d73e f659 a13e
000003c0: d26b ccbe 153d c8bc 4e79 8fbb 16b4 633e
000003d0: 8bdf 693e f292 55be cc4e 90be cf7d 653e
000003e0: d374 e6be fad9 263e 4045 223d 1e12 2dbb
000003f0: 67f4 e5bd a7a3 a3bd 83e2 27be c491 68be

mlp1.bias f4 [64]
0.11071871 0.019804416 -0.12931834 -0.1995554 -0.057463538 -0.023135604 -0.007748202 -0.039466046
0.20192435 0.09387214 0.18096037 0.0129544865 0.12420704 0.098497316 -0.07763379 0.02743877
-0.07617515 0.020843895 0.042401433 0.034788832 -0.14824334 0.13413498 0.104991324 0.085765466
0.008810005 0.20455438 0.098576896 -0.11117826 0.11397708 0.151461 0.07888859 0.061830144
1.4435141 -0.040392313 -0.25078526 -0.004401443 -0.07231513 0.008084329 0.07904322 0.15724027
0.39134404 0.15449236 0.036122162 0.0929598 0.009350185 0.12416298 -0.26303187 -0.01041344
0.04617288 -0.057374824 -0.21147178 0.058065437 -0.25043398 -0.023826081 -0.024429591 -0.10104013
-0.20756142 0.019031892 -0.26512587 0.04684655 0.49986732 0.022195859 0.04056689 -0.08551161
00000000: 7ec0 e23d df3c a23c 076c 04be 4058 4cbe
00000010: e35e 6bbd e186 bdbc a1e4 fdbb 26a7 21bd
00000020: 42c5 4e3e 0940 c03d ad4d 393e 0e3f 543c
00000030: 4360 fe3d f6b8 c93d 77fe 9ebd 45c7 e03c
00000040: b801 9cbd d1c0 aa3c 20ad 2d3d bc7e 0e3d
00000050: 1acd 17be ae5a 093e b105 d73d cea5 af3d
00000060: d757 103c b476 513e afe2 c93d 6db1 e3bd
00000070: d16c e93d 9818 1b3e 5790 a13d 9b41 7d3d
00000080: 12c5 b83f 6972 25bd ed66 80be fb39 90bb
00000090: f419 94bd 2274 043c 69e1 a13d 9803 213e
000000a0: 3f5e c83e 3f33 1e3e d5f4 133d b561 be3d
000000b0: 8531 193c 2949 fe3d 1dac 86be 229d 2abc
000000c0: c61f 3d3d dd01 6bbd 0f8c 58be 06d6 6d3d
000000d0: e238 80be ea2e c3bc 9120 c8bc 21ee cebd
000000e0: fb8a 54be c5e8 9b3c 94be 87be 2be2 3f3d
000000f0: 9cee ff3e 17d4 b53c 7829 263d b620 afbd
