Saved_Models/TSP_500/scatgnn_layer_2_hid_64_model_230_temp_3.500.pth (torch, 257863 bytes, 24 tensors)

bn0.weight f4 [2]
0	0x3f800000	1.0
1	0x3f800000	1.0

bn0.bias f4 [2]
0	0x00000000	0.0
1	0x00000000	0.0

bn0.running_mean f4 [2]
0	0x00000000	0.0
1	0x00000000	0.0

bn0.running_var f4 [2]
0	0x3f800000	1.0
1	0x3f800000	1.0

in_proj.weight f4 [64, 2]
0	0xbe81764b	-0.25285563
1	0xbf770f19	-0.9650741
2	0x3f78b56d	0.97151834
3	0x3e74059c	0.23830265
4	0x3f092d45	0.535847
5	0xbf800389	-1.0001079
6	0xbf44613f	-0.76710886
7	0x3f6bd600	0.92123413
8	0xbeda26bc	-0.42607677
9	0xbf3227d6	-0.69592035
10	0x3ed3f451	0.41397336
11	0x3f8ec0f2	1.1152632
12	0xbf5b9a27	-0.8578209
13	0xbf1b1614	-0.60580564
14	0x3f2e9879	0.68201405
15	0x3f8e9141	1.1138078
16	0x3f6b0594	0.91805387
17	0x3f584a87	0.8448872
18	0x3f380606	0.7188419
19	0xbf2062eb	-0.62650937
20	0x3e8180e5	0.2529365
21	0xbf39c9b2	-0.7257339
22	0xbe050904	-0.1299172
23	0xbf3c0231	-0.73440844
24	0x3f620ab8	0.88297606
25	0x3f260af4	0.64860463
26	0x3f3601f8	0.71096754
27	0x3f7d0215	0.988313
28	0xbee05e63	-0.4382201
29	0x3f8a4c87	1.0804604
30	0x3f627088	0.8845296
31	0x3f7f9911	0.99842936
32	0xbef1830d	-0.47170296
33	0xbf5369ec	-0.825835
34	0xbe826a94	-0.25471938
35	0xbf954cdb	-1.166408
36	0xbe12bff0	-0.14331031
37	0xbf8db4cf	-1.1070803
38	0xbf312f0a	-0.692124
39	0x3ef90a16	0.48640507
40	0x3cbeeb78	0.02330564
41	0x3f2a7cbf	0.665966
42	0xbec6a9ce	-0.38801426
43	0x3ec35b3d	0.38155547
44	0xbf885ad2	-1.0652716
45	0xbf1a3f33	-0.60252684
46	0x3f339e09	0.7016302
47	0x3f4391ce	0.76394355
48	0x3eab5146	0.33460444
49	0x3e0282f2	0.12745264
50	0xbf61b22a	-0.8816248
51	0xbeb5b9aa	-0.35493213
52	0xbf3b7e20	-0.73239326
53	0x3e93d46d	0.28873006
54	0x3ee4db71	0.4469867
55	0x3f93d50f	1.1549395
56	0xbf1305c9	-0.574307
57	0x3f60cef0	0.8781576
58	0x3d1b8788	0.03797105
59	0xbf1ef8cf	-0.620984
60	0xbf5467f6	-0.8297113
61	0x3f493f75	0.7861245
62	0xbe4aee9a	-0.19817582
63	0xbf7379a7	-0.951075
64	0xbf6e1735	-0.9300416
65	0x3ea28ac7	0.31746504
66	0xbedfd96f	-0.43720576
67	0x3f6b7dba	0.9198872
68	0xbec11dd2	-0.37718064
69	0xbf870956	-1.0549724
70	0xbf510ded	-0.81661874
71	0xbf7fb202	-0.99880993
72	0xbb90864a	-0.0044105398
73	0xbf30696f	-0.6891088
74	0x3f812136	1.008826
75	0xbec23c5f	-0.37936684
76	0xbf676d6e	-0.9040135
77	0xbf27f2a7	-0.65604633
78	0x3f83ae83	1.0287632
79	0xbee55cf0	-0.44797468
80	0xbf72a170	-0.94777584
81	0x3e1059a2	0.14096692
82	0x3f0ed5e0	0.557951
83	0xbf58e0b5	-0.84717876
84	0xbf7e0a86	-0.9923481
85	0xbe2c8d3b	-0.1685075
86	0x3e7a0ad8	0.24418199
87	0x3ed6b956	0.41938275
88	0x3f706d29	0.93916565
89	0xbf3cce12	-0.7375194
90	0x3f14a94c	0.58070827
91	0x3eab61b6	0.33472985
92	0xbe9b2c68	-0.30307317
93	0xbf6168ba	-0.88050425
94	0xbf823651	-1.0172826
95	0x3ea5b308	0.32363153
96	0x3e518489	0.20460714
97	0x3f5c2802	0.8599855
98	0xbf3c6c48	-0.73602724
99	0x3e961da1	0.2931948
100	0x3e1c0f7c	0.15240282
101	0xbf76ae09	-0.96359307
102	0xbf690214	-0.91018796
103	0xbc836b5f	-0.01604241
104	0xbf901331	-1.1255857
105	0x3d97ede3	0.0741842
106	0xbe7f6ccf	-0.24943851
107	0x3f7a2598	0.97713614
108	0xbf4c5964	-0.798239
109	0xbf5a1738	-0.8519168
110	0x3f5cdb36	0.8627199
111	0x3ed3227e	0.41237253
112	0xbf6edb61	-0.93303496
113	0x3e316471	0.17323472
114	0xbf09a771	-0.5377112
115	0xbf40038b	-0.75005406
116	0xbd8145ca	-0.06312139
117	0xbf58112d	-0.8440121
118	0x3d22d1a2	0.039750703
119	0x3f527b30	0.8221922
120	0xbeecf7a8	-0.46282697
121	0x3ed2ef17	0.41198036
122	0x3f1f98f2	0.6234275
123	0xbe4fa67c	-0.20278352
124	0x3f13c83e	0.5772742
125	0xbed3e34b	-0.41384348
126	0xbe840880	-0.25787735
127	0x3e1ce9fd	0.15323634

in_proj.bias f4 [64]
0	0xbeb53dbd	-0.35398665
1	0xbf0f179d	-0.55895406
2	0xbf3d1e1b	-0.7387406
3	0x3f0edb00	0.5580292
4	0x3f218083	0.6308672
5	0x3f205ac4	0.626385
6	0xbf17abb4	-0.59246373
7	0x3d1d1d58	0.038358063
8	0x3ec1f68d	0.37883416
9	0xbf5227ef	-0.82092184
10	0x3f223584	0.6336291
11	0x3f239fc3	0.6391565
12	0x3f2d532c	0.67705035
13	0x3f0d7a4e	0.5526475
14	0x3eb9f9d5	0.3632342
15	0x3f54abd0	0.83074665
16	0x3ec8ebe4	0.3924247
17	0x3ef9fcd2	0.488257
18	0x3ecf7d7e	0.4052543
19	0x3e97b88a	0.2963298
20	0xbf0b5c57	-0.54437774
21	0xbf2aee24	-0.66769624
22	0x3f168054	0.58789563
23	0xbc9f8b14	-0.019475497
24	0xbf2718b6	-0.6527208
25	0xbf3b2e50	-0.7311754
26	0xbeb213a7	-0.3478062
27	0xbe499e42	-0.19689277
28	0x3eddec27	0.43344232
29	0x3e5c50ea	0.21515241
30	0x3df7e009	0.12103278
31	0xbf5284fb	-0.8223416
32	0x3df2d9bc	0.11857936
33	0x3f21469d	0.6299837
34	0x3e389c0a	0.18028274
35	0xbf16bc5a	-0.5888115
36	0xbe63a750	-0.22231793
37	0xbe25e004	-0.16198736
38	0x3e19e6dc	0.15029472
39	0xbc632508	-0.013863809
40	0x3e403679	0.1877078
41	0xbe975db4	-0.29563677
42	0xbf21ac0a	-0.63153136
43	0x3f42cb69	0.7609163
44	0x3f00a9c8	0.50259066
45	0x3ed27620	0.41105747
46	0xbe085a57	-0.13315712
47	0xbf5727c1	-0.84045035
48	0x3ec63791	0.3871427
49	0x3ea32266	0.3186218
50	0x3eba8945	0.36432853
51	0x3ea56f2b	0.32311377
52	0x3ec6952e	0.3878569
53	0xbc18bd2e	-0.009322448
54	0xbed69475	-0.4191014
55	0x3e0a49b6	0.13504681
56	0x3f33ffa1	0.70311934
57	0xbe87ffec	-0.2656244
58	0x3f447c81	0.7675248
59	0x3e66df4c	0.22546118
60	0x3f70dcbd	0.9408682
61	0x3f4379e0	0.7635784
62	0xbeda07d0	-0.42584085
63	0xbf6ea0b1	-0.93213946

convs.0.a f4 [128, 1]
0	0x3ced0e7d	0.028937573
1	0x3d06706a	0.03282205
2	0x3d8f71cc	0.07004127
3	0x3e087111	0.13324381
4	0x3c6f58be	0.01460856
5	0x3d814186	0.06311326
6	0xbd585e2e	-0.05282419
7	0xbbd46f62	-0.0064830044
8	0xbb9b4ddd	-0.0047395066
9	0x3d5d4832	0.05402393
10	0x3d57b947	0.05266693
11	0xbac25b6e	-0.0014828274
12	0x3d30d1e2	0.04316891
13	0x3d9c7d0c	0.07641038
14	0x3dbd1592	0.0923263
15	0x3db18035	0.08667032
16	0xbd4ce153	-0.050019573
17	0xbc96c440	-0.018404126
18	0x3cbbae8e	0.022910383
19	0x3d02e9ca	0.03196124
20	0x3c5b5730	0.013387486
21	0x3d512e4a	0.051069535
22	0xbcecdbdb	-0.028913429
23	0xbd61dfe5	-0.055145163
24	0x3bd76916	0.0065738065
25	0xbd2fe93d	-0.042947043
26	0x3d332922	0.0437404
27	0x3c8dea50	0.017323643
28	0x3d5eacc4	0.05436398
29	0x3ce95af3	0.02848575
30	0x3caca77f	0.021075962
31	0x3d4128d8	0.047158092
32	0xb8258f05	-3.9472263e-05
33	0x3bba8d46	0.0056931106
34	0xbd5dfc1e	-0.054195516
35	0xbd23a166	-0.039948843
36	0x3d3daf7e	0.04630994
37	0x3e0f01e6	0.13965568
38	0xbd93bbd0	-0.07213557
39	0x3e01b192	0.12665394
40	0x3a917652	0.0011097884
41	0x3dc1d619	0.09464664
42	0xbcc062ee	-0.023484673
43	0x3d9f30a0	0.07772946
44	0x3e1d661f	0.15370987
45	0x3d8fb6f5	0.07017318
46	0xbc5a761e	-0.013333825
47	0x3d143e21	0.036192063
48	0x3c630656	0.013856491
49	0xbcdc556e	-0.026896205
50	0x3da32ac9	0.07967145
51	0x3a148c83	0.000566669
52	0x3d5685f7	0.052373853
53	0x3d112511	0.03543574
54	0xbd2a1cef	-0.0415315
55	0x3d3b615a	0.04574714
56	0xbd3191f5	-0.043352086
57	0xbd66dcd0	-0.056362927
58	0x3c835070	0.016029567
59	0x3d9e8847	0.077408366
60	0x3a87ea7a	0.0010369562
61	0x3e194b1b	0.14970057
62	0x3d7a2f73	0.061080407
63	0x3b9e806f	0.004837088
64	0x3ceb87ba	0.028751243
65	0xbe215e7c	-0.15758699
66	0xbe81f40d	-0.25381508
67	0x3e97cd0a	0.2964862
68	0xbdbaeec2	-0.09127571
69	0x3f128a66	0.5724243
70	0xbd8f2b0e	-0.06990634
71	0x3f45e193	0.77297324
72	0x3f5eaf9e	0.8698672
73	0xbe9d40fa	-0.30713636
74	0xbe0626f2	-0.13100794
75	0xbda04efc	-0.07827565
76	0x3e9205c8	0.28520036
77	0x3f1fbb4a	0.62395155
78	0x3f347df6	0.705047
79	0x3ea3099b	0.31843266
80	0xbf180abc	-0.5939138
81	0xbec0ba5c	-0.3764218
82	0xbf13d1fe	-0.577423
83	0x3ec2a443	0.38015947
84	0x3dc1953c	0.09452292
85	0xbe232e22	-0.15935567
86	0xbe86152f	-0.26188037
87	0x3f40346b	0.75079983
88	0x3d15bcaf	0.036556896
89	0xbd5cee41	-0.053938154
90	0xbddfd43e	-0.10929154
91	0x3ed6a10f	0.41919753
92	0x3eb8ab14	0.36068022
93	0xbf43e86b	-0.76526517
94	0x3ee6e1fc	0.45094287
95	0x3d724157	0.059144344
96	0x3e99d3d2	0.3004442
97	0x3e97d565	0.29654995
98	0xbe891e14	-0.2678076
99	0xbe0a747c	-0.13520998
100	0xbc76fac1	-0.015074433
101	0x3d753935	0.05986901
102	0xbda89670	-0.08231819
103	0x3ec15a8d	0.37764397
104	0x3e5b8da8	0.21440756
105	0xbe7ad970	-0.24497008
106	0xbe046a77	-0.12931238
107	0x3e787622	0.24263814
108	0xbe2fee31	-0.17180707
109	0x3e88f53f	0.26749608
110	0xbca156ee	-0.019694772
111	0xbdcf1523	-0.101114534
112	0x3f8f6e2f	1.12055
113	0xbdeafd29	-0.11474068
114	0xbf1c1c37	-0.6098055
115	0xbec9c8ed	-0.39411107
116	0xbe5eb373	-0.21748142
117	0x3f760c50	0.9611254
118	0xbe39d23a	-0.18146601
119	0x3efab09f	0.48962876
120	0xbb9f1a6e	-0.0048554456
121	0xbe024964	-0.12723309
122	0xbd9b58e9	-0.07585318
123	0x3fc2d538	1.5221319
124	0x3e096a9e	0.13419577
125	0x3dbb259c	0.09138033
126	0xbe0b5819	-0.13607825
127	0x3d3f740a	0.046741523

convs.0.linear1.weight f4 [64, 64]
0	0x3e92434b	0.28566965
1	0x3d8d688a	0.06904705
2	0x3dc50ef0	0.0962199
3	0xbe705edd	-0.23473687
4	0x3cc0dc69	0.0235426
5	0xbe56570c	-0.20931643
6	0x3e8b67be	0.27227587
7	0xbe0ecd76	-0.13945565
8	0xbe73f314	-0.23823196
9	0x3d8975ff	0.06711959
10	0x3e840bf4	0.2579037
11	0x3e3d0e31	0.18462445
12	0x3d2a2417	0.041538324
13	0xbe9cc9ee	-0.3062281
14	0xbe2ab50b	-0.16670625
15	0xbe40ffd3	-0.18847589
16	0x3e0bfe9a	0.13671342
17	0x3e61d7f2	0.22055033
18	0x3edbc0fb	0.4292067
19	0xbe4b2bbc	-0.19840902
20	0x3ecb5fab	0.39721426
21	0x3de2ba05	0.11070637
22	0xbd1888ce	-0.037239842
23	0xbe4855b1	-0.19563939
24	0x3e257513	0.16157942
25	0x3e61ac69	0.22038426
26	0x3e850b31	0.259851
27	0x3e1767a0	0.14785624
28	0xbddc1525	-0.107462205
29	0x3eacc4c5	0.33743873
30	0xbe8111b4	-0.2520882
31	0x3e8b01f6	0.27149934
32	0xbe2f336c	-0.1710946
33	0xbe71f571	-0.23628785
34	0x3e0f620b	0.14002244
35	0x3dd5ae5a	0.104336455
36	0x3e8b25e9	0.2717736
37	0xbd103e60	-0.035215735
38	0xbc8b5aaa	-0.017011005
39	0xbddbd923	-0.10734775
40	0xbd9c8cb4	-0.076440245
41	0x3daa9465	0.08329085
42	0x3e969268	0.29408574
43	0xbe89fb5b	-0.26949582
44	0x3dedbb79	0.11608023
45	0x3c50564b	0.012715886
46	0x3ea696c0	0.32536888
47	0x3e4f97d0	0.20272756
48	0xbe1fb255	-0.15595372
49	0x3dd4ca6c	0.103901714
50	0x3e822f0d	0.25426522
51	0x3e5a074c	0.21291846
52	0x3e4d4ff4	0.20050031
53	0xbdf275c9	-0.11838872
54	0x3df521a7	0.11969309
55	0x3c3d55cf	0.011556103
56	0x3cf04861	0.029331388
57	0x3e0384da	0.12843648
58	0x3e0e58ab	0.13901012
59	0x3dd1d20d	0.10245142
60	0xbe4527a0	-0.19253397
61	0xbd5274d4	-0.051380947
62	0x3da9534e	0.08267842
63	0x3e9ffd8e	0.31248134
64	0x3e9368f6	0.28791016
65	0x3d8d4cd0	0.068994164
66	0x3d764d7e	0.060132496
67	0xbe838c22	-0.2569285
68	0x3d1631fa	0.036668755
69	0xbdf38461	-0.11890484
70	0x3dc7f3a9	0.09763271
71	0xbcc057b6	-0.023479324
72	0xbe965b02	-0.29366308
73	0xbd9d3bab	-0.076773964
74	0x3e4f9c50	0.20274472
75	0x3bb0a0e5	0.005390274
76	0xbcd43603	-0.025904661
77	0xbea3c401	-0.31985477
78	0xbdf013f6	-0.11722557
79	0xbe8eaafe	-0.27864832
80	0x3e814113	0.2524496
81	0x3ead1aa6	0.33809394
82	0x3ecd58d3	0.4010683
83	0xbe3fe663	-0.1874023
84	0x3e348d32	0.17631987
85	0x3ce9805e	0.028503593
86	0xbd73eb05	-0.059550304
87	0xbd9c2ca1	-0.076257
88	0x3e6ea24d	0.233041
89	0x3e5ec05e	0.2175307
90	0x3e02374c	0.12716407
91	0x3d6d31db	0.057908874
92	0xbe4c5e62	-0.19957879
93	0x3ebc3bc9	0.36764362
94	0xbe9c576c	-0.30535448
95	0x3e962dcd	0.29331818
96	0x3cc0f091	0.023552211
97	0xbdca0e79	-0.09866042
98	0x3da19b24	0.07890919
99	0x3d1adac2	0.03780628
100	0x3e34cd84	0.17656523
101	0x3c96f016	0.018425029
102	0x3d230fe5	0.03981008
103	0xbe13fa63	-0.14450984
104	0x3d705c7d	0.058681954
105	0x3e01d927	0.12680493
106	0x3e69cadd	0.22831292
107	0xbe4722ef	-0.1944692
108	0x3e18ac5b	0.14909498
109	0xbc84e3ad	-0.016221846
110	0x3e451766	0.19247207
111	0x3e69beeb	0.22826736
112	0xbe1df8de	-0.15426967
113	0x3d51c82b	0.051216286
114	0x3e943ccf	0.28952643
115	0x3df4e505	0.119577445
116	0x3cd2849b	0.025697997
117	0xbdcc7ee6	-0.099851415
118	0x3b987732	0.004652881
119	0xbdbbb5fb	-0.091655694
120	0x3d89aad2	0.067220345
121	0x3e019ea0	0.12658167
122	0x3e1b8c02	0.15190127
123	0xbce1408e	-0.027496602
124	0xbe7cdebd	-0.24694343
125	0xbdaae952	-0.083452836
126	0x3d84796c	0.06468472
127	0x3e7490b8	0.23883331
128	0x3ecd9d95	0.40159288
129	0x3e68a451	0.22718932
130	0x3d600ea7	0.054701474
131	0x3c8b2102	0.016983513
132	0xbcfc141a	-0.030771304
133	0xbe240063	-0.16015773
134	0x3daf162c	0.08549151
135	0x3da47d9e	0.08031772
136	0xbd193a88	-0.037409335
137	0x3d837b73	0.064200304
138	0x3e36cbfe	0.17851254
139	0x3d7c617e	0.061616413
140	0x3d1c8be4	0.038219348
141	0xbe8f561e	-0.2799539
142	0x3d402e23	0.046919
143	0xbe814667	-0.25249025
144	0x3e8d93f5	0.27651945
145	0x3e916864	0.28399956
146	0x3ef9b8df	0.48773858
147	0xbdb08fc1	-0.08621169
148	0x3e8b7d1d	0.2724389
149	0x3d048633	0.032354545
150	0x3df23203	0.11825945
151	0xbd74ae6c	-0.059736654
152	0x3e24df16	0.16100726
153	0x3e5619bd	0.20908256
154	0x3d69248b	0.056919616
155	0x3e385630	0.18001628
156	0xbe3a3f8f	-0.18188308
157	0x3ef01fc5	0.46899238
158	0xbcd9b2da	-0.02657454
159	0x3e42f542	0.19038871
160	0xbdb5593f	-0.08854913
161	0xbda13ce3	-0.07872941
162	0x3e92953c	0.28629482
163	0x3cf82dc2	0.030295257
164	0x3e974401	0.2954407
165	0x3dc2a999	0.095050044
166	0x3e7078b9	0.23483552
167	0xbd9b8451	-0.07593597
168	0x3d82dbad	0.06389556
169	0x3e071dbd	0.13194938
170	0x3e02e066	0.12780914
171	0xbe882bb4	-0.26595843
172	0x3d5a17dd	0.053245414
173	0xbde364f7	-0.11103242
174	0x3e9a723a	0.30165273
175	0x3e39fab6	0.18162045
176	0xbd89fd0f	-0.0673772
177	0x3c6c268d	0.014413488
178	0x3ef205db	0.47270092
179	0x3e3ea232	0.1861656
180	0x3e667eaa	0.22509256
181	0x3de31c76	0.11089413
182	0xbd371622	-0.044698842
183	0x3d2c6940	0.04209256
184	0xbd43764d	-0.047720242
185	0x3d652d91	0.05595166
186	0x3db57380	0.088599205
187	0x3c62e937	0.013849548
188	0xbe1d7be0	-0.15379286
189	0xbdf5935d	-0.11990998
190	0x3e1272f6	0.14301667
191	0x3e1f5011	0.15557887
192	0x3dbf9d9b	0.09356233
193	0xbe3e0f75	-0.18560584
194	0x3d3ed57a	0.046590306
195	0x3df9ca7e	0.121968254
196	0x3de98b48	0.11403519
197	0x3dee8844	0.11647084
198	0x3d89cc5f	0.06728434
199	0xbb94a902	-0.004536749
200	0x3e288b43	0.16459374
201	0x3cadd44d	0.021219397
202	0x3dbccf16	0.09219186
203	0x3d26e7cf	0.040748414
204	0x3dd9683e	0.10615586
205	0x3d18ec53	0.03733475
206	0x3e82292d	0.2542204
207	0x3e3313ba	0.17487994
208	0xbdbd8edb	-0.09255763
209	0xbe378619	-0.17922248
210	0xbe2f4c1d	-0.17118879
211	0x3ea4be08	0.32176232
212	0x3cf829a2	0.03029329
213	0xbd48cf87	-0.04902604
214	0x3dafbcff	0.0858097
215	0x3da887f0	0.08229053
216	0xbe10241a	-0.14076272
217	0xbdbfe517	-0.09369867
218	0xbded8712	-0.11598028
219	0x3eb13887	0.3461344
220	0x3e0d467b	0.13796417
221	0xbdfea41d	-0.12433646
222	0x3edf6779	0.4363363
223	0x3d7a704c	0.06114225
224	0x3e096bce	0.1342003
225	0x3ea9cebf	0.33165547
226	0x3e90b796	0.28265065
227	0x3da30792	0.07960428
228	0x3dd1b774	0.10240069
229	0x3dbd26e7	0.09235936
230	0x3d0b1877	0.03395888
231	0x3e824db4	0.25449908
232	0x3e0b47ca	0.13601604
233	0xbcb198ca	-0.0216793
234	0x3d41e75d	0.047339786
235	0x3e84c3e4	0.25930703
236	0xbde7360c	-0.112896055
237	0xbd51c297	-0.051210966
238	0x3e07b36c	0.13252038
239	0x3cf39e87	0.029738678
240	0x3d092208	0.03347972
241	0x3d44b22f	0.04802149
242	0xbc3c29e2	-0.011484595
243	0x3dc93edc	0.098264426
244	0x3d65d5e8	0.0561122
245	0x3e19c53c	0.15016645
246	0x3e32cc78	0.17460811
247	0x3d98d90c	0.074632734
248	0x3e668b92	0.2251418
249	0x3dbfb22a	0.09360154
250	0xbd98b7cf	-0.07456934
251	0x3e9fdbdb	0.31222424
252	0x3e81e51c	0.2537011
253	0x3d9dad06	0.07699017
254	0x3d239a64	0.03994216
255	0x3e30c330	0.17261958

convs.0.linear1.bias f4 [64]
0	0x3eb6ce83	0.3570443
1	0x3ea9b15f	0.33143136
2	0x3e9791e9	0.29603508
3	0xbe9d090f	-0.30670974
4	0x3eaa2697	0.33232567
5	0xbe412500	-0.1886177
6	0x3ebafb25	0.36519733
7	0x3e48b05b	0.19598524
8	0x3ea7cd84	0.32773983
9	0x3b82725d	0.0039809183
10	0x3e97031a	0.29494554
11	0xbebb8d10	-0.3663106
12	0xbeae3874	-0.34027445
13	0x3ea49cec	0.32150972
14	0x3e9c52be	0.30531877
15	0xbea71881	-0.32635882
16	0x3eafaec8	0.34313035
17	0xbea67efa	-0.3251875
18	0x3e2fb16f	0.1715753
19	0xbebe3ddf	-0.3715658
20	0xbeb9b987	-0.3627436
21	0xbea9f826	-0.33197135
22	0x3eb67102	0.35633093
23	0x3e9ece2b	0.3101667
24	0xbe3cd40e	-0.18440267
25	0xbe844e7d	-0.25841132
26	0x3eb8cd17	0.3609397
27	0xbe976af5	-0.2957379
28	0x3e98c471	0.29837373
29	0x3ec43141	0.38318828
30	0xbec13095	-0.37732378
31	0xbeb19bec	-0.3468927
32	0xbe9d82a2	-0.30763727
33	0xbe811010	-0.25207567
34	0x3e1f94ab	0.15584056
35	0xbdfbfe35	-0.123043455
36	0xbea66d95	-0.3250548
37	0xbea0f37d	-0.31435767
38	0x3ea72c75	0.32651106
39	0x3ebf72a4	0.3739215
40	0xbeb74c5d	-0.35800448
41	0x3e936403	0.2878724
42	0x3e5b50f0	0.21417594
43	0xbea55c36	-0.32296914
44	0x3e8a877b	0.27056488
45	0x3ea47d44	0.3212682
46	0x3e83645e	0.25662512
47	0x3ea08b2e	0.31356186
48	0x3ea40ed6	0.3204257
49	0xbeb6c5a2	-0.35697657
50	0xbdff4266	-0.12463836
51	0x3e9b730d	0.30361214
52	0xbeb76c27	-0.358247
53	0x3bb0387c	0.005377827
54	0xbe97dafd	-0.29659262
55	0x3eb09253	0.34486637
56	0xbe9ad4d2	-0.30240494
57	0xbeb2cf8f	-0.3492398
58	0xbeae5ac9	-0.3405364
59	0xbeb1ed60	-0.34751415
60	0x3f13273a	0.5748173
61	0xbd6d65fc	-0.057958588
62	0xbece3ce8	-0.40280843
63	0xbea1e6bd	-0.31621352

convs.0.linear2.weight f4 [64, 64]
0	0xbebc59f7	-0.36787388
1	0xbefa767b	-0.48918518
2	0xbeb83dfa	-0.35984784
3	0x3f27a0ee	0.65479934
4	0xbec346d6	-0.3813998
5	0x3ed10e85	0.4083139
6	0xbeddff1a	-0.4335869
7	0x3e538e1a	0.20659676
8	0xbf0f1b2c	-0.55900836
9	0x3ed35a1f	0.41279694
10	0xbe5da1c4	-0.2164374
11	0x3ead3b2c	0.33834207
12	0x3ed05342	0.4068852
13	0xbeb58354	-0.35451758
14	0xbe6d6401	-0.2318268
15	0x3eced0a6	0.4039356
16	0xbf00939d	-0.5022524
17	0x3eb0bbcb	0.34518275
18	0xbeb45554	-0.3522135
19	0x3ec3e5a2	0.38261133
20	0x3f0625be	0.5240134
21	0x3eb7173b	0.3575991
22	0xbefb7224	-0.4911052
23	0xbf0069d5	-0.50161487
24	0x3ec5646e	0.38553184
25	0x3ee3d628	0.44499326
26	0xbee7410c	-0.45166814
27	0x3ed6e4e3	0.41971502
28	0xbe947857	-0.28998062
29	0xbf06be5d	-0.5263422
30	0x3ead74fe	0.3387832
31	0x3eccaae6	0.39974135
32	0x3e95d2e6	0.29262465
33	0x3eeafd08	0.45896173
34	0xbe5df8ec	-0.21676987
35	0x3e8d9383	0.27651605
36	0x3ef8ce30	0.4859481
37	0x3e92b0ab	0.28650412
38	0xbf150460	-0.582098
39	0xbec0d309	-0.37661007
40	0x3ef39c3b	0.47580132
41	0xbea8250c	-0.32840765
42	0xbed7341f	-0.42031953
43	0x3ef9f7cc	0.48821867
44	0xbeaa063d	-0.33207884
45	0xbf0794e2	-0.5296155
46	0xbe66ba0a	-0.22531906
47	0xbe98fec3	-0.29881868
48	0xbea5f3fd	-0.3241271
49	0x3eeac31c	0.45851982
50	0x3ea1dd83	0.31614313
51	0xbed0d144	-0.40784657
52	0x3e60aed3	0.2194169
53	0xbe6bbea1	-0.23021938
54	0x3ea69d92	0.32542092
55	0xbef1df76	-0.472408
56	0x3ebe49b8	0.37165618
57	0x3ec1204e	0.3771996
58	0x3eca0f0d	0.39464608
59	0x3ed79efe	0.4211349
60	0xbe721c4a	-0.23643604
61	0x3eaa6733	0.3328186
62	0x3f1f237e	0.6216353
63	0x3f01b3b9	0.5066486
64	0x3dda826f	0.106694095
65	0x3e756733	0.23965149
66	0x3e982e52	0.2972284
67	0xbecbe7e1	-0.39825347
68	0x3dd72600	0.10505295
69	0xbe954b3c	-0.29158962
70	0x3ea2eac0	0.31819725
71	0xbd1ca4e2	-0.038243182
72	0x3e9d5083	0.30725488
73	0x3de247f2	0.11048879
74	0x3e160807	0.146515
75	0xbdeb7b7f	-0.114981644
76	0xbdf4357a	-0.11924262
77	0x3e001d2a	0.12511125
78	0x3e28a647	0.1646968
79	0xbe8db57b	-0.2767752
80	0x3e422954	0.18961078
81	0xbe82800c	-0.25488317
82	0x3df665a7	0.120311074
83	0xbe672882	-0.22574046
84	0xbea260af	-0.3171439
85	0xbe4ee847	-0.20205794
86	0x3e5102d8	0.20411241
87	0x3e28d04e	0.16485712
88	0xbe112bb5	-0.14176829
89	0xbde22e7d	-0.11044023
90	0x3e8ac9fe	0.27107233
91	0xbe966c09	-0.293793
92	0x3e62fdb8	0.22167099
93	0x3e56d5b8	0.20979965
94	0xbdd669b4	-0.1046938
95	0xbe79d262	-0.24396661
96	0xbe7b878d	-0.24563427
97	0xbe8424d4	-0.25809348
98	0x3e32e23d	0.17469116
99	0x3da17e11	0.078853734
100	0xbe8d23ea	-0.27566463
101	0xbe846dc8	-0.25865006
102	0x3e825d22	0.2546168
103	0x3e2efed1	0.17089392
104	0xbf19c1f0	-0.6006155
105	0x3e5ef333	0.2177246
106	0x3e49466e	0.19655773
107	0xbe4371dc	-0.19086403
108	0x3e4d6e94	0.20061713
109	0x3e3f7ca3	0.18699889
110	0x3df85c72	0.121270075
111	0x3db570d7	0.08859413
112	0x3df864b7	0.12128585
113	0xbe955dc6	-0.29173106
114	0x3dfd9db2	0.123835936
115	0x3db3762a	0.087627724
116	0xbe7574e0	-0.23970366
117	0xbd71d8e1	-0.059044722
118	0xbe5d30b2	-0.21600607
119	0x3e3468f0	0.17618155
120	0xbe0cbec1	-0.13744642
121	0xbe0aa5fb	-0.13539879
122	0xbea3c190	-0.31983614
123	0xbdf3fdd6	-0.1191365
124	0x3ecde912	0.4021688
125	0xbe880c0e	-0.26571697
126	0xbeb6a22d	-0.35670605
127	0xbe82dba8	-0.2555821
128	0x3e97818e	0.2959103
129	0x3debc060	0.11511302
130	0x3dd6b537	0.10483783
131	0xbebad62f	-0.36491534
132	0x3e1b054a	0.15138736
133	0xbd88d740	-0.06681681
134	0x3e9ee84a	0.31036597
135	0xbd4838de	-0.048882358
136	0x3e7b4217	0.2453693
137	0x3d8dcbd4	0.06923643
138	0x3e23729e	0.15961692
139	0xbe8240e8	-0.25440145
140	0xbe849f47	-0.2590277
141	0x3db70ea4	0.08938339
142	0x3e188403	0.14894108
143	0xbea44e09	-0.32090786
144	0x3e52b301	0.20576097
145	0xbe22e671	-0.15908219
146	0x3ead1da9	0.3381169
147	0xbe4b3085	-0.19842727
148	0xbe9c9b0a	-0.30587035
149	0xbe6e29d4	-0.23258144
150	0x3e7998ed	0.24374743
151	0x3e4b1c13	0.19834928
152	0xbe396c93	-0.18107824
153	0xbe218d67	-0.15776597
154	0x3e39a20d	0.18128224
155	0xbe3d7642	-0.18502143
156	0x3decec19	0.115684696
157	0x3eb2cb9a	0.3492096
158	0xbe493362	-0.19648507
159	0xbf07236a	-0.5278841
160	0xbda7d34d	-0.08194599
161	0xbdac315d	-0.08407853
162	0x3e003108	0.12518704
163	0x39602e2a	0.00021379502
164	0xbdd4c29b	-0.103886805
165	0xbe252c09	-0.1613008
166	0x3dd71568	0.1050213
167	0x3d86a6db	0.06574794
168	0xbf086086	-0.53272283
169	0x3e358bcb	0.17729108
170	0x3e95e427	0.2927563
171	0xbe2eda39	-0.17075433
172	0x3e5abe1e	0.21361586
173	0x3e893ae1	0.26802734
174	0x3e34150d	0.17586155
175	0x3e883f0b	0.26610598
176	0x3da4e3e7	0.080512814
177	0xbeae510f	-0.34046218
178	0x3e863518	0.26212382
179	0x3e88918f	0.26673552
180	0xbe8e18e2	-0.2775336
181	0xbe2663d7	-0.16249023
182	0xbe24250d	-0.16029759
183	0x3e86e132	0.26343685
184	0xbdd1cb5f	-0.10243868
185	0xbd9e3a17	-0.077259235
186	0xbe109952	-0.14120987
187	0xbe7cf3a7	-0.24702321
188	0x3ec6dbbe	0.38839525
189	0xbe8608c3	-0.2617856
190	0xbeaacbfd	-0.33358756
191	0xbe852a8d	-0.26009026
192	0xbeb77821	-0.3583384
193	0xbe9541af	-0.29151675
194	0xbe91a03f	-0.2844257
195	0x3f172cb6	0.590526
196	0xbeb25830	-0.34832907
197	0x3e860953	0.2617899
198	0xbea421bb	-0.32056984
199	0x3e135adf	0.14390133
200	0xbf19e5f8	-0.6011653
201	0x3f05bc88	0.522408
202	0xbeb69340	-0.35659218
203	0x3ed3ccea	0.41367275
204	0x3ef8a359	0.48562124
205	0xbe4896c5	-0.19588764
206	0xbeb1b0f7	-0.34705326
207	0x3f0e3b4a	0.5555922
208	0xbe94752d	-0.28995648
209	0x3eda678e	0.4265713
210	0xbf0e454b	-0.5557448
211	0x3eab1a46	0.33418483
212	0x3f05873a	0.52159464
213	0x3ef31122	0.4747401
214	0xbeada55f	-0.3391523
215	0xbf08230b	-0.5317847
216	0x3eba50a1	0.3638964
217	0x3ee6fd7a	0.45115262
218	0xbe80fe61	-0.25194076
219	0x3ed4d776	0.41570634
220	0xbed54ac6	-0.4165861
221	0xbf0cb01e	-0.54956234
222	0x3ef8ad6e	0.48569816
223	0x3ef6a02e	0.48169082
224	0x3e622886	0.22085771
225	0x3e72884e	0.23684809
226	0xbe8bdee5	-0.27318493
227	0x3ece4d78	0.4029348
228	0x3ef8e4bd	0.48612013
229	0x3e9f4205	0.31105056
230	0xbefe1181	-0.4962273
231	0xbe997dc7	-0.29978773
232	0x3f1554fc	0.583328
233	0xbec490cf	-0.3839173
234	0xbf0463a5	-0.51714545
235	0x3ee3fe2a	0.4452985
236	0xbeca28be	-0.3948421
237	0xbf0ee808	-0.558228
238	0xbe2a977f	-0.16659354
239	0xbe931d2f	-0.28733203
240	0xbe5d6dd3	-0.21623926
241	0x3e802eb8	0.25035644
242	0x3e5f86b6	0.21828732
243	0xbf0ace3e	-0.5422095
244	0x3eb14622	0.3462382
245	0xbdafd2b3	-0.085851096
246	0x3e6cd068	0.23126376
247	0xbebd9ecf	-0.37035224
248	0x3eb279e3	0.34858617
249	0x3e8af79e	0.27142042
250	0x3ed4275d	0.41436282
251	0x3ede341e	0.43399137
252	0xbf005d7b	-0.5014264
253	0x3ee66a34	0.45002902
254	0x3f3068c4	0.6890986
255	0x3ec9a891	0.39386418

convs.0.linear2.bias f4 [64]
0	0xbeb15451	-0.3463464
1	0x3eba0cd1	0.36337903
2	0x3ec1de6e	0.37865013
3	0xbed162db	-0.40895733
4	0xbedcbe33	-0.4311386
5	0x3e54719f	0.20746468
6	0xbec6ca4a	-0.3882621
7	0xbecce124	-0.4001552
8	0x3ed60e1c	0.4180764
9	0x3e832d1d	0.25620356
10	0xbede67a1	-0.43438438
11	0x3e924c1c	0.28573692
12	0xbeb93495	-0.3617293
13	0x3e989c2e	0.29806656
14	0xbed0d409	-0.4078677
15	0xbee18984	-0.4405023
16	0xbea00b53	-0.3125864
17	0xbec09d42	-0.37619978
18	0x3ec395c3	0.38200197
19	0x3eb6056a	0.35551006
20	0xbedf9b7e	-0.4367332
21	0xbd8438cb	-0.06456145
22	0xbec5e2d4	-0.3864962
23	0xbed7eb5d	-0.42171755
24	0xbeb770b9	-0.35828188
25	0xbf91ba28	-1.1384935
26	0xbea2c303	-0.31789407
27	0xbec572e8	-0.3856423
28	0xbef73c1e	-0.48288053
29	0xbef14904	-0.4712602
30	0xbf032699	-0.5123077
31	0xbecff4b2	-0.40616375
32	0xbf9ef035	-1.2417055
33	0x3e136532	0.14394072
34	0x3e5fdfb3	0.21862678
35	0xbecdec58	-0.40219378
36	0x3e89ccf7	0.26914188
37	0xbedfecfb	-0.4373549
38	0xbebd6f26	-0.36998862
39	0xbebc44a0	-0.36771107
40	0x3e383902	0.17990497
41	0xbee693a1	-0.45034507
42	0x3e9042ca	0.28175956
43	0x3c2a370d	0.010389102
44	0xbf2a78ff	-0.66590875
45	0x3ec21cb6	0.3791253
46	0xbef77738	-0.48333144
47	0xbe3a5650	-0.18196988
48	0x3eae1ae3	0.34004888
49	0xbed1dbc1	-0.4098797
50	0x3ecd2bb8	0.40072417
51	0xbedaec54	-0.4275843
52	0xbf3da208	-0.74075365
53	0xbec0db9d	-0.37667552
54	0xbed9d298	-0.42543483
55	0x3e08e184	0.13367277
56	0xbed4140c	-0.41421545
57	0xbeb0e1e6	-0.34547347
58	0xbed1aabb	-0.4095057
59	0xbeb30971	-0.3496814
60	0x3d91113b	0.070833646
61	0xbefeb535	-0.49747625
62	0x3e6e87c3	0.23293976
63	0xbf006dcf	-0.50167555

convs.1.a f4 [128, 1]
0	0xa7c0b5f4	-5.348798e-15
1	0x3e2e5166	0.17023239
2	0x3d4dd4b9	0.050251696
3	0x00000000	0.0
4	0x00000000	0.0
5	0x3c949254	0.018136181
6	0x00000000	0.0
7	0x00000000	0.0
8	0x3e496665	0.19667967
9	0x3d009374	0.031390622
10	0x00000000	0.0
11	0x3d21fdc9	0.03954867
12	0x2d589118	1.2310396e-11
13	0x3de5308c	0.111909
14	0x00000000	0.0
15	0x00000000	0.0
16	0x00000000	0.0
17	0x00000000	0.0
18	0x3d4240ed	0.0474252
19	0x3dab8d32	0.0837654
20	0x00000000	0.0
21	0x3dbd1713	0.09232917
22	0x00000000	0.0
23	0x00000000	0.0
24	0x00000000	0.0
25	0xb27873e3	-1.44618495e-08
26	0x00000000	0.0
27	0x00000000	0.0
28	0x00000000	0.0
29	0x00000000	0.0
30	0x00000000	0.0
31	0x00000000	0.0
32	0x3447754e	1.8575994e-07
33	0xbb898bff	-0.004197597
34	0x3d12dc30	0.03585452
35	0x00000000	0.0
36	0x3e69414f	0.2277882
37	0x00000000	0.0
38	0x00000000	0.0
39	0x3d9c1c5f	0.07622599
40	0x3c424cb5	0.011859109
41	0x00000000	0.0
42	0x3e16ceb6	0.14727291
43	0xbc16f49e	-0.009213595
44	0x394d87db	0.00019600934
45	0x3c9be6f8	0.019031033
46	0x00000000	0.0
47	0x2fe44a8a	4.1525922e-10
48	0xbe36959c	-0.17830509
49	0x00000000	0.0
50	0x3e2d2728	0.16909468
51	0x00000000	0.0
52	0x00000000	0.0
53	0x00000000	0.0
54	0x00000000	0.0
55	0x3b459891	0.003015075
56	0x00000000	0.0
57	0x00000000	0.0
58	0x00000000	0.0
59	0x00000000	0.0
60	0x3cd7f899	0.026363658
61	0x00000000	0.0
62	0x3ddeeaae	0.10884605
63	0x00000000	0.0
64	0xbee41485	-0.44546905
65	0x3da5f92c	0.081041664
66	0x3da5a6cb	0.08088454
67	0xbee85d56	-0.4538371
68	0xbeebe621	-0.46074012
69	0x3d8e3e90	0.069455266
70	0xbef5a84c	-0.47979963
71	0xbf292089	-0.6606527
72	0x3da23af6	0.07921402
73	0x3d7251f1	0.059160177
74	0xbee05a0a	-0.43818694
75	0x3daac169	0.08337671
76	0xbf007c45	-0.5018962
77	0x3d56002b	0.052246254
78	0xbf0649af	-0.5245618
79	0xbeefdb1a	-0.4684685
80	0xbee7cd48	-0.45273805
81	0xbee78faa	-0.45226794
82	0x3d9e64df	0.077340834
83	0x3d92af24	0.07162312
84	0xbeea6021	-0.45776466
85	0x3d421b78	0.047389477
86	0xbf0013ce	-0.5003022
87	0xbee749de	-0.45173544
88	0xbed9549b	-0.4244736
89	0xc03c19aa	-2.9390664
90	0xbefd50cb	-0.49475703
91	0xbef5f2f8	-0.48036933
92	0xbee73cbb	-0.4516352
93	0xbee8e76b	-0.45489058
94	0xbedf0c1e	-0.43563932
95	0xbee763f5	-0.4519345
96	0xc0558b2d	-3.3366196
97	0x3e1427ef	0.14468358
98	0x3d907b80	0.07054806
99	0xbef1dbf8	-0.47238135
100	0x3d7a546b	0.061115663
101	0xbee277d6	-0.44232053
102	0xbef30099	-0.47461393
103	0xbdda508e	-0.10659896
104	0x3e7e06c6	0.24807271
105	0xbef1ba45	-0.47212425
106	0x3d7bedcc	0.061506078
107	0xbed3e27e	-0.41383737
108	0xbfa0d0fd	-1.2563778
109	0x3da9a978	0.08284277
110	0xbf00c586	-0.50301397
111	0xbf07f798	-0.53112173
112	0x3dc9f82e	0.0986179
113	0xbef46ede	-0.47740835
114	0x3ddb3eb9	0.10705323
115	0xbee20d75	-0.44150892
116	0xbf80baa2	-1.0056956
117	0xbedbdb91	-0.42940953
118	0xbef49783	-0.47771844
119	0x3d628b59	0.055308674
120	0xbef51b25	-0.47872272
121	0xbee4a2ed	-0.44655553
122	0xbef1b2f9	-0.47206858
123	0xbee919f2	-0.45527607
124	0x3eafa691	0.34306768
125	0xbf0713a5	-0.5276435
126	0x3d438794	0.04773672
127	0xbeef38c6	-0.46723002

convs.1.linear1.weight f4 [64, 64]
0	0x3e8db58c	0.27677572
1	0x3e18e01f	0.14929245
2	0x3e159549	0.14607729
3	0x3e85bf99	0.2612274
4	0x3e27406e	0.16333172
5	0xbd16f67a	-0.036856152
6	0x3e723e80	0.23656654
7	0x3edbb8f9	0.4291456
8	0x3ce86287	0.028367294
9	0x3bb7a5fd	0.005604504
10	0x3e7c8170	0.24658751
11	0x3de2290e	0.11042987
12	0x3ead429f	0.3383989
13	0xbc0bbd7a	-0.008529061
14	0x3ec1480a	0.37750274
15	0x3ea7e3eb	0.32791075
16	0x3dc75591	0.09733117
17	0x3eb44fbb	0.3521708
18	0x3d91053b	0.07081076
19	0x3e1d6599	0.15370788
20	0x3e892fcf	0.26794288
21	0xbe19dd32	-0.15025786
22	0x3e53a707	0.20669185
23	0x3ebc574f	0.3678536
24	0x3e18a169	0.14905323
25	0x3f97e60d	1.1867081
26	0x3e5cc17b	0.21558182
27	0x3e85bb13	0.2611929
28	0x3eb1da96	0.3473708
29	0x3e97b8fd	0.29633322
30	0x3ebe2eef	0.37145182
31	0x3e639c20	0.22227526
32	0x3f629ab2	0.88517296
33	0x3ea4f04e	0.32214588
34	0x3e280527	0.16408215
35	0x3e409586	0.18807039
36	0xbd78a113	-0.060700487
37	0x3e3dc8e5	0.18533666
38	0x3e94cdf1	0.2906337
39	0xbe519de9	-0.20470394
40	0x3e05cca9	0.13066353
41	0x3ed04df2	0.40684468
42	0xbd9a557d	-0.07535837
43	0xbe844f96	-0.2584197
44	0x3efdd9d2	0.49580246
45	0x3dac285c	0.084061354
46	0x3ecf4581	0.40482715
47	0x3db38339	0.08765263
48	0x3b6f9985	0.003656001
49	0x3dec2e6d	0.115322925
50	0x3e3b2fa8	0.18279898
51	0x3eb9dc6e	0.36300987
52	0x3f0865f2	0.53280556
53	0x3eaa22a7	0.33229563
54	0x3ec5ff64	0.3867141
55	0x3ee5f4c8	0.44913316
56	0x3e9115fe	0.2833709
57	0x3e9cb89c	0.30609596
58	0x3e255d97	0.16148983
59	0x3e65e867	0.22451936
60	0x3f211151	0.6291705
61	0x3ea670bf	0.32507893
62	0xbdbdf344	-0.09274915
63	0x3e81d662	0.25358874
64	0x3e95e51d	0.29276362
65	0xbd946865	-0.07246474
66	0x3ddb0027	0.106933884
67	0x3e46b33a	0.19404307
68	0x3e4bec90	0.1991446
69	0xbc9cf256	-0.019158524
70	0x3eac7bbd	0.33688155
71	0x3dcd6c34	0.10030404
72	0x3da3b45a	0.07993384
73	0xbd14ab90	-0.036296427
74	0x3e05e984	0.1307736
75	0x3e021462	0.12703088
76	0x3e6fece1	0.23430206
77	0xbdf501e3	-0.119632505
78	0x3ea0b991	0.31391576
79	0x3e983fe5	0.29736248
80	0x3e2a1406	0.16609201
81	0x3e0a69a8	0.13516867
82	0x3cd4f7c7	0.025997056
83	0x3d9908d3	0.07472386
84	0x3de8fcb8	0.11376327
85	0xbc3629f7	-0.011118404
86	0x3ea83598	0.3285339
87	0x3e14a7eb	0.1451718
88	0x3db99c83	0.09063055
89	0x3ee2770a	0.44231445
90	0x3dc0afa6	0.09408502
91	0x3eb3233c	0.3498782
92	0x3e79545d	0.24348588
93	0x3e361b17	0.17783771
94	0x3ea746fb	0.3267134
95	0x3eaafa29	0.33393982
96	0x3ec4a1c5	0.3840467
97	0xbccbb2d6	-0.024865549
98	0xbd8d840b	-0.06909951
99	0x3ea12b71	0.31478456
100	0x3d2863ad	0.041110683
101	0x3e9d2da4	0.30698884
102	0x3e725a95	0.23667367
103	0xbecf4216	-0.40480107
104	0xbd77d03c	-0.060501322
105	0x3de7c1eb	0.11316284
106	0xbdd875e1	-0.105693586
107	0xbe956ba0	-0.29183674
108	0x3eb8b1a3	0.36073026
109	0x3cad6904	0.02116824
110	0x3e481768	0.19540179
111	0x3e7ef7cc	0.24899215
112	0xbbd3321e	-0.0064451834
113	0x3e9f748c	0.31143606
114	0x3c366ef6	0.011134854
115	0x3e9400e7	0.28906938
116	0x3e499122	0.1968427
117	0x3e209517	0.15681873
118	0x3e5c459e	0.21510932
119	0x3e41a728	0.18911421
120	0x3e83a86c	0.25714433
121	0x3e58de7c	0.21178621
122	0x3dd18e4e	0.102322206
123	0x3e9b5b73	0.30343208
124	0x3f076611	0.52890116
125	0x3e14a195	0.14514764
126	0x3c947fa9	0.01812728
127	0x3eb036f1	0.34416917
128	0x3e51a5ed	0.20473452
129	0x3e3cb74c	0.18429297
130	0x3dfc0e8b	0.12307461
131	0x3e9fad0e	0.31186718
132	0x3ea66608	0.3249972
133	0x3b99099c	0.004670335
134	0x3e86d974	0.2633778
135	0x3ecfb947	0.40571043
136	0x3e3dcbb6	0.18534741
137	0x3ca880b2	0.02056918
138	0x3eb3baf3	0.35103568
139	0xbca22f41	-0.019797923
140	0x3e695d1a	0.22789422
141	0xbd9864d4	-0.074411064
142	0x3ed1555d	0.4088544
143	0x3e85b0a7	0.26111338
144	0x3da8c65f	0.08240961
145	0x3e64b7cb	0.22335736
146	0x3d0ca9d0	0.034341633
147	0xbbc93e42	-0.006141455
148	0x3eb4bc1d	0.3529977
149	0x3d4e596d	0.05037825
150	0x3ed7d10b	0.42151675
151	0x3e82449e	0.25442976
152	0x3e42c132	0.1901901
153	0x3f9062d3	1.1280159
154	0x3e1189d2	0.1421273
155	0x3e99c4a6	0.30032843
156	0x3ea30225	0.31837574
157	0x3e13d4c6	0.14436635
158	0x3e31f086	0.17376909
159	0x3e50b2e8	0.20380747
160	0x3f86150b	1.0475172
161	0x3e35c7b2	0.17751959
162	0x3e033819	0.12814368
163	0x3e918872	0.28424412
164	0x3d78c779	0.060737107
165	0x3ddd51a3	0.108065866
166	0x3e7dd512	0.24788311
167	0xbed68d6c	-0.4190477
168	0x3db2e64b	0.08735331
169	0x3ebdee2c	0.37095773
170	0x3d151a72	0.036402173
171	0xbe4b7e30	-0.19872355
172	0x3f226bf4	0.63445973
173	0x3cdaf2a4	0.026727028
174	0x3ecad506	0.3961565
175	0x3e9412f0	0.28920698
176	0x3e04bae3	0.12961917
177	0x3e17b449	0.14814867
178	0x3d9754b4	0.07389203
179	0x3e4fac63	0.20280604
180	0x3edf6e65	0.43638912
181	0x3e855235	0.2603928
182	0x3ece1c56	0.40255994
183	0x3ed34976	0.41266984
184	0x3e81794d	0.25287858
185	0x3e7aa5a7	0.24477254
186	0x3e86cc95	0.2632796
187	0x3e901ecb	0.28148493
188	0x3f339453	0.701482
189	0x3ededec8	0.43529344
190	0x3df0ca6c	0.11757359
191	0x3eb03374	0.34414256
192	0xbe1e262c	-0.15444249
193	0xbcd5a9ba	-0.026081908
194	0x3d6e75d3	0.058217835
195	0xbe63e541	-0.22255422
196	0xbec2fbaa	-0.3808263
197	0xbd3eb77e	-0.04656171
198	0xbeac68bc	-0.33673656
199	0xbea41284	-0.32045376
200	0xbdf4a540	-0.119455814
201	0x3e0955b7	0.13411604
202	0xbe839694	-0.2570082
203	0x3da2a217	0.079410724
204	0xbe9a4d6e	-0.301372
205	0x3d91af1c	0.071134776
206	0xbec7db37	-0.39034435
207	0xbedf94d7	-0.43668243
208	0xbe73e4ff	-0.23817824
209	0xbe863d9d	-0.26218882
210	0xbde2c8c4	-0.11073449
211	0xbdde1eb4	-0.108457
212	0xbe6f6b0c	-0.23380679
213	0x3e188e99	0.14898147
214	0xbea06ba8	-0.31332135
215	0xbe9f38d3	-0.3109804
216	0xbed4f26b	-0.415912
217	0xc04ce69d	-3.2015755
218	0xbe878741	-0.26470378
219	0xbea342df	-0.31886956
220	0xbe6868b2	-0.22696188
221	0xbed525c6	-0.4163038
222	0xbeec6ea4	-0.46178162
223	0xbe5d25ae	-0.21596405
224	0xc01cc40d	-2.449466
225	0xbe9d0294	-0.3066603
226	0xbe0975fa	-0.1342391
227	0xbedf6288	-0.4362986
228	0x3d89bb9d	0.067252375
229	0xbec90eda	-0.39269143
230	0xbe4059f0	-0.18784308
231	0x3ebec63b	0.37260613
232	0xbe061f06	-0.13097772
233	0xbe935528	-0.28775907
234	0x3c210ad7	0.009829245
235	0x3e288c9a	0.16459885
236	0xbf5ce535	-0.8628724
237	0xbde4e1b8	-0.11175865
238	0xbecf6463	-0.40506276
239	0xbdffb321	-0.12485338
240	0xbd18cf4d	-0.037307072
241	0xbecb22a2	-0.3967486
242	0xbdb6c630	-0.0892452
243	0xbed1f59b	-0.41007695
244	0xbf6b0012	-0.9179698
245	0xbe2aaec8	-0.16668236
246	0xbecff6e6	-0.40618056
247	0xbf059a80	-0.52188873
248	0xbeb60368	-0.35549474
249	0xbe84030c	-0.25783575
250	0xbeadd38e	-0.33950466
251	0xbe3245e5	-0.17409475
252	0xbf26c3be	-0.6514243
253	0xbf02dd63	-0.5111906
254	0xbdb3d03a	-0.087799504
255	0xbe75ce5f	-0.24004506

convs.1.linear1.bias f4 [64]
0	0xbea9beff	-0.3315353
1	0xbe25475c	-0.16140503
2	0xbeadc8cd	-0.3394226
3	0x3eac4467	0.33645937
4	0xbee3a2c4	-0.44460118
5	0x3ea840cd	0.3286194
6	0xbee47a03	-0.44624338
7	0x3eca7d5f	0.39548776
8	0x3eb7a539	0.35868242
9	0xbea866c2	-0.32890898
10	0x3eb4b73c	0.35296047
11	0xbe84f7a1	-0.25970176
12	0x3ebd8052	0.37011963
13	0xbed42f56	-0.41442364
14	0x3eda962c	0.42692697
15	0xbe9222c7	-0.28542158
16	0xbe8ae2dd	-0.27126208
17	0x3ec39e32	0.3820663
18	0x3ed4e30d	0.41579476
19	0x3ed8f8c1	0.42377284
20	0x3ee61f67	0.44945833
21	0x3eb74455	0.3579432
22	0xbe9d1720	-0.30681705
23	0x3ee15084	0.4400674
24	0x3ed4eecc	0.41588438
25	0x3e41f1f4	0.18939954
26	0xbe91b1a6	-0.28455848
27	0x3eb4b049	0.35290745
28	0x3eacea3a	0.3377245
29	0xbead7812	-0.3388067
30	0xbe87d504	-0.26529706
31	0x3ec29aa1	0.38008597
32	0xbee16c32	-0.4402786
33	0xbec4ef47	-0.38463804
34	0x3ebe9227	0.3722088
35	0x3ec34522	0.38138682
36	0x3ed1dccf	0.40988776
37	0xbee88ce9	-0.45420006
38	0xbeab9bd5	-0.33517328
39	0x3eb69c53	0.3566614
40	0xbec57bd7	-0.38571045
41	0x3ec91285	0.39271942
42	0x3edc0b52	0.42977387
43	0x3ed95bd0	0.4245286
44	0x3eb00711	0.3438039
45	0xbeecbc0f	-0.46237227
46	0x3ed1a669	0.40947273
47	0xbec94619	-0.39311293
48	0x3eb3a1be	0.35084337
49	0x3eb5bca7	0.35495493
50	0xbecce4bd	-0.40018263
51	0x3edd2638	0.4319322
52	0xbe90a575	-0.28251234
53	0xbeba0b3f	-0.36336705
54	0xbebcc83d	-0.3687152
55	0xbeb33d53	-0.35007724
56	0x3ecfe637	0.40605327
57	0xbeb9844b	-0.36233744
58	0x3ec018f4	0.37519038
59	0xbec44131	-0.38330987
60	0xbe8dd5ac	-0.2770208
61	0x3e276ca1	0.16350032
62	0x3ee696a0	0.45036793
63	0xbee2f160	-0.4432478

convs.1.linear2.weight f4 [64, 64]
0	0xbe9d06fd	-0.30669394
1	0xbe78c240	-0.2429285
2	0xbecd39df	-0.40083215
3	0x3ee09c43	0.43869218
4	0xbe75bf85	-0.2399884
5	0x3ebee658	0.37285113
6	0xbe7b23e1	-0.24525405
7	0x3f2265bc	0.63436484
8	0x3ef6897c	0.48151767
9	0xbeede528	-0.46463895
10	0x3ec42344	0.38308156
11	0xbedd1b98	-0.43185115
12	0x3e78e8ec	0.24307603
13	0xbef7b5c5	-0.48380867
14	0x3eaef905	0.34174362
15	0xbed75aec	-0.42061555
16	0xbe91162f	-0.28337237
17	0x3eb09d25	0.34494892
18	0x3e99bc81	0.3002663
19	0x3ec2158d	0.37907067
20	0x3f485e36	0.78268754
21	0x3eba6c3c	0.364107
22	0xbf0b4583	-0.5440294
23	0x3ede02b5	0.4336144
24	0x3ef183ce	0.47170871
25	0x3df8b52c	0.12143931
26	0xbf59476f	-0.84874624
27	0x3e988bb6	0.2979409
28	0x3ebe64ef	0.3718638
29	0xbebe8910	-0.37213945
30	0xbe99fdfc	-0.30076587
31	0x3eaf8db5	0.342878
32	0xbed1d664	-0.4098388
33	0xbe9e2963	-0.3089095
34	0x3e9033d0	0.2816453
35	0x3e812f17	0.2523124
36	0x3ea1694b	0.31525645
37	0xbe54e714	-0.20791274
38	0xbeef4159	-0.46729544
39	0x3f00d699	0.5032745
40	0xbec3734d	-0.38173905
41	0x3e836dd4	0.2566973
42	0x3ea784a8	0.32718396
43	0x3f074c99	0.52851254
44	0x3e96915d	0.29407778
45	0xbe8c3015	-0.27380434
46	0x3eb6b34c	0.35683668
47	0xbe9f25f0	-0.31083632
48	0x3ec9c37b	0.39406952
49	0x3ecc4bfb	0.39901718
50	0xbeda9662	-0.42692858
51	0x3ed72d02	0.42026526
52	0xbeb2633b	-0.34841332
53	0xbf0b7dc1	-0.5448876
54	0xbe7ca8cb	-0.24673764
55	0xbe8175dd	-0.25285235
56	0x3f0c1802	0.54724133
57	0xbef86a4c	-0.48518598
58	0x3ea76ecc	0.3270172
59	0xbeb6b280	-0.3568306
60	0xbf062672	-0.5240241
61	0x3e1bc905	0.15213402
62	0x3e5c66ee	0.2152364
63	0xbe4e79d8	-0.20163667
64	0xbec291aa	-0.38001758
65	0xbe703e70	-0.23461318
66	0xbeb4a47c	-0.35281742
67	0x3edb13c2	0.42788512
68	0xbea1dbbe	-0.31612962
69	0x3ec0aa9b	0.37630162
70	0xbe99c52b	-0.3003324
71	0x3f3aaa38	0.72915983
72	0x3e99b8a5	0.30023685
73	0xbeedf65e	-0.46477026
74	0x3ec196bf	0.37810323
75	0xbee58ed1	-0.44835523
76	0x3ec6cdc6	0.38828868
77	0xbea7e876	-0.3279454
78	0x3ecc5cc5	0.39914528
79	0xbeebaef1	-0.46031907
80	0xbeb22564	-0.34794152
81	0x3ea1cb9e	0.3160066
82	0x3e8c9f93	0.27465495
83	0x3e840a38	0.25789046
84	0x3f5068fa	0.8141018
85	0x3e41b946	0.18918332
86	0xbedc20f2	-0.42993885
87	0x3e9963b8	0.29958892
88	0x3ee49dd7	0.44651672
89	0x3d9bd6a0	0.07609296
90	0xbf2f88cf	-0.6856813
91	0x3ea4de44	0.32200825
92	0x3eb76cf8	0.35825324
93	0xbef359cd	-0.4752945
94	0xbeb9d09a	-0.36291963
95	0x3ecf3285	0.4046823
96	0xbef8d629	-0.4860089
97	0xbec30303	-0.38088235
98	0x3ef54b44	0.47908986
99	0x3e7fb700	0.24972153
100	0x3e93689b	0.28790745
101	0xbe855a68	-0.26045537
102	0xbe9b7b43	-0.3036748
103	0x3eec0b29	0.46102265
104	0xbeb12406	-0.34597796
105	0x3e4043fc	0.18775934
106	0x3ec0f461	0.37686446
107	0x3f13cb9b	0.5773255
108	0x3e9ba9a9	0.30402878
109	0xbea0cc5e	-0.3140592
110	0x3e65b0f7	0.22430788
111	0xbeb32f6e	-0.34997123
112	0x3ee3feaf	0.44530246
113	0x3e8dd31b	0.27700123
114	0xbf11ef09	-0.57005364
115	0x3ec4ad32	0.38413388
116	0xbe626acd	-0.22111054
117	0xbf0bfb09	-0.54679924
118	0xbed1e628	-0.40995908
119	0xbe3c1a16	-0.18369326
120	0x3ee17e7a	0.44041806
121	0xbea5acdd	-0.32358447
122	0x3e7f3ff7	0.24926744
123	0xbee433bf	-0.4457073
124	0xbef94e19	-0.48692396
125	0x3dbed397	0.09317701
126	0x3ea69203	0.32533273
127	0xbe513808	-0.2043153
128	0x3ebec611	0.37260488
129	0x3e03339b	0.12812655
130	0x3ea1ff1a	0.3163994
131	0xbeba1a73	-0.36348304
132	0x3e40e58d	0.18837567
133	0xbe9cd631	-0.30632165
134	0x3eaad4ec	0.33365571
135	0xbf26f604	-0.6521914
136	0xbee0d55a	-0.43912774
137	0x3ebc71c0	0.36805534
138	0xbeb161e8	-0.3464501
139	0x3e9f9198	0.31165767
140	0xbe9585f3	-0.29203758
141	0x3ecae65f	0.39628884
142	0xbe44b157	-0.19208275
143	0x3ea36e64	0.3192016
144	0x3ebbd992	0.3668943
145	0xbec57509	-0.38565853
146	0xbe44e673	-0.19228534
147	0xbe9396eb	-0.2882608
148	0xbf45281c	-0.7701433
149	0xbea1652e	-0.31522506
150	0x3ebff449	0.37491062
151	0xbe96c6f8	-0.29448676
152	0xbe84d141	-0.25940898
153	0xbc9f7ebc	-0.019469611
154	0x3f1e2585	0.61776
155	0xbe9c6cc2	-0.30551726
156	0xbe37cc34	-0.17948991
157	0x3eb6f84a	0.35736305
158	0x3ec81666	0.3907959
159	0xbe703610	-0.23458123
160	0x3e977448	0.29580903
161	0x3e34b223	0.17646079
162	0xbeb7dbd4	-0.35909903
163	0xbe86c572	-0.26322514
164	0xbe07a0df	-0.13244961
165	0x3ea4160a	0.32048064
166	0x3e6dac89	0.23210348
167	0xbecb03e7	-0.39651415
168	0x3e6a705c	0.22894424
169	0xbe4e2bec	-0.20133942
170	0xbe9a798c	-0.30170858
171	0xbf069af0	-0.52580166
172	0xbe76b774	-0.2409342
173	0x3e63a462	0.22230676
174	0xbe6de4a6	-0.23231754
175	0x3e8dd3a9	0.27700546
176	0xbef0ac46	-0.47006434
177	0xbed03206	-0.40663165
178	0x3ebfa00a	0.37426788
179	0xbe8b92c6	-0.27260417
180	0x3e8dbb91	0.27682164
181	0x3eba738e	0.36416286
182	0x3eafeae3	0.34358892
183	0x3eb5ab5d	0.35482302
184	0xbf0ec704	-0.55772424
185	0x3ecaf62c	0.3964094
186	0xbe99844c	-0.29983747
187	0x3e5c496a	0.2151238
188	0x3eab437c	0.33449924
189	0x3d21eca5	0.039532322
190	0xbea43600	-0.3207245
191	0x3e58310f	0.21112464
192	0xbee08624	-0.4385234
193	0xbe7b3b4a	-0.24534336
194	0xbeb2fbe9	-0.34957817
195	0x3eac38f1	0.33637193
196	0xbea941e4	-0.33058083
197	0x3eeaacd1	0.45834973
198	0xbe8b2e90	-0.27183962
199	0x3f175dcb	0.5912749
200	0x3ed4c098	0.41553187
201	0xbeabcf8f	-0.33556792
202	0x3e8403ab	0.25784048
203	0xbed41abc	-0.41426647
204	0x3eb74499	0.35794523
205	0xbeb53dae	-0.3539862
206	0x3e519624	0.2046743
207	0xbec6d4f1	-0.38834336
208	0xbe8f6df7	-0.28013584
209	0x3ea00325	0.312524
210	0x3e779db9	0.2418126
211	0x3ec26427	0.37967035
212	0x3f3e1faf	0.74267095
213	0x3eb4644e	0.35232776
214	0xbf037b37	-0.51359886
215	0x3ea2304e	0.3167748
216	0x3ef02627	0.46904108
217	0x3e76aa8a	0.24088493
218	0xbf217852	-0.6307422
219	0x3e1779e0	0.14792585
220	0x3e50be31	0.20385052
221	0xbedd46ad	-0.43217984
222	0xbe90eb83	-0.2830468
223	0x3edd3ace	0.43208927
224	0xbec6f0b5	-0.3885552
225	0xbeb91045	-0.36145225
226	0x3ecafcc9	0.39645985
227	0x3eb16783	0.34649286
228	0x3e578dcd	0.21050186
229	0xbe65962c	-0.22420567
230	0xbeceee77	-0.4041631
231	0x3eb7d74b	0.35906443
232	0xbec07111	-0.37586263
233	0x3e208caf	0.15678667
234	0x3eb23ff6	0.34814423
235	0x3f0e99b8	0.55703306
236	0x3eae620c	0.3405918
237	0xbe78771b	-0.24264185
238	0x3ed65c01	0.41867068
239	0xbef3ca2b	-0.4761518
240	0x3ed2a853	0.41144046
241	0x3ee4fd7a	0.44724637
242	0xbf14fb13	-0.5819561
243	0x3e9b43fb	0.30325302
244	0xbe911d4e	-0.2834267
245	0xbea7dc3b	-0.3278521
246	0xbec068b5	-0.37579885
247	0xbe320624	-0.17385155
248	0x3f18de37	0.5971407
249	0xbed4debd	-0.41576186
250	0x3eab6b80	0.33480453
251	0xbe960c6c	-0.29306352
252	0xbee4294e	-0.44562763
253	0x3e53810a	0.20654693
254	0x3eb527b7	0.35381863
255	0xbe2bc72c	-0.16775197

convs.1.linear2.bias f4 [64]
0	0x3ed50d91	0.41611913
1	0x3ea61529	0.3243802
2	0xbeadf355	-0.3397471
3	0x3ec18984	0.3780023
4	0xbe54bfe5	-0.20776327
5	0xbb9e90f4	-0.004839057
6	0xbed7717e	-0.42078775
7	0xbdd07e28	-0.101803124
8	0x3eba7f98	0.3642547
9	0x3eaf8c3f	0.34286687
10	0xbeabb52e	-0.33536667
11	0x3eb20e90	0.34776735
12	0xbacef592	-0.0015789738
13	0xbe93b8a5	-0.2885181
14	0x3ebbbe37	0.3666856
15	0xbd362f95	-0.04447897
16	0x3eab1234	0.33412325
17	0xbed3c962	-0.4136458
18	0xbebe9f45	-0.37230888
19	0x3eab0682	0.33403403
20	0xbec5728b	-0.38563952
21	0xbea4c8d5	-0.32184473
22	0x3ea30b3c	0.3184451
23	0x3ed20916	0.41022557
24	0xbea5a23b	-0.32350335
25	0xbeb2c36c	-0.3491472
26	0x3ee055ce	0.43815464
27	0xbe756f9d	-0.23968358
28	0xbebc6ecb	-0.36803278
29	0xbeaffe56	-0.3437373
30	0x3eb55307	0.35414907
31	0x3eb1de54	0.34739935
32	0xbebd295c	-0.36945617
33	0xbeb0247d	-0.34402838
34	0xbecf174c	-0.40447462
35	0xbea60eec	-0.3243326
36	0xbeb4116b	-0.3516954
37	0xbea65ee2	-0.32494265
38	0x3eac8194	0.3369261
39	0xbead37c2	-0.33831602
40	0x3eac28e6	0.33624953
41	0x3eac5860	0.33661175
42	0xbed255b2	-0.41081005
43	0x3eb6db2d	0.35714093
44	0xbea2dec0	-0.3181057
45	0xbe8cda5f	-0.27510354
46	0xbea55b6a	-0.32296306
47	0xbe7a9f8c	-0.24474925
48	0xbe96122e	-0.29310745
49	0x3e83cab8	0.257406
50	0x3edb455a	0.4282635
51	0xbec6d293	-0.3883253
52	0x3eb3b6d4	0.35100424
53	0x3ebe27eb	0.3713983
54	0xbe8e09d0	-0.2774186
55	0xbea0412a	-0.31299716
56	0xbbeb3efd	-0.0071791396
57	0x3ebd3ba9	0.3695958
58	0x3ecc7d7b	0.39939484
59	0xbec20ae3	-0.3789893
60	0xbec37c7f	-0.3818092
61	0xbecd466b	-0.40092787
62	0x3e9cfc4f	0.30661246
63	0xbecf5639	-0.4049547
