Saved_Models/TSP_500/scatgnn_layer_2_hid_64_model_210_temp_3.500.pth (torch, 257863 bytes, 24 tensors)

bn0.weight f4 [2]
1.0 1.0
00000000: 0000 803f 0000 803f

bn0.bias f4 [2]
0.0 0.0
00000000: 0000 0000 0000 0000

bn0.running_mean f4 [2]
0.0 0.0
00000000: 0000 0000 0000 0000

bn0.running_var f4 [2]
1.0 1.0
00000000: 0000 803f 0000 803f

in_proj.weight f4 [64, 2]
-0.24619195 -0.9576894 0.947883 0.24025787 0.51050663 -0.9789751 -0.7636636 0.90384847
-0.4112477 -0.6824201 0.41702944 1.1110471 -0.85277 -0.59427416 0.67679465 1.1174688
0.9073555 0.86352485 0.6906389 -0.6163847 0.22761038 -0.7162377 -0.13162754 -0.7208713
0.87387925 0.63834625 0.714797 0.9854894 -0.43162692 1.07726 0.8868078 0.99076754
-0.45871237 -0.8292439 -0.2663714 -1.1533595 -0.16758683 -1.0999627 -0.67847747 0.4860744
0.017670348 0.6565028 -0.35544154 0.3854585 -1.0476718 -0.598673 0.6967103 0.7735894
0.3241344 0.12634316 -0.86520416 -0.34436804 -0.6992058 0.2776196 0.4425987 1.1361349
-0.5516862 0.8747225 0.049659625 -0.6104329 -0.8225024 0.7800312 -0.19111532 -0.9346599
-0.9133647 0.30008548 -0.4193714 0.91192716 -0.3833243 -1.0530097 -0.79149693 -0.9847726
0.008079252 -0.6726919 0.9858957 -0.36822885 -0.89311916 -0.65477204 1.0169556 -0.4412283
-0.9245413 0.12260606 0.52305776 -0.83038515 -0.97025585 -0.1624744 0.2352027 0.41705692
0.90519464 -0.73590535 0.5628126 0.33569035 -0.29352936 -0.8723022 -0.98397636 0.3244704
0.22660682 0.8589331 -0.7162069 0.27792266 0.16985013 -0.95021254 -0.8980795 -0.01600854
-1.1073362 0.088321894 -0.24026099 0.9700878 -0.77570295 -0.8368791 0.86281997 0.38616166
-0.913 0.15916498 -0.52194023 -0.7278179 -0.06369459 -0.82718444 0.038355425 0.8233423
-0.46325484 0.3965345 0.6081924 -0.19867267 0.5537355 -0.39660478 -0.25123417 0.1568016
00000000: be19 7cbe 222b 75bf 76a8 723f 2906 763e
00000010: 90b0 023f 1d9e 7abf 757f 43bf 9d62 673f
00000020: 0f8f d2be 15b3 2ebf e284 d53e cb36 8e3f
00000030: 224f 5abf 5a22 18bf 6a42 2d3f 3809 8f3f
00000040: 7348 683f f70f 5d3f b6cd 303f 63cb 1dbf
00000050: b212 693e 5b5b 37bf 5fc9 06be 068b 38bf
00000060: 8db6 5f3f a96a 233f f0fc 363f 0949 7c3f
00000070: 34fe dcbe a8e3 893f d605 633f f1a2 7d3f
00000080: 59dc eabe 5449 54bf d561 88be 49a1 93bf
00000090: e29b 2bbe 94cb 8cbf b3b0 2dbf bede f83e
000000a0: 68c1 903c 9110 283f 6ffc b5be d15a c53e
000000b0: 1c1a 86bf a242 19bf 9b5b 323f f409 463f
000000c0: f2f4 a53e 1a60 013e 057e 5dbf 0251 b0be
000000d0: 27ff 32bf 2824 8e3e 4c9c e23e de6c 913f
000000e0: 4f3b 0dbf d0ed 5f3f e467 4b3d 5545 1cbf
000000f0: 848f 52bf 20b0 473f bcb3 43be df45 6fbf
00000100: 45d2 69bf cea4 993e d9b7 d6be 0f74 693f
00000110: 1543 c4be 06c9 86bf 8b9f 4abf 0f1a 7cbf
00000120: d75e 043c 8935 2cbf a963 7c3f 7e88 bcbe
00000130: 75a3 64bf 249f 27bf 9a2b 823f ade8 e1be
00000140: bdae 6cbf e318 fb3d 1de7 053f 1f94 54bf
00000150: b062 78bf b05f 26be fad8 703e 7c88 d53e
00000160: d6ba 673f 4b64 3cbf 7d14 103f 9bdf ab3e
00000170: 7b49 96be 324f 5fbf e0e5 7bbf fc20 a63e
00000180: 9e0b 683e 0ae3 5b3f 5659 37bf e14b 8e3e
00000190: 31ed 2d3e 2141 73bf 8ae8 65bf 5724 83bc
000001a0: 31bd 8dbf 1ce2 b43d fa06 76be ad57 783f
000001b0: 7894 46bf b53d 56bf c5e1 5c3f fbb6 c53e
000001c0: 5eba 69bf 25fc 223e e09d 05bf 4652 3abf
000001d0: 4f72 82bd 5cc2 53bf 941a 1d3d 90c6 523f
000001e0: bd2f edbe 9206 cb3e 7fb2 1b3f d970 4bbe
000001f0: 9cc1 0d3f c80f cbbe c4a1 80be 9990 203e

in_proj.bias f4 [64]
-0.34479707 -0.5645426 -0.72184 0.55400324 0.634068 0.61250305 -0.5763655 0.04001003
0.36560524 -0.8040376 0.63484675 0.6361091 0.6625058 0.54203963 0.35329846 0.8273334
0.38439077 0.48693573 0.3945918 0.28010893 -0.55378175 -0.66612107 0.59215504 -0.015634375
-0.6509197 -0.71461934 -0.3455595 -0.1999632 0.42776453 0.21057336 0.11821926 -0.81446445
0.12475107 0.6242399 0.1852631 -0.5710594 -0.21916983 -0.15759745 0.14421643 -0.012934239
0.1816937 -0.3057937 -0.6180238 0.7581969 0.48949024 0.40389895 -0.12135667 -0.8330306
0.36971134 0.31559092 0.3630056 0.3263762 0.3839812 -0.009122109 -0.40298176 0.1215521
0.6964901 -0.24832296 0.7656542 0.21016398 0.9410318 0.75738764 -0.41321042 -0.91722697
00000000: 3e89 b0be dd85 10bf 82ca 38bf 28d3 0d3f
00000010: 4852 223f 00cd 1c3f b08c 13bf 8fe1 233d
00000020: 9c30 bb3e 68d5 4dbf 5185 223f 0cd8 223f
00000030: fb99 293f 1cc3 0a3f 89e3 b43e 1fcc 533f
00000040: dece c43e a44f f93e f007 ca3e 706a 8f3e
00000050: a4c4 0dbf e986 2abf 7997 173f a913 80bc
00000060: aca2 26bf 4bf1 36bf 2ded b0be 27c3 4cbe
00000070: f403 db3e 8ba0 573e f01c f23d be80 50bf
00000080: 7d7d ff3d 30ce 1f3f 9cb5 3d3e f330 12bf
00000090: 0e6e 60be 3a61 21be 79ad 133e 21ea 53bc
000000a0: ea0d 3a3e fe90 9cbe cf36 1ebf 3119 423f
000000b0: 779e fa3e d8cb ce3e d989 f8bd 7e41 55bf
000000c0: ce4a bd3e 2295 a13e dfdb b93e c81a a73e
000000d0: 2f99 c43e e674 15bc a053 cebe 4ff0 f83d
000000e0: 2d4d 323f 6048 7ebe ea01 443f 3a35 573e
000000f0: 76e7 703f 28e4 413f 5190 d3be 63cf 6abf

convs.0.a f4 [128, 1]
0.021288775 0.0344942 0.070469156 0.11668699 0.016583283 0.04710069 -0.05472827 -0.02391116
-0.016534505 0.053268425 0.045594096 -0.0047151037 0.034463186 0.061153643 0.08489495 0.07631937
-0.05065468 -0.021650445 0.021606853 0.017159691 0.004349742 0.045102462 -0.029689737 -0.067808
0.0063596843 -0.044110507 0.037528675 0.0038684392 0.03799154 0.02286662 0.009186538 0.044617604
-0.0051706955 -0.006297697 -0.05479474 -0.04451873 0.044073965 0.13850184 -0.07217416 0.12617593
-0.0026696287 0.09340334 -0.02443985 0.069530554 0.14891289 0.05908763 -0.016777514 0.03349947
0.002211344 -0.038445763 0.075554006 -0.00789861 0.04774318 0.019373989 -0.043689046 0.03460902
-0.059947394 -0.058278635 0.010633831 0.07380004 -0.007283836 0.14943855 0.060485866 0.004837088
0.04759696 -0.13120821 -0.2177667 0.30237532 -0.103754334 0.56579393 -0.03438147 0.80605096
0.9037566 -0.29385132 -0.1360107 -0.09444071 0.29703078 0.6337234 0.711425 0.31907496
-0.5906752 -0.3757779 -0.57459426 0.37456346 0.1076545 -0.13630065 -0.26849467 0.80030024
0.05400136 -0.028513541 -0.1062354 0.4146803 0.36879897 -0.76240134 0.4557711 0.07964029
0.27934808 0.2914592 -0.27536458 -0.10705181 0.0025176476 0.05341098 -0.07156285 0.3801028
0.18071514 -0.21039025 -0.10285042 0.22915837 -0.16246563 0.27524152 -0.00053242594 -0.09780802
1.1164837 -0.13593791 -0.59944856 -0.39185908 -0.23147027 0.9829046 -0.1511703 0.5135314
-0.032282863 -0.10031279 -0.092344895 1.5207639 0.11261027 0.07027829 -0.115519494 0.06021227
00000000: cc65 ae3c ca49 0d3d 2252 903d 97f9 ee3d
00000010: aad9 873c a7ec 403d c02a 60bd 56e1 c3bc
00000020: 5f73 87bc fe2f 5a3d e0c0 3a3d 2881 9abb
00000030: 4529 0d3d 3e7c 7a3d 67dd ad3d 544d 9c3d
00000040: 487b 4fbd 465c b1bc db00 b13c 7b92 8c3c
00000050: 4888 8e3b 5cbd 383d e437 f3bc ecde 8abd
00000060: e664 d03b 38ad 34bd abb7 193d a485 7d3b
00000070: 049d 1b3d c752 bb3c 2283 163c f3c0 363d
00000080: f06e a9bb e95c cebb 7370 60bd 4659 36bd
00000090: e786 343d 6dd3 0d3e 0cd0 93bd 4334 013e
000000a0: f0f4 2ebb 404a bf3d 1536 c8bc 0966 8e3d
000000b0: 9f7c 183e df05 723d ff70 89bc be36 093d
000000c0: 32ec 103b 4e79 1dbd 0fbc 9a3d 2c69 01bc
000000d0: 5a8e 433d 33b6 9e3c 49f3 32bd 30c2 0d3d
000000e0: 668b 75bd 94b5 6ebd 8539 2e3c 7a24 973d
000000f0: 3fad eebb 6b06 193e 07c0 773d 6f80 9e3b
00000100: 08f5 423d 725b 06be 3cfe 5ebe f0d0 9a3e
00000110: 277d d4bd dfd7 103f 96d3 0cbd 5b59 4e3f
00000120: 985c 673f ae73 96be 6446 0bbe 226a c1bd
00000130: 6b14 983e b23b 223f f31f 363f cb5d a33e
00000140: 7d36 17bf f665 c0be 9c18 13bf c8c6 bf3e
00000150: f679 dc3d 6692 0bbe 2278 89be 7ae0 4c3f
00000160: 8830 5d3d 3b95 e9bc f291 d9bd fa50 d43e
00000170: 38d3 bc3e bc2c 43bf d45a e93e 731a a33d
00000180: b606 8f3e 243a 953e 96fc 8cbe fb3d dbbd
00000190: 1eff 243b 79c5 5a3d 8b8f 92bd d69c c23e
000001a0: 640d 393e 8b70 57be 3ea3 d2bd 7ea8 6a3e
000001b0: 645d 26be 75ec 8c3e 8092 0bba 924f c8bd
000001c0: f0e8 8e3f 4f33 0bbe 7675 19bf c1a1 c8be
000001d0: 8b06 6dbe a39f 7b3f 63cc 1abe cb76 033f
000001e0: 093b 04bd cb70 cdbd 521f bdbd 64a8 c23f
000001f0: 37a0 e63d 10ee 8f3d 7c95 ecbd 24a1 763d

convs.0.linear1.weight f4 [64, 64]
0.29046807 0.08738993 0.1105492 -0.2292635 0.01788841 -0.21109942 0.29279232 -0.13579176
-0.22959429 0.06496144 0.25718328 0.17627974 0.049819633 -0.30374196 -0.15921782 -0.19125333
0.1385409 0.21743007 0.42726454 -0.19427766 0.39912745 0.12010746 -0.027186884 -0.18853162
0.17755009 0.23560539 0.2548743 0.16377246 -0.10000883 0.335079 -0.24981898 0.2784889
-0.16878147 -0.23162757 0.15589927 0.11383666 0.27745813 -0.027495977 0.011465041 -0.10361018
-0.052105594 0.0934719 0.3133858 -0.27539465 0.116641015 0.017216539 0.32907432 0.19871154
-0.1561662 0.096369796 0.25864744 0.23038349 0.21031229 -0.103582464 0.12834348 0.026461234
0.022079544 0.1373773 0.13067438 0.103995256 -0.20495859 -0.06567094 0.08809863 0.3203438
0.29277983 0.08620844 0.073609844 -0.2455805 0.032901123 -0.116630994 0.11725145 -0.018741164
-0.28435946 -0.07932416 0.20156711 -0.0015829926 -0.01635494 -0.31502733 -0.10511946 -0.27832204
0.25442302 0.33470482 0.3982855 -0.17776927 0.1783063 0.037067574 -0.04768444 -0.068971716
0.24778968 0.23205204 0.12195134 0.07472452 -0.18678384 0.36362064 -0.2991912 0.3002807
0.029289786 -0.08818538 0.09423052 0.046823367 0.18217449 0.02509154 0.06802982 -0.14283936
0.08564318 0.13629685 0.24663523 -0.19527227 0.14652647 -0.010529518 0.1962544 0.22401154
-0.15041988 0.04975378 0.29155108 0.14001422 0.039226342 -0.08263662 0.012934757 -0.0783632
0.065805644 0.13503408 0.14476891 -0.021929964 -0.25267437 -0.09614636 0.069428824 0.24585707
0.40240812 0.23909958 0.06223135 0.017477697 -0.03368732 -0.16056374 0.09870362 0.0816963
-0.0338917 0.059640817 0.17776562 0.058047686 0.04128927 -0.27890265 0.048323024 -0.25278267
0.27531233 0.28076538 0.484705 -0.08639115 0.27003247 0.035977904 0.12069994 -0.05665923
0.17127201 0.2185365 0.050447058 0.18883896 -0.1806868 0.46577924 -0.028266799 0.19293857
-0.09040643 -0.078037836 0.2933477 0.034640245 0.29628083 0.09815368 0.24932356 -0.07527513
0.07302593 0.13617888 0.14049858 -0.26650378 0.05340899 -0.10896026 0.30163556 0.17601301
-0.06756776 0.010305584 0.47299427 0.1916218 0.22737645 0.11731011 -0.041048113 0.049513508
-0.050542142 0.0598236 0.085138835 0.013603026 -0.15669282 -0.122802265 0.14449365 0.15881287
0.09012171 -0.17402256 0.03815763 0.122895524 0.121403314 0.116342165 0.06503379 -0.015964212
0.1621582 0.017870547 0.098543845 0.048102304 0.10681902 0.0365693 0.25346705 0.17508265
-0.081647076 -0.16777574 -0.1587256 0.32419625 0.031099772 -0.056592237 0.095479004 0.0709445
-0.1148914 -0.09138499 -0.11399388 0.29153225 0.13847174 -0.1126649 0.4343507 0.053663958
0.13836764 0.3328935 0.2648333 0.07433326 0.09785828 0.08629438 0.037806246 0.25435913
0.13905977 -0.02984364 0.05166666 0.26160812 -0.10847886 -0.05020143 0.13129863 0.030754983
0.03267946 0.05274195 -0.001098327 0.10578336 0.06360214 0.13970613 0.16758214 0.070586406
0.23075272 0.08983897 -0.06757408 0.30983475 0.25722933 0.08066219 0.038286667 0.15685129
00000000: 3bb8 943e 7ef9 b23d 9e67 e23d 0dc4 6abe
00000010: b78a 923c 722a 58be e0e8 953e ff0c 0bbe
00000020: c41a 6bbe 810a 853d 87ad 833e ad82 343e
00000030: ac0f 4c3d 1184 9bbe ff09 23be ead7 43be
00000040: aadd 0d3e fda5 5e3e 6bc2 da3e b9f0 46be
00000050: 6f5a cc3e e6fa f53d 07b7 debc 6f0e 41be
00000060: b1cf 353e 8a42 713e e27e 823e f8b3 273e
00000070: 6ed1 ccbd 7a8f ab3e 8cd0 7fbe 1996 8e3e
00000080: 0dd5 2cbe c72f 6dbe 0fa4 1f3e 3223 e93d
00000090: fe0e 8e3e 3e3f e1bc ded7 3b3c 9331 d4bd
000000a0: ad6c 55bd 326e bf3d 1b74 a03e 8700 8dbe
000000b0: 7ce1 ee3d b309 8d3c 6e7c a83e 0a7b 4b3e
000000c0: 08ea 1fbe 875d c53d 706d 843e a6e9 6b3e
000000d0: 1b5c 573e 0b23 d4bd 796c 033e 3bc5 d83c
000000e0: 29e0 b43c a3ac 0c3e 81cf 053e 77fb d43d
000000f0: aae0 51be 7c7e 86bd 0e6d b43d 1a04 a43e
00000100: 3de7 953e 0d8e b03d c2c0 963d 7479 7bbe
00000110: 54c3 063d 3bdc eebd 8721 f03d 1287 99bc
00000120: 9097 91be b574 a2bd 9c67 4e3e 6b7c cfba
00000130: ccfa 85bc 434b a1be df48 d7bd 3a80 8ebe
00000140: bc43 823e 6e5e ab3e 14ec cb3e 2609 36be
00000150: ed95 363e 2bd4 173d c250 43bd 0b41 8dbd
00000160: 94bc 7d3e 0d9f 6d3e a0c1 f93d 2b09 993d
00000170: 4344 3fbe 7c2c ba3e 972f 99be 64be 993e
00000180: 22f1 ef3c 899a b4bd eefb c03d dcc9 3f3d
00000190: f38b 3a3e c68c cd3c 3853 8b3d 7b44 12be
000001a0: b165 af3d 6791 0b3e f28d 7c3e 74f5 47be
000001b0: 090b 163e 0084 2cbc eaf6 483e 4863 653e
000001c0: ab07 1abe 9fca 4b3d 2f46 953e e35f 0f3e
000001d0: cdab 203d 633d a9bd 4eec 533c e37c a0bd
000001e0: 1cc5 863d 6046 0a3e 4d3e 143e 78a6 b3bc
000001f0: 895e 81be 62e8 c4bd b330 8e3d f5c1 7b3e
00000200: 7008 ce3e 85d6 743e 4de6 7e3d 632d 8f3c
00000210: b7fb 09bd d26a 24be 2025 ca3d 6450 a73d
00000220: 06d2 0abd ee49 743d 3108 363e 69c3 6d3d
00000230: f01e 293d 54cc 8ebe 5dee 453d bb6c 81be
00000240: bdf5 8c3e 7bc0 8f3e 412b f83e d8ed b0bd
00000250: b241 8a3e 915d 133d 8831 f73d 8213 68bd
00000260: ee61 2f3e 08c8 5f3e 93a1 4e3d 005f 413e
00000270: f605 39be 9e7a ee3e c68f e7bc b091 453e
00000280: 0227 b9bd 4dd2 9fbd ab31 963e eee2 0d3d
00000290: 1fb2 973e cc04 c93d ad4e 7f3e d929 9abd
000002a0: 9e8e 953d 7a72 0b3e dcde 0f3e 2f73 88be
000002b0: 63c3 5a3d 8f26 dfbd fa6f 9a3e c13c 343e
000002c0: f760 8abd c1d8 283c 4e2c f23e 8138 443e
000002d0: 5fd5 683e 4840 f03d 1122 28bd adce 4a3d
000002e0: 4705 4fbd 9709 753d 455d ae3d 3adf 5e3c
000002f0: 1574 20be c17f fbbd 25f6 133e d79f 223e
00000300: bb91 b83d f832 32be 2d4b 1c3d a6b0 fb3d
00000310: 4da2 f83d cd44 ee3d 7030 853d 61c7 82bc
00000320: cd0c 263e 4165 923c 5bd1 c93d ec06 453d
00000330: eec3 da3d b1c9 153d 6fc6 813e de48 333e
00000340: 9536 a7bd 67cd 2bbe f788 22be 0dfd a53e
00000350: f3c4 fe3c 43cd 67bd 7f8a c33d 5a4b 913d
00000360: 2f4c ebbd 0e28 bbbd a075 e9bd b743 953e
00000370: 89cb 0d3e dbbc e6bd 3763 de3e bdce 5b3d
00000380: 3fb0 0d3e 0471 aa3e 3b98 873e 093c 983d
00000390: ec69 c83d 1cbb b03d b9da 1a3d 5c3b 823e
000003a0: af65 0e3e a67a f4bc 6ba0 533d 80f1 853e
000003b0: 2a2a debd 04a0 4dbd 2673 063e e0f1 fb3c
000003c0: e6da 053d f107 583d bdf5 8fba f2a4 d83d
000003d0: d741 823d 200f 0f3e a79a 2b3e 9b8f 903d
000003e0: 714a 6c3e 7efd b73d 4764 8abd a9a2 9e3e
000003f0: 90b3 833e 3832 a53d 7bd2 1c3d a09d 203e

convs.0.linear1.bias f4 [64]
0.3369661 0.31655014 0.2912136 -0.30503947 0.32557338 -0.1696338 0.36190063 0.19675627
0.32224315 0.008065847 0.2907911 -0.36287257 -0.33575135 0.31434384 0.29115105 -0.32077214
0.3391467 -0.32056525 0.16878796 -0.36681423 -0.359581 -0.3254562 0.34978136 0.30500615
-0.17542294 -0.25011715 0.3570961 -0.29005918 0.2925817 0.37961802 -0.37375766 -0.34429252
-0.30228722 -0.24453212 0.14614464 -0.12050033 -0.32197008 -0.30959332 0.30323258 0.3682857
-0.3557219 0.28131655 0.21182652 -0.3216412 0.26457822 0.316113 0.24758035 0.2993836
0.30409414 -0.3544549 -0.12239782 0.2943576 -0.353594 0.0035221325 -0.29091573 0.33591518
-0.29768565 -0.34360984 -0.33595493 -0.34110147 0.57624257 -0.053062394 -0.40153232 -0.31198046
00000000: d286 ac3e dc12 a23e f319 953e 222e 9cbe
00000010: 8eb1 a63e 7cb4 2dbe 0a4b b93e 7a7a 493e
00000020: 0efd a43e 9d26 043c 92e2 943e 6fca b9be
00000030: 9ae7 abbe adf1 a03e c011 953e 3f3c a4be
00000040: a3a4 ad3e 2121 a4be c0d6 2c3e 13cf bbbe
00000050: 001b b8be 32a2 a6be 8b16 b33e c429 9c3e
00000060: 12a2 33be 5b0f 80be 4dd5 b63e a382 94be
00000070: 45cd 953e 4b5d c23e 2a5d bfbe 1c47 b0be
00000080: 64c5 9abe a166 7abe f1a6 153e e1c8 f6bd
00000090: 43d9 a4be 0483 9ebe 4d41 9b3e f18f bc3e
000000a0: 2e21 b6be b908 903e 0de9 583e 28ae a4be
000000b0: cc76 873e 90d9 a13e b485 7d3e cf48 993e
000000c0: 3ab2 9b3e 1d7b b5be b5ab fabd 0ab6 963e
000000d0: 460a b5be 94d3 663b e8f2 94be 13fd ab3e
000000e0: 416a 98be a1ed afbe 4902 acbe daa4 aebe
000000f0: a284 133f f457 59bd a595 cdbe e7bb 9fbe

convs.0.linear2.weight f4 [64, 64]
-0.32217565 -0.44433174 -0.34047872 0.6078074 -0.3542695 0.35805833 -0.40173888 0.1952389
-0.5321447 0.3581344 -0.1879937 0.29073775 0.37271595 -0.3303362 -0.2053073 0.3674358
-0.47960725 0.31645146 -0.3418011 0.35943493 0.4948 0.33058748 -0.47215515 -0.471063
0.35685802 0.41306153 -0.42028034 0.40265527 -0.2514615 -0.49174234 0.3012679 0.39724013
0.26110792 0.43764675 -0.20632793 0.2801632 0.45751432 0.2598839 -0.5581234 -0.34923235
0.43439484 -0.3040971 -0.41231933 0.46280348 -0.31166333 -0.48052186 -0.20627053 -0.26016062
-0.3034753 0.4325534 0.3193477 -0.38927093 0.1928588 -0.21553627 0.30022886 -0.44903308
0.33858463 0.34440863 0.3683434 0.39089167 -0.20826302 0.31702307 0.6076231 0.47466937
0.10397818 0.23677854 0.29486135 -0.41125858 0.10208391 -0.2897054 0.31542012 -0.040999778
0.30399403 0.09647243 0.14399561 -0.11248161 -0.11650829 0.12268355 0.162033 -0.27408484
0.18677689 -0.25241393 0.121469945 -0.22278182 -0.31426126 -0.19942668 0.20125581 0.16220932
-0.1393601 -0.10817771 0.26875648 -0.29100376 0.21926083 0.20697774 -0.102141716 -0.29146275
-0.24267127 -0.2555823 0.17173901 0.008668584 -0.2729987 -0.2560088 0.2512712 0.16812229
-0.5969049 0.21555106 0.1973366 -0.19954841 0.19805954 0.1842173 0.11876734 0.086114325
0.11871357 -0.288976 0.03221602 0.08455038 -0.23721406 -0.059566654 -0.21287228 0.17324077
-0.13489105 -0.1329123 -0.31666437 -0.11683369 0.39922565 -0.26752982 -0.357393 -0.25287777
0.29299876 0.112104364 0.10228292 -0.37088624 0.14847435 -0.06437453 0.30772957 -0.05084088
0.24237631 0.056074735 0.15697937 -0.2519029 -0.25623244 0.08675376 0.14618614 -0.31815585
0.20296346 -0.15646489 0.33979014 -0.19563347 -0.3030161 -0.22981945 0.24088569 0.19556214
-0.17849557 -0.15517074 0.17883986 -0.1821361 0.11307551 0.34652072 -0.19402805 -0.566605
-0.07893253 -0.08141154 0.12192299 -0.06795287 -0.10123158 -0.15857731 0.10170901 0.063033335
-0.53004 0.17483975 0.29441094 -0.17911302 0.2109855 0.2649989 0.17320335 0.2633895
0.07786102 -0.33790538 0.1763955 0.26365545 -0.27495083 -0.16463526 -0.1572049 0.26052833
-0.099756874 -0.07468444 -0.13814875 -0.24465169 0.3867494 -0.2636401 -0.33532643 -0.25747287
-0.3225356 -0.2501298 -0.28701594 0.5176964 -0.33091664 0.2117109 -0.30482492 0.10975611
-0.5699118 0.48326862 -0.34923875 0.37360218 0.45572183 -0.19147652 -0.3405754 0.520214
-0.28254184 0.41655082 -0.5093783 0.32630605 0.5037001 0.46279255 -0.34031093 -0.5073649
0.34705487 0.4285332 -0.24030578 0.41422275 -0.38817304 -0.515507 0.45369783 0.44913936
0.19980854 0.22977215 -0.27566668 0.39783174 0.46727628 0.2998622 -0.47701982 -0.29188433
0.50724137 -0.3769541 -0.47362116 0.42323998 -0.38712007 -0.51241046 -0.17103529 -0.2577436
-0.2183201 0.23678413 0.20702341 -0.5272779 0.34261978 -0.100832924 0.21713755 -0.35891506
0.3269029 0.25668848 0.40164503 0.41727236 -0.43871158 0.40279868 0.641732 0.36451328
00000000: 35f4 a4be 737f e3be 3a53 aebe 4499 1b3f
00000010: d062 b5be 6c53 b73e b8b0 cdbe b5ec 473e
00000020: a33a 08bf 645d b73e 6c81 40be 94db 943e
00000030: a0d4 be3e d421 a9be 143c 52be 8c20 bc3e
00000040: 158f f5be ed05 a23e 8e00 afbe db07 b83e
00000050: 6d56 fd3e c342 a93e 52be f1be 2b2f f1be
00000060: 18b6 b63e cd7c d33e fc2e d7be d528 ce3e
00000070: 90bf 80be a7c5 fbbe c93f 9a3e 0f63 cb3e
00000080: f0af 853e 3c13 e03e a147 53be 8d71 8f3e
00000090: 513f ea3e 810f 853e 2de1 0ebf 95ce b2be
000000a0: 0069 de3e 9db2 9bbe 851b d3be 94f4 ec3e
000000b0: 5692 9fbe f606 f6be 9538 53be c633 85be
000000c0: 1d61 9bbe a477 dd3e 8b81 a33e 854e c7be
000000d0: c77c 453e 8ab5 5cbe 99b7 993e aae7 e5be
000000e0: f75a ad3e 5456 b03e 8297 bc3e f422 c83e
000000f0: e742 55be d950 a23e 308d 1b3f dd07 f33e
00000100: 83f2 d43d 1376 723e 11f8 963e 7c90 d2be
00000110: 5e11 d13d 4454 94be bf7e a13e 62ef 27bd
00000120: 1ba5 9b3e 5693 c53d 9673 133e c25c e6bd
00000130: e69b eebd 8341 fb3d fbeb 253e d954 8cbe
00000140: 7142 3f3e 663c 81be 3cc5 f83d eb20 64be
00000150: dae6 a0be 8236 4cbe 0116 4e3e 331a 263e
00000160: 6ab4 0ebe 468c ddbd 739a 893e 72fe 94be
00000170: e985 603e f9f1 533e ad2f d1bd 9b3a 95be
00000180: d17e 78be afdb 82be 5adc 2f3e ad06 0e3c
00000190: 7cc6 8bbe 9613 83be 9ea6 803e 4028 2c3e
000001a0: c2ce 18bf 6bb9 5c3e 9b12 4a3e 6b56 4cbe
000001b0: 1fd0 4a3e 76a3 3c3e 4b3c f33d b55c b03d
000001c0: 1a20 f33d aaf4 93be f2f4 033d c028 ad3d
000001d0: 3ee8 72be 2afc 73bd 31fb 59be 0766 313e
000001e0: e120 0abe 291a 08be d521 a2be 8046 efbd
000001f0: 4e67 cc3e abf9 88be 37fc b6be 3279 81be
00000200: ef03 963e f996 e53d b579 d13d cde4 bdbe
00000210: a909 183e cbd6 83bd bb8e 9d3e 873e 50bd
00000220: 7f31 783e 9fae 653d 33bf 203e 6bf9 80be
00000230: e630 83be f5ab b13d d2b1 153e 53e5 a2be
00000240: a7d5 4f3e 5538 20be f9f8 ad3e 2454 48be
00000250: ed24 9bbe ca55 6bbe bdaa 763e 7141 483e
00000260: 8bc7 36be 14e5 1ebe cc21 373e e381 3abe
00000270: 2294 e73d 2a6b b13e 4aaf 46be 060d 11bf
00000280: 61a7 a1bd 18bb a6bd c3b2 f93d e02a 8bbd
00000290: 8152 cfbd 1762 22be d04c d03d 9f17 813d
000002a0: b4b0 07bf 3109 333e 08bd 963e 6769 37be
000002b0: 950c 583e f0ad 873e 385c 313e fdda 863e
000002c0: 9975 9f3d ef01 adbe 06a1 343e d9fd 863e
000002d0: 5bc6 8cbe 2596 28be 52fa 20be f863 853e
000002e0: 554d ccbd 28f4 98bd de76 0dbe f985 7abe
000002f0: 0404 c63e d6fb 86be e8af abbe 7cd3 83be
00000300: 6323 a5be 0311 80be c1f3 92be c087 043f
00000310: e86d a9be beca 583e 0312 9cbe d0c7 e03d
00000320: bde5 11bf fc6e f73e 6ccf b2be c948 bf3e
00000330: 5f54 e93e 6c12 44be e65f aebe bf2c 053f
00000340: 53a9 90be 2646 d53e 9e66 02bf 9611 a73e
00000350: 7df2 003f 25f3 ec3e 3c3d aebe abe2 01bf
00000360: 2db1 b13e b468 db3e b812 76be 0115 d43e
00000370: 9ebe c6be 44f8 03bf 154b e83e 98f5 e53e
00000380: 9c9a 4c3e 6449 6b3e 2f24 8dbe 9ab0 cb3e
00000390: d63e ef3e 8a87 993e f13b f4be dd71 95be
000003a0: 92da 013f 2100 c1be 797e f2be e9b2 d83e
000003b0: 9a34 c6be 552d 03bf e023 2fbe f8f6 83be
000003c0: 4e8f 5fbe 8a77 723e f2fd 533e affb 06bf
000003d0: dc6b af3e 7e81 cebd 4e59 5e3e b7c3 b7be
000003e0: d15f a73e ac6c 833e 6ba4 cd3e b9a4 d53e
000003f0: ce9e e0be a13b ce3e 8c48 243f 7ca1 ba3e

convs.0.linear2.bias f4 [64]
-0.31899428 0.3604556 0.37626377 -0.41367504 -0.4070366 0.20208286 -0.3737179 -0.380557
0.4155861 0.2450971 -0.4378756 0.28310156 -0.33208376 0.29433826 -0.40025407 -0.41905552
-0.29232502 -0.35129315 0.37932283 0.3522031 -0.41697484 -0.07070902 -0.39507198 -0.42553696
-0.36076772 -1.1233013 -0.29152846 -0.36218154 -0.45890385 -0.4501315 -0.49458072 -0.3795155
-1.2015004 0.1388403 0.21460275 -0.38184693 0.2652108 -0.41125736 -0.35430834 -0.36909562
0.1835097 -0.44958052 0.27804813 0.006342839 -0.5841165 0.37668878 -0.46133304 -0.14947703
0.3388646 -0.3868511 0.3990189 -0.42467126 -0.7249685 -0.34939182 -0.4130337 0.13372798
-0.38764942 -0.32003018 -0.3865419 -0.32305372 0.07130659 -0.4825624 0.22842418 -0.48074746
00000000: 3853 a3be a38d b83e a5a5 c03e 37cd d3be
00000010: 1a67 d0be cfee 4e3e f457 bfbe 5ed8 c2be
00000020: b4c7 d43e bcfa 7a3e 3b31 e0be b0f2 903e
00000030: e206 aabe 81b3 963e 1aee ccbe 728e d6be
00000040: a0ab 95be b2dc b3be 9a36 c23e f753 b43e
00000050: ba7d d5be e4cf 90bd e046 cabe fbdf d9be
00000060: 8cb6 b8be 56c8 8fbf 3843 95be dc6f b9be
00000070: 72f5 eabe a377 e6be af39 fdbe db4f c2be
00000080: c4ca 99bf 272c 0e3e d3c0 5b3e 7181 c3be
00000090: b6c9 873e 5390 d2be e767 b5be 1afa bcbe
000000a0: f7e9 3b3e 6b2f e6be 535c 8e3e 97d7 cf3b
000000b0: a988 15bf 5add c03e d833 ecbe 8210 19be
000000c0: a97f ad3e 5911 c6be 354c cc3e 836e d9be
000000d0: 8997 39bf 7ce3 b2be 2779 d3be fdef 083e
000000e0: fc79 c6be ffda a3be d2e8 c5be 4c67 a5be
000000f0: 3109 923d 6b12 f7be 07e8 693e 8824 f6be

convs.1.a f4 [128, 1]
-5.348798e-15 0.16536608 0.056190435 0.0 0.0 0.004680705 0.0 0.0
0.18357615 0.030283919 0.0 0.04256584 1.2310396e-11 0.10977178 0.0 0.0
0.0 0.0 0.05440104 0.09044501 0.0 0.09482799 0.0 0.0
0.0 -1.44618495e-08 0.0 0.0 0.0 0.0 0.0 0.0
1.8575994e-07 -0.0032778156 0.04227014 0.0 0.21891867 0.0 0.0 0.07236878
0.0073262868 0.0 0.14301407 -0.009085246 0.00019600934 0.026778048 0.0 4.1525922e-10
-0.167325 0.0 0.1622714 0.0 0.0 0.0 0.0 0.008108271
0.0 0.0 0.0 0.0 0.018957991 0.0 0.114737056 0.0
-0.38923445 0.08030791 0.08058607 -0.3943781 -0.40364733 0.06737973 -0.42124975 -0.60304075
0.076932505 0.057566408 -0.37906563 0.082172416 -0.44495043 0.050972532 -0.46488878 -0.4112468
-0.39757952 -0.39566824 0.075517625 0.069841005 -0.40022567 0.04456896 -0.43902203 -0.39182478
-0.36572096 -2.8380713 -0.43688974 -0.42283446 -0.39472282 -0.3975217 -0.3782567 -0.39577788
-3.2643123 0.17725734 0.07146766 -0.4144234 0.059539758 -0.38585433 -0.41594046 -0.10635996
0.27329358 -0.412632 0.060054433 -0.3805862 -1.1080542 0.08106612 -0.4447408 -0.4731899
0.098392956 -0.42015812 0.10623414 -0.38364857 -0.9850119 -0.37362614 -0.4189714 0.06285548
-0.42138958 -0.3904559 -0.4146031 -0.39884195 0.33927703 -0.46749806 0.04611171 -0.40961626
00000000: f4b5 c0a7 ba55 293e f127 663d 0000 0000
00000010: 0000 0000 9960 993b 0000 0000 0000 0000
00000020: 63fb 3b3e fb15 f83c 0000 0000 8559 2e3d
00000030: 1891 582d 07d0 e03d 0000 0000 0000 0000
00000040: 0000 0000 0000 0000 a0d3 5e3d 3c3b b93d
00000050: 0000 0000 2d35 c23d 0000 0000 0000 0000
00000060: 0000 0000 e373 78b2 0000 0000 0000 0000
00000070: 0000 0000 0000 0000 0000 0000 0000 0000
00000080: 4e75 4734 9fd0 56bb 7423 2d3d 0000 0000
00000090: 372c 603e 0000 0000 0000 0000 1536 943d
000000a0: 5911 f03b 0000 0000 4872 123e 49da 14bc
000000b0: db87 4d39 a35d db3c 0000 0000 8a4a e42f
000000c0: 3f57 2bbe 0000 0000 792a 263e 0000 0000
000000d0: 0000 0000 0000 0000 0000 0000 8ed8 043c
000000e0: 0000 0000 0000 0000 0000 0000 0000 0000
000000f0: ca4d 9b3c 0000 0000 43fb ea3d 0000 0000
00000100: bd49 c7be 7978 a43d 4f0a a53d edeb c9be
00000110: ddaa cebe 62fe 893d 0cae d7be e160 1abf
00000120: ca8e 9d3d c1ca 6b3d e414 c2be 034a a83d
00000130: 8bd0 e3be 93c8 503d e705 eebe f18e d2be
00000140: 8b8f cbbe 0795 cabe fca8 9a3d cd08 8f3d
00000150: 61ea ccbe f18d 363d 7fc7 e0be 429d c8be
00000160: c73f bbbe f6a2 35c0 03b0 dfbe c27d d8be
00000170: 1c19 cabe f787 cbbe ddaa c1be 66a3 cabe
00000180: 7eea 50c0 f382 353e a35d 923d 4e2f d4be
00000190: f6df 733d b38e c5be 26f6 d4be 40d3 d9bd
000001a0: 23ed 8b3e 8044 d3be a3fb 753d 32dc c2be
000001b0: b8d4 8dbf fe05 a63d 11b5 e3be f245 f2be
000001c0: 3f82 c93d f71e d7be 4991 d93d 966d c4be
000001d0: bd29 7cbf ed4b bfbe 6b83 d6be 60ba 803d
000001e0: 60c0 d7be d6e9 c7be dc46 d4be 0335 ccbe
000001f0: b8b5 ad3e e85b efbe a2df 3c3d 39b9 d1be

convs.1.linear1.weight f4 [64, 64]
0.2745125 0.14777447 0.14462481 0.2554023 0.16119495 -0.039424054 0.23279315 0.42841196
0.026686266 0.0031266348 0.24096435 0.10885401 0.33708498 -0.010970606 0.3735008 0.3257953
0.0969544 0.35005414 0.0691277 0.15149605 0.2650704 -0.1543736 0.20035826 0.36221045
0.14327762 1.1465231 0.21257003 0.25878862 0.34512606 0.29402232 0.36859736 0.22116596
0.8428851 0.30744964 0.16249089 0.18523534 -0.06317159 0.1837324 0.28694093 -0.22601986
0.1196786 0.40189177 -0.07768875 -0.22043957 0.43163928 0.08248245 0.40301296 0.08620685
0.0027518796 0.113449536 0.18195571 0.35876334 0.5518882 0.33074048 0.3829531 0.43968534
0.2817839 0.30452973 0.15947746 0.22282232 0.6176646 0.3214434 -0.09525963 0.2513865
0.291382 -0.072872445 0.1065772 0.18979794 0.19785446 -0.020325888 0.33427545 0.10012945
0.079409935 -0.037393868 0.12670267 0.12658101 0.23365803 -0.120711155 0.31112424 0.29609072
0.16622126 0.13390326 0.0254759 0.07381965 0.11189317 -0.0132319005 0.32389998 0.14108145
0.0864141 0.4132185 0.09207313 0.34837368 0.2420994 0.17640457 0.3248653 0.33347562
0.35249797 -0.037288982 -0.069557965 0.3129384 0.040009428 0.30612624 0.23413114 -0.4159358
-0.06939181 0.10962037 -0.10668817 -0.2635971 0.31510493 0.02072043 0.19435018 0.24824901
-0.006423798 0.31035513 0.011211249 0.2861127 0.21299341 0.15600356 0.21251753 0.18092145
0.2562902 0.21096767 0.10112497 0.3025012 0.5181779 0.14264734 0.016956128 0.34282357
0.20055236 0.18626665 0.12509237 0.30409127 0.32085827 0.005860485 0.2575965 0.40291476
0.1872094 0.021817608 0.34347382 -0.017863566 0.22462037 -0.07312996 0.40276453 0.2569743
0.08002967 0.21928036 0.03620077 -0.0046817213 0.34810802 0.0504155 0.41313377 0.24677776
0.18251286 1.0873252 0.13717522 0.2959018 0.31417263 0.14005013 0.16889222 0.20069835
1.0040185 0.16918233 0.13004278 0.2793728 0.061999924 0.104469106 0.24216712 -0.43173802
0.08159967 0.36400524 0.03777092 -0.15345435 0.56516445 0.028663548 0.3922532 0.28578627
0.13203454 0.14424036 0.07637104 0.19660379 0.4539073 0.2569007 0.39676413 0.4086729
0.24924494 0.24123614 0.2592299 0.27783725 0.6959765 0.42955333 0.1188044 0.33989656
-0.1525425 -0.02564366 0.05858475 -0.21680161 -0.37906772 -0.04511136 -0.3332238 -0.32015806
-0.11886631 0.13548198 -0.25142062 0.079902396 -0.30045298 0.07246951 -0.38655415 -0.4349351
-0.23827222 -0.26044765 -0.11014292 -0.10734884 -0.23125248 0.15198092 -0.3069819 -0.305475
-0.4101958 -3.140735 -0.26197818 -0.3168226 -0.22506599 -0.41433114 -0.45924428 -0.2152848
-2.3859131 -0.2937296 -0.1337239 -0.43379796 0.06861481 -0.39149264 -0.18441886 0.39225155
-0.121412076 -0.28287852 0.011058991 0.1321188 -0.7416653 -0.11126692 -0.40360567 -0.12380435
-0.037448782 -0.395264 -0.08947537 -0.40600705 -0.93869793 -0.1655438 -0.40267062 -0.51358175
-0.35430768 -0.2566892 -0.3378692 -0.17279558 -0.640559 -0.5077359 -0.08641268 -0.23819652
00000000: e78c 8c3e 3152 173e 8718 143e 17c4 823e
00000010: 4a10 253e 1e7b 21bd 5461 6e3e d058 db3e
00000020: 289d da3c 3ae8 4c3b 5cbf 763e daee de3d
00000030: 6796 ac3e 0ebe 33bc 7f3b bf3e a4ce a63e
00000040: 0790 c63d 4c3a b33e d392 8d3d c821 1b3e
00000050: 4fb7 873e 1d14 1ebe b72a 4d3e a673 b93e
00000060: 5eb7 123e 45c1 923f f5ab 593e f17f 843e
00000070: 5db4 b03e 188a 963e cbb8 bc3e 5479 623e
00000080: 51c7 573f 0a6a 9d3e 0364 263e 55ae 3d3e
00000090: 1b60 81bd 5924 3c3e ece9 923e c071 67be
000000a0: 0e1a f53d c2c4 cd3e 481b 9fbd e9ba 61be
000000b0: d3ff dc3e 8fec a83d b757 ce3e 388d b03d
000000c0: e158 343b 3b58 e83d 9952 3a3e d4af b73e
000000d0: 8c48 0d3f d156 a93e 6e12 c43e 701e e13e
000000e0: fb45 903e 52eb 9b3e 0f4e 233e 892b 643e
000000f0: 441f 1e3f 3b94 a43e 7b17 c3bd bbb5 803e
00000100: 0630 953e 263e 95bd 2645 da3d 645a 423e
00000110: 5c9a 4a3e 7a82 a6bc 2726 ab3e ab10 cd3d
00000120: ada1 a23d 502a 19bd 58be 013e 749e 013e
00000130: 0d44 6f3e 6937 f7bd ad4b 9f3e 3499 973e
00000140: e835 2a3e f01d 093e d6b2 d03c c22e 973d
00000150: 3f28 e53d 9dca 58bc 38d6 a53e a877 103e
00000160: e0f9 b03d 6091 d33e d690 bc3d 095e b23e
00000170: e8e8 773e 66a3 343e bf54 a63e 51bd aa3e
00000180: 9d7a b43e 55bc 18bd 6874 8ebd 7639 a03e
00000190: ede0 233d 94bc 9c3e 13c0 6f3e 8af5 d4be
000001a0: 4b1d 8ebd a580 e03d 547f dabd 33f6 86be
000001b0: 6f55 a13e e4bd a93c bc03 473e fd34 7e3e
000001c0: b97e d2bb dee6 9e3e 63af 373c 5d7d 923e
000001d0: f21a 5a3e 66bf 1f3e 329e 593e 7943 393e
000001e0: 7838 833e e907 583e 9c1a cf3d 70e1 9a3e
000001f0: 4fa7 043f 2512 123e 94e7 8a3c 9286 af3e
00000200: 995d 4d3e afbc 3e3e 3718 003e dab1 9b3e
00000210: 8947 a43e 5009 c03b b0e3 833e d84a ce3e
00000220: d2b3 3f3e d7ba b23c cddb af3e 9d56 92bc
00000230: e202 663e 29c5 95bd 2737 ce3e 2392 833e
00000240: 98e6 a33d 088b 603e 4247 143d 2069 99bb
00000250: 373b b23e 7c80 4e3d 4586 d33e 4fb3 7c3e
00000260: a7e4 3a3e 792d 8b3f a977 0c3e 7180 973e
00000270: 3cdb a03e 4d69 0f3e 15f2 2c3e de83 4d3e
00000280: ae83 803f 223e 2d3e ef29 053e f409 8f3e
00000290: a2f3 7d3d e6f3 d53d a8fa 773e c40c ddbe
000002a0: ba1d a73d e55e ba3e aeb5 1a3d 2323 1dbe
000002b0: 9eae 103f d1cf ea3c 69d5 c83e 9452 923e
000002c0: 1034 073e bfb3 133e 6b68 9c3d 8152 493e
000002d0: 8a66 e83e 7d88 833e ab24 cb3e 933d d13e
000002e0: 113a 7f3e 9b06 773e c8b9 843e af40 8e3e
000002f0: 842b 323f 6aee db3e b94f f33d ec06 ae3e
00000300: 1a34 1cbe a712 d2bc 90f6 6f3d 3e01 5ebe
00000310: 2a15 c2be b0c6 38bd 4f9c aabe c2eb a3be
00000320: 2e70 f3bd cabb 0a3e 34ba 80be dea3 a33d
00000330: f9d4 99be e56a 943d 6dea c5be d0af debe
00000340: a2fd 73be 6559 85be 9c92 e1bd b5d9 dbbd
00000350: 73cd 6cbe e3a0 1b3e bb2c 9dbe 3867 9cbe
00000360: 2f05 d2be cd01 49c0 0122 86be 9236 a2be
00000370: b377 66be 3623 d4be 1122 ebbe 9e73 5cbe
00000380: cdb2 18c0 ba63 96be ebee 08be c41a debe
00000390: ec85 8c3d b971 c8be 4cd8 3cbe 32d5 c83e
000003a0: e5a6 f8bd 74d5 90be c530 353c 274a 073e
000003b0: c7dd 3dbf e9df e3bd 67a5 cebe 238d fdbd
000003c0: e563 19bd 0b60 cabe dd3e b7bd 28e0 cfbe
000003d0: 824e 70bf 5084 29be d82a cebe 187a 03bf
000003e0: d167 b5be c46c 83be 31fd acbe 53f1 30be
000003f0: adfb 23bf fbfa 01bf 22f9 b0bd cae9 73be

convs.1.linear1.bias f4 [64]
-0.31318057 -0.15193617 -0.32275414 0.31744134 -0.42594263 0.31015697 -0.42720124 0.3778926
0.34041232 -0.32587123 0.33427292 -0.2472328 0.35081577 -0.39766812 0.40789333 -0.28345525
-0.25741944 0.3641638 0.39622647 0.40541235 0.43177515 0.33879274 -0.2933417 0.42276257
0.39760756 0.17669387 -0.27263647 0.33280128 0.3179247 -0.32037306 -0.25306588 0.36146757
-0.42282978 -0.36719367 0.35523608 0.36274576 0.3884604 -0.43656614 -0.3220729 0.33880335
-0.36804032 0.37117317 0.41169688 0.40705946 0.3270277 -0.44494745 0.391454 -0.38217482
0.33305815 0.33854902 -0.38661838 0.4139146 -0.26978883 -0.34994707 -0.35104224 -0.33004075
0.38848987 -0.35647458 0.35574314 -0.36527503 -0.27629724 0.15278089 0.43241376 -0.4248649
00000000: 3459 a0be 2895 1bbe 0840 a5be ac87 a23e
00000010: 2715 dabe e5cc 9e3e 1fba dabe 247b c13e
00000020: 864a ae3e 98d8 a6be d225 ab3e 982a 7dbe
00000030: 209e b33e 289b cbbe 65d7 d03e 0c21 91be
00000040: 7bcc 83be ad73 ba3e 32de ca3e 3592 cf3e
00000050: a211 dd3e 3e76 ad3e e230 96be 5674 d83e
00000060: 3893 cb3e 3def 343e 0297 8bbe ee64 aa3e
00000070: 07c7 a23e f007 a4be da91 81be 4712 b93e
00000080: 257d d8be cf00 bcbe 81e1 b53e d0b9 b93e
00000090: 48e4 c63e 9985 dfbe bde6 a4be a277 ad3e
000000a0: c86f bcbe 690a be3e efc9 d23e 196a d03e
000000b0: 2d70 a73e 27d0 e3be a96c c83e 6bac c3be
000000c0: 9986 aa3e 4c56 ad3e d8f2 c5be 9dec d33e
000000d0: c321 8abe 432c b3be cfbb b3be 1afb a8be
000000e0: 25e8 c63e d683 b6be f723 b63e 5405 bbbe
000000f0: d576 8dbe 9872 1c3e 5665 dd3e e487 d9be

convs.1.linear2.weight f4 [64, 64]
-0.27366248 -0.23102592 -0.37163845 0.416374 -0.22047281 0.3449903 -0.22793174 0.5992033
0.45140865 -0.43338603 0.3649587 -0.42759606 0.2291365 -0.45127726 0.32223508 -0.39034712
-0.27361608 0.31275907 0.28708282 0.35611662 0.74564785 0.34160167 -0.53375155 0.40182155
0.44363528 0.113974065 -0.80714923 0.28794333 0.35711083 -0.33766958 -0.29641572 0.31342906
-0.37733617 -0.27713642 0.24819814 0.23673148 0.30703455 -0.19479124 -0.45911533 0.47277197
-0.36227375 0.24795802 0.30556825 0.49587256 0.26156747 -0.25240183 0.33261323 -0.2837016
0.3608374 0.36980996 -0.41852733 0.399076 -0.3418705 -0.5123323 -0.22202662 -0.23369375
0.5114339 -0.4537054 0.3064123 -0.33461943 -0.5031915 0.14840953 0.20137313 -0.18422666
-0.34716007 -0.22271998 -0.3235107 0.405717 -0.29662532 0.3484095 -0.28298444 0.6941189
0.270052 -0.43336904 0.36001292 -0.4444612 0.37428322 -0.29518163 0.37966302 -0.42998978
-0.33861333 0.28374052 0.2613816 0.23498136 0.77726537 0.16679727 -0.42005613 0.26761782
0.41830444 0.06903456 -0.6447528 0.31187406 0.34346187 -0.441027 -0.3589274 0.37509924
-0.45338416 -0.34903905 0.4454663 0.23410153 0.2794896 -0.24722493 -0.2958752 0.4304812
-0.3265079 0.17884159 0.35525423 0.54474825 0.27139565 -0.29262945 0.20012502 -0.32264906
0.41199934 0.24767789 -0.5620151 0.36293793 -0.21494913 -0.51404625 -0.38528204 -0.16462107
0.40467137 -0.29194403 0.22875056 -0.4235492 -0.4662723 0.08983277 0.31138209 -0.1868805
0.34321293 0.11736508 0.29075757 -0.3388643 0.16882539 -0.27694836 0.3160819 -0.6165151
-0.407598 0.34038824 -0.32639313 0.30808574 -0.27658954 0.36609045 -0.17056799 0.29411188
0.3578576 -0.34986663 -0.1776262 -0.26278874 -0.73284596 -0.29035395 0.36524817 -0.25921893
-0.22966611 -0.013282641 0.58665776 -0.29425883 -0.1631759 0.32680336 0.3871293 -0.20339485
0.2649079 0.14694223 -0.3221071 -0.24596073 -0.123066016 0.30675232 0.22454448 -0.36474583
0.20964235 -0.19141364 -0.27765873 -0.492418 -0.2059935 0.20075844 -0.205367 0.25223753
-0.4354275 -0.3747789 0.36646226 -0.24900728 0.2709353 0.33562613 0.31999782 0.33627132
-0.52113813 0.3687082 -0.27721697 0.19357298 0.3165706 0.042358007 -0.30524582 0.19347173
-0.40729362 -0.23452313 -0.3210486 0.31564897 -0.31255212 0.43095884 -0.25588077 0.55653316
0.38593382 -0.3056414 0.2411112 -0.40946242 0.34522596 -0.32269526 0.18667848 -0.35902858
-0.26994172 0.28181884 0.22981876 0.35833454 0.70606416 0.33140805 -0.5028969 0.2863948
0.44150022 0.23292653 -0.5902854 0.13902047 0.19035195 -0.39972645 -0.27815673 0.40322685
-0.35763547 -0.33121642 0.3643144 0.3322152 0.20329177 -0.21219857 -0.39552414 0.32906115
-0.3577764 0.14908564 0.32796443 0.5248241 0.30899665 -0.22265483 0.39605084 -0.44970453
0.37875786 0.41907442 -0.57311475 0.2835057 -0.27638078 -0.29605258 -0.35261086 -0.15624973
0.5617903 -0.38513336 0.31579623 -0.27240607 -0.4254369 0.20222811 0.3411109 -0.15168804
00000000: 7d1d 8cbe 0f92 6cbe 6547 bebe f92e d53e
00000010: a0c3 61be 92a2 b03e f066 69be 6365 193f
00000020: 091f e73e c6e4 ddbe dedb ba3e dfed dabe
00000030: c2a2 6a3e d00d e7be fffb a43e 94db c7be
00000040: 6817 8cbe f521 a03e 85fc 923e eb54 b63e
00000050: c7e2 3e3f 6ae6 ae3e f1a3 08bf 8ebb cd3e
00000060: 2a24 e33e 3c6b e93d 55a1 4ebf 4f6d 933e
00000070: 3bd7 b63e 07e3 acbe cdc3 97be c679 a03e
00000080: 3532 c1be d3e4 8dbe a727 7e3e bd69 723e
00000090: a233 9d3e 5b77 47be 2a11 ebbe 2b0f f23e
000000a0: f27b b9be b5e8 7d3e 7173 9c3e 02e3 fd3e
000000b0: 2cec 853e d03a 81be 484c aa3e 5641 91be
000000c0: aebf b83e bb57 bd3e 3749 d6be b153 cc3e
000000d0: a609 afbe 3628 03bf f25a 63be 6a4d 6fbe
000000e0: 55ed 023f 134c e8be 13e2 9c3e 3d53 abbe
000000f0: 28d1 00bf abf8 173e c234 4e3e eaa5 3cbe
00000100: f7be b1be b510 64be 32a3 a5be 23ba cf3e
00000110: 46df 97be bb62 b23e 56e3 90be c7b1 313f
00000120: 4144 8a3e 8ce2 ddbe 9d53 b83e 6b90 e3be
00000130: 0da2 bf3e 0c22 97be 3163 c23e 9f27 dcbe
00000140: ba5e adbe 7046 913e cfd3 853e f49e 703e
00000150: ddfa 463f e7cc 2a3e 9911 d7be 3405 893e
00000160: 002c d63e fe61 8d3d 850e 25bf f5ad 9f3e
00000170: 3cda af3e 4ace e1be 55c5 b7be 020d c03e
00000180: f821 e8be 3fb5 b2be 2914 e43e 50b8 6f3e
00000190: 4319 8f3e 8828 7dbe f47c 97be 0868 dc3e
000001a0: 0b2c a7be 4022 373e e2e3 b53e 9f74 0b3f
000001b0: 5ff4 8a3e 87d3 95be 93ed 4c3e 4232 a5be
000001c0: 94f1 d23e 469f 7d3e 39e0 0fbf 00d3 b93e
000001d0: a01b 5cbe 8998 03bf b043 c5be 6d92 28be
000001e0: 1631 cf3e b079 95be 963d 6a3e 71db d8be
000001f0: 3ebb eebe 3efa b73d 796d 9f3e 9a5d 3fbe
00000200: 9bb9 af3e 1a5d f03d 2dde 943e 9f7f adbe
00000210: 90e0 2c3e 2dcc 8dbe 7dd5 a13e efd3 1dbf
00000220: afb0 d0be 5e47 ae3e 001d a7be 6abd 9d3e
00000230: 259d 8dbe 3570 bb3e 60a9 2ebe d595 963e
00000240: 1d39 b73e b821 b3be a4e3 35be 3f8c 86be
00000250: cb9b 3bbf 46a9 94be cf01 bb3e 58b8 84be
00000260: 982d 6bbe 6f9f 59bc 342f 163f 18a9 96be
00000270: 9517 27be c552 a73e d035 c63e bd46 50be
00000280: 02a2 873e 0678 163e 39eb a4be 21dd 7bbe
00000290: 090a fcbd a40e 9d3e fdee 653e f7bf babe
000002a0: 7cac 563e f001 44be 4929 8ebe 361e fcbe
000002b0: f6ef 52be 9f93 4d3e ba4b 52be 4725 813e
000002c0: 5af0 debe 05e3 bfbe f1a0 bb3e c4fb 7ebe
000002d0: 08b8 8a3e 30d7 ab3e c1d6 a33e c12b ac3e
000002e0: 4f69 05bf 52c7 bc3e 62ef 8dbe ff37 463e
000002f0: 8b15 a23e 977f 2d3d 2e49 9cbe 741d 463e
00000300: ca88 d0be d526 70be 7b60 a4be be9c a13e
00000310: d506 a0be a3a6 dc3e ce02 83be f578 0e3f
00000320: 1e99 c53e 087d 9cbe dbe5 763e 0fa5 d1be
00000330: 75c1 b03e 5038 a5be a528 3f3e 98d2 b7be
00000340: cd35 8abe 8f4a 903e 9c55 6b3e a077 b73e
00000350: 9fc0 343f 51ae a93e dabd 00bf 57a2 923e
00000360: 510c e23e 4b84 6e3e f21c 17bf 625b 0e3e
00000370: 9feb 423e f2a8 ccbe 8f6a 8ebe c073 ce3e
00000380: ff1b b7be 3395 a9be 6b87 ba3e 1c18 aa3e
00000390: b82b 503e 954a 59be 2482 cabe b47a a83e
000003a0: 782e b7be e8a9 183e f4ea a73e df5a 063f
000003b0: cf34 9e3e a1ff 63be 2dc7 ca3e ac3f e6be
000003c0: 8dec c13e ec90 d63e a6b7 12bf a927 913e
000003d0: c881 8dbe 3494 97be 6989 b4be eeff 1fbe
000003e0: 7dd1 0f3f 3330 c5be 0bb0 a13e cf78 8bbe
000003f0: ded2 d9be e314 4f3e 16a6 ae3e 1c54 1bbe

convs.1.linear2.bias f4 [64]
0.40178457 0.3098672 -0.3236175 0.36477834 -0.1889989 -0.011867243 -0.40725264 -0.101014994
0.3500006 0.32826683 -0.32126063 0.33319005 0.00064213946 -0.27292085 0.3516214 -0.041355938
0.31975773 -0.39964196 -0.35888112 0.3140756 -0.37099853 -0.3081904 0.3037299 0.396309
-0.309791 -0.3341586 0.4250002 -0.22301047 -0.3532999 -0.3295446 0.33962274 0.33387107
-0.35445985 -0.32976145 -0.390934 -0.3087074 -0.33576742 -0.30973494 0.3210329 -0.3247438
0.32102665 0.32096297 -0.39553186 0.34186563 -0.3036499 -0.2591472 -0.3086468 -0.22585146
-0.2776121 0.24364375 0.4151664 -0.37506983 0.3373511 0.35802117 -0.26020494 -0.29760906
-0.0043748035 0.3552181 0.3861334 -0.36572796 -0.36639294 -0.387919 0.2899204 -0.3887082
00000000: b5b6 cd3e eaa6 9e3e 31b1 a5be 3ac4 ba3e
00000010: ed88 41be d36e 42bc 6b83 d0be f3e0 cebd
00000020: 4733 b33e 9712 a83e 467c a4be e397 aa3e
00000030: 4055 283a 48bc 8bbe b807 b43e d864 29bd
00000040: 49b7 a33e df9d ccbe 44bf b7be 84ce a03e
00000050: 85f3 bdbe 22cb 9dbe 7c82 9b3e 03e9 ca3e
00000060: ed9c 9ebe d616 abbe a099 d93e db5c 64be
00000070: b9e3 b4be 12ba a8be 08e3 ad3e 26f1 aa3e
00000080: c37b b5be 7ed6 a8be 8028 c8be e50e 9ebe
00000090: b5e9 abbe 9495 9ebe 6d5e a43e d244 a6be
000000a0: 9b5d a43e 4255 a43e 2783 cabe 0309 af3e
000000b0: 0078 9bbe f1ae 84be f406 9ebe 9b45 67be
000000c0: 2c23 8ebe bf7d 793e b190 d43e 2709 c0be
000000d0: 49b9 ac3e 8d4e b73e 9539 85be 3760 98be
000000e0: 835a 8fbb 26df b53e 47b3 c53e b240 bbbe
000000f0: db97 bbbe 529d c6be 7270 943e c304 c7be

mlp1.weight f4 [64, 192]
-0.16509521 0.122795105 -0.16516578 0.04815714 -0.0661001 0.14487545 -0.25141314 0.22524583
0.15149933 -0.097774036 0.08071673 0.042769995 0.28391623 0.2092546 0.051940262 0.2928876
-0.16899516 -0.11750311 -0.11200747 -0.048938617 -0.021430803 -0.20586663 -0.10650139 0.16919526
-0.07618129 -0.26541293 -0.21099217 0.20601197 0.12233544 -0.12059362 -0.0406015 -0.1872574
-0.13053675 0.13278432 -0.13637364 -0.15813006 -0.20108692 0.12774444 -0.1920841 0.12477238
-0.20998766 -0.074771255 -0.2700654 0.33099777 0.1697243 0.20991585 -0.11004098 -0.23761712
0.19217889 -0.09276192 -0.13958438 -0.19928543 -0.21486314 0.06862718 -0.15954289 0.24923006
-0.04499142 -0.22817716 -0.032675393 0.11908337 0.044273734 0.30540428 0.02918156 -0.23121619
-0.15516675 0.13322392 0.11554662 -0.08282841 -0.1246667 0.12818092 -0.09667669 -0.105258726
0.1334334 0.13014825 -0.0935865 0.13856614 -0.05956767 0.033340625 -0.12860408 -0.11845783
-0.01962164 -0.0818118 0.07136166 0.122721195 -0.16605517 0.01732794 -0.17725472 -0.1707812
-0.12745263 -0.13167538 -0.09331551 -0.16080903 -0.050538115 -0.13684072 -0.06711047 -0.061589457
-0.1288918 0.5829062 0.11490715 -0.04563033 0.11278342 -0.034317184 -0.049869608 -0.14496343
0.58946306 -0.16680133 0.1464129 0.062107004 -0.17036633 0.043978255 -0.09434269 -0.10031882
0.061993994 -0.095376045 0.09477261 -0.15113834 -0.06176017 -0.03153043 -0.12917045 0.46735638
-0.10673703 -0.06911615 -0.12765087 -0.04911363 0.6025854 -0.13058232 0.042284224 -0.0572997
0.29601824 0.3176092 -0.2965999 0.20871703 -0.31625962 0.1351425 -0.24224783 -0.49018347
0.20934136 0.30400813 -0.30006647 0.31306195 -0.39399725 -0.3424671 0.23850779 -0.6717772
0.3086812 -0.29022142 -0.23260175 0.35393834 -0.23790506 -0.30995637 0.22455339 0.30405173
-0.26204646 -0.27902323 0.30617198 -0.3292578 -0.21078657 -0.27492723 0.30542994 0.27066928
-0.17402935 -0.3188242 -0.23142843 -0.31916296 -0.35307562 -0.24712613 0.2890793 -0.22418447
0.2334143 0.25033152 -0.29131207 0.25687414 -0.26439583 -0.2842333 -0.30945483 -0.378843
-0.21666782 0.28043145 0.28234187 -0.268736 0.2032742 0.2641426 -0.3455981 -0.32041633
-0.5818377 0.22897123 0.22042464 -0.23919529 -0.30734298 -0.19600177 0.31764105 -0.22691017
-0.04511284 -0.21261203 -0.24255213 0.2962407 0.15158701 -0.05602865 0.21497922 -0.0980852
-0.12846404 -0.37571633 0.007227965 0.07760254 -0.16541724 -0.009365669 0.187395 -0.06267116
0.09803823 0.060606234 0.0070834956 0.21154697 -0.035131287 0.09807053 0.29044956 -0.08655573
-0.33852208 0.08728635 0.15151916 0.017672617 0.2783609 -0.04631887 0.2063876 -0.18358721
0.32179362 0.28634626 -0.0041783596 0.077595636 -0.20269895 -0.30171606 0.24894051 -0.28561446
0.24163464 -0.25250193 0.24629232 0.00092206453 -0.2055814 -0.13802932 -0.08980914 0.112855695
0.008764562 0.3552976 -0.05485015 0.32582393 0.2878914 0.21702464 0.111261725 -0.19768542
0.32427138 0.108513206 0.002224825 0.16351753 0.4318292 -0.19115284 -0.32054204 0.051636398
00000000: b80e 29be 007c fb3d 3821 29be 6c40 453d
00000010: 7d5f 87bd 3b5a 143e 39b9 80be d8a6 663e
00000020: a422 1b3e c13d c8bd d04e a53d 972f 2f3d
00000030: 785d 913e d646 563e 50bf 543d 5df5 953e
00000040: 110d 2dbe 78a5 f0bd 2c64 e5bd dc73 48bd
00000050: a78f afbc b4ce 52be 671d dabd 8641 2d3e
00000060: f004 9cbd 34e4 87be 550e 58be cdf4 523e
00000070: 018b fa3d caf9 f6bd c24d 26bd 67c0 3fbe
00000080: 6dab 05be 9df8 073e 88a5 0bbe d9ec 21be
00000090: bbe9 4dbe 70cf 023e b2b1 44be a988 ff3d
000000a0: 0107 57be ac21 99bd 0346 8abe 8a78 a93e
000000b0: 35cc 2d3e 2ef4 563e 2a5d e1bd e751 73be
000000c0: 8bca 443e f6f9 bdbd 35ef 0ebe 7b11 4cbe
000000d0: 1505 5cbe 688c 8c3d 365f 23be 2a36 7f3e
000000e0: ec48 38bd 46a7 69be a2d6 05bd fbe1 f33d
000000f0: 6058 353d f35d 9c3e 2b0e ef3c f0c3 6cbe
00000100: 08e4 1ebe da6b 083e b5a3 ec3d f1a1 a9bd
00000110: 4151 ffbd dc41 033e 6efe c5bd e391 d7bd
00000120: c4a2 083e 9545 053e 47aa bfbd 48e4 0d3e
00000130: 3bfd 73bd 2e90 083d cab0 03be 059a f2bd
00000140: 90bd a0bc f28c a7bd 1026 923d 4055 fb3d
00000150: 5e0a 2abe 53f3 8d3c 4382 35be 44e1 2ebe
00000160: f182 02be e9d5 06be 341c bfbd 1fab 24be
00000170: 0e01 4fbd f91f 0cbe 3771 89bd 3a45 7cbd
00000180: 36fc 03be 5739 153f 7154 eb3d dee6 3abd
00000190: fefa e63d 2d90 0cbd 1344 4cbd 4b71 14be
000001a0: 0de7 163f f8cd 2abe 43ed 153e ea63 7e3d
000001b0: 8374 2ebe 8b22 343d be36 c1bd f473 cdbd
000001c0: 6aed 7d3d 8454 c3bd 2418 c23d 02c4 1abe
000001d0: 3bf8 7cbd 0d26 01bd 4245 04be 5649 ef3e
000001e0: f298 dabd c58c 8dbd e9b6 02be 602b 49bd
000001f0: 0943 1a3f 5fb7 05be 3932 2d3d 17b3 6abd
00000200: b48f 973e ac9d a23e f1db 97be ebb9 553e
00000210: c8ec a1be cc62 0a3e d10f 78be 54f9 fabe
00000220: 955d 563e f4a6 9b3e 50a2 99be a849 a03e
00000230: 02ba c9be d957 afbe 633b 743e 97f9 2bbf
00000240: 760b 9e3e e797 94be 272f 6ebe 6837 b53e
00000250: 629d 73be 9ab2 9ebe 53f1 653e abac 9b3e
00000260: f42a 86be 22dc 8ebe 93c2 9c3e 7a94 a8be
00000270: 6fd8 57be 43c3 8cbe 5061 9c3e 2a95 8a3e
00000280: c034 32be ed3c a3be 93fb 6cbe 5469 a3be
00000290: 54c6 b4be a20e 7dbe 3402 943e 9d90 65be
000002a0: 2904 6f3e 742b 803e db26 95be 0285 833e
000002b0: e45e 87be 0787 91be dd70 9ebe b6f7 c1be
000002c0: 2bde 5dbe b694 8f3e 1d8f 903e c497 89be
000002d0: 1d27 503e b33d 873e 3cf2 b0be 9c0d a4be
000002e0: 51f3 14bf 6f77 6a3e ffb6 613e 9cef 74be
000002f0: 0f5c 9dbe b0b4 48be d9a1 a23e 245b 68be
00000300: 3ec8 38bd f8b6 59be 965f 78be dcac 973e
00000310: a039 1b3e 4c7e 65bd 8323 5c3e e5e0 c8bd
00000320: 148c 03be e45d c0be 91d8 ec3b 15ee 9e3d
00000330: 2363 29be 7772 19bc 7ae4 3f3e bd59 80bd
00000340: 44c8 c83d 3e3e 783d ab1c e83b c59f 583e
00000350: d3e5 0fbd 34d9 c83d ceb5 943e 2144 b1bd
00000360: c452 adbe 30c3 b23d d727 1b3e 2ac6 903c
00000370: 5285 8e3e dbb8 3dbd 4557 533e 49fe 3bbe
00000380: 22c2 a43e fa9b 923e 9fea 88bb 76ea 9e3d
00000390: 5090 4fbe 877a 9abe 43ea 7e3e 0f3c 92be
000003a0: 126f 773e ef47 81be 0e34 7c3e b4b6 713a
000003b0: ee83 52be 8f57 0dbe dbed b7bd e320 e73d
000003c0: 3d99 0f3c 91e9 b53e 8daa 60bd 65d2 a63e
000003d0: 8066 933e b53b 5e3e 30dd e33d 0c6e 4abe
000003e0: e606 a63e 2c3c de3d 5fce 113b 2471 273e
000003f0: b818 dd3e 92bd 43be 161e a4be b080 533d

mlp1.bias f4 [64]
0.18188573 0.11279773 -0.038508132 -0.111606166 0.20739958 0.14213516 0.16832191 0.15158491
-0.034937445 -0.105938084 0.13808005 0.13583997 0.030690582 0.1979338 0.013128721 0.21479945
0.15299919 0.13434914 0.27599794 0.07887969 -0.09216306 0.15763257 0.13330366 0.063212775
0.011923705 -0.06676932 0.059906714 0.13528134 -0.02273909 0.08553828 0.19226858 0.029243976
0.14669874 0.08823428 0.1209809 0.17261344 0.047115646 0.10405444 0.14037411 0.17541118
0.14482434 0.05742551 -0.02861859 0.017564697 0.2569119 0.15410706 0.09300799 0.1948068
0.20546158 0.028262725 0.05350858 0.13661136 0.13833514 0.08329071 0.08166667 -0.12482868
-0.0038115773 -0.10726541 0.24107088 0.22631863 -0.031570137 0.022223976 -0.045544434 0.070139654
00000000: 4140 3a3e 7f02 e73d b4ba 1dbd c691 e4bd
00000010: 8e60 543e e18b 113e 945c 2c3e 1339 1b3e
00000020: 911a 0fbd 11f6 d8bd db64 0d3e a219 0b3e
00000030: d16a fb3c 28af 4a3e d919 573c 63f4 5b3e
00000040: d2ab 1c3e d292 093e 9a4f 8d3e ad8b a13d
00000050: fdbf bcbd 6f6a 213e c180 083e b375 813d
00000060: a55b 433c 5abe 88bd be60 753d 3187 0a3e
00000070: 5447 babc b22e af3d 0ee2 443e 1091 ef3c
00000080: 3238 163e 2db4 b43d d6c4 f73d 94c1 303e
00000090: 56fc 403d 7f1a d53d 3bbe 0f3e fd9e 333e
000000a0: d54c 143e 0337 6b3d 8971 eabc d7e3 8f3c
000000b0: f589 833e 3ece 1d3e f97a be3d 6f7b 473e
000000c0: 8564 523e 3b87 e73c d02b 5b3d d9e3 0b3e
000000d0: baa7 0d3e 5294 aa3d db40 a73d 2ea6 ffbd
000000e0: a8cb 79bb f8ad dbbd 49db 763e 12c0 673e
000000f0: b04f 01bd 0e0f b63c cd8c 3abd 61a5 8f3d
