Saved_Models/TSP_500/scatgnn_layer_2_hid_64_model_260_temp_3.500.pth (torch, 257863 bytes, 24 tensors)

bn0.weight f4 [2]
1.0 1.0
00000000: 0000 803f 0000 803f

bn0.bias f4 [2]
0.0 0.0
00000000: 0000 0000 0000 0000

bn0.running_mean f4 [2]
0.0 0.0
00000000: 0000 0000 0000 0000

bn0.running_var f4 [2]
1.0 1.0
00000000: 0000 803f 0000 803f

in_proj.weight f4 [64, 2]
-0.2645943 -0.9726806 0.99800515 0.22947998 0.56485623 -1.0172502 -0.7831301 0.9324469
-0.4430439 -0.7114608 0.40829787 1.1215894 -0.8753614 -0.61195076 0.69334215 1.1094646
0.91915107 0.83860636 0.7271094 -0.6534443 0.25877544 -0.74165356 -0.12448826 -0.7498114
0.9081281 0.6392011 0.71115017 0.9911505 -0.44699413 1.086807 0.8766927 1.0103939
-0.4796218 -0.82281774 -0.25594476 -1.1726147 -0.11607715 -1.1135664 -0.7023763 0.49622968
0.030298945 0.6791483 -0.40890843 0.393086 -1.098503 -0.5834999 0.71355474 0.75472444
0.35018393 0.12615485 -0.9002637 -0.36489537 -0.76678365 0.29744446 0.4505195 1.1788042
-0.58940816 0.8859212 0.029018415 -0.62652254 -0.8207689 0.81050485 -0.20261699 -0.9699929
-0.946898 0.32955837 -0.44989085 0.93072385 -0.37684417 -1.0485319 -0.8427209 -1.0130371
-0.017100906 -0.7099178 1.0294449 -0.40178302 -0.91460544 -0.6751087 1.0388343 -0.47466826
-0.97585016 0.15239371 0.5886805 -0.8634868 -1.0166779 -0.17335545 0.23832192 0.4303675
0.96913505 -0.74051577 0.59486157 0.34400278 -0.31647673 -0.8898779 -1.0461013 0.3408539
0.19109553 0.863633 -0.7586815 0.30128285 0.14076614 -0.9694857 -0.92259854 -0.018169343
-1.145117 0.06731722 -0.25843138 0.9874137 -0.83424467 -0.85421205 0.8668357 0.42553544
-0.95316374 0.18838473 -0.55161595 -0.77353036 -0.06249124 -0.8620787 0.04873864 0.82354486
-0.4793248 0.41110918 0.64091784 -0.21036072 0.6029446 -0.4234364 -0.27146348 0.15459971
00000000: e778 87be 9901 79bf 447d 7f3f cdfc 6a3e
00000010: 6b9a 103f 4135 82bf 377b 48bf d7b4 6e3f
00000020: a6d6 e2be 4c22 36bf 6b0c d13e 3e90 8f3f
00000030: af17 60bf cea8 1cbf df7e 313f f002 8e3f
00000040: 7c4d 6b3f e8ae 563f d723 3a3f 2048 27bf
00000050: 377e 843e 02dd 3dbf b3f3 febd a4f3 3fbf
00000060: 157b 683f afa2 233f f00d 363f 0abc 7d3f
00000070: 6adc e4be 7e1c 8b3f ef6e 603f 9654 813f
00000080: fd90 f5be 2fa4 52bf 310b 83be 3d18 96bf
00000090: dbb9 edbd 5889 8ebf efce 33bf d111 fe3e
000000a0: 7e35 f83c aadc 2d3f 725c d1be 9142 c93e
000000b0: bf9b 8cbf 4060 15bf 86ab 363f 9f35 413f
000000c0: 4f4b b33e bd2e 013e af77 66bf 91d3 babe
000000d0: ef4b 44bf a44a 983e 7eaa e63e 0ee3 963f
000000e0: 74e3 16bf bbcb 623f 07b8 ed3c c863 20bf
000000f0: e91d 52bf 3f7d 4f3f d47a 4fbe 7451 78bf
00000100: e867 72bf e0bb a83e 1858 e6be eb43 6e3f
00000110: b8f1 c0be 4b36 86bf 8fbc 57bf 33ab 81bf
00000120: 3317 8cbc 2cbd 35bf dac4 833f 81b6 cdbe
00000130: 9523 6abf ecd3 2cbf 86f8 843f b807 f3be
00000140: 51d1 79bf 190d 1c3e c4b3 163f 790d 5dbf
00000150: 8022 82bf 1784 31be a90a 743e 2159 dc3e
00000160: 3c19 783f 7192 3dbf d948 183f 2221 b03e
00000170: 3d09 a2be 0acf 63bf a6e6 85bf 6784 ae3e
00000180: 8cae 433e 0d17 5d3f f338 42bf bf41 9a3e
00000190: 0025 103e 3730 78bf 6b2f 6cbf e0d7 94bc
000001a0: 3293 92bf 9cdd 893d 1e51 84be 25c7 7c3f
000001b0: 0f91 55bf a4ad 5abf f2e8 5d3f c8df d93e
000001c0: 8a02 74bf ede7 403e b436 0dbf 1606 46bf
000001d0: d1f6 7fbd 31b1 5cbf 2ba2 473d d6d3 523f
000001e0: 0f6a f5be e77c d23e 3113 243f cd68 57be
000001f0: 945a 1a3f a8cc d8be 43fd 8abe 634f 1e3e

in_proj.bias f4 [64]
-0.36344168 -0.5531159 -0.7614169 0.56065875 0.6288218 0.63804567 -0.61260587 0.04326433
0.39201316 -0.8504505 0.6323355 0.642063 0.68740964 0.5613681 0.37191537 0.832365
0.4000767 0.4902394 0.41157496 0.3115958 -0.5367749 -0.66533154 0.5838015 -0.014746431
-0.6533116 -0.75133777 -0.34211573 -0.20239176 0.43673223 0.21962078 0.122829966 -0.83271676
0.11882498 0.6346011 0.17859517 -0.6063899 -0.23259243 -0.1716531 0.15147984 -0.013677868
0.19115801 -0.29967502 -0.6483103 0.7621921 0.5142973 0.41631234 -0.1443495 -0.84505785
0.4014523 0.32291564 0.36662975 0.32386905 0.39231998 -0.010583017 -0.43801394 0.14820649
0.70924944 -0.28003412 0.76954436 0.24096325 0.93840134 0.769245 -0.44572198 -0.9398558
00000000: 0715 babe 0199 0dbf 38ec 42bf 5587 0f3f
00000010: 77fa 203f f656 233f bdd3 1cbf f035 313d
00000020: f3b5 c83e 20b7 59bf bde0 213f 3e5e 243f
00000030: 14fa 2f3f d2b5 0f3f b16b be3e df15 553f
00000040: dad6 cc3e a900 fb3e f4b9 d23e 7c89 9f3e
00000050: 146a 09bf 2b53 2abf 0474 153f 049b 71bc
00000060: 6e3f 27bf ac57 40bf cb29 afbe c93f 4fbe
00000070: 5e9b df3e 45e4 603e 478e fb3d ed2c 55bf
00000080: 835a f33d 3875 223f a7e1 363e 5e3c 1bbf
00000090: b62c 6ebe d5c5 2fbe 881d 1b3e 2319 60bc
000000a0: edbe 433e 016f 99be aaf7 25bf 051f 433f
000000b0: fda8 033f e426 d53e 5bd0 13be b655 58bf
000000c0: 288b cd3e 3355 a53e e5b6 bb3e 2ad2 a53e
000000d0: 2ade c83e 6464 2dbc 5d43 e0be 71c3 173e
000000e0: 5f91 353f a260 8fbe dc00 453f 12bf 763e
000000f0: 123b 703f 3eed 443f ac35 e4be 649a 70bf

convs.0.a f4 [128, 1]
0.02854259 0.032368533 0.072883114 0.121307634 0.0180098 0.057375275 -0.05178816 -0.011557198
-0.015244377 0.053278964 0.049789112 -0.0013680721 0.03991476 0.06382952 0.084975004 0.07975494
-0.04497272 -0.012554474 0.030536398 0.027901167 0.0047160066 0.04510869 -0.032722604 -0.05910682
0.0058019115 -0.043035217 0.034808103 0.0068792296 0.04475167 0.03662707 0.017135426 0.04930299
-0.005664469 0.0053626727 -0.04804167 -0.03460816 0.04987915 0.13976602 -0.06783682 0.12377343
0.0018026236 0.098624066 -0.024518555 0.07429324 0.15599322 0.06871258 -0.012410196 0.030774629
0.0032005217 -0.040664192 0.09114311 -0.006535963 0.046334524 0.027279908 -0.040067762 0.040153503
-0.048623335 -0.05137529 0.014880821 0.06927546 0.0019294567 0.14399962 0.061486874 0.004837088
0.014564502 -0.18022977 -0.28709406 0.28360847 -0.080469996 0.57881534 -0.10395891 0.7465393
0.83253354 -0.3122465 -0.12316448 -0.060906943 0.26866332 0.6151892 0.70117897 0.31758246
-0.59801394 -0.37374693 -0.5751538 0.38375378 0.087939695 -0.1780998 -0.25968868 0.7091482
0.023489896 -0.07912619 -0.11100847 0.43046367 0.35253868 -0.7635622 0.44522393 0.042377003
0.31458881 0.299526 -0.2557075 -0.15971668 -0.026089363 0.072600864 -0.086808406 0.3836629
0.24376005 -0.27497387 -0.15256695 0.25120097 -0.17482719 0.2634272 -0.03437193 -0.10863791
1.1253989 -0.09667612 -0.6125209 -0.40168253 -0.2120008 0.9471683 -0.21055052 0.46562284
0.015704162 -0.15003033 -0.05875528 1.528052 0.15170754 0.107419476 -0.15279095 0.030328074
00000000: 26d2 e93c de94 043d be43 953d 2370 f83d
00000010: 4a89 933c 5602 6b3d d21f 54bd 675a 3dbc
00000020: 8dc3 79bc 0b3b 5a3d abef 4b3d e250 b3ba
00000030: a97d 233d 0db9 823d 6007 ae3d 8f56 a33d
00000040: 5135 38bd 48b1 4dbc 7827 fa3c fd90 e43c
00000050: bb88 9a3b e4c3 383d 2308 06bd fe19 72bd
00000060: f61d be3b b245 30bd f192 0e3d 296b e13b
00000070: 874d 373d 4406 163d 985f 8c3c eff1 493d
00000080: 039d b9bb 5cb9 af3b 58c7 44bd 49c1 0dbd
00000090: 144e 4c3d d31e 0f3e 08ee 8abd ed7c fd3d
000000a0: 0346 ec3a 6afb c93d 23db c8bc 0e27 983d
000000b0: b0bc 1f3e 2eb9 8c3d 2254 4bbc 131b fc3c
000000c0: d8bf 513b 7f8f 26bd 3da9 ba3d a22b d6bb
000000d0: 45c9 3d3d 1d7a df3c 181e 24bd 0078 243d
000000e0: 4329 47bd e56e 52bd b0ce 733c 4be0 8d3d
000000f0: d3e5 fc3a a374 133e a9d9 7b3d 6f80 9e3b
00000100: f39f 6e3c 278e 38be fefd 92be 2135 913e
00000110: 74cd a4bd 3e2d 143f 69e8 d4bd 331d 3f3f
00000120: eb20 553f c6de 9fbe a93d fcbd 8f79 79bd
00000130: 3d8e 893e 0a7d 1d3f 7780 333f 2b9a a23e
00000140: 7117 19bf c25b bfbe 483d 13bf 607b c43e
00000150: ba19 b43d cb5f 36be eaf5 84be bd8a 353f
00000160: e26d c03c e90c a2bd 6958 e3bd bc65 dc3e
00000170: f37f b43e d078 43bf 64f4 e33e 8293 2d3d
00000180: c911 a13e 795b 993e 18ec 82be c58c 23be
00000190: 5cb9 d5bc c3af 943d 9bc8 b1bd 776f c43e
000001a0: 3c9c 793e 60c9 8cbe 833a 1cbe 6a9d 803e
000001b0: e605 33be eedf 863e 95c9 0cbd 8d7d debd
000001c0: 120d 903f 21fe c5bd 2bce 1cbf 55a9 cdbe
000001d0: bd16 59be 9f79 723f 8e9a 57be 1e66 ee3e
000001e0: 04a6 803c 8da1 19be 60a9 70bd 3597 c33f
000001f0: 3959 1b3e befe db3d 3b75 1cbe 9572 f83c

convs.0.linear1.weight f4 [64, 64]
0.27987626 0.04915703 0.07900924 -0.24356735 0.022565981 -0.20439427 0.25226107 -0.14058775
-0.24813966 0.07270719 0.25436425 0.188399 0.03651609 -0.30554852 -0.17298707 -0.18081397
0.12711316 0.2183281 0.42767775 -0.20470548 0.39544815 0.09385379 -0.05224589 -0.20123257
0.14193381 0.2014457 0.26479352 0.12662369 -0.11044773 0.3344336 -0.24883777 0.26250243
-0.17672105 -0.23944987 0.112962596 0.0952834 0.26629853 -0.048392944 -0.05309388 -0.11317123
-0.115111485 0.07522277 0.27358302 -0.26458806 0.11147585 0.012667346 0.32069978 0.2040004
-0.1530967 0.11555208 0.24502504 0.18875848 0.18505868 -0.12662031 0.108966134 -0.00260565
0.030766109 0.11834067 0.1426902 0.10534399 -0.17870958 -0.040839408 0.07468345 0.29603633
0.2806315 0.049534533 0.042649545 -0.2746877 0.035466272 -0.12008833 0.077401385 -0.027913347
-0.3053213 -0.071717374 0.202171 0.009652316 -0.032716453 -0.32315236 -0.13171865 -0.2752772
0.24408703 0.33770946 0.40198407 -0.20217197 0.17300835 0.01187175 -0.07611438 -0.08391862
0.21410213 0.19851413 0.131792 0.033962395 -0.21167634 0.3681175 -0.30950806 0.28284866
0.012752325 -0.11045384 0.052781053 0.028013892 0.16956963 0.0061432472 0.0035736633 -0.14781067
0.015993604 0.11820739 0.20801324 -0.19430806 0.1500828 -0.017624844 0.18644808 0.2293419
-0.15810682 0.054490123 0.28455535 0.09145079 0.0053613307 -0.11419955 -0.0067675496 -0.10487744
0.0625238 0.115841135 0.15634193 -0.031980734 -0.24019629 -0.07204678 0.05665403 0.22278662
0.40053543 0.2137872 0.044995278 0.015930407 -0.029521396 -0.15885723 0.07242105 0.07999017
-0.041800704 0.07199057 0.17805234 0.06413637 0.035782523 -0.28020686 0.04633718 -0.25102997
0.27499083 0.28554025 0.4897772 -0.086259104 0.27605426 0.023026478 0.114417456 -0.06223265
0.1475482 0.1964398 0.06403139 0.16715665 -0.18117633 0.47018528 -0.021228435 0.18659045
-0.086772285 -0.07871952 0.27262163 0.026564455 0.29535618 0.08857058 0.21656962 -0.07741671
0.049226046 0.12982579 0.11380968 -0.26567835 0.051030993 -0.11214801 0.30150393 0.18569307
-0.06629057 0.020721376 0.47053123 0.17849928 0.22127761 0.10804387 -0.04976794 0.034338795
-0.04612144 0.05152123 0.090964094 0.015904846 -0.15029137 -0.11796792 0.13958596 0.14519878
0.10100451 -0.20027794 0.054098472 0.12162271 0.106315345 0.11657181 0.0711883 0.0057105366
0.16612259 0.02245367 0.08488391 0.032936346 0.10490095 0.03771351 0.25567847 0.17425591
-0.10333864 -0.19124284 -0.18451068 0.320009 0.034411356 -0.042042665 0.076575495 0.094525814
-0.17011131 -0.09787458 -0.12052413 0.4082381 0.13802144 -0.13770396 0.44043803 0.072176374
0.13171136 0.33067513 0.3094192 0.08896123 0.10942457 0.10189412 0.03372431 0.25078988
0.13615309 -0.013868961 0.03905985 0.25675577 -0.11967944 -0.053164974 0.1382374 0.026964797
0.03429804 0.04409396 -0.023604177 0.09147966 0.049456753 0.16428496 0.18392703 0.074410856
0.21977416 0.10036569 -0.08213112 0.31493524 0.25016916 0.072305985 0.039168164 0.18774915
00000000: f14b 8f3e e258 493d 99cf a13d b869 79be
00000010: 4bdc b83c bb4c 51be 5d28 813e 3cf6 0fbe
00000020: 5318 7ebe 82e7 943d 083c 823e abeb 403e
00000030: e591 153d db70 9cbe 8623 31be 4c27 39be
00000040: f429 023e 6791 5f3e 94f8 da3e 509e 51be
00000050: 2e78 ca3e 6a36 c03d c9ff 55bd e90f 4ebe
00000060: 1957 113e c847 4e3e 0493 873e a4a9 013e
00000070: 6b32 e2bd e13a ab3e 54cf 7ebe b866 863e
00000080: 5df6 34be 5932 75be ef58 e73d f123 c33d
00000090: 4858 883e ae37 46bd f878 59bd 51c6 e7bd
000000a0: 92bf ebbd 650e 9a3d 1313 8c3e 1678 87be
000000b0: 734d e43d b38a 4f3c c332 a43e 7be5 503e
000000c0: 62c5 1cbe 92a6 ec3d d8e7 7a3e e749 413e
000000d0: 0680 3d3e c1a8 01be a329 df3d 8ec3 2abb
000000e0: 3509 fc3c 985c f23d 611d 123e 97be d73d
000000f0: a5ff 36be 3947 27bd a3f3 983d 1392 973e
00000100: efae 8f3e b9e4 4a3d 4ab1 2e3d dea3 8cbe
00000110: 1545 113d dff0 f5bd 9e84 9e3d 88aa e4bc
00000120: 1353 9cbe 8fe0 92bd ea05 4f3e bf24 1e3c
00000130: b001 06bd 3a74 a5be 41e1 06be 22f1 8cbe
00000140: f3f1 793e 41e8 ac3e dbd0 cd3e 2b06 4fbe
00000150: 1a29 313e ba81 423c dbe1 9bbd 87dd abbd
00000160: 973d 5b3e 4a47 4b3e 7bf4 063e 271c 0b3d
00000170: afc1 58be e679 bc3e d777 9ebe 8ad1 903e
00000180: 21ef 503c 9f35 e2bd f230 583d 647d e53c
00000190: a9a3 2d3e 4b4d c93b 1f34 6a3b ae5b 17be
000001a0: 0505 833c b716 f23d 6c01 553e b1f8 46be
000001b0: 4eaf 193e fa61 90bc 3fec 3e3e 9ad8 6a3e
000001c0: c1e6 21be 0931 5f3d 3db1 913e 8d4a bb3d
000001d0: 1aae af3b 74e1 e9bd 52c2 ddbb fcc9 d6bd
000001e0: 7a0c 803d 1e3e ed3d 1918 203e 3bfe 02bd
000001f0: 04f6 75be 438d 93bd 0e0e 683d 2d22 643e
00000200: fb12 cd3e 08eb 5a3e f84c 383d 7c80 823c
00000210: dbd6 f1bc 78ab 22be 7d51 943d e3d1 a33d
00000220: 3737 2bbd cb6f 933d 5a53 363e ee59 833d
00000230: b290 123d 4677 8fbe 0ecc 3d3d 0087 80be
00000240: 99cb 8c3e 5532 923e 14c4 fa3e 9da8 b0bd
00000250: fc56 8d3e 06a2 bc3c b353 ea3d aae7 7ebd
00000260: e016 173e 8427 493e e422 833d 1d2b 2b3e
00000270: 4a86 39be 20bc f03e 41e7 adbc 9111 3f3e
00000280: abb5 b1bd b337 a1bd 1095 8b3e b39d d93c
00000290: ed38 973e 7e64 b53d 6dc4 5d3e a78c 9ebd
000002a0: 40a1 493d 0df1 043e 0d15 e93d fe06 88be
000002b0: e005 513d dbad e5bd b95e 9a3e 5326 3e3e
000002c0: 5ac3 87bd e0bf a93c 78e9 f03e 84c8 363e
000002d0: 9996 623e 1b46 dd3d 78d9 4bbd d6a6 0c3d
000002e0: d6e9 3cbd ed07 533d 624b ba3d e14a 823c
000002f0: fbe5 19be 2a99 f1bd 9fef 0e3e fdae 143e
00000300: 74db ce3d a915 4dbe 5c96 5d3d 5415 f93d
00000310: dcbb d93d 33bd ee3d 2ccb 913d 741f bb3b
00000320: 0a1c 2a3e c2f0 b73c 9ed7 ad3d 43e8 063d
00000330: 4fd6 d63d 7b79 1a3d 4ae8 823e 2470 323e
00000340: 35a3 d3bd 2ad5 43be 5ef0 3cbe 38d8 a33e
00000350: ecf2 0c3d ee34 2cbd 9dd3 9c3d c096 c13d
00000360: a931 2ebe 7872 c8bd 5bd5 f6bd 9604 d13e
00000370: 7e55 0d3e 4402 0dbe 1881 e13e 35d1 933d
00000380: 58df 063e 404e a93e 326c 9e3e 4e31 b63d
00000390: fd19 e03d ddad d03d 8122 0a3d 8867 803e
000003a0: b76b 0b3e a33a 63bc 39fd 1f3d 7e75 833e
000003b0: 7f1a f5bd 84c3 59bd 1b8e 0d3e 47e5 dc3c
000003c0: 1a7c 0c3d de9b 343d 8c5d c1bc b059 bb3d
000003d0: 2a93 4a3d 513a 283e 5e57 3c3e b864 983d
000003e0: 7a0c 613e 878c cd3d 5c34 a8bd 313f a13e
000003f0: 2c16 803e 2915 943d cc6e 203d 5041 403e

convs.0.linear1.bias f4 [64]
0.38198206 0.35067934 0.30228493 -0.30723622 0.34046683 -0.22067675 0.36914825 0.19473636
0.33453783 -0.0024089313 0.30051717 -0.3701812 -0.34537295 0.33033267 0.3209237 -0.3331302
0.34834743 -0.33093935 0.17511973 -0.37746423 -0.36704773 -0.34002012 0.3642094 0.31648597
-0.19761445 -0.27006724 0.36554024 -0.30296376 0.30492747 0.3879542 -0.3813468 -0.34814736
-0.3144777 -0.26112294 0.1693878 -0.123731785 -0.32891148 -0.32011375 0.35435566 0.38049364
-0.36049488 0.29569915 0.21704222 -0.32524738 0.27737355 0.3279957 0.26661775 0.328625
0.3376213 -0.3600845 -0.12814224 0.31492305 -0.36426607 0.0076514627 -0.30407962 0.35611632
-0.3084781 -0.3561999 -0.3459607 -0.35491437 0.5741121 -0.065439485 -0.4043818 -0.32110608
00000000: 2793 c33e 3e8c b33e 17c5 9a3e 114e 9dbe
00000010: ab51 ae3e 16f9 61be 0001 bd3e f868 473e
00000020: 8b48 ab3e 29df 1dbb 63dd 993e 6488 bdbe
00000030: b9d4 b0be 5d21 a93e 1c50 a43e 0b90 aabe
00000040: 985a b23e e270 a9be 9652 333e fe42 c1be
00000050: aeed bbbe 1e17 aebe a879 ba3e 730a a23e
00000060: 715b 4abe 4146 8abe 1728 bb3e 111e 9bbe
00000070: 741f 9c3e efa1 c63e e33f c3be 5f40 b2be
00000080: 3903 a1be e8b1 85be ff73 2d3e 1767 fdbd
00000090: 1667 a8be f3e5 a3be 1b6e b53e 10d0 c23e
000000a0: c992 b8be e165 973e 5140 5e3e d386 a6be
000000b0: e803 8e3e 0def a73e 1f82 883e 8941 a83e
000000c0: b3dc ac3e ff5c b8be b837 03be 983d a13e
000000d0: 1581 babe 1fb9 fa3b 53b0 9bbe e154 b63e
000000e0: d7f0 9dbe d55f b6be c321 b1be 56b7 b5be
000000f0: 03f9 123f 2305 86bd 220b cfbe 0468 a4be

convs.0.linear2.weight f4 [64, 64]
-0.4187799 -0.54350424 -0.37580132 0.70589453 -0.4113757 0.47826576 -0.46756935 0.21231008
-0.59220326 0.4665532 -0.24168237 0.39566812 0.44981954 -0.38473743 -0.2647373 0.4485895
-0.5275637 0.3766589 -0.37009057 0.4076164 0.5530874 0.38937142 -0.5087621 -0.5399066
0.41575146 0.48034272 -0.48416406 0.435942 -0.33418298 -0.5673692 0.38801664 0.41524035
0.32440716 0.48017415 -0.23152632 0.29063404 0.5171432 0.31854147 -0.61573493 -0.40462995
0.5347509 -0.3568102 -0.43549186 0.57113254 -0.36310744 -0.5882933 -0.2488796 -0.35261902
-0.3478046 0.48959017 0.33330154 -0.4369256 0.24880831 -0.23955204 0.3517578 -0.49499124
0.41600436 0.41196463 0.42256185 0.4561336 -0.28830966 0.34818915 0.64064807 0.54079586
0.109534286 0.24248652 0.29940334 -0.3758477 0.1080755 -0.29333627 0.3211258 -0.03488084
0.31033376 0.12132654 0.14896628 -0.11744341 -0.12181305 0.12737446 0.16737309 -0.27925906
0.19236292 -0.25716817 0.1192706 -0.22878303 -0.32011172 -0.2046453 0.20697488 0.16732971
-0.14424706 -0.112426184 0.27330634 -0.29649198 0.22393748 0.21266891 -0.10728554 -0.1826585
-0.24856009 -0.26049763 0.17762856 0.14006813 -0.2783017 -0.26115027 0.258004 0.17376897
-0.60486436 0.2195624 0.1961875 -0.17866875 0.20294729 0.18974327 0.123724915 0.09083803
0.12378183 -0.29456347 0.22728692 0.09048292 -0.24217251 -0.059770364 -0.21904698 0.17915498
-0.13993047 -0.13784835 -0.3231464 -0.12129923 0.40481842 -0.26396948 -0.35663265 -0.258286
0.29891497 0.11813148 0.10732386 -0.35290146 0.1544302 -0.06930481 0.31319928 -0.046213247
0.24828376 0.080285095 0.1622145 -0.25697842 -0.26188833 0.092111856 0.15186614 -0.32362124
0.20865422 -0.16167639 0.33625674 -0.20136431 -0.30884314 -0.23548327 0.24670415 0.20120652
-0.18364689 -0.16021116 0.18375826 -0.18796101 0.118306436 0.3520282 -0.19912313 -0.47884506
-0.08495802 -0.08673251 0.12860556 0.058040615 -0.10663375 -0.16410388 0.10852929 0.0686201
-0.53600854 0.17966563 0.29108125 -0.15969357 0.21633267 0.27121782 0.17868322 0.2688452
0.08323621 -0.34318823 0.3582056 0.26990756 -0.28025332 -0.16104965 -0.16336629 0.2663879
-0.10530296 -0.0798645 -0.1444646 -0.24937873 0.39020804 -0.25952214 -0.33180875 -0.2627001
-0.4019535 -0.34419045 -0.2864511 0.65233076 -0.37227395 0.33170596 -0.34346798 0.16940214
-0.6395212 0.5560585 -0.36831206 0.46356755 0.5235897 -0.20986272 -0.36444646 0.59922534
-0.30389616 0.44419548 -0.6019142 0.34967762 0.54226106 0.49488512 -0.34325224 -0.5653739
0.38988766 0.48122916 -0.27008575 0.42222607 -0.45284918 -0.59032077 0.53011394 0.512079
0.24654688 0.25000125 -0.2841612 0.41863513 0.5105172 0.32935143 -0.5258318 -0.31461558
0.6649845 -0.39903095 -0.56012094 0.5259272 -0.41514236 -0.6125466 -0.17054476 -0.33181468
-0.22317614 0.27303106 0.24053304 -0.56829053 0.35765806 -0.073499836 0.25133994 -0.38655764
0.3817329 0.29243585 0.43247575 0.46018195 -0.57055885 0.49303052 0.73430485 0.4273951
00000000: 526a d6be 1823 0bbf 0869 c0be 81b5 343f
00000010: d69f d2be 40df f43e 4065 efbe d067 593e
00000020: a29a 17bf 10e0 ee3e 957b 77be 0395 ca3e
00000030: bf4e e63e 4efc c4be a68b 87be 86ad e53e
00000040: 6a0e 07bf 6fd9 c03e 837c bdbe 19b3 d03e
00000050: 2397 0d3f b15b c73e 3c3e 02bf 5237 0abf
00000060: 60dd d43e 7bef f53e 5ae4 f7be ca33 df3e
00000070: 081a abbe 1c3f 11bf 1eaa c63e 629a d43e
00000080: b218 a63e 63d9 f53e 3c15 6dbe fccd 943e
00000090: 7f63 043f de17 a33e cea0 1dbf a82b cfbe
000000a0: 6fe5 083f d4af b6be caf8 debe be35 123f
000000b0: 38e9 b9be 649a 16bf 4bda 7ebe 7b8a b4be
000000c0: 7213 b2be 90ab fa3e 80a6 aa3e b6b4 dfbe
000000d0: 9bc7 7e3e 214d 75be 9919 b43e 7e6f fdbe
000000e0: 86fe d43e 07ed d23e 075a d83e 588a e93e
000000f0: 539d 93be d945 b23e 8301 243f 9971 0a3f
00000100: 8353 e03d 634e 783e 654b 993e 1c6f c0be
00000110: b056 dd3d 2c30 96be 9a6a a43e 36df 0ebd
00000120: 11e4 9e3e 0d7a f83d 9e8a 183e 2c86 f0bd
00000130: 1f79 f9bd 736e 023e da63 2b3e 0bfb 8ebe
00000140: c9fa 443e 8cab 83be 2544 f43d 1946 6abe
00000150: afe5 a3be 8a8e 51be 39f1 533e 7b58 2b3e
00000160: 80b5 13be b33f e6bd cfee 8b3e cccd 97be
00000170: de4f 653e e1c5 593e 85b8 dbbd d40a 3bbe
00000180: 8986 7ebe f25f 85be 43e4 353e 056e 0f3e
00000190: 8f7d 8ebe 7db5 85be 1a19 843e 7ef0 313e
000001a0: 64d8 1abf f7d4 603e 60e5 483e f1f4 36be
000001b0: 6ad1 4f3e 0f4c 423e 7d63 fd3d 4a09 ba3d
000001c0: 5481 fd3d 06d1 96be e7bd 683e 1c4f b93d
000001d0: 12fc 77be c5d1 74bd da4d 60be 6774 373e
000001e0: ef49 0fbe 1e28 0dbe 7273 a5be bb6b f8bd
000001f0: 5c44 cf3e 0227 87be 8e98 b6be 103e 84be
00000200: 620b 993e ebee f13d 9dcc db3d 80af b4be
00000210: f322 1e3e aeef 8dbd a85b a03e 1a4a 3dbd
00000220: 193e 7e3e 836c a43d 8f1b 263e ad92 83be
00000230: 3a16 86be 24a5 bc3d cc82 1b3e afb1 a5be
00000240: 74a9 553e 7f8e 25be d829 ac3e 7232 4ebe
00000250: b020 9ebe 8722 71be 03a0 7c3e 1509 4e3e
00000260: ee0d 3cbe 650e 24be 202b 3c3e da78 40be
00000270: a54a f23d 0a3d b43e efe6 4bbe 2e2b f5be
00000280: 78fe adbd d0a0 b1bd 2db1 033e ffbb 6d3d
00000290: cc62 dabd d90a 28be 9b44 de3d b288 8c3d
000002a0: db37 09bf 44fa 373e 9a08 953e b686 23be
000002b0: 5086 5d3e 10dd 8a3e bcf8 363e 14a6 893e
000002c0: bf77 aa3d 5eb6 afbe b966 b73e 5331 8a3e
000002d0: 5d7d 8fbe 33ea 24be 7e49 27be ff63 883e
000002e0: 14a9 d7bd 0090 a3bd 87ee 13be 235d 7fbe
000002f0: 59c9 c73e 16e0 84be d6e2 a9be a180 86be
00000300: d9cc cdbe bb39 b0be b8a9 92be 26ff 263f
00000310: b19a bebe 5dd5 a93e 09db afbe c177 2d3e
00000320: a9b7 23bf da59 0e3f 6693 bcbe ba58 ed3e
00000330: f909 063f 41e6 56be ba98 babe d566 193f
00000340: 4798 9bbe 976d e33e 0d17 1abf f208 b33e
00000350: 9fd1 0a3f 9561 fd3e c2be afbe 58bc 10bf
00000360: 5b9f c73e ab63 f63e ae48 8abe 042e d83e
00000370: d9db e7be 431f 17bf 8cb5 073f 9c17 033f
00000380: c976 7c3e 2a00 803e 947d 91be 5857 d63e
00000390: 41b1 023f c0a0 a83e ea9c 06bf 4b15 a1be
000003a0: 6d3c 2a3f c94d ccbe 1664 0fbf 2aa3 063f
000003b0: 8a8d d4be dbcf 1cbf 49a3 2ebe 9de3 a9be
000003c0: 4988 64be baca 8b3e 4b4e 763e 7d7b 11bf
000003d0: f51e b73e 1587 96bd a1af 803e e2ea c5be
000003e0: 7f72 c33e 27ba 953e 766d dd3e f89c eb3e
000003f0: 2510 12bf 7f6e fc3e 67fb 3b3f 88d3 da3e

convs.0.linear2.bias f4 [64]
-0.37377048 0.3669106 0.38151395 -0.4085043 -0.45771372 0.21323177 -0.3988562 -0.4236363
0.4214266 0.26925394 -0.4302613 0.2889303 -0.39440027 0.30222905 -0.41192418 -0.46170947
-0.33880082 -0.39895618 0.38521376 0.35951218 -0.4531928 -0.055306282 -0.38928816 -0.41831532
-0.35924435 -1.1540602 -0.34182745 -0.40809897 -0.5096089 -0.49246523 -0.524615 -0.43602458
-1.2796094 0.14488168 0.22306055 -0.41987908 0.27338636 -0.46640083 -0.38329488 -0.36568242
0.17794257 -0.44834968 0.28601196 0.011948974 -0.75361943 0.38215056 -0.5075523 -0.21764605
0.34055808 -0.4337087 0.40278834 -0.42637944 -0.76330674 -0.40985265 -0.4326268 0.13338877
-0.443618 -0.37365842 -0.434583 -0.37995172 0.069829695 -0.50763017 0.23758863 -0.52381396
00000000: d85e bfbe b5db bb3e cc55 c33e 7a27 d1be
00000010: 7459 eabe 6e59 5a3e e136 ccbe dbe6 d8be
00000020: 3ac5 d73e a7db 893e 364b dcbe acee 933e
00000030: d5ee c9be c4bd 9a3e bae7 d2be 2f65 ecbe
00000040: 4d77 adbe fc43 ccbe bd3a c53e fb11 b83e
00000050: e308 e8be d788 62bd c750 c7be 6d2d d6be
00000060: e0ee b7be 3fb8 93bf 0204 afbe 59f2 d0be
00000070: bb75 02bf 6724 fcbe 2b4d 06bf 9d3e dfbe
00000080: 3eca a3bf dd5b 143e fc69 643e 64fa d6be
00000090: 4cf9 8b3e 17cc eebe 3a3f c4be ba3a bbbe
000000a0: 9436 363e 178e e5be 2970 923e a1c5 433c
000000b0: 34ed 40bf 3da9 c33e f3ee 01bf 9bde 5ebe
000000c0: a15d ae3e 110f debe 463a ce3e 684e dabe
000000d0: 1268 43bf 35d8 d1be 4381 ddbe 1197 083e
000000e0: e621 e3be 2850 bfbe aa81 debe 0889 c2be
000000f0: df02 8f3d 0df4 01bf 6f4a 733e ac18 06bf

convs.1.a f4 [128, 1]
-5.348798e-15 0.17825969 0.05419281 0.0 0.0 0.021820797 0.0 0.0
0.19958265 0.03718416 0.0 0.052191466 1.2310396e-11 0.1258076 0.0 0.0
0.0 0.0 0.05369085 0.09135863 0.0 0.10536548 0.0 0.0
0.0 -1.44618495e-08 0.0 0.0 0.0 0.0 0.0 0.0
1.8575994e-07 0.014146605 0.036608692 0.0 0.2395884 0.0 0.0 0.08685824
0.025026012 0.0 0.15974885 -0.005962681 0.00019600934 0.028503548 0.0 4.1525922e-10
-0.1680542 0.0 0.1837658 0.0 0.0 0.0 0.0 0.028643992
0.0 0.0 0.0 0.0 0.03638098 0.0 0.11514937 0.0
-0.50802684 0.08290533 0.082268216 -0.5217195 -0.52464336 0.07325332 -0.5465872 -0.7250912
0.08320015 0.062173773 -0.5055626 0.085633576 -0.56504285 0.054978866 -0.5930894 -0.53297156
-0.5151295 -0.5155398 0.08046005 0.07506824 -0.522462 0.053623058 -0.57086635 -0.52041465
-0.49114028 -3.06575 -0.5592627 -0.5454428 -0.51508945 -0.5190366 -0.50038576 -0.5147661
-3.4064808 0.1217422 0.07055603 -0.53805083 0.06429924 -0.50575954 -0.5415477 -0.102074854
0.22730751 -0.5398685 0.064423054 -0.45239896 -1.4157414 0.08580504 -0.56839675 -0.59519744
0.10112645 -0.5418269 0.10919944 -0.50741315 -1.0257287 -0.49159375 -0.54460293 0.060472395
-0.5433146 -0.5094692 -0.5367904 -0.5184142 0.3364434 -0.5956551 0.051025968 -0.532161
00000000: f4b5 c0a7 b589 363e 48f9 5d3d 0000 0000
00000010: 0000 0000 87c1 b23c 0000 0000 0000 0000
00000020: 655f 4c3e 6b4e 183d 0000 0000 b8c6 553d
00000030: 1891 582d b5d3 003e 0000 0000 0000 0000
00000040: 0000 0000 0000 0000 f0ea 5b3d 3c1a bb3d
00000050: 0000 0000 dbc9 d73d 0000 0000 0000 0000
00000060: 0000 0000 e373 78b2 0000 0000 0000 0000
00000070: 0000 0000 0000 0000 0000 0000 0000 0000
00000080: 4e75 4734 29c7 673c fff2 153d 0000 0000
00000090: a956 753e 0000 0000 0000 0000 bce2 b13d
000000a0: 5a03 cd3c 0000 0000 3495 233e 9862 c3bb
000000b0: db87 4d39 4680 e93c 0000 0000 8a4a e42f
000000c0: 6616 2cbe 0000 0000 1a2d 3c3e 0000 0000
000000d0: 0000 0000 0000 0000 0000 0000 cea6 ea3c
000000e0: 0000 0000 0000 0000 0000 0000 0000 0000
000000f0: 3904 153d 0000 0000 6fd3 eb3d 0000 0000
00000100: 0c0e 02bf 45ca a93d 3d7c a83d 698f 05bf
00000110: 074f 06bf d605 963d 24ed 0bbf 949f 39bf
00000120: d764 aa3d eda9 7e3d 8d6c 01bf a860 af3d
00000130: a6a6 10bf 8531 613d b5d4 17bf d370 08bf
00000140: 87df 03bf 6bfa 03bf 3dc8 a43d 61bd 993d
00000150: 12c0 05bf daa3 5b3d 4c24 12bf e539 05bf
00000160: bd76 fbbe 3f35 44c0 d72b 0fbf 24a2 0bbf
00000170: e7dc 03bf 95df 04bf 4819 00bf b6c7 03bf
00000180: c803 5ac0 f953 f93d ae7f 903d b3bd 09bf
00000190: 52af 833d 7579 01bf dfa2 0abf 9f0c d1bd
000001a0: 4dc3 683e d234 0abf 3cf0 833d d6a0 e7be
000001b0: 0437 b5bf 8eba af3d 7382 11bf dc5e 18bf
000001c0: 621b cf3d 2bb5 0abf f5a3 df3d d4e5 01bf
000001d0: 144b 83bf 2db2 fbbe 196b 0bbf e7b1 773d
000001e0: aa16 0bbf 936c 02bf 186b 09bf cbb6 04bf
000001f0: 4f42 ac3e da7c 18bf 9b00 513d b43b 08bf

convs.1.linear1.weight f4 [64, 64]
0.2811013 0.1509841 0.14770035 0.2723883 0.16784796 -0.03383102 0.24438336 0.43224943
0.03044455 0.008207824 0.25742188 0.11230347 0.34149137 -0.0058139674 0.3861707 0.33273968
0.09998338 0.35664108 0.07285699 0.15631369 0.27363095 -0.1456305 0.21881719 0.37881297
0.15984401 1.2497405 0.22109067 0.26665708 0.35176042 0.30098867 0.37731406 0.22535087
0.93857205 0.33595708 0.16555227 0.19415157 -0.057849426 0.18917955 0.2983114 -0.17910405
0.14190371 0.416637 -0.072709866 -0.2855299 0.58224154 0.0859874 0.40910232 0.09097966
0.004107757 0.119756624 0.18373322 0.37180185 0.50806457 0.33573017 0.39441806 0.45514426
0.28744224 0.30990115 0.16612749 0.22836517 0.6390384 0.3322703 -0.08986394 0.25849307
0.2958169 -0.07182889 0.107507676 0.20290564 0.20237754 -0.017412843 0.3429343 0.10235368
0.0808912 -0.03490284 0.13933802 0.12781541 0.23632918 -0.118147045 0.3206799 0.3008582
0.16773371 0.13835275 0.02692086 0.07611464 0.11797927 -0.008220712 0.33817485 0.15387303
0.09918009 0.49092698 0.09817192 0.35392517 0.24661256 0.18118325 0.33107382 0.33594117
0.4262232 -0.012589905 -0.06865011 0.31935078 0.042712025 0.3096478 0.24260643 -0.38824397
-0.05082657 0.12085012 -0.1042657 -0.30863842 0.4248495 0.021993823 0.19844307 0.25121552
-0.00681472 0.31460243 0.011147874 0.29590037 0.17525491 0.15911983 0.22105704 0.19450812
0.26000834 0.21439911 0.10566804 0.3060874 0.5385772 0.15064542 0.019799365 0.34772846
0.20979053 0.18572313 0.12447141 0.3238022 0.3302227 0.0068147257 0.2719266 0.40950444
0.1870066 0.022458225 0.36264098 -0.01826272 0.23168385 -0.07245809 0.41824913 0.26664755
0.08574545 0.22855063 0.03597464 -0.004214529 0.35940504 0.053322483 0.43440178 0.26611933
0.20178023 1.1829724 0.14838637 0.3065052 0.3234659 0.14972517 0.18034233 0.2075778
1.0954738 0.18685575 0.12942709 0.2910437 0.06277653 0.11260382 0.25630352 -0.4057305
0.09553878 0.3814994 0.038329095 -0.23233345 0.7195479 0.02829774 0.40111774 0.2932473
0.13034858 0.15328518 0.07492675 0.21235529 0.41200918 0.26452953 0.41098732 0.4170197
0.25764456 0.2492913 0.2686124 0.28604248 0.70846677 0.44320002 0.119634815 0.34974805
-0.1582617 -0.026909769 0.057466518 -0.2337356 -0.3848274 -0.048707 -0.34426972 -0.32302085
-0.12066086 0.13238084 -0.26790693 0.07840758 -0.30391166 0.06929123 -0.398845 -0.44103205
-0.24020928 -0.26615095 -0.11190736 -0.1101886 -0.23907548 0.14521421 -0.32560965 -0.32186317
-0.42671564 -3.2907622 -0.26980746 -0.32389235 -0.23085375 -0.42048752 -0.4672372 -0.21845229
-2.5242157 -0.3193727 -0.13485235 -0.4419689 0.06527474 -0.39598763 -0.19523218 0.3480226
-0.14130087 -0.29755276 0.008049423 0.18388145 -1.0040761 -0.11281263 -0.40886292 -0.1276393
-0.036925655 -0.40067318 -0.089312114 -0.41873103 -0.8912608 -0.1695393 -0.4136021 -0.52742636
-0.35904855 -0.26108438 -0.34364745 -0.17741054 -0.6613583 -0.51816976 -0.089804776 -0.24448602
00000000: 82ec 8f3e 939b 1a3e c33e 173e 7b76 8b3e
00000010: 56e0 2b3e 6592 0abd a23f 7a3e cc4f dd3e
00000020: d966 f93c 1c7a 063c cdcc 833e 5dff e53d
00000030: f5d7 ae3e 1883 bebb 2ab8 c53e db5c aa3e
00000040: 16c4 cc3d a999 b63e 0c36 953d b210 203e
00000050: 5b19 8c3e 2920 15be 9d11 603e c6f3 c13e
00000060: 26ae 233e 7ff7 9f3f 9865 623e 4787 883e
00000070: f119 b43e 301b 9a3e 4f2f c13e 61c2 663e
00000080: 4246 703f 9102 ac3e 8986 293e abcf 463e
00000090: 85f3 6cbd 49b8 413e 46bc 983e 0d67 37be
000000a0: 354f 113e 7251 d53e e9e8 94bd fa30 92be
000000b0: c80d 153f 291a b03d dc75 d13e 8b53 ba3d
000000c0: 5d9a 863b f642 f53d 9024 3c3e d05c be3e
000000d0: 8510 023f d3e4 ab3e 2af1 c93e ab08 e93e
000000e0: a12b 933e 5dab 9e3e 531d 2a3e 8fd8 693e
000000f0: 0598 233f 551f aa3e 960a b8bd 3459 843e
00000100: 5075 973e 061b 93bd fc2c dc3d 7fc6 4f3e
00000110: 0f3c 4f3e 61a5 8ebc 1695 af3e ce9e d13d
00000120: 49aa a53d 48f6 0ebd a0ae 0e3e 0be2 023e
00000130: 4700 723e 14f7 f1bd 2830 a43e 160a 9a3e
00000140: 63c2 2b3e 58ac 0d3e 2389 dc3c fee1 9b3d
00000150: 1e9f f13d 2ab0 06bc 4125 ad3e e490 1d3e
00000160: ee1e cb3d c85a fb3e 5c0e c93d ae35 b53e
00000170: 0188 7c3e 1a88 393e 8282 a93e 7b00 ac3e
00000180: ed39 da3e e445 4ebc 6e98 8cbd f281 a33e
00000190: cef2 2e3d 288a 9e3e d26d 783e eac7 c6be
000001a0: 852f 50bd 4580 f73d 4189 d5bd db05 9ebe
000001b0: e085 d93e 642c b43c a934 4b3e 529f 803e
000001c0: 044e dfbb 9213 a13e 93a5 363c 4180 973e
000001d0: 0676 333e 4ff0 223e c75c 623e 232d 473e
000001e0: d01f 853e 718b 5b3e 7c68 d83d 7db7 9c3e
000001f0: 32e0 093f cb42 1a3e 4732 a23c 7709 b23e
00000200: 54d3 563e 342e 3e3e deea fe3d 67c9 a53e
00000210: f312 a93e 104e df3b f739 8b3e 91aa d13e
00000220: a87e 3f3e 50fa b73c 14ac b93e b39b 95bc
00000230: 883e 6d3e e864 94bd c024 d63e 0786 883e
00000240: 4f9b af3d 2d09 6a3e 255a 133d 081a 8abb
00000250: f003 b83e ad68 5a3d e969 de3e cb40 883e
00000260: 7a9f 4e3e a46b 973f 99f2 173e 40ee 9c3e
00000270: 539d a53e 8e51 193e a9ab 383e 468f 543e
00000280: 7c38 8c3f 1d57 3f3e 8988 043e ae03 953e
00000290: fb90 803d d59c e63d 373a 833e e8bb cfbe
000002a0: d6a9 c33d e453 c33e f8fe 1c3d d2e8 6dbe
000002b0: 4b34 383f a9d0 e73c 4e5f cd3e 8324 963e
000002c0: 197a 053e caf6 1c3e 3273 993d aa73 593e
000002d0: def2 d23e 6a70 873e ee6c d23e 9b83 d53e
000002e0: fde9 833e 3846 7f3e 9187 893e 2974 923e
000002f0: 145e 353f 1deb e23e 1903 f53d 2d12 b33e
00000300: 5b0f 22be e071 dcbc 0362 6b3d 6358 6fbe
00000310: 1908 c5be fe80 47bd 1f44 b0be fd62 a5be
00000320: 0a1d f7bd d88e 073e 192b 89be 2794 a03d
00000330: 4f9a 9bbe 8fe8 8d3d 6935 ccbe f4ce e1be
00000340: 6cf9 75be f044 88be b02f e5bd 90aa e1bd
00000350: 34d0 74be 09b3 143e 4fb6 a6be 40cb a4be
00000360: 797a dabe d99b 52c0 3424 8abe 38d5 a5be
00000370: ed64 6cbe 244a d7be b739 efbe f5b1 5fbe
00000380: c08c 21c0 d284 a3be bc16 0abe bf49 e2be
00000390: c3ae 853d e4be cabe f2ea 47be 0530 b23e
000003a0: 2db1 10be d658 98be bae1 033c 6b4b 3c3e
000003b0: 9185 80bf 4f0a e7bd 7b56 d1be e0b3 02be
000003c0: 5b3f 17bd 0925 cdbe 45e9 b6bd ea63 d6be
000003d0: ab29 64bf b69b 2dbe a8c3 d3be 6a05 07bf
000003e0: 36d5 b7be daac 85be 8ff2 afbe 1cab 35be
000003f0: c74e 29bf c6a6 04bf 91eb b7bd 8b5a 7abe

convs.1.linear1.bias f4 [64]
-0.35212436 -0.17423446 -0.34757242 0.35784715 -0.46575502 0.348905 -0.46769002 0.41442996
0.37856358 -0.33374333 0.37410823 -0.27441648 0.3919599 -0.43325198 0.44841927 -0.28856462
-0.2867465 0.40217146 0.43788666 0.44457093 0.46864083 0.37944013 -0.32220817 0.45954743
0.43586642 0.20408438 -0.29946423 0.37556496 0.3600114 -0.3594975 -0.2797405 0.40057522
-0.46000054 -0.40441573 0.39133716 0.40246877 0.43410748 -0.47437862 -0.35026792 0.3763818
-0.40589222 0.4169567 0.45032904 0.44314402 0.36252716 -0.48230425 0.42993084 -0.3963339
0.3701287 0.37356848 -0.41581702 0.45241323 -0.29728085 -0.3697665 -0.38885346 -0.37243703
0.42368433 -0.3720768 0.3970843 -0.4037482 -0.27811453 0.17640957 0.47084856 -0.46409318
00000000: a549 b4be 856a 32be 03f5 b1be be37 b73e
00000010: 7177 eebe ada3 b23e 1175 efbe 2a30 d43e
00000020: 16d3 c13e 68e0 aabe 1d8b bf3e 5180 8cbe
00000030: f8ae c83e 34d3 ddbe 3697 e53e bebe 93be
00000040: 70d0 92be 6be9 cd3e ae32 e03e cd9e e33e
00000050: b1f1 ef3e fa45 c23e 78f8 a4be cd49 eb3e
00000060: e229 df3e 7ffb 503e 6053 99be 0d4a c03e
00000070: 6a53 b83e 0e10 b8be 263a 8fbe 3218 cd3e
00000080: 3185 ebbe 940f cfbe 585d c83e 6310 ce3e
00000090: 5643 de3e c1e1 f2be 5156 b3be 1eb5 c03e
000000a0: 1bd1 cfbe 597b d53e 8791 e63e c6e3 e23e
000000b0: 299d b93e 95f0 f6be e51f dc3e 47ec cabe
000000c0: 8281 bd3e 5e44 bf3e f8e5 d4be b5a2 e73e
000000d0: 3235 98be 0952 bdbe cd17 c7be 11b0 bebe
000000e0: 27ed d83e da80 bebe a24e cb3e 16b8 cebe
000000f0: 0765 8ebe b6a4 343e 1013 f13e 9f9d edbe

convs.1.linear2.weight f4 [64, 64]
-0.34159845 -0.256931 -0.4278619 0.4650904 -0.2631042 0.39848435 -0.26577553 0.6636436
0.50891644 -0.49342215 0.40457797 -0.43702427 0.25895494 -0.51585793 0.36468127 -0.44630408
-0.29320487 0.3788543 0.3151679 0.4063278 0.81254995 0.3907615 -0.55452347 0.4661642
0.49816453 0.12959197 -0.8789236 0.3085296 0.38874683 -0.4084749 -0.30609092 0.37049705
-0.4443193 -0.3427082 0.315431 0.2704353 0.32365537 -0.22316469 -0.47607443 0.5306781
-0.4053577 0.26571682 0.3535304 0.55636203 0.3238324 -0.29997456 0.3858353 -0.3373987
0.42361572 0.42722932 -0.4360503 0.44596487 -0.35574207 -0.57457554 -0.27588403 -0.275164
0.57731444 -0.5128945 0.35110775 -0.38326928 -0.54588383 0.15679975 0.23154692 -0.22235075
-0.4145538 -0.24856895 -0.37978637 0.45385292 -0.3389336 0.40190452 -0.3206567 0.75827366
0.32760343 -0.49348772 0.39935055 -0.45303145 0.4041901 -0.3599496 0.42177802 -0.4858196
-0.3572659 0.34979543 0.289591 0.28469127 0.84374714 0.21543017 -0.439952 0.33205742
0.47297668 0.08371147 -0.7155986 0.33281744 0.3751279 -0.5111453 -0.36773974 0.43225318
-0.520359 -0.41452843 0.51287997 0.26773626 0.2966027 -0.27573997 -0.31195015 0.48837137
-0.36932582 0.19706179 0.4029215 0.6050517 0.33372343 -0.33995435 0.2529008 -0.37653592
0.4748253 0.3051064 -0.5786647 0.40952986 -0.22793257 -0.5764872 -0.43876773 -0.20567209
0.4703721 -0.35118803 0.27297127 -0.47175708 -0.5087299 0.09732488 0.3416202 -0.22483921
0.40237197 0.13999985 0.3398539 -0.3918066 0.210407 -0.3327702 0.35351065 -0.68173754
-0.46727768 0.39277962 -0.36957186 0.31645098 -0.30917552 0.42493162 -0.21662606 0.34035993
0.37640977 -0.4216413 -0.20835783 -0.31736863 -0.80016303 -0.34386876 0.38514206 -0.3288214
-0.28677058 -0.026628828 0.642115 -0.31712377 -0.1977202 0.38819638 0.39572015 -0.26301035
0.32705072 0.20641372 -0.3947728 -0.28270856 -0.14172813 0.3357474 0.24056597 -0.4245845
0.25116172 -0.21128194 -0.33021134 -0.5540608 -0.27167398 0.24733756 -0.2635039 0.30070508
-0.50039876 -0.43593636 0.3830379 -0.30035153 0.28380957 0.3899821 0.36985666 0.37544885
-0.5882558 0.42052376 -0.32553178 0.23939127 0.35311607 0.03549066 -0.33836538 0.23115595
-0.47160646 -0.25820163 -0.37597498 0.36076263 -0.35173205 0.48370665 -0.290643 0.6201116
0.44255704 -0.3633838 0.27759922 -0.41958392 0.372559 -0.3849275 0.22567193 -0.41323093
-0.2900098 0.34501725 0.25545573 0.4046771 0.7720027 0.37695262 -0.5241295 0.34798104
0.4951089 0.24907775 -0.66043764 0.15761113 0.21942694 -0.4663635 -0.2884886 0.45918873
-0.42143005 -0.3937129 0.42919606 0.36308402 0.21812333 -0.2382075 -0.41297525 0.38611224
-0.39763066 0.16500448 0.372577 0.5844914 0.36968184 -0.26688465 0.44550234 -0.5019775
0.44061914 0.47457296 -0.5910566 0.32699275 -0.29084048 -0.35692993 -0.403001 -0.19423948
0.62681323 -0.44277212 0.356837 -0.3174275 -0.46711302 0.21137892 0.36878863 -0.18677187
00000000: fee5 aebe 768c 83be b710 dbbe 5420 ee3e
00000010: 98b5 86be 2406 cc3e bb13 88be 8ce4 293f
00000020: 5948 023f d4a1 fcbe d824 cf3e a5c1 dfbe
00000030: be95 843e 440f 04bf 81b7 ba3e f881 e4be
00000040: f31e 96be 31f9 c13e b05d a13e 330a d03e
00000050: 4603 503f e411 c83e 40f5 0dbf 13ad ee3e
00000060: 6c0f ff3e c2b3 043e 2301 61bf 97f7 9d3e
00000070: d309 c73e 9f23 d1be f3b7 9cbe cab1 bd3e
00000080: d27d e3be 7377 afbe 2c80 a13e 7f76 8a3e
00000090: 28b6 a53e 4985 64be 07c0 f3be 85da 073f
000000a0: 0b8b cfbe 090c 883e f001 b53e be6d 0e3f
000000b0: 5ccd a53e 4496 99be 348c c53e 86bf acbe
000000c0: 29e4 d83e cdbd da3e fc41 dfbe 8255 e43e
000000d0: d323 b6be 6217 13bf ac40 8dbe 4ce2 8cbe
000000e0: e1ca 133f 0e4d 03bf 65c4 b33e df3b c4be
000000f0: 0bbf 0bbf 1d90 203e a31a 6d3e eaaf 63be
00000100: 6540 d4be dc88 7ebe 5c73 c2be 695f e83e
00000110: b488 adbe 6ec6 cd3e 1d2d a4be 391e 423f
00000120: a3bb a73e 6caa fcbe ad77 cc3e bdf3 e7be
00000130: 01f2 ce3e 504b b8be 4af3 d73e 59bd f8be
00000140: 8eeb b6be 6318 b33e 4645 943e 0ec3 913e
00000150: d0ff 573f ba99 5c3e 6341 e1be 6e03 aa3e
00000160: 002a f23e eb70 ab3d 7831 37bf 0c67 aa3e
00000170: c410 c03e 6bda 02bf 6248 bcbe 4a50 dd3e
00000180: 3f36 05bf 123d d4be 1a4c 033f ba14 893e
00000190: 4fdc 973e ca2d 8dbe eeb7 9fbe d00b fa3e
000001a0: 4618 bdbe 91ca 493e ba4b ce3e abe4 1a3f
000001b0: ccdd aa3e 7f0e aebe 377c 813e 51c9 c0be
000001c0: 4d1c f33e e836 9c3e 5f23 14bf e6ad d13e
000001d0: 2867 69be aa94 13bf 2aa6 e0be b49b 52be
000001e0: 9dd4 f03e ebce b3be e4c2 8b3e 258a f1be
000001f0: 1f3c 02bf 4452 c73d d8e8 ae3e 403c 66be
00000200: b303 ce3e 1f5c 0f3e 5501 ae3e e09a c8be
00000210: ef74 573e db60 aabe 59ff b43e 5a86 2ebf
00000220: 053f efbe 691a c93e 8638 bdbe dd05 a23e
00000230: 414c 9ebe a390 d93e 39d3 5dbe a843 ae3e
00000240: c8b8 c03e 5ee1 d7be c15b 55be 247e a2be
00000250: 7cd7 4cbf 910f b0be 5731 c53e 475b a8be
00000260: 98d3 92be b324 dabc a661 243f 0c5e a2be
00000270: 2a77 4abe adc1 c63e d59b ca3e 4ba9 86be
00000280: 3173 a73e 1e5e 533e a91f cabe 2dbf 90be
00000290: 2e21 11be 15e7 ab3e ed56 763e 2463 d9be
000002a0: 4598 803e 4b5a 58be 7611 a9be eed6 0dbf
000002b0: da18 8bbe 0f46 7d3e fce9 86be 04f6 993e
000002c0: 221a 00bf 0d33 dfbe 8b1d c43e adc7 99be
000002d0: 7d4f 913e bcab c73e da5d bd3e d53a c03e
000002e0: ef97 16bf e44e d73e 1aac a6be fc22 753e
000002f0: a1cb b43e a85e 113d 3a3e adbe 25b4 6c3e
00000300: 6776 f1be 0133 84be cb7f c0be e1b5 b83e
00000310: 3916 b4be 66a8 f73e 29cf 94be a2bf 1e3f
00000320: d696 e23e 710d babe 7c21 8e3e b4d3 d6be
00000330: 0ec0 be3e 3815 c5be 8b16 673e 0193 d3be
00000340: 2a7c 94be 1aa6 b03e 18cb 823e d631 cf3e
00000350: f8a1 453f efff c03e 5a2d 06bf 922a b23e
00000360: ea7e fd3e 3d0e 7f3e 7112 29bf d064 213e
00000370: 75b1 603e 32c7 eebe c7b4 93be c91a eb3e
00000380: aec5 d7be bd94 c9be 96bf db3e 26e6 b93e
00000390: b95b 5f3e abec 73be 7e71 d3be 81b0 c53e
000003a0: 3f96 cbbe eff6 283e 6ac2 be3e 3aa1 153f
000003b0: f046 bd3e 1ba5 88be e218 e43e 9981 00bf
000003c0: d598 e13e 3afb f23e 7c4f 17bf 986b a73e
000003d0: 0be9 94be 85bf b6be 2656 cebe b7e6 46be
000003e0: d576 203f 07b3 e2be 57b3 b63e db85 a2be
000003f0: 7029 efbe b773 583e ddd1 bc3e 2041 3fbe

convs.1.linear2.bias f4 [64]
0.43318528 0.3414376 -0.35823885 0.39360768 -0.22913411 0.008404185 -0.43596867 -0.10655322
0.3806824 0.35991338 -0.35156703 0.36494237 -0.0061400025 -0.30669066 0.3847155 -0.049871635
0.3505709 -0.42956236 -0.38869545 0.35688442 -0.4023342 -0.33761182 0.33539712 0.4265153
-0.33861485 -0.36648235 0.45374674 -0.25921604 -0.38514578 -0.3604542 0.37174842 0.36355567
-0.38696593 -0.36001146 -0.42052466 -0.3425564 -0.369982 -0.3424194 0.35559675 -0.35403737
0.35409042 0.35448346 -0.427972 0.37463772 -0.33479735 -0.29414675 -0.3390751 -0.26551938
-0.31084943 0.27361745 0.44411662 -0.40358773 0.36810508 0.38639215 -0.29739517 -0.33071297
-0.012044952 0.3870225 0.41552687 -0.39490554 -0.39941487 -0.41595125 0.32566574 -0.4239561
00000000: 76ca dd3e e9d0 ae3e 156b b7be f286 c93e
00000010: 22a2 6abe b5b1 093c 4937 dfbe 9338 dabd
00000020: cee8 c23e 9146 b83e 9800 b4be bad9 ba3e
00000030: 1332 c9bb 8f06 9dbe 6ef9 c43e 3346 4cbd
00000040: 077e b33e 99ef dbbe 1703 c7be 8eb9 b63e
00000050: c0fe cdbe 75db acbe 2cb9 ab3e 3760 da3e
00000060: ed5e adbe 93a3 bbbe 7e51 e83e f7b7 84be
00000070: d431 c5be 748d b8be cf55 be3e f823 ba3e
00000080: 6620 c6be 6c53 b8be 024f d7be 8d63 afbe
00000090: 486e bdbe 9851 afbe c710 b63e 6344 b5be
000000a0: 574b b53e db7e b53e 251f dbbe 84d0 bf3e
000000b0: 8f6a abbe 679a 96be 409b adbe 28f2 87be
000000c0: a827 9fbe 9617 8c3e 4163 e33e 0da3 cebe
000000d0: 4578 bc3e 31d5 c53e 2e44 98be 3653 a9be
000000e0: 3158 45bc d027 c63e f0bf d43e 0f31 cabe
000000f0: 1b80 ccbe 90f7 d4be a9bd a63e c610 d9be

mlp1.weight f4 [64, 192]
-0.19301367 0.14572679 -0.18069378 0.050344817 -0.08665078 0.17407925 -0.28313622 0.2513427
0.18019477 -0.09562937 0.074393824 0.025829263 0.31601882 0.23913398 0.0681116 0.3245223
-0.1923349 -0.13855112 -0.13253963 -0.062111653 -0.0064224256 -0.22445405 -0.13039869 0.19579236
-0.06203523 -0.29945487 -0.24094735 0.2297577 0.1309105 -0.139697 -0.049026582 -0.21919167
-0.15374915 0.15010607 -0.15965465 -0.18862367 -0.2275489 0.15003137 -0.21818991 0.14764328
-0.23352797 -0.082036786 -0.30309212 0.36886474 0.18928182 0.24267985 -0.13679002 -0.27086392
0.2196701 -0.112075195 -0.15566151 -0.22302084 -0.23901278 0.085752465 -0.18951806 0.27898562
-0.063622825 -0.25735822 -0.047775693 0.14463906 0.04746548 0.34097955 0.03908863 -0.26492682
-0.14385296 0.13721018 0.12240124 -0.081417695 -0.11475058 0.11609372 -0.08958951 -0.091047384
0.13070178 0.12217453 -0.09344722 0.13878855 -0.045390274 0.024662144 -0.12582263 -0.109463684
-0.0062834034 -0.07170563 0.06968225 0.115656875 -0.1591502 -0.0032409292 -0.17767233 -0.17073034
-0.12510458 -0.18832603 -0.08047562 -0.15117487 -0.0393744 -0.12815216 -0.06132789 -0.050426133
-0.18381746 0.6521087 0.1217306 -0.03743168 0.10345465 -0.023001714 -0.042719092 -0.18552054
0.63187736 -0.16682371 0.13852909 0.06284194 -0.24392037 0.044023197 -0.08501294 -0.08286542
0.07996536 -0.08517592 0.112765245 -0.14963868 -0.042651445 -0.019014502 -0.1241234 0.534723
-0.09494808 -0.057596497 -0.11708263 -0.03602287 0.62996125 -0.1263544 0.031573977 -0.049223315
0.33007547 0.35211375 -0.33229923 0.24192977 -0.35056093 0.14601326 -0.27672216 -0.5130706
0.24247701 0.33860523 -0.33438724 0.34782058 -0.41663748 -0.37660518 0.27355683 -0.69415843
0.34280062 -0.32366756 -0.26685002 0.39188555 -0.27156594 -0.3434611 0.2588963 0.3373503
-0.29642484 -0.31231102 0.33962893 -0.3651545 -0.24365595 -0.30862978 0.3395513 0.30494463
-0.20894004 -0.35326004 -0.26564485 -0.35356 -0.38747182 -0.28122047 0.32403627 -0.2576856
0.2667377 0.2840518 -0.3251394 0.29181215 -0.29955146 -0.3185705 -0.3435904 -0.41515163
-0.2513581 0.31330824 0.3158468 -0.3035218 0.23764554 0.29844177 -0.37889898 -0.35405058
-0.60443974 0.26305464 0.2550518 -0.27338678 -0.34253395 -0.23064947 0.3510799 -0.26159558
-0.04975016 -0.23960131 -0.26296854 0.31430435 0.1642857 -0.05161257 0.22152795 -0.10498957
-0.13710754 -0.40281248 0.003965683 0.08094321 -0.17170171 -0.012625166 0.20091829 -0.06584559
0.10844548 0.06236321 0.00643353 0.22926497 -0.03613363 0.10204489 0.31645975 -0.09891299
-0.3730195 0.093740575 0.16175662 0.014022559 0.2950786 -0.049767915 0.21997923 -0.194719
0.3382426 0.30557415 -0.0013009312 0.08219719 -0.21200337 -0.31819478 0.26541635 -0.29977435
0.26006964 -0.26827225 0.25475588 0.007064445 -0.21495765 -0.14553133 -0.09019792 0.12031845
0.015889524 0.3762665 -0.059105102 0.34737024 0.30832008 0.22592698 0.11832976 -0.21038081
0.35337654 0.11393296 0.004155817 0.17141661 0.4731441 -0.19642587 -0.34328392 0.050476953
00000000: 60a5 45be 6739 153e ca07 39be 5e36 4e3d
00000010: f775 b1bd d541 323e 3bf7 90be feaf 803e
00000020: fa84 383e 55d9 c3bd ca5b 983d e497 d33c
00000030: 38cd a13e 8adf 743e 187e 8b3d c927 a63e
00000040: 71f3 44be 58e0 0dbe 78b8 07be ca68 7ebd
00000050: 3673 d2bb 48d7 65be 3c87 05be cb7d 483e
00000060: a718 7ebd 2652 99be e7ba 76be 9a45 6b3e
00000070: 670d 063e bb0c 0fbe 19d0 48bd c873 60be
00000080: 6b70 1dbe 68b5 193e 827c 23be 9026 41be
00000090: 9402 69be d3a1 193e 2d6d 5fbe cd2f 173e
000000a0: f521 6fbe e702 a8bd e42e 9bbe d7db bc3e
000000b0: 18d3 413e 1181 783e af12 0cbe adae 8abe
000000c0: 33f1 603e ae87 e5bd bb65 1fbe 935f 64be
000000d0: c4bf 74be fd9e af3d 0611 42be 34d7 8e3e
000000e0: af4c 82bd 75c4 83be 72b0 43bd 431c 143e
000000f0: 2a6b 423d df94 ae3e 661b 203d 7da4 87be
00000100: 314e 13be d380 0c3e 80ad fa3d 52be a6bd
00000110: 5a02 ebbd 8bc2 ed3d b47a b7bd 0d77 babd
00000120: b0d6 053e a436 fa3d 4261 bfbd 961e 0e3e
00000130: 27eb 39bd 4408 ca3c a6d7 00be 7f2e e0bd
00000140: 02e5 cdbb 67da 92bd 91b5 8e3d 83dd ec3d
00000150: 45f8 22be c565 54bb bcef 35be efd3 2ebe
00000160: 6a1b 00be 8ad8 40be 67d0 a4bd 96cd 1abe
00000170: 0d47 21bd 523a 03be f432 7bbd a28b 4ebd
00000180: a53a 3cbe 99f0 263f e54d f93d f651 19bd
00000190: 08e0 d33d 176e bcbc 37fa 2ebd 19f9 3dbe
000001a0: b7c2 213f d6d3 2abe 92da 0d3e 46b3 803d
000001b0: 43c6 79be ab51 343d 441b aebd 58b5 a9bd
000001c0: e1c4 a33d b670 aebd 77f1 e63d e23a 19be
000001d0: 48b3 2ebd 4dc4 9bbc 6934 febd 9be3 083f
000001e0: 2474 c2bd 4eea 6bbd 05c9 efbd b88c 13bd
000001f0: 2445 213f 0c63 01be b753 013d 639e 49bd
00000200: a7ff a83e 4148 b43e 2023 aabe 70bc 773e
00000210: b97c b3be 8084 153e 87ae 8dbe 9858 03bf
00000220: e54b 783e aa5d ad3e ce34 abbe 8a15 b23e
00000230: 8251 d5be 65d2 c0be a40f 8c3e 5eb4 31bf
00000240: 9083 af3e c1b7 a5be 91a0 88be 39a5 c83e
00000250: b10a 8bbe 22da afbe 0e8e 843e 2eb9 ac3e
00000260: ffc4 97be 3be7 9fbe d8e3 ad3e 88f5 babe
00000270: f280 79be b904 9ebe abd9 ad3e b421 9c3e
00000280: 61f4 55be 80de b4be 9a02 88be d105 b5be
00000290: b562 c6be 21fc 8fbe 15e8 a53e 5eef 83be
000002a0: d891 883e 3d6f 913e ac78 a6be 6768 953e
000002b0: cf5e 99be ac1b a3be 15eb afbe c18e d4be
000002c0: 02b2 80be f069 a03e acb6 a13e 3667 9bbe
000002d0: 5a59 733e 5ccd 983e 0cff c1be 1e46 b5be
000002e0: 90bc 1abf 19af 863e 2696 823e 5af9 8bbe
000002f0: 9c60 afbe 602f 6cbe bfc0 b33e dbef 85be
00000300: d3c6 4bbd 0c5a 75be d0a3 86be 80ec a03e
00000310: 833a 283e b467 53bd 39d8 623e c604 d7bd
00000320: eb65 0cbe 703d cebe 8ff2 813b 8ec5 a53d
00000330: 93d2 2fbe c9d9 4ebc 86bd 4d3e 0dda 86bd
00000340: aa18 de3d 9170 7f3d 5cd0 d23b 70c4 6a3e
00000350: db00 14bd e9fc d03d 0307 a23e e592 cabd
00000360: 69fc bebe 0ffb bf3d 87a3 253e e0be 653c
00000370: 8b14 973e 71d9 4bbd 3c42 613e 6b64 47be
00000380: 222e ad3e 3774 9c3e 0284 aaba 0057 a83d
00000390: 6917 59be 6dea a2be a7e4 873e 067c 99be
000003a0: d927 853e fb5a 89be 5d6f 823e dc7c e73b
000003b0: dc1d 5cbe 2a06 15be b0b9 b8bd 8569 f63d
000003c0: bf2a 823c 01a6 c03e 3118 72bd 83da b13e
000003d0: 21dc 9d3e 6759 673e e056 f23d 116e 57be
000003e0: c5ed b43e af55 e93d 852d 883b d687 2f3e
000003f0: f23f f23e dd23 49be e9c2 afbe ecc0 4e3d

mlp1.bias f4 [64]
0.20217964 0.122753344 -0.038508132 -0.10450749 0.21120231 0.15554172 0.18831117 0.1592995
-0.029471232 -0.10612458 0.14600348 0.1500986 0.028387943 0.19913965 0.01552394 0.22353321
0.14534493 0.1407187 0.2775345 0.07655289 -0.08506194 0.15903501 0.1310857 0.07907273
0.009325086 -0.06206308 0.063992046 0.13885851 -0.011875721 0.090241924 0.18800224 0.04066477
0.14882481 0.08904989 0.12901966 0.18087822 0.06097759 0.114181645 0.15259495 0.17672253
0.16146152 0.070626944 -0.02861859 0.037951965 0.27352536 0.16446859 0.11524897 0.20884316
0.22320335 0.029932303 0.05898002 0.1412776 0.13782789 0.10441109 0.08245735 -0.11622456
-0.0064235586 -0.09665577 0.24980806 0.22928153 -0.022036709 0.019260187 -0.036361285 0.08703634
00000000: 2e08 4f3e 1b66 fb3d b4ba 1dbd 0608 d6bd
00000010: 6b45 583e 5446 1f3e a5d4 403e 681f 233e
00000020: a76d f1bc d857 d9bd f081 153e 73b3 193e
00000030: d58d e83c 44eb 4b3e 2058 7e3c e4e5 643e
00000040: 4dd5 143e 9018 103e 0119 8e3e c3c7 9c3d
00000050: f434 aebd 13da 223e 543b 063e e2f0 a13d
00000060: 3fc8 183c db35 7ebd 430e 833d ed30 0e3e
00000070: 6292 42bc c2d0 b83d a983 403e 1a90 263d
00000080: 8865 183e ca5f b63d bb1d 043e 2438 393e
00000090: a3c3 793d 11d8 e93d da41 1c3e c0f6 343e
000000a0: 2b56 253e dca4 903d 8971 eabc 8573 1b3d
000000b0: 840b 8c3e 746a 283e a707 ec3d fbda 553e
000000c0: 6b8f 643e 9734 f53c 0995 713d 13ab 103e
000000d0: c122 0d3e 7bd5 d53d 66df a83d 2407 eebd
000000e0: b77c d2bb 76f3 c5bd afcd 7f3e c7c8 6a3e
000000f0: 5486 b4bc 8ac7 9d3c 92ef 14bd 1c40 b23d
