Saved_Models/TSP_500/scatgnn_layer_2_hid_64_model_290_temp_3.500.pth (torch, 257863 bytes, 24 tensors)

bn0.weight f4 [2]
000000 00 00 80 3f 00 00 80 3f
       1.0 1.0

bn0.bias f4 [2]
000000 00 00 00 00 00 00 00 00
       0.0 0.0

bn0.running_mean f4 [2]
000000 00 00 00 00 00 00 00 00
       0.0 0.0

bn0.running_var f4 [2]
000000 00 00 80 3f 00 00 80 3f
       1.0 1.0

in_proj.weight f4 [64, 2]
000000 35 38 8b be df 1c 7a bf f2 be 81 3f 16 12 69 3e
       -0.2719132 -0.97700304 1.0136397 0.22760805
000010 31 49 17 3f e2 09 83 bf 24 90 49 bf ea 78 71 3f
       0.59096056 -1.0237391 -0.78735566 0.94325125
000020 b8 cc e8 be 7a a5 38 bf ae 28 d1 3e 89 02 90 3f
       -0.45468688 -0.721275 0.4085135 1.1250774
000030 d6 bd 63 bf 3f f3 1b bf ac 74 30 3f b1 a5 8e 3f
       -0.8896154 -0.6091804 0.6892803 1.1144315
000040 60 0b 6c 3f e0 7c 55 3f 0a d7 3a 3f 77 70 2c bf
       0.92204857 0.8339367 0.72984374 -0.6735911
000050 3b 48 80 3e c4 a8 40 bf 0a bd 03 be 76 fd 41 bf
       0.25055107 -0.75257516 -0.12865081 -0.75777376
000060 0a 19 6c 3f ea c6 22 3f da fc 34 3f 05 5b 7f 3f
       0.92225707 0.6358477 0.7069832 0.9974826
000070 78 53 e7 be 59 c3 8b 3f 51 b8 5d 3f 15 f7 82 3f
       -0.4518087 1.091899 0.8660937 1.0231653
000080 d1 84 f5 be a1 24 52 bf 30 67 82 be b0 26 96 bf
       -0.47952893 -0.8208714 -0.2546935 -1.1730556
000090 71 01 f5 bd 09 a5 8e bf ff 93 35 bf ef ca 00 3f
       -0.119631656 -1.1144115 -0.7092895 0.5030965
0000a0 05 ba f9 3c 60 76 30 3f ea f9 d4 be ad f0 d2 3e
       0.030484209 0.68930626 -0.4159692 0.41199246
0000b0 49 9d 8e bf f1 f1 14 bf 42 48 39 3f 37 9c 3f 3f
       -1.114175 -0.58181673 0.7237588 0.7484774
0000c0 97 50 b9 3e 63 af fe 3d cc 14 69 bf b6 ff be be
       0.36194298 0.12435796 -0.9104736 -0.37304467
0000d0 25 85 48 bf d2 26 a3 3e d9 e4 e9 3e 23 a2 98 3f
       -0.7832816 0.31865555 0.4568241 1.192448
0000e0 c4 90 19 bf 20 2d 64 3f 61 55 cc 3c b9 b3 20 bf
       -0.5998652 0.89131355 0.024943056 -0.62774235
0000f0 3f eb 51 bf 5a f0 50 3f 21 9e 55 be d7 a9 7a bf
       -0.8199958 0.8161675 -0.20861103 -0.97915405
000100 a3 63 75 bf 19 ef a9 3e cd 1b e9 be 91 44 70 3f
       -0.9585516 0.3319023 -0.45529023 0.93854624
000110 bb 95 c4 be bc 09 85 bf 50 47 5b bf d3 b1 82 bf
       -0.38395485 -1.0393596 -0.8565569 -1.0210518
000120 0b fb a8 bc 2b 47 39 bf b2 6d 85 3f 21 0c d5 be
       -0.02062752 -0.7237422 1.0424101 -0.41610816
000130 6f e4 6b bf ae 2a 32 bf 95 0e 86 3f 8a 14 f8 be
       -0.92145437 -0.69596374 1.04732 -0.4845317
000140 4c e6 7d bf eb 8e 24 3e dc 41 1b 3f 57 e4 5f bf
       -0.9917953 0.16070144 0.6064737 -0.87457794
000150 2f fb 83 bf a9 14 34 be c5 d7 6f 3e ba 6e e1 3e
       -1.031103 -0.17586006 0.23422153 0.4402979
000160 42 c6 7c 3f da ed 3d bf d7 01 1a 3f 8b 4c b5 3e
       0.9874002 -0.7419106 0.6015906 0.3540996
000170 50 45 a7 be 78 60 65 bf bd 0a 88 bf ce cd b5 3e
       -0.3267007 -0.89600325 -1.0628277 0.3550858
000180 ec 4a 3f 3e 4f bf 5d 3f 31 12 46 bf b0 de 9c 3e
       0.18680924 0.8662004 -0.7737151 0.30638647
000190 82 c3 07 3e e0 48 78 bf dc 46 6e bf 99 8c a7 bc
       0.13258174 -0.969862 -0.9307687 -0.020452784
0001a0 5f 16 94 bf d5 12 97 3d f8 43 8a be 44 54 7e 3f
       -1.1569327 0.07376639 -0.2700498 0.9934733
0001b0 42 bb 5a bf 52 e0 5a bf b9 76 5f 3f 39 c3 d7 3e
       -0.8544198 -0.85498536 0.8729053 0.4214113
0001c0 df 91 77 bf 7a 68 49 3e b8 05 0c bf 71 e8 4b bf
       -0.96706957 0.19668761 -0.54696226 -0.7965155
0001d0 ae 67 86 bd 99 16 5f bf b7 d9 4f 3d 2f 2f 53 3f
       -0.06562744 -0.87143856 0.05074474 0.8249387
0001e0 9d 0b f8 be 90 c2 d6 3e 7c 07 27 3f 31 81 5e be
       -0.4844636 0.41945314 0.65245795 -0.2172897
0001f0 2d 82 1e 3f 21 f8 db be df 15 91 be af e7 20 3e
       0.6191738 -0.42962745 -0.28337 0.1571338

in_proj.bias f4 [64]
000000 41 85 bd be c5 7c 0d bf 51 49 47 bf f3 8d 0f 3f
       -0.37015727 -0.5526851 -0.77846247 0.5607597
000010 77 e2 20 3f d5 0a 25 3f 8c 2b 21 bf ea 82 3a 3d
       0.6284556 0.64469653 -0.6295707 0.045535006
000020 b5 44 cd 3e 97 a5 5f bf 7f fe 21 3f 14 f6 24 3f
       0.40091482 -0.87362045 0.63278955 0.64437985
000030 0b e8 30 3f 34 e1 10 3f 0d 24 c1 3e be 28 55 3f
       0.6910407 0.5659363 0.37722817 0.8326529
000040 6f ca ce 3e 82 26 fc 3e 27 a7 d3 3e cf 88 a3 3e
       0.4038882 0.4924813 0.41338465 0.31940314
000050 e1 c3 08 bf a2 47 29 bf d1 b6 14 3f ba 93 5e bc
       -0.5342389 -0.6612493 0.58091456 -0.013585025
000060 c8 a7 27 bf 58 43 44 bf 8a 51 ae be ba 55 55 be
       -0.6549039 -0.7666526 -0.34046584 -0.20833483
000070 cd c2 df 3e 20 7a 62 3e 47 bc 05 3e 13 e9 56 bf
       0.4370331 0.221169 0.13060103 -0.83949393
000080 60 33 f5 3d 6f 04 23 3f 70 f4 38 3e 65 55 1d bf
       0.1197269 0.6367864 0.18061996 -0.61458427
000090 52 ad 78 be 36 41 37 be 2e ca 14 3e a1 21 64 bc
       -0.24284866 -0.1789597 0.1453025 -0.013924033
0000a0 41 89 47 3e 6e e4 9b be 8b e6 28 bf 22 0e 43 3f
       0.19485952 -0.30447716 -0.6597678 0.7619344
0000b0 ef c6 05 3f 2f 36 d6 3e fa 86 19 be 7e 83 58 bf
       0.52256674 0.41838214 -0.14992896 -0.8457564
0000c0 53 ed d1 3e 36 f9 a6 3e 99 2b bc 3e e9 44 a6 3e
       0.41001377 0.32612008 0.36752012 0.3247445
0000d0 d1 d9 ca 3e 54 b5 45 bc 7b 8f e5 be 32 91 25 3e
       0.39619306 -0.012067158 -0.4483603 0.16168669
0000e0 6f 26 36 3f a4 86 90 be 81 6a 45 3f 05 61 80 3e
       0.71152395 -0.28227723 0.7711564 0.2507402
0000f0 46 65 6f 3f ef a5 45 3f ea fa ec be 3e a3 71 bf
       0.93513906 0.7720632 -0.46285182 -0.9438971

convs.0.a f4 [128, 1]
000000 e1 e6 e5 3c 6a 4b e5 3c a7 72 94 3d fd a8 ed 3d
       0.028064193 0.027990062 0.07248431 0.116044976
000010 41 b6 81 3c 55 51 4f 3d 02 84 52 bd 15 36 aa bc
       0.015833976 0.050614674 -0.051395424 -0.020777741
000020 5e 4c cf bc 05 15 63 3d 13 29 2f 3d 8e 96 24 3a
       -0.02530497 0.055439968 0.04276378 0.0006278538
000030 90 a6 01 3d 8d 05 5e 3d 41 22 9d 3d be 27 8e 3d
       0.031652987 0.054204512 0.07672549 0.06941174
000040 4d 93 35 bd 15 88 24 bc 81 83 03 3d d7 8a b6 3c
       -0.04432993 -0.01004221 0.032107834 0.022283
000050 07 f8 f6 b9 29 98 3b 3d 36 54 07 bd e0 6f 8c bd
       -0.0004710557 0.045799408 -0.033039294 -0.06857276
000060 9f 83 b3 3b 5b 48 32 bd 41 68 11 3d 2b 59 60 bb
       0.005478337 -0.043526035 0.035499815 -0.0034232836
000070 89 6c 24 3d 62 49 fe 3c 6d 54 0f 3c 26 d4 50 3d
       0.04014257 0.031040851 0.008748156 0.05098357
000080 bb e8 0a bc ca e5 b5 ba d3 c0 3d bd 2f ce 06 bd
       -0.008478339 -0.0013877687 -0.04632647 -0.032911476
000090 38 08 54 3d 49 7c 0e 3e 81 ae 8a bd 4c 69 f5 3d
       0.05176565 0.13914599 -0.06771565 0.119829744
0000a0 a7 7c 7a ba 4c 0b c5 3d 6c 3a ef bc 6e 9b 88 3d
       -0.0009555318 0.09621295 -0.029202662 0.06670271
0000b0 02 90 1b 3e 00 28 7f 3d ac 1a 57 bc 27 62 fa 3c
       0.15191653 0.062294006 -0.013128918 0.03056438
0000c0 66 ea 83 bb 32 24 23 bd f3 67 bc 3d ba 1c f3 bb
       -0.004025745 -0.03982944 0.09199514 -0.007419196
0000d0 f2 0a 3d 3d 57 41 bf 3c 52 7b 1f bd 6e 6f ed 3c
       0.046153016 0.023346586 -0.038935967 0.028983798
0000e0 35 71 56 bd 41 21 4e bd 70 df c8 3b 10 5f 77 3d
       -0.052354056 -0.050324682 0.0061301515 0.060393393
0000f0 d1 9a a7 bb da 96 0f 3e 65 a0 78 3d 6f 80 9e 3b
       -0.005114891 0.14022389 0.06069984 0.004837088
000100 c6 37 d7 3b 93 83 47 be 13 32 9f be 9a 7c 8d 3e
       0.006567928 -0.19483785 -0.3109289 0.27634126
000110 ee 93 94 bd d2 41 15 3f ae 70 fb bd ee 5b 3a 3f
       -0.07254778 0.5830356 -0.12277351 0.72796524
000120 8a dd 4f 3f e2 b0 a2 be 80 ce f3 bd ed 54 46 bd
       0.81197417 -0.31775576 -0.11904621 -0.048420835
000130 8e e2 85 3e a0 8f 1c 3f 09 78 32 3f 24 f6 a3 3e
       0.2614941 0.61156654 0.6971441 0.32023728
000140 18 63 19 bf 82 21 bd be f5 4d 12 bf ff 9e c5 3e
       -0.5991683 -0.36939627 -0.57150203 0.38597867
000150 bf 44 ae 3d 94 34 42 be 4a 67 85 be 2a b1 2e 3f
       0.08509206 -0.1896537 -0.26055366 0.6823908
000160 6b 8a 43 3c 64 de c4 bd 1e de e4 bd 89 69 e1 3e
       0.011934857 -0.0961273 -0.11175178 0.4402583
000170 a9 c4 b0 3e 2c b7 42 bf 47 51 df 3e 0e 30 05 3d
       0.3452504 -0.7606075 0.43616697 0.03251653
000180 47 57 a3 3e 07 45 9a 3e 56 40 7b be 8a 83 2e be
       0.31902525 0.3013079 -0.24536261 -0.17042366
000190 cc 82 01 bd 87 02 a8 3d c5 2b a8 bd 96 75 c8 3e
       -0.03161888 0.08203607 -0.082114734 0.3915221
0001a0 35 b0 84 3e 3c 69 97 be 25 40 2a be 78 b1 82 3e
       0.25915685 -0.29572475 -0.16626032 0.25526023
0001b0 8c 0e 34 be 4f fa 83 3e 10 40 2b bd 64 3c ed bd
       -0.17583674 0.25776908 -0.04180914 -0.11583784
0001c0 b9 59 90 3f 27 48 b0 bd 01 57 1c bf 36 b1 d0 be
       1.1277381 -0.08607512 -0.6107026 -0.407602
0001d0 fb 7b 56 be 2d f6 6f 3f 81 98 69 be dc 02 e6 3e
       -0.20945732 0.9373501 -0.22812082 0.44924057
0001e0 d5 4c d7 3c e5 a5 27 be c5 ad 43 bd 9f 0b c4 3f
       0.026281754 -0.16371877 -0.04777314 1.5316046
0001f0 06 d5 24 3e bf b1 ed 3d b4 70 27 be 52 dc 87 3c
       0.16096887 0.11606168 -0.16351587 0.01658455

convs.0.linear1.weight f4 [64, 64]
000000 6d a5 8c 3e 83 3b 10 3d a1 5f 86 3d cb 24 7a be
       0.2746996 0.035213005 0.065612085 -0.24428098
000010 a9 fd 82 3c ab dd 4b be 42 47 74 3e 3a c3 0f be
       0.015990095 -0.19908778 0.23855308 -0.14039317
000020 32 3d 81 be d3 13 9a 3d b1 0e 7d 3e a7 c4 40 3e
       -0.25242 0.075233124 0.24712636 0.18825017
000030 51 55 10 3d a8 a5 9b be 82 06 35 be 13 a9 31 be
       0.035237614 -0.30399823 -0.17678264 -0.17349653
000040 0e ed e8 3d e5 29 5a 3e ae 90 d8 3e fa 51 53 be
       0.113733396 0.21305044 0.42297882 -0.2063674
000050 1b a9 c9 3e 42 53 a7 3d 39 d9 89 bd 3a 64 51 be
       0.3938683 0.08170177 -0.06730885 -0.2044839
000060 99 4f 01 3e d1 95 3e 3e c0 64 89 3e a5 b3 e0 3d
       0.1262802 0.18611838 0.2683468 0.109717645
000070 4e 8c e4 bd 94 2b a8 3e bc 89 78 be 4a 47 82 3e
       -0.111595735 0.32845747 -0.24271291 0.25445014
000080 3a b5 3b be ef cd 74 be 10 be b3 3d 79 f1 b7 3d
       -0.18330851 -0.23906682 0.08776486 0.08981604
000090 ff 68 86 3e de ab 7c bd 09 8e a7 bd be 2f ec bd
       0.2625198 -0.061687343 -0.08181388 -0.115325436
0000a0 ed 7c 13 be b7 87 8c 3d 47 a3 84 3e 37 77 86 be
       -0.14403124 0.06861823 0.2590582 -0.2626283
0000b0 8f fd d7 3d aa 25 55 3c 0b 17 a2 3e 07 c4 4f 3e
       0.10546409 0.013009468 0.31658205 0.20289622
0000c0 ae fc 18 be ca 7d 00 3e d6 32 71 3e c8 6b 2d 3e
       -0.1494014 0.12547985 0.23554549 0.16935647
0000d0 d2 e6 32 3e 40 a7 04 be 1b a6 c9 3d f7 06 5b bc
       0.17470863 -0.12954426 0.09846135 -0.01336836
0000e0 b1 ff ff 3c f5 6c dd 3d 56 43 11 3e 24 3f e2 3d
       0.031249853 0.108117975 0.14185843 0.11047199
0000f0 bc 04 2e be 67 2d 14 bd fd 00 91 3d 86 98 90 3e
       -0.16993994 -0.03617611 0.070802666 0.28241366
000100 5e e6 8b 3e 2f c6 10 3d 75 e7 e5 3c 26 90 91 be
       0.27324194 0.035345253 0.028064469 -0.2843029
000110 7a 64 f1 3c cf 57 f6 bd 04 db 80 3d ab 37 ff bc
       0.029466856 -0.12028467 0.06291774 -0.031154474
000120 7e 51 9f be d5 e5 8f bd b9 50 4b 3e 44 50 2e 3c
       -0.3111686 -0.07026259 0.19855012 0.010639254
000130 27 b3 0e bd 67 67 a6 be bc 6f 13 be 91 d4 8a be
       -0.03483882 -0.32500765 -0.14398092 -0.271153
000140 4e ab 6d 3e 9d 27 ab 3e 17 a4 cc 3e d7 99 59 be
       0.23209879 0.3342866 0.3996894 -0.21250091
000150 7f 2d 2d 3e 02 ad 4a ba cd b0 bd bd 85 c4 b6 bd
       0.16911887 -0.00077314686 -0.09262238 -0.08924202
000160 0e 2a 4b 3e f4 08 3b 3e a8 f7 09 3e 31 f5 66 3c
       0.19840261 0.18265134 0.1347338 0.014096544
000170 77 26 63 be f1 1b bb 3e e0 64 9f be 0a 80 8b 3e
       -0.22182642 0.36544755 -0.3113165 0.27246124
000180 03 78 6b 3a 8a 51 f2 bd b4 4d e7 3c d1 6e ad 3c
       0.0008982422 -0.118319586 0.028235294 0.021171005
000190 05 3f 27 3e 04 b4 d6 bb f1 72 d3 bc fd 29 17 be
       0.16332634 -0.0065522213 -0.025811644 -0.14762111
0001a0 0d 7b 8f bc 94 f7 e1 3d 81 c4 45 3e 9b 19 48 be
       -0.01751473 0.1103355 0.19313242 -0.19541018
0001b0 ec 69 19 3e 1f a1 90 bc c8 b1 38 3e 62 43 69 3e
       0.14981812 -0.017654954 0.18036568 0.22779611
0001c0 6d bb 24 be 39 2e 67 3d 8c e1 8e 3e 09 1b 8b 3d
       -0.16087122 0.056440566 0.27906454 0.06792266
0001d0 cd 40 25 bc 44 af fd bd b2 4e 96 bc 89 c4 ea bd
       -0.0100862505 -0.12386945 -0.018348072 -0.11463267
0001e0 b0 57 6c 3d 3b e6 d5 3d 9c bc 20 3e 4f b2 0c bd
       0.057700813 0.104443036 0.15696949 -0.034349736
0001f0 86 67 72 be 47 b8 84 bd 3e 73 55 3d eb 33 56 3e
       -0.23672304 -0.064804606 0.052111857 0.20918243
000200 e9 02 cc 3e 6a 78 50 3e e8 88 12 3d b1 59 89 3c
       0.3984597 0.20358434 0.035775095 0.016766401
000210 86 59 f8 bc d0 f9 21 be 51 0e 81 3d e2 ca a1 3d
       -0.030316126 -0.15817952 0.06301559 0.07900025
000220 21 ac 38 bd 51 be 9a 3d 7e ef 33 3e f4 14 85 3d
       -0.04508603 0.07555831 0.17571828 0.06498137
000230 3c 28 0a 3d 19 db 8f be 42 72 3b 3d 74 24 80 be
       0.033729777 -0.28096846 0.04576326 -0.25027812
000240 6a 0c 8b 3e 61 01 92 3e 10 a5 fa 3e 65 3a ae bd
       0.2715791 0.28516677 0.48954058 -0.085072316
000250 22 62 8e 3e cb 90 7e 3c c4 f5 e1 3d e4 8f 84 bd
       0.27809244 0.015537451 0.11033204 -0.064727575
000260 cf e2 0a 3e 5d b6 3d 3e 4e 11 8d 3d c9 54 1f 3e
       0.13563083 0.18526597 0.06888066 0.15559687
000270 0f e2 38 be 9f 1a f0 3e 0b ad 7b bc e6 22 3a 3e
       -0.18054985 0.4689531 -0.015361081 0.18177375
000280 22 82 af bd 54 5c a0 bd 73 d3 84 3e 1a e4 c8 3c
       -0.08569743 -0.0783011 0.25942573 0.02452283
000290 f7 de 96 3e 5c a4 a4 3d d1 94 4f 3e 72 61 9f bd
       0.29466984 0.080391616 0.20271613 -0.07782258
0002a0 68 98 21 3d fa 9f 01 3e 19 41 d3 3d 10 5d 88 be
       0.039451987 0.12658682 0.10315151 -0.266335
0002b0 87 62 40 3d dd 1c e9 bd 7b d2 99 3e 23 2e 3f 3e
       0.046968963 -0.11382458 0.30043396 0.18669944
0002c0 cc b5 86 bd b4 27 d8 3c 67 3e ef 3e a5 d2 30 3e
       -0.06577644 0.02638612 0.46727297 0.17267855
0002d0 56 ee 60 3e 63 c1 d9 3d f5 41 65 bd cb d5 d9 3c
       0.21965918 0.10632589 -0.055971105 0.026591202
0002e0 27 43 37 bd 54 01 3b 3d c3 36 bb 3d e4 ed 90 3c
       -0.044741776 0.045655563 0.09141304 0.01769156
0002f0 3b a2 17 be b0 a9 f1 bd 20 01 0d 3e 3a f6 0a 3e
       -0.1480798 -0.117999434 0.1376996 0.1357049
000300 08 ab ca 3d 13 8c 56 be bd 62 84 3d 5f 78 f9 3d
       0.09895903 -0.20951872 0.06464145 0.12181162
000310 60 ec cd 3d 82 2f ec 3d 97 83 93 3d 99 26 18 3c
       0.100548506 0.11532499 0.07202833 0.009286546
000320 33 3c 29 3e 6b 33 09 3d d9 f9 a1 3d b8 51 dc 3c
       0.1652687 0.0334963 0.07908983 0.026894435
000330 55 31 d2 3d da 90 15 3d 64 62 83 3e 4d a0 30 3e
       0.102633156 0.036515094 0.25661004 0.1724865
000340 44 ee e2 bd 40 e1 4c be eb ca 46 be b2 c2 a3 3e
       -0.11080602 -0.20007801 -0.19413345 0.31984478
000350 6d df 00 3d ab f0 e2 bc 85 96 91 3d f1 fc ce 3d
       0.031463075 -0.02770265 0.071087874 0.101068385
000360 ac b1 43 be fe 6d cb bd dc e7 ee bd 6e 83 e7 3e
       -0.19110745 -0.09933089 -0.116653174 0.4521746
000370 fd 96 0d 3e 3b 16 17 be cc 61 e4 3e 1c ab 98 3d
       0.13827129 -0.14754574 0.44605863 0.074545115
000380 e5 21 07 3e f7 df a8 3e 43 9d a8 3e c9 1e ba 3d
       0.13196523 0.32983372 0.3293248 0.09087903
000390 81 8f e3 3d db 82 ec 3d 6b a3 19 3d b6 03 7e 3e
       0.111113556 0.11548396 0.037509363 0.24806103
0003a0 45 ff 0d 3e 12 9f 50 bb d2 c8 10 3d 95 1d 82 3e
       0.13866909 -0.0031833095 0.035347767 0.25413194
0003b0 f4 eb ff bd c7 ce 63 bd f4 97 09 3e fb f5 04 3d
       -0.12496176 -0.05561712 0.13436872 0.032461148
0003c0 b5 71 09 3d 5a 5a 2e 3d c3 1f 06 bd 07 86 b4 3d
       0.033555705 0.042566635 -0.032745134 0.08814626
0003d0 d9 d5 3d 3d 18 22 33 3e 55 20 3e 3e ad 98 92 3d
       0.04634652 0.17493474 0.18567021 0.07158027
0003e0 43 ca 5d 3e 13 ff cd 3d ca 45 b4 bd 60 8c a1 3e
       0.21659188 0.10058417 -0.08802374 0.3155241
0003f0 54 89 7d 3e 9c f9 8b 3d 0c 7a 3b 3d cc f8 59 3e
       0.24759418 0.068347186 0.04577069 0.21286315

convs.0.linear1.bias f4 [64]
000000 96 1b cd 3e c5 ec ba 3e e3 1e 9d 3e 90 dd 9c be
       0.4006011 0.36508766 0.30687627 -0.3063779
000010 94 72 b1 3e 97 d1 7f be e6 86 be 3e 7f 46 46 3e
       0.3465773 -0.24982296 0.37212294 0.1936283
000020 ec b0 ad 3e 70 ef da bb 5e f7 9b 3e f6 0c bf be
       0.33924043 -0.006681375 0.30462164 -0.37314576
000030 e1 c2 b2 be c2 51 ac 3e 1a 13 aa 3e e6 40 ad be
       -0.34914306 0.33656126 0.33217698 -0.33838576
000040 10 50 b4 3e 5f 96 ab be ba f4 35 3e 99 7b c3 be
       0.35217333 -0.33513162 0.17769137 -0.38180235
000050 bd 88 bd be d1 1c b1 be 6f 61 bd 3e 4a 6a a4 3e
       -0.37018386 -0.34592298 0.36988398 0.32112342
000060 08 a8 55 be 56 28 8f be ff d2 bc 3e 5a d4 9d be
       -0.2086488 -0.2796046 0.36879727 -0.30826074
000070 1a a8 9e 3e 12 8a c8 3e f4 ce c4 be 19 67 b2 be
       0.30987626 0.3916784 -0.38439143 -0.34844282
000080 eb 9b a3 be 83 4b 89 be b0 a9 38 3e 82 f9 fc bd
       -0.31954893 -0.26815423 0.1803348 -0.12352277
000090 28 d0 a9 be 02 11 a6 be 9d ba bf 3e bd 4d c5 3e
       -0.33166623 -0.3243485 0.37447062 0.38535872
0000a0 9c 7f b9 be 62 39 9a 3e a8 91 60 3e 48 d3 a6 be
       -0.3623017 0.30121905 0.21930563 -0.3258307
0000b0 da 7e 90 3e 69 91 aa 3e 49 ef 8b 3e e3 b0 ad 3e
       0.2822178 0.33314064 0.27330998 0.33924016
0000c0 dd 0b b3 3e 2c 72 b9 be 84 a7 05 be b2 85 a5 3e
       0.34969988 -0.3621992 -0.13052183 0.32328564
0000d0 25 ca bc be 31 33 12 3c 27 80 9e be 06 de ba 3e
       -0.36872974 0.008923338 -0.30957147 0.36497515
0000e0 62 27 a0 be ed 0d b9 be 7d 38 b3 be 1a 86 b8 be
       -0.31280047 -0.36143437 -0.35004035 -0.3603981
0000f0 29 da 12 3f bf 21 92 bd df a9 cf be 35 4d a6 be
       0.57364136 -0.07135343 -0.4055929 -0.3248078

convs.0.linear2.weight f4 [64, 64]
000000 9d 67 eb be b5 db 16 bf 54 08 c5 be b8 c6 3b 3f
       -0.45977488 -0.58928996 -0.38482916 0.73350096
000010 6d ac dc be b7 cd 09 3f 05 a3 fb be 9e de 5f 3e
       -0.431003 0.5382952 -0.49147812 0.21862265
000020 c8 c0 1d bf 26 cf 00 3f 63 a4 85 be 28 6a e1 3e
       -0.61622286 0.50316083 -0.2610198 0.44026303
000030 bb 1e f5 3e 78 70 ce be c4 57 93 be 36 a8 f6 3e
       0.47875008 -0.40320182 -0.28777897 0.4817521
000040 6c 8a 0a bf 95 27 cc 3e e6 13 c7 be 1a 8d d9 3e
       -0.54117465 0.3987395 -0.3888237 0.42490464
000050 05 ec 11 3f f6 5e d1 3e 6e ab 04 bf 86 d7 10 bf
       0.5700076 0.40892762 -0.5182408 -0.5657886
000060 b7 d3 e2 3e 83 03 02 3f 8c e8 01 bf e6 fa e2 3e
       0.4430215 0.5078661 -0.50745463 0.44332045
000070 db c0 bb be a5 43 18 bf bb 3f da 3e 91 77 d8 3e
       -0.36670575 -0.5947822 0.42626747 0.42278722
000080 62 1f b2 3e b1 f9 fc 3e cc e6 7c be 1d ba 9a 3e
       0.34789568 0.4940925 -0.24697417 0.30220118
000090 52 3b 09 3f 5d f5 ab 3e dc b4 22 bf 86 39 d9 be
       0.5360614 0.33585635 -0.6355722 -0.424267
0000a0 7b e8 15 3f 68 fd be be 69 eb e7 be 6f c6 1e 3f
       0.5855786 -0.3730271 -0.4529679 0.62021536
0000b0 d2 a4 c2 be 3e f2 21 bf 46 66 84 be 28 90 c9 be
       -0.38016373 -0.6326026 -0.25859278 -0.39367795
0000c0 a9 ee b9 be 26 f9 02 3f cb 1b ad 3e 3c 78 e7 be
       -0.36314896 0.5116142 0.33810267 -0.4520892
0000d0 86 d5 89 3e cb 3b 77 be 25 92 bd 3e 3d 6b 02 bf
       0.26920718 -0.24143903 0.37025562 -0.5094488
0000e0 20 8c e3 3e a5 d5 df 3e 72 40 e1 3e 19 04 f7 3e
       0.44442844 0.43717685 0.4399448 0.48245314
0000f0 4b 85 a9 be a8 c9 bc 3e 4f 5e 29 3f 80 0d 11 3f
       -0.33109507 0.36872602 0.6615953 0.56661224
000100 77 cc e3 3d ea 0f 7a 3e 4c d3 99 3e c5 ec b4 be
       0.11122983 0.24420133 0.3004402 -0.3533689
000110 05 62 e1 3d c3 c8 96 be 28 59 a5 3e 51 58 05 bd
       0.11005024 -0.29450044 0.32294583 -0.03255493
000120 b6 ed 9f 3e 58 4e 01 3e 54 c2 19 3e 90 50 f3 bd
       0.31236047 0.12627542 0.15015537 -0.118806005
000130 32 d4 fc bd 01 b8 03 3e e8 05 2d 3e 41 bd 8f be
       -0.123451605 0.1286316 0.16896784 -0.28074077
000140 61 a6 46 3e e2 43 84 be bf a9 f4 3d 0c 36 6c be
       0.19399406 -0.2583304 0.11946439 -0.23067492
000150 38 e4 a4 be dc 3c 53 be 85 ad 55 3e 48 df 2c 3e
       -0.32205367 -0.20628685 0.20866974 0.1688205
000160 99 11 15 be 7f 35 e8 bd 52 7e 8c 3e 67 9d 98 be
       -0.14557494 -0.113383286 0.27440125 -0.29807588
000170 9f 85 66 3e 08 bd 5b 3e c5 df de bd 9d dc 10 be
       0.2251191 0.21458828 -0.108825244 -0.14146657
000180 13 2a 80 be 8d 18 86 be cc b7 37 3e 42 6a 2c 3e
       -0.250321 -0.26190606 0.17941207 0.16837409
000190 4a 4e 8f be 60 7e 86 be 9a 63 85 3e 91 bb 33 3e
       -0.27989417 -0.2626829 0.26052552 0.1755202
0001a0 88 be 1b bf 58 cb 61 3e 13 a0 49 3e f7 b0 2c be
       -0.608376 0.22050226 0.1968997 -0.16864382
0001b0 bc 52 51 3e b0 fc 43 3e 68 45 00 3e b0 ac bc 3d
       0.20441717 0.19139361 0.12526476 0.09212625
0001c0 6e 44 00 3e f0 b5 97 be 1b c0 9b 3e 52 6c bd 3d
       0.12526104 -0.29630995 0.30420002 0.09249176
0001d0 77 5a 79 be 27 2a 7d bd a5 3a 62 be 6f 58 39 3e
       -0.24350916 -0.061807778 -0.22092684 0.18100141
0001e0 53 e6 10 be 26 81 0e be a1 8f a6 be aa c2 fa bd
       -0.14150362 -0.13916454 -0.32531455 -0.122441605
0001f0 69 ac d0 3e 4a c1 86 be 4d 19 b7 be 02 11 85 be
       0.4075654 -0.26319343 -0.3576149 -0.25989538
000200 d2 e5 99 3e ff 63 f5 3d 91 90 de 3d 46 7b ad be
       0.3005815 0.11981963 0.108674176 -0.33883113
000210 32 29 20 3e 88 02 91 bd d3 41 a1 3e 1f 35 35 bd
       0.15640715 -0.07080561 0.31495532 -0.044240113
000220 79 0e 80 3e ba 32 b1 3d 8f 75 27 3e ca 4f 84 be
       0.25011042 0.086522534 0.16353439 -0.25842124
000230 39 0e 87 be be 2f c0 3d 7c 63 1d 3e b5 85 a6 be
       -0.2637804 0.09384106 0.15369982 -0.32523885
000240 c8 8a 57 3e f6 0b 27 be c8 b3 ab 3e 68 12 50 be
       0.21049035 -0.16313156 0.335356 -0.20319521
000250 9d 1a 9f be 94 1a 73 be 06 7f 7e 3e d1 eb 4f 3e
       -0.31074992 -0.23740608 0.24853143 0.203048
000260 b0 50 3d be 95 54 25 be e4 8b 3d 3e f4 59 42 be
       -0.18487811 -0.16145547 0.18510395 -0.18979627
000270 b9 4d f5 3d 7a 2c b5 3e 97 8f 4d be d0 b2 e4 be
       0.11977715 0.35385495 -0.20074306 -0.44667673
000280 12 a1 b1 bd a6 e4 b4 bd ef e0 05 3e f0 61 aa 3d
       -0.086733 -0.08832674 0.13074087 0.08319461
000290 66 e2 dd bd 9c ec 29 be ed 6d e3 3d 8a 26 90 3d
       -0.10834198 -0.16594166 0.11104951 0.07038601
0002a0 39 d8 09 bf e6 71 39 3e c8 a3 94 3e d8 73 1a be
       -0.53845555 0.18109855 0.29031205 -0.15083253
0002b0 28 71 5f 3e c1 df 8b 3e 5b ed 38 3e 71 83 8a 3e
       0.2182051 0.27319148 0.18059294 0.27053407
0002c0 16 f3 ad 3d 8e 95 b0 be 38 4f dc 3e 0a 5f 8b 3e
       0.084936306 -0.344891 0.4302919 0.27220947
0002d0 b2 51 90 be 74 e9 24 be 68 31 29 be a6 4c 89 3e
       -0.2818733 -0.1610468 -0.16522753 0.2681629
0002e0 cb a2 db bd ab 80 a6 bd 88 19 16 be 7d 59 80 be
       -0.1072441 -0.0813001 -0.14658177 -0.25068274
0002f0 a0 b3 c8 3e 54 0e 84 be 4f 68 a9 be 3a 3f 87 be
       0.39199543 -0.25792181 -0.33087394 -0.26415426
000300 4a 76 e0 be a6 20 c6 be ad b2 96 be f5 89 2c 3f
       -0.43840247 -0.38696784 -0.29433194 0.67398006
000310 92 a1 c8 be 90 d3 c5 3e 9d 15 bb be 00 9d 3c 3e
       -0.39185768 0.38637972 -0.36539927 0.18419266
000320 c7 ba 2a bf 1e 0b 14 3f 76 1d c5 be c1 b0 00 3f
       -0.6669125 0.57829463 -0.3849904 0.50269705
000330 a0 d0 0c 3f b0 ca 64 be 53 c5 c3 be 9e 93 21 3f
       0.55005836 -0.22342944 -0.38236484 0.6311587
000340 6f eb a1 be 1f b7 ec 3e 95 f9 20 bf ca 98 bb 3e
       -0.31624934 0.4623346 -0.6288083 0.36640006
000350 e8 ed 0e 3f 6d fe 02 3f 13 e0 b3 be 9e 13 17 bf
       0.55831766 0.5116947 -0.35131893 -0.5901431
000360 aa 17 d6 3e 83 f2 01 3f 72 30 94 be 9e 49 dc 3e
       0.4181493 0.5076067 -0.2894321 0.43024915
000370 d7 b9 f6 be 4f 5a 1e bf d1 ad 10 3f 30 de 04 3f
       -0.4818866 -0.6185655 0.5651522 0.5190153
000380 31 dc 89 3e 6a 56 87 3e f8 ae 9a be 0d a7 da 3e
       0.26925805 0.26433116 -0.30211616 0.42705575
000390 0f 78 07 3f e3 5e af 3e 1f 9c 0b bf 6e e9 a9 be
       0.5291757 0.3425208 -0.54535097 -0.33185905
0003a0 14 c7 37 3f 47 24 d3 be 6b d7 15 bf 2c 0d 13 3f
       0.71788144 -0.41238615 -0.58531827 0.57441974
0003b0 52 dd db be 3e eb 26 bf 07 39 33 be 43 94 bb be
       -0.42942291 -0.652027 -0.17502223 -0.36636552
0003c0 bd f5 6f be 0b 93 96 3e e2 19 79 3e 3f 7b 15 bf
       -0.23433585 0.2940906 0.2432628 -0.58391184
0003d0 73 8e be 3e ce 9f 90 bd 89 ff 89 3e cd d6 cd be
       0.37218055 -0.0706173 0.2695277 -0.40202942
0003e0 c2 7f cf 3e a8 5f a0 3e bf 88 e5 3e 65 20 f8 3e
       0.4052716 0.3132298 0.4483089 0.48462215
0003f0 07 79 1c bf 08 e6 05 3f 48 28 43 3f b5 84 e8 3e
       -0.61122173 0.52304125 0.7623334 0.45413747

convs.0.linear2.bias f4 [64]
000000 79 eb c6 be 00 24 bd 3e 20 56 c4 3e c8 35 d4 be
       -0.38851526 0.36941528 0.38346958 -0.41447282
000010 b5 b0 f2 be 9b 03 5e 3e 34 fe d0 be 68 89 e2 be
       -0.47400442 0.21681063 -0.40818942 -0.44245458
000020 8d 1e d9 3e 81 13 8f 3e a8 fc dd be 49 fe 94 3e
       0.4240612 0.27944568 -0.43356824 0.29100254
000030 6a 50 d5 be 16 35 9c 3e ae a1 d6 be e6 3b f2 be
       -0.41662914 0.3050925 -0.41920227 -0.47311324
000040 b0 02 b8 be 00 c1 d1 be db 5e c6 3e 13 9f b9 3e
       -0.3593955 -0.4096756 0.38744244 0.36254176
000050 4c 8a ec be 33 da 42 bd 38 81 cb be 97 c2 d8 be
       -0.46199262 -0.047571372 -0.39747024 -0.4233596
000060 58 06 bb be d1 81 98 bf d6 87 b5 be 98 0d d8 be
       -0.36528277 -1.1914617 -0.35455197 -0.4219787
000070 4f 3b 06 bf d2 bb 00 bf 7a 84 07 bf b9 96 e9 be
       -0.5243425 -0.5028659 -0.5293652 -0.45622805
000080 1b 93 a7 bf 0f 50 15 3e d6 36 67 3e ab 74 dc be
       -1.3091768 0.14581321 0.22579512 -0.4305776
000090 d9 6b 8d 3e c1 8a f8 be ef 52 ca be ac 45 ba be
       0.27621344 -0.4854336 -0.39516398 -0.3638128
0000a0 4e fc 34 3e a3 e6 e8 be ea 03 94 3e 9f f5 4b 3c
       0.17674372 -0.45488462 0.28909236 0.012448697
0000b0 d0 09 52 bf 3c c1 c4 3e c9 1e 06 bf d6 63 79 be
       -0.8204622 0.38428676 -0.52390724 -0.2435449
0000c0 79 4a ae 3e b4 05 e5 be e8 ff ce 3e 72 39 dd be
       0.34041193 -0.44730914 0.40429616 -0.4320789
0000d0 c3 c7 46 bf fd ad dc be 6d 8b e0 be a7 86 07 3e
       -0.7764856 -0.43101493 -0.43856373 0.1323496
0000e0 da 9b ed be 8a 04 c8 be e7 b6 e6 be 9c 05 cc be
       -0.46407968 -0.39065963 -0.45061418 -0.3984803
0000f0 7e 03 8b 3d a8 58 03 bf e5 59 76 3e 8d 83 09 bf
       0.067877755 -0.51307154 0.2405773 -0.53716356

convs.1.a f4 [128, 1]
000000 f4 b5 c0 a7 ea 40 44 3e ca c2 80 3d 00 00 00 00
       -5.348798e-15 0.19165388 0.06287153 0.0
000010 00 00 00 00 b1 ee de 3c 00 00 00 00 00 00 00 00
       0.0 0.027213426 0.0 0.0
000020 5a 9f 52 3e 20 42 44 3d 00 00 00 00 a2 6b 80 3d
       0.205686 0.047914624 0.0 0.06270529
000030 18 91 58 2d bd 47 05 3e 00 00 00 00 00 00 00 00
       1.2310396e-11 0.13015647 0.0 0.0
000040 00 00 00 00 00 00 00 00 a5 b3 7e 3d 48 68 cb 3d
       0.0 0.0 0.06218304 0.099319994
000050 00 00 00 00 94 87 eb 3d 00 00 00 00 00 00 00 00
       0.0 0.11500469 0.0 0.0
000060 00 00 00 00 e3 73 78 b2 00 00 00 00 00 00 00 00
       0.0 -1.44618495e-08 0.0 0.0
000070 00 00 00 00 00 00 00 00 00 00 00 00 00 00 00 00
       0.0 0.0 0.0 0.0
000080 4e 75 47 34 3d 03 bf 3c 68 aa 39 3d 00 00 00 00
       1.8575994e-07 0.023316974 0.045328528 0.0
000090 7d d9 7b 3e 00 00 00 00 00 00 00 00 23 57 bb 3d
       0.24594684 0.0 0.0 0.091474794
0000a0 35 ce 0b 3d 00 00 00 00 07 57 2f 3e 7a c9 ee ba
       0.0341322 0.0 0.17123042 -0.0018218004
0000b0 db 87 4d 39 51 1f 15 3d 00 00 00 00 8a 4a e4 2f
       0.00019600934 0.03640682 0.0 4.1525922e-10
0000c0 66 ce 1c be 00 00 00 00 b4 e5 47 3e 00 00 00 00
       -0.1531311 0.0 0.19521219 0.0
0000d0 00 00 00 00 00 00 00 00 00 00 00 00 80 21 0f 3d
       0.0 0.0 0.0 0.034944057
0000e0 00 00 00 00 00 00 00 00 00 00 00 00 00 00 00 00
       0.0 0.0 0.0 0.0
0000f0 d3 b1 20 3d 00 00 00 00 58 a3 fd 3d 00 00 00 00
       0.039232086 0.0 0.12384671 0.0
000100 8f 5b 0d bf 23 ab ae 3d d7 01 ad 3d bd c7 11 bf
       -0.5521783 0.085287355 0.084476165 -0.569454
000110 da cd 11 bf 5b 0d 9e 3d 49 05 18 bf 8c 2c 45 bf
       -0.5695473 0.07717391 -0.59383065 -0.770211
000120 19 d1 b2 3d f1 68 85 3d 37 a5 0d bf d7 0f b5 3d
       0.087312885 0.065141566 -0.5533022 0.08840912
000130 43 fc 1b bf ed 86 6d 3d 55 28 24 bf 18 18 14 bf
       -0.60931796 0.057990003 -0.6412404 -0.57849264
000140 29 27 0f bf 3d 76 0f bf d3 db ab 3d 6b 06 a1 3d
       -0.5591913 -0.5603979 0.083915375 0.07862552
000150 7e 6e 11 bf 09 ad 77 3d 40 b8 1e bf 56 9c 11 bf
       -0.5680922 0.060467754 -0.61999893 -0.56879175
000160 3d ba 09 bf fb 80 4a c0 c1 d6 1a bf 10 54 17 bf
       -0.537998 -3.1641223 -0.6048394 -0.59112644
000170 99 4c 0f bf 27 73 10 bf a9 df 0b bf b3 1b 0f bf
       -0.55976254 -0.5642571 -0.54638153 -0.5590164
000180 48 3c 5d c0 69 1c da 3d fc 1a 93 3d 48 94 15 bf
       -3.4568043 0.1064995 0.07182881 -0.58429384
000190 d0 99 8a 3d e1 e8 0c bf 29 b5 16 bf 4d 71 c4 bd
       0.06767619 -0.55042845 -0.5887018 -0.09591923
0001a0 e5 dd 59 3e cf 6e 16 bf 45 59 8a 3d 01 7b f8 be
       0.21276052 -0.5876283 0.06755308 -0.48531345
0001b0 12 0c c4 bf 63 5b b6 3d 9c 3a 1d bf 73 ce 23 bf
       -1.5316184 0.089041494 -0.61417556 -0.6398689
0001c0 85 a4 d7 3d e4 58 16 bf 0e 14 e6 3d cb ec 0d bf
       0.105294265 -0.58729386 0.11234294 -0.5543944
0001d0 fc 9b 84 bf 45 0c 09 bf 0b 8e 17 bf 38 4d 83 3d
       -1.0360103 -0.53534347 -0.59201115 0.06411213
0001e0 ed ab 16 bf bd ca 0d bf ec 0f 15 bf 17 1b 10 bf
       -0.5885609 -0.5538748 -0.5822742 -0.56291336
0001f0 ac c5 a9 3e e9 ad 24 bf 21 47 5f 3d 18 ea 13 bf
       0.33158624 -0.64327866 0.054511193 -0.57779074

convs.1.linear1.weight f4 [64, 64]
000000 8a a1 91 3e c0 b8 1b 3e d6 4d 18 3e bd d1 8f 3e
       0.28443557 0.15207195 0.14873442 0.28089705
000010 9f 3a 2f 3e 71 c2 01 bd f8 53 80 3e 53 6e de 3e
       0.17112206 -0.031679574 0.25064063 0.43443546
000020 d0 f6 02 3d b4 6e 21 3c 13 28 88 3e a5 9a e8 3d
       0.03197366 0.009853054 0.26593074 0.11357621
000030 97 e2 af 3e 70 34 82 bb e5 2d c9 3e 17 48 ac 3e
       0.34352562 -0.003973536 0.39292827 0.3364875
000040 55 ba d0 3d 9f 74 b8 3e 18 2b 98 3d 5f f7 21 3e
       0.1019179 0.36026475 0.074300945 0.15817021
000050 db 61 8e 3e eb d7 11 be 3f 2b 69 3e e6 41 c6 3e
       0.27809033 -0.14242522 0.22770403 0.38722152
000060 ed 1f 2c 3e b4 3b a7 3f de db 66 3e 9f a6 8a 3e
       0.16809054 1.3065095 0.2254481 0.27080247
000070 46 bb b5 3e 4d ea 9b 3e fa a9 c3 3e 5d f1 68 3e
       0.3549444 0.30452195 0.3821562 0.22748323
000080 7f 9a 7b 3f c2 94 b0 3e 37 37 2a 3e 6f ac 4b 3e
       0.9828262 0.34488493 0.16622625 0.19889997
000090 db b5 64 bd c6 89 44 3e 0e ce 9b 3e 88 45 24 be
       -0.055837493 0.19193181 0.30430645 -0.16042149
0000a0 19 eb 18 3e 17 32 d9 3e 36 2a 91 bd 6f 2c a1 be
       0.14933433 0.42421028 -0.07088129 -0.31479213
0000b0 11 59 27 3f b8 e3 b2 3d b3 fe d2 3e 15 b4 be 3d
       0.6537028 0.0873484 0.41209945 0.09311692
0000c0 59 5a 7f 3b 7d 3f fc 3d 80 ad 3c 3e 9a 08 c2 3e
       0.0038963764 0.12316797 0.1842556 0.37897187
0000d0 66 1b f9 3e 2e 1a ad 3e 83 22 cd 3e 84 34 ea 3e
       0.48653716 0.33809036 0.40065393 0.4574319
0000e0 07 a1 94 3e d9 23 a0 3e c3 9b 2d 3e af be 6c 3e
       0.29029104 0.3127735 0.1695395 0.23119615
0000f0 56 0a 24 3f 48 f1 ac 3e b5 ee b3 bd 9d 35 86 3e
       0.6407827 0.33777833 -0.08785764 0.2621278
000100 ed b5 98 3e b3 fb 91 bd ca 2e dd 3d 99 f8 56 3e
       0.29826298 -0.07128086 0.1079994 0.2099327
000110 bd b3 51 3e 48 fe 81 bc 23 2d b2 3e c5 96 d4 3d
       0.20478721 -0.015868321 0.34800062 0.103803195
000120 96 a3 a7 3d bc 93 0a bd ed dc 15 3e 10 9e 03 3e
       0.081854984 -0.033832297 0.14635058 0.12853265
000130 be 56 73 3e be 69 ef bd e2 00 a7 3e 84 7d 9b 3e
       0.23763558 -0.116900906 0.3261786 0.30369198
000140 ec 01 2d 3e d1 73 10 3e 16 bb e3 3c d0 79 9e 3d
       0.16895264 0.1410668 0.02779917 0.07738078
000150 cd b2 f8 3d 57 b9 bc bb ef e7 b0 3e 36 b2 24 3e
       0.121434785 -0.005759399 0.3455195 0.16083607
000160 9d 02 d9 3d 2b 80 09 3f 78 f2 cf 3d c7 d7 b6 3e
       0.105962016 0.53711194 0.10153669 0.357115
000170 d2 ea 7e 3e 30 3c 3c 3e 73 74 ab 3e 0a b7 ac 3e
       0.24894264 0.18382335 0.3348728 0.33733398
000180 77 06 ed 3e dd a4 84 bb a6 46 8c bd d6 69 a5 3e
       0.46293995 -0.0040479735 -0.068494126 0.3230731
000190 f6 b9 34 3d 65 89 9f 3e 38 5f 7d 3e 5d f6 be be
       0.04412266 0.3115951 0.24743354 -0.37297335
0001a0 d4 29 33 bd a4 17 02 3e f3 00 d3 bd a6 c0 a8 be
       -0.043741062 0.1270433 -0.103029154 -0.3295948
0001b0 d2 ea f5 3e 05 bb ba 3c b5 6e 4d 3e c3 55 81 3e
       0.48030716 0.022794256 0.20061763 0.25260743
0001c0 fe b8 f4 bb 38 60 a2 3e 90 03 37 3c b8 7c 9a 3e
       -0.007468342 0.31714034 0.011170283 0.30173278
0001d0 90 b6 1f 3e cd 90 24 3e 94 87 67 3e f7 b3 49 3e
       0.15596986 0.16070862 0.22610313 0.19697557
0001e0 e3 2a 86 3e 05 a3 5d 3e 8d 9d dd 3d cc be 9d 3e
       0.26204595 0.21644218 0.10821066 0.3080963
0001f0 80 86 0a 3f 0a c1 1e 3e 40 e0 ad 3c c2 6f b3 3e
       0.5411148 0.15503326 0.021225095 0.35046202
000200 a0 da 5a 3e dd 5a 3f 3e 8c 99 00 3e f0 7b aa 3e
       0.21372461 0.18687005 0.12558573 0.33297682
000210 1d 0d ab 3e 2b 16 0f 3c e6 bf 8e 3e e9 12 d3 3e
       0.33408442 0.008733313 0.27880782 0.41225365
000220 03 03 41 3e 86 89 c4 3c 3f 5e be 3e 41 0f 8b bc
       0.18848805 0.023991358 0.3718128 -0.016975047
000230 34 e8 6f 3e 27 f5 90 bd 0b ed d9 3e 76 be 8a 3e
       0.23428422 -0.07078009 0.42563662 0.27098435
000240 ee b7 b4 3d 07 5c 6e 3e 38 26 19 3d 16 4f 24 bb
       0.08824144 0.23277293 0.037389964 -0.0025071553
000250 d7 9b ba 3e 57 1d 65 3d 84 4e e3 3e 2c e3 8c 3e
       0.3644702 0.055936184 0.4439584 0.27517068
000260 50 c2 57 3e d6 76 9e 3f 85 0a 1d 3e da 5b 9f 3e
       0.21070218 1.2380016 0.15336044 0.31124765
000270 a1 8a a7 3e 1f 89 1d 3e 22 3f 3e 3e 52 53 57 3e
       0.32722953 0.15384339 0.18578771 0.21027878
000280 11 bf 91 3f 03 1c 47 3e 1c 62 05 3e 96 c1 97 3e
       1.1386434 0.1944428 0.13025707 0.29639882
000290 99 45 84 3d c4 6c ed 3d 78 9e 86 3e 3b 19 c9 be
       0.06458587 0.11593011 0.26292777 -0.39277062
0002a0 dd a7 d0 3d 37 89 c7 3e 7a d9 23 3d cd ad 88 be
       0.101882674 0.38971874 0.040002324 -0.266951
0002b0 bd ed 4a 3f cc ec f2 3c d4 32 cf 3e 1a 88 97 3e
       0.7926901 0.02965393 0.40468466 0.29596025
0002c0 a1 aa 05 3e 2d 0e 21 3e 48 fb 9a 3d 87 75 61 3e
       0.13053371 0.15728064 0.07567459 0.2201749
0002d0 70 fd c7 3e 29 f1 88 3e 9f ef d5 3e 60 74 d6 3e
       0.39060545 0.2674649 0.4178438 0.41885662
0002e0 81 aa 85 3e b7 68 81 3e bf 92 8b 3e d5 33 94 3e
       0.26106647 0.25275204 0.27260396 0.28945795
0002f0 52 9a 35 3f 39 0d e6 3e 53 b8 f8 3d 5c 3b b5 3e
       0.709386 0.44931963 0.12144532 0.3539685
000300 16 0f 25 be 2b 04 e2 bc c4 d9 68 3d 7f 0b 78 be
       -0.16119036 -0.027589878 0.056848302 -0.24223135
000310 ea 7e c6 be a0 b1 4e bd 20 5c b3 be 28 48 a6 be
       -0.38768703 -0.050462365 -0.35031223 -0.32476926
000320 b9 6a f9 bd 86 47 06 3e ac 8a 8d be 50 d0 9e 3d
       -0.12178559 0.13113222 -0.2764486 0.07754576
000330 ce 68 9c be 23 f5 8a 3d cf 98 cf be 24 89 e3 be
       -0.3054871 0.06785037 -0.4054627 -0.44440567
000340 09 75 77 be 87 ec 89 be 38 4f e7 bd 04 a7 e4 bd
       -0.24165739 -0.2693827 -0.11294407 -0.11164668
000350 de 0a 79 be 9a c8 11 3e 94 4a ab be c9 10 a9 be
       -0.24320552 0.1423668 -0.33455336 -0.3302062
000360 29 b0 de be 55 7b 57 c0 46 34 8c be 4f c6 a7 be
       -0.43493775 -3.3669026 -0.2738363 -0.32768485
000370 3c 3d 6f be f1 e7 d8 be cd 8c f1 be 0f 66 61 be
       -0.23363203 -0.42364457 -0.47177735 -0.22011589
000380 b9 4b 25 c0 98 fc a7 be 48 5b 0a be 18 8e e4 be
       -2.5827467 -0.328099 -0.13511384 -0.4463966
000390 dd 5f 82 3d 54 ee cb be ce d1 4d be 30 a0 a8 3e
       0.06365941 -0.39830267 -0.20099565 0.32934713
0003a0 50 34 18 be d8 35 9c be 68 e1 d8 3b 06 38 54 3e
       -0.14863706 -0.3050983 0.0066186674 0.20724496
0003b0 97 17 8e bf 24 fd e8 bd c5 ab d2 be 1c 6c 04 be
       -1.1100949 -0.11376408 -0.41146675 -0.12931865
0003c0 de ae 14 bd 08 b0 ce be 6d 1e b7 bd ab 02 da be
       -0.03629958 -0.40368676 -0.0894135 -0.4258016
0003d0 ad 2e 5e bf 14 8c 2f be af d9 d6 be 10 a8 07 bf
       -0.8678997 -0.1714328 -0.41962954 -0.5299082
0003e0 47 13 b9 be af eb 86 be 05 7e b1 be 04 21 38 be
       -0.3614752 -0.26351687 -0.34666458 -0.17981344
0003f0 d9 f2 29 bf 2c 03 06 bf bf 37 bb bd 1c b2 7d be
       -0.6638618 -0.5234859 -0.09141492 -0.24774975

convs.1.linear1.bias f4 [64]
000000 a0 a6 bb be b8 e3 3d be 72 f8 b5 be db fc be 3e
       -0.36650562 -0.18543899 -0.3554111 0.37302288
000010 53 3b f6 be 3e cb b9 3e ae 4f f7 be 50 e5 da 3e
       -0.48092136 0.36287874 -0.48302978 0.42753077
000020 84 bf c8 3e 15 76 ad be 4b 53 c7 3e 81 1b 92 be
       0.39208615 -0.33879152 0.38930735 -0.2853661
000030 d9 c5 d0 3e 4d 94 e4 be 42 7c ed 3e 09 78 95 be
       0.40775946 -0.44644395 0.46383864 -0.29193142
000040 56 75 98 be 4d 13 d5 3e 58 5d e8 3e f9 37 eb 3e
       -0.2977702 0.41616288 0.45383716 0.4594114
000050 32 be f6 3e af 11 ca 3e 74 af aa be 6e 4a f2 3e
       0.48191983 0.39466617 -0.33336985 0.4732241
000060 af 31 e6 3e 2d f0 5b 3e 52 3f 9f be 9c af c8 3e
       0.4495978 0.21478339 -0.31102997 0.3919648
000070 53 77 c0 3e ec 7b bf be 6d b8 94 be 24 34 d4 3e
       0.37591037 -0.37399232 -0.29046956 0.4144603
000080 0c 9d f2 be 43 2c d6 be 31 34 cf 3e e3 d1 d5 3e
       -0.47385442 -0.41830644 0.40469506 0.41761693
000090 e2 50 e7 3e ec 62 fa be 7e f7 b8 be 88 b7 c7 3e
       0.45178896 -0.48903596 -0.36126322 0.3900721
0000a0 b4 40 d7 be ff 86 de 3e 98 1d ee 3e 42 77 e9 3e
       -0.42041552 0.4346237 0.46506953 0.455988
0000b0 48 4c c0 3e 4e 4a fe be 79 9c e3 3e 60 b0 cc be
       0.37558198 -0.49666065 0.44455317 -0.39978313
0000c0 25 3b c4 3e 90 03 c6 3e 2f c5 da be fa 20 ef 3e
       0.38326374 0.38674593 -0.42728564 0.46704847
0000d0 4f c1 9d be b7 94 c0 be ec 71 ce be d7 c8 c6 be
       -0.30811545 -0.3761346 -0.4032129 -0.38825104
0000e0 5f 6d df 3e 71 82 c1 be 72 4a d3 3e 10 32 d6 be
       0.4363813 -0.3779483 0.41267735 -0.4183507
0000f0 b2 fd 8e be 39 7c 3e 3e 45 b0 f8 3e 77 51 f5 be
       -0.2792793 0.18602075 0.48571983 -0.47913715

convs.1.linear2.weight f4 [64, 64]
000000 b2 b9 b9 be 80 16 89 be c9 9a e2 be 78 14 f8 3e
       -0.36274487 -0.2677498 -0.44258717 0.48453116
000010 08 ac 8f be ef 5b d3 3e 93 21 90 be fc f0 2d 3f
       -0.28060937 0.41281077 -0.28150615 0.6794584
000020 6b 35 06 3f 30 4c 02 bf 2c 7a d7 3e af 84 e1 be
       0.5242526 -0.508975 0.42085397 -0.44046542
000030 63 a3 8a 3e 15 be 08 bf 97 9d c3 3e 09 41 eb be
       0.2707778 -0.5341504 0.3820617 -0.45948055
000040 c6 24 99 be 72 67 cc 3e 8a fe a6 3e a2 38 da 3e
       -0.29910868 0.39922673 0.32616073 0.42621332
000050 9a 11 54 3f a9 23 d2 3e 70 96 0f bf 37 78 f8 3e
       0.8283936 0.41042832 -0.56088924 0.48529217
000060 60 62 03 3f 8f f4 09 3e c3 d5 64 bf 32 bb a1 3e
       0.51321983 0.13472198 -0.89388674 0.3158813
000070 eb 7f cd 3e a1 78 dc be 53 8c 9e be 67 b4 c5 3e
       0.40136656 -0.43060783 -0.30966434 0.386142
000080 54 3e ee be fa f6 b9 be 89 8d ab 3e 48 78 91 3e
       -0.46531928 -0.3632124 0.3350642 0.2841208
000090 c5 a1 a8 3e 28 72 70 be c7 8d f6 be 47 c1 0b 3f
       0.3293592 -0.23481047 -0.48155043 0.5459179
0000a0 d5 d9 d8 be 0e 35 8b 3e 9b 74 bf 3e b1 4b 12 3f
       -0.42353693 0.27188915 0.3739365 0.57146746
0000b0 bb 25 ae 3e c0 e5 a3 be e8 77 d0 3e d0 84 b4 be
       0.3401316 -0.32011223 0.4071648 -0.35257578
0000c0 76 42 e1 3e f1 ce e2 3e cc 36 e2 be c8 67 ee 3e
       0.43996018 0.4429851 -0.44182432 0.46563554
0000d0 97 8b b8 be fd 34 17 bf 72 a2 97 be 39 6e 95 be
       -0.36044 -0.5906523 -0.29616123 -0.29185656
0000e0 70 f0 17 3f 3c 15 07 bf 0b 02 bd 3e 80 2b ce be
       0.59351254 -0.52766776 0.3691562 -0.40267563
0000f0 a4 12 0f bf 06 c8 23 3e 7c e8 79 3e 11 04 74 be
       -0.5588782 0.15994272 0.24405092 -0.23829676
000100 09 f6 de be 61 79 84 be cc 01 ca be 5a df f1 3e
       -0.43547085 -0.25873855 -0.39454496 0.47240716
000110 d0 01 b6 be 15 2b d5 3e 7c c7 ab be de 2d 46 3f
       -0.35548258 0.4163443 -0.33550632 0.7741374
000120 a1 a3 af 3e df 50 02 bf 49 5a d4 3e f4 b9 e9 be
       0.34304526 -0.5090465 0.41475132 -0.45649683
000130 d1 ac d4 3e 4d a8 c1 be 9b 59 e0 3e dd 74 ff be
       0.41538098 -0.37823716 0.43818364 -0.49893847
000140 40 f3 b9 be 98 7e bd 3e 62 94 99 3e 0a 7c 9b 3e
       -0.36318398 0.37010646 0.2999602 0.30368072
000150 5e 0f 5c 3f 54 d5 6f 3e 17 86 e4 be cf c6 b3 3e
       0.8596095 0.23421222 -0.44633552 0.35112616
000160 65 ed f9 3e a3 f3 b5 3d ca 0a 3b bf cc f6 ad 3e
       0.4881393 0.08884361 -0.7306334 0.33977354
000170 be 2f c6 3e 5d 6f 08 bf 9b 1e be be 1e 5b e5 3e
       0.387083 -0.53294927 -0.37132725 0.4479608
000180 90 8f 0a bf 3b ae de be bc 56 08 3f be af 8f 3e
       -0.5412531 -0.43492302 0.53257346 0.28063768
000190 95 9f 9a 3e ae d1 92 be 0f 86 a2 be 2a f3 00 3f
       0.30199876 -0.28675598 -0.31742904 0.5037104
0001a0 93 f4 c5 be 11 c7 4f 3e 5c 4e d8 3e 04 c7 1e 3f
       -0.38663158 0.20290782 0.42247283 0.62022424
0001b0 c9 3e b3 3e ae f3 b7 be 47 fd 8b 3e 1f 90 c8 be
       0.3500884 -0.359281 0.27341673 -0.39172456
0001c0 34 8b fb 3e 0a 45 a4 3e bd 9c 15 bf 7a 4e db 3e
       0.4912964 0.32083923 -0.5844229 0.4283331
0001d0 da 39 6e be 8e b7 17 bf 3b c1 ea be 1b b6 62 be
       -0.23264256 -0.5926446 -0.45850548 -0.2213978
0001e0 2a 2a f9 3e ec 5f bb be bb 7a 94 3e bc 0b fb be
       0.4866498 -0.3659662 0.28999886 -0.4903239
0001f0 ff 94 05 bf 79 d2 cd 3d bb f4 b4 3e 5a af 75 be
       -0.52180475 0.1004991 0.35342965 -0.23992673
000200 3c 37 d7 3e ed 31 18 3e 46 98 b4 3e 21 18 d3 be
       0.42034328 0.14862795 0.35272425 -0.41229346
000210 79 d3 67 3e d4 e1 b1 be 80 76 bc 3e 98 9c 32 bf
       0.22639264 -0.34742606 0.36809158 -0.69770193
000220 74 41 f7 be ab f6 cf 3e 40 fd c5 be 3b b4 a3 3e
       -0.48292124 0.4061788 -0.38669777 0.31973442
000230 7e ae a4 be d8 e4 e1 3e 76 70 70 be bf e6 b3 3e
       -0.32164377 0.44119906 -0.234804 0.35136983
000240 a8 b0 c3 3e 25 aa e2 be 33 2d 61 be 18 15 ad be
       0.38220716 -0.44270435 -0.21989898 -0.33805156
000250 fe ec 50 bf 66 ad ba be ca 67 c8 3e 00 66 b2 be
       -0.8161162 -0.36460418 0.39141685 -0.34843445
000260 91 b4 9a be 85 ec ff bc 73 a5 27 3f ea 63 a6 be
       -0.30215886 -0.031240711 0.6548683 -0.32498103
000270 6b 20 58 be d3 56 d0 3e c5 58 cc 3e 79 cb 8e be
       -0.21106116 0.40691242 0.39911476 -0.27889612
000280 f9 0b b1 3e 0e c0 65 3e 17 7c d4 be 55 18 98 be
       0.34579447 0.22436544 -0.41500923 -0.29706064
000290 32 63 17 be 35 9f b1 3e f8 ce 7b 3e 30 56 e1 be
       -0.14783934 0.34691778 0.24590671 -0.44011068
0002a0 06 f2 88 3e 10 20 5f be 11 1f b4 be 3f c2 11 bf
       0.2674715 -0.21789575 -0.35179952 -0.5693702
0002b0 ea 94 93 be a0 10 88 3e 1e 60 92 be c2 d7 a0 3e
       -0.2882455 0.26575184 -0.28588957 0.3141461
0002c0 45 61 04 bf ae 5f e7 be da fa c6 3e 48 64 a4 be
       -0.5171092 -0.45190185 0.3886326 -0.3210776
0002d0 14 a5 93 3e 17 ec ce 3e 66 64 c6 3e 21 d6 c7 3e
       0.28836882 0.40414497 0.38748473 0.39030555
0002e0 a9 cd 1a bf 7c f0 dd 3e 9f 54 b0 be 8d 4f 83 3e
       -0.6047006 0.43347538 -0.3443956 0.2564663
0002f0 d0 7b ba 3e 18 bc 05 3d e2 f9 b3 be fc d3 7b 3e
       0.36422586 0.032650083 -0.35151583 0.24592584
000300 31 09 fc be 35 67 89 be 81 f7 c7 be 9f 0b c2 3e
       -0.49225762 -0.26836553 -0.39056018 0.3789949
000310 12 59 bc be 31 04 ff 3e 81 3e 9c be 81 c6 22 3f
       -0.36786705 0.49807885 -0.30516437 0.6358414
000320 87 6e ea 3e 19 f0 c1 be 9c de 95 3e 50 87 d8 be
       0.4578745 -0.37878492 0.292714 -0.42290735
000330 d9 68 c4 3e b3 4c ce be 08 7b 77 3e 2e 38 da be
       0.38361242 -0.40292892 0.24168026 -0.42620987
000340 46 70 97 be b4 e7 ba 3e bd 07 88 3e 4b ac d8 3e
       -0.29577845 0.365049 0.26568404 0.4231895
000350 a1 a6 49 3f 81 6c ca 3e 86 c5 07 bf a2 c7 bb 3e
       0.7876988 0.39535907 -0.5303577 0.36675745
000360 6a 98 02 3f 4a 11 82 3e 0f e8 2c bf 77 8a 28 3e
       0.51013815 0.25403816 -0.67541593 0.1645907
000370 67 c9 6c 3e 1b c2 f9 be be 76 95 be ff 0d f3 3e
       0.23123704 -0.48780903 -0.29192156 0.47471616
000380 6c 49 e2 be 0d de d3 be 64 b5 e5 3e 5e 62 c0 3e
       -0.4419664 -0.4138035 0.44864953 0.37575048
000390 6c e9 64 3e c8 03 7f be 5f 29 d6 be 7d 7c cd 3e
       0.22354668 -0.24903786 -0.4182844 0.4013404
0003a0 83 3b d4 be 5e fc 2e 3e f8 87 c8 3e eb 7b 19 3f
       -0.41451654 0.17088458 0.39166236 0.5995471
0003b0 cc 90 c5 3e 7c 4a 92 be aa 59 ee 3e ee 56 04 bf
       0.38587034 -0.28572452 0.46552783 -0.51695144
0003c0 db f4 e9 3e 1d f4 fa 3e 86 bc 18 bf e9 ce b0 3e
       0.45694622 0.4901437 -0.59662664 0.3453286
0003d0 e6 3d 97 be 32 f1 be be a8 40 d8 be b9 ac 56 be
       -0.29539412 -0.37293392 -0.4223683 -0.20964326
0003e0 1e 98 24 3f e9 29 ea be 38 35 bf 3e 79 d1 ab be
       0.6429461 -0.457351 0.3734529 -0.33558252
0003f0 c4 e3 f5 be b0 8c 5b 3e 98 c4 c2 3e 54 5f 4e be
       -0.48025334 0.21440387 0.38040614 -0.20153552

convs.1.linear2.bias f4 [64]
000000 d3 b3 e4 3e cb 5b b5 3e 98 a6 be be 54 df cf 3e
       0.44668445 0.35421595 -0.37236476 0.40600073
000010 50 6f 7a be 25 7d 33 3c 1f 2f e5 be 49 4a e4 bd
       -0.24456525 0.01095513 -0.44762513 -0.11146981
000020 f8 6e c9 3e 38 ff be 3e 6d 4d ba be 20 b2 c1 3e
       0.39342475 0.3730409 -0.36387196 0.3783121
000030 ab e7 3b bc dd e8 a3 be 0a dc cb 3e 11 0b 5e bd
       -0.011468808 -0.32013598 0.39816314 -0.054209772
000040 2b b3 b9 3e b9 fb e1 be 25 85 cd be a6 34 bf 3e
       0.36269507 -0.44137362 -0.40140644 0.37344855
000050 63 8d d4 be 40 f6 b2 be 23 66 b2 3e f4 b2 e0 3e
       -0.4151412 -0.349535 0.3484355 0.4388653
000060 95 69 b3 be 88 53 c2 be e7 7f ee 3e 3e 53 8c be
       -0.3504149 -0.37954354 0.46581957 -0.2740726
000070 ed bb cb be 4e 5e bf be 0d 45 c5 3e 3c c8 c0 3e
       -0.39791813 -0.37376636 0.38529244 0.37652767
000080 3c 69 cd be c5 ae be be 3d b2 dd be 76 69 b6 be
       -0.4011935 -0.37242714 -0.43300048 -0.35627335
000090 bd 78 c4 be ff 31 b6 be 58 4a bd 3e a5 5f bb be
       -0.38373366 -0.3558502 0.36970782 -0.36596408
0000a0 6a 34 bc 3e 14 77 bc 3e 16 05 e2 be 3a c1 c6 3e
       0.3675874 0.368096 -0.44144505 0.38819295
0000b0 ca e3 b1 be 51 03 9e be 95 ec b3 be f8 94 8f be
       -0.34744102 -0.30861905 -0.35141435 -0.28043342
0000c0 e2 17 a6 be f8 a3 92 3e c1 ce e9 3e 83 a9 d4 be
       -0.32440096 0.28640723 0.45665553 -0.41535577
0000d0 c2 46 c3 3e a9 d0 cb 3e a0 d9 9f be 26 29 b0 be
       0.3813992 0.39807633 -0.31220722 -0.34406394
0000e0 04 fc 84 bc 2d 25 cd 3e e6 38 db 3e 08 61 d0 be
       -0.016233452 0.40067425 0.42816848 -0.4069903
0000f0 43 82 d3 be 22 d2 da be 47 e8 ad 3e e0 8a e0 be
       -0.4131032 -0.42738444 0.33966276 -0.43855953
