Saved_Models/TSP_500/scatgnn_layer_2_hid_64_model_220_temp_3.500.pth (torch, 257863 bytes, 24 tensors)

bn0.weight f4 [2]
0	0x3f800000	1.0
1	0x3f800000	1.0

bn0.bias f4 [2]
0	0x00000000	0.0
1	0x00000000	0.0

bn0.running_mean f4 [2]
0	0x00000000	0.0
1	0x00000000	0.0

bn0.running_var f4 [2]
0	0x3f800000	1.0
1	0x3f800000	1.0

in_proj.weight f4 [64, 2]
0	0xbe803d0d	-0.25046578
1	0xbf75eb6e	-0.9606236
2	0x3f7565e6	0.9585861
3	0x3e75bc94	0.23997718
4	0x3f05e1d4	0.5229771
5	0xbf7d87ed	-0.9903553
6	0xbf439931	-0.76405627
7	0x3f69cded	0.9132984
8	0xbed6939f	-0.419095
9	0xbf3014c3	-0.6878168
10	0x3ed4e2e9	0.4157937
11	0x3f8e6b53	1.1126503
12	0xbf5a9157	-0.8537802
13	0xbf199a1a	-0.60000765
14	0x3f2c3b7c	0.67278266
15	0x3f8f37db	1.1188921
16	0x3f692b7c	0.91081977
17	0x3f5af1c7	0.8552517
18	0x3f3499f0	0.7054739
19	0xbf1f5742	-0.6224252
20	0x3e726287	0.23670398
21	0xbf38e709	-0.7222753
22	0xbe04481f	-0.12918137
23	0xbf3a381b	-0.7274186
24	0x3f609c91	0.877389
25	0x3f24d9ab	0.64394635
26	0x3f361b9a	0.71135867
27	0x3f7cb73a	0.9871708
28	0xbede8f3e	-0.4346866
29	0x3f8a1739	1.0788337
30	0x3f629958	0.88515234
31	0x3f7eba0a	0.99502623
32	0xbeee33b2	-0.46523815
33	0xbf53e60c	-0.827729
34	0xbe83fd3e	-0.25779146
35	0xbf948fe7	-1.1606416
36	0xbe23aa10	-0.15982842
37	0xbf8d5e55	-1.1044413
38	0xbf3026c6	-0.68809164
39	0x3ef7bc92	0.48386055
40	0x3c9052a9	0.01761754
41	0x3f292c11	0.66082865
42	0xbebeee88	-0.3729136
43	0x3ec39a9d	0.38203898
44	0xbf86d45a	-1.0533555
45	0xbf1ae70f	-0.6050882
46	0x3f324c47	0.6964764
47	0x3f45077d	0.7696455
48	0x3ea7f2f8	0.32802558
49	0x3e01e8dc	0.12686485
50	0xbf5f3b6d	-0.8720005
51	0xbeb36309	-0.35036495
52	0xbf370e25	-0.7150596
53	0x3e91da25	0.28486744
54	0x3ee360d2	0.44409806
55	0x3f928869	1.1447879
56	0xbf1026ba	-0.5630909
57	0x3f607c59	0.8768974
58	0x3d346af4	0.04404731
59	0xbf1dd603	-0.6165468
60	0xbf541d29	-0.82856995
61	0x3f47f703	0.78111285
62	0xbe475615	-0.19466431
63	0xbf713d8f	-0.94234556
64	0xbf6bf31a	-0.9216782
65	0x3e9e7e23	0.3095561
66	0xbedb690c	-0.42853582
67	0x3f6a8def	0.91622823
68	0xbec26960	-0.3797102
69	0xbf86ed7b	-1.0541223
70	0xbf4d6373	-0.8022987
71	0xbf7df488	-0.9920125
72	0x3af50874	0.0018694536
73	0xbf2e34d8	-0.68049383
74	0x3f7f6dbc	0.99776816
75	0xbebe9776	-0.3722493
76	0xbf65ee8e	-0.8981713
77	0xbf27625a	-0.6538445
78	0x3f82e8f9	1.0227348
79	0xbee3a867	-0.44464418
80	0xbf6f43fa	-0.934631
81	0x3e0b6609	0.13613142
82	0x3f0a572b	0.5403926
83	0xbf56ea67	-0.8395142
84	0xbf7ae881	-0.9801102
85	0xbe29e497	-0.16591106
86	0x3e75b370	0.23994231
87	0x3ed60581	0.41801074
88	0x3f6c09b9	0.92202336
89	0xbf3cd3b2	-0.7376052
90	0x3f12319d	0.57106954
91	0x3eab986b	0.33514723
92	0xbe988dc3	-0.29795656
93	0xbf6042c8	-0.876019
94	0xbf8015b1	-1.000662
95	0x3ea567b9	0.32305697
96	0x3e5c6673	0.21523456
97	0x3f5bd0a3	0.8586523
98	0xbf39b804	-0.7254641
99	0x3e93a50c	0.28836858
100	0x3e24d330	0.16096187
101	0xbf753b6a	-0.95793784
102	0xbf676035	-0.90381175
103	0xbc6ca744	-0.014444176
104	0xbf8ee141	-1.1162492
105	0x3daa733a	0.08322759
106	0xbe7c62dc	-0.24647087
107	0x3f79227a	0.9731823
108	0xbf490608	-0.7852483
109	0xbf585127	-0.8449883
110	0x3f5d1821	0.8636494
111	0x3ecb911a	0.3975914
112	0xbf6c375e	-0.92271984
113	0x3e2af917	0.16696583
114	0xbf077a8b	-0.5292136
115	0xbf3d1164	-0.7385466
116	0xbd83e1fb	-0.06439587
117	0xbf55cb00	-0.8351288
118	0x3d1ce47d	0.03830384
119	0x3f52a2ce	0.8227967
120	0xbeebd870	-0.46063566
121	0x3ed0af6b	0.40758833
122	0x3f1dc1f9	0.61624104
123	0xbe4cf2da	-0.20014516
124	0x3f108367	0.56450504
125	0xbed0eb3e	-0.40804476
126	0xbe82121d	-0.25404444
127	0x3e1daa77	0.15397058

in_proj.bias f4 [64]
0	0xbeb2f6e3	-0.34953985
1	0xbf1000aa	-0.56251013
2	0xbf3b08f5	-0.7306054
3	0x3f0e6c12	0.5563365
4	0x3f21e558	0.63240576
5	0x3f1eb17d	0.61989576
6	0xbf15822e	-0.58401763
7	0x3d1dfc1b	0.038570505
8	0x3ebed0b2	0.37268597
9	0xbf501d4e	-0.81294715
10	0x3f227801	0.6346436
11	0x3f235aae	0.6381024
12	0x3f2b8d80	0.67012787
13	0x3f0c380d	0.54773027
14	0x3eb7a4c8	0.35867906
15	0x3f542f92	0.82885087
16	0x3ec6f58d	0.38859215
17	0x3ef9d241	0.48793224
18	0x3ecc6a03	0.3992463
19	0x3e92f99c	0.28706062
20	0xbf0ca6f6	-0.5494226
21	0xbf2acb75	-0.667167
22	0x3f171811	0.590211
23	0xbc998ce4	-0.01874394
24	0xbf270744	-0.6524546
25	0xbf38ef35	-0.7224
26	0xbeb15256	-0.3463313
27	0xbe4a028d	-0.19727536
28	0x3edc90a8	0.43079114
29	0x3e59c710	0.21267343
30	0x3df4213a	0.119204
31	0xbf518768	-0.8184724
32	0x3df9c228	0.121952355
33	0x3f208f21	0.627184
34	0x3e3b0009	0.18261732
35	0xbf1473b4	-0.5798905
36	0xbe61ae87	-0.22039233
37	0xbe26a7da	-0.16274968
38	0x3e15cad4	0.14628154
39	0xbc64ff41	-0.013976873
40	0x3e3dca7b	0.18534271
41	0xbe9a7eec	-0.3017496
42	0xbf1fbd70	-0.62398434
43	0x3f426570	0.7593603
44	0x3efe4934	0.49665225
45	0x3ed0cb88	0.40780282
46	0xbe0308fe	-0.12796399
47	0xbf562cdd	-0.83662206
48	0x3ec22bd5	0.37924066
49	0x3ea29303	0.31752786
50	0x3eba3332	0.36367184
51	0x3ea674c8	0.32510972
52	0x3ec5b9f2	0.38618428
53	0xbc1cb04a	-0.009563515
54	0xbed2405a	-0.4106472
55	0x3e038d60	0.12846899
56	0x3f334c33	0.70038146
57	0xbe8392c4	-0.2569791
58	0x3f4454e9	0.7669206
59	0x3e5f45b1	0.21803929
60	0x3f70d272	0.94071114
61	0x3f42a0a7	0.76026386
62	0xbed6ffd3	-0.41992053
63	0xbf6cc750	-0.92491627

convs.0.a f4 [128, 1]
0	0x3ccb77f4	0.024837472
1	0x3d2ccdc7	0.042188432
2	0x3d8f0991	0.069842465
3	0x3dfe5b58	0.12419766
4	0x3c9d2f86	0.0191877
5	0x3d83d8f6	0.064378664
6	0xbd525dfc	-0.05135916
7	0xbb9fc163	-0.0048753484
8	0xbb2e1fe1	-0.0026569294
9	0x3d5e90aa	0.05433718
10	0x3d494f99	0.049148176
11	0x3a1687f9	0.00057423074
12	0x3d4ae257	0.04953226
13	0x3da1960a	0.07889946
14	0x3db8f44a	0.090309694
15	0x3dbbe1e5	0.09173945
16	0xbd366337	-0.044528212
17	0xbc9057d5	-0.017620007
18	0x3ccdc1ce	0.025116827
19	0x3cd88224	0.026429243
20	0x3c530509	0.012879618
21	0x3d3dc07d	0.04632615
22	0xbcf41660	-0.029795825
23	0xbd534607	-0.051580455
24	0x3be35b21	0.0069383536
25	0xbd2efd65	-0.042722125
26	0x3d17a5ab	0.037023228
27	0x3c6afb95	0.014342208
28	0x3d560042	0.05224634
29	0x3cdd3688	0.027003542
30	0x3c883d02	0.016630653
31	0x3d3f7b9a	0.046748735
32	0xbc05950a	-0.008153209
33	0x3bab86e4	0.005234586
34	0xbd5bd842	-0.053673036
35	0xbd2e7510	-0.04259211
36	0x3d3a01a4	0.04541172
37	0x3e17af3c	0.1481294
38	0xbd8eddf2	-0.069759265
39	0x3e044128	0.1291548
40	0xbb4af73c	-0.0030970117
41	0x3dbf3ab8	0.093373716
42	0xbcc15bd2	-0.023603354
43	0x3da242ed	0.07922921
44	0x3e19e35c	0.15028137
45	0x3d91155e	0.070841536
46	0xbc352425	-0.011055981
47	0x3d07221d	0.032991517
48	0x3c6525e8	0.013986088
49	0xbd12a08b	-0.035797637
50	0x3d9fea83	0.078084014
51	0xbc16cc93	-0.009204048
52	0x3d46e198	0.048554987
53	0x3cfb0b1e	0.03064495
54	0xbd2d8b6f	-0.042369302
55	0x3d41b925	0.04729571
56	0xbd565afe	-0.05233287
57	0xbd67a078	-0.05654952
58	0x3c8f55f4	0.01749704
59	0x3da29ee5	0.07940463
60	0xbb06fb27	-0.0020596476
61	0x3e1dbd85	0.15404327
62	0x3d7c8df4	0.061658815
63	0x3b9e806f	0.004837088
64	0x3d158cd5	0.03651126
65	0xbe15ef19	-0.1464199
66	0xbe72f635	-0.23726733
67	0x3e998c5e	0.29989904
68	0xbdc6438e	-0.09680854
69	0x3f11b411	0.56915385
70	0xbd590a8b	-0.05298857
71	0x3f49d282	0.78836834
72	0x3f63127c	0.8870008
73	0xbe9b11eb	-0.30287108
74	0xbe085065	-0.13311918
75	0xbdafff6f	-0.08593642
76	0x3e957ea9	0.29198197
77	0x3f21010b	0.62892216
78	0x3f3525ca	0.70760787
79	0x3ea39e1b	0.31956562
80	0xbf1795c3	-0.59212893
81	0xbec0f5dd	-0.3768758
82	0xbf139e59	-0.57663494
83	0x3ec175bd	0.3778514
84	0x3dccf93b	0.100084744
85	0xbe1827f9	-0.14858998
86	0xbe8838b2	-0.26605755
87	0x3f463835	0.77429515
88	0x3d31f08c	0.043442294
89	0xbd2d2a12	-0.04227645
90	0xbdded8a2	-0.10881163
91	0x3ed4dddd	0.41575518
92	0x3ebab08a	0.36462814
93	0xbf43ac18	-0.7643447
94	0x3ee7614c	0.4519142
95	0x3d8ad79d	0.06779406
96	0x3e945af8	0.28975654
97	0x3e96cecd	0.2945465
98	0xbe8b7500	-0.272377
99	0xbdfa91b0	-0.12234819
100	0xbbfeda85	-0.0077775144
101	0x3d631fe8	0.05545035
102	0xbd9f8f49	-0.07791001
103	0x3ec14ab7	0.37752315
104	0x3e4a00f5	0.19726928
105	0xbe6a9c10	-0.22911096
106	0xbdf0592c	-0.11735758
107	0x3e7292f9	0.23688878
108	0xbe2bcc29	-0.167771
109	0x3e8a85b2	0.27055126
110	0xbc400dcb	-0.0117220385
111	0xbdcce211	-0.10004056
112	0x3f8f1cb4	1.1180634
113	0xbdfff0aa	-0.12497075
114	0xbf1b078a	-0.6055838
115	0xbec9671d	-0.39336482
116	0xbe65bca0	-0.22435236
117	0x3f787866	0.97058713
118	0xbe2b28d8	-0.167148
119	0x3f003ea1	0.50095564
120	0xbc9036e2	-0.017604295
121	0xbdec4841	-0.11537219
122	0xbdaae4cb	-0.0834442
123	0x3fc2a9aa	1.5208027
124	0x3dfe26b9	0.124097295
125	0x3da848da	0.0821702
126	0xbe01d2c1	-0.12678052
127	0x3d5ae3b3	0.053439807

convs.0.linear1.weight f4 [64, 64]
0	0x3e9368ec	0.28790987
1	0x3d9f3807	0.07774358
2	0x3dd340b6	0.10315077
3	0xbe6cb23d	-0.23114868
4	0x3cb24843	0.021762973
5	0xbe570cde	-0.21001002
6	0x3e90860d	0.28227273
7	0xbe0d1418	-0.13777196
8	0xbe6f49f1	-0.2336805
9	0x3d844e9c	0.06460306
10	0x3e842241	0.25807384
11	0x3e39af46	0.18133268
12	0x3d3b8b99	0.045787428
13	0xbe9c1914	-0.30487883
14	0xbe27007a	-0.16308776
15	0xbe425020	-0.18975878
16	0x3e0dd8b4	0.13852197
17	0x3e60b96c	0.21945733
18	0x3edb7fdb	0.42870983
19	0xbe482d33	-0.19548492
20	0x3ecbdc71	0.3981662
21	0x3ded4817	0.11586016
22	0xbd023be0	-0.031795382
23	0xbe450874	-0.19241506
24	0x3e2d7bba	0.16941729
25	0x3e691b85	0.22764404
26	0x3e834934	0.25641787
27	0x3e1f7b58	0.15574396
28	0xbdd4c907	-0.103899054
29	0x3eac719e	0.33680433
30	0xbe80f6e8	-0.25188375
31	0x3e8cb24e	0.27479786
32	0xbe2ee1b0	-0.1707828
33	0xbe6f43e3	-0.2336574
34	0x3e17ee8d	0.14837094
35	0x3ddef708	0.10886961
36	0x3e8c7b6a	0.27437907
37	0xbd032213	-0.032014918
38	0xbb201d89	-0.0024431667
39	0xbdd8b30e	-0.10581027
40	0xbd81b2a7	-0.06332903
41	0x3db3b8d6	0.08775489
42	0x3e9b2ce3	0.30307683
43	0xbe8b1ddd	-0.2717122
44	0x3dedae50	0.11605513
45	0x3c70bae5	0.014692997
46	0x3ea786d8	0.32720065
47	0x3e4c5bb2	0.19956854
48	0xbe1fbb21	-0.15598728
49	0x3dcc4616	0.09974305
50	0x3e838046	0.25683802
51	0x3e63410e	0.22192785
52	0x3e52e8c8	0.20596611
53	0xbde4bbe6	-0.11168651
54	0x3dfda78b	0.12385472
55	0x3c94f6c4	0.018184073
56	0x3cda4c70	0.026647776
57	0x3e0803d0	0.13282704
58	0x3e0af234	0.13568956
59	0x3dd3265f	0.10310053
60	0xbe4b3f8f	-0.19848464
61	0xbd6f78cd	-0.058464814
62	0x3daf6eb2	0.08566035
63	0x3ea224fd	0.31668845
64	0x3e949618	0.29020762
65	0x3d9e248d	0.07721815
66	0x3d88af33	0.066740416
67	0xbe802c01	-0.25033572
68	0x3d114ec8	0.035475522
69	0xbdf0ff1b	-0.117674075
70	0x3ddbab06	0.107259795
71	0xbcad6e24	-0.021170683
72	0xbe93e390	-0.28884554
73	0xbda2768e	-0.07932769
74	0x3e4f29d3	0.20230798
75	0x3b1d0231	0.0023957605
76	0xbcad9f30	-0.02119407
77	0xbea2858d	-0.31742516
78	0xbde3a41d	-0.111152865
79	0xbe8e9d0c	-0.27854192
80	0x3e8213dd	0.2540578
81	0x3eac5370	0.33657408
82	0x3eccbb2e	0.39986557
83	0xbe39f86a	-0.18161169
84	0x3e359e25	0.17736109
85	0x3d089617	0.03334626
86	0xbd5a985d	-0.05336796
87	0xbd952625	-0.07282666
88	0x3e7615cd	0.24031754
89	0x3e65eca3	0.22453551
90	0x3dfd717d	0.12375162
91	0x3d87ca14	0.0663034
92	0xbe45d522	-0.19319585
93	0x3ebb5865	0.36590877
94	0xbe9b1527	-0.30289575
95	0x3e97dff4	0.2966305
96	0x3cd34e94	0.025794305
97	0xbdbeb9b6	-0.09312765
98	0x3db1d719	0.08683605
99	0x3d2c9c5d	0.042141307
100	0x3e377d3c	0.17918867
101	0x3cade525	0.021227429
102	0x3d5e45dc	0.05426584
103	0xbe135feb	-0.14392059
104	0x3d95e8f3	0.07319822
105	0x3e0633f7	0.1310576
106	0x3e72a074	0.2369402
107	0xbe472e30	-0.19451213
108	0x3e16d960	0.1473136
109	0xbc62aacc	-0.013834666
110	0x3e470425	0.19435175
111	0x3e66896e	0.22513363
112	0xbe1bf589	-0.15230383
113	0x3d4da98d	0.050210524
114	0x3e94d130	0.29065847
115	0x3e053083	0.13006787
116	0x3d0741fa	0.033021905
117	0xbdbbdca9	-0.09172947
118	0x3c0e403d	0.008682308
119	0xbdafa9a4	-0.08577278
120	0x3d89d608	0.06730276
121	0x3e05e554	0.13075763
122	0x3e185df8	0.14879596
123	0xbccade2d	-0.024764145
124	0xbe7fc0be	-0.24975869
125	0xbdb87bed	-0.09008012
126	0x3d8a1e62	0.06744076
127	0x3e78922d	0.24274512
128	0x3ecdb6f7	0.40178654
129	0x3e6e7a55	0.23288853
130	0x3d6ed07a	0.058304287
131	0x3c8f2352	0.017472897
132	0xbd023f08	-0.031798393
133	0xbe2430eb	-0.16034286
134	0x3dbc586f	0.09196555
135	0x3da592b0	0.08084619
136	0xbd11bf1c	-0.035582647
137	0x3d793e74	0.060850576
138	0x3e36ae56	0.17839941
139	0x3d769738	0.060202807
140	0x3d22fe47	0.03979328
141	0xbe8f109c	-0.2794236
142	0x3d4296d5	0.047507126
143	0xbe81560b	-0.25260958
144	0x3e8d83a5	0.276395
145	0x3e90b7d1	0.2826524
146	0x3ef91944	0.4865209
147	0xbdb0133b	-0.08597418
148	0x3e8ad053	0.27112064
149	0x3d0db153	0.034592938
150	0x3df536b6	0.11973326
151	0xbd6f50a6	-0.05842652
152	0x3e2a14fa	0.16609564
153	0x3e5ac046	0.21362409
154	0x3d591ffb	0.053009015
155	0x3e3cbad3	0.18430643
156	0xbe39bdf8	-0.18138874
157	0x3eef7a4f	0.46773002
158	0xbce4b3d7	-0.027917786
159	0x3e4405fd	0.1914291
160	0xbdb82b95	-0.089926876
161	0xbda06cc8	-0.078332484
162	0x3e94870f	0.29009292
163	0x3d044191	0.03228909
164	0x3e975907	0.2956011
165	0x3dc4f46f	0.096169345
166	0x3e782cbc	0.24235815
167	0xbd9b33e5	-0.075782575
168	0x3d8d1815	0.06889359
169	0x3e08ccba	0.13359347
170	0x3e08fe69	0.133783
171	0xbe883663	-0.26603994
172	0x3d5a7d91	0.053342406
173	0xbde164ab	-0.11005529
174	0x3e9a6279	0.30153254
175	0x3e363fb9	0.17797746
176	0xbd8a448c	-0.067513555
177	0x3c48fbf9	0.012267106
178	0x3ef23adc	0.4731053
179	0x3e419a25	0.18906458
180	0x3e67f02c	0.22650212
181	0x3de8b178	0.113619745
182	0xbd301e90	-0.042997897
183	0x3d3a1179	0.04542682
184	0xbd47d50d	-0.048787165
185	0x3d6cbdfe	0.05779838
186	0x3db2a3d3	0.08722653
187	0x3c5eb901	0.013593913
188	0xbe1ed702	-0.15511706
189	0xbdf85921	-0.12126375
190	0x3e138303	0.14405446
191	0x3e214966	0.15750656
192	0x3dbb9825	0.09159879
193	0xbe376a47	-0.17911635
194	0x3d30af79	0.043136094
195	0x3dfa7706	0.12229733
196	0x3df025de	0.117259726
197	0x3dee3e07	0.116329245
198	0x3d87d91b	0.066332065
199	0xbc205b6c	-0.009787422
200	0x3e277422	0.16352895
201	0x3cabc006	0.020965587
202	0x3dc2abde	0.09505437
203	0x3d3440a6	0.044006966
204	0x3dd9ffea	0.10644515
205	0x3d1763a9	0.036960278
206	0x3e81ea8d	0.2537426
207	0x3e331b9e	0.17491004
208	0xbdb3f45c	-0.08786842
209	0xbe3248e3	-0.17410617
210	0xbe298aac	-0.16556805
211	0x3ea54781	0.32281116
212	0x3cf4a52c	0.029863916
213	0xbd547eea	-0.051878847
214	0x3db8aa91	0.09016908
215	0x3d9d8d09	0.07692916
216	0xbe02d140	-0.12775135
217	0xbdbc15b0	-0.09183824
218	0xbde96d09	-0.1139775
219	0x3ea3a42e	0.31961197
220	0x3e0d6313	0.13807325
221	0xbdf3b134	-0.11899033
222	0x3edeed16	0.43540257
223	0x3d6bedc0	0.057599783
224	0x3e0b3de0	0.13597822
225	0x3eaa0bb6	0.3321206
226	0x3e8b7e68	0.27244878
227	0x3d9d6d99	0.0768692
228	0x3dcd273c	0.10017249
229	0x3db81510	0.08988392
230	0x3d0e3233	0.034715842
231	0x3e8274c9	0.25479725
232	0x3e0c593a	0.13705912
233	0xbcce422e	-0.025178041
234	0x3d4e7dfc	0.050413117
235	0x3e854630	0.2603011
236	0xbde282f0	-0.110601306
237	0xbd4f99ae	-0.05068367
238	0x3e0694f1	0.13142754
239	0x3cffc55c	0.031222038
240	0x3d074dd4	0.033033207
241	0x3d4d1bc8	0.050075322
242	0xbbdb8dba	-0.0067002447
243	0x3dd012f0	0.10159862
244	0x3d738e71	0.059462015
245	0x3e14771f	0.14498566
246	0x3e2ed2b9	0.17072572
247	0x3d964678	0.073376596
248	0x3e691902	0.22763446
249	0x3dbc3b2c	0.09190974
250	0xbd9258dc	-0.07145855
251	0x3e9f3e8f	0.31102416
252	0x3e82adb7	0.2552316
253	0x3da131bc	0.07870814
254	0x3d248df8	0.040174454
255	0x3e2abcb7	0.16673551

convs.0.linear1.bias f4 [64]
0	0x3eb19e60	0.34691143
1	0x3ea5b6a3	0.32365903
2	0x3e9655dd	0.29362383
3	0xbe9cb8bc	-0.3060969
4	0x3ea8775d	0.32903567
5	0xbe36bb56	-0.178449
6	0x3eba2e96	0.36363667
7	0x3e492f04	0.19646841
8	0x3ea674b7	0.3251092
9	0x3bda0511	0.006653436
10	0x3e95ec53	0.29281864
11	0xbebac06c	-0.3647493
12	0xbead2798	-0.3381927
13	0x3ea2bd89	0.3178523
14	0x3e98ee0d	0.29869118
15	0xbea5b9f1	-0.32368425
16	0x3eaea16c	0.3410753
17	0xbea5524b	-0.32289347
18	0x3e2e46d0	0.170192
19	0xbebd0aa5	-0.36922184
20	0xbeb8e2e8	-0.36110616
21	0xbea853a0	-0.328763
22	0x3eb4cc35	0.35312048
23	0x3e9d7fa7	0.30761454
24	0xbe37f50b	-0.1796457
25	0xbe8211c0	-0.25404167
26	0x3eb7db0d	0.3590931
27	0xbe95f077	-0.29285023
28	0x3e976814	0.29571593
29	0x3ec34665	0.38139644
30	0xbec0606d	-0.37573567
31	0xbeb0c584	-0.34525692
32	0xbe9c2230	-0.30494833
33	0xbe7e75fa	-0.24849692
34	0x3e1aab8a	0.151045
35	0xbdf895af	-0.12137925
36	0xbea5a824	-0.32354844
37	0xbe9fc934	-0.31208193
38	0x3ea13dbc	0.31492412
39	0x3ebe1273	0.3712345
40	0xbeb6c7dd	-0.3569936
41	0x3e91ba57	0.2846248
42	0x3e5a2967	0.21304856
43	0xbea3399d	-0.31879893
44	0x3e89171f	0.26775452
45	0x3ea321e0	0.31861782
46	0x3e81320f	0.25233504
47	0x3e9d27a1	0.30694297
48	0x3ea0299d	0.31281748
49	0xbeb62171	-0.3557239
50	0xbdfd7292	-0.12375368
51	0x3e99229b	0.29909214
52	0xbeb638bc	-0.3559016
53	0x3b90ad04	0.0044151563
54	0xbe965b7b	-0.2936667
55	0x3eae4ab0	0.34041357
56	0xbe999655	-0.29997507
57	0xbeb15d27	-0.34641382
58	0xbead3c3e	-0.33835024
59	0xbeb05ad1	-0.34444287
60	0x3f13532b	0.5754878
61	0xbd61789f	-0.055046674
62	0xbecdec76	-0.40219468
63	0xbea0e3b4	-0.31423724

convs.0.linear2.weight f4 [64, 64]
0	0xbeb11129	-0.34583405
1	0xbeef75a3	-0.46769437
2	0xbeb37f93	-0.3505827
3	0x3f20f3f5	0.6287225
4	0xbebcd173	-0.36878547
5	0x3ec3d309	0.38246945
6	0xbed5f670	-0.4178958
7	0x3e51e0c0	0.20495892
8	0xbf0c0700	-0.5469818
9	0x3ec69615	0.38786379
10	0xbe4fd478	-0.20295894
11	0x3ea0eed0	0.314322
12	0x3ec7bb08	0.3900988
13	0xbeaee2a3	-0.34157285
14	0xbe5ee6d1	-0.21767737
15	0x3ec5d279	0.3863714
16	0xbefb7ea3	-0.49120054
17	0x3ea95046	0.33069056
18	0xbeb29aa5	-0.3488361
19	0x3ebe2ca7	0.37143442
20	0x3f02b8c5	0.51063186
21	0x3eb03296	0.34413594
22	0xbef6d032	-0.48205715
23	0xbef91e48	-0.48655915
24	0x3ebe8b72	0.37215763
25	0x3edc1547	0.42984983
26	0xbedf388e	-0.43597835
27	0x3ed2f5fa	0.4120329
28	0xbe8ac89c	-0.27106178
29	0xbf0292ef	-0.5100545
30	0x3ea38461	0.31936935
31	0x3eca8060	0.39551067
32	0x3e8e7216	0.27821416
33	0x3ee5fde1	0.44920257
34	0xbe59013a	-0.21191874
35	0x3e8f1053	0.27942142
36	0x3ef1df04	0.4724046
37	0x3e8bbb45	0.27291313
38	0xbf12096f	-0.57045645
39	0xbeb9e6ff	-0.3630905
40	0x3ee8b1a6	0.45448035
41	0xbea1b8a6	-0.31586188
42	0xbed615f5	-0.41813627
43	0x3ef0eeb9	0.4705713
44	0xbea447cb	-0.32086024
45	0xbf016a73	-0.50553054
46	0xbe5bb0d7	-0.21454178
47	0xbe8ea49a	-0.27859956
48	0xbea03fa8	-0.31298566
49	0x3ee4145c	0.44546783
50	0x3ea1fa2b	0.31636176
51	0xbecc1768	-0.39861608
52	0x3e521f60	0.20519781
53	0xbe63f440	-0.22261143
54	0x3ea0bcc3	0.31394014
55	0xbeec9ca0	-0.46213245
56	0x3eb56bab	0.35433707
57	0x3eb8e3a4	0.36111176
58	0x3ec3aeea	0.38219386
59	0x3ecfe820	0.40606785
60	0xbe613c75	-0.21995719
61	0x3ea828f5	0.32843748
62	0x3f1de788	0.61681414
63	0x3efbfc23	0.49215803
64	0x3dd7de97	0.105405025
65	0x3e7401b4	0.23828775
66	0x3e97a1e2	0.29615694
67	0xbecf8a2c	-0.40535104
68	0x3dd45142	0.10367061
69	0xbe94de09	-0.2907565
70	0x3ea242a7	0.31691477
71	0xbd217a52	-0.039423294
72	0x3e9c8824	0.30572617
73	0x3dd77838	0.10520977
74	0x3e14d2f2	0.14533594
75	0xbde92dfe	-0.113857254
76	0xbdf1ac7f	-0.11800479
77	0x3dfe097e	0.12404154
78	0x3e276bbb	0.1634969
79	0xbe8d147d	-0.27554694
80	0x3e40d43a	0.18830958
81	0xbe81ede3	-0.25376806
82	0x3df73361	0.120703466
83	0xbe65c135	-0.22436984
84	0xbea1ad86	-0.315777
85	0xbe4dae11	-0.20085932
86	0x3e4fa6c6	0.20278463
87	0x3e27983c	0.16366667
88	0xbe0fff2d	-0.14062186
89	0xbde00cf7	-0.10939973
90	0x3e8a40f8	0.27002692
91	0xbe95c2b6	-0.29250115
92	0x3e61de34	0.2205742
93	0x3e557e99	0.20849074
94	0xbdd4143b	-0.10355421
95	0xbe897efb	-0.2685469
96	0xbe7a1922	-0.2442365
97	0xbe838cbd	-0.25693312
98	0x3e317a9f	0.17331932
99	0x3d3289a5	0.0435883
100	0xbe8c8301	-0.27443698
101	0xbe83d0bf	-0.25745198
102	0x3e819274	0.25307047
103	0x3e2daee2	0.16961244
104	0xbf1952dc	-0.5989206
105	0x3e5dfcf7	0.2167853
106	0x3e497a27	0.19675504
107	0xbe4b9883	-0.19882397
108	0x3e4c4beb	0.19950835
109	0x3e3e2943	0.18570428
110	0x3df61423	0.120155595
111	0x3db335d9	0.08750505
112	0x3df60f84	0.12014678
113	0xbe94b978	-0.2904775
114	0x3d9ad6e8	0.07560521
115	0x3db09b38	0.086233556
116	0xbe744fa8	-0.23858511
117	0xbd7265c9	-0.0591791
118	0xbe5bae3d	-0.21453185
119	0x3e32fa88	0.17478383
120	0xbe0b9309	-0.13630308
121	0xbe0976ef	-0.13424276
122	0xbea2fd67	-0.31833956
123	0xbdf1e576	-0.11811344
124	0x3ecd5fd2	0.40112168
125	0xbe8861ce	-0.2663712
126	0xbeb6aeab	-0.35680136
127	0xbe8234c2	-0.25430876
128	0x3e96c954	0.29450476
129	0x3de8cac5	0.113668
130	0x3dd43fdc	0.10363743
131	0xbebca33c	-0.36843288
132	0x3e199ca1	0.15001155
133	0xbd8680c6	-0.0656753
134	0x3e9e4478	0.30911613
135	0xbd4bd932	-0.04976768
136	0x3e79d1e0	0.24396467
137	0x3d839623	0.06425121
138	0x3e222626	0.15834865
139	0xbe81a7b9	-0.25323275
140	0xbe83f4e7	-0.25772783
141	0x3db490d6	0.08816688
142	0x3e1731ef	0.14765142
143	0xbea3a5a1	-0.31962302
144	0x3e515a46	0.20444593
145	0xbe21a434	-0.15785295
146	0x3ead8252	0.3388849
147	0xbe49d663	-0.19710688
148	0xbe9be7d1	-0.304503
149	0xbe6cd5f4	-0.23128492
150	0x3e783495	0.24238808
151	0x3e49c94d	0.19705696
152	0xbe382567	-0.17983018
153	0xbe204bc1	-0.15653898
154	0x3e3874db	0.18013327
155	0xbe3c116b	-0.1836602
156	0x3dea6800	0.11445618
157	0x3eb2262d	0.3479475
158	0xbe480952	-0.19534805
159	0xbf0c4716	-0.5479597
160	0xbda4e008	-0.08050543
161	0xbda99d83	-0.08281996
162	0x3dfd390e	0.12364398
163	0xbd0c53a8	-0.03425947
164	0xbdd233c1	-0.102637775
165	0xbe23ddb2	-0.16002539
166	0x3dd3ea13	0.103473805
167	0x3d8402f7	0.06445878
168	0xbf0810b5	-0.5315049
169	0x3e34663f	0.17617129
170	0x3e9645b0	0.29350042
171	0xbe36a2e7	-0.1783558
172	0x3e5985bc	0.21242422
173	0x3e887d54	0.26658118
174	0x3e32d10b	0.17462556
175	0x3e879b51	0.26485685
176	0x3da260bb	0.07928606
177	0xbeadb49c	-0.33926857
178	0x3e5e2259	0.2169279
179	0x3e87d768	0.2653153
180	0xbe8d79b6	-0.2763192
181	0xbe27681a	-0.16348305
182	0xbe22a31d	-0.15882535
183	0x3e862aad	0.26204434
184	0xbdcf3d71	-0.10119141
185	0xbd9bb44f	-0.076027505
186	0xbe0f1957	-0.1397451
187	0xbe7bd446	-0.24592695
188	0x3ec6947b	0.38785157
189	0xbe8670f4	-0.2625805
190	0xbeab2d02	-0.33432776
191	0xbe8487cc	-0.25884855
192	0xbeaeda6f	-0.34151027
193	0xbe8b1fbc	-0.2717265
194	0xbe92a90d	-0.286446
195	0x3f0d4156	0.5517782
196	0xbeae5dc3	-0.3405591
197	0x3e714e47	0.23565017
198	0xbea068ce	-0.3132996
199	0x3e05d139	0.13068093
200	0xbf162fae	-0.58666503
201	0x3f01fd10	0.5077677
202	0xbeb552e0	-0.3541479
203	0x3ec9a3f6	0.39382905
204	0x3ef129d0	0.47102213
205	0xbe45b184	-0.19305998
206	0xbeafb56b	-0.34318098
207	0x3f09e059	0.5385795
208	0xbe92c022	-0.2866221
209	0x3ed7f428	0.42178464
210	0xbf0868fb	-0.5328519
211	0x3ea95dc6	0.33079356
212	0x3f039e05	0.51412994
213	0x3ef01270	0.46889067
214	0xbeae45bb	-0.34037575
215	0xbf050874	-0.51966023
216	0x3eb67d7a	0.35642606
217	0x3ee1a2b6	0.4406945
218	0xbe7c81be	-0.24658868
219	0x3ed4e427	0.41580316
220	0xbece4857	-0.40289566
221	0xbf08936e	-0.5334996
222	0x3ef02722	0.46904856
223	0x3eec90c1	0.46204188
224	0x3e58f016	0.21185336
225	0x3e6fd2cd	0.23420258
226	0xbe8c5ab1	-0.27412942
227	0x3ecd633a	0.40114766
228	0x3ef475d7	0.47746155
229	0x3e9c5dde	0.30540365
230	0xbef92237	-0.48658916
231	0xbe97bd9c	-0.29636848
232	0x3f0b399d	0.54384786
233	0xbec2a135	-0.38013616
234	0xbefdd35f	-0.49575326
235	0x3edaf9de	0.4276876
236	0xbec7897e	-0.38972086
237	0xbf093362	-0.5359403
238	0xbe2be72c	-0.16787404
239	0xbe8b14d8	-0.2716434
240	0xbe5e09a1	-0.2168336
241	0x3e797aed	0.24363299
242	0x3e57e42e	0.21083137
243	0xbf08c6f7	-0.53428596
244	0x3eb02d24	0.3440944
245	0xbdbff239	-0.09372372
246	0x3e66c469	0.22535862
247	0xbebb69f8	-0.36604285
248	0x3eac8cb1	0.3370109
249	0x3e879901	0.2648392
250	0x3ed15afb	0.40889725
251	0x3eda03dd	0.42581072
252	0xbeef2e66	-0.46715087
253	0x3edba04f	0.42895743
254	0x3f2a9a9a	0.66642153
255	0x3ec2f78c	0.38079488

convs.0.linear2.bias f4 [64]
0	0xbea972dd	-0.33095446
1	0x3eb959bf	0.36201283
2	0x3ec14803	0.37750253
3	0xbed28416	-0.411164
4	0xbed64c35	-0.41855016
5	0x3e51bc7f	0.20482062
6	0xbec284a6	-0.37991828
7	0xbec870fd	-0.39148703
8	0x3ed572b2	0.41689068
9	0x3e808e2f	0.25108477
10	0xbedf5c8f	-0.43625304
11	0x3e91a6cd	0.2844757
12	0xbeb1bd16	-0.34714574
13	0x3e97c0f3	0.29639396
14	0xbeceb036	-0.40368813
15	0xbedbe114	-0.42945158
16	0xbe9b4b30	-0.303308
17	0xbeb9a425	-0.36258045
18	0x3ec2f1cb	0.38075098
19	0x3eb53423	0.3539134
20	0xbed9f12f	-0.4256682
21	0xbd8b67dd	-0.0680692
22	0xbec7efe1	-0.390502
23	0xbed8cb11	-0.42342427
24	0xbeb832c2	-0.35976225
25	0xbf9152f1	-1.1353437
26	0xbe9b10ad	-0.3028616
27	0xbebf1968	-0.3732407
28	0xbef0d7bd	-0.47039595
29	0xbeeb9556	-0.46012372
30	0xbf00904e	-0.5022019
31	0xbec931cf	-0.39295813
32	0xbf9ca8bc	-1.2238994
33	0x3e12962c	0.14315099
34	0x3e5de5e7	0.21669732
35	0xbec8543c	-0.39126766
36	0x3e88e00e	0.2673344
37	0xbed9424e	-0.424334
38	0xbeb8e1e2	-0.36109835
39	0xbebc9f25	-0.36840168
40	0x3e39e4f6	0.18153748
41	0xbee61fcc	-0.44946134
42	0x3e8f6603	0.28007516
43	0x3bff4665	0.007790374
44	0xbf2042f6	-0.62602174
45	0x3ec18a05	0.37800613
46	0xbef1ca7b	-0.47224793
47	0xbe2a3cc9	-0.1662475
48	0x3eaddef5	0.33959165
49	0xbecbfa36	-0.39839333
50	0x3eccc181	0.39991382
51	0xbed9e7c6	-0.42559642
52	0xbf3aa941	-0.7291451
53	0xbeb983f9	-0.362335
54	0xbed62e3c	-0.4183215
55	0x3e08d208	0.1336137
56	0xbecd5d2b	-0.40110144
57	0xbea9f595	-0.33195177
58	0xbecbcfa6	-0.3980686
59	0xbeabd1d5	-0.33558527
60	0x3d91a184	0.07110885
61	0xbefa6fd4	-0.48913443
62	0x3e6c5897	0.2308067
63	0xbefb5984	-0.49091733

convs.1.a f4 [128, 1]
0	0xa7c0b5f4	-5.348798e-15
1	0x3e2b81b8	0.16748703
2	0x3d4d96bf	0.05019259
3	0x00000000	0.0
4	0x00000000	0.0
5	0x3c8e50c8	0.017372504
6	0x00000000	0.0
7	0x00000000	0.0
8	0x3e442c30	0.19157481
9	0x3d1eef93	0.038802695
10	0x00000000	0.0
11	0x3d1df0f7	0.03855988
12	0x2d589118	1.2310396e-11
13	0x3deb2d0f	0.114832036
14	0x00000000	0.0
15	0x00000000	0.0
16	0x00000000	0.0
17	0x00000000	0.0
18	0x3d5ee50b	0.05441765
19	0x3db67f33	0.0891098
20	0x00000000	0.0
21	0x3dc4235c	0.09577057
22	0x00000000	0.0
23	0x00000000	0.0
24	0x00000000	0.0
25	0xb27873e3	-1.44618495e-08
26	0x00000000	0.0
27	0x00000000	0.0
28	0x00000000	0.0
29	0x00000000	0.0
30	0x00000000	0.0
31	0x00000000	0.0
32	0x3447754e	1.8575994e-07
33	0xbc2189b5	-0.009859492
34	0x3d225f27	0.039641526
35	0x00000000	0.0
36	0x3e6e5300	0.2327385
37	0x00000000	0.0
38	0x00000000	0.0
39	0x3d9991cc	0.07498512
40	0x3ba6c222	0.0050890604
41	0x00000000	0.0
42	0x3e168636	0.14699635
43	0xbc09fa29	-0.008421459
44	0x394d87db	0.00019600934
45	0x3cbbd3d1	0.02292815
46	0x00000000	0.0
47	0x2fe44a8a	4.1525922e-10
48	0xbe30db55	-0.17271169
49	0x00000000	0.0
50	0x3e2e3ef4	0.17016202
51	0x00000000	0.0
52	0x00000000	0.0
53	0x00000000	0.0
54	0x00000000	0.0
55	0xbb4e6989	-0.003149601
56	0x00000000	0.0
57	0x00000000	0.0
58	0x00000000	0.0
59	0x00000000	0.0
60	0x3c98e551	0.018664034
61	0x00000000	0.0
62	0x3deb5efa	0.11492725
63	0x00000000	0.0
64	0xbed67cf8	-0.4189222
65	0x3da4af9b	0.080413066
66	0x3da4d016	0.08047502
67	0xbed9e36e	-0.42556328
68	0xbede07a3	-0.433652
69	0x3d8b7eef	0.0681132
70	0xbee759b1	-0.45185617
71	0xbf2225c4	-0.63338876
72	0x3d9f68d9	0.0778367
73	0x3d6dbab9	0.0580394
74	0xbed2014b	-0.4101661
75	0x3da91393	0.082556866
76	0xbef336ae	-0.47502655
77	0x3d5212ea	0.05128757
78	0xbefdf38a	-0.49599868
79	0xbee1ead5	-0.44124475
80	0xbeda6653	-0.42656192
81	0xbed9d894	-0.42548048
82	0x3d9c17a9	0.076217
83	0x3d904d28	0.070459664
84	0xbedc5f4e	-0.43041462
85	0x3d39e302	0.045382507
86	0xbef10e0b	-0.47081026
87	0xbed8a4fe	-0.4231338
88	0xbecb127a	-0.39662534
89	0xc038f50f	-2.8899572
90	0xbeef4d16	-0.467385
91	0xbee7e84a	-0.4529441
92	0xbed96bc4	-0.4246503
93	0xbedaf772	-0.4276691
94	0xbed1154a	-0.40836555
95	0xbed9c7e2	-0.4253531
96	0xc0537b08	-3.3043842
97	0x3e23f470	0.16011214
98	0x3d90b80a	0.07066353
99	0xbee3b39c	-0.4447297
100	0x3d75e712	0.06003482
101	0xbed4bc8c	-0.415501
102	0xbee4ab61	-0.44662002
103	0xbddc2b9f	-0.107505076
104	0x3e851d33	0.2599884
105	0xbee34441	-0.4438801
106	0x3d77bb46	0.060481332
107	0xbecd3cda	-0.4008549
108	0xbf97bd21	-1.1854593
109	0x3da76b07	0.08174711
110	0xbef3585a	-0.47528344
111	0xbf00f467	-0.5037293
112	0x3dc9112e	0.0981773
113	0xbee67e57	-0.45018265
114	0x3dda11fd	0.10647962
115	0xbed4086c	-0.41412675
116	0xbf7ef530	-0.99592876
117	0xbece56a1	-0.40300468
118	0xbee64032	-0.44970852
119	0x3d6a6adc	0.057230815
120	0xbee71fab	-0.45141348
121	0xbed7034d	-0.41994706
122	0xbee3af3a	-0.44469625
123	0xbedb6a8c	-0.42854726
124	0x3eaef5dc	0.3417195
125	0xbeff6fca	-0.49889976
126	0x3d3f02d8	0.04663357
127	0xbee12d4d	-0.43979874

convs.1.linear1.weight f4 [64, 64]
0	0x3e8d514f	0.27601096
1	0x3e183e84	0.14867598
2	0x3e14fbed	0.14549227
3	0x3e8453b8	0.25845122
4	0x3e2671a1	0.16254283
5	0xbd1b92bf	-0.037981745
6	0x3e7078a2	0.23483518
7	0x3edbacea	0.4290536
8	0x3ce295d4	0.027659334
9	0x3b9510ab	0.004549106
10	0x3e79d2c7	0.24396811
11	0x3de0d1ca	0.10977514
12	0x3ead1d5d	0.33811465
13	0xbc1d01bb	-0.009582932
14	0x3ec04d58	0.3755901
15	0x3ea777f5	0.32708707
16	0x3dc78306	0.097417876
17	0x3eb3ef61	0.3514357
18	0x3d8f9124	0.07010105
19	0x3e1c6a25	0.15274866
20	0x3e8894a2	0.26675898
21	0xbe1bc0ef	-0.15210317
22	0x3e505695	0.20345528
23	0x3ebaf1c0	0.36512566
24	0x3e15df4f	0.14635967
25	0x3f9532bb	1.1656107
26	0x3e5b8c9e	0.2144036
27	0x3e8537bf	0.26019093
28	0x3eb16e59	0.346545
29	0x3e974686	0.29545993
30	0x3ebd9438	0.37027144
31	0x3e636149	0.2220508
32	0x3f5d7140	0.8650093
33	0x3ea16167	0.31519625
34	0x3e2761a2	0.16345838
35	0x3e3f529e	0.1868386
36	0xbd7d0cfc	-0.06177996
37	0x3e3d401a	0.18481484
38	0x3e93f195	0.2889525
39	0xbe5c2d82	-0.21501735
40	0x3e006e16	0.12541994
41	0x3ecf2256	0.40455884
42	0xbd9c65aa	-0.076365784
43	0xbe728967	-0.23685227
44	0x3eed2e87	0.4632456
45	0x3daacf43	0.08340313
46	0x3eceecf8	0.40415168
47	0x3db2b00b	0.08724984
48	0x3b5d0a31	0.0033727998
49	0x3deac154	0.11462656
50	0x3e3ae0a3	0.18249755
51	0x3eb8e5dd	0.36112872
52	0x3f0ae528	0.54255915
53	0x3ea9e769	0.33184364
54	0x3ec52039	0.38501146
55	0x3ee3dce4	0.44504464
56	0x3e90cbc2	0.28280455
57	0x3e9c7704	0.30559552
58	0x3e248e75	0.16069968
59	0x3e655abc	0.22397894
60	0x3f1fb789	0.6238943
61	0x3ea59682	0.3234139
62	0xbdc03244	-0.093845874
63	0x3e8163e1	0.25271514
64	0x3e95b29b	0.29237828
65	0xbd94b01c	-0.07260153
66	0x3ddac5db	0.10682269
67	0x3e44a049	0.19201769
68	0x3e4b804f	0.19873165
69	0xbca12da3	-0.019675082
70	0x3eabe0e0	0.33570004
71	0x3dcdbccd	0.100457765
72	0x3da3496e	0.0797299
73	0xbd16915f	-0.03675973
74	0x3e03f958	0.12888086
75	0x3e01e934	0.12686616
76	0x3e6fec09	0.23429884
77	0xbdf5f538	-0.120096624
78	0x3ea00b63	0.31258687
79	0x3e9805ef	0.29692027
80	0x3e2a6309	0.16639341
81	0x3e0a0a56	0.13480505
82	0x3cd34d30	0.025793642
83	0x3d983c7a	0.0743341
84	0x3de77d89	0.11303241
85	0xbc463701	-0.012098075
86	0x3ea6fc23	0.3261424
87	0x3e129fc9	0.14318766
88	0x3db59846	0.088669345
89	0x3eda87f9	0.42681864
90	0x3dbf2fff	0.093353264
91	0x3eb2d62b	0.34929022
92	0x3e78defa	0.24303809
93	0x3e359c21	0.1773534
94	0x3ea6e7c7	0.32598707
95	0x3eab0075	0.33398786
96	0x3ebcd166	0.36878508
97	0xbcfc3691	-0.030787738
98	0xbd8dce8d	-0.06924162
99	0x3ea0c61d	0.31401148
100	0x3d2668b9	0.040627215
101	0x3e9d13e4	0.30679238
102	0x3e712fa2	0.23553327
103	0xbed22557	-0.41044113
104	0xbd84ae0f	-0.064785115
105	0x3de46da4	0.11153725
106	0xbdd95642	-0.106121555
107	0xbe8cd896	-0.27508992
108	0x3eacc3a8	0.33743024
109	0x3cac0cd4	0.02100221
110	0x3e47c09f	0.19507073
111	0x3e7ede94	0.24889594
112	0xbbcfce75	-0.0063417503
113	0x3e9f4819	0.31109694
114	0x3c380a87	0.011232979
115	0x3e9357fe	0.2877807
116	0x3e520c52	0.20512512
117	0x3e2071d0	0.15668416
118	0x3e5b166a	0.21395269
119	0x3e3e07ac	0.18557614
120	0x3e8389a8	0.2569096
121	0x3e58b186	0.2116147
122	0x3dd0b2a0	0.1019032
123	0x3e9b405c	0.3032254
124	0x3f0623f4	0.5239861
125	0x3e137935	0.14401706
126	0x3c904ce8	0.017614797
127	0x3eaff75b	0.34368405
128	0x3e4f33ad	0.20234556
129	0x3e4053a3	0.18781905
130	0x3e01a77a	0.12661543
131	0x3e9d726c	0.3075136
132	0x3ea51cfe	0.32248682
133	0x3c0243ab	0.007950704
134	0x3e8519a8	0.25996137
135	0x3ecebf40	0.40380287
136	0x3e415f03	0.188839
137	0x3cc3ac89	0.023885982
138	0x3eb1954e	0.34684223
139	0xbc857226	-0.016289782
140	0x3e675490	0.22590852
141	0xbd919cee	-0.0711001
142	0x3ecf7467	0.40518495
143	0x3e845fce	0.25854343
144	0x3da55584	0.080729514
145	0x3e623fe3	0.22094683
146	0x3d1af2ff	0.037829395
147	0xbb363b46	-0.0027806326
148	0x3eb33ffa	0.35009748
149	0x3d5a3ef4	0.053282693
150	0x3ed54eea	0.4166177
151	0x3e8006c4	0.25005162
152	0x3e3e6f52	0.18597153
153	0x3f8dc489	1.1075603
154	0x3e0eab5d	0.13932557
155	0x3e985e5b	0.29759488
156	0x3ea1b94a	0.31586677
157	0x3e112b33	0.14176635
158	0x3e2ef6c0	0.17086315
159	0x3e4eae52	0.20183685
160	0x3f838421	1.0274698
161	0x3e3614f8	0.17781436
162	0x3e06d042	0.13165382
163	0x3e90038b	0.28127703
164	0x3d8324ea	0.06403525
165	0x3dd8b5ee	0.10581575
166	0x3e7a601a	0.24450722
167	0xbed7382c	-0.42035043
168	0x3db44289	0.08801753
169	0x3ebbea56	0.36702222
170	0x3d22c220	0.039735913
171	0xbe310563	-0.17287211
172	0x3f19cd95	0.6007932
173	0x3cf7b97e	0.030239817
174	0x3ec98d40	0.39365578
175	0x3e92fedb	0.28710064
176	0x3e087f91	0.13329913
177	0x3e153004	0.14569098
178	0x3d9ee18c	0.077578634
179	0x3e4c16cd	0.19930573
180	0x3ee385e8	0.444381
181	0x3e843c09	0.25827053
182	0x3ecc5c47	0.39914152
183	0x3ed44c5e	0.41464514
184	0x3e8045a3	0.2505313
185	0x3e78656b	0.24257438
186	0x3e857dbc	0.2607249
187	0x3e8efc76	0.27926987
188	0x3f33d88d	0.70252305
189	0x3edd19d7	0.43183777
190	0x3df78be4	0.12087229
191	0x3eaed97c	0.34150302
192	0xbe1d9c70	-0.15391707
193	0xbcd4702a	-0.02593239
194	0x3d6eee7c	0.058332905
195	0xbe6123c6	-0.21986303
196	0xbec2b351	-0.38027433
197	0xbd3c1558	-0.045918792
198	0xbeab9c96	-0.33517903
199	0xbea429e5	-0.32063213
200	0xbdf429e3	-0.11922052
201	0x3e09ecf2	0.13469294
202	0xbe8248fd	-0.2544631
203	0x3da30340	0.07959604
204	0xbe9a49c6	-0.3013441
205	0x3d92dd81	0.07171155
206	0xbec6f3f3	-0.38857993
207	0xbedf4705	-0.4360887
208	0xbe744371	-0.23853852
209	0xbe85fcd2	-0.2616945
210	0xbde24c7d	-0.11049745
211	0xbddd21ff	-0.107975
212	0xbe6e6b63	-0.23283152
213	0x3e19f489	0.15034689
214	0xbe9ec6e8	-0.31011128
215	0xbe9de1c0	-0.30836296
216	0xbed39c86	-0.41330355
217	0xc04ae3fa	-3.1701646
218	0xbe8707a5	-0.2637302
219	0xbea2dca1	-0.31808951
220	0xbe67cb1a	-0.22636071
221	0xbed4d044	-0.41565144
222	0xbeebef12	-0.46080834
223	0xbe5d2fdb	-0.21600287
224	0xc01add52	-2.4197583
225	0xbe99dbb1	-0.30050424
226	0xbe094c02	-0.13407901
227	0xbededca6	-0.43527716
228	0x3d8af6ad	0.06785331
229	0xbec8eaef	-0.3924174
230	0xbe3ed028	-0.18634093
231	0x3ec3b0c0	0.38220787
232	0xbe01658d	-0.12636395
233	0xbe9235ed	-0.28556767
234	0x3c29c445	0.010361736
235	0x3e15084c	0.14553946
236	0xbf4da897	-0.8033537
237	0xbde47f7a	-0.11157127
238	0xbecf299e	-0.4046144
239	0xbdff6575	-0.12470523
240	0xbd197e5f	-0.037474032
241	0xbecae6b2	-0.39629132
242	0xbdb71c3d	-0.08940933
243	0xbed11230	-0.40834188
244	0xbf6db435	-0.928531
245	0xbe2a7b10	-0.16648507
246	0xbecf2e46	-0.4046499
247	0xbf04ade3	-0.5182783
248	0xbeb5d91a	-0.35517198
249	0xbe83e306	-0.25759143
250	0xbead8a48	-0.33894563
251	0xbe31f980	-0.17380333
252	0xbf257b86	-0.64641607
253	0xbf02798d	-0.5096672
254	0xbdb28f68	-0.08718759
255	0xbe752400	-0.23939514

convs.1.linear1.bias f4 [64]
0	0xbea5200b	-0.3225101
1	0xbe2058a2	-0.1565881
2	0xbea965d7	-0.3308551
3	0x3ea77e2e	0.32713455
4	0xbedef27f	-0.43544385
5	0x3ea3b71c	0.3197564
6	0xbedfb309	-0.4369128
7	0x3ec63b1e	0.38716978
8	0x3eb31878	0.34979606
9	0xbea79547	-0.32731077
10	0x3eb006c6	0.34380168
11	0xbe81cd45	-0.2535192
12	0x3eb8a96a	0.36066753
13	0xbecff759	-0.406184
14	0x3ed5cf1b	0.4175957
15	0xbe919b4c	-0.28438795
16	0xbe876b5a	-0.2644909
17	0x3ebf1af8	0.37325263
18	0x3ecffb3f	0.40621373
19	0x3ed45ae4	0.41475594
20	0x3ee1c417	0.44094917
21	0x3eb2753e	0.34855074
22	0xbe99b2a9	-0.3001912
23	0x3edcf613	0.4315649
24	0x3ed063f2	0.40701252
25	0x3e3b8172	0.18311098
26	0xbe8e9f86	-0.27856082
27	0x3eafa618	0.34306407
28	0x3ea7f21e	0.32801908
29	0xbea8d48d	-0.32974663
30	0xbe84b9cb	-0.25923
31	0x3ebdfe49	0.37108067
32	0xbedd05f6	-0.4316861
33	0xbec088ab	-0.3760427
34	0x3eba49bf	0.3638439
35	0x3ebe9606	0.37223834
36	0x3ecc7e93	0.39940318
37	0xbee41dc5	-0.44553962
38	0xbea84ca7	-0.3287098
39	0x3eb23e89	0.34813336
40	0xbec107eb	-0.37701353
41	0x3ec3ae4a	0.3821891
42	0x3ed77dde	0.42088217
43	0x3ed4fa62	0.41597277
44	0x3eabcea4	0.33556092
45	0xbee85881	-0.45380023
46	0x3ecd1cf9	0.40061167
47	0xbec4fe3f	-0.38475224
48	0x3eaf5fc4	0.3425275
49	0x3eb19a69	0.34688118
50	0xbec97955	-0.39350381
51	0x3ed89cb3	0.42307052
52	0xbe8d6d3d	-0.27622405
53	0xbeb8f164	-0.36121666
54	0xbeb853e2	-0.36001498
55	0xbeae38ee	-0.3402781
56	0x3ecbab49	0.39779118
57	0xbeb7f466	-0.3592865
58	0x3ebb381e	0.36566252
59	0xbebfb71a	-0.37444383
60	0xbe8da4a5	-0.27664676
61	0x3e21ec01	0.15812685
62	0x3ee211d0	0.44154215
63	0xbede532f	-0.4342284

convs.1.linear2.weight f4 [64, 64]
0	0xbe94981a	-0.29022294
1	0xbe72abf5	-0.23698409
2	0xbec61c58	-0.386935
3	0x3edae28d	0.4275097
4	0xbe6bc993	-0.23026113
5	0x3eb81d41	0.3595982
6	0xbe724ea1	-0.23662807
7	0x3f1e3db5	0.6181291
8	0x3eef3c07	0.46725485
9	0xbee6304d	-0.44958726
10	0x3ebf80a7	0.3740284
11	0xbedc14b9	-0.4298456
12	0x3e71d964	0.23618084
13	0xbeef919b	-0.46790776
14	0x3eaa01e8	0.3320458
15	0xbed00fc9	-0.40637043
16	0xbe8ec5a0	-0.2788515
17	0x3ea86d2e	0.32895797
18	0x3e966665	0.29374996
19	0x3ebc31a2	0.36756617
20	0x3f4408e7	0.76576084
21	0x3eb4a6f6	0.3528363
22	0xbf0a0b6f	-0.53923696
23	0x3ed5fabc	0.41792858
24	0x3eeaa672	0.45830113
25	0x3df188cc	0.1179367
26	0xbf547f21	-0.83006483
27	0x3e960812	0.29303032
28	0x3ebaa6fe	0.3645553
29	0xbeb5bed4	-0.35497153
30	0xbe98f0aa	-0.29871112
31	0x3ea85b6d	0.32882252
32	0xbec9931f	-0.39370057
33	0xbe96110d	-0.29309884
34	0x3e87c63e	0.26518434
35	0x3e7a724c	0.24457663
36	0x3e9f5a5f	0.31123635
37	0xbe4e3c79	-0.20140256
38	0xbeed4b07	-0.46346304
39	0x3efa4e69	0.48887947
40	0xbebe7512	-0.37198693
41	0x3e813cdd	0.25241747
42	0x3ea1f819	0.31634596
43	0x3f036b6e	0.513358
44	0x3e8e95a6	0.27848548
45	0xbe86b052	-0.26306397
46	0x3eb07961	0.34467605
47	0xbe989418	-0.29800487
48	0x3ec1c099	0.37842253
49	0x3ec5020b	0.3847812
50	0xbed89070	-0.42297697
51	0x3ed1bcc9	0.40964344
52	0xbeb0d001	-0.34533694
53	0xbf077b7f	-0.52922815
54	0xbe6febff	-0.23429869
55	0xbe7928cb	-0.24331968
56	0x3f07d843	0.53064364
57	0xbef0cc28	-0.4703076
58	0x3ea2308b	0.3167766
59	0xbeb0fde2	-0.34568697
60	0xbf03881b	-0.51379555
61	0x3e19fd9b	0.15038149
62	0x3e555615	0.20833619
63	0xbe459621	-0.19295551
64	0xbeba3949	-0.3637183
65	0xbe6a3909	-0.2287332
66	0xbead837f	-0.33889386
67	0x3ed56eab	0.41685995
68	0xbe9cebd7	-0.30648682
69	0x3eb9e282	0.36305624
70	0xbe956251	-0.29176572
71	0x3f368785	0.71300536
72	0x3e926a17	0.28596565
73	0xbee64019	-0.44970778
74	0x3ebcffe2	0.36913973
75	0xbee49a97	-0.44649193
76	0x3ec349c5	0.3814222
77	0xbe9fbd07	-0.31198904
78	0x3ec771b6	0.38953942
79	0xbee46796	-0.4461028
80	0xbeafeb6a	-0.34359294
81	0x3e999f5a	0.30004388
82	0x3e894bb0	0.26815557
83	0x3e7c69d9	0.24649753
84	0x3f4c1b59	0.7972923
85	0x3e365393	0.17805319
86	0xbed9c1c1	-0.42530635
87	0x3e9158d2	0.28388077
88	0x3eddbb58	0.43306994
89	0x3d950001	0.07275391
90	0xbf2ad3e8	-0.66729593
91	0x3ea258f9	0.31708506
92	0x3eb3b4bb	0.35098824
93	0xbeeaa9b1	-0.4583259
94	0xbeb8d5d3	-0.36100635
95	0x3ec7fc14	0.39059508
96	0xbef09471	-0.46988252
97	0xbebaef4a	-0.36510688
98	0x3eecd966	0.46259612
99	0x3e77d80d	0.2420351
100	0x3e9153d4	0.28384268
101	0xbe8205d3	-0.2539507
102	0xbe99991f	-0.29999635
103	0x3ee4ad95	0.44663683
104	0xbeac2f11	-0.3362966
105	0x3e3bd8c0	0.18344402
106	0x3ebb71d1	0.36610273
107	0x3f0fedf5	0.5622247
108	0x3e93ac26	0.28842276
109	0xbe9b5480	-0.30337906
110	0x3e595850	0.21225095
111	0xbeac9737	-0.33709118
112	0x3edbfafc	0.42964923
113	0x3e868898	0.26276088
114	0xbf10f5cc	-0.56625056
115	0x3ebf4685	0.3735849
116	0xbe5f6c4e	-0.21818659
117	0xbf07f52f	-0.53108495
118	0xbecb9456	-0.3976161
119	0xbe327763	-0.17428355
120	0x3ed9061c	0.42387474
121	0xbe9e0b1e	-0.30867857
122	0x3e74e495	0.23915322
123	0xbede8d6f	-0.4346728
124	0xbef41f32	-0.4768005
125	0x3dbb8a4a	0.09157236
126	0x3ea30c06	0.3184511
127	0xbe4863b8	-0.1956929
128	0x3eb7578b	0.35808977
129	0x3dfb8820	0.12281823
130	0x3e9bc0c7	0.30420515
131	0xbeb3ccbb	-0.35117134
132	0x3e3700e9	0.17871441
133	0xbe95aeaa	-0.2923482
134	0x3ea663b0	0.3249793
135	0xbf22bad9	-0.63566357
136	0xbed92ee1	-0.42418578
137	0x3eb5acc7	0.3548338
138	0xbeac4520	-0.33646488
139	0x3e9eae9e	0.30992597
140	0xbe91a1c2	-0.28443724
141	0x3ec366cb	0.38164362
142	0xbe39c9e7	-0.18143426
143	0x3e9d68ce	0.30744022
144	0x3eb9abf8	0.36264014
145	0xbebc5dd5	-0.36790338
146	0xbe3d8735	-0.18508609
147	0xbe8d135f	-0.2755384
148	0xbf40c629	-0.7530237
149	0xbe9b0797	-0.30279228
150	0x3ebd9d96	0.3703429
151	0xbe8de462	-0.27713305
152	0xbe7b17d1	-0.24520804
153	0xbc8744b8	-0.01651226
154	0x3f1a8198	0.60353994
155	0xbe999d53	-0.3000284
156	0xbe2f8f3a	-0.1714448
157	0x3eaf41eb	0.3422998
158	0x3ec72d4b	0.38901743
159	0xbe60fe56	-0.21972021
160	0x3e8fa9b5	0.28059164
161	0x3e25c93a	0.16190043
162	0xbeae8e92	-0.34093148
163	0xbe8267d0	-0.25469828
164	0xbe02fa7f	-0.12790869
165	0x3ea0a0e5	0.31372753
166	0x3e69fe51	0.2285092
167	0xbec35530	-0.3815093
168	0x3e609ec6	0.21935567
169	0xbe493d71	-0.19652344
170	0xbe945029	-0.28967407
171	0xbf02a048	-0.5102582
172	0xbe659dca	-0.22423473
173	0x3e58a708	0.21157467
174	0xbe60114a	-0.21881595
175	0x3e87db01	0.26534274
176	0xbee85049	-0.45373753
177	0xbec846a1	-0.39116386
178	0x3ebdb8cf	0.3705506
179	0xbe858834	-0.26080477
180	0x3e8c49da	0.27400094
181	0x3eb36e14	0.3504492
182	0x3ea9e481	0.33182147
183	0x3eb0fc45	0.34567466
184	0xbf0a6c48	-0.54071474
185	0x3ec44838	0.3833635
186	0xbe93c898	-0.28863978
187	0x3e5150d9	0.20440997
188	0x3ea6c249	0.32570103
189	0x3d279274	0.040911153
190	0xbea049b9	-0.31306246
191	0x3e4f40a3	0.202395
192	0xbed88a33	-0.42292938
193	0xbe75af15	-0.2399257
194	0xbeac0479	-0.33597162
195	0x3ea6e799	0.3259857
196	0xbea4a961	-0.32160476
197	0x3ee3fa98	0.44527125
198	0xbe871d85	-0.2638971
199	0x3f1340e0	0.57520866
200	0x3ecd8d5f	0.4014692
201	0xbea467cd	-0.32110444
202	0x3e7f7849	0.24948229
203	0xbed2f4ef	-0.41202495
204	0x3eb40a8b	0.35164294
205	0xbead643d	-0.33865538
206	0x3e486f3c	0.19573683
207	0xbebfc0a2	-0.37451655
208	0xbe8d05c5	-0.27543464
209	0x3e982f81	0.29723743
210	0x3e718a14	0.23587829
211	0x3ebced28	0.36899686
212	0x3f39d686	0.7259296
213	0x3eaf0703	0.34185037
214	0xbf0235bc	-0.5086324
215	0x3e9a8015	0.30175844
216	0x3ee964c5	0.45584694
217	0x3e72df52	0.23718002
218	0xbf1cc9db	-0.61245507
219	0x3e12fa60	0.14353323
220	0x3e49e1dc	0.19715065
221	0xbed4ff24	-0.41600907
222	0xbe8fc019	-0.28076246
223	0x3ed628ee	0.41828102
224	0xbebf1198	-0.3731811
225	0xbeb158d9	-0.34638098
226	0x3ec2dc4d	0.380587
227	0x3eadc662	0.33940417
228	0x3e53ed26	0.20695934
229	0xbe5f7b89	-0.21824469
230	0xbeccdf8d	-0.40014306
231	0x3eb0918f	0.34486052
232	0xbebbcdf3	-0.36680564
233	0x3e1caafd	0.15299602
234	0x3ead11bf	0.33802602
235	0x3f0ac3ab	0.54204816
236	0x3ea698d2	0.32538468
237	0xbe6e32ef	-0.23261617
238	0x3ed08c8d	0.40732232
239	0xbeed62e0	-0.46364498
240	0x3ecac0bf	0.3960018
241	0x3eddf0fd	0.43347922
242	0xbf13ecb0	-0.5778303
243	0x3e963345	0.2933599
244	0xbe8f6e57	-0.2801387
245	0xbea004f2	-0.31253773
246	0xbeba6ed9	-0.36412695
247	0xbe290f36	-0.16509709
248	0x3f14a9fb	0.5807187
249	0xbecd6f9f	-0.40124223
250	0x3ea6968c	0.32536733
251	0xbe90bf0d	-0.2827076
252	0xbedf1019	-0.4356697
253	0x3e51724d	0.20453759
254	0x3eb1ea37	0.34749004
255	0xbe2393f1	-0.15974404

convs.1.linear2.bias f4 [64]
0	0x3ed16a19	0.4090126
1	0x3ea26e13	0.31724605
2	0xbea9e203	-0.33180246
3	0x3ebe2fe3	0.3714591
4	0xbe4b48c9	-0.19851984
5	0xbc0a13fd	-0.008427617
6	0xbed409d3	-0.41413745
7	0xbdcee6ad	-0.10102592
8	0x3eb6ef25	0.35729328
9	0x3eabc557	0.33548996
10	0xbea81a3a	-0.3283251
11	0x3eae5743	0.3405095
12	0xb9badd40	-0.0003564153
13	0xbe8fd160	-0.28089428
14	0x3eb7e6f3	0.35918388
15	0xbd2e78d2	-0.042595692
16	0x3ea77113	0.32703456
17	0xbed03f9c	-0.4067353
18	0xbebb2d49	-0.36557987
19	0x3ea5f88c	0.3241619
20	0xbec1c558	-0.37845874
21	0xbea157eb	-0.3151239
22	0x3e9f54d9	0.3111942
23	0x3ece85c2	0.40336424
24	0xbea23e5e	-0.31688207
25	0xbeaeff7a	-0.34179288
26	0x3edd0d0c	0.43174016
27	0xbe6d08f8	-0.23147953
28	0xbeb8b598	-0.36076045
29	0xbeac6cad	-0.33676663
30	0x3eb1a6f0	0.34697676
31	0x3eae8885	0.3408853
32	0xbeb96775	-0.36211744
33	0xbeac87fc	-0.33697498
34	0xbecba8e9	-0.39777306
35	0xbea22e0c	-0.31675756
36	0xbeb010b3	-0.3438774
37	0xbea29347	-0.3175299
38	0x3ea88978	0.3291738
39	0xbea9c767	-0.33159944
40	0x3ea84a5b	0.3286923
41	0x3ea86a5b	0.32893643
42	0xbece798b	-0.40327105
43	0x3eb2fc3e	0.3495807
44	0xbe9f3c04	-0.31100476
45	0xbe88ca67	-0.2671692
46	0xbea1c430	-0.31594992
47	0xbe711c81	-0.2354603
48	0xbe923197	-0.2855346
49	0x3e805dac	0.25071466
50	0x3ed7f031	0.4217544
51	0xbec38697	-0.3818862
52	0x3eb04169	0.34424904
53	0x3ebac846	0.36480922
54	0xbe89a694	-0.26884902
55	0xbe9c6aaf	-0.30550143
56	0xbbb7f21a	-0.0056135776
57	0x3eb9a291	0.3625684
58	0x3ec933ca	0.39297324
59	0xbebeaff1	-0.37243608
60	0xbebf9ac0	-0.37422752
61	0xbeca042b	-0.39456305
62	0x3e98d003	0.298462
63	0xbecb30cd	-0.3968567
