Saved_Models/TSP_500/scatgnn_layer_2_hid_64_model_250_temp_3.500.pth (torch, 257863 bytes, 24 tensors)

bn0.weight f4 [2]
1.0 1.0
00000000: 0000 803f 0000 803f

bn0.bias f4 [2]
0.0 0.0
00000000: 0000 0000 0000 0000

bn0.running_mean f4 [2]
0.0 0.0
00000000: 0000 0000 0000 0000

bn0.running_var f4 [2]
1.0 1.0
00000000: 0000 803f 0000 803f

in_proj.weight f4 [64, 2]
-0.2615052 -0.9704284 0.99008256 0.23191929 0.55446845 -1.0129817 -0.778763 0.92862946
-0.4380018 -0.7074711 0.4086706 1.1197023 -0.8695233 -0.61071396 0.6920925 1.1089677
0.91986376 0.83874315 0.7268565 -0.64262563 0.2595911 -0.7363412 -0.12717584 -0.7452564
0.89886165 0.64412326 0.7123716 0.98901534 -0.44484958 1.0844232 0.8790858 1.0065576
-0.47813544 -0.82345027 -0.25591287 -1.1713489 -0.119230725 -1.1120486 -0.69850945 0.49363464
0.03032976 0.6748742 -0.40389884 0.38707578 -1.0896031 -0.5869746 0.7101828 0.7564939
0.3447118 0.12778763 -0.894586 -0.3622495 -0.75736284 0.29085112 0.4488002 1.1720862
-0.5851522 0.883109 0.03061381 -0.6251567 -0.82359433 0.80325586 -0.20148936 -0.96483475
-0.94124013 0.32674772 -0.44661337 0.92717314 -0.37646767 -1.0511916 -0.8361725 -1.0089566
-0.014782833 -0.7035649 1.0225825 -0.3956005 -0.9116175 -0.66744834 1.0351663 -0.46754658
-0.9672527 0.15004891 0.5800167 -0.85815024 -1.0093783 -0.17168182 0.2424761 0.4254148
0.9602044 -0.73909 0.5914303 0.33958226 -0.3126014 -0.8871104 -1.0376765 0.33452493
0.19249998 0.86247265 -0.7514796 0.29843193 0.14321804 -0.968184 -0.91787374 -0.017135842
-1.1387756 0.06755036 -0.25506055 0.9843302 -0.82328486 -0.8551968 0.8637588 0.42523122
-0.94664836 0.18376383 -0.5497313 -0.76579404 -0.063396655 -0.8570731 0.046243116 0.82282895
-0.47315985 0.41230586 0.6349408 -0.20800354 0.5947967 -0.42048573 -0.26563853 0.15365422
00000000: 02e4 85be ff6d 78bf 0d76 7d3f 407c 6d3e
00000010: a5f1 0d3f 62a9 81bf 035d 47bf a9ba 6d3f
00000020: c641 e0be d31c 35bf 463d d13e 6852 8f3f
00000030: 1499 5ebf c057 1cbf f92c 313f a7f2 8d3f
00000040: 317c 6b3f dfb7 563f 4513 3a3f 1d83 24bf
00000050: 20e9 843e db80 3cbf 623a 02be 20c9 3ebf
00000060: cc1b 663f 43e5 243f fc5d 363f 1c30 7d3f
00000070: 53c3 e3be 61ce 8a3f c40b 613f e1d6 803f
00000080: 2bce f4be a3cd 52bf 0307 83be c3ee 95bf
00000090: 3d2f f4bd 9c57 8ebf 84d1 32bf aebd fc3e
000000a0: 1e76 f83c 8ec4 2c3f d4cb cebe cc2e c63e
000000b0: 1d78 8bbf f843 16bf 8ace 353f 96a9 413f
000000c0: 117e b03e c3da 023e 9703 65bf c478 b9be
000000d0: 88e2 41bf 70ea 943e 24c9 e53e ec06 963f
000000e0: 89cc 15bf 6e13 623f d0c9 fa3c 450a 20bf
000000f0: 14d7 52bf 2da2 4d3f 3a53 4ebe 69ff 76bf
00000100: 1df5 70bf 7a4b a73e 82aa e4be 385b 6d3f
00000110: 5fc0 c0be 728d 86bf 670f 56bf 7d25 81bf
00000120: b233 72bc d41c 34bf fce3 823f 268c cabe
00000130: c45f 69bf e5dd 2abf 5480 843f 4462 efbe
00000140: df9d 77bf 6ca6 193e f97b 143f bcaf 5bbf
00000150: 4f33 81bf 5ccd 2fbe a84b 783e f8cf d93e
00000160: f5cf 753f 0135 3dbf fa67 173f badd ad3e
00000170: 4a0d a0be ab19 63bf 95d2 84bf da46 ab3e
00000180: b71e 453e 02cb 5c3f f860 40bf 12cc 983e
00000190: c0a7 123e e8da 77bf c6f9 6abf 7760 8cbc
000001a0: 66c3 91bf d857 8a3d 4c97 82be 10fd 7b3f
000001b0: ccc2 52bf 2dee 5abf 4c1f 5d3f e8b7 d93e
000001c0: 8c57 72bf 962c 3c3e 31bb 0cbf 140b 44bf
000001d0: 1bd6 81bd 2569 5bbf 6c69 3d3d eba4 523f
000001e0: 0242 f2be c119 d33e 7b8b 223f e1fe 54be
000001f0: 9944 183f e849 d7be c601 88be 8857 1d3e

in_proj.bias f4 [64]
-0.36038408 -0.55423003 -0.75380355 0.560013 0.6292491 0.6348379 -0.6064044 0.041754432
0.38801092 -0.8393044 0.6325576 0.6411154 0.6849796 0.55905414 0.3694281 0.8321352
0.39822096 0.48941493 0.40995854 0.30761912 -0.5387174 -0.6668032 0.5849442 -0.015066734
-0.6531705 -0.7453535 -0.34545833 -0.2005362 0.43603802 0.2183491 0.12200015 -0.8291433
0.11849097 0.6333324 0.17903674 -0.6012678 -0.22848712 -0.16940974 0.15302612 -0.01292638
0.19023234 -0.29662228 -0.6437164 0.76211464 0.51081663 0.4149759 -0.14226922 -0.844728
0.39745098 0.32102567 0.36598456 0.32426456 0.39079398 -0.01042363 -0.43191406 0.1445604
0.7072555 -0.27648774 0.7688827 0.2364347 0.93936175 0.76783484 -0.43831462 -0.93925244
00000000: 4384 b8be 05e2 0dbf 45f9 40bf 035d 0f3f
00000010: 7816 213f bd84 223f 523d 1bbf b206 2b3d
00000020: 5ea9 c63e a7dc 56bf 4bef 213f 2420 243f
00000030: d35a 2f3f 2c1e 0f3f ae25 bd3e d006 553f
00000040: 9ee3 cb3e 9894 fa3e 16e6 d13e 4180 9d3e
00000050: 62e9 09bf 9db3 2abf e7be 153f 76da 76bc
00000060: 2f36 27bf 7dcf 3ebf eadf b0be 5d59 4dbe
00000070: 6040 df3e e896 5f3e 37db f93d bc42 54bf
00000080: 65ab f23d 1222 223f 6855 373e b0ec 19bf
00000090: 87f8 69be bf79 2dbe e1b2 1c3e 2bc9 53bc
000000a0: 44cc 423e e0de 97be 99ca 24bf f219 433f
000000b0: e1c4 023f b977 d43e 06af 11be 1840 58bf
000000c0: b27e cb3e 7a5d a43e 5462 bb3e 0106 a63e
000000d0: 2616 c83e dfc7 2abc d723 ddbe a407 143e
000000e0: b20e 353f cd8f 8dbe 7fd5 443f f01b 723e
000000f0: 037a 703f d390 443f c66a e0be d972 70bf

convs.0.a f4 [128, 1]
0.02945901 0.037647676 0.07169308 0.12671992 0.01790691 0.06455753 -0.053087253 -0.0037542153
-0.005813468 0.052749075 0.052108984 -0.0020093257 0.043490134 0.07250875 0.08992472 0.085723765
-0.0441025 -0.010842798 0.0272147 0.02835526 0.01126392 0.046881165 -0.027240861 -0.051991343
0.007270441 -0.04336662 0.037127256 0.016266018 0.049169734 0.037363328 0.0204529 0.049621686
-0.0027650513 0.011227843 -0.05019875 -0.034384128 0.04889355 0.14071338 -0.071111776 0.1243093
0.0014175616 0.09675384 -0.021557722 0.077986285 0.16016291 0.07231208 -0.01119235 0.030605938
0.010433437 -0.03497434 0.085964344 -0.005001742 0.046651628 0.031338643 -0.038442314 0.0467864
-0.045765363 -0.052422725 0.014802949 0.07668364 0.0039491444 0.14902644 0.060706466 0.004837088
0.018408783 -0.17337081 -0.27651402 0.28796807 -0.08396138 0.5768392 -0.094429865 0.75333464
0.842992 -0.31037048 -0.1250392 -0.06624981 0.2730091 0.6167391 0.7029514 0.31689006
-0.5971751 -0.37486875 -0.5762169 0.3830556 0.08935416 -0.17236614 -0.2589445 0.7199129
0.027834553 -0.07148821 -0.11019132 0.4262081 0.355616 -0.7642019 0.44867644 0.047152586
0.31139404 0.2992103 -0.25985155 -0.15386777 -0.023213701 0.068588525 -0.08684013 0.3812548
0.23616597 -0.26566175 -0.14596058 0.24914116 -0.17410019 0.26518276 -0.030491345 -0.10557732
1.1240253 -0.10145161 -0.6121472 -0.39892048 -0.21281374 0.95117456 -0.20246863 0.47324964
0.010707599 -0.14416538 -0.06378257 1.5261859 0.14734812 0.10345973 -0.14765278 0.035179727
00000000: 0654 f13c 7334 1a3d d2d3 923d dec2 013e
00000010: 83b1 923c bd36 843d 0572 59bd 4809 76bb
00000020: e77e bebb 6a0f 583d 3b70 553d e4ae 03bb
00000030: b622 323d 787f 943d 742a b83d f18f af3d
00000040: d3a4 34bd fea5 31bc 5df1 de3c 4a49 e83c
00000050: 4e8c 383c 7706 403d 3a28 dfbc e0f4 54bd
00000060: e13c ee3b 32a1 31bd c012 183d 5040 853c
00000070: 3466 493d 4a0a 193d d78c a73c 1c40 4b3d
00000080: dd35 35bb fdf4 373c 349d 4dbd 5fd6 0cbd
00000090: 9a44 483d 2b17 103e 0da3 91bd e095 fe3d
000000a0: 79cd b93a e126 c63d d299 b0bc 46b7 9f3d
000000b0: bf01 243e 5b18 943d 1e60 37bc 4eb9 fa3c
000000c0: 02f1 2a3c 4141 0fbd 130e b03d a7e5 a3bb
000000d0: c715 3f3d f35c 003d b075 1dbd 19a3 3f3d
000000e0: 7674 3bbd 36b9 56bd 1188 723c 500c 9d3d
000000f0: d367 813b 639a 183e 58a7 783d 6f80 9e3b
00000100: 04ce 963c 1e88 31be 3f93 8dbe 8d70 933e
00000110: f2f3 abbd bcab 133f 7264 c1bd 8ada 403f
00000120: 53ce 573f e1e8 9ebe 470a 00be fbad 87bd
00000130: d9c7 8b3e 9de2 1d3f 9ff4 333f 6a3f a23e
00000140: 78e0 18bf ccee bfbe f382 13bf dd1f c43e
00000150: 50ff b63d c080 30be 6094 84be 364c 383f
00000160: 4a05 e43c 6968 92bd fdab e1bd f337 da3e
00000170: 4d13 b63e bca2 43bf ebb8 e53e 1223 413d
00000180: 0a6f 9f3e 1832 993e 430b 85be 838f 1dbe
00000190: a92a bebc 2478 8c3d 3dd9 b1bd d433 c33e
000001a0: 7ed5 713e d104 88be b176 15be dc1e 7f3e
000001b0: 5247 32be 09c6 873e fcc8 f9bc ec38 d8bd
000001c0: 10e0 8f3f ddc5 cfbd aeb5 1cbf 4e3f ccbe
000001d0: d8eb 59be 2d80 733f f053 4fbe c74d f23e
000001e0: ed6e 2f3c 17a0 13be 70a0 82bd 0f5a c33f
000001f0: 6de2 163e b2e2 d33d 4a32 17be 9e18 103d

convs.0.linear1.weight f4 [64, 64]
0.28182778 0.05524882 0.08463163 -0.24159016 0.02341543 -0.20612456 0.25842506 -0.1403379
-0.24514927 0.070984825 0.25595444 0.18734162 0.037818708 -0.30617917 -0.17106782 -0.1837235
0.13072132 0.21934558 0.4282888 -0.20365746 0.39585322 0.09919718 -0.046943925 -0.19963357
0.14836183 0.20785995 0.2637862 0.1337617 -0.10978716 0.3356567 -0.2500964 0.265547
-0.17382556 -0.2388992 0.122310214 0.09759442 0.26785275 -0.043197796 -0.041430015 -0.11147281
-0.102359414 0.07793207 0.27989247 -0.26599452 0.11276024 0.01276695 0.32234943 0.20466124
-0.15422356 0.11161691 0.24797846 0.19628282 0.18971333 -0.124726824 0.11273296 0.0022594524
0.030668397 0.12149114 0.14169165 0.10393034 -0.18310718 -0.043399237 0.076663904 0.30131
0.28322965 0.055617474 0.048544236 -0.26967093 0.03621909 -0.11976144 0.08376314 -0.026412958
-0.30163094 -0.07312386 0.20266482 0.008303967 -0.03082497 -0.32238808 -0.12697509 -0.27675816
0.24720164 0.3380807 0.4017702 -0.19822446 0.17409047 0.01728375 -0.07040168 -0.081476375
0.22042523 0.20505242 0.13096553 0.04210927 -0.20793542 0.3682041 -0.3081878 0.28655466
0.0173069 -0.1070179 0.061843354 0.030733917 0.1718186 0.01112826 0.015324641 -0.14688112
0.030095 0.121254206 0.2143741 -0.19430414 0.14956649 -0.017100446 0.1886778 0.23012838
-0.15692776 0.05325886 0.2861375 0.10027039 0.0116159925 -0.11009398 -0.0026638343 -0.10019181
0.06429368 0.11934988 0.1549618 -0.030818164 -0.24245377 -0.075133026 0.058798898 0.2280211
0.40103427 0.21796133 0.048442405 0.01603472 -0.029729899 -0.15916187 0.076511525 0.080256455
-0.04022566 0.069660336 0.17852432 0.06346309 0.03668949 -0.28006458 0.046556585 -0.2514374
0.2756922 0.28523603 0.48926684 -0.0866434 0.27483642 0.02612966 0.11578556 -0.061326858
0.15210363 0.20087533 0.062254246 0.17171583 -0.18146048 0.4700724 -0.023115883 0.18805405
-0.08700151 -0.078778744 0.2774798 0.027357133 0.29535255 0.091492675 0.2223445 -0.07687094
0.053845067 0.1308012 0.11817113 -0.26558754 0.051986028 -0.11154509 0.30174178 0.18528463
-0.06656113 0.018528027 0.47139737 0.18070745 0.22221048 0.10868449 -0.047811624 0.037345663
-0.046569597 0.052948277 0.09036588 0.015193347 -0.15133767 -0.11816441 0.1403609 0.14861171
0.09957011 -0.19627002 0.05093172 0.1216049 0.108863495 0.11658518 0.07007132 0.002768128
0.16568696 0.020334767 0.087248385 0.03549022 0.10532527 0.037631553 0.25513798 0.17449479
-0.099749506 -0.18725152 -0.18011855 0.32035357 0.033804882 -0.04583657 0.07937181 0.09047136
-0.16138099 -0.096924506 -0.12028376 0.38938528 0.13790973 -0.1332781 0.4386671 0.0693136
0.13200432 0.33092415 0.30173272 0.086651206 0.10755813 0.096844666 0.033417612 0.25155422
0.13572337 -0.017144488 0.04118755 0.2575648 -0.11762675 -0.052584212 0.13750698 0.026598148
0.034086507 0.045136053 -0.019592674 0.093457386 0.051352102 0.15955381 0.18177404 0.07448635
0.22134256 0.09884045 -0.07966333 0.31411964 0.25122744 0.07375886 0.038000222 0.18101698
00000000: bb4b 903e 964c 623d 5953 ad3d 6963 77be
00000010: b7d1 bf3c 5112 53be 4a50 843e bdb4 0fbe
00000020: 6908 7bbe 7e60 913d 760c 833e 7bd6 3f3e
00000030: cae7 1a3d 84c3 9cbe 672c 2fbe 0322 3cbe
00000040: cfdb 053e 219c 603e ab48 db3e 958b 50be
00000050: 46ad ca3e e427 cb3d 4648 40bd be6c 4cbe
00000060: 2aec 173e 3dd9 543e fc0e 873e d4f8 083e
00000070: 17d8 e0bd 32db ab3e a30c 80be c7f5 873e
00000080: 54ff 31be fea1 74be c77d fa3d 95df c73d
00000090: ff23 893e 2cf0 30bd 85b2 29bd db4b e4bd
000000a0: d0a1 d1bd d99a 9f3d 114e 8f3e 6f30 88be
000000b0: d7ee e63d 782c 513c fc0a a53e b792 513e
000000c0: c8ec 1dbe 6897 e43d 11ee 7d3e 5dfe 483e
000000d0: 3644 423e c770 ffbd 8ae0 e63d 5213 143b
000000e0: 4a3c fb3c 59d0 f83d 9e17 113e 6ed9 d43d
000000f0: 7380 3bbe 66c3 31bd f701 9d3d 4e45 9a3e
00000100: 7a03 913e 26cf 633d 52d6 463d 4f12 8abe
00000110: 785a 143d 7c45 f5bd 028c ab3d fd5f d8bc
00000120: 5f6f 9abe f6c1 95bd 5e87 4f3e 5d0d 083c
00000130: a684 fcbc 0d10 a5be c205 02be 3fb3 8dbe
00000140: 6d22 7d3e ea18 ad3e d3b4 cd3e 5afb 4abe
00000150: c644 323e a796 8d3c c22e 90bd 16dd a6bd
00000160: 27b7 613e 43f9 513e d41b 063e c57a 2c3d
00000170: 06ed 54be 3f85 bc3e cbca 9dbe 4bb7 923e
00000180: 33c7 8d3c 332c dbbd 754f 7d3d b2c5 fb3c
00000190: 37f1 2f3e 4e53 363c 3414 7b3c 0168 16be
000001a0: ca89 f63c 2054 f83d e284 5b3e aaf7 46be
000001b0: f527 193e 3c16 8cbc c134 413e c6a6 6b3e
000001c0: acb1 20be f625 5a3d 9d80 923e 905a cd3d
000001d0: 0151 3e3c f478 e1bd b993 2ebb 5d31 cdbd
000001e0: 68ac 833d b66d f43d 4eae 1e3e 6076 fcbc
000001f0: cd45 78be 58df 99bd 1dd7 703d 5d7e 693e
00000200: 5d54 cd3e 4131 5f3e 8b6b 463d 3f5b 833c
00000210: 1e8c f3bc 54fb 22be 13b2 9c3d 7f5d a43d
00000220: a9c3 24bd 14aa 8e3d 14cf 363e f0f8 813d
00000230: b847 163d a064 8fbe 1eb2 3e3d 67bc 80be
00000240: 8727 8d3e 750a 923e 2f81 fa3e 1872 b1bd
00000250: 5cb7 8c3e de0d d63c fb20 ed3d df31 7bbd
00000260: 0ec1 1b3e 43b2 4d3e 4ffe 7e3d 46d6 2f3e
00000270: c7d0 39be 54ad f03e 855d bdbc 3e91 403e
00000280: d92d b2bd c056 a1bd d511 8e3e 111c e03c
00000290: 7338 973e 8360 bb3d 47ae 633e 836e 9dbd
000002a0: a58c 5c3d c0f0 053e b503 f23d 17fb 87be
000002b0: 4def 543d c171 e4bd e67d 9a3e 41bb 3d3e
000002c0: 3451 88bd 17c8 973c ff5a f13e 600b 393e
000002d0: 258b 633e f995 de3d 1fd6 43bd c4f7 183d
000002e0: c3bf 3ebd 4be0 583d bf11 b93d 84ed 783c
000002f0: 43f8 1abe 2f00 f2bd c5ba 0f3e ab2d 183e
00000300: 6aeb cb3d 02fb 48be c79d 503d fd0b f93d
00000310: d3f3 de3d 36c4 ee3d 8d81 8f3d 7b69 353b
00000320: d8a9 293e 1995 a63c 48af b23d 315e 113d
00000330: c6b4 d73d 8b23 1a3d 72a1 823e c3ae 323e
00000340: 7849 ccbd ddbe 3fbe ff70 38be 6205 a43e
00000350: fd76 0a3d 21bf 3bbd b08d a23d 0c49 b93d
00000360: 0f41 25be 5b80 c6bd 5557 f6bd 825d c73e
00000370: 3538 0d3e 0e7a 08be f998 e03e 4af4 8d3d
00000380: 242c 073e e46e a93e b67c 9a3e 3076 b13d
00000390: 7047 dc3d 7f56 c63d e8e0 083d b7cb 803e
000003a0: 11fb 0a3e 9972 8cbc 47b4 283d 89df 833e
000003b0: 4be6 f0bd 8b62 57bd a1ce 0c3e 5ce4 d93c
000003c0: 4b9e 0b3d 95e0 383d d180 a0bc 9666 bf3d
000003d0: 9556 523d 1362 233e f922 3a3e 4d8c 983d
000003e0: a0a7 623e dd6c ca3d 8726 a3bd 4ad4 a03e
000003f0: e2a0 803e e30e 973d 1fa6 1b3d 845c 393e

convs.0.linear1.bias f4 [64]
0.3742088 0.34465918 0.30037722 -0.3072734 0.33792236 -0.20945549 0.3679435 0.19519754
0.33250087 -0.00066915015 0.29880852 -0.36900946 -0.34380418 0.32757133 0.31607527 -0.33104342
0.34671834 -0.32914153 0.17406262 -0.37564734 -0.36575013 -0.33755153 0.36176515 0.31454974
-0.19322133 -0.26631567 0.36412522 -0.30074698 0.30290368 0.38649124 -0.38011712 -0.34796998
-0.31235117 -0.2583457 0.16503446 -0.12386011 -0.32773346 -0.31834266 0.34607306 0.378489
-0.359756 0.29324055 0.21620655 -0.3250385 0.2752704 0.32588893 0.26347134 0.32398367
0.3323425 -0.35913634 -0.12699522 0.31147364 -0.36236998 0.0069878846 -0.3017795 0.35261613
-0.30653945 -0.3540077 -0.34431502 -0.35258144 0.5743853 -0.06305804 -0.4039766 -0.31963003
00000000: 4c98 bf3e 2b77 b03e 0bcb 993e f052 9dbe
00000010: 2904 ad3e 807b 56be 1763 bc3e dde1 473e
00000020: 8e3d aa3e e869 2fba 6efd 983e cfee bcbe
00000030: 1a07 b0be 6eb7 a73e 9ed4 a13e 867e a9be
00000040: 1185 b13e 3d85 a8be 793d 323e d954 c0be
00000050: 9a43 bbbe 8ed3 acbe 4839 b93e aa0c a13e
00000060: d0db 45be 875a 88be 9f6e ba3e 82fb 99be
00000070: 3116 9b3e 2ee2 c53e b69e c2be 1f29 b2be
00000080: 7eec 9fbe e345 84be cbfe 283e 5faa fdbd
00000090: aecc a7be cffd a2be 7d30 b13e 4fc9 c13e
000000a0: f031 b8be a023 963e 4065 5d3e 726b a6be
000000b0: 3ef0 8c3e eada a63e b7e5 863e 30e1 a53e
000000c0: cc28 aa3e b8e0 b7be 090b 02be 7979 9f3e
000000d0: 8f88 b9be a0fa e43b d882 9abe 1a8a b43e
000000e0: bdf2 9cbe 7f40 b5be 0f4a b0be 8e85 b4be
000000f0: ea0a 133f 9324 81bd 05d6 cebe 8ca6 a3be

convs.0.linear2.weight f4 [64, 64]
-0.40224028 -0.5254701 -0.372202 0.6904982 -0.4029973 0.4541808 -0.457447 0.21062726
-0.5822281 0.44992444 -0.23420297 0.3770096 0.43700647 -0.37653127 -0.25503528 0.4346562
-0.52123874 0.3675346 -0.36277598 0.40052012 0.54545313 0.38078693 -0.5047745 -0.52872324
0.40600187 0.4694793 -0.47454664 0.43266922 -0.3205324 -0.5553888 0.37199482 0.40899435
0.3148842 0.47469643 -0.22727466 0.2841024 0.5086217 0.31013542 -0.6067077 -0.39658943
0.5134054 -0.34949178 -0.42872608 0.5496465 -0.3550021 -0.5696225 -0.24364538 -0.33547515
-0.34122851 0.4803396 0.32889858 -0.429583 0.24014676 -0.23896345 0.3441919 -0.4891123
0.40302485 0.40158078 0.4149666 0.44546515 -0.26943308 0.34129634 0.63256866 0.5304358
0.108726665 0.24169694 0.2987944 -0.38381416 0.10716674 -0.29285398 0.32025576 -0.03595124
0.30944055 0.11835971 0.14830258 -0.11674633 -0.12105966 0.12670915 0.16657577 -0.2785474
0.19155626 -0.25652477 0.11952308 -0.22787656 -0.31922105 -0.20386402 0.20613045 0.16660593
-0.14355141 -0.1118966 0.27268717 -0.2956937 0.22331221 0.21180089 -0.10652724 -0.2011124
-0.24770874 -0.25979057 0.17674273 0.124630466 -0.27752957 -0.2604051 0.25694302 0.17292221
-0.603565 0.21903701 0.19623002 -0.1835392 0.20223321 0.18895434 0.12297245 0.09019438
0.12304747 -0.29371932 0.19463624 0.08960246 -0.24146143 -0.05936068 -0.21815883 0.17827535
-0.13918965 -0.13715956 -0.32215685 -0.12068439 0.4038819 -0.26451075 -0.356595 -0.2575066
0.29806638 0.117284656 0.10661984 -0.3573575 0.1535201 -0.0685921 0.31236017 -0.047074176
0.24744143 0.07714239 0.16150257 -0.2562399 -0.26103365 0.09129375 0.15099317 -0.32283536
0.2077964 -0.16093546 0.33677474 -0.20049334 -0.3079618 -0.23460568 0.2458339 0.20035313
-0.1829465 -0.15954159 0.18305714 -0.18709062 0.117563725 0.35118315 -0.19833964 -0.49334967
-0.084084675 -0.08595509 0.1275774 0.043769807 -0.10582613 -0.16326301 0.107446864 0.067776576
-0.5349804 0.17896935 0.29154286 -0.1641458 0.21549278 0.27028012 0.17782274 0.26803967
0.08243248 -0.34237567 0.3277978 0.26892528 -0.2794591 -0.16133629 -0.16247733 0.26552778
-0.104434066 -0.07912839 -0.14349891 -0.24870385 0.38952932 -0.26024592 -0.3323304 -0.2619554
-0.3870529 -0.32658756 -0.28503644 0.63637656 -0.36484465 0.30836198 -0.33533987 0.16243589
-0.6281235 0.5451599 -0.36301827 0.44694555 0.512202 -0.20534724 -0.3582417 0.585658
-0.29977655 0.4378905 -0.5886779 0.34409904 0.5361233 0.4887698 -0.3416043 -0.5552527
0.3801374 0.47114202 -0.26327047 0.4203681 -0.44100964 -0.5783565 0.51549244 0.50428873
0.23785323 0.24555428 -0.27971438 0.41305274 0.5032085 0.32422727 -0.51786923 -0.30892825
0.6401032 -0.39449662 -0.5475863 0.50482094 -0.40975025 -0.5953584 -0.1698563 -0.31749845
-0.22006698 0.26531488 0.23629849 -0.5618216 0.3528973 -0.07698302 0.24464586 -0.38133696
0.37179613 0.28485534 0.4267306 0.4511185 -0.5504527 0.47941908 0.7206929 0.4167583
00000000: 70f2 cdbe 3585 06bf 4391 bebe 7dc4 303f
00000010: a955 cebe 638a e83e 7e36 eabe acae 573e
00000020: e70c 15bf 7f5c e63e e7d2 6fbe 6707 c13e
00000030: 50bf df3e b5c8 c0be fc93 82be 428b de3e
00000040: e76f 05bf 7f2d bc3e c6bd b9be f910 cd3e
00000050: d1a2 0b3f 81f6 c23e e738 01bf 685a 07bf
00000060: 7adf cf3e 975f f03e c7f7 f2be d286 dd3e
00000070: d31c a4be f62d 0ebf 1b76 be3e b567 d13e
00000080: 8038 a13e 690b f33e b0ba 68be df75 913e
00000090: 0835 023f 12ca 9e3e 3251 1bbf c50d cbbe
000000a0: 896e 033f 96f0 b2be fc81 dbbe a2b5 0c3f
000000b0: d6c2 b5be c8d2 11bf 2d7e 79be 66c3 abbe
000000c0: 81b5 aebe 12ef f53e 6565 a83e 4ef2 dbbe
000000d0: 08e9 753e d6b2 74be ec39 b03e ed6c fabe
000000e0: 4659 ce3e ff9b cd3e 8176 d43e 0214 e43e
000000f0: 22f3 89be 65be ae3e 05f0 213f a4ca 073f
00000100: 16ac de3d 677f 773e 94fb 983e 4a83 c4be
00000110: 3c7a db3d f5f0 95be 90f8 a33e 9c41 13bd
00000120: fe6e 9e3e 9366 f23d a2dc 173e b318 efbd
00000130: 21ee f7bd 0bc0 013e d792 2a3e c49d 8ebe
00000140: 5327 443e 3757 83be 84c8 f43d 7958 69be
00000150: f170 a3be bbc1 50be dc13 533e bf9a 2a3e
00000160: 24ff 12be 0b2a e5bd a79d 8b3e 2a65 97be
00000170: f5ab 643e 55e2 583e f42a dabd 69f0 4dbe
00000180: 5ca7 7dbe 4503 85be 0cfc 343e 423e ff3d
00000190: 5b18 8ebe d153 85be 098e 833e 8512 313e
000001a0: 3c83 1abf 3d4b 603e 86f0 483e b3f1 3bbe
000001b0: 3916 4f3e 3f7d 413e fbd8 fb3d d5b7 b83d
000001c0: 5000 fc3d 6162 96be b94e 473e 7f81 b73d
000001d0: aa41 77be 2f24 73bd 0765 5fbe d08d 363e
000001e0: bb87 0ebe 8e73 0cbe bef1 a4be 6129 f7bd
000001f0: 9cc9 ce3e f46d 87be 9f93 b6be e8d7 83be
00000200: 289c 983e f032 f03d 815b da3d 90f7 b6be
00000210: 6034 1d3e 047a 8cbd aced 9f3e dad0 40bd
00000220: 4961 7d3e d4fc 9d3d ee60 253e e031 83be
00000230: 34a6 85be 38f8 ba3d f49d 1a3e ad4a a5be
00000240: 94c8 543e 44cc 24be bd6d ac3e 204e 4dbe
00000250: 2bad 9dbe 793c 70be e2bb 7b3e 5f29 4d3e
00000260: 5456 3bbe df5e 23be 5573 3b3e af94 3fbe
00000270: 40c5 f03d 47ce b33e 8c19 4bbe 5498 fcbe
00000280: 9634 acbd 3909 b0bd a6a3 023e f847 333d
00000290: 5fbb d8bd 6b2e 27be 1a0d dc3d 72ce 8a3d
000002a0: 7af4 08bf be43 373e 1b45 953e d615 28be
000002b0: 24aa 5c3e 2862 8a3e 2a17 363e 7f3c 893e
000002c0: 5cd2 a83d dd4b afbe 1dd5 a73e 93b0 893e
000002d0: 4315 8fbe 5735 25be 7560 26be 42f3 873e
000002e0: 87e1 d5bd 110e a2bd 61f1 12be 39ac 7ebe
000002f0: 6370 c73e f43e 85be 3627 aabe 051f 86be
00000300: cc2b c6be 7c36 a7be 4cf0 91be 93e9 223f
00000310: ebcc babe 9fe1 9d3e abb1 abbe 9855 263e
00000320: b4cc 20bf 998f 0b3f 88dd b9be 0cd6 e43e
00000330: ac1f 033f 8c46 52be 756b b7be afed 153f
00000340: 507c 99be 2f33 e03e 98b3 16bf c02d b03e
00000350: 603f 093f 0940 fa3e c2e6 aebe 0a25 0ebf
00000360: 5fa1 c23e 8739 f13e 63cb 86be 7d3a d73e
00000370: 04cc e1be 2c0f 14bf 50f7 033f 1119 013f
00000380: cc8f 733e 9572 7b3e b936 8fbe a67b d33e
00000390: 46d2 003f 1e01 a63e 1493 04bf d82b 9ebe
000003a0: cedd 233f 76fb c9be 9e2e 0cbf f23b 013f
000003b0: c9ca d1be 6869 18bf cfee 2dbe 288f a2be
000003c0: 3d59 61be 5ad7 873e 3bf8 713e 8ad3 0fbf
000003d0: f4ae b43e 46a9 9dbd 7284 7a3e 993e c3be
000003e0: 105c be3e 8fd8 913e 6f7c da3e 01f9 e63e
000003f0: 78ea 0cbf 6b76 f53e 547f 383f 5861 d53e

convs.0.linear2.bias f4 [64]
-0.3662389 0.36581552 0.38064444 -0.407265 -0.44956192 0.21160552 -0.39629892 -0.4150574
0.42037076 0.26490858 -0.43059167 0.287963 -0.38380224 0.3009502 -0.41039476 -0.45566583
-0.32909876 -0.39332908 0.38424668 0.35828668 -0.44896927 -0.05841476 -0.38701856 -0.41809174
-0.35812706 -1.145412 -0.3356096 -0.40145192 -0.5015285 -0.48666432 -0.522092 -0.42614427
-1.2669741 0.14470966 0.22173926 -0.4149465 0.27207595 -0.45731616 -0.37945834 -0.36651465
0.17858917 -0.44795802 0.28470123 0.010460114 -0.7269857 0.38121927 -0.49937505 -0.20591818
0.34049085 -0.4266314 0.40215868 -0.42596745 -0.75794566 -0.39920917 -0.43128258 0.13344775
-0.4342726 -0.36492002 -0.42695212 -0.37051928 0.07014696 -0.50482243 0.23620377 -0.5171946
00000000: aa83 bbbe 2c4c bb3e d4e3 c23e 0a85 d0be
00000010: fb2c e6be 1eaf 583e b1e7 cabe 6782 d4be
00000020: d63a d73e 19a2 873e 8376 dcbe e36f 933e
00000030: ba81 c4be 2516 9a3e 431f d2be 084d e9be
00000040: a27f a8be 6e62 c9be fbbb c43e 5a71 b73e
00000050: 4ddf e5be 5144 6fbd 4c27 c6be 1f10 d6be
00000060: 6e5c b7be dc9c 92bf 06d5 abbe 1b8b cdbe
00000070: 2c64 00bf 112c f9be d2a7 05bf 952f dabe
00000080: 352c a2bf c52e 143e 9e0f 633e de73 d4be
00000090: 8a4d 8b3e 5825 eabe 5d48 c2be cfa7 bbbe
000000a0: 14e0 363e c15a e5be 5cc4 913e e660 2b3c
000000b0: bc1b 3abf 2c2f c33e 16ae ffbe 37dc 52be
000000c0: d154 ae3e 6e6f dabe bee7 cd3e 6818 dabe
000000d0: ba08 42bf 2565 ccbe 12d1 dcbe 87a6 083e
000000e0: fa58 debe ccd6 babe 7899 dabe b4b4 bdbe
000000f0: 36a9 8f3d 0b3c 01bf 67df 713e de66 04bf

convs.1.a f4 [128, 1]
-5.348798e-15 0.17863353 0.05779725 0.0 0.0 0.022642102 0.0 0.0
0.19959874 0.038827483 0.0 0.0532792 1.2310396e-11 0.12273034 0.0 0.0
0.0 0.0 0.054738756 0.09193327 0.0 0.107060485 0.0 0.0
0.0 -1.44618495e-08 0.0 0.0 0.0 0.0 0.0 0.0
1.8575994e-07 0.0110036945 0.040517777 0.0 0.24355812 0.0 0.0 0.08971923
0.018087123 0.0 0.16062053 -0.0069572404 0.00019600934 0.02992718 0.0 4.1525922e-10
-0.16692086 0.0 0.18879156 0.0 0.0 0.0 0.0 0.019651068
0.0 0.0 0.0 0.0 0.03068217 0.0 0.11925233 0.0
-0.4891811 0.08212275 0.0816242 -0.50103563 -0.505384 0.07176855 -0.52627695 -0.70569324
0.08170953 0.061006732 -0.48494083 0.08469624 -0.5460651 0.05387092 -0.57226276 -0.51347846
-0.49629357 -0.4964162 0.07923295 0.07373106 -0.5028972 0.051170252 -0.54943246 -0.4994399
-0.47083342 -3.0254745 -0.53977966 -0.52580756 -0.49596366 -0.49966985 -0.48073238 -0.49582824
-3.3845596 0.1278444 0.07038615 -0.5181877 0.0630202 -0.4866291 -0.5212363 -0.10394249
0.23293018 -0.51921105 0.0632495 -0.43905824 -1.3661776 0.08465584 -0.54868007 -0.57600045
0.10006874 -0.5223677 0.10828051 -0.4872403 -1.0204118 -0.47288567 -0.5242357 0.058221363
-0.5238524 -0.49050587 -0.517262 -0.4993961 0.33974025 -0.57505894 0.049707953 -0.51255685
00000000: f4b5 c0a7 b5eb 363e cfbc 6c3d 0000 0000
00000010: 0000 0000 ee7b b93c 0000 0000 0000 0000
00000020: 9d63 4c3e 9109 1f3d 0000 0000 4a3b 5a3d
00000030: 1891 582d 0b5a fb3d 0000 0000 0000 0000
00000040: 0000 0000 0000 0000 bf35 603d 8347 bc3d
00000050: 0000 0000 8742 db3d 0000 0000 0000 0000
00000060: 0000 0000 e373 78b2 0000 0000 0000 0000
00000070: 0000 0000 0000 0000 0000 0000 0000 0000
00000080: 4e75 4734 d748 343c f8f5 253d 0000 0000
00000090: 4d67 793e 0000 0000 0000 0000 b7be b73d
000000a0: 722b 943c 0000 0000 b579 243e 90f9 e3bb
000000b0: db87 4d39 d829 f53c 0000 0000 8a4a e42f
000000c0: 4ded 2abe 0000 0000 9352 413e 0000 0000
000000d0: 0000 0000 0000 0000 0000 0000 47fb a03c
000000e0: 0000 0000 0000 0000 0000 0000 0000 0000
000000f0: 2d59 fb3c 0000 0000 913a f43d 0000 0000
00000100: f275 fabe f92f a83d 972a a73d df43 00bf
00000110: d960 01bf 64fb 923d 16ba 06bf 50a8 34bf
00000120: 5357 a73d 32e2 793d 2a4a f8be 3975 ad3d
00000130: ecca 0bbf c1a7 5c3d d07f 12bf 5373 03bf
00000140: 311a febe 442a febe e344 a23d 4f00 973d
00000150: dfbd 00bf e697 513d 9ba7 0cbf 96b6 ffbe
00000160: 1411 f1be 60a1 41c0 002f 0abf 539b 06bf
00000170: f3ee fdbe bad4 ffbe 8e22 f6be 33dd fdbe
00000180: a09c 58c0 a4e9 023e 9d26 903d f3a7 04bf
00000190: bc10 813d 7327 f9be be6f 05bf cddf d4bd
000001a0: 4085 6e3e 04eb 04bf f488 813d 3ecc e0be
000001b0: e8de aebf 0b60 ad3d 4c76 0cbf c474 13bf
000001c0: d7f0 cc3d e4b9 05bf 2cc2 dd3d 9077 f9be
000001d0: db9c 82bf 121e f2be 5034 06bf 8679 6e3d
000001e0: 311b 06bf 9623 fbbe 486b 04bf d8b0 ffbe
000001f0: 6ff2 ad3e 1037 13bf 919a 4b3d ed36 03bf

convs.1.linear1.weight f4 [64, 64]
0.27983406 0.1505057 0.14724346 0.26875052 0.1665185 -0.034725122 0.24183878 0.4313598
0.029821675 0.007476871 0.25380984 0.11176275 0.34065977 -0.006597127 0.38333857 0.33125898
0.09924044 0.3552725 0.07225682 0.1555432 0.27185655 -0.14698826 0.2149319 0.37519515
0.15633155 1.2284538 0.21940072 0.26498324 0.35048407 0.29958412 0.37542462 0.22449231
0.92067415 0.33188564 0.16517563 0.19224581 -0.058685035 0.18807097 0.29584664 -0.18704006
0.13852932 0.41339946 -0.07347882 -0.2779567 0.5538315 0.08542161 0.40783057 0.09010719
0.0040637967 0.11841324 0.18348683 0.36883655 0.5163853 0.33479425 0.3918843 0.4535946
0.28625953 0.30880022 0.16474062 0.22727007 0.6362553 0.3299633 -0.09070707 0.25700387
0.29492986 -0.07202575 0.10733153 0.19996463 0.20143163 -0.017973991 0.34092945 0.10178699
0.0805686 -0.035322446 0.1364255 0.12756546 0.2358157 -0.11861038 0.31843117 0.29978162
0.167299 0.13737506 0.026619745 0.07566375 0.11664977 -0.009143715 0.3350309 0.15094315
0.09634858 0.4741596 0.096911885 0.35267785 0.2457121 0.18017302 0.32964453 0.33540624
0.41181502 -0.016302766 -0.06875822 0.31790352 0.0422021 0.30889383 0.24067245 -0.39386693
-0.053831555 0.118259795 -0.104716085 -0.30438644 0.40342394 0.021722674 0.19754396 0.25066885
-0.0066407663 0.3136433 0.011152681 0.29354653 0.18260327 0.15851885 0.21906382 0.19305867
0.25918812 0.21365608 0.10466938 0.3053472 0.53575116 0.14885515 0.019271953 0.3466448
0.20827864 0.18527286 0.12403247 0.31989864 0.32865262 0.0061132973 0.26913017 0.40838212
0.18646273 0.021863084 0.35876432 -0.018752867 0.2306184 -0.07308511 0.41516307 0.26492617
0.08477183 0.22693788 0.035446983 -0.0048428145 0.35738477 0.052364394 0.43024975 0.26224628
0.19799666 1.1634408 0.14644447 0.304588 0.32195234 0.14808138 0.17820933 0.20648523
1.0787191 0.18376733 0.12904571 0.28889164 0.06211435 0.11125972 0.2535837 -0.41032058
0.092889085 0.37800235 0.037708446 -0.22256152 0.69092804 0.027790297 0.39961106 0.29213658
0.13017018 0.1517027 0.07461279 0.20913018 0.42023575 0.26335755 0.40820312 0.4157846
0.25622556 0.2479501 0.26698804 0.28470793 0.7063554 0.44064417 0.11896573 0.348019
-0.1571744 -0.026659694 0.05769239 -0.2301003 -0.3836798 -0.048042014 -0.34182575 -0.32232147
-0.12026821 0.13288596 -0.26427746 0.07871803 -0.30327794 0.06984707 -0.39607677 -0.43971968
-0.23967892 -0.26495934 -0.11153758 -0.10964708 -0.23744933 0.14635392 -0.3216886 -0.3182738
-0.4232087 -3.261237 -0.2682656 -0.3223761 -0.22975522 -0.4192504 -0.4654882 -0.21779771
-2.4996853 -0.3155509 -0.1347021 -0.44020864 0.06588268 -0.3950705 -0.19287227 0.3557704
-0.13813311 -0.29432303 0.008591466 0.17892468 -0.9595474 -0.11247754 -0.4077613 -0.1269642
-0.037103627 -0.39950734 -0.089297205 -0.41581193 -0.900251 -0.16880588 -0.41116694 -0.52594835
-0.35804942 -0.26017842 -0.34243536 -0.17650375 -0.65846574 -0.5159471 -0.089190304 -0.24316142
00000000: 6946 8f3e 2b1e 1a3e fdc6 163e ab99 893e
00000010: d383 2a3e ee3b 0ebd 96a4 773e 31db dc3e
00000020: 964c f43c 8a00 f53b 5df3 813e dee3 e43d
00000030: f56a ae3e b62c d8bb f444 c43e c79a a93e
00000040: 923e cb3d 47e6 b53e 62fb 933d b746 1f3e
00000050: c830 8b3e 1784 16be 1c17 5c3e 9419 c03e
00000060: 6115 203e f93d 9d3f 95aa 603e e2ab 873e
00000070: a672 b33e 1763 993e a837 c03e 50e1 653e
00000080: 4db1 6b3f eaec a93e cd23 293e 16dc 443e
00000090: b85f 70bd ad95 403e 3679 973e 6e87 3fbe
000000a0: a1da 0d3e 18a9 d33e 107c 96bd 5750 8ebe
000000b0: e7c7 0d3f 86f1 ae3d 2bcf d03e 1e8a b83d
000000c0: 9929 853b a482 f23d f9e3 3b3e 25d8 bc3e
000000d0: d431 043f 276a ab3e 0fa5 c83e 8d3d e83e
000000e0: 9c90 923e 101b 9e3e c4b1 283e 7cb9 683e
000000f0: a1e1 223f f3f0 a83e a1c4 b9bd 0396 833e
00000100: 0c01 973e 3d82 93bd a2d0 db3d 87c3 4c3e
00000110: 1844 4e3e 313e 93bc 4e8e ae3e b375 d03d
00000120: 2601 a53d 45ae 10bd 20b3 0b3e 85a0 023e
00000130: ac79 713e 00ea f2bd 6909 a33e fa7c 993e
00000140: 6e50 2b3e 0cac 0c3e a711 da3c 99f5 9a3d
00000150: 13e6 ee3d 85cf 15bc 2c89 ab3e d790 1a3e
00000160: 6852 c53d 0cc5 f23e bd79 c63d 3192 b43e
00000170: f49b 7b3e 477f 383e 2bc7 a83e 5eba ab3e
00000180: 6bd9 d23e 618d 85bc 1cd1 8cbd 40c4 a23e
00000190: 1cdc 2c3d 5527 9e3e d772 763e eda8 c9be
000001a0: 7a7e 5cbd 3132 f23d 6375 d6bd 8ad8 9bbe
000001b0: 958d ce3e c0f3 b13c f748 4a3e ab57 803e
000001c0: c99a d9bb db95 a03e bcb9 363c bb4b 963e
000001d0: 5afc 3a3e c452 223e 4452 603e 2cb1 453e
000001e0: 4eb4 843e a9c8 5a3e e65c d63d 7856 9c3e
000001f0: fd26 093f 7c6d 183e 37e0 9d3c 6d7b b13e
00000200: ff46 553e 2bb8 3d3e bc04 fe3d c1c9 a33e
00000210: 2845 a83e 0e52 c83b 6ecb 893e 7617 d13e
00000220: 16f0 3e3e 361a b33c f5af b73e 9d9f 99bc
00000230: 3b27 6c3e a5ad 95bd 4190 d43e 67a4 873e
00000240: da9c ad3d 6762 683e db30 113d 79b0 9ebb
00000250: 23fb b63e 0c7c 563d b249 dc3e 2545 863e
00000260: a3bf 4a3e a1eb 943f 8af5 153e f5f2 9b3e
00000270: f0d6 a43e a5a2 173e 827c 363e dd70 533e
00000280: 7813 8a3f 812d 3c3e 8f24 043e 9be9 933e
00000290: 9e6b 7e3d 23dc e33d b9d5 813e 8a15 d2be
000002a0: a23c be3d 8689 c13e 2c74 1a3d 2be7 63be
000002b0: a9e0 303f 7aa8 e33c d299 cc3e ed92 953e
000002c0: 554b 053e f457 1b3e 97ce 983d 3926 563e
000002d0: 2429 d73e cdd6 863e 0000 d13e b8e1 d43e
000002e0: ff2f 833e a2e6 7d3e a8b2 883e 3dc5 913e
000002f0: b5d3 343f 1d9c e13e 4ea4 f33d 8c2f b23e
00000300: 53f2 20be 6e65 dabc db4e 6c3d 6a9f 6bbe
00000310: ae71 c4be b4c7 44bd c903 afbe 5207 a5be
00000320: 2e4f f6bd 4213 083e 604f 87be eb36 a13d
00000330: 3f47 9bbe fb0b 8f3d 93ca cabe f022 e1be
00000340: 646e 75be c0a8 87be d16d e4bd a68e e0bd
00000350: eb25 73be cddd 153e 5eb4 a4be c9f4 a2be
00000360: d0ae d8be 1bb8 50c0 1c5a 89be 7b0e a5be
00000370: f444 6bbe fda7 d6be 7854 eebe 5d06 5fbe
00000380: d8fa 1fc0 e38f a1be 59ef 09be 0763 e1be
00000390: 80ed 863d ae46 cabe 4f80 45be 8a27 b63e
000003a0: c472 0dbe 82b1 96be 38c3 0c3c 0838 373e
000003b0: e6a4 75bf a05a e6bd 17c6 d0be e702 02be
000003c0: f9f9 17bd 3a8c ccbe 74e1 b6bd 4de5 d4be
000003d0: d976 66bf 73db 2cbe 7984 d2be 8da4 06bf
000003e0: 4152 b7be 1b36 85be b053 afbe 66bd 34be
000003f0: 3691 28bf 1c15 04bf 68a9 b6bd 4fff 78be

convs.1.linear1.bias f4 [64]
-0.34594193 -0.1700361 -0.3448207 0.35137478 -0.45933867 0.34291175 -0.46117467 0.40875617
0.37255952 -0.33207488 0.367675 -0.26990375 0.38529214 -0.42758963 0.44188687 -0.28747627
-0.28209147 0.39614674 0.43114623 0.43826285 0.4629302 0.37293938 -0.3175349 0.4536827
0.4298751 0.19962005 -0.29479128 0.3686573 0.35325822 -0.35327086 -0.27531505 0.39449373
-0.45406902 -0.3984648 0.38559362 0.39605844 0.42669132 -0.4682239 -0.3456738 0.37060794
-0.39975953 0.40954748 0.44409072 0.43734208 0.35691664 -0.476244 0.4237207 -0.39521703
0.364345 0.36795056 -0.41104066 0.44620144 -0.29277325 -0.3675836 -0.3827545 -0.36568457
0.41847378 -0.37025958 0.39045247 -0.39754447 -0.27773753 0.17245239 0.46461478 -0.45774564
00000000: 4d1f b1be f21d 2ebe 578c b0be 65e7 b33e
00000010: 702e ebbe 2192 af3e 161f ecbe 7d48 d13e
00000020: 1fc0 be3e b805 aabe e63f bc3e d330 8abe
00000030: 0345 c53e 07ed dabe ff3e e23e 1730 93be
00000040: 4b6e 90be bfd3 ca3e 33bf dc3e fd63 e03e
00000050: 3005 ed3e e9f1 be3e ef93 a2be 1949 e83e
00000060: 9718 dc3e 3369 4c3e e2ee 96be a6c0 bc3e
00000070: 43de b43e ebdf b4be 18f6 8cbe 15fb c93e
00000080: bc7b e8be 9403 ccbe 876c c53e 2cc8 ca3e
00000090: 4977 da3e 0bbb efbe 28fc b0be 53c0 bd3e
000000a0: 48ad ccbe 35b0 d13e dc5f e33e 4deb df3e
000000b0: c7bd b63e 41d6 f3be ebf1 d83e e359 cabe
000000c0: 6e8b ba3e 0464 bc3e ec73 d2be 8474 e43e
000000d0: 60e6 95be eb33 bcbe 66f8 c3be 023b bbbe
000000e0: 3242 d63e aa92 bdbe 63e9 c73e f38a cbbe
000000f0: 9d33 8ebe 5c97 303e fde1 ed3e a35d eabe

convs.1.linear2.weight f4 [64, 64]
-0.33167738 -0.2525519 -0.4205552 0.45696673 -0.2559342 0.3914857 -0.25938156 0.6558596
0.5014599 -0.48566857 0.39789954 -0.43546247 0.25405478 -0.5070098 0.35756794 -0.43957052
-0.29039577 0.36924765 0.31058702 0.39798382 0.80468255 0.38255453 -0.55151343 0.4570465
0.4908844 0.1272059 -0.8712479 0.30534774 0.3835296 -0.3981505 -0.30447942 0.36291847
-0.43450624 -0.3330864 0.3060156 0.26482117 0.32116196 -0.2184231 -0.47351658 0.5232413
-0.39797238 0.26303083 0.34528628 0.54891634 0.3158121 -0.2917992 0.37691945 -0.33004698
0.41561496 0.41950974 -0.43338433 0.43795374 -0.35357672 -0.5665926 -0.26708254 -0.26827726
0.56932944 -0.5053696 0.34366566 -0.37514532 -0.5396447 0.15538059 0.22646247 -0.21589112
-0.404745 -0.24427503 -0.37250003 0.44594392 -0.33195597 0.39490366 -0.31441638 0.7505194
0.32014748 -0.48575708 0.3928381 -0.45158362 0.39936 -0.351126 0.4148572 -0.47914127
-0.35457078 0.34023148 0.285076 0.27657226 0.83592296 0.20743129 -0.4370508 0.3229771
0.46569115 0.08144894 -0.7079567 0.32962966 0.36999178 -0.5009731 -0.3662456 0.42468706
-0.51059943 -0.40496427 0.50346696 0.26224175 0.29407546 -0.27106333 -0.30950955 0.48093912
-0.36211336 0.19434713 0.39485413 0.5976266 0.3257175 -0.33194867 0.24418911 -0.36919826
0.46681982 0.29742342 -0.5761212 0.4017007 -0.22588432 -0.56850743 -0.43012238 -0.1989834
0.46240547 -0.3436909 0.2657468 -0.4638342 -0.5024897 0.09602305 0.33662263 -0.21852872
0.39396808 0.13636367 0.33354053 -0.3831548 0.20368104 -0.32563832 0.347415 -0.67393726
-0.45970407 0.38616133 -0.36244175 0.31501424 -0.30391222 0.41710427 -0.20907219 0.33481568
0.37370846 -0.4116405 -0.20344785 -0.30857068 -0.792302 -0.3351173 0.3822286 -0.31940642
-0.27934408 -0.024544038 0.6357663 -0.31364518 -0.1921089 0.37949124 0.39424238 -0.2553248
0.3182772 0.19798887 -0.38502187 -0.27671555 -0.13898014 0.33106264 0.23812169 -0.41704544
0.24433814 -0.20832731 -0.32137 -0.54656535 -0.2635262 0.23965698 -0.25402543 0.29422027
-0.49225995 -0.42808893 0.3805021 -0.2917882 0.28176102 0.38304514 0.36207068 0.36916545
-0.58020335 0.41399378 -0.31764778 0.23206775 0.34782413 0.036715467 -0.33291095 0.22500265
-0.46216387 -0.2541637 -0.36883825 0.35327536 -0.345194 0.47678253 -0.28479546 0.6124578
0.43520448 -0.35585874 0.2714749 -0.41804317 0.36803317 -0.376363 0.21918039 -0.4067048
-0.28724813 0.3357752 0.25124475 0.39704522 0.76429355 0.3693931 -0.52116734 0.3392091
0.48793495 0.24674538 -0.65287143 0.15465988 0.21460092 -0.45661405 -0.2869077 0.45175657
-0.4120402 -0.38449478 0.4200377 0.35794443 0.21581358 -0.23384419 -0.4104701 0.37877387
-0.39084792 0.16251072 0.3649574 0.57715994 0.36182937 -0.25933507 0.43727458 -0.49482894
0.43272135 0.4670781 -0.58846015 0.31961876 -0.28871402 -0.34910056 -0.39478794 -0.18796086
0.61894625 -0.4354378 0.35005507 -0.30996102 -0.460954 0.20997804 0.36411625 -0.18085231
00000000: 9ed1 a9be 7c4e 81be 0353 d7be 8bf7 e93e
00000010: cf09 83be d070 c83e a9cd 84be 6ae6 273f
00000020: ad5f 003f 8da9 f8be 7db9 cb3e f0f4 debe
00000030: 7813 823e 65cb 01bf 2513 b73e 630f e1be
00000040: c1ae 94be 070e bd3e 4305 9f3e 89c4 cb3e
00000050: adff 4d3f 30de c33e fc2f 0dbf 0002 ea3e
00000060: 3355 fb3e 4342 023e 1a0a 5fbf 8a56 9c3e
00000070: fe5d c43e 62da cbbe bae4 9bbe 73d0 b93e
00000080: 9a77 debe 4d8a aabe 14ae 9c3e a496 873e
00000090: 576f a43e 4eaa 5fbe c470 f2be 24f3 053f
000000a0: 09c3 cbbe faab 863e 5dc9 b03e c885 0c3f
000000b0: 20b2 a13e b466 95be 96fb c03e ebfb a8be
000000c0: 7ccb d43e fbc9 d63e 8de4 ddbe 793b e03e
000000d0: 0208 b5be 360c 11bf 0bbf 88be a35b 89be
000000e0: 93bf 113f e75f 01bf f2f4 af3e 0c13 c0be
000000f0: 2826 0abf 171c 1f3e c7e5 673e 9012 5dbe
00000100: bd3a cfbe 3c23 7abe 53b8 bebe c352 e43e
00000110: 22f6 a9be d030 ca3e 2ffb a0be 0a22 403f
00000120: 5fea a33e 27b5 f8be 1322 c93e f835 e7be
00000130: ea78 cc3e c9c6 b3be 2a68 d43e 0152 f5be
00000140: 4d8a b5be d232 ae3e 7bf5 913e e19a 8d3e
00000150: 0cff 553f de68 543e 1fc5 dfbe 415d a53e
00000160: 126f ee3e b4ce a63d a63c 35bf 38c5 a83e
00000170: 906f bd3e c63f 00bf 8b84 bbbe 9570 d93e
00000180: a5b6 02bf 7a57 cfbe 36e3 003f 8d44 863e
00000190: 0f91 963e d0c8 8abe 0978 9ebe a73d f63e
000001a0: ec66 b9be ef02 473e 522a ca3e 0ffe 183f
000001b0: 72c4 a63e 2df5 a9be b60c 7a3e 8e07 bdbe
000001c0: 0203 ef3e e247 983e ae7c 13bf b7ab cd3e
000001d0: 384e 67be b489 11bf 0039 dcbe 4ec2 4bbe
000001e0: 69c0 ec3e 41f8 afbe f70f 883e ad7b edbe
000001f0: 2aa3 00bf bca7 c43d cd59 ac3e fec5 5fbe
00000200: 2fb6 c93e eba2 0b3e d3c5 aa3e de2c c4be
00000210: c391 503e 11ba a6be 61e0 b13e 2787 2cbf
00000220: 555e ebbe f0b6 c53e f791 b9be 8c49 a13e
00000230: 629a 9bbe b18e d53e 0517 56be f66c ab3e
00000240: b756 bf3e 8bc2 d2be a254 50be fafc 9dbe
00000250: 4ed4 4abf 7f94 abbe 78b3 c33e 3d89 a3be
00000260: 3006 8fbe 9410 c9bc 95c1 223f 1a96 a0be
00000270: 32b8 44be ad4c c23e 23da c93e efb9 82be
00000280: 3bf5 a23e 98bd 4a3e 9621 c5be a9ad 8dbe
00000290: cf50 0ebe 0b81 a93e 2cd6 733e fb86 d5be
000002a0: c733 7a3e c153 55be 9c8a a4be b5eb 0bbf
000002b0: e8ec 86be a468 753e 9f0f 82be 0aa4 963e
000002c0: 7f09 fcbe 792e dbbe 2cd1 c23e 4365 95be
000002d0: fb42 903e 7e1e c43e 5461 b93e 4103 bd3e
000002e0: 3588 14bf fef6 d33e bba2 a2be 2ba3 6d3e
000002f0: 0116 b23e f562 163d 4e73 aabe 1867 663e
00000300: bea0 ecbe bf21 82be 5ed8 bcbe 82e0 b43e
00000310: 45bd b0be d71c f43e b6d0 91be 09ca 1c3f
00000320: 1fd3 de3e 1e33 b6be c2fe 8a3e c109 d6be
00000330: d86e bc3e a7b2 c0be d370 603e 9d3b d0be
00000340: 3012 93be baea ab3e 27a3 803e 8349 cb3e
00000350: bea8 433f 1821 bd3e 396b 05bf d1ac ad3e
00000360: 9cd2 f93e d2aa 7c3e 9522 27bf 295f 1e3e
00000370: 58c0 5b3e 51c9 e9be 91e5 92be a34c e73e
00000380: eff6 d2be 80dc c4be 2e0f d73e 7e44 b73e
00000390: 3cfe 5c3e da74 6fbe 2329 d2be a6ee c13e
000003a0: 381d c8be 3669 263e b2db ba3e c1c0 133f
000003b0: b341 b93e 91c7 84be 74e2 df3e 385a fdbe
000003c0: a78d dd3e dc24 ef3e 53a5 16bf 12a5 a33e
000003d0: 53d2 93be 4fbd b2be a521 cabe d078 40be
000003e0: 4373 1e3f b4f1 debe 6b3a b33e 36b3 9ebe
000003f0: 2a02 ecbe 7c04 573e 726d ba3e 5931 39be

convs.1.linear2.bias f4 [64]
0.4278352 0.33617312 -0.3525093 0.38872015 -0.22258243 0.0059466334 -0.43129492 -0.10500677
0.3755917 0.35455278 -0.34664243 0.3595661 -0.004419622 -0.30117768 0.37916574 -0.048222743
0.34561315 -0.42476192 -0.38356987 0.34987718 -0.39719144 -0.33269903 0.33016768 0.42149585
-0.3340149 -0.3611275 0.448878 -0.25316367 -0.3798365 -0.35519198 0.36625046 0.3584247
-0.38141936 -0.35517192 -0.41562006 -0.3369337 -0.3642935 -0.33705643 0.34976023 -0.3491555
0.34860945 0.34884343 -0.42261142 0.369244 -0.32965872 -0.2881512 -0.33418542 -0.25923097
-0.3053694 0.26852533 0.4390685 -0.39889607 0.36273485 0.38172603 -0.29121518 -0.32520282
-0.0103522055 0.3815736 0.41045818 -0.3899823 -0.39382514 -0.41126615 0.31975356 -0.41811243
00000000: 370d db3e e21e ac3e 197c b4be 5406 c73e
00000010: a6ec 63be fadb c23b b0d2 dcbe ca0d d7bd
00000020: 8e4d c03e f187 b53e 1e7b b1be 0c19 b83e
00000030: 7ad2 90bb f633 9abe 0322 c23e 3685 45bd
00000040: 35f4 b03e 657a d9be 4563 c4be 1a23 b33e
00000050: ad5c cbbe 8757 aabe bd0b a93e 4ece d73e
00000060: 0004 abbe b4e5 b8be 56d3 e53e ab9e 81be
00000070: ee79 c2be b9db b5be 2e85 bb3e 7183 b73e
00000080: 6649 c3be 18d9 b5be 27cc d4be 9382 acbe
00000090: ad84 babe a992 acbe c613 b33e 82c4 b2be
000000a0: f07c b23e 9b9b b23e 8660 d8be 8d0d bd3e
000000b0: 07c9 a8be 8e88 93be 5a1a abbe ecb9 84be
000000c0: 6159 9cbe 277c 893e 96cd e03e 1b3c ccbe
000000d0: 62b8 b93e 9871 c33e 281a 95be fc80 a6be
000000e0: 4c9c 29bc 9d5d c33e 9327 d23e c3ab c7be
000000f0: 73a3 c9be 7a91 d2be bdb6 a33e d512 d6be

mlp1.weight f4 [64, 192]
-0.18916883 0.14189754 -0.17935735 0.050796952 -0.083344094 0.17003371 -0.278499 0.24747266
0.17592242 -0.09669469 0.075115204 0.028424356 0.31135717 0.23485835 0.06643822 0.32003653
-0.18881276 -0.13547926 -0.12968244 -0.059640832 -0.008753367 -0.2211893 -0.12654933 0.19178782
-0.06482799 -0.29451278 -0.2364642 0.22623612 0.13050288 -0.13713492 -0.04734387 -0.2150045
-0.14994703 0.14845094 -0.15622367 -0.18422098 -0.22410534 0.14635307 -0.2141355 0.1439669
-0.22957474 -0.0818679 -0.29819542 0.36383507 0.18603143 0.23792008 -0.13299954 -0.2659982
0.21591271 -0.10867305 -0.15351287 -0.21908158 -0.23504218 0.08371632 -0.185127 0.27455765
-0.060269855 -0.2531202 -0.045451853 0.14124855 0.04783037 0.3357895 0.036896393 -0.25915784
-0.14589158 0.13649687 0.12106799 -0.08131024 -0.116651095 0.11849749 -0.09084977 -0.093692616
0.13162854 0.123405956 -0.093027025 0.13899726 -0.047945566 0.02618665 -0.12626027 -0.11119909
-0.008862687 -0.07354497 0.07027895 0.117133535 -0.16046113 0.0004510621 -0.1773496 -0.17044379
-0.12506448 -0.17856504 -0.08272038 -0.15302734 -0.04146233 -0.129804 -0.06245066 -0.052563325
-0.17518227 0.64054793 0.11987606 -0.038981114 0.1052486 -0.02516459 -0.043983974 -0.17867059
0.62237674 -0.16649444 0.14000198 0.06558757 -0.2321736 0.04428166 -0.086941026 -0.085978866
0.07562748 -0.087139554 0.109243296 -0.14959638 -0.04665344 -0.021366963 -0.12500697 0.52559984
-0.09725448 -0.05977755 -0.119176 -0.038458034 0.62724686 -0.12723778 0.033610467 -0.050801426
0.32543883 0.34749994 -0.32763782 0.23745951 -0.34622955 0.14788876 -0.27205372 -0.5101008
0.23807967 0.33411106 -0.3298186 0.34314623 -0.41369525 -0.37216675 0.2689069 -0.6912273
0.33828574 -0.3192431 -0.262227 0.38714918 -0.26710048 -0.33907464 0.25436997 0.3328597
-0.29177523 -0.3079805 0.33508652 -0.36049566 -0.23934379 -0.30403572 0.33507043 0.30027378
-0.20425552 -0.34866214 -0.2610335 -0.34909344 -0.38300502 -0.27671102 0.31949624 -0.25321493
0.26232827 0.27968836 -0.3207344 0.28711 -0.29483703 -0.31415147 -0.33900613 -0.41063625
-0.24687034 0.30891418 0.31126225 -0.2988186 0.23306336 0.29383093 -0.37462047 -0.34966716
-0.60149276 0.25845873 0.25017184 -0.26879358 -0.33792582 -0.22603108 0.3468268 -0.25708863
-0.049008105 -0.23348202 -0.25807598 0.3095588 0.16221382 -0.05184003 0.21870951 -0.10312107
-0.13405362 -0.39677846 0.0060572177 0.08131626 -0.16881292 -0.010783553 0.19716744 -0.06384479
0.10658708 0.062802464 0.00752599 0.22438501 -0.037019003 0.099595994 0.31077945 -0.095580794
-0.36690894 0.09080285 0.15798563 0.014452979 0.29061708 -0.047984388 0.21588226 -0.19319144
0.3334291 0.30095544 -0.0015543384 0.07997749 -0.2097024 -0.31338826 0.26113614 -0.29540664
0.25488016 -0.26385888 0.25137186 0.0072191795 -0.21146445 -0.14233151 -0.09019255 0.117128946
0.01465758 0.3707437 -0.057094526 0.34181258 0.30292392 0.222985 0.115551904 -0.20641318
0.34685865 0.11183909 0.0048944913 0.16940124 0.4659962 -0.19366112 -0.33762163 0.049201723
00000000: 79b5 41be 974d 113e 74a9 37be 7710 503d
00000010: 4fb0 aabd 511d 2e3e 6c97 8ebe 7969 7d3e
00000020: 0225 343e de07 c6bd 00d6 993d 32da e83c
00000030: 356a 9f3e b57e 703e c310 883d d4db a33e
00000040: 2258 41be 13bb 0abe 79cb 04be f249 74bd
00000050: 486a 0fbc 737f 62be 2696 01be 0764 443e
00000060: 8ac4 84bd 61ca 96be ac23 72be 71aa 673e
00000070: 8ca2 053e 196d 0cbe a5eb 41bd 242a 5cbe
00000080: b78b 19be 8603 183e 19f9 1fbe 6da4 3cbe
00000090: df7b 65be 94dd 153e 5646 5bbe 0f6c 133e
000000a0: a415 6bbe 5caa a7bd 12ad 98be 9748 ba3e
000000b0: 067f 3e3e 52a1 733e 0831 08be eb30 88be
000000c0: 3918 5d3e fa8f debd 7a32 1dbe ec56 60be
000000d0: e6ae 70be 7673 ab3d ef91 3dbe d292 8c3e
000000e0: 86dd 76bd f998 81be b92b 3abd 76a3 103e
000000f0: c7e9 433d 9aec ab3e ac20 173d 56b0 84be
00000100: 9a64 15be d6c5 0b3e 7ff2 f73d fc85 a6bd
00000110: c5e6 eebd d0ae f23d 720f babd eae1 bfbd
00000120: a2c9 063e 43bc fc3d f484 bebd 4c55 0e3e
00000130: 9262 44bd 6385 d63c 5f4a 01be 59bc e3bd
00000140: ce34 11bc bf9e 96bd 69ee 8f3d b5e3 ef3d
00000150: ec4f 24be 887c ec39 229b 35be d188 2ebe
00000160: e710 00be c1d9 36be 4d69 a9bd 33b3 1cbe
00000170: 67d4 29bd 57eb 04be 43cc 7fbd a44c 57bd
00000180: fb62 33be f3fa 233f 9481 f53d a9aa 1fbd
00000190: 948c d73d f825 cebc 8a28 34bd 6cf5 36be
000001a0: 1554 1f3f 857d 2abe ae5c 0f3e c752 863d
000001b0: ebbe 6dbe b060 353d 230e b2bd b015 b0bd
000001c0: 95e2 9a3d 3976 b2bd f3ba df3d cb2f 19be
000001d0: ad17 3fbd c509 afbc d401 00be b68d 063f
000001e0: 5b2d c7bd 4ed9 74bd 8c12 f4bd 2c86 1dbd
000001f0: 4093 203f 9f4a 02be 21ab 093d 2815 50bd
00000200: eb9f a63e 83eb b13e 25c0 a7be 9628 733e
00000210: 0045 b1be 2770 173e a04a 8bbe f795 02bf
00000220: 28cb 733e 9b10 ab3e fcdd a8be ddb0 af3e
00000230: ddcf d3be a48c bebe 2aae 893e 46f4 30bf
00000240: ca33 ad3e d573 a3be 9e42 86be 6b38 c63e
00000250: 65c1 88be 319b adbe c83c 823e 966c aa3e
00000260: 9063 95be 9faf 9dbe 7690 ab3e e392 b8be
00000270: 8a16 75be 92aa 9bbe 5a8e ab3e 7cbd 993e
00000280: 5c28 51be d883 b2be 2fa6 85be 60bc b2be
00000290: 3c19 c4be 11ad 8dbe 0395 a33e 63a5 81be
000002a0: e44f 863e 5033 8f3e 4d37 a4be 1500 933e
000002b0: e1f4 96be 76d8 a0be 3692 adbe ea3e d2be
000002c0: 94cb 7cbe 002a 9e3e c45d 9f3e c0fe 98be
000002d0: 29a8 6e3e 0271 963e 41ce bfbe 9307 b3be
000002e0: 6efb 19bf b454 843e 8616 803e 509f 89be
000002f0: 9d04 adbe b174 67be 4893 b13e 1fa1 83be
00000300: b9bc 48bd e915 6fbe 8922 84be 7e7e 9e3e
00000310: 611b 263e 3656 54bd 63f5 5f3e 2431 d3bd
00000320: 5a45 09be 8c26 cbbe a07b c63b 2489 a63d
00000330: 4bdd 2cbe 80ad 30bc 43e6 493e 0fc1 82bd
00000340: 544a da3d 949e 803d 949c f63b 2fc5 653e
00000350: 3da1 17bd fcf8 cb3d 7c1e 9f3e ddbf c3bd
00000360: 7ddb bbbe d8f6 b93d fcc6 213e 30cc 6c3c
00000370: c3cb 943e 478b 44bd 3d10 5d3e fad3 45be
00000380: 38b7 aa3e d516 9a3e f1ba cbba 3dcb a33d
00000390: 3abc 56be 6d74 a0be a3b3 853e 8a3f 97be
000003a0: a77f 823e 8318 87be d0b3 803e de8e ec3b
000003b0: 238a 58be 5abf 11be dfb6 b8bd 4de1 ef3d
000003c0: 5926 703c 1ed2 bd3e f3db 69bd 0f02 af3e
000003d0: d818 9b3e 2e56 643e 7aa6 ec3d fa5d 53be
000003e0: 7597 b13e e50b e53d f861 a03b 8577 2d3e
000003f0: 0e97 ee3e 1a4f 46be bedc acbe bf87 493d

mlp1.bias f4 [64]
0.19846143 0.12190609 -0.038508132 -0.10578897 0.21033166 0.15441762 0.18449353 0.15762807
-0.030725809 -0.10609433 0.14480013 0.14714402 0.028585419 0.19918908 0.01448189 0.2230533
0.1462589 0.13969596 0.27776438 0.07580047 -0.085944705 0.15903516 0.13150954 0.076598704
0.010016537 -0.061946172 0.06345947 0.13764028 -0.014205219 0.08941076 0.18837257 0.039196208
0.14860448 0.09014839 0.12751728 0.1792027 0.058134556 0.11242255 0.15035145 0.1763891
0.15828727 0.069832206 -0.02861859 0.03383672 0.2703948 0.16294536 0.11207245 0.20626286
0.21991509 0.028516985 0.058572985 0.1403102 0.13859282 0.10045243 0.08133976 -0.117662035
-0.0069006486 -0.09802106 0.24782644 0.22867544 -0.023837376 0.02010295 -0.0380884 0.08395773
00000000: 7939 4b3e e6a9 f93d b4ba 1dbd e3a7 d8bd
00000010: 2f61 573e a71f 1e3e dfeb 3c3e 4169 213e
00000020: b1b4 fbbc fc47 d9bd 7c46 143e ecac 163e
00000030: f82b ea3c 39f8 4b3e 7345 6d3c 1668 643e
00000040: e5c4 153e 750c 0f3e 2237 8e3e 473d 9b3d
00000050: c703 b0bd 1dda 223e 70aa 063e c8df 9c3d
00000060: 671c 243c 45bb 7dbd 0af7 813d 93f1 0c3e
00000070: 02bd 68bc fd1c b73d bde4 403e 348c 203d
00000080: c62b 183e b89f b83d e493 023e ea80 373e
00000090: 801e 6e3d cb3d e63d bbf5 193e 589f 343e
000000a0: 0f16 223e 3004 8f3d 8971 eabc 5f98 0a3d
000000b0: 3071 8a3e 26db 263e 3e86 e53d 9236 533e
000000c0: 6c31 613e 749c e93c 3aea 6f3d 7aad 0f3e
000000d0: 47eb 0d3e 01ba cd3d 7695 a63d cbf8 f0bd
000000e0: d61e e2bb 44bf c8bd 37c6 7d3e e529 6a3e
000000f0: 9a46 c3bc f1ae a43c 9502 1cbd 08f2 ab3d
